checkpoints/fine_tune/var_rf/gtzan/0.2/model_faithful-hill-196_finetune_finetune_finetune_HAI_GIA/it_2856_loss_4.4598_acc10.17_acc20.33.pt (torch, 437010 bytes, 211 tensors)

conv1.weight f4 [16, 1, 3, 3]
0.26964626 -0.051423855 -0.26867974 0.34919134 -0.11807809 -0.3371945 0.22789001 0.20730148
-0.27034587 0.32672152 -0.48658952 -0.4024291 0.2616084 -0.28335467 0.11135911 0.11388419
0.17717879 0.07018672 -0.26633942 0.3999513 0.19163579 -0.21404743 0.35622665 0.05889472
-0.49012172 0.18449928 -0.18053994 -0.27783757 -0.11400318 0.3397403 -0.34990624 0.091388166
0.18893011 0.36849844 0.058637526 -0.49354964 -0.22051448 -0.20859717 -0.15489954 -0.21481061
0.18100607 0.28744695 -0.032218024 -0.042554196 -0.21220936 -0.07892408 0.08348423 -0.08447938
-0.83102834 0.29836014 0.45810664 -0.25459877 0.2961524 -0.05211903 0.3073086 0.0036849198
-0.105267994 -0.09505325 0.20395313 -0.36845022 -0.11469746 0.13377714 -0.2302591 0.008954268
0.02183804 0.26391435 -0.4233429 -0.14310339 -0.09485952 0.12664813 -0.050573267 0.5578491
-0.33766016 0.14046185 -0.27949902 -0.38104656 0.41486174 0.38330337 -0.15846309 0.4286006
0.14292558 -0.65128773 0.0934283 0.52005976 0.014283823 -0.22419827 0.1990729 -0.35616064
-0.01140893 0.3039441 -0.49359336 0.040483207 0.310697 -0.23144585 -0.21463883 0.3075852
0.09148085 -0.12565571 -0.02363073 0.13417254 0.40168396 -0.14605157 0.22008663 0.3716187
-0.18034801 0.34523585 0.081645966 -0.0851874 0.13420491 0.14079441 0.03238396 -0.10883789
-0.16871005 -0.39749053 0.2772194 0.33015326 -0.18019608 0.22852094 -0.11996686 -0.29283068
0.3311646 0.2934098 0.11409286 -0.1796103 0.22300708 -0.46126676 0.33091384 0.17899308
-0.13292715 0.4142106 -0.27632344 0.014141728 0.23916507 -0.27576393 -0.40614837 -0.14555272
-0.033378776 0.30519605 -0.12958834 0.052207947 0.3680554 -0.51395375 -0.24077831 0.548047
00000000: 130f 8a3e d2a1 52bd 6490 89be 35c9 b23e
00000010: edd2 f1bd c2a4 acbe 005c 693e d746 543e
00000020: c66a 8abe 0b48 a73e 4322 f9be 300b cebe
00000030: 89f1 853e dd13 91be 3f10 e43d 1d3c e93d
00000040: 5b6e 353e 0ebe 8f3d a45d 88be 6bc6 cc3e
00000050: 2c3c 443e 402f 5bbe 5763 b63e 973b 713d
00000060: 3cf1 fabe 61ed 3c3e 76df 38be ba40 8ebe
00000070: 807a e9bd 71f2 ad3e e926 b3be b829 bb3d
00000080: e576 413e d4ab bc3e e72d 703d 8ab2 fcbe
00000090: 8cce 61be 7f9a 55be fc9d 1ebe 50f7 5bbe
000000a0: a859 393e 3f2c 933e 0cf7 03bd 4f4d 2ebd
000000b0: 694d 59be f3a2 a1bd c8f9 aa3d 8603 adbd
000000c0: 46be 54bf a9c2 983e f48c ea3e c55a 82be
000000d0: 4aa1 973e c47a 55bd 8e57 9d3e b27e 713b
000000e0: bf96 d7bd 47ab c2bd 17d9 503e 82a5 bcbe
000000f0: 80e6 eabd e0fc 083e 0bc9 6bbe ecb4 123c
00000100: b0e5 b23c c81f 873e 67c0 d8be b289 12be
00000110: b545 c2bd 0cb0 013e ea25 4fbd 33cf 0e3f
00000120: cbe1 acbe 3bd5 0f3e 7f1a 8fbe 8918 c3be
00000130: c268 d43e 5740 c43e 2644 22be 8a71 db3e
00000140: 155b 123e cbba 26bf 5657 bf3d a322 053f
00000150: b206 6a3c 3b94 65be c4d9 4b3e b05a b6be
00000160: 85ec 3abc 909e 9b3e 45b8 fcbe b8d1 253d
00000170: ad13 9f3e 2400 6dbe 48ca 5bbe cf7b 9d3e
00000180: 505a bb3d e4ab 00be 3c95 c1bc 8764 093e
00000190: 85a9 cd3e 8b8e 15be 645e 613e ce44 be3e
000001a0: 26ad 38be c1c2 b03e 0036 a73d bb76 aebd
000001b0: 036d 093e 692c 103e 0ba5 043d 66e6 debd
000001c0: 54c2 2cbe e183 cbbe b4ef 8d3e d909 a93e
000001d0: 5285 38be 6501 6a3e 2fb1 f5bd e7ed 95be
000001e0: 688e a93e cf39 963e 84a9 e93d c3eb 37be
000001f0: f85b 643e 282b ecbe 8a6d a93e f649 373e
00000200: 0e1e 08be 6913 d43e 447a 8dbe b5b2 673c
00000210: b0e7 743e ee30 8dbe aef2 cfbe c60b 15be
00000220: 2fb8 08bd a842 9c3e ceb2 04be 00d8 553d
00000230: c271 bc3e 7992 03bf 978e 76be cf4c 0c3f

conv1.bias f4 [16]
-0.0005674259 0.09108266 -0.04684075 -0.028840091 -0.19155997 -0.11121556 0.14069141 0.011890429
0.005226426 0.053766217 -0.031839363 -0.22675014 0.08439969 -0.046491023 -0.033763014 -0.11723788
00000000: 4fbf 14ba 8c89 ba3d 16dc 3fbd 0e42 ecbc
00000010: 4c28 44be fcc4 e3bd 6911 103e 13d0 423c
00000020: 7042 ab3b f739 5c3d fe69 02bd 3031 68be
00000030: bfd9 ac3d 5f6d 3ebd 164b 0abd 6a1a f0bd

conv2.weight f4 [16, 16, 3, 3]
-0.16028033 -0.041264955 -0.01389824 -0.12317425 -0.2082405 -0.2404233 -0.056321915 0.03772303
-0.11634462 0.008365916 -0.04382218 0.017022857 -0.0634044 0.038061287 -0.10960633 -0.08791481
-0.018076755 -0.2922761 0.028457215 -0.26928756 -0.055783484 0.23036648 -0.28777868 -0.055686414
0.2956706 -0.24737477 -0.14704074 -0.1380903 0.07382351 0.16709605 -0.05239739 0.13967477
0.33781216 0.38935357 0.46690288 0.529853 -0.0072045177 -0.0064271037 -0.17582028 -0.05664018
-0.14499894 -0.25226396 0.0036603247 -0.14194834 -0.107756995 0.27450776 -0.04961122 0.38125092
0.25183484 -0.11133224 0.30633062 0.4815261 0.06541411 0.39418164 0.08692519 -0.12794547
-0.13995671 0.009214449 -0.08801086 -0.19582936 -0.028846983 -0.085069604 -0.05599869 0.2290574
0.14168727 -0.078286484 0.2236548 0.0038092805 -0.24222074 -0.021251602 -0.016400525 -0.22895904
0.1345228 -0.15250297 0.0024513311 0.23338684 -0.18511476 -0.06379145 0.093262605 -0.16361238
-0.14767992 0.025590159 0.2319336 0.24250707 0.21542658 0.33488223 0.35203272 0.285003
0.16019419 0.3058659 0.05765461 0.01304265 -0.0007012731 0.013671677 -0.011925884 0.13434108
0.012033277 -0.04133689 0.09909188 -0.12661827 -0.20952049 -0.21064818 -0.16669968 -0.2682374
-0.3287998 -0.122064754 -0.10053839 -0.25726533 -0.09147174 -0.09096426 -0.18082032 -0.0063317134
-0.102024116 -0.17585346 0.02108157 0.04938019 -0.071122944 0.09562539 -0.11544648 -0.04534613
0.034995757 -0.15422133 -0.13220996 0.09485815 -0.016847927 -0.2435389 -0.20970455 -0.21989581
-0.16278072 -0.23717381 -0.0913862 0.009732485 -0.06243442 0.0803067 -0.035608985 0.008227099
-0.0064393156 0.06239199 -0.06524249 0.026862292 0.1159508 0.09372995 -0.033130784 0.0775226
0.23307991 0.062478263 0.1906361 0.10012649 0.16050443 0.117610745 0.053750392 0.0818402
0.038125996 0.31327558 -0.119438894 0.29903254 0.101668924 -0.11183575 0.1233832 0.26700196
-0.14516896 0.027331285 -0.21459411 0.5896895 -0.045075044 -0.5548668 0.16505985 -0.06337347
-0.5816703 0.15864222 -0.22401503 -0.40681937 -0.26213142 -0.062437136 -0.07208462 0.11108118
0.27577052 -0.04225471 0.10933033 0.17395717 0.14219388 0.1791091 0.1588908 0.018733995
0.08461704 -0.0396688 0.031523347 0.09162974 -0.0026782476 -0.393055 0.27265143 -0.042379018
-0.45547798 0.09059736 -0.09166317 -0.52185273 0.2754643 0.006129127 -0.008733904 0.14961609
-0.07703466 0.13150449 0.12841418 0.108246975 0.10322098 0.17470957 0.13716395 0.2963542
0.100068964 -0.018438261 0.0017627147 -0.0191299 0.086605415 0.011244193 -0.0031597523 -0.21135867
-0.43645945 0.23992659 -0.09931352 -0.37037346 0.18670475 -0.015237145 -0.5765332 0.16303559
0.09768014 -0.0015228572 -0.0646223 -0.014500292 -0.13353613 -0.07757326 0.17596887 -0.1322865
0.13163184 0.1657016 0.19394045 -0.14329077 0.015006594 -0.06908323 -0.014188647 -0.052724335
-0.03144758 -0.12600261 0.07071618 -0.26681292 -0.060026005 0.21896891 -0.11415846 -0.08385837
0.113684736 -0.096376225 0.0045653265 0.13891482 0.066542424 -0.06700345 -0.09402849 -0.044718858
00000000: 8720 24be 7105 29bd 72b5 63bc c842 fcbd
00000010: ff3c 55be 8731 76be cfb1 66bd 7783 1a3d
00000020: 1746 eebd 3211 093c e37e 33bd 8573 8b3c
00000030: 2bda 81bd 27e6 1b3d 4979 e0bd ae0c b4bd
00000040: b415 94bc 37a5 95be 1b1f e93c 0fe0 89be
00000050: 397d 64bd 31e5 6b3e ba57 93be 7017 64bd
00000060: 2362 973e d04f 7dbe d991 16be 8b67 0dbe
00000070: c830 973d 3a1b 2b3e a59e 56bd e706 0f3e
00000080: b7f5 ac3e 5a59 c73e e50d ef3e 72a4 073f
00000090: e013 ecbb 749a d2bb 3b0a 34be 89ff 67bd
000000a0: 9a7a 14be be28 81be 0fe2 6f3b e85a 11be
000000b0: b3af dcbd 488c 8c3e 2235 4bbd 5233 c33e
000000c0: 7ff0 803e 2802 e4bd 5ed7 9c3e 978a f63e
000000d0: d5f7 853d 2dd2 c93e d605 b23d 2304 03be
000000e0: d050 0fbe 33f8 163c 0a3f b4bd 7e87 48be
000000f0: 8250 ecbc f938 aebd e25e 65bd 068e 6a3e
00000100: 7816 113e aa54 a0bd c405 653e 1fa5 793b
00000110: b708 78be d717 aebc 655a 86bc 3d74 6abe
00000120: 58c0 093e bd29 1cbe 83a6 203b f6fc 6e3e
00000130: b98e 3dbe 17a5 82bd 7700 bf3d 018a 27be
00000140: 6839 17be 74a2 d13c 0080 6d3e c653 783e
00000150: c998 5c3e af75 ab3e a23d b43e eaeb 913e
00000160: f209 243e 759a 9c3e 3e27 6c3d d7b0 553c
00000170: a4d5 37ba 2bff 5f3c c864 43bc b590 093e
00000180: 3927 453c df50 29bd aff0 ca3d 38a8 01be
00000190: 8a8c 56be 28b4 57be 52b3 2abe 6a56 89be
000001a0: 7358 a8be 16fd f9bd 12e7 cdbd 48b8 83be
000001b0: 8955 bbbd 784b babd f628 39be 437a cfbb
000001c0: 05f2 d0bd ee12 34be 42b3 ac3c e242 4a3d
000001d0: e8a8 91bd 3fd7 c33d 346f ecbd ddbc 39bd
000001e0: b657 0f3d 32ec 1dbe 0c62 07be fd44 c23d
000001f0: aa04 8abc 4362 79be cabc 56be 5e2c 61be
00000200: fdaf 26be b1dd 72be b028 bbbd 0075 1f3c
00000210: 3cbb 7fbd d777 a43d bada 11bd f4ca 063c
00000220: e500 d3bb be8e 7f3d db9d 85bd 4f0e dc3c
00000230: 9d77 ed3d 7df5 bf3d 25b4 07bd 2bc4 9e3d
00000240: 80ac 6e3e 35e9 7f3d 1c36 433e 1e0f cd3d
00000250: 465b 243e e7dd f03d 5f29 5c3d d69b a73d
00000260: 012a 1c3d a865 a03e 619c f4bd cb1a 993e
00000270: cc37 d03d 240a e5bd 55b0 fc3d 7bb4 883e
00000280: 2ca7 14be dce5 df3c 8fbe 5bbe e4f5 163f
00000290: 9ca0 38bd c00b 0ebf 7305 293e f3c9 81bd
000002a0: 58e8 14bf 1b73 223e 3264 65be a14a d0be
000002b0: 1736 86be 15be 7fbd 1aa1 93bd 887e e33d
000002c0: cb31 8d3e 4613 2dbd 94e8 df3d d421 323e
000002d0: 469b 113e 6068 373e 45b4 223e 0978 993c
000002e0: b34b ad3d c07b 22bd a01e 013d 60a8 bb3d
000002f0: 8a85 2fbb 813e c9be f898 8b3e 9f95 2dbd
00000300: 6934 e9be 1c8b b93d e6b9 bbbd 2498 05bf
00000310: a809 8d3e d8d6 c83b a618 0fbc f634 193e
00000320: 59c4 9dbd 1da9 063e 027f 033e 97b0 dd3d
00000330: 8565 d33d 11e7 323e b574 0c3e bdbb 973e
00000340: f5f0 cc3d d60b 97bc e40a e73a 4fb6 9cbc
00000350: 2e5e b13d 9039 383c d913 4fbb 686e 58be
00000360: 9d77 dfbe 51af 753e e364 cbbd 97a1 bdbe
00000370: 882f 3f3e 38a5 79bc ae97 13bf cdf2 263e
00000380: 860c c83d 9c9a c7ba b258 84bd a292 6dbc
00000390: b2bd 08be bbde 9ebd 2f31 343e 1d76 07be
000003a0: 7fca 063e aead 293e 5398 463e d1ba 12be
000003b0: 38de 753c 827b 8dbd 8077 68bc 79f5 57bd
000003c0: 2dcf 00bd d406 01be a5d3 903d b49b 88be
000003d0: d4dd 75bd 6339 603e e9cb e9bd f0bd abbd
000003e0: 8bd3 e83d e660 c5bd bc98 953b b03f 0e3e
000003f0: 6547 883d 1b39 89bd 0292 c0bd 1f2b 37bd

conv2.bias f4 [16]
-0.05360149 -0.15672983 0.070552416 -0.09005651 -0.15289044 -0.27715108 -0.20822111 -0.05565966
-0.063325025 -0.09458643 -0.08012068 -0.06093839 -0.025569312 -0.12830211 0.030771347 -0.1413552
00000000: 3c8d 5bbd c97d 20be c97d 903d 8c6f b8bd
00000010: 508f 1cbe bfe6 8dbe ea37 55be 62fb 63bd
00000020: 8db0 81bd 88b6 c1bd 5016 a4bd 899a 79bd
00000030: bc76 d1bc a161 03be 3114 fc3c 6bbf 10be

conv3.weight f4 [16, 16, 8, 1]
-0.062470134 -0.06593836 -0.03419309 -0.012580871 -0.17135935 -0.3439486 -0.20108618 0.14560594
0.21517684 0.13589941 0.22040147 0.10015001 0.21660864 0.33241695 -0.24573399 -0.3360513
0.20944203 0.2341433 0.28419626 0.26942948 0.0955226 0.06776716 -0.2507333 -0.17487048
-0.24721983 -0.0052723316 -0.08796307 -0.1336892 0.012185512 -0.16870694 0.16845682 -0.04564429
0.01610704 -0.0072338893 0.029534979 0.06624671 0.091662064 0.19533683 0.06988326 0.06770536
-0.33579275 -0.0002573039 0.010352498 0.03638138 -0.08910569 -0.04200516 -0.48601565 -0.029721178
-0.03249079 0.053685024 -0.030809263 -0.12917836 -0.0026611192 0.059603672 -0.10535095 -0.07436732
0.2263267 0.046612713 0.13847713 0.02550478 -0.0011422111 -0.17031808 0.17023939 -0.0071822153
0.11022633 0.046440084 0.1679604 0.16057199 -0.043834284 0.02437241 0.75670254 -0.07793619
-0.073532194 -0.08581959 -0.009353743 -0.015141853 -0.051098656 -0.051647063 -0.29380745 0.29630354
0.154071 0.028502895 -0.01599495 -0.13825808 -0.08667492 -0.0829035 0.29891244 -0.09710042
-0.22995509 -0.032051187 0.0010462763 -0.03823058 0.15373866 -0.30972883 -0.6450635 0.17784804
-0.016123163 -0.16981617 -0.18434577 -0.07175093 -0.09944814 -0.29381412 -0.023697076 0.13778354
0.058872778 0.16576031 0.24029347 0.191118 0.019366246 0.27344054 0.45576808 -0.20003307
0.25238612 0.18904096 0.14247192 0.14952844 -0.009990261 0.054893266 -0.066835046 0.042652246
-0.07725993 -0.112571605 -0.1213627 -0.18728863 -0.23217185 -0.06491878 0.009642705 -0.1099618
-0.011531506 0.0024583908 -0.034320682 0.08158009 0.027441181 -0.007327571 0.3335994 0.0715445
0.017579248 0.07505622 0.07988058 0.051776998 0.1174888 0.28803328 -0.29463777 -0.14965747
0.030375484 -0.01152358 0.07399495 0.08952333 -0.07810386 0.13503265 -0.1726833 -0.032186706
0.06765413 0.13054916 -0.04054331 -0.08205826 -0.18490565 -0.28835303 -0.12795685 -0.38439476
-0.016795574 0.07291047 -0.052551277 -0.004874706 -0.108451776 0.12438789 -0.27689523 -0.04114411
0.032910448 0.023755023 0.006778489 -0.09772817 -0.021633424 -0.10103219 -0.5504236 -0.081421375
-0.123679936 -0.03915938 -0.10823027 -0.055330634 0.040825814 0.096317336 0.16886915 -0.03360161
0.14449263 0.11193955 0.037436545 0.12472634 0.112848885 0.30198815 0.3646921 0.047685478
-0.019339575 0.11949373 0.19135275 0.14553846 0.1388663 0.16212386 0.6817398 -0.1257781
-0.007178817 -0.0049713026 0.021626709 -0.06332509 0.022965455 0.1558358 -0.2606373 0.38893348
-0.025811456 -0.09213465 -0.121141285 -0.09479115 -0.09434592 -0.24724622 0.45173308 -0.38313115
0.10975559 0.1420842 0.109494984 0.14117199 0.08517713 0.07043328 -0.120189704 0.10835076
0.01572941 -0.016503224 -0.0203235 -0.04494064 -0.08007088 0.014782218 -0.080097914 0.20595734
0.073247984 0.078788154 0.07106341 0.031028694 0.11350211 -0.09557434 0.10733341 -0.29214054
0.07174475 -0.010188635 -0.005831496 0.09305914 -0.026042458 0.020840887 -0.28475934 0.23314826
0.0002617477 0.0063027972 0.07512377 0.06596831 -0.043110322 0.20111169 0.167132 0.37210155
00000000: afe0 7fbd b10a 87bd 0e0e 0cbd ff1f 4ebc
00000010: d378 2fbe 081a b0be 89e9 4dbe b919 153e
00000020: 5157 5c3e 3729 0b3e ecb0 613e 731b cd3d
00000030: a8ce 5d3e 8e32 aa3e b1a1 7bbe ea0e acbe
00000040: f977 563e 43c3 6f3e 2c82 913e a9f2 893e
00000050: 5aa1 c33d 82c9 8a3d 1d60 80be 3f11 33be
00000060: 3227 7dbe 86c3 acbb fb25 b4bd d2e5 08be
00000070: bea5 473c 83c1 2cbe f27f 2c3e 82f5 3abd
00000080: e9f2 833c 430a edbb 57f3 f13c 5bac 873d
00000090: 52b9 bb3d 6106 483e f41e 8f3d 1ca9 8a3d
000000a0: 07ed abbe bfe6 86b9 869d 293c a404 153d
000000b0: 0b7d b6bd 9a0d 2cbd 0bd7 f8be d479 f3bc
000000c0: 1015 05bd d4e4 5b3d b563 fcbc 5547 04be
000000d0: 2c66 2ebb fb22 743d 3dc2 d7bd e54d 98bd
000000e0: 30c2 673e f9ec 3e3d f3cc 0d3e 66ef d03c
000000f0: 3fb6 95ba dd67 2ebe 3c53 2e3e ca58 ebbb
00000100: 58be e13d f537 3e3d d0fd 2b3e fc6c 243e
00000110: 948b 33bd a6a8 c73c 42b7 413f 029d 9fbd
00000120: 0c98 96bd 2ec2 afbd 7140 19bc 8915 78bc
00000130: d34c 51bd df8b 53bd ee6d 96be 19b5 973e
00000140: cac4 1d3e e77e e93c d707 83bc 8793 0dbe
00000150: 9f82 b1bd 4fc9 a9bd 0d0b 993e 96dc c6bd
00000160: 5979 6bbe 1b48 03bd 3523 893a ab97 1cbd
00000170: ab6d 1d3e c794 9ebe e222 25bf cc1d 363e
00000180: b914 84bc 4ae4 2dbe 23c5 3cbe 27f2 92bd
00000190: 77ab cbbd ce6e 96be 5f20 c2bc 2117 0d3e
000001a0: 9524 713d 12bd 293e 7e0f 763e 70b4 433e
000001b0: f6a5 9e3c 6600 8c3e 6f5a e93e 78d5 4cbe
000001c0: c138 813e f493 413e 29e4 113e fc1d 193e
000001d0: 31ae 23bc c3d7 603d d0e0 88bd 1fb4 2e3d
000001e0: 743a 9ebd f18b e6bd 028d f8bd 97c8 3fbe
000001f0: 75be 6dbe 23f4 84bd 70fc 1d3c a733 e1bd
00000200: a4ee 3cbc f41c 213b d893 0cbd 7613 a73d
00000210: 54cc e03c 1f1c f0bb 8acd aa3e ec85 923d
00000220: 5b02 903c 13b7 993d 6e98 a33d 1e14 543d
00000230: f89d f03d 1979 933e c3da 96be cf3f 19be
00000240: 02d6 f83c 66cd 3cbc aa8a 973d 0258 b73d
00000250: ebf4 9fbd 0046 0a3e e4d3 30be 35d6 03bd
00000260: 408e 8a3d aeae 053e be10 26bd 290e a8bd
00000270: e857 3dbe 02a3 93be 1f07 03be 64cf c4be
00000280: df96 89bc 1652 953d 0240 57bd ffbb 9fbb
00000290: f71b debd 14bf fe3d 36c5 8dbe ba86 28bd
000002a0: 1bcd 063d e599 c23c 161e de3b b525 c8bd
000002b0: 9438 b1bc f7e9 cebd 90e8 0cbf 40c0 a6bd
000002c0: e84b fdbd 9665 20bd d5a7 ddbd 60a2 62bd
000002d0: f838 273d 0642 c53d 09ec 2c3e d8a1 09bd
000002e0: e0f5 133e 9040 e53d 1057 193d 8670 ff3d
000002f0: 511d e73d 319e 9a3e ecb8 ba3e d951 433d
00000300: 076e 9ebc 21b9 f43d faf1 433e 0908 153e
00000310: f832 0e3e cc03 263e 8086 2e3f f9cb 00be
00000320: 483c ebbb 4fe6 a2bb 7f2a b13c 96b0 81bd
00000330: 0d22 bc3c 6c93 1f3e 4172 85be 4a22 c73e
00000340: 8c72 d3bc 17b1 bcbd ec18 f8bd dd21 c2bd
00000350: 6f38 c1bd 1d2e 7dbe 8f49 e73e c429 c4be
00000360: 8ac7 e03d 857e 113e e83e e03d 648f 103e
00000370: 5971 ae3d 533f 903d 0526 f6bd 01e7 dd3d
00000380: f7da 803c c531 87bc 787d a6bc ad13 38bd
00000390: 34fc a3bd 1e31 723c 600a a4bd 7be6 523e
000003a0: 0a03 963d af5b a13d b189 913d e32f fe3c
000003b0: cb73 e83d 7bbc c3bd 9ed1 db3d 7293 95be
000003c0: e9ee 923d 3cee 26bc 2216 bfbb ca95 be3d
000003d0: fe56 d5bc 82ba aa3c facb 91be 6bbe 6e3e
000003e0: 2e3b 8939 b287 ce3b 7eda 993d 651a 873d
000003f0: 7394 30bd 39f0 4d3e a724 2b3e 1884 be3e

conv3.bias f4 [16]
-0.02551491 0.0768559 0.075842686 -0.0166109 0.0014019485 0.2424174 0.14219916 0.10528284
-0.048043657 -0.3274182 0.26679727 0.37613854 -0.021096542 0.038493462 0.24815984 -0.011940938
00000000: a504 d1bc a066 9d3d 6953 9b3d 9513 88bc
00000010: 96c1 b73a 443c 783e a89c 113e 889e d73d
00000020: 6dc9 44bd 5ca3 a7be a799 883e 3b95 c03e
00000030: a8d2 acbc 52ab 1d3d 9d1d 7e3e eda3 43bc

tcn.tcn.0.conv1.weight f4 [16, 16, 5]
0.051900893 0.07993309 0.023024833 -0.06291125 -0.2081911 0.05069072 0.033716183 0.044289436
-0.041921917 -0.42388523 0.10654958 0.04634331 0.17843814 -0.073007174 -0.06843552 0.16915734
0.13825935 0.10375078 0.07039361 0.241884 0.19463624 0.029148249 0.3554739 0.17340693
-0.11011011 -0.11379452 0.15818849 0.18114245 -0.0024564224 0.19889224 0.030856604 0.03322431
-0.12730338 -0.044788066 0.09851737 -0.20237605 -0.19978406 -0.2682968 -0.09960846 -0.22111143
-0.10228776 0.049924307 -0.040784955 -0.141778 -0.14659512 -0.1891808 -0.18155164 -0.21209927
-0.2029733 -0.020125624 -0.142829 -0.027545081 -0.12889376 -0.32515487 -0.15918995 -0.06472028
-0.07584088 -0.10749102 -0.1488143 -0.09593762 0.054100227 0.008237211 0.1890107 -0.120318644
-0.1965838 0.048726268 0.1074656 0.062140875 0.009345709 -0.07999101 -0.053845096 0.07121885
0.03574275 0.032310814 0.10530532 0.026642205 -0.12473756 0.074563295 -0.065200344 -0.13124631
0.2826633 0.38810927 0.09429523 0.1828879 0.13916507 0.17358707 0.3575122 0.022895845
0.19853225 0.29029536 0.025193257 0.34577593 0.2829582 0.25276414 0.40881738 -0.059684098
-0.042468455 -0.2818553 0.08190836 -0.019745413 -0.45188332 -0.32297918 -0.019339198 -0.0042007477
0.10244715 0.16198435 0.12974 0.094794534 0.022679798 0.030705767 -0.2903481 -0.24339698
-0.062027734 -0.011623173 -0.02313267 0.009659446 0.0057782964 0.09619386 0.25052857 0.22122322
0.053242166 0.20514849 0.016320946 0.20115882 0.0700618 -0.01620172 -0.14359686 -0.20363717
-0.1691202 -0.00014721292 0.048714694 0.0055032945 0.059663832 0.091804475 0.0776643 0.05558108
0.23955476 0.11995534 0.07918258 0.14705394 -0.08722715 -0.060703184 0.026939131 -0.04662685
0.11788451 -0.06513237 0.0029710336 0.030199619 0.10912354 0.20075642 0.166869 -0.07817757
0.045205355 -0.045414075 -0.1420948 0.08487737 0.14611594 -0.11354694 -0.13165137 0.18749772
-0.03754051 0.08530437 -0.032491084 -0.048233334 -0.21164984 0.20301034 0.08167247 0.11220189
-0.09640947 -0.1838827 0.15035693 0.029806362 0.066546105 0.010370098 -0.19425792 -0.10428648
0.019509576 -0.12742835 -0.2659699 -0.12425642 -0.075130105 -0.17939618 -0.1404146 -0.013444062
-0.049218956 0.12268828 0.24105324 0.07364605 -0.1160695 -0.04686972 0.035723865 0.01931897
-0.013825864 -0.018906772 0.24687341 0.0023123634 -0.22981805 -0.06448885 -0.028337173 -0.052809678
0.04267728 -0.09557226 -0.0934597 -0.13992916 -0.103350274 -0.0557604 -0.09229668 0.13317592
0.22168949 -0.0045147715 0.12410329 -0.026826037 -0.14944902 -0.0942043 -0.14941306 -0.09226577
-0.0037745417 0.15099971 0.17118986 -0.070714615 -0.22392574 -0.2610666 -0.024338802 0.06896324
-0.19131432 -0.08526917 -0.1844014 -0.17088017 -0.08954349 -0.30053368 -0.35274184 -0.22044145
0.053617403 0.049069587 -0.02622238 -0.11940712 -0.13231452 0.13367493 -0.10191304 -0.36961544
-0.4215485 -0.18083668 -0.040165275 0.26680383 0.20369329 -0.15720458 0.046310246 -0.055597316
-0.09783641 -0.004762278 -0.23711339 -0.03656894 0.21867229 0.042381097 0.2540752 0.018287936
00000000: 0896 543d f6b3 a33d 939e bc3c 9dd7 80bd
00000010: 0c30 55be 13a1 4f3d fb19 0a3d d768 353d
00000020: 51b6 2bbd 7c07 d9be ab36 da3d 7cd2 3d3d
00000030: 7db8 363e c984 95bd ec27 8cbd 9537 2d3e
00000040: dc93 0d3e 4a7b d43d 862a 903d 70b0 773e
00000050: b94e 473e 4fc8 ee3c ad00 b63e 9691 313e
00000060: 6981 e1bd 1a0d e9bd 2afc 213e 687d 393e
00000070: eefb 20bb 68aa 4b3e fdc6 fc3c 3716 083d
00000080: d15b 02be b173 37bd 7ac3 c93d ab3b 4fbe
00000090: 3194 4cbe 335e 89be 85ff cbbd 096b 62be
000000a0: 3f7c d1bd 6e7d 4c3d 200e 27bd 412e 11be
000000b0: 081d 16be 9db8 41be ace8 39be 8d30 59be
000000c0: 3cd8 4fbe 7ede a4bc c441 12be 39a6 e1bc
000000d0: bafc 03be b37a a6be b102 23be 118c 84bd
000000e0: 7752 9bbd 4024 dcbd c762 18be f17a c4bd
000000f0: 3398 5d3d 5ef5 063c 058c 413e 9f69 f6bd
00000100: 434d 49be 3295 473d ed16 dc3d 6e87 7e3d
00000110: bf1e 193c 54d2 a3bd ad8c 5cbd 30db 913d
00000120: fd66 123d 5858 043d 51aa d73d c140 da3c
00000130: 6876 ffbd a4b4 983d c287 85bd 6f65 06be
00000140: 3eb9 903e 42b6 c63e dc1d c13d f746 3b3e
00000150: 4a81 0e3e cfc0 313e d70b b73e 1190 bb3c
00000160: 0a4c 4b3e 98a1 943e 1762 ce3c 8b09 b13e
00000170: e6df 903e 4d6a 813e 8350 d13e 5077 74bd
00000180: 67f3 2dbd 564f 90be 92bf a73d 22c1 a1bc
00000190: 405d e7be 875d a5be 3d6d 9ebc 6da6 89bb
000001a0: d0cf d13d 3adf 253e 90da 043e a323 c23d
000001b0: fcca b93c a98a fb3c 82a8 94be 0f3d 79be
000001c0: cb10 7ebd 1f6f 3ebc ba80 bdbc a742 1e3c
000001d0: dd57 bd3b 4901 c53d 4845 803e 5788 623e
000001e0: 7514 5a3d 7212 523e 81b3 853c 94fc 4d3e
000001f0: 907c 8f3d 78b9 84bc 0e0b 13be 4386 50be
00000200: d92d 2dbe 2b5d 1ab9 0f89 473d fb54 b43b
00000210: 1062 743d fc03 bc3d 760e 9f3d fda8 633d
00000220: d84d 753e 25ab f53d 7a2a a23d 4f95 163e
00000230: 26a4 b2bd e7a3 78bd 74af dc3c ccfb 3ebd
00000240: 6f6d f13d 1f64 85bd acb5 423b 3165 f73c
00000250: 2a7c df3d 1793 4d3e b5df 2a3e 901b a0bd
00000260: 4029 393d 1c04 3abd 4d81 11be 30d4 ad3d
00000270: 6b9f 153e 4c8b e8bd 9ecf 06be 67ff 3f3e
00000280: 14c4 19bd 0fb4 ae3d 5f15 05bd 5190 45bd
00000290: bcba 58be f1e1 4f3e e543 a73d 1bca e53d
000002a0: 5472 c5bd bf4b 3cbe 2bf7 193e 792c f43c
000002b0: 5349 883d 58e7 293c 8ceb 46be 2694 d5bd
000002c0: 8cd2 9f3c 947c 02be 352d 88be 267a febd
000002d0: d0dd 99bd a2b3 37be d8c8 0fbe 7c44 5cbc
000002e0: d199 49bd fe43 fb3d a9d6 763e bed3 963d
000002f0: d9b5 edbd 77fa 3fbd 3053 123d d142 9e3c
00000300: e085 62bc 60e2 9abc 62cc 7c3e 058b 173b
00000310: 6c55 6bbe bb12 84bd 5c23 e8bc f64e 58bd
00000320: 5fce 2e3d 64bb c3bd cd67 bfbd 9749 0fbe
00000330: 4fa9 d3bd 0465 64bd 0b06 bdbd 455f 083e
00000340: 9202 633e a6f0 93bb de29 fe3d 47c2 dbbc
00000350: 2a09 19be 2fee c0bd bdff 18be d6f5 bcbd
00000360: 4d5e 77bb ab9f 1a3e 654c 2f3e d3d2 90bd
00000370: ca4c 65be 85aa 85be 2b62 c7bc 993c 8d3d
00000380: e7e7 43be 9aa1 aebd b8d3 3cbe 36fb 2ebe
00000390: 9462 b7bd 8ddf 99be 949a b4be 67bb 61be
000003a0: ec9d 5b3d 31fd 483d 51d0 d6bc b88b f4bd
000003b0: 757d 07be 15e2 083e c9b7 d0bd 3c3e bdbe
000003c0: 34d5 d7be 402d 39be 5884 24bd 839a 883e
000003d0: f994 503e 3dfa 20be d0af 3d3d 03ba 63bd
000003e0: 755e c8bd e20c 9cbb dacd 72be 50c9 15bd
000003f0: a1eb 5f3e cd97 2d3d 2516 823e 95d0 953c

tcn.tcn.0.conv1.bias f4 [16]
0.010522578 -0.023424359 0.18536566 0.058242757 -0.030971676 0.0697312 -0.017304836 -0.18657254
-0.010470977 0.17745322 0.07246711 -0.05420822 0.20632787 0.044744756 -0.1030346 0.08129873
00000000: e466 2c3c 71e4 bfbc 7fd0 3d3e f58f 6e3d
00000010: 50b8 fdbc 3bcf 8e3d dfc2 8dbc df0c 3fbe
00000020: 768e 2bbc 4cb6 353e a369 943d 7009 5ebd
00000030: 9d47 533e 4746 373d ce03 d3bd f37f a63d

tcn.tcn.0.conv2.weight f4 [16, 16, 1]
0.09442616 -0.05694515 0.18876727 0.051283117 0.19132249 -0.18172646 0.10618864 0.27528107
0.22819391 -0.05870699 -0.15006965 -0.17717393 0.17059153 -0.04765039 -0.10237097 0.42563215
-0.09609383 0.15535066 -0.062239666 0.20526633 0.07061759 0.13582978 0.19219942 -0.077527866
-0.054008015 -0.0022541666 -0.17156194 -0.09725255 0.076618224 -0.24088694 -0.16309142 0.39864102
0.07382665 0.19056423 -0.1277523 0.23385234 -0.018638188 -0.06279971 -0.043805227 0.115094386
0.02938859 0.3490923 0.19742632 0.18706836 -0.14578575 0.2566196 -0.0813397 -0.102760665
0.14975388 0.3668951 -0.010723687 0.054743093 -0.053112753 0.2263059 0.21738158 0.11108113
-0.1959942 -0.25761402 -0.08056581 -0.2586813 0.27472916 0.09264932 0.089767575 0.22392868
0.10497294 0.30522212 -0.064839624 0.004817644 0.06820444 0.035243735 -0.08008954 -0.507036
-0.11069126 -0.44778284 -0.05161021 -0.23725083 -0.097113565 0.106398396 -0.01566812 0.09267248
-0.04635595 0.08451685 -0.021637104 -0.078776635 -0.28901595 0.0167556 -0.06666133 -0.40877327
0.17284776 -0.39410427 -0.12455076 -0.5692779 -0.06257094 0.039047144 0.24259505 0.037996273
-0.13118106 -0.2036567 -0.12631781 -0.22377646 -0.004301424 -0.0031968732 -0.19071837 -0.13272117
-0.20254813 0.250754 -0.27762341 -0.250033 0.045409746 -0.32476038 -0.026230356 -0.06632389
-0.25204796 0.007454605 -0.030000733 0.12172946 -0.092814706 0.20978656 0.11462813 0.11480317
0.29545468 0.23227715 0.03344651 0.15172802 0.19177347 0.25603795 -0.32024035 -0.21013156
-0.19159742 0.06188715 0.29733276 -0.013650947 0.03420602 0.13365212 0.06426819 -0.03173102
-0.18934736 0.20685354 0.09270508 -0.16856223 -0.16579607 0.09031052 -0.36207736 0.27606434
-0.13754778 0.32867533 -0.06677926 0.116621576 0.18023562 0.283925 0.19857208 -0.03867299
-0.0790266 -0.18009375 -0.14598687 0.02368819 -0.23667735 0.04533332 -0.39394394 -0.01025792
-0.13045205 -0.07431196 0.091084756 -0.10469366 -0.13616675 -0.13589074 0.107523575 0.21678412
-0.036417045 0.61245054 -0.1889907 0.5069537 0.16669843 0.037910946 0.06218225 -0.22713594
0.028970862 -0.12631392 -0.24919921 0.20630002 -0.24442688 -0.33639196 -0.104967736 0.22465427
-0.0825822 0.6135273 -0.03589813 0.13991962 -0.053344134 0.05929648 0.51062566 0.23638749
-0.11300172 -0.34697998 0.1614037 -0.0429332 -0.17581108 -0.027077066 -0.12862502 0.33615428
-0.06494923 0.28402123 -0.1312264 0.30107465 0.2545798 -0.18065944 0.08635955 -0.21342535
0.1644026 0.12423482 0.26371902 -0.078034036 -0.050286513 -0.23042804 -0.0018768978 0.40996835
-0.040744852 0.36629632 -0.2112532 0.036305048 0.24714781 0.19852829 -0.21111636 0.31447852
0.047644638 -0.06432257 -0.017592834 -0.26845625 -0.10937715 0.018795285 -0.16310132 0.3783315
-0.023181796 0.54029816 -0.26912853 0.19791164 -0.03972964 -0.021313779 -0.23613188 -0.0857225
0.033852752 -0.2691904 -0.10374843 -0.25971684 0.10605801 -0.065032065 -0.083111994 -0.14594276
0.23584613 0.6973215 -0.2581627 -0.051148117 0.00096906954 0.22157972 -0.075593546 0.32017407
00000000: 8162 c13d 513f 69bd 354c 413e 3f0e 523d
00000010: 0bea 433e 8016 3abe 6e79 d93d a4f1 8c3e
00000020: aaab 693e be76 70bd dcab 19be 156d 35be
00000030: 8caf 2e3e 0e2d 43bd dfa7 d1bd 75ec d93e
00000040: d8cc c4bd 3e14 1f3e 05ef 7ebd 5631 523e
00000050: f49f 903d f616 0b3e edcf 443e eec6 9ebd
00000060: 8237 5dbd a4ba 13bb efad 2fbe 582c c7bd
00000070: 04ea 9c3d 11ab 76be 7001 27be ad1a cc3e
00000080: 6d32 973d 4523 433e 80d1 02be fd76 6f3e
00000090: 1daf 98bc 229d 80bd 1c6d 33bd 9bb6 eb3d
000000a0: 57c0 f03c 3abc b23e 202a 4a3e d98e 3f3e
000000b0: dc48 15be a563 833e 6e95 a6bd 2f74 d2bd
000000c0: 1559 193e add9 bb3e 67b2 2fbc 4b3a 603d
000000d0: c28c 59bd bcbc 673e 4799 5e3e 817e e33d
000000e0: b4b2 48be fce5 83be b0ff a4bd e071 84be
000000f0: 4da9 8c3e edbe bd3d 10d8 b73d 8f4d 653e
00000100: 0efc d63d 1346 9c3e a3ca 84bd 54dd 9d3b
00000110: c5ae 8b3d bc5b 103d fc05 a4bd 1ccd 01bf
00000120: 19b2 e2bd cb43 e5be 3a65 53bd e2f1 72be
00000130: 7ae3 c6bd 67e7 d93d 6e5a 80bc 12cb bd3d
00000140: bddf 3dbd 2c17 ad3d 4c40 b1bc a555 a1bd
00000150: e6f9 93be 0a43 893c bc85 88bd bb4a d1be
00000160: 01ff 303e 09c8 c9be 7814 ffbd 32bc 11bf
00000170: 3125 80bd e6ef 1f3d d66a 783e fba1 1b3d
00000180: 5454 06be 628b 50be 7559 01be a825 65be
00000190: f6f2 8cbb a282 51bb ad4b 43be 0fe8 07be
000001a0: c768 4fbe d462 803e a824 8ebe 5304 80be
000001b0: 92ff 393d fe46 a6be 0be1 d6bc d2d4 87bd
000001c0: 6e0c 81be c245 f43b 19c4 f5bc 4c4d f93d
000001d0: a315 bebd 4ad2 563e 27c2 ea3d ed1d eb3d
000001e0: d645 973e 10da 6d3e 35ff 083d 975e 1b3e
000001f0: 4460 443e 6817 833e 8bf6 a3be ba2c 57be
00000200: 1d32 44be 617d 7d3d 003c 983e 39a8 5fbc
00000210: 9d1b 0c3d 1adc 083e 0a9f 833d 63f8 01bd
00000220: 46e4 41be 6ad1 533e 29dc bd3d 949b 2cbe
00000230: 72c6 29be b9f4 b83d 3462 b9be 4e58 8d3e
00000240: 53d9 0cbe 2248 a83e 91c3 88bd 4bd7 ee3d
00000250: b08f 383e 9e5e 913e 7b56 4b3e 9267 1ebd
00000260: b3d8 a1bd 7f6a 38be 957d 15be bc0d c23c
00000270: 8c5b 72be 6eaf 393d 05b3 c9be d610 28bc
00000280: 3995 05be de30 98bd a58a ba3d a169 d6bd
00000290: 4c6f 0bbe f126 0bbe 5235 dc3d a8fc 5d3e
000002a0: 0a2a 15bd 8fc9 1c3f c786 41be b8c7 013f
000002b0: feb2 2a3e 8248 1b3d d1b2 7e3d 5396 68be
000002c0: 4d54 ed3c 7058 01be 142e 7fbe 5040 533e
000002d0: 0a4b 7abe 913b acbe 53f9 d6bd c50b 663e
000002e0: db20 a9bd 2010 1d3f eb09 13bd 1747 0f3e
000002f0: 617f 5abd dee0 723d 5db8 023f 900f 723e
00000300: 726d e7bd 5ca7 b1be 0347 253e b9da 2fbd
00000310: d207 34be b9d0 ddbc 47b6 03be 6a1c ac3e
00000320: 1a04 85bd 3b6b 913e 3760 06be 7526 9a3e
00000330: 4958 823e cafe 38be 47dd b03d 2d8c 5abe
00000340: 2859 283e d36e fe3d 2e06 873e 4fd0 9fbd
00000350: 3bf9 4dbd 54f5 6bbe 3d02 f6ba 5fe7 d13e
00000360: 13e4 26bd 318b bb3e c252 58be 9ab4 143d
00000370: 5114 7d3e 004b 4b3e e32e 58be 5403 a13e
00000380: 0627 433d 8dbb 83bd d91e 90bc 1973 89be
00000390: 2101 e0bd 92f8 993c 0804 27be abb4 c13e
000003a0: c0e7 bdbc fb50 0a3f 37cb 89be 59a9 4a3e
000003b0: 8cbb 22bd 3c9a aebc 8ecc 71be 478f afbd
000003c0: 2fa9 0a3d 53d3 89be 0f7a d4bd 9bf9 84be
000003d0: f134 d93d 882f 85bd 9f36 aabd 0572 15be
000003e0: a681 713e a983 323f e72d 84be b080 51bd
000003f0: 2809 7e3a cbe5 623e cad0 9abd dbed a33e

tcn.tcn.0.conv2.bias f4 [16]
0.07239436 0.034218404 0.05613175 -0.08478651 0.11151325 0.0368987 -0.09427113 -0.048505746
-0.22754273 -0.15508404 0.019315898 0.07021635 0.17798203 -0.04062478 0.11062998 0.042496093
00000000: 7f43 943d 9928 0c3d 68ea 653d 8da4 adbd
00000010: 0f61 e43d 1723 173d 3911 c1bd f6ad 46bd
00000020: f600 69be 5ace 1ebe 603c 9e3c 97cd 8f3d
00000030: ec40 363e 2b66 26bd f991 e23d 6210 2e3d

tcn.tcn.0.res_conv.weight f4 [16, 16, 1]
0.053927213 -0.075908124 0.21724308 0.079124704 0.116393335 0.2092928 -0.016108967 -0.122323975
-0.09482459 0.038248185 -0.26638585 0.08252158 -0.10315961 0.118669614 0.14225434 0.012899293
0.080182314 0.31283167 -0.15018353 0.13854805 0.028584177 -0.11562668 0.14168906 -0.47467917
0.07337624 0.0060502165 -0.11528006 -0.0029291739 0.2762275 -0.058071796 -0.19207764 -0.23078345
0.16286643 -0.25608057 -0.043596152 0.24632892 0.06176722 -0.2283365 0.36765394 0.10223538
-0.0004611882 0.367154 0.1293659 -0.30006894 -0.36007097 0.2775609 0.17261441 -0.08664967
0.26827896 -0.28481472 0.21975325 -0.1271152 -0.030584434 -0.015383159 -0.09837502 0.3904691
-0.07026132 0.099910766 0.12525499 -0.22785063 0.055275403 0.2505052 0.17865694 -0.079687245
-0.25909883 0.29615387 -0.05763582 -0.27854708 -0.007645071 0.085009225 -0.29569152 -0.18104078
-0.024818663 -0.066705346 0.22953731 -0.045771264 0.33955267 0.081386104 -0.018814823 -0.04124362
0.06791139 0.20018117 -0.30463207 -0.10236883 -0.1790111 0.2249626 -0.32939762 0.024595818
0.033321258 -0.024331896 -0.039126206 0.088616654 0.02780098 -0.002986384 0.039146617 0.21094124
-0.3586264 0.3026101 0.06714344 -0.17544115 0.20042852 0.12502389 -0.2601996 -0.030055886
-0.15931754 0.16590595 -0.2833552 0.06616735 0.06483426 -0.37665763 -0.13280053 0.16077489
-0.11992284 -0.0059093693 0.20323306 0.3132474 -0.08437826 0.27685222 0.4889982 -0.26347077
-0.045300588 -0.1851265 -0.23812339 -0.029952934 -0.034731284 -0.23038283 -0.08721499 -0.16403037
-0.21777093 -0.009616696 0.1799244 -0.3448289 -0.3180701 -0.048920397 -0.19729911 -0.11360275
-0.14702612 0.8965003 0.28042564 0.16631974 -0.24199577 -0.1636558 -0.1801065 0.35768238
0.33280653 0.017238205 0.18567173 -0.14173433 -0.104006276 -0.0936208 0.2076976 0.18329684
-0.08567677 0.35572097 0.048628327 0.2014223 -0.18672521 0.3471382 0.034097306 -0.26348773
0.09977732 -0.15286905 -0.12206885 -0.25360554 -0.11560489 -0.36259878 0.1539434 0.1631632
-0.22206195 0.33978245 -0.12673411 -0.5031542 -0.028566446 -0.3895846 0.3092615 -0.19439295
-0.44209805 -0.27377173 -0.14645205 0.041848656 0.027018376 -0.27708107 -0.17482093 -0.17211033
0.09367337 -0.27266943 -0.21809618 -0.116522044 0.069063336 -0.16439264 -0.024708752 -0.16904972
0.05166863 0.34819216 0.008044887 0.013924453 -0.08712085 -0.06289712 -0.1931504 -0.16648532
0.24409954 0.18447773 -0.2314243 0.080304556 0.1153359 -0.04501744 -0.078524604 0.24960287
0.3331217 0.27217922 0.15534067 0.37591645 -0.16149081 0.24606402 0.18441923 0.039858297
0.13229443 0.13462189 -0.05361506 -0.2792641 0.111869395 -0.14225093 0.08223116 -0.20560633
-0.13951345 -0.19859852 -0.01375457 0.040083557 -0.1699155 -0.09076555 0.18399711 -0.00470823
-0.156658 0.1820809 -0.113330334 0.005207893 0.13931055 0.10968146 0.015402782 0.025740165
-0.27336562 -0.05251734 -0.14923654 -0.1937109 0.1946632 0.12545176 -0.13813812 0.07059791
-0.08363664 -0.011712904 -0.21198545 -0.04777459 0.118048154 0.16345096 -0.15168518 0.13052753
00000000: c8e2 5c3d b875 9bbd f874 5e3e 220c a23d
00000010: a15f ee3d da50 563e f4f6 83bc fe84 fabd
00000020: 6533 c2bd 21aa 1c3d ba63 88be 1301 a93d
00000030: 5845 d3bd 0e09 f33d 1fab 113e 8e57 533c
00000040: a036 a43d 792b a03e b6c9 19be 8adf 0d3e
00000050: 5d29 ea3c aecd ecbd f016 113e 2609 f3be
00000060: 4846 963d e540 c63b f417 ecbd 62f7 3fbb
00000070: b16d 8d3e b1dc 6dbd 00b0 44be 7f52 6cbe
00000080: 75c6 263e fe1c 83be e191 32bd a63d 7c3e
00000090: a0ff 7c3d 0bd1 69be 233d bc3e c860 d13d
000000a0: a2cb f1b9 9cfb bb3e 7f78 043e a3a2 99be
000000b0: 395b b8be 761c 8e3e d5c1 303e 6275 b1bd
000000c0: dc5b 893e 3cd3 91be ff06 613e 7d2a 02be
000000d0: 358c fabc a509 7cbc d878 c9bd 91eb c73e
000000e0: 2be5 8fbd 049e cc3d d842 003e ad51 69be
000000f0: 7668 623d 3842 803e d8f1 363e 1133 a3bd
00000100: 9aa8 84be 7ba1 973e 8a13 6cbd b99d 8ebe
00000110: 8183 fabb 5119 ae3d e164 97be c162 39be
00000120: 8250 cbbc d09c 88bd d40b 6b3e a67a 3bbd
00000130: d9d9 ad3e c2ad a63d 8b21 9abc 12ef 28bd
00000140: 2015 8b3d 4bfc 4c3e bcf8 9bbe c0a6 d1bd
00000150: b04e 37be 995c 663e cea6 a8be 2b7d c93c
00000160: df7b 083d af53 c7bc cd42 20bd a67c b53d
00000170: e1be e33c 36b7 43bb 3458 203d fb00 583e
00000180: e19d b7be b6ef 9a3e 8082 893d d8a6 33be
00000190: 223d 4d3e 4306 003e e238 85be c337 f6bc
000001a0: 2324 23be 40e3 293e ef13 91be bf82 873d
000001b0: d3c7 843d 45d9 c0be ddfc 07be 2ca2 243e
000001c0: 1b9a f5bd 62a3 c1bb 541c 503e f761 a03e
000001d0: 82ce acbd 93bf 8d3e f95d fa3e a4e5 86be
000001e0: 1c8d 39bd cd91 3dbe 9ed6 73be db5f f5bc
000001f0: 6442 0ebd 7ae9 6bbe c69d b2bd 94f7 27be
00000200: 58ff 5ebe 598f 1dbc 1a3e 383e 6a8d b0be
00000210: 16da a2be c160 48bd c708 4abe 8fa8 e8bd
00000220: 048e 16be 0b81 653f f393 8f3e b94f 2a3e
00000230: bdcd 77be 6395 27be d76d 38be 2522 b73e
00000240: 9e65 aa3e 2337 8d3c bb20 3e3e ce22 11be
00000250: 3e01 d5bd 43bc bfbd aeae 543e 2bb2 3b3e
00000260: 4d77 afbd 0f21 b63e 7f2e 473d a641 4e3e
00000270: e534 3fbe 19bc b13e 9ea9 0b3d dde7 86be
00000280: 0d58 cc3d b489 1cbe 3cff f9bd 96d8 81be
00000290: 42c2 ecbd 8ca6 b9be 57a3 1d3e 4114 273e
000002a0: 3564 63be f7f7 ad3e 96c6 01be b7ce 00bf
000002b0: 2e04 eabc a277 c7be 8657 9e3e f20e 47be
000002c0: ad5a e2be cf2b 8cbe 87f7 15be 7f69 2b3d
000002d0: a455 dd3c 92dd 8dbe 4204 33be b13d 30be
000002e0: d3d7 bf3d 549b 8bbe 9b54 5fbe 1ca3 eebd
000002f0: 1471 8d3d 8b56 28be 026a cabc 5f1b 2dbe
00000300: 7ca2 533d 3e46 b23e b4ce 033c 6423 643c
00000310: 6b6c b2bd 35d0 80bd 38c9 45be 217b 2abe
00000320: 3bf5 793e bbe7 3c3e 7efa 6cbe b776 a43d
00000330: 3a35 ec3d 3564 38bd 82d1 a0bd e597 7f3e
00000340: ed8e aa3e 135b 8b3e a011 1f3e 1f78 c03e
00000350: d95d 25be 35f8 7b3e 65d8 3c3e 7442 233d
00000360: 3178 073e 52da 093e 779b 5bbd b4fb 8ebe
00000370: c81b e53d 3aaa 11be cf68 a83d 778a 52be
00000380: 9ddc 0ebe 695d 4bbe d95a 61bc a82e 243d
00000390: 54fe 2dbe 4ae3 b9bd bd69 3c3e 7f47 9abb
000003a0: f46a 20be 6a73 3a3e bc19 e8bd f9a6 aa3b
000003b0: 6da7 0e3e aca0 e03d f35b 7c3c 0add d23c
000003c0: 94f6 8bbe 6c1c 57bd 77d1 18be 265c 46be
000003d0: ca55 473e 6d76 003e 1474 0dbe a395 903d
000003e0: b049 abbd 7be7 3fbc b712 59be 4aaf 43bd
000003f0: 3bc3 f13d b05f 273e 5c53 1bbe 02a9 053e

tcn.tcn.0.res_conv.bias f4 [16]
0.2680503 -0.10440068 -0.23371673 0.022373904 -0.14129864 -0.15401572 -0.20107709 -0.16680446
-0.06614412 0.13313128 -0.097563095 0.14442192 -0.034216866 -0.29810748 -0.084263995 0.05879993
00000000: e43d 893e 06d0 d5bd 7053 6fbe 7a49 b73c
00000010: 97b0 10be 4cb6 1dbe 27e7 4dbe cace 2abe
00000020: 9276 87bd 9153 083e 29cf c7bd 57e3 133e
00000030: fc26 0cbd 8ba1 98be 9a92 acbd 32d8 703d

tcn.tcn.1.conv1.weight f4 [16, 16, 5]
-0.03923716 -0.23022309 -0.20010711 -0.23199499 -0.3217863 0.21906674 -0.39677778 -0.16997793
-0.1155163 0.2216077 0.10209844 0.386158 -0.15103684 -0.29170138 -0.24034645 0.034363676
-0.098018885 -0.11212347 -0.09722859 -0.2679748 0.009061339 -0.10037165 0.3495258 0.2923559
0.31255513 0.06678421 -0.011990555 0.3167062 0.12526861 0.28551412 0.07193242 -0.084230475
0.18790583 0.29849112 0.4806911 -0.10848159 -0.2071917 -0.45057133 -0.41486034 -0.1691396
-0.15072982 0.20202935 0.26826456 0.18575719 0.15027408 -0.13087352 -0.04689611 0.015160237
-0.100413516 -0.09564161 0.121544205 0.2182445 -0.12509258 -0.29835507 -0.27182552 0.22276881
-0.018130608 -0.29942447 0.07389224 -0.031040896 0.0007654135 0.1320064 0.006143643 0.02941102
0.1628388 0.40079248 -0.020972371 -0.22743645 -0.18191451 -0.0011550874 0.20094496 0.118974954
0.11491462 0.0060692835 -0.07287403 0.5125891 0.05272539 0.06720918 0.23127824 0.17927559
-0.33438504 -0.22239828 -0.06733465 -0.21338753 -0.21529235 -0.15864098 0.18108511 -0.09995341
0.06344211 -0.2311062 -0.33063942 -0.08416232 -0.3144516 -0.2010185 -0.26232502 0.10939019
-0.45126632 -0.35545126 -0.19110113 -0.12829196 0.35885867 0.023107108 -0.107301936 0.11694719
0.214195 0.16427013 -0.16394712 -0.3991073 -0.06094204 0.51000893 0.08061627 0.10388508
0.28979957 0.37701225 0.37025172 -0.41574284 -0.048797507 -0.23153898 -0.13454044 0.017665852
-0.15648076 0.07991631 -0.36806092 -0.20608954 0.23654267 0.033756632 -0.04541981 -0.15908769
-0.047209084 -0.08681463 -0.20137194 -0.21066304 0.14715749 0.0038198265 -0.034638707 0.18729763
0.25685722 0.36772907 0.11536499 -0.17910318 -0.07990984 -0.06247583 0.3155718 -0.09078807
0.02950236 -0.26981926 -0.16710643 -0.20602292 -0.20610411 -0.07651718 -0.024216421 0.048541326
0.23810403 -0.11941338 0.026357094 0.046476282 0.17810588 0.09848967 0.06806685 0.07396165
0.15449306 -0.059180945 -0.03420369 0.14489146 -0.16276388 -0.004008972 -0.1650256 0.14564167
-0.04118173 0.25140285 -0.10663294 -0.09226776 -0.02064577 -0.16160896 -0.10767923 -0.18654792
-0.16770285 -0.16939335 0.1181493 0.033881586 0.0139974365 -0.06740835 -0.20953518 0.10491744
0.1764277 -0.12222369 -0.08861808 -0.02597133 0.025698103 0.22263807 0.39165187 0.009272044
0.052056387 -0.08598728 0.019415854 -0.083824575 0.13667484 0.11458516 0.09656097 -0.0080346195
0.19996013 -0.09186284 -0.16770938 0.059537254 0.25130993 -0.14257215 0.04193089 -0.23823144
-0.22099821 0.24231263 0.31677523 0.1797478 0.02309231 -0.071272895 -0.3340925 0.30681303
0.11974278 -0.17975695 -0.08667227 -0.17388636 0.18410702 -0.13828161 0.12485366 0.0820069
-0.074846946 -0.009723803 -0.14717586 0.07759361 0.0018867743 -0.080524296 0.1952821 -0.15188299
0.09517518 -0.1456625 -0.16661432 0.3445777 -0.1094423 0.082124926 0.04315262 -0.19126694
0.09280986 0.030464198 0.2346146 0.17636244 -0.032479346 0.13262482 0.048662506 -0.11586557
-0.08438837 -0.3229407 -0.20746487 0.20849493 0.010149237 -0.1596535 0.041854333 0.06389233
00000000: 25b7 20bd 9abf 6bbe e1e8 4cbe 1890 6dbe
00000010: 2dc1 a4be 0853 603e 7526 cbbe b20e 2ebe
00000020: cf93 ecbd 21ed 623e fd18 d13d 80b6 c53e
00000030: 67a9 1abe e259 95be 611d 76be edc0 0c3d
00000040: 20be c8bd fda0 e5bd c81f c7bd fe33 89be
00000050: 0376 143c a78f cdbd 0cf5 b23e acaf 953e
00000060: 3a07 a03e 29c6 883d 0874 44bc 5127 a23e
00000070: 6a46 003e e82e 923e 4e51 933d 0781 acbd
00000080: 636a 403e d4d3 983e 251d f63e 992b debd
00000090: 102a 54be 49b1 e6be 9368 d4be ee32 2dbe
000000a0: eb58 1abe c8e0 4e3e f959 893e 2237 3e3e
000000b0: 73e1 193e b503 06be 2316 40bd a562 783c
000000c0: 9aa5 cdbd c0df c3bd 2bec f83d 7c7b 5f3e
000000d0: 4518 00be ffc1 98be b72c 8bbe 821d 643e
000000e0: a486 94bc 2a4e 99be d154 973d 7a49 febc
000000f0: 08a6 483a b02c 073e 9d50 c93b 61ef f03c
00000100: 37bf 263e ac34 cd3e 40ce abbc 1ae5 68be
00000110: cc47 3abe 4d66 97ba 84c4 4d3e 24a9 f33d
00000120: 5b58 eb3d d7e0 c63b fb3e 95bd 0a39 033f
00000130: 94f6 573d f7a4 893d 34d4 6c3e 0594 373e
00000140: 8434 abbe 60bc 63be c0e6 89bd 4382 5abe
00000150: 9975 5cbe c872 22be 606e 393e 60b4 ccbd
00000160: f0ed 813d 1ba7 6cbe 9249 a9be 4b5d acbd
00000170: cdff a0be cbd7 4dbe 774f 86be f707 e03d
00000180: 610c e7be b5fd b5be 04b0 43be f85e 03be
00000190: 53bc b73e 1e4b bd3c 1ec1 dbbd 0282 ef3d
000001a0: ef55 5b3e 6e36 283e c1e1 27be cb57 ccbe
000001b0: 5c9e 79bd f28f 023f 251a a53d b3c1 d43d
000001c0: 9c60 943e c007 c13e a291 bd3e 3fdc d4be
000001d0: e5df 47bd 8e18 6dbe f8c4 09be fab7 903c
000001e0: 7e3c 20be 2aab a33d 7b72 bcbe 2309 53be
000001f0: 3e38 723e 6544 0a3d 1f0a 3abd e2e7 22be
00000200: 505e 41bd decb b1bd 7234 4ebe 0db8 57be
00000210: 74b0 163e 0e56 7a3b 51e1 0dbd f3ca 3f3e
00000220: ca82 833e fc46 bc3e 7b44 ec3d d366 37be
00000230: c5a7 a3bd a8e6 7fbd a192 a13e 18ef b9bd
00000240: efae f13c c025 8abe f31d 2bbe acf7 52be
00000250: f50c 53be 0ab5 9cbd 8461 c6bc 45d3 463d
00000260: 8bd1 733e 018f f4bd d5ea d73c ea5d 3e3d
00000270: 6361 363e f4b4 c93d a266 8b3d 3579 973d
00000280: 6e33 1e3e b867 72bd 2b19 0cbd 6d5e 143e
00000290: 93ab 26be b25d 83bb 79fc 28be 1723 153e
000002a0: 2cae 28bd e0b7 803e 5f62 dabd e1f6 bcbd
000002b0: 5121 a9bc d27c 25be ee86 dcbd 6b06 3fbe
000002c0: 4cba 2bbe 7375 2dbe 43f8 f13d 6bc7 0a3d
000002d0: 8155 653c 640d 8abd 6490 56be f4de d63d
000002e0: 77a9 343e 6a50 fabd 657d b5bd d4c1 d4bc
000002f0: d484 d23c 3cfb 633e 9886 c83e c5e9 173c
00000300: 1439 553d 191a b0bd ff0d 9f3c 38ac abbd
00000310: 7df4 0b3e a0ab ea3d c2c1 c53d a3a3 03bc
00000320: 59c2 4c3e 9622 bcbd 02bc 2bbe 56dd 733d
00000330: b2ab 803e 6ffe 11be babf 2b3d f1f2 73be
00000340: 5b4d 62be cd20 783e 5d30 a23e cf0f 383e
00000350: 162c bd3c 86f7 91bd 2c0e abbe 9916 9d3e
00000360: b43b f53d 3512 38be 3b81 b1bd 440f 32be
00000370: 8d86 3c3e b299 0dbe 47b3 ff3d 3cf3 a73d
00000380: 5b49 99bd 9650 1fbc 45b5 16be 66e9 9e3d
00000390: a44d f73a ece9 a4bd 08f8 473e 3787 1bbe
000003a0: 34eb c23d 8d28 15be f29c 2abe 7d6c b03e
000003b0: 4923 e0bd 1d31 a83d cdc0 303d 7bdb 43be
000003c0: 1913 be3d 0e90 f93c cf3e 703e 5b98 343e
000003d0: 1009 05bd cdce 073e 5652 473d ee4a edbd
000003e0: cfd3 acbd 7c58 a5be ac71 54be b27f 553e
000003f0: fc48 263c 357c 23be 736f 2b3d fbd9 823d

tcn.tcn.1.conv1.bias f4 [16]
-0.20746446 -0.28230458 0.07531204 0.2307943 -0.31231844 -0.24540025 0.0695106 0.058112323
-0.054631986 -0.1310919 -0.21946278 0.114353105 -0.24630032 0.20533597 -0.07783618 0.13051002
00000000: 9071 54be 3a8a 90be 333d 9a3d 5755 6c3e
00000010: 34e8 9fbe 344a 7bbe 935b 8e3d 3007 6e3d
00000020: cac5 5fbd f43c 06be daba 60be f631 ea3d
00000030: 2736 7cbe 9843 523e 9368 9fbd 6ba4 053e

tcn.tcn.1.conv2.weight f4 [16, 16, 1]
0.53031796 0.009252929 -0.06668919 0.10897638 -0.05767031 -0.16616479 0.22156532 0.29189938
-0.34773102 -0.31205574 -0.042074297 0.2625432 0.00552342 0.2949515 0.3786211 -0.17760359
-0.12673882 0.38215914 -0.14226182 -0.1637801 0.08257027 0.031085415 0.21174209 -0.1663415
0.23525855 -0.144627 0.124356054 0.24848628 -0.05419139 -0.11545778 -0.34206125 0.22653545
0.04788223 0.1750268 0.22410537 0.06887389 0.11460051 0.06308348 0.24297427 -0.24742334
0.0337828 0.0044756243 -0.32034308 0.08612698 -0.15171596 -0.115279004 -0.17455979 -0.23198335
-0.26070324 -0.03321279 -0.4878775 -0.12679724 0.18000393 -0.16434619 -0.0579142 0.1454726
-0.027490627 0.16916238 0.21283324 -0.30860585 -0.09719606 -0.093010746 0.04970733 0.07964932
0.0914049 0.17381677 -0.007689492 -0.33385146 0.08720969 0.02180791 0.077646226 -0.14505954
0.4019242 -0.17803422 -0.046437867 0.19890617 -0.17493466 -0.05857607 -0.011104858 0.111618906
-0.19249828 -0.07161307 0.0098235505 -0.2678468 0.14025585 0.25764498 0.4798574 0.17912848
0.12247093 -0.002699092 -0.07302371 0.30566782 -0.10062044 -0.114035256 0.12453086 0.1374164
-0.17798561 0.21483074 -0.13875172 0.028179664 0.24576148 -0.078740746 -0.12644176 0.2943502
0.09471894 -0.06395734 0.032838132 0.22971098 -0.2544293 -0.25177482 -0.2875707 0.31531772
0.27444756 -0.19559255 0.14566797 0.029603302 -0.1581898 0.4488678 0.098683596 0.05613404
-0.006076298 -0.100515954 -0.18437077 -0.10471304 -0.060276303 0.27872956 -0.018239891 -0.15244229
-0.2637318 0.25397998 -0.28452727 0.10383775 -0.2296745 0.22300121 0.32010978 -0.1202824
0.048041858 -0.04474405 -0.041013155 0.19208097 -0.25281632 -0.022807887 -0.061140418 -0.06353595
-0.08840446 0.0446406 0.13626102 -0.15239055 -0.019100754 -0.17879917 0.179495 0.012864579
0.05500813 -0.22419979 0.27968517 -0.027585654 -0.009696716 0.1759452 0.4121425 0.11905606
0.19294924 -0.14265153 -0.12627777 -0.15154797 -0.057284974 0.3293647 -0.16574839 -0.22989129
-0.089953795 -0.20819353 0.21428792 -0.16712499 0.061588667 0.108765624 -0.06806855 0.019952277
0.2606938 -0.013977739 -0.18674019 -0.11926536 -0.17809087 -0.3961128 -0.1607109 -0.078284755
-0.37867334 0.037503537 -0.050908767 -0.2733412 0.11205323 -0.16697516 -0.03029619 -0.12037639
0.18774642 -0.20171311 -0.07738629 -0.15741535 -0.17705405 -0.085528664 0.10303041 0.12530477
0.27682847 -0.048641432 -0.12244622 -0.042064678 0.030740554 -0.19319935 0.3229788 0.24556872
-0.08838858 -0.06284942 0.06433146 -0.21569172 -0.29184276 -0.0581598 0.25690663 0.0436591
-0.16419722 -0.022730125 -0.11628827 0.031004768 -0.35322708 -0.27441803 0.20559068 0.041252997
-0.11500273 0.427212 0.18662573 0.18331861 0.1677378 -0.13145629 0.19960472 0.1467025
-0.016546948 -0.081545316 0.18827395 -0.094588205 -0.1946819 0.07750013 -0.2113738 0.06989148
-0.37464836 0.15008554 -0.103952505 0.12549356 0.1261234 -0.07884779 0.13175096 0.0061456934
-0.07207189 0.052111164 0.17257658 -0.11364219 -0.23961492 -0.0046442733 -0.55064386 -0.12860058
00000000: ebc2 073f 9999 173c 5894 88bd 022f df3d
00000010: b437 6cbd 1a27 2abe 05e2 623e d673 953e
00000020: cd09 b2be c5c5 9fbe 1956 2cbd 106c 863e
00000030: cefd b43b e203 973e a0da c13e b7dd 35be
00000040: d2c7 01be 5daa c33e 15ad 11be f8b5 27be
00000050: 9a1a a93d d7a6 fe3c ebd2 583e 6d55 2abe
00000060: 9ee7 703e 1a19 14be 63ae fe3d 3073 7e3e
00000070: caf7 5dbd 2175 ecbd a722 afbe e9f8 673e
00000080: 2820 443d 3a3a 333e e17b 653e c10d 8d3d
00000090: acb3 ea3d e931 813d 3fce 783e 8b5c 7dbe
000000a0: d55f 0a3d 42a8 923b 0204 a4be 5863 b03d
000000b0: 6e5b 1bbe 6617 ecbd cdbf 32be 0b8d 6dbe
000000c0: e57a 85be 220a 08bd 14cb f9be 23d7 01be
000000d0: f352 383e 5e4a 28be 7137 6dbd c5f6 143e
000000e0: 0634 e1bc e738 2d3e f5f0 593e 9601 9ebe
000000f0: ba0e c7bd 6b7c bebd ea99 4b3d 2f1f a33d
00000100: 7e32 bb3d 06fd 313e 22f8 fbbb 94ee aabe
00000110: fe9a b23d 81a6 b23c fc04 9f3d 7d8a 14be
00000120: 02c9 cd3e 9a4e 36be a235 3ebd 0fae 4b3e
00000130: 1222 33be 76ed 6fbd 26f1 35bc 7498 e43d
00000140: 451e 45be e0a9 92bd f5f2 203c 3723 89be
00000150: 3b9f 0f3e 0bea 833e deaf f53e 756d 373e
00000160: 0ad2 fa3d 40e3 30bb 748d 95bd 7e80 9c3e
00000170: 1712 cebd 518b e9bd 090a ff3d e2b6 0c3e
00000180: dc41 36be 97fc 5b3e ee14 0ebe 0ad9 e63c
00000190: e6a8 7b3e d442 a1bd f379 01be 12b5 963e
000001a0: 01fc c13d 11fc 82bd 4781 063d 5b39 6b3e
000001b0: 8f44 82be a1e8 80be 773c 93be 5371 a13e
000001c0: 6484 8c3e 6a49 48be fc29 153e a082 f23c
000001d0: 82fc 21be 00d2 e53e a01a ca3d cfec 653d
000001e0: af1b c7bb 4fdb cdbd b1cb 3cbe ca73 d6bd
000001f0: 49e4 76bd a4b5 8e3e d36b 95bc d519 1cbe
00000200: db07 87be aa09 823e 8fad 91be e3a8 d43d
00000210: cb2f 6bbe 6e5a 643e 6ee5 a33e 9e56 f6bd
00000220: 8ac7 443d 8945 37bd 69fd 27bd e0b0 443e
00000230: 2471 81be 9bd7 babc 606e 7abd 231f 82bd
00000240: 660d b5bd 10d9 363d 0288 0b3e 450c 1cbe
00000250: 2f79 9cbc 2117 37be 8acd 373e f5c5 523c
00000260: 3450 613d a194 65be e532 8f3e 4ffb e1bc
00000270: fade 1ebc fa2a 343e 5704 d33e aad3 f33d
00000280: 7c94 453e 3e13 12be f64e 01be 642f 1bbe
00000290: a6a3 6abd 7da2 a83e f2b9 29be 9f68 6bbe
000002a0: b239 b8bd af30 55be 4b6e 5b3e d022 2bbe
000002b0: 6644 7c3d 83c0 de3d 8667 8bbd f572 a33c
000002c0: a879 853e e302 65bc d238 3fbe 6641 f4bd
000002d0: 745d 36be 4ccf cabe 6691 24be c253 a0bd
000002e0: 79e1 c1be 4f9d 193d b685 50bd 61f3 8bbe
000002f0: 2a7c e53d 89fb 2abe b72f f8bc e687 f6bd
00000300: 9940 403e e28d 4ebe b47c 9ebd 7d31 21be
00000310: a84d 35be a729 afbd 9c01 d33d e54f 003e
00000320: 76bc 8d3e 3d3c 47bd 15c5 fabd 034c 2cbd
00000330: 9dd3 fb3c 0dd6 45be 7a5d a53e 5e76 7b3e
00000340: 1205 b5bd 32b7 80bd 36c0 833d 4ade 5cbe
00000350: 6a6c 95be f838 6ebd 4489 833e e2d3 323d
00000360: 5123 28be 8734 babc 8b28 eebd b6fd fd3c
00000370: 2eda b4be 8580 8cbe 5d86 523e e7f8 283d
00000380: 8d86 ebbd 88bb da3e d11a 3f3e e0b7 3b3e
00000390: 75c3 2b3e 7a9c 06be 2e65 4c3e 2e39 163e
000003a0: 778d 87bc 3b01 a7bd e3ca 403e 76b7 c1bd
000003b0: b15a 47be 63b8 9e3d 6072 58be 4423 8f3d
000003c0: e9d1 bfbe 06b0 193e 0de5 d4bd 6281 003e
000003d0: 7e26 013e f37a a1bd b9e9 063e d061 c93b
000003e0: 6d9a 93bd 8472 553d eab7 303e 3dbd e8bd
000003f0: 9d5d 75be fd2e 98bb fff6 0cbf dfaf 03be

tcn.tcn.1.conv2.bias f4 [16]
-0.16962415 0.19912826 -0.13160738 -0.013416634 0.04038989 -0.11416267 -0.10157895 0.070968635
0.31171745 0.15963598 -0.05373788 0.16927695 0.23780157 -0.06333933 -0.18741892 0.15322462
00000000: f4b1 2dbe 47e8 4b3e 16c4 06be 71d1 5bbc
00000010: df6f 253d 1ece e9bd a008 d0bd 0158 913d
00000020: 6e99 9f3e 9d77 233e 401c 5cbd f056 2d3e
00000030: 4182 733e 0db8 81bd bfea 3fbe eae6 1c3e
