checkpoints/fine_tune/var_rf/gtzan/0.2/model_faithful-hill-196_finetune_finetune_finetune_HAI_GIA/it_5600_loss_3.5842_acc10.83_acc21.0.pt (torch, 436712 bytes, 211 tensors)

conv1.weight f4 [16, 1, 3, 3]
0	0x3e8bafe9	0.27282646
1	0xbd63ba47	-0.05559757
2	0xbe8dae76	-0.27672166
3	0x3eb43615	0.3519751
4	0xbdfa49e9	-0.122211285
5	0xbeb0322b	-0.34413275
6	0x3e74aecc	0.23894805
7	0x3e5ae8b3	0.2137783
8	0xbe89eb9a	-0.26937562
9	0x3e8d5192	0.27601296
10	0xbf05771c	-0.5213487
11	0xbedc0041	-0.42968944
12	0x3e84be71	0.25926545
13	0xbe8e0ed3	-0.27745685
14	0x3ded3c70	0.11583793
15	0x3e08b14b	0.13348882
16	0x3e45b01b	0.1930546
17	0x3da77841	0.081772335
18	0xbe7acf3a	-0.24493113
19	0x3ece1cee	0.40256447
20	0x3e46e5f2	0.19423655
21	0xbe3b8a90	-0.18314576
22	0x3eb99ead	0.36253873
23	0x3d7e104b	0.062027257
24	0xbf042ed2	-0.5163394
25	0x3e0bb054	0.13641483
26	0xbe710c4d	-0.23539849
27	0xbe86a2d1	-0.26296094
28	0xbdd108c7	-0.10206752
29	0x3eb1fcc9	0.34763172
30	0xbea979d9	-0.33100775
31	0x3dd7f18b	0.105441175
32	0x3e4bfd92	0.19920948
33	0x3ec01ed9	0.37523535
34	0x3d7aa19a	0.06118927
35	0xbefd4fe9	-0.4947503
36	0xbe81ea31	-0.25373986
37	0xbe79310b	-0.24335115
38	0xbe4aa9c7	-0.19791327
39	0xbe50f0d3	-0.20404367
40	0x3e38002c	0.17968816
41	0x3e8c0b10	0.2735219
42	0xbd862380	-0.0654974
43	0xbda20d5c	-0.07912704
44	0xbe80a905	-0.25128952
45	0xbd9be48e	-0.07611953
46	0x3dafae67	0.085781865
47	0xbda7eed5	-0.081998505
48	0xbf536ad1	-0.82584864
49	0x3e9ad812	0.30242974
50	0x3eed3cb0	0.46335363
51	0xbe8253f1	-0.25454667
52	0x3e9725e0	0.29521084
53	0xbd595862	-0.053062804
54	0x3ea42ba7	0.32064554
55	0x3c940e06	0.018073093
56	0xbdba384c	-0.09092769
57	0xbdcbd491	-0.09952653
58	0x3e4e06ef	0.20119832
59	0xbebbba17	-0.36665413
60	0xbdf9050f	-0.12159168
61	0x3e02ba60	0.12766409
62	0xbe71eb3b	-0.2362489
63	0xbd1d024b	-0.038332265
64	0xbc632562	-0.013863893
65	0x3e76db84	0.24107176
66	0xbef6ac08	-0.48178124
67	0xbe39e56f	-0.18153928
68	0xbe00d500	-0.12581253
69	0x3df46ff6	0.11935417
70	0xbd6af1b6	-0.05735942
71	0x3f0c9e9a	0.54929507
72	0xbeb80644	-0.3594228
73	0x3dc73cc3	0.09728386
74	0xbe9effd3	-0.31054553
75	0xbed2acee	-0.4114756
76	0x3ebf5af6	0.37374085
77	0x3eb93659	0.36174276
78	0xbe41a6ad	-0.18911238
79	0x3ec5599f	0.38544938
80	0x3de8e283	0.11371329
81	0xbf25c3c6	-0.6475185
82	0x3dc3f7da	0.09568758
83	0x3f060c30	0.52362347
84	0x3c8fa5df	0.017535148
85	0xbe61c988	-0.22049534
86	0x3e4fb7c3	0.20284943
87	0xbeb1e2c4	-0.3474332
88	0xbba6a015	-0.0050850012
89	0x3e9df61d	0.30851832
90	0xbef3fd8b	-0.47654375
91	0x3d664bab	0.056224506
92	0x3ea68d7b	0.32529816
93	0xbe55958a	-0.20857826
94	0xbe453087	-0.19256793
95	0x3ea6c744	0.32573903
96	0x3deb7e07	0.11498647
97	0xbdd613b6	-0.10452978
98	0xbbb1904d	-0.0054188133
99	0x3e05f7b6	0.13082775
100	0x3eca7dad	0.39549008
101	0xbe1e1c5c	-0.15440506
102	0x3e5a6ed3	0.21331339
103	0x3eb988e1	0.36237243
104	0xbe43824f	-0.19092678
105	0x3eadd8aa	0.33954364
106	0x3d92fd0a	0.071771696
107	0xbdc2b511	-0.09507192
108	0x3dfb7ecd	0.12280045
109	0x3e0072cd	0.12543793
110	0x3c8925cd	0.016741658
111	0xbe1e2959	-0.1544546
112	0xbe523731	-0.20528866
113	0xbed96325	-0.42458454
114	0x3e8c5c0b	0.27413973
115	0x3ea9b2c6	0.33144206
116	0xbe2f48ea	-0.17117658
117	0x3e5c799a	0.21530762
118	0xbe001f37	-0.12511908
119	0xbe9470c0	-0.2899227
120	0x3eb58d3e	0.35459322
121	0x3e9eec8b	0.31039843
122	0x3e07f9a4	0.13278824
123	0xbe71b3bd	-0.23603721
124	0x3e36b588	0.17842686
125	0xbf0025e2	-0.50057805
126	0x3eaa7b95	0.3329741
127	0x3e33f801	0.17575075
128	0xbe0c0922	-0.13675359
129	0x3ed9ac5a	0.42514306
130	0xbe898039	-0.2685564
131	0x3c600215	0.013672371
132	0x3e57425e	0.21021411
133	0xbe99876a	-0.29986125
134	0xbedabc37	-0.42721722
135	0xbe25ce2c	-0.1619193
136	0xbd3a7d04	-0.04552938
137	0x3e9868db	0.29767498
138	0xbe0cbead	-0.13744612
139	0x3d3e15e3	0.04640759
140	0x3ebd1c64	0.36935723
141	0xbf09383c	-0.5360143
142	0xbe824bcc	-0.25448453
143	0x3f0bb681	0.54575354

conv1.bias f4 [16]
0	0xbd303842	-0.0430224
1	0x3d134f54	0.035964325
2	0xbd839569	-0.06424982
3	0xbd1f1d53	-0.038846325
4	0xbe3c4a66	-0.18387756
5	0xbddf2bac	-0.108970016
6	0x3dc788f5	0.09742919
7	0xbc5440da	-0.012954915
8	0xbc4f3b6a	-0.012648443
9	0x3d560b26	0.052256726
10	0xbca38dde	-0.019965108
11	0xbe7cf073	-0.24701099
12	0x3d467a9b	0.04845677
13	0xbdb70802	-0.08937074
14	0xbda72755	-0.08161799
15	0xbdaed1a7	-0.08536082

conv2.weight f4 [16, 16, 3, 3]
0	0xbe36cdb5	-0.17851909
1	0xbd33f9b9	-0.043939326
2	0xbcc24923	-0.023716515
3	0xbe004e98	-0.12529981
4	0xbe460179	-0.193365
5	0xbe637d2c	-0.22215718
6	0xbd7c9e3c	-0.06167434
7	0x3d33f10f	0.043931063
8	0xbde29f24	-0.1106551
9	0xbd40f080	-0.04710436
10	0xbda4d4ef	-0.08048426
11	0xbc65f9de	-0.014036624
12	0xbdbd3478	-0.09238523
13	0x3cd942cd	0.02652111
14	0xbde619e4	-0.11235407
15	0xbe1c2c7a	-0.15251341
16	0xbd408b7c	-0.047008023
17	0xbe9af16e	-0.3026232
18	0x3d86955b	0.06571456
19	0xbe849447	-0.25894377
20	0xbd0b7603	-0.03404809
21	0x3e6c81af	0.23096345
22	0xbe95f366	-0.2928726
23	0xbd82f74a	-0.06394823
24	0x3e96904e	0.2940697
25	0xbe7c1df5	-0.24620803
26	0xbe147a30	-0.14499736
27	0xbe26d47d	-0.16291995
28	0x3da24ea2	0.07925154
29	0x3e41072f	0.18850397
30	0xbdbbbfe9	-0.09167463
31	0x3df407ed	0.11915574
32	0x3ea82abe	0.3284511
33	0x3ea86b84	0.32894528
34	0x3ed5d613	0.41764888
35	0x3ef97c13	0.48727474
36	0xbcacef27	-0.02111013
37	0xbcad2480	-0.021135569
38	0xbe43b54b	-0.19112127
39	0xbd8fecc9	-0.07027585
40	0xbe23476f	-0.15945219
41	0xbe889896	-0.26678914
42	0xbc22409d	-0.0099031
43	0xbe1e0904	-0.15433127
44	0xbdf481e2	-0.11938836
45	0x3e870c49	0.2637656
46	0xbd11efdf	-0.03562915
47	0x3edbd1b4	0.42933428
48	0x3e4874ff	0.1957588
49	0xbe1fa0f6	-0.15588745
50	0x3e817864	0.25287163
51	0x3ebdae6d	0.3704714
52	0x3b2a0eca	0.0025948756
53	0x3eb22327	0.34792444
54	0x3d62b01d	0.055343736
55	0xbe200162	-0.15625528
56	0xbe382be4	-0.17985493
57	0xbcbc65c1	-0.022997739
58	0xbddcba91	-0.10777772
59	0xbe5ff910	-0.21872354
60	0xbd5f9d16	-0.05459317
61	0xbdd490bc	-0.103791684
62	0xbdb2d56b	-0.087321125
63	0x3e5d9b4a	0.2164127
64	0x3df8c8c0	0.12147665
65	0xbdc40380	-0.0957098
66	0x3e81743c	0.25283992
67	0x3bf4967d	0.0074642287
68	0xbe6637cb	-0.22482221
69	0xbd5490a2	-0.051895745
70	0xbd258241	-0.040407423
71	0xbe684cba	-0.22685519
72	0x3e0c7e0b	0.13719957
73	0xbe186cb6	-0.1488522
74	0x3c1d2f81	0.009593845
75	0x3e7f2819	0.2491764
76	0xbe390ace	-0.18070528
77	0xbd7c915c	-0.061662063
78	0x3d9d6e03	0.07686999
79	0xbe2db773	-0.16964512
80	0xbe141011	-0.14459254
81	0x3ccec702	0.025241379
82	0x3e6b9628	0.23006499
83	0x3e80e2c4	0.25173008
84	0x3e55f40d	0.20893879
85	0x3ea58c20	0.3233347
86	0x3eb26363	0.3484145
87	0x3e8ac503	0.27103433
88	0x3e15997f	0.14609335
89	0x3e99da83	0.30049524
90	0x3d139563	0.03603114
91	0x3a44b028	0.0007503056
92	0x3b9c2b7b	0.0047659255
93	0xbcbabfe7	-0.022796584
94	0xbd816d4c	-0.06319675
95	0x3df0aeba	0.117520764
96	0xbda9b9e3	-0.08287408
97	0xbdfb396c	-0.12266812
98	0x3d95cc3c	0.07314345
99	0xbdfbe525	-0.12299565
100	0xbe50f038	-0.20404136
101	0xbe53a53e	-0.20668504
102	0xbe2108c9	-0.15726008
103	0xbe83d60b	-0.2574924
104	0xbea4035f	-0.32033822
105	0xbdec3b8f	-0.115347974
106	0xbdc25e74	-0.09490672
107	0xbe81b0e5	-0.25330272
108	0xbe01b6fe	-0.12667462
109	0xbdff82e3	-0.124761365
110	0xbe5a1761	-0.21297981
111	0xbb5e9994	-0.0033966051
112	0xbdb6cdd5	-0.08925978
113	0xbe2ab63d	-0.16671081
114	0xbad6bc87	-0.001638309
115	0x3d0df189	0.034654174
116	0xbdac5dad	-0.08416305
117	0x3d982989	0.07429797
118	0xbdf6e3bd	-0.120551564
119	0xbdbaf073	-0.09127893
120	0x3d8464ad	0.06464515
121	0xbe0105fd	-0.1259994
122	0xbddcec83	-0.107872985
123	0x3ddba4c6	0.107247874
124	0x3cbd3d8e	0.02310064
125	0xbe588387	-0.21143924
126	0xbe5015ee	-0.20320866
127	0xbe2ae2e7	-0.16688119
128	0xbe055a4d	-0.13022728
129	0xbe6c426e	-0.23072216
130	0xbd1de386	-0.03854706
131	0x3d4fd085	0.05073597
132	0xbd1ceceb	-0.03831188
133	0x3df61963	0.12016561
134	0xbbfe705b	-0.0077648587
135	0x3ca78895	0.02045087
136	0x3a381685	0.00070223986
137	0x3dbf46ec	0.09339699
138	0xbd8c4523	-0.06849124
139	0x3ca2f7ef	0.019893615
140	0x3df26e6c	0.118374676
141	0x3dbd7768	0.092512906
142	0xbd15ce55	-0.036573727
143	0x3dafe8ee	0.0858935
144	0x3e763197	0.24042355
145	0x3df88dc3	0.12136414
146	0x3e89b337	0.26894543
147	0x3dd4825f	0.10376429
148	0x3e46e51c	0.19423336
149	0x3e2ac440	0.16676426
150	0x3d285246	0.041094087
151	0x3de0ca9a	0.10976143
152	0x3d850319	0.064947315
153	0x3efd1cd1	0.49436048
154	0x3d9ecea2	0.07754256
155	0x3eee21cf	0.4651017
156	0x3e038067	0.1284195
157	0xbd03e561	-0.032201175
158	0x3e59ab7f	0.21256827
159	0x3e77b27a	0.24189177
160	0xbdea1bf3	-0.11431112
161	0x3d66ba62	0.056330092
162	0x3e5e6716	0.21719012
163	0x3f5512f7	0.83232063
164	0x3e70df3c	0.23522657
165	0xbeab8a5c	-0.33503997
166	0x3e8f94f9	0.28043345
167	0x3dc707be	0.097182736
168	0xbeef3ade	-0.467246
169	0x3e1d8877	0.15384088
170	0xbe66f0c0	-0.22552776
171	0xbed5180d	-0.41619912
172	0xbe9f0ed6	-0.31066006
173	0xbd9ea4e9	-0.07746298
174	0xbe0e81b0	-0.1391666
175	0x3c355458	0.011067472
176	0x3e5539c4	0.20822817
177	0xbdd1a6b0	-0.10236871
178	0x3cd6a678	0.026202425
179	0x3e1a5a1b	0.15073435
180	0x3e0e7be2	0.13914445
181	0x3e2fdd7b	0.17174332
182	0x3e1efc2f	0.15525888
183	0x3bec4f21	0.0072115813
184	0x3d94e47f	0.07270145
185	0xbd4727c3	-0.048621904
186	0x3cb18989	0.021672027
187	0x3d96f787	0.07371431
188	0xbc92a289	-0.017899768
189	0xbec1d986	-0.3786127
190	0x3e4db150	0.2008717
191	0xbdbf66e2	-0.09345795
192	0xbeea2c28	-0.45736814
193	0x3d6c3293	0.05766542
194	0xbddb12d0	-0.106969476
195	0xbefcf21f	-0.49403474
196	0x3e68e154	0.22742206
197	0xbd186cfd	-0.037213314
198	0x3d7c3ef7	0.061583485
199	0x3e56f981	0.20993616
200	0xbc18fd60	-0.009337753
201	0x3e5c301f	0.21502732
202	0x3e5493bd	0.20759483
203	0x3e490e0c	0.19634265
204	0x3e158bde	0.14604136
205	0x3e604089	0.21899618
206	0x3e36872a	0.17824998
207	0x3f151ea8	0.582499
208	0x3ea2a26f	0.31764552
209	0x3e7cdb0c	0.24692935
210	0x3db99c89	0.0906306
211	0x3d2ee6b6	0.04270049
212	0x3e3bf6b4	0.18355829
213	0x3d9d6871	0.07685936
214	0x3c40822b	0.011749784
215	0xbe146200	-0.14490509
216	0xbe06c112	-0.13159588
217	0x3ed62f5b	0.41833004
218	0x3d92cf9b	0.07168504
219	0xbe4f5c45	-0.20250042
220	0x3e9124c5	0.28348365
221	0x3df27ee8	0.11840612
222	0xbef8809e	-0.48535627
223	0x3dd40a7e	0.10353564
224	0x3d19ede3	0.037580382
225	0xbc7d5cde	-0.015464036
226	0xbe1729a4	-0.14761978
227	0xbd68bcad	-0.05682056
228	0xbe1f1e48	-0.15538895
229	0xbe285c38	-0.16441429
230	0x3e1eae39	0.15496148
231	0xbe025f44	-0.12731653
232	0x3d4053b2	0.046954818
233	0x3dda5580	0.10660839
234	0x3e30876c	0.1723916
235	0xbe3a5ee0	-0.18200254
236	0xbc064234	-0.008194495
237	0xbdcadab6	-0.09904997
238	0xbd886af7	-0.06661027
239	0xbdbb0070	-0.09130943
240	0xbd215c52	-0.039394684
241	0xbe24d9bb	-0.16098683
242	0x3d514097	0.05108699
243	0xbe6cf504	-0.23140341
244	0xbc2084a6	-0.009797251
245	0x3e8ea5c0	0.27860832
246	0xbdb0bf86	-0.0863028
247	0xbd504f69	-0.05085698
248	0x3e0dcd2a	0.13847795
249	0xbdccbb79	-0.09996695
250	0xb8a00f5a	-7.632254e-05
251	0x3deb4079	0.114869066
252	0x3e26fdbc	0.1630773
253	0x3d431e58	0.04763636
254	0x3d1d4ef9	0.038405392
255	0x3bc3ad3f	0.0059715803

conv2.bias f4 [16]
0	0xbd6b96b1	-0.057516757
1	0xbe1b0359	-0.15137996
2	0x3db41b29	0.08794243
3	0xbdb5f8c1	-0.08885337
4	0xbe191444	-0.14949137
5	0xbe6ef5af	-0.23335908
6	0xbe594451	-0.21217467
7	0xbdc22d24	-0.09481266
8	0xbdd1ee82	-0.1025057
9	0xbe0e7759	-0.13912715
10	0xbd9e49ad	-0.07728896
11	0xbdc17812	-0.0944673
12	0xbcc3b263	-0.023888772
13	0xbe0674a8	-0.13130438
14	0x3cee4401	0.029085161
15	0xbe0f170e	-0.13973638

conv3.weight f4 [16, 16, 8, 1]
0	0xbe139d50	-0.14415479
1	0xbe21e283	-0.15809064
2	0xbdc88dd6	-0.09792678
3	0xbcdd6e4b	-0.02703013
4	0xbe4c3f03	-0.19945912
5	0xbeb89639	-0.3605211
6	0xbe45ce68	-0.19317019
7	0x3dfb70f3	0.12277403
8	0x3ea29c3c	0.31759822
9	0x3e49c4fb	0.19704048
10	0x3e53434f	0.20631145
11	0x3d6b2547	0.057408597
12	0x3e21e4ef	0.15809987
13	0x3e9d3c9a	0.30710298
14	0xbe77ff41	-0.24218465
15	0xbeb89532	-0.36051327
16	0x3ea3c624	0.31987107
17	0x3e86c171	0.2631946
18	0x3e78b5e7	0.2428814
19	0x3e856a9b	0.26057896
20	0x3d4abaa4	0.0494944
21	0x3da316e8	0.079633534
22	0xbe5ccee9	-0.21563305
23	0xbe1ce1a5	-0.15320452
24	0xbc3aeae7	-0.011408544
25	0xbd86a0d7	-0.065736465
26	0xbdc56034	-0.0963749
27	0xbdb2f00e	-0.08737193
28	0x3df156c3	0.117841266
29	0xbe54c67b	-0.2077884
30	0x3e0788fa	0.13235846
31	0xbd49b5ad	-0.049245525
32	0xbda08a0d	-0.07838831
33	0xbde4ecb2	-0.111779585
34	0xbd4c8cfc	-0.04993914
35	0x3caa8079	0.020813214
36	0x3c804d7f	0.015661953
37	0x3e142a4b	0.14469258
38	0x3dae3893	0.085068844
39	0x3d87dcc8	0.066339076
40	0xbec26fa2	-0.37975794
41	0x3d1487c7	0.0362623
42	0x3c6dcc96	0.014514109
43	0x3d74f8a8	0.05980745
44	0xbd1cac48	-0.038250238
45	0x3d3858bc	0.0450065
46	0xbec0e304	-0.376732
47	0xbccbf771	-0.024898263
48	0xbeb14697	-0.34624168
49	0xbd3718a3	-0.04470123
50	0xbc576b58	-0.013148151
51	0xbde0e660	-0.109814405
52	0x3cfbe82f	0.030750362
53	0x3defba10	0.117054105
54	0xbdb243fd	-0.08704374
55	0xbdb64a45	-0.089008845
56	0x3e493e39	0.19652642
57	0x3c63e407	0.013909346
58	0x3de44845	0.11146597
59	0x3d1d2d0e	0.038373046
60	0x3b01c6d4	0.0019802349
61	0xbe04ecae	-0.12980911
62	0x3e5f6fde	0.21820018
63	0xbd73ae7b	-0.05949257
64	0x3dedae9d	0.116055705
65	0x3da7790c	0.08177385
66	0x3e0ecb7b	0.13944809
67	0x3e49cb9a	0.19706574
68	0xbbbf954a	-0.005846654
69	0x3db6a57d	0.08918283
70	0x3f512583	0.81697863
71	0x3b3284ca	0.0027239793
72	0x3d2a2454	0.04153855
73	0x3c6dd4e8	0.014516093
74	0xbbb37c03	-0.00547743
75	0xbcfd7294	-0.030938424
76	0xbd554016	-0.05206307
77	0x3cb8213d	0.022476787
78	0xbec4a4a4	-0.3840686
79	0x3e724de3	0.23662524
80	0x3e0ec6eb	0.13943069
81	0xbdd0d70e	-0.101972684
82	0xbda3dbc2	-0.080009
83	0xbe173065	-0.14764555
84	0xbdfcfceb	-0.12352928
85	0xbe161719	-0.14657249
86	0x3e67ab8a	0.2262403
87	0xbddf5e46	-0.10906653
88	0xbf00905e	-0.50220287
89	0xbd1f636f	-0.038913187
90	0x3daf5e99	0.08562965
91	0xbb8a40b1	-0.0042191376
92	0x3e91e896	0.2849776
93	0xbe4e17cc	-0.20126265
94	0xbf227d01	-0.6347199
95	0x3dee6b48	0.11641556
96	0xbd5a8df7	-0.053358044
97	0xbe4e98bb	-0.2017545
98	0xbe540e4f	-0.20708583
99	0xbd2ee6dd	-0.042700637
100	0xbdab62fc	-0.08368489
101	0xbe8cf1e6	-0.27528304
102	0x3bd0f41f	0.0063767578
103	0x3dd17f76	0.10229389
104	0x3dc043ea	0.093879536
105	0x3e53802b	0.20654361
106	0x3e6e4f3b	0.23272412
107	0x3e27996c	0.1636712
108	0xbc824168	-0.015900329
109	0x3e88b3f6	0.266998
110	0x3eee5aae	0.46553558
111	0xbe763243	-0.24042611
112	0x3e93d45d	0.28872958
113	0x3e010a31	0.12601544
114	0x3d923179	0.071383424
115	0x3e15a509	0.14613737
116	0xbd2dad88	-0.04240182
117	0xbc6ffdae	-0.014647884
118	0xbd8446f9	-0.064588495
119	0x3d0479d0	0.032342732
120	0xbebcc50e	-0.3686909
121	0xbe958f94	-0.29211104
122	0xbe2d7724	-0.1693998
123	0xbe171b23	-0.14756446
124	0xbe4437e7	-0.1916195
125	0x3d3c0cf9	0.04591081
126	0x3e4d668a	0.20058647
127	0xbd3ee1c5	-0.04660203
128	0xbd11b5ee	-0.035573892
129	0x3bdce4aa	0.006741126
130	0xbdab1d51	-0.08355201
131	0x3d4be23a	0.049776293
132	0x3b400cb6	0.0029304451
133	0xbccef8cb	-0.025265118
134	0x3ea2b38f	0.31777617
135	0x3d6034f1	0.05473799
136	0xbd5fa796	-0.05460318
137	0x3ce44aed	0.027867759
138	0x3ce6c34a	0.028169293
139	0x3d6b429f	0.05743658
140	0x3e29c448	0.16578782
141	0x3ea30b49	0.31844547
142	0xbe8cd5e8	-0.27506948
143	0xbe854370	-0.26028013
144	0xbd7ae641	-0.061254743
145	0xbcd09450	-0.025461346
146	0x3d0e1d5c	0.034695968
147	0x3da1ad95	0.07894436
148	0xbd932e3d	-0.071865536
149	0x3e0874ba	0.13325778
150	0xbe3475df	-0.17623089
151	0xbd2d796d	-0.04235213
152	0xbe31bdc1	-0.17357542
153	0x3e35e2e1	0.17762329
154	0xbd9fd1c4	-0.078036815
155	0xbddf35b4	-0.10898915
156	0xbe4d78b9	-0.20065583
157	0xbe88d658	-0.2672603
158	0xbdcf9349	-0.10135514
159	0xbea8f335	-0.32998052
160	0xbd793c64	-0.06084861
161	0x3cc523f6	0.024065
162	0xbe1f8968	-0.1557976
163	0xbd715563	-0.05891932
164	0xbded413f	-0.1158471
165	0x3e07a4c4	0.13246447
166	0xbe821377	-0.25405475
167	0xbc5f6767	-0.013635493
168	0x3ba92097	0.0051613557
169	0x3d5f6c86	0.054546855
170	0x3c229e7b	0.00992548
171	0xbd2873aa	-0.04112593
172	0x3d06c09e	0.032898538
173	0xbd152f6f	-0.03642219
174	0xbef5b14c	-0.4798683
175	0xbc999afb	-0.018750658
176	0xb9f60aa5	-0.00046928707
177	0xbc0f7624	-0.008756194
178	0xbda9bda7	-0.082881264
179	0xbd1dd8c9	-0.03853682
180	0x3d4fef49	0.05076531
181	0x3dc14e3c	0.0943875
182	0x3e20fb1c	0.1572079
183	0xbd74180f	-0.059593257
184	0x3e7b5601	0.24544527
185	0x3e59fd78	0.21288097
186	0x3df8fe3c	0.12157866
187	0x3e43033d	0.19044204
188	0x3e20b3f4	0.15693647
189	0x3ea88937	0.32917187
190	0x3ec39ea2	0.38206965
191	0xbc54ee2c	-0.012996238
192	0x3c866576	0.016405802
193	0x3e5f83ca	0.21827617
194	0x3e84956b	0.25895247
195	0x3e5d4e29	0.21611847
196	0x3e681fea	0.22668424
197	0x3e834783	0.25640497
198	0x3f442f11	0.7663432
199	0xbd997e16	-0.07494752
200	0x3bbd259d	0.005772306
201	0xbd3e8d58	-0.046521515
202	0x3d5ae72a	0.05344311
203	0xbca88f1b	-0.02057605
204	0x3d752421	0.05984891
205	0x3e378deb	0.17925231
206	0xbe7f45a7	-0.24928914
207	0x3e5880d2	0.21142891
208	0xbe393dbc	-0.18089956
209	0xbe6481af	-0.22315095
210	0xbe580308	-0.21094906
211	0xbe1a7177	-0.15082346
212	0xbdf4091e	-0.119158015
213	0xbe86876a	-0.26275188
214	0x3ede7632	0.4344955
215	0xbecb8198	-0.3974731
216	0x3e1fdb56	0.15611014
217	0x3e1c1536	0.15242466
218	0x3e14d056	0.14532599
219	0x3e13a415	0.14418061
220	0x3db42586	0.087962195
221	0x3d8e93dc	0.06961796
222	0xbe08d200	-0.13361359
223	0x3db5504c	0.08853206
224	0xbd260e09	-0.04054073
225	0xbcf739db	-0.030178955
226	0xbcb65080	-0.022255182
227	0xbdc08afa	-0.09401508
228	0xbe187906	-0.14889917
229	0x3c8c7b52	0.017148647
230	0xbd70d495	-0.058796484
231	0x3e5d6c3c	0.2162332
232	0x3d55fe27	0.05224433
233	0x3dc3c676	0.09559338
234	0x3dc7bb28	0.09752494
235	0x3d80c032	0.06286658
236	0x3e203e37	0.15648733
237	0xbd92f5ab	-0.07175764
238	0x3e000b1c	0.12504238
239	0xbeb31630	-0.34977865
240	0xbd3b4cc9	-0.045727525
241	0x3b855636	0.004069115
242	0xbd4890d5	-0.048966248
243	0x3ce72d9a	0.028219987
244	0xbd97dbad	-0.07414947
245	0xbcd86072	-0.026413176
246	0xbebd1971	-0.36933473
247	0x3e9ddbb9	0.30831698
248	0x3e0d0b51	0.13773848
249	0x3dc39114	0.09549156
250	0x3df6afd4	0.12045255
251	0x3d8548fb	0.065080605
252	0xbd2b7932	-0.041863628
253	0x3e424898	0.18973005
254	0x3e1d3595	0.15352471
255	0x3eafe8ac	0.34357202

conv3.bias f4 [16]
0	0xbd72b1e8	-0.059251696
1	0xbd95c437	-0.07312816
2	0x3c2b772c	0.0104654245
3	0xbd2ed279	-0.04268119
4	0xbd0d10de	-0.034439914
5	0x3e6f8e24	0.23394066
6	0x3dfc67e3	0.12324502
7	0x3d9b8fdb	0.07595798
8	0xbda3c90b	-0.0799733
9	0xbe941c3d	-0.28927794
10	0x3e754291	0.23951174
11	0x3eb5bf17	0.35497352
12	0xbd553689	-0.052053962
13	0x3d0d3535	0.03447457
14	0x3e82835d	0.25490847
15	0xbcb672b4	-0.022271492

tcn.tcn.0.conv1.weight f4 [16, 16, 5]
0	0x3e312d8e	0.17302534
1	0x3e0e41e7	0.13892327
2	0x3d9e44cc	0.07727966
3	0xbdbdb690	-0.09263337
4	0xbe825c7a	-0.2546118
5	0x3e1211c9	0.14264597
6	0x3dacf59f	0.08445286
7	0x3dc980a3	0.09838989
8	0x3b3d4f51	0.0028886388
9	0xbeac1f37	-0.33617565
10	0x3e7ff2b7	0.24994932
11	0x3dbd33f2	0.092384234
12	0x3e2b52b4	0.16730767
13	0xbd27fa9a	-0.041010477
14	0x3c42ea92	0.011896746
15	0x3e942e2f	0.28941485
16	0x3e20392d	0.15646811
17	0x3dcecb39	0.100973554
18	0x3d3f113d	0.0466473
19	0x3e8dfeb3	0.27733383
20	0x3e14aadf	0.14518307
21	0x3d9637da	0.073348716
22	0x3e9bb03d	0.30407897
23	0x3e44036b	0.19141929
24	0xbd502bc3	-0.050822984
25	0xbd4c05d9	-0.049810264
26	0x3e1e94da	0.1548647
27	0x3e3dfad2	0.18552712
28	0xbd106191	-0.035249297
29	0x3e77d728	0.2420317
30	0x3db5b325	0.0887206
31	0x3cf13748	0.029445305
32	0xbe1a0568	-0.15041125
33	0xbdde33b2	-0.10849704
34	0x3d4d54bc	0.050129637
35	0xbdf75daa	-0.12078412
36	0xbe63ead5	-0.2225755
37	0xbe8bd11e	-0.2730798
38	0xbd54981d	-0.05190288
39	0xbe6c61d5	-0.23084195
40	0xbda6b54c	-0.081400484
41	0xbcdf2857	-0.027240915
42	0xbdf35b14	-0.11882606
43	0xbe3a2912	-0.1817973
44	0xbe070367	-0.13184892
45	0x3c9e9d74	0.019362189
46	0xbe2f9779	-0.17147626
47	0xbe18fe61	-0.14940788
48	0xbc9784ee	-0.018496003
49	0x3e1e8888	0.1548177
50	0xbd0ec95e	-0.034860007
51	0xbd3c2222	-0.04593099
52	0xbe6e1269	-0.2324921
53	0xbeeea806	-0.46612567
54	0xbe918ec5	-0.28429237
55	0xbda319d2	-0.07963909
56	0xbe14256f	-0.14467405
57	0xbe83c253	-0.25734195
58	0xbec9f42e	-0.39444107
59	0xbeb8d61a	-0.36100847
60	0xbd0c87e4	-0.034309283
61	0xbd801881	-0.06254674
62	0xbc0419cf	-0.008062794
63	0xbe793d15	-0.24339707
64	0xbe2bbc8e	-0.16771147
65	0x3e9c7295	0.3055617
66	0x3e7b4b67	0.24540482
67	0x3da02c47	0.07820945
68	0x3de7323f	0.112888806
69	0x3d77510d	0.06038003
70	0xbe30a4ce	-0.17250368
71	0x3b8730c1	0.004125685
72	0xbde5ffdc	-0.11230442
73	0xbdf1c40c	-0.11804971
74	0x3d711017	0.058853235
75	0xbbf8f895	-0.0075979927
76	0xbddcf8b0	-0.10789621
77	0x3d57efc1	0.05271888
78	0xbd101f89	-0.035186324
79	0xbdaaab60	-0.083334684
80	0x3e848b19	0.25887373
81	0x3eb34b00	0.35018158
82	0x3d18518c	0.037187144
83	0x3e0ac50a	0.13551727
84	0x3dca79c5	0.09886507
85	0x3e2c200f	0.16809104
86	0x3eb2fa51	0.349566
87	0x3c0abc7c	0.00846779
88	0x3e3864ef	0.18007253
89	0x3e840682	0.25786215
90	0x3d36134f	0.044452008
91	0x3eb4bfb9	0.35302523
92	0x3e8932d0	0.2679658
93	0x3e6f012a	0.23340288
94	0x3ec79a14	0.3898474
95	0xbd4b69f9	-0.04966161
96	0xbd0aa0d8	-0.0338448
97	0xbe8dcf6c	-0.27697313
98	0x3d9674de	0.073465094
99	0xbcd5162e	-0.026011553
100	0xbee7d000	-0.4527588
101	0xbea5c567	-0.3237717
102	0xbcc4612a	-0.023972113
103	0xbb08132a	-0.0020763376
104	0x3def1c68	0.1167534
105	0x3e287449	0.1645061
106	0x3e035381	0.12824823
107	0x3db7b1c0	0.0896945
108	0x3daded91	0.08492578
109	0x3d921c13	0.07134261
110	0xbe9d7227	-0.30751154
111	0xbe926f9e	-0.28600782
112	0xbe358b95	-0.17729028
113	0xbdbe5f3b	-0.092955075
114	0xbdd3b112	-0.10336508
115	0x3c2a9021	0.01041034
116	0x3ba59677	0.005053337
117	0x3d714301	0.05890179
118	0x3e5fe617	0.21865116
119	0x3e221df0	0.15831733
120	0x3d104eb2	0.0352313
121	0x3e3e1013	0.1856082
122	0x3aaab8b4	0.0013025017
123	0x3e3f7114	0.1869548
124	0x3d4404fc	0.047856316
125	0xbd6cfe7a	-0.057859875
126	0xbe28a8a1	-0.16470577
127	0xbe843b81	-0.25826648
128	0xbe462c12	-0.19352749
129	0xbd2f7424	-0.04283537
130	0xbc90513f	-0.017616866
131	0xbdbf0b73	-0.09328356
132	0xbd6ae65c	-0.057348594
133	0xba599df4	-0.000830143
134	0xbbddf815	-0.0067739584
135	0x3daf46e6	0.08558445
136	0x3e821659	0.25407675
137	0x3e03b286	0.1286107
138	0x3dd29c30	0.10283697
139	0x3e328526	0.17433605
140	0xbd86e16e	-0.06585966
141	0xbcb5fad6	-0.022214334
142	0x3d659560	0.05605066
143	0xbd03f152	-0.032212563
144	0x3e03a431	0.12855603
145	0xbe77a618	-0.24184453
146	0xbe16c762	-0.14724496
147	0xbe2e0b9a	-0.16996613
148	0x3d19d4e0	0.03755653
149	0x3e3cb8ac	0.18429822
150	0x3e1db306	0.15400323
151	0xbda71d86	-0.08159928
152	0x3d26da1a	0.04073534
153	0xbd4f4ad9	-0.05060849
154	0xbe081eb7	-0.13292967
155	0x3c85f43f	0.016351817
156	0x3dfcc51f	0.12342285
157	0xbe01bd7b	-0.12669937
158	0xbe1084cd	-0.1411316
159	0x3e3934de	0.18086573
160	0xbe32674c	-0.17422217
161	0xbcf6b8e3	-0.030117458
162	0xbe139261	-0.14411308
163	0xbda4e572	-0.08051576
164	0xbe8b6d4d	-0.27231827
165	0x3e6a1f55	0.22863515
166	0x3dc4e126	0.09613256
167	0x3df54acc	0.11977157
168	0xbd35e0c4	-0.044403806
169	0xbdfc7280	-0.12326527
170	0x3e1df9b6	0.15427288
171	0x3c6c7ad3	0.01443358
172	0xbc7a828f	-0.015289917
173	0xbd900a9a	-0.07033272
174	0xbe78d015	-0.24298127
175	0xbd966202	-0.07342912
176	0x3d207d6a	0.039182104
177	0xbe19316f	-0.14960264
178	0xbed126ef	-0.40850016
179	0xbe832e9b	-0.25621495
180	0xbcadbcba	-0.021208156
181	0xbe0cce33	-0.13750534
182	0xbdf8018d	-0.12109671
183	0xbaa56dc6	-0.0012621216
184	0xbc465652	-0.012105541
185	0x3de9bf56	0.114134476
186	0x3e6be855	0.23037846
187	0x3c11aa80	0.008890748
188	0xbe6718fe	-0.22568128
189	0xbe0fb174	-0.14032537
190	0x3d44cbd3	0.048045944
191	0x3c90131f	0.017587243
192	0xbdb53e76	-0.08849804
193	0xbdca69ea	-0.09883483
194	0x3dd97239	0.10617489
195	0xbdc0b51d	-0.094095446
196	0xbe823af5	-0.25435606
197	0xbd81bada	-0.06334467
198	0x3d43c0c4	0.047791258
199	0xbd4bf22f	-0.04979151
200	0x3e04ba73	0.1296175
201	0xbd204ceb	-0.039135855
202	0xbd63f0e6	-0.05564966
203	0xbe10b270	-0.14130569
204	0xbd84a1e4	-0.06476191
205	0x3c792540	0.015206635
206	0xbdf2ff8a	-0.118651465
207	0x3ce331bf	0.027733682
208	0x3e182848	0.14859116
209	0xbe139fa8	-0.14416373
210	0x3d3cf619	0.046133135
211	0xbda54028	-0.080688775
212	0xbe2247db	-0.15847723
213	0xbe036ba5	-0.12834032
214	0xbe88f4f2	-0.26749378
215	0xbe6730e1	-0.2257724
216	0xbdb1f726	-0.08689718
217	0x3da4b17e	0.080416664
218	0x3debf746	0.11521773
219	0xbe0899fc	-0.1333999
220	0xbe77b5a9	-0.24190392
221	0xbe92f8fe	-0.2870559
222	0xbd6cd8c7	-0.057823922
223	0x3d2db9cc	0.042413518
224	0xbe3f9900	-0.18710709
225	0xbe88c2a5	-0.26711002
226	0xbec0cc4a	-0.3765586
227	0xbea44f91	-0.32091954
228	0xbe0e4580	-0.138937
229	0xbef754a3	-0.4830676
230	0xbec3605a	-0.38159448
231	0xbea05384	-0.31313717
232	0xbc51a276	-0.012795081
233	0xbb78a218	-0.0037938412
234	0xbd558140	-0.052125216
235	0xbc9bb8df	-0.019009052
236	0xbe0bc4cf	-0.13649295
237	0x3de21c62	0.1104057
238	0xbdf75572	-0.12076844
239	0xbeb564af	-0.35428378
240	0xbe7132c6	-0.23554525
241	0xbd969df8	-0.07354349
242	0x3d64c615	0.05585297
243	0x3ecd5373	0.4010273
244	0x3e917d7b	0.28416047
245	0xbdf19dc4	-0.117976695
246	0x3de05527	0.109537415
247	0x3d3da020	0.046295285
248	0x3ce5db90	0.028058797
249	0xbb594d14	-0.0033157514
250	0xbe3516d7	-0.17684494
251	0x3db82e80	0.08993244
252	0x3f020c2f	0.5079984
253	0x3e2a3ee8	0.1662556
254	0x3e932ba5	0.28744236
255	0xbc2b8eaf	-0.01047103

tcn.tcn.0.conv1.bias f4 [16]
0	0xbdfdebf9	-0.12398524
1	0xbd81e2aa	-0.06342061
2	0x3e0ff0d0	0.14056706
3	0xbd667d71	-0.056271974
4	0xbd2db6a5	-0.04241051
5	0x3d09c9ef	0.033639845
6	0x3c0ae611	0.008477704
7	0xbe349575	-0.17635138
8	0xbd1e33f4	-0.038623765
9	0x3e0eb163	0.13934855
10	0x3d5ab903	0.053399097
11	0xbbc51d91	-0.0060154875
12	0x3e452505	0.19252403
13	0x3c9fff4a	0.019530911
14	0xbdde174b	-0.108442865
15	0x3ce4e6b1	0.027942033

tcn.tcn.0.conv2.weight f4 [16, 16, 1]
0	0x3e23f40b	0.16011064
1	0xbc0ee85c	-0.008722391
2	0x3e679408	0.22615063
3	0x3d59a4b6	0.053135596
4	0x3e6a894c	0.22903937
5	0xbe5818e9	-0.21103252
6	0x3e707ba8	0.23484671
7	0x3e5ada2e	0.21372291
8	0x3e428cb1	0.18998982
9	0xbd4a63a8	-0.049411446
10	0xbe3cce63	-0.18438105
11	0xbdae22ad	-0.08502708
12	0x3e6df662	0.23238519
13	0x3cd38460	0.025819957
14	0xbe2fdfa9	-0.17175163
15	0x3ee0889f	0.43854234
16	0xbdbd1a83	-0.09233572
17	0x3dd67b55	0.104727425
18	0xbc1bb016	-0.009502431
19	0x3e49aa42	0.19693854
20	0x3dc89efc	0.09795949
21	0x3e5585c3	0.20851807
22	0x3e64579a	0.22299042
23	0xbbce2e63	-0.006292151
24	0xbdac15fe	-0.08402632
25	0xba850ed8	-0.0010151519
26	0xbde0f5ab	-0.109843574
27	0xbdaa603e	-0.08319138
28	0xbc911a51	-0.017712744
29	0xbdea2baa	-0.114341095
30	0xbe008ded	-0.1255414
31	0x3ed07144	0.40711415
32	0x3de865d1	0.11347545
33	0x3e10d65b	0.1414427
34	0xbe39e0d2	-0.18152168
35	0x3e88bd23	0.267068
36	0xbd01c9c6	-0.031686567
37	0xbd1aca84	-0.03779079
38	0xbdc52e1e	-0.09627937
39	0x3dc29a41	0.09502078
40	0x3d09bcf1	0.033627454
41	0x3eb48a33	0.35261688
42	0x3e2e6c17	0.1703342
43	0x3e1f004b	0.15527456
44	0xbe49223d	-0.19641967
45	0x3e6513e8	0.22370875
46	0xbd131676	-0.035910092
47	0xbde6c069	-0.11267168
48	0x3e2d8673	0.1694582
49	0x3eac0a16	0.33601445
50	0xbd92d754	-0.07169977
51	0x3d0d314d	0.034470845
52	0xbd614600	-0.054998398
53	0x3e43e9de	0.19132182
54	0x3e9cb922	0.30609995
55	0x3ddeefbc	0.108855695
56	0xbe32251c	-0.17396969
57	0xbe7850fe	-0.24249646
58	0xbdcb97df	-0.099410765
59	0xbe7a64e0	-0.24452543
60	0x3e82d541	0.25553325
61	0x3d81ad34	0.06331864
62	0x3d83b81d	0.06431601
63	0x3e859eed	0.26097813
64	0x3da9c452	0.08289398
65	0x3ea543ed	0.32278386
66	0xbd7adaed	-0.06124394
67	0xbd2c1a2e	-0.042017154
68	0x3d946853	0.07246461
69	0x3b51b24f	0.003199715
70	0xbdc5557a	-0.09635444
71	0xbef53986	-0.4789545
72	0xbd2dff7d	-0.04247998
73	0xbec17c01	-0.3778992
74	0xbcb2d582	-0.021830324
75	0xbe388119	-0.18017997
76	0xbdac1558	-0.084025085
77	0x3dec5303	0.11539271
78	0xbcca2dd7	-0.024680061
79	0x3dd2395e	0.10264848
80	0x3df96bc9	0.121787615
81	0x3db3e189	0.08783252
82	0xbc481f23	-0.012214455
83	0xbd04b73e	-0.032401316
84	0xbeb0cba0	-0.34530354
85	0x3cd9e29d	0.026597315
86	0xbbd5391e	-0.006507053
87	0xbed08dfe	-0.4073333
88	0x3e853ec6	0.26024455
89	0xbea8c87e	-0.32965463
90	0xbe0b86f4	-0.136257
91	0xbf0e64e1	-0.5562268
92	0xbd4a204a	-0.0493472
93	0x3cacba65	0.021084974
94	0x3e707726	0.23482952
95	0x3d3754c1	0.044758562
96	0xbdd4755e	-0.103739485
97	0xbe5071e7	-0.2035595
98	0xbe1d5b29	-0.15366806
99	0xbe5f6a5f	-0.21817921
100	0xbdaf9932	-0.085741416
101	0x3bc5cb44	0.006036194
102	0xbdd202fe	-0.10254477
103	0xbdae8807	-0.08522039
104	0xbe59e068	-0.2127701
105	0x3e6ef3dd	0.23335214
106	0xbe8d763e	-0.27629274
107	0xbe8dd51f	-0.2770166
108	0x3dcd7c1f	0.1003344
109	0xbe8e9c95	-0.27853838
110	0xbcf2c9bd	-0.029637212
111	0xbd10a1f0	-0.035310686
112	0xbec8e000	-0.39233398
113	0xbc14d482	-0.009083869
114	0xbca3821a	-0.019959498
115	0x3e2cce0a	0.16875473
116	0xbd8a8238	-0.067631185
117	0x3e6c0969	0.23050465
118	0x3e012fda	0.1261591
119	0x3dc34536	0.09534685
120	0x3e82de36	0.25560158
121	0x3e747225	0.23871668
122	0x3d019133	0.031632613
123	0x3dc0a55e	0.09406541
124	0x3e69d91f	0.22836731
125	0x3e80a94e	0.2512917
126	0xbe995181	-0.29944995
127	0xbe5b6246	-0.21424207
128	0xbdb2d19d	-0.08731387
129	0x3cdcb73b	0.02694284
130	0x3e76dc25	0.24107416
131	0xbc70c1dd	-0.014694658
132	0x3b40afcc	0.0029401658
133	0x3d633398	0.055469126
134	0x3d830f9b	0.06399461
135	0xbd1836e3	-0.03716172
136	0xbd83cb89	-0.064353056
137	0x3e99de1b	0.30052266
138	0x3d67db82	0.056605823
139	0xbe34f80f	-0.17672752
140	0xbd294670	-0.04132694
141	0x3db9d74b	0.09074267
142	0xbec05743	-0.37566575
143	0x3e81f8e1	0.25385192
144	0xbe06f45e	-0.13179156
145	0x3e8b6f3c	0.27233303
146	0xbe3b5d09	-0.18297209
147	0x3d70634f	0.058688458
148	0x3e6b8e86	0.23003587
149	0x3e17436a	0.1477181
150	0x3dd6d99f	0.10490727
151	0xbcdb77ba	-0.026790489
152	0xbd0c7d38	-0.034299105
153	0xbe13ccf0	-0.14433646
154	0xbe0e58cd	-0.13901062
155	0x3cd1d221	0.025612893
156	0xbe88bd91	-0.26707128
157	0x3973c102	0.00023246187
158	0xbea360cb	-0.31909785
159	0xbce57f88	-0.028014913
160	0xbc98ddc7	-0.01866044
161	0xbd7c598b	-0.061608832
162	0x3d776c44	0.060405985
163	0xbda8ba85	-0.08238701
164	0xbe09a345	-0.13441189
165	0xbdf4c22a	-0.11951096
166	0x3e8e725c	0.27821624
167	0x3e53453f	0.20631884
168	0xbe07a5f7	-0.13246904
169	0x3f13eaed	0.57780343
170	0xbe488306	-0.19581231
171	0x3f0004e0	0.5000744
172	0x3e25f494	0.1620658
173	0x3d3d6fcc	0.046249196
174	0x3d9b8513	0.07593741
175	0xbe143105	-0.14471824
176	0x3ca5bb61	0.02023095
177	0xbdb3e8e8	-0.08784658
178	0xbe96f220	-0.29481602
179	0x3e4a9ab8	0.19785583
180	0xbe819f32	-0.2531677
181	0xbeabd76f	-0.335628
182	0x3cda03e5	0.026613185
183	0x3e8076e0	0.25090694
184	0xbe16b5c9	-0.14717783
185	0x3f0de1a7	0.55422443
186	0xbe028c71	-0.12748887
187	0x3e0de47e	0.13856694
188	0xbcf0a515	-0.029375592
189	0x3dc7f35b	0.09763213
190	0x3ee1a4f4	0.44071162
191	0x3e8cd709	0.2750781
192	0xbdf64ae4	-0.12026003
193	0xbec73096	-0.38904256
194	0x3e285493	0.16438513
195	0xbd76d042	-0.060257204
196	0xbe594fcc	-0.21221846
197	0x3c10bcc5	0.008834069
198	0xbe1c76e1	-0.15279724
199	0x3e989555	0.2980143
200	0xbded9c0f	-0.116020314
201	0x3e82e7b6	0.25567406
202	0xbdd0b025	-0.10189847
203	0x3e923d2f	0.28562304
204	0x3e607506	0.21919641
205	0xbe29cd79	-0.16582288
206	0x3d826ebd	0.06368778
207	0xbe6427d5	-0.2228082
208	0x3e21408e	0.15747282
209	0x3de1e844	0.11030629
210	0x3e83a7aa	0.25713855
211	0xbd35528e	-0.044268183
212	0xbd3392f5	-0.04384132
213	0xbe5a8704	-0.21340567
214	0xbd3e4b14	-0.04645832
215	0x3ec3d25d	0.38246432
216	0xbe4eaea0	-0.20183802
217	0x3eac8ab5	0.33699575
218	0xbe430ad7	-0.19047104
219	0xbd2d9113	-0.04237468
220	0x3e7dc1fb	0.24781029
221	0x3e35491f	0.17703675
222	0xbe386c92	-0.18010166
223	0x3e978270	0.29591703
224	0x3d42a322	0.047518857
225	0xbd57c534	-0.052678302
226	0xbd2bc8a1	-0.04193938
227	0xbe845cfd	-0.25852194
228	0xbdf27501	-0.11838723
229	0x3c655e97	0.013999603
230	0xbe4ea678	-0.2018069
231	0x3ead96e7	0.33904192
232	0xbd935017	-0.0719301
233	0x3f05d21d	0.5227373
234	0xbe8698e4	-0.2628852
235	0x3e38a514	0.18031722
236	0xbd254b84	-0.04035522
237	0xbd59961a	-0.053121664
238	0xbe69fad5	-0.22849591
239	0xbdd300b1	-0.10302866
240	0x3c7af6e0	0.015317649
241	0xbe4e5a43	-0.2015162
242	0xbdb26890	-0.0871135
243	0xbe80cea0	-0.25157642
244	0x3dd888eb	0.1057299
245	0xbd290cdf	-0.04127204
246	0xbd8a7dd8	-0.06762284
247	0xbdfff2ba	-0.12497468
248	0x3e540702	0.20705798
249	0x3f2ebb62	0.68254673
250	0xbe4d90a9	-0.20074715
251	0xbd5b1c78	-0.053493947
252	0x3c9be4c2	0.019029979
253	0x3e7260d3	0.23669748
254	0xbdac860e	-0.084240064
255	0x3e9a3cd3	0.3012453

tcn.tcn.0.conv2.bias f4 [16]
0	0x3e1952b5	0.14972956
1	0x3d9e3934	0.077257544
2	0x3da401fc	0.08008191
3	0xbd75272a	-0.059851803
4	0x3da1d585	0.07902054
5	0x3cb1911e	0.021675643
6	0xbdd3f62b	-0.10349687
7	0xbcb932f6	-0.022607308
8	0xbe5388ee	-0.20657703
9	0xbe218e9f	-0.15777062
10	0x3db34eba	0.0875525
11	0x3dec8a0d	0.115497686
12	0x3e3ad61e	0.18245742
13	0xbbba94ae	-0.0056939935
14	0x3d7a62f9	0.061129544
15	0x3cf8df1a	0.03037982

tcn.tcn.0.res_conv.weight f4 [16, 16, 1]
0	0x3c63548e	0.01387514
1	0xbdb7f8ba	-0.08982988
2	0x3e4092ae	0.18805954
3	0x3e02ae82	0.12761882
4	0x3d8479f6	0.06468575
5	0x3e1be885	0.15225418
6	0xbd8068a9	-0.06269962
7	0xbd75f7d3	-0.060050797
8	0xbe050335	-0.12989505
9	0xbd9e48e9	-0.0772875
10	0xbe8c13e9	-0.2735894
11	0x3e25ebaa	0.1620318
12	0xbdfbd397	-0.12296217
13	0x3c824688	0.015902773
14	0x3e162d5e	0.14665744
15	0x3c810bc3	0.015752679
16	0x3d46fd58	0.04858145
17	0x3e8e7dde	0.27830404
18	0xbe16554e	-0.14680979
19	0x3dc574f0	0.09641445
20	0x3d4d3eb5	0.05010863
21	0xbdd93ded	-0.106075145
22	0x3e3910a7	0.18072759
23	0xbf085084	-0.5324786
24	0xbd10b24f	-0.0353263
25	0x3c8ca244	0.017167218
26	0xbd35c7af	-0.044379886
27	0x3cd92fb4	0.026512004
28	0x3ea00de0	0.31260586
29	0x3d13aff4	0.036056474
30	0xbe365e1a	-0.17809334
31	0xbe5b5c5b	-0.2142195
32	0x3e1ffd32	0.1562393
33	0xbe7ca563	-0.24672465
34	0xbc9e63ae	-0.01933464
35	0x3e70beab	0.23510234
36	0x3d57df46	0.052703165
37	0xbe81cd39	-0.25351885
38	0x3eba3709	0.36370113
39	0x3df2e341	0.118597515
40	0xbb27b17e	-0.0025587971
41	0x3ebe51ae	0.37171692
42	0x3dd23bd1	0.10265315
43	0xbe9c708f	-0.30554625
44	0xbec64e4d	-0.38731614
45	0x3e9ecc57	0.31015274
46	0x3e296e61	0.16546012
47	0xbd3e71f1	-0.04649538
48	0x3e815c31	0.2526565
49	0xbe8bfcb5	-0.27341238
50	0x3e8b8b27	0.27254602
51	0xbe06d71a	-0.13167992
52	0xbd02e1ae	-0.031953506
53	0xbcbf3eff	-0.023345469
54	0xbdb3f4cb	-0.08786925
55	0x3eb4beeb	0.3530191
56	0xbdd2e5b3	-0.10297718
57	0x3e255376	0.16145119
58	0x3c81ad81	0.015829803
59	0xbe5027bc	-0.20327657
60	0x3d999a2c	0.07500109
61	0x3e82b992	0.25532204
62	0x3e24dbe1	0.16099502
63	0xbda82ebb	-0.08212038
64	0xbe6d3e46	-0.23168287
65	0x3ea2d7c0	0.3180523
66	0xbdb5d73b	-0.088789426
67	0xbe885c62	-0.26632982
68	0x3da64056	0.0811774
69	0x3e24ff24	0.16112953
70	0xbe8c3660	-0.27385235
71	0xbe786a4f	-0.24259304
72	0x3c9e8c08	0.019353881
73	0xbc13bce3	-0.009017202
74	0x3e656065	0.22400053
75	0xbdac6fbe	-0.08419751
76	0x3ef26ae2	0.4734717
77	0x3d53542f	0.051593956
78	0xbd454efe	-0.048171036
79	0xbe501e4b	-0.20324056
80	0x3e0c8e3c	0.13726133
81	0x3e5bb16e	0.21454403
82	0xbe401417	-0.18757664
83	0xbd8bae4e	-0.06820355
84	0xbe5a20a1	-0.2130151
85	0x3e2fa863	0.17154078
86	0xbead9520	-0.33902836
87	0xbc3a4777	-0.011369578
88	0x3cf1c034	0.029510595
89	0xbe69e416	-0.22840914
90	0xbd8f7142	-0.07004024
91	0x3d7982a9	0.060915623
92	0xbc21f319	-0.009884619
93	0xbd15437b	-0.036441308
94	0xbcb3f7a7	-0.021968676
95	0x3e6903f3	0.22755413
96	0xbecc73fa	-0.39932233
97	0x3e922d87	0.2855036
98	0x3dc8d099	0.09805412
99	0xbdff1ef8	-0.12457079
100	0x3e36e890	0.17862153
101	0x3de4b88c	0.11168012
102	0xbe65f8ce	-0.22458193
103	0xbcba007a	-0.022705305
104	0xbe0aaca5	-0.13542421
105	0x3e12b2c3	0.14326005
106	0xbe80614f	-0.2507424
107	0x3d136ef3	0.03599448
108	0x3c653182	0.013988854
109	0xbea87918	-0.32904887
110	0xbe0d58ae	-0.1380336
111	0x3e176706	0.14785394
112	0xbe2b259a	-0.16713563
113	0xbde21016	-0.110382244
114	0x3e353685	0.17696579
115	0x3e1ad1d1	0.15119101
116	0xbdc2de13	-0.095150135
117	0x3e8f673f	0.28008458
118	0x3ee7d0fe	0.45276636
119	0xbe24eb34	-0.16105348
120	0xbe11d13d	-0.14239974
121	0xbe8fde80	-0.28099442
122	0xbe1e6eac	-0.15471905
123	0x3d919210	0.07107937
124	0xbd058ec9	-0.032606874
125	0xbe59c0fa	-0.21265021
126	0xbce09124	-0.027412958
127	0xbdfa7f88	-0.12231356
128	0xbe7278c4	-0.23678881
129	0xbe051df3	-0.12999706
130	0x3e27c6a2	0.16384366
131	0xbeb75dc6	-0.3581373
132	0xbe939c09	-0.28829983
133	0xbd81f58b	-0.06345662
134	0xbe62abee	-0.22135898
135	0x3b025308	0.0019885916
136	0xbe687d2a	-0.22703996
137	0x3f49011b	0.7851731
138	0x3ea5c126	0.32373923
139	0x3e33de34	0.17565233
140	0xbe7c2987	-0.24625216
141	0xbdb5382f	-0.08848607
142	0xbe22ef33	-0.1591156
143	0x3eb6a92e	0.3567595
144	0x3eaf59a3	0.34248075
145	0xbb1b311a	-0.002368039
146	0x3e5f353e	0.21797654
147	0xbe291c5c	-0.16514724
148	0xbddd6b7a	-0.10811515
149	0xbdab456d	-0.08362851
150	0x3e4aaebb	0.19793217
151	0x3e1fa5ae	0.15590546
152	0xbdc4d468	-0.09610826
153	0x3ec662a0	0.3874712
154	0x3d3c8121	0.046021584
155	0x3e58ab68	0.21159136
156	0xbe1ee678	-0.15517604
157	0x3edbde39	0.4294298
158	0x3c30e089	0.010795721
159	0xbe88d50e	-0.26725048
160	0x3d3fd736	0.0468361
161	0xbdf1a208	-0.11798483
162	0xbdef8e23	-0.11697032
163	0xbe6f4086	-0.23364457
164	0xbe3be5a2	-0.18349317
165	0xbeca202f	-0.3947768
166	0x3e38cb1e	0.18046233
167	0x3dd37945	0.10325865
168	0xbe20c860	-0.15701437
169	0x3e876e86	0.2645151
170	0xbe1c6ca3	-0.15275817
171	0xbf00d12a	-0.5031916
172	0xbd5a3eff	-0.053282734
173	0xbebfb751	-0.37444547
174	0x3e95bd16	0.29245824
175	0xbe408ec9	-0.18804468
176	0xbf033e6a	-0.5126711
177	0xbe8408eb	-0.25788054
178	0xbe2aeacb	-0.16691129
179	0x3e1b5dca	0.15172496
180	0xbc0093fe	-0.007847784
181	0xbeb705d4	-0.35746634
182	0xbdd9a9fe	-0.106281266
183	0xbe18e4a0	-0.14930964
184	0x3e74db93	0.23911886
185	0xbe2d5567	-0.1692711
186	0xbe8d8ca4	-0.27646363
187	0xbe04ee84	-0.12981611
188	0x3cb07404	0.021539696
189	0xbe374515	-0.17897446
190	0x3bab0512	0.0052191103
191	0xbe285cef	-0.16441701
192	0x3e087846	0.1332713
193	0x3eb268b7	0.34845516
194	0xbdf68d9d	-0.12038729
195	0xbb8e1d7e	-0.004337012
196	0xbd900d96	-0.07033841
197	0xbdb6ee3a	-0.08932157
198	0xbe5f38fe	-0.21799085
199	0xbe550aae	-0.20804855
200	0x3e53eb24	0.20695168
201	0x3e974fb9	0.2955301
202	0xbe338a8e	-0.17533323
203	0xbca91b52	-0.02064291
204	0x3dcfebba	0.10152383
205	0x3c8863a5	0.016649077
206	0xbdaadb34	-0.08342591
207	0x3e6c2584	0.23061186
208	0x3ebf4aa3	0.3736163
209	0x3e745ea5	0.23864229
210	0x3d6fc3a8	0.0585362
211	0x3e80df99	0.2517059
212	0xbdffbdaa	-0.124873474
213	0x3e75fd25	0.24022348
214	0x3e420c0d	0.1894991
215	0x3d967c6b	0.073479496
216	0x3e00e54e	0.12587473
217	0x3e48b7a5	0.19601305
218	0xba7b5c45	-0.00095886394
219	0xbe8293a2	-0.2550326
220	0x3e0a863a	0.13527766
221	0xbd58879a	-0.052863695
222	0x3dc79aa7	0.097462945
223	0xbe76fabe	-0.24119088
224	0xbd9d0a97	-0.076680355
225	0xbe3aa432	-0.18226698
226	0xbd469c82	-0.0484891
227	0x3d82a475	0.06379024
228	0xbe21e6a1	-0.15810634
229	0xbd398838	-0.045295924
230	0x3e38c8f6	0.1804541
231	0x3c181622	0.009282621
232	0xbb96610e	-0.0045892065
233	0x3e1e8c3e	0.15483186
234	0xbdd3287f	-0.103104584
235	0xbc05fa7e	-0.008177398
236	0x3e26c72f	0.1628692
237	0x3e6e598a	0.23276344
238	0x3cc6fa91	0.024289401
239	0xbb03906e	-0.00200751
240	0xbe83764e	-0.25676197
241	0xbd84a538	-0.064768255
242	0xbe33ccdc	-0.17558616
243	0xbe3d50ee	-0.18487903
244	0x3e46b02e	0.19403145
245	0x3e41ccf0	0.18925834
246	0xbd88468d	-0.066540815
247	0x3d79a3c8	0.06094721
248	0xbd895d43	-0.067072414
249	0xbd13955d	-0.036031116
250	0xbe015a89	-0.12632193
251	0x3bc8df71	0.006130152
252	0x3df14ca5	0.11782197
253	0x3e05522d	0.13019629
254	0xbe0e5b2a	-0.13901964
255	0x3dfa4cf6	0.122217104

tcn.tcn.0.res_conv.bias f4 [16]
0	0x3eb0d64f	0.34538504
1	0xbd7b563e	-0.061361544
2	0xbe56cd14	-0.20976669
3	0x3d41c662	0.047308333
4	0xbe31f642	-0.17379096
5	0xbe2d4cef	-0.16923879
6	0xbe5759ac	-0.21030301
7	0xbe104999	-0.14090575
8	0xbd390cf5	-0.045178372
9	0x3e059345	0.1304446
10	0xbcf03e5a	-0.029326607
11	0x3e424179	0.18970288
12	0xbcf3a466	-0.029741477
13	0xbe86bf32	-0.26317745
14	0xbe08f9a5	-0.13376482
15	0x3d3f3766	0.04668369

tcn.tcn.1.conv1.weight f4 [16, 16, 5]
0	0x3bd745a5	0.0065695816
1	0xbe1ef0f5	-0.15521605
2	0xbd34e962	-0.044167884
3	0xbe87f7a5	-0.26556125
4	0xbecdf10b	-0.40222964
5	0x3e8ee083	0.27905664
6	0xbeb62258	-0.35573077
7	0xbe1e2edf	-0.15447567
8	0xbde24867	-0.11048966
9	0x3df36b2f	0.11885678
10	0x3da0a442	0.0784383
11	0x3e44cb77	0.1921824
12	0xbe9e17dd	-0.3087758
13	0xbeabc4a3	-0.3354846
14	0xbe7b7f19	-0.24560203
15	0x3d366bd0	0.04453641
16	0xbe1acc88	-0.15117085
17	0xbdf15ad7	-0.117849045
18	0xbdf741fd	-0.12073133
19	0xbe91c79c	-0.28472602
20	0xbc93e429	-0.018053131
21	0xbd64e61b	-0.05588351
22	0x3ee95dbc	0.45579326
23	0x3e8e6463	0.27810964
24	0x3eabce9d	0.3355607
25	0x3d80c5ab	0.06287702
26	0x3c9336e8	0.017970517
27	0x3ec2db93	0.38058147
28	0x3e22bfca	0.15893474
29	0x3ea2d280	0.31801224
30	0x3d5ff716	0.054679
31	0xbcdbe273	-0.026841378
32	0x3e4ecb3c	0.20194715
33	0x3ea0de76	0.31419724
34	0x3f05f824	0.5233176
35	0xbd8fdea2	-0.07024886
36	0xbe262451	-0.16224791
37	0xbedd1cd0	-0.43186045
38	0xbe9304d2	-0.28714615
39	0xbdeaf1ae	-0.11471878
40	0xbe4129ef	-0.18863653
41	0x3e2c0dce	0.16802141
42	0x3e860c90	0.2618146
43	0x3e28e98c	0.16495341
44	0x3e147c75	0.14500602
45	0xbe1792c3	-0.14802079
46	0xbd87968c	-0.066205114
47	0xbd6403ee	-0.05566781
48	0xbe0c55c4	-0.13704592
49	0xbd6111a7	-0.054948475
50	0x3e016655	0.12636693
51	0x3e4c8dd4	0.19975978
52	0xbde966c9	-0.11396558
53	0xbe8e0c47	-0.27743742
54	0xbea729c6	-0.32649058
55	0x3e7e29d8	0.2482065
56	0xbd2352d6	-0.03987392
57	0xbe9a82a1	-0.30177787
58	0x3d40106f	0.046890672
59	0xbe24cc24	-0.16093498
60	0x3ba01e69	0.0048864377
61	0x3df90dec	0.121608585
62	0x3c12edeb	0.008967857
63	0x3c9d35c4	0.019190677
64	0x3e12fe40	0.14354801
65	0x3ed88157	0.42286178
66	0x3a8b85c7	0.0010644727
67	0xbe5f8de3	-0.21831469
68	0xbe2a41dd	-0.16626687
69	0x3c220420	0.009888679
70	0x3e4e4fe3	0.20147662
71	0x3d8d244c	0.06891689
72	0x3dc68dc2	0.09695007
73	0xbdaeef7d	-0.085417725
74	0xbd9cb6c9	-0.07652051
75	0x3f00fbee	0.50384414
76	0x3d31f167	0.04344311
77	0x3d8df422	0.0693133
78	0x3e2ab51d	0.16670652
79	0x3e0d0768	0.13772357
80	0xbe9dd249	-0.30824497
81	0xbe91308e	-0.28357357
82	0xbdbd2b99	-0.09236831
83	0xbe9dd5e0	-0.30827236
84	0xbde04563	-0.109507345
85	0xbd310895	-0.043221075
86	0x3e284628	0.16433012
87	0xbd9accfe	-0.075586304
88	0x3d877bf2	0.066154376
89	0x3dd3be89	0.10339076
90	0xbee68cce	-0.450293
91	0xbdcc9ef0	-0.099912524
92	0xbe9ae81d	-0.30255213
93	0xbe8b4a6e	-0.27205223
94	0xbecbf304	-0.39833844
95	0x3dca01e8	0.09863645
96	0xbf351ae9	-0.70744187
97	0xbeb9f09b	-0.3631638
98	0xbe7108c4	-0.235385
99	0xbe0fed18	-0.14055288
100	0x3e88ca59	0.2671688
101	0xbc26fb0f	-0.010191693
102	0xbdeba10b	-0.11505326
103	0x3e1c49ab	0.15262477
104	0x3e90ffde	0.2832021
105	0x3eb64416	0.3559882
106	0xbd94dac7	-0.07268291
107	0xbec64fea	-0.38732845
108	0xbd0c0e2e	-0.03419321
109	0x3f05c955	0.52260333
110	0x3dde1f4a	0.10845812
111	0x3e148944	0.14505488
112	0x3ec00f46	0.37511653
113	0x3edba579	0.42899683
114	0x3ec85d2a	0.3913358
115	0xbeab9bd3	-0.33517322
116	0x3c372549	0.011178323
117	0xbe492f7d	-0.19647022
118	0xbda02efb	-0.07821461
119	0x3d19a9a8	0.037515312
120	0xbdc4f181	-0.09616376
121	0x3e426c39	0.18986596
122	0xbe9fefd0	-0.3123765
123	0xbe4b5429	-0.19856323
124	0x3e664249	0.22486223
125	0xbd6b174a	-0.057395257
126	0xbe26464b	-0.16237752
127	0xbe1a5585	-0.15071686
128	0xbcb062ba	-0.021531451
129	0xbd19e293	-0.037569594
130	0xbe4a6c10	-0.19767785
131	0xbe5d98a5	-0.2164026
132	0x3e0a0c6f	0.13481306
133	0xbcccb4ec	-0.024988614
134	0xbd52d157	-0.051469173
135	0x3ec829d3	0.3909441
136	0x3e81800c	0.25293005
137	0x3eb43937	0.351999
138	0x3d863b94	0.065543324
139	0xbe6bb0a4	-0.23016602
140	0xbdab3ab0	-0.08360803
141	0xbc662496	-0.014046809
142	0x3e9e9792	0.30975014
143	0xbdb22907	-0.086992316
144	0x3cc322c8	0.023820296
145	0xbe778be9	-0.24174465
146	0xbe2cce75	-0.16875632
147	0xbe45d97d	-0.19321246
148	0xbe422ef0	-0.18963218
149	0xbccea592	-0.025225434
150	0xbd56a3a2	-0.052402146
151	0x3c4d3bad	0.012526435
152	0x3e7689b1	0.24075963
153	0xbe019c0b	-0.12657182
154	0x3ce86bf1	0.028371783
155	0x3d4979e1	0.0491885
156	0x3e1f8c80	0.1558094
157	0x3dbebcfa	0.09313388
158	0x3d6d3a1e	0.057916753
159	0x3dcae28a	0.0990649
160	0x3dfea962	0.12434651
161	0xbde326d2	-0.11091389
162	0xbe0ea9d7	-0.13931976
163	0x3dc2b2e1	0.09506775
164	0xbe1d6358	-0.15369928
165	0x3d29156a	0.041280188
166	0xbe1308b6	-0.14358792
167	0x3e63577e	0.22201344
168	0xbbc779f3	-0.0060875355
169	0x3ee9dcde	0.4567632
170	0xbdffee24	-0.124965936
171	0xbe352d29	-0.17693008
172	0xbd925b37	-0.07146304
173	0xbe36dbd4	-0.17857295
174	0xbe097f2b	-0.13427417
175	0xbe3a9dbb	-0.18224232
176	0xbdbdc9b8	-0.092669904
177	0xbe388102	-0.18017963
178	0x3d5ba0e5	0.053620238
179	0x3c18c999	0.009325408
180	0x3cf486a1	0.029849352
181	0xbc55f420	-0.013058692
182	0xbe36b322	-0.17841771
183	0x3c25f09e	0.010128168
184	0x3e0a8be9	0.13529934
185	0xbdba0e5f	-0.09084772
186	0xbd20cf43	-0.03926016
187	0x3d58ea8d	0.05295806
188	0x3d2dd7cc	0.042442128
189	0x3e70375a	0.23458615
190	0x3edecd71	0.43516114
191	0x3d67b18a	0.0565658
192	0x3da3c7a7	0.07997065
193	0xbcc8ed27	-0.024527146
194	0x3dae1552	0.0850016
195	0xbdfe1269	-0.12405855
196	0x3dd6266f	0.104565494
197	0x3ded138b	0.11575993
198	0x3df17e1f	0.11791634
199	0x3d11207c	0.03543137
200	0x3e642d40	0.22282887
201	0xbd91dcd5	-0.071221985
202	0xbde440ec	-0.11145195
203	0x3e4b8ee1	0.19878723
204	0x3e9bc21d	0.30421534
205	0xbe086ea8	-0.13323462
206	0x3d5659d4	0.05233176
207	0xbe7cd635	-0.24691088
208	0xbe916601	-0.28398135
209	0x3e4a3144	0.19745356
210	0x3e9a89eb	0.30183348
211	0x3e126a71	0.14298417
212	0x3c965069	0.01834889
213	0xbd76a7a7	-0.06021848
214	0xbe9b87c4	-0.30377018
215	0x3e9d7294	0.3075148
216	0x3ddb9c92	0.10723223
217	0xbe852743	-0.26006517
218	0xbdacf503	-0.0844517
219	0xbe451ab3	-0.19248466
220	0x3e2b8baf	0.16752504
221	0xbe29419a	-0.16528931
222	0x3e0a75d4	0.1352151
223	0x3e70321b	0.23456614
224	0xbd5313af	-0.051532444
225	0xbcadbcba	-0.021208156
226	0xbe25cd70	-0.1619165
227	0x3d8cc924	0.06874302
228	0x3bd3dbc4	0.006465407
229	0xbd8cb973	-0.06871309
230	0x3e3cca85	0.1843663
231	0xbe6a7518	-0.2289623
232	0x3dbb5fa7	0.091491036
233	0xbdf0ebe0	-0.117637396
234	0xbe268eae	-0.16265365
235	0x3eb0412d	0.34424725
236	0xbdeb3018	-0.114837825
237	0x3d9fde28	0.07806045
238	0x3d06917e	0.032853596
239	0xbe3e6314	-0.18592483
240	0x3e4363a9	0.19080986
241	0x3d0f2483	0.03494693
242	0x3e7ec5f3	0.24880199
243	0x3c9b40a9	0.01895173
244	0xbe68c999	-0.22733153
245	0x3e437db7	0.19090925
246	0x3e0f08a0	0.13968134
247	0xbd67a8f7	-0.05655762
248	0xbdbe30f3	-0.0928668
249	0xbedfd663	-0.43718252
250	0xbe21c17b	-0.15796463
251	0x3e8128d2	0.25226456
252	0x3cea94b0	0.028635353
253	0xbe1ea651	-0.15493132
254	0x3e8b2fca	0.27184898
255	0x3d13a2f0	0.03604406

tcn.tcn.1.conv1.bias f4 [16]
0	0xbe85a032	-0.26098782
1	0xbebf247e	-0.3733253
2	0x3bd3b1bf	0.006460398
3	0x3e7d0208	0.24707806
4	0xbea8a418	-0.32937694
5	0xbea437e6	-0.32073897
6	0x3c8a61e3	0.01689238
7	0xbc07856e	-0.008271558
8	0xbda76901	-0.08174325
9	0xbe312cc7	-0.17302237
10	0xbea3090b	-0.31842837
11	0x3df2fb41	0.11864329
12	0xbe9297e9	-0.28631523
13	0x3e1ade25	0.15123804
14	0xbdfce7d8	-0.12348908
15	0x3d8eb67c	0.069684
