checkpoints/fine_tune/var_rf/gtzan/0.2/model_faithful-hill-196_finetune_finetune_finetune_HAI_GIA/it_56_loss_5.1940_acc10.0_acc20.0.pt (torch, 435818 bytes, 211 tensors)

conv1.weight f4 [16, 1, 3, 3]
00000000: 1a86 8d3e 8430 29bd 1daf 82be 6663 b73e
00000010: db78 d9bd f774 a5be ed4c 6d3e 74fc 5b3e
00000020: f20d 85be 55c3 aa3e 0c45 f6be 3985 cabe
00000030: c7c8 873e 9c6b 8fbe d09d ed3d 14d2 eb3d
00000040: b007 383e 5911 983d 66f6 87be 7893 cb3e
00000050: 49e8 393e 12b0 67be 2e62 af3e 3477 223d
00000060: 299d 03bf e455 243e c9bf 57be fa62 92be
00000070: e6bb f4bd d999 ac3e 1b25 b7be 6a81 b03d
00000080: 61aa 3e3e 3ebe ba3e 146c 663d f44f fdbe
00000090: c3ed 57be e0b4 4cbe 5b1f 16be 10a1 56be
000000a0: b109 403e 3737 973e 8407 76bc 8e15 c6bc
000000b0: a2d5 45be 7b5c aebd cdf0 9e3d 9c6b b9bd
000000c0: f5a1 56bf 7194 953e 4d80 e73e 1a9e 85be
000000d0: 419f 943e baee 6cbd b4ab 9e3e 85cb 013c
000000e0: b847 cbbd 3828 b0bd 9ae1 5c3e 90a7 b5be
000000f0: 6fba d7bd ffe5 163e d152 5abe a283 2b3c
00000100: 07a4 a63c 10f1 833e dab1 d9be 5a59 1bbe
00000110: 24ac e5bd 8602 013e 6584 5bbd 714e 0d3f
00000120: 947c aebe 89c7 093e c229 97be 78d1 b9be
00000130: 7ab3 db3e 3423 c63e c0b2 0fbe f2cb e33e
00000140: 0b2c 1b3e 2a72 28bf 775a b33d 32ac 033f
00000150: 58b6 db3b c039 6dbe f964 443e 290f bbbe
00000160: f5ef a3bc a37a 973e c3d4 01bf f508 ee3c
00000170: b303 9a3e 736c 7cbe e9a9 69be 45a2 973e
00000180: 633c a73d 1e95 0abe 31dc 02bd 6a68 183e
00000190: 5e49 d43e fd90 09be f077 723e 2704 c63e
000001a0: f5c7 2abe b6d3 b93e 04f0 c83d 140b 91bd
000001b0: 18b7 173e 18ef 203e 3df3 4d3d cc4c b8bd
000001c0: 2e94 16be 1bf9 bfbe 1ba4 953e e0c4 b13e
000001d0: b9f9 25be def0 773e 7539 dabd d99e 8fbe
000001e0: 1f61 b03e 486c 9d3e ddf2 013e 6b75 28be
000001f0: 1dd5 733e ca4b e5be 2f4e ba3e 5dad 543e
00000200: d351 dbbd c97d e63e 5c5a 7bbe a12a 293d
00000210: f5b7 8c3e 4dfd 78be cf3e c1be 4901 1dbe
00000220: 62ff 38bd bee1 933e add4 0cbe 3042 213d
00000230: bc36 b33e ac6f 08bf e22c 88be 72c8 043f
0.27641374 -0.041306034 -0.25524226 0.35818022 -0.106187545 -0.323158 0.23173876 0.21483022
-0.25987202 0.33352152 -0.48099554 -0.39554766 0.26520368 -0.28011787 0.11602366 0.115146786
0.17971683 0.07425184 -0.26555175 0.39760947 0.18155016 -0.22625759 0.34254593 0.039664462
-0.5141168 0.1604839 -0.21069254 -0.28591138 -0.11949901 0.33711126 -0.35770497 0.08618434
0.18619682 0.36473268 0.056255415 -0.49475062 -0.21086793 -0.19990873 -0.14660399 -0.20959878
0.18753697 0.29534313 -0.01501644 -0.0241802 -0.19319776 -0.08513733 0.07760773 -0.09053728
-0.83840877 0.29214814 0.45215073 -0.26097184 0.2902775 -0.057844855 0.30990374 0.007922058
-0.09925789 -0.08601421 0.21570435 -0.35479403 -0.10533606 0.14736174 -0.21320654 0.010468395
0.020341886 0.25769854 -0.42518502 -0.15170804 -0.11214474 0.12598619 -0.05359306 0.5519782
-0.3407942 0.13455023 -0.29524046 -0.36292624 0.42910367 0.38698733 -0.14033031 0.44491535
0.1515352 -0.657992 0.08757489 0.51434624 0.0067050867 -0.23166561 0.19179143 -0.36535004
-0.020011881 0.29585752 -0.50715274 0.029057005 0.30080947 -0.24650745 -0.22818722 0.2961599
0.08165815 -0.13533446 -0.031948272 0.14883581 0.41462225 -0.13434215 0.23678565 0.38675043
-0.1667784 0.36294335 0.09811404 -0.07082191 0.14815938 0.15716207 0.0502808 -0.08999023
-0.14704964 -0.3749474 0.29226765 0.34720516 -0.16208543 0.24212977 -0.1065549 -0.2805088
0.34449098 0.30746675 0.12690301 -0.16451041 0.23811765 -0.44784385 0.36387774 0.20769258
-0.10708966 0.4501784 -0.24546188 0.04130042 0.27484098 -0.24315377 -0.37743232 -0.15332521
-0.045165427 0.28883165 -0.13753004 0.039369762 0.35002697 -0.532954 -0.26596743 0.51868355

conv1.bias f4 [16]
00000000: dae5 683c 0caf cd3d 9592 84bd 5abe b1bc
00000010: b2b0 4dbe 9b0c e8bd dec1 183e e9cc ec39
00000020: f79d 263c 7184 4f3d 1fc1 0ebd 568c 5dbe
00000030: e654 c23d c527 15bd 38d2 59bc 9f22 15be
0.014214957 0.10043153 -0.06473271 -0.021697212 -0.20086935 -0.11330529 0.14917704 0.00045166098
0.010169498 0.050663415 -0.034852143 -0.21635565 0.09488849 -0.03641488 -0.013294749 -0.14563988

conv2.weight f4 [16, 16, 3, 3]
00000000: 12d2 1cbe b6df 15bd 7515 c0bb 5047 f7bd
00000010: 0183 54be 34d1 72be 0e14 65bd 7fa4 163d
00000020: 29d5 e8bd b917 243d 1e02 b6bc 9873 1a3d
00000030: 693b 38bd 9426 4b3d be15 c9bd 0b4a 95bd
00000040: 0bd4 ffbb 3b2b 90be 9bf5 e33c c9c4 8abe
00000050: 9fdb 72bd fc6c 7f3e e2f2 8dbe 0a54 40bd
00000060: 764e 9e3e cea9 71be 2d98 09be 7562 f5bd
00000070: 192f b73d 0822 3d3e 74ef d3bc 2193 253e
00000080: 13be b93e b05f d93e 29cb 003f ee4d 123f
00000090: df56 6dbb 2ea4 2ebb 9a1f 30be b727 53bd
000000a0: e54c 0fbe 7851 7dbe dd0e 463c ccea 08be
000000b0: 2f7f ccbd c71f 9e3e 2ca3 2ebd d68f c23e
000000c0: ff91 9c3e 26ea bcbd 62ef ab3e d7d9 0c3f
000000d0: 5c5d db3d 273c f73e c0fc e13d 47e2 debd
000000e0: 03f1 f2bd 6e36 1a3d 5fcb 83bd 6609 2ebe
000000f0: e00f 453c 7499 4cbd d8d0 6fbc 844c 5e3e
00000100: cb80 053e 2765 cbbd 0889 523e 779d 3ebc
00000110: 79da 88be d485 39bd c446 21bd 9786 8bbe
00000120: 1147 023e efb0 23be 892c c4bb 79c2 623e
00000130: 9dd4 48be 0daf 99bd 7620 9d3d e6d4 36be
00000140: 1cf9 26be f04e e73c 7c32 6f3e dfb4 783e
00000150: db50 623e 26cb ad3e 9624 b63e 890c 963e
00000160: 6387 2b3e 3fe3 9f3e a637 a43d 33aa 1b3d
00000170: 47fc 683c 503a 6d3d f5e8 103d 1def 243e
00000180: 68fd d13d 3834 203d 00b5 0f3e 92d4 0cbe
00000190: 99b3 61be bb76 62be 45b5 37be 4977 8fbe
000001a0: d921 aebe 4841 0ebe fc91 edbd bec4 8abe
000001b0: 34ad afbd 4d5a aabd d2a6 30be 54ce 36bb
000001c0: 2f36 c6bd b124 2ebe 9fd1 c13c 9dd9 523d
000001d0: c397 89bd e33a bf3d de89 edbd 2aea 35bd
000001e0: d217 f43c 55f3 20be 907e 07be 4920 ab3d
000001f0: 62ca d4bc 1663 80be 06d0 56be 5ad1 64be
00000200: 3f08 28be 5741 6fbe 694c b0bd 7675 7d3c
00000210: 968a 77bd c7d6 a93d 66e0 f3bc dc75 67ba
00000220: 2cf1 78bc 0ad4 493d 9ed2 8dbd b9cf b13c
00000230: 044a dc3d 26a3 b63d 24c4 1abd 02a4 8d3d
00000240: 9f51 7c3e e5a3 813d da2c 4c3e 5dc2 e13d
00000250: eefd 283e 6aa6 0e3e f2f0 8d3d 54d6 b73d
00000260: 732f 913d 6094 9b3e 873a 09be 9409 973e
00000270: 9431 b93d b632 fcbd 92ce f33d 5b13 8c3e
00000280: 54cc 13be 0961 0c3d d8dc 9abe 44eb 103f
00000290: be35 69bd c281 1abf f0dc 103e 7bdb b6bd
000002a0: 5083 13bf 6333 343e 7ffe 4abe 162e bfbe
000002b0: e188 66be a844 25bd 6894 5abd 54c7 063e
000002c0: 8b9b 903e 147e 71bd 6989 de3d 9f20 263e
000002d0: 71d9 1d3e b768 463e 90b9 333e d034 f33c
000002e0: e511 c83d e8e8 c6bc 1ea2 273d f7e3 d43d
000002f0: db29 503c 3b0c c4be 04cb 943e caef fcbc
00000300: f965 e7be 3f5e cc3d 8050 abbd 4613 07bf
00000310: 39bb 8e3e 48e0 ad3b 6d43 2dbd e2f2 053e
00000320: 29f0 afbd 024b 9b3d d624 b63d 39d0 a53d
00000330: 735f 973d c356 1d3e db72 0a3e c691 7f3e
00000340: d372 813d b347 12be a8b3 d6bc 86a4 32bd
00000350: 1181 3ebd b077 ab3c 64fd 293c 0b5b 88be
00000360: 29e4 02bf aafc 263e 8a46 44be 020c d0be
00000370: 0e60 193e f220 6abd 6727 05bf 9952 ad3e
00000380: 1acf 303e 1af1 5bbd b847 b9bd 36c0 90bd
00000390: 9a5e 30be 509e cbbd 3318 f03d eb41 32be
000003a0: c17a de3d 9d94 bc3d dd2c 4f3e 2581 06be
000003b0: a5bb b33c c0d9 8bbd ab1c 21bc c8e1 71bd
000003c0: 20f3 30bd 8cac 09be a66f 2b3d 329a 83be
000003d0: bfc2 53bd 48a0 683e 69c1 c3bd c37b 81bd
000003e0: 9318 133e 3271 86bd 9ea5 2b3d fbda 473e
000003f0: fe86 733d edca 9abd f38c cdbd 0a62 56bd
-0.1531451 -0.0365903 -0.005861933 -0.12074149 -0.20753099 -0.23712617 -0.05592733 0.03677797
-0.11368782 0.040061686 -0.022217806 0.037707895 -0.044978533 0.049597338 -0.098186 -0.07289513
-0.00780726 -0.28157982 0.027827075 -0.2710326 -0.05929148 0.24943918 -0.27724367 -0.046955146
0.30919236 -0.23599932 -0.13436957 -0.1198167 0.0894453 0.18470013 -0.025871016 0.16169406
0.36277828 0.42455816 0.5031 0.5715016 -0.003621511 -0.0026648152 -0.17199555 -0.051551547
-0.13994177 -0.24738109 0.012088505 -0.13370818 -0.09985196 0.3088362 -0.04263608 0.38000363
0.30580136 -0.09224348 0.33581072 0.550199 0.10711166 0.4828808 0.11034536 -0.10883003
-0.118623756 0.037649564 -0.06435274 -0.16995773 0.012027711 -0.04995103 -0.014637195 0.21708876
0.13037412 -0.09931403 0.20560086 -0.011634222 -0.2672918 -0.045293644 -0.039374128 -0.2725112
0.12722422 -0.15985464 -0.0059867543 0.22144498 -0.19612356 -0.075040914 0.07672207 -0.17854652
-0.16305965 0.028235883 0.23359102 0.24287747 0.22101156 0.33944052 0.35574788 0.2930644
0.16750865 0.31228063 0.080184266 0.03800411 0.014220304 0.05791694 0.035378415 0.1610684
0.102534115 0.0391123 0.1403389 -0.13752964 -0.22041167 -0.22115605 -0.17940243 -0.28020695
-0.340102 -0.1389209 -0.1160011 -0.27103227 -0.08577958 -0.08318005 -0.17251137 -0.0027893977
-0.096783035 -0.17006184 0.023659525 0.051477063 -0.067183994 0.093374036 -0.11598562 -0.04441277
0.029796515 -0.15717824 -0.13231874 0.08355767 -0.02597541 -0.25075597 -0.20977792 -0.22345486
-0.16409396 -0.23364769 -0.08608324 0.015469899 -0.0604349 0.08292919 -0.029770087 -0.0008829513
-0.015194219 0.04927448 -0.06924938 0.021705495 0.10756305 0.08917837 -0.03778471 0.06916048
0.24640511 0.063300885 0.19938985 0.110234 0.16503116 0.1393067 0.06930722 0.08976427
0.07089128 0.3038664 -0.13401233 0.29499495 0.090426594 -0.1231436 0.119046345 0.27358517
-0.14433414 0.034272227 -0.30246615 0.56608987 -0.05693602 -0.60354245 0.14146781 -0.08928581
-0.5762224 0.17597727 -0.19823645 -0.37339848 -0.22513153 -0.04034868 -0.053364187 0.13161975
0.2824367 -0.058958128 0.10866053 0.16223381 0.15414979 0.19375883 0.17551255 0.029688269
0.09769038 -0.02428098 0.04092609 0.10395043 0.012705292 -0.3829058 0.2906114 -0.03087606
-0.45194986 0.099789135 -0.083649635 -0.52763784 0.27877215 0.0053062774 -0.04230063 0.13080934
-0.08590729 0.07582666 0.08893745 0.08096356 0.07391252 0.15365128 0.13520376 0.24957952
0.06320729 -0.14285164 -0.026208714 -0.043613933 -0.046509806 0.020931095 0.010375354 -0.2663196
-0.51129395 0.16307321 -0.19167534 -0.4063416 0.14978048 -0.057160325 -0.5201325 0.3385208
0.17266503 -0.05369673 -0.090468824 -0.07067911 -0.17223588 -0.09942305 0.11723366 -0.17407958
0.10863257 0.09208033 0.20231958 -0.13135202 0.021940062 -0.06828642 -0.009833495 -0.059053212
-0.043200612 -0.13444728 0.041854523 -0.2570358 -0.051699396 0.22717392 -0.095583744 -0.06322434
0.14364843 -0.06564559 0.04190599 0.19517128 0.05945491 -0.07558236 -0.100366496 -0.05233959

conv2.bias f4 [16]
00000000: 5e99 4bbd 5c26 34be 58c4 113d d74c babd
00000010: 33c9 25be 139d a2be d313 56be 2bf3 23bd
00000020: 29b8 30bd 4661 cbbd 34c2 96bd bdbe 16bc
00000030: 702b eabc 3c9a 04be 7547 413d 3a16 11be
-0.04970681 -0.17592758 0.03558764 -0.09096687 -0.16190033 -0.31760463 -0.20906 -0.040026825
-0.04314438 -0.09930663 -0.0736126 -0.009200749 -0.028585166 -0.1294946 0.047187287 -0.14168635

conv3.weight f4 [16, 16, 8, 1]
00000000: 2da9 f4bd df3b 68bd d06c dcbc f1ce 30bc
00000010: a0e2 21be dc70 acbe ad8e 48be d90b 3c3e
00000020: aa81 373e d763 023e d623 593e 4bd8 ac3d
00000030: b8e6 533e 001f a53e 6322 89be 0e6d b5be
00000040: c69b f53d 4b82 653e 95de 983e fc36 873e
00000050: 0bc8 d33d 5552 8b3d 929f 7bbe 2fa2 14be
00000060: 5224 54be 2bde 5ebd a76a 34bd a7fa 30bd
00000070: d06c 59bc d8f6 1fbe affa 533e a05b 53bc
00000080: a69e 993d 041c 8f3d 913d b53d 76db db3d
00000090: 83aa 0d3e 8e1a 703e 5276 d43d e4a8 d83d
000000a0: 7645 65be 1da9 703d c0e8 bfbb 347b 683d
000000b0: e962 a3bd 230c 7ebd 62c6 fabe bf8b e33c
000000c0: 68bd b13d f4ff c63d 5264 1ebc 9c09 d3bd
000000d0: 8011 ae3c c39b a03d 797b d0bd 3892 aabd
000000e0: 9a4c db3d 77e5 e8b9 059d b43d 5b25 27bd
000000f0: a0d2 60bd a7d3 77be 0214 c53d 6d06 213d
00000100: b17d ac3d f8d0 903c fc61 0d3e d616 d03d
00000110: 0709 d9bd 88d4 84bd 74ef 2d3f fa55 b5bd
00000120: 0b22 f5bd 8d3a b5bd 2a68 92bd dad3 acbd
00000130: d318 d5bd 88ff d4bd 0fb0 a6be 277e b53e
00000140: 9012 573e c2e8 bb3d b020 833d adae a4bd
00000150: 2870 04bd 20fb 02bd b4bb aa3e 27ae d7bd
00000160: d56e b1bd 0828 bebc 2478 5cbb 5c85 36bb
00000170: b0ee 1a3e 6f65 a4be f376 23bf a06d 743e
00000180: 3174 f6bc 8815 23be 0d50 37be 4fdc 94bd
00000190: 5253 cfbd 1b85 9abe 60f9 e3bc 2ab6 323e
000001a0: e0d3 4f3c 6f5b 0c3e ae81 4b3e b026 053e
000001b0: 739a 22bd af86 3c3e d9b2 ad3e 1906 79be
000001c0: 0757 6f3e bee4 393e 0e66 203e d7db 1e3e
000001d0: f520 0bbc d293 6a3d eaee 8fbd 7650 f53c
000001e0: f426 b8bd 1513 5cbc 7f0b f43c ad3b ddbd
000001f0: b3bd f2bd 23d7 a53c 3754 903d 065e 723d
00000200: 3c0b 55bd a124 71bc 978e f6bc 7dd6 a83d
00000210: 8b58 df3c 46d9 7dbc e914 a43e 4a97 873d
00000220: 9810 fc38 180e 863d 55bc 8f3d 5774 2e3d
00000230: 3fcd d73d a7ad 8d3e 1e8f a0be 9f9b 06be
00000240: 1423 b7bb 0a0f f8bc 822c a53d 0ec3 a73d
00000250: 94cd a8bd 3a95 003e 5bbd 3fbe 1a94 3abd
00000260: a916 d83d 2b82 b73d e872 04bd 141a c5bd
00000270: 7fe2 42be 2858 93be 7e10 fcbd 0496 c9be
00000280: 5fca 4dbd 2704 1e3d 6714 d6bc 20b9 a73b
00000290: 2054 d5bd 4f58 f13d 9cfa 94be 53ab 62bd
000002a0: 765d 8b3c 36fd bfbc f1fd 99bd 58c2 0cbe
000002b0: b5ce 65bd 7fee 05be ab58 14bf 3c4b d1bd
000002c0: 3a49 f4bd 5988 19bd 5c2e c9bd de58 3bbd
000002d0: f375 403d a3e0 da3d f419 3d3e 2390 93bc
000002e0: 457b 0c3d 383a 553d 4b34 cfbc 15de 9d3d
000002f0: c705 8d3d f1cd 553e 9d16 443e 2d9c 913d
00000300: adb5 57bd 01cb a83d 801b 213e 810d d23d
00000310: 3b73 cd3d 9ec6 f03d ce7e 233f 1adb 2bbe
00000320: 7639 b5bb 5c47 073c bb36 0b3c 156d 2cbd
00000330: 7bed 9b3c 1504 253e 8ade 86be 38d6 e03e
00000340: 2779 e63c 45a0 4bbd ec7b a3bd 915e 8fbd
00000350: 1e45 98bd fb08 6bbe d3d6 f03e 83d2 bdbe
00000360: 7262 ed3d 9407 193e e4dc e43d c20f 153e
00000370: 2f5b ac3d e394 8d3d 36c0 f7bd 6d61 e13d
00000380: abe3 1ebc ef4c 42bc 6626 48bc ccde 08bd
00000390: f0eb 8cbd ddae 61ba 9091 e7bd 051b 5b3e
000003a0: ffa0 423a b014 2e3d 6d8d f93c fae3 9ab9
000003b0: d447 a33d 3c73 03be 7786 a43d 9389 9dbe
000003c0: b28a 6c3d 5f48 fcbc ef43 a5bb faee 883d
000003d0: daf4 6bbc c518 ab3c 95d3 83be 42f3 383e
000003e0: 713e c9bb e85e d63a 39b6 9f3d 7f91 9a3d
000003f0: 221b 1dbd 9ed7 523e eb81 313e d9dc c13e
-0.1194633 -0.056697723 -0.026907355 -0.010791526 -0.15809107 -0.33679855 -0.19585676 0.18363895
0.17920557 0.12733398 0.21205077 0.08439692 0.20693481 0.32250214 -0.26784047 -0.35434765
0.11992602 0.22412984 0.29857317 0.26409137 0.103408895 0.06802813 -0.2457259 -0.14514993
-0.2071698 -0.054411095 -0.044047024 -0.04320779 -0.013270572 -0.15621507 0.20701097 -0.012900263
0.07500963 0.069877654 0.088496335 0.10735218 0.13834576 0.2344763 0.1037413 0.10579088
-0.22389778 0.05875503 -0.0058566034 0.05675812 -0.0797785 -0.062023293 -0.4897948 0.027776597
0.086787045 0.09716788 -0.009667473 -0.10304567 0.021248579 0.07842209 -0.101798005 -0.0832867
0.1070797 -0.00044421453 0.088190116 -0.04080711 -0.054888368 -0.24201833 0.09622957 0.03931277
0.08422411 0.017677769 0.1380691 0.101606056 -0.10597425 -0.064858496 0.679435 -0.08854289
-0.11969384 -0.08849058 -0.07148774 -0.08438845 -0.104051255 -0.10400301 -0.32556197 0.3544781
0.21003175 0.091752544 0.06402719 -0.08041129 -0.032333523 -0.031977773 0.3334633 -0.10531264
-0.08663718 -0.023212448 -0.0033640945 -0.0027850484 0.15130115 -0.32108638 -0.6385338 0.23869944
-0.030084701 -0.15926182 -0.1790163 -0.07268583 -0.10123314 -0.30179676 -0.027828872 0.17452303
0.012684792 0.13706754 0.19873688 0.1300304 -0.039698076 0.18410753 0.33925512 -0.24318732
0.23373042 0.18153664 0.15663931 0.1551355 -0.008491744 0.05726988 -0.07027991 0.029945593
-0.08991805 -0.013432284 0.029790638 -0.10802398 -0.118525885 0.020244187 0.07047313 0.0591717
-0.052012667 -0.014718206 -0.030097289 0.082440354 0.0272639 -0.015493697 0.32047203 0.06620653
0.00012019387 0.06545657 0.07018343 0.04259142 0.105371945 0.2767155 -0.3135919 -0.13145302
-0.0055888984 -0.030280609 0.0806513 0.081915006 -0.08242336 0.12556925 -0.18724577 -0.045551397
0.10551197 0.089603744 -0.032336146 -0.09624115 -0.19031714 -0.28778195 -0.12307833 -0.39372265
-0.050241824 0.03857818 -0.026132775 0.005118504 -0.10416436 0.11784422 -0.2909745 -0.05533917
0.01701234 -0.02343617 -0.075191386 -0.13746011 -0.056105334 -0.1307926 -0.57947797 -0.10219428
-0.11928029 -0.037483547 -0.098232955 -0.045739047 0.046987485 0.10687377 0.18466932 -0.018013066
0.034297246 0.052057475 -0.02529349 0.077083744 0.068858676 0.20879342 0.19149251 0.07109866
-0.052663494 0.08241845 0.15733147 0.10256482 0.10031744 0.11756633 0.63865364 -0.167828
-0.0055305315 0.0082567595 0.0084969355 -0.042096216 0.019034138 0.16114838 -0.2634166 0.43913436
0.028133942 -0.04971339 -0.079826206 -0.07000459 -0.07435058 -0.22952645 0.47038898 -0.3707467
0.115910426 0.14944297 0.11174944 0.14556792 0.084158294 0.069131635 -0.12097208 0.110049106
-0.009697835 -0.011859163 -0.012216186 -0.0334156 -0.06880939 -0.00086091255 -0.11307061 0.21397026
0.0007424503 0.042500198 0.030462945 -0.00029543025 0.079726845 -0.12836927 0.0803346 -0.30769023
0.057749458 -0.030796228 -0.0050434987 0.06686206 -0.014401639 0.020885834 -0.25747362 0.18061545
-0.006141477 0.0016355189 0.07798428 0.075472824 -0.038355954 0.20590064 0.17334716 0.37863806

conv3.bias f4 [16]
00000000: e8a4 163b e54e f93d d2fc e63d 9a92 443c
00000010: 224b 9a3b 3d9a 813e 25ca 1f3e ce14 023e
00000020: 8782 0ebd 923c adbe adec 8d3e f1b1 c13e
00000030: ade5 28bc eb9e 263d 3e49 653e 731e 393b
0.0022986475 0.12173251 0.112786904 0.011997843 0.0047086636 0.25312987 0.15604456 0.12703249
-0.03479245 -0.33835274 0.27719632 0.3783107 -0.010308665 0.0406789 0.22391221 0.002824691

tcn.tcn.0.conv1.weight f4 [16, 16, 5]
00000000: ba3f e73d 3eda 0d3e f904 a43d d91d c2bb
00000010: a2d2 21be 5b20 dc3d 9346 803d 3934 873d
00000020: 9d90 c4bc b273 bebe ed9d 013e 5bcc 8f3d
00000030: 949e 4a3e 3313 81bd 9214 82bd ad21 323e
00000040: d12b 163e 270f eb3d 155f ad3d 3e78 863e
00000050: 5d6a f83d 3bca 9cbc 90d4 953e 328a 133e
00000060: d833 01be 7aef 28be 2302 173e d8a3 383e
00000070: e686 3cbc 803d 3a3e 7b8d 09bd 1b1b 813c
00000080: 9df8 08be 0e9d 47bd 4b57 c73d f1ba ecbd
00000090: bc89 cfbd b05c b1bd 11f1 86bb c106 1bbe
000000a0: f452 04be e87e ce3c 0f01 76bd 7373 33be
000000b0: 78fc 4abe f10a 6ebe 6abe 4ebe a300 76be
000000c0: 8799 82be b3c0 77bd 5776 f7bd 518f 033c
000000d0: 7f4f a9bd 730c 8dbe a9a0 e9bd d1e1 74bd
000000e0: e185 ecbc b353 a8bc 0cd4 aabd a4b2 92bc
000000f0: c82b d03d 300e 563d a72b 8c3e 1499 35bd
00000100: b409 35be 99b1 f1bd 6868 8dbd 670a a8bd
00000110: b0a7 babd 86bc 02be 2b61 a0bd 5844 8d3d
00000120: 2171 373d 6a42 783d 72f8 ea3d b7b6 dc3b
00000130: 4084 01be c825 c53d ed1b 41bd b540 00be
00000140: 7731 823e 9ad7 c03e f1c2 ee3d d847 493e
00000150: f843 1a3e 592f 323e e4ce b63e 7abf ad3c
00000160: 65bd 4b3e 073b 953e 033d 763c bba0 ae3e
00000170: 40b7 903e 2c24 793e 6cfd c93e 6f59 88bd
00000180: a22c 44bd 3a07 93be 7fc3 a43d 9e88 90bc
00000190: 6ff6 bfbe a27a 92be e4ed c6bb 7745 bc3a
000001a0: 2c0f d63d bd1f 263e 5f9b 093e 2317 e03d
000001b0: e005 8a3d 882f 243d 7b5a 8fbe a480 62be
000001c0: be60 be3b a14d 223d ee77 ad3c e8b9 20bc
000001d0: 0206 ebbb 6b03 ba3d fd2c 7c3e 4b88 673e
000001e0: d5d3 4f3d fe2e 533e 6956 aa3c 518a 563e
000001f0: 2018 9c3d db46 1abd 212e 60be 861d 8ebe
00000200: c65b 59be 0daf 32bd b199 983d b632 5d3d
00000210: aaf4 163e 12b3 2e3e 1faa 073e 6f02 c33d
00000220: ef13 943e db29 233e a259 d43d b853 253e
00000230: be4b 17be 0311 d0bd b4aa 043c 5e77 75bd
00000240: b914 e13d db30 833d 5093 e13d 7a86 1b3e
00000250: 3dce 483e f8f6 7a3e 59e9 483e 3625 943c
00000260: b021 973d 711a 05bd 98bc 0bbe 03ac 233e
00000270: af56 2e3e 7f23 d2bd 9183 fabd 1ab4 4a3e
00000280: 1ea4 63bc 9694 b93d d2e9 7abd 100b 84bd
00000290: 4e86 62be d4ac 533e d9ea ad3d b429 ee3d
000002a0: c96f a9bd 0753 28be 7e1e 1c3e cb85 383d
000002b0: bc84 ca3d 9385 f33c ffb7 52be 4c93 d1bd
000002c0: e4ed b33c 42f2 debd 133f f5bd f9bd 05bd
000002d0: d511 88bd 9b6b 38be 5942 10be ff68 7ebc
000002e0: c536 4fbd f2f0 f93d 40b7 703e d861 903d
000002f0: 12ea 9fbd ab53 0bbd 8097 053d ff53 9d3c
00000300: 2fe7 a73c 4a5f aa3c cd9f 8c3e 2ba4 f53c
00000310: 6525 4fbe d480 58bd 5140 94bc 0a56 20bd
00000320: 616a 3c3d fd4a c4bd 65d9 c6bd a810 10be
00000330: af56 bebd 74d5 c0bd b907 b1bd be67 283e
00000340: 82e8 5e3e 49e9 b2bc 9ea6 fd3d 0a8e fcbc
00000350: 885b 42be 838d 11be e43c 20be 9e2a bebd
00000360: e695 54bc 1322 0b3e 159e 223e e409 a1bd
00000370: a5ad 47be d921 81be cafd 95bc 48ef 8c3d
00000380: b92e 46be 61e7 f1bb 3371 05be 8b6e 46be
00000390: 29b0 6bbe a85a acbe e62d aabe 545b a6bd
000003a0: b0a5 8f3d d39a 5c3d b596 c9bc 4cfa cdbd
000003b0: c543 fbbd 2f61 103e d4c6 cdbd f590 bdbe
000003c0: 8f6b f9be 33ca 74be b083 dcbd 4d9b 373e
000003d0: 9639 3e3e 4fe9 20be 143d 403d cc1a 59bd
000003e0: eb35 b3bd 4e27 1c3c 298c 72be dfcb 3ebd
000003f0: 0c3b 1e3e 5009 993c cf31 833e 0dc6 81bc
0.11291452 0.13852784 0.08008761 -0.0059239683 -0.15803006 0.10748359 0.06263461 0.066017576
-0.023994738 -0.37197644 0.126579 0.070213996 0.19787055 -0.0630249 -0.0635158 0.17395659
0.14665152 0.114774995 0.08465401 0.26263613 0.12129662 -0.0191394 0.29263735 0.14408186
-0.12617433 -0.16497603 0.14746909 0.18031251 -0.011506772 0.18187523 -0.033582192 0.015759995
-0.13376088 -0.048733763 0.09733447 -0.11559094 -0.101336926 -0.08660257 -0.004118093 -0.15139295
-0.12922269 0.025206998 -0.060059603 -0.17524509 -0.19822872 -0.23246361 -0.20189825 -0.2402368
-0.25507757 -0.060486507 -0.120831184 0.008029775 -0.08267116 -0.2754856 -0.114075966 -0.059785668
-0.028872432 -0.020547723 -0.08341226 -0.017907448 0.101646006 0.052259624 0.27377054 -0.04433544
-0.17679483 -0.11801452 -0.069046795 -0.08205109 -0.09114015 -0.12767228 -0.07831033 0.06897801
0.044785623 0.060610212 0.114731684 0.0067356485 -0.12648106 0.09626347 -0.047145773 -0.12524684
0.25428364 0.3766449 0.11658276 0.19656312 0.1506499 0.17400874 0.3570472 0.021209467
0.19896467 0.29146597 0.015029195 0.34107003 0.2826481 0.24330205 0.39451158 -0.06657683
-0.047894128 -0.2871645 0.080451004 -0.01764327 -0.374927 -0.28609186 -0.0060708392 0.0014363964
0.104521126 0.16223045 0.13438176 0.10941913 0.06739402 0.04008439 -0.2799872 -0.22119385
0.0058098724 0.039624814 0.021175351 -0.0098099485 -0.007172347 0.09082683 0.24626537 0.22610585
0.05073913 0.20623395 0.020793157 0.20951201 0.07621789 -0.03766523 -0.21892597 -0.277569
-0.21226415 -0.043623973 0.07451189 0.05400344 0.1474177 0.17060497 0.1324849 0.095219485
0.28921458 0.15933935 0.103686586 0.16145217 -0.14774987 -0.10159495 0.008097339 -0.05992829
0.10990281 0.06405803 0.11014426 0.15188017 0.19609924 0.24508274 0.19620265 0.01808415
0.07379472 -0.03249592 -0.13646162 0.15983586 0.17025255 -0.102606766 -0.122321256 0.19795266
-0.013894109 0.09061544 -0.061258145 -0.064474225 -0.22121546 0.20671397 0.08492059 0.11629048
-0.082732745 -0.16437922 0.15246007 0.04504947 0.09888598 0.02972678 -0.20578001 -0.10233173
0.021964021 -0.10886051 -0.11974921 -0.032651875 -0.06644026 -0.18009798 -0.1408781 -0.015527963
-0.05058934 0.1220416 0.23507404 0.07049912 -0.07808317 -0.03401534 0.032615185 0.019205092
0.02049598 0.02079739 0.27465668 0.029985508 -0.20229109 -0.052857235 -0.018097075 -0.039144553
0.04599989 -0.095846154 -0.097094335 -0.14068854 -0.09293877 -0.09415713 -0.08644051 0.16445825
0.21768382 -0.021839755 0.12385295 -0.030829448 -0.18980229 -0.14214139 -0.15648228 -0.09285472
-0.012975192 0.13587217 0.15880616 -0.078632146 -0.19499834 -0.25221136 -0.018309493 0.06881577
-0.19353761 -0.007382319 -0.13031463 -0.19378106 -0.23016419 -0.33662915 -0.33238143 -0.08122888
0.07014024 0.05385859 -0.024607996 -0.10057506 -0.122687854 0.14099573 -0.10047689 -0.37024656
-0.48714873 -0.23905258 -0.10767305 0.17930336 0.18576655 -0.15714 0.04693325 -0.05300407
-0.087505184 0.009530855 -0.2368628 -0.046581145 0.15452212 0.018681198 0.25623938 -0.015841508

tcn.tcn.0.conv1.bias f4 [16]
00000000: 2e6b 993c 85a7 c1ba 60f9 413e f8b4 eb3d
00000010: 0337 afbb 456e 9d3d 063f 94bc 6e76 3ebe
00000020: 8d8e 1d3c da03 3c3e dc39 883d 9108 3fbd
00000030: 81e9 5f3e fc1f 683d 9794 dabd 5571 b33d
0.018727865 -0.0014774656 0.18942785 0.115091264 -0.005347134 0.07687048 -0.018096458 -0.18599865
0.009616506 0.18360844 0.06651661 -0.04663903 0.21866418 0.056671128 -0.106728725 0.08761851

tcn.tcn.0.conv2.weight f4 [16, 16, 1]
00000000: 9857 923d eaf0 f9bd 3fc7 923e f164 9f3d
00000010: 2131 3c3e b9aa 1fbe fac3 963d 336f 5a3e
00000020: ff8c 663e ad6b 97bd 8bcf 16be 3209 50be
00000030: 6a78 5e3e 20f6 d0bd 3d92 e6bd e970 cd3e
00000040: a736 c03d 37ee 413e b31e 86bd 0ba7 1c3e
00000050: feb8 973d 26ca f23d 81d5 4e3e a6a2 97bd
00000060: af49 85bc c5a5 183b 1455 37be 8579 c6bd
00000070: 7137 a73d 1068 9bbe d54d 1fbe 4da1 ce3e
00000080: 3a1f 6d3d 578b 633e b050 23be 4c37 6a3e
00000090: c7ec 58bb f5c8 94bd c4dc 69bc a41e 073e
000000a0: 15bd c83c 969c ad3e 53bd 4d3e 1407 453e
000000b0: c3d7 14be 313f 943e 92a6 c5bd 47ee dfbd
000000c0: 3753 143e c587 bb3e 877a 17bc 798c 863d
000000d0: aa8b 77bd b4d3 6d3e ba51 3f3e 842f 983d
000000e0: c9f3 4ebe cadb 85be 89a6 9bbd b5e0 87be
000000f0: 9558 8d3e cc76 ce3d 24c0 b83d 08f8 5d3e
00000100: d83a 073e aecc 963e ef7d 9abd 5c4d db3b
00000110: 6957 7d3d c88e 043d 6c49 c8bd 165e 06bf
00000120: 29ad 07be af3d e7be b7db 63bd 2dba 83be
00000130: a776 dfbd 10b9 f43d 0cf4 eebb f814 d03d
00000140: c48a b8bc bb57 983d b82a 2f3c 8859 94bd
00000150: 597a 93be 454e 933c d594 9dbd bd68 d5be
00000160: bb86 333e 9d3f fcbe 4505 00be 6d0f 13bf
00000170: f59a 61bd cc2d eb3c ac21 763e e133 2b3d
00000180: 0908 01be ee53 84be 407d 93bd fb21 2dbe
00000190: 6134 c93c 89cd d93c fd4b 84be 8cd8 16be
000001a0: b5f0 4ebe a927 813e e0de 78be d8a2 7ebe
000001b0: 2f89 6d3d 4083 abbe f1b9 00bd 8faa 94bd
000001c0: 8533 65be 04b4 a73c eb2b 8cbc 268d ee3d
000001d0: 0e5c b7bd 514e 573e 9ee4 033e 189a 073e
000001e0: d39a a63e b256 533e 38d7 083d 9865 453e
000001f0: 22f9 6b3e e9eb 6b3e 3bf5 a5be 9e8d 54be
00000200: bb30 3ebe d45b 9b3d f5b2 8a3e a6cb ba3a
00000210: 7cc0 383d 8f21 0f3e 7846 993d dd77 23bc
00000220: ed7d 44be 801b d73d c58e ca3d da91 0fbe
00000230: a7f4 52be ef87 d73d ac88 b6be 5719 923e
00000240: 76a8 0fbe 09d7 b43e a610 d9bd 7a46 0b3e
00000250: 05a9 2f3e 7e27 933e 0d39 6d3e 804e 01bd
00000260: b74a a9bd a858 3cbe e13b f7bd 4e42 983c
00000270: 6a33 7ebe 5664 853d 801a 99be bcdb 853a
00000280: 5a35 10be cf1d b0bd e226 ff3d 15e9 dcbd
00000290: 3f33 11be ad09 11be 81e6 623c 3462 583e
000002a0: 4315 1cbd 5e83 1e3f 83d8 3fbe 1be8 013f
000002b0: 1376 333e 0462 553d d2d8 623d 65bc 85be
000002c0: 5f7b fd3c dda1 3abe 87da cbbd 1b4b 873e
000002d0: 71aa 2bbe a651 77be 6232 05be ece9 3c3e
000002e0: 456e abbd 0514 1e3f fccf bbbb 1f9e 113e
000002f0: 8375 6abc cd28 163d 8dce a03e 9fc2 5f3e
00000300: 50a5 d8bd 3476 aebe 8657 343e 8aa0 45bd
00000310: c7aa 28be 9672 0ebd b356 04be 2a84 bb3e
00000320: f610 70bd b916 953e c4e8 13be 3316 9c3e
00000330: 24ba 853e 7074 3fbe 2fdd c53d ac5c 3ebe
00000340: a4a4 3d3e 33d0 0a3e 1b46 823e 119d c0bd
00000350: f972 44bd 522c 74be 535b 743c e34b db3e
00000360: 1d65 62bb 6a45 c73e 3b38 5dbe 390c aa3d
00000370: 2f73 843e dcfc 5b3e f0d4 56be d103 a33e
00000380: 3325 613d 0f2e 80bd d041 c3bc 14ba 8ebe
00000390: 9d09 e3bd 9666 2d3c 6248 1abe 596a cc3e
000003a0: 3f95 81bc 055a 0d3f 6eb7 8bbe b8eb 513e
000003b0: 2718 1bbd 6a0f 8fbb e425 72be e9ef b8bd
000003c0: e4e7 2a3d e64d a3be 4f1d 6ebd a127 81be
000003d0: ca96 dd3d 7fb1 88bd b644 c3bd 5532 0bbe
000003e0: fafc 763e f696 343f 3c0e 8abe ac8d 40bd
000003f0: 7cd0 ec3c 4a24 593e 3a6c 8ebd 43cb 9d3e
0.071456134 -0.12204154 0.28667638 0.07782925 0.18378116 -0.1559247 0.07361598 0.21331482
0.22514723 -0.073935844 -0.14727609 -0.20316008 0.21725622 -0.102031946 -0.112583615 0.40125206
0.09385424 0.18938528 -0.06548824 0.15298097 0.07408331 0.11854963 0.20198633 -0.074040696
-0.016270487 0.0023292166 -0.17903548 -0.09691147 0.081648715 -0.3035283 -0.15557034 0.40357438
0.057891108 0.22221123 -0.15948749 0.22872657 -0.0033100115 -0.07264892 -0.014273826 0.13195282
0.024504224 0.33908528 0.20091753 0.19240981 -0.14535432 0.2895446 -0.096509114 -0.1093412
0.14484869 0.3662702 -0.009245521 0.06569762 -0.06043593 0.2322529 0.1868352 0.07430938
-0.20210184 -0.26144248 -0.076001234 -0.26538625 0.27606645 0.100812525 0.09021023 0.21676648
0.13206041 0.29453033 -0.07543551 0.0066925716 0.06185094 0.03236273 -0.09779629 -0.52487314
-0.13249649 -0.45164248 -0.05562946 -0.25727978 -0.10911303 0.1194936 -0.0072922762 0.101602495
-0.022527106 0.07438608 0.010691337 -0.07243639 -0.2880428 0.017981658 -0.07694403 -0.4168147
0.17531864 -0.49267283 -0.1250201 -0.5744541 -0.05507942 0.028708361 0.24036282 0.041797522
-0.12600721 -0.25845283 -0.07201624 -0.16907494 0.024561109 0.026587265 -0.25839224 -0.14731044
-0.2020901 0.2522557 -0.2430377 -0.24866807 0.057992157 -0.33498573 -0.031427328 -0.07259094
-0.22382934 0.02047158 -0.017110785 0.11648016 -0.08953105 0.21025969 0.1288018 0.13242376
0.32539997 0.2063854 0.033408374 0.19277036 0.23044255 0.23039211 -0.32413658 -0.20757148
-0.18573277 0.07585874 0.27089658 0.0014251366 0.045105442 0.13977645 0.07484144 -0.009977308
-0.19188662 0.10503292 0.098905124 -0.14020482 -0.2060114 0.10523974 -0.35651147 0.28534958
-0.14029106 0.3532031 -0.105988786 0.13601103 0.1715432 0.28741068 0.23166294 -0.031569004
-0.08266204 -0.18393195 -0.12071968 0.018586304 -0.248243 0.06513278 -0.2990303 0.0010212581
-0.14082852 -0.085994355 0.12458588 -0.10786644 -0.14179705 -0.14163847 0.013848902 0.21131212
-0.038106214 0.619192 -0.18734936 0.5074479 0.1752551 0.052095428 0.055382557 -0.26120296
0.030942617 -0.18225808 -0.0995379 0.26424488 -0.16764237 -0.2415224 -0.13007501 0.18448609
-0.083706416 0.617493 -0.005731581 0.14220475 -0.014310244 0.036660004 0.31407586 0.21851586
-0.10578406 -0.34074557 0.17611513 -0.048248805 -0.16471396 -0.034777246 -0.12923698 0.3662427
-0.058609925 0.291189 -0.14444262 0.30485687 0.26118577 -0.18696761 0.09661328 -0.18590039
0.18519837 0.13555984 0.2544411 -0.09404958 -0.04796121 -0.23845032 0.0149143515 0.42831334
-0.0034545131 0.38920146 -0.21603481 0.083031125 0.25869128 0.21483177 -0.20979667 0.3183885
0.054967117 -0.06258785 -0.023835093 -0.2787634 -0.11085818 0.01058354 -0.15066674 0.39924887
-0.015818236 0.55215484 -0.27288383 0.20500076 -0.03786483 -0.004365851 -0.23647267 -0.09030134
0.041725054 -0.3189537 -0.05813342 -0.25225547 0.10819776 -0.0667448 -0.0953459 -0.13593419
0.2411994 0.7054285 -0.26963985 -0.04701011 0.028908007 0.2120525 -0.06954236 0.3081914

tcn.tcn.0.conv2.bias f4 [16]
00000000: 1e0f 363d e79d a83c c1bc 763d 0624 abbd
00000010: c2ed ec3d 9a14 0c3d f24e cabd df6a 43bd
00000020: bbf2 68be ac0d 1abe 65e4 993c fa31 743d
00000030: e885 303e 8d88 0bbd 5829 433e 2b15 2f3d
0.04444801 0.020583106 0.060238604 -0.0835648 0.11568786 0.034199335 -0.09878339 -0.047709342
-0.22748844 -0.15044278 0.018785665 0.059617974 0.17238581 -0.03406577 0.1905874 0.042744797

tcn.tcn.0.res_conv.weight f4 [16, 16, 1]
00000000: 05c3 06bb bb9b c8bd 0840 483e 6a08 d63c
00000010: 4a83 9f3d a82b 313e c988 54bd 2603 03be
00000020: 2318 24be c5c9 9b3e 47e7 87be 3c07 c03d
00000030: 9e4c 27bd 17b4 e73d cd74 0c3e f9e5 b2bc
00000040: c23e a73d a433 a53e df23 0fbe c5e8 1c3e
00000050: d3d5 d73c da22 e8bd d969 db3d acf8 f7be
00000060: ac82 cb3d 389f bcbc dd38 5ebe b63a 18bc
00000070: 5db5 8a3e a154 dcbd c108 4bbe b079 69be
00000080: 6c28 353e 5f6c 7dbe 5813 d5bc 67a5 823e
00000090: 6ed8 843d 8574 49be 0346 d03e ff5a 303e
000000a0: 2acb 2f3c 8738 cf3e 3660 163e c5e2 97be
000000b0: 873c b6be 9167 923e 759b 2e3e 98ab b9bd
000000c0: 8eb3 8e3e af43 94be cf94 333e 63ed 02be
000000d0: a4d2 0fbd 9403 19bc a5c2 00bd e2ec c53e
000000e0: e2e5 91bd e8d7 2d3d 8a40 5f3e 58bd 50be
000000f0: 4a9a 333d 8b90 a33e b9ad 3c3e 6f42 a3bd
00000100: 8a43 7cbe a28e 913e 30ab c1bd 998e 8abe
00000110: afae 39bd b70b 8a3d f580 8cbe 3684 4fbe
00000120: 82fe 09bd 777a 10be cac7 793e 5652 f4bc
00000130: a5ac 413e e9b7 ec3d cfe4 aabc f0a2 70bc
00000140: 3725 5b3d c96b 503e f37d a2be a974 a7bd
00000150: e53c 33be ab91 823e 50e5 a3be 13cf 093c
00000160: 3ae6 1a3d ac19 813c 9e86 3ebd 2283 a93d
00000170: 0e9c 3e3d c225 02bd f6ff 293d e27e 5e3e
00000180: 925a b5be 3c12 983e 3244 603d 6d72 3bbe
00000190: 3704 4f3e afcd e13d afe8 8cbe 70c0 92bd
000001a0: ba02 2bbe 5125 873e ee3e a0be 9a49 6e3d
000001b0: b1da 9b3d 6067 c6be b034 09be e459 253e
000001c0: ed94 04be 10ef 7f3d 7de4 903e 0a10 b53e
000001d0: 9ac7 a0bd 741c 913e dcf0 dd3e ad8c 70be
000001e0: 693d 7cbc 0095 cabd 9e4f 8abe f836 69bd
000001f0: d075 edbb a4a3 87be ba56 adbd 396e 27be
00000200: 2653 59be 7fcf 2d3c a2a7 5b3e 16e0 a3be
00000210: de46 a5be ac53 20bd 22b4 5cbe 2171 e7bd
00000220: e856 c1bd 885c 6a3f 49c7 733e 596d 043e
00000230: 9d45 50be 1129 48be 9fe2 29be 723a c43e
00000240: 3339 ae3e afd4 3a3c 0b6b 403e eeae fdbd
00000250: d462 e4bd 3b5e 91bd ba54 8a3e 2489 093e
00000260: ee18 9cbd d3fa 3b3e af13 9b3d 0c29 513e
00000270: f96d 51be 364f ab3e c642 fe3c 5b74 86be
00000280: aebb 743d fb5d 29be 7b38 f9bd 2a6d 83be
00000290: 4431 cabd 91cb babe 5355 343e 3e1c 153e
000002a0: fbd1 6bbe 0d1b c93e 40ba e8bd 18ec fabe
000002b0: 7661 f4bc fd7c abbe c5d6 9c3e 3102 4dbe
000002c0: b453 d7be a7b2 8ebe 3edd 29be 5fc6 c2bd
000002d0: 3945 083d 6bf5 a0be 4620 62be ea5f bfbd
000002e0: f1b2 433d 5e72 79be 25e8 3ebe 7ed1 b4bd
000002f0: f93e c33d 85a4 9ebd 9dc1 8fbc 4943 2ebe
00000300: ed46 3c3d 4e0a b83e 9299 4a3d 00af e4bb
00000310: f2ea b8bd bc02 b0bd e1e8 8ebe 3e0d 15be
00000320: a29e 643e c289 293e 3337 77be 9de4 d73d
00000330: 7592 013e e4ea 07be 2b38 8dbd c149 823e
00000340: d91c a83e 6440 953e 3256 713e a766 de3e
00000350: c92e 25be ded0 863e 2f66 443e 16c9 1c3d
00000360: 27c6 133e d4e4 693d c911 7ebd 96cf 91be
00000370: 1506 c33d 9271 3abe f5c5 873d 7313 44be
00000380: 1855 19be 3e02 55be 2c04 393d 7b1a a13d
00000390: 1456 1bbe 4a61 acbd f9d5 673e d3a2 b6bc
000003a0: a97e 17be 762c 333e c919 e5bd ecac ca3b
000003b0: 1c56 fc3d d5c8 d83d 15d3 f93b 406e e63c
000003c0: cb89 89be 645a 46bd 1097 f3bd ba45 4bbe
000003d0: 4d14 493e b63e e83d eb2f 4bbe e995 9b3d
000003e0: 1dc2 b4bd 2318 2a3d 1be8 93be be24 80bd
000003f0: 6884 023e fc3d b03d 6f2b 20be 7390 043e
-0.0020563018 -0.09795328 0.19555676 0.026127059 0.07788713 0.1730181 -0.05188826 -0.1279417
-0.16024832 0.30427375 -0.26543638 0.0937638 -0.040844552 0.11313646 0.13716431 -0.021838175
0.08166267 0.3226596 -0.13978527 0.1532317 0.026347077 -0.113347724 0.10713548 -0.4843191
0.09937033 -0.02302514 -0.21701379 -0.0092913415 0.27091494 -0.10758329 -0.19827558 -0.22800326
0.17691201 -0.24748372 -0.0260102 0.25516817 0.06486593 -0.19673355 0.40678415 0.17222212
0.01072959 0.40472814 0.14685139 -0.296652 -0.35593054 0.2859464 0.1705149 -0.09065932
0.27871364 -0.28957888 0.17537235 -0.12785868 -0.035112992 -0.009339232 -0.031435627 0.3865729
-0.07123925 0.042442232 0.21801963 -0.20384729 0.043848313 0.31946215 0.18425645 -0.079716556
-0.24635139 0.28429133 -0.094564795 -0.27061918 -0.045332607 0.06740516 -0.27442136 -0.20265278
-0.033689983 -0.14109217 0.2439262 -0.029824417 0.18913515 0.115585156 -0.020861058 -0.014687285
0.053502288 0.20353617 -0.31736717 -0.08176548 -0.17503698 0.2550176 -0.3201089 0.008411187
0.037817217 0.015759312 -0.0465151 0.08276965 0.046535544 -0.03177429 0.04150387 0.2172809
-0.35420662 0.29701412 0.054752536 -0.18305369 0.20216452 0.11025559 -0.27521273 -0.07165611
-0.16700259 0.26395658 -0.31298012 0.05817566 0.076100715 -0.38750744 -0.13399005 0.16147572
-0.12947436 0.062483847 0.28299323 0.353638 -0.07850571 0.2834202 0.43347824 -0.23491164
-0.015395501 -0.09891701 -0.27013868 -0.056937188 -0.0072467104 -0.26492035 -0.084638074 -0.1635064
-0.21223125 0.010608553 0.21450666 -0.32006902 -0.3228063 -0.039142296 -0.2155309 -0.113008745
-0.09440404 0.9154744 0.2380649 0.12932338 -0.20339055 -0.19546916 -0.16590355 0.3832584
0.34028015 0.011403247 0.18790834 -0.12386881 -0.111516625 -0.07098051 0.27017766 0.13431221
-0.076219425 0.183574 0.07572114 0.20425814 -0.20452107 0.3345887 0.0310377 -0.26260647
0.059749298 -0.16539757 -0.12168976 -0.25669223 -0.09872678 -0.36483434 0.17610674 0.14561555
-0.2302932 0.3927845 -0.11363649 -0.4900825 -0.02983163 -0.33493796 0.30632606 -0.20020367
-0.42056048 -0.27870676 -0.16588303 -0.095104925 0.03326914 -0.3143724 -0.22082624 -0.09344466
0.047778074 -0.24360034 -0.18643244 -0.0882902 0.095334955 -0.07746223 -0.017548377 -0.17017855
0.045966078 0.35945362 0.049462862 -0.0069788694 -0.09029187 -0.085942715 -0.27912048 -0.14555833
0.22326139 0.16556457 -0.2414215 0.105416514 0.12653525 -0.13273197 -0.06895479 0.25446895
0.3283451 0.2915069 0.23568037 0.43437693 -0.16131128 0.26331228 0.19179605 0.038277708
0.14431058 0.057102993 -0.06202868 -0.28478688 0.095226444 -0.18207386 0.06629554 -0.19148044
-0.14973867 -0.20801637 0.045169994 0.07866379 -0.15169555 -0.08416994 0.22640218 -0.022294438
-0.14794411 0.17497429 -0.11186559 0.0061851647 0.123211116 0.10585181 0.00762404 0.028128743
-0.2686294 -0.048426047 -0.11894047 -0.19850817 0.1963665 0.11340086 -0.19842498 0.075969525
-0.08826087 0.041526925 -0.2888802 -0.06257008 0.12745821 0.086055726 -0.15641569 0.12945728

tcn.tcn.0.res_conv.bias f4 [16]
00000000: dfdd 753e d4bc f1bd e31e 6bbe 794b c13c
00000010: 3c6a 0cbe e079 20be f885 52be 18fe 29be
00000020: 155a 87bd 3f14 0d3e 1fe5 c8bd 1909 093e
00000030: 8d13 23bd de45 95be 741f 8dbb fbdc 713d
0.24010418 -0.11803594 -0.22961001 0.023595558 -0.137124 -0.15671492 -0.20558918 -0.16600835
-0.06608979 0.13777255 -0.098093264 0.13382377 -0.039813567 -0.29154867 -0.004306728 0.059048634

tcn.tcn.1.conv1.weight f4 [16, 16, 5]
00000000: 6bb0 26bd 6f04 62be 8a9e 0abe b9ec 5abe
00000010: 31d8 a3be f7e1 483e ee05 cebe cf3e 29be
00000020: cc70 d7bd f353 1f3e 89b1 f53d 93db dc3e
00000030: afb9 ecbd 73f0 90be e50f 66be 38ef e73c
00000040: 582b debd 470b e7bd 0182 e4bd fa44 8dbe
00000050: d836 223b 21d5 e5bd c861 843e 4a6c 8f3e
00000060: 1a4a 993e eb07 7e3d 5dec 90bc 88ee 943e
00000070: 9b4c 6f3d 4e91 8c3e 2dc9 a13d 82fe b5bd
00000080: 2df8 3e3e c568 993e f3c6 f73e 8233 d0bd
00000090: 9621 4abe 5235 e5be d37d d5be c9e8 2dbe
000000a0: cad1 23be 9d09 4e3e 5afd 883e 8c54 3c3e
000000b0: 9ae5 123e 6c3e 08be 3a3b 44bd 5573 a43c
000000c0: 856e d8bd 55e8 d7bd 81e7 003e 4f55 643e
000000d0: 9f92 00be c9ce 99be 0317 76be 23aa 683e
000000e0: 6d35 5dbc 5b44 98be fe73 c13d ba79 a83a
000000f0: 81e4 863b d952 0b3e 6d59 f93b 33d1 233d
00000100: 2ac4 2e3e f82d cd3e 024d 0fbc a3e7 69be
00000110: abb6 3abe 7c6f 58bb dfc7 523e 2c53 063e
00000120: 0d64 f23d 165b 043d fd0b 8cbd d124 043f
00000130: f75d 6c3d 1f66 8c3d ff7a 7c3e 6b51 3d3e
00000140: 8bfc 32be 1ae3 44be 96ee 6ebd 370e 46be
00000150: 7056 57be b859 0ebe a227 3b3e 6a90 fdbd
00000160: bb08 6f3d b44f 87be e108 a8be 519c 97bd
00000170: 64f8 98be 2fb7 38be 22f3 79be 5815 f73d
00000180: 835e 84be 1f76 b5be 1fe2 3abe 959e febd
00000190: a855 c73e 0967 203c 73ae f0bd e833 e53d
000001a0: 7a79 593e 7837 243e f702 5abe 71c1 d0be
000001b0: 4306 85bd 2f5c 013f 628e 963d 49e6 ad3d
000001c0: 3892 8b3e 6196 bb3e 0d67 ba3e be19 dfbe
000001d0: 02cf 75bd bce8 6abe 3ef2 fcbd 7c78 b23c
000001e0: 2ff5 24be 741b 803d 84b4 babe bb4e 53be
000001f0: 8605 733e 7343 2d3d 6ece 85bd 4ceb 24be
00000200: 1147 3abd 2bb0 60bd c5f0 4ebe 7a69 57be
00000210: 52b3 1d3e 20b1 f63b 71d8 12bd 3b64 453e
00000220: f37f 8b3e 4aba c13e 5fd0 f13d 678b 37be
00000230: 9ee8 b2bd 7172 55bd c2fb a33e 8fdc b7bd
00000240: afce 933c cb4b 87be 9f05 29be b7ab 4fbe
00000250: cac3 46be 1374 9dbd cdcb cabc 8afa 513d
00000260: 106f 783e 1367 eebd fb88 d03c 57ce 443d
00000270: cffe 343e 8277 cc3d 85c2 873d da7d 873d
00000280: a97d 303e 58ca eb3c 4176 28bb 8c62 273e
00000290: afed 0bbe d360 a2bc 4130 38be 01e5 8a3d
000002a0: 2132 5abd 80dc 613e c740 b7bd add0 283c
000002b0: b32f 933c f2a6 15be 3224 c2bd 33fc 3abe
000002c0: 7036 e8bd 6bc3 2abe 090e 1b3e acaf 4f3d
000002d0: a251 073c b478 c9bd deab 6ebe f9a2 043e
000002e0: 445e 303e 699e 08be ab5c d8bd b2f3 44bd
000002f0: f3c1 b43c 7318 5b3e ef46 bc3e 46e4 dbbb
00000300: 9dc8 4b3d 17cc bfbd f58d 76bb bf2f 02be
00000310: 4977 ef3d 9863 d23d 325f a33d ef54 89bc
00000320: c565 1a3e 2c7a ccbd c8cb 36be 85ed 47bc
00000330: 172c 463e 8275 1bbe d65a 073d 50ea 70be
00000340: 09cb 53be 90b8 823e 785b a63e 835a 483e
00000350: 4ebf d93c d0c4 8dbd 923c acbe 186d a23e
00000360: dab6 0c3e 9ba2 51bd eb5f a3bd a384 28be
00000370: d97c 453e 7da7 f2bd 1fa6 023e c6de be3d
00000380: 2e01 94bd c7a5 ebba 1fa4 07be 23b6 a33d
00000390: 6b23 963b 586f 9ebd f4ab 4f3e 1863 85bd
000003a0: d436 d23d d2ee a2bd 5419 25be dd0f b43e
000003b0: c576 c8bd b71c ae3d 3ae6 5a3d caff 50be
000003c0: 8385 f03b e30b 26bd 7f10 383e 4817 253e
000003d0: b42a 36be 2389 af3c 7d85 fa3c 31d2 b5bd
000003e0: ed7c debd 09aa bd3d c187 13be 58d6 373d
000003f0: 1226 183c e2a2 75be 148a 4abd 1a41 bf3c
-0.04069559 -0.22072004 -0.1353704 -0.21379365 -0.32000878 0.19617449 -0.402389 -0.16527866
-0.10519561 0.15559368 0.11996753 0.43136272 -0.11558854 -0.28308448 -0.22467001 0.02831231
-0.10848111 -0.11281448 -0.11157609 -0.27591687 0.0024751928 -0.11222292 0.2585585 0.28012305
0.29939348 0.06201927 -0.017690832 0.29088235 0.058422666 0.2745461 0.07899699 -0.08886434
0.18649359 0.29962745 0.48393974 -0.10166074 -0.19739375 -0.44767243 -0.4169756 -0.16983332
-0.15997997 0.20120855 0.26755792 0.18391627 0.14345399 -0.13305062 -0.047908045 0.020074526
-0.10567955 -0.10542361 0.12588312 0.22298168 -0.12555932 -0.30040577 -0.24032216 0.22721152
-0.013501507 -0.2973965 0.09445952 0.001285366 0.0041165953 0.13605823 0.0076095373 0.03999443
0.17067018 0.40074134 -0.008746387 -0.22842269 -0.18233745 -0.0033025434 0.20584057 0.13117665
0.118354894 0.03231343 -0.06838224 0.5161868 0.0577068 0.068554156 0.24656294 0.1848809
-0.1747915 -0.19227257 -0.058333002 -0.1934136 -0.21029067 -0.13901412 0.18276837 -0.123810604
0.058357935 -0.26427996 -0.32819274 -0.07402862 -0.29877007 -0.18038629 -0.24409154 0.12064618
-0.25853357 -0.35441682 -0.18250321 -0.12432591 0.38932538 0.0097901905 -0.117520235 0.11191541
0.21237746 0.16036785 -0.21290193 -0.40772584 -0.06495335 0.50531286 0.07351376 0.08491189
0.27259994 0.36638168 0.36406747 -0.43574327 -0.06001187 -0.22940344 -0.123508915 0.021785967
-0.16109155 0.06255236 -0.36465847 -0.20635502 0.23732576 0.042300653 -0.06533514 -0.16105384
-0.04547793 -0.054855507 -0.20209034 -0.2103633 0.15400437 0.007528439 -0.035850946 0.19276516
0.27246055 0.3783744 0.11807322 -0.17924272 -0.087357745 -0.052111093 0.32028013 -0.08977615
0.01804289 -0.26425013 -0.1650605 -0.20280348 -0.19410625 -0.07688155 -0.024755383 0.051264323
0.24261117 -0.116407536 0.025455942 0.048048344 0.17675327 0.09983732 0.066288985 0.06615801
0.17235436 0.028783008 -0.002570525 0.16346186 -0.13664888 -0.01982156 -0.17987157 0.0678196
-0.053270463 0.2205677 -0.08947902 0.010303658 0.01796708 -0.14614466 -0.0947956 -0.18260269
-0.11338508 -0.16676109 0.15142073 0.050704643 0.008259209 -0.098374754 -0.2330775 0.12952794
0.1722346 -0.13341679 -0.1056455 -0.04808397 0.022065138 0.21396045 0.36772868 -0.006710562
0.049751867 -0.09365099 -0.0037621234 -0.12713526 0.11692674 0.10272902 0.079771414 -0.016764132
0.15077884 -0.0998424 -0.17851174 -0.012202625 0.19352756 -0.15181544 0.033045612 -0.23526883
-0.2068292 0.25531435 0.3249166 0.19565777 0.026580479 -0.06922305 -0.3363996 0.31723857
0.13741627 -0.051180463 -0.07977279 -0.16456847 0.19285907 -0.11848352 0.12758683 0.093198344
-0.072267875 -0.0017978483 -0.13246201 0.07993724 0.004581859 -0.07736081 0.20280439 -0.06513041
0.10264364 -0.079557076 -0.16122943 0.35168353 -0.097882785 0.08501571 0.053442217 -0.20410076
0.0073401346 -0.04053868 0.17975043 0.16122162 -0.17789727 0.021427697 0.03058123 -0.088779815
-0.108636715 0.09260947 -0.14407255 0.04488215 0.00928642 -0.23987916 -0.049448088 0.023346473

tcn.tcn.1.conv1.bias f4 [16]
00000000: 7d07 50be f5cd 89be 4812 b23d 0901 753d
00000010: 27b7 9ebe 94b5 45be d9b7 a73d 470c 983d
00000020: b234 4cbd dcfe edbd d419 5dbe 2956 c43d
00000030: 95ad 77be b57a 543e ca23 8bbd 6014 0d3e
-0.20315357 -0.26914945 0.08694893 0.05981544 -0.3099911 -0.19307548 0.08189363 0.07424217
-0.04985494 -0.11620876 -0.21591884 0.09586746 -0.2418731 0.20749934 -0.067939356 0.13777304

tcn.tcn.1.conv2.weight f4 [16, 16, 1]
00000000: 463c 093f 8c0d ab3c 863f 76bd 0465 b03d
00000010: 6263 60bd e32e 0bbe cdcf 643e d1b8 ac3e
00000020: f10c aebe a55d 91be 5e53 39bd b47e 863e
00000030: 6b43 f33b 5ab0 9a3e b845 c53e 87c0 adbd
00000040: a870 03be 9d59 c43e a1f8 1dbe 01d2 4bbe
00000050: 9980 633d 8281 243e ae5a 593e dcb9 2bbe
00000060: 6204 813e 8c7b 11be d156 023e f671 803e
00000070: 1fd1 63bd 3ed1 f9bd 7fa9 afbe 6927 6b3e
00000080: d5aa 3b3d f65d 2e3e 7624 6f3e f880 9d3d
00000090: 8fe6 fb3d d8fa 02bd f13c 753e e01a 88be
000000a0: 6efc 7dbd 73dc 4fbd 4618 a6be 9252 ba3d
000000b0: e7c4 1fbe 7c25 ddbd 961e 35be a1bd 71be
000000c0: b88d 87be 9c50 1cbd 4f8a f7be f083 f9bd
000000d0: 659c 373e 0b71 48be dcf2 74bd 14af 103e
000000e0: d4c4 a7bc ed71 213e 94b9 553e 55e4 89be
000000f0: b54e cbbd 0129 c1bd 4738 433d c45b ca3d
00000100: 1c95 b83d 8896 1e3e c6ae fabc 7af7 7cbe
00000110: f11b da3d 2e66 acbd ca8f 9b3d 6873 eebd
00000120: d9bd c03e 5ab1 48be 268c 2bbd 770e 5d3e
00000130: fcbd 31be fd74 84bd 5ca1 5bbc a32f 083e
00000140: 1e35 26be ccbe 8dbd 2f92 5fbc f68c 45be
00000150: 613d 203e 5213 893e a0e3 fb3e b3e7 253e
00000160: 99fa f13d b08f 933c 1cb0 82bd c788 3d3e
00000170: 6cf0 b5bd 4ed8 e5bd fa32 083e b702 c63d
00000180: 742e 3abe a8fa 5a3e e997 0cbe 40be dabb
00000190: 47d3 7d3e c932 acbd d7eb 02be 5df4 973e
000001a0: d5b3 dd3d 271b 88bd 7899 0a3d 147e 773e
000001b0: 406b 83be b4a9 84be 7d40 94be a97f a33e
000001c0: cdab 8d3e 3f9e 4abe 47a2 103e ed41 503d
000001d0: bc0f 2abe 4b00 e13e 638a ca3d 45c3 333d
000001e0: 1806 30bd 55b3 dfbd c3df 3ebe f347 f3bd
000001f0: 0a75 74bd 1a17 923e e89b 8dbc ef59 2abe
00000200: b120 81be c281 813e a2e4 a6be 2749 ec3d
00000210: 1b58 7ebe 1aa3 793e 940c a93e 6d05 f1bd
00000220: 72ac 363d 8c1c 4fbd 4bb7 1ebd 0983 333e
00000230: 6b91 80be 30cc e6bd e7c5 81bd ac48 96bd
00000240: 76b9 94bd 82be 4e3d 2316 d13d 225c 51be
00000250: 67c6 69bd 5487 40be 27d4 543e 1e7b 543c
00000260: 9235 bf3d 91d8 fabd b8ad 923e 9bf0 dfbd
00000270: b2cc 9bbb a52e 213e 6f10 d73e f04e e93d
00000280: d673 473e d34a 13be 5aac 39be 92b6 89be
00000290: e124 c0bd f4cd 943e 5b40 26be 3bf3 0abe
000002a0: 14c2 fcbc 660e 38be 37ab 543e 95f0 4bbd
000002b0: 4cdb 9c3d 8744 9c3d 4276 82bd 44db d13d
000002c0: c4fa 843e 3569 8cbc c597 36be 6a2e 8cbd
000002d0: c016 3bbe 1f02 c1be b1fe 20be d7a4 873b
000002e0: b02e bcbe d8be 8e3d aff2 56bd 57de 25be
000002f0: 090a ee3d 94a1 33be 6a8f eabc 91e8 2ebc
00000300: 72d3 443e f13b 4bbe a933 8abd d996 bcbd
00000310: 890a 1cbe f656 c2bc 5b37 d73d 30d0 b23d
00000320: 7be2 8f3e 0e36 efbc df56 efbd 3d5c 49bd
00000330: a319 0a3d cc8f 3abe c1a4 a63e cda4 643e
00000340: 6cf3 42bd 0058 7abd b3aa 563d a157 4ebe
00000350: 3951 99be 5e84 85bc c527 9b3e 2a5e 473d
00000360: aeff 1bbe a077 103d 1cff e7bd e650 e0bc
00000370: 8dba a1be 52ce a2be 2410 643e da50 1b3d
00000380: 2883 f5bd 1044 d93e 5dfe 463e b5b9 ef3d
00000390: 2610 273e e139 37be 570d 493e 676e 033e
000003a0: d559 40bc e518 f3bd 1234 3e3e b2f7 bcbd
000003b0: 018c 4dbe 0d30 8d3d 49bd 5bbe e569 963d
000003c0: 51c4 c4be 267e 113e b8af eebd 4f5c f53d
000003d0: 8e81 fd3d 64af 14bd c9ff 023e a543 003c
000003e0: cb9e 04be f83e 2c3c 7069 2d3e 319e b6bd
000003f0: d73b 7bbe fa11 5cbc 4493 0ebf 25c3 08be
0.53607595 0.020880483 -0.060119174 0.08613017 -0.05478228 -0.13592105 0.22344895 0.33734754
-0.33994249 -0.28391758 -0.04524552 0.26268542 0.0074238083 0.3021267 0.38529754 -0.08483987
-0.12835944 0.3834962 -0.15426876 -0.19904329 0.055542562 0.16065028 0.21225998 -0.16770118
0.25198656 -0.14207286 0.1272843 0.25086945 -0.055619355 -0.12198113 -0.34309003 0.22964253
0.045817215 0.17028031 0.23353752 0.076906145 0.12299835 -0.031977504 0.23949029 -0.26583004
-0.062008314 -0.050747346 -0.32440394 0.0909778 -0.15602456 -0.10798165 -0.17687449 -0.23607494
-0.2647531 -0.038162813 -0.4834771 -0.12183368 0.17930754 -0.19574372 -0.05980192 0.14129287
-0.020479597 0.15766115 0.20871574 -0.26932016 -0.099271215 -0.09431649 0.047661092 0.09880784
0.09012815 0.1548711 -0.030600917 -0.2470378 0.10649861 -0.08417927 0.07595785 -0.11643106
0.37644842 -0.19598904 -0.041881703 0.21587549 -0.1735763 -0.06467626 -0.01340517 0.13299422
-0.162312 -0.06921157 -0.013645693 -0.19292054 0.15648414 0.26772553 0.49197102 0.16201667
0.11815376 0.018012851 -0.063812464 0.18509208 -0.088837475 -0.112228975 0.13300696 0.096684866
-0.18181783 0.2138468 -0.13729824 -0.0066755116 0.24787627 -0.08408124 -0.12785278 0.29678622
0.10825316 -0.06645804 0.033837765 0.24169189 -0.25667763 -0.25910723 -0.2895545 0.31933334
0.27670136 -0.19786929 0.14124404 0.05084412 -0.16607565 0.43945536 0.098896764 0.043887395
-0.04297456 -0.10922877 -0.18640046 -0.118789576 -0.05968193 0.2853325 -0.017286256 -0.1663587
-0.25220254 0.2529431 -0.32596308 0.1153739 -0.24838297 0.24378625 0.3301741 -0.11768613
0.04459805 -0.050564334 -0.03874902 0.17530455 -0.25110945 -0.112694144 -0.06336575 -0.0733808
-0.07261936 0.05047465 0.102093 -0.20445302 -0.057073977 -0.18801624 0.20784055 0.012968807
0.093363896 -0.12248338 0.28648162 -0.10934564 -0.004754626 0.1574045 0.42004725 0.11392009
0.19477782 -0.14384012 -0.18132153 -0.26897103 -0.09382034 0.2906338 -0.16235487 -0.13569348
-0.030854262 -0.17974243 0.20768438 -0.049789984 0.07659015 0.07630258 -0.06370212 0.102469
0.2597257 -0.01714001 -0.17831333 -0.0684479 -0.18270397 -0.3769693 -0.15722157 0.0041395235
-0.3675437 0.06969994 -0.052477535 -0.16198097 0.11623008 -0.17542106 -0.028632838 -0.010675565
0.19221285 -0.19847085 -0.06748135 -0.092084594 -0.15238394 -0.023723107 0.10508605 0.08731115
0.28102478 -0.02920058 -0.11686491 -0.04916023 0.033715855 -0.18218917 0.32547572 0.22328492
-0.047595426 -0.06111908 0.052408885 -0.20150615 -0.2994478 -0.01629847 0.3030378 0.048673786
-0.15234253 0.035270333 -0.11327955 -0.027382325 -0.3158764 -0.31798035 0.22271782 0.037918903
-0.11987907 0.4243474 0.1943297 0.11705343 0.16314754 -0.17893173 0.19633995 0.12835084
-0.011740168 -0.11869983 0.18574551 -0.09226932 -0.20072939 0.068939306 -0.21458925 0.073444165
-0.38431028 0.14208278 -0.116546094 0.11980497 0.12378226 -0.036300078 0.12792887 0.007828628
-0.129512 0.01051306 0.16934752 -0.08916891 -0.24534546 -0.01343202 -0.5569346 -0.13355692

tcn.tcn.1.conv2.bias f4 [16]
00000000: 1ae9 49be 86f6 463e 64d9 37bd 619b a13b
00000010: cf84 903d d59b 00be ed0c afbd ffae 963d
00000020: 7b72 a03e 245d f23d 3e49 aebd a52b 103e
00000030: 9134 583e e95d abbd 6a13 0ebe 85e4 593e
-0.19717827 0.19429979 -0.044885054 0.0049318527 0.07056581 -0.12559445 -0.08547387 0.073575966
0.31337342 0.118341714 -0.085100636 0.14079149 0.21113802 -0.08367521 -0.13874593 0.2127858
