checkpoints/fine_tune/var_rf/gtzan/0.2/model_faithful-hill-196_finetune_finetune_finetune_HAI_GIA/it_616_loss_5.7083_acc10.0_acc20.0.pt (torch, 436116 bytes, 211 tensors)

conv1.weight f4 [16, 1, 3, 3]
0.275724 -0.04194407 -0.2558313 0.3574307 -0.106879845 -0.32378685 0.23101412 0.21414934
-0.26050672 0.33325022 -0.48129207 -0.39585635 0.26491022 -0.28042215 0.115717545 0.11484142
0.17939721 0.07393062 -0.2636571 0.39940888 0.18338348 -0.22392914 0.34473488 0.041857753
-0.5110622 0.16341288 -0.20774378 -0.28608763 -0.11969852 0.33688396 -0.3578349 0.08602955
0.18601507 0.36463237 0.056163933 -0.4948399 -0.2110727 -0.20010172 -0.14671332 -0.20993404
0.18720011 0.29507267 -0.01554022 -0.024737192 -0.19368811 -0.08501852 0.077737875 -0.0903914
-0.8381989 0.29231897 0.45230484 -0.2607361 0.29050592 -0.05761262 0.30954343 0.007484339
-0.0997439 -0.08659087 0.21503644 -0.35551712 -0.10602249 0.14657861 -0.21403645 0.010712091
0.020540815 0.25787908 -0.4248726 -0.15143545 -0.11187748 0.12619972 -0.053399097 0.552171
-0.34033138 0.13520917 -0.29463714 -0.36285165 0.4293138 0.3871618 -0.14042671 0.44497916
0.15159851 -0.65802175 0.08753656 0.51431 0.0067164297 -0.23165329 0.19180271 -0.36527288
-0.019943347 0.29591933 -0.50666904 0.029472003 0.30117583 -0.24593905 -0.22766533 0.29661614
0.082230866 -0.13476019 -0.031399168 0.14844398 0.4143001 -0.13463789 0.23633479 0.3863822
-0.16710694 0.36237305 0.09764979 -0.07122633 0.14751194 0.15642865 0.049467657 -0.090837
-0.1480052 -0.37597284 0.29149765 0.3463504 -0.16302325 0.24172382 -0.10691645 -0.2808
0.34407395 0.30710432 0.12660539 -0.16498385 0.23770326 -0.44817582 0.36253533 0.20656416
-0.10807777 0.44860923 -0.2467479 0.040219434 0.27297243 -0.24470188 -0.37870124 -0.15250804
-0.044412203 0.28956237 -0.1366808 0.040147774 0.35077363 -0.53195375 -0.2650519 0.5195446
00000000: b22b 8d3e 8ccd 2bbd 52fc 82be 2801 b73e
00000010: d2e3 dabd 64c7 a5be f78e 6c3e f749 5b3e
00000020: 2361 85be c69f aa3e ea6b f6be afad cabe
00000030: 50a2 873e 7e93 8fbe 52fd ec3d fa31 eb3d
00000040: e7b3 373e f068 973d 10fe 86be 527f cc3e
00000050: e1c8 3b3e ae4d 65be 1781 b03e 0973 2b3d
00000060: f9d4 02bf b555 273e c9ba 54be 147a 92be
00000070: 7f24 f5bd 0e7c ac3e 2336 b7be 4330 b03d
00000080: bc7a 3e3e 18b1 ba3e 270c 663d a85b fdbe
00000090: 7123 58be 77e7 4cbe 043c 16be f3f8 56be
000000a0: 63b1 3f3e c413 973e 689c 7ebc a7a5 cabc
000000b0: 2d56 46be 311e aebd 0935 9f3d 201f b9bd
000000c0: 3494 56bf d5aa 953e 8094 e73e 347f 85be
000000d0: 31bd 943e 36fb 6bbd 7a7c 9e3e 303f f53b
000000e0: 8846 ccbd 8e56 b1bd 8332 5c3e 5706 b6be
000000f0: 5222 d9bd b418 163e 5f2c 5bbe c481 2f3c
00000100: 3645 a83c ba08 843e e788 d9be e511 1bbe
00000110: 0520 e5bd 803a 013e 03b9 5abd 145b 0d3f
00000120: ea3f aebe 4674 0a3e aeda 96be b1c7 b9be
00000130: 05cf db3e 123a c63e 05cc 0fbe 4fd4 e33e
00000140: a43c 1b3e 1d74 28bf 5e46 b33d d2a9 033f
00000150: 7f15 dc3b 8536 6dbe ee67 443e 0c05 bbbe
00000160: 3b60 a3bc bd82 973e 10b5 01bf 456f f13c
00000170: b833 9a3e 72d7 7bbe 1a21 69be 12de 973e
00000180: a868 a83d 93fe 09be 6a9c 00bd b301 183e
00000190: 251f d43e 84de 09be bf01 723e e3d3 c53e
000001a0: 151e 2bbe f688 b93e 9dfc c73d 1cdf 91bd
000001b0: 5f0d 173e d52e 203e 999e 4a3d c008 babd
000001c0: ad8e 17be 837f c0be 2e3f 953e d754 b13e
000001d0: 91ef 26be 7386 773e 03f7 dabd 05c5 8fbe
000001e0: 762a b03e c73c 9d3e d8a4 013e 87f1 28be
000001f0: 7c68 733e 4d77 e5be 3b9e b93e 8e85 533e
00000200: e157 ddbd 1cb0 e53e 7bab 7cbe 22bd 243d
00000210: 0bc3 8b3e 2193 7abe 21e5 c1be 112b 1cbe
00000220: 92e9 35bd 8541 943e 0df6 0bbe fe71 243d
00000230: 9a98 b33e 1f2e 08bf e2b4 87be e000 053f

conv1.bias f4 [16]
0.014061296 0.10054591 -0.064645946 -0.022201862 -0.20029095 -0.11357909 0.14946672 0.0008123481
0.009208504 0.05057178 -0.035102013 -0.21644387 0.09508348 -0.036375333 -0.013391173 -0.14471573
00000000: 5a61 663c 04eb cd3d 1865 84bd aee0 b5bc
00000010: 1219 4dbe 279c e8bd ce0d 193e c2f3 543a
00000020: 44df 163c 5b24 4f3d 21c7 0fbd 76a3 5dbe
00000030: 21bb c23d 4dfe 14bd a766 5bbc 5c30 14be

conv2.weight f4 [16, 16, 3, 3]
-0.15318547 -0.036694568 -0.0061410526 -0.12066007 -0.20753671 -0.23728225 -0.05569065 0.036921784
-0.11367205 0.039818935 -0.022426104 0.037417676 -0.04491069 0.049596153 -0.09828116 -0.07300256
-0.007905039 -0.28175238 0.027023852 -0.27146012 -0.059595414 0.24766804 -0.2783694 -0.047966167
0.307662 -0.23719168 -0.13556649 -0.120055765 0.08927334 0.18453965 -0.026829654 0.16094181
0.36204952 0.42298564 0.50164425 0.56998 -0.0034409089 -0.0024808345 -0.1718171 -0.05149396
-0.13987325 -0.24731033 0.011925492 -0.13385007 -0.099974245 0.3088778 -0.04223289 0.38129324
0.30363396 -0.09279981 0.33555678 0.5466181 0.10526596 0.4793253 0.11004529 -0.10912221
-0.11899417 0.036887713 -0.06501469 -0.17068687 0.010732203 -0.051085915 -0.015946513 0.21680745
0.13028833 -0.09914943 0.2056785 -0.011385969 -0.26659253 -0.044749584 -0.03867363 -0.270908
0.12713253 -0.1598839 -0.0059317527 0.22167842 -0.19588275 -0.07471249 0.07727357 -0.17804877
-0.16247132 0.02801343 0.23347455 0.24283777 0.2206509 0.3391987 0.35556546 0.2925353
0.16708061 0.3118862 0.08032469 0.03839124 0.014579369 0.056739766 0.034447428 0.16067727
0.09863824 0.036074232 0.13890229 -0.13737224 -0.22028361 -0.22104582 -0.17906132 -0.2799194
-0.33985597 -0.13829431 -0.115466855 -0.2705849 -0.086168215 -0.08369018 -0.17301412 -0.0030181832
-0.09710268 -0.17039299 0.023827504 0.051578425 -0.06719075 0.09310183 -0.11635204 -0.0453387
0.029686399 -0.15741841 -0.13301055 0.08455602 -0.02521867 -0.24943486 -0.2100398 -0.22405547
-0.16473928 -0.23409231 -0.08692202 0.014765378 -0.060074896 0.083200976 -0.029778741 -0.0010501209
-0.0152053265 0.049418584 -0.06959037 0.02154221 0.10752789 0.088846326 -0.037985634 0.0690799
0.2452459 0.061209325 0.19592112 0.10937918 0.16334817 0.135602 0.06852832 0.088068515
0.06663801 0.3043561 -0.13494922 0.29347703 0.090124294 -0.124233246 0.117277734 0.27384382
-0.14512044 0.032684457 -0.3048412 0.5684774 -0.05382718 -0.6018457 0.14426172 -0.08468873
-0.5741564 0.17845929 -0.19468796 -0.37180293 -0.22307391 -0.03890148 -0.04857584 0.13605666
0.28599265 -0.0437412 0.121171415 0.16996633 0.1539462 0.19354615 0.17515364 0.029809212
0.097881995 -0.02413624 0.041682664 0.104913846 0.013769519 -0.3833022 0.29111624 -0.030060925
-0.45188016 0.1006034 -0.08210111 -0.5270689 0.28022957 0.007998718 -0.03942207 0.13174118
-0.08549404 0.08115809 0.09201086 0.0840509 0.08301385 0.15906687 0.14236401 0.24576873
0.06187438 -0.14256237 -0.029706808 -0.04619719 -0.05547009 0.015808307 0.006504596 -0.28661406
-0.51949567 0.15662616 -0.19460884 -0.41828856 0.11865168 -0.06877712 -0.5341445 0.28851783
0.15618192 -0.048288163 -0.08396703 -0.06294559 -0.16875634 -0.094176255 0.12514453 -0.17060663
0.11355632 0.103145495 0.20326255 -0.12990782 0.023900945 -0.0667078 -0.0075487806 -0.05459015
-0.040695496 -0.1310202 0.049077287 -0.259102 -0.05416531 0.2243615 -0.09817714 -0.06652873
0.13918641 -0.06895187 0.03763998 0.18924083 0.058749743 -0.07651392 -0.10144483 -0.053114604
00000000: a7dc 1cbe 0b4d 16bd e23a c9bb a01c f7bd
00000010: 8184 54be 1efa 72be e11b 64bd 4c3b 173d
00000020: e4cc e8bd 2e19 233d f3b6 b7bc 4743 193d
00000030: 46f4 37bd 5625 4b3d a247 c9bd 5e82 95bd
00000040: 2384 01bc d941 90be 2061 dd3c d2fc 8abe
00000050: 521a 74bd b19c 7d3e 6f86 8ebe 2c78 44bd
00000060: e085 9d3e 60e2 72be f1d1 0abe ccdf f5bd
00000070: f1d4 b63d f6f7 3c3e ddc9 dbbc eecd 243e
00000080: 8e5e b93e 9391 d83e c26b 003f 36ea 113f
00000090: df80 61bb 7f95 22bb d2f0 2fbe 55eb 52bd
000000a0: ef3a 0fbe eb3e 7dbe 2463 433c fe0f 09be
000000b0: 4cbf ccbd 3b25 9e3e 65fc 2cbd de38 c33e
000000c0: e975 9b3e d40d bebd 19ce ab3e 2aef 0b3f
000000d0: ae95 d73d 206a f53e 6d5f e13d 777b dfbd
000000e0: 37b3 f3bd 9217 173d 6c26 85bd 8ac8 2ebe
000000f0: 1fd6 2f3c 773f 51bd 43a2 82bc c602 5e3e
00000100: 4e6a 053e db0e cbbd 629d 523e 378c 3abc
00000110: d17e 88be 574b 37bd 3e68 1ebd 74b4 8abe
00000120: 082f 023e 9bb8 23be 265f c2bb abff 623e
00000130: 7d95 48be dd02 99bd 9b41 9e3d 6b52 36be
00000140: e25e 26be 6c7c e53c f413 6f3e 77aa 783e
00000150: 4ff2 613e 74ab ad3e ad0c b63e 30c7 953e
00000160: 2e17 2b3e 8caf 9f3e 4581 a43d 2240 1d3d
00000170: 4ede 6e3c f567 683d bf18 0d3d 9588 243e
00000180: d802 ca3d 93c2 133d 673c 0e3e 4fab 0cbe
00000190: 0792 61be d659 62be da5b 37be 9851 8fbe
000001a0: 9a01 aebe 069d 0dbe e379 ecbd 1b8a 8abe
000001b0: f678 b0bd c265 abbd 9d2a 31be b6cc 45bb
000001c0: c5dd c6bd 807b 2ebe e631 c33c e643 533d
000001d0: 4e9b 89bd 2cac be3d fa49 eebd 13b5 39bd
000001e0: e430 f33c 4b32 21be eb33 08be b52b ad3d
000001f0: 6297 cebc da6b 7fbe ac14 57be cc6e 65be
00000200: 6ab1 28be e5b5 6fbe 2c04 b2bd 7cea 713c
00000210: 1811 76bd 4665 aa3d 8cf2 f3bc 36a4 89ba
00000220: c31f 79bc 246b 4a3d 6585 8ebd 4a79 b03c
00000230: 9537 dc3d 10f5 b53d d396 1bbd c379 8d3d
00000240: be21 7b3e a1b6 7a3d 8c9f 483e 3102 e03d
00000250: be44 273e 40db 0a3e 9358 8c3d 445d b43d
00000260: 8279 883d 90d4 9b3e 2130 0abe 9f42 963e
00000270: 1693 b83d 006e febd 4f2f f03d 4235 8c3e
00000280: 749a 14be 23e0 053d 2514 9cbe bc87 113f
00000290: e479 5cbd 8f12 1abf 58b9 133e 4971 adbd
000002a0: eafb 12bf 08be 363e 485c 47be f45c bebe
000002b0: 7d6d 64be 2957 1fbd 76f7 46bd 7052 0b3e
000002c0: a16d 923e f929 33bd b828 f83d a70b 2e3e
000002d0: 13a4 1d3e f630 463e 7a5b 333e 7332 f43c
000002e0: 5b76 c83d 5db9 c5bc 71bb 2a3d 12dd d63d
000002f0: 8c99 613c 3040 c4be 300d 953e 5442 f6bc
00000300: d65c e7be 2809 ce3d a024 a8bd fded 06bf
00000310: 407a 8f3e 0e0d 033c 0979 21bd 29e7 063e
00000320: 8017 afbd 3636 a63d 3170 bc3d e122 ac3d
00000330: 2a03 aa3d 6de2 223e dfc7 113e ccaa 7b3e
00000340: fd6f 7d3d dffb 11be b15b f3bc 4439 3dbd
00000350: 9b34 63bd 6c80 813c 8224 d53b 14bf 92be
00000360: abfd 04bf 9c62 203e 8a47 47be eb29 d6be
00000370: a7ff f23d 05db 8cbd b2bd 08bf 9cb8 933e
00000380: 27ee 1f3e cfc9 45bd e8f6 abbd 9ee9 80bd
00000390: 76ce 2cbe 7bdf c0bd e325 003e 81b3 2ebe
000003a0: 3790 e83d f23d d33d 0f24 503e 8e06 05be
000003b0: eacb c33c 199e 88bd c35b f7bb ec99 5fbd
000003c0: 52b0 26bd 292a 06be 4405 493d 04a9 84be
000003d0: 72dc 5dbd 05bf 653e 1911 c9bd 3740 88bd
000003e0: e286 0e3e a336 8dbd 612c 1a3d 59c8 413e
000003f0: 92a3 703d 55b3 9cbd 4fc2 cfbd b38e 59bd

conv2.bias f4 [16]
-0.04997782 -0.17475994 0.037581325 -0.09081899 -0.16185677 -0.3162849 -0.20878752 -0.04084024
-0.04607119 -0.09919429 -0.07384347 -0.040366195 -0.02881271 -0.12965079 0.045585606 -0.14166337
00000000: 8bb5 4cbd 45f4 32be e0ee 193d 4eff b9bd
00000010: c8bd 25be 18f0 a1be 65cc 55be 1848 27bd
00000020: 25b5 3cbd 6026 cbbd 3f3b 97bd 0657 25bd
00000030: a208 ecbc 2dc3 04be f9b7 3a3d 3410 11be

conv3.weight f4 [16, 16, 8, 1]
-0.111067 -0.052772183 -0.025483482 -0.009677839 -0.15772577 -0.33654583 -0.1959212 0.17912659
0.17975459 0.12808028 0.2126863 0.08514082 0.20777152 0.3235272 -0.26659486 -0.35314447
0.12877057 0.23124988 0.30110547 0.26610497 0.104433574 0.06797913 -0.24591826 -0.14972274
-0.21672107 -0.06011538 -0.05257867 -0.055514347 -0.023604127 -0.167082 0.19315141 -0.018648969
0.08049259 0.07265798 0.08964819 0.10809482 0.1382779 0.23361684 0.10219416 0.101766996
-0.22347221 0.05968882 -0.0042472607 0.059105214 -0.07853907 -0.061652582 -0.49113587 0.021236949
0.08321412 0.097054884 -0.008963795 -0.102446906 0.022025613 0.07935242 -0.100773364 -0.08109908
0.11689296 0.0065436135 0.09286661 -0.035235584 -0.0506341 -0.23672125 0.10089921 0.032455098
0.08592179 0.019615505 0.14001498 0.10414769 -0.10330853 -0.061350286 0.68385977 -0.09449286
-0.11459444 -0.08292762 -0.06546506 -0.077296115 -0.098928116 -0.09756602 -0.32247785 0.34694389
0.20304717 0.087666124 0.06136177 -0.08217462 -0.03353177 -0.032463375 0.33347732 -0.10300139
-0.078260496 -0.018957661 -0.0006460044 0.000121446465 0.15418792 -0.31747803 -0.63546276 0.23222084
-0.028503256 -0.15852354 -0.17860234 -0.0721244 -0.100791566 -0.30114028 -0.027575156 0.17015816
0.014790019 0.1395908 0.20086464 0.13292564 -0.036339525 0.18829243 0.34639475 -0.24311356
0.23458144 0.1827059 0.15711156 0.15545636 -0.008042467 0.0577183 -0.06939496 0.03181949
-0.08466992 -0.008757849 0.035400275 -0.10246534 -0.11589758 0.021160977 0.07103707 0.050448153
-0.046582624 -0.010047376 -0.029174287 0.08254159 0.02702289 -0.01572031 0.320396 0.064790815
0.00059229205 0.065628625 0.07004249 0.042448536 0.105378285 0.27660048 -0.3135653 -0.13308997
-0.0012037483 -0.026306773 0.08175592 0.08224848 -0.08203276 0.1256879 -0.18691209 -0.04648492
0.10152858 0.08806465 -0.032188416 -0.096098155 -0.18985012 -0.2872333 -0.122704126 -0.3924793
-0.0436386 0.04953433 -0.02048724 0.0079896115 -0.10260807 0.118696794 -0.2902564 -0.056457072
0.024052741 -0.017818535 -0.06864873 -0.13236232 -0.05273427 -0.12816916 -0.57717997 -0.10139781
-0.12411076 -0.03974677 -0.09854546 -0.045908883 0.04667113 0.1064473 0.18418384 -0.01813265
0.052724563 0.059507445 -0.021878926 0.08118011 0.07113138 0.2118699 0.19608282 0.060645703
-0.049904443 0.0845741 0.15915291 0.10485552 0.10296122 0.1197317 0.64104885 -0.16696903
-0.0005954649 0.011799359 0.010736217 -0.038669925 0.021402406 0.16402276 -0.26191026 0.43599525
0.018173417 -0.05588166 -0.08414003 -0.07247213 -0.076131396 -0.23089208 0.469202 -0.37123036
0.11795124 0.15032399 0.11192668 0.14592834 0.08442409 0.06957101 -0.12052551 0.10956342
-0.0052778856 -0.0106471265 -0.012194253 -0.03227755 -0.068314515 -0.00016691962 -0.11244028 0.21073142
0.0076966044 0.045869377 0.032372393 0.0012959245 0.081994936 -0.12653029 0.08235057 -0.30617216
0.059530836 -0.02784197 -0.0035653803 0.067141496 -0.013662221 0.019420313 -0.2581243 0.18354261
-0.0035769446 0.0033242882 0.07899075 0.07614906 -0.03802431 0.20598267 0.17336488 0.3783057
00000000: 1877 e3bd a527 58bd bcc2 d0bc cd8f 1ebc
00000010: dd82 21be bc4f acbe 919f 48be f66c 373e
00000020: 9611 383e 7a27 033e 70ca 593e 4f5e ae3d
00000030: 0fc2 543e 5ba5 a53e 1f7f 88be 5acf b4be
00000040: 6fdc 033e c5cc 6c3e 7f2a 9a3e e93e 883e
00000050: 45e1 d53d a438 8b3d ffd1 7bbe eb50 19be
00000060: 21ec 5dbe 8b3b 76bd bb5c 57bd 0363 63bd
00000070: 715d c1bc 8b17 2bbe 7cc9 453e b9c5 98bc
00000080: 4dd9 a43d b5cd 943d 7899 b73d d160 dd3d
00000090: b998 0d3e 4139 6f3e 2c4b d13d 376b d03d
000000a0: e6d5 64be 447c 743d 9b2c 8bbb 4f18 723d
000000b0: 18d9 a0bd 6b87 7cbd 2976 fbbe 1cf9 ad3c
000000c0: 2a6c aa3d b6c4 c63d e2dc 12bc afcf d1bd
000000d0: 0f6f b43c 8683 a23d 4462 cebd 4617 a6bd
000000e0: 9465 ef3d cf6b d63b d930 be3d 3053 10bd
000000f0: b465 4fbd 0e67 72be 3fa4 ce3d a3ef 043d
00000100: c3f7 af3d b2b0 a03c 1660 0f3e 624b d53d
00000110: 6c93 d3bd 704a 7bbd 6f11 2f3f 7985 c1bd
00000120: 7db0 eabd f5d5 a9bd 8c12 86bd 6d4d 9ebd
00000130: d39a cabd b2d0 c7bd d11b a5be a1a2 b13e
00000140: 99eb 4f3e 4c8a b33d 7b56 7b3d 2b4b a8bd
00000150: 9c58 09bd 51f8 04bd 8abd aa3e 65f2 d2bd
00000160: 0a47 a0bd 194d 9bbc 9f58 29ba 13b1 fe38
00000170: 70e3 1d3e 7b8c a2be b0ad 22bf 4dcb 6d3e
00000180: a97f e9bc ff53 22be 88e3 36be f5b5 93bd
00000190: cf6b cebd 0f2f 9abe 4be5 e1bc f13d 2e3e
000001a0: d651 723c e4f0 0e3e 76af 4d3e a91d 083e
000001b0: c1d8 14bd bbcf 403e a75a b13e c3f2 78be
000001c0: 1e36 703e 4117 3b3e dae1 203e f42f 1f3e
000001d0: 8dc4 03bc 066a 6c3d f21e 8ebd 2755 023d
000001e0: 6c67 adbd 157d 0fbc e1ff 103d 59d9 d1bd
000001f0: b65b edbd c959 ad3c e27b 913d b9a2 4e3d
00000200: 6ccd 3ebd c09d 24bc eafe eebc 910b a93d
00000210: 1c5f dd3c e1c7 80bc f20a a43e 0cb1 843d
00000220: 0c44 1b3a 4d68 863d 7072 8f3d 84de 2d3d
00000230: 92d0 d73d 949e 8d3e a28b a0be bd48 08be
00000240: 17c7 9dba 4d81 d7bc a66f a73d e471 a83d
00000250: cb00 a8bd 54b4 003e e265 3fbe f966 3ebd
00000260: 37ee cf3d 3d5b b43d 00d8 03bd 1ccf c4bd
00000270: 1268 42be 3e10 93be 4d4c fbbd 0cf3 c8be
00000280: 63be 32bd 82e4 4a3d dbd4 a7bc dce6 023c
00000290: 2e24 d2bd 4e17 f33d 7d9c 94be 883f 67bd
000002a0: 410a c53c 2df8 91bc b597 8cbd fd89 07be
000002b0: e4ff 57bd c73e 03be 11c2 13bf a8a9 cfbd
000002c0: c82d febd 82cd 22bd 34d2 c9bd f40a 3cbd
000002d0: 3a2a 3f3d 0b01 da3d b09a 3c3e ec8a 94bc
000002e0: b6f5 573d 14be 733d 6f3b b3bc c241 a63d
000002f0: 54ad 913d 6cf4 583e efc9 483e a167 783d
00000300: 9a68 4cbd 3035 ad3d fbf8 223e 7ebe d63d
00000310: 55dd d23d e535 f53d c71b 243f eef9 2abe
00000320: f918 1cba 1952 413c f5e6 2f3c 5b64 1ebd
00000330: 1954 af3c 95f5 273e 1a19 86be c53a df3e
00000340: 6be0 943c 2be4 64bd 9c51 acbd 456c 94bd
00000350: c7ea 9bbd f96e 6cbe 3f3b f03e e811 bebe
00000360: 6b90 f13d 88ee 193e d139 e53d 3d6e 153e
00000370: 8ae6 ac3d 3f7b 8e3d 14d6 f6bd c962 e03d
00000380: 1df2 acbb 4971 2ebc 67ca 47bc 7735 04bd
00000390: 7be8 8bbd 2507 2fb9 1747 e6bd fac9 573e
000003a0: cc33 fc3b 87e1 3b3d ea98 043d 03dc a93a
000003b0: f6ec a73d 2891 01be 6aa7 a83d 99c2 9cbe
000003c0: 9bd6 733d d814 e4bc 28a9 69bb 7b81 893d
000003d0: 82d7 5fbc 5917 9f3c de28 84be 98f2 3b3e
000003e0: 2c6b 6abb 4ddc 593b e7c5 a13d 0af4 9b3d
000003f0: 61bf 1bbd 1fed 523e 9086 313e 49b1 c13e

conv3.bias f4 [16]
0.00022669688 0.117794804 0.109620705 0.01210654 0.004035665 0.25319725 0.15602987 0.12573218
-0.03617276 -0.33700225 0.27751115 0.37880516 -0.010578061 0.040056728 0.22570889 0.0022857676
00000000: 7bb5 6d39 673e f13d d280 e03d 825a 463c
00000010: 9d3d 843b 12a3 813e 4bc6 1f3e f0bf 003e
00000020: e329 14bd 8f8b acbe f115 8e3e c0f2 c13e
00000030: 9b4f 2dbc 8612 243d 3b20 673e d1cc 153b

tcn.tcn.0.conv1.weight f4 [16, 16, 5]
0.10941249 0.13442197 0.075856075 -0.0102228075 -0.16228954 0.11042426 0.063438684 0.06638801
-0.023646927 -0.3714039 0.12450293 0.069423534 0.19719371 -0.064224005 -0.06426685 0.16971204
0.1439526 0.1123357 0.08116383 0.25827786 0.12277047 -0.018331336 0.2941551 0.145014
-0.12575385 -0.16508408 0.14651021 0.17923822 -0.013171179 0.17976491 -0.04049788 0.009917957
-0.13980043 -0.05588149 0.09069861 -0.111897424 -0.09537505 -0.07386597 -0.0001395295 -0.14896265
-0.12789714 0.0257381 -0.059750944 -0.1749007 -0.19781882 -0.24151485 -0.2052529 -0.24285561
-0.25933093 -0.062680006 -0.123175666 0.0055478443 -0.08590949 -0.27892402 -0.11655404 -0.05828891
-0.028048674 -0.019425897 -0.082623266 -0.016517913 0.10401346 0.052581508 0.2737046 -0.044316128
-0.17660515 -0.12223241 -0.070479296 -0.08318213 -0.09156059 -0.12745562 -0.07800882 0.069024384
0.044956293 0.061130222 0.11494909 0.007618327 -0.12651204 0.095885165 -0.047133207 -0.12509519
0.2502704 0.37073293 0.10959658 0.19344425 0.14888458 0.17401701 0.35709375 0.021407748
0.19928603 0.29253915 0.0151663255 0.34136534 0.28338972 0.24372035 0.3940282 -0.06669203
-0.047926176 -0.28714165 0.08017994 -0.01827867 -0.375684 -0.2873435 -0.0069583063 0.0008507006
0.10420908 0.1622026 0.1344531 0.10972449 0.06788884 0.04028521 -0.2811389 -0.2223491
0.0038981605 0.037985977 0.018898858 -0.008822002 -0.007580512 0.09043682 0.24549432 0.22624595
0.05057452 0.20603034 0.020538641 0.20911977 0.07564635 -0.03698319 -0.2173073 -0.27634874
-0.21219023 -0.044303156 0.073522426 0.052288905 0.14455903 0.1678199 0.1301386 0.094938606
0.2891624 0.15958095 0.1039913 0.16173714 -0.14410238 -0.099380784 0.0087618865 -0.05941002
0.11036041 0.05824889 0.10268796 0.14111322 0.18553229 0.24043496 0.19649863 0.01742092
0.073369525 -0.03257451 -0.13630469 0.16292861 0.17047964 -0.10265298 -0.122312576 0.1980674
-0.012974851 0.09259773 -0.057514407 -0.062183887 -0.21978511 0.20648102 0.08471368 0.11599102
-0.08323947 -0.16703281 0.15245704 0.044850815 0.09808943 0.027740734 -0.20639296 -0.10193313
0.022382202 -0.10819167 -0.1153778 -0.029618273 -0.06787008 -0.18027471 -0.14081883 -0.015705228
-0.050825138 0.12178276 0.23481213 0.07006502 -0.079134054 -0.03420058 0.033115372 0.019883785
0.022421401 0.023267008 0.2776388 0.028312637 -0.2036582 -0.054221466 -0.020183934 -0.041529212
0.04600345 -0.09582436 -0.097107895 -0.1405853 -0.092432044 -0.09326257 -0.085510924 0.1640604
0.217445 -0.02179264 0.12379788 -0.03090678 -0.18997794 -0.1416688 -0.15603998 -0.09470102
-0.01547519 0.13353471 0.15722544 -0.079567626 -0.19508158 -0.2520762 -0.018291598 0.06869273
-0.1936298 -0.0076643215 -0.13002798 -0.19216454 -0.22912112 -0.33578858 -0.33271834 -0.08139858
0.07015425 0.053688314 -0.024808582 -0.10094093 -0.12266571 0.14100249 -0.10060468 -0.37036428
-0.4862959 -0.23830137 -0.10652846 0.18221432 0.18728293 -0.15805823 0.046148453 -0.05454731
-0.08935035 0.00901107 -0.23643693 -0.045251474 0.15868571 0.019537132 0.2565502 -0.015287993
00000000: a813 e03d eaa5 093e 6e5a 9b3d 907d 27bc
00000010: 3b2f 26be 1d26 e23d 24ec 813d 70f6 873d
00000020: 33b7 c1bc a728 bebe 64fb fe3d ed2d 8e3d
00000030: 26ed 493e e087 83bd 579e 83bd fec8 2d3e
00000040: 4f68 133e 4210 e63d 3939 a63d ff3c 843e
00000050: 166f fb3d 992b 96bc 7f9b 963e 8d7e 143e
00000060: 9ec5 00be cd0b 29be c606 163e 398a 373e
00000070: eecb 57bc 4b14 383e 1be1 25bd ed7e 223c
00000080: d827 0fbe fde3 64bd 31c0 b93d 7a2a e5bd
00000090: ff53 c3bd 0b47 97bd aa4e 12b9 aa89 18be
000000a0: 78f7 02be b5d8 d23c 68bd 74bd 2b19 33be
000000b0: 0491 4abe ab4f 77be d12d 52be 24af 78be
000000c0: 06c7 84be 605e 80bd 8643 fcbd b1ca b53b
000000d0: 51f1 afbd 21cf 8ebe e2b3 eebd 5ac0 6ebd
000000e0: 55c6 e5bc 0f23 9fbc 6336 a9bd 9350 87bc
000000f0: 0205 d53d b55f 573d 0223 8c3e d484 35bd
00000100: fbd7 34be fc54 fabd 7357 90bd 645b aabd
00000110: 1e84 bbbd ba83 02be 17c3 9fbd a85c 8d3d
00000120: 1724 383d af63 7a3d 6e6a eb3d 29a3 f93b
00000130: 5f8c 01be 715f c43d c00e 41bd f418 00be
00000140: 7123 803e b5d0 bd3e 2c74 e03d 4016 463e
00000150: 3375 183e 8431 323e fed4 b63e 4d5f af3c
00000160: a311 4c3e b1c7 953e 2e7c 783c 70c7 ae3e
00000170: 7518 913e d491 793e 10be c93e d595 88bd
00000180: 3d4e 44bd 3b04 93be 6135 a43d 26bd 95bc
00000190: a759 c0be b01e 93be 8102 e4bb 8d01 5f3a
000001a0: 926b d53d 7018 263e 13ae 093e 3cb7 e03d
000001b0: 4e09 8b3d 1b02 253d 70f1 8fbe 7caf 63be
000001c0: 4878 7f3b 2f97 1b3d c7d1 9a3c 298a 10bc
000001d0: f265 f8bb f136 b93d dd62 7b3e 05ad 673e
000001e0: 3a27 4f3d 9ef9 523e a740 a83c 7e23 563e
000001f0: 79ec 9a3d af7b 17bd ce85 5ebe 957d 8dbe
00000200: 6548 59be 3a77 35bd ed92 963d e42c 563d
00000210: 4807 143e fbd8 2b3e 0e43 053e 2c6f c23d
00000220: 180d 943e 3069 233e 64f9 d43d 6c9e 253e
00000230: 938f 13be 2788 cbbd 048e 0f3c ec57 73bd
00000240: a304 e23d 6396 6e3d 114e d23d fc7f 103e
00000250: 2dfc 3d3e 9534 763e f036 493e 51b6 8e3c
00000260: c342 963d d96c 05bd 7593 0bbe c2d6 263e
00000270: 3792 2e3e ba3b d2bd 047f fabd 2ed2 4a3e
00000280: 7894 54bc e1a3 bd3d 3a94 6bbd 88b4 7ebd
00000290: 590f 61be c36f 533e 5e7e ad3d b38c ed3d
000002a0: 7579 aabd a60a 2bbe b31d 1c3e 7db5 373d
000002b0: 1ce3 c83d 8940 e33c ad58 53be 51c2 d0bd
000002c0: e15a b73c 9893 ddbd 324b ecbd 05a2 f2bc
000002d0: 78ff 8abd ef99 38be d032 10be 40a8 80bc
000002e0: 052e 50bd 3d69 f93d 9772 703e 407e 8f3d
000002f0: 0911 a2bd e815 0cbd fca3 073d 52e3 a23c
00000300: 16ad b73c 749a be3c ac26 8e3e e7ef e73c
00000310: c68b 50be 5417 5ebd c758 a5bc 891a 2abd
00000320: 1d6e 3c3d 903f c4bd 81e0 c6bd 98f5 0fbe
00000330: 034d bdbd 7200 bfbd 5a20 afbd 73ff 273e
00000340: e7a9 5e3e 7b86 b2bc be89 fd3d 3730 fdbc
00000350: 9489 42be a011 11be f2c8 1fbe 9cf2 c1bd
00000360: a78b 7dbc 53bd 083e b5ff 203e 5af4 a2bd
00000370: 77c3 47be 2210 81be 43d8 95bc c6ae 8c3d
00000380: e446 46be fd24 fbbb 0e26 05be c8c6 44be
00000390: ba9e 6abe 7bec abbe 0f5a aabe 4cb4 a6bd
000003a0: 08ad 8f3d 47e8 5b3d 5e3b cbbc 1eba cebd
000003b0: 2938 fbbd f562 103e d409 cebd 63a0 bdbe
000003c0: c7fb f8be 4605 74be 982b dabd 6496 3a3e
000003d0: 19c7 3f3e 04da 21be 2906 3d3d 006d 5fbd
000003e0: 51fd b6bd 2ba3 133c 861c 72be 9c59 39bd
000003f0: 827e 223e 560c a03c 8c5a 833e 7d7a 7abc

tcn.tcn.0.conv1.bias f4 [16]
0.015999839 -0.0017560113 0.18903936 0.11794969 -0.0035979394 0.077620536 -0.018280609 -0.18682343
0.009078796 0.18300085 0.06731382 -0.049344607 0.21792316 0.05585612 -0.10609044 0.08781828
00000000: 1812 833c f629 e6ba 8993 413e 9b8f f13d
00000010: 68cb 6bbb 84f7 9e3d 37c1 95bc a44e 3fbe
00000020: 3bbf 143c 9364 3b3e d4db 893d 921d 4abd
00000030: 4027 5f3e 63c9 643d f245 d9bd 12da b33d

tcn.tcn.0.conv2.weight f4 [16, 16, 1]
0.07098106 -0.11513753 0.28292552 0.075382814 0.18207231 -0.15705666 0.07233549 0.21749084
0.22481862 -0.072158806 -0.14769603 -0.20275296 0.21244195 -0.099365175 -0.11149568 0.39941102
0.096749716 0.17976387 -0.06491819 0.15380852 0.07403026 0.11861804 0.20153798 -0.076865554
-0.015734522 0.0024176799 -0.17886668 -0.09703886 0.08348348 -0.30391052 -0.1559031 0.40325183
0.058262628 0.21908176 -0.15042862 0.23323259 -0.0030807883 -0.07057259 -0.018858084 0.13051987
0.024720458 0.33880132 0.20215414 0.19137521 -0.13077405 0.28943068 -0.097461954 -0.11023243
0.14483999 0.37975064 -0.009868305 0.06481816 -0.0599225 0.23221806 0.19130193 0.07738172
-0.20198326 -0.26129654 -0.0761826 -0.26496285 0.27547216 0.1005584 0.09139912 0.22026114
0.13110104 0.29786056 -0.079247795 0.0046685855 0.062408987 0.032068163 -0.09306124 -0.5227829
-0.13247359 -0.45111936 -0.05611264 -0.2549658 -0.112355605 0.11630357 -0.00652276 0.10358642
-0.023123 0.075554326 0.00924784 -0.0729481 -0.2884158 0.01757819 -0.07698505 -0.4162116
0.17477967 -0.48898482 -0.12527916 -0.5722327 -0.056334734 0.03240693 0.24045706 0.04158332
-0.12609485 -0.25386003 -0.07518094 -0.17190549 0.018858276 0.024745401 -0.2583646 -0.1464767
-0.20240028 0.25234222 -0.24753842 -0.248518 0.0557153 -0.33421993 -0.028840007 -0.072705984
-0.2227687 0.017580632 -0.014299061 0.11839462 -0.08997914 0.2102807 0.12687682 0.13071524
0.32462776 0.205451 0.033634584 0.18973482 0.23425384 0.23512064 -0.32474184 -0.20871225
-0.18513404 0.07350051 0.27317414 0.0031573563 0.04428791 0.13976249 0.07273612 -0.012042644
-0.19329393 0.105619565 0.099017575 -0.1419501 -0.20139606 0.11037626 -0.35710886 0.28382862
-0.14028701 0.35179433 -0.10363603 0.1388345 0.17085306 0.28845587 0.22938901 -0.03214092
-0.08265169 -0.18396756 -0.119086705 0.018521445 -0.24639149 0.065325305 -0.29898795 0.0008541355
-0.14086792 -0.08514157 0.12362186 -0.10809358 -0.14147934 -0.14147118 0.026221214 0.21200377
-0.037916563 0.6191343 -0.18718326 0.50763977 0.17474371 0.050550904 0.05584321 -0.25999942
0.030791858 -0.17556924 -0.111228205 0.26013678 -0.17581804 -0.24322012 -0.13055882 0.1877199
-0.083296746 0.61766976 -0.006119901 0.14225228 -0.018457426 0.035994004 0.33820987 0.2185432
-0.105733946 -0.34006712 0.17432256 -0.049459398 -0.16465834 -0.035062354 -0.1293268 0.36592886
-0.058552604 0.29117566 -0.14459747 0.30485326 0.25971326 -0.18754324 0.09653828 -0.18568757
0.18579812 0.13271493 0.25527552 -0.09341059 -0.047578722 -0.2381624 0.014562555 0.4266226
-0.0026762283 0.3883528 -0.21580204 0.081448965 0.25982878 0.21311264 -0.21027601 0.31823376
0.055113193 -0.0649508 -0.02347455 -0.27840412 -0.110222705 0.010931884 -0.15016209 0.3972278
-0.015805533 0.5517625 -0.2726885 0.20488691 -0.0373405 -0.0056886435 -0.23686524 -0.08964636
0.041692667 -0.3178476 -0.060053665 -0.25322372 0.10792601 -0.066936255 -0.09631963 -0.13596065
0.24122696 0.70545065 -0.26966962 -0.04709174 0.027461642 0.21167222 -0.069412835 0.30758506
00000000: 855e 913d 3acd ebbd 9ddb 903e 4e62 9a3d
00000010: 2a71 3a3e 76d3 20be a124 943d ebb5 5e3e
00000020: da36 663e ffc7 93bd a13d 17be 799e 4fbe
00000030: 628a 593e f87f cbbd d957 e4bd 9a7f cc3e
00000040: b724 c63d 0514 383e d4f3 84bd fb7f 1d3e
00000050: 2d9d 973d 04ee f23d f95f 4e3e b06b 9dbd
00000060: afe5 80bc f071 1e3b d428 37be 4fbc c6bd
00000070: 63f9 aa3d 299a 9bbe 10a5 1fbe 0677 ce3e
00000080: cba4 6e3d f856 603e f609 1abe 86d4 6e3e
00000090: 0de7 49bb 5d88 90bd 457c 9abc 00a7 053e
000000a0: 8f82 ca3c 5e77 ad3e 7f01 4f3e ddf7 433e
000000b0: a2e9 05be 4230 943e 229a c7bd 8ac1 e1bd
000000c0: ef50 143e ad6e c23e acae 21bc 62bf 843d
000000d0: 4c71 75bd 92ca 6d3e a7e4 433e 4f7a 9e3d
000000e0: b3d4 4ebe a9c8 85be 9f05 9cbd 36a9 87be
000000f0: b00a 8d3e 90f1 cd3d 762f bb3d 238c 613e
00000100: 5a3f 063e 2e81 983e ab4c a2bd effa 983b
00000110: 91a0 7f3d e859 033d e496 bebd 1ad5 05bf
00000120: 28a7 07be 1ef9 e6be 5ed6 65bd e18a 82be
00000130: b21a e6bd 9130 ee3d e0bc d5bb 1e25 d43d
00000140: 726c bdbc 3abc 9a3d 4184 173c d065 95bd
00000150: 3cab 93be 2300 903c 57aa 9dbd b019 d5be
00000160: 71f9 323e 385c fabe 2e49 00be d87d 12bf
00000170: 40bf 66bd 21bd 043d 603a 763e 4553 2a3d
00000180: 021f 01be f1f9 81be 77f8 99bd fe07 30be
00000190: ac7c 9a3c deb6 ca3c 5d48 84be fdfd 15be
000001a0: 0542 4fbe 0033 813e b67a 7dbe 817b 7ebe
000001b0: ba35 643d e01e abbe e141 ecbc e0e6 94bd
000001c0: 7a1d 64be 4205 903c 9c46 6abc e178 f23d
000001d0: fc46 b8bd d353 573e ffeb 013e 37da 053e
000001e0: 9c35 a63e bf61 523e 6bc4 093d d849 423e
000001f0: 3de0 6f3e 77c3 703e 9044 a6be aab8 55be
00000200: c793 3dbe 6f87 963d 7bdd 8b3e a6eb 4e3b
00000210: 3d67 353d e61d 0f3e adf6 943d 834e 45bc
00000220: d8ee 45be 124f d83d bac9 ca3d 5e5b 11be
00000230: c53a 4ebe f30c e23d f9d6 b6be fc51 913e
00000240: 66a7 0fbe 631e b43e 203f d4bd a22a 0e3e
00000250: 1bf4 2e3e 7db0 933e f4e4 6a3e 33a6 03bd
00000260: 4a45 a9bd fe61 3cbe bbe3 f3bd 49ba 973c
00000270: 0d4e 7cbe 46c9 853d f314 99be 10e8 5f3a
00000280: ae3f 10be b45e aebd 752d fd3d 2b60 ddbd
00000290: f6df 10be d2dd 10be dfcd d63c 8417 593e
000002a0: 664e 1bbd 967f 1e3f f8ac 3fbe aef4 013f
000002b0: 04f0 323e 770e 4f3d dabb 643d a51e 85be
000002c0: 353f fc3c 6cc8 33be 9dcb e3bd a630 853e
000002d0: a509 34be b20e 79be 36b1 05be a539 403e
000002e0: 7c97 aabd 9b1f 1e3f 7389 c8bb 95aa 113e
000002f0: 0734 97bc 736e 133d d829 ad3e cac9 5f3e
00000300: 0a8b d8bd 471d aebe 9d81 323e f095 4abd
00000310: 329c 28be 8b9d 0fbd 3f6e 04be 075b bb3e
00000320: dbd4 6fbd fa14 953e 5c11 14be ba15 9c3e
00000330: 23f9 843e 560b 40be ddb5 c53d e224 3ebe
00000340: dd41 3e3e 6ce6 073e 79b3 823e 0d4e bfbd
00000350: e8e1 42bd d8e0 73be c897 6e3c 476e da3e
00000360: a963 2fbb 2ed6 c63e 36fb 5cbe b7ce a63d
00000370: 4708 853e 333a 5a3e 9852 57be 89ef a23e
00000380: 5fbe 613d ed04 85bd b34d c0bc fc8a 8ebe
00000390: 71bc e1bd a51b 333c 17c4 19be 7161 cb3e
000003a0: 9b7a 81bc 4f40 0d3f d49d 8bbe e0cd 513e
000003b0: 5af2 18bd cd67 babb cd8c 72be 8398 b7bd
000003c0: eec5 2a3d ecbc a2be d5fa 75bd 8aa6 81be
000003d0: 5008 dd3d e015 89bd 3a43 c5bd 4539 0bbe
000003e0: 3304 773e 6a98 343f 2312 8abe 45e3 40bd
000003f0: 3df7 e03c 9ac0 583e 5128 8ebd ca7b 9d3e

tcn.tcn.0.conv2.bias f4 [16]
0.04736435 0.020056918 0.05987473 -0.08307949 0.11621852 0.034305263 -0.098545 -0.047926135
-0.22732444 -0.15016843 0.01913935 0.06006005 0.17189981 -0.035076037 0.18315 0.042351708
00000000: 1f01 423d 684e a43c 343f 753d 9425 aabd
00000010: fa03 ee3d ad83 0c3d f6d1 c9bd 324e 44bd
00000020: bdc7 68be c1c5 19be 20ca 9c3c 8701 763d
00000030: 8106 303e e4ab 0fbd ac8b 3b3e fc78 2d3d

tcn.tcn.0.res_conv.weight f4 [16, 16, 1]
0.008057182 -0.09768214 0.1966886 0.026968095 0.08557207 0.1707275 -0.05140284 -0.12344997
-0.15745112 0.29774353 -0.2604519 0.09470258 -0.05020153 0.12507841 0.138122 -0.023470527
0.081969365 0.32113263 -0.14032747 0.15379204 0.026264787 -0.113321096 0.10826622 -0.48811784
0.09955452 -0.02237867 -0.22403821 -0.010372023 0.27060235 -0.108248375 -0.19857125 -0.22826889
0.1751226 -0.24837787 -0.026397282 0.25605306 0.06362832 -0.19565758 0.41010624 0.14957908
0.010583498 0.41100022 0.14600363 -0.2973034 -0.35639745 0.2670164 0.16745026 -0.09145984
0.27656174 -0.28868154 0.17786014 -0.12858094 -0.03486498 -0.00946773 -0.03750899 0.39043292
-0.07124877 0.039264683 0.22194773 -0.20134467 0.04445261 0.3191046 0.18512796 -0.07933501
-0.24798375 0.2891054 -0.09301539 -0.27331284 -0.040928658 0.06569865 -0.28124642 -0.19289522
-0.033712663 -0.14539479 0.24403332 -0.028042946 0.20881186 0.119605795 -0.011885217 -0.00030498637
0.056165714 0.20388287 -0.31709182 -0.08154702 -0.17442851 0.25454986 -0.3193598 0.009651768
0.03810639 0.012838627 -0.045705434 0.08285627 0.04555574 -0.027435577 0.04192558 0.21695715
-0.35147595 0.29734713 0.05447536 -0.18367748 0.20275569 0.10986293 -0.27711093 -0.0657409
-0.16675563 0.2523669 -0.31067047 0.058801543 0.07576281 -0.36925873 -0.13348101 0.16153322
-0.1277754 0.05494045 0.27891454 0.36305982 -0.07929945 0.2862509 0.44889158 -0.24188133
-0.015145859 -0.08266292 -0.26965198 -0.058046542 -0.009351045 -0.2662334 -0.08702055 -0.16537896
-0.20845594 0.0065135043 0.21006034 -0.31697482 -0.32311663 -0.038041927 -0.20106323 -0.118440405
-0.093072504 0.9167313 0.23954871 0.12822485 -0.20630962 -0.19435948 -0.1675633 0.38087583
0.3382023 0.011391593 0.18863441 -0.12381278 -0.11190103 -0.07012439 0.27217853 0.13231803
-0.07642981 0.18645217 0.07642591 0.20532215 -0.20484333 0.31450525 0.030619599 -0.26290104
0.058017872 -0.16464144 -0.121255524 -0.25719896 -0.09811576 -0.3650012 0.17493105 0.15031491
-0.23028733 0.39227015 -0.11349747 -0.48898932 -0.02897367 -0.3321115 0.30679652 -0.19961555
-0.419224 -0.27881432 -0.16442679 -0.096272424 0.034040436 -0.318599 -0.22524992 -0.08254899
0.048240967 -0.24264164 -0.18460038 -0.08877198 0.094979815 -0.0640051 -0.017136332 -0.17006497
0.04835616 0.35922113 0.044270933 -0.0074032694 -0.08981215 -0.08743426 -0.2874742 -0.14529677
0.22363277 0.16456273 -0.24333462 0.10248239 0.12664352 -0.123307295 -0.06864802 0.25467038
0.3271641 0.2855487 0.23129381 0.43578 -0.16214758 0.26471734 0.19240102 0.034728836
0.14386071 0.06178975 -0.06380661 -0.28608665 0.096844375 -0.18528491 0.06501943 -0.19065447
-0.15555158 -0.20849536 0.04199933 0.07549895 -0.1523303 -0.08292802 0.22307752 -0.023649523
-0.14966941 0.17550486 -0.1138897 0.004674419 0.12467534 0.10035646 0.0077348943 0.028591039
-0.2666922 -0.04871606 -0.12001771 -0.19869618 0.19673161 0.112425126 -0.20181611 0.07594757
-0.08807736 0.04053491 -0.29177085 -0.06421099 0.12728752 0.100565895 -0.15635817 0.129478
00000000: 4502 043c 930d c8bd bd68 493e 32ec dc3c
00000010: 6940 af3d 31d3 2e3e c98b 52bd 56d3 fcbd
00000020: de3a 21be d771 983e f459 85be 6df3 c13d
00000030: 1fa0 4dbd 8e14 003e db6f 0d3e 4345 c0bc
00000040: 8edf a73d 7f6b a43e 01b2 0fbe a97b 1d3e
00000050: 4029 d73c e414 e8bd aeba dd3d 95ea f9be
00000060: 3de3 cb3d 7953 b7bc 466a 65be 6bef 29bc
00000070: 648c 8a3e 53b1 ddbd 4356 4bbe 52bf 69be
00000080: 5753 333e c556 7ebe 1d3f d8bc 6319 833e
00000090: 914f 823d 765a 48be 72f9 d13e 422b 193e
000000a0: 6866 2d3c 9f6e d23e fa81 153e 2738 98be
000000b0: ba79 b6be 60b6 883e 1578 2b3e 4c4f bbbd
000000c0: 8099 8d3e 11ce 93be f820 363e b9aa 03be
000000d0: 95ce 0ebd 8a1e 1bbc 07a3 19bd d3e6 c73e
000000e0: e0ea 91bd 01d4 203d 4446 633e 4c2d 4ebe
000000f0: f113 363d ae61 a33e 2f92 3d3e 657a a2bd
00000100: 74ef 7dbe 9f05 943e da7e bebd a9ef 8bbe
00000110: cfa4 27bd 048d 863d 88ff 8fbe 5386 45be
00000120: 4a16 0abd 5fe2 14be dfe3 793e 52ba e5bc
00000130: c7d2 553e e2f3 f43d 37ba 42bc 94e6 9fb9
00000140: 050e 663d acc6 503e dc59 a2be 2002 a7bd
00000150: 639d 32be 5c54 823e 2183 a3be 7322 1e3c
00000160: 7215 1c3d 1b59 523c 9f35 3bbd 8cb0 a93d
00000170: a898 3a3d 93c0 e0bc 28ba 2b3d 042a 5e3e
00000180: a8f4 b3be e23d 983e 8e21 5f3d f315 3cbe
00000190: 309f 4f3e d1ff e03d 7ce1 8dbe 2aa3 86bd
000001a0: fdc1 2abe 3c36 813e 3310 9fbe e3d9 703d
000001b0: 8829 9b3d 7b0f bdbe 3faf 08be f768 253e
000001c0: 8ed7 02be 3d09 613d e3cd 8e3e fae2 b93e
000001d0: c067 a2bd 7a8f 923e 1ed5 e53e bdaf 77be
000001e0: 5626 78bc 2d4b a9bd d30f 8abe 36c2 6dbd
000001f0: 2035 19bc bf4f 88be d537 b2bd 1a59 29be
00000200: 7975 55be 3c6f d53b 0f1a 573e 864a a2be
00000210: 8b6f a5be dad1 1bbd 85e3 4dbe e290 f2bd
00000220: cc9c bebd e7ae 6a3f 424c 753e 604d 033e
00000230: d442 53be 2c06 47be b795 2bbe 2802 c33e
00000240: da28 ad3e cea3 3a3c 6129 413e 8e91 fdbd
00000250: 5e2c e5bd 609d 8fbd fc5a 8b3e 617e 073e
00000260: 3b87 9cbd 51ed 3e3e 3085 9c3d f83f 523e
00000270: 73c2 51be d506 a13e f4d5 fa3c f79a 86be
00000280: 26a4 6d3d c497 28be d154 f8bd 95af 83be
00000290: eaf0 c8bd 70e1 babe 2021 333e 27ec 193e
000002a0: 71d0 6bbe a2d7 c83e 5d71 e8bd cf5c fabe
000002b0: 315a edbc 850a aabe 6f14 9d3e 0568 4cbe
000002c0: 87a4 d6be c0c0 8ebe 7f5f 28be 7a2a c5bd
000002d0: fc6d 0b3d 681f a3be eaa7 66be 720f a9bd
000002e0: 5298 453d 0d77 78be e207 3dbe 15ce b5bd
000002f0: c784 c23d 1b15 83bd 7e61 8cbc 8325 2ebe
00000300: 1c11 463d d5eb b73e 7055 353d 2097 f2bb
00000310: 6fef b7bd bc10 b3bd d12f 93be adc8 14be
00000320: fdff 643e 2283 283e b62c 79be 4ae2 d13d
00000330: d7ae 013e 8988 fcbd 5597 8cbd 2864 823e
00000340: 0e82 a73e 7033 923e 49d8 6c3e 8e1e df3e
00000350: 040a 26be 0889 873e c604 453e d33f 0e3d
00000360: 3950 133e 4017 7d3d 0aad 82bd f379 92be
00000370: 5856 c63d 54bb 3dbe e828 853d ed3a 43be
00000380: ea48 1fbe cf7f 55be 7d07 2c3d 329f 9a3d
00000390: 79fc 1bbe 2ad6 a9bd 6f6e 643e a5bc c1bc
000003a0: f042 19be 8cb7 333e 013f e9bd de2b 993b
000003b0: c955 ff3d b087 cd3d ff74 fd3b c137 ea3c
000003c0: e18b 88be 7e8a 47bd d8cb f5bd 0377 4bbe
000003d0: 0374 493e 253f e63d e2a8 4ebe 668a 9b3d
000003e0: e761 b4bd ef07 263d fd62 95be 0d81 83bd
000003f0: a957 023e 7ef5 cd3d 5b1c 20be e195 043e

tcn.tcn.0.res_conv.bias f4 [16]
0.24302043 -0.11856217 -0.22997396 0.024080891 -0.1365934 -0.15660909 -0.20535067 -0.16622509
-0.06592585 0.13804689 -0.097739615 0.13426581 -0.040299594 -0.29255864 -0.01174413 0.058655545
00000000: 59da 783e b9d0 f2bd 4b7e 6bbe 4a45 c53c
00000010: 24df 0bbe 225e 20be 7247 52be e936 2abe
00000020: 2204 87bd 2a5c 0d3e b52b c8bd fa7c 093e
00000030: 3011 25bd 3fca 95be 746a 40bc cc40 703d

tcn.tcn.1.conv1.weight f4 [16, 16, 5]
-0.040819325 -0.22092785 -0.13558607 -0.21389915 -0.32029164 0.19596615 -0.40236562 -0.1658044
-0.10545664 0.1535568 0.12002561 0.43163988 -0.11534001 -0.2830397 -0.22459063 0.02847952
-0.108240224 -0.11285989 -0.11132151 -0.27579936 0.0025246048 -0.112168185 0.25912407 0.28028864
0.29952055 0.06206824 -0.017633464 0.29101712 0.058943253 0.27467048 0.07827837 -0.088903986
0.18653892 0.2996485 0.4839274 -0.10192316 -0.1973311 -0.44760668 -0.41715288 -0.16992843
-0.15996622 0.20129326 0.2676104 0.18389726 0.1434381 -0.13294038 -0.047764678 0.020120706
-0.105477296 -0.10526022 0.12582003 0.22291797 -0.12547822 -0.30032873 -0.24031544 0.22715832
-0.013566064 -0.29749465 0.09454881 0.0011927143 0.0040506767 0.13595583 0.007630418 0.039786298
0.17054364 0.40066242 -0.007951808 -0.22832286 -0.18242618 -0.0034088837 0.20578466 0.13118972
0.11845394 0.03224561 -0.06846107 0.5160811 0.05762734 0.06863823 0.24661869 0.18474399
-0.17696302 -0.19264238 -0.058524612 -0.1933015 -0.2103689 -0.1396919 0.18255347 -0.123583116
0.058489937 -0.2640441 -0.32828334 -0.07422795 -0.29908007 -0.18060856 -0.24436463 0.12045168
-0.2605184 -0.354319 -0.1825435 -0.124436714 0.38918498 0.010119147 -0.11729333 0.11200479
0.21249638 0.16034895 -0.21202376 -0.4075305 -0.064858556 0.5054334 0.073681206 0.08529325
0.2727176 0.36654305 0.3642017 -0.43558735 -0.06006409 -0.22954577 -0.12340836 0.021889932
-0.16103853 0.06280947 -0.36459094 -0.20624453 0.23743972 0.042158917 -0.064950496 -0.1609353
-0.045432925 -0.05516611 -0.20195654 -0.21028328 0.15383117 0.00745274 -0.035754 0.19294165
0.27245182 0.37816826 0.11798271 -0.17932388 -0.08723899 -0.05249114 0.3201343 -0.0898274
0.01827241 -0.2645163 -0.16525462 -0.20296323 -0.1941593 -0.07685162 -0.024678558 0.051049504
0.24244902 -0.116483875 0.02550652 0.04811634 0.17688292 0.0997057 0.06623591 0.06626885
0.1727489 0.031633183 -0.00095411146 0.16390215 -0.13622038 -0.019765511 -0.17987639 0.066432565
-0.053558894 0.21946438 -0.08957321 0.014107376 0.019798603 -0.14527056 -0.094410785 -0.1823569
-0.11162379 -0.1668199 0.1517695 0.050824475 0.008337488 -0.09895977 -0.23447919 0.12758043
0.17231646 -0.1333333 -0.10585975 -0.04941585 0.021495236 0.214057 0.36697698 -0.0073437653
0.049590956 -0.09421171 -0.004523096 -0.12771943 0.11709712 0.103220984 0.08065839 -0.016326642
0.15083236 -0.09972667 -0.17820744 -0.011667081 0.19406395 -0.15180077 0.033070754 -0.23532075
-0.20624514 0.25560164 0.32483727 0.19574411 0.02678137 -0.06903402 -0.3365499 0.31717044
0.13743046 -0.049830288 -0.079884045 -0.1652702 0.19279106 -0.11835786 0.12771499 0.09198334
-0.07258872 -0.0018664586 -0.13205591 0.080312766 0.0047568353 -0.07732703 0.20269656 -0.06446537
0.10281889 -0.07993861 -0.16142079 0.35160518 -0.09821353 0.08503512 0.053101655 -0.20446377
0.0132411225 -0.026531506 0.18354863 0.16548443 -0.17335366 0.01661288 0.028348448 -0.09325361
-0.110932745 0.051610388 -0.12733532 0.07511142 0.023635944 -0.21958555 -0.033582028 0.025894787
00000000: 2a32 27bd e93a 62be 13d7 0abe 6108 5bbe
00000010: 44fd a3be 5aab 483e de02 cebe a1c8 29be
00000020: a7f9 d7bd fe3d 1d3e fdcf f53d e7ff dc3e
00000030: 6237 ecbd 94ea 90be 16fb 65be e24d e93c
00000040: 0dad ddbd 1623 e7bd 88fc e3bd 9335 8dbe
00000050: d773 253b 6fb8 e5bd e9ab 843e fe81 8f3e
00000060: c25a 993e 443b 7e3d 0e74 90bc 3200 953e
00000070: 7b6e 713d 9ca1 8c3e 6950 a03d 4b13 b6bd
00000080: 0f04 3f3e 876b 993e 55c5 f73e 17bd d0bd
00000090: 2a11 4abe b42c e5be 1095 d5be b801 2ebe
000000a0: 2fce 23be d21f 4e3e 3b04 893e 904f 3c3e
000000b0: 70e1 123e 8621 08be e5a4 43bd 2ed4 a43c
000000c0: 7b04 d8bd ac92 d7bd f7d6 003e 9c44 643e
000000d0: 5d7d 00be b0c4 99be 4015 76be 319c 683e
000000e0: 3244 5ebc 3851 98be cea2 c13d da54 9c3a
000000f0: 8abb 843b 0138 0b3e 9608 fa3b f5f6 223d
00000100: fea2 2e3e a023 cd3e 4d48 02bc 78cd 69be
00000110: eecd 3abe 9467 5fbb 37b9 523e 9956 063e
00000120: fb97 f23d f913 043d 5135 8cbd e41d 043f
00000130: a50a 6c3d 3392 8c3d 9c89 7c3e 872d 3d3e
00000140: cb35 35be 0b44 45be 81b7 6fbd d4f0 45be
00000150: f26a 57be 650b 0fbe 4cef 3a3e 2519 fdbd
00000160: 2593 6f3d ca30 87be c114 a8be d304 98bd
00000170: 0621 99be 73f1 38be b93a 7abe 5faf f63d
00000180: ab62 85be 4d69 b5be afec 3abe add8 febd
00000190: 4143 c73e c7ca 253c 7c37 f0bd c462 e53d
000001a0: a798 593e 8432 243e c21c 59be d6a7 d0be
000001b0: 90d4 84bd 1564 013f 2ce6 963d 3aae ae3d
000001c0: a4a1 8b3e 88ab bb3e a578 ba3e 4e05 dfbe
000001d0: c305 76bd 0c0e 6bbe 86bd fcbd 8452 b33c
000001e0: 49e7 24be 40a2 803d aaab babe c431 53be
000001f0: 6623 733e d4ae 2c3d c404 85bd 39cc 24be
00000200: e017 3abd dcf5 61bd b2cd 4ebe 8054 57be
00000210: eb85 1d3e 1d36 f43b c972 12bd 7f92 453e
00000220: ce7e 8b3e 459f c13e eba0 f13d aea0 37be
00000230: 5baa b2bd f300 57bd a5e8 a33e 6ef7 b7bd
00000240: 05b0 953c ae6e 87be 8238 29be 98d5 4fbe
00000250: b2d1 46be 6264 9dbd b02a cabc 4919 513d
00000260: 8e44 783e 198f eebd 0df3 d03c a415 453d
00000270: cc20 353e 8132 cc3d b1a6 873d f6b7 873d
00000280: 16e5 303e cc91 013d 561d 7aba f7d5 273e
00000290: 5b7d 0bbe 48eb a1bc 8431 38be cc0d 883d
000002a0: 9260 5bbd 45bb 603e 2972 b7bd a022 673c
000002b0: ae30 a23c cec1 14be 715a c1bd c4bb 3abe
000002c0: 039b e4bd d6d2 2abe 7769 1b3e 532d 503d
000002d0: f699 083c 6bab cabd 501b 70be 72a4 023e
000002e0: ba73 303e 8688 08be ffcc d8bd 4668 4abd
000002f0: c716 b03c c231 5b3e 68e4 bb3e f8a3 f0bb
00000300: e31f 4b3d 12f2 c0bd 7b36 94bb e2c8 02be
00000310: 9dd0 ef3d 8665 d33d 3a30 a53d 73bf 85bc
00000320: cc73 1a3e 7f3d ccbd 037c 36be 4927 3fbc
00000330: b3b8 463e a971 1bbe 3375 073d ecf7 70be
00000340: ed31 53be 38de 823e 1251 a63e 2571 483e
00000350: 9b64 db3c b561 8dbd 4550 acbe 2a64 a23e
00000360: 92ba 0c3e d81a 4cbd 3f9a a3bd 973c 29be
00000370: 056b 453e 9b65 f2bd b8c7 023e c361 bc3d
00000380: 65a9 94bd f5a3 f4ba aa39 07be 057b a43d
00000390: 3adf 9b3b a25d 9ebd b08f 4f3e 6b06 84bd
000003a0: b692 d23d dbb6 a3bd 7e4b 25be 9805 b43e
000003b0: 2d24 c9bd e526 ae3d 1f81 593d f35e 51be
000003c0: 4bf1 583c 9a58 d9bc 2cf4 3b3e c074 293e
000003d0: 9f83 31be bc17 883c 013b e83c c0fb bebd
000003e0: b530 e3bd 6a65 533d 3164 02be 04d4 993d
000003f0: 2ba0 c13c 09db 60be 4f8d 09bd 4e21 d43c

tcn.tcn.1.conv1.bias f4 [16]
-0.20320964 -0.26927525 0.08728628 0.079646975 -0.31075636 -0.1940973 0.08179708 0.0750186
-0.049871814 -0.1156296 -0.21608412 0.09684543 -0.24202423 0.20826463 -0.06805957 0.13754836
00000000: 3016 50be 72de 89be 26c3 b23d f41d a33d
00000010: 751b 9fbe 71c1 46be 3a85 a73d 5aa3 993d
00000020: 6346 4cbd 36cf ecbd 2845 5dbe e656 c63d
00000030: 33d5 77be 5343 553e d162 8bbd 7ad9 0c3e

tcn.tcn.1.conv2.weight f4 [16, 16, 1]
0.53611296 0.020624576 -0.059919503 0.08622887 -0.053669468 -0.13630834 0.22352007 0.3376745
-0.3400989 -0.28430006 -0.045803986 0.26229104 0.007485637 0.30214757 0.38534978 -0.08396473
-0.12827253 0.38338518 -0.15466128 -0.2001944 0.055302124 0.1589841 0.21235453 -0.16781333
0.25179031 -0.1424618 0.12714697 0.25090414 -0.0555107 -0.12210413 -0.34299737 0.22926575
0.045682013 0.17031088 0.2336172 0.07766746 0.121058874 -0.032107286 0.23934077 -0.26583296
-0.06337219 -0.051051274 -0.32430354 0.09143566 -0.15617289 -0.107937284 -0.17699994 -0.23596764
-0.2646648 -0.038325656 -0.48312882 -0.12075331 0.17880327 -0.19562916 -0.059684318 0.14025995
-0.020399561 0.15761045 0.20861 -0.26985782 -0.09917412 -0.09407965 0.047763932 0.09789814
0.090078965 0.15420294 -0.03134642 -0.24971764 0.10662221 -0.089198746 0.075930074 -0.11512611
0.37184334 -0.19794337 -0.042261746 0.2156658 -0.17356029 -0.06517435 -0.01339259 0.13344714
-0.16325529 -0.069521725 -0.016345838 -0.19862136 0.15527251 0.2661056 0.49139124 0.16420317
0.117609024 0.015579854 -0.064157255 0.18667814 -0.08929618 -0.1189037 0.13228515 0.09849471
-0.18163125 0.21401252 -0.13694094 -0.0057616034 0.24676514 -0.08186824 -0.12764458 0.29596066
0.10914739 -0.0650493 0.033883106 0.24142444 -0.2565015 -0.25885242 -0.28939292 0.31892973
0.27647123 -0.19815384 0.1408295 0.04973217 -0.16447452 0.43632263 0.0986308 0.044917207
-0.044347018 -0.111323744 -0.18653876 -0.11873971 -0.059902065 0.28506774 -0.017478444 -0.16585593
-0.25327688 0.25272048 -0.32775384 0.11227718 -0.24705338 0.24262892 0.32949078 -0.11679838
0.044232 -0.052553613 -0.039008968 0.17566706 -0.25160378 -0.12682688 -0.06414973 -0.07310096
-0.07258755 0.050424255 0.09849415 -0.20825504 -0.05962448 -0.18732361 0.20783134 0.013581487
0.09346034 -0.12172839 0.28638723 -0.10866006 -0.004613685 0.15696484 0.4201054 0.11450028
0.19464456 -0.14422414 -0.18099312 -0.26758447 -0.09182806 0.28718388 -0.16243944 -0.13660611
-0.032645404 -0.18143003 0.20737669 -0.0508181 0.0765683 0.076236136 -0.06373548 0.100833535
0.2601554 -0.015927328 -0.17737986 -0.06506447 -0.18136968 -0.37352362 -0.1567909 0.00046231097
-0.36662284 0.07503415 -0.048390564 -0.16478726 0.11653564 -0.1750241 -0.028332504 -0.01631721
0.19200549 -0.19863935 -0.06785276 -0.093317755 -0.15243052 -0.025936019 0.104854904 0.08811269
0.2800642 -0.030517211 -0.11690525 -0.04890543 0.03352318 -0.1824035 0.32530406 0.22396193
-0.047559123 -0.061153337 0.05122286 -0.20354357 -0.30186582 -0.016115438 0.30278382 0.049022127
-0.152249 0.036288135 -0.11335368 -0.026684765 -0.3152807 -0.31876457 0.22279936 0.03827124
-0.11981058 0.4241771 0.19463293 0.11827202 0.15947536 -0.1783504 0.19642344 0.12763698
-0.011713336 -0.11884216 0.18564168 -0.09203038 -0.2006493 0.06926437 -0.21450572 0.07309231
-0.3841655 0.14205782 -0.116153896 0.122216634 0.12261232 -0.035162006 0.12809211 0.007044995
-0.12854476 0.01101178 0.169282 -0.089279905 -0.24520761 -0.013161263 -0.5568022 -0.13435857
00000000: b33e 093f dff4 a83c 276e 75bd c398 b03d
00000010: 84d4 5bbd 6a94 0bbe 72e2 643e ace3 ac3e
00000020: 7121 aebe c78f 91be f69c 3bbd 034b 863e
00000030: 134a f53b 16b3 9a3e 914c c53e b3f5 abbd
00000040: e059 03be 104b c43e 875f 1ebe c3ff 4cbe
00000050: 7b84 623d bacc 223e 7773 593e 42d7 2bbe
00000060: a9ea 803e 82e1 11be d132 023e 8276 803e
00000070: 305f 63bd bb11 fabd 5a9d afbe a4c4 6a3e
00000080: 101d 3b3d fa65 2e3e 5939 6f3e 1e10 9f3d
00000090: b7ed f73d ee82 03bd bf15 753e 421b 88be
000000a0: 47c9 81bd 241b 51bd 1d0b a6be 9f42 bb3d
000000b0: c9eb 1fbe 390e ddbd 793f 35be 80a1 71be
000000c0: 2582 87be 5dfb 1cbd a95c f7be 834d f7bd
000000d0: 3418 373e 0353 48be 8b77 74bd 4ea0 0f3e
000000e0: fb1c a7bc a264 213e dc9d 553e ce2a 8abe
000000f0: cd1b cbbd d5ac c0bd 1da4 433d d27e c83d
00000100: 527b b83d 60e7 1d3e 1b65 00bd fbb5 7fbe
00000110: bf5c da3d d5ad b6bd 3a81 9b3d 3dc7 ebbd
00000120: 4062 be3e abb1 4abe a71a 2dbd 7fd7 5c3e
00000130: cab9 31be 217a 85bd 986c 5bbc 5ea6 083e
00000140: 652c 27be 6861 8ebd b5e7 85bc 6663 4bbe
00000150: c2ff 1e3e fe3e 883e a297 fb3e e024 283e
00000160: 00dd f03d a542 7f3c e164 83bd 8e28 3f3e
00000170: eae0 b6bd c883 f3bd c275 073e 98b7 c93d
00000180: 8bfd 39be 1926 5b3e 3f3a 0cbe d5cb bcbb
00000190: 00b0 7c3e 89aa a7bd 43b5 02be 2888 973e
000001a0: ab88 df3d 9138 85bd 03c9 0a3d f837 773e
000001b0: 2a54 83be 4e88 84be 4f2b 94be c24a a33e
000001c0: a38d 8d3e d7e8 4abe 9c35 103e f6b3 4b3d
000001d0: 026c 28be ae65 df3e f2fe c93d 1bfb 373d
000001e0: 38a5 35bd b4fd e3bd 0404 3fbe ce2d f3bd
000001f0: de5b 75bd 66f4 913e f42e 8fbc 23d6 29be
00000200: 82ad 81be 9464 813e 5acf a7be 94f1 e53d
00000210: 90fb 7cbe b773 783e 04b3 a83e fd33 efbd
00000220: 9d2c 353d 7542 57bd dec7 1fbd 11e2 333e
00000230: 36d2 80be e8de 01be ef60 83bd f5b5 95bd
00000240: c8a8 94bd aa89 4e3d 4db7 c93d cf40 55be
00000250: cc38 74bd c3d1 3fbe bdd1 543e e384 5e3c
00000260: 2268 bf3d bc4c f9bd 59a1 923e 2a89 debd
00000270: 652e 97bb 64bb 203e 0e18 d73e 1f7f ea3d
00000280: e750 473e 7eaf 13be 4356 39be d500 89be
00000290: 5a10 bcbd c409 933e 8656 26be 79e2 0bbe
000002a0: 30b7 05bd cbc8 39be 8e5a 543e a426 50bd
000002b0: d7cf 9c3d b121 9c3d bf87 82bd d081 ce3d
000002c0: 1733 853e 077a 82bc 11a3 35be 8540 85bd
000002d0: f9b8 39be 7d3e bfbe cb8d 20be 5462 f239
000002e0: fdb5 bbbe 81ab 993d 2f35 46bd febd 28be
000002f0: 3daa ee3d 8539 33be 9119 e8bc abab 85bc
00000300: 169d 443e 1d68 4bbe 63f6 8abd 611d bfbd
00000310: bf16 1cbe c677 d4bc 2bbe d63d 6d74 b43d
00000320: 9364 8f3e 3bff f9bc 056c efbd 0f51 48bd
00000330: 9a4f 093d fcc7 3abe 418e a63e 4756 653e
00000340: 5bcd 42bd ec7b 7abd 10cf 513d ba6d 50be
00000350: 288e 9abe 8604 84bc 7b06 9b3e 6dcb 483d
00000360: 29e7 1bbe dea2 143d f925 e8bd 029a dabc
00000370: 796c a1be 1c35 a3be 8425 643e 4ec2 1c3d
00000380: 405f f5bd be2d d93e db4d 473e 9a38 f23d
00000390: 824d 233e 7da1 36be 3a23 493e 45b3 023e
000003a0: 4be9 3fbc 8563 f3bd da18 3e3e 6d7a bcbd
000003b0: 0377 4dbe 7ada 8d3d 63a7 5bbe 6cb1 953d
000003c0: 57b1 c4be 9b77 113e 18e2 edbd b74c fa3d
000003d0: 2b1c fb3d 0906 10bd 942a 033e b4d9 e63b
000003e0: 3da1 03be c16a 343c 4358 2d3e 62d8 b6bd
000003f0: b417 7bbe 57a2 57bc 978a 0ebf 4b95 09be

tcn.tcn.1.conv2.bias f4 [16]
-0.19684449 0.19459715 -0.04400461 0.0049736686 0.073356986 -0.12448057 -0.087367184 0.076476865
0.31408292 0.11793855 -0.0829659 0.13741998 0.2130818 -0.08414405 -0.13856077 0.21195096
00000000: 9a91 49be 7a44 473e 2e3e 34bd 28fa a23b
00000010: 303c 963d abef febd 91ed b2bd e79f 9c3d
00000020: 7acf a03e c489 f13d 07ea a9bd d3b7 0c3e
00000030: 1e32 5a3e b753 acbd e0e2 0dbe ac09 593e
