checkpoints/fine_tune/var_rf/hainsworth/0.0/model_fallen-blaze-195_finetune_GTZ_GIA/it_7384_loss_3.7741_acc10.53_acc20.67.pt (torch, 437010 bytes, 211 tensors)

conv1.weight f4 [16, 1, 3, 3]
000000 8b 55 a2 3e 63 80 8a bd ae 32 b7 be 30 c2 c6 3e
       0.3170589 -0.06762769 -0.35780853 0.38820028
000010 5d 8c f7 bd 04 e0 c1 be e1 16 87 3e 77 7c 64 3e
       -0.12087319 -0.37866223 0.26384643 0.22313105
000020 d0 87 8f be fe 38 63 3e 3b 12 0c bf d4 78 ef be
       -0.28033304 0.2218971 -0.5471532 -0.46771872
000030 24 f2 92 3e 06 f7 76 be 53 9b 16 3e 1e bc 52 3e
       0.28700364 -0.2411767 0.14707689 0.20579574
000040 fb d7 74 3e 62 83 01 3e 5a e5 47 be f3 b1 f0 3e
       0.23910515 0.12647775 -0.19521084 0.47010764
000050 30 44 8f 3e 57 87 16 be d4 5f d2 3e 59 c3 05 3e
       0.2798171 -0.14700066 0.41088736 0.130628
000060 82 17 27 bf 16 48 c3 3c 13 9d aa be 28 6e 83 be
       -0.65270245 0.023838084 -0.33322963 -0.2566998
000070 c6 96 aa bd 2d 7f bf 3e 88 c1 a9 be e5 12 f1 3d
       -0.08329539 0.37401715 -0.33155465 0.11771182
000080 02 11 58 3e 03 a6 d1 3e b6 12 a9 3d 02 21 02 bf
       0.21100238 0.4094697 0.08255522 -0.50831616
000090 8a 89 8e be ee bf 85 be 52 81 6c be 9e fc 05 be
       -0.2783931 -0.26122993 -0.23096207 -0.13084647
0000a0 9f 50 74 3e d4 d4 a4 3e b7 84 ae bb dd fe 4f bc
       0.2385888 0.32193625 -0.0053258794 -0.0126950415
0000b0 b1 4b 39 be 28 e3 7b bd d4 97 f0 3d ea 65 1d bd
       -0.1809528 -0.06149593 0.11747709 -0.03842727
0000c0 58 0b 53 bf 8a 4e a5 3e 00 3f ff 3e fb d5 80 be
       -0.82439184 0.32286483 0.49852753 -0.25163254
0000d0 78 99 a0 3e 6d c9 fd bc 28 2e b2 3e db 89 5a 3d
       0.31367087 -0.030979836 0.3480084 0.053354125
0000e0 b6 3b 3f bd f0 51 dc bd 5e 30 36 3e 17 73 c5 be
       -0.046687804 -0.10757816 0.17791888 -0.3856437
0000f0 b4 25 ee bd cf 7c f1 3d e9 21 80 be 45 e0 22 3d
       -0.11628285 0.117913835 -0.2502587 0.03976466
000100 68 2f 9c 3d aa f4 ac 3e e4 94 1d bf f6 5a 93 be
       0.076262295 0.33780414 -0.61555314 -0.28780335
000110 78 8f 6b be 51 e3 1b 3e 56 d2 42 bc e8 06 16 3f
       -0.23003948 0.15223433 -0.011890968 0.5860429
000120 ae 5c ee be a0 73 ba 3b dd dd c1 be 73 b3 aa be
       -0.46555084 0.005690053 -0.3786458 -0.33340034
000130 f7 d0 e9 3e 25 1a e4 3e 4a 4c 40 be cf 9f c9 3e
       0.4566724 0.44551197 -0.18779102 0.39379737
000140 e6 0b 06 3e a8 02 2f bf f8 80 a9 3d 98 0b 0a 3f
       0.13090476 -0.6836343 0.08276552 0.5392394
000150 37 98 13 bc 94 17 5c be c5 25 68 3e c0 53 ae be
       -0.009008459 -0.2149337 0.22670658 -0.3404827
000160 61 e3 b1 3c f5 f1 b0 3e c3 da 05 bf b8 5a 1b 3d
       0.021714868 0.345596 -0.5228693 0.037928313
000170 16 c1 b1 3e df 32 5f be 5b a6 36 be 88 0d b5 3e
       0.34717625 -0.2179675 -0.17836897 0.35361886
000180 be 0d 31 3e b4 48 d0 bc a1 9d 7a 3d a6 df 04 3e
       0.17290398 -0.025425293 0.061185483 0.1297594
000190 39 df c8 3e 73 bf 1c be ca 51 59 3e 01 49 ba 3e
       0.39232805 -0.15307407 0.21222606 0.36383823
0001a0 29 a6 38 be 10 d9 9e 3e df ba 36 3d f2 6f fe bd
       -0.18032135 0.3102498 0.044611808 -0.124236956
0001b0 3c 91 36 3e 60 f6 30 3e 8a 2a 38 3d 52 af 6e be
       0.1782884 0.17281485 0.044962443 -0.23309067
0001c0 0a 20 8b be a3 43 00 bf ef 57 a1 3e de 43 be 3e
       -0.2717288 -0.50103205 0.315124 0.37161154
0001d0 35 f6 d1 bd 36 ad 02 3e 1e 02 24 be 17 9e 9a be
       -0.102520384 0.12761387 -0.16016433 -0.30198738
0001e0 9a 7c f1 3e 35 e3 d8 3e 25 14 82 3e 90 2a ac be
       0.47165376 0.42360845 0.25405994 -0.33626223
0001f0 81 fe be 3d 55 86 10 bf ab 34 c9 3e 6e 89 63 3e
       0.093258865 -0.56454974 0.39297995 0.22220394
000200 a7 f4 aa bd 46 8b e0 3e 24 01 89 be 76 b9 59 3c
       -0.08347445 0.43856257 -0.26758683 0.013288846
000210 4b 98 1e 3e a7 9c bd be 4e ca 02 bf ba 8b 83 be
       0.15487783 -0.3703358 -0.5108994 -0.2569254
000220 11 53 c7 bd 7d 14 9a 3e 5d c1 1f be 03 d8 9a 3d
       -0.097326405 0.30093756 -0.15601106 0.07560732
000230 5a f9 e3 3e 1a f4 17 bf 8c 9c 84 be 89 a9 12 3f
       0.44526178 -0.59356844 -0.25900686 0.5728994

conv1.bias f4 [16]
000000 a5 1d a7 bd 27 25 51 bd 58 26 05 be 2c cb 43 bd
       -0.08159951 -0.05106082 -0.13002908 -0.04780118
000010 d7 f9 4f be 31 d4 03 be a3 36 20 3d 11 1a 89 bd
       -0.2031015 -0.12873913 0.039114606 -0.06694425
000020 af fe 65 bd 7e 45 90 3c cc 8f 32 bd 1f 04 4c be
       -0.05615109 0.017611261 -0.043594167 -0.19923447
000030 db e8 5e bc 5a 84 eb bd b4 a5 f7 bd 4d d7 bb bd
       -0.013605322 -0.114998534 -0.12092152 -0.09171925

conv2.weight f4 [16, 16, 3, 3]
000000 9f 45 c3 bd fa a7 5a 3d b5 45 37 3d 7f 7b 9b bd
       -0.095347635 0.05338285 0.044744212 -0.075919144
000010 f3 32 92 bd 71 9c 00 bd de 67 98 bc 10 cf 1e 3e
       -0.07138624 -0.031399194 -0.018604215 0.15508676
000020 66 ad a1 3c 56 f4 24 bd 3a aa 49 be 22 9b 62 be
       0.019736003 -0.04027208 -0.19693843 -0.22129491
000030 2d 51 59 be 1f 1b d4 3b d5 bb aa bd c1 49 e3 bd
       -0.21222372 0.0064729596 -0.08336607 -0.11098052
000040 9f e0 bc 3d b0 1c 13 be 40 ca d9 3d 6e 04 67 be
       0.092225306 -0.14366412 0.10634279 -0.22560284
000050 b5 bd 2e bc 8b 68 8d 3e 80 c8 95 be 58 63 05 be
       -0.010665347 0.27618822 -0.29254532 -0.13026178
000060 ff c4 ac 3e 7e 63 60 be f0 c1 03 be 01 4a 95 bd
       0.33744046 -0.21912953 -0.1286695 -0.07289506
000070 bc 04 6c 3e 7e 97 ea 3e 25 38 11 be 1d 40 a5 3d
       0.23048681 0.45818704 -0.14181574 0.08068869
000080 e3 b2 91 3e ff cb bb 3e c1 dc db 3e 42 86 e9 3e
       0.28456792 0.36679074 0.4294186 0.45610243
000090 4c 7f f7 bc ce 89 38 bd 0c e3 63 be c5 6b bb bd
       -0.030212067 -0.045053296 -0.2225458 -0.09151415
0000a0 7c 8e 3f be 50 6b 97 be 24 6b b7 bc 99 48 37 be
       -0.18706697 -0.2957406 -0.022389956 -0.17898788
0000b0 ca 90 16 be b7 8b 00 3f 88 10 ca 3d 1a a9 10 3f
       -0.1470367 0.5021319 0.09866434 0.5650803
0000c0 46 43 6b 3e 2d d8 7f be 79 d1 fa ba db 4b c0 3e
       0.22974882 -0.24984808 -0.0019135914 0.37557873
0000d0 0d 47 1f be b9 b3 37 3e fc f5 4b 3d 6e 8a 11 be
       -0.15554447 0.17939653 0.049795136 -0.14212963
0000e0 49 99 31 be 37 70 71 bd c8 ea fb bd 8d 85 67 be
       -0.1734363 -0.058944907 -0.1230064 -0.2260954
0000f0 9d 30 9e bc be 38 80 bd 76 83 52 bd 4d 91 6d 3e
       -0.01931029 -0.06260823 -0.051394902 0.23199959
000100 75 8b 91 3d 29 8e 72 be 3a 9e 05 3e 79 c7 3f be
       0.071066774 -0.23687042 0.1304864 -0.18728437
000110 51 28 12 bf 68 78 b7 bd f5 68 06 be fd 4a b7 be
       -0.5709277 -0.089585125 -0.13125975 -0.357994
000120 22 21 5a 3e 65 b5 08 be 88 65 98 37 8a 94 81 3e
       0.21301702 -0.13350447 1.8167091e-05 0.2530864
000130 96 54 49 be fb ad fd bd d3 af aa 3d fc 2b 62 be
       -0.19661173 -0.123867 0.08334317 -0.22087091
000140 3d 99 7f be dc a6 d6 3c 60 08 77 3e 09 56 8e 3e
       -0.249608 0.026202612 0.24124289 0.27800015
000150 9e 05 5e 3e d7 18 96 3e 99 78 92 3e 36 74 8e 3e
       0.2168183 0.29315826 0.28607634 0.27823037
000160 5a 18 e7 3d 0a be 89 3e 8e ec 8b 3d 17 f6 65 3d
       0.112839416 0.269028 0.068322286 0.056142893
000170 6a e3 fb 3d 93 6b ba bc d8 4e 58 be b0 20 9d bd
       0.12299235 -0.022756374 -0.21123827 -0.0767225
000180 75 ae dc 3b fe 35 45 be 35 4f 7e bd 8f c4 c4 bd
       0.006734664 -0.19258878 -0.062087256 -0.09607803
000190 df 5a 29 be e4 03 2c be 88 ff 06 be dc 21 60 be
       -0.16538571 -0.16798359 -0.13183415 -0.21887916
0001a0 8d bc 94 be cd a9 8c bd 4a 9e 0c bd bb b3 4c be
       -0.29050103 -0.068683244 -0.034330644 -0.19990437
0001b0 d1 5f 7c bd ff 88 a5 bd da 47 4d be 46 4b 3e bd
       -0.061614815 -0.080827706 -0.2004694 -0.046458505
0001c0 4d ce f0 bd 69 8d 3c be 2a e1 a5 3c 36 2a ca 3d
       -0.11758099 -0.18413319 0.020248968 0.09871332
0001d0 e4 9f 50 bd 61 6d a9 3c 07 07 44 be 7b 03 71 be
       -0.050933734 0.020682039 -0.19143306 -0.23536484
0001e0 d1 c2 a7 3c 49 22 14 be 02 64 50 be c5 90 11 be
       0.020478638 -0.14466204 -0.2035065 -0.14215381
0001f0 6a 4f 36 be cb 6b fd be d1 fc 0a be 43 19 4b bd
       -0.17803732 -0.49496302 -0.13573004 -0.04958464
000200 42 9b 6b 3d 1f b4 86 be 34 72 19 3d 34 80 18 3e
       0.057521112 -0.26309296 0.03746243 0.14892656
000210 8e fa a1 bd 5f 6e 4c 3e 61 e4 48 3d 60 69 c1 3d
       -0.07909118 0.19963978 0.049045924 0.09443927
000220 15 ae 01 3d 87 c7 0a 3e 88 b2 0f bc af 41 6d bc
       0.03166016 0.13552676 -0.0087705925 -0.014480992
000230 9c 61 aa 3c 54 22 fe 3d d5 7e 95 bd d7 66 ef 3c
       0.020798497 0.12408891 -0.07299582 0.029223843
000240 76 6c 9a 3d eb ff 50 3d 5e 47 82 3e 5d 14 1e bd
       0.075402185 0.051025312 0.25445074 -0.03859364
000250 f4 8f 25 3e cd 18 5b 3e ee b1 a4 bd 27 00 b0 3d
       0.16168195 0.2139618 -0.0804175 0.08593779
000260 5f 23 04 3e 95 db 20 3e f1 7a 55 be ff 9d 82 3e
       0.12904118 0.15708764 -0.2084768 0.25511166
000270 35 bc e8 bd e2 fa 76 be 54 05 5e 3d ec e9 c2 ba
       -0.11364023 -0.24119142 0.0542043 -0.001487074
000280 d1 79 aa be aa 4f b1 bd 27 49 82 3d f9 80 61 3f
       -0.33296064 -0.08657773 0.06361609 0.8808742
000290 de 17 8b 3e fc 8a 29 bf 1b f6 2b 3d 67 24 5d be
       0.27166647 -0.662277 0.04198275 -0.21595918
0002a0 43 20 3b bf f1 af 7d 3d 55 80 96 be 51 26 af be
       -0.730961 0.06193537 -0.29394785 -0.3420892
0002b0 3b e4 5a be f8 cd 5b 3c c3 4e cf 3c e7 1c 37 3e
       -0.21376126 0.013415806 0.025306111 0.17882119
0002c0 f8 f7 8b 3e ed 03 98 3d 98 e3 5c 3e ac 24 53 3e
       0.27337623 0.07422624 0.21571195 0.20619458
0002d0 dd be 2a 3e 46 d5 4e 3e 6d 5b 3a 3e 1b c6 d5 3c
       0.16674371 0.20198545 0.18198939 0.02609544
0002e0 36 08 b2 3d 80 fd 21 bd 4f b0 3e ba 0b 97 5d 3d
       0.08692972 -0.039548397 -0.0007274197 0.054099124
0002f0 93 7c 30 bd 8f b8 9a be 1f 5a 9e 3e 8c ee a5 3c
       -0.043087553 -0.30218932 0.30928132 0.02025535
000300 aa d1 a2 be d4 40 26 3e 4f af 05 bd 42 69 cc be
       -0.31800586 0.16235667 -0.03263789 -0.39924055
000310 60 21 a2 3e ee a0 4a 3d ab 3c 73 bd 91 ea 05 3e
       0.31666088 0.04946988 -0.05938403 0.13077761
000320 67 d4 aa bd ef 80 80 bd 47 4f 9b bc f4 14 a5 bc
       -0.08341294 -0.06274592 -0.0189587 -0.020151593
000330 25 08 b6 bd 04 67 a1 3c 45 ac a6 3b 2d 6d a7 3e
       -0.08888272 0.019702442 0.005086454 0.32700482
000340 19 2d c6 3d 47 b8 bd bd 25 30 34 be 6d a3 3f be
       0.096765704 -0.09263664 -0.1759649 -0.18714686
000350 0a 53 75 be 07 3a 54 be 71 54 54 be a2 88 f4 be
       -0.23957458 -0.2072526 -0.20735337 -0.47760493
000360 27 b9 ef be e0 d7 28 3e 78 24 57 be fb a8 cb be
       -0.46820948 0.164886 -0.21010005 -0.3977736
000370 90 35 dc 3d 86 c7 fd bd 42 9a 0d bf ed 5c 8c 3e
       0.10752404 -0.12391572 -0.55313504 0.27414647
000380 a9 ba ef 3d a7 d4 86 bc 5f 18 bd bd 6b b2 6c bd
       0.117055245 -0.016458822 -0.09233164 -0.05778734
000390 ef dc fe bc 23 0c 92 bd 14 45 ae 3d 1f 1f d8 bd
       -0.031111209 -0.07131221 0.08509269 -0.10552811
0003a0 94 ca c4 3d 07 20 9e 3d 49 39 58 3e f1 81 09 be
       0.09608951 0.077209525 0.21115603 -0.13428475
0003b0 1c 25 10 3d 2c d6 ea bc 80 90 e7 3b 49 31 59 bd
       0.03519164 -0.028666578 0.0070667863 -0.053025518
0003c0 9b d1 43 bc 20 46 02 be 13 38 7f 3d bb 71 4e be
       -0.011951829 -0.12722063 0.062309336 -0.20160572
0003d0 89 e7 04 3c ac bd 8e 3e a0 f5 10 be 68 17 df bd
       0.008111843 0.27879083 -0.14156199 -0.10893136
0003e0 cf 08 a7 3d d8 25 ed bd 54 39 62 b8 23 3a 16 3e
       0.08155977 -0.11579484 -5.393599e-05 0.14670615
0003f0 d8 2f 48 3d f1 1e 76 bd a4 fd a0 bd 5c 91 6b be
       0.048873752 -0.0600881 -0.07860878 -0.23004669

conv2.bias f4 [16]
000000 6e 9f 60 bd ca 5c 39 be c1 1a 4e bd 6f 8e 52 bd
       -0.054839544 -0.18101802 -0.050318483 -0.051405367
000010 61 5f 5d be ed 06 87 be ab 78 65 be 93 3a c7 bd
       -0.21618415 -0.2637247 -0.22409312 -0.09727969
000020 43 c3 60 be 02 06 a1 be 1e b9 b4 bd 99 30 3e bd
       -0.21949486 -0.31449896 -0.08824371 -0.046433065
000030 95 96 1b bd dc 77 d7 bd 27 70 d6 bc a0 b2 08 be
       -0.037985403 -0.10520908 -0.026176525 -0.1334939

conv3.weight f4 [16, 16, 8, 1]
000000 a2 62 0b be 18 9e c5 bd f5 a8 4f bd 1c 66 7a bd
       -0.13611844 -0.096492946 -0.05069824 -0.061132535
000010 4e a3 7e be a5 af c9 be d9 37 76 be 4b 2f 34 3e
       -0.24866983 -0.3939182 -0.24044742 0.17596166
000020 43 92 9d 3e 1b 04 3e 3e e7 c5 62 3e 27 1e d8 3d
       0.3077565 0.18556254 0.22145806 0.10552626
000030 b2 4b 7a 3e 05 bb ad 3e 91 0c b4 bd 04 b4 f3 be
       0.24442938 0.33931747 -0.08791459 -0.4759828
000040 a1 92 2a 3e 5f 33 91 3e 1b 39 97 3e 1f aa 9d 3e
       0.16657497 0.28359506 0.29535756 0.30793855
000050 30 28 19 3e 48 a9 a9 3d e2 a2 72 be f6 95 6e be
       0.14956737 0.08284241 -0.23694947 -0.23299393
000060 bc a1 90 be cd 58 97 bd 7b 73 39 be 8f 7d d0 be
       -0.28248394 -0.07389984 -0.18110459 -0.40720794
000070 68 ab 8c bc 13 16 81 be aa f8 f6 bc 96 48 8b 3d
       -0.017171577 -0.25212154 -0.03014787 0.06800954
000080 f7 3a 81 bd 36 c0 8b bd d5 38 26 bc d6 ec 4d bc
       -0.06310075 -0.06823771 -0.010145386 -0.012568673
000090 95 b5 0e 3d 9c 03 93 3d 27 ac 55 bc c4 bb 22 3d
       0.03484114 0.07178423 -0.013041533 0.03972985
0000a0 18 f1 9e bc dc 76 86 3e c4 b5 7e 3d 1e 20 15 3e
       -0.019402072 0.26262558 0.062185064 0.14563033
0000b0 3b db 80 3d 64 a4 98 bd f6 bd 10 bf 06 88 20 3d
       0.06291815 -0.0745323 -0.5653986 0.039192222
0000c0 97 7a bd bd db f2 34 3e 33 a8 8c 3d e7 81 50 bc
       -0.09251898 0.17670767 0.06868019 -0.012726284
0000d0 d7 03 34 3d ac 4e be 3d ba fd b1 3c fd 3d 9c 3d
       0.043948974 0.09292349 0.021727432 0.07629011
0000e0 bb e5 64 3e 43 1f 18 bd 48 fc 02 3e 5b c7 98 bc
       0.2235326 -0.03713919 0.1279155 -0.018649748
0000f0 e4 b1 51 3c 21 4b 63 be d0 71 36 3e ba fd 12 be
       0.01279876 -0.22196628 0.17816854 -0.14354602
000100 f8 7d 89 3d f2 a4 96 3c e1 e4 80 3d 40 2c 98 3d
       0.0671348 0.018389199 0.06293655 0.07430315
000110 58 4f d2 bb d7 ea 1a bc 68 82 30 3f 4a 5c e6 3b
       -0.00641815 -0.009455404 0.68948984 0.0070300447
000120 4b c7 12 be 49 77 df be 84 01 a6 bd b7 88 9c bd
       -0.14333837 -0.43645695 -0.08105758 -0.07643264
000130 d3 e4 bd 3d a0 25 73 3d 19 75 a7 be 89 a7 42 3e
       0.092721604 0.059362054 -0.32706526 0.19009222
000140 68 d0 08 be e1 b6 ef bd e8 3d 50 be 9c 63 77 be
       -0.1336075 -0.11704803 -0.20336115 -0.24159092
000150 b3 18 64 be 8c 5f 2f be 68 b6 4b 3e 14 a6 74 3d
       -0.22275047 -0.17126292 0.19893801 0.059728697
000160 1d d7 80 be 1a e3 58 be 91 f8 32 3e a3 9c 5a 3e
       -0.25164118 -0.21180382 0.17477633 0.21348815
000170 5d e8 9d 3e c8 d1 bd bd 7a ef 2b bf fb e8 8e 3e
       0.30841342 -0.09268528 -0.6716229 0.27912125
000180 92 c1 23 be 15 e5 8f be d7 b5 92 be 1e de 40 be
       -0.1599181 -0.28104463 -0.28654358 -0.18834731
000190 d8 dc 4a be b1 71 ba be 59 65 fd bd 47 ac 3f 3e
       -0.19810808 -0.36414865 -0.12372846 0.18718062
0001a0 17 88 ee bd ab 18 e4 3d 61 72 40 3e 9b a4 8e 3d
       -0.11647051 0.111375175 0.18793632 0.0696499
0001b0 f1 44 89 3c 32 64 e1 3d b3 d5 d2 3e 90 79 24 be
       0.016756507 0.11005439 0.41178665 -0.16061997
0001c0 69 3c b5 3d d7 ef 56 3e 49 5e b7 3d c8 e1 36 3d
       0.08849413 0.20989929 0.0895353 0.044648916
0001d0 bd ed fe bc 5d 46 e2 3c 1c 0f 53 bd 82 42 9b 3e
       -0.031119222 0.027621442 -0.05152808 0.3032418
0001e0 fb 43 ef be a7 7a 4d be 17 bf 51 bd 70 82 5b bd
       -0.46731552 -0.2006632 -0.051207628 -0.05359119
0001f0 13 c8 a2 bd 35 cc 37 bd ff 71 a8 3d 29 48 7e 3e
       -0.079483174 -0.04487248 0.08224868 0.24832214
000200 20 bf 57 be ae 28 7d bd a0 49 53 bd 11 4c 1c 3d
       -0.21069002 -0.061806373 -0.051583886 0.03815848
000210 e4 5f 5c bd 98 36 4a bd 4a 7a 97 3e 0f a0 b2 3c
       -0.053802386 -0.04936847 0.29585487 0.021804838
000220 fa 09 a4 3d 3c 1f 80 3e 1b 53 93 3e f8 5c 42 3e
       0.080097154 0.2502383 0.28774342 0.18980777
000230 07 02 72 3e 47 e3 91 3e b3 52 c1 be 61 13 40 3d
       0.23633586 0.2849371 -0.37758407 0.04689348
000240 66 82 da bd 90 08 85 bd 37 49 18 3d e1 2f 71 3d
       -0.10669403 -0.06495774 0.037179198 0.05888355
000250 ae 6a 0a be a9 a7 a6 3c b0 9c 9b be ae 53 da bd
       -0.13517258 0.020343618 -0.3039298 -0.10660492
000260 4e 85 86 3d 24 e0 55 3d dd 30 09 be 42 7f 90 be
       0.065683946 0.05221571 -0.13397546 -0.2822209
000270 2b 51 46 be a5 49 bf be b0 e1 4b be 67 7c 07 bf
       -0.193669 -0.37360874 -0.19910312 -0.529242
000280 34 e2 10 be e4 0b d4 3d ab 65 2e 3d 5d 2b 81 3d
       -0.1414879 0.103538305 0.042577427 0.06307099
000290 2c d4 18 bd 22 b9 47 3e 6d 38 7f be 81 c0 02 3d
       -0.037311718 0.19504216 -0.24923868 0.031921867
0002a0 61 27 8e be 13 d1 90 bd 58 9e 26 bd 57 0a d3 bd
       -0.2776442 -0.07071128 -0.040678352 -0.103047065
0002b0 a7 2d 0e 3d 15 4b 1a bd ca 33 f6 be 44 28 d4 3d
       0.034711506 -0.03766926 -0.48086387 0.103592426
0002c0 7b 14 81 bd fa 15 67 bc f3 52 d1 3a 81 53 b7 3d
       -0.063027345 -0.014104361 0.0015970155 0.08951474
0002d0 16 20 44 3e ab 2f f9 3d fa f2 88 3e d4 dd a9 3d
       0.19152865 0.12167295 0.26747876 0.082942635
0002e0 b9 d9 c0 3d 30 9a 40 3d 1e 27 d4 3d 31 be 2c 3e
       0.09416527 0.047022045 0.103590235 0.16869427
0002f0 61 8c 02 3d 4c d7 74 3d 62 5f 0e bd c1 9b c6 3d
       0.031872157 0.059775636 -0.034758933 0.096976765
000300 54 42 a8 be cf 82 97 3c 97 ae 9b 3d c7 f0 4c 3d
       -0.32863104 0.018494992 0.0760166 0.05003431
000310 87 94 22 bd 8d ec 29 bd d6 91 0e 3f 0f 22 bb bd
       -0.039692428 -0.041485358 0.5569128 -0.091373555
000320 18 09 87 3d f9 5a c4 3d 01 9c e1 3c 9c 41 5c bd
       0.06593531 0.09587664 0.027540209 -0.053773507
000330 44 35 a4 3d ea 36 46 3e 3a d3 30 be 43 6a 8f 3e
       0.08017972 0.19356886 -0.17268077 0.2801076
000340 1a a0 d7 bd 99 ca a2 bd 1b ee 8f bd f2 53 1f 3c
       -0.10528584 -0.07948799 -0.07027837 0.009724604
000350 ef be c7 bc 63 cb 3f be 32 00 18 3f b2 74 cf be
       -0.024383036 -0.1872993 0.593753 -0.4051872
000360 dd c2 92 3e 8e 14 a5 3d e1 f9 f0 3d a2 ce 09 3e
       0.28664294 0.08060561 0.117664106 0.1345773
000370 d8 0f a5 3d aa e8 3f 3d 20 fd ca bd 39 6b 2c 3d
       0.080596626 0.046852745 -0.09911561 0.042094443
000380 1f 43 9b be e6 03 9d be 03 bf 20 bc f3 72 a4 bd
       -0.30324647 -0.30667037 -0.009811166 -0.08029737
000390 b5 6f d8 bd a0 1c 83 bc ec de 0e be 6e 22 e7 3d
       -0.105681814 -0.01600486 -0.13952225 0.11285864
0003a0 91 d0 26 be 94 4c ff 3c 27 94 1b 3e d3 4a 8b 3d
       -0.162905 0.031164445 0.15193234 0.06801381
0003b0 bf b7 65 3e 31 af e3 bd af 6e 31 3e b4 55 ac bd
       0.22433375 -0.111173995 0.17327379 -0.08414784
0003c0 a9 e0 25 be ce e7 43 be f6 0b 9a bd da 25 a4 3c
       -0.16198982 -0.19131395 -0.075218126 0.02003758
0003d0 22 1b 89 bc b0 5e 9e bd 48 3d 44 bd f3 3a 59 3e
       -0.01673657 -0.07732904 -0.047910005 0.21213894
0003e0 29 bd 94 3d c5 1a d6 bd d2 1e 58 bc 44 9a c4 bb
       0.07262642 -0.10454325 -0.013190942 -0.005999835
0003f0 d3 13 66 bd 81 c5 41 3e e0 90 51 3e 13 4c b1 3e
       -0.05617125 0.18922998 0.20465422 0.34628353

conv3.bias f4 [16]
000000 ef 25 27 be b7 86 5f be 9d 05 72 bc e9 6f f5 3b
       -0.16323064 -0.21828733 -0.014771846 0.0074901474
000010 c0 1a 06 be 8c 2c 7b 3e e3 80 1e 3e d2 f4 86 bc
       -0.13096142 0.24528712 0.15478854 -0.016474161
000020 6c 9e 7a be ab ca 72 be 09 5b 55 3e 59 3d cb 3e
       -0.24474496 -0.23710124 0.20835508 0.39695242
000030 0c fd 36 be 51 86 05 be 5a 98 64 3e 06 93 1e be
       -0.17869967 -0.13039519 0.22323743 -0.15485772

tcn.tcn.0.conv1.weight f4 [16, 16, 5]
000000 1a 31 85 3c 2d 6b 9d 3d ae a9 b2 3d 96 f1 c7 3d
       0.016258765 0.07686458 0.0872377 0.09762876
000010 e3 6d af 3c 4a 44 97 3e 5f 56 31 3e 0c bd 36 3e
       0.021414703 0.29544288 0.17318104 0.17845553
000020 f7 9c 95 3d de c2 85 be 62 48 6f bd 10 a8 37 bc
       0.07305329 -0.26125234 -0.05841864 -0.011209503
000030 d0 e8 50 3e 2b 78 ba bd 28 b1 91 bc 93 9d 73 3e
       0.20401311 -0.091049515 -0.01778467 0.23790579
000040 78 22 5c 3e 20 28 60 3e b4 49 45 3e f2 af 9f 3e
       0.21497524 0.21890306 0.19266397 0.31188923
000050 46 fe 84 3e 46 41 83 3d 60 c9 95 3e 24 9e 4b 3e
       0.25975245 0.06408934 0.292552 0.19884545
000060 f5 a6 d8 bc c2 84 05 be 06 74 a8 3c e1 14 84 3d
       -0.026446799 -0.13038924 0.020563137 0.06449295
000070 bb 6d cf bd 3f 39 4f 3e 25 42 ee 3c 96 f8 7a bd
       -0.10128351 0.20236681 0.029084275 -0.061272226
000080 12 eb 8c be 75 0f 78 be 54 45 03 3e 45 12 0b be
       -0.27523094 -0.24224646 0.12819415 -0.13581188
000090 41 f1 f2 bd cc 41 13 be 97 95 34 bd 7a 80 2e be
       -0.11862422 -0.14380568 -0.044087972 -0.17041197
0000a0 20 6d b0 3d d7 b6 54 3d 2a c4 96 bd 22 78 a0 be
       0.08614564 0.051932182 -0.07361634 -0.31341654
0000b0 0f 55 ec be 64 bf 57 be b0 8a f8 bd a6 c1 47 be
       -0.46158645 -0.21069103 -0.121358275 -0.19507465
0000c0 a8 1c d2 be e4 1c 0d be e5 15 c9 be 03 72 81 be
       -0.41037488 -0.13780552 -0.39274517 -0.25282297
0000d0 45 29 bd be f3 49 13 bf eb c6 91 be 85 04 7f bd
       -0.3694555 -0.5753471 -0.28472075 -0.06226017
0000e0 72 0f c2 be 75 e5 d3 be 78 27 93 be bf 8c 1c be
       -0.3790241 -0.41386 -0.2874105 -0.15288065
0000f0 38 ad f4 3d 32 9a 1b 3c fe a2 45 3e 8c c3 29 be
       0.11947101 0.009497212 0.19300458 -0.16578501
000100 55 05 78 be c0 5c 77 be 5e 64 b3 3b 58 c7 82 bd
       -0.24220784 -0.24156475 0.005474611 -0.06385678
000110 c1 c6 aa 3d a1 12 90 3e 11 ce 1b be 8e bf d4 3c
       0.083386905 0.28139213 -0.15215327 0.025970247
000120 b5 c0 8a bd 0b 82 fa bd 75 f1 34 bc 51 72 64 3d
       -0.06775037 -0.12231835 -0.011043896 0.055773083
000130 60 43 08 be 18 52 40 bc 3c 95 23 be 6f 23 31 be
       -0.13306952 -0.011738323 -0.15974897 -0.17298673
000140 5d aa 8d 3e da fd a6 3e c6 f9 e4 3c fc 2e 2d 3e
       0.2766904 0.32615548 0.027951133 0.16912454
000150 69 f0 b1 3d 4d a2 22 3e 15 41 a3 3e e6 51 0f bd
       0.08688433 0.15882225 0.3188559 -0.034990214
000160 04 10 63 3e eb ad 9a 3e 54 c2 27 3d 8a 52 b8 3e
       0.22174078 0.30210814 0.04095681 0.36000472
000170 27 f8 7e 3e 9f c8 74 3e 00 1a b0 3e d2 ae 88 bd
       0.2489935 0.23904656 0.34394836 -0.06673969
000180 a7 87 99 bd 9b 24 aa be bb ab 75 3d c1 d4 93 bb
       -0.07496577 -0.33231053 0.059978228 -0.004511446
000190 a7 2d 93 be 95 44 59 be 15 e9 40 3b c4 ae 63 3d
       -0.28745767 -0.21217568 0.0029435803 0.05558659
0001a0 2b 14 17 3e cd 9f 23 3e a4 67 fe 3d 1c 9b 85 3d
       0.14753787 0.15978928 0.12422112 0.065237254
0001b0 f9 6e 8f 3d 69 38 5c bb 9b bd 94 be 5a 00 75 be
       0.07003588 -0.003360296 -0.29050907 -0.23925915
0001c0 9b f4 9f bd d8 e2 84 3d 28 60 95 39 25 ba 48 3b
       -0.07810327 0.064885795 0.00028491137 0.003062853
0001d0 26 af 3e 3d b4 bf d4 3d 6d ac da 3e 76 89 a4 3e
       0.046553753 0.10388127 0.42709675 0.32136124
0001e0 cb 81 8a 3d 7a 19 23 3e f5 cf 8e bd 90 9b 60 3d
       0.06763037 0.15927687 -0.069732584 0.054835856
0001f0 35 f0 3d be c4 8d 85 3d a1 dd af bc 35 92 26 bd
       -0.18548663 0.0652118 -0.021467986 -0.040666778
000200 35 21 13 be 1c 8e 96 bd 7f a1 40 bc ac e0 ef bc
       -0.14368136 -0.07351324 -0.011757254 -0.029281937
000210 23 76 24 3b 83 0d 0c 3e dd a5 3f 3e 26 8f 18 bd
       0.002509483 0.1367703 0.18715616 -0.037245892
000220 3f 34 42 3e b0 c1 01 3e c5 c8 c0 3d 16 b6 ce 3d
       0.18965243 0.12671542 0.09413294 0.10093324
000230 c2 07 88 be 72 12 44 be 1e eb 6b 3b 12 eb b0 bb
       -0.2656842 -0.19147661 0.0035998295 -0.0053991163
000240 43 34 37 3e f2 63 9c ba 49 d4 93 3d fb f4 26 3d
       0.1789103 -0.0011931641 0.072182246 0.040760975
000250 ce 98 96 3e 90 8e 5d 3e 45 ce a3 3d 54 e2 09 be
       0.29413456 0.21636415 0.07998327 -0.13465244
000260 37 32 b5 3c 9c 74 8c bd 35 da e7 bd df ef 50 3e
       0.02211867 -0.06858179 -0.113209166 0.20404004
000270 f1 b3 1d 3e 58 27 0a be 62 75 25 be 3a 55 13 3e
       0.15400673 -0.13491571 -0.16158059 0.1438798
000280 9a 7e d3 3c 91 ca 38 3e b8 f3 24 bb df 7a d8 bc
       0.025817204 0.18046023 -0.0025169682 -0.026425777
000290 c6 c8 3f be c7 ec 99 3e 5a 50 ee 3d 34 68 f6 3d
       -0.18728933 0.3006346 0.116364196 0.12031594
0002a0 d0 4c f3 bb ae d5 94 bc c9 fa ec 3d 6c bb 47 3c
       -0.0074249282 -0.018168297 0.11571271 0.012190681
0002b0 3a ea 0e be 94 e1 cf 3d 6d 64 e4 bd 61 39 95 3c
       -0.13956538 0.101504475 -0.11151967 0.018215837
0002c0 2e 13 a6 3d 60 25 75 bd 3c 83 88 bd a8 9a a2 ba
       0.08109127 -0.059850097 -0.06665656 -0.001240571
0002d0 9e a5 1e bb 3c 07 19 be 9f f1 d3 bd 3b dd 0a ba
       -0.0024207602 -0.14944166 -0.1034882 -0.0005297248
0002e0 da 9e 1e bd df eb 0a 3e d4 dc 78 3e cc 3a e1 3c
       -0.03872571 0.1356654 0.24302989 0.027493857
0002f0 62 86 ef bc 88 4a e7 bc 21 64 5e bc 09 09 78 bd
       -0.029238883 -0.028233781 -0.013573677 -0.06055549
000300 71 e2 b2 bd e5 81 02 3c 1d 3f 01 3e f4 5f 3f be
       -0.087345965 0.00796554 0.12621732 -0.18688947
000310 ad e6 64 be 61 22 54 3d 02 59 65 3e e3 87 0c bd
       -0.22353621 0.0517906 0.22397235 -0.03430928
000320 4e f0 0c 3e 72 f8 9a bd db 27 79 bd 8c 96 18 3c
       0.13763544 -0.075669184 -0.060829025 0.009313237
000330 eb 21 e5 3c 10 00 08 be 92 de 29 be c1 de e8 3d
       0.027970275 -0.13281274 -0.1658881 0.11370612
000340 6c 76 9c 3e ca 82 ab bc 04 cb 80 bc 9c 22 f3 bd
       0.305591 -0.020936389 -0.015721805 -0.118718356
000350 d5 24 bd bd 23 ab 4b bc 93 00 29 be 4e 52 0b be
       -0.09235541 -0.012430939 -0.16504125 -0.13605615
000360 f7 ce c7 bb 1a 47 32 3e bf 8b 64 3e 48 d4 2b bd
       -0.00609767 0.17409936 0.22318934 -0.041950494
000370 ec 17 62 3d bd 84 0b be 34 a9 6f 3c a0 ce d3 3d
       0.055198595 -0.13624854 0.0146277435 0.10342145
000380 46 da ea bd 6c 3f 99 be 6c 46 48 be fa b6 46 be
       -0.114674136 -0.299312 -0.19558114 -0.19405738
000390 f2 82 3f be ad 9d d8 be 40 04 cf be 83 b0 80 be
       -0.18702295 -0.42307797 -0.4043293 -0.25134668
0003a0 92 35 9b bd f5 47 d9 bc 2e 90 84 bd b1 ca a9 bc
       -0.07578577 -0.02652357 -0.064728126 -0.020726534
0003b0 b0 8e 24 be e9 66 ac 3d 71 bb 0b be f1 99 cd be
       -0.16070056 0.08418066 -0.13645722 -0.4015651
0003c0 dd 9a e6 bc 06 53 2a 3e d6 09 75 3e 5f 89 c6 3e
       -0.028150016 0.16633233 0.23929533 0.3877668
0003d0 9c c1 92 3e c6 f0 bd bc e7 f7 46 3e 4c 02 02 3e
       0.28663337 -0.023186099 0.19430505 0.12696189
0003e0 f8 4c 6b 3d 78 5c aa bd 4e e2 b9 3d 63 a4 f4 3e
       0.05744645 -0.08318418 0.09076367 0.47781667
0003f0 e5 89 f6 3e 1e 97 4a 3e ca e5 b5 3e b4 77 06 3e
       0.4815208 0.19784209 0.35526878 0.131316

tcn.tcn.0.conv1.bias f4 [16]
000000 df a1 79 be 94 a5 8e bd ad 44 87 3d 59 1c 08 3e
       -0.24378155 -0.06965175 0.06604896 0.13292064
000010 5c ce 51 be 9a 90 54 3d 72 64 82 bd cb ea 5d be
       -0.20488876 0.051895715 -0.06366815 -0.21671598
000020 44 ec d8 bd d0 2f 9e 3c 82 32 e7 bb 35 05 0b be
       -0.10591939 0.019309908 -0.0070555815 -0.13576205
000030 c9 4d 83 3e 92 af 9b bc c6 5e dc bd 8d d0 ed bd
       0.25645283 -0.019004617 -0.10760264 -0.116120435

tcn.tcn.0.conv2.weight f4 [16, 16, 1]
000000 d3 c7 12 3e 42 1d 78 bd 90 75 82 3e 0e 44 08 3e
       0.1433404 -0.060574777 0.25480318 0.13307211
000010 77 bd 28 3e 77 cc 08 be 24 a0 44 3e b3 ea 4b 3e
       0.16478525 -0.13359247 0.19201714 0.1991375
000020 5f 96 9b 3c 82 03 5c be be 49 56 be 99 5d df bd
       0.018992601 -0.21485713 -0.20926568 -0.10906524
000030 9e 20 cb 3e ae c4 60 bd f6 64 16 be ab 8f f7 3e
       0.39673322 -0.05487507 -0.14686951 0.48351797
000040 44 7f ae 3d c7 8d 96 3e 86 92 31 3d aa 43 2b 3e
       0.08520368 0.29405043 0.043352626 0.1672503
000050 56 e5 bc bb 34 a9 0f 3e 08 62 2b 3e 04 54 c6 bc
       -0.0057646437 0.1402939 0.16736615 -0.024209984
000060 ef 40 bb bd 5d 17 08 bd d5 75 a2 bd d4 48 04 bd
       -0.091432445 -0.033225406 -0.07932631 -0.032296017
000070 9b b4 e0 bc 1f 30 74 3c 2f 79 06 be 59 e2 77 3e
       -0.02742987 0.014904051 -0.13132165 0.24207439
000080 27 62 34 3d 9e e0 dd 3d 58 9c b4 bd 96 03 fa 3d
       0.044038918 0.10833858 -0.08818883 0.12207715
000090 25 99 11 bc 83 6b 85 bd e7 dd 81 bc b3 44 db 3d
       -0.00888661 -0.06514647 -0.015852882 0.10706463
0000a0 ec 93 90 3d 28 f7 bf 3e 39 e0 3c 3e 7f 4a 8a 3d
       0.07059464 0.37493253 0.18444909 0.0675249
0000b0 8a d8 7a be 20 34 90 3e 97 16 10 bd 4c 4f d2 3a
       -0.24496666 0.28164768 -0.035177793 0.0016045361
0000c0 e6 13 36 3e 1f 4b 36 3e 5f b5 87 3c 51 8a 9e 3d
       0.17781028 0.17802094 0.016565977 0.077412255
0000d0 fd 27 6a bd 2d 07 8f 3e 89 5c 79 3e f2 cb 76 3d
       -0.057167042 0.27935162 0.24351706 0.06025309
0000e0 4c 11 88 be 1d 60 4b be 0e 47 cb bd ae f9 66 be
       -0.26575696 -0.19860883 -0.09925662 -0.22556183
0000f0 85 07 b7 3e 7b 0e eb 3c a6 97 14 3e 41 7f 41 3e
       0.35747924 0.028693428 0.14510974 0.188962
000100 1b e1 40 3e b4 0a 9f 3e 20 df 6d bc ce 0a 07 3d
       0.18835871 0.31062853 -0.014518529 0.03296929
000110 47 92 dd 3d 71 7e a4 3d ae 2c 20 3c 84 5e c1 be
       0.10818916 0.08031929 0.0097762775 -0.37767422
000120 76 1f 40 3e 4c ac cc be d3 eb aa 3d b1 1f 17 be
       0.18762001 -0.39975202 0.08345761 -0.14758183
000130 b7 c0 87 bd 88 91 ef 3d e7 3a cd bb 3e 71 c9 3d
       -0.06628554 0.1169768 -0.006263125 0.09836052
000140 83 08 60 3c 6a 42 de 3d 73 06 82 bc 57 6e 02 bd
       0.013673904 0.10852511 -0.015872216 -0.03184351
000150 f4 0a 8a be df 7a 60 3d 7a ea 2c 3d de 83 ab be
       -0.26961482 0.05480468 0.0422158 -0.33499044
000160 53 d0 83 3e 9b fa b7 be 95 90 08 be 67 a7 b0 be
       0.25744876 -0.35933384 -0.13336404 -0.34502718
000170 69 16 48 bd de 1f 24 3d e4 04 6c 3e ae 42 ba bc
       -0.048849497 0.040069453 0.2304874 -0.022736873
000180 2a 31 bf bd 30 c0 58 be 33 7e 08 be 79 8b ba bd
       -0.09335549 -0.21167064 -0.13329391 -0.091086335
000190 76 1a 23 3c 7b 67 42 bd 24 0c 1c be 70 e0 84 bd
       0.009955039 -0.047461968 -0.15239006 -0.064881206
0001a0 ef 5f 80 be 8e 11 38 3e 2a 9d d4 be 3a 5c 81 be
       -0.25073192 0.17975447 -0.41526157 -0.25265676
0001b0 73 4d 92 3d 98 ee b1 be c9 5b ca bc 05 3b 6c bd
       0.071436785 -0.34752345 -0.02470197 -0.057673473
0001c0 ef 6a 80 be bd 3f 94 3b cd c2 91 3b 74 90 ed 3d
       -0.25081584 0.0045241998 0.004448271 0.11599818
0001d0 06 d5 07 be 1d 9c 25 3e d8 5f 4c 3d 2c 6a 9c 3d
       -0.13264856 0.16172834 0.04989609 0.07637438
0001e0 5f d0 25 3e 9d 74 8b 3e 7b 7b 70 3b 1e 5c e7 3d
       0.16192769 0.27237406 0.0036694694 0.11296867
0001f0 29 1c 53 3e 8d f1 96 3e a8 c3 ac be d9 98 64 be
       0.20616211 0.29481164 -0.33743024 -0.22323932
000200 ab 31 15 be 3f 6c 2f 3e 0c 38 87 3e dd 98 07 3d
       -0.14569728 0.17131136 0.26409948 0.033104766
000210 27 bd 95 3d 6a 88 4e 3c c8 2f 7b bd a7 f2 f0 3d
       0.073114686 0.012605766 -0.061324865 0.11765032
000220 41 75 6c be 8d b8 8b 3e 77 b5 36 3c 2f c1 b0 be
       -0.23091604 0.2728924 0.011151663 -0.34522387
000230 78 db ec bc be 64 8d 3d 44 28 80 be 4c 0f fa 3d
       -0.028913245 0.06903981 -0.2503072 0.12209949
000240 88 57 03 be 2f a2 43 3e 17 aa e4 bd fa df 22 3d
       -0.1282636 0.19104837 -0.111652546 0.039764382
000250 b3 4c 96 3e d0 fb 4d 3e 90 8c 50 3e 6d 0a c0 bb
       0.29355392 0.2011559 0.2036612 -0.005860618
000260 cb 0d 5a bd 66 a7 09 be 9f 57 87 3d f6 ca ce bb
       -0.05323581 -0.13442764 0.06608509 -0.006310816
000270 63 ea 9a be d0 2a 0a 3d cb 55 ab be ca 19 11 3d
       -0.30256948 0.033732235 -0.33463892 0.035424985
000280 c7 8b f4 bd 80 c0 90 bd ad fc 98 3d 90 f9 36 bd
       -0.11940723 -0.070679665 0.07470069 -0.044671595
000290 56 1a 46 bd fd 3f 47 bd ab 70 f0 bc ee 60 49 3e
       -0.04836496 -0.04864501 -0.0293506 0.19665882
0002a0 54 d1 a4 3d c3 57 09 3f 54 92 03 be 7f 8a f2 3e
       0.08047739 0.5364954 -0.12848788 0.4737129
0002b0 a3 a1 75 3e 09 4a be bd 3d 5d df 3d 4a a1 19 be
       0.23987441 -0.09291465 0.10906456 -0.15002933
0002c0 f9 fb 24 3c 2d 08 ce bd 1f 29 05 3c cc 11 b5 3e
       0.010069841 -0.10060153 0.00812748 0.3536514
0002d0 aa c5 6d be 53 e3 98 be a8 b6 cd bb c1 49 39 3e
       -0.23219934 -0.29860935 -0.006277878 0.18094541
0002e0 13 05 a3 bd 02 5a 12 3f ca 88 16 be c9 32 38 3e
       -0.07959952 0.5716859 -0.14700618 0.17988123
0002f0 a1 46 0a 3e 3c 5b 48 3d 3c 36 16 3f ad e8 95 3e
       0.13503505 0.048915133 0.58676505 0.2927908
000300 05 91 a9 bd 4b 2b 40 be 08 b5 cb 3d ad 0b fc bc
       -0.082796134 -0.18766515 0.09946638 -0.030767286
000310 0a 38 48 be 4d d5 d1 bc 44 ab 3c be 29 ce ab 3e
       -0.19552627 -0.025614405 -0.18424708 0.33555725
000320 74 c9 4d bd 8b 26 76 3e 48 e3 06 be 5d dd 94 3e
       -0.05024095 0.2403814 -0.13172638 0.29075137
000330 2f 54 2e 3e 9d 5c 4b be c0 ee 8d 3d 7f 56 0c be
       0.17024301 -0.19859548 0.069303036 -0.1370487
000340 9a 08 bb 3d c1 7a d4 3d f5 f0 81 3e 55 6a 66 bd
       0.091325 0.10374976 0.25379148 -0.05625375
000350 7f 0c 1f bd c7 c4 4a be f5 1a 84 bd ee 14 ac 3e
       -0.038830277 -0.19801627 -0.06450454 0.33609718
000360 eb 96 7f bc 88 16 8b 3e 03 ea 1a be 15 b4 94 3c
       -0.0155999465 0.27165627 -0.15128331 0.018152276
000370 21 eb 49 3e df 3c 2e 3e 9e f0 38 be e8 0e 98 3e
       0.19718601 0.17015408 -0.18060538 0.29698873
000380 43 e6 55 bb 8c 0b 92 bd b2 df 2e be 7c 1b a3 be
       -0.0032638467 -0.07131109 -0.1707752 -0.31856906
000390 db b2 1d bd e3 f2 8b 3d 77 a7 e1 bd 5b 39 af 3e
       -0.038500648 0.06833436 -0.110182695 0.34223446
0003a0 5b 8c 2c bd fd 7a f0 3e e2 4c 86 be be a2 22 3e
       -0.04212604 0.46968833 -0.26230532 0.15882394
0003b0 5e 73 43 be e9 a0 ac bd 1f 74 4a be 42 ff ec 3c
       -0.19086978 -0.08429129 -0.19770859 0.02893031
0003c0 3d c6 6f bb 55 4e 0c be b7 a2 9e bd 25 ba 7f bd
       -0.0036586665 -0.13701756 -0.07745879 -0.06243338
0003d0 03 24 3d 3e b2 fc 49 bd d3 73 0a be 39 1f 6a be
       0.18470769 -0.049313255 -0.13520746 -0.22863473
0003e0 33 18 46 3e 06 5c 20 3f ce 83 cc bd a4 06 d2 bc
       0.19345169 0.62640417 -0.09986077 -0.025637932
0003f0 63 91 0c 3e 1c 4b 6d 3e b7 fc 8b bd 7c d1 2c 3e
       0.13727336 0.23173183 -0.06835311 0.16876787

tcn.tcn.0.conv2.bias f4 [16]
000000 76 9d b9 3d ef 67 7d 3d 11 86 fa 3d 97 3e 10 bd
       0.090632364 0.061866697 0.122326024 -0.03521594
000010 0b 8c dd 3d 49 f3 e3 3c c3 46 2b be 73 f3 a3 bc
       0.10817727 0.027825968 -0.16726212 -0.020013547
000020 14 46 a0 be 46 de b7 bd 21 8a 34 3d ba c1 68 3d
       -0.31303465 -0.08977942 0.044077042 0.056825377
000030 49 93 10 3e e9 76 dc bc 4e 77 f0 3d 0f 14 b7 bc
       0.14118685 -0.02691217 0.117415056 -0.022348432

tcn.tcn.0.res_conv.weight f4 [16, 16, 1]
000000 45 f0 3b 3d c3 20 e1 bd b5 20 84 3d e7 cf 54 bd
       0.045883436 -0.10992577 0.06451551 -0.051956084
000010 19 59 c4 3d c9 7f 14 3e 64 26 b3 bd 52 75 47 be
       0.095873065 0.14501871 -0.08747557 -0.19478348
000020 05 eb 99 be 90 e1 6e bd 7e 26 82 be 05 45 5b 3e
       -0.30062118 -0.058320582 -0.25419992 0.21413048
000030 ca 03 1a be 76 46 84 3c 54 97 b0 3b 27 9a 33 bd
       -0.15040508 0.01614688 0.0053891335 -0.043848183
000040 d1 2e 2b 3e c9 09 87 3e a5 1e 17 be 7b 90 22 3e
       0.16717078 0.26374653 -0.14757784 0.15875427
000050 5d 1b a9 3d 56 50 bf bd 83 a3 51 3e ec 56 12 bf
       0.08257172 -0.09341495 0.20472531 -0.5716388
000060 7a 5c 75 3d 25 af 84 3e ce 31 09 be 2f 56 a8 bd
       0.059902646 0.25914875 -0.13397905 -0.08219563
000070 31 30 5b 3e f2 83 43 bd 0d f9 0f be ec 82 23 be
       0.21405102 -0.047733255 -0.14059849 -0.15967911
000080 48 40 01 3d 12 de 37 be b6 7f 28 be 24 63 79 3e
       0.031555444 -0.17955807 -0.16454968 0.24354225
000090 65 d3 ed 3c 6d dc 37 be 5e a5 d5 3e 1d 08 bc 3d
       0.029031465 -0.1795518 0.41727728 0.09181235
0000a0 c5 bc 4e 3d 60 07 b4 3e e3 c4 24 3e b2 57 ad be
       0.050472993 0.35161877 0.16090731 -0.3385597
0000b0 10 cd b2 be 1c 97 f4 3e 9d 23 1b 3e d5 d9 aa 3c
       -0.34922075 0.47771537 0.15150304 0.020855824
0000c0 26 ee 67 3e 65 6c 94 be 50 62 ee 3d e0 d9 da bd
       0.2264944 -0.28988948 0.11639845 -0.106860876
0000d0 a2 6c 58 bd 20 c8 24 be 29 f4 87 be 65 bc a8 3e
       -0.052837975 -0.16091967 -0.26553467 0.32956234
0000e0 c0 1d 7b be b2 9d fa 3d 5f 75 a7 3e 16 72 97 bd
       -0.24523067 0.12237109 0.32706735 -0.07394807
0000f0 35 fc 0f 3e 84 c6 67 3d 68 3a f2 3d d6 4d 05 be
       0.14061053 0.056585804 0.11827546 -0.13017973
000100 e6 36 10 be b8 47 d2 3e 98 a1 b3 bc 40 9c d6 bd
       -0.14083442 0.41070342 -0.02192764 -0.10479021
000110 ed 00 3e 3e fc 4c 68 3d 67 3f 81 be 64 11 4d bd
       0.1855504 0.056714043 -0.25243685 -0.050065413
000120 b0 8d ff bd 08 cc 64 3d cb ad 4f 3e 6e e6 37 bd
       -0.124781966 0.055858642 0.2028114 -0.04489749
000130 c4 21 0a 3f 2c 38 1f 3d 64 51 8f 3d 14 8f b0 bd
       0.5395777 0.03887193 0.06997946 -0.0862104
000140 24 43 11 3d b6 69 06 3e 7f 0a da bd 30 4d 93 bd
       0.03546442 0.13126263 -0.10646533 -0.07192457
000150 d8 ef d9 bd c2 ec 05 3e cd 78 a9 be 2c 4a 70 3d
       -0.1064145 0.13078597 -0.33099976 0.058664486
000160 15 1d 2c bd c6 b1 b5 bd 72 11 26 bd 0a 99 af 3d
       -0.042019922 -0.08871798 -0.04054398 0.08574112
000170 be cf bc 3d be bb 1e bd 96 47 37 3d 9e d7 31 3e
       0.09219311 -0.038753264 0.044746004 0.17367408
000180 cc a4 b1 be 98 c9 2a 3e 3e f9 88 3e 63 4b 6c be
       -0.34696043 0.16678464 0.26752657 -0.23075633
000190 18 ff 4a 3e 88 bb 31 3e c8 ff 6e be 50 f9 54 be
       0.19823873 0.17356694 -0.2333976 -0.2079823
0001a0 a2 79 9a bd c2 90 7d 3e 68 1d 9f be 07 00 ba 3d
       -0.07542731 0.24762252 -0.31077123 0.090820365
0001b0 65 64 78 bc 66 62 d7 bd 38 29 6f bd df d0 18 3e
       -0.015160655 -0.10516815 -0.05838892 0.14923428
0001c0 5b 2f 69 be 21 fe 22 3c 5b 5e 9c 3e a3 b1 91 3d
       -0.22771971 0.009948284 0.30540738 0.0711396
0001d0 de e1 69 bd f1 15 15 3e 1d 44 be 3e 8f ae 82 be
       -0.05710017 0.14559151 0.3716134 -0.25523803
0001e0 56 d8 db bc 31 d5 41 be 92 cf 96 be d1 1d 37 bd
       -0.026836555 -0.18928982 -0.2945524 -0.04470617
0001f0 64 96 d7 bd e5 cc 99 be ca 09 f8 bd 34 5d f3 bd
       -0.105267316 -0.30039135 -0.12111242 -0.118830115
000200 10 c6 3a be c2 5e ad be ca 5e 00 3f 5a 50 c0 be
       -0.18239617 -0.33861357 0.50144637 -0.37561303
000210 4c e3 77 be 01 d9 95 ba e1 7c 57 be ca a7 fb bd
       -0.242078 -0.001143247 -0.21043731 -0.122878626
000220 8f 69 69 be 9b 13 46 3f c9 b2 bc 3e ad 13 88 3e
       -0.22794174 0.77373666 0.36855152 0.2657751
000230 c6 a4 71 be 83 8a 54 bc c2 4a 98 be 71 ac 9e 3e
       -0.23598012 -0.012972477 -0.29744536 0.30990937
000240 e7 a0 92 3e 65 f0 14 3a ba 1d 61 3e 47 0b d2 bd
       0.28638384 0.00056815735 0.21983996 -0.10256057
000250 1c fd d1 bd f5 e6 36 bd 27 1e 7d 3e 8d fc 1f 3e
       -0.10253355 -0.04465385 0.24718533 0.15623684
000260 df 0a 2a be fc 0a be 3e 94 e9 82 3d e2 00 79 3e
       -0.1660571 0.37117755 0.06392208 0.24316743
000270 cf cb 1a be 76 1f 79 3e 47 88 36 3d df ed 6e be
       -0.1511681 0.24328408 0.044563558 -0.23332928
000280 57 2f 7d bd 94 0b 0c be d6 bd 24 be 3c 93 42 be
       -0.061812725 -0.13676292 -0.16088042 -0.19001478
000290 94 89 1b be 30 0c c9 be 35 9a f8 3d 3c 45 18 3e
       -0.151892 -0.3926711 0.12138788 0.14870161
0002a0 98 4b a9 be 18 1a ca 3e 55 62 8f bd 87 ec be be
       -0.33065486 0.39473033 -0.07001177 -0.3728983
0002b0 c3 d5 93 3d 0b 0f 97 be d8 34 74 3e 2e 61 af be
       0.07218506 -0.29503664 0.23848283 -0.3425383
0002c0 ac 79 8f be 7b c5 0c be 4b b2 1f be 81 42 a2 3d
       -0.28022516 -0.13747208 -0.15595357 0.07922841
0002d0 f0 f3 a7 bd 7c ef bb be 93 4e 91 be cc 74 a9 be
       -0.08200824 -0.3670615 -0.2838026 -0.3309692
0002e0 56 ee d2 3d 6c 51 3b be 3e 5c b4 be 84 de 32 be
       0.10299365 -0.18292779 -0.35226625 -0.17467695
0002f0 f6 c6 c6 3d 3b ad 3e be d9 bb 5b bc e7 b9 00 be
       0.097059175 -0.1862077 -0.013411486 -0.12570916
000300 92 2e 28 3e 11 46 95 3e 97 68 24 bc 82 9c 19 bd
       0.16424015 0.2915502 -0.010034702 -0.037502773
000310 ba 3b 91 bd 80 46 1f 3a 5d 37 46 be d0 8a 8b be
       -0.0709147 0.0006075874 -0.19357057 -0.27254343
000320 5d 9a 88 3e e6 25 37 3e 87 aa ff bd 53 f3 ac bc
       0.2668027 0.17885551 -0.124836974 -0.02111212
000330 3e be 46 3d bb f5 8b 3d 58 17 98 bd 10 30 90 3e
       0.048521273 0.06833979 -0.074263275 0.2816167
000340 ad 5c 53 3e dc 6e 6a 3e 28 2b 52 bd c5 eb 57 3e
       0.20640822 0.22893852 -0.05131069 0.21086033
000350 76 bd fb bd dc 95 32 3e 1a 84 43 3e fd 40 02 3e
       -0.12291996 0.1743998 0.19093361 0.12720104
000360 bf e3 06 3e 01 ce 33 3e b4 13 1d 3c 0a c6 97 be
       0.13172816 0.17559053 0.009587217 -0.2964328
000370 0e a6 90 3d 79 b5 26 be 3a 00 96 3d f6 aa 4e be
       0.070629224 -0.16280164 0.07324262 -0.20182404
000380 8a 58 88 be dc af 85 be 11 4d cd be 40 2e 8c bd
       -0.2663005 -0.26110733 -0.4009786 -0.06844759
000390 b8 c5 4a be 2b 33 f4 bd 81 78 62 3e bf fe e0 3d
       -0.19801986 -0.11923822 0.22116281 0.10986089
0003a0 67 3d 27 bd a2 b0 d8 3c e4 8e 80 bc 1a d8 4e bc
       -0.040830042 0.026451413 -0.015693136 -0.012624765
0003b0 43 5c 02 3e 10 51 46 3e 0a d8 a3 3d 01 88 08 bd
       0.12730508 0.1936686 0.080001906 -0.03333283
0003c0 5d c3 71 be ea 25 3d bd 39 0a 8e be b7 ad d5 bd
       -0.23609681 -0.046178736 -0.27742174 -0.10433524
0003d0 08 8c 22 3e df 09 63 3e ef 03 1c be e2 13 aa 3e
       0.1587373 0.22171734 -0.15235876 0.33218294
0003e0 75 62 c7 bd 0c 01 1d be fe 49 7f be c4 3b 39 3d
       -0.09735576 -0.1533243 -0.2493057 0.045223013
0003f0 b4 fd 19 3e 91 2e 8e be 54 21 80 bd 9a 12 a9 3d
       0.15038186 -0.27769902 -0.06256357 0.08255501

tcn.tcn.0.res_conv.bias f4 [16]
000000 74 94 92 3e 54 30 9d bd fa 8a 2b be 9f 57 93 3d
       0.28628886 -0.076752335 -0.16752234 0.07194447
000010 45 1b 14 be d9 00 27 be a3 52 8c be d8 a1 0d be
       -0.14463528 -0.16308917 -0.27406797 -0.1383127
000020 aa 46 1b be ca 32 4b 3e 3d 19 95 bd 06 2d 06 3e
       -0.15163675 0.19843593 -0.072802044 0.13103113
000030 fd 6e 91 bd 3e 9c 91 be 39 ad 9e bd 4a 11 c6 bb
       -0.071012475 -0.28439516 -0.07747883 -0.0060445415

tcn.tcn.1.conv1.weight f4 [16, 16, 5]
000000 c9 c8 c5 bd 0b 12 a6 be c9 84 dc be 8c bd d4 be
       -0.09657437 -0.3243564 -0.43070057 -0.41550863
000010 0a 52 f5 be 51 1a 89 3e 52 37 9f be 49 e1 b4 3d
       -0.47914153 0.2677789 -0.31096894 0.08832032
000020 19 65 c5 bd 4f 60 5f 3e 79 5a f5 bd 60 80 85 3e
       -0.096384235 0.21814083 -0.11980147 0.26074505
000030 c6 47 10 be bc 15 81 be 9d aa 73 be 61 1c 97 3c
       -0.1408988 -0.25211895 -0.23795553 0.01844615
000040 b2 4d 97 be d5 ec 27 be a3 4e cf be 60 97 a7 be
       -0.29551464 -0.16398938 -0.40489683 -0.32732677
000050 3f 9a 2e 3d 61 4b d2 bd e2 0a 1f 3e a2 c7 69 3e
       0.04262757 -0.10268284 0.15531495 0.2283006
000060 3c c8 82 3e 65 dc 00 3e 76 01 77 3c f1 b3 2b 3e
       0.25543392 0.12584074 0.015076032 0.16767861
000070 55 12 ae bc 93 62 8e 3e ee 45 a0 3e b1 7d b1 3b
       -0.021248976 0.2780958 0.31303352 0.005416595
000080 a0 68 4e 3e 0a c8 be 3e 96 af 14 3f ab 57 98 bd
       0.20157099 0.37261993 0.5808042 -0.07438596
000090 2d af 97 bd 8c a0 ca be 60 7a 9b be f4 06 e1 bd
       -0.07406459 -0.39575613 -0.30366802 -0.10987654
0000a0 40 55 a2 bd 8e e7 51 3e 5f 9c 6b 3e 53 4d 3e 3e
       -0.079264164 0.20498487 0.2300887 0.18584184
0000b0 80 ac 60 3e 75 ee c7 bd 29 9d 4c bd 2b a6 83 bb
       0.21940804 -0.09762279 -0.049954567 -0.0040176115
0000c0 b6 c0 fc bd a6 5a f7 bd 41 0e b6 3c 6f d0 1d 3e
       -0.12341444 -0.12077837 0.022223594 0.15411542
0000d0 d1 3b f8 bd 60 1c a7 be 6a 95 43 be 3d da d9 3d
       -0.12120784 -0.32638836 -0.19099966 0.10637329
0000e0 db a4 2a bd fc 96 a6 be fb d2 29 bc fa 9f 9c 3c
       -0.041661125 -0.32537067 -0.010365243 0.019119252
0000f0 ee 29 80 bc 66 75 0c 3e 74 29 54 3d 43 fc 3c 3e
       -0.015644994 0.13716659 0.051797345 0.18455605
000100 01 e8 49 3e ce 93 b6 3e 2e ea 12 bd f0 c8 50 be
       0.19717409 0.3565964 -0.035867862 -0.20389152
000110 3a 71 25 be 66 c5 a1 3c dc 3b 11 3e ae 8a c9 bc
       -0.16156474 0.019747447 0.14182991 -0.02460226
000120 bb 51 ee 3d d5 b5 7e bd 46 cb 9a bd 18 0e e9 3e
       0.116366826 -0.062185127 -0.075583026 0.45518565
000130 44 a8 45 3c 36 02 66 3d dc 8d 57 3e 91 7d 27 3e
       0.012064043 0.056154452 0.21050209 0.16356494
000140 09 65 bc be c4 41 17 bf e6 9e 70 be 5f 16 a2 be
       -0.36795834 -0.59084725 -0.23498115 -0.31657693
000150 97 14 e2 3b 85 7a e3 be 5d 95 41 3d e9 20 23 3d
       0.006899427 -0.44429412 0.047261585 0.039826307
000160 76 79 57 3d 0b cf a0 be 3d b8 8b be b7 84 da bc
       0.05260607 -0.3140796 -0.27289 -0.026674611
000170 85 6a 85 be 07 ce 81 be 7f 89 d2 be da f6 96 3d
       -0.2605783 -0.253525 -0.41120526 0.07371302
000180 ee d2 ad be 5b 06 cb be 82 25 b0 be 22 05 0a be
       -0.3394999 -0.39653286 -0.34403616 -0.1347852
000190 6f 62 c8 3e 18 76 96 3d 7c 65 0c bc 2c d9 57 3e
       0.391376 0.07346743 -0.008569118 0.21078938
0001a0 64 98 01 3f 9e 02 dd 3d 92 df e9 bd ec 1c ad be
       0.50623155 0.10791515 -0.11419596 -0.33811128
0001b0 f6 0c 45 bd 4a 0d 09 3f 26 3d bf 3d 9c 50 b5 3d
       -0.048108064 0.535359 0.09337835 0.08853266
0001c0 2c 43 42 3e 44 32 dd 3e 2b 44 da 3e 0b 5c b6 be
       0.18970937 0.43202412 0.42630133 -0.35617098
0001d0 f0 4c 09 be 28 d2 8a be 98 12 29 be 0a 9a 10 be
       -0.13408256 -0.27113461 -0.16510999 -0.14121261
0001e0 38 c0 fe bd 5c 2f 1f be db 34 01 bf 6a e2 54 be
       -0.124390066 -0.1554541 -0.50471276 -0.20789495
0001f0 47 e2 35 3e 90 20 c0 3d fc 1c df bb 1d 69 b4 bd
       0.17762099 0.09381211 -0.006808875 -0.08809111
000200 12 dd 34 3c 17 ca c2 bd 34 15 37 be 73 6d 47 be
       0.011039035 -0.09511202 -0.17879182 -0.19475345
000210 a5 31 7b 3d 44 d8 22 bd f5 bd f4 bc 39 f2 8f 3d
       0.06132664 -0.03975703 -0.029875735 0.07028622
000220 74 dd 92 3e e9 16 71 3e 7f 6b 15 3d 01 4b 11 be
       0.2868458 0.23543896 0.03647947 -0.14188768
000230 70 23 82 bd 71 2a 66 3d 25 1e 95 3e 28 ab 89 bd
       -0.063544154 0.05619282 0.2912456 -0.067220986
000240 25 ce 2e 3d 05 7e 89 be e4 c7 4d be 60 fd 57 be
       0.042677063 -0.26853958 -0.20095783 -0.21092749
000250 d7 6f 42 be 72 b1 04 be fa 3a 00 bd 4d 7b 88 3c
       -0.18987976 -0.12958315 -0.031306244 0.016660357
000260 b8 33 45 3e da 5d 48 bd 23 81 fa 3d 37 0c 77 3d
       0.1925801 -0.04891763 0.12231662 0.060314383
000270 31 1e 0a 3d c1 c5 2e 3d 80 5f e9 3d 4d 73 28 3e
       0.0337202 0.04266906 0.11395168 0.16450234
000280 5c c9 3f 3e 6a 86 01 3e f4 f4 f8 bd 2c 9f 3f be
       0.18729156 0.12648931 -0.12156096 -0.18713063
000290 6f de 0f bf c2 6b 4f 3d 44 74 8c bd 7b d7 69 3e
       -0.5619878 0.050639875 -0.068581134 0.22836106
0002a0 7c 9e 2f bc 1f 57 16 be d9 4c 81 be e5 e7 42 be
       -0.010718938 -0.14681672 -0.25253943 -0.19033773
0002b0 9a 1f 10 be 30 7e 26 be 2c 7b c2 3d 52 f6 3a be
       -0.14074555 -0.16259074 0.094961494 -0.18258026
0002c0 d6 e8 8f be 89 e4 96 be 37 6e 85 be ba 08 ea bd
       -0.28107327 -0.29471233 -0.2606065 -0.11427446
0002d0 a2 79 b4 3d 64 0b 53 3d d1 85 5a be d6 47 f6 bb
       0.08812262 0.051524535 -0.2134011 -0.0075158877
0002e0 e6 54 80 3d a2 1f 8b bd 19 45 3e 3a f7 53 7c bd
       0.06266193 -0.06793143 0.0007258221 -0.061603513
0002f0 5d fc d7 bc fd c0 c2 3d 60 87 d5 3e 50 4c 97 3e
       -0.026365453 0.09509466 0.41704845 0.2955041
000300 13 78 21 3e 93 62 12 bb 81 50 9e 3b df 23 85 be
       0.15768461 -0.0022336587 0.004831374 -0.2600393
000310 30 67 d5 3c 6a d0 fd 3d 0a a9 6b 3d b1 1d 4a bd
       0.02605018 0.123932675 0.057534255 -0.049344722
000320 30 bd b0 bd be ac 37 be ad e5 86 be c0 6a d3 bd
       -0.08629835 -0.1793699 -0.26347104 -0.10323095
000330 6d cd 1d 3c b4 33 c7 bd db d6 cb bc eb 51 6a be
       0.009631497 -0.097266585 -0.024882725 -0.22882812
000340 8d f0 b1 bd 23 4e 8a 3e 4c 0b 9c 3e c6 16 65 3e
       -0.086884595 0.2701274 0.3047737 0.22371969
000350 89 b4 08 3d 84 c4 15 be e5 a7 f4 bd 34 83 72 3e
       0.033375297 -0.14625746 -0.11946086 0.23682863
000360 a8 58 15 3e ae a5 09 be f1 3d 95 be f7 3b 3f be
       0.14584601 -0.13442108 -0.2914882 -0.18675219
000370 82 45 1d 3e 14 9e cf bd 27 79 13 3e 85 95 14 3e
       0.15358546 -0.10137573 0.14401685 0.14510162
000380 05 8a 15 3e 3d 03 82 bb 3d e5 4f be 86 a6 c7 3d
       0.14603432 -0.003967671 -0.20302291 0.09748559
000390 eb 91 97 3c fd 03 38 bd 88 a6 5a 3e d3 74 67 3e
       0.018502196 -0.04492568 0.21352589 0.22603159
0003a0 ea 6d 2d 3e 8a 76 6a 3e 1d 9a af 3c 93 5a a4 3e
       0.1693646 0.22896782 0.021435792 0.32100353
0003b0 93 2c 35 3d 18 da 0b 3e 30 55 e4 3d a1 cd c8 be
       0.044231962 0.13657415 0.11149061 -0.39219382
0003c0 ad 40 11 be c0 2c 03 bf a4 d5 5f 3e c0 66 4b 3e
       -0.14184828 -0.5124016 0.21858841 0.19863415
0003d0 bf f4 0d be d4 50 38 3e 9c b5 16 bd 55 68 b9 3d
       -0.13862894 0.17999583 -0.03679429 0.09053103
0003e0 c5 f3 a7 bc 22 42 13 3e 7f 39 4b 3c ee df d3 3e
       -0.02050198 0.14380696 0.012403845 0.41381782
0003f0 b1 7a 01 be 74 8d 97 be e4 5b 16 bd 67 65 85 bd
       -0.1264446 -0.29600108 -0.036708727 -0.065134816

tcn.tcn.1.conv1.bias f4 [16]
000000 38 b6 ae be c8 4f bf be 49 35 b1 bd 49 e7 df 3d
       -0.34123397 -0.37365556 -0.086527415 0.10932786
000010 ee ae c3 be cc ef c0 be a2 d2 3d bd 2a c6 cd bd
       -0.38219398 -0.3768295 -0.046343453 -0.100475624
000020 b9 44 a7 be 52 1b 6f be fd e3 be be be c5 af 3d
       -0.3266962 -0.23350266 -0.37283316 0.08582638
000030 ca 69 bf be e9 ce 3f 3e 6a c7 40 be 8e 00 64 3d
       -0.37385398 0.18731274 -0.1882607 0.05566459
