checkpoints/fine_tune/var_rf/giantsteps/0.4/model_mild-cherry-193_finetune_HAI_GTZ/it_1232_loss_4.7657_acc10.2_acc20.2.pt (torch, 436414 bytes, 211 tensors)

conv1.weight f4 [16, 1, 3, 3]
0	0x3e6263d7	0.22108398
1	0xbdc6ce41	-0.097073086
2	0xbe9f2e74	-0.31090128
3	0x3e9b3594	0.30314314
4	0xbe253e67	-0.16137086
5	0xbec19533	-0.37809142
6	0x3e36a3e8	0.17835963
7	0x3e24fb4b	0.16111486
8	0xbea03baf	-0.31295535
9	0x3e9a51b4	0.3014046
10	0xbefc4314	-0.49269927
11	0xbecef79e	-0.40423292
12	0x3e803f7e	0.2504844
13	0xbe91f98c	-0.28510702
14	0x3de6affb	0.11264034
15	0x3dd817b7	0.10551398
16	0x3e343da2	0.17601636
17	0x3d93826e	0.07202612
18	0xbe5405d4	-0.20705348
19	0x3ee98dad	0.45615903
20	0x3e702bfb	0.23454277
21	0xbe299ec3	-0.16564469
22	0x3ecce5cd	0.40019074
23	0x3db04d1b	0.08608457
24	0xbee365a6	-0.4441349
25	0x3e3c3e31	0.18383099
26	0xbe48d869	-0.19613804
27	0xbe9045cb	-0.28178248
28	0xbdef82b0	-0.116948485
29	0x3ead7baa	0.3388341
30	0xbeb50179	-0.35352686
31	0x3db5b3e3	0.08872201
32	0x3e40746b	0.1879441
33	0x3ebc9084	0.36829007
34	0x3d7081f9	0.0587177
35	0xbefc4ff1	-0.4927974
36	0xbe8aa4b9	-0.27078798
37	0xbe82f3b7	-0.25576565
38	0xbe4e17d3	-0.20126276
39	0xbe8ae0c2	-0.27124602
40	0x3e05873d	0.1303987
41	0x3e75746c	0.23970193
42	0xbd9b1e37	-0.075741224
43	0xbda3f7c1	-0.0800624
44	0xbe7d7b2d	-0.24754019
45	0xbd9bc84e	-0.076065645
46	0x3da9fe61	0.08300472
47	0xbdb0d921	-0.08635164
48	0xbf533b65	-0.82512504
49	0x3e982e42	0.29722792
50	0x3ee93608	0.45549035
51	0xbe802d62	-0.25034624
52	0x3e976910	0.29572344
53	0xbd5cd358	-0.05391249
54	0x3e78daa3	0.24302153
55	0xbd58d281	-0.052935127
56	0xbe1faeb7	-0.15593992
57	0xbe149159	-0.1450857
58	0x3e229e46	0.15880689
59	0xbed1cc88	-0.40976357
60	0xbe26e687	-0.16298877
61	0x3dbad9c1	0.091235645
62	0xbe896a3a	-0.26838857
63	0x3c2ae591	0.010430709
64	0x3caa21ce	0.020768072
65	0x3e83aa9d	0.25716105
66	0xbed9901e	-0.42492765
67	0xbe1a57dd	-0.1507258
68	0xbde5f71e	-0.112287745
69	0x3e0183c4	0.12647921
70	0xbd5650ef	-0.052323278
71	0x3f0d7496	0.5525602
72	0xbeadf365	-0.33974758
73	0x3e093da4	0.1340242
74	0xbe980dd4	-0.2969805
75	0xbeb9c4e9	-0.36283043
76	0x3edae371	0.4275165
77	0x3ec4bdea	0.38426143
78	0xbe0f8bd3	-0.14018182
79	0x3ee301d1	0.44337323
80	0x3e185095	0.1487449
81	0xbf246e5e	-0.64230907
82	0x3db7afb1	0.08969057
83	0x3f03c6ee	0.5147542
84	0x3c91766c	0.017756663
85	0xbe6a7b40	-0.22898579
86	0x3e455ae2	0.1927295
87	0xbeb322d4	-0.3498751
88	0xbc8f6dde	-0.017508443
89	0x3e97b095	0.2962691
90	0xbf009ed3	-0.50242347
91	0x3cf811d8	0.030281946
92	0x3e9a4b38	0.30135512
93	0xbe773c22	-0.24144033
94	0xbe67dea0	-0.22643518
95	0x3e981601	0.29704288
96	0x3dab9abe	0.08379124
97	0xbe0a2552	-0.13490799
98	0xbd02322c	-0.03178613
99	0x3e182054	0.14856082
100	0x3ed3b912	0.41352135
101	0xbe0a9d3e	-0.13536546
102	0x3e718005	0.23583992
103	0x3ec55215	0.38539186
104	0xbe2bb676	-0.16768822
105	0x3eb7fbcd	0.35934296
106	0x3dc2a0d5	0.095033325
107	0xbd95e037	-0.07318156
108	0x3db8bc89	0.09020335
109	0x3dca5f4f	0.0988146
110	0xbbc51122	-0.0060140053
111	0xbe1ad20f	-0.15119193
112	0xbe52abfc	-0.2057342
113	0xbededd8c	-0.43528402
114	0x3e6db4a6	0.23213443
115	0x3e942cbe	0.28940386
116	0xbe60e1e2	-0.21961167
117	0x3e2eca2d	0.17069311
118	0xbe054b1d	-0.13016935
119	0xbe940ffb	-0.28918442
120	0x3e8a396a	0.26996928
121	0x3e8e6ee7	0.27818987
122	0x3df3be47	0.11901527
123	0xbe62f02e	-0.22161934
124	0x3e36ac21	0.178391
125	0xbf043215	-0.5163892
126	0x3e9f088a	0.31061202
127	0x3e1962a7	0.14979039
128	0xbe2bb26c	-0.16767281
129	0x3ecad42e	0.39615005
130	0xbe9b1d99	-0.3029602
131	0xbc9d185a	-0.01917665
132	0x3e646028	0.22302306
133	0xbe98c4ef	-0.29837748
134	0xbedf3eff	-0.4360275
135	0xbdd798d9	-0.105272
136	0x3b7caa43	0.0038553632
137	0x3eab6d90	0.33482027
138	0xbdbb0305	-0.09131435
139	0x3db1a66b	0.0867432
140	0x3eca0da3	0.3946353
141	0xbef91078	-0.48645377
142	0xbe5d864d	-0.21633263
143	0x3f120851	0.5704394

conv1.bias f4 [16]
0	0x3c7ae1b4	0.015312601
1	0x3dd1f109	0.10251052
2	0xbb8d9c91	-0.0043216427
3	0xbcbe6ab3	-0.023244238
4	0xbe4ba6fb	-0.19887917
5	0xbdeb0a71	-0.11476601
6	0x3e1b4704	0.15163809
7	0x3b19c33e	0.002346232
8	0x3bb9f172	0.0056745345
9	0x3d4bc79e	0.049750917
10	0xbd10ddd8	-0.035367817
11	0xbe5e2d09	-0.21696867
12	0x3dc62290	0.09674561
13	0xbd0eb8f5	-0.034844358
14	0xbc14d2a9	-0.009083428
15	0xbe142db0	-0.14470553

conv2.weight f4 [16, 16, 3, 3]
0	0xbe23d181	-0.15997888
1	0xbd1ad4dd	-0.03780066
2	0xbd04af01	-0.03239346
3	0xbdf8ec89	-0.121544905
4	0xbe50ad5a	-0.20378628
5	0xbe7b50af	-0.24542497
6	0xbd5f8319	-0.054568384
7	0x3d4180a2	0.047241814
8	0xbdd3c315	-0.10339943
9	0xbc604cda	-0.013690198
10	0xbd94bdb5	-0.07262746
11	0xbc6efd78	-0.014586799
12	0xbdcbfb97	-0.09960096
13	0xb9b51a68	-0.00034542684
14	0xbe197f3a	-0.1498994
15	0xbe0087f2	-0.12551859
16	0xbd4e8c88	-0.05042699
17	0xbea8967d	-0.32927313
18	0x3cb7c00f	0.022430448
19	0xbe8cf8bc	-0.2753352
20	0xbd80fd41	-0.06298304
21	0x3e812195	0.25220934
22	0xbe8e2fdb	-0.27770886
23	0xbd3e6648	-0.04648426
24	0x3e9ed961	0.31025222
25	0xbe72a48f	-0.23695587
26	0xbe09a180	-0.13440514
27	0xbe055e58	-0.1302427
28	0x3da48016	0.08032243
29	0x3e351d89	0.17687048
30	0xbd084144	-0.033265367
31	0x3e1e4921	0.15457584
32	0x3eb66c4c	0.356295
33	0x3ed6bf41	0.4194279
34	0x3efee39c	0.49783027
35	0x3f1150b7	0.56763786
36	0xbcfd4ecc	-0.030921362
37	0xbca097f1	-0.019603701
38	0xbe3b851c	-0.18312496
39	0xbdbde17f	-0.092715256
40	0xbe230c15	-0.15922578
41	0xbe843a7f	-0.2582588
42	0xbd89aefc	-0.06722829
43	0xbe64e3c9	-0.22352518
44	0xbe0a9ec9	-0.13537134
45	0x3e845b3e	0.25850862
46	0xbd9c533f	-0.076330654
47	0x3ecf602b	0.40503058
48	0x3e8d4e00	0.27598572
49	0xbdfe0cf7	-0.124048166
50	0x3eba8a64	0.3643371
51	0x3f073aaa	0.5282389
52	0x3d790d64	0.060803786
53	0x3f01a175	0.5063699
54	0x3d4ecab8	0.050486296
55	0xbe2c1c22	-0.16807607
56	0xbe3691a8	-0.17829001
57	0xbc9f327b	-0.01943325
58	0xbdf651ab	-0.12027296
59	0xbe682256	-0.22669348
60	0xbd2d4d70	-0.04231018
61	0xbdd35458	-0.10318822
62	0xbd8c65cd	-0.068553545
63	0x3e6153c8	0.22004616
64	0x3e071026	0.13189754
65	0xbdbc20c7	-0.09185939
66	0x3e55f4df	0.20894192
67	0xbc261ee7	-0.010139204
68	0xbe7eac10	-0.24870324
69	0xbd30a02a	-0.043121494
70	0xbd2afb04	-0.041743293
71	0xbe6ba88a	-0.23013511
72	0x3e0b1c94	0.1358512
73	0xbe1eea56	-0.1551908
74	0x382bb5c0	4.0938845e-05
75	0x3e6a48fc	0.22879404
76	0xbe45f6f3	-0.19332485
77	0xbd916f86	-0.071013495
78	0x3dc57e7a	0.09643264
79	0xbe3210b5	-0.17389186
80	0xbe130858	-0.14358652
81	0x3ccda41a	0.025102664
82	0x3e6b0bee	0.2295377
83	0x3e769ca9	0.24083199
84	0x3e5f4d57	0.21806847
85	0x3eabb86c	0.3353914
86	0x3eb529fc	0.35383594
87	0x3e946b54	0.28988135
88	0x3e25c131	0.16186978
89	0x3e9e8aaa	0.30965167
90	0x3c7685a3	0.01504651
91	0xbd0220fa	-0.03176973
92	0xbd8e58cf	-0.06950533
93	0xbb802002	-0.0039100656
94	0xbcf8055d	-0.030275995
95	0x3db87e72	0.090084925
96	0x3d31d82b	0.043419044
97	0xbcc5f047	-0.024162425
98	0x3d9f5ab3	0.077809714
99	0xbd926886	-0.071488425
100	0xbe185ec5	-0.14879902
101	0xbe3b9a89	-0.18320669
102	0xbdf3a8f9	-0.11897463
103	0xbe5cb657	-0.21553932
104	0xbe8c09aa	-0.27351123
105	0xbda85dee	-0.08221041
106	0xbd6b7ebb	-0.057493906
107	0xbe59135c	-0.21198791
108	0xbdb5bbf7	-0.08873742
109	0xbdad26df	-0.0845468
110	0xbe3347fa	-0.17507926
111	0xbb1f1a05	-0.0024276983
112	0xbdc230ec	-0.09481987
113	0xbe2f67fc	-0.1712951
114	0x3cd86907	0.026417268
115	0x3d6bae47	0.05753925
116	0xbd88d8ce	-0.06681977
117	0x3db53bab	0.088492714
118	0xbdeea7bc	-0.116530865
119	0xbd6c0576	-0.057622395
120	0x3d12c534	0.0358326
121	0xbe18fa35	-0.14939196
122	0xbdffd932	-0.124925986
123	0x3dbe7ae6	0.09300785
124	0xbc46fa79	-0.012144678
125	0xbe59003f	-0.211915
126	0xbe64e7ce	-0.22354051
127	0xbe6d5a3e	-0.23178956
128	0xbe2da39d	-0.16956945
129	0xbe336dd1	-0.1752236
130	0xbca933a6	-0.02065451
131	0x3e0838ac	0.13302869
132	0x3bd896bc	0.006609766
133	0x3e39103a	0.18072596
134	0xbb702e53	-0.0036648705
135	0x3b1f3d42	0.0024297987
136	0xbc504888	-0.012712605
137	0x3dee1e94	0.11626926
138	0xbd700cdc	-0.058606014
139	0x3d044c1e	0.032299154
140	0x3e2c91b0	0.1685245
141	0x3dc5173e	0.09623574
142	0xbd19f0c0	-0.037583113
143	0x3e015f67	0.1263405
144	0x3e74a106	0.2388955
145	0x3d6e7b00	0.05822277
146	0x3e48cc58	0.19609201
147	0x3dd63a3e	0.104603276
148	0x3e250be0	0.16117811
149	0x3e0b19b8	0.1358403
150	0x3d86bc7e	0.06578921
151	0x3db3aa14	0.08772674
152	0x3d8f9b4c	0.070120424
153	0x3e97b7c4	0.2963239
154	0xbe09506a	-0.13409582
155	0x3e97e190	0.29664278
156	0x3d9cc326	0.07654409
157	0xbdfea973	-0.124346636
158	0x3df443bb	0.11926981
159	0x3e85b63b	0.26115593
160	0xbe15ba45	-0.14621837
161	0x3d0d1d69	0.034451876
162	0xbe9031c2	-0.28162962
163	0x3f15c562	0.5850431
164	0xbd375e59	-0.04476771
165	0xbf157eda	-0.58396685
166	0x3e166007	0.14685069
167	0xbdab66d8	-0.08369225
168	0xbf11aa7c	-0.56900764
169	0x3e35461e	0.17702529
170	0xbe4c288d	-0.19937344
171	0xbeb67eaa	-0.35643512
172	0xbe57f61d	-0.21089979
173	0xbcd8ed72	-0.02648041
174	0x3c791094	0.015201706
175	0x3ddf8a73	0.10915079
176	0x3e8329fa	0.25617963
177	0x3ca7f736	0.020503622
178	0x3de9f7f7	0.11424249
179	0x3e1f230b	0.15540712
180	0x3e24d90c	0.16098422
181	0x3e4c7ac9	0.19968714
182	0x3e39fa7a	0.18161955
183	0x3d18cc0b	0.037303966
184	0x3dd60168	0.10449487
185	0xbc8965ae	-0.016772117
186	0x3d47ecde	0.04880988
187	0x3de43ea6	0.11144762
188	0x3cb5dc3c	0.022199742
189	0xbebe157a	-0.3712576
190	0x3e99012a	0.298837
191	0xbcc9c1ed	-0.024628604
192	0xbee0f046	-0.43933314
193	0x3ddb0198	0.10693663
194	0xbd9d5b82	-0.07683469
195	0xbf03a7ed	-0.5142811
196	0x3e9276dd	0.2860631
197	0x3c37c8a2	0.011217268
198	0xbceb3f6e	-0.02871677
199	0x3e125332	0.14289549
200	0xbd941449	-0.072304316
201	0x3db7bdcc	0.08971748
202	0x3dc82c99	0.09774131
203	0x3dbf4487	0.093392424
204	0x3db53197	0.08847349
205	0x3e261331	0.16218258
206	0x3e1b4733	0.15163879
207	0x3e7f70f5	0.24945433
208	0x3d8332ba	0.0640616
209	0xbe149221	-0.14508869
210	0xbcd8c8bd	-0.026462907
211	0xbd315d03	-0.043301594
212	0xbd9a78c1	-0.07542563
213	0x3ca833bb	0.02053248
214	0x3c2bf788	0.010496028
215	0xbe89d1fd	-0.2691802
216	0xbf087ffd	-0.53320295
217	0x3dc921f5	0.0982093
218	0xbe80d297	-0.25160667
219	0xbedc0746	-0.429743
220	0x3dc12890	0.09431565
221	0xbde8cfa8	-0.11367732
222	0xbf0b4beb	-0.54412717
223	0x3e9a1188	0.300915
224	0x3df899bd	0.12138698
225	0xbcbe541a	-0.023233462
226	0xbd9b8ac0	-0.07594824
227	0xbdb77dd3	-0.08959546
228	0xbe17488e	-0.14773771
229	0xbdad437a	-0.08460136
230	0x3dbc3fc8	0.09191853
231	0xbe1b171d	-0.15145536
232	0x3df6bcfa	0.12047763
233	0x3d8b00dc	0.06787273
234	0x3e5e71e1	0.21723129
235	0xbdf4f5db	-0.11960956
236	0x3d0e4b97	0.034740057
237	0xbd5d8955	-0.05408605
238	0x3af0de23	0.0018376749
239	0xbd33ed01	-0.043927196
240	0xbcf1863d	-0.029482955
241	0xbdfdf498	-0.12400168
242	0x3d622075	0.055206735
243	0xbe8af2f1	-0.27138475
244	0xbd8922f6	-0.066961214
245	0x3e5395b7	0.2066258
246	0xbde3ed12	-0.11129202
247	0xbda6505d	-0.08120797
248	0x3df32dbd	0.11873958
249	0xbdab6c18	-0.083702266
250	0x3cb5a558	0.022173569
251	0x3e2f1de1	0.17101242
252	0x3d6ebac5	0.058283586
253	0xbd9ca20e	-0.07648097
254	0xbdcb6246	-0.099308535
255	0xbd5d3d57	-0.054013576

conv2.bias f4 [16]
0	0xbd4b3345	-0.04960944
1	0xbe2f31db	-0.17108862
2	0x3d2a804f	0.04162627
3	0xbdb8bc6c	-0.090203136
4	0xbe27e068	-0.16394198
5	0xbe869ee3	-0.26293096
6	0xbe574fab	-0.21026485
7	0xbd2bcf6c	-0.04194586
8	0xbd4c4993	-0.049874853
9	0xbdcadab8	-0.099049985
10	0xbd930134	-0.07177964
11	0xbcca194f	-0.024670271
12	0xbcfb8aed	-0.030705893
13	0xbe057146	-0.13031492
14	0x3d554c98	0.052075
15	0xbe110ca7	-0.14164983

conv3.weight f4 [16, 16, 8, 1]
0	0xbe201114	-0.15631515
1	0xbdac070d	-0.08399782
2	0xbd59cc53	-0.053173374
3	0xbd0777dc	-0.03307329
4	0xbe36398c	-0.1779539
5	0xbeb47eaa	-0.35252887
6	0xbe56d317	-0.20978962
7	0x3e3286cb	0.17434232
8	0x3e4f912d	0.20270224
9	0x3e1a2c02	0.1505585
10	0x3e700e64	0.2344299
11	0x3dd0875c	0.10182068
12	0x3e611497	0.2198051
13	0x3eace86e	0.3377108
14	0xbe7ed544	-0.24886042
15	0xbea77b6d	-0.32711354
16	0x3d9de70d	0.07710085
17	0x3e2e9d8f	0.17052291
18	0x3e8445f1	0.2583461
19	0x3e66ceb3	0.22539787
20	0x3d8f27dd	0.06990025
21	0x3d06be34	0.032896236
22	0xbe8cc185	-0.27491394
23	0xbe1e1522	-0.15437749
24	0xbe7952cb	-0.2434799
25	0xbd80eb5d	-0.06294892
26	0xbcd99af9	-0.026563155
27	0xbd18147b	-0.037128907
28	0xbc44569f	-0.011983543
29	0xbe43a558	-0.19106042
30	0x3e1bc12e	0.15210411
31	0xbce56df7	-0.028006537
32	0xbb32c0cd	-0.0027275563
33	0x3d0194e6	0.03163614
34	0x3d873ee0	0.06603789
35	0x3dc1032b	0.09424432
36	0x3e05fe7e	0.13085362
37	0x3e6c371d	0.23067899
38	0x3dc785ac	0.09742293
39	0x3dd40f15	0.10354439
40	0xbe9335ca	-0.28751975
41	0x3c80d765	0.015727708
42	0xbd0efcff	-0.034909245
43	0x3cd90312	0.026490722
44	0xbde1b8f3	-0.110216044
45	0xbdd9c38b	-0.10633
46	0xbf0af020	-0.5427265
47	0x3c1216b4	0.008916546
48	0x3dbe8823	0.0930331
49	0x3de452dd	0.111486174
50	0x3bd170dd	0.006391628
51	0xbdbe2d7a	-0.09286018
52	0x3cc148be	0.023594256
53	0x3d9775a5	0.07395486
54	0xbdce0239	-0.10059018
55	0xbd99c1f6	-0.07507698
56	0x3df04495	0.11731831
57	0xba833439	-0.001001007
58	0x3d9baace	0.07600938
59	0xbd6781ca	-0.05652026
60	0xbd93849c	-0.072030276
61	0xbe778f46	-0.24175748
62	0x3dcc316a	0.099703625
63	0x3ca6ff4b	0.020385405
64	0x3da12a13	0.07869353
65	0x3ca75bdb	0.020429542
66	0x3e0c6e15	0.13713868
67	0x3dd911be	0.10599087
68	0xbdcf3d67	-0.101191334
69	0xbd7495f5	-0.059713323
70	0x3f2f30f7	0.6843409
71	0xbda0bacf	-0.07848131
72	0xbe01b67e	-0.12667271
73	0xbde4d351	-0.11173118
74	0xbdce7f0d	-0.10082827
75	0xbdc4672d	-0.09589992
76	0xbda5e886	-0.08100991
77	0xbd98d64d	-0.0746275
78	0xbead7d90	-0.3388486
79	0x3ead6c4a	0.3387168
80	0x3e56c2ae	0.20972702
81	0x3dd0ae3d	0.10189483
82	0x3da450b4	0.080232054
83	0xbd954a8c	-0.07289609
84	0xbd2bcd6f	-0.041943964
85	0xbd09b82a	-0.0336229
86	0x3eaac832	0.33355862
87	0xbdc671ad	-0.09689651
88	0xbdac97a4	-0.08427361
89	0xbcdbccd3	-0.026831066
90	0xbcf18a06	-0.02948476
91	0xbcda3c61	-0.026640119
92	0x3e11e9d2	0.14249352
93	0xbea81a8e	-0.3283276
94	0xbf282b6f	-0.65691274
95	0x3e600239	0.21875848
96	0xbd13134b	-0.03590707
97	0xbe28a400	-0.16468811
98	0xbe40d4cc	-0.18831176
99	0xbda1470b	-0.078748785
100	0xbdd78cf7	-0.10524934
101	0xbe9b32f8	-0.30312324
102	0xbca84411	-0.02054027
103	0x3e353392	0.17695454
104	0x3d5db499	0.05412731
105	0x3e3755d3	0.17903833
106	0x3e6d2f9a	0.2316269
107	0x3e23fe9d	0.16015096
108	0xbc342296	-0.010994574
109	0x3e6bab36	0.2301453
110	0x3eb3f1d9	0.35145453
111	0xbe8ce773	-0.27520332
112	0x3e6a877c	0.22903246
113	0x3e3ac2fa	0.1823844
114	0x3e1fb65b	0.15596907
115	0x3e1f928e	0.1558325
116	0xbc115443	-0.008870187
117	0x3d4a7cb8	0.049435347
118	0xbd97b31f	-0.074072115
119	0x3d66076d	0.056159426
120	0xbe00237a	-0.12513533
121	0xbd9365fa	-0.07197185
122	0xbca17033	-0.019706821
123	0xbe0ce356	-0.13758597
124	0xbe07f13a	-0.13275614
125	0x3cb9f2f9	0.022698866
126	0x3d820c56	0.06350009
127	0x3d3dd575	0.046346147
128	0xbdec8f6e	-0.115507945
129	0xbd95785a	-0.07298346
130	0xbdc0d4b9	-0.094155736
131	0x3d3d33c1	0.046191934
132	0x3c29bc69	0.010359862
133	0xbca7820b	-0.020447752
134	0x3ea3e9e3	0.3201438
135	0x3d825002	0.063629165
136	0x3c95db81	0.018293144
137	0x3dae8500	0.085214615
138	0x3dc25668	0.09489137
139	0x3d855f30	0.06512296
140	0x3e0057cf	0.12533496
141	0x3e96be0f	0.29441878
142	0xbe92d0ce	-0.2867493
143	0xbe1f68ed	-0.1556737
144	0xbce370d2	-0.027763758
145	0xbd51f707	-0.051260974
146	0x3d56ee8d	0.052473594
147	0x3d8c18e6	0.068406865
148	0xbdbbd300	-0.091711044
149	0x3dfb4e93	0.12270846
150	0xbe40b7e0	-0.18820143
151	0xbd3b0bc7	-0.04566553
152	0x3df371d3	0.118869446
153	0x3dd194c7	0.10233455
154	0xbd2b4c28	-0.041820675
155	0xbdac399f	-0.08409428
156	0xbe39f29d	-0.18158956
157	0xbe8e48a2	-0.2778979
158	0xbdeeb28c	-0.11655149
159	0xbeca6b98	-0.39535213
160	0xbdb0ecf6	-0.08638947
161	0x3c877209	0.016533868
162	0xbd58d47f	-0.052937027
163	0xbc0bac8a	-0.008525023
164	0xbddbaf00	-0.10726738
165	0x3dfc15a7	0.12308817
166	0xbe92f375	-0.28701368
167	0xbd620309	-0.055178676
168	0x3c11c569	0.008897164
169	0xbcc2f0df	-0.023796497
170	0xbdae1d0c	-0.08501634
171	0xbe122e04	-0.14275366
172	0xbd3b1c04	-0.045681015
173	0xbdfba37b	-0.12287041
174	0xbf131465	-0.57452995
175	0xbdc16e2a	-0.0944484
176	0xbd9846bc	-0.074353665
177	0x3c8b0a00	0.016972542
178	0xbd3616a7	-0.044455197
179	0xbcdf8d8c	-0.027289174
180	0x3d40fc7d	0.04711579
181	0x3dcfeaa3	0.10152175
182	0x3e38ff75	0.18066199
183	0xbc7be669	-0.015374758
184	0x3c3baf95	0.011455436
185	0x3d2cb7f0	0.042167604
186	0xbd0f178c	-0.034934565
187	0x3d89c9e8	0.06727964
188	0x3d0111d5	0.031511147
189	0x3e1ffd9b	0.15624087
190	0x3e196b05	0.14982231
191	0x3d82bb55	0.06383387
192	0xbd74ac80	-0.05973482
193	0x3d99107d	0.07473848
194	0x3e168116	0.1469768
195	0x3dcddccc	0.10051879
196	0x3dca34d2	0.09873356
197	0x3deba253	0.1150557
198	0x3f1f9575	0.6233743
199	0xbdf9b1bf	-0.121921055
200	0xbc51caf3	-0.0128047345
201	0xbba6f02a	-0.0050945478
202	0x3a422ffa	0.0007407662
203	0xbd5d8032	-0.054077335
204	0x3c833412	0.01601604
205	0x3e218a6c	0.1577546
206	0xbe886751	-0.26641324
207	0x3ee24586	0.44193667
208	0x3d012e66	0.03153839
209	0xbd3b6b48	-0.04575661
210	0xbd8fa3a5	-0.070136346
211	0xbd837b55	-0.06420008
212	0xbda46eb7	-0.0802893
213	0xbe727ae8	-0.23679698
214	0x3eee3ac9	0.46529225
215	0xbebd6915	-0.36994234
216	0x3dc3fe5e	0.09570001
217	0x3e04b0a8	0.12958014
218	0x3dc3d837	0.09562724
219	0x3e09b98c	0.13449687
220	0x3d9dd137	0.0770592
221	0x3d89738d	0.06711493
222	0xbdf77454	-0.12082735
223	0x3dd83756	0.105574295
224	0xbd01d0f3	-0.03169341
225	0xbcdf6b9e	-0.027272996
226	0xbd04bc76	-0.032406293
227	0xbd884d3c	-0.06655356
228	0xbdfb3af9	-0.122671075
229	0xbd2d2995	-0.042275984
230	0xbe006561	-0.12538673
231	0x3e57d6b1	0.21077992
232	0x3c693fd2	0.014236407
233	0x3d7ba82d	0.06143968
234	0x3d693a6c	0.05694048
235	0x3cc59821	0.024120392
236	0x3dd39193	0.103305005
237	0xbdd6dbf8	-0.104911745
238	0x3dec5359	0.11539335
239	0xbe9e51bc	-0.30921733
240	0x3d79d13f	0.06099057
241	0xbcf63e20	-0.03005892
242	0xbbe67900	-0.0070334673
243	0x3d9583b7	0.07300513
244	0xbbf41164	-0.007448362
245	0x3d4cd1f1	0.050004903
246	0xbe703c22	-0.23460439
247	0x3e31975a	0.17342892
248	0xbc859ab3	-0.016309118
249	0xbb446ef6	-0.0029973364
250	0x3d9c4cef	0.076318614
251	0x3d968c1a	0.07350941
252	0xbd2a4c68	-0.041576773
253	0x3e4e742d	0.20161505
254	0x3e2b1c67	0.16710053
255	0x3ec1aeda	0.37828714

conv3.bias f4 [16]
0	0xbbeeca2d	-0.007287285
1	0x3df23ec9	0.118283816
2	0x3dbb1968	0.09135705
3	0x3c33989d	0.010961679
4	0x3a29f78e	0.0006483727
5	0x3e828dff	0.2549896
6	0x3e20d445	0.15705974
7	0x3dfa86c5	0.122327365
8	0xbd0daa20	-0.034586072
9	0xbeaea42c	-0.34109628
10	0x3e8d66e4	0.27617562
11	0x3ec132ab	0.3773397
12	0xbc3abae9	-0.011397102
13	0x3d09ef03	0.033675205
14	0x3e5dcc1f	0.21659897
15	0xbb7d5e12	-0.0038660807

tcn.tcn.0.conv1.weight f4 [16, 16, 5]
0	0x3e2e99d0	0.17050862
1	0x3e4125b0	0.18862033
2	0x3e0757d9	0.13217105
3	0x3d8fb41a	0.070167735
4	0xbd612d1a	-0.054974653
5	0x3dea9c63	0.1145561
6	0x3d68bad3	0.056818794
7	0x3d81901d	0.063263156
8	0xbca02309	-0.019547956
9	0xbea2d73a	-0.3180483
10	0x3e0d178a	0.1377851
11	0x3d912174	0.07086459
12	0x3e44ca87	0.19217883
13	0xbd96bd89	-0.0736037
14	0xbd50cf1b	-0.05097876
15	0x3e5a2973	0.21304874
16	0x3e1b2d64	0.15154034
17	0x3df733d2	0.12070431
18	0x3da97c50	0.08275664
19	0x3e851ecd	0.26000062
20	0x3de89fab	0.11358579
21	0xbcb77f98	-0.022399709
22	0x3e927765	0.28606716
23	0x3e1934e4	0.14961582
24	0xbdfb8689	-0.1228152
25	0xbe0e3643	-0.13887887
26	0x3e25d890	0.16195893
27	0x3e463c43	0.19358926
28	0x3c265b50	0.0101536065
29	0x3e6c8f85	0.23101623
30	0xbd9c784c	-0.07640132
31	0xbbf4cf08	-0.007470969
32	0xbe23a1cf	-0.15979694
33	0xbdde645a	-0.10858984
34	0x3d94365b	0.0723693
35	0xbdf689f9	-0.12038035
36	0xbdc88b0c	-0.09792146
37	0xbd786e91	-0.06065232
38	0xbbf269a4	-0.0073978473
39	0xbe1bed63	-0.15227275
40	0xbda1f3c4	-0.07907823
41	0x3d0bd536	0.03413888
42	0xbd534d87	-0.051587608
43	0xbe22dba2	-0.15904096
44	0xbe0783ce	-0.13233873
45	0xbe38ad37	-0.18034826
46	0xbe4699ea	-0.19394651
47	0xbe6bc397	-0.2302383
48	0xbe8b1efa	-0.2717207
49	0xbda08bee	-0.078391895
50	0xbe13d4f9	-0.14436711
51	0xbc83696a	-0.016041476
52	0xbdd7d8b1	-0.105393775
53	0xbe8ec2d1	-0.27883008
54	0xbdfdca09	-0.12392051
55	0xbd9ec6f7	-0.07752793
56	0xbce2ecf8	-0.027700886
57	0x3c8e9618	0.017405555
58	0xbd9fabb8	-0.077964246
59	0xbcd2c354	-0.025727905
60	0x3dfd61a5	0.1237214
61	0x3d9825e7	0.07429104
62	0x3ea1b335	0.31582037
63	0xbd1db900	-0.038506508
64	0xbe2a64fa	-0.16640082
65	0xbdf38f56	-0.118925735
66	0xbdd62d81	-0.10457898
67	0xbda6ce6d	-0.08144841
68	0xbd84299a	-0.06453247
69	0xbdc0f53a	-0.09421773
70	0xbd9dfcc1	-0.077142246
71	0x3d8d6a71	0.06905068
72	0x3d2ad460	0.041706443
73	0x3db4bef1	0.08825482
74	0x3ded4aee	0.11586557
75	0x3c4f5d81	0.01265657
76	0xbdfdefc2	-0.12399246
77	0x3dbb69a6	0.0915101
78	0xbd51f8dc	-0.05126272
79	0xbdfcfdec	-0.12353119
80	0x3e7e6c64	0.24846035
81	0x3eb57508	0.3544085
82	0x3e0aba2d	0.13547583
83	0x3e599eba	0.21251956
84	0x3e23cb01	0.15995409
85	0x3e2d85ff	0.16945647
86	0x3eb5037c	0.3535422
87	0x3c6efe94	0.014587063
88	0x3e49b653	0.19698457
89	0x3ea16dda	0.31529123
90	0x3d10695c	0.03525673
91	0x3eacaff3	0.3372799
92	0x3e82a15a	0.25513726
93	0x3e873aa5	0.2641193
94	0x3ed34651	0.41264585
95	0xbd84548c	-0.064614385
96	0xbd2e414a	-0.042542733
97	0xbe87867a	-0.26469785
98	0x3da53436	0.08066599
99	0xbbaf1ee4	-0.0053442586
100	0xbebff2dd	-0.37489977
101	0xbe99d86b	-0.30047926
102	0xbc405851	-0.011739806
103	0xba93c454	-0.001127372
104	0x3dd4e1c0	0.10394621
105	0x3e28e326	0.164929
106	0x3e10d0e3	0.14142184
107	0x3daf6c36	0.085655615
108	0x3da05f2d	0.07830653
109	0x3d377499	0.04478893
110	0xbe8ef398	-0.27920222
111	0xbe5de0b6	-0.21667752
112	0xbd4d2062	-0.05007971
113	0x3d02f792	0.031974383
114	0x3ca449d7	0.02005474
115	0x3c2a0c73	0.010378945
116	0xbd086062	-0.033295043
117	0x3d750280	0.059816837
118	0x3e6f2ab7	0.23356138
119	0x3e5d8161	0.21631385
120	0x3d517864	0.051140204
121	0x3e542653	0.20717745
122	0x3cb11d20	0.021620333
123	0x3e51e004	0.20495611
124	0x3d8e1b90	0.06938851
125	0xbd0e69f6	-0.03476902
126	0xbe4e5e7b	-0.20153229
127	0xbe83c1e2	-0.25733858
128	0xbe526e8e	-0.20549986
129	0xbd22a11d	-0.03970443
130	0x3d83fdda	0.06444903
131	0x3cd8fe7e	0.026488539
132	0x3e25857e	0.16164204
133	0x3e469279	0.19391812
134	0x3e0bc4a7	0.13649236
135	0x3da13be7	0.078727536
136	0x3e5fa88a	0.21841636
137	0x3e1cba55	0.15305455
138	0x3dd04169	0.10168726
139	0x3e23de2d	0.16002722
140	0xbe084c51	-0.13310362
141	0xbdd613b0	-0.10452974
142	0x3bb05f00	0.0053824186
143	0xbd603bab	-0.054744404
144	0x3defe210	0.1171304
145	0x3d770f38	0.060317248
146	0x3ddb1276	0.106968805
147	0x3e16dea3	0.14733367
148	0x3e3ce489	0.18446554
149	0x3e75bae3	0.23997073
150	0x3e45f0bc	0.19330114
151	0xbc1eed01	-0.009700061
152	0x3d830bc0	0.063987255
153	0xbd1d0f8b	-0.0383449
154	0xbe0d4c3d	-0.13798614
155	0x3e088e43	0.13335519
156	0x3e262906	0.16226587
157	0xbddaa9a0	-0.10676885
158	0xbdffe275	-0.12494365
159	0x3e498605	0.1968003
160	0xbd01f3e5	-0.031726737
161	0x3e094b9a	0.13407746
162	0xbd2a4008	-0.04156497
163	0xbd563dcd	-0.05230503
164	0xbe574aa9	-0.21024574
165	0x3e52b9cb	0.20578687
166	0x3dacec2e	0.08443485
167	0x3de889b2	0.11354388
168	0xbdaf7a18	-0.085682094
169	0xbe243641	-0.16036321
170	0x3e0f7e1d	0.14012952
171	0x3d1b5939	0.037926886
172	0x3e0d2d8f	0.1378691
173	0x3cc4b409	0.024011629
174	0xbe519b98	-0.2046951
175	0xbdc12d01	-0.09432412
176	0x3ccf4ce4	0.025305219
177	0xbde9b345	-0.11411146
178	0xbdb04624	-0.08607128
179	0xbd01786c	-0.031608984
180	0xbd18dc3c	-0.037319407
181	0xbddc59cf	-0.10759317
182	0xbe079464	-0.132402
183	0xbc864706	-0.016391288
184	0xbd5ba4ce	-0.053623967
185	0x3e001beb	0.1251065
186	0x3e70cfd0	0.23516774
187	0x3d7e2d43	0.062054884
188	0xbd6c30be	-0.05766367
189	0xbcdfd666	-0.027323913
190	0x3d492554	0.049107864
191	0x3d0af226	0.033922337
192	0x3da6c0a2	0.081422105
193	0x3d9ef709	0.07761962
194	0x3eae0456	0.33987683
195	0x3cb8c4f6	0.022554856
196	0xbe475154	-0.19464618
197	0xbd046727	-0.032324936
198	0x3ba142a9	0.0049212766
199	0xbd0c5806	-0.034263633
200	0x3d3a786c	0.045525
201	0xbdc0908f	-0.09402572
202	0xbdcbe9ba	-0.09956689
203	0xbe1b170e	-0.15145513
204	0xbd9474e0	-0.07248855
205	0xbdabb65f	-0.08384394
206	0xbdbfdfd0	-0.09368861
207	0x3dbd2924	0.092363626
208	0x3e60cea9	0.21953835
209	0xbc12c424	-0.008957896
210	0x3e041639	0.12899102
211	0x3cb277b7	0.0217856
212	0xbddc72d8	-0.10764092
213	0xbdbb6692	-0.09150423
214	0xbe22d5a2	-0.15901807
215	0xbd3867b7	-0.045020785
216	0x3d365084	0.04451038
217	0x3e25897d	0.16165729
218	0x3e253247	0.1613246
219	0xbda171c7	-0.078830294
220	0xbe5f4891	-0.21805026
221	0xbe820a2d	-0.25398389
222	0xbcafb122	-0.021446768
223	0x3d8472e2	0.06467225
224	0xbe4b74e9	-0.19868816
225	0xbca92516	-0.020647567
226	0xbe03a129	-0.12854446
227	0xbe28fa5b	-0.16501753
228	0xbe1dc755	-0.1540807
229	0xbea558c0	-0.32294273
230	0xbea8c135	-0.32959905
231	0xbd3a578f	-0.04549366
232	0x3d886641	0.066601284
233	0x3d5151af	0.05110329
234	0xbce624b5	-0.028093675
235	0xbd9bb5e9	-0.07603056
236	0xbdfaa930	-0.12239301
237	0x3e0c2690	0.13686585
238	0xbdd605d7	-0.104503326
239	0xbebf5b52	-0.3737436
240	0xbee1fd99	-0.44138792
241	0xbe8aec7a	-0.27133542
242	0xbe201db6	-0.15636334
243	0x3e34aba0	0.17643595
244	0x3e3d82b4	0.1850689
245	0xbe1a2a64	-0.15055233
246	0x3d5f679d	0.054542173
247	0xbd232216	-0.03982743
248	0xbc88e60b	-0.016711256
249	0x3d8cd3e3	0.06876352
250	0xbe47fbb8	-0.19529617
251	0xbaedce16	-0.0018143083
252	0x3e3305a6	0.17482623
253	0x3cddc48b	0.027071258
254	0x3e854637	0.26030132
255	0xbc85d391	-0.016336234

tcn.tcn.0.conv1.bias f4 [16]
0	0xbc3ac2c1	-0.011398972
1	0xbbcbf87e	-0.006224691
2	0x3e44ba5e	0.19211718
3	0x3e31b4c6	0.17354116
4	0x3cdc2b72	0.026876185
5	0x3d8e13a0	0.06937337
6	0xbc81e7c0	-0.015857577
7	0xbe3fd422	-0.18733266
8	0xbc42b9f9	-0.01188516
9	0x3e3a76a4	0.1820932
10	0x3d13cc28	0.03608337
11	0xbd5d54db	-0.054036003
12	0x3e66b4de	0.22529933
13	0x3d65c792	0.05609853
14	0xbdd60284	-0.104496986
15	0x3db3eb99	0.08785171

tcn.tcn.0.conv2.weight f4 [16, 16, 1]
0	0x3d1d5e7f	0.038420197
1	0xbe039da7	-0.12853108
2	0x3e8b6af9	0.2723005
3	0x3da80f0b	0.08205994
4	0x3e3e8f49	0.18609346
5	0xbe1db1a5	-0.15399797
6	0x3d8df1a6	0.069308564
7	0x3e66089f	0.22464226
8	0x3e54b355	0.20771535
9	0xbd9bdaac	-0.07610068
10	0xbe0e144d	-0.13874932
11	0xbe4ce6e8	-0.20009959
12	0x3e5eb2dc	0.21747917
13	0xbdd319f3	-0.10307684
14	0xbdd51cdc	-0.10405895
15	0x3ed15c66	0.40890807
16	0x3d990544	0.074717075
17	0x3e4bf4a0	0.19917536
18	0xbd2a3e3f	-0.04156327
19	0x3e3d7476	0.18501458
20	0x3d98c1bf	0.07458829
21	0x3df476c0	0.11936712
22	0x3e524a50	0.2053616
23	0xbdda713a	-0.106661275
24	0xbd2fbe97	-0.04290637
25	0xbaeb6a14	-0.0017960691
26	0xbe35a180	-0.17737389
27	0xbdc68dfa	-0.09695049
28	0x3dd0e562	0.10200001
29	0xbe4d0cac	-0.20024365
30	0xbe26b3b5	-0.1627949
31	0x3ecde5a8	0.40214276
32	0x3d40ad27	0.04704013
33	0x3e60e610	0.21962762
34	0xbe24c0ce	-0.16089174
35	0x3e611e5d	0.21984239
36	0xb87f5bcc	-6.088223e-05
37	0xbd8ed4b8	-0.06974167
38	0x3bb78675	0.0056007453
39	0x3e025186	0.12726411
40	0x3d4a537b	0.04939602
41	0x3eafe385	0.3435327
42	0x3e455eac	0.19274396
43	0x3e489c48	0.19590867
44	0xbe13b01e	-0.14422652
45	0x3e9306c6	0.28716105
46	0xbdc2de8d	-0.095151044
47	0xbdcfeff3	-0.101531886
48	0x3e152a12	0.1456683
49	0x3e9f7ad1	0.3114839
50	0xbbb46d69	-0.005506207
51	0x3d65fa3d	0.05614685
52	0xbd70cc80	-0.058788776
53	0x3e6bd197	0.23029171
54	0x3e41024b	0.18848531
55	0x3d12ff7c	0.03588818
56	0xbe7dd91d	-0.24789853
57	0xbe85a332	-0.2610107
58	0xbd902ae6	-0.07039432
59	0xbe86fed2	-0.26366287
60	0x3e8d3b18	0.27584147
61	0x3dc81afd	0.097707726
62	0x3dc44c4a	0.095848635
63	0x3e387071	0.18011643
64	0x3e06a749	0.13149752
65	0x3e9719c4	0.29511845
66	0xbda3ff1b	-0.08007642
67	0x3b2f2963	0.002672755
68	0x3d7495a5	0.059713025
69	0x3d00d2eb	0.031451147
70	0xbddd98b8	-0.108201444
71	0xbf04d24d	-0.51883394
72	0xbe0960e8	-0.13415873
73	0xbee62071	-0.44946626
74	0xbd5a6561	-0.05331934
75	0xbe82a216	-0.25514287
76	0xbdf28841	-0.118423946
77	0x3df1f75c	0.11814758
78	0xbbd97321	-0.006636039
79	0x3dcd8d70	0.10036743
80	0xbc5e741c	-0.013577487
81	0x3d9f5a5b	0.07780906
82	0xbb85e682	-0.0040863166
83	0xbd9764c2	-0.07392265
84	0xbe93e8aa	-0.28888446
85	0x3c8d4dbb	0.017248979
86	0xbda53196	-0.080660984
87	0xbed0da06	-0.4079134
88	0x3e3cd8b5	0.18442042
89	0xbef81bf6	-0.48458833
90	0xbe025e16	-0.12731203
91	0xbf101461	-0.56281096
92	0xbd2572d5	-0.040392715
93	0x3ca2e047	0.019882334
94	0x3e77e742	0.24209312
95	0x3d2da6d2	0.04239542
96	0xbe15e138	-0.14636695
97	0xbe73313c	-0.2374925
98	0xbdafcdbc	-0.085841626
99	0xbe33ed69	-0.17571034
100	0xbb7e367f	-0.0038789806
101	0x3d1c7f8a	0.03820757
102	0xbe6deb30	-0.23234248
103	0xbde91428	-0.113807976
104	0xbe3450dc	-0.1760897
105	0x3e81250f	0.25223586
106	0xbe8a0fbc	-0.2696513
107	0xbe7f631d	-0.24940152
108	0x3d6de2bc	0.05807756
109	0xbeab5210	-0.33461046
110	0xbd15f797	-0.036613073
111	0xbda10dea	-0.07863982
112	0xbe621721	-0.22079135
113	0x3c96f64f	0.018427996
114	0x3b2a93e1	0.0026028084
115	0x3e02363c	0.12716001
116	0xbdb59b7a	-0.088675454
117	0x3e573b31	0.21018673
118	0x3e09d91f	0.13461731
119	0x3dfbd6a4	0.12296799
120	0x3e9c4681	0.3052254
121	0x3e1dbbb8	0.1540364
122	0x3d02034f	0.031741437
123	0x3e3c59c7	0.18393622
124	0x3e8ad1af	0.271131
125	0x3e948bd3	0.29012927
126	0xbea73f9e	-0.32665724
127	0xbe53a9c8	-0.20670235
128	0xbe4770a7	-0.19476567
129	0x3d91d450	0.071205735
130	0x3e87ff94	0.26562178
131	0x3c92e4cb	0.017931363
132	0x3d485431	0.048908416
133	0x3e11c1a3	0.14234023
134	0x3da31d70	0.07964599
135	0xbbf37f3b	-0.0074309385
136	0xbe078089	-0.13232626
137	0x3d820533	0.06348648
138	0x3dd643ec	0.10462174
139	0xbe0ffbcf	-0.14060901
140	0xbe3c41a4	-0.18384415
141	0x3de951e1	0.1139257
142	0xbeb66165	-0.3562118
143	0x3e93cc1d	0.28866664
144	0xbe01189b	-0.12607042
145	0x3ea6a660	0.3254881
146	0xbdba4a70	-0.09096229
147	0x3e0d3ee7	0.13793527
148	0x3e5b955e	0.21443698
149	0x3e913332	0.2835937
150	0x3e54c3bc	0.20777792
151	0xbd8fff43	-0.07031109
152	0xbdac4b1f	-0.08412766
153	0xbe3c0031	-0.18359448
154	0xbdb52d42	-0.08846523
155	0x3c99f7af	0.018794863
156	0xbe762c27	-0.2404028
157	0x3d8b2696	0.06794469
158	0xbeb53152	-0.3538919
159	0xbbe30046	-0.006927523
160	0xbe12d7f6	-0.14340195
161	0xbdae6207	-0.08514791
162	0x3dd73c38	0.10509533
163	0xbde21b7d	-0.11040399
164	0xbe0fd2b3	-0.14045219
165	0xbe0fe41e	-0.14051864
166	0xbb856725	-0.0040711337
167	0x3e5c1c70	0.21495223
168	0xbd008ee2	-0.031386264
169	0x3f1e8807	0.6192631
170	0xbe3b593b	-0.18295757
171	0x3f01e473	0.5073921
172	0x3e2db782	0.16964534
173	0x3d0eb147	0.034837034
174	0x3d69af39	0.05705187
175	0xbe8339e0	-0.25630093
176	0x3bfc7815	0.0077047446
177	0xbe39eeb5	-0.18157466
178	0xbe632547	-0.22182189
179	0x3e6fde13	0.23424558
180	0xbe27f20d	-0.16400929
181	0xbe6713ab	-0.22566096
182	0xbe287dec	-0.16454285
183	0x3e8df2cf	0.2772431
184	0xbd643841	-0.05571771
185	0x3f1e373e	0.6180304
186	0x3c8bf102	0.017082695
187	0x3e10dec1	0.14147474
188	0xbd2202a4	-0.0395533
189	0x3c8df2a6	0.017327618
190	0x3eb06349	0.3445075
191	0x3e5400b9	0.207034
192	0xbdec960a	-0.11552055
193	0xbeaf5b16	-0.3424918
194	0x3e2f4562	0.17116311
195	0xbd24c47e	-0.040226452
196	0xbe2a2400	-0.16615295
197	0xbd078222	-0.03308309
198	0xbe1025e9	-0.14076962
199	0x3ec8438f	0.39114043
200	0xbccdefb4	-0.025138713
201	0x3e948a9a	0.29011995
202	0xbde4d2d7	-0.11173027
203	0x3e9b9118	0.30384135
204	0x3e8295b5	0.25504842
205	0xbe3fc0af	-0.18725847
206	0x3dc1525e	0.094395384
207	0xbe1d0433	-0.15333633
208	0x3e430931	0.19046475
209	0x3e0b8167	0.13623582
210	0x3e839e40	0.25706673
211	0xbdad9044	-0.08474782
212	0xbd3d6079	-0.04623458
213	0xbe745970	-0.23862243
214	0x3cb1223d	0.021622771
215	0x3ed63b8c	0.41842306
216	0x3c896deb	0.016776046
217	0x3ec5ab3c	0.38607204
218	0xbe5943e9	-0.21217312
219	0x3d9d43d3	0.07678952
220	0x3e801372	0.25014836
221	0x3e603011	0.21893336
222	0xbe5aa1d7	-0.213508
223	0x3ea2a5d2	0.31767136
224	0x3d714ba5	0.05891003
225	0xbd72b5b5	-0.05925532
226	0xbd023562	-0.03178919
227	0xbe8cbb72	-0.2748676
228	0xbddad55f	-0.106852286
229	0x3c31ada2	0.01084462
230	0xbe13c602	-0.14431003
231	0x3ec99d92	0.3937803
232	0x3cb72e65	0.02236099
233	0x3f0d2bbe	0.5514487
234	0xbe878e1c	-0.26475608
235	0x3e50e88e	0.20401213
236	0xbd4d7ba1	-0.05016673
237	0xbbc46f33	-0.0059947013
238	0xbe745809	-0.23861708
239	0xbdbf5fce	-0.09344445
240	0x3d112e62	0.035444625
241	0xbea6baff	-0.32564542
242	0xbd9625b1	-0.07331408
243	0xbe7db894	-0.24777442
244	0x3defced3	0.117093705
245	0xbd845cbc	-0.06463
246	0xbdc8187b	-0.09770294
247	0xbd90072b	-0.07032617
248	0x3e719d72	0.23595217
249	0x3f3483c1	0.7051354
250	0xbe7ddee2	-0.24792054
251	0xbd421c8e	-0.047390513
252	0x3c8e8149	0.017395632
253	0x3e5756c6	0.21029195
254	0xbd8f01ec	-0.069827884
255	0x3eb60f1f	0.3555841

tcn.tcn.0.conv2.bias f4 [16]
0	0x3db3d98d	0.08781729
1	0x3cac77b0	0.021053165
2	0x3d73c195	0.059510786
3	0xbda2a30a	-0.079412535
4	0x3deb79ec	0.11497864
5	0x3d0ef4a7	0.034901287
6	0xbdcb6e6b	-0.0993317
7	0xbd3ca09a	-0.0460516
8	0xbe64f900	-0.22360611
9	0xbe19c7cf	-0.15017627
10	0x3cbd1797	0.023082538
11	0x3d71b8bc	0.059014067
12	0x3e30241a	0.17201272
13	0xbd09feb4	-0.03369017
14	0x3e480fc1	0.1953726
15	0x3d2a3452	0.041553803

tcn.tcn.0.res_conv.weight f4 [16, 16, 1]
0	0xbd1b2b9d	-0.03788339
1	0xbd8e02b6	-0.06934111
2	0x3d8f031a	0.069830135
3	0x3b1630f0	0.0022917353
4	0x3dbe4a7d	0.09291551
5	0x3e41ed47	0.1893817
6	0xbd45e934	-0.048318103
7	0xbdbc22d6	-0.09186332
8	0xbe1f4d45	-0.1555682
9	0x3e8f1227	0.27943537
10	0xbe70f434	-0.23530656
11	0x3dc46150	0.095888734
12	0xbd9267ca	-0.071487024
13	0x3df0f766	0.117659375
14	0x3e17874d	0.14797707
15	0xbb09e28c	-0.0021039573
16	0x3dae788b	0.085190855
17	0x3ea88625	0.32914844
18	0xbe0da694	-0.13833076
19	0x3e2017d7	0.15634094
20	0x3cbdc678	0.023165926
21	0xbde311e3	-0.11087396
22	0x3e03c2e4	0.12867314
23	0xbef7c132	-0.48389584
24	0x3db27c05	0.08715061
25	0xbd0b5de2	-0.03402508
26	0xbe2eb873	-0.1706255
27	0xbc01b4f2	-0.007916676
28	0x3e88f9bc	0.26753032
29	0xbdf9676f	-0.121779315
30	0xbe499e47	-0.19689284
31	0xbe6c942e	-0.23103401
32	0x3e389da5	0.18028887
33	0xbe7e1cd9	-0.24815692
34	0xbd811004	-0.06301883
35	0x3e80b304	0.25136578
36	0x3d98e414	0.074653774
37	0xbe8c32c0	-0.2738247
38	0x3eccd61e	0.40007108
39	0x3e3e08ca	0.1855804
40	0x3c24b525	0.010052954
41	0x3ece08dc	0.40241134
42	0x3e101268	0.14069521
43	0xbe97a0d1	-0.2961488
44	0xbeb38d0c	-0.35068548
45	0x3e8e9f5d	0.2785596
46	0x3e2f1096	0.17096171
47	0xbdb5610c	-0.08856401
48	0x3e84ad1d	0.25913325
49	0xbe9572d0	-0.29189157
50	0x3dff9f5a	0.12481566
51	0xbe01bb73	-0.12669162
52	0xbd0bd99d	-0.03414308
53	0xbd8b3722	-0.06797625
54	0xbd375df7	-0.044767346
55	0x3ec91318	0.3927238
56	0xbd94a78a	-0.07258518
57	0x3debad6e	0.115076885
58	0x3e7ce44b	0.24696462
59	0xbe553901	-0.20822527
60	0x3d38c715	0.045111734
61	0x3e9e7b57	0.30953476
62	0x3e3ee079	0.18640317
63	0xbda0984f	-0.078415506
64	0xbe7d9bc5	-0.24766453
65	0x3e922845	0.28546348
66	0xbd2b6d16	-0.04185208
67	0xbe84772a	-0.25872165
68	0xbc588b9a	-0.013216877
69	0x3dc2a81e	0.09504722
70	0xbe8b45ae	-0.272016
71	0xbe4a5fa9	-0.19763054
72	0xbd02876a	-0.031867422
73	0xbdfa651e	-0.12226318
74	0x3e798da3	0.24370436
75	0xbcfb6b97	-0.030690951
76	0x3e3cbf1d	0.18432279
77	0x3de8899d	0.11354373
78	0xbd8d9cec	-0.06914696
79	0xbd59f4b9	-0.0532119
80	0x3d670ae4	0.05640687
81	0x3e52d492	0.20588902
82	0xbe8763a3	-0.26443204
83	0xbdb4b0e9	-0.088228054
84	0xbe2b965a	-0.16756573
85	0x3ea1b0ae	0.31580108
86	0xbea560bb	-0.32300362
87	0x3c9a5a40	0.018841863
88	0x3d1b0557	0.03784689
89	0xbbdcd3cd	-0.006739116
90	0xbd28eff3	-0.04124446
91	0x3dad37ef	0.08457934
92	0x3d50cfd8	0.050979465
93	0xbc1a8f9f	-0.009433656
94	0x3d2b7cac	0.041866943
95	0x3e64614a	0.22302738
96	0xbeb59a02	-0.3546906
97	0x3e99a5ed	0.30009404
98	0x3dc5efdf	0.096648924
99	0xbe443625	-0.1916128
100	0x3e4d971b	0.20077173
101	0x3e2dc8dc	0.16971153
102	0xbe90acf0	-0.2825694
103	0xbdb5789e	-0.088608965
104	0xbe295a82	-0.16538432
105	0x3e3bfec9	0.18358912
106	0xbe9e0303	-0.30861673
107	0x3d78a53e	0.060704462
108	0x3d995900	0.074876785
109	0xbea01287	-0.31264135
110	0xbe097300	-0.13422775
111	0x3e25a8e6	0.16177711
112	0xbe043444	-0.12910563
113	0x3d8a2a61	0.067463644
114	0x3e6a152d	0.2285964
115	0x3eaf6bd9	0.3426197
116	0xbd95b7cd	-0.07310448
117	0x3e910c03	0.28329477
118	0x3ee662ae	0.44997162
119	0xbe756816	-0.23965487
120	0xbc8dedc0	-0.017325282
121	0xbdd8d772	-0.10587968
122	0xbe883eb5	-0.26610342
123	0xbd683224	-0.056688443
124	0xbc274b85	-0.010210876
125	0xbe87c09a	-0.2651413
126	0xbdad189f	-0.08451962
127	0xbe2a32ce	-0.16620943
128	0xbe4eb7dc	-0.20187324
129	0x3da19f82	0.07891752
130	0x3e85fa19	0.26167372
131	0xbea76525	-0.32694355
132	0xbea08c7d	-0.31357184
133	0xbd80da5c	-0.06291649
134	0xbddf27d4	-0.108962685
135	0xbdd204d8	-0.1025483
136	0xbda041be	-0.07825039
137	0x3f5d1382	0.8635789
138	0x3e83331b	0.25624928
139	0x3e0937fa	0.1340026
140	0xbe571e5e	-0.21007678
141	0xbe37f1ef	-0.17963384
142	0xbe249f75	-0.16076453
143	0x3ec2b9cb	0.38032374
144	0x3eafdda7	0.34348795
145	0x3c271194	0.010197062
146	0x3e1cf1b9	0.15326585
147	0xbdf41959	-0.11918897
148	0xbde47263	-0.1115463
149	0xbe0c8ead	-0.13726301
150	0x3e93fcca	0.289038
151	0x3e238b08	0.15971005
152	0xbda066f0	-0.07832134
153	0x3e7e502b	0.24835269
154	0x3d995c14	0.07488266
155	0x3e50c513	0.20387678
156	0xbe515ff6	-0.20446762
157	0x3e9bd244	0.30433857
158	0x3d03457e	0.032048695
159	0xbe86f0c0	-0.26355553
160	0x3cb22c51	0.021749647
161	0xbe295dce	-0.1653969
162	0xbe20349c	-0.15645069
163	0xbe895b4c	-0.26827466
164	0xbdb4ca92	-0.088277
165	0xbeb909c8	-0.36140275
166	0x3e2e1689	0.17000784
167	0x3e1d907d	0.15387149
168	0xbe6ca59a	-0.23110047
169	0x3ec6f1d5	0.38856378
170	0xbde4d131	-0.111727126
171	0xbefa59f6	-0.4889676
172	0xbce78836	-0.028263193
173	0xbe8cf1d8	-0.27528262
174	0x3e9c5bb3	0.3053871
175	0xbe4af27b	-0.19819061
176	0xbee129b7	-0.43977138
177	0xbe8cdb2a	-0.2751096
178	0xbe4bfc6e	-0.19920513
179	0xbe08829c	-0.13331074
180	0x3d10d4d1	0.035359208
181	0xbea1ba19	-0.31587294
182	0xbe979e38	-0.296129
183	0xbdb72a17	-0.08943575
184	0x3d67c05c	0.056579933
185	0xbe8a91f3	-0.27064475
186	0xbe61a0e4	-0.22034031
187	0xbdb2f006	-0.08737187
188	0x3dbe6966	0.09297447
189	0x3c9a280a	0.01881792
190	0xbca18c57	-0.01972024
191	0xbe2bfc8b	-0.16795556
192	0x3d40345c	0.046924934
193	0x3eb84532	0.35990292
194	0x3d488c95	0.048962194
195	0xbc0d5c11	-0.008627907
196	0xbdbbfa26	-0.091785714
197	0xbd050fb0	-0.032485664
198	0xbe955212	-0.29164177
199	0xbe00545d	-0.12532182
200	0x3e64c376	0.22340187
201	0x3e005d7d	0.12535663
202	0xbe772c74	-0.24138051
203	0x3ddc7f37	0.10766452
204	0x3dfcac33	0.12337532
205	0xbe0a9b73	-0.13535862
206	0xbd8f758e	-0.07004844
207	0x3e8157e2	0.25262362
208	0x3eac80b0	0.3369193
209	0x3eb15e10	0.34642076
210	0x3e3f2707	0.18667232
211	0x3ec73771	0.38909486
212	0xbe1b5f6e	-0.15173122
213	0x3e88fe5c	0.2675656
214	0x3e60586b	0.21908729
215	0x3d004334	0.03131409
216	0x3e107180	0.14105797
217	0xbabe64d2	-0.0014525896
218	0xbd7325b5	-0.059362132
219	0xbe91f83f	-0.2850971
220	0x3dafb563	0.08579519
221	0xbe3ee1ce	-0.18640825
222	0x3d85d204	0.06534198
223	0xbe4a2b3e	-0.19743058
224	0xbd8da4a9	-0.06916172
225	0xbe6a9cec	-0.22911423
226	0x3d4d9b98	0.050197214
227	0x3d9b03fc	0.07569119
228	0xbe1059a3	-0.14096694
229	0xbd8a7f12	-0.06762518
230	0x3e70c198	0.2351135
231	0xbce04805	-0.027378092
232	0xbe111535	-0.14168246
233	0x3df53a29	0.11973984
234	0xbde9e2f0	-0.11420238
235	0x3bbfe01d	0.005855574
236	0x3e0096fd	0.12557597
237	0x3ddd0420	0.107918024
238	0x3bf7c88e	0.00756175
239	0x3cd7d07f	0.026344536
240	0xbe88c2bb	-0.26711068
241	0xbd4124c3	-0.0471542
242	0xbda93c01	-0.08263398
243	0xbe4f11b4	-0.20221597
244	0x3e4bb4e9	0.1989323
245	0x3e2dfb2e	0.16990349
246	0xbe5b7fc4	-0.21435457
247	0x3de6c2ff	0.11267661
248	0xbdb16290	-0.086613774
249	0xbcb14ef1	-0.021644088
250	0xbea3c1d9	-0.31983832
251	0xbd66552c	-0.05623357
252	0x3e033dc9	0.12816538
253	0x3daae209	0.08343894
254	0xbe209bad	-0.15684386
255	0x3e05dde6	0.13072929

tcn.tcn.0.res_conv.bias f4 [16]
0	0x3e91236a	0.2834733
1	0xbdf0c669	-0.11756594
2	0xbe6bddb4	-0.23033792
3	0x3ce34f2e	0.027747717
4	0xbe0d242f	-0.13783334
5	0xbe1fc1ea	-0.15601316
6	0xbe5315bc	-0.2061376
7	0xbe284b92	-0.16435078
8	0xbd7ecd81	-0.062207703
9	0x3e0d5a1d	0.13803907
10	0xbdc0184d	-0.09379635
11	0x3e086ab2	0.13321951
12	0xbd249ac6	-0.040186666
13	0xbe951494	-0.29117262
14	0x39fac3c3	0.0004782957
15	0x3d6cfc23	0.057857644

tcn.tcn.1.conv1.weight f4 [16, 16, 5]
0	0xbd20b2bb	-0.03923295
1	0xbe385abf	-0.18003367
2	0xbe002ac2	-0.12516311
3	0xbe6c054c	-0.23048896
4	0xbe90eb07	-0.28304312
5	0x3e4e5c98	0.20152509
6	0xbece6855	-0.40313974
7	0xbe4ee649	-0.20205034
8	0xbdbb1b8d	-0.09136114
9	0x3e41cc61	0.1892562
10	0x3dea5890	0.11442673
11	0x3edd44fa	0.43216687
12	0xbdadd52c	-0.08487925
13	0xbe8d87a5	-0.2764255
14	0xbe6089e0	-0.21927595
15	0x3ce40566	0.027834605
16	0xbde52e3c	-0.11190459
17	0xbde91c81	-0.1138239
18	0xbd8d14a2	-0.06888701
19	0xbe8b590f	-0.27216384
20	0x3aecf255	0.0018077592
21	0xbdf0526e	-0.11734472
22	0x3e5e37a6	0.21700916
23	0x3e8684ba	0.26273137
24	0x3e994106	0.2993242
25	0x3d79ea31	0.061014358
26	0xbc912355	-0.017717043
27	0x3e7789eb	0.24173705
28	0x3b3b8ad1	0.0028616677
29	0x3e8be579	0.2732351
30	0x3d8628f3	0.06550779
31	0xbdae8139	-0.08520741
32	0x3e401786	0.18758973
33	0x3e97e54f	0.29667136
34	0x3ef040c9	0.46924427
35	0xbdf2a950	-0.118487
36	0xbe505c2b	-0.2034766
37	0xbee431bb	-0.4456919
38	0xbec90791	-0.39263585
39	0xbe259da4	-0.16173416
40	0xbe66dfa7	-0.22546254
41	0x3e48dc23	0.19615225
42	0x3e88250c	0.26590765
43	0x3e04907d	0.12945743
44	0x3d6801ee	0.056642465
45	0xbe0e7e0f	-0.13915275
46	0xbd5942bc	-0.05304216
47	0x3ca06446	0.019579064
48	0xbdc9d310	-0.0985471
49	0xbdc52758	-0.09626645
50	0x3df984f2	0.121835604
51	0x3e637ad6	0.22214827
52	0xbe00a781	-0.12563898
53	0xbe9b4108	-0.30323052
54	0xbe82ebeb	-0.25570616
55	0x3e742fa7	0.23846303
56	0xbc2f1c4b	-0.010687898
57	0xbe9da127	-0.30787012
58	0x3dd4c91c	0.10389921
59	0xbc0c8cd7	-0.008578501
60	0x3be98538	0.0071264766
61	0x3e101ca0	0.1407342
62	0x3c2021bc	0.009773668
63	0x3d35d593	0.044393133
64	0x3e2b1f8c	0.16711253
65	0x3ecc3154	0.39881384
66	0x3d072084	0.032989994
67	0xbe651f35	-0.22375186
68	0xbe30211e	-0.17200133
69	0x3a793cf2	0.0009507678
70	0x3e543fd1	0.20727469
71	0x3e0bd8ce	0.13656923
72	0x3df7466b	0.12073978
73	0x3d7f5bd8	0.06234345
74	0xbd88c447	-0.06678062
75	0x3f057595	0.5213254
76	0x3d7b43a0	0.06134379
77	0x3d8cee82	0.06881429
78	0x3e77d979	0.24204053
79	0x3e37b6cb	0.17940824
80	0xbe3795a4	-0.17928177
81	0xbe58039a	-0.21095124
82	0xbd2a6554	-0.04160054
83	0xbe3d7df3	-0.18505077
84	0xbe6a4aab	-0.22880046
85	0xbdfdda77	-0.123951845
86	0x3e400b0a	0.18754211
87	0xbdf87004	-0.1213074
88	0x3d8652d8	0.0655877
89	0xbe985143	-0.29749498
90	0xbeab964d	-0.33513108
91	0xbdb99d3c	-0.09063193
92	0xbe9d06e7	-0.3066933
93	0xbe55f209	-0.2089311
94	0xbe6b23f4	-0.22962934
95	0x3df0aa58	0.117512405
96	0xbe7be6cb	-0.2459976
97	0xbeb447ff	-0.3521118
98	0xbe574077	-0.21020685
99	0xbdffa815	-0.12483231
100	0x3ebe4f7f	0.37170026
101	0x3b2adebd	0.0026072704
102	0xbddf029e	-0.10889171
103	0x3e0c2abc	0.13688177
104	0x3e351860	0.1768508
105	0x3e055309	0.13019957
106	0xbe832e4c	-0.2562126
107	0xbecdb938	-0.40180373
108	0xbd6d3d6b	-0.0579199
109	0x3eec1dcd	0.46116486
110	0x3da05786	0.07829194
111	0x3dbcfc1e	0.09227775
112	0x3e8b9b33	0.27266845
113	0x3ebd48fe	0.3696975
114	0x3ebdcd6a	0.3707078
115	0xbedaa972	-0.42707402
116	0xbd6d1cb9	-0.05788872
117	0xbe6b7ae3	-0.22996096
118	0xbdfd2572	-0.12360658
119	0x3cc82018	0.024429366
120	0xbe23339e	-0.15937659
121	0x3c52183a	0.012823159
122	0xbecc20df	-0.3986883
123	0xbe52f413	-0.2060092
124	0x3e62c0c3	0.22143845
125	0x3d1df4da	0.038563587
126	0xbd52d418	-0.0514718
127	0xbe1ed444	-0.1551066
128	0xbdb9d179	-0.09073157
129	0xbd6000e0	-0.054688334
130	0xbe4bb96d	-0.19894953
131	0xbe57c9ba	-0.21073046
132	0x3e19d3a4	0.1502214
133	0xbb4467f5	-0.002996919
134	0xbd1aff2a	-0.037841
135	0x3e38650e	0.180073
136	0x3e8a0dc6	0.26963633
137	0x3ebc7e9d	0.36815348
138	0x3de431e3	0.11142328
139	0xbe3278ab	-0.17428844
140	0xbda6a7fb	-0.081375085
141	0xbc2775d9	-0.010220968
142	0x3ea1b45c	0.31582916
143	0xbdb94db3	-0.09048023
144	0x3cc5e886	0.024158727
145	0xbe73b2b1	-0.23798634
146	0xbe2baeb7	-0.16765867
147	0xbe52f22a	-0.20600191
148	0xbe22d280	-0.15900612
149	0xbd6753e9	-0.056476507
150	0xbc9edd1f	-0.019392548
151	0x3d253a34	0.04033871
152	0x3e73e508	0.23817837
153	0xbdd28ff6	-0.102813646
154	0x3cfb56ec	0.030681096
155	0x3d56c5af	0.05243462
156	0x3e31a142	0.17346671
157	0x3dc202ce	0.09473191
158	0x3d9b9c5d	0.07598183
159	0x3d9dacd4	0.0769898
160	0x3e289eb4	0.1646679
161	0x3d9d15f9	0.076702066
162	0x3db1ae6c	0.086758465
163	0x3e7b659e	0.24550483
164	0xbdbf7964	-0.09349325
165	0xbcf7253a	-0.030169118
166	0xbe3b74c9	-0.18306269
167	0x3d7353cd	0.05940609
168	0xbd49d797	-0.049277868
169	0x3e7e5dfe	0.24840543
170	0xbd921e4c	-0.07134685
171	0x3ca4b47c	0.020105593
172	0x3d5a448c	0.053288028
173	0xbe01b835	-0.12667926
174	0xbd9eefd0	-0.07760584
175	0xbe3bf4a1	-0.18355037
176	0xbe0d8150	-0.1381886
177	0xbe2c8937	-0.16849218
178	0x3e47ed49	0.19524111
179	0x3d5645bf	0.05231261
180	0x3ba47982	0.0050193677
181	0xbdd736cb	-0.10508498
182	0xbe7f5c29	-0.249375
183	0x3d8e51f1	0.06949223
184	0x3e28ec2b	0.16496341
185	0xbe0ab396	-0.13545069
186	0xbdd786bf	-0.10523748
187	0xbd5f0d4d	-0.054456044
188	0x3c51c8a7	0.012804187
189	0x3e54cf49	0.20782198
190	0x3ebb42ad	0.36574307
191	0xbb237ec1	-0.0024947377
192	0x3d5adcb2	0.053433128
193	0xbdb1a4cd	-0.086740114
194	0xbc2005a2	-0.009766968
195	0xbe0f8c0f	-0.14018272
196	0x3de355aa	0.111003235
197	0x3dd678c3	0.10472252
198	0x3d981d0d	0.07427416
199	0xbc85ce5c	-0.016333751
200	0x3dc0694f	0.09395086
201	0xbddb06d5	-0.106946625
202	0xbe2a8051	-0.16650511
203	0xbd26c67b	-0.04071663
204	0x3e1f678c	0.15566844
205	0xbe1a2aaf	-0.15055345
206	0x3cd25860	0.025676906
207	0xbe74d4d2	-0.2390931
208	0xbe211ef4	-0.15734464
209	0x3e89ea87	0.26936743
210	0x3ea4f739	0.32219866
211	0x3e474775	0.19460852
212	0x3ceddf2b	0.029037079
213	0xbd8d6d8f	-0.06905662
214	0xbeb0edc8	-0.34556413
215	0x3ea49348	0.32143617
216	0x3e0f9a2e	0.14023659
217	0xbc040a18	-0.008059047
218	0xbda4a69a	-0.08039589
219	0xbe3b2e4a	-0.18279377
220	0x3e476d77	0.19475351
221	0xbddad0c5	-0.10684351
222	0x3e0906b4	0.13381463
223	0x3d73d72e	0.059531383
224	0xbd9e700c	-0.07736215
225	0xbbc95db2	-0.0061452026
226	0xbe078fd0	-0.13238454
227	0x3db1f0cc	0.086885065
228	0xba6f3a79	-0.00091258396
229	0xbda61c98	-0.081109226
230	0x3e523fca	0.20532146
231	0x3de077c2	0.10960342
232	0x3ddc8dd7	0.10769241
233	0xbda29783	-0.07939055
234	0xbe271925	-0.16318186
235	0x3eb4fe1a	0.35350114
236	0xbdad8640	-0.08472872
237	0x3db356cb	0.08756789
238	0x3d451355	0.04811414
239	0xbe5b8dc1	-0.21440794
240	0x3898e736	7.290991e-05
241	0xbcd08345	-0.02545322
242	0x3e9371e3	0.28797826
243	0x3ea6fa40	0.326128
244	0xbe102faf	-0.1408069
245	0xbc529ca9	-0.0128547335
246	0x3ce19738	0.027537927
247	0xbdba3e5c	-0.09093925
248	0xbde29f91	-0.11065591
249	0x3e359907	0.17734157
250	0xbd9bec6e	-0.07613455
251	0x3d0e60c8	0.034760267
252	0xbb3bd365	-0.0028659937
253	0xbe511166	-0.20416793
254	0x3d12e5cc	0.035863683
255	0x3ca4f5ba	0.020136703

tcn.tcn.1.conv1.bias f4 [16]
0	0xbe539768	-0.20663226
1	0xbe8e8fd1	-0.27844098
2	0x3db5b851	0.08873046
3	0x3e0127d8	0.12612855
4	0xbea0f045	-0.3143331
5	0xbe3c0a7d	-0.18363376
6	0x3d9f0716	0.077650234
7	0x3d91cb8c	0.071189016
8	0xbd5da11f	-0.054108735
9	0xbde9ec7e	-0.114220604
10	0xbe636b2c	-0.22208852
11	0x3dbeee33	0.09322777
12	0xbe77b17b	-0.24188797
13	0x3e54f63d	0.20797057
14	0xbd8dc10b	-0.06921586
15	0x3e0aecbd	0.13566871
