checkpoints/fine_tune/var_rf/giantsteps/0.4/model_mild-cherry-193_finetune_HAI_GTZ/it_5852_loss_3.0467_acc10.6_acc20.6.pt (torch, 436414 bytes, 211 tensors)

conv1.weight f4 [16, 1, 3, 3]
00000000: 24d0 7e3e ba29 9fbd 37e7 9dbe 4c52 a03e
00000010: 5e85 1abe 163c c3be 8946 823e fbfc 773e
00000020: 0757 68be 329a b03d 5cbc 17bf 4024 febe
00000030: 03a4 ac3e 9ad5 42be 6814 453e 8946 283e
00000040: f2a7 5e3e d3eb fc3d 6f10 45be adcc e43e
00000050: 0081 753e 908a 29be 8a4c b83e 4a44 5f3d
00000060: d4ea f3be 0485 d93d d9cb 8bbe 8678 93be
00000070: 1356 bdbd 1954 c93e b6c2 b7be 0ed3 da3d
00000080: 5af1 5f3e 3a3b d93e 0c71 cd3d 1e5e f2be
00000090: 16c5 9bbe c639 8fbe 4db1 71be 290e 09be
000000a0: c45c 6d3e 0261 a63e a706 67bd aeb4 7bbd
000000b0: a056 63be 53d1 88bd 31e4 d03d c323 4abd
000000c0: a2c0 56bf 2139 a23e 8136 023f 500f 69be
000000d0: f1ad a43e c1a6 d7bc 38e9 b33e ff4d 8c3d
000000e0: c3e0 4fbc 6c43 30be 73b4 073e 1c98 d9be
000000f0: 7d74 03be a5d3 eb3d 6f2d 82be 7dbe 013d
00000100: 1b9c 573d e941 9a3e 7d65 0cbf 12fc 87be
00000110: 6aa7 7ebe 986e 1d3e e05e d7bc adbf 123f
00000120: 4b5b d5be b99b 463d 76a1 bdbe 2413 babe
00000130: 5f0f d53e 93aa c33e f9ab 31be 3c45 cd3e
00000140: 1b40 013e deb4 31bf 07ef b73d 68e2 0d3f
00000150: 52eb 82bc a14d 70be 4ea2 4b3e 886f a6be
00000160: cd00 14b9 0a03 a23e 9110 06bf d042 ca3d
00000170: ae39 f03e a5ba 90be a91d 28be a272 d13e
00000180: 78ce 073e 9991 a8bd 1c36 89bc f201 433e
00000190: 993d e03e f56b febd bc32 953e e0a5 db3e
000001a0: 67aa 07be 555c bb3e 40b8 c33d 3694 9cbd
000001b0: cea0 553e 3df2 4a3e 31bd aa3d 8284 8ebe
000001c0: 35e3 92be 15ba 05bf 16b4 813e e2c8 a23e
000001d0: 8d04 18be e980 293d 8601 63be b58a bcbe
000001e0: f55f f13e 5fdd eb3e df1a 9a3e c057 90be
000001f0: ce33 ca3d 4b2b 16bf e73e b83e ab96 413e
00000200: 0e3d 04be f5ed dd3e 6bcf 86be 4025 8bba
00000210: 8752 3b3e 988e acbe 4e73 f9be 793b 49be
00000220: 44fc 9cbd ae21 913e 0215 dfbd 9649 af3d
00000230: 6bfb d83e 0b85 0abf c606 8dbe 27d3 f93e
0.24884087 -0.077716306 -0.30840465 0.31312788 -0.15089938 -0.3813178 0.2544444 0.24217598
-0.22689448 0.086231604 -0.5927179 -0.49637032 0.3371888 -0.19026795 0.19246066 0.16433157
0.21743754 0.123496674 -0.1924455 0.44687405 0.23974991 -0.16556764 0.35995895 0.054508485
-0.47640097 0.10621074 -0.2730396 -0.2880289 -0.09244933 0.39321974 -0.3589074 0.10684787
0.21869412 0.42428 0.100313276 -0.4733743 -0.30423802 -0.27973765 -0.23602791 -0.13384308
0.23179919 0.32495886 -0.05640283 -0.061451606 -0.22201014 -0.066805504 0.10199774 -0.04935051
-0.83887684 0.3168421 0.50864416 -0.22759748 0.32163957 -0.026324632 0.3513887 0.06850814
-0.012687865 -0.1721322 0.1325243 -0.42498863 -0.12837406 0.11514977 -0.25425288 0.031675804
0.05263911 0.3012841 -0.5484236 -0.26559502 -0.24868551 0.1537422 -0.026290357 0.57323724
-0.41671214 0.048488352 -0.37037247 -0.36342728 0.4161329 0.38216075 -0.17350759 0.40091884
0.1262211 -0.69416606 0.08981138 0.55423594 -0.01598135 -0.23467113 0.19886133 -0.32506967
-0.00014114678 0.31642944 -0.5236903 0.09876025 0.46919006 -0.28267398 -0.16417564 0.4090777
0.13262355 -0.082308955 -0.016749434 0.19043711 0.43796995 -0.12422935 0.2914027 0.4289999
-0.13248597 0.3659388 0.09556627 -0.076454565 0.20862123 0.19818969 0.08336867 -0.2783547
-0.2868897 -0.52237064 0.25332707 0.31793886 -0.14845486 0.041382704 -0.2216855 -0.36824575
0.47143522 0.4606733 0.30098626 -0.28191948 0.09873162 -0.5865981 0.3598549 0.18905132
-0.12913916 0.4334561 -0.26330122 -0.001061596 0.182932 -0.3370254 -0.48720783 -0.19651593
-0.07665303 0.28346008 -0.10892679 0.08558957 0.42379317 -0.5410926 -0.2754423 0.4879391

conv1.bias f4 [16]
00000000: 2632 3bbd 6a8c 4abc 4ac6 dbbd 634f 6cbd
00000010: feba 42be 48dd edbd 08af 9f3d 3518 9ebd
00000020: 9a9b 93bd 28f9 b83c 8df4 3dbd 05f3 82be
00000030: 8ac0 a13b abd7 f1bd fa26 9abd 6a2d b0bd
-0.045702122 -0.012362579 -0.1073118 -0.057692897 -0.19016644 -0.11614472 0.077970564 -0.07719461
-0.07207413 0.022579744 -0.0463758 -0.25576034 0.0049362825 -0.118087135 -0.075269654 -0.08602412

conv2.weight f4 [16, 16, 3, 3]
00000000: d9ac 82bd 5f11 c13d bbd2 b23d 11d2 8ebd
00000010: bf57 e0bd 4838 00be dc1e 93bb 5729 2d3e
00000020: 12c3 283e 23c9 d13c 4bbe 0ebd 5d3b 433c
00000030: f6ba 65bd d94a 0e3d 9f1d e7bd 7322 0bbd
00000040: 51aa 8c3d 7395 87be 2965 b43b 104f a4be
00000050: c7f3 08be 7cdc 683e c4ba aabe 8854 1ebe
00000060: 3c4a ae3e 0905 6abe 03db 14be dfb7 d3bd
00000070: 119d f33d 5b60 8e3e 96a1 cdbd 8c41 f63d
00000080: 77bb bd3e 937a f93e 84fc 0d3f 06ee 1a3f
00000090: b7eb e5bc 615d e2bc 49b1 3fbe 87d8 09be
000000a0: 6536 49be e14b 92be a608 25bd 411f 6bbe
000000b0: 6010 19be e9fd 9a3e 79f1 8ebc 2f34 0f3f
000000c0: 5b62 823e 6c64 25be 6d23 ab3e c5c8 223f
000000d0: ecb9 eb3c 5ae9 ed3e f498 a43d 87a9 0fbe
000000e0: df28 2dbe 82aa 19bd 69ae 15be 3887 8abe
000000f0: 9980 2fbd a897 cdbd cf10 93bd f06f 613e
00000100: 326d e23d 62a9 d2bd 270e c93d 35b5 2fbe
00000110: ae73 ebbe 9f60 bcbd b718 11be 0060 d4be
00000120: 0aee 083e 079b 44be ddbb 03bd 9d86 853e
00000130: 11dc 39be 3f32 a8bd ff42 8b3e ab1a 1ebe
00000140: e1b3 a4be 91d8 203c c242 553e 45d5 813e
00000150: 6328 513e d66f 9f3e 20d8 ac3e 4b47 943e
00000160: 54c6 053e 2a76 893e cc5f 2a3c 993f 44bd
00000170: c5da 893d d21a e2bc 5b64 91bd ad01 b43d
00000180: 89e7 843d c5c4 fdbc 1552 a33d 1cfd 72be
00000190: ab72 98be e827 9fbe 389a 66be e4bd 91be
000001a0: 7c8d a1be 601d 0fbe 22fe a9bd 1922 62be
000001b0: 8cc7 9dbd dcd9 99bd 95e2 39be 0996 f0bd
000001c0: 832b 39be 48b5 7fbe 8237 2bbd 23db 983c
000001d0: 9b6a c7bd c4a4 ca3c 0db6 14be 1850 50be
000001e0: 4aa2 96bc 2668 5ebe 48e7 a8be a6c2 b4bd
000001f0: 878b 21be 8f95 e5be be22 8bbe eda5 81be
00000200: 4ca2 24be 8432 61be 619f 7bbd ff4d d43d
00000210: e116 29bd 3104 6b3e e7cb 373d 3ae4 27bd
00000220: e33e bebd 707f f83d 8975 8fbd 433b 6dbd
00000230: ff4e f33d 55ad 023e 6ad7 09be 589f c53d
00000240: 6076 2a3e 4cbe 763d 0190 543e 23c3 4e3d
00000250: 0225 2a3e 1480 0f3e d7b9 5cbc 8a8a 963d
00000260: 0495 323d 2826 7b3e 239a 17be 76bf 8e3e
00000270: d072 e63c 15b3 edbd fc0c ff3d 51d6 5f3e
00000280: c2b2 04be b952 333d 072d a0bd fb15 3b3f
00000290: 36d4 2d3e 8ba5 19bf f381 9b3d c5da 17be
000002a0: 0d7d bfbe 8cfc 443e 17e6 26be 6589 bcbe
000002b0: c6db 59be 9922 7d3b 57ae 1bbd 525b 4f3c
000002c0: 7459 2a3e b4ef 8bbd 48ad 3c3c e0b6 6a3d
000002d0: 0345 453e 8bff 6a3e c23c 6b3e 5c88 a33d
000002e0: 4d80 123e ca98 0e3d 7271 993d ff79 083e
000002f0: 6cb4 4d3d ff4c a8be d9fa 913e 0200 f5bc
00000300: a18d bdbe d9f5 c43d b9fb aabd fd5c febe
00000310: e2d9 823e f031 6ebb bcfb 5d3d d5ab 623e
00000320: 231d 753c db0b b23d ada2 c73d 9dbd bf3d
00000330: a424 c73d 2ac8 363e 90aa 313e 0dd1 963e
00000340: 2ee8 903d 2b55 f3bd 8839 8d3d cfbb 9f3b
00000350: cfbf 233a 8f10 843b a494 53bc deee 8bbe
00000360: b339 ebbe 0bd7 903d b2f1 9bbe 27e7 9bbe
00000370: 52c0 ca3d a7c2 fcbd a8c2 dbbe 1b60 9f3e
00000380: 97aa 093e e583 823d daca 9bbd 9157 68bd
00000390: fd8b 9bbd 967e bdbd b30b cd3d 5943 dfbd
000003a0: 3468 dd3d eceb b33d 7c78 613e d6ff 0abe
000003b0: 634e f73c b9fa 50bd 4b80 cfbc af3e 8ebd
000003c0: 9b81 44bd 0e9b 25be 9741 f53c 4cce 3bbe
000003d0: 711c 083d 3c6a a33e 9e7a 41bd 4656 b23b
000003e0: 2bd9 6d3e 3c35 ae3c 2819 0f3e 6257 9c3e
000003f0: 8a8d 0a3e 5d9f 173b 6aaa aabb 901d 7abc
-0.06380624 0.094271414 0.087316 -0.06973661 -0.10954236 -0.1252147 -0.0044897627 0.16910301
0.16480663 0.025608605 -0.034849446 0.011916009 -0.056086503 0.03473935 -0.11284947 -0.0339684
0.06868423 -0.26481208 0.0055052233 -0.3209157 -0.13374244 0.22740358 -0.33345616 -0.15461934
0.3404101 -0.22853483 -0.14536671 -0.10337805 0.118951924 0.27807888 -0.10040586 0.12024221
0.37057087 0.4872633 0.55463433 0.60519445 -0.0280665 -0.027632417 -0.18719973 -0.13461505
-0.19649656 -0.28573516 -0.04029145 -0.22961141 -0.14947653 0.30271843 -0.017449128 0.55939
0.25465664 -0.16151589 0.33425465 0.635876 0.028775178 0.46467096 0.08036986 -0.14029513
-0.16910122 -0.037516125 -0.14617313 -0.2705629 -0.04284725 -0.10038692 -0.0718094 0.22015357
0.110559836 -0.102862135 0.098171525 -0.17158969 -0.45986694 -0.091981165 -0.14169584 -0.41479492
0.13372055 -0.19199763 -0.032161582 0.26079264 -0.18150355 -0.08212709 0.2719955 -0.1543986
-0.32168487 0.009817258 0.20826247 0.25358024 0.20425563 0.31140012 0.3375864 0.28960642
0.13063937 0.26847965 0.010398816 -0.047912214 0.0673118 -0.02760068 -0.070992194 0.08789382
0.06489474 -0.030977616 0.0797464 -0.23729366 -0.29774985 -0.31085134 -0.22519767 -0.28465188
-0.31553257 -0.1397605 -0.08300425 -0.2208332 -0.07704076 -0.075122565 -0.1815284 -0.11747367
-0.18083005 -0.24971497 -0.041800983 0.01865918 -0.0973713 0.02473677 -0.14522572 -0.20343053
-0.018387932 -0.21719417 -0.32988954 -0.08826189 -0.15775882 -0.44840667 -0.27174944 -0.25321904
-0.16077536 -0.21991926 -0.061431292 0.10366439 -0.041281585 0.22950818 0.04487219 -0.04098914
-0.092893384 0.12133682 -0.0700484 -0.057917845 0.11880302 0.12761433 -0.1346108 0.09649533
0.16646719 0.060240075 0.20758058 0.050479066 0.1661568 0.14013702 -0.013472042 0.07350643
0.043599144 0.24526274 -0.14804892 0.27880448 0.028130919 -0.11606423 0.124536484 0.21859099
-0.12958816 0.043780062 -0.07821088 0.73080415 0.16975483 -0.60018224 0.07593145 -0.14829548
-0.37400094 0.19236964 -0.1629871 -0.36823574 -0.21275243 0.0038625358 -0.03800806 0.01265605
0.16635686 -0.06832829 0.011515923 0.05730331 0.19264607 0.22949044 0.22972396 0.07984993
0.14306755 0.03481368 0.07492341 0.13327788 0.05022089 -0.32871243 0.28511694 -0.02990723
-0.37022117 0.09617204 -0.083487935 -0.4968032 0.25556856 -0.0036345683 0.05419515 0.22135861
0.01496056 0.086936675 0.09747825 0.09362338 0.097237855 0.17849794 0.1735022 0.29456368
0.07075535 -0.11881479 0.06895739 0.0048746835 0.0006246538 0.0040302943 -0.012913857 -0.2733068
-0.4594246 0.07072266 -0.30457836 -0.30449793 0.098999634 -0.123418145 -0.42921948 0.3112801
0.13443981 0.06372813 -0.0760705 -0.056724135 -0.0759506 -0.0925266 0.10011997 -0.109015174
0.10810891 0.08785233 0.22018617 -0.13574156 0.030188745 -0.051020358 -0.02532973 -0.0694555
-0.047975164 -0.1617243 0.029938502 -0.18340415 0.03323025 0.31916988 -0.047236077 0.0054424135
0.23227374 0.021265619 0.1397444 0.30535418 0.13530555 0.002313576 -0.005208303 -0.015265837

conv2.bias f4 [16]
00000000: 140a 3bbd 4583 4ebe 2f35 e2bb 8898 6abd
00000010: 395f 34be 160c 9abd bee6 97be 1971 e2bd
00000020: 7c81 5dbd baa9 23be fc9f d0bd 7dbf 143c
00000030: 459a e2bc 0a7e 03be 1b22 ea3c 5717 11be
-0.045663908 -0.20167263 -0.0069033126 -0.05727437 -0.1761445 -0.075218365 -0.2966823 -0.11056728
-0.054078564 -0.15982714 -0.101867646 0.0090788575 -0.027661452 -0.12841049 0.028580716 -0.1416906

conv3.weight f4 [16, 16, 8, 1]
00000000: 62a5 15bf 5682 8cbd 6e26 fdbd e456 98bd
00000010: ebec 42be 7a9b c7be e4a0 61be 854e f03d
00000020: 7182 833e ce9e 5b3e 052f 953e 3d7d c33d
00000030: 7176 543e f40d ba3e c302 32be 72bd 0bbf
00000040: bdb0 d53e 5a5a 073e c27f 843e f61f 2c3d
00000050: c866 443d ae4b 2d3e b50d 83be e8d0 4cbe
00000060: be77 fbbe b978 49be 3cc5 6cbc be26 3c3d
00000070: d05c 583e cdd3 33bd 6c31 373e 3293 27bd
00000080: 8a03 bbbe e639 adbc 09b6 8d3d 8d0a 433e
00000090: 1ec3 893e 2c65 a83e 349a 333e 9f41 843d
000000a0: 0554 c3bd 957c 4cbd 828b e4bd 377f abbc
000000b0: a189 40bd eabe 243e b031 7dbe 1177 b7bd
000000c0: e16c 3a3e 9bfb 243e 8b5d 073e f5d0 2f3d
000000d0: 7979 1c3e 95b9 0f3e 576c e5bd 0705 d3bd
000000e0: e375 c03e c044 ff3d 843a 043e 97b9 bcbd
000000f0: 9bb6 3fbd 26a2 4dbe 8411 d63b 51cf 1bbe
00000100: eaac 98be b8ed 423d 83c3 6d3e 83af b93d
00000110: ad9a c8bd 70a5 65be c491 fd3e 4db5 88be
00000120: 6b59 723e e55f d93c e282 11be 8828 aebd
00000130: 4f50 003c 4434 053e 14ce c0be 977f e73d
00000140: 9077 9f3e 515a 273e 8be1 573c 43a6 2dbe
00000150: df2c 49be 27ae 93be 8b17 c03b 2c93 7dbd
00000160: 31b8 3abf e275 a5be 3a89 d73c 5ce2 273e
00000170: 987e c63e 13e3 753d 7429 aabd 049e 5a3e
00000180: 68f2 debe de23 9bbd 0877 12be 0d23 6bbd
00000190: 501e b4bd 733c e7be 47de 10be a90f 463e
000001a0: 1557 cb3d 05b9 8a3e ffc9 8d3e 7615 1d3e
000001b0: 3eed 3ebd a4ad 733e ff2a ea3e 3b64 1dbf
000001c0: b241 41be ec73 503c fd36 0f3e 2c0f fc3d
000001d0: d841 813d f37d ed3d d845 06be 7c26 293e
000001e0: d62b 94bf 8da1 fdbe dde0 f1bd 5c64 dd3d
000001f0: 2f67 923d 1e60 9c3c 2823 1c3e b2c8 b43a
00000200: f3ad a1be 8345 d3be db98 98be 41b6 3cbc
00000210: 5e7b 97bd d248 9fbd 644c f43e da93 a33d
00000220: d4cd f53c d4cf 083e 2868 143e 6afb 2b3e
00000230: bcb6 6e3e f161 b53e 3f4f 70be c7f1 32be
00000240: a80d 23bd 55e4 76be 2bb6 92be 6087 723e
00000250: 1304 efba 77de 9a3e 26f9 90bd b121 32bd
00000260: a35d a33e 9137 01be 19b2 d0be bacf 40be
00000270: 978e 30be 5cb5 c8be ff38 94be 4e66 debe
00000280: cff4 8ebe aa18 f7bc f073 17be 64a9 ca3b
00000290: 0aa9 3abe 075d 893d f587 27be 58f2 96bc
000002a0: 172b c4ba 3030 04be 46cf 89be 4f68 cabe
000002b0: 125e 4cbe cf67 8e3d ba43 dfbe 42d0 2bbe
000002c0: 12a0 0bbd dfb4 683e 77d6 1bbd 8b57 7cbe
000002d0: 8b6f a23d d563 b83c 6b0b f93d a374 333c
000002e0: 8946 85be 0a17 52bc 3877 a7be 719a 413d
000002f0: 0293 4d3c 2b33 743e 1c34 b03e a9f8 af3d
00000300: d770 11be 1569 15be 7bf9 87be 0a0d 733d
00000310: 80ab eb3a 8ec8 d33d 5fed fb3e 097d e2bd
00000320: 2ca3 c5bd 893b c8bd 1660 5e3e f1ab dfbc
00000330: a67e 22bd 37a7 a33e b642 50be dc07 a73e
00000340: 519c c33d 5050 6ebe 381c 05be 2cc7 1bba
00000350: bc55 9bbd 3bba 6cbe e374 073f 50dc acbe
00000360: d2e2 91bd 432e 0b3e 9508 8b3d 2820 023d
00000370: 295e c83d 07a8 af3d 55f2 bcbd 56fa e93d
00000380: 7902 10be 4c2d 0abe de70 63be 663e c8bc
00000390: c31d 58be 3854 883c 2c85 933d 0923 593e
000003a0: 36be 40bd b8dd 983d c813 3a3d 2f05 533e
000003b0: 4b78 183e b211 84bd 5dfa 433e 6d9d a3be
000003c0: e11d 7f3e 3ea3 94bc cac2 47be 41c0 973d
000003d0: 25d8 283d 2e8b 50be 8f46 fdbe 9128 2d3e
000003e0: 9df7 293e 2274 0ebd 025d 13bc 47d5 58bb
000003f0: 0b61 3bbe d15f 9cbd 57bd e3bc 15ad 913e
-0.5845548 -0.06860797 -0.123608455 -0.07438448 -0.1903569 -0.38985807 -0.22034031 0.117337264
0.25685456 0.21447298 0.29137436 0.09545372 0.20748307 0.3633877 -0.17383866 -0.54585946
0.41736403 0.1321806 0.2587872 0.042022668 0.047949582 0.16923401 -0.25596395 -0.20001566
-0.49114794 -0.19674958 -0.014451321 0.045935385 0.21129155 -0.04390316 0.17889947 -0.04091186
-0.36526138 -0.021145772 0.06919486 0.19046994 0.26906675 0.32889688 0.17539293 0.06457829
-0.0953751 -0.0499235 -0.111594215 -0.020934684 -0.047006253 0.16088453 -0.24725986 -0.08958257
0.18205597 0.16111605 0.13219278 0.042923886 0.15280713 0.14035638 -0.11202305 -0.10303693
0.3758994 0.12464285 0.12912947 -0.09215086 -0.046805006 -0.20081386 0.0065328497 -0.15215804
-0.29819423 0.047589988 0.23219113 0.09066679 -0.09795127 -0.2242639 0.49525273 -0.26700822
0.23666923 0.026534984 -0.14210084 -0.085038245 0.007831647 0.13008219 -0.37657225 0.11303633
0.31145906 0.16343047 0.013176332 -0.16957955 -0.19646023 -0.28843805 0.0058621815 -0.061907932
-0.72937304 -0.323165 0.026310552 0.16394943 0.38768458 0.060031008 -0.08308688 0.2134934
-0.43544316 -0.075752005 -0.1430322 -0.057406474 -0.08794844 -0.45163307 -0.14147292 0.19341911
0.09928719 0.27094284 0.27693173 0.15340218 -0.04661297 0.23796707 0.45735928 -0.61481065
-0.18872717 0.01272295 0.1398582 0.12307581 0.06311387 0.115962885 -0.13112581 0.16518587
-1.1575878 -0.49537316 -0.118104674 0.10810158 0.07148587 0.019088801 0.15247786 0.0013792722
-0.31578025 -0.4126397 -0.2980412 -0.011518062 -0.07396577 -0.07777561 0.4771453 0.07987185
0.030005373 0.1336053 0.14492857 0.16795126 0.23311895 0.35426286 -0.2346773 -0.17475043
-0.039807945 -0.2411054 -0.28654608 0.23684454 -0.0018235467 0.30247852 -0.07078771 -0.043489162
0.31907377 -0.12618853 -0.40760878 -0.18829241 -0.17241894 -0.39200866 -0.28949735 -0.43437427
-0.2792115 -0.030163128 -0.1479032 0.0061847437 -0.18228546 0.06707197 -0.16360457 -0.018426105
-0.0014966455 -0.12909007 -0.2691595 -0.39532706 -0.1995776 0.06953394 -0.4360636 -0.16778663
-0.0340882 0.22725247 -0.038046326 -0.2464277 0.079314314 0.022508541 0.12160381 0.010953101
-0.26030377 -0.012822876 -0.32708144 0.047266427 0.012547256 0.23847644 0.34414756 0.0859235
-0.14203201 -0.14590867 -0.26557526 0.059338607 0.0017980188 0.10340987 0.49204537 -0.11059005
-0.09650263 -0.097769804 0.21716341 -0.027303668 -0.039671563 0.31963512 -0.20337948 0.32623184
0.09551299 -0.23272824 -0.12999046 -0.00059424597 -0.07584712 -0.23117916 0.5291273 -0.33761835
-0.07123341 0.13591866 0.06788746 0.031768948 0.097835846 0.085769705 -0.09225909 0.11424701
-0.14063443 -0.13493842 -0.22211024 -0.024443816 -0.21105103 0.016641721 0.07203135 0.21204771
-0.0470564 0.074641645 0.04542902 0.20607446 0.14889638 -0.064486876 0.19138475 -0.31956044
0.24913742 -0.018144246 -0.195079 0.074097164 0.041221756 -0.20365593 -0.49467894 0.16910006
0.16598363 -0.03477872 -0.008994343 -0.0033086108 -0.18298738 -0.07635463 -0.027800245 0.28452364

conv3.bias f4 [16]
00000000: 625b 0abe 3dc0 ee3b 4639 9dbd 88a9 f2bc
00000010: 7d2d 3cbd 42a8 a53e fad9 323e 3e8f 49bc
00000020: 4054 60bc ca22 04bf b875 4e3e 9ff9 ab3e
00000030: 1344 c0bd 08fa 45bd 235c b93e 8c87 f6bd
-0.13511422 0.0072861 -0.0767694 -0.029621854 -0.04594182 0.32354933 0.17465964 -0.012302218
-0.013691962 -0.51615584 0.20162094 0.33588883 -0.09387984 -0.04833415 0.36203107 -0.12037572

tcn.tcn.0.conv1.weight f4 [16, 16, 5]
00000000: f1b5 b23e d279 9a3e c26f 6c3e 1f14 253e
00000010: abef 273d e9f1 f23d ba49 8b3d 2c89 c03d
00000020: 39fe fabc dc03 b8be 33d9 b63e cd94 263e
00000030: 2f42 873e 99df 853d 6b14 c63d 7a4a 613e
00000040: cce0 233e 5b14 cf3d 2604 aa3d 2dae a53e
00000050: fe7b 8d3e 1002 c33d a9b0 b73e d1cc 6c3e
00000060: 2bb7 69bd 1780 0dbe ceae d13d fdfd e53d
00000070: d4c6 09be da95 893d 11bd 00be 44bb d6bd
00000080: 2fa4 91be 7bc0 86be 27e3 cabd c523 72be
00000090: cf2f aebe 7f61 d2be 8ad7 8bbe e034 89be
000000a0: a42e 913d 90d3 473e 88f8 123d 58f4 5dbe
000000b0: e1bb 93be 7fd8 233d 69bc 11be 9390 b0be
000000c0: f2a6 88be 79da 88bb 17fe 60be b785 69bc
000000d0: 57f1 bbbd 71b9 8ebe f1bd 1abe faa6 69bd
000000e0: 1ff7 a43c 97d7 6f3d 5579 85bd ea0d bdbd
000000f0: 4481 b13d 1674 ea3c d487 823e 33a0 c3bd
00000100: 50da 45be eedd 993e a007 ad3d db5a 83bd
00000110: de5e acbd 29c4 58be 6184 16be 5741 3bbd
00000120: 4fe9 f8bd 7d78 1bbe 683b d53b e68a 7e3d
00000130: 62bc e6bd e280 983d 9970 07bd 7a26 cfbd
00000140: 428e 643e 2a91 b83e 9382 113e 64f8 6a3e
00000150: 9349 093e 1ea8 143e ede4 ac3e 95d5 22b9
00000160: 881c 433e 6071 9d3e 46ce 163e 67f1 043f
00000170: 5ac8 a13e bfca a83e a763 023f 3017 7fbd
00000180: 6129 08bd a871 65be 5f1c aa3d 83dc 25bc
00000190: b0dc babe 7917 93be 897a 16bc f569 293a
000001a0: da52 c93d 5a51 fa3d 6db1 ff3d f8d7 113e
000001b0: 960f 063e 30c3 c93d d943 a0be 491c 7bbe
000001c0: b851 cebd 1c02 843b 310d 3ebd 3762 12be
000001d0: 9778 59be decf d9bc fc00 453e 30a8 413e
000001e0: 8c2f 73bb 43a0 1a3e ff2c f2bc 7428 233e
000001f0: b968 f23d 62a5 22bd 7450 3ebe 3aec 1bbe
00000200: c0d4 1ebe 79ef 133a 4789 1d3d 0927 40bd
00000210: 380c c63d 8ab7 1a3e 7242 d33d 7b85 20bd
00000220: 9775 b93c 2b33 c13d 7233 a73d d3f3 183e
00000230: a1cd d0bd d4c1 d5bd 1dbf e23c 7d51 07bd
00000240: 1e08 183e b425 06be 3cd6 57bc 35ed 523d
00000250: ad51 b13d 652d 453e 0b7c fd3d b9fe 36be
00000260: 4b7b 143d 0624 70bd 2edd 1fbe 63c1 c33d
00000270: 6dd3 1c3e 7a10 d8bd b587 00be 6155 4d3e
00000280: a2f3 0bbe ca0e 3d3e 3c78 a4bc 93a0 9f3d
00000290: 3aeb 4bbd 50bc 803e 8e7c 013e 3c80 e63d
000002a0: ae30 0c3e e227 813e 2cd7 5a3e 639f d13d
000002b0: 291d 6e3e 87cc 193e 4151 7dbd 7e29 babd
000002c0: e716 3d3d 4cd9 b7bd 81a6 203e ca4b 3c3e
000002d0: d3f1 513e b8df 883e 785b 8f3d 633b 993d
000002e0: ae12 b73d 79fc c33d e15e 823e aff8 803d
000002f0: 5f73 a9bc 21ab 83bd e720 d23c 2419 283d
00000300: d526 adbc ce33 f63d e167 8f3e 671a 9a3e
00000310: 820a e1bc 74e4 f53c 1e34 763e 8f17 9b3d
00000320: eea9 15be 0dd2 90be c562 9abe 2402 fbbe
00000330: 679f 13bf 402e 44be efed 53be 795b 6cbd
00000340: 5977 dc3d 43af e2bd 6766 f83d 0829 c6bd
00000350: 6357 29be 272f 49be 2a8b 50be 9767 30be
00000360: 03ea 65bd 1d99 8cbc 61b2 963d 75b4 00be
00000370: 2019 72be cf07 8cbe d75d 72bc 1d51 9e3d
00000380: 5935 07be c1a7 88bc 32a5 92bd 5194 03be
00000390: 69d5 d0bc cf81 60be 803f 8ebe e429 833c
000003a0: bf68 8f3d 423f 163d 22fb 3b3d 9156 c73c
000003b0: 1232 15be 8099 fb3d 8085 0dbe f88b b6be
000003c0: 6941 82be 2cdd a9be e827 7cbe 7fab e93c
000003d0: ec31 dfbc 822b e9bd ee5e 453d ab24 d8b9
000003e0: 6281 02bd e12b 3e3b 8109 ae3d ea38 c93e
000003f0: fdaa 9e3e ec46 293e 5da8 c43e 3f3d 24bd
0.34904435 0.30171067 0.23089507 0.16120957 0.04100005 0.11862547 0.068011716 0.094011635
-0.030638801 -0.35940444 0.35712585 0.162677 0.26417682 0.065367885 0.09671863 0.22001067
0.16003722 0.101113044 0.083015725 0.32359448 0.2763366 0.09521878 0.35876969 0.23125006
-0.05705945 -0.13818394 0.102384195 0.11230085 -0.13454753 0.06718035 -0.12572123 -0.10484937
-0.28445575 -0.26318726 -0.09906607 -0.23646457 -0.3402085 -0.4109001 -0.2731288 -0.26798153
0.07088974 0.19514298 0.03588155 -0.21675241 -0.28854278 0.04000139 -0.14232029 -0.344853
-0.2668987 -0.0041764346 -0.21971928 -0.0142530715 -0.09176891 -0.27875856 -0.1511152 -0.057044007
0.020137368 0.058555212 -0.06517283 -0.092311695 0.086672336 0.028619807 0.25494254 -0.0955204
-0.19321561 0.3005213 0.0844872 -0.06413814 -0.08416532 -0.21168579 -0.14698936 -0.04571661
-0.12153875 -0.15182681 0.006507326 0.062144183 -0.112664 0.074464574 -0.033066366 -0.10114761
0.22319892 0.3604825 0.14209966 0.22946316 0.13406973 0.14517257 0.33768407 -0.0001552909
0.19053853 0.3075056 0.14727125 0.5193085 0.3159817 0.32967183 0.5093331 -0.062277973
-0.033242587 -0.22406638 0.083061926 -0.010123375 -0.36496496 -0.28728846 -0.009184488 0.0006462627
0.09830256 0.12222548 0.12485013 0.14242542 0.13091883 0.09851682 -0.31301764 -0.24522509
-0.1007418 0.004028572 -0.0463993 -0.14295278 -0.21237408 -0.026588377 0.19238657 0.18911815
-0.0037107198 0.15100197 -0.029562471 0.159334 0.118363805 -0.039708503 -0.18585378 -0.15226832
-0.15510845 0.0005643289 0.038460996 -0.046912227 0.09670299 0.15109077 0.10315408 -0.039189797
0.022639079 0.09433588 0.08164109 0.14936762 -0.101954706 -0.104373604 0.02767902 -0.033036698
0.14846846 -0.1310032 -0.013173636 0.05149575 0.086581565 0.19255598 0.12377175 -0.17870606
0.036250394 -0.058628105 -0.15611717 0.0955837 0.15315028 -0.10550018 -0.12551768 0.200521
-0.13667157 0.18462673 -0.020076863 0.07794299 -0.049784876 0.2514367 0.1264517 0.112549275
0.13690445 0.2522574 0.21371144 0.10235479 0.23253311 0.15019427 -0.061845068 -0.09089945
0.04616442 -0.08976993 0.15688516 0.18388286 0.20502405 0.26733184 0.06999868 0.0748203
0.0893911 0.0956964 0.25463012 0.06297433 -0.020684896 -0.064291246 0.025650455 0.0410396
-0.02113668 0.120216 0.2800894 0.30098268 -0.02747083 0.030016162 0.24043319 0.07572853
-0.14615604 -0.28285256 -0.3015348 -0.4902507 -0.57665104 -0.19158268 -0.20696233 -0.057704423
0.10764951 -0.11068585 0.12128907 -0.09675795 -0.16537242 -0.19646893 -0.20365587 -0.17227016
-0.056131374 -0.017162854 0.07358242 -0.12568839 -0.23642397 -0.27349707 -0.014792881 0.07730315
-0.13203944 -0.016681554 -0.07160415 -0.12849547 -0.025492387 -0.21924518 -0.27782822 0.016011186
0.070024006 0.03668142 0.045893796 0.02433327 -0.14569882 0.12285137 -0.13820457 -0.35653663
-0.2544053 -0.33176553 -0.24624598 0.028524159 -0.027245484 -0.113852516 0.048186235 -0.0004122605
-0.03186167 0.0029017853 0.084979065 0.39301234 0.3098983 0.16530961 0.384097 -0.04009747

tcn.tcn.0.conv1.bias f4 [16]
00000000: 75af f9bc 936d 7ebd 65e6 7d3c 80c5 5b3e
00000010: 3401 d9bd 4e55 c0bb a9c9 acbc 81ee 7dbe
00000020: ed33 713d 7e01 f63d 513b 17be 4885 fcbd
00000030: 8603 863e 2af7 bc3c 1314 10be 59d1 4ebe
-0.030479172 -0.062116217 0.015496825 0.21462059 -0.105959326 -0.005869544 -0.021092253 -0.24798013
0.05888741 0.12012003 -0.14768721 -0.12330109 0.26174563 0.023067076 -0.14070158 -0.20197047

tcn.tcn.0.conv2.weight f4 [16, 16, 1]
00000000: 9116 eb3d a6b0 a8bd 75c7 5b3e 1441 d43c
00000010: 2e4b 4a3e 63e8 13be 7c4d 173d 361c 963e
00000020: b322 433e be4c babd 55ae fcbd 201b 3ebe
00000030: 9254 ab3e 062e 273c e636 0ebe 69a6 c53e
00000040: a935 1b3d 92e7 773e 30de 8cbd e57c 653e
00000050: 57fc 1c3d a126 7b3d 39c1 253e dfa0 99bd
00000060: db2f 26bd 4545 a2bc c4a5 34be 20e1 aabc
00000070: 52d0 b33c 17e7 00be 1066 50be dded a53e
00000080: f7b6 163e b748 4f3e 92d7 23be 69d6 4b3e
00000090: 5f07 1e3d 7363 e2bc 6c86 693d a482 9e3c
000000a0: 5902 943e e727 aa3e 5cd0 7b3e 44f0 713e
000000b0: ed2a 4cbe eaf4 4b3e 0130 03bd 59a5 4bbd
000000c0: dbf6 5f3d 91e7 173e b752 313b 3cfb 8bbd
000000d0: ab0d 1bbe faa6 4c3e a3da 1b3e dbcc b8bc
000000e0: e61b 3abe f801 84be 366d 4dbe ac21 83be
000000f0: ca8f a33e 8025 ed3d 00a4 b73d fa7f 213e
00000100: 3666 4d3e 3a40 9d3e 0da6 eabd d18c 873b
00000110: 3d2c 853d a195 cf3b 7278 4ebd 6af3 dabe
00000120: 797d bdbd ce04 dabe 9e2d 40bc db19 1cbe
00000130: 8aec 00be 7900 213e 00f7 7cbc 4745 9c3d
00000140: 1d5c a53d 5cf5 093e b8e7 2abd 2f88 46bd
00000150: 8669 97be 48fd 0bbc d183 0dbe 2d59 aabe
00000160: 0bb4 843e 7567 cfbe e841 d0bd 7462 d6be
00000170: f322 29bd ef2b bb3d 0769 693e c4fe 24bb
00000180: 4015 7dbd d928 b2bd e6f2 d2bd 24db 54bd
00000190: da4b db3c 1aba 063e 5358 08be ad8f 883d
000001a0: b9a5 9abe 20e3 773e f553 fcbd 19a7 73be
000001b0: 629d 223e 5366 8cbe fe04 e6bd d3d1 3fbd
000001c0: 9de0 40be a212 c93c 8c7f dc3c c09f 323e
000001d0: b294 e6bd c762 3b3e 6658 bc3d 6c9c 1a3e
000001e0: 6717 c33d dd6c 043d faea 0b3b 4058 9ebd
000001f0: 03db ab3e 9c32 9b3e add1 a6be 6498 66be
00000200: 7528 81bd 1c03 763d 8d34 793e e03b 8f3d
00000210: 1263 fd3c e37c c93d 4fc9 4c3e ab6b 7a3d
00000220: 88d4 f4bd 8bd2 213d b046 fc3d aa04 b2bd
00000230: d9b7 153d ac90 833e a781 b8be 31d2 8c3e
00000240: b500 51be 331e 123e cf4a 37bd 6e22 213d
00000250: 781a 233e 6d2d 423e 1a2b 343e ee64 ecbd
00000260: 35b6 dabc 5b50 38be 623f 48be 70a4 a4bc
00000270: 750c 81be b665 6d3d c7d8 8ebe cc0c 08be
00000280: 2070 81be f02a 93bd cdc3 bd3d 0b99 a3bd
00000290: c93e afbd ee54 a8bd 314e ef3d ec0e 513e
000002a0: 963c a0bd f575 173f 5702 08be a1f7 f33e
000002b0: 4b66 2e3e a94f 5cbd 3fb2 f93d 9a02 4dbe
000002c0: 29a3 d23d 3ac0 fdbd 26e5 5abe eb34 903e
000002d0: f0b5 4fbe 6bfa 47bd 80d5 4bbe 2e04 6e3e
000002e0: 2726 56be ba1f 133f 8040 463d 9261 3a3e
000002f0: 7833 593d 237c 1cbd 6fc4 bd3e 5ebb 8c3e
00000300: 903e 15be ad0a 94be 8e56 b03d d41d 8f3b
00000310: 6ff6 8bbd 75c8 b53c 4ee1 5ebe 1e40 8e3e
00000320: a799 89bd c043 903e c3c3 bcbc d059 933e
00000330: a608 373e 33cd 2fbe db64 b83d 8258 1bbe
00000340: 8e73 d63d 0862 e23d fb3c 983e cd3f e1bc
00000350: 9c74 19bd 613f 87be 6983 c5bd d4bc bd3e
00000360: 463e efbd bc05 a23e 0455 60be 84f2 d5bd
00000370: 7e49 cb3d 763b 003e 1cb0 43be 5fb5 893e
00000380: 360d 5cbd 003c babd 0a47 c73c 436a 79be
00000390: 7c6a 61bd 2158 813c 2f48 f8bd f0e7 b53e
000003a0: 5d9a 3ebd dc99 083f 4ef7 71be 42d4 0d3e
000003b0: dfc4 50be 25ad 87bd 0edf 47be caee b6bd
000003c0: 1372 a9bb 8b92 5cbe 9a85 943d 7ec2 ccbd
000003d0: 0d28 2c3e 1fac 30bd 5add acbd 387b 99bd
000003e0: 1dd6 1d3e b651 303f 60ed 38be 8140 4fbd
000003f0: c0c4 bf3d 7b9c 663e a2ba 71bd 0da1 913e
0.114789136 -0.08236818 0.21462806 0.025909938 0.19755241 -0.14444117 0.03693913 0.29318398
0.19056205 -0.09096669 -0.12337939 -0.18565035 0.3346296 0.010203844 -0.1388813 0.38603523
0.03789297 0.24209431 -0.068783164 0.22410925 0.038326588 0.061316136 0.1618699 -0.07501387
-0.040572982 -0.01980842 -0.1764136 -0.020859301 0.02194992 -0.12588154 -0.20351434 0.32408038
0.14718233 0.20242582 -0.16000202 0.1990601 0.03858125 -0.027635312 0.05701296 0.019349404
0.2890804 0.33233568 0.24591202 0.2362681 -0.1993825 0.19917646 -0.032028202 -0.049718235
0.05467878 0.1483443 0.0027057359 -0.068350285 -0.15141933 0.19985572 0.15220122 -0.02255862
-0.18174705 -0.25782752 -0.20061192 -0.25611627 0.3194564 0.11579418 0.089668274 0.15771475
0.20058522 0.30713063 -0.11457453 0.0041366597 0.065025784 0.006334976 -0.050407834 -0.42763835
-0.09252448 -0.4258179 -0.011729626 -0.15244238 -0.12590232 0.15722837 -0.015439749 0.07630401
0.0807421 0.13472503 -0.04172489 -0.04846972 -0.29572695 -0.008544274 -0.13819815 -0.3327116
0.25918612 -0.4050862 -0.101688206 -0.4187199 -0.041293096 0.09139239 0.22793971 -0.0025176266
-0.061787844 -0.08699197 -0.103002355 -0.0519668 0.026769567 0.1315693 -0.13314943 0.06668029
-0.3020456 0.24207735 -0.12320701 -0.23794211 0.1588035 -0.27421817 -0.11231421 -0.046830963
-0.18835683 0.024545018 0.026916288 0.17443752 -0.1125883 0.182994 0.09196548 0.15098733
0.09525948 0.032330383 0.0021349774 -0.07731676 0.3356553 0.3031205 -0.32581845 -0.2251907
-0.06306545 0.06006156 0.24336453 0.06993842 0.03093103 0.098382734 0.19998668 0.061137836
-0.119545996 0.03950743 0.1231817 -0.08692296 0.036552284 0.25696313 -0.36036417 0.27504113
-0.20410426 0.14269333 -0.044749077 0.039339475 0.15928066 0.18962641 0.17594567 -0.11542688
-0.026698211 -0.17999403 -0.19555429 -0.020097941 -0.25204816 0.057958327 -0.27899763 -0.13286132
-0.25280857 -0.07185924 0.09265862 -0.07988175 -0.08556897 -0.08219324 0.11684836 0.20415848
-0.07824056 0.59164363 -0.13282143 0.47649863 0.17031209 -0.053786907 0.12192201 -0.20020524
0.102850266 -0.1239018 -0.21376476 0.28165373 -0.20284247 -0.0488228 -0.19905663 0.23243782
-0.20912991 0.57470286 0.048401356 0.18201283 0.0530276 -0.038204324 0.3706393 0.274867
-0.14574647 -0.28914395 0.08610259 0.0043675695 -0.06834113 0.022190312 -0.21765634 0.27783293
-0.0671876 0.2817669 -0.023042565 0.2877946 0.17874393 -0.17168121 0.09003612 -0.15170482
0.10471259 0.11053854 0.29734024 -0.027496243 -0.037464723 -0.26415542 -0.09644205 0.37058127
-0.116817996 0.31645 -0.21907431 -0.10446647 0.09926127 0.12522683 -0.19110149 0.26896188
-0.053723536 -0.09093475 0.024325866 -0.24356942 -0.055033192 0.015789093 -0.12123143 0.35528517
-0.04653393 0.5335977 -0.23629496 0.13850501 -0.203876 -0.066248216 -0.19518682 -0.08932264
-0.0051710694 -0.21540277 0.07252045 -0.09998034 0.16812153 -0.043132897 -0.08440657 -0.07494205
0.15413709 0.6887468 -0.18059301 -0.050598625 0.09363699 0.2252063 -0.059015878 0.28443184

tcn.tcn.0.conv2.bias f4 [16]
00000000: 65df c93d 9c7f 763d a798 b93d 772c 2cbd
00000010: b039 e63d 8889 f0ba fd36 04be 10ea 5fbc
00000020: a145 91be 7a15 eabd 027e fd3d 6afc b43d
00000030: 05c4 0d3e 25e0 f53c c27c 4c3e 736b 063d
0.09857062 0.06018029 0.09062319 -0.042034592 0.11241472 -0.0018351534 -0.12911601 -0.013666645
-0.28373435 -0.114298776 0.1237755 0.08837207 0.13844307 0.030014107 0.19969466 0.032817315

tcn.tcn.0.res_conv.weight f4 [16, 16, 1]
00000000: 5f67 1bbe a173 cd3d b102 df3c 5cac e9bd
00000010: 629c 6d3e f17a e93e 44c6 29be 809e d13c
00000020: e874 46be 954a 883e ef99 53be 2b2b 1f3e
00000030: 38aa 0dbe cbeb cc3c afff 773e 2651 00bd
00000040: da41 f53d 1a9f a43e d4fa 64be 83ca d23d
00000050: a307 d63c b530 04be fd0e 203e e3e3 ddbe
00000060: 2498 01bc 4fc2 3ebc 9b0b d1bd f5e2 9cbc
00000070: 2f6a c53e 5e2b 2dbe e331 07be 3c0e 73be
00000080: 0c23 963e 4c34 71be e526 a23c 4a6c 913e
00000090: c429 4a3d 08ca 9dbe 17cb b83e ba68 f23c
000000a0: dadd 083e 3c36 e23e 6dd8 e43d f800 99be
000000b0: 4515 78be 01c7 e23d d625 3b3e 0b3d 77bd
000000c0: 280d 113e 313e 9bbe d18b c83d 91d2 a6bd
000000d0: 81c6 1dbd 5a08 16be 5acb 20be e419 373e
000000e0: 32c2 3cbe 7a42 6f3e 500b 873e 1e71 42be
000000f0: 2bdc 613c 7b5b 893e a853 593e fc07 78bd
00000100: 649d 61be 5a30 9f3e 840a 0abe f784 80be
00000110: 87ee af3c 2271 cdbd bcfa 85be 9fd7 5dbe
00000120: 575a 3dbd 5c62 e6bc 2ab4 7d3e 9268 87bd
00000130: 5aec 003e 561f a93d d671 86bd c7b3 cbbc
00000140: abd1 953d 695f 763e 9424 44be 1a07 51be
00000150: d53e 24bd e2b5 d23e 28b4 a4be aece 083d
00000160: 1661 65bc f13a 2e3d 6249 f73c 3b65 093e
00000170: 3154 8e3d fc6a 403d 6b0c 473d 3250 3b3e
00000180: d2df b5be 90d8 943e 715e 9b3d 4a8e 22be
00000190: 2fef 4d3e cdab a33e c0a4 42be b1ac d3bc
000001a0: 87ca 49be d4bf 673e 4b21 84be 5d4f 1f3e
000001b0: c815 b33d 2c35 24be 53ea ebbd ff58 0a3e
000001c0: 775e 97be b046 f83d b57f 803e 5b6a 2fbd
000001d0: 6310 d43c c5e8 bd3e 09c5 f13e b286 28be
000001e0: cb03 40be 0725 8abe ebb9 6cbe 1d55 edbc
000001f0: 873c 40bd b44f 0cbe 669c c9bc ac9b 5dbe
00000200: 2d19 d6be ea10 56be c67a ca3e a638 8cbe
00000210: 6b38 68be 734c ecbc 6ac7 263d b656 7dbd
00000220: a54a 2dbe fe30 453f d327 bd3e 1d1a 193e
00000230: 88d6 6cbe 8461 a8bd b8e3 42be 9f2a 953e
00000240: b578 bf3e 442f f2bc 1f6b 233e db2c 43bd
00000250: f77d d1bd aa85 8cbe c874 b03e 675b 82bc
00000260: fdfa e4bd b8f1 6e3e 8ec2 2c3d 0101 173e
00000270: d4b8 6cbe 83b4 d13e 351c c4ba b194 82be
00000280: f537 b53d fb8c e1bd a7e4 b0be 6d5f 9bbe
00000290: 94e2 30be 48b7 97be d053 fd3d d714 c33d
000002a0: 29b3 7dbe 2d80 ca3e 28d7 fabd e79f e8be
000002b0: e0fc 07be 5a52 72be 1aea 923e e6ba 35be
000002c0: 002e efbe 1b9b 93be 28fd 69be de9b 65be
000002d0: 839a 06bd 5942 a1be 7c2c 6fbe 5aa6 a7bd
000002e0: a709 713e d47f efbd f4ed 52be fbac 8b3d
000002f0: 4300 293e a6d7 983d f859 5ebd 5b17 d8bd
00000300: 2692 2b3d 8768 b33e 60eb 313c 8130 6e3d
00000310: 4628 cabd 9c4b bebd bab4 6bbe fa61 cbbb
00000320: bb8d ab3e 3509 413e 3852 41bd b438 6b3e
00000330: 0b5b 133e 577c aabd 30df 95bd 970b 803e
00000340: f99f bc3e 22cb c53e 7f10 dd3d 59d7 b03e
00000350: 9c7e d2bd e08c 223e 60c2 843e a946 5d3d
00000360: a645 c5bd b1b0 56bd ea12 9abc 768a 97be
00000370: 6e4f 17bd 0db5 41be 9c92 b33d 7184 92be
00000380: d108 c43d 7de0 92be 0e80 75bd c6d4 463e
00000390: 8712 5dbe ef60 9dbe ea17 9b3e bd62 82bc
000003a0: c3a8 98be 7b07 943c b79a 0dbe 2735 bdbd
000003b0: d49d 2a3d 770b a53d 76ce c4b8 8c41 ed3c
000003c0: 7359 89be 98ae 57bd 7256 11be 2f35 3abe
000003d0: bb21 f43d bb9b 963e 2c93 4abe f5f8 453e
000003e0: de74 c6bd 03f1 1dbd a282 8cbe f0cb 9cbc
000003f0: 33fc d93d 67ed 0d3d af3e 2fbe d38a 073e
-0.15176152 0.1003182 0.027222963 -0.11409828 0.23204187 0.4560161 -0.16579539 0.025588274
-0.19380534 0.26619402 -0.2066419 0.15543811 -0.13834465 0.025014779 0.2421863 -0.03132739
0.11975451 0.32152635 -0.22361308 0.10292532 0.026126688 -0.12909205 0.15630718 -0.43337926
-0.007909808 -0.0116430065 -0.10207292 -0.01915119 0.38557574 -0.16911075 -0.13202624 -0.23735899
0.29323614 -0.23555106 0.019793937 0.2840293 0.049356237 -0.308182 0.36092445 0.029590953
0.1336588 0.44182003 0.111740924 -0.29883552 -0.24226864 0.11073113 0.18276152 -0.06036095
0.14165175 -0.30320886 0.09792293 -0.08145631 -0.038519386 -0.14651623 -0.15702572 0.1788097
-0.18433455 0.23365203 0.26375818 -0.18988463 0.013785402 0.26827607 0.21223319 -0.06055449
-0.22032696 0.31091577 -0.13480574 -0.25101444 0.021476043 -0.10031344 -0.26167858 -0.21664284
-0.046228733 -0.028123073 0.24775758 -0.06611742 0.12590161 0.0825793 -0.06564681 -0.024865998
0.073153816 0.24059834 -0.19154578 -0.20412865 -0.040098984 0.4115439 -0.32168698 0.03340023
-0.014000198 0.04253668 0.030186359 0.13417523 0.06949652 0.04697703 0.048595827 0.18292311
-0.35522324 0.29071474 0.07586373 -0.15874591 0.20110773 0.3196701 -0.1900816 -0.025839182
-0.19706164 0.2263177 -0.2580665 0.15557618 0.08744389 -0.16035908 -0.11519303 0.13510512
-0.29564258 0.121228576 0.25097433 -0.042826038 0.02588672 0.37091652 0.47220638 -0.16457632
-0.18751447 -0.26981375 -0.23117797 -0.02897125 -0.046932723 -0.1370228 -0.02461071 -0.21641415
-0.41816083 -0.2090489 0.39546794 -0.2738697 -0.22677772 -0.028845048 0.04071752 -0.061850272
-0.16923006 0.7702788 0.36944446 0.14951368 -0.23128712 -0.08221725 -0.1903218 0.2913408
0.3739678 -0.029563554 0.15958832 -0.0476502 -0.10229104 -0.27445728 0.34464097 -0.015912725
-0.11180685 0.23334396 0.04217773 0.14746477 -0.23117381 0.40958032 -0.001496202 -0.25504068
0.088485636 -0.11013218 -0.34549448 -0.30346242 -0.17273933 -0.2963202 0.123695016 0.09525459
-0.24775375 0.39550915 -0.12248069 -0.45434496 -0.13280058 -0.23664227 0.2869423 -0.17747077
-0.46714783 -0.28829274 -0.22850478 -0.2242274 -0.032862198 -0.31495932 -0.23356813 -0.08186026
0.23538838 -0.11694303 -0.20598584 0.06820103 0.16504006 0.07463007 -0.05428502 -0.1055133
0.041887425 0.35040686 0.01085934 0.058151726 -0.09870963 -0.09291765 -0.2301816 -0.006206748
0.3350657 0.18851168 -0.04719755 0.2297085 0.14390199 -0.08324497 -0.0731796 0.25008842
0.368408 0.3863154 0.10794162 0.34539297 -0.10278055 0.15874052 0.25929546 0.054022465
-0.09632425 -0.0524146 -0.018807847 -0.29597825 -0.036940984 -0.18916722 0.08768198 -0.2861667
0.09571994 -0.28686896 -0.059936576 0.19417104 -0.21589099 -0.30738017 0.30291682 -0.015916223
-0.29816255 0.018069973 -0.1382855 -0.09238654 0.041654423 0.08058827 -9.384465e-05 0.02896192
-0.26826057 -0.05265674 -0.14193133 -0.1818435 0.11920496 0.29415688 -0.19782704 0.19333251
-0.096902594 -0.038559925 -0.27443415 -0.019140214 0.10643806 0.034650233 -0.17113756 0.13236551

tcn.tcn.0.res_conv.bias f4 [16]
00000000: f1a4 963e 81a4 a0bd bf01 4cbe 9660 853d
00000010: 3ec4 0fbe 2a60 45be 7c95 71be 0722 07be
00000020: 568b fabd 2717 323e bffa e13b b97a 263e
00000030: 740d 97bd 66ed 68be c348 9d3b 6433 493d
0.29422715 -0.07843877 -0.19922541 0.06512563 -0.14039704 -0.19274965 -0.2359218 -0.13196574
-0.122336075 0.17391644 0.0068963463 0.16257752 -0.07375613 -0.2274681 0.0047999336 0.049121276

tcn.tcn.1.conv1.weight f4 [16, 16, 5]
00000000: de5f 0b3e 92b4 cabc 8aa9 84bd 129a 2dbe
00000010: df35 a9be ef9e e63e 80fc bdbe 3b0c e6bd
00000020: 8f42 123e a9cf 833e 9661 42bd 43d8 b43e
00000030: 7125 36bd b5bc e3bd 472b b3bd 1052 18bd
00000040: 711d 0ebe ceec 1dbe 87dd 97be 9926 9bbe
00000050: fd0c fc3b 2d8e ddbd 7d70 153e baed b2bc
00000060: a100 5c3e 7619 9e3d e0b0 543d a8c6 503e
00000070: f6e4 1abe 14b6 533e 4733 243e a88f 123e
00000080: 500c 923e 30a3 dd3e 3552 143f 6c81 79be
00000090: e234 8ebe a8a3 cfbe 238e 67be 9585 cabd
000000a0: ab07 a2be 7841 983e 0562 bf3e 9bc0 983e
000000b0: dd1a d33e 0da1 a5be 548d 17be 26de 75bc
000000c0: c2ea 963a f5d5 b53d 430b 4f3d 1b66 313e
000000d0: 5195 dbbd d64b a7be 9ccb 85be a1fb 973e
000000e0: 43c3 debc 491c 04bf b618 923c f125 50bd
000000f0: 16f3 eb3c 8ac6 0c3e f50d 813d ac88 683d
00000100: b3d8 0c3e f00a bc3e 0d92 adbd e32a 48be
00000110: 3893 debd 5f01 853d 92f2 153e 9e3c 40bd
00000120: 6db6 fa3d 0bad 6f3d ab7a bcbc 1bb8 093f
00000130: 4371 da3d 61b8 993d 476b 8a3e bb49 2a3e
00000140: c044 90be 520c adbd 598b 76bc 256b aebe
00000150: 2135 79be bc38 60bd 0f52 dc3d ae38 0ebe
00000160: fa26 0c3e b04e adbe cebe d0be a5eb 84bd
00000170: fd4e a8be d997 bbbe 85c7 f3be bb88 d33d
00000180: c10f ae3b 45d2 97be 9007 68be 8d5e c7bd
00000190: 6f5d c33e 584f 80be 5b30 02be b24f 6e3d
000001a0: 317b 983e 6ffa f73d 4810 a6be 83a9 c6be
000001b0: 919b babd a0d7 fe3e 5cac 683d aa20 bc3b
000001c0: fd1c 973e e5e3 c83e 650e a93e 7024 b4be
000001d0: 240b 8b3a b088 60be 3cfe 493d c115 943d
000001e0: ac33 5dbe 2256 813c 3bb6 49be 54eb 3cbe
000001f0: dd93 973e 4fe3 26bc 82d2 e7bd f0c3 00be
00000200: 5989 5c3e df98 433e af58 56be ac77 09be
00000210: d99f f83d 816e 05be 6c0e bdbd aab2 5f3c
00000220: 81c6 7d3e 7125 b83e ef7d ca3c b24b e8be
00000230: 3fd4 9fbd a116 e33d 5694 953e 558c 6abe
00000240: abba d6bd 772e 17be a30e bbbb 6331 31be
00000250: 8e08 0c3e 1982 7b3d 61a8 973b 5581 b23e
00000260: 8b6e 743e cb67 273e f931 d83d 8120 343d
00000270: 4b7c 2f3e bb8d 923d e1e8 c33c c938 873e
00000280: 0fbc b33d 1c5b a0bc 67e1 e43d bb2f a33d
00000290: 70fd fcbd a058 fbbd da46 2fbe 3936 793e
000002a0: 69cc 6abe 00d3 e53c 283b d5bc 0cf4 f43d
000002b0: 95ee a23d 84e8 233d c305 073d ef0a 21be
000002c0: 3e39 01be 8292 65be 867d 443e 2fca 1f3d
000002d0: afdf f33c e74a 1fbd 6c9e 63be 1fc1 293e
000002e0: e666 c83d c4ee 6cbd cabd 29bd c6ae dbbd
000002f0: 4ea0 bb3b 679a 2c3e cb34 973e 21d6 f0bb
00000300: ae0c 9d3c ef63 2fbe d82d c4bc 2fe1 93be
00000310: a45e df3a 5a84 0a3e 9d18 50be e17e 42be
00000320: b860 e03d 4fb1 f3bd 0087 b5bd 7c51 1abc
00000330: 03aa 1c3e c488 01be fb8a f0ba abc8 7ebe
00000340: 8244 44be 3b5a ff3d 732c 8d3e cf98 303e
00000350: 121e 04bc 6663 ab3b ae95 44be 18a8 a13e
00000360: e074 213e 29fc 7bbd b2cb b2bd 7bfe 82be
00000370: 5308 343e 30ba 85ba 3542 0c3e 8d79 14bd
00000380: 820d e8bd dcbf 9bbc 9211 1abe 1b30 2a3e
00000390: 6e69 c1bd 6134 4bbd 6bdc 3b3e f9c8 743d
000003a0: 9808 ef3d 5397 70bd 6f22 99bd 3c49 bb3e
000003b0: 9545 94bd 8d57 113e 284c 4b3e 8856 5abe
000003c0: 3617 66be 4e3a 86be 5342 8d3e 15a6 093e
000003d0: e279 cbbe 9c1b a9bd 33f3 09bd ecf7 adbd
000003e0: 6ba5 40be e11c 1e3e c552 4d3e 0a0a 533e
000003f0: 5a69 8a3d 857b 0e3e 1510 9f3e 418b 14be
0.13610789 -0.024744306 -0.064776495 -0.16953304 -0.33048913 0.45043132 -0.37106705 -0.112328015
0.14283203 0.2574437 -0.047456346 0.35321245 -0.0444693 -0.111199774 -0.08748489 -0.037187636
-0.13878419 -0.15422365 -0.296612 -0.30302885 0.007691978 -0.108181335 0.14593692 -0.021841872
0.21484615 0.077197 0.051926494 0.20388281 -0.15126404 0.20674926 0.16035186 0.14312613
0.2852502 0.43288565 0.5793794 -0.24365777 -0.2777472 -0.40554547 -0.22612815 -0.0988876
-0.31646475 0.2973745 0.3737947 0.29834446 0.41231433 -0.32349434 -0.14800006 -0.015006578
0.0011514055 0.088787 0.05054785 0.17324106 -0.10721839 -0.32675046 -0.26131904 0.29684165
-0.027192717 -0.5160566 0.017834049 -0.050817434 0.028802436 0.13747612 0.0630149 0.056770965
0.13754539 0.36727095 -0.084751226 -0.1954761 -0.108679235 0.06494402 0.14643314 -0.04693281
0.12241826 0.058514636 -0.023007711 0.5379655 0.10666134 0.075058706 0.2703497 0.16629688
-0.28177452 -0.084496155 -0.0150478715 -0.3406612 -0.24336673 -0.054741606 0.10757839 -0.13888809
0.13686743 -0.33849096 -0.40770572 -0.06490258 -0.32872763 -0.36639288 -0.4761316 0.10328814
0.0053119366 -0.2965261 -0.22659135 -0.09734831 0.38157222 -0.25060534 -0.12713759 0.058181472
0.29781488 0.12108313 -0.32434297 -0.38801202 -0.09111703 0.49773884 0.056805 0.0057411985
0.29514304 0.3923637 0.33018795 -0.3518405 0.0010608179 -0.21927142 0.049314722 0.07230712
-0.21601743 0.015788142 -0.19698422 -0.18449146 0.29604998 -0.0101860305 -0.11319448 -0.12574744
0.21536769 0.19101284 -0.20932268 -0.13424557 0.121398635 -0.13030435 -0.092312664 0.013653437
0.24782754 0.35966066 0.024718253 -0.4537025 -0.078041546 0.110883005 0.29214734 -0.22905095
-0.10484823 -0.14763819 -0.005708532 -0.17303996 0.13675138 0.061403368 0.0046282266 0.34864298
0.23870294 0.16348188 0.105564065 0.04397631 0.17137258 0.07155939 0.023914756 0.2641051
0.08776104 -0.019574694 0.111758046 0.07968088 -0.12353027 -0.12272763 -0.17116871 0.2433709
-0.22929539 0.028054714 -0.026029184 0.11960611 0.07955662 0.040016666 0.03296448 -0.15726827
-0.12619492 -0.2241917 0.19188508 0.039011177 0.029769747 -0.03888979 -0.22228402 0.16577576
0.09785251 -0.057844892 -0.041440763 -0.10726695 0.005725897 0.16855775 0.29532465 -0.007349745
0.019171085 -0.17127965 -0.023947641 -0.2888274 0.0017041755 0.1352705 -0.20321889 -0.18993713
0.10955948 -0.11899053 -0.0886364 -0.009418841 0.1529923 -0.12649828 -0.0018351966 -0.24881236
-0.19166759 0.12468382 0.27572975 0.17245792 -0.00806381 0.005230355 -0.19197723 0.31573558
0.1576724 -0.061519776 -0.08730258 -0.25584778 0.175813 -0.0010202583 0.13697131 -0.036248732
-0.113307014 -0.019012384 -0.15045765 0.16619913 -0.09443937 -0.0496105 0.18345802 0.059761975
0.11671561 -0.058738064 -0.07477271 0.3657931 -0.07239834 0.14193554 0.1985327 -0.21322072
-0.22469792 -0.26216358 0.27589664 0.13442262 -0.39741427 -0.08257219 -0.0336792 -0.08494553
-0.18813102 0.15440704 0.20051105 0.20609298 0.067583755 0.13914306 0.31066957 -0.14506246

tcn.tcn.1.conv1.bias f4 [16]
00000000: b8f1 babe d6db 9fbe 2b3b 0cbd 0462 23be
00000010: 9b8d a1be 7b75 a8be ae86 753c e7f2 e43c
00000020: c93b 31be 4cf9 9bbe 239a 76be 2992 753d
00000030: abb0 9bbe 6475 433d 0899 3ebe f2e2 ce3d
-0.36512542 -0.3122241 -0.034236114 -0.15955359 -0.3155335 -0.3290213 0.014985723 0.027947856
-0.17307962 -0.30463636 -0.24082236 0.059953842 -0.30408224 0.047719374 -0.18613064 0.1010188

tcn.tcn.1.conv2.weight f4 [16, 16, 1]
00000000: 5fcc f33e 66b3 e2bd a047 12be 3aa0 063e
00000010: 67d0 0dbe 598e 05be 6acb 563e 1284 bd3e
00000020: 8f5b c9be 47cd 49be c55d 09be df45 993e
00000030: bbe0 b33b 116f 903e 45d3 a43e 3f49 143d
00000040: 219a e2bd b5f9 ad3e 73dc 44bd a9ec b2bd
00000050: efe2 2bbc b392 973b 0431 553e faab febd
00000060: 481c 503d 2f03 31be 12eb e43d a905 2d3e
00000070: c76b 6abd 296e b8bd a286 9fbe 0667 3f3e
00000080: 107a 893d 11c4 5a3e 1362 273e abd1 62bc
00000090: 6125 453e d1d2 fd3d 0942 923e 6516 96be
000000a0: 8edd 913d ac57 aabd 6ed7 94be 2b35 353e
000000b0: a47d 04be 979b e3bd 70da 23be 9754 51be
000000c0: 4694 75be 841b 68bd 2356 dbbe 3ccf 31be
000000d0: 6e5e f73d 548f 47bd f878 3bbd 1656 ea3d
000000e0: 3ed0 82bd dabb 9d3d 80a1 543e 7f6c 59be
000000f0: b32e c0bd b5bc bbbd 05b9 9d3d 6a51 193d
00000100: 91c6 ba3d c4a5 8f3d 4103 223d e217 01be
00000110: 686b 213e 1cf8 a6bd 9131 f33d 044b f2bc
00000120: 431e 473e 40dd b8bd d681 50bd 4e68 f73d
00000130: 640d 36be 7c15 12be e868 b83c 12b4 e83d
00000140: f5f1 ecbd e87d a2bd d957 fb3d a1f1 5dbe
00000150: 18d1 ae3d f2dd a73e c7f7 df3e 5405 533e
00000160: a2d2 92bc b243 10bd 0e71 2fbd fa33 353e
00000170: bd30 9bbd a55d 193d 89b9 763e 81bc 203e
00000180: d219 29be 52db 2f3e 30ad b9bd 1b44 3d3b
00000190: 8526 4a3e 9125 80be 2a78 d8bd 9266 8c3e
000001a0: 048c 773d f2f8 97bd e789 803c a27b 563e
000001b0: ed40 82be 4e3f 8abe 174d 84be fc8e 7b3e
000001c0: 6adc 853e 851c 0dbe 92d3 083e e320 ddbc
000001d0: e0be e5bd a810 f43e 3df8 843d 3419 333d
000001e0: 0d9b 8f3c 5562 a1bd 48be 26be 2621 ebbc
000001f0: 46f9 7bbd f1b1 a53e a437 10bd 8959 7ebd
00000200: 1773 88be 1d5a 873e ab67 5abe 1305 dc3d
00000210: 3a77 98be 921e 603e 2c03 7b3e e7a4 8bbd
00000220: 058a 2e3c a69d 97bd ecf4 02bd 3ed0 1f3e
00000230: 5aa2 86be 4ef6 e9bc 7a93 0abd 1269 23bd
00000240: 55c0 9bbd 861a 3f3d 4959 3bbc 12cd 86be
00000250: bb22 81be daa1 18be 3c0d 02bd 3de1 38bc
00000260: 084b cbbc b10d e6bd 8543 913e bae9 2cbe
00000270: ec23 50bc b707 403e f559 e13e bd39 b83d
00000280: d57c 4b3e 8061 dfbd 388e 20be c2df fabd
00000290: 5150 f9bb d434 593e 055a 42be 5e17 6fbd
000002a0: 92eb 1f3c 4e16 8c3d 5955 5a3e 8f19 8fbc
000002b0: af28 ba3d 244e 0d3d 6edd 05be a530 1d3e
000002c0: b8b4 783e 7f0f a5bd b137 04be 4112 4c3c
000002d0: 2538 bbbd 1527 8cbe 8baa 28be d4bd 583d
000002e0: e5d6 b1be 6c82 8abc c90f a5bd 51b5 2dbe
000002f0: 69e0 e23d f088 3abe 693e f4bc fed7 4f3c
00000300: f531 473e 96e8 59be d2b8 37bc ba70 e7bd
00000310: 9c45 5bbe 3b4f b4bd 613a a23d b2f3 903d
00000320: afed 993e 9389 96bd f0eb bebd 1ea5 97bd
00000330: 4c0e dc3c 95c4 24be 2096 a83e 0ef0 2d3e
00000340: 3acf 89bd a2d9 0dbd 977d b23b df18 f5bd
00000350: 8eb4 e3be cc65 16be fd13 623e 0974 9c3d
00000360: 871a 13be 65a8 25bd bb52 cfbd 8314 92bd
00000370: d493 8abe 36e5 c4be 37ec 373e 1c99 1e3d
00000380: 4ea5 b0bd 9a5b c83e 00d8 2b3e d421 113d
00000390: 3881 f03d d756 bf3d f06c 763e e378 ad3d
000003a0: b8e6 84bd 9834 77be 564c 443e 7d99 7dbd
000003b0: 27a0 2fbe c7b2 013d ba4b 28be 0e7e da3c
000003c0: 68cb afbe 4711 1c3e 5dfd 93bd d8f7 823d
000003d0: 7528 1a3e 1e53 4b3d f5b6 3b3e 904e 413d
000003e0: 0a24 d4bd f01a 14bd 07e3 3e3e a639 ecbc
000003f0: 640e 5cbe cde4 a3bc 175e 00bf a03b e2bd
0.4761686 -0.11069374 -0.14285135 0.13147059 -0.1384903 -0.13042583 0.20976034 0.37014824
-0.39327666 -0.19707213 -0.13414676 0.2993612 0.0054894364 0.28209737 0.32192436 0.036202665
-0.11064554 0.33979574 -0.0480618 -0.087365456 -0.010491117 0.004625642 0.20819479 -0.12435146
0.05080822 -0.1728637 0.111776486 0.1689669 -0.05723169 -0.090053864 -0.31157404 0.18691644
0.06712735 0.21363856 0.16346006 -0.013843934 0.1925254 0.12393726 0.28566006 -0.2931396
0.07122336 -0.08317503 -0.2907061 0.17696063 -0.12938553 -0.11113661 -0.16001296 -0.20442425
-0.23982343 -0.056666866 -0.42839155 -0.1736421 0.12078558 -0.048720673 -0.04576966 0.11442201
-0.06387375 0.077018455 0.20764732 -0.21232794 -0.09383907 -0.091668524 0.07701305 0.037431158
0.09119905 0.07014039 0.039553884 -0.12606767 0.15763628 -0.08152792 0.118746884 -0.029576786
0.19445138 -0.09026575 -0.05090507 0.120804414 -0.17778546 -0.14266008 0.02251096 0.11362471
-0.11569587 -0.07934171 0.12272615 -0.21674205 0.08535975 0.32786518 0.43743727 0.20607501
-0.017922703 -0.03522081 -0.042832427 0.17695609 -0.075776555 0.037442822 0.24094214 0.15696909
-0.16513756 0.17173508 -0.09066236 0.0028879705 0.19741257 -0.2502866 -0.105697945 0.27422005
0.060436264 -0.074205294 0.015690757 0.209456 -0.2544016 -0.27001423 -0.25840065 0.24566263
0.26144725 -0.1378041 0.13361958 -0.02699322 -0.11218047 0.47668958 0.0649266 0.043725207
0.017529989 -0.078800835 -0.16283524 -0.02870233 -0.061517023 0.3236232 -0.035209313 -0.062097106
-0.26650307 0.26435938 -0.21328609 0.10743155 -0.29778463 0.21886662 0.24512929 -0.06818562
0.010653024 -0.07403116 -0.031971857 0.15606782 -0.2629574 -0.02855983 -0.03383205 -0.039895125
-0.07605044 0.046656154 -0.011434861 -0.2632833 -0.2522181 -0.14905491 -0.031750903 -0.01128417
-0.024816051 -0.1123308 0.28371826 -0.16886035 -0.012703877 0.18752943 0.44013944 0.08995388
0.19871838 -0.109072685 -0.15679252 -0.1224971 -0.0076084514 0.21211559 -0.18979652 -0.058371894
0.009760754 0.06840192 0.2132162 -0.017468242 0.09089791 0.03449835 -0.1307275 0.15350588
0.24287689 -0.08059596 -0.1291187 0.012455524 -0.09141568 -0.27373567 -0.16471307 0.05291541
-0.34734264 -0.016907893 -0.080596514 -0.16963698 0.11077959 -0.182163 -0.029814916 0.012685774
0.19452651 -0.2128013 -0.011213498 -0.11300798 -0.21413273 -0.088041745 0.07921291 0.07077731
0.3006415 -0.07350459 -0.09322345 -0.074045405 0.026862286 -0.16090615 0.32927036 0.16986105
-0.067289785 -0.03463138 0.0054471004 -0.119676344 -0.4447369 -0.1468727 0.22077937 0.076393194
-0.14365588 -0.040443797 -0.101232015 -0.071328185 -0.2706591 -0.38456124 0.17961203 0.038720235
-0.08625279 0.39132386 0.16781616 0.03543265 0.117433965 0.09342735 0.24064994 0.08470323
-0.064893186 -0.24141157 0.19169745 -0.061913956 -0.17150937 0.031664636 -0.16435137 0.026671436
-0.34334874 0.15240966 -0.072260596 0.06394929 0.15054496 0.049639814 0.18331511 0.047194064
-0.103584364 -0.036158502 0.18641292 -0.028836083 -0.21489865 -0.020006562 -0.5014357 -0.11046529

tcn.tcn.1.conv2.bias f4 [16]
00000000: 659f 83bd 898d 313e 106e 0ebe ff6b 09bd
00000010: bbf2 b63c dc2c eebd 4c84 9cbc 4a03 41bd
00000020: f6c9 933e b082 2e3e 0004 54be a5af 253e
00000030: 4359 383e c573 16be 5aed 0cbe b862 153e
-0.064268865 0.17339148 -0.13909173 -0.03355026 0.02233254 -0.1162965 -0.019106053 -0.047122277
0.2886502 0.17042041 -0.20704651 0.16180284 0.180028 -0.146926 -0.13762417 0.1458844
