checkpoints/fine_tune/var_rf/hainsworth/0.4/model_fallen-blaze-195_finetune_finetune_finetune_finetune_finetune_GTZ_GIA/it_5304_loss_3.7561_acc10.6_acc20.73.pt (torch, 436712 bytes, 211 tensors)

conv1.weight f4 [16, 1, 3, 3]
0	0x3e90eaa2	0.2830401
1	0xbd4f9282	-0.05067683
2	0xbe99ee41	-0.30064586
3	0x3ead9eb0	0.3391013
4	0xbe0a7781	-0.1352215
5	0xbeba625c	-0.36403167
6	0x3e4a922a	0.1978232
7	0x3e3df8ff	0.18552016
8	0xbe93afce	-0.28845066
9	0x3e820fa2	0.25402552
10	0xbf05c7ad	-0.52257806
11	0xbedea654	-0.43486273
12	0x3e846f13	0.25865993
13	0xbe8b3670	-0.2718997
14	0x3dfa374a	0.12217577
15	0x3e227ef1	0.15868737
16	0x3e55d56c	0.20882195
17	0x3dcb984f	0.0994116
18	0xbe2cf185	-0.16889007
19	0x3ef473e3	0.47744665
20	0x3e87cbea	0.26522762
21	0xbe152918	-0.14566457
22	0x3ec3c18f	0.3823361
23	0x3db5edd6	0.08883254
24	0xbf18a6f9	-0.5962978
25	0x3d2fe078	0.04293868
26	0xbea84228	-0.32862973
27	0xbe8a5b6c	-0.27022874
28	0xbdd09790	-0.10185158
29	0x3eb6036a	0.3554948
30	0xbeac4521	-0.3364649
31	0x3dddad55	0.10824076
32	0x3e51680f	0.20449851
33	0x3ec85a7c	0.39131534
34	0x3da18560	0.078867674
35	0xbef642c0	-0.480978
36	0xbe91eab5	-0.2849938
37	0xbe862e3f	-0.26207158
38	0xbe5fb640	-0.21846867
39	0xbe4bd240	-0.19904423
40	0x3e3e24c9	0.1856872
41	0x3e8dd1a1	0.27698997
42	0xbd2226a1	-0.03958762
43	0xbd353293	-0.044237684
44	0xbe5cc6cf	-0.21560214
45	0xbd801efa	-0.06255908
46	0x3ddd2067	0.10797196
47	0xbd5e09b5	-0.054208476
48	0xbf53e890	-0.8277674
49	0x3e9f64ec	0.31131685
50	0x3ef5a8bd	0.479803
51	0xbe7f0dff	-0.24907683
52	0x3e9d2f44	0.30700123
53	0xbd20af3c	-0.039229617
54	0x3eb42748	0.3518622
55	0x3d36c066	0.04461708
56	0xbd75f95c	-0.06005226
57	0xbdc7a7b0	-0.09748781
58	0x3e44f838	0.19235313
59	0xbebea0a5	-0.37231937
60	0xbdcac3c5	-0.09900621
61	0x3e136614	0.14394408
62	0xbe605831	-0.21908642
63	0xbce17644	-0.027522214
64	0x3b2ea59b	0.0026649002
65	0x3e8466ba	0.25859624
66	0xbf055dc2	-0.5209619
67	0xbe739102	-0.23785785
68	0xbe511c15	-0.20420869
69	0x3e1faf72	0.15594271
70	0xbcbcf9b3	-0.023068285
71	0x3f157ef1	0.5839682
72	0xbed0261e	-0.4065408
73	0x3d56260e	0.052282386
74	0xbebd2b50	-0.36947107
75	0xbebba136	-0.36646432
76	0x3ed2da46	0.41182154
77	0x3ec0da47	0.37666532
78	0xbe26442a	-0.1623694
79	0x3ed021b3	0.4065071
80	0x3dfd000e	0.12353526
81	0xbf292621	-0.66073805
82	0x3dc03095	0.09384266
83	0x3f06f12b	0.52711743
84	0x3c353ba8	0.011061586
85	0xbe650c02	-0.22367862
86	0x3e514994	0.20438224
87	0xbeaa2567	-0.3323166
88	0x3b127ff6	0.0022354103
89	0x3ea1a8f9	0.31574228
90	0xbf0160f3	-0.5053856
91	0x3d6aecb2	0.057354636
92	0x3eb77cb0	0.35837317
93	0xbe648088	-0.22314656
94	0xbe4072d9	-0.18793811
95	0x3eb3e455	0.3513514
96	0x3e0ba3b0	0.1363666
97	0xbd895770	-0.067061305
98	0x3d3146bc	0.04328035
99	0x3e0b54b7	0.13606535
100	0x3ec7b289	0.390034
101	0xbe2b7dba	-0.1674718
102	0x3e4bab55	0.19889577
103	0x3eb284ed	0.3486704
104	0xbe50883c	-0.2036447
105	0x3e94b10e	0.29041332
106	0x3ce5afd1	0.028037937
107	0xbe0898bf	-0.13339518
108	0x3e122cb3	0.14274864
109	0x3e0825dd	0.13295694
110	0x3bf6438c	0.0075153764
111	0xbe44be1c	-0.19213146
112	0xbe766727	-0.24062787
113	0xbef39d6c	-0.4758104
114	0x3e8cd7b4	0.27508318
115	0x3ea86c4a	0.32895118
116	0xbe16f01e	-0.14740035
117	0x3e4a914b	0.19781987
118	0xbe00cfa0	-0.12579203
119	0xbe942162	-0.2893172
120	0x3ec980ea	0.39356166
121	0x3eb2fbf6	0.34957856
122	0x3e3e462b	0.18581454
123	0xbe9a0ee7	-0.30089495
124	0x3d9e4e9f	0.077298395
125	0xbf110351	-0.56645685
126	0x3ebfc691	0.37456182
127	0x3e473f3f	0.1945772
128	0xbe05d6b7	-0.13070188
129	0x3ed5089f	0.4160814
130	0xbe9744ab	-0.29544577
131	0xbcee1c0d	-0.02906611
132	0x3e49cc7a	0.19706908
133	0xbea83e4b	-0.32860026
134	0xbef6e041	-0.48217967
135	0xbe316189	-0.17322363
136	0xbd4525fd	-0.04813193
137	0x3e9855d4	0.29752982
138	0xbde39caa	-0.11113866
139	0x3d939b55	0.072073616
140	0x3ec87202	0.3914948
141	0xbf0dfc55	-0.55463153
142	0xbe94294c	-0.28937757
143	0x3f0173ba	0.5056721

conv1.bias f4 [16]
0	0xbcb3f0dc	-0.021965437
1	0x3d0b8a99	0.034067724
2	0xbe0ddb78	-0.13853252
3	0xbd04c102	-0.03241063
4	0xbe4c6695	-0.19961007
5	0xbde3d203	-0.11124041
6	0x3de50d83	0.11184218
7	0xbd4fff7e	-0.050780766
8	0xbd77b75d	-0.060477603
9	0x3d4a687a	0.049416043
10	0xbcc04658	-0.023471043
11	0xbe78d6dd	-0.24300714
12	0x3d26b7ab	0.040702503
13	0xbddeb155	-0.10873667
14	0xbd903137	-0.07040637
15	0xbdf80bdd	-0.12111638

conv2.weight f4 [16, 16, 3, 3]
0	0xbe7b1c6b	-0.2452256
1	0xbd5bac18	-0.05363092
2	0xbdebff5b	-0.115233146
3	0xbdbc6bfa	-0.092002824
4	0xbdf51381	-0.11966611
5	0xbe0dc600	-0.13845062
6	0xbd58a8df	-0.052895423
7	0x3df840b5	0.12121717
8	0x3df4c484	0.11951545
9	0xbd2d09ed	-0.042245794
10	0xbe2e4de7	-0.17021905
11	0xbe1f8d24	-0.15581185
12	0xbdf062a1	-0.11737562
13	0x3c126033	0.0089340685
14	0xbe14d589	-0.14534582
15	0xbe147fc4	-0.14501864
16	0x3d63f215	0.05565079
17	0xbe5c96e8	-0.21541941
18	0x3e125b8e	0.14292738
19	0xbe1c9943	-0.1529284
20	0x3da658d6	0.08122413
21	0x3e4fdc4a	0.20298877
22	0xbe9db274	-0.3080021
23	0xbdf14cf1	-0.117822535
24	0x3eb36563	0.3503829
25	0xbe7d1334	-0.24714357
26	0xbe55b05b	-0.20868056
27	0xbce301bf	-0.027710794
28	0x3e7006f9	0.2344016
29	0x3ec8166a	0.390796
30	0xbd35a650	-0.04434806
31	0x3e3e736e	0.1859872
32	0x3eccf343	0.40029344
33	0x3eb00335	0.34377447
34	0x3ec0798a	0.37592727
35	0x3ef3c659	0.47612265
36	0x3c2f17da	0.010686839
37	0xbcbf2527	-0.023333145
38	0xbe5a2870	-0.21304488
39	0xbdbcdcda	-0.092218116
40	0xbe377838	-0.17916954
41	0xbe8fd0cd	-0.2808899
42	0xbd4aa069	-0.049469385
43	0xbe420f4d	-0.1895115
44	0xbe123c42	-0.14280799
45	0x3eff2655	0.49833933
46	0x3e6306a2	0.22170499
47	0x3f43a831	0.76428515
48	0x3e87ee04	0.2654878
49	0xbe3c54f6	-0.18391785
50	0x3e96a3be	0.294218
51	0x3f0a57b6	0.54040086
52	0xbd985b17	-0.07439249
53	0x3ecf2ed3	0.40465412
54	0x3d6d8631	0.057989303
55	0xbe224fc0	-0.15850735
56	0xbe3efa5e	-0.18650195
57	0xbc6c567e	-0.014424918
58	0xbddb389d	-0.107041575
59	0xbe73454b	-0.23756902
60	0xbd3611f4	-0.044450715
61	0xbdc901a4	-0.09814766
62	0xbd95190a	-0.072801664
63	0x3e94af9e	0.29040235
64	0x3e13fa1b	0.14450876
65	0xbdb6050c	-0.08887681
66	0x3e1a6fea	0.15081754
67	0xbe0d0010	-0.13769555
68	0xbeede90b	-0.4646686
69	0xbcd8e6bf	-0.026477216
70	0xbd9bb719	-0.076032825
71	0xbec9bfda	-0.39404184
72	0x3e6706bc	0.22561163
73	0xbe04f428	-0.12983763
74	0x3cce3613	0.025172269
75	0x3e814bc9	0.25253132
76	0xbe5bbf8d	-0.2145979
77	0xbe26153c	-0.16219038
78	0x3dd53eb5	0.10412351
79	0xbe3c3079	-0.18377866
80	0xbe512df3	-0.20427684
81	0x3dc84b55	0.097799934
82	0x3e983353	0.29726657
83	0x3eb5a414	0.35476744
84	0x3e6d0e8c	0.2315008
85	0x3eaafb19	0.33394697
86	0x3ec0c6ec	0.37651765
87	0x3e99d61f	0.30046174
88	0x3e108eed	0.14117022
89	0x3e910186	0.28321475
90	0x3e0ddbc0	0.13853359
91	0x3de92c4a	0.113854006
92	0x3ea1213f	0.31470677
93	0xbc3ba47f	-0.011452793
94	0xbda56a94	-0.08076969
95	0x3dbf564e	0.09342633
96	0x3c8ec7dc	0.017429285
97	0xbdd9f936	-0.10643236
98	0xbd4278f9	-0.04747865
99	0xbde41335	-0.11136476
100	0xbe100ec5	-0.14068134
101	0xbe02d8bb	-0.12777989
102	0xbe07932a	-0.13239732
103	0xbe439c80	-0.19102669
104	0xbe87b7ff	-0.26507565
105	0xbd8a7d35	-0.067621626
106	0x3a11e69c	0.00055656745
107	0xbe1c7ae6	-0.15281257
108	0xbdced6b2	-0.10099544
109	0xbde4110a	-0.111360624
110	0xbe6f4dfc	-0.23369592
111	0xbd1e8ea0	-0.038710237
112	0xbde7d332	-0.11319579
113	0xbe55ae9f	-0.20867394
114	0xbc9a571d	-0.018840367
115	0x3d1af192	0.037828036
116	0xbdbb00cc	-0.09131011
117	0x3debfd01	0.11522866
118	0xbdb822c8	-0.08991009
119	0xbe9ca86b	-0.30597243
120	0x3c45884c	0.0120564215
121	0xbe25fd66	-0.16209945
122	0xbe852b48	-0.26009583
123	0x3ba4326a	0.0050108926
124	0xbd9d14a7	-0.07669955
125	0xbef54e88	-0.47911477
126	0xbeb142fc	-0.34621418
127	0xbea1418a	-0.31495315
128	0xbe09fa4f	-0.13474391
129	0xbe8f5447	-0.27993986
130	0xbd296174	-0.041352704
131	0x3caccda5	0.021094153
132	0xbe002b84	-0.125166
133	0x3e375ab5	0.17905696
134	0x3c10a65a	0.008828724
135	0x3e52c908	0.205845
136	0x3e5c3b48	0.21506989
137	0x3f040a16	0.5157789
138	0xbcc49385	-0.023996124
139	0xbb898989	-0.0041973037
140	0x3e5591b5	0.20856364
141	0x3e0d8539	0.13820352
142	0xbde420d3	-0.11139073
143	0x3d2b530e	0.041827254
144	0x3e4eaf37	0.20184027
145	0x3d63585e	0.055504195
146	0x3e455f26	0.19274577
147	0x3d3d333d	0.046191443
148	0x3e142bd2	0.14469841
149	0x3dfafc16	0.12255113
150	0x3c4210b3	0.011844802
151	0x3d92fd11	0.07177175
152	0x3d444390	0.047915995
153	0x3e8ea95c	0.27863586
154	0xbdf0712b	-0.11740335
155	0x3e9e7cb8	0.30954528
156	0xb9ac8763	-0.00032907267
157	0xbe0a0c7d	-0.13481326
158	0x3deed6ac	0.11662039
159	0x3e2a8b40	0.16654682
160	0xbe2a1bb6	-0.16612133
161	0x3c7abc5d	0.015303698
162	0xbe507003	-0.20355229
163	0x3f2625da	0.64901507
164	0x3d71d38b	0.059039634
165	0xbf2eee96	-0.68332803
166	0x3db1b236	0.08676569
167	0xbe164d5f	-0.14677952
168	0xbf30c248	-0.6904645
169	0x3df6da89	0.12053401
170	0xbe8046d4	-0.25054038
171	0xbeac8be3	-0.33700475
172	0xbe5b02de	-0.21387812
173	0xbc700888	-0.0146504715
174	0xbdaf9e86	-0.08575158
175	0x3bc75535	0.0060831555
176	0x3e2542be	0.16138741
177	0xbc4f6a1a	-0.012659574
178	0x3d9dda29	0.077076264
179	0x3dd925f0	0.10602939
180	0x3e2b8121	0.16748478
181	0x3e5510ae	0.20807144
182	0x3e532c87	0.20622455
183	0x3cb4c6ae	0.022067394
184	0x3daec866	0.08534317
185	0xbd0b9df2	-0.034086175
186	0x3c87076c	0.016483031
187	0x3d94f37c	0.072730035
188	0xbcb1b4f4	-0.02169273
189	0xbebf9e1b	-0.37425312
190	0x3e8d21f8	0.2756498
191	0xbd240941	-0.040047888
192	0xbedacecc	-0.42735898
193	0x3dbfc5c0	0.0936389
194	0xbdbc7280	-0.09201527
195	0xbf024f1c	-0.5090196
196	0x3e894440	0.26809883
197	0xbbb70103	-0.0055848374
198	0xbd09255a	-0.033482887
199	0x3e100ec3	0.14068131
200	0xbd89f79f	-0.06736683
201	0x3d09d461	0.033649806
202	0x3d7b32e5	0.061327834
203	0x3d726519	0.059178445
204	0x3c906c53	0.017629778
205	0x3deae097	0.11468618
206	0x3dd296b6	0.10282652
207	0x3e4b4124	0.19849068
208	0x3cbf1d4e	0.023329403
209	0xbe4aa8cd	-0.19790955
210	0xbd7ab36b	-0.061206263
211	0xbda194f4	-0.07889739
212	0xbe117d37	-0.14207922
213	0xbd01b6cf	-0.03166848
214	0xbd25a70b	-0.040442508
215	0xbeb341b8	-0.35011077
216	0xbf10dc43	-0.5658609
217	0x3cfd0a40	0.030888677
218	0xbe9ee921	-0.31037238
219	0xbed4b8ea	-0.41547328
220	0x3d890bd2	0.06691708
221	0xbe158e98	-0.14605176
222	0xbf1565a0	-0.5835819
223	0x3e6cb5ef	0.23116277
224	0x3d5bddb6	0.053678237
225	0xbcead88c	-0.02866771
226	0xbdc9244a	-0.09821375
227	0xbdc90b63	-0.09816625
228	0xbe0964ce	-0.1341736
229	0xbdcc2c63	-0.099694036
230	0x3d9684fb	0.07349583
231	0xbe1dcb9d	-0.15409704
232	0x3dcf3eb1	0.10119379
233	0x3d608fe6	0.054824732
234	0x3e4efa46	0.20212659
235	0xbe15812a	-0.14600053
236	0x3c2608c0	0.010133922
237	0xbd87857f	-0.06617259
238	0xbca6cb5e	-0.020360645
239	0xbd9aaeb1	-0.07552851
240	0xbd225154	-0.03962834
241	0xbe131486	-0.14363298
242	0x3d04cd6e	0.032422476
243	0xbe804e4b	-0.25059733
244	0xbd1bb86b	-0.03801767
245	0x3e7df036	0.24798664
246	0xbdcd1636	-0.10014002
247	0xbd8448c5	-0.06459192
248	0x3e1b4e31	0.15166546
249	0xbd8f13ca	-0.06986196
250	0x3d2c33b4	0.042041495
251	0x3e4b2b86	0.19840822
252	0x3d3506cd	0.04419594
253	0xbd95b947	-0.073107295
254	0xbdb3b804	-0.087753326
255	0xbdb4e07e	-0.08831881

conv2.bias f4 [16]
0	0xbd201a77	-0.03908774
1	0xbe1e92c8	-0.1548568
2	0xbc703258	-0.01466044
3	0xbdacf3f4	-0.08444968
4	0xbe21a30c	-0.15784854
5	0xbe82aab6	-0.25520867
6	0xbe82c195	-0.25538316
7	0xbdaa5d7c	-0.08318612
8	0xbd579bb0	-0.05263871
9	0xbe00d1f6	-0.12580094
10	0xbdda47fc	-0.10658261
11	0xbe02217d	-0.12708087
12	0xbcd38da4	-0.025824375
13	0xbe0f89a4	-0.1401735
14	0x3d7607b7	0.06006595
15	0xbdfdcb50	-0.123922944

conv3.weight f4 [16, 16, 8, 1]
0	0xbea9deee	-0.33177894
1	0xbe70f061	-0.23529197
2	0xbe2b8aec	-0.16752213
3	0xbe6d3997	-0.231665
4	0xbea5c3c1	-0.3237591
5	0xbed3a479	-0.4133642
6	0xbe846f36	-0.25866097
7	0x3e0f3620	0.13985491
8	0x3e8bef92	0.27331215
9	0x3e4907bd	0.19631858
10	0x3e88941f	0.26675507
11	0x3e041f12	0.12902477
12	0x3e7ac120	0.24487734
13	0x3eb25f50	0.34838343
14	0xbe5bc7e7	-0.21462975
15	0xbeb2f237	-0.3495042
16	0x3e406d2a	0.18791643
17	0x3e5e186c	0.21689004
18	0x3e60fe45	0.21971996
19	0x3e4f0128	0.20215285
20	0x3d879f3a	0.06622167
21	0x3d7d8a1c	0.06189929
22	0xbe86352f	-0.2621245
23	0xbe1def27	-0.1542326
24	0xbeb7cd15	-0.35898653
25	0xbe32b238	-0.17450798
26	0xbe7b3e80	-0.2453556
27	0xbde2db11	-0.1107694
28	0xbde16748	-0.110060275
29	0xbea6228f	-0.3244824
30	0x3d7a9015	0.061172564
31	0xbe24399e	-0.16037604
32	0xbe4d34df	-0.200397
33	0xbd8c1d39	-0.06841511
34	0x3b75b00b	0.0037488963
35	0xbd242624	-0.040075436
36	0x3cb78884	0.022403963
37	0x3e230787	0.1592084
38	0x3d7fb909	0.062432323
39	0x3d95f7d9	0.07322664
40	0xbea270e8	-0.31726766
41	0x3e374a73	0.17899494
42	0x3d80ee0a	0.06295402
43	0x3e235584	0.1595059
44	0x3ca7f68e	0.020503309
45	0x3cfdd33c	0.030984513
46	0xbedcd579	-0.43131617
47	0xbc3580ed	-0.011078102
48	0xbbb0d432	-0.0053963894
49	0x3e213bb8	0.15745437
50	0x3e576ce3	0.2103763
51	0x3d9a2093	0.07525744
52	0x3e043d8a	0.129141
53	0x3e103592	0.14082935
54	0xbd44a444	-0.04800822
55	0xbd730e6d	-0.05933993
56	0x3e41aeae	0.18914291
57	0xbc0bf6bf	-0.008542716
58	0x3db678b5	0.08909742
59	0xbca5bd77	-0.020231945
60	0xbcc63012	-0.024192844
61	0xbe5bcfa6	-0.2146593
62	0x3e1e6ae2	0.1547046
63	0xbd294934	-0.041329578
64	0x3c8dfdeb	0.017332992
65	0xbdafc0fe	-0.08581732
66	0x3c794e64	0.015216444
67	0x3d057812	0.03258521
68	0xbe3c8093	-0.18408422
69	0xbe060e18	-0.13091314
70	0x3f23b99b	0.63955086
71	0xbd4de123	-0.050263535
72	0xbddffa55	-0.10936419
73	0xbda1c203	-0.07898333
74	0x3bd6fe06	0.0065610437
75	0xbd9bae75	-0.076016344
76	0xbd4e3698	-0.050345033
77	0x3c03a0b6	0.008033922
78	0xbe783cff	-0.24242018
79	0x3e7a7941	0.24460317
80	0x3e288aa5	0.16459139
81	0xbd997e7b	-0.07494827
82	0xbd21748c	-0.03941779
83	0xbe162512	-0.14662579
84	0xbe43e4b7	-0.19130217
85	0xbe339ba7	-0.17539845
86	0x3e438dc9	0.19097055
87	0xbe5d8065	-0.2163101
88	0x3d6f7813	0.05846412
89	0x3e190a0e	0.14945242
90	0x3dcfb89f	0.101426356
91	0x3e27a535	0.16371615
92	0x3e9de26e	0.30836815
93	0xbe34f37b	-0.17671005
94	0xbf026ef7	-0.5095057
95	0x3de65601	0.11246873
96	0xbe106c24	-0.14103752
97	0xbe948671	-0.2900882
98	0xbea2d384	-0.31802
99	0xbe2c5da8	-0.16832602
100	0xbe3b16f7	-0.18270479
101	0xbe9d6a70	-0.30745268
102	0xbcfa5286	-0.030556928
103	0x3dcad3cd	0.09903679
104	0x3dfad817	0.12248247
105	0x3e730440	0.2373209
106	0x3e95348f	0.29141662
107	0x3e546e51	0.20745207
108	0x3d44d260	0.04805219
109	0x3e7dde1b	0.24791758
110	0x3ecefad2	0.40425736
111	0xbe81b8d9	-0.2533634
112	0x3e444659	0.1916746
113	0x3dcf9df6	0.101375505
114	0x3d965491	0.073403485
115	0x3d74b256	0.059740387
116	0xbe0048d9	-0.12527789
117	0xbaa46534	-0.0012542368
118	0xbdb4f15d	-0.08835099
119	0x3e02aec5	0.12761982
120	0xbee255a9	-0.4420598
121	0xbe8de828	-0.27716184
122	0xbe054550	-0.13014722
123	0xbe7df327	-0.24799787
124	0xbe9a6a81	-0.3015938
125	0xbddad409	-0.10684974
126	0x3c886dbf	0.016653894
127	0x3cc03a32	0.02346525
128	0xbe5b5aac	-0.21421307
129	0xbde129eb	-0.10994323
130	0xbe2ffe45	-0.1718684
131	0xbca93c5a	-0.02065866
132	0xbcaf3cf6	-0.021391373
133	0x3b31a6c5	0.002710746
134	0x3eaeebc8	0.34164262
135	0x3d4fabdd	0.05070101
136	0x3cfca38f	0.03083971
137	0x3d98bee2	0.07458283
138	0x3da40d53	0.08010354
139	0x3d4728b5	0.048622806
140	0x3e00a418	0.12562597
141	0x3e92f0f8	0.2869947
142	0xbe5ad04d	-0.21368523
143	0xbe2e3ed3	-0.17016153
144	0x3cc60071	0.024170132
145	0xbd9a922d	-0.07547412
146	0xbcfb6f8c	-0.030692838
147	0x3d659bbe	0.05605673
148	0xbdc17b13	-0.09447303
149	0x3e490cae	0.19633743
150	0xbde68cb4	-0.11257306
151	0xbcfe6696	-0.031054776
152	0x3d382c8d	0.044964362
153	0x3d6464f9	0.055760358
154	0xbd878148	-0.06616455
155	0xbe0cb745	-0.13741787
156	0xbe8576ec	-0.26067293
157	0xbeabb665	-0.33537593
158	0xbe6c1074	-0.23053151
159	0xbecbc1b8	-0.39796233
160	0xbdbd3da4	-0.09240273
161	0x3d8f3c02	0.069938675
162	0xbbc8d7ca	-0.0061292397
163	0xbc9627ba	-0.01832949
164	0xbe015085	-0.12628372
165	0x3e00b174	0.12567693
166	0xbe8203a5	-0.25393406
167	0xbd652308	-0.05594161
168	0x3e3264c8	0.17421257
169	0xbd772615	-0.060339052
170	0xbd00f744	-0.03148581
171	0xbdf54541	-0.119761
172	0xbd821cdb	-0.0635316
173	0xbda37fc6	-0.07983355
174	0xbf02ce34	-0.5109589
175	0xbe0a5e9c	-0.13512653
176	0xbea05f05	-0.31322494
177	0xbe282f7e	-0.16424367
178	0xbe473120	-0.19452333
179	0xbe55caac	-0.20878094
180	0xbdc1f493	-0.09470477
181	0xbd61d9e4	-0.055139437
182	0x3dc8f119	0.09811611
183	0xbcb0393a	-0.021511663
184	0x3c47bd01	0.012191058
185	0xbe0f3cbd	-0.13988014
186	0xbe7b5e93	-0.24547796
187	0xbcfa9629	-0.03058918
188	0xbcae9acb	-0.021314045
189	0x3e2ca0c8	0.16858208
190	0x3ea55da4	0.32298005
191	0x3d348794	0.04407461
192	0xbd7a6fdd	-0.061141837
193	0x3c19d915	0.009390135
194	0x3d176f97	0.036971655
195	0x3d26bb68	0.04070607
196	0xbd0f1123	-0.034928452
197	0x3c701eb1	0.014655755
198	0x3f090e34	0.535373
199	0xbe0a8bcb	-0.1352989
200	0x3de73906	0.11290173
201	0xbd12512c	-0.035721943
202	0xbd480656	-0.048834167
203	0xbdf7d7eb	-0.1210173
204	0x3d1a6f29	0.037703667
205	0x3dd668fa	0.104692414
206	0xbe674714	-0.22585708
207	0x3eb6baa7	0.3568928
208	0xbe4a9c4b	-0.19786184
209	0xbe811605	-0.25212112
210	0xbe7baa1a	-0.24576607
211	0xbe4bc1a7	-0.19898091
212	0xbe60e2b5	-0.21961482
213	0xbea6d826	-0.32586783
214	0x3ecb9e0c	0.39769018
215	0xbebdb985	-0.37055603
216	0x3d8995ec	0.067180485
217	0xbc5dd66d	-0.013539893
218	0x3c1f10cf	0.009708597
219	0x3da7df90	0.08196938
220	0x3d2ce959	0.042214725
221	0x3db02369	0.08600504
222	0xbd83a3f5	-0.06427757
223	0x3dd6be36	0.104854986
224	0xbca204f7	-0.019777758
225	0xbe079527	-0.13240491
226	0xbdf06ba4	-0.11739281
227	0xbdaf8b82	-0.08571531
228	0xbdd61a43	-0.10454228
229	0xbce45644	-0.027873166
230	0xbe41e51d	-0.18935056
231	0x3e53c450	0.20680356
232	0x3cd182e0	0.025575101
233	0x3d04c391	0.03241307
234	0xbc5fbc81	-0.013655783
235	0xbc6a2228	-0.01429037
236	0x3db5f73b	0.08885046
237	0xbdda3491	-0.106545575
238	0x3e551abf	0.20810984
239	0xbec09721	-0.37615302
240	0x3daeed83	0.085413955
241	0x3d352e52	0.044233628
242	0x3c295b12	0.010336654
243	0x3da2f163	0.07956197
244	0xbd0d26c3	-0.034460794
245	0xbd358bfe	-0.04432296
246	0xbeaed2c9	-0.3414519
247	0x3e35d769	0.17757954
248	0x3d7145e0	0.05890453
249	0x3d61078c	0.054938838
250	0x3dc8c6dd	0.09803555
251	0x3e0002eb	0.12501113
252	0xbcc98e99	-0.024604129
253	0x3e07df9c	0.13268894
254	0x3deeca20	0.11659646
255	0x3eb0b71b	0.34514698

conv3.bias f4 [16]
0	0xbe1efe03	-0.15526585
1	0x3d3fb978	0.046807736
2	0x3e090617	0.1338123
3	0xbda39e0c	-0.079891294
4	0xbcb14db2	-0.021643493
5	0x3ea8ed59	0.32993582
6	0x3e1660cf	0.14685367
7	0x3c4ad785	0.012380485
8	0xbde0fe32	-0.10985984
9	0xbec6f012	-0.38855034
10	0x3e3e5572	0.18587282
11	0x3ebad00b	0.3648685
12	0xbd43082b	-0.04761521
13	0xbd62a7ae	-0.055335693
14	0x3e86608d	0.26245537
15	0xbd26146a	-0.040546812

tcn.tcn.0.conv1.weight f4 [16, 16, 5]
0	0x3df7b7ce	0.12095605
1	0x3e086be4	0.13322407
2	0x3d8467aa	0.06465085
3	0xbbfef7b8	-0.007780995
4	0xbdfc526d	-0.12320409
5	0x3bc5a30b	0.006031399
6	0xbd515edc	-0.051115856
7	0x3cf484fd	0.02984857
8	0xbd8a080d	-0.06739817
9	0xbeefd5ca	-0.46842796
10	0x3d101124	0.035172597
11	0x3da79657	0.08182972
12	0x3eb03615	0.3441626
13	0x3d20c22f	0.039247688
14	0xbd8fdc75	-0.07024471
15	0x3de7b6f7	0.11314195
16	0x3e0bf3c6	0.13667211
17	0x3e0f706f	0.14007734
18	0x3dfe9276	0.12430279
19	0x3e87aca9	0.26498917
20	0x3ea27af3	0.31734428
21	0x3d188508	0.037236243
22	0x3ea5dc9c	0.32394874
23	0x3e4c2283	0.1993504
24	0xbcb9a12b	-0.022659859
25	0xbf03f328	-0.515429
26	0xbdfde113	-0.12396445
27	0x3c2612bd	0.0101363035
28	0xbb865197	-0.0040990817
29	0x3e90d1b2	0.28284985
30	0xbe7310c6	-0.23736867
31	0xbe33e9ea	-0.175697
32	0xbe6cf781	-0.2314129
33	0xbd8a50a2	-0.06753661
34	0x3dfccd4d	0.123438455
35	0xbdd43cae	-0.10363136
36	0xbe3c3867	-0.18380891
37	0xbddd9052	-0.108185425
38	0xbc9a5dc1	-0.018843533
39	0xbdbae435	-0.09125558
40	0xbdd85082	-0.10562231
41	0xbd425de9	-0.04745284
42	0xbde6ddd8	-0.11272782
43	0xbe4d9dca	-0.20079723
44	0xbea6a8db	-0.32550701
45	0xbea8178f	-0.32830474
46	0xbe47b90c	-0.19504184
47	0xbcd4fd86	-0.025999796
48	0x3c949d37	0.018141372
49	0x3e0e29f0	0.13883185
50	0xbd7df841	-0.06200433
51	0xbc869dba	-0.016432632
52	0xbe221925	-0.15829904
53	0xbeb9ff0b	-0.36327395
54	0xbe4f9454	-0.20271426
55	0xbdcfe85b	-0.1015174
56	0xbe197942	-0.14987662
57	0xbd8dabf4	-0.06917563
58	0xbdefec00	-0.11714935
59	0xbe1ac001	-0.15112306
60	0x3dcba0ed	0.099428035
61	0x3bf67581	0.007521332
62	0x3e6c8b85	0.23100097
63	0xbd77ca3a	-0.060495593
64	0xbe32fc13	-0.17478971
65	0x3dae93f6	0.08524315
66	0xbd8fa04d	-0.07012997
67	0xbdcb99b5	-0.09941427
68	0xbd0fd545	-0.0351155
69	0x3d2f0a12	0.042734213
70	0xbdcef9c5	-0.101062335
71	0x3cecbf9b	0.028899958
72	0xbb98dab4	-0.0046647433
73	0xbd180da7	-0.037122395
74	0x3e049cc0	0.1295042
75	0x3d1346e4	0.03595628
76	0xbe16faf4	-0.14744169
77	0x3dc3d0ee	0.095613346
78	0xbd8a437f	-0.06751155
79	0xbe17722d	-0.14789648
80	0x3e5fd2af	0.21857713
81	0x3eb994da	0.36246377
82	0x3dfe9359	0.12430448
83	0x3e55d214	0.2088092
84	0x3e0ca8e7	0.13736306
85	0x3e3081bc	0.1723699
86	0x3eb3321f	0.34999177
87	0xbadf7934	-0.0017049671
88	0x3e44f347	0.19233428
89	0x3e9df361	0.30849746
90	0x3cac3548	0.0210215
91	0x3ebf22f6	0.3733136
92	0x3e5f1019	0.21783485
93	0x3e7ec80e	0.24881002
94	0x3eb398d7	0.35077545
95	0xbd9c1bb5	-0.07622472
96	0xbd85991d	-0.06523345
97	0xbeb599a8	-0.35468793
98	0x3cd8f195	0.026482383
99	0xbd32313c	-0.043503985
100	0xbeb9968f	-0.3624768
101	0xbe8f3221	-0.27967933
102	0xbad353a2	-0.0016122947
103	0x3d20fa12	0.039300986
104	0x3e11b3c1	0.14228727
105	0x3db8b300	0.090185165
106	0x3d20416e	0.0391249
107	0xbddede7b	-0.108822785
108	0xbd8aa69d	-0.0677006
109	0xbdd3c440	-0.10340166
110	0xbea3a0a4	-0.31958497
111	0xbe83412c	-0.2563566
112	0xbde2edac	-0.110804886
113	0xbcfdd15e	-0.030983623
114	0xbe070ba1	-0.1318803
115	0x3d16843d	0.036747206
116	0xbc524a04	-0.0128350295
117	0x3dcffcc2	0.101556316
118	0x3e8cca99	0.2749832
119	0x3e768786	0.24075136
120	0x3c714b58	0.014727436
121	0x3e271100	0.16315079
122	0xbd02ccaf	-0.031933483
123	0x3e0bb32f	0.13642572
124	0x3c3e2b7e	0.011607049
125	0xbc2ecbf2	-0.010668742
126	0xbe066903	-0.13125996
127	0xbdaf48b1	-0.08558787
128	0xbe008199	-0.12549438
129	0x3ca1c2c1	0.019746186
130	0x3d0b4783	0.034003746
131	0x3b7ca3ef	0.003854986
132	0x3e025586	0.12727937
133	0x3e2b566a	0.16732183
134	0x3de39605	0.11112598
135	0x3ccaa410	0.024736434
136	0x3e12c36c	0.1433236
137	0x3deeb17b	0.116549455
138	0x3da28747	0.07935958
139	0x3e051ba6	0.12998828
140	0xbe052e6f	-0.13005994
141	0xbde46c4f	-0.11153471
142	0xbba285bb	-0.0049597896
143	0xbd480f65	-0.048842806
144	0x3e111982	0.14169887
145	0xbd4821e2	-0.04886044
146	0x3c7d52c2	0.0154616255
147	0x3dd5eb4f	0.10445272
148	0x3e5f77f1	0.21823098
149	0x3e782e19	0.24236335
150	0x3e270331	0.16309811
151	0xbdc3825b	-0.09546348
152	0x3d4275d6	0.04747566
153	0xbd4acbd1	-0.04951078
154	0xbe0629a0	-0.13101816
155	0x3cda02d3	0.026612675
156	0x3dc238ac	0.094834656
157	0xbe03c090	-0.12866426
158	0xbe0cbacb	-0.13743131
159	0x3e4eb6f6	0.20186982
160	0x3d297d8b	0.041379493
161	0x3e57eb39	0.21085824
162	0x3d8b03ea	0.06787856
163	0x3d5cfb9c	0.05395089
164	0xbdae1207	-0.08499532
165	0x3e3e0314	0.18555862
166	0x3db2cb02	0.08730127
167	0x3dd98e95	0.106228985
168	0xbc481b9b	-0.012213613
169	0xbcb52808	-0.022113815
170	0x3d75f48c	0.06004767
171	0xbccf1e10	-0.02528289
172	0x3dbf0c01	0.093284614
173	0x3dbc862f	0.09205281
174	0xbd6b61f1	-0.05746645
175	0xbdc86030	-0.09783971
176	0x3afef7a1	0.0019452461
177	0xbe626c94	-0.22111732
178	0xbe660f97	-0.22466885
179	0xbdc2c29f	-0.09509777
180	0x3dadfeaa	0.08495839
181	0x3dac5fd9	0.08416719
182	0xbd88cf36	-0.06680147
183	0x3bd4d58d	0.006495184
184	0xbcee03f0	-0.029054612
185	0x3ce96f42	0.028495435
186	0x3e1a7b2f	0.15086053
187	0xbba92be9	-0.005162705
188	0xbd9240c5	-0.0714126
189	0xbd456950	-0.048196137
190	0xbd4ee5e2	-0.050512202
191	0xbd8358a2	-0.0641339
192	0xbdadbbf3	-0.08483114
193	0x3d516592	0.051122256
194	0x3e9170e1	0.28406432
195	0x3de420b8	0.11139053
196	0xbcb67c85	-0.022276172
197	0x3e2548e8	0.16141093
198	0x3ea3adc2	0.31968504
199	0x3d2aabc4	0.041667715
200	0xbdd557c5	-0.10417131
201	0xbe4a9c35	-0.19786151
202	0xbe2d9e36	-0.16954884
203	0xbe946905	-0.28986374
204	0xbe96dcfa	-0.29465467
205	0xbd9f9899	-0.077927776
206	0xbdc4a9f2	-0.09602727
207	0x3c24b76c	0.010053497
208	0x3e81d002	0.2535401
209	0xbcceeb08	-0.025258556
210	0x3e0279f4	0.12741834
211	0xbcd2a404	-0.025712974
212	0xbcf22abb	-0.029561391
213	0x3dbded15	0.092737354
214	0x3d0409ef	0.032236036
215	0xbd863547	-0.065531306
216	0x3d8438cf	0.06456148
217	0x3eb62650	0.35576105
218	0x3e72a94e	0.23697397
219	0xbcbdf34e	-0.023187306
220	0xbdd46615	-0.10371033
221	0xbe50379b	-0.20333712
222	0xbb406188	-0.0029355008
223	0x3d9d21d9	0.076724716
224	0xbe4cd979	-0.20004834
225	0xbe028f89	-0.12750067
226	0xbd5d26a6	-0.053991936
227	0x3d37cb57	0.044871654
228	0x3e4b0033	0.19824295
229	0xbe032094	-0.12805396
230	0xbe930a9c	-0.28719032
231	0xbd20f845	-0.03929927
232	0x3d4171b0	0.04722756
233	0x3d178249	0.036989484
234	0xbd2f4ee9	-0.042799864
235	0xbd0c36f2	-0.034232087
236	0xbe01f201	-0.12689973
237	0x3dc40ae9	0.095723934
238	0xbe1ee8da	-0.15518513
239	0xbee557ae	-0.44793457
240	0xbea3c7ca	-0.31988364
241	0xbdefd9f2	-0.11711492
242	0xbdd960ad	-0.106141426
243	0x3e3f012d	0.18652792
244	0x3e2611a9	0.16217674
245	0xbda61311	-0.081091054
246	0x3dc8f951	0.09813178
247	0x3b935019	0.0044956324
248	0x3cf8ac86	0.030355703
249	0x3da2787e	0.07933138
250	0xbe1a791d	-0.15085264
251	0x3d4acbf7	0.049510922
252	0x3e54d4eb	0.20784347
253	0x3cf3a58e	0.029742029
254	0x3e4f5918	0.2024883
255	0x3c5ff39a	0.013668919

tcn.tcn.0.conv1.bias f4 [16]
0	0xbe505e43	-0.20348458
1	0xbd9ff30b	-0.07810029
2	0x3e2967d4	0.16543514
3	0x3da6f033	0.08151283
4	0xbdae6a85	-0.08516411
5	0xbc8d4407	-0.017244352
6	0xbbae64d5	-0.0053220787
7	0xbe2bec9a	-0.16789475
8	0xbe2158fc	-0.15756601
9	0x3e1997de	0.14999339
10	0xbd7a50c1	-0.06111217
11	0xbd108771	-0.035285417
12	0x3eb27880	0.3485756
13	0xbbb70b7d	-0.0055860863
14	0xbdfff92c	-0.12498698
15	0x3c8d2e08	0.017233863

tcn.tcn.0.conv2.weight f4 [16, 16, 1]
0	0x3bbd87ba	0.005784002
1	0xbd2516a9	-0.040304814
2	0x3e5455c5	0.20735843
3	0xba9304f9	-0.0011216692
4	0x3e2961fe	0.16541287
5	0xbe0d2df4	-0.13787061
6	0x3e391c3a	0.18077174
7	0x3e9a6e5f	0.3016233
8	0x3cb43505	0.021997938
9	0xbdf32798	-0.11872786
10	0xbe3603b1	-0.17774846
11	0xbe123789	-0.14278997
12	0x3e9dc921	0.30817512
13	0xbce1217d	-0.027481789
14	0xbe1a1bc1	-0.1504965
15	0x3ec7eff1	0.39050248
16	0x3db38d93	0.087672375
17	0x3e526aac	0.20548505
18	0xbbb960df	-0.0056573
19	0x3e90fb67	0.28316805
20	0x3d72f776	0.05931803
21	0x3d77ccbc	0.060497984
22	0x3d25042a	0.040287174
23	0xbe51454a	-0.20436588
24	0x3dbe7c27	0.09301024
25	0x3c2c0855	0.010500033
26	0xbe34a46e	-0.1764085
27	0xbdfdad1a	-0.12386532
28	0x3d891d7d	0.066950776
29	0xbbd42cb3	-0.006475055
30	0xbe201c37	-0.15635763
31	0x3ea4fc31	0.32223657
32	0x3d9cf8a6	0.076646134
33	0x3e226a12	0.15860775
34	0xbd851259	-0.0649764
35	0x3e63b391	0.22236468
36	0x3bc3a26a	0.005970289
37	0xbd6c0a5f	-0.05762708
38	0x3e81ead7	0.2537448
39	0x3d7b6a48	0.061380655
40	0x3de9d351	0.114172585
41	0x3eb4975f	0.35271737
42	0x3e3c6716	0.18398699
43	0x3e2206cd	0.15822907
44	0xbe1432cd	-0.14472504
45	0x3e750535	0.23927768
46	0xbd5bb260	-0.05363691
47	0xbd7e6f20	-0.062117696
48	0x3df9e7f4	0.12202445
49	0x3e636097	0.22204815
50	0x3c498888	0.012300618
51	0xbc6aaac1	-0.0143229375
52	0xbdb09b4c	-0.086233705
53	0x3e71ff68	0.23632586
54	0x3eb05cce	0.34445804
55	0x3e499774	0.19686681
56	0xbe8ad775	-0.27117506
57	0xbe87e382	-0.26540762
58	0xbd7a5d93	-0.061124396
59	0xbe7f3e57	-0.24926125
60	0x3ea2a68b	0.31767687
61	0x3de7da83	0.11320975
62	0x3dd8c5a3	0.10584571
63	0x3e55b9b6	0.20871624
64	0x3dd14409	0.10218055
65	0x3e9cc266	0.30617064
66	0xbe153d07	-0.14574061
67	0xbcba67d9	-0.022754597
68	0x3d23f0ab	0.04002444
69	0x3cbc872c	0.023013674
70	0xbe1020f3	-0.14075069
71	0xbee2051a	-0.44144517
72	0xbe10a802	-0.1412659
73	0xbecd8536	-0.40140694
74	0xbd332575	-0.043736894
75	0xbe37fed9	-0.1796831
76	0xbe399c11	-0.18125941
77	0x3e3c5a5f	0.18393849
78	0xbcaecebc	-0.021338813
79	0x3df33c16	0.11876695
80	0x3d55c426	0.052189015
81	0x3dd163c2	0.102241054
82	0x3d18c67c	0.037298664
83	0xbdb30d28	-0.08742744
84	0xbe902992	-0.28156716
85	0x3c88919b	0.016670993
86	0xbdf1635c	-0.117865294
87	0xbeb16c4f	-0.34652945
88	0x3e78edda	0.24309483
89	0xbee7d042	-0.45276076
90	0xbdfc8415	-0.1232988
91	0xbef34510	-0.47513628
92	0x3c7fce50	0.015613154
93	0xbd4daeeb	-0.050215643
94	0x3e72514b	0.23663823
95	0x3cf21305	0.029550085
96	0xbddc8262	-0.10767056
97	0xbe315621	-0.17318012
98	0xbdcfca9b	-0.10146066
99	0xbe6f1e7e	-0.23351476
100	0x3d3c3c0c	0.045955703
101	0x3df16d8c	0.117884725
102	0xbe84e64c	-0.25956953
103	0xbc5d6b30	-0.013514325
104	0xbec564a3	-0.38553342
105	0x3e672722	0.22573522
106	0xbe60983f	-0.21933077
107	0xbe6fe969	-0.23428883
108	0x3dcae573	0.09907045
109	0xbeb1a711	-0.34697774
110	0xbdf3a1e4	-0.118961126
111	0xbd675a32	-0.0564825
112	0xbe422f28	-0.18963301
113	0x3c438249	0.011932918
114	0x3d681262	0.056658156
115	0x3e0eaea9	0.13933815
116	0xbdb4f704	-0.08836177
117	0x3e4a9902	0.1978493
118	0x3cfa7cdd	0.030577118
119	0x3d1f03ed	0.038822103
120	0x3e948414	0.29007018
121	0x3e04cfef	0.12969945
122	0x3d26174c	0.04054956
123	0xbb87a3a6	-0.0041393815
124	0x3ec5c79c	0.38628852
125	0x3e8588d7	0.26080963
126	0xbea8a880	-0.32941055
127	0xbe6a090a	-0.2285501
128	0xbe19c06f	-0.15014814
129	0x3dd18dd6	0.10232131
130	0x3e818c4b	0.25302348
131	0x3cf71024	0.030159064
132	0x3d36ab28	0.04459682
133	0x3e1a13e9	0.15046658
134	0xbcb629df	-0.022236763
135	0x3cc67ce6	0.024229478
136	0xbec27f40	-0.3798771
137	0x3e23b2e8	0.15986216
138	0x3dc4b6de	0.09605192
139	0xbdf741d7	-0.12073105
140	0xbe417d00	-0.1889534
141	0x3cab3e68	0.020903781
142	0xbea22def	-0.3167567
143	0x3e80fd9c	0.2519349
144	0xbd878da6	-0.06618814
145	0x3e2d9593	0.1695159
146	0xbcbebc49	-0.02328314
147	0x3da1c1f1	0.078983195
148	0x3e2600b0	0.162112
149	0x3e9df8e4	0.3085395
150	0x3db581ef	0.088626735
151	0xbdb94a07	-0.09047323
152	0x3c25cf03	0.010120156
153	0xbe24a783	-0.16079526
154	0xbd74db6d	-0.059779573
155	0x3c6b6f8a	0.014369855
156	0xbeab3af5	-0.33443418
157	0x3cb038f0	0.021511525
158	0xbe93726b	-0.2879823
159	0x3cf13509	0.029444234
160	0xbe3c823a	-0.18409052
161	0xbdaf0a91	-0.08546937
162	0x3de14615	0.10999695
163	0xbdc44ca9	-0.09584934
164	0xbdd5f429	-0.104469605
165	0xbdd7a359	-0.10529203
166	0x3ea35633	0.31901702
167	0x3e746686	0.23867235
168	0xbc5d3c50	-0.013503149
169	0x3f125390	0.57158756
170	0xbe1eded4	-0.1551469
171	0x3f00a46a	0.50250876
172	0x3e5198b2	0.20468405
173	0xbcba32a1	-0.02272922
174	0x3dacbab6	0.0843405
175	0xbe41f6e9	-0.18941845
176	0x3d93d6a4	0.07218674
177	0xbdc555ab	-0.096354805
178	0xbe728e3d	-0.23687072
179	0x3e8535c5	0.26017585
180	0xbe02570b	-0.12728517
181	0xbdd19aac	-0.102345794
182	0xbd24290e	-0.040078215
183	0x3ead7820	0.3388071
184	0x3e1df90a	0.15427032
185	0x3f111dd8	0.5668616
186	0xbd251e87	-0.040312316
187	0x3e2c6e89	0.16839041
188	0x3ddf04cf	0.10889589
189	0x3da683d6	0.081306145
190	0x3ec2f8a1	0.38080314
191	0x3e632bf4	0.22184736
192	0xbd9b6f18	-0.07589549
193	0xbe8f5c91	-0.2800031
194	0x3d636b3e	0.055522196
195	0x3c326d6c	0.010890346
196	0xbdd9045b	-0.10596534
197	0xbc725bf4	-0.014792431
198	0xbe0c7294	-0.13715583
199	0x3e9b86e2	0.30376345
200	0x3cdf8673	0.02728579
201	0x3e872712	0.26396996
202	0xbe0997d0	-0.13436818
203	0x3e9bb67d	0.30412665
204	0x3e849d03	0.2590104
205	0xbe30cbfa	-0.17265311
206	0x3d9468ec	0.07246575
207	0xbe242fa0	-0.16033792
208	0x3e1bd663	0.15218501
209	0x3e073285	0.13202865
210	0x3e961145	0.2931005
211	0xbced5702	-0.028972153
212	0xbd1f85b1	-0.038945857
213	0xbe6f934d	-0.23396035
214	0xbd807a9b	-0.06273385
215	0x3ea4d603	0.32194528
216	0x3d66b935	0.05632897
217	0x3eb7db97	0.3590972
218	0xbe4b4fbc	-0.19854635
219	0xbd0435d1	-0.032277886
220	0x3e4d7318	0.20063436
221	0x3e47381e	0.19455001
222	0xbe41baa4	-0.18918854
223	0x3e991b1c	0.29903495
224	0x3c8ea48e	0.01741245
225	0xbd79f988	-0.061028987
226	0xbd3af8c1	-0.045647386
227	0xbe73f5cd	-0.23824234
228	0xbd993323	-0.07480457
229	0x3d02aa59	0.031900737
230	0xbe1294bc	-0.1431455
231	0x3eaae2ee	0.3337626
232	0x3c4cc695	0.0124985175
233	0x3f0962ef	0.53666586
234	0xbe7968af	-0.2435634
235	0x3e3cd6c0	0.18441296
236	0xbe1f8558	-0.1557821
237	0xbda117be	-0.078658566
238	0xbe4d4188	-0.2004453
239	0xbdb3982e	-0.0876926
240	0xbd2a49ee	-0.04157441
241	0xbe891f95	-0.26781908
242	0xbccc4dfc	-0.02493953
243	0xbe308c9a	-0.17241135
244	0x3ddc720c	0.1076394
245	0xbd5c9bd7	-0.053859558
246	0xbe01ac63	-0.12663417
247	0xbe08de92	-0.13366154
248	0x3e1b5f6d	0.15173121
249	0x3f2dfc67	0.6796326
250	0xbe7a72e0	-0.24457884
251	0xbd63f8c2	-0.055657156
252	0x3e3d5df6	0.18492875
253	0x3e584fb6	0.21124157
254	0xbdac8a00	-0.08424759
255	0x3ea2048b	0.3164409

tcn.tcn.0.conv2.bias f4 [16]
0	0x3e6ac016	0.22924837
1	0x3d5c5ab2	0.05379743
2	0x3da3972d	0.07987819
3	0xbd29261a	-0.041296102
4	0x3d86b89a	0.06578179
5	0x3b9be120	0.0047570616
6	0xbdc840e9	-0.09778006
7	0xbd562252	-0.052278824
8	0xbe6278b6	-0.2211636
9	0xbe291b21	-0.16514255
10	0x3dd27550	0.10276282
11	0x3e262fa3	0.1622911
12	0x3e4dcade	0.20096919
13	0xbc17dc49	-0.009268829
14	0x3df3b096	0.118989155
15	0x3d710c44	0.058849588

tcn.tcn.0.res_conv.weight f4 [16, 16, 1]
0	0x3b90438f	0.004402585
1	0x3d16d94f	0.036828335
2	0x3e516fc6	0.20452794
3	0xbc6eb4c6	-0.014569467
4	0x3d902ec1	0.070401676
5	0x3f15c10b	0.58497685
6	0xbe10fe3a	-0.1415948
7	0xbd28a3a5	-0.04117169
8	0xbe66b212	-0.22528866
9	0x3e29dff1	0.16589333
10	0xbeb0627d	-0.3445014
11	0x3e97fcbd	0.29685012
12	0xbde7783a	-0.11302228
13	0x3daf1c62	0.085503355
14	0x3e18fd09	0.14940275
15	0x3e4ba707	0.19887935
16	0x3dc01ab5	0.09380094
17	0x3e3c65af	0.18398164
18	0xbe2884a1	-0.16456844
19	0x3e15f6a4	0.14644867
20	0x3d1d31dd	0.03837763
21	0xbe728c39	-0.23686303
22	0x3e158efd	0.14605327
23	0xbee67112	-0.4500814
24	0xbdf86717	-0.12129038
25	0x3d22a539	0.03970835
26	0xbd492a96	-0.04911288
27	0xbba3d4ba	-0.004999724
28	0x3e69b8f4	0.2282446
29	0xbdf1d175	-0.11807529
30	0xbe46b58b	-0.1940519
31	0xbe8def8d	-0.27721825
32	0x3e22c52e	0.1589553
33	0xbe8d4724	-0.27593338
34	0xbbe41e03	-0.0069615855
35	0x3e8f37bd	0.27972212
36	0x3d505c2f	0.050869163
37	0xbec02d3e	-0.37534517
38	0x3ecf712e	0.40516037
39	0x3cb83320	0.022485316
40	0x3d2f5527	0.042805817
41	0x3edd9f26	0.43285483
42	0x3dbd0361	0.0922916
43	0xbe9d276b	-0.30694136
44	0xbea0653f	-0.31327245
45	0x3deb7890	0.11497605
46	0x3e5d6f89	0.21624579
47	0xbc44f84f	-0.012022092
48	0x3e552393	0.20814352
49	0xbe906729	-0.28203705
50	0x3e22d518	0.15901601
51	0xbe1a1265	-0.1504608
52	0xbcec1d66	-0.028822612
53	0x3d9d04df	0.07666945
54	0xbde21004	-0.11038211
55	0x3edd5e5c	0.43236053
56	0xbdfd414d	-0.12365971
57	0x3dd4f7de	0.103988394
58	0x3e6ca53d	0.23109908
59	0xbe4b540c	-0.1985628
60	0x3d6e9ead	0.058256794
61	0x3e129066	0.14312896
62	0x3e4d654f	0.20058177
63	0xbd7bf661	-0.061514262
64	0xbe5fa0fa	-0.21838751
65	0x3ea5e2ad	0.32399502
66	0xbda1b9f5	-0.078967966
67	0xbe6a4c57	-0.22880684
68	0x3e348a5e	0.17630908
69	0x3d935e00	0.071956635
70	0xbe7ef489	-0.2489797
71	0xbe2cc6ab	-0.16872661
72	0x3d82f08d	0.06393538
73	0xbda0db0d	-0.078542806
74	0x3ea48147	0.3212988
75	0xbd8354f2	-0.064126864
76	0x3e808d92	0.2510801
77	0x3e03053c	0.12794966
78	0xba46df6d	-0.00075863936
79	0xbcec35e4	-0.02883429
80	0x3d857be3	0.0651777
81	0x3e4e7628	0.2016226
82	0xbe65d636	-0.22444996
83	0xbe044696	-0.12917551
84	0xbe0ae275	-0.13562949
85	0x3e98eeed	0.29869786
86	0xbecd5a49	-0.40107945
87	0x3dbd5d9b	0.092463695
88	0xbd979fed	-0.0740355
89	0xbd1c96d3	-0.038229775
90	0xbd3912f0	-0.045184076
91	0x3dcc692b	0.09980997
92	0x3d2b1582	0.04176856
93	0xbdbb225d	-0.09137414
94	0xbc94ad0a	-0.018148918
95	0x3e189291	0.1489966
96	0xbecadd51	-0.39621976
97	0x3e99b88a	0.30023605
98	0x3dfd7df2	0.12377538
99	0xbe4fe914	-0.20303756
100	0x3e4973b7	0.19673048
101	0x3e704221	0.23462726
102	0xbe9172f5	-0.28408018
103	0x3cd1e63d	0.025622481
104	0xbe466829	-0.19375671
105	0x3e287568	0.16451037
106	0xbe9d5841	-0.30731395
107	0x3d8f71ee	0.07004152
108	0x3cff91f6	0.03119753
109	0xbe51e1ee	-0.20496342
110	0xbe0ac25c	-0.13550705
111	0x3e18c25e	0.14917895
112	0xbe1930a3	-0.1495996
113	0x3d3825df	0.04495799
114	0x3dc1995a	0.094530776
115	0xbce138fb	-0.02749299
116	0xbd190cdd	-0.037365783
117	0x3e8134b5	0.25235525
118	0x3ec15f70	0.37768126
119	0xbe337983	-0.17526822
120	0xbe1eaa89	-0.15494741
121	0xbe6b0c8c	-0.22954005
122	0xbe6935cc	-0.22774428
123	0xbcbe4e37	-0.023230655
124	0xbd28e167	-0.041230585
125	0xbe92ef9f	-0.2869844
126	0xbe05758f	-0.13033126
127	0xbe8339c7	-0.25630018
128	0xbe2e417d	-0.1701717
129	0x3e23b6bb	0.15987675
130	0x3f14816d	0.5800999
131	0xbe95b8c8	-0.2924254
132	0xbea0d6ed	-0.31413975
133	0xbdafdf8b	-0.08587559
134	0xbe031433	-0.12800674
135	0xbe611810	-0.21981835
136	0xbebaca58	-0.364825
137	0x3f60913c	0.8772161
138	0x3eb70b52	0.35750824
139	0x3e1f23fc	0.1554107
140	0xbe7c8298	-0.24659193
141	0xbe07bcf3	-0.13255672
142	0xbe5830bb	-0.21112339
143	0x3e666ce4	0.22502476
144	0x3e9cac44	0.30600178
145	0x3c0f1b3b	0.00873452
146	0x3e9def61	0.30846694
147	0xbdb7e02e	-0.08978306
148	0xbd928c14	-0.07155624
149	0xbedf8bcf	-0.43661353
150	0x3e99dd2e	0.3005156
151	0x3d983e55	0.07433764
152	0xbdf307ce	-0.11866723
153	0x3ebcb23f	0.3685474
154	0x3e125fe0	0.14294386
155	0x3e26bff4	0.16284162
156	0xbe51a832	-0.20474318
157	0x3eaaf5a9	0.3339055
158	0x3d0944d4	0.033512905
159	0xbe8ac89f	-0.27106187
160	0xbd51987b	-0.051170807
161	0xbe3e7bc9	-0.18601908
162	0xbe7a5602	-0.24446872
163	0xbe97a478	-0.29617667
164	0xbdf403a0	-0.11914754
165	0xbe6f447b	-0.23365967
166	0x3e36cff8	0.17852771
167	0x3e38340f	0.17988609
168	0xbe5f4593	-0.21803884
169	0x3e9971fd	0.2996978
170	0xbdc37ab0	-0.09544885
171	0xbee50a96	-0.4473464
172	0xbd05607a	-0.03256271
173	0xbe362b78	-0.1779002
174	0x3e9b8e15	0.30381837
175	0xbe2eb89a	-0.17062607
176	0xbefebcab	-0.49753317
177	0xbe8125e0	-0.2522421
178	0xbe1980bc	-0.14990515
179	0xbd09e908	-0.0336695
180	0xbd3b4248	-0.045717508
181	0xbe1e282e	-0.15445015
182	0xbe99f53f	-0.3006992
183	0xbe8db25f	-0.2767515
184	0x3e4a3206	0.19745645
185	0xbe9e8320	-0.30959415
186	0xbee6145b	-0.44937405
187	0xbcfeb60f	-0.031092672
188	0x3d5991e1	0.053117637
189	0xbdf012d7	-0.117223434
190	0x3d27e682	0.040991314
191	0xbdcd9d83	-0.100398086
192	0x3cded2d2	0.027200136
193	0x3eac414e	0.33643574
194	0xbc83b528	-0.016077593
195	0x3ca303d8	0.019899294
196	0xbe04e237	-0.12976919
197	0xbe0a8209	-0.13526167
198	0xbeb338d4	-0.35004294
199	0xbdc966bc	-0.09834048
200	0x3e5235b2	0.20528296
201	0x3d813ad1	0.063100465
202	0xbe84c192	-0.25928932
203	0x3dd2ed4e	0.102991685
204	0x3dc76725	0.0973647
205	0xbd92fe4a	-0.07177408
206	0xbd9ed529	-0.07755501
207	0x3e80e09c	0.25171363
208	0x3eb7bb40	0.35885048
209	0x3ea366f7	0.31914493
210	0x3e339011	0.17535426
211	0x3e636c2a	0.2220923
212	0xbe20d860	-0.1570754
213	0xbc465aef	-0.012106641
214	0x3e476c5f	0.19474934
215	0x3d0569eb	0.032571714
216	0x3d35b1a7	0.044358876
217	0x3d198a97	0.037485685
218	0x3d102274	0.035189107
219	0xbe83c8a1	-0.25739005
220	0x3dbf36b6	0.09336607
221	0xbe1735e3	-0.1476665
222	0x3da28d21	0.079370745
223	0xbe8b970e	-0.27263683
224	0xbda2e0da	-0.07953043
225	0xbe65bdc9	-0.22435679
226	0x3e48eaf0	0.19620872
227	0x3e03e7b7	0.12881361
228	0xbe3d8112	-0.18506268
229	0xbed5e1f9	-0.41773966
230	0x3e680c78	0.22661006
231	0xbda01319	-0.078161426
232	0xbe0e9858	-0.13925302
233	0x3e59df51	0.21276595
234	0xbd86a77e	-0.06574915
235	0xbba1870a	-0.004929428
236	0x3e078740	0.13235188
237	0x3e563ed5	0.20922406
238	0x3ccae627	0.024767948
239	0x3cdbf23f	0.02684891
240	0xbe8c4c50	-0.27401972
241	0xbd89bece	-0.06725846
242	0xbe50cef0	-0.2039144
243	0xbe722a66	-0.23648986
244	0x3e19a857	0.15005623
245	0x3ec13562	0.3773604
246	0xbe467f8f	-0.19384597
247	0x3e903ce0	0.28171444
248	0xbdfc8c9c	-0.123315066
249	0xbdbbc428	-0.09168273
250	0xbe8372bb	-0.2567347
251	0xbbc06876	-0.0058718277
252	0x3db5f678	0.08884901
253	0x3d200800	0.03907013
254	0xbe416920	-0.18887758
255	0x3db2ca11	0.08729947

tcn.tcn.0.res_conv.bias f4 [16]
0	0x3ed98d0e	0.4249043
1	0xbdadb6f0	-0.08482158
2	0xbe5702a2	-0.20997098
3	0x3d86e3ae	0.06586395
4	0xbe3f849a	-0.18702927
5	0xbe3ea005	-0.1861573
6	0xbe517efa	-0.20458594
7	0xbe2eabd8	-0.1705774
8	0xbd74cca1	-0.05976546
9	0x3dfc0d83	0.12307265
10	0xbc674714	-0.014116067
11	0x3e722c3d	0.23649688
12	0xbc37fce8	-0.011229731
13	0xbe88939b	-0.26675114
14	0xbd9b7423	-0.07590511
15	0x3d99ea17	0.07515352

tcn.tcn.1.conv1.weight f4 [16, 16, 5]
0	0x3dd9aa08	0.10628134
1	0xbdca2531	-0.09870375
2	0xbda5e2b4	-0.08099881
3	0xbee9c26b	-0.45656142
4	0xbec0204d	-0.37524644
5	0x3e963f72	0.2934528
6	0xbeb20dec	-0.34776247
7	0xbd2bfda1	-0.041989926
8	0x3ce97713	0.028499162
9	0x3e64f8c9	0.22360529
10	0x3cf29d69	0.029616075
11	0x3e63236b	0.2218148
12	0xbe4ad189	-0.19806494
13	0xbe9f54e5	-0.31119457
14	0xbe74dce9	-0.23912396
15	0x3cb469f1	0.022023173
16	0xbe1dede5	-0.15422781
17	0xbe062a36	-0.1310204
18	0xbde950d5	-0.113923706
19	0xbe8d031f	-0.27541444
20	0x3b940ad3	0.004517892
21	0xbdae19a1	-0.08500982
22	0x3e5b5ad3	0.21421365
23	0x3e5176be	0.20455453
24	0x3e95c4a8	0.292516
25	0x3da62efb	0.081144296
26	0x3c1117ef	0.008855804
27	0x3e84afdc	0.2591542
28	0x3c41bf10	0.011825338
29	0x3e8cc221	0.2749186
30	0x3e70a348	0.23499787
31	0x3c25f761	0.0101297805
32	0x3e698fe5	0.22808798
33	0x3eae7852	0.34076172
34	0x3f1178cb	0.5682494
35	0xbdcedda2	-0.10100867
36	0xbe38725c	-0.18012375
37	0xbeda8670	-0.42680693
38	0xbe963b4e	-0.2934212
39	0xbdcabbaf	-0.09899079
40	0xbe11404d	-0.14184685
41	0x3e61924c	0.22028464
42	0x3e8ac449	0.2710288
43	0x3dc96eba	0.098355725
44	0x3dc05ce3	0.09392717
45	0xbe0d27f6	-0.13784775
46	0xbd878f41	-0.066191204
47	0xbd350cd3	-0.044201683
48	0xbe11d710	-0.14242196
49	0xbd04995a	-0.03237281
50	0x3db19df4	0.08672705
51	0x3e3a5438	0.1819619
52	0xbdf791a3	-0.12088325
53	0xbe8f5144	-0.27991688
54	0xbe7d6968	-0.2474724
55	0x3e5b7b6f	0.21433805
56	0xbccfc7d2	-0.025363836
57	0xbe5cbe44	-0.21556956
58	0x3dc46b49	0.095907755
59	0xbdb21261	-0.08694912
60	0x3c918d3e	0.017767545
61	0x3e1addb3	0.15123634
62	0x3d386169	0.045014773
63	0x3e2a3151	0.16620375
64	0x3e259a3d	0.16172118
65	0x3ecb7c69	0.39743355
66	0x3cec46aa	0.028842289
67	0xbe559b0c	-0.20859927
68	0xbe022bb7	-0.12711988
69	0x3d0d578f	0.03450733
70	0x3e4009cc	0.18753737
71	0x3d92a029	0.071594544
72	0x3dec0568	0.11524469
73	0xbe0ffc8c	-0.14061183
74	0xbd62d711	-0.055380885
75	0x3f043f85	0.51659423
76	0x3da71f87	0.0816031
77	0x3db4c4ce	0.088266
78	0x3e779cac	0.2418086
79	0x3e26d795	0.16293176
80	0xbeff9dc8	-0.49925065
81	0xbed4a98a	-0.41535598
82	0xbddefb78	-0.108878076
83	0xbe50b64c	-0.2038204
84	0xbe7891da	-0.24274388
85	0xbdfb00d8	-0.1225602
86	0x3e16e612	0.14736202
87	0xbda3d158	-0.079989135
88	0x3db28a3e	0.08717774
89	0xbee1a48a	-0.44070846
90	0xbe946834	-0.2898575
91	0xbdb58467	-0.08863144
92	0xbea71f0d	-0.32640877
93	0xbe4c278e	-0.19936964
94	0xbe56c71b	-0.2097439
95	0x3db9852a	0.09058602
96	0xbee7a1c0	-0.45240593
97	0xbeb4ef74	-0.35338938
98	0xbe8358f9	-0.25653818
99	0xbe15021a	-0.14551583
100	0x3eba51fc	0.36390674
101	0x3ce27588	0.027643934
102	0xbd8ec671	-0.069714434
103	0x3e02177c	0.12704271
104	0x3e44464d	0.19167443
105	0x3e076545	0.13222225
106	0xbe621b25	-0.22080667
107	0xbec1d777	-0.378597
108	0xbd671e31	-0.056425277
109	0x3ef05173	0.4693714
110	0x3db20c47	0.08693748
111	0x3e1b3743	0.151578
112	0x3e8f4a50	0.27986383
113	0x3eca01a4	0.39454377
114	0x3ec382de	0.3818578
115	0xbecb4628	-0.39701962
116	0x3bff9322	0.007799522
117	0xbe62a06b	-0.22131507
118	0xbdd6829f	-0.10474133
119	0xbc2f063e	-0.010682641
120	0xbe27a075	-0.16369803
121	0xbd8d30f6	-0.06894104
122	0xbed1b871	-0.4096103
123	0xbe1b6884	-0.15176588
124	0x3e839eda	0.25707132
125	0x3d735e0b	0.05941586
126	0xbb97799c	-0.0046226513
127	0xbe180aa7	-0.14847814
128	0x3db158d4	0.08659521
129	0x3cdc7ed5	0.026915947
130	0xbe51c922	-0.20486882
131	0xbe537294	-0.20649177
132	0x3df7c925	0.12098912
133	0x3bb022a8	0.005375225
134	0xbcbb69e2	-0.022877637
135	0x3c39cd05	0.011340384
136	0x3e5a4844	0.2131663
137	0x3ea82363	0.32839498
138	0x3d97fb61	0.074209936
139	0xbe8d57bf	-0.27606007
140	0xbdbb708e	-0.091523275
141	0xbd21e57a	-0.039525487
142	0x3e9608e7	0.29303667
143	0xbdbc7e15	-0.09203736
144	0x3c9a94d4	0.018869795
145	0xbe7cc538	-0.24684608
146	0xbe2f5e7d	-0.17125888
147	0xbe63ebde	-0.22257945
148	0xbdb68ef3	-0.08913984
149	0xbd972f42	-0.073820606
150	0xbc8a3858	-0.01687257
151	0x3db810d3	0.08987584
152	0x3e5e4c8d	0.2170889
153	0xbcc224a6	-0.023699116
154	0x3d81ef8b	0.06344517
155	0x3cdb7235	0.026787857
156	0x3e39d7c7	0.18148719
157	0x3da90470	0.082527995
158	0x3da3e258	0.08002156
159	0x3de4d261	0.11172939
160	0x3de9b793	0.11411967
161	0xbc0d0cf1	-0.0086090425
162	0xbdbe1e60	-0.09283137
163	0xbed4bf37	-0.41552135
164	0xbedc516d	-0.43030873
165	0xbe176dba	-0.14787951
166	0xbe12fc5f	-0.14354084
167	0x3dcf176b	0.101118885
168	0x3a57198d	0.00082054065
169	0x3e39e4fd	0.18153758
170	0xbdebcd7c	-0.115138024
171	0xbe66d802	-0.22543338
172	0x3dc80707	0.09766965
173	0xbd81baf0	-0.063344836
174	0x3cc5cf59	0.024146723
175	0xbe249b1a	-0.16074792
176	0xbe7b669f	-0.24550866
177	0xbe58b8b1	-0.21164204
178	0x3d7a8c73	0.0611691
179	0x3d1ae643	0.03781725
180	0xbc9b76a1	-0.018977465
181	0x3c8a01fd	0.016846651
182	0xbe5f83ed	-0.2182767
183	0x3ef387e6	0.4756462
184	0x3e15559c	0.14583439
185	0xbe0ee9e6	-0.13956413
186	0xbd756dd6	-0.0599192
187	0xbd6ee6a4	-0.058325425
188	0xb6275a24	-2.4937408e-06
189	0x3e3087a3	0.17239241
190	0x3ee5e645	0.44902244
191	0x3d983181	0.07431317
192	0x3d83f995	0.06444088
193	0xbe1330d3	-0.14374094
194	0xbd9844d6	-0.074350044
195	0xbe6f84ca	-0.23390499
196	0x3d8fc62b	0.070202194
197	0x3dee6dc9	0.116420336
198	0x3d14b09a	0.036301233
199	0xbce72273	-0.028214669
200	0x3e097245	0.13422497
201	0xbe18f112	-0.14935711
202	0xbe2b895c	-0.16751617
203	0xbdb0c200	-0.086307526
204	0x3e2d1c71	0.16905381
205	0xbdaa661f	-0.08320259
206	0x3de89829	0.11357147
207	0xbe3f2240	-0.18665409
208	0xbdad9792	-0.08476175
209	0x3eba3dd6	0.36375302
210	0x3ea4e834	0.32208407
211	0x3dbf19ca	0.09331091
212	0x3cb43889	0.021999614
213	0xbdc23787	-0.09483247
214	0xbe819a5d	-0.25313082
215	0x3e8fd70e	0.2809376
216	0x3de05924	0.10954502
217	0xbd904cd3	-0.07045903
218	0xbd72f2ac	-0.05931346
219	0xbd814f28	-0.06313926
220	0x3e6928e6	0.22769508
221	0xbdd2c524	-0.10291508
222	0x3e19bf84	0.15014464
223	0xbd05789b	-0.03258572
224	0xbdbb671a	-0.091505244
225	0x3cada23d	0.021195525
226	0xbe238e3a	-0.15972224
227	0x3df5b36d	0.119971134
228	0xbcd4d0cc	-0.025978468
229	0xbd588531	-0.052861396
230	0x3e6cb9d3	0.23117761
231	0xbc7cefea	-0.015438059
232	0x3e13fd0a	0.14451995
233	0xbe01d284	-0.12677962
234	0xbdec0ad9	-0.115255065
235	0x3ea99372	0.33120304
236	0xbd369d5a	-0.044583656
237	0x3df9ce80	0.1219759
238	0x3da28264	0.07935026
239	0xbe83b7eb	-0.25726256
240	0xbd345b61	-0.04403246
241	0xbc4c9825	-0.012487446
242	0x3eafb24a	0.3431571
243	0x3e661105	0.2246743
244	0xbe875db5	-0.2643868
245	0x3e83b4fe	0.25724024
246	0x3d95e528	0.07319099
247	0x3cb51cd4	0.022108473
248	0x3caf626c	0.021409236
249	0x3e3e00a4	0.18554932
250	0xbe70b910	-0.23508096
251	0x3e857810	0.26068163
252	0xbe151b87	-0.14561282
253	0xbef473b9	-0.4774454
254	0xbde1bd08	-0.11022383
255	0xbd5b1f43	-0.05349661

tcn.tcn.1.conv1.bias f4 [16]
0	0xbe902686	-0.2815439
1	0xbe97f2db	-0.29677472
2	0xbd05d2f4	-0.032671884
3	0x3cf48e6c	0.029853068
4	0xbed8511f	-0.4224939
5	0xbe64525b	-0.22297041
6	0xbaa0d7c3	-0.0012271333
7	0x3d7eb592	0.062184878
8	0xbe246732	-0.16054991
9	0xbe4c6f41	-0.19964315
10	0xbe63e9a2	-0.22257093
11	0x3daf1148	0.08548218
12	0xbe8665d7	-0.26249573
13	0x3e41927f	0.1890354
14	0xbe0b9208	-0.13629925
15	0x392eaea9	0.00016658999
