checkpoints/fine_tune/var_rf/hainsworth/0.4/model_fallen-blaze-195_finetune_finetune_finetune_finetune_finetune_GTZ_GIA/it_624_loss_5.1857_acc10.0_acc20.13.pt (torch, 436414 bytes, 211 tensors)

conv1.weight f4 [16, 1, 3, 3]
00000000: 9db0 6a3e fa52 adbd e89b 95be 93f9 9e3e
00000010: f46f 1abe 855b b9be 47de 3c3e e129 313e
00000020: 3084 96be 9703 a73e 525f f8be 58fc cbbe
00000030: a137 853e 90c9 90be 5be4 e93d 5215 e43d
00000040: 17e5 353e d50e 953d a2f9 63be dbb4 db3e
00000050: aecf 4f3e 021a 3dbe cfad ba3e 2dcb 6c3d
00000060: eb2b f5be 7f26 303e 8fb2 4dbe b08b 93be
00000070: 64e3 f8bd 8694 ab3e c257 b8be 3d22 ac3d
00000080: c37e 3c3e f786 b93e 5e01 5d3d 8289 febe
00000090: 6527 83be 3530 7bbe 9cb4 43be 36eb 81be
000000a0: 3d15 143e c9d2 813e dcf6 79bd fcea 90bd
000000b0: b9d9 75be e448 aebd 8e12 9e3d 83ee babd
000000c0: bf5f 56bf 3169 953e d216 e73e 5a71 85be
000000d0: 2c6e 943e 4add 6fbd 2b04 983e 092d 61bc
000000e0: 527b f7bd 44ef fbbd 6449 363e 4ebf c8be
000000f0: 3deb 15be 59a8 d93d 99b0 81be 79f1 4e3c
00000100: 27e2 b83c d047 853e fa82 d8be 8477 18be
00000110: 0916 debd bcb6 033e 97ca 4ebd ec4d 0e3f
00000120: ee1b afbe 59e2 083e d89a 97be c039 babe
00000130: 2b9e db3e 0c1d c63e b514 10be 82ff e33e
00000140: d8b4 1b3e 7a47 28bf 1aec b03d 4c43 033f
00000150: 06f6 e23b db3a 6ebe a7e9 423e 12a6 babe
00000160: bb02 aabc cad8 963e 005e 01bf e2ad ef3c
00000170: f1b3 993e 052a 7abe a127 69be 4353 973e
00000180: a9e2 a93d 6920 0abe 9d3f 04bd a43b 193e
00000190: 25de d43e 1717 08be 63fb 723e 997a c63e
000001a0: fb78 29be 359c b93e 9771 c93d 2855 8fbd
000001b0: a106 053e 423d 0c3e 8848 033d 9e93 f9bd
000001c0: 6b24 3bbe cb64 d0be 4963 883e 9098 a23e
000001d0: a1de 40be 13de 703e f199 debd a235 8fbe
000001e0: 2d62 a83e 8fed 9b3e cd72 023e bb3b 51be
000001f0: 561e 553e 7113 e8be f863 a53e c413 313e
00000200: 00da 07be 711f d03e c423 93be 22d8 c43b
00000210: 3088 6c3e 5b78 93be 04f0 d6be 1f9f eebd
00000220: 88ae 78bc 52c3 9b3e 9702 ccbd 798b 8e3d
00000230: a4eb ba3e fd51 fbbe ba2c 6cbe b6f2 0a3f
0.22918935 -0.08463092 -0.2922051 0.31049785 -0.15081769 -0.36202636 0.18444167 0.17301132
-0.29397726 0.32619926 -0.48510224 -0.3984096 0.26019004 -0.2827878 0.114205085 0.11136879
0.17763172 0.072782196 -0.22263196 0.4291142 0.20294067 -0.18466952 0.3646073 0.05781095
-0.4788507 0.17202185 -0.20087646 -0.2881751 -0.12152746 0.33511752 -0.36004454 0.08404968
0.18407731 0.36235783 0.053956382 -0.49714285 -0.25615993 -0.24530108 -0.19111866 -0.25374764
0.14461227 0.2535613 -0.06102644 -0.0707607 -0.24008836 -0.085099965 0.07718383 -0.09127524
-0.83739847 0.29181817 0.45134598 -0.26063043 0.28990304 -0.058560647 0.2969068 -0.013743647
-0.12084068 -0.12301496 0.17801434 -0.39208454 -0.14640518 0.10627813 -0.25330046 0.012630814
0.022568775 0.2603135 -0.42287427 -0.14889342 -0.108440466 0.12862676 -0.050486173 0.5558765
-0.34200996 0.13367595 -0.29610324 -0.36372185 0.4289411 0.38694036 -0.14070399 0.44530874
0.15205705 -0.65734065 0.08638783 0.5127456 0.006926301 -0.23264639 0.19034444 -0.36454827
-0.020753255 0.29462272 -0.5053406 0.029257718 0.30020097 -0.24430092 -0.22769023 0.2955571
0.08295185 -0.13488926 -0.03228723 0.14964157 0.41575733 -0.13290058 0.23728709 0.3876541
-0.16550057 0.3625199 0.09836119 -0.06998664 0.1299081 0.13695243 0.032051593 -0.12186359
-0.18275611 -0.407019 0.2663825 0.3175702 -0.18834926 0.23522215 -0.10869206 -0.27970606
0.32887402 0.3045468 0.12739106 -0.20432942 0.20812353 -0.45327333 0.32302833 0.17292696
-0.13266754 0.40648988 -0.28738225 0.0060072104 0.23098826 -0.2880276 -0.41979992 -0.11651444
-0.01517833 0.30422455 -0.099614315 0.06960196 0.36507905 -0.4908599 -0.23063937 0.542766

conv1.bias f4 [16]
00000000: cae0 623c 8209 cf3d b2ae 1cbd 0c1d b8bc
00000010: 7ace 4cbe c39b e9bd a39b 193e 5b84 273b
00000020: 3707 4e3c 9a4c 4d3d e533 10bd 8cc1 5cbe
00000030: 2399 c33d 9035 13bd 0721 4fbc d506 13be
0.013847539 0.10109235 -0.03825254 -0.022474788 -0.2000064 -0.11406662 0.15000777 0.0025561068
0.012574962 0.05012188 -0.03520574 -0.21558207 0.09550693 -0.035939753 -0.012642152 -0.14358075

conv2.weight f4 [16, 16, 3, 3]
00000000: 0a96 1abe 876c 0abd b474 8fbb 2cdb f3bd
00000010: 08d5 51be 689b 6fbe b5f4 5ebd 768c 223d
00000020: f225 dfbd 6c11 11bc 2f0c 8bbd 421f 14bc
00000030: 5f3f bebd debd e73b 9a54 12be 48f0 f8bd
00000040: bb5a 4cbd 1516 a7be 0665 d23c 40ba 8bbe
00000050: 805e 7dbd 88c0 7c3e f23d 8fbe ff29 51bd
00000060: 6212 9d3e 8a73 74be 37aa 0dbe b938 fcbd
00000070: 0bce b03d 49aa 393e e5b7 eabc 6084 223e
00000080: b8d2 b73e 4eb6 d73e c4dd ff3e 1571 113f
00000090: 6e85 98bb 5b37 42bb 8807 30be 8a43 5dbd
000000a0: 6c34 10be 4a77 7dbe a201 0dbc 2606 0fbe
000000b0: 3549 d1bd 9a8b 8f3e 41af 4ebd 59d0 d73e
000000c0: d5de 953e 68a8 cdbd eb47 c13e 00a7 0a3f
000000d0: 5022 c53d e889 053f 6e54 783d d368 21be
000000e0: f36e 2bbe ddbf 44bc 8848 e7bd fb0f 60be
000000f0: de3f 1ebd 7c3d cdbd cbb9 84bd 9d72 603e
00000100: 77b7 063e 4089 c8bd 1783 543e fd2f 30bc
00000110: 2ff5 87be 5b46 33bd 57b4 1fbd b16a 89be
00000120: 00b5 023e 0cca 23be 5602 cdbb cb31 633e
00000130: 910e 49be dc38 9abd e031 9f3d effb 36be
00000140: bd6a 24be 2bb6 df3c 20c5 6d3e 1ec4 763e
00000150: 464c 613e edff ac3e c106 b53e 5474 953e
00000160: c3b9 293e 6b85 9e3e 8c96 ed3c 8164 60bc
00000170: c770 97bc f41d d23b e57c 8dbc b0fa f73d
00000180: 0c51 513d a67b 69bc daaa b43d b405 f9bd
00000190: 1c7c 5bbe 17e7 5fbe 825b 1abe abd8 84be
000001a0: ef82 aabe dd12 c8bd 7ece a5bd 21c8 7abe
000001b0: 6ac2 adbd ba5d a7bd e838 2fbe bf2e baba
000001c0: 0658 c2bd f993 2cbe 5913 ca3c 6fc6 593d
000001d0: 2457 86bd 2e61 cc3d ea13 e2bd 4465 0dbd
000001e0: 6e2f 033d 7bde 1dbe 23ed ffbd 994f b13d
000001f0: ab00 b7bc e986 6bbe e0da 55be 8f60 62be
00000200: 224c 26be 1d50 3bbe 823f 06bd 2db1 e73c
00000210: d412 82bc ccf8 013e b04b e3bc 557a 8dbb
00000220: 0280 9cbc 2e2e 8b3d b944 94bd 8b28 9c3c
00000230: 78e7 0e3e 1137 ae3d c888 27bd bc19 d93d
00000240: 2289 773e da47 6d3d 44fe 463e 48a6 db3d
00000250: 15cd 243e 036a 093e fd44 883d 66c2 b03d
00000260: c308 893d ef0f 9c3e bcc4 08be 6254 973e
00000270: 66c7 b63d 28a2 fcbd 4d00 f43d 5adb 8b3e
00000280: b23d 14be a8eb 0c3d 8f47 90be 9266 163f
00000290: 9890 06bd a50a 18bf a98f 173e 58d6 a6bd
000002a0: 6799 11bf 07ed 373e f857 48be 8148 b8be
000002b0: 4f0e 58be a47a d0bc b658 72bc f98b e03d
000002c0: 6d53 863e 802a b7bc 25a6 d33d b803 243e
000002d0: a8ba 233e 4582 4c3e 24c5 3a3e c730 133d
000002e0: 23d7 d53d 62ed 7fbc b6d4 423d 9f28 e43d
000002f0: 1000 bf3c d98e c0be a49b 983e 98fa c3bc
00000300: 0503 e4be 8eec d83d cf72 9cbd 3845 05bf
00000310: 20db 913e 4bf6 403c 5467 05bd 16ed 0c3e
00000320: 92bf 9fbd a69d ae3d f2b1 c03d ea28 b63d
00000330: abcb af3d ca7b 223e 7574 163e 4b7c 7d3e
00000340: bdc0 833d b5f2 13be 7fb7 e4bc 25ca 2ebd
00000350: c16e 95bd 21a9 a93c cbc2 473c 219b 87be
00000360: 69bc 08bf 18eb cf3d 9a7c 7dbe 1773 dcbe
00000370: d01f c23d fded e3bd 9d5a 0bbf a64b 9b3e
00000380: 8d2f 013e 94d0 19bd 4d2f a2bd 3451 bcbd
00000390: 3976 22be 81ef b2bd 7279 b83d e147 26be
000003a0: 5b6a f13d 1c91 893d 9e4d 5a3e 7687 f7bd
000003b0: 1cc1 0e3d d816 6fbd 62ea e639 2ef7 34bd
000003c0: d9be 0bbd 3cb8 00be 8dd8 603d 99af 86be
000003d0: c53b 73bd 766e 5d3e a6de d3bd 028b 96bd
000003e0: cf00 033e afbe 97bd d3ee fe3c af4b 383e
000003f0: 55a1 643d 550f a2bd 0b22 d3bd 941d 66bd
-0.15096298 -0.033794906 -0.004377926 -0.11907038 -0.20491421 -0.23399127 -0.05443259 0.039684735
-0.10895909 -0.008854251 -0.06789433 -0.009040656 -0.09289431 0.0070721945 -0.14290085 -0.12155205
-0.049891215 -0.32634035 0.025682937 -0.27290535 -0.0618577 0.2468282 -0.27976948 -0.05106544
0.30678087 -0.238722 -0.13834463 -0.123155065 0.086330496 0.18131365 -0.02865214 0.1587081
0.35902953 0.42131275 0.4997388 0.56813174 -0.004654578 -0.0029635045 -0.17190373 -0.05401949
-0.14082497 -0.24752536 -0.008606346 -0.13967189 -0.10219041 0.28036195 -0.050460104 0.42151144
0.2927157 -0.100418866 0.37750182 0.5416107 0.09625685 0.52163553 0.060627393 -0.15762644
-0.16741543 -0.012008634 -0.11293131 -0.21881096 -0.038635127 -0.10021493 -0.0648075 0.21918721
0.13155924 -0.09791803 0.20753132 -0.010753629 -0.26554248 -0.043768268 -0.038990345 -0.26839212
0.12764359 -0.15995044 -0.006256382 0.22186963 -0.19634463 -0.07530376 0.07773185 -0.17869543
-0.16056342 0.027308544 0.23219728 0.2409825 0.22001752 0.33789006 0.35356715 0.29190314
0.16574769 0.30961165 0.02900245 -0.013695837 -0.018486394 0.006412262 -0.017271468 0.12108362
0.051102683 -0.0142506715 0.0882165 -0.12159291 -0.21434063 -0.21865498 -0.1507397 -0.25946555
-0.3330302 -0.09769223 -0.08096026 -0.24490406 -0.08484347 -0.08172174 -0.17111552 -0.0014204605
-0.094894454 -0.16853322 0.024667429 0.053167757 -0.065595895 0.09979473 -0.110389546 -0.034520403
0.032027654 -0.15416901 -0.12496402 0.0865776 -0.022339186 -0.23000683 -0.20884275 -0.22107147
-0.1623998 -0.1829228 -0.03277541 0.028282726 -0.015878119 0.12692565 -0.027746052 -0.0043175616
-0.019104008 0.067959175 -0.0723967 0.019062301 0.13955486 0.08506597 -0.04090193 0.106006116
0.24173406 0.05792985 0.19432932 0.10725075 0.16093858 0.13419347 0.066537835 0.086308286
0.06691124 0.30480906 -0.13356298 0.29556566 0.08924751 -0.12335616 0.1191412 0.2731579
-0.1447666 0.034404427 -0.28179595 0.5875026 -0.03285274 -0.5939124 0.14800896 -0.081463516
-0.568747 0.17961513 -0.19564807 -0.35992816 -0.21099208 -0.025449105 -0.014791658 0.10964198
0.26235524 -0.022359133 0.10334424 0.16017044 0.15989172 0.19971569 0.18239266 0.03593519
0.10441425 -0.015620561 0.04756614 0.1114056 0.02331546 -0.37608984 0.29806244 -0.023923203
-0.44533554 0.10591994 -0.076390855 -0.52058744 0.28487492 0.011777471 -0.032569245 0.13762316
-0.07800211 0.08526163 0.094089404 0.088945225 0.085837685 0.15867534 0.14692862 0.24754445
0.06433246 -0.14448054 -0.027919529 -0.04267325 -0.07296515 0.02071053 0.012192438 -0.2648554
-0.5341249 0.101522624 -0.24754563 -0.43056557 0.09478724 -0.11129377 -0.5443514 0.30331153
0.12615795 -0.03755243 -0.07919178 -0.09195176 -0.15865411 -0.08737088 0.09007539 -0.16238357
0.11787864 0.067171305 0.21318671 -0.12086384 0.034852132 -0.058371395 0.00044043647 -0.04418104
-0.034117553 -0.1257028 0.05489402 -0.26305845 -0.059383173 0.21624169 -0.10345201 -0.073507324
0.12793277 -0.07409417 0.03111974 0.17997621 0.05581792 -0.079130806 -0.103092276 -0.05618055

conv2.bias f4 [16]
00000000: 07fb 4cbd 2d46 33be 3d66 0e3d f6a0 b7bd
00000010: 129d 26be 64de 98be c46f 55be 8760 27bd
00000020: 53f2 39bd bf1e ccbd 5732 96bd 4912 f3bc
00000030: a6b3 f0bc 3ae8 05be 221e 4b3d 1c3c 12be
-0.050044086 -0.17507239 0.03476547 -0.08966248 -0.16270855 -0.2985717 -0.20843416 -0.04086354
-0.045397114 -0.09966802 -0.0733382 -0.029671805 -0.029382538 -0.13076869 0.049589284 -0.14280742

conv3.weight f4 [16, 16, 8, 1]
00000000: 48f4 e6bd 0ea8 56bd c6a7 b2bc 415f 80bb
00000010: f0e9 19be 8152 a8be 0458 42be 9ca4 323e
00000020: 424b 3b3e 5952 053e 2a40 5b3e 9691 af3d
00000030: de45 543e 9ab4 a43e ec4b 89be f79a a6be
00000040: 84af ff3d 1ca3 6b3e 7f6c 943e 19e7 773e
00000050: 9ee2 a83d 0810 3f3d e6b6 87be e420 21be
00000060: 87af 69be 8c86 81bd 7cb1 4bbd 987a 70bd
00000070: 60dd 29bd 5e93 3fbe aa33 283e 47da 17bd
00000080: 8e79 8d3d 4bf1 833d 7855 ad3d 96dc d43d
00000090: c60e 093e 6514 673e dec3 c03d a3c7 cc3d
000000a0: 7d4e 6cbe d1ce 323d 11aa d4bc 25c8 ff3c
000000b0: 808b e0bd d915 d7bd 7895 08bf 06e4 073c
000000c0: a044 bc3d 67b9 cc3d ee73 1bbc f077 d6bd
000000d0: e1d1 943c 3f21 9b3d 9136 d7bd 3b2c a0bd
000000e0: 1770 de3d a407 cabb 82ba a43d a242 4ebd
000000f0: f3ab 85bd 7e3f 7cbe 00ac b43d 4132 b73c
00000100: d146 a23d 8ee4 3a3c ff1a 073e 7873 c53d
00000110: c4ac e2bd 90ac 8dbd b8f0 2a3f 5ae9 bebd
00000120: 59ae f1bd 2d5f bcbd 0bcf 9fbd 706c c2bd
00000130: 1db6 d8bd 7f4e e0bd 89d3 adbe b724 ae3e
00000140: f098 653e e6d6 e83d d77c b43d 205c 6cbd
00000150: afa3 68bc 7bee 68bc cc90 b23e 33f6 c5bd
00000160: cc28 92bd a345 d53b 22db 573c 6d16 db3b
00000170: 67ce 213e b4dc a1be 2958 1fbf f935 643e
00000180: 7957 ecbc a9c0 21be 5941 35be 9e27 8ebd
00000190: a696 c6bd a51b 97be a926 a2bc 5a4d 2e3e
000001a0: 2c0d 0a3c a669 063e b172 433e a71a fa3d
000001b0: 2e39 42bd 334f 2e3e 6133 9a3e 209b 8abe
000001c0: c255 6f3e e41f 3b3e d47c 213e 17ef 1d3e
000001d0: e98d 28bc d13a 5b3d b94c 96bd 301c 093d
000001e0: 1278 b4bd 20ff a7bc 100c ba3c 6bc7 edbd
000001f0: 040f fcbd 0413 693c cf34 843d 9a89 1a3d
00000200: 96c8 43bd 9c79 00bd 91da 45bd 9ce5 993d
00000210: 5e67 f83c 6b4d 32bc 7ba0 a63e 8ce0 7e3d
00000220: 4a6a 0c3c 6702 973d be1c a03d 7599 4d3d
00000230: 5134 e93d fbe5 903e dffa a1be 422c 1fbe
00000240: 5467 28ba 4eed c7bc d500 af3d 2cb7 b03d
00000250: 3c60 9fbd b8f3 053e 5df9 3abe 4740 49bd
00000260: 15c2 c93d 69e6 a23d b5be 27bd 5389 d2bd
00000270: b76f 48be 45d3 93be 2358 fdbd cd98 c9be
00000280: 4707 36bd 2477 293d 01fa acbc 7adf ed3b
00000290: 5f6e ccbd e7c0 fc3d 8d88 92be ef32 70bd
000002a0: 00bb db3b 830c eabc faa9 adbd c671 0fbe
000002b0: 6c24 5cbd 67a7 02be 9b90 13bf be96 d8bd
000002c0: b3d3 f1bd a03c c2bc 2616 c9bd 2754 49bd
000002d0: 6f89 2e3d 08b9 d13d d913 383e c1b1 6ebc
000002e0: 24e7 d23c 6eb6 413d 79f1 16bd bfde 893d
000002f0: 2320 df3c 85e6 253e ffd1 113e dd31 713d
00000300: f5ae 68bd 4b97 a03d 019e 1b3e 9546 ca3d
00000310: 39af c43d 9252 e53d 0f46 223f 19d9 02be
00000320: 7624 0abc 2c6d aa3b c580 d13b 5921 2bbd
00000330: 9b73 9a3c 2760 223e 4d27 89be 38d5 de3e
00000340: 342d d43c 15a6 52bd aed4 9ebd 9227 95bd
00000350: 18eb a0bd 8ab5 6fbe 8c89 ee3e bc8c bcbe
00000360: 3c27 f73d a35a 1d3e bd70 ec3d a533 193e
00000370: 0c34 b43d 5f52 973d 7083 edbd abea d93d
00000380: 1879 afbc 16d5 9bbc 2b72 b6bc 4f69 68bd
00000390: 0ff5 e5bd 7fcb f0bc d232 ddbd cf47 553e
000003a0: 3a3a 6b39 4100 293d 7112 f43c d96d 00bb
000003b0: 094f 9f3d 15a7 08be 745f 9e3d 008d a0be
000003c0: 3fa4 783d c74b e3bc 2304 28ba 7681 933d
000003d0: 6c4c b1bb 021c 433d 88d9 68be 2b78 333e
000003e0: 7b16 0fbc 8c92 0eb8 d3f5 9b3d 9760 943d
000003f0: 0a44 2fbd 9d44 4d3e ae86 2b3e 5c05 c13e
-0.11277062 -0.052406363 -0.021808516 -0.003917605 -0.15030646 -0.32875445 -0.18978888 0.17445606
0.18290427 0.13019694 0.21411195 0.0857269 0.20729777 0.32169038 -0.26815736 -0.32540104
0.12484649 0.2301144 0.28989026 0.2420925 0.08246349 0.046646148 -0.26506728 -0.15735203
-0.22820865 -0.06324491 -0.04972981 -0.058710665 -0.041470885 -0.1870856 0.16425958 -0.0370734
0.0690795 0.06442507 0.084635675 0.10393636 0.13384542 0.22566374 0.09412359 0.09999015
-0.23076816 0.043654267 -0.02596 0.031223366 -0.109641075 -0.10502214 -0.5335307 0.008294111
0.09192777 0.099963 -0.009488089 -0.10472095 0.018166484 0.075747006 -0.105084546 -0.07820936
0.10861223 -0.0061654616 0.08043386 -0.050356515 -0.06526937 -0.24633595 0.08821869 0.02236283
0.079236634 0.011407031 0.13193892 0.096411645 -0.11068109 -0.06917679 0.6677356 -0.09321852
-0.11800832 -0.09197841 -0.07803162 -0.09493339 -0.1058161 -0.10952472 -0.3395045 0.34012386
0.22421622 0.113691136 0.08812874 -0.057705045 -0.014199181 -0.014217014 0.34876096 -0.096660994
-0.07136688 0.0065085455 0.013174804 0.006686023 0.15801392 -0.31613696 -0.62243897 0.22286214
-0.028850304 -0.1579615 -0.1770071 -0.0694115 -0.09696703 -0.2951328 -0.019793825 0.17021695
0.008425992 0.13126239 0.1908672 0.12212115 -0.047417812 0.170224 0.30117324 -0.27071476
0.23372558 0.18273884 0.15770274 0.15423237 -0.01028774 0.05352289 -0.073388524 0.033474147
-0.08811964 -0.020507395 0.02271083 -0.116103016 -0.123075515 0.014225725 0.06455385 0.037728883
-0.047798716 -0.031365976 -0.048304144 0.07514498 0.030322727 -0.010882716 0.32544312 0.062225863
0.008570263 0.07373505 0.07817982 0.050195176 0.11386932 0.2830046 -0.31636712 -0.15544227
-0.00064240885 -0.024405148 0.085450806 0.08628687 -0.07782027 0.13081253 -0.18259187 -0.049133565
0.09851471 0.079541035 -0.040953357 -0.10280099 -0.19573866 -0.28872123 -0.12370326 -0.3937439
-0.044440534 0.041373387 -0.021115305 0.0072593065 -0.09981989 0.12341481 -0.28619805 -0.058642324
0.0067056417 -0.02857042 -0.08479686 -0.14008245 -0.053745672 -0.12759171 -0.57642525 -0.10575627
-0.118079565 -0.023710549 -0.098186776 -0.04915252 0.042611536 0.1024037 0.17976321 -0.014568747
0.025744982 0.04729312 -0.03685138 0.067319386 0.027237004 0.16201217 0.14240263 0.058885444
-0.056807477 0.07841357 0.15196992 0.09876744 0.096037336 0.1119739 0.6338815 -0.12778129
-0.0084315445 0.0052010026 0.0063935244 -0.04177985 0.018853953 0.15856992 -0.26787797 0.43522048
0.02590046 -0.05142792 -0.07755409 -0.07282938 -0.078573406 -0.23409095 0.46589315 -0.36826122
0.1206803 0.15366606 0.115449406 0.14961107 0.0879899 0.07388758 -0.11597335 0.106404625
-0.021420047 -0.019022506 -0.022271236 -0.056741055 -0.11228382 -0.02939391 -0.10800709 0.20828174
0.00022433038 0.041260008 0.02979395 -0.0019596724 0.07778747 -0.13344987 0.0773305 -0.31357574
0.060703512 -0.027746094 -0.0006409308 0.07202427 -0.0054107215 0.047634132 -0.22739232 0.17526309
-0.008733387 -3.399192e-05 0.076152466 0.072449856 -0.042789496 0.20045705 0.16750595 0.376994

conv3.bias f4 [16]
00000000: 0a16 41bb e9f1 f03d 22bb e43d 72ed 943c
00000010: bf1f 6e3b 04d7 813e a576 213e 727c 023e
00000020: 9d10 12bd ba02 afbe 62d1 8d3e 2ce9 c03e
00000030: 000c 3ebc 78da 213d dc47 663e ff8b d9ba
-0.00294626 0.11764891 0.11168505 0.018179629 0.003633484 0.25359356 0.15767916 0.12742785
-0.035660375 -0.34181768 0.2769881 0.37677896 -0.011599541 0.03951499 0.2248835 -0.0016597508

tcn.tcn.0.conv1.weight f4 [16, 16, 5]
00000000: 21bc d53d 2a21 083e e486 9c3d 463f 21bc
00000010: e613 29be c7e1 ee3d d775 593d 63da 7d3d
00000020: d762 d2bc c9e6 b5be ceae f13d 42b3 833d
00000030: 8782 463e c11a 87bd aacd 80bd fe5a 433e
00000040: 197c 113e 191f e93d 2c4b a43d a3df 863e
00000050: e4dd ec3d 0d4c bdbc 3b98 8f3e 698c 003e
00000060: cc48 0abe 8032 36be caff 103e 1f73 353e
00000070: b062 66bc b1f8 393e f6fe 36bd 41fe 093c
00000080: 623a 0fbe 8c7d 65bd d6fb c93d 36e6 ebbd
00000090: 2a37 d1bd 88f6 28bd f6af a03a c3e5 19be
000000a0: 32b5 e6bd 3609 5d3c c46c 86bd 9d02 36be
000000b0: b7c0 4dbe 7874 4abe e95e 4ebe 2096 70be
000000c0: d170 8cbe 76c4 89bd 8715 04be c980 b23a
000000d0: b0d2 aebd 612f 8abe f1d7 e5bd 86ce 81bd
000000e0: e637 6cbb 02e9 eb3c caac 8cbd 33ab 433b
000000f0: 502c d73d 8f1b 5f3d 3b08 883e a33a 72bd
00000100: 9ce5 3bbe d568 02be b632 bebd 5e3c bdbd
00000110: ce77 c7bd 2412 0abe a8aa a1bd aeae 8a3d
00000120: 1b46 213d 69bb 563d f54b e03d b776 db3b
00000130: fab9 03be f5fb ab3d f179 7abd e06c 06be
00000140: db85 683e d7fd b23e 0a5c 033e 18e0 483e
00000150: 3550 133e b36f 313e b33f b63e 4594 a53c
00000160: e803 4b3e 7c97 9f3e e04e a73c 70dd a93e
00000170: 6afd 7c3e 06c8 813e c9c6 cc3e 12be 87bd
00000180: 060a 3ebd a6ac 95be 0da0 913d 1616 27bc
00000190: a755 c2be cd0a 98be d70e 28bc 66fd a239
000001a0: a326 d73d 979a 293e 19f0 0c3e 0a7e c73d
000001b0: 436b 813d 6469 203d b456 8fbe 326b 62be
000001c0: fb6e b5bb 6a2b 643d f9a6 243d d997 e43c
000001d0: a49e 70bc e974 b23d 1ac2 793e d978 603e
000001e0: b4df 4e3d 1fad 523e fc39 a23c e34e 533e
000001f0: b2d8 943d 157a 1dbd d342 56be a9bc 8dbe
00000200: 7164 55be aef9 23bd 6e49 913d 92b7 3d3d
00000210: c9a9 2f3e 486c 483e 2290 0d3e eabd bf3d
00000220: 9445 8e3e 11a2 1f3e b2c3 cf3d ad47 233e
00000230: 2577 09be 3730 d0bd de8c 433c c593 5dbd
00000240: e800 ec3d 8e29 513d 7d15 d23d a87e 163e
00000250: 00f8 383e 61fa 723e f699 483e 77ed 783b
00000260: edeb 833d ddc7 1bbd 3daf 0cbe 33a4 0d3e
00000270: a287 2b3e a50a d6bd dffd fbbd 3c0a 4b3e
00000280: c0af d43b 3518 023e 6537 40bd 5f5d 6cbd
00000290: eafd 5abe 6bbb 4e3e 40c8 a63d 5875 eb3d
000002a0: 252a aabd 9c0f 25be 703b 1a3e 4b35 763d
000002b0: 0a5a 1c3e 9e6d e63c adcb 4dbe 4c97 d1bd
000002c0: 4f73 b33c b3e8 dfbd e3c7 b3bd 5b10 18bd
000002d0: 045e f6bc e5a1 0dbe 4cfc 12be e85f 9abc
000002e0: a511 66bd 7270 f23d 2819 6d3e 4e26 923d
000002f0: c18d 71bd 19ec f0bc c327 013d e8d5 9b3c
00000300: abd7 ba3c 972d c83c 11fa 933e 3323 fb3c
00000310: eeb8 4cbe 4f2b 4dbd cf50 adbc 3a50 15bd
00000320: 499b 2f3d 6788 c8bd df95 c8bd bf6d 10be
00000330: 75ec cebc 6f61 bebd 157f bcbd 1180 e43d
00000340: 433b 5d3e 1ca3 c0bc f4bb fa3d 8787 f0bc
00000350: b49a 2abe 33b0 26be 430b 1fbe 870e 5dbd
00000360: 5b6c 1e3d a383 173e fd70 263e 9e22 9dbd
00000370: a7a1 4fbe babe 81be cb81 b0bc ae1c 833d
00000380: 735f 4cbe d4bd bdbb 6a74 01be 3a3c 3cbe
00000390: a62a 57be fc38 acbe 87ef a9be 2ff5 4abd
000003a0: 921c 8b3d 0c63 583d 13b6 d5bc fc1c 63bd
000003b0: 9598 02be d983 0d3e 37ee d2bd 6ad7 bebe
000003c0: 66eb 02bf 41cb 8fbe aa30 1ebe 0fe5 2e3e
000003d0: 15fd 3b3e 7469 20be 232c 413d 67e3 52bd
000003e0: 8c70 0abd e0bb 643d 3284 6abe f157 a0bd
000003f0: b20f 263e fbf3 953c 13e7 813e b367 89bc
0.10436273 0.13293901 0.07642916 -0.009841746 -0.16511497 0.11664157 0.053090896 0.061975848
-0.025681896 -0.35527638 0.118009195 0.06430675 0.1938573 -0.065969 -0.06289227 0.1907768
0.14207496 0.113828845 0.080221504 0.26342496 0.1156576 -0.023107553 0.2804583 0.12553562
-0.13504332 -0.17792702 0.14160076 0.17719696 -0.014061615 0.18161274 -0.044676743 0.008422435
-0.13987115 -0.056027934 0.09862487 -0.115185186 -0.102156 -0.041250736 0.0012259472 -0.15029053
-0.11265029 0.013490966 -0.06563714 -0.17774434 -0.20093046 -0.19770992 -0.20153393 -0.23494768
-0.27429822 -0.06726925 -0.12898837 0.0013618703 -0.08536279 -0.26989272 -0.11222828 -0.06338219
-0.003604406 0.02879763 -0.068688944 0.0029856681 0.10506499 0.05446964 0.2656878 -0.05913795
-0.18349308 -0.12735303 -0.09287016 -0.0924003 -0.09739648 -0.13483483 -0.07893878 0.06771599
0.0393735 0.052424822 0.10951988 0.0066975015 -0.12863913 0.08397666 -0.06115145 -0.1312747
0.22707312 0.3495929 0.12828079 0.19616735 0.14386065 0.17327766 0.35595474 0.020212302
0.19825709 0.3117026 0.020423353 0.33176756 0.24706045 0.25347918 0.3999541 -0.0662805
-0.046396278 -0.29233283 0.071106054 -0.010198137 -0.37955973 -0.2969574 -0.010257444 0.00031087844
0.10505416 0.16562878 0.13763465 0.09740837 0.06319287 0.03916301 -0.27995837 -0.22111204
-0.0055369115 0.055705465 0.0401983 0.027904438 -0.01468626 0.08713705 0.2439045 0.219211
0.05050631 0.20573853 0.01980304 0.20635562 0.07267894 -0.038446505 -0.20923929 -0.27683
-0.20839097 -0.040033035 0.07094084 0.046317644 0.17154612 0.19572556 0.13824514 0.09362395
0.2778746 0.15589167 0.10144748 0.15945311 -0.13424356 -0.10165446 0.011935441 -0.054096002
0.1152361 0.05106502 0.10258005 0.14696753 0.18063354 0.23728324 0.19589981 0.0037983337
0.06441484 -0.0380324 -0.13738723 0.13832168 0.16750959 -0.10451249 -0.123042814 0.19828123
0.0064906776 0.12704547 -0.04692783 -0.057706233 -0.21385923 0.20188682 0.081436634 0.11496991
-0.0830882 -0.16119236 0.15061736 0.060109418 0.15268722 0.028128441 -0.20097227 -0.10233936
0.02190557 -0.10933056 -0.0877836 -0.037124973 -0.030074127 -0.13831289 -0.14354056 -0.01884456
-0.05616917 0.118378535 0.23154128 0.07136212 -0.058973078 -0.029409455 0.03153206 0.019022897
0.022807917 0.024435801 0.28901723 0.030656433 -0.1999242 -0.05009013 -0.021156697 -0.036453463
0.0428727 -0.09791642 -0.09794211 -0.14104365 -0.025259236 -0.09295928 -0.092039265 0.11157239
0.21604638 -0.023515277 0.122428805 -0.0293615 -0.16660577 -0.16278152 -0.1553164 -0.053968932
0.038677555 0.14796309 0.16254039 -0.07672618 -0.20276509 -0.25340825 -0.021546265 0.064019546
-0.19958286 -0.0057904515 -0.12642065 -0.1838235 -0.21012363 -0.33637226 -0.33190557 -0.04955023
0.06792559 0.052828833 -0.026087796 -0.055447564 -0.12753518 0.13819827 -0.10299342 -0.37273723
-0.5114044 -0.28084758 -0.15448251 0.17079566 0.18358262 -0.15665227 0.047161233 -0.0514864
-0.03379874 0.055843234 -0.22901991 -0.078292735 0.16216925 0.018304816 0.25371608 -0.01677308

tcn.tcn.0.conv1.bias f4 [16]
00000000: 0287 563c 38f2 63bb 53cb 403e 534a 2e3e
00000010: bc94 203d c4e1 953d 2e58 7dbc e427 3dbe
00000020: 45f6 163c 4346 3b3e 05da 8d3d 4a1b 43bd
00000030: a43c 5d3e c243 723d bcfe dcbd 6b83 bd3d
0.013093712 -0.0034781825 0.18827562 0.1702054 0.039204344 0.07318452 -0.015462918 -0.18472248
0.009213989 0.18288521 0.069263496 -0.047633447 0.21605164 0.05914665 -0.10790774 0.092535816

tcn.tcn.0.conv2.weight f4 [16, 16, 1]
00000000: 5583 783d b02d 01be e9bc 8b3e 73bd 9b3d
00000010: 1af4 3d3e c088 1ebe 5850 9b3d be1c 613e
00000020: ec75 6d3e 35de 94bd cb76 10be f7b1 51be
00000030: a4e1 4f3e 7cae d9bd e732 e1bd 8344 d03e
00000040: f044 a03d 9b65 493e 6f67 8abd a109 203e
00000050: 0288 9d3d c046 f83d 54be 523e 7db5 88bd
00000060: e23d 88bc 38ce 283b 6aed 32be 0a9b c4bd
00000070: fd37 a73d 0174 94be 7674 1cbe dae6 cf3e
00000080: ad41 403d d82b 633e f87b 11be cc50 733e
00000090: a63f 3cbb 7906 93bd 42f5 1fbd 133f 053e
000000a0: b62d fb3c 90ad ae3e 84f2 4d3e 3dd9 473e
000000b0: be66 07be d721 963e 8733 c8bd 73e0 ddbd
000000c0: fe0e 1a3e 1cfd 9e3e eeb2 f8bb e43e 803d
000000d0: 3333 78bd b82a 6c3e d9c0 413e 1b98 073d
000000e0: ac1b 61be 713a 85be 2f33 a3bd 3e19 87be
000000f0: 9a33 8e3e 0895 cc3d 7a57 b83d 3b3c 393e
00000100: 0c70 073e 1e8e 963e 35a4 a3bd 6070 4f3b
00000110: 951f 783d 2ea5 023d f040 cebd 7ee3 06bf
00000120: c0e9 05be 99e7 e6be 854b 72bd 9a94 83be
00000130: 08c3 e9bd 18c9 ec3d ddba e9bb ad30 d13d
00000140: c6de 49bc 5856 9a3d 28ab 8b3a 8c78 9bbd
00000150: 6a11 94be 1d34 8d3c 0275 9fbd f169 d5be
00000160: e623 393e 0ce2 f9be fdf5 02be 69e6 11bf
00000170: a192 94bd d339 2c3b bb8f 763e 8112 2e3d
00000180: 5440 08be 5650 7fbe 4839 a6bd 9226 3abe
00000190: ee9b 2639 0f97 c93c 83a1 60be 9318 0dbe
000001a0: a6ff 44be ee76 803e da48 89be 6e67 80be
000001b0: 9328 523d 0193 acbe 4fcc dfbc 0c0e a0bd
000001c0: 8371 60be 0cbd 9f3c 0658 61bc 80c6 f53d
000001d0: b5fa b4bd caa5 573e 23fa 063e 29f8 0a3e
000001e0: 8105 a23e dec1 293e f2ee 173d 6e4d 4a3e
000001f0: 623f 753e fe6d 863e 38de a5be ff1b 54be
00000200: 2223 42be a74e 993d ce06 893e dab0 9d3b
00000210: 8858 483d de80 113e a686 a33d 0e59 bfbb
00000220: 05b7 16be 19a7 833d ade1 d53d d5c3 06be
00000230: 8c93 53be 5ae2 d33d e6b0 b5be 1a5b 933e
00000240: 64d9 08be eab9 ac3e f969 ccbd f55c 0d3e
00000250: 7f1c 5a3e f8e1 923e 4f42 4f3e 0d45 33bd
00000260: 89f4 abbd 0e52 3bbe e1c2 aebd 92a7 a43c
00000270: 7410 79be f310 873d 7a21 acbe 6449 643c
00000280: d989 13be 87d4 acbd bce0 f93d ecd7 d9bd
00000290: 90d8 10be 6b9b 10be 5eb3 1ebc c7e7 5b3e
000002a0: 7595 0abd 4f29 1e3f c4d8 3cbe 8b79 013f
000002b0: 7ab5 313e 8f32 453d 2e53 633d cbba 85be
000002c0: 2cc9 b93c 4b18 37be e0d8 07be f94a 863e
000002d0: 2bd8 24be e2b8 75be 8960 13be c212 553e
000002e0: 4a03 aabd db8e 1d3f 4756 0abb 3192 0e3e
000002f0: 301d c4bc 6258 013d a91f 9d3e 7d9c 543e
00000300: b44d e5bd 8607 b0be c29f 303e cd1c 3fbd
00000310: 5cbc 27be d895 08bd f0f1 06be ad29 cb3e
00000320: 3ea0 06bd 8b91 943e eb55 0fbe da8d 9b3e
00000330: 8300 843e 3713 40be 1b8f c63d f24e 1bbe
00000340: f67f 3e3e 00db 0a3e 8b28 833e fc7b b9bd
00000350: 294f 3dbd fe61 73be 7e93 943c 7b41 dc3e
00000360: 343a e43c 5259 c63e b62b 59be c7dd a43d
00000370: e406 853e 8560 593e 6d95 56be c494 a23e
00000380: b795 523d 13ed 79bd 9688 bbbc 8efc 8cbe
00000390: 354c ddbd e46b 3d3c 246e 18be 7298 cc3e
000003a0: 4091 1b3c 2fdc 0c3f fca8 89be a1f0 4f3e
000003b0: 763a 1bbd adf9 40bb 2801 72be 1a52 c3bd
000003c0: e4d5 103d 96b7 a5be b695 82bd 1157 80be
000003d0: 4f10 e03d baeb 84bd 813d c6bd bad1 b0bd
000003e0: 0ea4 7c3e 6e35 343f 4a56 87be 8e3e 4abd
000003f0: c062 c03c 7beb 583e be1a 8cbd 667e b33e
0.060672123 -0.12615085 0.27292565 0.07604494 0.18550149 -0.15481853 0.07583684 0.2198362
0.23189515 -0.07268945 -0.14107816 -0.20478044 0.20300919 -0.106289834 -0.10996037 0.4067727
0.07825649 0.19667666 -0.0675801 0.15628673 0.07691957 0.121228695 0.20580417 -0.06675241
-0.01663107 0.0025757682 -0.17473379 -0.09599884 0.08164976 -0.28994754 -0.15278801 0.40605813
0.046937633 0.22184694 -0.14207447 0.2376129 -0.002872446 -0.07178969 -0.039052255 0.13012342
0.030661445 0.34116793 0.20112044 0.19516464 -0.13222787 0.29322693 -0.09775453 -0.10833826
0.15044782 0.31052482 -0.0075896895 0.062619954 -0.060595702 0.23063171 0.18921222 0.033104043
-0.21983212 -0.2602115 -0.07968747 -0.26386446 0.27773744 0.09989363 0.0900106 0.18089382
0.13226336 0.29405302 -0.079903044 0.0031652674 0.060576994 0.03189581 -0.100709796 -0.52690876
-0.1307745 -0.4509857 -0.059154052 -0.25699311 -0.114141524 0.11561793 -0.0071328715 0.10214362
-0.01232118 0.07536 0.0010655867 -0.07591352 -0.28919536 0.017236764 -0.07785989 -0.4168239
0.180801 -0.48805273 -0.1278915 -0.56992203 -0.0725453 0.0026279583 0.24078266 0.042498115
-0.13305789 -0.2493299 -0.08116394 -0.18178776 0.00015889082 0.024608163 -0.21936612 -0.13778906
-0.19238147 0.25090736 -0.26813394 -0.2507891 0.051308226 -0.33705905 -0.027319102 -0.07815179
-0.21918301 0.019499324 -0.013753897 0.120007515 -0.08836881 0.21059337 0.13181357 0.13571228
0.31644824 0.1657786 0.03709311 0.197561 0.2394996 0.26255792 -0.32396102 -0.20713805
-0.18958715 0.07485705 0.26763004 0.004812342 0.048912555 0.14209315 0.079846665 -0.0058394736
-0.14718254 0.06428356 0.10443435 -0.13160641 -0.20661753 0.103459075 -0.35486525 0.28780442
-0.13364178 0.3373559 -0.0998115 0.13804992 0.21299933 0.28688025 0.20240138 -0.043767024
-0.08396251 -0.1829302 -0.08533264 0.020099435 -0.24322683 0.0659503 -0.3361929 0.013933513
-0.14408053 -0.08438974 0.12201068 -0.10636887 -0.14145112 -0.14121787 -0.009686319 0.21475135
-0.03383394 0.6178178 -0.18442065 0.50576085 0.17354384 0.04814392 0.05549925 -0.26119074
0.022678934 -0.17880361 -0.13266325 0.26229075 -0.16098087 -0.23996308 -0.14392294 0.20807937
-0.083014086 0.61546105 -0.0021108554 0.13922955 -0.023939699 0.03157843 0.30688217 0.2076282
-0.11196461 -0.3438074 0.17248443 -0.046658326 -0.16380447 -0.033346027 -0.1317823 0.39680234
-0.032867663 0.2901729 -0.13997619 0.30381662 0.2578164 -0.1875733 0.09695264 -0.15166834
0.186035 0.13560104 0.2561687 -0.09056851 -0.04621807 -0.2376785 0.018136736 0.43018708
0.027859785 0.3874002 -0.2120808 0.08050113 0.2598182 0.21228226 -0.20955439 0.31754124
0.05141231 -0.061017107 -0.022892278 -0.27536434 -0.10805551 0.011561368 -0.14885765 0.39960057
0.0094950795 0.55023474 -0.26886737 0.20306636 -0.03789755 -0.0029445693 -0.23633254 -0.09537144
0.035360232 -0.32366627 -0.06376211 -0.25066426 0.109406106 -0.06490274 -0.096797 -0.08633752
0.24671957 0.7039403 -0.2643302 -0.049376063 0.023484588 0.21183579 -0.06841038 0.35057372

tcn.tcn.0.conv2.bias f4 [16]
00000000: 82d1 523d 9507 b03c 4ed4 7b3d 3f10 a9bd
00000010: 796b ea3d ee79 093d e387 cdbd 8b24 3cbd
00000020: d69a 64be 4be6 18be 36ca a23c 72a9 6e3d
00000030: 681b 2f3e ac42 04bd 3b17 4b3e 3d68 2b3d
0.051469333 0.02148799 0.061481766 -0.08255052 0.1144628 0.033563547 -0.10035684 -0.045933288
-0.2232469 -0.149316 0.019871812 0.058267064 0.17100298 -0.032290146 0.1983308 0.041847456

tcn.tcn.0.res_conv.weight f4 [16, 16, 1]
00000000: 2d49 953c 3b3d 9dbd 7896 3f3e 45bf 8d3c
00000010: d485 d63d 013f 2a3e bec4 f8bc 8fbd fbbd
00000020: 593f 20be d1d9 913e 5db9 86be a459 b83d
00000030: ac2d 8fbd 7fed fc3d 6539 153e f782 9cba
00000040: f6d7 a13d 37b3 a73e d759 0fbe bea2 1c3e
00000050: 3ce0 e93c 194f eebd 8f0c d33d a559 f8be
00000060: 3bae bd3d 1961 9ebc ce20 46be 2cad 26bc
00000070: 8851 8c3e bec4 d9bd 89af 4abe f0eb 68be
00000080: c9b5 353e a577 7dbe fea0 8dbd 897c 833e
00000090: b1d8 853d c7f9 50be cd49 d23e fa89 423e
000000a0: 6adb 453c c178 d33e 4746 173e 2412 98be
000000b0: 323f b5be d044 7d3e fb14 2c3e 89de b8bd
000000c0: d02f 893e a667 94be 41fe 033e 527c 02be
000000d0: 5f5b 05bd 73c3 f4bc 1d06 09bd b318 c33e
000000e0: 4ae8 90bd e567 c53d 955f 833e bcb6 52be
000000f0: 8d4f 3e3d a6d1 a23e e5ff 3c3e ba32 a0bd
00000100: b71b 7dbe 798f 923e d646 66bd 0e7e 8bbe
00000110: 7452 07bd a478 923d ffb4 8dbe 8784 4abe
00000120: e8fe 0fbd 7acc 0dbe 3743 793e 8c76 edbc
00000130: 74ba 403e d51f f23d 271e 79bd 32ab 59bd
00000140: 6010 5e3d adf5 523e c758 8bbe 2528 a9bd
00000150: ed91 31be 4b91 8d3e 2338 a5be 0058 4f3c
00000160: 85bd 1b3d 6fd4 523c b064 3dbd e7af ab3d
00000170: 7efe 4d3d 8284 a8bc 907e 343d 6bd2 623e
00000180: 7c01 b6be 7a6f 983e a86e c23d f019 3fbe
00000190: c6c6 4d3e df0c 0c3e c1d4 93be 2f9a dbbd
000001a0: 24b2 2bbe 1545 4a3e 7efd a2be 531a 723d
000001b0: 48a6 963d 0640 aabe c426 09be e114 243e
000001c0: 7f75 04be e01a 873d 34a5 753e c98a ba3e
000001d0: 6ae4 9abd 87cf 913e 3e66 e33e 6693 75be
000001e0: 76dc 6dbc 51c4 a6bd 8a6a 8abe fb58 6dbd
000001f0: eae8 bebb 91e8 87be 4771 aebd d716 27be
00000200: 050e 5abe 23f8 453d 87d2 4d3e 5a48 a6be
00000210: 11eb a1be 29f4 2fbd 92a2 41be f2a0 e2bd
00000220: 81ed bcbd a652 683f d4ec 763e dc42 053e
00000230: edcd 48be 70b4 43be f655 25be 75f1 c63e
00000240: 1fe7 ad3e e288 353c f37a 153e 218b fbbd
00000250: 6537 e1bd caf3 c9bd 5cb6 8d3e 87d6 1f3e
00000260: 5ab5 9bbd 7658 7b3e ab70 a33d 18a6 503e
00000270: f9e5 4ebe 8d7c 9a3e 5e1d fe3c 3ccf 85be
00000280: 645b ea3c af40 28be f3cd 04be b92c 83be
00000290: 2cae cabd b721 b9be 8d02 353e 2190 133e
000002a0: 9ec4 68be d0c3 c83e 3fb3 e4bd a19b fabe
000002b0: 25e3 03bd 58a9 97be 56a9 9b3e 1bc3 4fbe
000002c0: 486c d7be 62fa 8ebe bdc7 3bbe 8370 e3bd
000002d0: f2e3 fc3c fc5d a4be c70c 7bbe 8cdd debd
000002e0: 9940 443d 3ac4 8bbe e76e 68be f405 b6bd
000002f0: 63e8 b83d ecc7 0ebd c90c 9bbc b241 31be
00000300: 55a4 3f3d 37d7 b73e be6f 5b3d 4931 21bc
00000310: b7e8 babd be26 4abd 6db6 a8be f77f 0fbe
00000320: ece9 633e f3b9 fa3d 0986 8ebe e102 d93d
00000330: c0fb fd3d 756e 09be 7821 8dbd 4e97 813e
00000340: e968 a83e 0294 b03e 9ed0 4a3e edc8 d13e
00000350: 5f7e 24be cf52 8a3e 5b4a 523e 6c23 0c3d
00000360: 4631 133e 9b9f 423d 1125 7dbd b316 92be
00000370: 6e47 b63d d5a8 3ebe 5eb4 813d a14c 46be
00000380: 23b8 02be 779a 5dbe 6f9a 583d d870 a73d
00000390: a0a9 1fbe 7a6d 7abd e5d8 6a3e acab c8bc
000003a0: 3576 14be 1b59 053e 293c e2bd 2f42 f43b
000003b0: 29a0 f63d 6050 cf3d 927c b63b 56cd cc3c
000003c0: 30b2 88be 637c 44bd ee51 a1bd 5b3b 4cbe
000003d0: 6058 473e 2fd1 0a3e f98e 54be 0c09 bf3d
000003e0: 743f b4bd ed53 7abc 7236 abbe 8af3 76bd
000003f0: 54bc ff3d 7573 ab3d 6bba 20be d9b1 023e
0.01822337 -0.076776944 0.18709743 0.017303118 0.104747444 0.16625597 -0.030367251 -0.12292015
-0.15649165 0.28486493 -0.26313296 0.090014726 -0.06991133 0.12349986 0.14572676 -0.0011940886
0.079025194 0.32753918 -0.13999115 0.15296456 0.028549306 -0.116361804 0.1030513 -0.48505893
0.092617474 -0.01933341 -0.19348451 -0.010173123 0.27405953 -0.10633229 -0.19793524 -0.22746253
0.17745127 -0.24752672 -0.069154724 0.2568095 0.06535471 -0.20407782 0.4107193 0.18997946
0.012076238 0.41303065 0.14772902 -0.2970134 -0.35399777 0.24733281 0.16804878 -0.0902682
0.2679429 -0.28985327 0.12889959 -0.12742737 -0.03255784 -0.029878354 -0.033453096 0.38104782
-0.070755556 0.09638957 0.2565886 -0.2057752 0.046462584 0.31800574 0.18456991 -0.07822175
-0.24717604 0.28625086 -0.0562199 -0.2724461 -0.033037618 0.071519166 -0.27677152 -0.19777118
-0.035155207 -0.13847533 0.24342047 -0.028987192 0.18821126 0.11822478 -0.06081977 -0.05314178
0.054214835 0.2060153 -0.2721617 -0.0825961 -0.17340823 0.27649912 -0.3226939 0.012655258
0.038022537 0.012868031 -0.0462386 0.0838316 0.05029153 -0.020570997 0.044066012 0.2215058
-0.35548007 0.2977255 0.09493762 -0.18662238 0.20095357 0.13676785 -0.28873256 -0.107227676
-0.16767174 0.19752915 -0.31834024 0.059107136 0.073559344 -0.3325197 -0.13393694 0.1602359
-0.12935446 0.06596923 0.23988801 0.3643401 -0.07563098 0.28478643 0.44413942 -0.2398201
-0.014517894 -0.08142913 -0.27034408 -0.057946187 -0.0058261054 -0.26544622 -0.085177 -0.16317306
-0.2129441 0.048332345 0.20099841 -0.32477075 -0.31624654 -0.04295746 -0.18909672 -0.11065854
-0.09224988 0.9075111 0.2411378 0.13013786 -0.19609804 -0.191118 -0.16146073 0.38856092
0.33965394 0.011079999 0.14597683 -0.12282396 -0.10996894 -0.09860952 0.27678192 0.1560918
-0.076029494 0.24545464 0.07980474 0.2037586 -0.20204915 0.3017315 0.031019863 -0.2613467
0.028608032 -0.16430925 -0.12969188 -0.25620058 -0.09896502 -0.36158535 0.17676754 0.1441045
-0.22731254 0.39211893 -0.11167001 -0.4894686 -0.032199044 -0.29621387 0.3040263 -0.2028927
-0.420748 -0.27925402 -0.18337913 -0.11105444 0.030870412 -0.32102954 -0.24516593 -0.108821005
0.047913168 -0.27298146 -0.22698556 -0.08887854 0.09028699 -0.03485863 -0.018926995 -0.17310217
0.04678758 0.35906383 0.053573363 -0.009838411 -0.09126418 -0.049353354 -0.3295168 -0.14013658
0.22257203 0.12242498 -0.27836636 0.10596252 0.12401533 -0.13421042 -0.06891149 0.2531075
0.3289254 0.3448792 0.19806144 0.40973607 -0.16063832 0.27016303 0.20536177 0.03421347
0.14374265 0.047515493 -0.061802927 -0.28532943 0.08900343 -0.18619092 0.063332304 -0.19365169
-0.12765555 -0.21640955 0.052881654 0.0817582 -0.1559205 -0.06113956 0.22934301 -0.024495922
-0.14498217 0.13022272 -0.11046631 0.0074541788 0.12042267 0.10122752 0.005569049 0.025000256
-0.26698446 -0.047970187 -0.07876955 -0.19944517 0.19467306 0.1355636 -0.20757665 0.093278974
-0.08801165 -0.0152787985 -0.33439976 -0.06029085 0.124870926 0.08371631 -0.15696113 0.12763156

tcn.tcn.0.res_conv.bias f4 [16]
00000000: 6a0e 7d3e 5ce2 efbd 06d9 69be 769a c93c
00000010: 66ab 0dbe 9920 21be 6f22 54be 7d2c 28be
00000020: ba54 7dbd a23b 0e3e b2ab c6bd e4a6 073e
00000030: 65bd 28bd 225d 94be f639 613b 1130 6e3d
0.2471253 -0.117130965 -0.22836694 0.024609786 -0.13834915 -0.15735091 -0.2071626 -0.16423221
-0.06184838 0.13889936 -0.09700717 0.13247257 -0.041196246 -0.28977305 0.0034366823 0.05815131

tcn.tcn.1.conv1.weight f4 [16, 16, 5]
00000000: e674 59bd 9162 42be ec84 06be 09b1 5fbe
00000010: 8b33 91be 0653 483e 617e cebe 8d08 52be
00000020: 71ae dfbd 7867 3c3e 3352 fb3d 5e06 df3e
00000030: 6a1b bcbd 6afe 8fbe 78a0 62be f40b fa3c
00000040: d348 e0bd 8846 e7bd 9402 84bd d220 8bbe
00000050: 013b bd3b e093 debd 716f 643e e6d7 8e3e
00000060: 7a69 9a3e 6221 853d d472 85bc 4b01 7b3e
00000070: 4679 0a3c 9ff0 8c3e fa7e 633d be67 b6bd
00000080: c8fb 3f3e 0155 993e 076a f53e 04ac cbbd
00000090: 6c27 47be c446 e5be 2c95 d4be 358a 2fbe
000000a0: 3d8d 49be 7219 4f3e 47e7 883e fe43 143e
000000b0: 3fed 963d abce 02be ec49 36bd d73f a73c
000000c0: 2ff2 d9bd f51f d0bd ef53 fb3d 6ba3 633e
000000d0: 3c1a 00be 3849 98be ca07 81be 21af 623e
000000e0: dddf 7ebc d51c 98be 8918 e73d 8690 60bb
000000f0: ed2c 623a 58be 093e a2d5 043c 3c60 393d
00000100: e036 2c3e 19ae cc3e eb49 023d 210d 68be
00000110: ed0f 3ebe 54de babb 9cc0 503e b160 073e
00000120: f2f3 f43d 1b22 313d e1b6 8fbd 9522 033f
00000130: 6858 693d b9c4 8f3d dbb7 7a3e b4d6 373e
00000140: 1a43 3abe f435 49be 911b 00bd 0943 2cbe
00000150: e7cd 57be 4856 0bbe 9b2f 3b3e c5e3 02be
00000160: 70ba 7c3d 0802 97be 4af4 9dbe ed1c 9abd
00000170: 144f 99be 6ec3 3bbe 182b 5bbe d1b3 f33d
00000180: bbd8 82be 7367 b4be cadb 58be 86af 02be
00000190: c6e0 bf3e bc03 3bbc caef e9bd 419f f23d
000001a0: 9c62 323e da18 083e 6941 83be 175f cfbe
000001b0: 5887 74bd 3993 ed3e c5ec 9b3d afc9 b53d
000001c0: 5d58 893e 0ce5 bb3e d99a bc3e 4242 dcbe
000001d0: d784 83bd 173a 6dbe 41c6 fbbd 0646 d23c
000001e0: 254d 23be 7209 903c 5833 c9be aa48 4fbe
000001f0: 497b 763e f05d 2b3d 7352 68bd d31e 21be
00000200: c242 77bd 7634 61bd 7f40 4cbe f749 55be
00000210: a7b2 1b3e 7611 b93b 84dd 0abd 8b15 373e
00000220: 9121 8c3e 71ba bf3e 2670 e63d e01d 3ebe
00000230: c281 aebd 1b34 5ebc 7c93 a23e 30fb babd
00000240: 57be 9e3c d740 7abe c79f 2dbe 93e9 52be
00000250: bc13 1fbe 4804 7abd 1412 aebc 1f51 8e3d
00000260: 5a97 753e 95c0 d3bd 170a f73c ee79 513d
00000270: efde 363e dd7a c53d d9c1 933d b612 8f3d
00000280: 35ee 293e ba69 733d 41bc 41bc 0e3f 403e
00000290: b88e bebd 6de2 96bc 633f 36be 8c07 843d
000002a0: ad5d 64bd 058a 7f3e 83a0 babd a231 ca3b
000002b0: 014f 0e3d 45c9 18be 212b c5bd 0167 38be
000002c0: 8020 0fbe 25a3 2cbe 693e 503e fa57 623d
000002d0: 4df6 483c 7dab bdbd 3e60 73be e3a5 073e
000002e0: 03d6 333e 4bd2 04be c07b d0bd 6b8e 57bd
000002f0: 19af 813c 36c9 5b3e 093a ba3e 586c 93bb
00000300: b1ec 583d 9714 babd 74c2 2f3c 08f4 02be
00000310: 0d0e f63d 7e38 d63d 1085 a13d 3660 a8bc
00000320: 2141 083e 3b1c c7bd 05ec 33be 83e9 76bd
00000330: 502a 183e 97bb 16be 3beb 173d 6784 73be
00000340: 6f1b 36be 4b86 813e 0172 a43e 4dcc 443e
00000350: 0333 ea3c acc2 81bd 16ad aebe 45d6 9f3e
00000360: 45f1 083e 0c3a f2bb 00dc 9ebd 4078 30be
00000370: e212 423e e017 f8bd 5cec 043e c6d2 963d
00000380: 4812 97bd ca36 afbb 1d09 04be 6944 ab3d
00000390: d816 ac3a 218e a7bd d368 4c3e c0c6 3abd
000003a0: a750 d73d 4ee5 adbd 66e5 28be 25e7 b13e
000003b0: c456 cebd 4f6d b33d a35f 6a3d efcf 54be
000003c0: 8e5d 303c c3f1 cabc 8818 453e cd28 743e
000003d0: 9971 0fbe 8000 c83c 45cf 0c3d d99e b3bd
000003e0: 422f e3bd 1d9c e73d 327d 0fbe 9041 5d3d
000003f0: d42d 993c 6d6a 7abe d5b9 50bd 9aad d43c
-0.05309 -0.18982913 -0.13136643 -0.21844877 -0.28359637 0.19562921 -0.40330794 -0.20511074
-0.10921944 0.18398845 0.12271538 0.43559545 -0.09184916 -0.2812379 -0.22131526 0.030523278
-0.1095139 -0.1129275 -0.06445804 -0.27173477 0.005774856 -0.10868049 0.22308137 0.27899092
0.30158597 0.06500508 -0.016290106 0.24512212 0.008451765 0.2752733 0.055541016 -0.08906506
0.1874839 0.29947665 0.47932455 -0.09944919 -0.19448632 -0.44780552 -0.4152006 -0.17142566
-0.19682784 0.2022455 0.2673895 0.14479062 0.0736947 -0.1277415 -0.04450409 0.020416183
-0.10641896 -0.10162345 0.122718684 0.22230308 -0.12510008 -0.2974336 -0.25201255 0.22137119
-0.015556303 -0.29709497 0.112839766 -0.003426583 0.000862791 0.13451517 0.008107575 0.045257792
0.16817808 0.39976576 0.031808775 -0.22661258 -0.18560763 -0.005702773 0.20385975 0.13220479
0.119605914 0.043245416 -0.07017303 0.51224643 0.056969076 0.07019944 0.24484198 0.17952996
-0.1818966 -0.19649488 -0.03127629 -0.16822447 -0.2107464 -0.13607132 0.18279879 -0.127822
0.06170124 -0.29493737 -0.3085044 -0.075250484 -0.29943144 -0.1833627 -0.21403158 0.11899532
-0.25555977 -0.35235175 -0.21177593 -0.1276227 0.37476176 -0.011414465 -0.11422689 0.118467815
0.17420429 0.1329073 -0.2563584 -0.40502235 -0.059699386 0.46401384 0.076135196 0.08876359
0.26825228 0.36698186 0.3683689 -0.430193 -0.064218216 -0.23166691 -0.12293673 0.025668155
-0.15947397 0.017582629 -0.39296985 -0.20242563 0.24070467 0.041837633 -0.056719255 -0.15734415
-0.0603664 -0.05498167 -0.19946478 -0.20828997 0.15204869 0.0056478335 -0.03390266 0.17879312
0.2736936 0.3744693 0.11251859 -0.18566084 -0.08520843 -0.013562228 0.31753147 -0.091299415
0.01937787 -0.24438797 -0.16955481 -0.20596914 -0.15534872 -0.06103924 -0.021248855 0.06949066
0.23983517 -0.103394665 0.030156178 0.05114167 0.1785848 0.09642575 0.07214708 0.06985991
0.16594775 0.059427 -0.011824668 0.18774053 -0.09304565 -0.018418515 -0.17797618 0.06446752
-0.0557534 0.24954994 -0.091126464 0.0061704675 0.034743313 -0.14920528 -0.09627367 -0.18008043
-0.13977242 -0.1685911 0.20336308 0.055259682 0.012265754 -0.092612244 -0.23767182 0.13246875
0.17562108 -0.12970845 -0.101798534 -0.052626055 0.015830563 0.21463475 0.36372402 -0.0044989996
0.0529601 -0.090859585 0.010727514 -0.12788403 0.12014399 0.10459994 0.07886708 -0.02055369
0.13306095 -0.097221814 -0.17570503 -0.060281288 0.14859891 -0.14719997 0.037089568 -0.23780976
-0.17783903 0.2529777 0.32118228 0.1921856 0.028588777 -0.06335959 -0.3411643 0.31218162
0.13373287 -0.0073921736 -0.077568054 -0.17233372 0.18952516 -0.12113929 0.12980789 0.073644206
-0.07376534 -0.0053471075 -0.12894101 0.083626576 0.0013129367 -0.08181406 0.19961862 -0.0455997
0.1051343 -0.08491002 -0.16493759 0.34746662 -0.10075143 0.08761083 0.057220113 -0.20782445
0.010764493 -0.024773484 0.19247639 0.2384369 -0.14008178 0.0244143 0.034377355 -0.08770532
-0.11092998 0.11309073 -0.14012602 0.054017603 0.01869861 -0.2445466 -0.050958473 0.025961686

tcn.tcn.1.conv1.bias f4 [16]
00000000: c788 50be f68b 8bbe 583b ae3d 6383 e73d
00000010: 5b14 9ebe 692f 3ebe a433 a53d aece bb3d
00000020: 8b0f 59bd 0faa ebbd 4c58 5fbe ed4c c13d
00000030: c865 77be c416 543e 05db 8bbd 328d 0b3e
-0.20364676 -0.2725522 0.08507413 0.11304357 -0.30874905 -0.18572773 0.0806649 0.091702804
-0.05299334 -0.115070455 -0.21811026 0.094385006 -0.2415992 0.2071181 -0.06828884 0.1362808

tcn.tcn.1.conv2.weight f4 [16, 16, 1]
00000000: a05d 0a3f df85 f63c 2415 64bd 2dfc b53d
00000010: 56de 5abd bb84 b9bd 469d 673e 475b ad3e
00000020: 70b3 adbe 6b02 8cbe 25e5 943c d006 a53e
00000030: 6d4d 353c df41 9c3e bc68 c73e 4ab5 9fbd
00000040: b2d9 00be 8c2b c33e fcf7 19be 2fb7 4abe
00000050: 9b24 6d3d 4a4e 1c3e e915 5c3e f1eb 2dbe
00000060: 6da2 813e 0de2 13be b19f 003e ac19 7f3e
00000070: a2c9 5cbd 504d f5bd 57b4 aebe 1d99 683e
00000080: c453 2e3d 1d07 303e 1858 6a3e 6f00 943d
00000090: adb0 f33d 34b1 20bd 7c3a 723e 04e6 86be
000000a0: 1e7a 8dbd e45f 58bd 7b78 a5be d0fc bc3d
000000b0: fa07 22be 12f5 e2bd c4c6 37be 9eb1 6fbe
000000c0: 665f 86be fb8f 23bd 1c51 f5be b0b3 f0bd
000000d0: 7c9c 3a3e 5331 4abe 49ca 6bbd 5097 103e
000000e0: 7746 aabc 7c1a 1f3e f05a 543e 7493 8abe
000000f0: 7beb c7bd a492 bcbd 02e8 4a3d 27ad c73d
00000100: 4557 be3d 55cd 1d3e 4d7e e3bc fa93 7bbe
00000110: c7f6 d33d f254 abbd 9cc7 a13d 03ff f5bd
00000120: 845b be3e ccb4 48be 376b 38bd 36a0 593e
00000130: ddb5 2fbe b46f 7ebd fed1 39bc a917 053e
00000140: 3838 29be be4d 94bd 87fb 9dbc c9a6 4abe
00000150: 6fbe 1a3e f9a6 633e 6868 fb3e e501 223e
00000160: 982f f03d e9d1 64bc 35bb 89bd eaa1 3b3e
00000170: 8cd5 bbbd a2d1 ebbd be0f 053e 6add c03d
00000180: c9ec 37be eb48 583e 28fa 07be c8aa 37ba
00000190: c532 7e3e f745 b4bd f48f 00be 044f 973e
000001a0: 63be de3d 674b 8cbd 8531 033d 82b2 753e
000001b0: 699a 82be d795 83be c566 93be 57f1 a23e
000001c0: d66e 8c3e e317 48be 92e2 0b3e 9e78 363d
000001d0: 964d 2dbe 6cf3 e23e 3465 c53d d453 343d
000001e0: 7cd0 31bd 520d debd c261 3dbe 6524 f2bd
000001f0: 4420 7bbd 80f3 903e 8bd8 9cbc 6dbe 29be
00000200: b126 83be d03a 803e abb3 a8be 7799 e83d
00000210: 5e00 80be cc07 4b3e fbd1 a83e 9545 f7bd
00000220: a001 313d 950a b2bd ba7d 25bd 7224 323e
00000230: aa83 82be a1d5 d9bd e808 8abd 8758 9cbd
00000240: 536c 8bbd 0022 453d f52a ca3d 6628 54be
00000250: 0c74 69bd 7175 6abe 9f1e 413e d498 493c
00000260: 29aa b93d 6dc0 00be 3e0a 923e 6d0a e0bd
00000270: bb50 20bb a23e 253e 04a4 d83e d3c1 e73d
00000280: 43e5 4b3e f85c 13be 4dc1 31be ab26 96be
00000290: 75df acbd 845e 9a3e 98a5 21be da78 12be
000002a0: da57 f0bc cdc0 30be 5002 553e a93f 4ebd
000002b0: d3ed a23d 296d a43d dfc6 75bd ff08 c63d
000002c0: c174 863e 0969 bdbc 0200 30be bfd2 72bd
000002d0: cf9d 33be 3392 b0be d738 1ebe c930 c73b
000002e0: 84b6 bbbe 55df 863d 53a4 36bd 7bc8 1abe
000002f0: 5af8 f23d b9be 30be d847 d5bc 7caf 3bbc
00000300: efb8 423e c8fe 48be 471a 93bd 5c73 ccbd
00000310: f4af 1cbe 5962 b3bc 2bc6 d23d 41ae b43d
00000320: fb70 913e dfa9 e6bc 85b6 ebbd 16d2 43bd
00000330: 27bb 033d 0867 3cbe 4fe7 a53e 3562 653e
00000340: 59b6 8fbd c8e1 81bd 27bd 4e3d 23e7 4fbe
00000350: f3aa 96be 05b6 73bd 16da 983e 5960 403d
00000360: fbd2 1dbe f73e 4d3b 3db4 eabd f5ea e5bc
00000370: ec70 a0be 8d77 a0be c4bc 623e 482b 143d
00000380: 63b8 f1bd 14a9 d73e 83cd 4a3e bc90 f83d
00000390: 0de2 293e 5d57 31be b7dd 4a3e c7e7 043e
000003a0: 5be5 46bc 4654 fbbd db2f 3c3e d657 bfbd
000003b0: f2f9 4bbe a834 913d b145 5abe 30f6 963d
000003c0: c622 c4be fe3b 0e3e 327e e8bd 48d2 043e
000003d0: 53c2 fe3d 24d5 8fbd 5ec0 043e 97f7 cd3b
000003e0: 88f9 10be 1f78 d0ba 3f17 2b3e 02a2 babd
000003f0: 0c4a 7abe c248 4bbc 766b 0ebf 257d 0abe
0.5404911 0.030093132 -0.055684224 0.08885989 -0.053434692 -0.090585195 0.22618589 0.33858702
-0.33925962 -0.27345595 0.01817567 0.3223176 0.011065823 0.30519006 0.38947093 -0.0779825
-0.12583044 0.3811916 -0.15036005 -0.19796441 0.057896238 0.1526424 0.21492733 -0.16984536
0.25319234 -0.144417 0.12560917 0.24912137 -0.05390323 -0.11977637 -0.34121963 0.22714658
0.042560354 0.17190214 0.22885168 0.07226645 0.118989326 -0.039231494 0.23655123 -0.26347363
-0.06908058 -0.052825823 -0.32318482 0.09227908 -0.15823355 -0.110819 -0.17946917 -0.234076
-0.26244658 -0.039932232 -0.47913444 -0.11753023 0.18223757 -0.19745378 -0.05756596 0.14120221
-0.020785553 0.15537447 0.20737815 -0.27065623 -0.09761711 -0.09207657 0.049537666 0.09749823
0.09293989 0.15410359 -0.027770186 -0.24568167 0.103498034 -0.083658114 0.078994006 -0.1201153
0.37179196 -0.19600219 -0.045024123 0.21252522 -0.17159219 -0.062118247 -0.01134157 0.12997307
-0.16525352 -0.07241391 -0.019284977 -0.19790186 0.15111707 0.22231664 0.49103093 0.15821035
0.11727828 -0.013966062 -0.0672516 0.18323484 -0.0917159 -0.11514594 0.12994286 0.094172314
-0.1796142 0.21121566 -0.13279021 -0.00070063444 0.24824055 -0.08802407 -0.12554914 0.29552472
0.10876157 -0.06850319 0.032029647 0.23993877 -0.2550843 -0.25700256 -0.28789344 0.31824753
0.2742831 -0.19540362 0.13660648 0.044548623 -0.16924128 0.4432634 0.096384436 0.044025257
-0.043411717 -0.108423844 -0.18494323 -0.11823348 -0.061310068 0.28310776 -0.019146224 -0.16576548
-0.25615457 0.2504487 -0.32949576 0.11357396 -0.2500028 0.19827193 0.32972702 -0.120738186
0.04321444 -0.086934246 -0.040403105 0.17396715 -0.25491077 -0.106364496 -0.0673998 -0.07634073
-0.068077706 0.048128128 0.09871475 -0.20718536 -0.056995437 -0.22896363 0.18859337 0.0123045035
0.090656586 -0.12573405 0.2852344 -0.109394886 -0.0024462182 0.16137174 0.42312634 0.11316266
0.19911675 -0.14390934 -0.17358895 -0.29326376 -0.084410585 0.30150235 -0.15785825 -0.14303914
-0.029338766 -0.17261048 0.20801663 -0.05035368 0.079555176 0.08028633 -0.06000411 0.096696846
0.2626095 -0.023121374 -0.17187503 -0.059283014 -0.17540668 -0.3448654 -0.1545137 0.0060788137
-0.36662686 0.06585566 -0.044590306 -0.1511554 0.118637756 -0.17260255 -0.026035234 -0.011455413
0.19015859 -0.19628441 -0.071827464 -0.099829406 -0.15301496 -0.021897482 0.10291704 0.08822299
0.2840651 -0.028157173 -0.11509422 -0.047807775 0.032160904 -0.18398678 0.32403037 0.22400744
-0.07017202 -0.063418925 0.05047336 -0.20303015 -0.294273 -0.05949976 0.29853886 0.046966884
-0.15412514 0.0031318048 -0.11460159 -0.028066138 -0.31336153 -0.3134121 0.22142321 0.03617409
-0.11802747 0.42121184 0.19804959 0.12136981 0.16590138 -0.17318483 0.1981114 0.12979041
-0.012139644 -0.12271933 0.1837763 -0.09342925 -0.19919565 0.070901215 -0.21315648 0.07371175
-0.3830778 0.13890073 -0.11352195 0.12970841 0.12439408 -0.07023075 0.12964007 0.0062856185
-0.14157689 -0.001590494 0.16708086 -0.09112932 -0.24442309 -0.0124074835 -0.5563272 -0.13524301

tcn.tcn.1.conv2.bias f4 [16]
00000000: 058a 49be 3176 473e ab3f 38bd 8fd7 f63b
00000010: 1855 8a3d 90af 03be d844 acbd 9a86 933d
00000020: a19f 9f3e b29e f63d 9dcc d1bd ad6d 113e
00000030: 89a4 563e f14e aebd b2bd 09be 72e1 5f3e
-0.19681557 0.1947868 -0.044982594 0.007533021 0.067545116 -0.1285994 -0.084115684 0.072034076
0.31176475 0.120419875 -0.10244105 0.14201994 0.20961203 -0.08511151 -0.1345127 0.21863344
