checkpoints/fine_tune/var_rf/hainsworth/0.4/model_fallen-blaze-195_finetune_finetune_finetune_finetune_finetune_GTZ_GIA/it_7384_loss_3.5104_acc10.47_acc20.73.pt (torch, 437010 bytes, 211 tensors)

conv1.weight f4 [16, 1, 3, 3]
00000000: 6db3 b13e f63d 2abd 3552 b3be 187b d13e
00000010: 5382 ebbd 1812 c6be 771a 483e b04b 283e
00000020: 61f6 acbe 26dd 633e 7f0b 0dbf a899 f1be
00000030: ae69 933e b9b2 78be 1f91 063e f2b0 493e
00000040: e95e 643e 5812 c53d 34dd 1cbe 921f 003f
00000050: 8849 983e 325f ddbd 639a d03e 6517 ea3d
00000060: ca46 26bf 4753 10bd 8187 d0be 9ae8 8fbe
00000070: 2816 cabd e3c2 bf3e 13d2 a8be 4bcb f43d
00000080: 6f13 5b3e cb71 ce3e 310c 8f3d a7d5 03bf
00000090: 2ba3 9ebe 177d 91be 0d18 7fbe 4f3f 30be
000000a0: cea3 433e ef71 8a3e 43ba 82bd d257 97bd
000000b0: 1c52 7cbe abf8 8fbd f0d1 f23d dde4 e2bc
000000c0: 9312 55bf 8666 a43e 9f18 033f 2ea2 87be
000000d0: e723 9f3e f9a3 c4bc 0c4f aa3e e5d0 823c
000000e0: 9687 c6bd 6a77 ecbd d29d 293e b78c cbbe
000000f0: de58 89bd 4880 2c3e b6f2 4abe 245f ac3c
00000100: b909 4d3d eb5f 9f3e 4fc1 18bf 83d8 9ebe
00000110: eed3 8bbe ee4d 363e 9442 69ba af7c 1c3f
00000120: e3d2 f5be deba 78bb 5bc9 cebe 2ab1 adbe
00000130: c75b e63e 56a3 dd3e ebf0 3bbe 8246 c93e
00000140: b03f fe3d a5ea 2fbf e53c 9f3d 5aaa 073f
00000150: eacd ccbc cb42 6abe 40f2 5d3e 71d5 aabe
00000160: 080c b93c 49e1 b13e 9514 06bf 12bf 723d
00000170: 7115 cb3e 1020 63be fa82 2abe fe28 cb3e
00000180: 4b68 0a3e 64f1 57bd f777 7a3d dbae 233e
00000190: 5c15 ce3e 4be2 3cbe c58e 4d3e 7044 ad3e
000001a0: 2e6e 75be 9725 7c3e f7f6 d4bc c6b9 53be
000001b0: 291f 463e d1a9 303e 3821 123d 4597 6cbe
000001c0: ffd4 8cbe 51ee 02bf 930e 9d3e d350 b63e
000001d0: ae90 cfbd f40a 323e 01b7 17be 8c8c a1be
000001e0: 05ba ec3e e7d4 ce3e ee88 783e 77fe b3be
000001f0: 09d1 0d3b e433 26bf 7a4c d23e 3eaa 603e
00000200: 706a 00be 37d5 e13e aec9 94be feb6 32bd
00000210: 5db4 353e 5ca6 b8be ea27 07bf ba3f 85be
00000220: 4061 ddbd 67c7 943e d471 d5bd 715e cf3d
00000230: 9241 ea3e 30ca 17bf 8c02 a1be 3889 fe3e
0.34707204 -0.041562997 -0.35023656 0.40914226 -0.11499467 -0.3868568 0.19541346 0.16435122
-0.33781722 0.2225233 -0.55095667 -0.47187543 0.28791565 -0.24286927 0.13141297 0.19696406
0.2230183 0.096226394 -0.15318757 0.5004817 0.297436 -0.10809173 0.40742788 0.114302434
-0.64951766 -0.03523567 -0.4072838 -0.28107148 -0.09867507 0.37453374 -0.32972774 0.119528376
0.21394132 0.40321192 0.06984747 -0.5149788 -0.30983862 -0.28415748 -0.24911518 -0.1721165
0.19105455 0.2704005 -0.06383183 -0.07389797 -0.24640697 -0.070298515 0.11856449 -0.027697021
-0.83231467 0.3210947 0.51209444 -0.2649092 0.3108208 -0.02400397 0.33263433 0.01596875
-0.0969383 -0.11546214 0.1656411 -0.39755794 -0.06706403 0.1684581 -0.1981915 0.02104146
0.0500581 0.31127867 -0.59669966 -0.3102456 -0.27310127 0.17803165 -0.00088981655 0.6112775
-0.48012456 -0.0037953178 -0.40387997 -0.33924228 0.44991896 0.43288678 -0.18353622 0.39311606
0.12414491 -0.68717414 0.077752866 0.5299431 -0.025000531 -0.22877042 0.21674442 -0.33365968
0.022588745 0.3474219 -0.52375156 0.05926425 0.39664796 -0.221802 -0.16651526 0.39679712
0.13516347 -0.052720442 0.061149564 0.15984671 0.4025067 -0.18445699 0.20073994 0.33841276
-0.23967811 0.24623714 -0.025996668 -0.20676336 0.19347824 0.1725228 0.03567621 -0.2310458
-0.27506253 -0.5114489 0.30675182 0.3560854 -0.10135017 0.17386991 -0.14815904 -0.3155254
0.46235672 0.40396807 0.24270985 -0.3515508 0.0021639487 -0.6492293 0.41073972 0.21939942
-0.12540603 0.44107983 -0.2906012 -0.043631546 0.17744584 -0.36064422 -0.5279528 -0.26025182
-0.108095646 0.29058382 -0.104221016 0.10125435 0.4575315 -0.5929289 -0.31447256 0.49714065

conv1.bias f4 [16]
00000000: e09d 65bd 86d8 25bd 548d 2cbe 67aa 51bd
00000010: 1a10 43be ad4b 06be 1976 383d ed4a a3bd
00000020: 4cf6 99bd b7ee a73c 2f07 d7bc 5bf2 3cbe
00000030: 36bf cbbc 7acf 0bbe 69be eabd 9e69 babd
-0.056058764 -0.040489696 -0.16850787 -0.0511879 -0.19049111 -0.13114806 0.0450345 -0.07973275
-0.075176805 0.02049957 -0.026248543 -0.18451826 -0.02487145 -0.13653365 -0.11462099 -0.09102176

conv2.weight f4 [16, 16, 3, 3]
00000000: 95a7 c3be d479 c83c 003a 3b3d 6187 ddbd
00000010: b6e0 49bc 8606 0f3e 33b7 d8bd 97d5 f23d
00000020: f79e 683e ac3a 8bbd 3926 5dbe 41eb 64be
00000030: 9efc 393d a0bf 623e bf6b db3d a277 3cbe
00000040: abdb 033d 1d84 14be 1ced 1f3e 6c90 12be
00000050: 0236 f03d e741 893e 2ec2 66be 51d3 cfbd
00000060: 9c20 cc3e 86a1 64be 5875 74be 5847 50bd
00000070: 51c2 c23e c8dd 2f3f c833 0dbe 3668 f63d
00000080: 679a c33e eebb 373e c849 193e 1482 523e
00000090: 2e95 213d bea6 cdbc 42bf 71be dad9 cfbd
000000a0: 83f5 46be 4f12 96be 13a3 83bd faa1 57be
000000b0: e983 31be 5ba2 073f 0e94 bd3e b1e7 6e3f
000000c0: 7cfc 8c3e a284 41be 94d6 1b3e 2a0c 033f
000000d0: 1c76 90bd f74e c83e 1d71 473d 62be 0ebe
000000e0: 2901 35be fc5e 5fbd d7de e0bd 41d0 68be
000000f0: 6b65 d9bc b900 98bd 708c 4dbd 8fc7 923e
00000100: 6b48 953d 169f 49be 335d 743e 77d3 d8bd
00000110: 7fee f5be e716 26bd fb4b bebd a8e4 d9be
00000120: f7c8 a63e 4a10 a8bd f303 243d 73fe ae3e
00000130: 5614 04be 5ce0 18be b70b d33d a825 14be
00000140: 4c6c 33be 24b7 093e 6402 ac3e 8b68 d83e
00000150: 5586 7d3e ca9d 9e3e 2591 9c3e 32c3 923e
00000160: c5f8 f13d 75f4 5b3e 5970 3f3e 8030 1c3e
00000170: 6d49 f43e 69c3 f43c 6438 c3bd 9fc7 323d
00000180: cba5 69ba f633 31be a45a 38be 9b7d 1bbe
00000190: d37c 0fbe 7134 d1bd 89c1 23be 4029 38be
000001a0: 734a 6fbe 36ad d9bc 3d7d 873d 3de5 88bd
000001b0: 9ce5 0bbe f134 f8bd eba0 7cbe 13d4 c2bc
000001c0: 2a0d 89bd 5821 20be ea34 d6bd 5c23 18bd
000001d0: 438a 19be 768d 1b3e bc6c d3bc 8721 a1be
000001e0: 6ff6 013d 349e bfbd f43d 48be be26 73bd
000001f0: 324d 33be e9be 20bf 1b2a e5be ca07 a1be
00000200: 7e0a e8bc dc54 c6be 7000 49bc 2e4a 4e3e
00000210: 2d6c edbd 8ae1 433e 748a 41bc 64ef b63e
00000220: 012d a63e afc3 2b3f 3111 0e3d 0317 72bd
00000230: ce97 e43d 3af1 073e 3703 10be 8373 2abd
00000240: 1eee 003e 5100 0d3d bc1b 7b3e b603 35bd
00000250: b21d 013e 395d 023e 2539 babd d6bf 683d
00000260: e229 383d 61aa 483e d520 28be 7127 9b3e
00000270: 1f8a 80bd a17b 06be cd85 0a3e fe11 0d3e
00000280: 77c0 12be f6ab 0f3d 129f 99be 880a 113f
00000290: ae1f bdbc 4293 2cbf 9021 3c3d c4a8 43be
000002a0: f4ec 2fbf f383 9c3d 8b6c 9cbe 56cc 89be
000002b0: 045b 28be c6ab 8e3b 7cf1 43be f913 a0bd
000002c0: 33dd 2a3d 6c81 0ebd 3757 4d3c 90e4 963d
000002d0: 2b4d 5a3e 8a21 833e 14bc 883e f50b 3e3d
000002e0: 96a3 e13d 9f12 043a 9e34 d23c 4eb0 ad3d
000002f0: 1b46 4a3b 209e bbbe 8488 8a3e 42f8 99bd
00000300: 4749 e0be 56db 803d 0197 efbd 2019 01bf
00000310: 3032 663e 3c3e 5abd 8d7d a3bd a392 e53d
00000320: 5682 67bd 16e6 d23b 8322 263d 502a 533d
00000330: 0fbc 08bd fc17 be3d 83e7 b73d 4cac da3d
00000340: 4f6c 67bd 75e7 adbe 0f27 dbbc 4bf6 9dbd
00000350: 3a1a 13be 6322 81bc 9eb8 89bd 8860 c7be
00000360: 3067 14bf 4411 8abc 642c bfbe d18f afbe
00000370: 17cc b23d 9d96 cebd 25fd ebbe 7979 8a3e
00000380: 0325 9c3d 682c c53c 4aaf b2bd 5a6d 02be
00000390: 059f 1bbe b9d3 06be 7f65 103d a0b3 1abe
000003a0: 636b 5a3d 95ab d33b bdca 6d3e cbf4 06be
000003b0: e76f 2dbc 9335 9dbd a2a4 18bd e88a d6bd
000003c0: 8183 07bd f6d6 2dbe f094 893c fb6d 7abe
000003d0: 9a8d 98bc a178 943e 15b9 93bd 5080 e1bc
000003e0: e229 4d3e b510 c6bc c714 d13d 5e92 873e
000003f0: de54 0fbd 5f83 08be 8b84 efbd a37a f8bd
-0.38213792 0.024472155 0.04570961 -0.10816837 -0.012321642 0.13967332 -0.105818175 0.11857145
0.2271689 -0.067983 -0.21596612 -0.22355367 0.04540693 0.22143412 0.1071391 -0.18405011
0.032191914 -0.14503522 0.15617794 -0.14312905 0.11729051 0.26808092 -0.22535011 -0.10147727
0.3986863 -0.22327241 -0.23872888 -0.05084929 0.38038877 0.68697786 -0.13789284 0.120315954
0.38203737 0.17942783 0.14969552 0.20557433 0.03944891 -0.025103923 -0.23608115 -0.10148974
-0.19429593 -0.29310843 -0.06427588 -0.21057883 -0.17335476 0.5298211 0.3702702 0.93322283
0.2753638 -0.18898252 0.15218574 0.51190436 -0.070537776 0.39122745 0.048691858 -0.13939813
-0.17676224 -0.054533944 -0.10980003 -0.22735693 -0.026537618 -0.07422013 -0.05018276 0.28667876
0.07289203 -0.19689593 0.23863678 -0.10587209 -0.4803352 -0.040549185 -0.09291836 -0.42557263
0.325752 -0.08206232 0.04004283 0.34178504 -0.12898383 -0.14929336 0.10304969 -0.1446749
-0.1752178 0.13448769 0.33595574 0.4226726 0.24758275 0.30979759 0.30579486 0.28664547
0.11815027 0.21479972 0.18695201 0.15252876 0.4771227 0.029878335 -0.0953224 0.043647405
-0.00089129497 -0.17304978 -0.18003327 -0.15184633 -0.1401246 -0.102150805 -0.15991797 -0.17984486
-0.23368244 -0.026571851 0.06615684 -0.06684349 -0.13661808 -0.12119473 -0.2467076 -0.023782765
-0.06691964 -0.1563772 -0.10459311 -0.037143096 -0.14994149 0.15190682 -0.025808685 -0.31470892
0.031729158 -0.09356347 -0.19554883 -0.05936312 -0.17509916 -0.62791306 -0.44758686 -0.31451255
-0.028325316 -0.38736618 -0.012268171 0.20145485 -0.115928985 0.19129005 -0.011812795 0.35729516
0.3245621 0.67095464 0.034684364 -0.059103977 0.11161767 0.13275614 -0.14063726 -0.041614067
0.12590834 0.03442413 0.24522299 -0.044192992 0.12608984 0.12730874 -0.09092931 0.056823574
0.044961818 0.19596244 -0.16418774 0.3030353 -0.062763445 -0.13133098 0.13527603 0.13776395
-0.14331232 0.035076104 -0.30004174 0.56656694 -0.023086395 -0.674122 0.045930445 -0.19107348
-0.68720937 0.07642355 -0.30551562 -0.26913708 -0.1644097 0.004353973 -0.19135088 -0.078163095
0.04171486 -0.034791395 0.012533001 0.073678136 0.213185 0.25611526 0.26705992 0.046398122
0.1101753 0.0005038175 0.025659855 0.08480893 0.003086454 -0.36644077 0.27057278 -0.075180545
-0.43805906 0.06291835 -0.116987236 -0.5042896 0.22480083 -0.053282008 -0.07982931 0.11209609
-0.056520782 0.00643612 0.040560257 0.051554024 -0.03338247 0.092819184 0.08979704 0.10677394
-0.056499775 -0.3396565 -0.026752023 -0.07712992 -0.14365473 -0.015763467 -0.06724666 -0.38940835
-0.5796995 -0.016853936 -0.37338555 -0.3428941 0.08730333 -0.10087321 -0.4609157 0.270458
0.07624247 0.024069026 -0.0872484 -0.12737027 -0.1519738 -0.13166703 0.035253044 -0.15107584
0.05332507 0.006459663 0.2322187 -0.13179319 -0.010585762 -0.07676234 -0.03726638 -0.10475713
-0.033084396 -0.16976532 0.016794652 -0.24456017 -0.018622208 0.28998283 -0.07213036 -0.027527004
0.20035508 -0.024177888 0.10209041 0.26478857 -0.034993045 -0.13331364 -0.116952024 -0.12132766

conv2.bias f4 [16]
00000000: 625e 21bd 084a 23be 9cba 46bd 88ee 93bd
00000010: 1a84 4dbe fde6 93be 3951 a0be 5b87 15be
00000020: d79a 13be 663f 5fbe 1712 05be c01a 3ebe
00000030: d18b 31bd cc33 36be e011 643c 2cef 1abe
-0.03939665 -0.1594621 -0.04851781 -0.072232306 -0.20069924 -0.28887168 -0.31311968 -0.14602415
-0.14414535 -0.21801528 -0.12995182 -0.18564892 -0.04334623 -0.17793196 0.013920277 -0.151303

conv3.weight f4 [16, 16, 8, 1]
00000000: 2c37 c9be b2b1 27be 22ae 04be 6d30 35be
00000010: c07d 7fbe d4dd b4be 0e35 33be 7e41 803e
00000020: 971a 8e3e 6631 653e 6310 913e 83fd f03d
00000030: 573a 713e bd21 ad3e b53f 68be a30d c6be
00000040: 4f58 633e c1b9 853e e789 713e c4dd 363e
00000050: 04dc 563d 0e17 a33d 4453 7cbe 7e95 2cbe
00000060: 4b2e f5be 1b3e 6abe 7d0c 99be 7b81 1dbe
00000070: ee85 13be 636d bfbe 7a9f 1d3d 65ab 86be
00000080: fbe4 50be 1c01 09bd 572c 253d c164 e8bb
00000090: 5bba 823d 63e9 633e 6b94 343e 119f 1c3e
000000a0: d4f6 9fbe 9457 1c3e ecb2 963d a8f0 433e
000000b0: 0108 1a3e 03cd e33d 4dcc b4be 4daa 2fbd
000000c0: beb3 3bbd a474 183e 72ad a43e 4782 193e
000000d0: c1dc 743e 7728 773e a0d2 40bd 216c 0abe
000000e0: 2e7d 483e d319 2bbd 76d4 233d a46c 01bc
000000f0: 8171 4abc e83d 43be 2180 b93d ee48 24be
00000100: f6b2 8b3c 2ad6 26bd 3124 cb3b 402a a23d
00000110: fd74 34be 5c1b 2ebe 90b2 213f 3e76 85bd
00000120: 1c86 eebd 4111 12be 608c 9b3d 848b 25bd
00000130: eb29 d2bc 1a58 f33d d5a8 98be 14c2 043d
00000140: 4b7f f93d f6c8 4fbe fd7b 4abd 689c 17be
00000150: 6b99 08be b9d0 99bd 7405 f63d 2717 eebe
00000160: af59 883d aade b33d 82f9 1e3d 8949 cf3d
00000170: e6e3 ab3e 014b 87bd cb65 08bf 7b23 93bd
00000180: 20b6 40be 4025 a3be c9f3 a3be ca41 e0bd
00000190: 63b1 3bbe 073d 99be 559e 743d d17e 513e
000001a0: b883 013e 32f4 813e a388 933e 7c1f 453e
000001b0: fa7e 413d f255 6e3e 64b9 c33e 48b6 a9be
000001c0: 689e a93d eb1b 153e 6dd5 213e 6296 8a3d
000001d0: 846a 01be 2cd2 da3c 9288 7ebc 2ab4 a93e
000001e0: 1bf4 08bf eabd 94be b3b4 02be a5e1 78be
000001f0: 4149 b5be 5641 f9bd a9e9 703d c15f 153e
00000200: 1b80 6dbe d4d0 afbd 2ace 42be 45a4 44bd
00000210: 12cf 0e3d a9bd fb3c e535 bf3e 79c8 943d
00000220: dc3e 02bd 9819 133d 065b 7b3d 5f57 0e3c
00000230: ccee 8a3d 073f 7f3e d1b6 4dbe 5e33 5abe
00000240: b2d2 51bd 7b37 54be e69d 2dbe f71a 67bd
00000250: 616b dcbd 1781 4b3e b467 02bb 0127 3dbc
00000260: dce9 273d ec68 cd3d 81ab c6bd 3eb9 82be
00000270: 409d 25be b8fb 01bf 71ce 93be c3e1 e0be
00000280: c1cc 05be 3cd0 b4bd 461a cfbd 94b7 60bd
00000290: 2b5b d9bd 5d57 223e b415 2ebe 9ec0 013c
000002a0: 34f9 b23e a724 f7bd f4b2 00be b5d2 06be
000002b0: e532 d1bd e531 c4bd 0ade d9be a249 31bd
000002c0: 6dba f3be 28dc e1bd 5d90 e1bd ea74 9bbe
000002d0: d3e2 4fbe 3c94 17be 9178 f7bc a416 92bd
000002e0: 4af7 2dbd b283 99be 697e 7ebe 3494 7dbd
000002f0: 2830 cf3c 35a7 673e ff09 fa3e 8d4b 2e3d
00000300: 979d 12be 55bc c9bc 9466 5a3d 1ac8 42bd
00000310: e3fe d0bd 0c78 a3bd 238d 293f 91b8 66be
00000320: a2af f23c fdc4 26be ba9c b3bd 8ec0 e0bd
00000330: 8a85 e43c d602 323e 24a2 0dbe 8701 7e3e
00000340: 3e25 82be 1fd8 aabe 1996 88be 688d 46be
00000350: c0a5 52be 3748 a4be 35af e33e e96b c5be
00000360: 4e76 8e3d e665 89be fa7f 763c 0dcb d73d
00000370: 08c4 2f3d 6bce e93d 025a b23d 33a3 943d
00000380: 517c 08bd 5794 adbd 17f5 f2bd 81d5 58bd
00000390: cbda 16be a3cf a6bd 1481 cdbd 3e80 513e
000003a0: 5840 1f3d 7265 1cbd 7e06 80bd 3b53 80bd
000003b0: 4200 983d bc8e ddbd 153d ac3e 280d ebbe
000003c0: fc89 c63d fa97 123e 03be 663d 9fdb 073d
000003d0: cdbb 2d3d d1ee b6bd 3567 a3be f09b 333e
000003e0: 7601 003d 287f ea3d 7ed4 1e3e 2e6a ec3d
000003f0: a8a4 ccbd d7b9 b53d 0b12 943c a208 983e
-0.39299905 -0.16376379 -0.12957051 -0.17694254 -0.24950314 -0.3532549 -0.17500708 0.25049967
0.2775466 0.22382125 0.28332815 0.117671035 0.23557411 0.33814803 -0.22680552 -0.3868228
0.22201656 0.2611828 0.23587762 0.17858034 0.052455917 0.07963382 -0.24641138 -0.16853902
-0.4788688 -0.22875254 -0.2989234 -0.15381424 -0.14406559 -0.37388143 0.038482167 -0.2630264
-0.20399849 -0.033448324 0.04032549 -0.007092089 0.06383201 0.22256999 0.17634742 0.15295054
-0.31243002 0.15267783 0.073583454 0.19134772 0.15042116 0.11123087 -0.3531212 -0.04288702
-0.045825712 0.14888245 0.32163578 0.14991103 0.23912336 0.2413653 -0.047075868 -0.1351781
0.19579002 -0.041772675 0.03999754 -0.007899437 -0.012356163 -0.19066584 0.09057642 -0.16043445
0.017053109 -0.040731587 0.0061993827 0.07918215 -0.17622752 -0.17002624 0.6316309 -0.065166935
-0.11646673 -0.14264394 0.07595134 -0.040416256 -0.025654754 0.118820384 -0.2981631 0.03241165
0.12182482 -0.20291504 -0.04943465 -0.14805758 -0.13339774 -0.07510514 0.12012759 -0.4650204
0.06657731 0.08782704 0.038812168 0.101214476 0.3357231 -0.06606103 -0.53280324 -0.07184502
-0.18819475 -0.31864357 -0.3202193 -0.10950048 -0.18329386 -0.29929373 0.05972131 0.20458533
0.12647903 0.2538162 0.28815183 0.19250292 0.047240235 0.23274973 0.3822738 -0.33146882
0.08282167 0.14561431 0.15804072 0.067669645 -0.12638289 0.026711546 -0.015535491 0.33145267
-0.53497475 -0.29051143 -0.12764244 -0.24304827 -0.3540745 -0.12170665 0.058816586 0.14587308
-0.231934 -0.08584753 -0.19023958 -0.048008222 0.034865446 0.030730085 0.37345806 0.072647996
-0.03179823 0.03591308 0.061366104 0.008687823 0.06783828 0.24926387 -0.2008927 -0.21308658
-0.051226325 -0.20724289 -0.16954765 -0.0564222 -0.107626684 0.19873463 -0.0019898238 -0.011544944
0.04099451 0.10029778 -0.097006805 -0.25531954 -0.16173267 -0.5077472 -0.2886844 -0.43922243
-0.13066389 -0.0882878 -0.10112433 -0.054862574 -0.10613092 0.15853639 -0.17000467 0.007919459
0.34955752 -0.12067538 -0.12568265 -0.13166316 -0.102147855 -0.09579829 -0.42552215 -0.043283112
-0.4760317 -0.110283196 -0.11013863 -0.30362636 -0.2030137 -0.1480264 -0.030208858 -0.071332246
-0.04247216 -0.29983288 -0.24852909 -0.061908916 0.025291517 0.22622378 0.4883575 0.04255252
-0.14317928 -0.024625937 0.053320482 -0.047554113 -0.10204866 -0.079818815 0.6623098 -0.22531344
0.029624764 -0.16286083 -0.087701276 -0.10974227 0.027895708 0.17383894 -0.13831383 0.2480527
-0.2541904 -0.33368012 -0.26677015 -0.1938988 -0.20571041 -0.32086346 0.4446961 -0.3855889
0.069561586 -0.26835555 0.01504516 0.10536776 0.04291156 0.11416324 0.08708574 0.0725769
-0.033321682 -0.08475559 -0.118631534 -0.05293799 -0.147319 -0.08145072 -0.10034385 0.20459077
0.038879722 -0.038182683 -0.06251238 -0.06265875 0.07421924 -0.1081824 0.33640352 -0.45908475
0.09694287 0.14315787 0.056333553 0.03316843 0.04241543 -0.08932269 -0.31914678 0.17539954
0.031251393 0.114500344 0.15510747 0.1154369 -0.09992343 0.08873337 0.01807501 0.29694086

conv3.bias f4 [16]
00000000: d538 8ebe 6dab e13c 86d0 f23d 09a3 04be
00000010: edfc 40bd d406 c83e 142c 123e 0a43 7ebd
00000020: 1944 64be a111 ecbe 80c6 013e 5384 ba3e
00000030: 8110 05be 40f2 21be 420a 943e ce2f 07be
-0.27777734 0.027547562 0.11856179 -0.12952818 -0.04711621 0.3906771 0.14274627 -0.062075652
-0.22291602 -0.461072 0.12673378 0.3642908 -0.12994577 -0.15815067 0.28914076 -0.1320183

tcn.tcn.0.conv1.weight f4 [16, 16, 5]
00000000: 534d 3c3d 708c 4c3d bb4c c3bb 6ca0 7fbd
00000010: 9e67 20be 233a c83d 1147 74bc 2249 a13d
00000020: 54ac dd3b 9315 bebe 9759 babd a041 343c
00000030: aebb 923e a8ec 94bc 1a6b efbd 15f1 fe3d
00000040: 3731 2c3e 9043 233e a5eb 263e 7a44 4b3e
00000050: 53d8 a93e 4e5b 623c 953e be3e 1a46 a83e
00000060: cc7f d73d 8cf3 17bf 9c19 89be b5d9 21bd
00000070: 02e0 d33c 235b a73e a76c 7ebe 3103 66be
00000080: 7dbb 77be 5b7e 893c 067c 4a3e e0ad 27bc
00000090: c2ca 94bd fe27 ca3b 1c15 8f3d 5d15 41bd
000000a0: d0a9 33be b98a cbbd a784 05be f529 dcbd
000000b0: 659d 9bbe 8013 6ebe 75dc 2ebe 0869 303d
000000c0: adff 2a3e 8d72 8c3e f794 ff3c 80c4 d93c
000000d0: 5802 26be cb6f e6be f48a a1be 22e7 d2bd
000000e0: 9ba1 16be b7ba 83bd 3094 0cbe 427b 40be
000000f0: 4066 883d 6fae 14bc 8a2a 3b3e 72d8 2abe
00000100: 1eb0 9fbe 2e8b 9a3d 6198 cfbd d268 f4bd
00000110: 4f36 f93c ac4b d53d 0052 b5bd 09cd 08bd
00000120: d2ce f7bd 9cdc 3dbe 320d 17bb 4b55 4fbd
00000130: 5127 5ebe 5244 b33c 0a43 08be d7cc 30be
00000140: f5df 473e 0f6a b43e 26af f03d 602f 553e
00000150: ba3c 1c3e 5bd5 433e 0579 bc3e 157d f83c
00000160: 4530 683e 6d9e b23e 7d8e 2abc 82fb c53e
00000170: fc3c 7c3e c2c1 953e adfc cf3e 274b b4bd
00000180: 40fb a7bd 00c4 cebe 3b2e 83bc 3572 95bd
00000190: 8cc0 bdbe fada 92be af40 203d 3122 a23d
000001a0: bfe6 233e fbd9 c93c 536d 0ebd baed 0dbe
000001b0: 1aa5 30bd 5355 8dbd 5750 babe cc10 9cbe
000001c0: 6340 31be cd03 b3bd f91d 5bbe 5085 dbbc
000001d0: 8b38 08bd 8fbd 803d 68e4 3a3e f443 2a3e
000001e0: fa68 6ebd cb9f da3d b4d4 3fbd 72a2 be3d
000001f0: d952 1fbc 9056 1cbd d014 07be 5a91 87bc
00000200: 3bed 97bd c7c2 b03c e0f4 6e3c 286e 723b
00000210: d523 133e 8b96 553e 5d92 163e 906f a33d
00000220: 179a 6f3e 3895 173e e2a4 bf3d 0c53 143e
00000230: 8216 bebc 5c98 77bd 25c1 103d fe15 4bbc
00000240: fc7e 293e 838e 1abe 149d 26bd f451 043e
00000250: 3aef 3c3e 05fa 7b3e a7dc 3f3e 1e4b 94bd
00000260: 0cfc 4a3d 3ccd 86bd 5ccc 36be 969c 5e3a
00000270: 1275 08bb 11e0 21be c5fb fabd 61e5 663e
00000280: 6987 903c ea4b 543e 2c34 463d d85d 223d
00000290: 1f39 dfbd 18b8 2b3e ab45 de3d 9607 e83d
000002a0: 1206 093c 443f ab3b 8615 7f3d 06b1 28bd
000002b0: 4776 6b3d 9945 b63d 7363 8b3c a1f0 09be
000002c0: d798 93bd b2e7 b9be c16a b2be c266 29be
000002d0: 604b 3b3e 3ad6 363e 0aac d3ba a1f6 073d
000002e0: ae8e d4ba 3dab 293c dcb5 893e 666c 1e3e
000002f0: fb3d 7c3d 02b2 c23c df1f b7bd b8b6 1fbd
00000300: e254 cebd 4c39 1b3d 4eb2 753e 10dd fc3d
00000310: a4a0 283d 6b3d 383e 943e 9f3e a0aa 543d
00000320: d357 79be b548 83be c988 2fbe 3c9e a9be
00000330: 28b1 a2be f2a5 d7bd eeee 09be 1749 c5bb
00000340: 1982 893e 8fd6 c1bc 19ed cd3d d00a 11bd
00000350: 3309 5bbd 7992 093e d37c f73d fda7 47be
00000360: 126d 5e3d 6556 ab3e d073 5d3e e50f 2dbd
00000370: d2ae d2bd 20b3 84be 07d8 4bbd f115 8c3d
00000380: 5895 3dbe 6f21 19bd 98c3 ac3d 7ff2 173e
00000390: 0efd 413e d6d6 33be 958c 56be 5649 39bd
000003a0: 6705 273d d04c d63b 0612 b0bd c814 dd3c
000003b0: 94c4 a1be 0ed6 90bd 059d a1be 9e5a 26bf
000003c0: 9b57 a4be e608 1abe 524a 1ebe cbb0 dc3d
000003d0: 7b52 fb3d 83a2 96ba f1c9 1f3e 3189 8a3d
000003e0: 34ea f13d 1d5b 453e c4e2 7fbe 7926 86bd
000003f0: 9776 123e a8f8 6cbc 878a 363e e7c5 da3d
0.04597218 0.04993862 -0.0059600747 -0.06240885 -0.15664527 0.09776714 -0.014909522 0.07875277
0.006764928 -0.37125835 -0.09099119 0.011001974 0.28658813 -0.018179253 -0.1169035 0.124483265
0.16815649 0.15943742 0.16300829 0.1985034 0.33172855 0.013815714 0.3715712 0.32865983
0.10522422 -0.59356 -0.2677735 -0.039514262 0.025863651 0.3268672 -0.24846135 -0.22462155
-0.24192615 0.016783884 0.19773874 -0.010234326 -0.072652355 0.006169318 0.06986448 -0.047139514
-0.17545247 -0.099385686 -0.13038884 -0.1075019 -0.3039352 -0.23249626 -0.17076285 0.043068916
0.16699095 0.27431145 0.031198962 0.026582956 -0.16211832 -0.45007166 -0.31551325 -0.10297991
-0.14710085 -0.064320974 -0.13728404 -0.18797019 0.06660128 -0.009074791 0.18277946 -0.1668413
-0.31189054 0.07546078 -0.10136486 -0.119340554 0.030421404 0.10414824 -0.08853531 -0.03339866
-0.12099995 -0.18541187 -0.0023048637 -0.05061845 -0.21694686 0.021883164 -0.13306823 -0.1726564
0.19519027 0.35237166 0.11752157 0.20818853 0.1525754 0.19124357 0.3681108 0.030333081
0.22674663 0.34886494 -0.010409948 0.38668448 0.24632639 0.29249388 0.40622464 -0.08803397
-0.08202219 -0.4038391 -0.016013255 -0.07297174 -0.37060964 -0.2868269 0.039124187 0.07916678
0.16005991 0.024640074 -0.03477223 -0.13860217 -0.043126203 -0.0690104 -0.3638942 -0.30481565
-0.17309718 -0.08740959 -0.21398152 -0.026796967 -0.03325705 0.062861554 0.18251193 0.16627485
-0.058205582 0.10675009 -0.04683371 0.09308328 -0.009724342 -0.03816849 -0.13191533 -0.016548801
-0.07418295 0.021577252 0.01458475 0.0036991928 0.14369138 0.20858209 0.1470427 0.07980263
0.23398624 0.14803016 0.09357621 0.14484805 -0.023204092 -0.060448036 0.035340447 -0.01239538
0.16552347 -0.15093426 -0.040677145 0.12921888 0.18450633 0.24607094 0.18736516 -0.0724089
0.049556777 -0.06582114 -0.17851394 0.0008491961 -0.0020821732 -0.15808131 -0.122550525 0.22548439
0.017642694 0.20732084 0.0483896 0.039640278 -0.10899567 0.16769445 0.10853132 0.11329572
0.008363264 0.0052260477 0.062276386 -0.041184448 0.057485845 0.088999934 0.017015195 -0.13470699
-0.07206886 -0.36309582 -0.34847072 -0.16543105 0.18290472 0.17855158 -0.0016149294 0.033194188
-0.0016216838 0.010355768 0.2689656 0.15471038 0.061582547 0.023766521 -0.08941626 -0.038992614
-0.10074784 0.03789644 0.23993799 0.12346852 0.041168824 0.17992179 0.3110243 0.051920533
-0.24349909 -0.2564141 -0.17142023 -0.33128536 -0.31775784 -0.105296984 -0.1347005 -0.006020676
0.2685707 -0.02366188 0.100549884 -0.035410702 -0.05347557 0.13434781 0.12084355 -0.19497676
0.054303236 0.3346435 0.2162621 -0.042251486 -0.102872506 -0.25917912 -0.049766567 0.068401225
-0.18514001 -0.0373854 0.08435744 0.14838599 0.18944189 -0.17562422 -0.20952065 -0.045235954
0.040776636 0.0065399185 -0.08597188 0.026987448 -0.3159529 -0.07072078 -0.3156511 -0.6498202
-0.32098088 -0.15042457 -0.15458038 0.10775908 0.12271591 -0.0011492524 0.15604378 0.067644484
0.11812249 0.19273038 -0.24988848 -0.06550307 0.14303051 -0.014463581 0.17826281 0.10682278

tcn.tcn.0.conv1.bias f4 [16]
00000000: 94f5 a6be a3e7 21be 6d37 c83d 3cd0 c33c
00000010: 1810 67be d896 9ebd 8c2b 86bd a396 3ebe
00000020: e56f 80be 4803 d23d 184f 31be 49f2 a7bd
00000030: 79f7 bf3e 8b10 adbd c0c0 26be 3a2e 3fbd
-0.32609236 -0.15811019 0.09776197 0.023903005 -0.22564733 -0.07743615 -0.06551275 -0.18612151
-0.2508537 0.10254532 -0.17315328 -0.08200509 0.37493494 -0.08450421 -0.16284466 -0.046674944

tcn.tcn.0.conv2.weight f4 [16, 16, 1]
00000000: 39fa 2d3d 8351 34bd 797d 313e d03b b6bc
00000010: 6be5 003e e488 12be d775 0f3e 158c 9b3e
00000020: 46b5 4a3c 89c5 fcbd d071 2ebe 14ff 06be
00000030: 1743 a63e 4bc1 2e3b 2f9a 07be e707 9f3e
00000040: b176 2a3d 5fdd 853e cd79 bdbd ef68 a93e
00000050: ce8c 4c3d 251b 19bc 9e64 2d3d f34c 3bbe
00000060: e41d ceba 8e63 cf3b ad06 2abe bbbc febd
00000070: 56c7 603c 0700 8b3d 15d9 a6bd 045a 6f3e
00000080: 3a22 bfbb cc1a 333e 1893 20be 16ba 303e
00000090: d29a 2f3c 55a6 85bc 8657 703e eb62 3cbb
000000a0: 5ffc 913d 856d ae3e 2b2a fb3d 7479 1b3e
000000b0: 785b edbd 2aaf 613e c3d0 b0bc a9d8 0a3c
000000c0: 2950 173e a003 2d3e bce8 d0bc 723f 0bbd
000000d0: 7c7f 49bd 224c 293e 8882 ae3e 7198 5e3e
000000e0: 6c7a 47be d43f 73be a8eb 0fbe e180 7ebe
000000f0: 3c7c 673e b6cd f53d e5ac c53d 83c2 2c3e
00000100: 4607 073e 6188 873e fa29 67be 3b87 d0bc
00000110: 8e24 7e3d d570 5f3d 5b67 99bd bf20 babe
00000120: dc6e aebd b105 babe 219e d9bc 1c05 dcbd
00000130: 82a8 b7bd 7d8e 103e 8600 0fbd 11c5 db3d
00000140: 219f 9d3c 6ee9 d93d 729e b53d 26d3 4c3c
00000150: 33f6 83be 1cbf ebbc ad68 a3bd 106e 8bbe
00000160: d92d 173e 279a dbbe cc02 efbd a089 ebbe
00000170: 0cfd 5abd f095 dbbb 281b 713e 7a78 11bc
00000180: 88ca 08be 73b9 15be 25e1 7abc a1c9 48be
00000190: 7a62 3e3d 1335 da3d 8a09 8ebe 1d8f 763b
000001a0: 11bd 13bf a2f9 793e 9f05 f5bd a806 7abe
000001b0: 77a3 df3d 0c43 b1be 198d 3cbe b184 bfbd
000001c0: 35be 28be 88ac 983c f7b6 bbbc da59 4e3e
000001d0: 15bf b1bd 7ea9 dc3d fc53 a23c 2ff1 5d3b
000001e0: 8a46 8f3e eb8e 9b3d c85e bf3c dbc1 d7bc
000001f0: 2183 c43e 456c 763e 27bd b0be cb04 62be
00000200: c93b 11be b051 be3d 84ae 7e3e b84a a53d
00000210: 7ae2 893d 666d 063e 3aef 11bd 2246 e83c
00000220: 6515 c6be 5f19 673e 905c cc3d fae6 07be
00000230: f295 0ebe 7813 523d ab9d 93be baed 943e
00000240: 15ca 30bd 0845 0a3e c924 88bd 1e69 963d
00000250: 190f fe3d 4784 a83e 26f3 823d d1bc 66bd
00000260: 93db 323d 59f5 1cbe 65aa cabd 5b1e fb3c
00000270: 3b19 aabe 2eb5 823c ed68 62be ef24 103e
00000280: 29fe 6bbe 932a e8bd 1eb1 5e3e 9790 d0bd
00000290: cd5c c7bd d101 10be bb20 ae3e 028f 833e
000002a0: 3b47 973d fc45 0a3f dbbe 18be 7155 ef3e
000002b0: 5b25 0b3e 993e a7bd 42be cc3d ff45 35be
000002c0: 7f39 ed3d 08f4 dbbd 1adf 60be 063a 3a3e
000002d0: cd73 35be 60cf ff3c 50ee a5bd ad31 a43e
000002e0: 97b3 413e a16a 083f c725 6cbb add9 243e
000002f0: 8264 123e 4e53 b13d a2ca a53e 3e95 273e
00000300: d569 ecbd 2ae0 88be 79be ce3d 659a 413c
00000310: c1b7 e1bd 271b e03c b822 21be 4259 6a3e
00000320: 564b bfbd 6505 7c3e 4638 53bd 6aed 8a3e
00000330: ad57 6d3e 6831 e6bd f5b0 c63c e679 67be
00000340: f4a0 bf3d 4ba8 273e 490c 813e 3f2e 34bb
00000350: 5fdd f3bc 5b79 85be 990e 01bd 4c2f 843e
00000360: 0264 3d3d 17d6 b53e 657b 31be 0808 5bbd
00000370: 909d ee3d b494 383e 506f 2abe e0c2 893e
00000380: dc71 4ebc 348d 4dbd 4995 803d 65a3 7bbe
00000390: 55a0 98bd a8e9 b93d 56ae d0bd c76a 9d3e
000003a0: 6fb3 053d dc61 0a3f f541 40be e40f 203e
000003b0: f611 1ebe 2d7f c2bd bb39 2bbe 2f51 cfbd
000003c0: bec6 49bd 52bf 95be 90e0 263d 202e 08be
000003d0: 8120 c33d ce30 70bd 0b77 85bd ad92 d7bd
000003e0: 12dd 453e 6df3 213f 9486 3dbe 623e 64bd
000003f0: 278e 1f3e 9ca5 5d3e ccbe ecbd 41c1 5e3e
0.04247496 -0.044023048 0.1733302 -0.022245318 0.12587516 -0.14310032 0.14009796 0.30380312
0.0123723205 -0.12342364 -0.17035604 -0.13183242 0.3247306 0.0026665505 -0.1324241 0.31060717
0.0416171 0.26145455 -0.09251747 0.3308787 0.04993897 -0.009344851 0.042332284 -0.18291073
-0.0015725461 0.0063290065 -0.16604109 -0.12438341 0.0137194 0.067871146 -0.08146874 0.23374182
-0.0058329375 0.17490691 -0.15681112 0.17258486 0.010718064 -0.016314665 0.23470888 -0.0028745483
0.07128214 0.34067932 0.12263902 0.1518305 -0.11589712 0.22039476 -0.02158392 0.008474507
0.14776672 0.16895914 -0.025501601 -0.033996053 -0.049193844 0.16532949 0.34083962 0.2173784
-0.19480294 -0.23754817 -0.1405474 -0.24853851 0.22605985 0.12002127 0.09652118 0.16871075
0.13186368 0.26471236 -0.22574607 -0.025455108 0.06204658 0.054550964 -0.074904166 -0.36353108
-0.085172385 -0.36332467 -0.02656466 -0.10743162 -0.08967687 0.14116855 -0.03491261 0.10730947
0.019240918 0.10640226 0.08868112 0.012501514 -0.25773773 -0.028777651 -0.0797895 -0.2723241
0.14763583 -0.42891046 -0.11670455 -0.46003437 -0.05346398 -0.0067012236 0.23545516 -0.0088788215
-0.1335851 -0.14621525 -0.015312468 -0.19608165 0.046480633 0.10654654 -0.27741653 0.0037621923
-0.5771037 0.24411634 -0.11963963 -0.24416602 0.1091985 -0.34621465 -0.184132 -0.09351481
-0.16478808 0.018636957 -0.022914393 0.20151463 -0.08679024 0.107745156 0.019815437 0.003386568
0.27983505 0.07595619 0.023360625 -0.026337555 0.38381293 0.24064739 -0.34519312 -0.22072141
-0.14182962 0.092929244 0.2487126 0.08070892 0.0673265 0.1312767 -0.035628535 0.028353754
-0.38688198 0.22568272 0.099785924 -0.13271704 -0.13924387 0.051288098 -0.2883123 0.2908762
-0.04316147 0.13502896 -0.06647641 0.07344268 0.124052234 0.3291342 0.06394033 -0.056332413
0.043666434 -0.15327968 -0.098957814 0.030654123 -0.33222374 0.015955534 -0.22110339 0.14076589
-0.23046173 -0.113362454 0.21747252 -0.10183828 -0.09734497 -0.14063193 0.34009346 0.25695044
0.07386633 0.5401304 -0.14916556 0.46744874 0.13588469 -0.081662364 0.09997226 -0.17702483
0.11583232 -0.10739905 -0.21960106 0.18186197 -0.17719956 0.031226814 -0.08102095 0.3206915
0.18916164 0.532877 -0.003603326 0.16098662 0.14296153 0.08658467 0.3238116 0.16365525
-0.11543623 -0.26733524 0.100949235 0.011816596 -0.110213764 0.027356697 -0.157359 0.22885612
-0.09340541 0.24611433 -0.05156734 0.27134258 0.23177977 -0.11239892 0.024254302 -0.22605094
0.09356871 0.16372792 0.25204685 -0.0027493385 -0.029768644 -0.2606915 -0.031508062 0.25817335
0.046237953 0.355149 -0.17332228 -0.053474456 0.116511464 0.18025476 -0.16644025 0.2690649
-0.012600388 -0.05018349 0.06278474 -0.24574049 -0.07452456 0.090777695 -0.10189502 0.30745527
0.032641824 0.5405557 -0.1877516 0.15631062 -0.15436539 -0.09496913 -0.16721241 -0.101229064
-0.0492618 -0.29247528 0.040741503 -0.13298845 0.09527684 -0.058640294 -0.06516846 -0.10526023
0.19322613 0.63262063 -0.18508369 -0.055723555 0.1558157 0.21645206 -0.11559829 0.21753408

tcn.tcn.0.conv2.bias f4 [16]
00000000: 861d 8a3e b96d f23b efd0 b93d 593b 3c3c
00000010: 9919 8d3d b751 bcbc 22ef 0bbe 196b 0fbd
00000020: 4ed9 5cbe 7ced 26be 20f4 183e 70bc 3e3e
00000030: 0989 423e b991 883c b1bb e13d b060 8d3d
0.2697565 0.007398334 0.09073054 0.011488759 0.06889648 -0.022988183 -0.1366544 -0.035014246
-0.2156727 -0.1630153 0.14936876 0.1862657 0.18997587 0.016671048 0.110221274 0.06903207

tcn.tcn.0.res_conv.weight f4 [16, 16, 1]
00000000: 42b4 493b 063e 823d 6547 2c3e 6f65 bebd
00000010: 7c98 d33d 05d2 173f de2f 27be 1746 85bc
00000020: a1dd 9cbe d167 153e 1756 b5be 3ab1 8b3e
00000030: 2137 e0bd 0229 c63c 7f91 553e 48d3 573e
00000040: 6da2 053e fe1f 553e a273 34be f962 1c3e
00000050: 7ee8 243d b022 66be e31c 243e 6c99 ffbe
00000060: 97dc eebd d3a6 573c b1b4 aa3c 90cf 17bc
00000070: 37ca 813e b1dc 88bd 41ce 4fbe 3662 59be
00000080: 8101 fb3d ef07 85be 9221 e0bc fb3d c03e
00000090: 3c36 50bc e0c3 c5be 9d54 de3e ca2e 1fbd
000000a0: c13a 0d3e 31e0 e13e 1f90 d13d 0eb1 8abe
000000b0: 7f02 9ebe ec43 b23d 979c 873e f0af 463d
000000c0: f788 333e 6f87 7ebe 37e4 dc3d 0242 42be
000000d0: d026 a3bb 5c11 6c3c aa34 05be 2cee ec3e
000000e0: 6ae1 39be 4e6c e43d 9475 983e 6ade 88be
000000f0: bcf0 823d 6609 ad3d 3fc6 533e 07d0 8cbd
00000100: c26f 5ebe 563a af3e 4462 5d3d 07cd 0dbe
00000110: 076d 263e a509 eb3d 1825 82be 4af6 84be
00000120: ca50 843d 79fe 653c a63c a23e 50ca 95bd
00000130: 93b0 8d3e 0454 533e 58af a23c b522 103c
00000140: 85bc df3d 935a 423e 9baa 38be 54e5 1fbe
00000150: bc33 a2bd bafa 853e 4b59 d2be 81c4 033e
00000160: 36a1 efbc 64a8 46bd 5475 c5bc f34c 443d
00000170: 2838 653c 54f9 16be ab0b 96bd 0d7e 903c
00000180: 1371 bbbe 936c 9b3e 69eb 243e 43d8 70be
00000190: 7c72 553e ad64 663e 0c4e 99be 43ab 693d
000001a0: 361a 49be d657 9a3d 3392 bcbe 5235 9f3d
000001b0: 8b7f 3dbc 6b89 79be 105d 9abd b873 173e
000001c0: d2a5 3cbe 7b27 873d 9a22 003d 91f3 14be
000001d0: f1d0 2ebd 135b a53e 33d2 ce3e e809 ffbd
000001e0: c657 2fbe 5c1e 5abe a58e 5abe 6812 8bbc
000001f0: ea38 e5bc 4735 86be 3852 15be c48a 69be
00000200: bcfa 3abe 9400 943e 86d6 1e3f 795b 96be
00000210: 0b13 80be 2c68 77bd 2359 c7bd 085b 62be
00000220: e8b7 bcbe eed9 393f 2e12 ce3e babc 2c3e
00000230: 15e3 83be ea21 47be a112 37be f2ef 003e
00000240: baa7 8c3e e3b1 473d 7a89 af3e 5762 22bd
00000250: a88d 27bd 6829 dbbe 6681 b33e b947 1d3d
00000260: 44bc ccbd 6c7c 963e eef4 053e 1672 503e
00000270: 66a0 4fbe 34b0 9d3e 16bb 513d 4ea1 a2be
00000280: 91b0 dabc e54a 70be 6a0d a8be 26c0 bcbe
00000290: 2a6a 2dbe 3951 1abe 0000 203e b675 703e
000002a0: e68f 70be 9463 843e 2cdf 7abd 9d15 edbe
000002b0: 7ced 48bd fd98 a2be b517 773e acd4 58be
000002c0: 102a 01bf fdff b4be 7f3d d2bd 2b63 323d
000002d0: 5fb3 a3bd 43db ddbd 8b8a 9dbe f0be 87be
000002e0: 5f2e d13d 6778 76be 03bd 07bf 3574 ef3c
000002f0: 1153 873d 92e0 04be eb12 f53d 94b5 03bd
00000300: 3189 b23d 6c3e a33e 0da9 e7bc cab5 963d
00000310: a988 0abe a9d8 44be 9548 c5be 7a0d 0ebe
00000320: b827 623e f6ad 513d 2f9d 72be 4fe7 813d
00000330: ceef cf3d b7a4 a1bd 81d0 82bd ab36 923e
00000340: fe1a c73e b5de ad3e 9cf0 3d3e 8a7e 793e
00000350: c391 21be 2d43 adbc f88c 653e 6a21 5bbc
00000360: d357 7b3d 8334 2b3d d16e d33d 6fe5 8ebe
00000370: e689 1e3e 12c1 dabd 3267 0a3d 3d32 77be
00000380: 2264 56bd 57cf 79be 27ed 753e 190e 553e
00000390: b0c4 2abe 0509 cfbe 9029 5e3e 1d35 a9bd
000003a0: afec d9bd 1f34 213e a93b 9dbd 1896 233d
000003b0: 2bb6 0a3e 4794 3c3e 27a2 d9bc cc9c f0bc
000003c0: 67b8 79be 3cf7 03be be9f 6bbe 49df a7be
000003d0: 0938 dd3d 24c3 de3e 2772 46be 7914 943e
000003e0: 3663 07be a684 e9bd 288b 63be 1d19 57bb
000003f0: 43d0 a33d 22c0 013c 241c 52be a3ce d23d
0.0030777608 0.06359486 0.1682411 -0.09296691 0.103318185 0.5930484 -0.16326854 -0.016268773
-0.3063784 0.14590384 -0.35417244 0.2728365 -0.10948015 0.024189476 0.20856284 0.21076691
0.13050242 0.20812985 -0.17622235 0.1527213 0.040260784 -0.2247417 0.16026644 -0.4992174
-0.11663168 0.013162333 0.020838114 -0.009265795 0.2534959 -0.066827185 -0.20293523 -0.21228871
0.12256146 -0.25982615 -0.027359758 0.37547287 -0.012708243 -0.38626003 0.4342393 -0.03886298
0.13791944 0.44116357 0.10232567 -0.27088207 -0.3086128 0.08704361 0.26486656 0.04850763
0.17532717 -0.24856351 0.10785716 -0.18970492 -0.004978992 0.014408436 -0.13008371 0.4627546
-0.18152395 0.1115347 0.29777205 -0.26732188 0.06393573 0.08449058 0.20681094 -0.068756156
-0.2172232 0.34224194 0.05404879 -0.13847743 0.16252528 0.11476449 -0.25418925 -0.25969154
0.06460722 0.014037722 0.31686896 -0.07313979 0.27673778 0.20637518 0.019859001 0.008797337
0.10924629 0.18979864 -0.18033831 -0.15614825 -0.07920024 0.26167852 -0.4108375 0.12867929
-0.029251676 -0.048500434 -0.024103798 0.047924947 0.0139904395 -0.14743549 -0.07326444 0.01763823
-0.36609706 0.30356273 0.16105427 -0.23519997 0.20844454 0.22499342 -0.29942358 0.057048094
-0.19638905 0.075362846 -0.3683029 0.07773842 -0.011566053 -0.24368827 -0.075372815 0.14790237
-0.1842263 0.06599327 0.031283 -0.14546038 -0.04267973 0.32296047 0.40394744 -0.12453061
-0.17123327 -0.21300644 -0.21343477 -0.01697655 -0.02798124 -0.26212522 -0.14582145 -0.22806841
-0.1825971 0.2890669 0.62046087 -0.29366663 -0.2501453 -0.06040208 -0.09733798 -0.22105038
-0.3685906 0.7259816 0.40248245 0.16868868 -0.25759187 -0.19446531 -0.178782 0.12591532
0.27471715 0.04875363 0.34284574 -0.039644565 -0.04090658 -0.42805028 0.3505966 0.03839848
-0.09996846 0.293918 0.13081715 0.2035602 -0.20276031 0.30798495 0.05120381 -0.3176369
-0.026695522 -0.2346607 -0.32822734 -0.36865348 -0.1693503 -0.15070046 0.15625 0.23482403
-0.23492393 0.25857222 -0.06124799 -0.46305552 -0.049054608 -0.31757346 0.24130137 -0.21174878
-0.5045481 -0.35351554 -0.10265636 0.043551605 -0.07993197 -0.108328365 -0.30769762 -0.2651286
0.10213923 -0.24069367 -0.53022784 0.029230217 0.066076405 -0.12976292 0.11966499 -0.03215559
0.087175734 0.31883562 -0.028278852 0.07358892 -0.13528694 -0.19223274 -0.38531938 -0.13872328
0.22085464 0.051191293 -0.23692773 0.06342947 0.10153161 -0.07892745 -0.06387425 0.28557333
0.3888778 0.33958974 0.18548816 0.24364677 -0.1577826 -0.021150196 0.22417057 -0.013374666
0.061363053 0.041798126 0.10323871 -0.2790942 0.15482292 -0.106813565 0.03378982 -0.24140258
-0.052341588 -0.243955 0.24016248 0.20806159 -0.16676593 -0.4043657 0.21695542 -0.08262084
-0.10640847 0.15742539 -0.07677395 0.039938062 0.13546054 0.18415938 -0.026566578 -0.029371642
-0.2438675 -0.12887281 -0.23010156 -0.3278754 0.108017035 0.43508255 -0.19379483 0.2892187
-0.1322144 -0.11402254 -0.22221053 -0.0032821365 0.07998707 0.007919343 -0.20518547 0.10293319

tcn.tcn.0.res_conv.bias f4 [16]
00000000: 834a ee3e be5e 06be cce5 4bbe 2dfe f23d
00000010: 2154 3cbe 4a09 5bbe 874d 79be 17fe 1cbe
00000020: 104f 5ebd 7334 003e f313 053d 735c 853e
00000030: f30c b6bc 3b97 76be f568 adbd 9cc4 ae3d
0.46541223 -0.13122079 -0.1991188 0.118648864 -0.18391468 -0.21390262 -0.2434598 -0.15331303
-0.05427462 0.12520008 0.03248973 0.26047096 -0.022222972 -0.24081127 -0.084672846 0.08533594

tcn.tcn.1.conv1.weight f4 [16, 16, 5]
00000000: 97d7 523d 73ad ffbd 3811 86be d53d 05bf
00000010: 83fb e8be 60ec bb3e e81b b1be 55c7 b3bd
00000020: 37ea 0dbd 9987 803e afce c9bb 3f4a 373e
00000030: 58ae 75be 9c8f abbe be83 74be 5726 a83b
00000040: 5d8d 3dbe 9cf5 08be 6b1d d2bd 8a31 8dbe
00000050: 874e 033c 2b4d 5abd f254 523e 5141 e03d
00000060: d489 883e 9eb4 df3d 3430 043d 857f 963e
00000070: e1c1 383d f118 8f3e c9d7 803e f72a 513d
00000080: f801 803e 2973 c03e c2d3 113f 6dcd aabd
00000090: a23d 3dbe 29cb dcbe f36d 72be 1051 f5bc
000000a0: a37b e5bd c3eb 7b3e 3bbb 943e b8b7 f33d
000000b0: 4cff 513e 58dc ecbd e33a 45bd 78f6 6dbd
000000c0: d433 f2bd 0194 943c cf6a 9a3d 2a5e 223e
000000d0: 5464 ebbd 2be8 77be 027e 73be 7073 3f3e
000000e0: f466 66bd eb86 83be 4ba8 283d 8504 15be
000000f0: dc80 80ba fc33 0f3e 66de 6a3d 91ec 7e3e
00000100: 3063 233e 7399 bd3e f829 97bd 11fe 71be
00000110: 0f27 e6bd 2d73 673d bc8e 273e d293 d33b
00000120: d9ea d63d 992d 19be 8169 78bd 75e7 f53e
00000130: 78f7 653d 28e5 8f3d 1290 583e 29d4 ed3d
00000140: 5fe2 f6be 3006 d0be 1c33 12be becb 6dbe
00000150: 2461 93be 7ba6 df3c 066b 373e dbd5 a1bd
00000160: 79e1 cc3d 7a31 02bf d15e 8ebe 4891 0abe
00000170: 49a5 a8be e197 68be d6bd 7fbe dd47 b03d
00000180: fa0d c9be 043d a9be 780c 8abe 0a37 24be
00000190: 2386 a13e fd59 db3c 26d9 8bbd c5d9 b13d
000001a0: 4bd3 413e deda d13d 7093 50be 9747 bfbe
000001b0: 75d6 82bd 723d e03e d142 ad3d e287 273e
000001c0: 2853 8a3e f0a9 d13e fb6c d93e 5e9f c2be
000001d0: 5e44 97bb 5c1f 80be c98d c7bd 1cdc 14bd
000001e0: 2987 f8bd cb30 883d 2cd6 99be 8e7f dfbd
000001f0: 1e92 a03e 7bc4 923d b370 873d 8887 05be
00000200: 056b 2c3e f2d9 1e3e 3469 4cbe f484 59be
00000210: efcd f13d 79f0 463c 469d a8ba 3412 b73d
00000220: 0cff 3e3e c663 ad3e 70c9 7f3d 7a05 bdbe
00000230: 6a01 9fbd 670a 48bc fb0f 983e beb1 99bd
00000240: 1542 dd3c d944 27be cc3f dbbd 1b77 4abe
00000250: ad3c 113e 0dd0 353c 9ca9 a53a 0535 f23d
00000260: 307c 6a3e 3ffe 2d3e 8cbb 1a3e e94f 3c3d
00000270: 58b9 423e 1514 b33d 5a78 143e 1817 333e
00000280: f9a2 953d adab 513c 9d73 2abe 4a2f fcbe
00000290: 3f6c 02bf 2e16 0fbe 8c1c 27be da98 023e
000002a0: 2e84 d03d 8438 803e 2c00 23be a70f a6be
000002b0: 05dd bc3d fde3 c5bc c4c4 873d 3e92 6fbe
000002c0: 1918 98be 7015 8fbe 667b 3fbd 3986 f73d
000002d0: c1a9 f43c 4fc4 ee3c 9249 06be 457b 403f
000002e0: 96d9 233e 57ca 10be f550 e53c 448d 74bd
000002f0: 8077 29bd b8c4 113e 58bd 1e3f 472b 433e
00000300: 678c b33d 67a2 28be 342f dabd 6b82 59be
00000310: 8044 193c 1fdb e43d 5e65 493d cc3f 53bd
00000320: 0d70 3d3e 31af 54be b997 7ebe 8684 d9bd
00000330: cbbf 863e 4d0c 06bd 0b6c f13c c5bc 3cbe
00000340: f936 0bbd a82c cb3e 0791 843e ea6a e33c
00000350: 5824 20bd 90f8 4dbe 78a4 43be c97e 453e
00000360: 78d6 1b3e eb93 91bd 0a29 87bd a816 5b3c
00000370: 789c 8a3e c4bb 4a3d 1ab0 203e 2ef1 fcbc
00000380: 6cb0 d1bd bff8 1bbc 3314 6dbe 622e 973d
00000390: 7e54 e2bd b106 93bd d618 823e e065 e23c
000003a0: f0ca 133e 5129 53be cdfb f2bd 1f54 a23e
000003b0: 62be 953b 09c2 083e 85eb d13d afdc a8be
000003c0: 1494 a3bd 1abc 28bc 6d4d 893e 08d8 4d3e
000003d0: 510a 46be 7764 753e 629f b7bd 53ee e63c
000003e0: 7f6f f83d 4a1a 513e 2f84 5dbe ae81 913e
000003f0: 02b6 29be 71e0 06bf 258e 4abe 6fc4 5ebd
0.051475134 -0.12484255 -0.26185012 -0.52047473 -0.45504388 0.36703777 -0.34591603 -0.08778254
-0.034647193 0.25103453 -0.006158672 0.17899416 -0.23992288 -0.33508003 -0.2387838 0.0051315236
-0.18510957 -0.13374943 -0.10259517 -0.27576858 0.008014328 -0.05329625 0.20540217 0.10949958
0.26667655 0.10923122 0.032272533 0.29394165 0.045106772 0.27948716 0.2516463 0.051066365
0.25001502 0.3758786 0.5696374 -0.08339963 -0.18480542 -0.4312375 -0.23674755 -0.02994588
-0.112052225 0.24601655 0.29049096 0.11900276 0.20507544 -0.11565465 -0.048151862 -0.05809638
-0.11826292 0.01813698 0.07539903 0.15856233 -0.114937454 -0.24209659 -0.23778537 0.1869638
-0.056250528 -0.25688872 0.04117612 -0.14552505 -0.0009804028 0.13984674 0.057341002 0.2489493
0.15955806 0.37031135 -0.07381052 -0.23632075 -0.112379186 0.056506325 0.16363043 0.0064568305
0.104940124 -0.149588 -0.06064749 0.4802815 0.056144208 0.0702613 0.21148708 0.11612732
-0.48219582 -0.4062972 -0.14277309 -0.23222253 -0.2878505 0.027301064 0.1791192 -0.07902118
0.10003943 -0.50856745 -0.27806714 -0.13531983 -0.32938603 -0.22714187 -0.2497476 0.08607457
-0.39268476 -0.33054364 -0.26962638 -0.1603662 0.3154765 0.026776308 -0.06828527 0.08684114
0.18928258 0.10246824 -0.20368743 -0.37359306 -0.06388561 0.4379688 0.0846001 0.16360429
0.27016568 0.40949965 0.42465958 -0.38012213 -0.0046163043 -0.25023925 -0.0974384 -0.036342725
-0.12135155 0.066499315 -0.30046213 -0.10913001 0.3136148 0.07166382 0.066132925 -0.13039982
0.168377 0.15512827 -0.19962007 -0.21242124 0.11806857 0.012142294 -0.0012864254 0.08939019
0.1865198 0.33865184 0.062447965 -0.3691824 -0.077639416 -0.012209511 0.29699692 -0.07504605
0.02700905 -0.16334857 -0.10705528 -0.19771998 0.14183302 0.011096966 0.0012639049 0.11826519
0.22898936 0.16991518 0.15110606 0.045974646 0.19016016 0.08744065 0.14499035 0.17489278
0.07306475 0.012797278 -0.16645665 -0.4925483 -0.5094642 -0.13973305 -0.16319484 0.1275362
0.10181461 0.25043118 -0.15918034 -0.32433817 0.09221844 -0.024156565 0.06629327 -0.2339563
-0.29705885 -0.27946043 -0.04674854 0.12086148 0.029866101 0.029146342 -0.13114002 0.75188094
0.16000971 -0.14139687 0.027992705 -0.059705034 -0.04137373 0.14235198 0.62007666 0.19059478
0.08767014 -0.16468202 -0.106535345 -0.21241157 0.009354711 0.111746065 0.049168937 -0.051574513
0.18499775 -0.20769955 -0.24862565 -0.1062098 0.263182 -0.032726575 0.029470464 -0.18431385
-0.033987973 0.39682508 0.25891897 0.027760942 -0.03909716 -0.2011435 -0.19105709 0.19286646
0.15218532 -0.07108291 -0.065996245 0.013372101 0.270725 0.049495474 0.15692177 -0.030876722
-0.10238728 -0.009519755 -0.23152237 0.07381894 -0.11051272 -0.07179011 0.25409573 0.027636468
0.14432883 -0.2062123 -0.118644334 0.31704804 0.0045698145 0.13355269 0.1025 -0.32980868
-0.07987228 -0.010298753 0.26816884 0.2010194 -0.19339873 0.23964106 -0.08965947 0.028189814
0.12130641 0.20420185 -0.21632455 0.2841925 -0.16573337 -0.5268622 -0.19780786 -0.054386552

tcn.tcn.1.conv1.bias f4 [16]
00000000: cfaa aebe 53ac c4be d602 35be c530 b9bc
00000010: 6409 e9be 4c94 96be 8d27 38bd 5bcf 8e3d
00000020: 35fd 61be 0ddb 9abe 86ef 52be ed9b 473c
00000030: 35a0 cfbe 6ed0 f33d 5486 50be 8950 0f3d
-0.34114692 -0.38412723 -0.17676863 -0.022606263 -0.45514977 -0.29410017 -0.044959594 0.06973144
-0.22069247 -0.30245247 -0.20599183 0.012183172 -0.40551916 0.11904989 -0.20363742 0.034988914

tcn.tcn.1.conv2.weight f4 [16, 16, 1]
00000000: ef2d d53e af6b 2fbe 4661 30be 9960 0c3e
00000010: 52b2 43be 2087 19bd 5ecf 1e3e bcbc 943e
00000020: 1f12 7fbe 3009 0bbe f90c 87ba 4a7c ce3e
00000030: 94ee 883b 14c1 a13e 753f 973e fb5d 933c
00000040: 3916 cdbd 58c1 ab3e fa49 bdbd 7e7d aa3d
00000050: 6329 02be 52be e03d 133e 3f3e 5742 31be
00000060: 69c6 9c3d 964d 53bd 84b2 2a3d f797 613e
00000070: 9b99 21bd 06bc e5bc e723 abbe 3b88 693e
00000080: aafe 303d 383a 5e3e e2c2 5a3e bb01 2bbd
00000090: 975b 303e 1163 8fbd 5349 853e 3315 60be
000000a0: a120 59bd db85 ba3d 72ed 83be c97e 123e
000000b0: de00 33be 503d b9bd add4 30be 6784 4cbe
000000c0: a31f 62be 442c b1bd c217 e8be 43f8 0cbd
000000d0: fb77 4f3d 241b 5fbd dae5 13bd b74b 433e
000000e0: bb90 213c ccbf 043e c1b3 1a3e 70b7 a4be
000000f0: 01cf aabd 599a b2bd 0102 963d 0179 c93d
00000100: 28ab 063e 5a19 273d eac7 dfbc 35d6 94be
00000110: 0f4f 1b3e 0189 a8be 10bb 83bc b864 963c
00000120: dbda de3e f713 e13c 9452 bdbd 3658 133d
00000130: a51f b3bd ad8b 61bd 9911 ef3a c5bc 693e
00000140: ec18 96be 3d0a fdbd bb4b 1abe 6a7a b4be
00000150: 8c9a a83d 6bfb bb3e e21e a63e 418a 603d
00000160: cf19 2a3e 57d6 ab3c c181 a7bd 28d6 543e
00000170: ed45 b5bd 06bd fabd aa63 943d 6817 1c3e
00000180: b659 1ebe 6a0d 203e 187a 9cbd a93b a5ba
00000190: d953 283e f75f b53b 9c9a 01be 763d 763e
000001a0: 85d0 cebd bdf0 09bd a27d fabc f67b fc3d
000001b0: 3748 88be f1cd 74be 7ac8 8dbe ce58 983e
000001c0: b796 823e 944b 0bbe 6563 9c3d ae30 f03c
000001d0: dbe8 cdbd 9981 d73e 1101 c53d 2b9b 893d
000001e0: 0bfc c53d a50b 9bbd 7dfb febd 4a5f 89bd
000001f0: bbca 9abd f904 863e f794 7fbc c529 67bd
00000200: ed13 92be f74e 833e 1bcc a7be a921 d83d
00000210: 9c6f a2be ab57 2a3e e389 7d3e 9d83 f7bd
00000220: 303b 183d 0a6b e9bd 8784 80bd bf33 4e3e
00000230: 7c3e 87be 77e6 1abd f0fa 91bd d2a6 013c
00000240: 5b97 ecbd 9712 043c 8e63 7bbd 7e3c 05be
00000250: ac16 3ebe 3659 afbd 5833 133d 1ff2 023d
00000260: 0b05 4d3d f9c5 f6bd 3f5c 893e 8199 a9bd
00000270: 2899 873d 36b5 523e 730e b73e 8958 2d3e
00000280: 4a07 703e fe20 b2bd f101 b73d 7747 76be
00000290: f3a6 e23c 4086 503e e94e c6bd 9687 cdbc
000002a0: 1e48 de3d f824 a0bd e6be 8c3e 7736 b3bd
000002b0: 3b6c 963d a7d5 013e 689f f3bc 8cb8 ca3d
000002c0: c9f9 9d3e a99b 02bd 11b6 5cbd 183f 09bd
000002d0: c292 8ebd f926 7ebe 1f45 f8bd 9308 bf3d
000002e0: 8114 59be 6d8a 0ebe cc4f 17be 1c55 9abe
000002f0: fea5 ee3d 553d 29be e9f0 a339 9f98 80ba
00000300: ca8f 593e 80ab 21be 93e2 12be 6e2e 4f3c
00000310: 62f2 29be e8b7 85be 5e60 d73d b852 933d
00000320: f43e 023f 171d 3ebd 7cee 1bbe 4aef bdbd
00000330: 5627 933d d17f 2cbe 0711 a93e 9b55 383e
00000340: 3176 7dbd d5f0 0dbd 44a0 533d a8d8 fdbd
00000350: 4e20 efbe 163c 32be 4d54 813e 0bbe d03d
00000360: 240c c4bd 1f84 eabd 25a6 e3bd 14ab 39bd
00000370: 5c49 89be 4556 91be 3846 553e d6a1 303d
00000380: a287 f7bd fd20 a03e e429 ba3d 3b30 453e
00000390: 33a4 b83d 4dcd b8bd 71c4 3c3e afb8 b03d
000003a0: c53b d33b 9f4a 473d e83b 063e 3787 1fbe
000003b0: bbc3 46be c72c 983d 2fe3 62be 9f1a 843d
000003c0: 93ea b3be 3030 153e 6ffe b2bd f90a b4bb
000003d0: a1fa 923d 51ec a4bc 1732 223e d4dd 11bc
000003e0: 70c5 f9bd cd1a 483c 915a 353e 2978 d2bd
000003f0: 810e 80be 561e c5bd ff9f 05bf 2ace 2bbe
0.41636607 -0.17130922 -0.17224607 0.13708724 -0.19110993 -0.03748238 0.15508792 0.29050243
-0.24909256 -0.13577724 -0.0010303549 0.403292 0.0041788314 0.3159262 0.295406 0.01798915
-0.10014004 0.33545947 -0.092426255 0.08324717 -0.127111 0.10973801 0.18676023 -0.17310463
0.07655031 -0.051587664 0.041674152 0.22030626 -0.03945313 -0.028043758 -0.3342583 0.22805874
0.043211617 0.21701896 0.21363404 -0.041749697 0.17222439 -0.07001317 0.26032504 -0.21883087
-0.053009633 0.09107562 -0.25767094 0.14306177 -0.174808 -0.090448976 -0.1726863 -0.19972382
-0.22082381 -0.08651021 -0.45330626 -0.03441645 0.05065153 -0.054469243 -0.036107875 0.19071852
0.009861167 0.1296379 0.15107633 -0.32171202 -0.08340264 -0.08720846 0.07324601 0.09837533
0.13151228 0.04079566 -0.027317006 -0.29069677 0.15166877 -0.32917026 -0.01608041 0.018358573
0.43526348 0.02747534 -0.09244266 0.035972796 -0.0874627 -0.055064846 0.0018239497 0.22825916
-0.2931589 -0.123554684 -0.15067951 -0.35249645 0.082326025 0.36715254 0.32445437 0.05481935
0.16611408 0.020976229 -0.081790455 0.20784819 -0.08851228 -0.122430846 0.07245572 0.15243304
-0.1546391 0.15630117 -0.07640475 -0.0012606281 0.16438235 0.0055351215 -0.12656635 0.24046883
-0.10098366 -0.03367685 -0.030577485 0.12328331 -0.26617596 -0.23906685 -0.27692014 0.29755253
0.2550561 -0.1360305 0.076361455 0.029320087 -0.10054179 0.42091063 0.09619344 0.06719049
0.09667214 -0.075705804 -0.12450311 -0.06707628 -0.07558199 0.2617567 -0.015599481 -0.05643632
-0.28530827 0.25646183 -0.32772908 0.10553295 -0.31725776 0.16635005 0.24759631 -0.1208565
0.03716582 -0.11397369 -0.062752776 0.20136927 -0.2641486 -0.037817445 -0.07127941 0.007913308
-0.11552306 0.008061073 -0.06137424 -0.13011357 -0.18563336 -0.085619375 0.035937637 0.031969186
0.050053637 -0.12049479 0.2682819 -0.08281232 0.06621009 0.20576939 0.3575321 0.16928305
0.2344028 -0.08697699 0.08935917 -0.24050699 0.027667498 0.20363712 -0.0968302 -0.025089066
0.10853599 -0.07819551 0.27489394 -0.08750623 0.07344862 0.12679158 -0.029739097 0.09898481
0.30854633 -0.03188673 -0.05388457 -0.033507437 -0.069615856 -0.24819554 -0.12122559 0.09327807
-0.21199228 -0.13919993 -0.14776534 -0.30143058 0.11652754 -0.16527303 0.00031269275 -0.000981111
0.21246257 -0.15788078 -0.14344244 0.012645347 -0.16596368 -0.26116872 0.105164275 0.07193512
0.5087731 -0.04641446 -0.15227693 -0.092741564 0.07185237 -0.16845633 0.33020803 0.18001406
-0.061880294 -0.034653503 0.051666513 -0.123948395 -0.46704334 -0.17405733 0.2525963 0.10192498
-0.09572628 -0.11450981 -0.11115674 -0.04532917 -0.2681378 -0.2838613 0.20827568 0.04312309
-0.12086417 0.31275168 0.09090021 0.1925668 0.090156935 -0.09023533 0.18434311 0.086289756
0.006446334 0.04865515 0.1310879 -0.15578924 -0.19410603 0.074304156 -0.22156976 0.0645039
-0.35139903 0.14569163 -0.087399356 -0.005494472 0.0717671 -0.020132216 0.1583942 -0.008902986
-0.12195861 0.012213421 0.1771033 -0.10276825 -0.25011066 -0.09624927 -0.5219726 -0.16777864

tcn.tcn.1.conv2.bias f4 [16]
00000000: c332 0b3d 6233 803e e2fc 0abe a9be 96bd
00000010: dae0 4a3d c0c5 de3c f49d 94bd d7c5 083d
00000020: 6d20 b53e 48fd 6d3e 2aa4 79be 1eeb 8c3d
00000030: 8e82 c93d 494a cfbd 0f78 fdbc 5950 2c3e
0.033983957 0.25039202 -0.1357303 -0.07360584 0.04953084 0.027193904 -0.0725669 0.0333918
0.353763 0.2324115 -0.2437903 0.068807825 0.098393545 -0.10121591 -0.030941037 0.16827525
