checkpoints/fine_tune/var_rf/hainsworth/0.1/model_fallen-blaze-195_finetune_finetune_GTZ_GIA/it_4264_loss_4.1197_acc10.33_acc20.4.pt (torch, 436712 bytes, 211 tensors)

conv1.weight f4 [16, 1, 3, 3]
000000 76 aa 81 3e db ad 97 bd 4c 5a 98 be b9 17 a7 3e
       0.25325364 -0.07406207 -0.2975639 0.32635286
000010 10 9a 0b be 1c 48 b6 be ac e0 7a 3e 1d 2d 60 3e
       -0.13632989 -0.3560189 0.24499768 0.2189221
000020 f6 2a 86 be bf 76 9e 3e 8b e5 ff be 37 b1 d6 be
       -0.26204652 0.3094997 -0.49979815 -0.4193208
000030 7c ce 81 3e cd e5 93 be 9a 1f d5 3d ea 0e ea 3d
       0.25352848 -0.28886262 0.10406418 0.11428626
000040 99 f2 33 3e de a0 8a 3d 64 5e 87 be 6b 70 ca 3e
       0.17573012 0.06768964 -0.26439202 0.39538893
000050 42 6d 40 3e 34 f2 47 be 8b 8e b7 3e cd ed 6e 3d
       0.18791679 -0.19525987 0.3585094 0.058332253
000060 c9 9b f7 be da c9 30 3e b3 19 47 be c5 91 88 be
       -0.48361042 0.172645 -0.19443397 -0.26673713
000070 d2 ca d2 bd 28 8d b3 3e 7b 00 ae be 68 1f cf 3d
       -0.10292591 0.3506863 -0.33984742 0.10113412
000080 00 01 4a 3e cc 01 c3 3e 79 e6 90 3d 78 9d f7 be
       0.19726944 0.38087308 0.07075209 -0.48362327
000090 57 d3 6c be 40 e6 65 be dc 75 3a be dc 86 53 be
       -0.23127495 -0.22451115 -0.18209022 -0.20656914
0000a0 9b 57 3c 3e d6 39 91 3e 98 f9 4d 3a 08 6f 65 bb
       0.18392794 0.28364438 0.0007857322 -0.0035008807
0000b0 43 e1 30 be af 13 97 bd e9 52 b7 3d bb 3c 9d bd
       -0.1727343 -0.07376801 0.08951361 -0.07677599
0000c0 e6 42 54 bf 6e b6 9a 3e 7f 8a ed 3e c3 2a 7d be
       -0.8291458 0.30217308 0.46394727 -0.24723344
0000d0 e4 13 9b 3e ae da 3d bd 2d c3 9f 3e 3e 1f 2b 3c
       0.30288613 -0.046351127 0.31203595 0.01044446
0000e0 d7 c4 c4 bd 4f fb ca bd b5 4c 44 3e 3c 46 c3 be
       -0.09607857 -0.099112146 0.19169886 -0.38139522
0000f0 81 2a ee bd 17 04 f9 3d e7 5a 7c be b4 4c 6c bc
       -0.11629201 0.12158983 -0.24644051 -0.014422584
000100 53 dc 43 3b db 12 7d 3e 7b b9 e9 be 7a 69 2f be
       0.0029885962 0.24714224 -0.45649323 -0.1713008
000110 8b 7c f8 bd b5 62 dc 3d df a4 86 bd 7f f4 0a 3f
       -0.1213313 0.10761014 -0.065744154 0.5427932
000120 14 d6 b7 be 4a 95 d8 3d 76 b1 a3 be 20 fd cb be
       -0.35905516 0.1057535 -0.3197133 -0.39841557
000130 4b ad c3 3e 95 1e af 3e cd 9b 36 be 7d de c9 3e
       0.3821815 0.3420302 -0.17832871 0.39427558
000140 5c 7b c9 3d 27 e0 28 bf 07 db b8 3d f4 70 05 3f
       0.09837982 -0.6596703 0.09026151 0.5212548
000150 20 5d 68 3c 44 d8 64 be eb 60 4d 3e 81 9d b3 be
       0.014182359 -0.22348124 0.20056503 -0.35081103
000160 30 df dd bb eb d2 9d 3e 00 b5 fa be 3b 17 53 3d
       -0.006770991 0.3082498 -0.48966217 0.051535826
000170 62 9c a8 3e b2 df 59 be 75 58 44 be 42 83 aa 3e
       0.3293181 -0.21276739 -0.19174369 0.33303267
000180 af 2e 04 3e 87 99 ac bd 04 8e 85 3c 66 b6 f3 3d
       0.12908433 -0.084277205 0.01630307 0.11900024
000190 79 45 c4 3e 6b c5 26 be d4 a9 4d 3e 08 4c b5 3e
       0.38334253 -0.16286246 0.20084316 0.3540957
0001a0 33 08 46 be 0f 9a a2 3e 65 ff 6a 3d bb 47 d5 bd
       -0.19339065 0.31758162 0.05737247 -0.10414072
0001b0 92 ce 0b 3e dd 7e 08 3e 88 67 90 3c 52 1e fb bd
       0.13653019 0.13329645 0.017627493 -0.122616425
0001c0 5f d9 48 be 22 0c dc be b3 d0 89 3e 22 9b a2 3e
       -0.1961417 -0.42978007 0.26917037 0.31758982
0001d0 55 35 3f be 27 37 76 3e 46 4a d8 bd 9c b3 90 be
       -0.18672688 0.24044476 -0.105610415 -0.2826203
0001e0 ad 0a b4 3e 1f a4 9e 3e 83 69 02 3e 9e 85 b2 be
       0.35164395 0.3098459 0.12735562 -0.34867567
0001f0 41 c6 0f 3e 62 7c ff be 6c 0b b9 3e 9d 28 4c 3e
       0.14040472 -0.49899584 0.36141527 0.19937368
000200 c1 2c e9 bd 8d 10 b9 3e 06 1b 96 be c2 6d 6b 3b
       -0.11385489 0.3614544 -0.29317492 0.0035923575
000210 f6 71 40 3e 8e 2a c3 be be 7c fd be f3 a1 38 be
       0.18793473 -0.38118404 -0.49509233 -0.18030529
000220 b1 dc 57 bd d9 40 98 3e c5 f8 1c be 47 1f 29 3d
       -0.052700702 0.29736975 -0.15329273 0.041289594
000230 be d8 bb 3e b3 0d fe be cb 21 61 be 1c 57 12 3f
       0.366888 -0.49619827 -0.21985547 0.5716417

conv1.bias f4 [16]
000000 c0 9e 8b bc 75 bf 8d 3d bd 48 89 bd 2c e0 c3 bc
       -0.017043471 0.06921283 -0.06703327 -0.023910604
000010 0d 5e 4b be 2f 3a d9 bd 25 73 fd 3d 22 23 79 bb
       -0.19860096 -0.10606801 0.12375478 -0.0038015326
000020 96 c7 14 bd 4a b1 6a 3d 26 e7 b5 bc 1b f7 7c be
       -0.036323152 0.057297982 -0.022204947 -0.24703638
000030 a9 f1 7b 3d 81 0a 7d bd d5 8e 60 bd 65 a4 dd bd
       0.061509762 -0.061777595 -0.054823715 -0.108223714

conv2.weight f4 [16, 16, 3, 3]
000000 57 e5 40 be 52 4c 8e bd ba 83 84 bd 0e c8 08 be
       -0.18837486 -0.06948151 -0.06470437 -0.13357565
000010 7c 0d 5b be 0f 5a 6f be 0c bb 65 bd 75 47 3b 3d
       -0.21391863 -0.23374198 -0.056086585 0.045722444
000020 9f 34 a7 bd c9 5d cd 3c 95 f4 94 bd 69 7f 83 bd
       -0.081643336 0.025069134 -0.07273213 -0.06420786
000030 d2 15 4e bd 44 66 f1 3c 49 5e 00 be 29 42 49 bd
       -0.05031378 0.02946771 -0.12535967 -0.04913536
000040 54 ff 9f 3c 98 82 59 be 75 8f 8e 3d 88 e2 6e be
       0.01953093 -0.21241224 0.06960956 -0.23328602
000050 9c b4 a3 bc 7b c7 88 3e 9a d9 81 be fd 58 e1 bc
       -0.019983582 0.26714692 -0.2536133 -0.027508253
000060 0a 70 9d 3e ba f5 6f be f1 20 16 be cb 20 9a bd
       0.30749542 -0.23433581 -0.14661004 -0.07525786
000070 7a 6b 0f 3e 8c 10 79 3e 4b b6 84 bb 4b aa 44 3e
       0.14005843 0.24322718 -0.0040500513 0.19205587
000080 5b dc cd 3e 57 8b d9 3e c3 4e 00 3f 18 4f 0f 3f
       0.4020718 0.4248912 0.5012018 0.5598006
000090 a2 e4 72 3b 82 e1 db 39 d1 83 31 be 6a 58 47 bd
       0.0037062545 0.00041938951 -0.1733544 -0.048668303
0000a0 5c ea 0e be d1 d1 7f be 45 ce 13 3c e8 c0 0c be
       -0.13956589 -0.24982382 0.009021346 -0.13745463
0000b0 51 c9 d4 bd ba bb d0 3e 86 a9 b5 3d 94 c0 2e 3f
       -0.103899606 0.40768224 0.08870225 0.682626
0000c0 1a 23 a5 3e 41 b4 62 bd 24 a1 c6 3e fc 7c 03 3f
       0.32253343 -0.055347685 0.38794816 0.51362586
0000d0 be 8c 7e 3d 78 03 e8 3e ba ab 9c 3d 52 11 13 be
       0.06214594 0.45315146 0.07649942 -0.14362076
0000e0 41 71 2d be 57 95 03 3d a3 f8 7a bd 59 4e 40 be
       -0.16937734 0.032124843 -0.061272275 -0.18779887
0000f0 e6 c0 9e bc 75 68 91 bd 07 04 37 bd 69 6e 8a 3e
       -0.01937909 -0.07100002 -0.044681575 0.2703736
000100 9b 79 37 3e 4b 33 23 bd 61 6f 73 3e 37 2d e3 3b
       0.17917483 -0.03984384 0.23772956 0.0069328803
000110 0c 86 84 be ae 53 cc bc ec c1 e8 bc c7 55 96 be
       -0.2588352 -0.024942245 -0.028412782 -0.29362318
000120 c8 b6 23 3e 06 74 03 be 60 94 f3 3c 01 e4 7c 3e
       0.15987694 -0.12837228 0.029733837 0.24696352
000130 ad 45 31 be d1 6d 80 bd 9f f4 c8 3d 2f 19 26 be
       -0.17311735 -0.06270946 0.09812283 -0.16220544
000140 e2 e0 1b be f1 7d 6c 3d b7 20 87 3e 14 83 8f 3e
       -0.15222505 0.057737295 0.26392147 0.28029692
000150 26 9a 71 3e 6f c8 b5 3e 2f 5b bf 3e 5e 88 97 3e
       0.23593959 0.3550448 0.37374255 0.29596227
000160 91 5a 2c 3e ff 7a 9f 3e ec c3 2f 3e 88 38 2f 3e
       0.16831423 0.31148526 0.17164582 0.17111409
000170 ec 93 ca 3d 67 4c 6a 3d ef 8a 6f 3d cb 76 47 3e
       0.09891495 0.05720177 0.058482107 0.1947891
000180 70 91 3c 3d 03 30 f7 bc cb d7 e9 3d 4e 9a bf bd
       0.046037138 -0.030174261 0.11418112 -0.09355603
000190 6e 5c 31 be fc 8c 31 be 8c d8 fb bd 68 24 69 be
       -0.17320415 -0.17338938 -0.122971624 -0.22767794
0001a0 ac 7d 96 be e7 af 6e bd c6 07 46 bd 17 34 5e be
       -0.29392755 -0.058273222 -0.048347257 -0.21699558
0001b0 0b 99 9d bd 75 a0 a5 bd 4c 0e 34 be 19 98 39 3c
       -0.07695206 -0.080872454 -0.17583579 0.011327767
0001c0 ac b2 ab bd 62 2f 24 be eb c8 38 3d a5 af 95 3d
       -0.08383688 -0.160337 0.045113485 0.07308892
0001d0 60 b8 5a bd a1 3b 02 3e b5 2b d5 bd d0 be 25 be
       -0.05339849 0.12718059 -0.10408727 -0.1618607
0001e0 70 79 cf 3c 1f 8a 2a be 75 3c 17 be 29 c2 bc 3d
       0.02532646 -0.16654252 -0.14769156 0.092167206
0001f0 71 36 6e bc 50 8c 81 be c1 52 5c be d4 3a 68 be
       -0.014539347 -0.25302362 -0.21515943 -0.22678691
000200 5a b0 26 be d2 9d 6b be 35 ac 90 bd 26 34 eb 3c
       -0.1627821 -0.23009422 -0.07064096 0.02871139
000210 8e d2 8b bd bf 0f 0b 3e 00 dc 36 bc 93 9d 40 3d
       -0.068272695 0.13580225 -0.0111608505 0.047025274
000220 07 b2 22 3d a0 1a 17 3e 6e 77 39 bd 2d 22 3b 3d
       0.03972056 0.1475625 -0.045279913 0.04568689
000230 a9 6d 12 3e 01 3e b7 3d c8 88 32 bd eb f6 f4 3c
       0.14299645 0.08947373 -0.043587476 0.029902896
000240 4a fd 5a 3e 0a 03 31 3d f7 2d 2f 3e 37 56 9e 3d
       0.21385685 0.04321579 0.17107378 0.07731288
000250 5b 6d 18 3e 89 2b ef 3d 5a aa 27 3d c8 88 9b 3d
       0.14885466 0.116782255 0.040933944 0.07594448
000260 a4 f3 41 3d 4f 6f a3 3e 30 7c d6 bd ec 9e a4 3e
       0.047351494 0.3192086 -0.10472906 0.32152498
000270 24 ae 7c 3d 15 fd f2 bd 5b 83 fd 3d 44 b9 58 3e
       0.06168951 -0.11864678 0.1237857 0.21164423
000280 e5 9e 1b be 99 05 e3 3c e8 3b a9 be 47 7c 04 3f
       -0.15197332 0.02771263 -0.33053517 0.5175213
000290 38 ea e6 bd 7a 65 06 bf d2 da 21 3e 5c 41 86 bd
       -0.112751424 -0.5249859 0.1580613 -0.06555435
0002a0 a3 2b 0b bf ef 0f 3d 3e b1 86 3e be 4a 54 c7 be
       -0.5436346 0.1846311 -0.18606068 -0.38931495
0002b0 0f e4 7e be 6f 89 47 bd b5 4c 2a bc 35 2f b5 3d
       -0.24891685 -0.04871505 -0.010394265 0.08846895
0002c0 f6 a8 83 3e 58 39 a7 3c 9a 0d fd 3d 12 46 3f 3e
       0.25714844 0.020413086 0.1235611 0.18679073
0002d0 32 9f 1d 3e 59 a5 44 3e fb 22 33 3e 2a 19 bf 3c
       0.1539276 0.192037 0.17493813 0.023327429
0002e0 57 d2 b2 3d c6 07 1e bd ff df e2 3c b5 6a b2 3d
       0.087315254 -0.038581632 0.0276947 0.08711759
0002f0 6b ad 14 bc 5b c5 bf be c5 65 90 3e 88 39 fe bc
       -0.009074549 -0.37455258 0.28202644 -0.031033292
000300 f4 61 dd be 1e 36 cc 3d b9 18 a9 bd b3 28 03 bf
       -0.43238795 0.099712595 -0.082566686 -0.5123398
000310 e2 26 90 3e 9a 16 23 3c 79 74 98 bd db 53 d8 3d
       0.28154665 0.009954119 -0.074440904 0.10562869
000320 85 40 ed bd 58 7e 72 3d 1d c3 a9 3d 84 50 9a 3d
       -0.11584572 0.059202522 0.08289168 0.075348884
000330 ec a8 8f 3d 24 41 21 3e 36 57 11 3e 9c 2f 82 3e
       0.07014641 0.15747505 0.14193425 0.25426948
000340 d5 7b 96 3d 1c 90 c3 bd cc 5c bd bc c9 e5 37 bd
       0.07347838 -0.09548971 -0.023115538 -0.044896875
000350 f6 21 72 bd b2 7e 8d 3c c8 02 a3 3b f4 40 88 be
       -0.05911442 0.017272327 0.004974697 -0.26612055
000360 db f9 03 bf 04 69 d5 3d cd a3 6b be 44 62 ca be
       -0.51553124 0.10420421 -0.23011704 -0.39528096
000370 92 e4 d0 3d d6 40 cb bd ba 4e 0f bf 1c 0e 8b 3e
       0.10199846 -0.09924476 -0.559795 0.27159202
000380 37 10 c5 3d a6 f4 9f bc 98 b9 a7 bd c9 da 7d bd
       0.09622233 -0.019525837 -0.08189696 -0.061976228
000390 17 d1 0c be 40 e5 ac bd a8 94 db 3d 9c 21 17 be
       -0.13751636 -0.084421635 0.10721713 -0.14758915
0003a0 8f 31 f5 3d 99 da ad 3d 42 8a 5c 3e bb f6 fb bd
       0.11972343 0.0848896 0.21537116 -0.123029195
0003b0 98 a3 27 3d d3 9b 56 bd ff 5b f2 39 06 cc 22 bd
       0.0409275 -0.0523947 0.0004622638 -0.039745353
0003c0 b9 4d d0 bc 45 9a f8 bd 7d 40 87 3d 6b f3 9c be
       -0.025427686 -0.121387996 0.06604097 -0.30654463
0003d0 f2 d7 db bd 9b 32 1e 3e 0a 08 ed bd a0 17 b4 bd
       -0.10734548 0.15448992 -0.11573799 -0.087935686
0003e0 56 d2 da 3d 42 9b c2 bd 9a c9 d0 3b aa 14 17 3e
       0.1068465 -0.09502269 0.006371689 0.14753976
0003f0 aa 8d 35 3d f3 4a af bd 1f 5a e5 bd 61 a2 8a bd
       0.044324555 -0.08559217 -0.1119883 -0.067692526

conv2.bias f4 [16]
000000 fc db 29 bd 8b 45 20 be 6f 8d 3a 3d 78 84 c4 bd
       -0.04146956 -0.15651529 0.045545038 -0.09595579
000010 bd 3f 16 be 2c 25 82 be fe 25 5f be 32 4d 49 bd
       -0.14672752 -0.25418985 -0.21791837 -0.049145885
000020 3c bd 77 bd 96 85 e3 bd 80 1e a5 bd a1 0e 7e bd
       -0.060483202 -0.11109464 -0.08062458 -0.06202567
000030 4c ec d5 bc 22 44 f9 bd 5b 81 9f 3d 39 c8 01 be
       -0.026113652 -0.121711984 0.077883445 -0.12674035

conv3.weight f4 [16, 16, 8, 1]
000000 23 e6 8a be 37 a0 a7 bd 55 09 e9 bb 8a b2 c7 3b
       -0.27128705 -0.081848554 -0.007111708 0.0060942816
000010 fb b1 13 be 74 78 9e be 60 d5 7d be a8 06 ea 3d
       -0.14423363 -0.30951273 -0.24788427 0.11427051
000020 0b f3 50 3e a2 e6 03 3e 9c ce 67 3e 2a 12 bc 3d
       0.20405214 0.12880948 0.22637409 0.09183152
000030 8e da 50 3e 52 73 a7 3e b7 18 88 be 17 40 9d be
       0.20395872 0.3270517 -0.26581356 -0.3071296
000040 0d 7f 4e bd ba 60 1e 3e df 7d 79 3e 57 5e 4b 3e
       -0.050414134 0.15466586 0.24364422 0.19860207
000050 0f 15 9b 3d 04 bd 0e 3d 83 00 bd be d1 ce 40 be
       0.07572376 0.034848228 -0.36914453 -0.18828894
000060 89 55 02 be f5 f8 25 bc 3a 21 3d bd dc 9c 03 be
       -0.12727942 -0.010130157 -0.046174265 -0.12852806
000070 87 e0 92 bd 96 e0 69 be 0d 0c ae 3e 35 01 d6 bb
       -0.071717314 -0.22839579 0.3399357 -0.0065309056
000080 6d 80 19 be 4f 0d 3e 3d 33 34 d7 3d 98 e3 d2 3d
       -0.14990397 0.04639941 0.10508003 0.10297316
000090 57 72 03 3e 89 dd 72 3e 17 9e 8e 3d 62 cf a4 3d
       0.12836586 0.23717321 0.06963747 0.08047368
0000a0 d2 57 8f be bb b7 81 3e 43 d5 46 3d d5 83 f8 3d
       -0.2799669 0.25335488 0.048543226 0.1213452
0000b0 fd 7e 3f bd 66 8b 53 bb ae 0d 00 bf a5 85 97 3c
       -0.046751965 -0.0032279133 -0.50020874 0.018496344
0000c0 9a 89 5b 3d e3 8c 44 3d 5b 09 3e bd ae 0d 0d be
       0.053598024 0.047985923 -0.04639564 -0.1377475
0000d0 8e d8 32 bd 38 9c 93 3c 4c b4 75 bd e3 7a 8d bd
       -0.043663554 0.018018827 -0.059986398 -0.069082044
0000e0 85 01 bb 3d 95 11 4f bd 75 41 ea 3d ca a2 ac bc
       0.09131149 -0.050553877 0.11438266 -0.021073718
0000f0 62 5b 21 bd b8 aa 3f be ac ef b0 3d 22 54 93 bc
       -0.03939379 -0.18717468 0.08639464 -0.017984454
000100 62 2c 94 3d 3b 32 82 3c 6c 88 19 3e 7a 4a 78 3d
       0.07235028 0.015893092 0.14993447 0.0606179
000110 e0 d2 fa bd 45 6c 86 bd ba 00 2c 3f 9d 32 f3 bc
       -0.122472525 -0.065636195 0.6718861 -0.02968722
000120 ec 33 a6 bd 22 6d 21 be da 3d 94 bd ce 7c 28 bd
       -0.08115372 -0.15764287 -0.0723836 -0.041134648
000130 33 88 49 bd 5c f5 51 bd ec 8f c6 be 1e 15 98 3e
       -0.049202155 -0.051259384 -0.3878168 0.2970361
000140 02 d7 6e 3e 85 b4 ba 3d 39 81 58 bd 73 ea 0f be
       0.23324206 0.091164626 -0.05285761 -0.14054279
000150 fa 6c a4 bd d3 c4 bc bd cb 89 b2 3e db 25 0c 3a
       -0.08028598 -0.09217229 0.34870753 0.0005346217
000160 38 00 20 be 53 3d a8 bd d0 d2 16 3d c6 b7 b9 3c
       -0.15625083 -0.08214822 0.03682214 0.022670638
000170 a4 c2 4e 3e 07 41 8b be 07 00 3c bf f4 88 56 3e
       0.20191437 -0.2719805 -0.7343754 0.20950681
000180 c5 c1 f6 bc df a9 2a be 19 ae 1a be 4a d5 5b bd
       -0.030121693 -0.16666363 -0.15105475 -0.053670205
000190 f2 96 85 bd 97 0b 76 be b7 3e 80 3c f1 63 09 3e
       -0.06522931 -0.24027859 0.015654905 0.13417031
0001a0 6c 74 ab bd d0 50 0e 3e 0d 08 4b 3e 69 88 db 3d
       -0.08371815 0.13898015 0.1982729 0.107193775
0001b0 58 9e 52 bd f9 6f 2a 3e f6 f6 d2 3e 88 3d 89 be
       -0.05142054 0.16644277 0.4120404 -0.26804757
0001c0 37 ee 0b 3e 6e 37 1e 3e 36 20 08 3e 81 c0 03 3e
       0.1366509 0.15450832 0.13293537 0.12866403
0001d0 09 15 04 bc 37 2a a4 3d c9 21 e8 37 76 b7 89 3d
       -0.008061656 0.08015864 2.7672288e-05 0.067244455
0001e0 07 42 25 be 2c f7 1d 3d d7 7b 6f 3d 63 41 04 3c
       -0.16138469 0.0385658 0.058467712 0.00807223
0001f0 d0 68 fc bc c6 a2 d0 3b eb c8 29 3d f2 c5 e4 3a
       -0.030811697 0.0063670604 0.041451376 0.0017454012
000200 04 9a 2e be 51 df 22 bd e8 a3 aa bb 03 68 ad 3d
       -0.1705094 -0.039763752 -0.0052075274 0.08467104
000210 d0 f4 25 bd 83 fb 8d bd 3e 55 97 3e a2 a1 77 3d
       -0.040516675 -0.06932738 0.29557222 0.06045688
000220 d4 10 e8 3b 2f d4 0b 3e f3 3f 3c 3e ae 7d f8 3d
       0.007082084 0.1365516 0.1838377 0.121333465
000230 8d d9 1a 3e 69 ad 98 3e 30 e8 95 be 17 c8 21 be
       0.15122052 0.298198 -0.29278708 -0.15798984
000240 63 0d 41 be 93 7c 98 bd 83 e3 56 3d b5 76 ba 3d
       -0.18852763 -0.07445636 0.052463066 0.09104673
000250 80 65 c5 bd 58 dc be 3d 24 ac 49 be 5d e5 4e bd
       -0.096385 0.09319371 -0.19694573 -0.050511707
000260 16 19 58 3e d3 05 f2 3d 5c d4 85 bd 21 b0 79 bd
       0.2110332 0.11817517 -0.06534645 -0.060958985
000270 26 11 b8 bd db 86 55 be ce 61 79 3c 51 62 e3 be
       -0.08987646 -0.20852225 0.015221072 -0.44410947
000280 e7 dc 2d be 43 ae 03 bd 8a b3 b4 bd d7 40 25 bd
       -0.16978799 -0.03214861 -0.08823307 -0.04034504
000290 62 6c 07 be ab e7 b0 3d 2c 0e 88 be b8 4d 08 bd
       -0.13224939 0.08637937 -0.26573312 -0.033277243
0002a0 fb df 73 bd 4c ed a2 bd 9d 90 20 be 89 44 2c be
       -0.059539776 -0.07955417 -0.15680166 -0.16823019
0002b0 5e c7 a5 bd 25 12 11 be 6d 7a 0c bf 10 0a 81 bd
       -0.08094667 -0.14167078 -0.54874307 -0.063007474
0002c0 d2 60 25 3d 53 52 4e bd bd 08 fe bd 55 6d 16 bd
       0.04037554 -0.05037148 -0.124040104 -0.03672536
0002d0 f4 6a 93 3d 0c 62 c6 3d 1b 86 31 3e 60 2b 1a bd
       0.07198134 0.0968667 0.17336313 -0.037639022
0002e0 65 3f 38 3d ee b7 f0 3d 14 4f 01 3e 98 13 39 3e
       0.044982333 0.11753832 0.12627822 0.1807388
0002f0 b7 e6 a1 3d ea 41 3e 3e ce dd bf 3d df 6f b8 3d
       0.079053335 0.18579832 0.09368478 0.09005713
000300 bb 28 cf bd 32 69 37 3d b3 53 0f 3e 58 fa ab 3d
       -0.101151906 0.044778056 0.13996772 0.08397359
000310 2e 3e 91 3d 76 42 d4 3d 93 91 19 3f d5 eb 00 be
       0.07091938 0.10364239 0.59987754 -0.12589963
000320 d6 18 8b 3b da 6b 1e bd 3b b1 55 bc 70 7f db bd
       0.004244904 -0.038677074 -0.013042743 -0.10717666
000330 f0 92 31 bd 73 6a fb 3d 10 f1 7b be 67 e8 d3 3e
       -0.04335302 0.12276163 -0.24603677 0.41388246
000340 eb 9e 2e be 7e e6 bb bd ad 3f 00 be 62 f0 ab bd
       -0.1705281 -0.09174822 -0.1252429 -0.08395459
000350 06 51 5a bd 69 13 81 be a9 a2 e8 3e e9 a2 db be
       -0.053299926 -0.2521012 0.454366 -0.42897728
000360 36 ee de 3d 88 29 e6 3d 9f 28 eb 3d 54 11 fb 3d
       0.10885279 0.1123839 0.11482357 0.122591645
000370 86 4f 17 3d 8a 56 93 3c a6 8f 2e be 97 90 7b 3d
       0.036941074 0.017985601 -0.17046985 0.06141719
000380 5c 6b cd bd d0 44 fc bd 38 73 11 bd 3b 91 96 bd
       -0.10030243 -0.123178124 -0.03551027 -0.07351919
000390 9e 64 28 be 4d 28 69 bd 2b 5f 17 be c5 ef 37 3e
       -0.16444632 -0.0569232 -0.14782397 0.17962559
0003a0 f2 c4 37 be 21 92 32 3d 65 24 9c 3d 76 08 c5 3c
       -0.17946222 0.04359639 0.07624129 0.024051886
0003b0 8c f3 ec 3d 8c 39 28 be 5c 19 bb 3c d8 56 bd be
       0.115698904 -0.16428202 0.02283924 -0.3698032
0003c0 6c 63 3d bd 90 9e 6d bd e6 a8 dc bc 22 63 11 3e
       -0.046237394 -0.058012545 -0.026936006 0.14197972
0003d0 37 6b 02 3e 24 d5 33 3e 9d 86 b5 bd d9 99 2e 3e
       0.12736212 0.17561775 -0.08863566 0.17050876
0003e0 d9 2b 67 3d 36 38 2d 3c ea de 0e 3d 8b c1 7b 3d
       0.0564383 0.010572484 0.034880556 0.061463874
0003f0 9a 61 22 bd 94 77 45 3e bf 39 3b 3e 57 d7 b6 3e
       -0.03964386 0.19283897 0.18283747 0.35711166

conv3.bias f4 [16]
000000 43 0d 57 bd 9b 35 88 3d 91 2e a3 3d 9a 52 e2 bb
       -0.05250288 0.066508494 0.07967866 -0.0069068195
000010 3c 1d 50 3a 5a 56 7e 3e a1 49 1f 3e d6 a5 8c 3d
       0.00079389266 0.24837628 0.15555431 0.06867568
000020 4a 48 30 bd 50 49 95 be cf f7 81 3e 6d ba bd 3e
       -0.04303769 -0.29157495 0.25384375 0.37056294
000030 51 0e 08 bd 18 70 6e bb 8b a2 86 3e 51 7c 68 ba
       -0.03321678 -0.003638273 0.26295885 -0.0008868622

tcn.tcn.0.conv1.weight f4 [16, 16, 5]
000000 67 d4 44 3e 39 08 2f 3e 02 01 f0 3d 88 4e 21 3c
       0.1922165 0.1709298 0.11718942 0.009845383
000010 89 b8 3b be 2f ef 76 3e 7a 0d ea 3d 78 a3 cf 3d
       -0.18332113 0.24114679 0.11428352 0.10138601
000020 d1 b6 80 3c 82 1b 7a be b6 73 3e 3d 12 21 6b 3c
       0.015712174 -0.24424556 0.04649707 0.014351146
000030 db b8 18 3e 47 16 15 be 11 a0 d3 bd 3f b2 19 bd
       0.14914267 -0.1455928 -0.103332646 -0.037523504
000040 ac d4 d1 3d ba f7 a7 3d 2b 59 9d 3b 6a 38 d2 3d
       0.10245642 0.08201547 0.0048018894 0.102646664
000050 89 cc ac 3d 18 e1 94 bc 57 f0 92 3e 40 0b 33 3e
       0.084374495 -0.01817374 0.2869899 0.1748476
000060 1c dc 79 bd 6b 28 93 3c f7 ce 49 3e d3 f0 59 3e
       -0.06100093 0.017963609 0.19707857 0.21283273
000070 a9 bc 6d 3b b1 90 5b 3e dc 33 08 3d c4 71 26 3d
       0.003627578 0.21441914 0.033252582 0.04063584
000080 93 87 d7 bd 8a 08 ae bc c0 6b 0f 3e c7 15 7d be
       -0.105239056 -0.021244306 0.14005947 -0.24715339
000090 49 0d b4 be 71 df 83 be 88 97 af bc 32 1f ff bd
       -0.35166386 -0.2575641 -0.02143456 -0.12457122
0000a0 61 0e 12 3d 93 2a c5 3d 24 82 1c bd c8 7e 1f be
       0.035658244 0.09627261 -0.03821005 -0.15575707
0000b0 82 ce 94 bd fe 14 2e bf 6d 25 c8 be 4f 74 c5 be
       -0.07265951 -0.6800078 -0.39091054 -0.385653
0000c0 e6 80 1e bf a5 27 7a be 5e fb d7 bd 76 25 3d bc
       -0.61915433 -0.24429186 -0.10545991 -0.011544576
0000d0 7c e8 ed bd a7 e9 9e be 56 41 47 be 76 98 6a bd
       -0.116166085 -0.31037638 -0.19458517 -0.057274304
0000e0 f1 f4 2a be eb f7 ba bd 36 00 38 be 14 db 50 be
       -0.16695 -0.09129318 -0.1796883 -0.20396072
0000f0 11 0c 2a b8 12 e5 87 bb 47 3b 0d 3e 2d e2 01 be
       -4.0542396e-05 -0.0041471804 0.13792144 -0.12683935
000100 e1 24 30 be 96 1d 7c be ef fc 84 be 0f cc 81 be
       -0.17201568 -0.24620661 -0.25974223 -0.25350997
000110 05 ef 23 be f9 89 21 bd 0a 49 82 be 05 ac b9 3c
       -0.16009147 -0.03943822 -0.2544635 0.022665033
000120 b8 89 71 3b 0e 22 34 bb f8 c9 05 3e 21 96 af bd
       0.0036855768 -0.0027486118 0.13065326 -0.08573557
000130 89 39 21 be 52 33 02 3d 92 c2 88 bd 0c 25 d8 bd
       -0.15744604 0.031787224 -0.06677736 -0.10553941
000140 50 01 50 3e 97 38 91 3e 41 f9 12 3d 17 df 19 3e
       0.20313 0.28363487 0.03588224 0.15026508
000150 d8 d4 bb 3d ca c5 24 3e b7 31 b0 3e 83 19 54 bc
       0.09171456 0.16091076 0.3441293 -0.012945536
000160 7a 28 40 3e cf ab 9b 3e 40 47 07 3b 15 55 a9 3e
       0.1876544 0.30404517 0.0020641834 0.33072725
000170 09 cc 57 3e ed 6a 6c 3e 7a 6a b3 3e 23 19 63 bd
       0.21073927 0.23087664 0.35042173 -0.055443894
000180 68 d0 0f bd 69 1f 85 be 05 21 c2 3d 1c a5 58 3b
       -0.03511086 -0.26000527 0.09478954 0.0033057397
000190 c7 8a a9 be 60 db 87 be 39 7d 6b bb b8 28 5e ba
       -0.3311369 -0.26534557 -0.0035932793 -0.00084746955
0001a0 2b d8 ca 3d e7 77 0f 3e 0b 85 d7 3d 70 11 de 3b
       0.09904512 0.14010583 0.10523423 0.006776981
0001b0 c5 ad c2 3b 55 e7 8b 3c 23 2e 97 be 2a 20 7c be
       0.005941125 0.017078081 -0.29527387 -0.24621645
0001c0 d0 dc bf bd 48 e6 1c 3d c3 3c 43 3d 11 39 e7 3c
       -0.093682885 0.03830555 0.04766537 0.028225454
0001d0 df 74 c2 3c 73 67 9c 3d 4a 7d 8e 3e 12 b4 71 3e
       0.02373737 0.07636919 0.27829963 0.23603848
0001e0 1c 7f 4a 3d 52 70 4b 3e c9 17 51 3b 9e b0 42 3e
       0.049437627 0.19867066 0.0031905046 0.19012687
0001f0 c8 7a 68 3d 93 4e a2 bc da c9 1b be ec e8 0c be
       0.05675772 -0.019812858 -0.15213719 -0.13760728
000200 47 39 27 be 78 03 80 bc b5 e3 26 3d e5 45 3b bb
       -0.16330443 -0.015626654 0.040744502 -0.0028575596
000210 08 e3 cf 3d 3a a4 48 3e 61 fa 3d 3e 84 33 11 bd
       0.10150725 0.19593897 0.18552543 -0.03544952
000220 4e 08 e4 3d 63 b5 bf 3d 59 07 89 3d 49 2c 03 3e
       0.111343965 0.09360769 0.066908546 0.12809862
000230 07 78 81 bd 50 f0 c9 bd e9 03 1b 3a 2a 44 82 bd
       -0.063217215 -0.09860289 0.00059133634 -0.063606575
000240 4a 76 d7 3d 14 d3 62 39 e6 b2 bd 3d 13 4a 74 3d
       0.10520609 0.00021631672 0.09262638 0.059640955
000250 b1 81 28 3e fe e3 59 3e 78 79 57 3e fc af bb bc
       0.16455723 0.21278378 0.2104243 -0.022911064
000260 ff 56 55 3d c7 b5 65 bd db c4 12 be 86 86 03 3e
       0.05208492 -0.05608156 -0.14332907 0.12844285
000270 6a 23 0b 3e e8 a9 05 be 09 83 24 be 43 2d 1e 3e
       0.13587728 -0.13053095 -0.16065611 0.15446953
000280 c4 19 aa bd e4 e8 bf 3d a5 eb 83 bc 23 bd d5 bc
       -0.08305696 0.09370592 -0.016103575 -0.026091164
000290 49 b9 f6 bd 3b 7e 54 3e 7d 2b 97 3d fe 83 db 3d
       -0.12047059 0.20751278 0.073813416 0.10718535
0002a0 04 50 70 bd 3a 11 c7 bd 76 cf 14 3e 6a cd 04 3b
       -0.05867006 -0.097200826 0.14532265 0.0020264038
0002b0 4e 5e db 3d a9 4e 64 3d d4 8d 3d be 8c 24 db bd
       0.107113466 0.05573908 -0.18511134 -0.1070033
0002c0 52 86 2d 3c d9 9d 1d be 08 1e 2d be bc c0 99 bd
       0.0105911065 -0.15392245 -0.16905987 -0.07507464
0002d0 78 b4 9e bc e6 f1 38 be f8 25 10 be 67 ac 9a bc
       -0.019373164 -0.18061027 -0.14076984 -0.018881036
0002e0 8e 97 52 bd 7f 91 ef 3d 3e e3 60 3e 50 d3 09 3d
       -0.051414065 0.11697673 0.21961686 0.03364879
0002f0 b9 e4 36 bd a4 52 aa 3b 42 6f 33 3c 9c b9 01 bd
       -0.04465172 0.00519784 0.010951819 -0.03167115
000300 85 70 af bd b9 ec 50 3b 9e 77 60 3e b7 08 8d 3d
       -0.08566383 0.003187938 0.2192063 0.06886428
000310 1b 7f 1b be 74 5a 9a 3d 20 d2 51 3e 5a 9f da 3c
       -0.15185206 0.07536784 0.20490313 0.026687313
000320 dd 7a 2e 3d ea cf d0 bd a1 f0 e1 bd 1b bf 27 be
       0.04259764 -0.101959065 -0.110322244 -0.16381495
000330 da 83 fc bd f7 f7 eb bd 52 e9 12 be a3 b6 c9 bc
       -0.12329836 -0.11521905 -0.14346817 -0.02462322
000340 68 94 5a 3e f8 ad 5e bd 92 5f 7d 3d 81 b0 d1 bd
       0.21345675 -0.05436513 0.06185872 -0.102387436
000350 22 4b 41 be 14 fe 96 bd 43 26 0f be 4a 51 a0 bd
       -0.18876317 -0.0737268 -0.1397944 -0.07828005
000360 37 32 df 3d dc 24 79 3e 3e f3 55 3e 88 79 56 bd
       0.108982496 0.24330467 0.20893571 -0.052361995
000370 56 43 3c be 88 3d 83 be 8c 9f 1a bd 5b 4b 68 3d
       -0.18385062 -0.25632882 -0.037749812 0.05671249
000380 6c a3 44 be af cb fd bd 03 09 4e be 73 1a e0 bd
       -0.19202965 -0.12392365 -0.20120625 -0.10942545
000390 26 21 0c bd 98 2d ae be 5f e0 9c be bc ca 5c bd
       -0.0342113 -0.3401916 -0.30639932 -0.05390428
0003a0 79 4a 12 3d c0 72 0e 3d 29 0b 1a bd 99 bc 65 bd
       0.035715554 0.034777403 -0.0376083 -0.056088064
0003b0 21 1e f4 bd 72 17 fc 3d 82 21 f8 bd be 64 c3 be
       -0.11919809 0.12309159 -0.12115766 -0.38162798
0003c0 2e 7b a1 be d7 4c 2d be 69 01 37 be 40 73 12 3e
       -0.3153929 -0.16923843 -0.17871632 0.14301777
0003d0 6c 02 3d 3e 78 34 7a be 50 81 92 bc a3 f6 20 be
       0.18457955 -0.24434078 -0.017883927 -0.15719084
0003e0 cb 88 1b be d9 90 ee bd 1e eb 4c bd b1 9a 07 3f
       -0.15188901 -0.11648721 -0.050028913 0.52970415
0003f0 c0 10 b7 3e 3a 53 fe 3d 6a 23 9c 3e 20 4b 23 3d
       0.35754967 0.12418218 0.3049577 0.039866567

tcn.tcn.0.conv1.bias f4 [16]
000000 cb 48 86 3c 76 77 e9 bc d0 5f 30 3e 3b 41 e0 3d
       0.016392132 -0.028499346 0.1722405 0.10949942
000010 c1 90 21 be 16 ee 87 3d e8 4f d8 bc e5 1a 2c be
       -0.15777875 0.06637208 -0.02640529 -0.16807134
000020 0c 5d 2f 3d 05 bb 28 3e f6 0e f2 3d ed f5 88 bd
       0.042813346 0.16477592 0.1181926 -0.066875316
000030 03 29 85 3e 98 6f 74 3c 4e fa f0 bd 46 af bd 3d
       0.26007852 0.014919184 -0.11766492 0.092619464

tcn.tcn.0.conv2.weight f4 [16, 16, 1]
000000 8a 14 03 3e bd 21 74 bd 04 44 96 3e b1 3a c4 3d
       0.12800804 -0.059602488 0.29348767 0.09581507
000010 7c fd 17 3e 93 ce 23 be 3d 27 51 3d e6 1c 80 3e
       0.1484279 -0.1599677 0.05106281 0.25022048
000020 d2 2d f2 3d 63 f6 b9 bd 8a 33 1b be 06 a2 5e be
       0.11825146 -0.09080198 -0.1515638 -0.21741495
000030 2b f0 b7 3e 8c 3a c0 bd 8e cb 98 bd c4 52 f9 3e
       0.3592542 -0.09386167 -0.074607 0.48695958
000040 f3 2f ce bd cc 97 5d 3e d5 1d e6 bc 03 b5 4a 3e
       -0.10067739 0.21639937 -0.028090397 0.19795613
000050 a5 80 99 3d 66 ef ff 3d 5e 77 3a 3e 57 9f 88 bd
       0.0749524 0.124968335 0.18209597 -0.06671017
000060 80 f2 b7 bd e2 90 a2 bc 8b 9c 2d be 78 57 d4 bd
       -0.089818 -0.019844476 -0.16954248 -0.10368246
000070 ee 22 1d 3e 21 6f 02 bd 54 6c 17 be b4 86 ba 3e
       0.15345356 -0.031844262 -0.14787418 0.36430895
000080 9c b5 e7 3c f1 29 15 3e 2e 62 07 be e6 57 7e 3e
       0.02828484 0.1456678 -0.13221046 0.24838218
000090 0c ce 5a bc 02 e8 a5 bc 66 63 dd 3b 00 cf d5 3d
       -0.0133547895 -0.020252232 0.006756234 0.10439873
0000a0 d7 96 7f 3d 95 f6 b7 3e 5a ba 5c 3e 01 3e 26 3e
       0.06239971 0.35930315 0.21555462 0.1623459
0000b0 a5 4b 5c be 0c 37 73 3e b5 91 98 bd df 8f 9d bd
       -0.21513231 0.23751467 -0.074496664 -0.07693457
0000c0 ac 51 16 3e d4 ef 2f 3e d7 df b8 3c 13 9f 84 3d
       0.14679593 0.17181331 0.022567673 0.064756535
0000d0 3d fc 3b bd 68 6c 73 3e d3 58 73 3e ab 63 ed 3d
       -0.04589485 0.23771822 0.23764353 0.11591276
0000e0 17 40 5d be e0 b3 83 be d4 e2 86 bd cc 87 85 be
       -0.2160648 -0.2572317 -0.06586233 -0.26080167
0000f0 7a 26 a9 3e 45 74 cb 3d 42 14 cf 3d ff a9 a1 3e
       0.33037168 0.09934286 0.10111286 0.3157501
000100 98 fb 38 3e 0e 3b 9c 3e eb 11 f9 bd 7a 7a da bc
       0.18064725 0.30513805 -0.12161621 -0.02666973
000110 e0 55 ad 3d bd 61 a8 3c 4f a2 5c bc 19 35 fa be
       0.08463645 0.020554418 -0.013466432 -0.48868635
000120 a8 4a 09 be 7e 9a e2 be 52 3d 6d bd 08 34 51 be
       -0.13407385 -0.44258493 -0.057919808 -0.20430005
000130 c7 1b df bd 69 30 0f 3e 15 c7 af bc 12 d9 be 3d
       -0.1089397 0.13983311 -0.021457234 0.093187466
000140 a5 6e ec bc 0b 99 be 3d 99 87 be bc 3b 11 9a bd
       -0.028861353 0.093065344 -0.023258017 -0.07522818
000150 49 86 8f be 3a 31 ad 3c 09 bb 88 bd fa 9b c8 be
       -0.2803214 0.021141637 -0.06676299 -0.391815
000160 dc 5d 41 3e 81 2a ef be 86 22 f1 bd 49 64 1c bf
       0.18883461 -0.46712115 -0.11774163 -0.61090523
000170 74 5b 06 be c9 81 48 bc 08 0a 83 3e e1 68 0d 3d
       -0.13120824 -0.012237974 0.2559359 0.03452385
000180 d8 43 13 be 4b 84 1b be c4 07 ff bd a1 2a 6a be
       -0.14381349 -0.15187185 -0.12452653 -0.22867824
000190 78 f2 84 3c 94 8e 5b ba 2e 23 90 be 67 ad b3 bd
       0.0162289 -0.0008375433 -0.2815184 -0.08773308
0001a0 a1 96 71 be ab e4 76 3e 3d f7 8b be 69 c8 7e be
       -0.23592617 0.24110667 -0.27337065 -0.24881138
0001b0 b1 c0 9b 3d 46 1f a4 be fe cf e8 3b 24 e5 87 bd
       0.07605112 -0.3205511 0.0071048727 -0.06635502
0001c0 01 ae 7a be ce 66 a6 3c 80 3e 05 ba e1 a0 02 3e
       -0.2448044 0.020312693 -0.00050828606 0.12756683
0001d0 1d 77 c7 bd 40 8e 5c 3e 2f bd f3 3d 03 5f cd 3d
       -0.09739516 0.21538639 0.11901318 0.10027888
0001e0 bf 12 a3 3e ef 15 7d 3e d8 be 1e 3d 3c 80 95 3d
       0.3185024 0.24715398 0.03875622 0.072998494
0001f0 74 10 65 3e 89 ce 82 3e 01 7d a3 be 1a d9 54 be
       0.22369558 0.255482 -0.31931308 -0.20785943
000200 ad a6 44 be ab a3 90 3d f9 57 7c 3e bb 80 ba bb
       -0.19204207 0.07062467 0.24642934 -0.0056916154
000210 83 61 19 3d 1f b6 0e 3e 04 9b 5b 3d 34 88 a9 bc
       0.03744651 0.13936661 0.05361463 -0.02069483
000220 de ff 87 be 5c 45 55 3e e3 df e9 3d bb 82 6a be
       -0.265624 0.2082724 0.11419656 -0.22901432
000230 44 32 71 be a7 1b a3 3d ac b7 bc be bb d0 84 3e
       -0.23554331 0.07964259 -0.3685888 0.259405
000240 15 f9 21 be 5d ef 59 3e b9 15 d5 bd 38 7c 07 3e
       -0.15817674 0.21282716 -0.10404534 0.1323098
000250 1c da 86 3e cd 5f 9f 3e 2a 71 81 3e c2 a6 35 bd
       0.2633828 0.31127778 0.2528165 -0.044348486
000260 2a 78 a3 bd 6f 45 2f be 09 e3 c4 bb d6 51 71 3c
       -0.07981904 -0.1711633 -0.00600851 0.014728984
000270 4a 3a ac be 45 94 4d 3d 39 93 ff be 43 43 9c bc
       -0.3363822 0.05019023 -0.4991701 -0.019075042
000280 08 bb 25 be cd fa 8b bd 88 c0 01 3e 80 f6 d3 bd
       -0.16184628 -0.06834946 0.12671101 -0.103497505
000290 4d 07 10 be 7b c0 01 be 35 10 e1 3c 44 1b 5e 3e
       -0.14065285 -0.12671082 0.027473548 0.21690089
0002a0 50 e5 8f bc 0e 6c 1a 3f 17 97 49 be 3e c9 01 3f
       -0.0175654 0.6032113 -0.19686542 0.50697696
0002b0 40 fd 5b 3e b8 65 0c 3d 7a ce 94 3d 53 b6 62 be
       0.21483326 0.034276694 0.07265945 -0.22139864
0002c0 ae 38 a4 3d 99 c9 cd bd b6 0e e8 bd e1 a7 8c 3e
       0.08018623 -0.10048217 -0.11330931 0.2747183
0002d0 1d a2 52 be a7 a2 8d be 87 95 10 be bb 1b 73 3e
       -0.20569654 -0.27663156 -0.1411954 0.23741047
0002e0 35 4f ac bd 99 37 18 3f 3a 21 8d bd c7 34 32 3e
       -0.08413545 0.59459835 -0.06891103 0.17402945
0002f0 df 73 49 3e 96 57 81 3d 3e 93 0b 3f d3 24 a7 3e
       0.19673108 0.06315534 0.5452155 0.32645282
000300 90 cd cb bd 77 11 81 be c9 2c 0f 3e e5 45 6c bd
       -0.09951317 -0.25208637 0.13981928 -0.057683844
000310 58 8a 18 be cb 88 08 bd cb 6a 20 be bd 25 c0 3e
       -0.14896524 -0.03333358 -0.15665738 0.37528792
000320 4e 80 f8 bd 4e fb 8d 3e 63 32 21 be a9 ac 9a 3e
       -0.12133847 0.27730793 -0.15741877 0.30209854
000330 bb 57 8d 3e 6a 6c 3a be d4 49 c2 3d bd 06 16 be
       0.27605996 -0.18205419 0.09486738 -0.14651008
000340 fa d4 30 3e 52 59 04 3e 30 cf 7f 3e 6d 09 9a bd
       0.17268744 0.12924698 0.2498138 -0.07521329
000350 3f a3 2e bd dc 30 68 be 22 6a 7e 3c 6f 30 c3 3e
       -0.042636152 -0.22674888 0.015528234 0.3812289
000360 be b3 57 3d 6c 0c bc 3e ca d6 56 be ed aa 2b 3d
       0.05266165 0.36728227 -0.20980373 0.041911054
000370 ae ee 67 3e b8 6d 4e 3e 78 60 54 be 19 6f 9a 3e
       0.22649643 0.20159042 -0.20739925 0.30162886
000380 c5 10 20 3d 7e f5 8e bd ef d1 3d bd d5 f5 8b be
       0.039078493 -0.06980418 -0.046342786 -0.27335992
000390 03 de cc bd ae fb 8f 3c e1 42 0c be 3b e6 b1 3e
       -0.10003283 0.017576065 -0.13697387 0.34745964
0003a0 2a 69 32 3c 8b 9d 0a 3f 84 c6 8d be 2d ca 4e 3e
       0.010889331 0.5414664 -0.27690518 0.20194311
0003b0 a5 9e e8 bd 76 23 ed bc e1 ed 73 be b5 50 d5 bd
       -0.11358384 -0.028947573 -0.23821212 -0.10415784
0003c0 dd 43 18 3d f2 33 37 be fb c3 57 bd c7 1f 73 be
       0.037174094 -0.1789091 -0.052677136 -0.23742591
0003d0 58 91 ec 3d 99 a3 89 bd c1 19 e7 bd 94 44 1b be
       0.115511596 -0.06720657 -0.11284209 -0.15162879
0003e0 34 0e 58 3e d1 1b 31 3f 3c be 84 be 2a 9d 59 bd
       0.21099168 0.6918307 -0.25926387 -0.0531284
0003f0 be f1 92 3d 88 92 5b 3e 7b 4f 98 bd bf 4d 89 3e
       0.07175015 0.21442616 -0.07437035 0.26817128

tcn.tcn.0.conv2.bias f4 [16]
000000 65 14 25 3e 9f 92 3d 3d 1c fd 84 3d 4d 1c 73 bd
       0.16121061 0.046282407 0.06493589 -0.05935316
000010 3e 95 ad 3d fd f0 ad 3c 5d 65 d2 bd 31 1a d4 bc
       0.08475731 0.021233076 -0.1027324 -0.025891395
000020 53 42 77 be e1 d9 22 be bf 80 33 3d 36 33 de 3d
       -0.24146394 -0.15903427 0.043823954 0.108496115
000030 60 d2 2e 3e 7e c5 11 bd 4b 7a 47 3d c9 f9 fb 3c
       0.17072439 -0.035588734 0.048700612 0.030758755

tcn.tcn.0.res_conv.weight f4 [16, 16, 1]
000000 81 dc 68 3e 29 68 ec bd ca 78 c2 3e d4 d7 10 ba
       0.22740366 -0.115433045 0.3798278 -0.0005525325
000010 06 21 f3 3d 19 10 7c 3e fc ff 7b bc 0f a3 59 be
       0.11871533 0.24615516 -0.015380856 -0.21253608
000020 75 ae 85 bd c8 87 5b 3e f7 32 b4 be e3 30 54 3e
       -0.06527416 0.21438515 -0.35195133 0.20721774
000030 f6 12 0d be de c4 04 3e 6a 01 b6 3d 5f b4 8e 3e
       -0.13776764 0.12965724 0.088869885 0.27871987
000040 49 1f 93 3d 7f 12 6e 3e 0f 02 1c be ed 9a 18 3e
       0.071837015 0.23249243 -0.1523516 0.1490285
000050 ed a5 32 3c 51 fe d4 bd 0f 16 3a 3e 69 b5 07 bf
       0.010903818 -0.104000695 0.18172477 -0.53011185
000060 46 6d 76 bc a0 6f 5d 3c 68 e8 9a bd 8b d2 95 3c
       -0.015040701 0.013515383 -0.07563859 0.018288871
000070 92 a5 77 3e 1e f4 fa bd f5 86 40 be 18 36 70 be
       0.24184254 -0.12253593 -0.18801482 -0.23458135
000080 55 a5 e7 3d d1 53 89 be de 41 16 be 8b ec 84 3e
       0.113108315 -0.2682176 -0.14673564 0.25961718
000090 fe 13 8d 3d ff 04 63 be 2c 39 c7 3e e0 2f de 3d
       0.06888579 -0.22169875 0.38910806 0.10848975
0000a0 d0 26 27 3b 79 fd da 3e 4a eb ef 3d 80 08 a1 be
       0.0025505312 0.4277151 0.117148 -0.31451797
0000b0 03 2e b3 be 09 94 b3 3e ec c5 3a 3e 7e 33 ae bd
       -0.34996042 0.3507388 0.18239564 -0.08505915
0000c0 9b eb 54 3e bc a8 97 be 4d 9d 16 3e be 4e f9 bd
       0.20793001 -0.29620922 0.14708443 -0.12173222
0000d0 e7 92 17 bd 23 ff 32 bd 3b 31 37 bd 8e 2c b4 3e
       -0.03700533 -0.04370035 -0.044724684 0.35190243
0000e0 37 6e a7 bd a2 61 0f 3e 27 69 5a 3e 19 3f 5f be
       -0.08175319 0.14002088 0.21329175 -0.21801414
0000f0 e3 0a 4d 3d fe 77 a6 3d ff 96 34 3e ce e0 9d bd
       0.05005921 0.081283554 0.17635725 -0.07708894
000100 f7 4a 7a be 58 a1 a8 3e 6e 76 90 bd 26 bf 84 be
       -0.2444266 0.32935596 -0.07053839 -0.25927085
000110 81 9b d4 3d 6d 83 ae 3c 0b 0c 90 be 87 07 f0 bd
       0.103812225 0.021302903 -0.28134188 -0.11720186
000120 17 84 37 bc dd 76 13 be ce 7e 80 3e 19 0d 89 bd
       -0.011200926 -0.14400811 0.25096744 -0.06691951
000130 c2 d8 b5 3e 8e 11 07 3d a3 ee 01 bd c8 77 06 be
       0.35516936 0.032975726 -0.031721722 -0.1313163
000140 86 fd 5f 3d 6e f8 36 3e 55 76 d5 bd c6 d5 ad bd
       0.05468514 0.17868206 -0.10422961 -0.0848804
000150 fd f6 33 be 08 5e 53 3e 4b 8c b3 be a3 0e 1d 3c
       -0.17574687 0.20641339 -0.35067973 0.009586009
000160 d1 83 a3 3c 8a 72 9e 3c f0 db 74 bd 33 1f ca 3d
       0.019960316 0.019341726 -0.05978006 0.09869232
000170 2a 52 0a 3d 36 5d 0f bd ad 95 94 bc e5 61 61 3e
       0.033769764 -0.035001002 -0.018137777 0.2201
000180 ae 90 a1 be 82 25 a0 3e 84 43 bb 3d 58 cd 46 be
       -0.31555694 0.31278616 0.09143737 -0.1941427
000190 2f b0 4d 3e a5 27 4d 3e bd 77 69 be 0c 3b 9c bd
       0.2008674 0.20034654 -0.22799583 -0.0762845
0001a0 ea 5d 26 be a0 87 23 3e 0d 5b 8f be 53 64 b6 3d
       -0.16246763 0.15969706 -0.27999154 0.08905854
0001b0 fe 7b 8f 3d 09 93 19 be b3 d1 00 be 76 cc 2d 3e
       0.070060715 -0.14997496 -0.12579994 0.16972527
0001c0 86 0b e7 bd 1a a2 aa 3c 02 6d 85 3e 6b 87 8e 3e
       -0.11281495 0.02082925 0.2605973 0.2783769
0001d0 ba e8 a1 bd d4 5b a9 3e 29 d7 db 3e 26 61 94 be
       -0.07905717 0.33077872 0.42937592 -0.28980368
0001e0 b4 f6 41 bd f7 48 43 bd ef 59 82 be 1c da bd bc
       -0.047354415 -0.047677007 -0.2545924 -0.023175292
0001f0 b2 d8 03 bd 23 24 62 be 1f a5 8a bd 9a 08 22 be
       -0.03218908 -0.22084098 -0.067697756 -0.15823594
000200 e5 4c f2 bd 25 a8 a5 bd bd d2 26 3e 10 73 b5 be
       -0.11831073 -0.08088712 0.16291328 -0.35439348
000210 c7 82 93 be 63 b0 34 3c fc d8 31 be c7 d2 21 be
       -0.28810713 0.011028382 -0.17367929 -0.15803061
000220 89 bc 81 be 2a 92 61 3f b2 87 90 3e 60 6b 17 3e
       -0.25339153 0.88113654 0.28228527 0.14787054
000230 0c 08 8b be 39 0c a5 bd 1a 34 33 be 6a b7 a5 3e
       -0.27154577 -0.08058972 -0.17500344 0.32366496
000240 a7 8b 8a 3e 07 0b ee bb 62 e7 02 3e a2 89 da bd
       0.2705967 -0.007264498 0.12783578 -0.106707826
000250 98 99 e6 bd ae b5 10 be 9f 72 80 3e 60 0e 36 3e
       -0.112597644 -0.14131805 0.2508745 0.17778921
000260 b6 80 c9 bd 61 9d a3 3e 0a 99 e4 3d 0f 98 29 3e
       -0.09839003 0.31956008 0.111620024 0.16561912
000270 4c a8 4c be bc 41 88 3e 87 3c 0e 3d 1c 06 8d be
       -0.19986075 0.2661265 0.034725692 -0.27543724
000280 4d 21 51 3b 74 23 17 be 5c af 0d be 7b ef 8c be
       0.0031910718 -0.14759618 -0.13836426 -0.2752646
000290 10 90 ac bd ad 8e bf be ce 6a 21 3e 89 01 5a 3e
       -0.08425915 -0.3741354 0.15763399 0.21289648
0002a0 2b 5b 70 be a5 0f ba 3e 0a b5 c1 bd 17 5f ea be
       -0.23472278 0.3634006 -0.094583586 -0.45775673
0002b0 4f b1 e0 bc a2 78 8c be 6a 3a 9e 3e b5 22 49 be
       -0.027428297 -0.27435786 0.3090394 -0.19642146
0002c0 c3 d0 af be a9 5c 49 be b2 d5 1b be 25 8e 78 bd
       -0.3433896 -0.19664253 -0.15218237 -0.060682435
0002d0 60 02 0f 3d 29 05 87 be c1 d3 13 be 0c 8c 87 be
       0.034914374 -0.26371124 -0.14436246 -0.26474035
0002e0 11 11 03 3e 5c 68 d1 be c4 c8 af be 26 57 a8 bd
       0.12799479 -0.40899932 -0.3433286 -0.08219747
0002f0 11 04 ea 3d 5f 94 bc bd d6 95 9a 3b 6b 48 df bd
       0.11426557 -0.09207987 0.004717569 -0.109024845
000300 72 3c 00 3e 9f 7e ba 3e 2c 09 10 3c 95 ec 0b bd
       0.12523058 0.3642473 0.008791249 -0.03416117
000310 10 c7 b7 bd 23 19 41 bd 3a fb 74 be cb c6 3e be
       -0.08973515 -0.047143113 -0.2392396 -0.18630521
000320 03 25 74 3e 1d 51 ac bd dc 22 1e be 6a be 07 3e
       0.23842244 -0.08413909 -0.15442985 0.13256231
000330 8f bb df 3d 86 d2 a2 bd 43 bc 99 bd 99 60 84 3e
       0.10924446 -0.079503104 -0.07506611 0.25854948
000340 44 26 92 3e 6a 41 97 3e e2 1c 12 3a 56 18 88 3e
       0.2854482 0.29542094 0.0005573762 0.26581067
000350 cd 70 24 be 68 0f 28 3e e1 55 10 3e ca d3 6c 3d
       -0.16058655 0.16412127 0.1409526 0.057819165
000360 ff 7f b1 3d 25 85 f1 bc f6 71 00 bd 43 1f 92 be
       0.086669914 -0.029482434 -0.03135868 -0.28539476
000370 b2 ac 6e 3d 25 00 50 be 49 0f ac 3d 3e ad 95 be
       0.058270164 -0.20312555 0.08401353 -0.29233736
000380 a1 2c e3 be d4 a5 53 be c5 26 db bd 54 e7 93 3b
       -0.44369987 -0.20668727 -0.10700754 0.0045136604
000390 31 57 19 be c5 b5 91 be c8 03 e4 3d c0 d3 91 3d
       -0.14974667 -0.28458992 0.11133534 0.07120466
0003a0 40 cc 50 be 77 ee e9 3c dd 4e 95 bd b1 e8 4f bd
       -0.20390415 0.028556092 -0.072904326 -0.05075902
0003b0 1c 68 07 3e c4 12 c7 3d 08 08 c1 3c 3a 23 9f bb
       0.13223308 0.09720376 0.0235634 -0.0048564943
0003c0 54 ae 71 be cb d8 39 bd 4e f6 b8 bd b3 49 59 be
       -0.23601657 -0.045372766 -0.09031354 -0.2121952
0003d0 b4 7c 42 3e 62 a1 12 3e 44 d9 58 be d2 16 05 3e
       0.18992883 0.14319375 -0.2117663 0.12996987
0003e0 d6 28 b5 bd 3c e4 29 bd b9 d6 91 be 37 6e 07 bd
       -0.088456795 -0.041477427 -0.28484133 -0.033064093
0003f0 63 ae eb 3d 5b 05 bc 3c 55 58 25 be 12 62 fa 3d
       0.11507871 0.022951772 -0.16146977 0.12225737

tcn.tcn.0.res_conv.bias f4 [16]
000000 55 b7 b6 3e 10 1b bd bd 8a 4f 66 be 69 d1 43 3d
       0.35686746 -0.092336774 -0.22491279 0.04780713
000010 7c 16 2c be ea c0 2d be 35 91 56 be be a6 13 be
       -0.16805452 -0.16968122 -0.2095383 -0.14419076
000020 3e f9 a3 bd 0d 48 04 3e d6 9d 95 bd 3d 16 3b 3e
       -0.080065235 0.1291811 -0.073054954 0.18270202
000030 c5 e1 29 bd 76 0d 96 be b1 b3 15 be af c4 40 3d
       -0.041475076 -0.29307145 -0.14619328 0.047062572

tcn.tcn.1.conv1.weight f4 [16, 16, 5]
000000 d7 6f c0 bd bb 44 6a be 9e 7d 90 be f7 42 a3 be
       -0.09396332 -0.22877781 -0.28220838 -0.31887028
000010 c0 32 0c bf 4b cf 6c 3e bd 7d c5 be b6 5c 29 be
       -0.5476494 0.23125951 -0.38572493 -0.16539273
000020 2c 75 f5 bd 62 f5 3e 3e a3 c0 b3 3d d1 e5 c0 3e
       -0.119852394 0.18648294 0.08776977 0.37675336
000030 be b9 0b be 8f e1 8f be 83 67 5e be de 0e 3e 3c
       -0.13645074 -0.28101775 -0.21719174 0.011600224
000040 d4 d0 1a be da 08 04 be a5 74 27 be 51 43 95 be
       -0.15118724 -0.12894002 -0.1635309 -0.2915292
000050 c2 5a 64 3c 26 83 d8 bd 99 41 4c 3e d0 c3 81 3e
       0.013937654 -0.105718896 0.19946899 0.25344706
000060 1e 3d 97 3e ab c9 9f 3d f6 e7 1c bc ed c9 6f 3e
       0.29538816 0.07802137 -0.009576788 0.23416872
000070 54 e0 e9 bc 7d b8 8b 3e c4 06 95 3e 45 fc ea bc
       -0.02854935 0.2728919 0.29106724 -0.028684745
000080 77 0b 51 3e da 58 aa 3e 2b 47 05 3f 0d 95 05 be
       0.2041453 0.33270913 0.5206172 -0.1304514
000090 de 00 4e be ab e3 df be f1 a7 ab be e2 1c 05 be
       -0.20117518 -0.43728384 -0.33526567 -0.12999299
0000a0 3d a6 a4 bd 13 8e 4c 3e 1e 11 81 3e 27 d0 d1 3d
       -0.0803952 0.19976072 0.25208372 0.1024478
0000b0 f5 07 03 3e 56 05 07 be 4c ed 5e bd 6a d0 d7 bb
       0.12796004 -0.13185629 -0.054425523 -0.006586124
0000c0 4f 55 fe bd 5f 86 b1 bd 18 34 e7 3d c1 6d 56 3e
       -0.12418615 -0.086682074 0.11289233 0.20940305
0000d0 2a 1b fb bd 52 54 8e be 3d a7 7c be 6f 65 60 3e
       -0.122610405 -0.27798706 -0.24673171 0.21913694
0000e0 48 af 8f bc f1 2f 94 be ea 8c ac 3d 9f 0c 02 bd
       -0.017539635 -0.28942826 0.08425315 -0.031750318
0000f0 05 12 18 3a 7a 09 10 3e 2b 21 dd 3c 51 d4 92 3d
       0.0005801025 0.14066115 0.026993355 0.071694024
000100 6c 89 2c 3e 6f c2 c2 3e 99 5b b4 be 41 53 65 be
       0.16849297 0.38038966 -0.35226133 -0.2239504
000110 16 db 35 be a4 3b 14 3a 76 c4 4c 3e 9e 7a f4 3d
       -0.17759356 0.0005654639 0.19996819 0.1193745
000120 d3 47 f7 3d 4e a0 1e 3d ce cb 89 bd c0 9f 03 3f
       0.12074246 0.038727097 -0.06728326 0.51415634
000130 db 96 68 3d 63 4d 98 3d 0f 00 6c 3e 7d f6 2c 3e
       0.056784492 0.07436635 0.23046897 0.16890903
000140 f0 23 80 be 98 23 6a be 92 c0 ee bd 4f ee 69 be
       -0.25027418 -0.2286514 -0.116578236 -0.22844814
000150 a6 04 3d be 21 c8 32 be 40 f2 30 3e 06 70 ed bd
       -0.18458804 -0.17459156 0.17279911 -0.115936324
000160 91 5c 6c 3d ed c2 95 be 2a 76 b9 be 7c 66 b8 bd
       0.057705466 -0.2925028 -0.36222965 -0.09003922
000170 68 b4 a2 be 6a 1d 5c be 9c dc 92 be 11 b7 f1 3d
       -0.31778264 -0.21495596 -0.28683937 0.11802495
000180 47 b2 fb bd 03 da b1 be 71 90 6a be e6 49 01 be
       -0.12289863 -0.34736642 -0.22906663 -0.12625846
000190 66 3c cd 3e a3 fd 84 3d ae d9 cb bd 45 f1 04 3e
       0.40085143 0.0649369 -0.099536285 0.12982662
0001a0 67 dc a3 3e 6a 32 0b 3e 26 dc 69 be a9 ff c8 be
       0.3200409 0.1359345 -0.22837886 -0.39257553
0001b0 fc 70 69 bd 5e 55 fc 3e 71 c7 9e 3d d4 d9 a8 3d
       -0.056992516 0.4928388 0.07752884 0.082446724
0001c0 99 19 93 3e e6 99 c3 3e a5 59 be 3e 77 a2 dc be
       0.28730467 0.38203353 0.37177768 -0.430927
0001d0 70 be 96 bd 51 6c 71 be d7 db f2 bd 49 b7 cd 3c
       -0.07360542 -0.23576476 -0.118583374 0.025111811
0001e0 af f7 1f be ba 88 d2 bb b0 62 a4 be 41 25 48 be
       -0.15621828 -0.0064249905 -0.32106543 -0.19545461
0001f0 05 fe 81 3e 19 1b 45 3d f2 58 14 bc a3 20 18 be
       0.25389114 0.048121545 -0.009054409 -0.148562
000200 6d d1 29 bd b4 a0 8b bd 0b af 4d be cc db 57 be
       -0.04145949 -0.06817761 -0.20086305 -0.2107994
000210 83 26 0d 3e 5e c8 a0 3b 5f fe 37 bd 49 17 14 3e
       0.13784222 0.004906698 -0.04492032 0.14462008
000220 5f 56 86 3e e2 e2 b5 3e b1 53 ca 3d ea 53 4b be
       0.2623777 0.3552466 0.09879244 -0.1985623
000230 9c ee b6 bd f6 60 b3 bd ab e1 9e 3e 84 0e b3 bd
       -0.0893223 -0.08758728 0.31031546 -0.08743003
000240 91 80 d2 3c ce a4 77 be 72 92 2d be d8 1e 58 be
       0.02569607 -0.24183962 -0.16950396 -0.21105516
000250 9d 60 22 be 00 6d 47 bd 1f e9 a5 bc 01 45 e3 3c
       -0.15857168 -0.048687935 -0.020252762 0.027742865
000260 86 5b 6d 3e 6e d3 e1 bd f3 df c9 3c a8 0b 50 3d
       0.23179445 -0.11026655 0.02464292 0.050792366
000270 1c 2f 1f 3e 5a 4c b4 3d ce 11 7e 3d ff d9 9f 3d
       0.15545315 0.088036254 0.0620287 0.07805251
000280 f6 d6 36 3e d9 db 3b 3e 76 63 94 3d 44 89 3d bd
       0.17855439 0.18345584 0.07245533 -0.046273485
000290 f7 e4 cc be 48 95 b1 bc 8c dc 3e be ac 76 47 3d
       -0.40018436 -0.021677628 -0.1863882 0.04869716
0002a0 73 d7 38 bd 0d 8c 14 3e 7d 32 37 bd 2b 7f 1b 3d
       -0.045127343 0.1450655 -0.044725884 0.037963074
0002b0 2f 72 26 3d 58 50 e9 bd cc 8f c6 bc 37 a2 3d be
       0.040636238 -0.113922775 -0.02423849 -0.18518911
0002c0 8d 29 cf bd b4 ff 39 be 8a 10 be 3d 82 a1 8d 3c
       -0.10115347 -0.18163949 0.09280498 0.017288927
0002d0 6b 17 85 3b 10 c2 a8 bd c7 2c 8e be db eb dc 3d
       0.0040616295 -0.082401395 -0.27768537 0.10787173
0002e0 b0 18 21 3e c4 14 0a be 25 19 ab bd 3b df 08 bd
       0.15732074 -0.13484484 -0.08354405 -0.033416014
0002f0 59 e2 31 3d fa e6 58 3e d1 1c c0 3e ba 06 1f 3d
       0.043428753 0.2118186 0.37521985 0.038824774
000300 fc 7d 97 3d cf ce 55 bd 74 f9 70 3b 8d da c8 bd
       0.073970765 -0.05219918 0.003676978 -0.0980731
000310 f2 25 ad 3d b7 5c ba 3d ef 55 17 3d 4f d7 7f bd
       0.08454503 0.09099715 0.036947187 -0.062461194
000320 ec c4 52 3d d3 0b dc bd 27 80 2b be 03 e9 88 3b
       0.05145733 -0.10744443 -0.16748105 0.004178168
000330 71 52 fd 3d 9a 5a f3 bd e6 02 08 3d 25 a9 7d be
       0.1236924 -0.11882515 0.03320589 -0.24771555
000340 8f e3 41 be 41 8f 8f 3e 01 57 a7 3e 65 c6 38 3e
       -0.18934463 0.28038982 0.32683566 0.18044432
000350 bd 51 bf 3c a1 64 53 bd 19 5c ac be a3 f3 8b 3e
       0.023354406 -0.05160964 -0.33664015 0.27334318
000360 82 f5 05 3e 08 ab 7b 3d 80 72 30 bd 96 61 1f be
       0.13081935 0.061442405 -0.043077946 -0.1556457
000370 d9 aa 4c 3e f0 60 cf bd fb 96 12 3e 41 6a 3f 3d
       0.19987048 -0.10125911 0.14315407 0.04673219
000380 5b e2 a1 bd 2d 60 0b 3d ac 6e 0a be 61 19 99 3d
       -0.07904502 0.034027267 -0.1351878 0.07475544
000390 7b 6c e2 bc b8 4b dd bd 15 6f 62 3e ec 69 bb 3b
       -0.027639618 -0.10805458 0.22112687 0.005719414
0003a0 e3 b2 ec 3d a1 dd 12 bd 12 48 15 be 3d 1d b3 3e
       0.115575574 -0.035855893 -0.14578274 0.34983245
0003b0 11 95 63 bd d1 fb c2 3d 5a 14 93 3d 9b 60 5c be
       -0.055562083 0.095206864 0.07181616 -0.21521227
0003c0 32 88 08 be 41 5c 83 be c7 a7 d1 3e bb 79 1e 3d
       -0.13333204 -0.25656322 0.40948316 0.03869031
0003d0 08 c2 ca be 53 f1 89 3d 04 a4 90 bc d8 4d f1 bd
       -0.3960116 0.06735482 -0.017656334 -0.11782426
0003e0 47 30 fe bd d9 18 ba bd 18 4a 55 be ac b2 9f 3e
       -0.12411552 -0.090867706 -0.20829046 0.31191003
0003f0 f7 42 56 3b 66 43 7f be 71 9d 10 bd ec 50 0d bd
       0.0032693723 -0.24928054 -0.035306398 -0.034501

tcn.tcn.1.conv1.bias f4 [16]
000000 97 b5 79 be 8d 0b 98 be 39 91 40 3d 81 b2 18 3e
       -0.24385677 -0.29696313 0.047013495 0.14911844
000010 04 f3 bc be f6 64 72 be 55 9d 0a 3d eb 56 9a 3d
       -0.36904156 -0.23671326 0.03384145 0.075361095
000020 7b 12 88 bd d6 82 0d be 9d ac 7b be 58 92 5d 3d
       -0.0664415 -0.13819441 -0.24577565 0.054094642
000030 62 16 89 be d3 2c 4a 3e 80 01 c4 bd dc 7c db 3d
       -0.2677489 0.19743662 -0.095705986 0.107171744
