checkpoints/fine_tune/var_rf/hainsworth/0.1/model_fallen-blaze-195_finetune_finetune_GTZ_GIA/latest.pt (torch, 422652 bytes, 211 tensors)

conv1.weight f4 [16, 1, 3, 3]
0	0x3ed0991a	0.40741807
1	0xbd4dc056	-0.050232254
2	0xbec578f9	-0.38568857
3	0x3efa394f	0.48871848
4	0xbde387a4	-0.11109856
5	0xbeddf6bd	-0.4335231
6	0x3e8071cd	0.25086823
7	0x3e2d852d	0.16945334
8	0xbec3a4a3	-0.38211545
9	0x3e861205	0.26185623
10	0xbf03d156	-0.51491296
11	0xbeec03f8	-0.46096778
12	0x3e92eba1	0.28695396
13	0xbe823eca	-0.2543853
14	0x3dc2d396	0.09513013
15	0x3e708af8	0.23490512
16	0x3e7aa61e	0.24477431
17	0x3dae4961	0.0851009
18	0xbe98f8f9	-0.2987745
19	0x3ed56e00	0.41685486
20	0x3e8cd2aa	0.27504474
21	0xbdf3c949	-0.119036265
22	0x3edd55b6	0.43229455
23	0x3e3f156d	0.18660517
24	0xbf1f8f7e	-0.62328327
25	0x3cd95b6f	0.026532857
26	0xbe9c8e0c	-0.30577123
27	0xbea7d543	-0.32779893
28	0xbda629cc	-0.08113441
29	0x3ee01001	0.4376221
30	0xbeb7ac3c	-0.35873592
31	0x3dfbdfad	0.12298522
32	0x3e80e063	0.25171193
33	0x3ee15569	0.44010475
34	0x3d950510	0.07276356
35	0xbf0ebdec	-0.5575855
36	0xbea533e6	-0.32266158
37	0xbe94c50c	-0.29056585
38	0xbe83f4e2	-0.25772768
39	0xbdf775d7	-0.12083023
40	0x3e72007f	0.23633002
41	0x3ea33b7f	0.3188133
42	0xbd1df8a9	-0.03856722
43	0xbd06f33e	-0.032946818
44	0xbe433b7e	-0.19065663
45	0xbdd1c5c1	-0.10242797
46	0x3dff4098	0.12463492
47	0x3c65c1ec	0.014023285
48	0xbf5c9040	-0.8615761
49	0x3ea811fb	0.32826218
50	0x3f0f4c9e	0.55976284
51	0xbe8fda1d	-0.28096095
52	0x3e9ed7fd	0.3102416
53	0xbc3a4036	-0.011367848
54	0x3ea9d901	0.33173373
55	0x3d030e79	0.031996224
56	0xbd78dbed	-0.060756613
57	0xbe1aded0	-0.15124059
58	0x3e218175	0.1577204
59	0xbec0447e	-0.37552255
60	0xbd491d5d	-0.04910027
61	0x3e3e96bd	0.1861219
62	0xbe365421	-0.1780553
63	0x3d60c55b	0.054875713
64	0x3dad16ff	0.08451652
65	0x3eaaf085	0.33386627
66	0xbf258891	-0.6466151
67	0xbea9c213	-0.3315588
68	0xbe887eaf	-0.26659152
69	0x3e37d2dc	0.1795153
70	0x3cc41e6d	0.02394029
71	0x3f22135c	0.6331079
72	0xbefc5420	-0.49282932
73	0x3c2ddaf2	0.010611283
74	0xbeacafcf	-0.3372788
75	0xbead6ca2	-0.33871943
76	0x3efb6a6c	0.4910463
77	0x3f007689	0.5018087
78	0xbe5de0a6	-0.21667728
79	0x3ec0c22a	0.37648135
80	0x3df6376a	0.12022288
81	0xbf3611b3	-0.71120757
82	0x3da4018a	0.08008106
83	0x3f1797d7	0.59216064
84	0xbcb57633	-0.022151088
85	0xbe430460	-0.19044638
86	0x3e94fd6d	0.290996
87	0xbebac491	-0.36478093
88	0x3cd80d4b	0.026373526
89	0x3ec2c332	0.38039547
90	0xbf0cf5f1	-0.55062777
91	0x3c8394b4	0.016062118
92	0x3ecb2832	0.39679104
93	0xbe8165a2	-0.25272852
94	0xbe3de7ea	-0.185455
95	0x3ed022cc	0.40651548
96	0x3de5f940	0.11229181
97	0xbd2b0fb1	-0.04176301
98	0x3d4b7251	0.049669567
99	0x3e6f00d5	0.23340161
100	0x3ee7c239	0.45265368
101	0xbdf10504	-0.11768535
102	0x3e708eeb	0.23492019
103	0x3eb6ed80	0.35728073
104	0xbe4aac35	-0.19792254
105	0x3ea40366	0.32033843
106	0x3ca06300	0.019578457
107	0xbe0443e5	-0.12916525
108	0x3e7dff74	0.24804479
109	0x3e602370	0.21888518
110	0x3da51baf	0.08061921
111	0xbe937b3b	-0.28804955
112	0xbeb0d5e2	-0.3453818
113	0xbf1239b3	-0.5711929
114	0x3eb6265d	0.35576144
115	0x3ecc434e	0.398951
116	0xbd7a0a34	-0.061044887
117	0x3e1b21c9	0.15149607
118	0xbe20fb22	-0.157208
119	0xbea0f21a	-0.3143471
120	0x3f10a5d9	0.56503063
121	0x3f0205f3	0.5079033
122	0x3eb11aaf	0.3459067
123	0xbf0b9ed3	-0.5453922
124	0xbd7a2b94	-0.061076716
125	0xbf2a4c5f	-0.66522783
126	0x3ee0e976	0.43928117
127	0x3e84e916	0.2595908
128	0xbd92105b	-0.07132026
129	0x3eddad6e	0.4329638
130	0xbe8d546a	-0.27603465
131	0x3bdb4022	0.006690995
132	0x3e35245c	0.17689651
133	0xbedcfd16	-0.4316184
134	0xbf0b553f	-0.5442695
135	0xbeb80f34	-0.359491
136	0xbe1e8aff	-0.1548271
137	0x3e9dc0b7	0.30811092
138	0xbdc88a98	-0.0979206
139	0x3e07b5c9	0.1325294
140	0x3f08a277	0.533729
141	0xbf121479	-0.5706249
142	0xbe82ee1c	-0.25572288
143	0x3f19178a	0.5980154

conv1.bias f4 [16]
0	0xbd401a7d	-0.04690026
1	0xbda16223	-0.07880046
2	0xbdfa0d49	-0.12209565
3	0xbd8762f4	-0.06610671
4	0xbdfc2b66	-0.12312965
5	0xbe0f6cc1	-0.1400633
6	0xb9f392bd	-0.000464579
7	0xbde3e9c9	-0.11128575
8	0xbdd64ae0	-0.104635
9	0xbcf725c6	-0.030169379
10	0xbd37e808	-0.044899017
11	0xbe37a5ba	-0.17934313
12	0xbda99fe2	-0.08282448
13	0xbe1fd220	-0.156075
14	0xbe0f17cd	-0.13973923
15	0xbdd1a9e2	-0.10237481

conv2.weight f4 [16, 16, 3, 3]
0	0xbed58712	-0.41704613
1	0x3d5fb5a4	0.054616585
2	0x3cbd8acd	0.023137474
3	0xbd529335	-0.05140992
4	0x3d9445c8	0.07239872
5	0x3d3a6ab5	0.04551192
6	0xbe104bdf	-0.14091443
7	0x3e310af9	0.17289342
8	0x3d873380	0.0660162
9	0xbe55828a	-0.20850578
10	0xbea4d121	-0.32190803
11	0xbec9e6db	-0.3943394
12	0x3c931de5	0.01795859
13	0x3e88f219	0.26747206
14	0x3e169acc	0.14707488
15	0x3c9e1e8f	0.01930168
16	0x3e79af05	0.24383171
17	0x3d8b274f	0.06794607
18	0x3e75e644	0.2401362
19	0xbe85b1ba	-0.26112157
20	0xbc86617e	-0.01640391
21	0x3f02c52e	0.5108212
22	0xbd043d0f	-0.032284793
23	0x3df7f080	0.121064186
24	0x3ed5664d	0.41679612
25	0xbe346e08	-0.17620099
26	0xbd9294eb	-0.0715731
27	0xbe5aa02e	-0.21350166
28	0x3e81979f	0.2531099
29	0x3f4253ff	0.7590942
30	0xbd4ac239	-0.04950163
31	0x3e0a5e2f	0.1351249
32	0x3ec619b3	0.38691482
33	0x3eadc130	0.33936453
34	0x3e6a5706	0.2288476
35	0x3eceeec8	0.4041655
36	0x3c0a413d	0.008438406
37	0xbd97f7d6	-0.07420318
38	0xbe9b5b1a	-0.30342942
39	0xbdabb6a3	-0.083844446
40	0xbe4c9972	-0.1998041
41	0xbea26e6a	-0.31724864
42	0x3cebdd30	0.028791994
43	0xbe2b5006	-0.16729745
44	0xbe28050e	-0.16408178
45	0x3f10f048	0.5661664
46	0x3e4c7723	0.19967322
47	0x3f849ec2	1.0360949
48	0x3e806471	0.2507663
49	0xbe251a1d	-0.16123243
50	0x3e6511a3	0.22370009
51	0x3ee8760b	0.4540256
52	0xbdc696cc	-0.09696731
53	0x3ece7d08	0.40329766
54	0x3dbc64b3	0.09198894
55	0xbd27c2c9	-0.040957246
56	0xbe18e4e9	-0.14931072
57	0x3d92f81b	0.071762286
58	0x3c4fe778	0.012689464
59	0xbe1b4782	-0.15163997
60	0x3d3ef8e7	0.04662409
61	0xbcada1f1	-0.021195384
62	0xbd37e2b7	-0.044893946
63	0x3e85acd2	0.26108414
64	0x3cc12f95	0.02358226
65	0xbe5b4050	-0.21411252
66	0x3dac1a65	0.08403472
67	0xbe805a31	-0.2506881
68	0xbed46ac1	-0.41487697
69	0x3bff2018	0.0077858083
70	0xbd63e907	-0.055642154
71	0xbe8de428	-0.27713132
72	0x3e90ba73	0.2826725
73	0xbe02a0e4	-0.12756687
74	0x3d54f8d2	0.051995106
75	0x3e7e0f6f	0.24810575
76	0xbe49407f	-0.1965351
77	0xbd623b89	-0.05523256
78	0x3dc7f656	0.09763782
79	0xbe72f395	-0.23725732
80	0xbe528ba5	-0.20561083
81	0x3e512a63	0.20426326
82	0x3e98ea43	0.29866228
83	0x3f00e5ab	0.50350446
84	0x3e898d23	0.2686549
85	0x3ea9095d	0.33014956
86	0x3edbfb36	0.42965096
87	0x3e9628f3	0.29328117
88	0x3d423f49	0.047423635
89	0x3e965882	0.293644
90	0x3e69ae25	0.22820337
91	0x3e1b0c41	0.15141393
92	0x3ef1a59e	0.47196668
93	0x3ca494a1	0.020090403
94	0xbe44706e	-0.19183514
95	0x3e0e76c3	0.13912492
96	0x3bc23905	0.0059272074
97	0xbe79f9e7	-0.24411736
98	0x3dc8e529	0.09809334
99	0xbe4f5801	-0.20248415
100	0xbe5070fb	-0.20355599
101	0xbe351201	-0.17682649
102	0xbe8daab0	-0.27669287
103	0xbe9f00ed	-0.31055394
104	0xbeb18c3a	-0.34677297
105	0xbd742202	-0.059602745
106	0xbbd10018	-0.006378185
107	0xbe2c8821	-0.16848804
108	0xbe35e4d2	-0.1776307
109	0xbdff1895	-0.124558605
110	0xbe947906	-0.28998584
111	0xbcaf18a4	-0.021374054
112	0xbc35548d	-0.011067522
113	0xbdcc55c7	-0.09977298
114	0xbdb0d797	-0.086348705
115	0xbb454a2d	-0.0030104027
116	0xbe14e52e	-0.1454055
117	0x3dba8e08	0.091091216
118	0xbe0e3535	-0.13887484
119	0xbec44597	-0.38334343
120	0x3e119dd4	0.14220363
121	0xbdf44621	-0.119274385
122	0xbe6425a6	-0.22279987
123	0x3da25cea	0.07927878
124	0xbc6d2d2b	-0.014476101
125	0xbe96e150	-0.29468775
126	0xbee84e15	-0.45372072
127	0xbe2d8f8b	-0.16949289
128	0xba9297a7	-0.0011184112
129	0xbe6fb864	-0.23410183
130	0x3df9f415	0.12204758
131	0x3eb450e7	0.35217974
132	0x3b227501	0.0024788978
133	0x3e83aa50	0.25715876
134	0x3c03a1d2	0.008034186
135	0x3eb98dcd	0.36240998
136	0x3e1c6568	0.15273058
137	0x3f0c5a56	0.5482534
138	0x3e13d438	0.14436424
139	0x3e020c4e	0.12700006
140	0x3e9aee7a	0.30260068
141	0x3dbe6e4e	0.09298383
142	0xbddcbd99	-0.107783504
143	0x3df59a85	0.11992363
144	0x3c9e9768	0.019359306
145	0xbd3d522b	-0.04622094
146	0xbc50857d	-0.012727139
147	0xbe00da65	-0.12583311
148	0x3d34232f	0.043978866
149	0xbcef5b97	-0.029218478
150	0xbe417906	-0.18893823
151	0xbd3eae6d	-0.046553064
152	0xbdf0144b	-0.117226206
153	0x3e5f4391	0.21803118
154	0xbe0b761b	-0.13619272
155	0x3e7605a9	0.24025597
156	0x3d3af517	0.045643892
157	0xbd2f9836	-0.04286977
158	0x3e304bb6	0.17216381
159	0x3da736f3	0.081647776
160	0xbe07f6d2	-0.13277748
161	0x3d582a8a	0.052774943
162	0xbe355d92	-0.17711475
163	0x3f0b7fad	0.5449169
164	0xbd46675e	-0.048438422
165	0xbed11f6a	-0.4084428
166	0x3e0b9cd3	0.13634042
167	0xbd7f9af9	-0.062403653
168	0xbee63893	-0.44965038
169	0x3e296c5f	0.16545247
170	0xbe408332	-0.18800047
171	0xbf08ab30	-0.5338621
172	0xbea4eb99	-0.32210997
173	0xbbdd883e	-0.006760626
174	0xbd96aee0	-0.073575735
175	0xbdfbbc44	-0.12291768
176	0x3dad4e72	0.08462228
177	0xbdbbc448	-0.09168297
178	0xbdfb095b	-0.12257644
179	0xbd8fb368	-0.07016641
180	0x3e4d4f7c	0.20049852
181	0x3e6a1180	0.22858238
182	0x3e5b50ea	0.21417585
183	0x3c21b908	0.009870775
184	0x3d7cd615	0.061727602
185	0xbd6246f3	-0.055243444
186	0xbd2a3dfb	-0.041563015
187	0xba8b598d	-0.0010631547
188	0xbdcfada5	-0.10140542
189	0xbea5dc57	-0.32394668
190	0x3e54dddd	0.20787759
191	0xbc9f1e36	-0.019423585
192	0xbec3b8db	-0.3822697
193	0x3cbdfd86	0.023192178
194	0xbdead02c	-0.11465487
195	0xbec1b547	-0.37833616
196	0x3e9092ea	0.28237087
197	0x3d1178e5	0.035515685
198	0xbdad533f	-0.084631436
199	0x3da4cfd3	0.08047452
200	0xbe35bea3	-0.17748503
201	0xbd21ab15	-0.039469797
202	0x3bd467b2	0.006482088
203	0xbc2c90e6	-0.010532593
204	0xbd37e300	-0.04489422
205	0x3d2db3ac	0.042407677
206	0x3cfa73c7	0.030572785
207	0x3e409ebb	0.18810551
208	0xbc00980f	-0.007848754
209	0xbe1b0f81	-0.15142633
210	0x3cd43824	0.025905676
211	0xbd06363d	-0.03276657
212	0xbd60d421	-0.054889802
213	0x3dd097a5	0.10185174
214	0x3d653959	0.055962894
215	0xbe53d563	-0.2068687
216	0xbf00e4cc	-0.50349116
217	0xbd6e8f71	-0.058242265
218	0xbeb9b678	-0.36272025
219	0xbe012dee	-0.12615177
220	0x3e57d570	0.21077514
221	0x3de9c5bb	0.11414667
222	0xbe647040	-0.22308445
223	0x3ee30267	0.4433777
224	0x3ea19ff8	0.3156736
225	0xbdb7902d	-0.08963046
226	0xbe51cdcb	-0.2048866
227	0xbcdce56c	-0.026964866
228	0xbe0571f5	-0.13031752
229	0xbe4aa077	-0.19787775
230	0x3d29f1ca	0.041490354
231	0xbddf7324	-0.10910633
232	0x3d51ac1b	0.051189523
233	0x3d4bcaab	0.049753826
234	0x3e2feca0	0.17180109
235	0xbe358dd5	-0.17729886
236	0x3def1ab2	0.116750136
237	0x3c15d42a	0.009144822
238	0xbd502b69	-0.05082265
239	0xbd8eebdb	-0.069785796
240	0x3d2116b8	0.039328307
241	0xbe11e1bd	-0.14246269
242	0x3d850c0a	0.06496437
243	0xbe9b36eb	-0.30315337
244	0xbda188d3	-0.07887425
245	0x3e46b983	0.19406705
246	0xbe240e67	-0.16021119
247	0xbdd6a634	-0.104809195
248	0x3de67f4f	0.11254751
249	0xbdf1a657	-0.11799305
250	0x3c9a3cea	0.018827874
251	0x3e4675e9	0.19380917
252	0xbb4baf1c	-0.0031079715
253	0xbddb316a	-0.10702784
254	0xbe7006cb	-0.23440091
255	0xbdb7a914	-0.08967796

conv2.bias f4 [16]
0	0xbb565f87	-0.0032710747
1	0xbe6e4611	-0.23268916
2	0xbdc75a97	-0.097340755
3	0xbd9800b5	-0.0742201
4	0xbe86a9b1	-0.2630134
5	0xbebfe1ad	-0.37476864
6	0xbeb70dd7	-0.35752746
7	0xbe15e1cb	-0.14636914
8	0xbe40f32b	-0.18842761
9	0xbead84a1	-0.3389025
10	0xbe899ded	-0.268783
11	0xbeba3bc0	-0.3637371
12	0xbdc87536	-0.09787981
13	0xbe7768e1	-0.24161102
14	0xbc2351e2	-0.009968253
15	0xbe2fad95	-0.1715606

conv3.weight f4 [16, 16, 8, 1]
0	0xbecc4bcc	-0.39901578
1	0xbdc1b1b4	-0.09457722
2	0xbd9fb139	-0.077974744
3	0xbdf1ea27	-0.11812239
4	0xbeaa24ce	-0.33231205
5	0xbf10a3ba	-0.56499827
6	0xbef26440	-0.4734211
7	0x3d05bdb9	0.032651637
8	0x3da6ee70	0.08150947
9	0x3e383281	0.17988016
10	0x3d8cd9df	0.06877493
11	0x3c4ca506	0.0124905165
12	0x3e726e7b	0.23674957
13	0x3ec431f7	0.3831937
14	0xbe1b70c9	-0.15179743
15	0xbec131d1	-0.3773332
16	0xbd0a65ad	-0.03378837
17	0x3e21d39c	0.15803379
18	0x3da301d1	0.07959331
19	0x3db6ca87	0.08925348
20	0x3dcc9f67	0.09991341
21	0xbe0579f6	-0.13034806
22	0xbf199a1a	-0.60000765
23	0xbe83201b	-0.25610432
24	0xbec4de47	-0.38450834
25	0x3e9248b3	0.2857109
26	0xbdca5bb7	-0.098807745
27	0xbef3f887	-0.4765055
28	0xbe4a8b33	-0.19779663
29	0xbea06b6b	-0.31331953
30	0x3e8ba01d	0.27270594
31	0x3e0ae124	0.13562447
32	0xbe96122c	-0.2931074
33	0xbd7a2f9e	-0.061080568
34	0xbca039d2	-0.01955882
35	0xbe228ead	-0.15874739
36	0x3d498009	0.04919437
37	0x3ddbf548	0.10740143
38	0xbd996463	-0.0748985
39	0x3d5099f3	0.050928067
40	0xbe91a773	-0.28448066
41	0x3e8250b6	0.25452203
42	0x3bd0186c	0.0063505676
43	0xbe17ab89	-0.14811529
44	0xbe1499e5	-0.14511831
45	0xbe3248e6	-0.17410621
46	0xbf3ecf76	-0.7453531
47	0xbdd56baa	-0.10420926
48	0xbea68d00	-0.3252945
49	0xbe4cc8f2	-0.1999853
50	0xbde1e811	-0.11030591
51	0xbd9a3c04	-0.07530978
52	0xbdc7b7c2	-0.09751846
53	0xbd1890de	-0.03724753
54	0x3dac1ad3	0.08403554
55	0xbe25e9e2	-0.162025
56	0xbdecc85b	-0.11561652
57	0x3d864762	0.06556584
58	0x3daeb54b	0.08530673
59	0x3daafb4b	0.083487116
60	0xbe0fe1ba	-0.14050952
61	0xbeca7238	-0.39540267
62	0x3e262726	0.16225871
63	0x3b4d6392	0.0031339866
64	0xbe2779ac	-0.16355008
65	0xbe184a40	-0.14872074
66	0x3dbd4814	0.092422634
67	0xbdd71af8	-0.10503191
68	0xbdfff4ae	-0.12497841
69	0xbed10fa0	-0.40832233
70	0x3ef29b4b	0.47384104
71	0x3c6ff4e2	0.014645787
72	0x3e241a5c	0.1602568
73	0xbefcca47	-0.49373075
74	0xbddd5d93	-0.108088635
75	0xbd1013f3	-0.035175275
76	0xbe5196c3	-0.20467667
77	0xbe5f230c	-0.21790713
78	0xbe4e1fe7	-0.20129357
79	0x3e209159	0.15680446
80	0x3df54d56	0.11977641
81	0x3da78b7c	0.081809014
82	0xbe00fdca	-0.12596813
83	0xbe5f6aa8	-0.2181803
84	0xbdb8ca55	-0.09022967
85	0xbd1b88a5	-0.03797211
86	0x3e062023	0.13098197
87	0xbe67c3b2	-0.22633246
88	0xbc1ff781	-0.009763599
89	0xbe8d924d	-0.2765068
90	0xbe0f42f0	-0.13990378
91	0x3e307293	0.17231207
92	0x3db7ca4f	0.08974134
93	0xbe9f1dd5	-0.31077448
94	0xbf814c17	-1.0101346
95	0xbcee6364	-0.029100128
96	0xbd198ebd	-0.03748964
97	0xbe844b04	-0.25838482
98	0xbe167d7e	-0.14696309
99	0xbd9fedf4	-0.07809058
100	0xbc76deff	-0.015067815
101	0xbecbf593	-0.39835796
102	0xbda75275	-0.08170024
103	0x3e13d2dc	0.14435905
104	0xbe22b9e6	-0.15891227
105	0xbcd6fc2f	-0.026243297
106	0x3e96d51d	0.29459468
107	0xbdc9c753	-0.09852471
108	0xbcfd8a5d	-0.030949766
109	0x3cf81f9f	0.030288516
110	0x3ed5439f	0.41653153
111	0xbef44385	-0.47707763
112	0xbe671d2b	-0.2256972
113	0x3eb10b74	0.3457905
114	0xbd28df41	-0.041228537
115	0xbe4aca8b	-0.19803827
116	0xbde8fc9e	-0.11376308
117	0x3e18fa5e	0.14939258
118	0x3d7dfe33	0.06201
119	0x3d5f6ea4	0.054548874
120	0xbf21cd19	-0.6320358
121	0xbca86724	-0.020556994
122	0x3e8c7240	0.27430916
123	0xbe3b3dca	-0.1828529
124	0xbda1499d	-0.07875369
125	0x3e09cfe1	0.13458206
126	0x3d224ee1	0.039626006
127	0xbe03542d	-0.1282508
128	0xbe709b45	-0.2349673
129	0xbdd2114b	-0.102572046
130	0xbdd45084	-0.1036692
131	0xbd824c9f	-0.063622706
132	0xbe89abcd	-0.26888886
133	0xbe92ee47	-0.28697416
134	0x3e3488ea	0.17630354
135	0xbcdc2518	-0.026873156
136	0x3a778f5c	0.00094436645
137	0x3d8ca297	0.06866949
138	0x3e440ecc	0.1914627
139	0x3de35cdc	0.11101696
140	0x3e1ebc25	0.15501459
141	0x3e38763b	0.18013851
142	0xbeff56c9	-0.498709
143	0xbe6c0e42	-0.23052314
144	0xbead4645	-0.33842674
145	0x3d80b02f	0.06283604
146	0x3de74824	0.112930566
147	0x3ea62805	0.32452407
148	0xbcb60a4c	-0.022221707
149	0x3defc889	0.11708171
150	0xbe07631c	-0.13221401
151	0xbe2bd230	-0.16779399
152	0x3dd95975	0.10612766
153	0xbd8d6ca2	-0.06905486
154	0xbee1dbba	-0.4411295
155	0xbe9e1314	-0.3087393
156	0xbe84d6c2	-0.25945097
157	0xbe9fc02f	-0.31201312
158	0xbdb3f048	-0.087860644
159	0xbf05e71c	-0.5230577
160	0xbdb561ae	-0.088565215
161	0xbe715670	-0.2356813
162	0xbe0b4497	-0.13600384
163	0xbe4891a1	-0.19586803
164	0xbe8e4da1	-0.277936
165	0xbd56ec65	-0.052471537
166	0xbead46d1	-0.3384309
167	0xbd80bbde	-0.06285833
168	0xbe94b4d2	-0.29044205
169	0xbe819e6e	-0.25316185
170	0xbe817996	-0.25288075
171	0xbe079d70	-0.13243651
172	0xbe1b0316	-0.15137896
173	0xbe2b5eb6	-0.16735348
174	0xbf03bf27	-0.5146355
175	0x3d2ca777	0.042151894
176	0xbe18d38f	-0.14924453
177	0xbe338c58	-0.17534006
178	0xbe6ffa60	-0.23435354
179	0xbcf6fc7c	-0.03014969
180	0x3dd57a75	0.104237475
181	0x3d275671	0.04085392
182	0x3e32cab0	0.17460132
183	0x3b50e7a1	0.0031876343
184	0x3d1222c0	0.03567767
185	0x3dd3ce9c	0.10342142
186	0x3b9949e7	0.0046779993
187	0x3e027e7b	0.12743561
188	0x39f00752	0.0004578182
189	0xbd71e098	-0.05905208
190	0xbe3ff3a7	-0.1874529
191	0x3e19cb18	0.1501888
192	0xbdccf472	-0.10007562
193	0xbe54b4e4	-0.2077213
194	0x3e00a59f	0.1256318
195	0x3d97cd29	0.07412178
196	0x3def919c	0.11697695
197	0x3d8fe97c	0.070269555
198	0x3f2b2c87	0.6686482
199	0xbe1a405f	-0.15063618
200	0xbe6386cc	-0.2221939
201	0xbc7d3259	-0.015453898
202	0xbdfbf010	-0.12301648
203	0xbeca247b	-0.39480957
204	0xbe93008c	-0.28711355
205	0x3d0fe65b	0.035131793
206	0xbe50f4c2	-0.20405868
207	0x3ea58682	0.32329184
208	0xbe9801a0	-0.2968874
209	0xbd7fcda5	-0.062451977
210	0xbe352c32	-0.1769264
211	0xbe18edf6	-0.14934525
212	0xbd917356	-0.07102077
213	0xbdcefed0	-0.101071954
214	0x3eac2541	0.33622172
215	0xbef28e2d	-0.47374097
216	0x3e3c8ca0	0.18413019
217	0x3de2f05f	0.110810034
218	0x3e20e702	0.15713122
219	0x3adacfde	0.0016694029
220	0x388111c2	6.154507e-05
221	0xbce43cc1	-0.027861001
222	0xbea8588d	-0.3288006
223	0xbdce1076	-0.100617334
224	0xbe861aa4	-0.261922
225	0xbf036950	-0.5133257
226	0xbdcab43b	-0.098976575
227	0xbda3179b	-0.07963487
228	0xbdc50564	-0.09620169
229	0xbddbb780	-0.10728359
230	0x3c6b1ba5	0.014349853
231	0x3cd3bd09	0.025846975
232	0xbe8e3084	-0.2777139
233	0x3d509abf	0.050928827
234	0x3dce3137	0.10067981
235	0xbba9bf9e	-0.0051803133
236	0x3e8c48fe	0.2739944
237	0xbe06d911	-0.13168742
238	0x3d48548b	0.04890875
239	0xbee79db4	-0.45237505
240	0xbe0a1243	-0.13483529
241	0xbe5604cc	-0.20900267
242	0xbea8c1e9	-0.32960442
243	0x3aeb00f8	0.0017929366
244	0x3d036fe0	0.032089114
245	0xbcc515ee	-0.024058308
246	0xbc1dfdde	-0.009643046
247	0x3e441aaf	0.19150804
248	0x3dc7cd22	0.09755923
249	0xbe85846a	-0.26077586
250	0xbe750a64	-0.23929745
251	0xbe6aef3f	-0.22942828
252	0xbdf3e18d	-0.11908255
253	0x3e211e0c	0.15734118
254	0x3e61b7aa	0.22042719
255	0x3ed807ac	0.42193353

conv3.bias f4 [16]
0	0xbd9707c7	-0.0737453
1	0x3dcf3f9d	0.10119555
2	0x3df4352c	0.11924204
3	0xbe595970	-0.21225524
4	0xbe728764	-0.2368446
5	0x3eb0ccfd	0.34531394
6	0x3e629efb	0.22130959
7	0xbcaa3d58	-0.020781204
8	0xbd78ad14	-0.060711935
9	0xbeaf6dfd	-0.34263602
10	0x3a1f0660	0.00060663186
11	0x3ecf8e6f	0.40538356
12	0xbec8d774	-0.39226878
13	0xbeaa7e76	-0.33299607
14	0x3ea4f652	0.32219177
15	0xbe803ecb	-0.25047907

tcn.tcn.0.conv1.weight f4 [16, 16, 5]
0	0x3eb2d96e	0.3493151
1	0x3e638c60	0.22221518
2	0x3e8d5fe1	0.27612212
3	0x3dd5defe	0.10442923
4	0xbdf7dc49	-0.12102563
5	0x3ee670e8	0.45008016
6	0x3e7443df	0.23854016
7	0x3e8abc76	0.2709691
8	0x3da6e88a	0.08149822
9	0xbea03a6b	-0.3129457
10	0x3e8b1d06	0.2717058
11	0x3db25102	0.08706857
12	0x3e372322	0.17884496
13	0xbdafa0de	-0.08575605
14	0x3e03bb95	0.12864526
15	0x3e034281	0.12818338
16	0x3e19e663	0.15029292
17	0xbc790c2d	-0.015200657
18	0xbe7a1aaf	-0.24424241
19	0xbe88a12e	-0.2668547
20	0x3d518b54	0.051158264
21	0x3dad3f28	0.08459312
22	0x3e57240a	0.21009842
23	0x3d68d7f7	0.056846585
24	0xbc4eb6ba	-0.012616808
25	0xba9dc9ac	-0.0012038252
26	0xbd4600dc	-0.048340663
27	0xbd898aa4	-0.06715897
28	0xbede1edd	-0.43382922
29	0xbecb773b	-0.39739403
30	0x3dc9cc04	0.09853366
31	0x3d14f18b	0.036363166
32	0xbe239908	-0.15976346
33	0xbeb3a9a6	-0.3509037
34	0xbecf403b	-0.4047869
35	0xbd381d91	-0.04495007
36	0xbe389f62	-0.1802955
37	0xbdcad83f	-0.09904527
38	0x3e2afe3e	0.16698548
39	0xbcaae568	-0.020861343
40	0x3e50fdf5	0.20409377
41	0x3e6d9b31	0.23203732
42	0x3cefdb65	0.02927942
43	0xbd840b13	-0.06447425
44	0xbd5d7776	-0.054069005
45	0xbf195400	-0.598938
46	0xbece202d	-0.40258923
47	0xbed8395e	-0.42231268
48	0xbf2db9bd	-0.6786154
49	0xbd360351	-0.044436757
50	0xbd2e33bf	-0.042529818
51	0x3e0cfcc8	0.13768303
52	0x3d28cc00	0.041210175
53	0xbe65a084	-0.22424513
54	0xbe52e0a1	-0.20593502
55	0xbd6dcfd1	-0.058059517
56	0xbeae93ff	-0.34097287
57	0xbe6456ce	-0.22298738
58	0xbeb2b1c4	-0.3490125
59	0xbee93fcc	-0.45556486
60	0x3d727abb	0.059199076
61	0x3c8a3c16	0.016874354
62	0x3d94712b	0.072481476
63	0xbd9d7a07	-0.076892905
64	0x3d314af3	0.043284368
65	0x3db7c813	0.08973708
66	0x3d908fcc	0.07058677
67	0xbe4bc64d	-0.19899864
68	0xbda9b101	-0.08285714
69	0x3e2f036b	0.17091148
70	0xbf2d4cd2	-0.67695343
71	0xbe6e50bb	-0.23272984
72	0xbe8b51df	-0.272109
73	0xbe7978f2	-0.24362543
74	0x3c7f5f31	0.01558666
75	0x3da3a5cc	0.079906076
76	0xbd487211	-0.048936907
77	0x3b84c7f1	0.004052155
78	0xbdabba48	-0.0838514
79	0x3e183b1e	0.14866301
80	0x3dd63d17	0.10460871
81	0x3e90866e	0.28227562
82	0x3b9ae825	0.004727381
83	0x3e148bcc	0.14506453
84	0x3df0c1be	0.117557034
85	0x3defe868	0.1171425
86	0x3e9a51e3	0.301406
87	0xbe079371	-0.13239838
88	0x3e1650b9	0.14679231
89	0x3e9b510b	0.30335268
90	0x3db7ceae	0.08974968
91	0x3ee7753e	0.45206636
92	0x3eaff31d	0.34365168
93	0x3ebdfc12	0.37106377
94	0x3eed9014	0.46398985
95	0xbdfbc359	-0.12293119
96	0xbe20067f	-0.15627478
97	0xbed99ed3	-0.42503986
98	0xbdcc3660	-0.09971309
99	0xbdefa350	-0.11701071
100	0xbeb523f4	-0.35378993
101	0xbe912c75	-0.2835423
102	0xbbd4ab30	-0.0064901337
103	0xbc242544	-0.01001865
104	0x3e26587a	0.16244689
105	0x3dc540ef	0.09631526
106	0x3e052056	0.13000616
107	0xbc611c0c	-0.013739597
108	0x3d847c2f	0.06468999
109	0x3dce004f	0.100586526
110	0xbebbe21c	-0.36695945
111	0xbea532a6	-0.32265204
112	0xbe765419	-0.24055518
113	0xbc5975ee	-0.013272746
114	0xbd635660	-0.055502295
115	0xbb6a8030	-0.0035781972
116	0x3d262d2b	0.04057042
117	0x3ccf9257	0.025338335
118	0x3e625da8	0.2210604
119	0x3e229cda	0.15880147
120	0xbd316f5c	-0.04331909
121	0x3dc10b5a	0.09425993
122	0xbd88c1a4	-0.06677559
123	0x3dff007c	0.12451264
124	0xbaf59382	-0.0018735977
125	0xbd7725a7	-0.060338642
126	0xbe00deb6	-0.12584957
127	0x3cb9d83a	0.022686113
128	0xbdd3f8f7	-0.10350221
129	0x3b0e8cfd	0.0021751516
130	0xbe5d1c6c	-0.21592873
131	0xbe699b89	-0.22813238
132	0xbe0b6635	-0.13613208
133	0x3bfb7e1e	0.0076749464
134	0xbc4cdb38	-0.012503438
135	0xbd9943ee	-0.0748366
136	0x3e526c1b	0.20549051
137	0x3e47034c	0.19434851
138	0x3e0dcb23	0.13847022
139	0x3e34cc4d	0.1765606
140	0xbdebae9b	-0.11507913
141	0xbe0bd963	-0.13657145
142	0xbd283dfd	-0.04107474
143	0xbde54731	-0.11195219
144	0x3d536d6b	0.05161802
145	0xbd7d5a13	-0.06185348
146	0xbc53b43b	-0.012921388
147	0xbe0081c0	-0.12549496
148	0x3ddfa26d	0.10919652
149	0x3e07cf67	0.13262711
150	0x3e43d33e	0.19123551
151	0xbd8a06df	-0.06739592
152	0x3d5a24e4	0.053257838
153	0xbd85837d	-0.0651922
154	0xbddd04cd	-0.10791931
155	0x3e664549	0.22487368
156	0x3dcc2f41	0.099699505
157	0xbe2bd39a	-0.16779938
158	0xbe7ea502	-0.24867633
159	0x3da5fcdd	0.081048705
160	0xbe4fc977	-0.20291696
161	0xbdcf1964	-0.10112265
162	0xbe99edcc	-0.30064237
163	0xbe3da04a	-0.18518177
164	0xbd6d0963	-0.05787028
165	0x3e321aa4	0.17392975
166	0xbd03e14a	-0.032197274
167	0xbdcbb2db	-0.09946223
168	0xbe425339	-0.1897706
169	0x3b4e0743	0.0031437434
170	0x3df9633f	0.12177133
171	0xbda72a81	-0.08162404
172	0x3d05e52a	0.03268925
173	0x3df176a3	0.11790206
174	0xbcfbad72	-0.030722354
175	0x3e1d9a62	0.15390924
176	0x3db26738	0.08711094
177	0xbe73d34e	-0.23811075
178	0xbe86d838	-0.26336837
179	0xbe850677	-0.25981495
180	0x3dd7e7ae	0.10542236
181	0xbe2517fd	-0.16122432
182	0xbd320b4f	-0.043467816
183	0x3c49ea1d	0.012323883
184	0xbd981adb	-0.07426997
185	0xbd98e096	-0.07464711
186	0x3d50e968	0.051003844
187	0xbe71c03c	-0.23608488
188	0xbdf0c1f7	-0.11755746
189	0x3cf35e76	0.029708128
190	0x3cef23a3	0.029191798
191	0xbd77a462	-0.060459502
192	0xbe599f20	-0.21252108
193	0xbe13052e	-0.14357445
194	0x3d62739f	0.055286046
195	0xbd2879ac	-0.04113166
196	0xbdc28201	-0.094974525
197	0x3e2036ef	0.15645956
198	0x3eb5168b	0.3536876
199	0x3dee34a7	0.116311364
200	0x3e6ca7bd	0.23110862
201	0x3d051d66	0.03249874
202	0xbc1e8a3b	-0.009676511
203	0xbe646574	-0.22304326
204	0xbe61ee2f	-0.22063516
205	0xbe7580cc	-0.23974913
206	0xbe7a8762	-0.24465707
207	0xbd8bcdae	-0.0682634
208	0x3e695745	0.22787197
209	0xbdec1ede	-0.11529325
210	0x3c52e754	0.012872536
211	0xbdb90579	-0.09034247
212	0xbdd866ce	-0.105664834
213	0x3d334fd8	0.043777317
214	0xbd7976dc	-0.06090437
215	0xbe8a12d9	-0.26967505
216	0x3cfdc5e2	0.030978147
217	0x3e1c3168	0.15253222
218	0x3e138794	0.14407188
219	0xbdd7e381	-0.1054144
220	0xbdb8e997	-0.09028929
221	0xbe665ca1	-0.22496273
222	0xbdbb26a7	-0.09138232
223	0xbc095b94	-0.00838365
224	0xbe7d01ff	-0.24707793
225	0xbe265407	-0.16242991
226	0xbe08eb89	-0.133711
227	0x3bab33ba	0.005224672
228	0x3c302283	0.010750416
229	0xbe60a0ea	-0.21936384
230	0xbe5fe542	-0.21864799
231	0xbe20edbc	-0.15715688
232	0xbe00b1a5	-0.12567766
233	0xbd9b0563	-0.07569387
234	0xbdadb97e	-0.084826455
235	0x3e39c175	0.18140204
236	0xbe008716	-0.12551531
237	0xbdf00f67	-0.11721688
238	0xbe9f777b	-0.31145844
239	0xbf169144	-0.5881541
240	0xbd3b1f2d	-0.04568403
241	0xbdcd9e1f	-0.10039925
242	0xbd91406b	-0.07092365
243	0x3e83d040	0.2574482
244	0x3ea65c5f	0.3249235
245	0xbeba3f19	-0.36376265
246	0xbd48ef29	-0.049056206
247	0xbd99ebf6	-0.07515709
248	0xbd571e35	-0.052519042
249	0xbe61d047	-0.22052108
250	0x3e9eec43	0.31039628
251	0x3f44c8b3	0.7686874
252	0x3f08a25a	0.5337273
253	0x3e9c66fe	0.30547327
254	0x3eb34d69	0.35019997
255	0x3d6d85ba	0.05798886

tcn.tcn.0.conv1.bias f4 [16]
0	0xbe17b27e	-0.14814183
1	0xbdf11289	-0.117711134
2	0x3e719274	0.23591024
3	0x3c75eb09	0.01500965
4	0xbf1a94bb	-0.60383195
5	0xbe865edc	-0.26244247
6	0xbd02a9a4	-0.031900063
7	0xbe5a3319	-0.21308555
8	0xbe2f1450	-0.17097592
9	0xbd1700e4	-0.036866084
10	0xbe848171	-0.25880006
11	0xbe95f0b5	-0.29285207
12	0x3ef5e28c	0.48024404
13	0xbcc1bad6	-0.02364866
14	0xbe84e0a2	-0.2595263
15	0x3d6f92b3	0.058489513

tcn.tcn.0.conv2.weight f4 [16, 16, 1]
0	0x3df71849	0.12065179
1	0xbd95fa94	-0.073231846
2	0x3e1f1254	0.15534335
3	0x3da704f0	0.08155239
4	0x3c5957c8	0.013265558
5	0xbddd50d9	-0.10806436
6	0x3d9c1282	0.076207176
7	0x3e5eae70	0.2174623
8	0xbda3fead	-0.0800756
9	0xbe21baaa	-0.15793863
10	0xbe815f9a	-0.2526825
11	0xbe3095ce	-0.17244646
12	0x3ec7db2f	0.3903441
13	0xbdb675f9	-0.0890922
14	0xbdf530cb	-0.11972197
15	0x3ec62708	0.38701653
16	0xbe50f084	-0.2040425
17	0x3e605240	0.21906376
18	0x3d2688a9	0.040657673
19	0x3e09fa6b	0.13474433
20	0x3daf1645	0.085491695
21	0x3e6d9af4	0.23203641
22	0x3e8b0f90	0.2716031
23	0xbd10acca	-0.035321034
24	0xbeb6829e	-0.35646528
25	0x3d84ec44	0.064903766
26	0xbdce1f43	-0.100645564
27	0x3c91acc7	0.017782582
28	0xbc1ab70d	-0.009443057
29	0x3db5efd9	0.08883638
30	0xbddea234	-0.108707815
31	0x3e669bbc	0.22520345
32	0xbd0516e6	-0.03249254
33	0x3deae4f7	0.11469453
34	0xbdc73fdd	-0.09728978
35	0x3e2cb0dc	0.16864341
36	0x3ce996f0	0.028514355
37	0xbd051687	-0.032492187
38	0xbcf0d23f	-0.029397128
39	0x3d4b509c	0.049637422
40	0x3e425bb6	0.18980297
41	0x3ea9e98a	0.3318599
42	0x3ead2524	0.338174
43	0x3d2441ad	0.040101696
44	0xbe987bde	-0.29782003
45	0x3e3bce1c	0.18340343
46	0x3d271ed2	0.040800877
47	0xbd235cc6	-0.039883398
48	0x3db9b5dd	0.09067891
49	0x3cdb0f0a	0.02674057
50	0xbe60e248	-0.2196132
51	0x3cc5929f	0.024117766
52	0xbe475e40	-0.19469547
53	0x3e321a73	0.17392902
54	0x3e407d30	0.18797755
55	0x3d9f2fdb	0.077727996
56	0xbed8c87a	-0.4234045
57	0xbe8fb389	-0.28066662
58	0xbe2a14a1	-0.16609432
59	0xbe297706	-0.1654931
60	0x3e833775	0.25628248
61	0x3d7087fc	0.058723435
62	0x3e3e62f0	0.18592429
63	0x3e39c878	0.18142879
64	0x3decf3b8	0.11569923
65	0x3e77306b	0.24139564
66	0xbe221566	-0.15828475
67	0x3cc53583	0.024073368
68	0x3d86975a	0.06571837
69	0xbcae77a8	-0.02129729
70	0x3dfd50d8	0.12368935
71	0xbecfd6b0	-0.4059348
72	0xbd8471f6	-0.06467049
73	0xbe98d182	-0.29847342
74	0xbceeac2d	-0.029134834
75	0xbdd76533	-0.10517349
76	0x3c3ae409	0.011406907
77	0x3de17a21	0.11009622
78	0x3d7a7499	0.061146352
79	0x3e3d2dfc	0.18474573
80	0x3d2d1cbc	0.04226373
81	0x3e2e48e9	0.1702
82	0xbb97d871	-0.004633956
83	0x3dc7fb4d	0.09764729
84	0xbe7d7ee3	-0.24755435
85	0xbd9a61a8	-0.07538158
86	0xbdbed0d6	-0.09317176
87	0xbe522ac1	-0.20524122
88	0x3e3d4c34	0.184861
89	0xbd89aa88	-0.067219794
90	0xbe0f300e	-0.13983175
91	0xbf39e7e1	-0.72619444
92	0xbcc7f6af	-0.02440962
93	0x3d4ee255	0.050508816
94	0x3e2974ed	0.1654851
95	0xbd985b00	-0.07439232
96	0xbdcfff71	-0.101561435
97	0xbdead21f	-0.11465859
98	0xbe1e30ca	-0.15448299
99	0xbe757041	-0.23968603
100	0xbd87035e	-0.06592439
101	0x3e2a8529	0.16652359
102	0xbe9b53b1	-0.3033729
103	0x3b53fae6	0.0032345592
104	0xbeb1cad6	-0.34725064
105	0x3ecb69fd	0.397293
106	0xbe6fc14f	-0.23413585
107	0xbeb3584c	-0.35028303
108	0x3d4e7028	0.05039993
109	0xbecc65c2	-0.39921385
110	0xbdbecf03	-0.09316828
111	0xbcf28ff7	-0.029609663
112	0xbe5255d9	-0.20540561
113	0xbc85702c	-0.01628884
114	0xbd03ac46	-0.032146715
115	0x3e8e0e1f	0.2774515
116	0xbe009034	-0.12555009
117	0x3e86eeb6	0.26353997
118	0x3d77dda3	0.060514104
119	0x3e130cf5	0.14360411
120	0x3eb6fca7	0.35739633
121	0x3e82c16c	0.25538194
122	0xbda9ecca	-0.08297117
123	0xbd811e66	-0.06304626
124	0x3e6ed04f	0.23321651
125	0x3e573bdb	0.21018927
126	0xbe92c958	-0.28669238
127	0xbe92e114	-0.28687346
128	0xbd99cdd2	-0.0750996
129	0xbdc19952	-0.09453072
130	0x3e228c06	0.15873727
131	0x3d7acb92	0.061229296
132	0x3c6c3aae	0.014418287
133	0x3e23c95b	0.1599478
134	0xbd84c901	-0.06483651
135	0x3e264982	0.16238979
136	0xbec47484	-0.38370144
137	0x3edbd1a8	0.42933393
138	0xba2c5b72	-0.0006574906
139	0xbe8c257d	-0.2737235
140	0x3bd96793	0.0066346615
141	0x3e177ecd	0.14794464
142	0xbe6f8ac1	-0.23392774
143	0x3e0ec0bb	0.13940708
144	0xbd43b03a	-0.047775485
145	0x3c897856	0.016781013
146	0xbd8d43ae	-0.068976745
147	0x3d4f42fe	0.050600998
148	0x3d9ed331	0.07755125
149	0x3e69a396	0.2281631
150	0x3e3627c7	0.17788611
151	0xbdda9911	-0.10673726
152	0xbdffe567	-0.12494927
153	0xbdee156f	-0.11625182
154	0xbdad07d7	-0.08448761
155	0x3caed91f	0.021343766
156	0xbebad579	-0.36490992
157	0xba8f01e6	-0.00109106
158	0xbe908faa	-0.28234607
159	0x3e403442	0.18769935
160	0xbdfa88e8	-0.12233144
161	0xbd7b0c8e	-0.06129127
162	0xbdc0492e	-0.09388958
163	0xbe67d1dd	-0.2263865
164	0xbb158130	-0.0022812597
165	0xbcf765f6	-0.030199986
166	0x3e374d34	0.17900544
167	0x3e04ee3f	0.12981509
168	0x3c425617	0.011861346
169	0x3ee36e66	0.44420165
170	0xbe606b03	-0.21915822
171	0x3ec75dd0	0.3893876
172	0x3de7f054	0.11325136
173	0x3c97881e	0.018497523
174	0x3e0fd8c1	0.14047529
175	0xbe3bb84d	-0.18332024
176	0x3b10fa6b	0.0022121917
177	0xbcbcb788	-0.023036733
178	0xbd1c47ef	-0.03815454
179	0x3e8be76c	0.27324998
180	0xbe9152f4	-0.283836
181	0xbe9c5df4	-0.3054043
182	0x3d2a29f6	0.041543923
183	0x3e4dbd04	0.20091635
184	0xbe03538d	-0.12824841
185	0x3ef918c1	0.48651698
186	0xbdacca81	-0.08437062
187	0x3e41093b	0.18851177
188	0x3e8f3664	0.27971184
189	0x3d976287	0.073918395
190	0x3ed61977	0.41816303
191	0x3eb738a3	0.35785398
192	0xbd671a65	-0.056421656
193	0xbe3c197f	-0.18369101
194	0x3dd665d2	0.104686394
195	0xbde62f70	-0.11239517
196	0xbdaebcf0	-0.08532131
197	0x3d712852	0.058876343
198	0xbe214635	-0.15749438
199	0x3e5e426e	0.21705028
200	0xbeb0946a	-0.3448823
201	0x3e3a59c9	0.18198313
202	0x3d17bae8	0.037043482
203	0x3e6cb5e9	0.23116268
204	0x3e3fa163	0.18713908
205	0xbe15ff43	-0.14648156
206	0x3c89f394	0.01683978
207	0xbe1e0317	-0.15430866
208	0x3de832c2	0.11337806
209	0x3e1213bf	0.14265345
210	0x3e2afa50	0.16697049
211	0xbd0d696a	-0.03452436
212	0x3bd3614c	0.0064508077
213	0xbe2ad41e	-0.16682479
214	0xbc3f6d0d	-0.011683715
215	0x3eb0da29	0.34541443
216	0x3d431b78	0.047633618
217	0x3e279223	0.1636434
218	0xbe71ffb1	-0.23632695
219	0x3c3c765f	0.011502831
220	0x3e0fdfe8	0.14050257
221	0x3e389659	0.18026103
222	0xbdc2c05a	-0.095093444
223	0x3e60bf34	0.21947938
224	0xbc8ca572	-0.017168734
225	0x390ebd3e	0.00013612674
226	0xbdfe50b1	-0.124177344
227	0xbe985a46	-0.29756373
228	0xbc818aff	-0.015813349
229	0x3d97c52b	0.07410654
230	0xbe30ac02	-0.17253116
231	0x3e91b2ac	0.28456628
232	0x3ddbcb33	0.107321166
233	0x3f0bb9fa	0.5458065
234	0xbe04a871	-0.1295488
235	0x3db58f3c	0.088652104
236	0xbdca0271	-0.09863747
237	0xbdd14799	-0.10218734
238	0xbe5c1fde	-0.21496531
239	0x3d471f6a	0.048613943
240	0x3cac6d10	0.021048099
241	0xbda8d260	-0.08243251
242	0xbda81255	-0.082066216
243	0xbdf5435d	-0.11975739
244	0x3e14540b	0.14485185
245	0x3d1f1ac4	0.038843885
246	0xbdb1f7ce	-0.08689843
247	0xbd9d7943	-0.076891445
248	0x3e5b41b0	0.21411777
249	0x3f2df6ab	0.6795451
250	0xbe51a930	-0.20474696
251	0xbe129d0b	-0.1431772
252	0x3e34c996	0.17655024
253	0x3e3f1633	0.18660812
254	0xbe1ce224	-0.15320641
255	0x3e2153ee	0.15754673

tcn.tcn.0.conv2.bias f4 [16]
0	0x3eac9e43	0.33714494
1	0x3d91a7c7	0.07112079
2	0x3db9485b	0.09047004
3	0x3e140b86	0.14457521
4	0x3e26dc54	0.16294986
5	0xbdfbabe9	-0.12288649
6	0xbea4ef2b	-0.3221372
7	0xbc7dbacb	-0.015486429
8	0xbe88be71	-0.26707795
9	0xbdff9130	-0.12478864
10	0x3e1f0bfb	0.15531914
11	0x3e333153	0.17499284
12	0x3e879273	0.2647892
13	0x3de32d50	0.11092627
14	0xbc9d5704	-0.019206531
15	0xbb97be76	-0.004630859

tcn.tcn.0.res_conv.weight f4 [16, 16, 1]
0	0x3e1ce12c	0.15320271
1	0xbe07dd21	-0.13267948
2	0x3eb56b7c	0.35433567
3	0xbd64de59	-0.05587611
4	0x3ecd98b9	0.4015558
5	0x3e06cb6e	0.1316354
6	0xbd8d2903	-0.06892588
7	0xbe5690a7	-0.20953618
8	0xbdc65d28	-0.09685737
9	0x3e20adcf	0.15691303
10	0xbea84c34	-0.32870638
11	0x3e2db753	0.16964464
12	0xbe6ba09b	-0.23010485
13	0x3db8e7e3	0.09028604
14	0x3e589f73	0.21154575
15	0x3e889d16	0.26682347
16	0x3e25f6dc	0.1620745
17	0x3dba4167	0.09094506
18	0xbe82ce1b	-0.2554787
19	0x3e3d7e93	0.18505315
20	0xbd062d77	-0.032758202
21	0xbcd6e965	-0.026234338
22	0x3e844add	0.25838366
23	0xbf20806c	-0.62695956
24	0xbe53dfbd	-0.20690818
25	0x3d95eaf4	0.073202044
26	0xbe3a9e8d	-0.18224545
27	0xbe0ab4ca	-0.13545528
28	0x3ec385ad	0.38187924
29	0x3e061e82	0.13097575
30	0xbd22819d	-0.03967439
31	0xbdd31dcf	-0.1030842
32	0x3e76088c	0.24026698
33	0xbe0b13df	-0.13581799
34	0xbe687791	-0.22701861
35	0x3e9401a2	0.28907496
36	0xbd8f3b90	-0.069937825
37	0xbd8d30b6	-0.068940565
38	0x3f01414b	0.50490254
39	0xbd2b9164	-0.041886702
40	0x3dd3c7ea	0.10340865
41	0x3eef3d9b	0.4672669
42	0x3d8217c2	0.06352188
43	0xbeacd715	-0.33757845
44	0xbec04976	-0.37556046
45	0x3eb362b3	0.3503624
46	0x3e3eda05	0.18637855
47	0xbb5cca29	-0.0033689833
48	0x3e0fdede	0.14049861
49	0xbe3e624b	-0.18592183
50	0x3e928dc1	0.28623775
51	0xbe377187	-0.17914401
52	0xbc7bc012	-0.015365617
53	0xbdab3dd2	-0.08361401
54	0xbe108852	-0.14114502
55	0x3ed4f3ba	0.415922
56	0xbe1170f0	-0.14203238
57	0x3e4cde10	0.20006585
58	0x3ea0eb55	0.31429544
59	0xbe4bbdc0	-0.19896603
60	0x3b92dcc8	0.0044818856
61	0xbd9af52b	-0.07566293
62	0x3e3c1d1e	0.18370482
63	0xbd8a880b	-0.067642294
64	0xbec70ad9	-0.38875464
65	0x3eb97fac	0.36230218
66	0x3cb3c074	0.021942355
67	0xbe28cb90	-0.16483903
68	0x3e0bc6a5	0.13649996
69	0x3d1a8c92	0.037731715
70	0xbe4f1148	-0.20221436
71	0x3c393c88	0.011305936
72	0x3ccd9e51	0.025099905
73	0xbcf32341	-0.029679896
74	0x3e22d24a	0.15900531
75	0x3dc2dabc	0.095143765
76	0x3ed04289	0.40675762
77	0xbab96a74	-0.0014146105
78	0xbd81acc0	-0.063317776
79	0xbe01f498	-0.12690961
80	0x3cd88716	0.026431601
81	0x3b4b4724	0.0031017745
82	0x3a1189a1	0.00055518193
83	0xbe339eb7	-0.17541014
84	0x3d280c67	0.041027453
85	0xbc80fa85	-0.015744457
86	0xbeb61a1f	-0.35566804
87	0x3dc90334	0.09815064
88	0xbd52ea14	-0.051492766
89	0xbe5a47f5	-0.21316512
90	0xbd6ca3a2	-0.05777324
91	0xbc052691	-0.008126871
92	0xbd9a43d8	-0.075324714
93	0x3df2814a	0.11841066
94	0xbe1bb747	-0.15206634
95	0x3dbf369f	0.0933659
96	0xbe532679	-0.20620145
97	0x3c241a69	0.010016062
98	0x3d85900e	0.06521617
99	0xbd8535ea	-0.06504424
100	0x3ee8cd83	0.45469293
101	0x3cc61431	0.02417955
102	0xbe8652ca	-0.26235038
103	0xbea7add0	-0.32749796
104	0xbe524f3b	-0.20538037
105	0x3d7f2ff2	0.062301584
106	0xbedd6901	-0.43244174
107	0x3baabc53	0.0052104383
108	0x3cb09bd3	0.021558678
109	0xbd578e04	-0.05262567
110	0xbd91d32c	-0.07120356
111	0x3e0d3413	0.13789396
112	0xbe4d2d4c	-0.2003681
113	0xbdbca61f	-0.092113726
114	0x3e520498	0.20509565
115	0x3e01ed47	0.1268817
116	0x3e0b6fed	0.13616915
117	0x3e62f362	0.22163156
118	0x3edb4616	0.4282691
119	0xbe845a42	-0.2585011
120	0xbdae9817	-0.085251026
121	0xbe32ca6d	-0.17460032
122	0xbe2e8ea2	-0.17046598
123	0x3c8fd834	0.017559148
124	0x3d7e0750	0.062018692
125	0xbe6007c1	-0.21877958
126	0xbde0c7f1	-0.10975636
127	0xbe435eea	-0.19079176
128	0xbe450b18	-0.19242513
129	0xbe5ca724	-0.21548134
130	0x3e813a8e	0.25239986
131	0xbe5054d2	-0.20344856
132	0xbebb9bf2	-0.36642414
133	0x3d5640e1	0.052307967
134	0xbe95e1bd	-0.29273787
135	0xbe1b9441	-0.15193273
136	0xbf0a56a7	-0.5403847
137	0x3f81aa94	1.0130181
138	0x3ed06c44	0.407076
139	0x3e9832a5	0.2972614
140	0xbe65a333	-0.22425537
141	0xbe7f30f6	-0.24921021
142	0xbe947fe4	-0.29003823
143	0x3dc75793	0.097335
144	0x3e6484e9	0.22316326
145	0x3daf294f	0.08552801
146	0x3de5d482	0.11222173
147	0xbe11fa55	-0.1425565
148	0xbdc22277	-0.0947923
149	0xbd054df1	-0.032545034
150	0x3e96896b	0.29401717
151	0x3dc0f178	0.094210565
152	0xbdd5e27e	-0.104435906
153	0x3ee328f5	0.44367185
154	0x3d1c0542	0.03809095
155	0x3eb35e02	0.3503266
156	0xbe29f28c	-0.1659643
157	0x3e17fac4	0.14841753
158	0x3e42836a	0.18995443
159	0xbe55ad8c	-0.20866984
160	0x3e165e66	0.14684448
161	0xbe00645a	-0.12538281
162	0xbadd7086	-0.0016894497
163	0xbe29d000	-0.16583252
164	0xbcfebad5	-0.031094948
165	0xbe8d9800	-0.2765503
166	0x3e084058	0.13305795
167	0x3e76515d	0.24054475
168	0xbe97159c	-0.29508674
169	0x3ec903b4	0.39260638
170	0x3e024d1d	0.12724729
171	0xbddfe10d	-0.10931597
172	0xbd9bcb6e	-0.076071605
173	0xbe847aab	-0.25874838
174	0x3e85d9f4	0.26142848
175	0xbe4adc87	-0.19810687
176	0xbe65f602	-0.22457126
177	0x3cce7ef1	0.025207015
178	0xbd795ad0	-0.06087762
179	0x3d621b5d	0.055201877
180	0xbd86d0d4	-0.065827996
181	0xbe5e5a65	-0.2171417
182	0xbe50b3be	-0.20381066
183	0xbe7efd16	-0.24901232
184	0x3e661a6f	0.22471021
185	0xbec722d8	-0.3889377
186	0xbeedd089	-0.46448162
187	0xbe58f626	-0.21187648
188	0x3d107f2a	0.035277523
189	0xbe8a7086	-0.27038974
190	0xbd568d48	-0.05238083
191	0xbe00c306	-0.12574396
192	0x3e233b8f	0.15940689
193	0x3d8f9b55	0.07012049
194	0xbdd5bae3	-0.104360364
195	0x3d9aa1f4	0.07550421
196	0xbd5311c9	-0.051530633
197	0xbe939c66	-0.2883026
198	0xbe801f0c	-0.25023687
199	0xbf02234b	-0.508351
200	0x3e88b90f	0.26703689
201	0xbddf7f03	-0.109128974
202	0xbe4bc4ef	-0.19899343
203	0xbe191e3c	-0.1495294
204	0x3af1b599	0.0018440961
205	0x3e2bb99c	0.16770023
206	0xbcdb42d1	-0.026765259
207	0x3e3e2255	0.18567784
208	0x3e7cf388	0.24702275
209	0x3e8570d1	0.26062635
210	0xbdd1eb0a	-0.10249908
211	0x3e30a13e	0.17249009
212	0xbe45ec19	-0.19328345
213	0x3e4c3b35	0.1994446
214	0x3e93f8be	0.28900713
215	0x3e6f537d	0.23371692
216	0x3d12217e	0.035676472
217	0xbe2a7795	-0.1664718
218	0x3dacef08	0.08444029
219	0xbe43e085	-0.19128616
220	0x3de0479f	0.10951161
221	0xbde0c070	-0.109742045
222	0x3defc087	0.117066436
223	0xbe5ea88c	-0.21743983
224	0xbef9e71d	-0.48809138
225	0xbe9e0647	-0.30864164
226	0xbe2cc549	-0.16872133
227	0xbdfea25b	-0.124333106
228	0xbe316e60	-0.17327261
229	0xbe318d21	-0.17338993
230	0x3e581546	0.21101865
231	0x3df65072	0.120270625
232	0xbc85fea7	-0.01635678
233	0xbd87a5df	-0.06623434
234	0xbdb9e1f2	-0.09076299
235	0x3de0134b	0.1094118
236	0x3d40c16d	0.047059465
237	0x3dda681e	0.1066439
238	0x3cdeba29	0.027188377
239	0xbd74a95b	-0.059731822
240	0xbeb7afce	-0.35876316
241	0xbe4d8af3	-0.20072536
242	0xbe98ccab	-0.2984365
243	0xbdb37dec	-0.08764252
244	0x3deb57f6	0.114913866
245	0x3dff29ed	0.124591686
246	0xbe3a1d60	-0.18175268
247	0x3e9cfc83	0.306614
248	0xbdb62ec6	-0.0889564
249	0xbe7f863b	-0.24953549
250	0xbe5754f5	-0.21028502
251	0x3c22b82f	0.009931608
252	0xbc897e61	-0.016783895
253	0xbd8c7c4b	-0.068596445
254	0xbe8de8d8	-0.27716708
255	0x3e0e9569	0.13924183

tcn.tcn.0.res_conv.bias f4 [16]
0	0x3f0865bd	0.5328024
1	0xbd8a3ca0	-0.067498446
2	0xbe4c29f1	-0.19937874
3	0x3e80e382	0.25173575
4	0xbdb80952	-0.08986153
5	0xbea0aa70	-0.31380033
6	0xbedb9e9e	-0.42894453
7	0xbe08ff0f	-0.13378547
8	0xbdd86e2e	-0.1056789
9	0x3e275958	0.16342676
10	0x3d1d7384	0.038440242
11	0x3e7f2df7	0.24919878
12	0x3d576859	0.052589748
13	0xbe1612cb	-0.14655606
14	0xbe5b3d0d	-0.21410008
15	0x3c3f4003	0.011672976

tcn.tcn.1.conv1.weight f4 [16, 16, 5]
0	0xbe732da5	-0.23747881
1	0xbe5bcc3f	-0.21464632
2	0xbe959f0a	-0.292229
3	0xbeac175a	-0.33611566
4	0xbf2f57f9	-0.6849361
5	0x3dc0fc3b	0.09423109
6	0xbea1da5b	-0.31611905
7	0xbe6044ca	-0.21901241
8	0xbe0b0786	-0.13577089
9	0x3e81aa01	0.25325015
10	0xbd5e73f6	-0.054309808
11	0x3e06fc07	0.13182078
12	0xbec06872	-0.37579685
13	0xbee059d2	-0.43818527
14	0xbec1da34	-0.37861788
15	0xbd1e9b51	-0.03872234
16	0xbdb55c6b	-0.08855518
17	0xbe263e98	-0.16234815
18	0xbe8478c3	-0.25873384
19	0xbeb0f62e	-0.3456282
20	0x3d92edf2	0.07174291
21	0xbca30980	-0.01990199
22	0x3eb011ea	0.34388667
23	0x3e284c0d	0.16435261
24	0x3e9267c9	0.28594807
25	0x3dcdf976	0.100573465
26	0x3ce3d8b5	0.027813295
27	0x3e7903e5	0.24317892
28	0xbde3f29e	-0.1113026
29	0x3e7af980	0.24509239
30	0x3f0c02b5	0.5469163
31	0x3de90341	0.11377574
32	0x3e875deb	0.2643884
33	0x3ee9ae85	0.4564096
34	0x3f423d3e	0.758747
35	0xbe180c55	-0.14848454
36	0xbe2e2166	-0.17004928
37	0xbeb0b0bd	-0.3450984
38	0xbdd6fb79	-0.10497183
39	0x3d39de42	0.045377977
40	0x3d710758	0.058844894
41	0x3e7539f3	0.23947887
42	0x3e59bcff	0.21263503
43	0x3e27e898	0.16397321
44	0x3e366530	0.17812037
45	0xbe07c190	-0.13257432
46	0xbdb6233d	-0.0889344
47	0xbe1c2df2	-0.15251902
48	0xbe7ead06	-0.2487069
49	0xbdbee3bd	-0.093207814
50	0x3da923fc	0.082588166
51	0x3e34c2c0	0.17652416
52	0xbdd33b94	-0.10314098
53	0xbe12fc4a	-0.14354053
54	0xbe1c8d72	-0.15288332
55	0x3e2472eb	0.16059463
56	0x3cd622f5	0.026139716
57	0xbe2c324e	-0.16816065
58	0x3e3b8c67	0.18315278
59	0x3c815052	0.01578537
60	0x3c53617d	0.012901661
61	0x3e1d7015	0.15374787
62	0x3d65bcf6	0.05608841
63	0x3de865b6	0.11347525
64	0x3e41049f	0.18849419
65	0x3eb867d6	0.3601672
66	0xbe4260a2	-0.18982175
67	0xbe3d0ad1	-0.18461157
68	0xbda5dd12	-0.080988064
69	0x3d4315fc	0.047628388
70	0x3e4ac1c3	0.19800477
71	0x3dad88af	0.08473336
72	0x3dfaf486	0.122536704
73	0x3da04114	0.07824913
74	0xbabed58e	-0.0014559494
75	0x3f013178	0.5046611
76	0x3da743a8	0.08167201
77	0x3e1f5771	0.155607
78	0x3eaeddd5	0.3415362
79	0x3e6d9869	0.23202671
80	0xbef9df93	-0.48803386
81	0xbee9d365	-0.45669094
82	0xbebccae3	-0.3687354
83	0xbec08ab4	-0.37605822
84	0xbe96a3a4	-0.29421723
85	0xbeb3368b	-0.3500255
86	0xba2b1cc2	-0.00065274176
87	0xbe0d4710	-0.1379664
88	0x3d65e2fd	0.056124676
89	0xbe3c1ce1	-0.18370391
90	0xbe7381e0	-0.23780012
91	0xbe60a26f	-0.21936963
92	0xbec8b614	-0.39201415
93	0xbec29bbd	-0.38009444
94	0xbea73732	-0.32659298
95	0x3a135a29	0.000562104
96	0xbe0766d6	-0.13222823
97	0xbe979199	-0.2960327
98	0xbe98cc6e	-0.29843467
99	0xbe3b640d	-0.18299885
100	0x3e84330b	0.25820193
101	0x3d36bd5b	0.044614177
102	0xbd64af9a	-0.05583153
103	0x3e0e5e54	0.13903171
104	0x3e89f056	0.26941174
105	0x3d712df0	0.0588817
106	0xbe7702d1	-0.24122168
107	0xbec64810	-0.38726854
108	0x3adaa197	0.0016680238
109	0x3f23ab93	0.63933676
110	0x3dff53c1	0.12467147
111	0x3de6543f	0.112465374
112	0x3eadaf2c	0.33922708
113	0x3f0e02dd	0.5547312
114	0x3f07db49	0.5306898
115	0xbe70e730	-0.23525691
116	0x3e06185f	0.13095234
117	0xbe2470d9	-0.16058673
118	0xbd8f0514	-0.069833905
119	0x3db6f409	0.08933265
120	0xbe07157c	-0.1319179
121	0x3bfe5723	0.0077618524
122	0xbe72ab5f	-0.23698185
123	0xbdb22655	-0.086987175
124	0x3edd28bd	0.43195143
125	0x3d8b2246	0.067936465
126	0x3da9e48d	0.08295546
127	0xbd698898	-0.05701503
128	0x3cb605e7	0.022219611
129	0x3d40fca7	0.047115948
130	0xbe43ef1e	-0.19134185
131	0xbdfcfd37	-0.123529844
132	0x3e1a78d2	0.15085152
133	0xbd3b783b	-0.045768958
134	0xbdfbdef8	-0.12298387
135	0x3cc39709	0.02387573
136	0x3e4d648c	0.20057887
137	0x3e87c7dd	0.2651967
138	0xbcb19cfc	-0.021681301
139	0xbe880d46	-0.26572627
140	0xbc1e77b4	-0.009672094
141	0x3d1ac2c1	0.037783388
142	0x3e8f0950	0.27936792
143	0xbdabfb2d	-0.08397517
144	0xbddc0c7f	-0.10744571
145	0xbe432b17	-0.19059406
146	0xbdb1ccb7	-0.086816244
147	0xbe2feeab	-0.17180888
148	0xbd0d29a2	-0.034463532
149	0xbd809b18	-0.06279582
150	0x3c16147d	0.009160158
151	0x3d5e1df8	0.0542278
152	0x3e6336ef	0.22188924
153	0xbd58bab2	-0.05291242
154	0x3d0ce717	0.034400072
155	0x3d9422aa	0.07233174
156	0x3ddd214e	0.10797368
157	0x3d9adbea	0.075614765
158	0x3e1cc0df	0.1530795
159	0x3df21b35	0.118215956
160	0x3e37109e	0.17877433
161	0x3e88e0da	0.26734048
162	0x3cb3b334	0.021936037
163	0xbe481f74	-0.19543248
164	0xbf428f54	-0.7599995
165	0xbdcd2b49	-0.100180216
166	0xbce745ed	-0.028231585
167	0xbcd9257f	-0.026507137
168	0xbdb643d2	-0.088996544
169	0x3e781dae	0.24230072
170	0xbe4ba0fe	-0.19885632
171	0x3de0db29	0.109793015
172	0x3dd7ecd1	0.10543216
173	0xbc8583d3	-0.01629821
174	0x3d524a15	0.05134018
175	0xbe640f82	-0.22271541
176	0xbecd5915	-0.40107027
177	0xbe935844	-0.2877828
178	0xbeb38d81	-0.35068896
179	0x3dd96086	0.106141135
180	0x3be1481a	0.0068750503
181	0x3cbbd24c	0.022927426
182	0xbe2ce79e	-0.1688523
183	0x3d8a58cf	0.0675522
184	0x3e0181d4	0.12647182
185	0xbdbab5ee	-0.091167316
186	0x3da96d8e	0.08272849
187	0xbcdd7386	-0.027032625
188	0xbcfa5bed	-0.030561412
189	0x3dce4273	0.10071268
190	0x3f30dcc2	0.6908685
191	0x3eb2c8fe	0.3491897
192	0x3db15a2d	0.08659778
193	0x3c38ae60	0.011272043
194	0xbc45b142	-0.012066187
195	0xbe53145a	-0.20613232
196	0x3da21bd1	0.07915462
197	0x3e63d76b	0.22250144
198	0x3e372545	0.17885311
199	0x3de812e8	0.11331731
200	0xbde284bb	-0.110604726
201	0xbec1133d	-0.3770999
202	0xbe36a465	-0.17836149
203	0xbed7b342	-0.4212895
204	0x3e21eb58	0.15812433
205	0xbcc37b0f	-0.02386239
206	0x3d6bb25c	0.057543144
207	0xbe1e6562	-0.15468362
208	0xbe3b612a	-0.18298784
209	0x3e79e3cf	0.24403308
210	0x3ebb2212	0.3654943
211	0xbdf5e566	-0.12006645
212	0x3ca573ba	0.020196784
213	0xbe39585b	-0.18100111
214	0xbdd7f586	-0.10544877
215	0x3e318759	0.17336787
216	0x3e1eef52	0.15520981
217	0xbdc008ca	-0.093766764
218	0xbda06f07	-0.07833677
219	0xbe09463e	-0.13405702
220	0x3e20ab64	0.1569038
221	0xbe34fba1	-0.17674114
222	0x3d1ab5bb	0.037770968
223	0x3e0c61f7	0.13709246
224	0x3c67c97f	0.0141471615
225	0xbdba3ad6	-0.09093253
226	0xbe86853a	-0.2627352
227	0x3d5ed05c	0.054397926
228	0xbdb79af7	-0.08965104
229	0xbe21f624	-0.15816551
230	0x3ea1ecff	0.31626126
231	0x3e226625	0.15859278
232	0x3e9b572c	0.30339944
233	0x3e96b6de	0.29436392
234	0x3d69033c	0.05688785
235	0x3eac90c7	0.33704206
236	0x3df1dec1	0.11810065
237	0x3ea9cac1	0.331625
238	0x3e6eab38	0.23307502
239	0xbe200a3c	-0.15628904
240	0xbdd547cb	-0.10414084
241	0xbea9663e	-0.33085817
242	0x3cd0b424	0.025476523
243	0xbeec5ed0	-0.46166086
244	0xbf114538	-0.56746244
245	0x3da1ab37	0.07893985
246	0xbedfe6d0	-0.43730783
247	0xbe690c0c	-0.22758502
248	0xbe152d45	-0.1456805
249	0xbd59a78a	-0.053138293
250	0xbe918e10	-0.28428698
251	0x3e97bdc6	0.29636973
252	0xbe19d54c	-0.15022773
253	0xbebfabd5	-0.37435785
254	0xbd6c8abd	-0.0577495
255	0xbd223af6	-0.03960701

tcn.tcn.1.conv1.bias f4 [16]
0	0xbef0f29d	-0.470601
1	0xbf116410	-0.5679331
2	0xbef7a49a	-0.4836777
3	0xbe8726ae	-0.26396698
4	0xbee92b9c	-0.45541084
5	0xbf0cf2ab	-0.5505778
6	0xbc5aa328	-0.013344564
7	0x3c9b3ef0	0.01895091
8	0xbeae046c	-0.3398775
9	0xbe75fd9c	-0.24022526
10	0xbed72ddb	-0.42027172
11	0xbdf29504	-0.11844829
12	0xbf09024c	-0.5351913
13	0x3da6f436	0.08152048
14	0xbe0ad63d	-0.13558288
15	0xbc376778	-0.0111941025
