checkpoints/fine_tune/giantsteps/augm_on/ratio_0.2/model_mild-wind-38_finetune_finetune_HAI_GTZ/latest.pt (torch, 422652 bytes, 211 tensors)

conv1.weight f4 [16, 1, 3, 3]
000000 5b 48 54 3f fc ec bb 3e 3c 66 f4 3d 1e 81 fc 3c
       0.82922906 0.36704242 0.11933562 0.030823287
000010 3f f4 01 bf 43 0f 4c bf ef 57 95 3d 97 f6 da be
       -0.50763315 -0.7971079 0.072921626 -0.42766258
000020 80 17 75 be a0 11 ae be dd 3d 03 bf fe 90 21 bf
       -0.23934746 -0.33997822 -0.5126627 -0.63111866
000030 a8 00 6a 3e 04 44 12 3f db 21 83 3e d4 aa 72 3e
       0.22851813 0.57135034 0.25611767 0.23697978
000040 47 84 7e 3d b8 43 28 be ac a8 ad 3e a5 4e d5 3e
       0.06213787 -0.16432083 0.3391775 0.41661564
000050 28 80 bf 3e cc 8e b0 be 50 dc 98 3e 99 53 03 3f
       0.37402463 -0.34483945 0.29855585 0.51299435
000060 2a 56 9c be 9d 07 a1 3d 45 b9 f1 3e fa 34 5a be
       -0.30534488 0.0786278 0.47211662 -0.21309271
000070 4b 14 79 be 02 2b fb bd 95 16 23 bf 03 e6 e1 be
       -0.24324147 -0.122640625 -0.6370633 -0.44120798
000080 6b 32 8c 3b 55 7c b7 3e 8b a2 d6 3e f8 34 3c 3f
       0.004278471 0.35837045 0.41920885 0.73518324
000090 cc e7 85 3e 9a e0 a2 3e a5 f6 e8 bb b8 11 f0 be
       0.2615341 0.31811982 -0.0071094804 -0.46888518
0000a0 62 dc f3 be aa 9c 2e bf bb a1 0f 3f 04 e6 0c 3f
       -0.47629076 -0.682078 0.56106156 0.55038476
0000b0 be ff 02 3f 36 22 98 3b 79 f1 ce bd b1 6e 4d bf
       0.5117148 0.00464275 -0.10104651 -0.80247027
0000c0 6f 20 40 3f 87 d6 c1 3e e9 17 06 3e 31 6a 33 3d
       0.7504949 0.37858984 0.13095059 0.043802444
0000d0 28 fe 97 bc bb ba 17 bf 1f fa 46 be 04 01 f6 3e
       -0.018553808 -0.59269303 -0.19431351 0.4804765
0000e0 19 9f 19 3f 6b d5 14 bf dc 7a 2e be 96 e1 9d 3e
       0.6000839 -0.5813815 -0.17039055 0.3083617
0000f0 fd 14 b5 be 25 7f c1 bb 4a 6c 68 bd 19 0b bb be
       -0.35367575 -0.0059050494 -0.056743897 -0.36531904
000100 a3 e2 4b bd a7 1c e9 3e 72 0d 3c 3e a7 56 82 be
       -0.049776684 0.45529673 0.18364504 -0.25456735
000110 02 97 ae bd f2 71 1d 3f 45 b7 fe 3d a6 8b 47 bf
       -0.08524896 0.6150199 0.124373 -0.7794746
000120 b5 5b 2b bf 8e f8 34 be a3 7e 69 3f a3 d9 37 bf
       -0.6693681 -0.17672941 0.9120886 -0.7181646
000130 3a c6 23 3e 79 74 1e 3f 26 25 9c be 97 cf a1 3e
       0.15993586 0.61896473 -0.30497092 0.3160369
000140 a6 c2 d1 3d 24 43 83 be 31 b9 b1 3d 18 e4 41 3f
       0.10242204 -0.25637162 0.086779006 0.7573867
000150 04 21 eb 3e 5c 55 de 3e dc 88 0d 3d c9 6e 9a be
       0.45923626 0.434245 0.034554347 -0.30162647
000160 38 e6 d2 3d a3 23 85 3e 28 31 27 3e 38 8f d2 3d
       0.10297817 0.2600375 0.16327345 0.10281223
000170 70 a6 93 be bf 67 32 bd 6d d9 1d bf f8 53 4b bf
       -0.2883792 -0.04355597 -0.6165989 -0.79425
000180 03 96 15 3f 5d 75 b8 3e 77 0f 66 3e 54 13 d0 be
       0.58432025 0.3602704 0.22466837 -0.40639746
000190 b3 a4 9a be cf a3 90 be 42 5b 6d bc ec 17 59 3c
       -0.3020378 -0.28249976 -0.01448709 0.013250332
0001a0 ea cd e6 bd f2 f2 03 3f 96 75 df 3e 67 d5 2e 3d
       -0.11269744 0.5154258 0.43644398 0.042683985
0001b0 90 1d 7c be c3 c0 a7 be dd a4 d8 3e 74 e3 ea be
       -0.24620652 -0.32764253 0.4231328 -0.45876658
0001c0 43 04 0e bf 7a 5e 19 3e ff 1e 4b be 25 a8 29 be
       -0.5547525 0.14977446 -0.19836043 -0.16568048
0001d0 f3 0a b7 3d 0c 48 1b bb 85 b4 2f 3d 49 e3 a8 be
       0.08937635 -0.0023694066 0.042896766 -0.32985905
0001e0 58 a7 c3 3e 4f d7 b7 3e 40 dd c5 3e c6 91 89 be
       0.3821361 0.35906455 0.38645363 -0.2686903
0001f0 b7 f9 c1 be fb 35 f3 be a9 6e 25 bf a1 a8 8d bd
       -0.3788583 -0.4750212 -0.6462198 -0.06916929
000200 6b a4 a5 3e 1c 88 36 be 0f 76 53 3d 2f 14 3b 3f
       0.32352003 -0.17825359 0.05162626 0.7307767
000210 cd f5 fb be 1e b6 0c be d0 7c 01 3f b0 7f 72 bd
       -0.4921097 -0.13741347 0.50581074 -0.059203804
000220 e4 ee a6 3c e6 ab 1d 3e d8 ad b4 3e e6 de ab 3e
       0.020377584 0.15397605 0.35288882 0.33568496
000230 6b f5 87 3e d4 d5 0e bf c9 a1 b6 be cd f3 d2 be
       0.26554427 -0.55795026 -0.35670307 -0.4120163

conv1.bias f4 [16]
000000 9e 1c 0a be bc b2 e4 ba 07 91 e6 be c7 9f 92 bc
       -0.13487479 -0.0017448287 -0.45032522 -0.017898453
000010 67 c2 95 be d1 a6 59 bd 34 db a9 bd 63 6d 38 bd
       -0.2924988 -0.053137604 -0.08293763 -0.045026194
000020 d7 c7 e4 bd ff c5 7d bd 5a 8b 7c bd be 5e 1b bd
       -0.11170929 -0.061956402 -0.061656334 -0.03793215
000030 b3 83 1c be 7a f3 a0 bd 73 56 00 bc 54 98 d5 bd
       -0.15284614 -0.078589395 -0.007833111 -0.10429445

conv2.weight f4 [16, 16, 3, 3]
000000 95 22 8b be 8a 3f 94 be 59 9c 60 3e 69 af bb 3c
       -0.27174821 -0.28954726 0.21934642 0.02291079
000010 06 61 36 be fb 85 a3 bd c2 20 d9 bd 84 73 b8 3d
       -0.17810449 -0.07984539 -0.10601951 0.09006408
000020 46 47 b8 3c 99 61 c7 be cf a2 09 bf f7 52 12 bf
       0.022494923 -0.3894165 -0.5376405 -0.57157844
000030 bb 1c d2 be 4c 69 d5 be ce 75 d4 be 9d 6b eb bb
       -0.41037545 -0.41681898 -0.41496128 -0.0071844594
000040 7d b1 0c 3e 5b 0c a7 bd cf e2 ed 3d ca 78 b4 3e
       0.13739581 -0.081566535 0.11615526 0.35248405
000050 d3 90 f6 3e bb 0e df bc 83 39 c5 3d b4 20 7b 3e
       0.48157367 -0.027228704 0.0963011 0.24524194
000060 1f 59 9a be 63 a1 bd be 87 14 46 be 1f 46 95 be
       -0.3014612 -0.3703719 -0.19343768 -0.2915506
000070 3f 8d b7 be 2f 3b 83 be 05 e0 3a bf e9 13 1b bf
       -0.3584995 -0.2563109 -0.72998077 -0.60577255
000080 8c 2f 97 be 5a 1a 46 be ee 92 a6 3c d9 65 c4 3e
       -0.29528463 -0.1934599 0.020333733 0.38358954
000090 46 c5 d7 bd 87 13 3a bd 0a 61 88 bd 98 46 ed be
       -0.10535674 -0.04542878 -0.06659134 -0.4634292
0000a0 f7 c2 d4 be e3 fe 76 be a6 31 e8 be 7f d4 ac be
       -0.41554996 -0.24120669 -0.4535038 -0.33755872
0000b0 25 9b 0c be 43 e9 84 bd 25 df 96 3c 49 f1 8b 3e
       -0.13731058 -0.06489804 0.01841695 0.27332523
0000c0 ed 00 b1 be 37 44 f9 be 90 50 05 bf 4e 75 22 3d
       -0.3457102 -0.48684856 -0.52076054 0.03966265
0000d0 6a 14 28 bc c8 62 ed be 42 bd f6 be e6 c8 83 3d
       -0.010258773 -0.46364427 -0.48191267 0.06434803
0000e0 da 87 1b 3e 7e 22 3d be 19 72 01 3e 56 a5 a2 3e
       0.15188542 -0.18470189 0.12641181 0.31766766
0000f0 69 15 56 3d 33 e2 a4 3e 48 18 23 3f ad fc 33 be
       0.052266512 0.32203826 0.63708925 -0.17576857
000100 29 22 93 be a1 f0 9e bd 7d b8 aa be 01 0d 95 bd
       -0.28737 -0.0776074 -0.33343878 -0.07277871
000110 be e7 86 bd e6 21 73 bd ea c0 c0 3d aa 31 08 3e
       -0.0658717 -0.0593585 0.094117954 0.13300195
000120 8d 40 69 bd f6 81 bb 3c 50 b7 03 bc 59 ed c4 bd
       -0.056946326 0.022889119 -0.008039311 -0.09615583
000130 47 26 bd 3d 5d f9 2a 3e a3 87 4c 3d 06 f7 13 be
       0.092358164 0.16696687 0.04993404 -0.144497
000140 1b 50 c8 3e 93 b3 2f 3e d6 9f 90 3e 0a 2a d3 3e
       0.39123616 0.17158346 0.28246945 0.4124301
000150 84 aa 75 bd 9d 76 52 be 13 ee 9d 3c 94 93 27 bf
       -0.05997707 -0.2055306 0.019278562 -0.6545956
000160 8d 47 2a bf 33 05 dc be f8 e5 68 be 1b 49 5a be
       -0.6651543 -0.42972717 -0.22743976 -0.2131695
000170 cc ec fb bc 85 2b 2e bf 91 0a 7a be 2e 85 a3 bd
       -0.030752562 -0.68035156 -0.24418093 -0.079843864
000180 fa 26 a0 be 64 58 2f 3e 65 bc af 3c f9 25 29 bb
       -0.31279737 0.17123562 0.021452138 -0.0025809987
000190 85 d3 82 be 26 c8 43 be 3c c9 04 bf 78 e3 9a be
       -0.25552002 -0.1911932 -0.5186956 -0.3025167
0001a0 fb 8e fb bd b3 24 cf bd 7f 46 8c 3e 0c 58 e4 3d
       -0.12283131 -0.10114422 0.27397534 0.11149606
0001b0 b0 8e 39 3e e1 6a 8f 3c 06 e4 4f be bd e7 f1 3c
       0.18120837 0.017507019 -0.20301828 0.029529447
0001c0 c3 7a 9c bd 2e 20 fe bd 1c db 8c bd 8f 4c 65 be
       -0.076406024 -0.124084815 -0.06877729 -0.22392486
0001d0 2b c9 f4 bd 51 9f ad bd 1a f6 1c 3e 92 d6 6c 3e
       -0.11952432 -0.08477653 0.15328255 0.23128727
0001e0 53 be b6 bd e3 29 18 be 51 70 5d 3c 46 01 42 be
       -0.0892302 -0.14859729 0.013515548 -0.18945798
0001f0 25 46 06 be 16 06 6b 3e bc c1 06 bf 1e 1f bb be
       -0.13112696 0.2295154 -0.52639365 -0.36547178
000200 93 f8 71 be 35 4c 8f bd e5 ef 1d be e2 73 6c bd
       -0.2362998 -0.06996957 -0.15423544 -0.057727702
000210 5f 2c fd 3c e4 14 fd be 77 21 be 3e 7d 6c ec bd
       0.030904947 -0.4943 0.37134907 -0.1154413
000220 bf fd 47 3c e2 50 48 bd 21 bd 05 bc 23 96 f5 bc
       0.012206494 -0.04890526 -0.008162768 -0.029978817
000230 35 e8 4c 3d 41 8a 5f 3e 4b ac 48 3e 45 5f 5b 3e
       0.050026137 0.21830083 0.19596975 0.21423061
000240 da 2f a9 be 03 d7 21 bf 8d 2e 18 bf e8 cd f7 be
       -0.3304432 -0.63218707 -0.5944603 -0.48399282
000250 88 f3 0a bf 7c 43 1a 3e 8a b0 31 bc ea 10 91 3e
       -0.5427785 0.15064806 -0.010845313 0.28333217
000260 e2 6c 5f bd 31 80 01 3e f4 f4 73 be d0 49 7f bf
       -0.054547198 0.12646557 -0.23823911 -0.99722004
000270 71 3c 3d 3d 2a aa 74 3d 69 47 c4 3d 48 db 29 be
       0.04620022 0.059732594 0.09583933 -0.16587555
000280 0b 82 d1 bd 03 0c af bd 98 75 a7 be f3 eb 98 3e
       -0.10229882 -0.08547213 -0.32706904 0.29867515
000290 10 51 31 3f 5f 24 01 3e 72 9e 02 3e 28 2d 80 3d
       0.69264317 0.1261153 0.12755755 0.06258613
0002a0 30 35 86 3e 97 a6 41 3e 58 0a 7b bd 31 a6 33 3f
       0.26212454 0.18911205 -0.06128916 0.7017546
0002b0 51 bc 87 ba bc f5 ea be dc f8 3c 3c 91 38 9d be
       -0.0010355805 -0.45890605 0.011533942 -0.3070722
0002c0 c6 9f ab be 3b 05 08 3e 72 e2 15 3e 9a 40 ee bd
       -0.33520335 0.13283245 0.14637163 -0.116334155
0002d0 1d c4 8c 3e bb 91 b3 bc b4 f2 d1 bd 85 68 08 be
       0.27493373 -0.021920076 -0.1025137 -0.13321121
0002e0 1c 4a 27 be b0 38 ad be 02 1b 9f 3c 71 6e ec 3d
       -0.16336864 -0.33832312 0.019422058 0.115445025
0002f0 6b e9 02 be fd bc 9c be ba e3 e0 be 73 46 82 bf
       -0.12784354 -0.30612937 -0.43923742 -1.0177749
000300 6a 6d a0 be 19 b2 6a 3b 6e 4a 86 3d 4d e4 ba be
       -0.31333476 0.003581172 0.06557165 -0.36502305
000310 01 87 b8 bc be 13 24 3e a2 76 da 3e 7f fb 04 3f
       -0.022525312 0.16023156 0.42668635 0.5194625
000320 78 44 8a 3f b1 9e 6c be f6 44 ca 3d 63 94 72 3d
       1.0802145 -0.23107411 0.098764345 0.059223544
000330 56 17 da bd 4e 0b b1 be 46 34 18 bf 2b 67 e8 be
       -0.10648982 -0.34578937 -0.5945476 -0.4539121
000340 9f 1e 36 3f a8 d3 af 3f f9 a2 d5 be a3 6e dd 3e
       0.71140474 1.3736467 -0.417259 0.43248472
000350 55 84 0f 3f 34 b3 f1 be 30 a8 2e bd 0b c5 ce 3c
       0.560613 -0.47207034 -0.042640865 0.025240442
000360 e5 77 af 3e 77 0a c0 3f b6 e6 f7 3f 08 dc 03 3f
       0.3427116 1.5003194 1.9367282 0.51507616
000370 a1 9a d7 3e 63 d9 09 be 34 c4 99 3d 30 1f ab bd
       0.4211016 -0.13461833 0.07508126 -0.08355558
000380 fb 45 d2 be 2c db c7 be ba 45 79 3d 81 2b d9 3e
       -0.41069016 -0.39034402 0.060857512 0.42416003
000390 08 1f 92 3d 57 a6 80 3e 95 6a 83 3d 15 c6 bd 3d
       0.07134825 0.25126907 0.06416813 0.09266297
0003a0 78 03 bb 3d aa 5d f1 bd 13 67 8f 3e e3 42 67 be
       0.09131521 -0.11785443 0.28008327 -0.22584109
0003b0 c3 f3 75 bf 00 2c 0a be 19 6d e3 3d 26 ee d4 3d
       -0.96075076 -0.13493347 0.11104793 0.10396986
0003c0 55 c0 2d 3e e0 3d 3a 3e f0 46 5c bc e7 86 90 3e
       0.169679 0.18187666 -0.013444647 0.28227922
0003d0 62 d3 39 be 90 81 45 bf f8 a2 19 3e 3c ab cb 3d
       -0.18147042 -0.7715082 0.15003574 0.0994477
0003e0 a1 e6 c2 3d 87 1a 33 3e 33 61 92 3e 29 bf 9e 3e
       0.09516645 0.17490588 0.28589782 0.3100522
0003f0 ec 8b 2b 3e 4a cd c2 3d 27 67 bd 3d 8d 6d 0b bd
       0.16752595 0.09511812 0.092481904 -0.034040023

conv2.bias f4 [16]
000000 f2 64 a3 be 5a 12 ca be b3 24 ad be 29 13 f5 be
       -0.31912953 -0.39467126 -0.33817062 -0.4786618
000010 a0 fc ee bd 5c 28 0d be fc 2b e3 bd 38 af 0a bf
       -0.11669278 -0.13784927 -0.11092374 -0.5417361
000020 f1 ec a8 be c5 de c2 be d4 84 9a 3d 39 c0 51 be
       -0.32993272 -0.38060585 0.07544866 -0.20483483
000030 72 05 e9 be 12 14 80 3d b4 f4 fa be 18 a5 ac be
       -0.45511967 0.06253828 -0.4901482 -0.33719707

conv3.weight f4 [16, 16, 8, 1]
000000 70 29 22 3f 49 7f c7 3d 23 a2 04 3e 69 ca 89 3e
       0.6334448 0.097410746 0.12952475 0.2691224
000010 0e ee aa be bb 40 7a bd 5c 05 29 bf 81 11 75 3e
       -0.33384746 -0.061096888 -0.660238 0.23932458
000020 70 56 4f 3f 3d b1 ac bd 08 34 ac be 5c 7f 17 be
       0.8099127 -0.08432243 -0.33633447 -0.14794677
000030 7a 35 4e be 55 bc 9b be 36 2c c9 3d 7d c8 c0 3e
       -0.20137587 -0.30417123 0.09822886 0.3765296
000040 98 5a b0 3b 0c 7f b0 be ef 32 b8 3d eb d5 a7 3b
       0.0053818934 -0.3447193 0.0899409 0.0051219366
000050 36 f4 0c bd 40 df f2 3e c4 a8 9e 3e f8 b7 86 bd
       -0.034412585 0.4743595 0.30988133 -0.06578058
000060 e7 79 0b be c2 39 98 be a8 01 b5 3e 2a 4d ae 3e
       -0.13620721 -0.29731566 0.35352826 0.34043247
000070 b7 cd 37 be 11 dd 7e be ca 81 36 bf ed cd 9f 3e
       -0.17949568 -0.24889018 -0.7129179 0.31211796
000080 fa 17 cf be bb 22 2c 3e d4 cb bc bd 0c 9f f4 3d
       -0.4044798 0.16810124 -0.09218565 0.11944398
000090 c3 2e d4 3e 6b c0 1e 3f 74 1d 73 3e 33 ba 62 3e
       0.41441926 0.62012357 0.23741704 0.22141342
0000a0 44 8b 15 3d c8 06 70 bc 21 a1 09 3e 4a 8d b2 3d
       0.036509767 -0.014650054 0.13440372 0.08718355
0000b0 c1 87 2c bc 57 9b fa bc e7 7e b3 bd da 68 3f be
       -0.010530413 -0.03059165 -0.08764439 -0.18692341
0000c0 cb 94 08 3f 68 27 2a 3e 58 82 9e 3a 1f 98 47 3c
       0.5335204 0.16616595 0.0012093289 0.012182265
0000d0 90 e0 9d bd 72 cf a3 bd 90 05 81 be 16 31 4f be
       -0.077088475 -0.079985514 -0.25199556 -0.20233569
0000e0 d3 cd d6 3e f4 c5 8f 3e 39 49 b5 be c4 d6 8b 3e
       0.41953906 0.28080714 -0.35407427 0.2731229
0000f0 af 21 97 3e 19 e8 81 3e 62 6d 05 3d b8 00 0e bd
       0.29517886 0.2537239 0.03257502 -0.034668654
000100 df 5d 08 3e b6 68 c4 be be c4 b7 3d 88 f9 18 3e
       0.13317059 -0.38361138 0.089730725 0.14938939
000110 3c 0a c5 3d 31 50 0c ba ff 07 b6 bc b7 81 9e be
       0.09621093 -0.00053525256 -0.02222061 -0.3095834
000120 52 7f d3 be 42 fd 1a bf 1e 54 e1 3b ee 41 3a be
       -0.41308075 -0.6054269 0.0068764826 -0.18189213
000130 07 65 d2 3e 01 32 f8 3e 09 1a 38 3e 2b 63 af 3d
       0.41092703 0.4847565 0.17978682 0.08563837
000140 36 1b a2 3e 0c 00 56 bd 47 19 9f 3d 99 95 d7 3d
       0.31661385 -0.05224614 0.07768493 0.1052658
000150 a4 26 bd bd 1c 79 70 be d4 a8 ea be 26 e1 b9 be
       -0.09235886 -0.234837 -0.4583193 -0.36304587
000160 80 69 5b be 90 e2 66 be e6 13 a7 bd e0 8d f0 3d
       -0.21426964 -0.22547364 -0.08158092 0.117458105
000170 e5 dc 86 3d 08 9d 85 bd 31 d4 7f 3e 95 8f 9e bd
       0.06585101 -0.06524092 0.24983288 -0.0774223
000180 76 9e 42 bd 80 50 e2 3d 5a a1 97 3d a8 e0 b5 3e
       -0.0475144 0.110505104 0.07403822 0.35522962
000190 45 a5 08 3e 80 45 e1 3e 11 a9 15 3e b9 bc 9c bd
       0.13344295 0.43998337 0.14615275 -0.076531835
0001a0 2c 8a 71 3e 8f cd 3d bc 16 32 0f 3e 03 ed b1 3d
       0.23587865 -0.0115846535 0.1398395 0.086877845
0001b0 69 5e be bd 66 42 00 bf 97 ab 41 3d 14 59 fc ba
       -0.09295351 -0.50101316 0.04728278 -0.0019252622
0001c0 ab 50 f1 bd f0 6e 8a be bf 51 7b be 25 b4 06 3f
       -0.11782964 -0.27037764 -0.24542902 0.5261863
0001d0 d5 00 ad 3e 18 de 7f 3e 2f 2c ab bd 24 75 4b 3d
       0.33789697 0.24987066 -0.08358037 0.04967226
0001e0 78 27 bc 3e d4 c2 52 be be 6e a6 be e1 6b 8b be
       0.36748862 -0.20582134 -0.32506365 -0.27230743
0001f0 6b 31 a1 bd 88 2e b6 3e 33 7b 9c 3e e7 45 f5 3e
       -0.07870754 0.35582376 0.30562744 0.47904894
000200 b4 5f 37 be 63 8b cb bd d8 46 20 bd 87 44 0e bf
       -0.17907602 -0.09938695 -0.039130062 -0.55573314
000210 11 91 3d be 1a 68 9c 3e f1 8b f5 be 15 b1 8f 3e
       -0.1851237 0.30548173 -0.4795833 0.2806479
000220 14 a0 97 3e d4 6d 7f be a5 7c 0c 3d 9c 24 58 3b
       0.29614317 -0.2494424 0.034298558 0.0032980805
000230 8c 6d e4 be 00 4f b9 be 61 79 d1 bd 50 2e 93 3d
       -0.44614828 -0.36193085 -0.10228229 0.07186568
000240 e4 2d df 3e 12 79 71 3e 5c 48 2f bd 21 fb c2 bd
       0.435897 0.23581341 -0.042793617 -0.09520555
000250 df 9c 85 3e 32 48 b2 3e 02 4f 93 3c 11 3e 29 be
       0.26096246 0.34820706 0.01798201 -0.16527583
000260 b8 f6 2d 3f 4b 05 1d 3e 70 d3 58 be c9 05 83 3e
       0.6795459 0.1533405 -0.21174407 0.2559035
000270 b1 38 a0 bd 45 4a 3f be 61 63 96 be 4e 43 88 3e
       -0.07823313 -0.18680675 -0.29372695 0.2661385
000280 78 bd 12 3e 16 be 1f 3e 7d d5 0c 3f c3 c3 fc 3e
       0.14330089 0.15599856 0.5501326 0.49368104
000290 7e 65 41 3f 75 09 1b 3f b1 c4 73 3f a7 0e 83 3d
       0.7554549 0.60561305 0.95222 0.06399279
0002a0 ec 80 52 3e 47 8b 0f 3e e8 9e d1 bc be 43 25 be
       0.20556992 0.14017974 -0.025588468 -0.16139123
0002b0 23 2a 5a be c5 ff 07 bf 43 d3 26 bc 43 0a 26 3e
       -0.21305136 -0.5312465 -0.010182205 0.16214852
0002c0 a0 b2 1e 3e 7b 38 5a 3e a3 f8 5c be 8c dd c1 3e
       0.15497828 0.21310608 -0.21579222 0.3786434
0002d0 e2 24 3b be 7a 61 dd 3c b0 bc a0 3e d4 fd 70 3e
       -0.18275788 0.02702402 0.31393957 0.23534328
0002e0 fd c2 2d 3f e7 74 6e be a4 25 1a bd c4 f4 97 bd
       0.67875654 -0.23286782 -0.037633553 -0.07419732
0002f0 23 56 40 be 5a 66 8d be 7e 81 c0 be 4c a2 22 be
       -0.18782859 -0.2761715 -0.37598795 -0.15882224
000300 87 2c ad 3e b5 b3 a2 3e d4 b9 9a bd 43 13 d8 3d
       0.33823034 0.3177773 -0.07554975 0.10550549
000310 1a 94 ae 3e cf 54 90 be 09 6b 72 bd 0d 03 b3 3d
       0.34097368 -0.28189704 -0.059184108 0.08740816
000320 2d 19 6b bf 04 88 27 bc ad 29 29 be 6c d1 1a be
       -0.9183529 -0.0102253 -0.16519804 -0.1511895
000330 fb 3e 8b be 9b 42 c8 be ba 7f 5e 3e bb 9e 63 be
       -0.27196488 -0.39113316 0.21728411 -0.2222852
000340 40 1a 7f 3e b7 de ea 3d 8e c3 92 bd 01 c5 c6 3d
       0.24912357 0.11468261 -0.07166205 0.09705544
000350 ad df 1b bd fe 3a a6 be 5f 8e 6a be 2f 2b 70 bc
       -0.03805511 -0.32466882 -0.22905873 -0.014658733
000360 e7 09 9e 3e 49 e1 59 be 7c 8b f3 bc c1 fc 81 be
       0.3086693 -0.21277346 -0.029729597 -0.25388148
000370 83 57 bd 3e ac 55 fc be 82 c6 4f be 3b da ca 3d
       0.3698083 -0.49284112 -0.20290568 0.099049054
000380 22 c0 e5 be 9b d6 36 3c b6 59 b7 bd 35 89 5e bd
       -0.44873148 0.011159564 -0.08952658 -0.05433007
000390 0c d8 50 bd 3a a6 ed bd ab f5 12 bf 5b 3b 4e 3e
       -0.05098729 -0.11603971 -0.5740611 0.2013983
0003a0 34 60 c5 bd aa 95 3b 3e d8 3b 29 be 41 30 9f be
       -0.0963749 0.18318811 -0.16526735 -0.31091502
0003b0 76 f5 72 be 2f e4 05 be 63 0d 51 3e 84 81 e5 be
       -0.23726448 -0.13075326 0.20415263 -0.44825375
0003c0 4c 3d 7a be 55 a2 eb bd 9f b8 79 3e 8b d7 11 be
       -0.24437445 -0.11505572 0.24386834 -0.1424238
0003d0 a8 3e 7a be 44 6c 39 3e 29 e7 12 be 6f 87 1a 3e
       -0.24437964 0.18107706 -0.14345993 0.15090726
0003e0 1b f8 cf 3e 83 3e 9b 3d 4a bf cc 3d ca 79 6a 3e
       0.40618977 0.075802825 0.09997423 0.22898021
0003f0 d2 cb fb bd d5 05 80 be be 73 f0 bb 1b d2 0c 3e
       -0.12294735 -0.2500445 -0.0073380163 0.13752024

conv3.bias f4 [16]
000000 1f 97 b4 be 36 cc d6 3a fc 77 0c bf 04 1c bf be
       -0.35271546 0.0016387764 -0.5487058 -0.37326062
000010 b0 f8 58 bf e5 18 14 bf 55 95 29 bf 9d 17 41 bf
       -0.84754467 -0.57850486 -0.6624349 -0.75426656
000020 c1 04 e7 be 03 33 85 bd 5f 0c 28 be b8 0f 53 bf
       -0.45120814 -0.0650387 -0.16410969 -0.8244586
000030 1f ff 7d be e4 2f dc 3e 62 9c e4 be da f2 e2 be
       -0.24804352 0.43005288 -0.4465056 -0.44325906

tcn.tcn.0.conv1.weight f4 [16, 16, 5]
000000 28 9f 81 3e 3f 24 99 3b 54 d5 6d 3b 34 36 35 3e
       0.2531674 0.0046735103 0.0036290484 0.17696458
000010 aa 06 aa 3e 79 b9 ae 3d 66 fc 4c be dd 0c e5 be
       0.3320821 0.0853147 -0.20018157 -0.44736376
000020 38 8c 13 be 95 e8 a5 3e a4 11 59 3e cd 88 9d 3e
       -0.14408958 0.32404009 0.21198136 0.30768433
000030 f0 1d d3 3e 8a 45 dd 3e 13 ef 03 3f 05 b8 34 3d
       0.41233778 0.43217117 0.51536673 0.044120807
000040 ec d3 9a 3d 10 62 35 3e b5 e8 7e 3e 71 63 db 3d
       0.07559952 0.17713189 0.24893458 0.10712326
000050 f8 27 77 3e d0 aa ba 3e ad 0a 77 3e 03 4f 54 3e
       0.2413634 0.36458445 0.24125166 0.20733266
000060 b1 b8 55 3e 9c 51 dc 3d 1c 98 16 3e 0e fd a6 3e
       0.20871235 0.10757753 0.14706463 0.3261494
000070 07 e6 04 3e e1 06 67 3e 68 fb 95 3e 12 6a 84 3d
       0.12978373 0.22561218 0.2929337 0.06465544
000080 94 fe d2 bd 3a 2c e6 3c 3e 82 d7 3c fb e7 39 3e
       -0.10302463 0.02809726 0.026307222 0.181549
000090 a4 6e 41 3e 09 b3 bf 3e de f6 10 3e 01 9b 88 3e
       0.18889862 0.3744128 0.14156672 0.2668076
0000a0 b6 c4 8a 3e 1f b2 c1 3d bb 06 e5 bd 73 3f 14 be
       0.27103204 0.09457802 -0.11182924 -0.14477329
0000b0 36 50 31 3c f0 e7 f7 be 82 e3 1a bf 3c ea a9 be
       0.010822346 -0.48419142 -0.605034 -0.3318652
0000c0 37 3c 92 3d 8b 24 2b 3f f9 f0 94 3e f5 46 80 3e
       0.07140391 0.66852635 0.29090098 0.25054136
0000d0 f3 a7 67 3e 75 eb e1 3e 00 04 4f 3e 6f 8a fe bc
       0.22622661 0.44124952 0.2021637 -0.03107187
0000e0 57 4a 29 be 70 c5 b5 3d f0 99 01 3f 8f 20 5e 3f
       -0.16532265 0.08875549 0.50625515 0.8676843
0000f0 e7 3d e4 3e bb 68 8a 3e 91 48 09 3e f6 5b 75 3e
       0.44578478 0.27033028 0.13406588 0.23960862
000100 a1 a5 4c 3e 17 40 16 bd 9a 08 54 bd 58 64 18 bf
       0.19985057 -0.036682215 -0.051766016 -0.5952811
000110 69 8e f7 be 93 d2 c6 be b5 60 dc 3e 1f 16 da 3e
       -0.48350838 -0.3883253 0.43042532 0.42595002
000120 86 80 e6 3e 56 ca e8 3e 9b f8 43 3f 32 c1 6a 3e
       0.4501993 0.4546687 0.76551217 0.2292526
000130 6b 20 21 3e 8a 51 8d 3e 26 69 c9 3e ef 32 de 3e
       0.15735023 0.27601272 0.39338034 0.43398234
000140 c9 4f f4 bd 7e b9 a9 be bb 36 b2 bd 20 ee 07 be
       -0.1192928 -0.33149332 -0.08701845 -0.13274431
000150 d3 87 4f 3d c5 74 07 bf b3 a1 db be e2 b3 0f bf
       0.05066664 -0.5291255 -0.42896804 -0.56133854
000160 c3 90 c6 be 96 7b 89 be 98 2e 71 bd 6f 50 2e be
       -0.3878232 -0.268521 -0.058882326 -0.1702287
000170 06 c3 59 be 33 11 c9 bd 5f 5b 8e bd 96 05 b5 3e
       -0.21265802 -0.098177336 -0.069510214 0.35355824
000180 20 13 05 3f cc b9 e8 3c 1a 53 1a 3d 42 42 71 3e
       0.5198231 0.028408907 0.037676908 0.23560432
000190 50 00 2d 3e 91 8d 72 3d 46 8e de 3c a4 54 1d bd
       0.1689465 0.05921704 0.02716745 -0.038410798
0001a0 25 45 4b 3d 5c 05 3c bd e0 ee c2 be 3d 63 9a bd
       0.04962649 -0.04590355 -0.38072872 -0.075384595
0001b0 e4 39 28 3d 1b 78 a7 3d f6 9f 11 3d bb 03 ae 3e
       0.041070834 0.08177205 0.03555294 0.3398722
0001c0 23 56 60 3e 1f 84 b1 3d 97 d4 d6 bc ef d7 ea 3d
       0.21907859 0.08667778 -0.026224418 0.11466967
0001d0 e5 d6 8d bd 20 d5 17 be f7 6e c8 bb 4a cd 09 3e
       -0.069257535 -0.14827394 -0.0061167437 0.13457218
0001e0 7e 3f c5 be d3 60 ad 3d 9e e5 a2 be 47 9e 71 be
       -0.38525003 0.084657334 -0.3181581 -0.23595534
0001f0 f5 14 04 bf 59 c7 db 3c 7b 81 3e be ac 34 82 be
       -0.5159448 0.026828455 -0.1860408 -0.2543081
000200 6d 8c dd bc 59 5d a1 3d dc 10 c5 3b 4a e8 f1 bd
       -0.0270445 0.07879133 0.0060139727 -0.11811884
000210 01 2c dc 3d 09 8d 6b be cc 34 2e be 07 e8 ac 3e
       0.107505806 -0.2300302 -0.17012328 0.33770773
000220 f6 ac 35 3e e3 56 98 3d e0 92 96 3e 9f 46 28 3e
       0.1774176 0.07438447 0.29408932 0.1643319
000230 28 c0 58 3d dd 72 ed bd a2 09 9e 3e 41 d2 b3 3e
       0.05291763 -0.11594174 0.30866724 0.35121349
000240 92 27 ba 3e 94 fe df be 5e 8b 97 be b8 7b 5e 3e
       0.36358315 -0.43748915 -0.29598516 0.21726882
000250 db bc 86 3e 50 58 56 be 5a fe 11 be df e8 cc be
       0.2631596 -0.20932126 -0.14257184 -0.40021417
000260 d9 d1 87 be ae 8b 5e be 69 3e b7 bd 1e d3 06 3e
       -0.2652729 -0.21732971 -0.08947451 0.13166472
000270 94 87 df bd fc b4 32 be 7c 84 71 3d 50 34 29 3e
       -0.10914531 -0.17451853 0.058964238 0.16523862
000280 79 18 2c be ab a7 fd 3b e8 f2 f9 3c 00 c3 77 bd
       -0.1680621 0.007740935 0.030511335 -0.0604887
000290 7c 05 36 be fe a6 3b bf 2c b6 dc be 27 1a 85 be
       -0.1777553 -0.73301685 -0.43107736 -0.25996515
0002a0 90 bf e8 3a 6f 2d 8a bc f6 9c 2e 3e 1d 85 f9 bb
       0.0017757285 -0.016867368 0.17052063 -0.0076147453
0002b0 d3 84 10 bd 3c b2 8c 3d 85 74 16 3e 79 59 54 3e
       -0.03528292 0.06869933 0.14692886 0.20737256
0002c0 d0 87 e1 3c af a9 42 bd b8 42 03 be a4 1e 6a be
       0.02753058 -0.047525104 -0.1281842 -0.22863251
0002d0 bf 9a c1 3d b7 87 67 3e dc e6 16 3e 8c 5a e5 3d
       0.094533436 0.22610365 0.14736503 0.11198911
0002e0 2b 09 22 3e a8 8e 22 3e f0 c2 fa 3d 7b 5a 12 3e
       0.1582381 0.15874732 0.122442126 0.14292328
0002f0 62 1a c7 3e 24 51 93 3e 1c 1a e7 3d 3c 4b 99 bc
       0.38887316 0.28772843 0.11284277 -0.018712632
000300 74 24 0e 3e 82 0e d0 be 0d ff b0 be ff 16 1b bd
       0.13881093 -0.4063607 -0.34569588 -0.037863728
000310 a0 2a ed 3c 35 6d 2a 3d 56 9f 0c 3d 56 ac 49 3e
       0.02895099 0.041608054 0.034331642 0.19694647
000320 75 17 75 3e 69 68 b4 3e 56 03 fc 3e 7a 9c df 3d
       0.2393473 0.3523591 0.49221295 0.109185174
000330 01 0d 7c 3e 64 cd 91 be 7c 2a 22 be eb 0a 45 bd
       0.24614336 -0.28477013 -0.15836519 -0.048106115
000340 51 ed 7f 3d d5 ba 32 be 16 88 8b 3d 0a f4 46 bd
       0.062482182 -0.17454083 0.06813066 -0.048572578
000350 1d d1 2e be f5 f5 af be 72 0c 41 be b8 6e 38 be
       -0.17071958 -0.34367338 -0.18852404 -0.18010986
000360 10 dd 0b be f2 12 93 bc 5d 57 26 3e fc 2b f3 bb
       -0.13658547 -0.01795337 0.16244264 -0.007421015
000370 0d 6a 04 be 85 bf 54 be 93 db e8 3c 47 d9 f6 3c
       -0.1293108 -0.20776184 0.028425014 0.030132903
000380 db 06 a5 3d 61 b6 7b be e4 1b 3c be 49 80 e2 bd
       0.08057948 -0.24581291 -0.18370014 -0.11059625
000390 f7 13 27 bd e4 12 55 3d d9 29 aa bd 6f bd b5 bb
       -0.040790524 0.05201997 -0.08308763 -0.005546264
0003a0 f6 a5 cd bd cf fb 0e 3e 42 c0 a4 3d 48 45 53 3c
       -0.1004142 0.13963245 0.08044483 0.012894936
0003b0 42 23 bf 3d 08 c9 b4 bd 25 df b6 bd 69 c0 89 bd
       0.09332897 -0.08827406 -0.0892928 -0.067261524
0003c0 e5 06 a3 3e e7 8d f1 3e 04 83 c6 3d 75 dd 35 be
       0.31841198 0.47178575 0.09692958 -0.1776026
0003d0 e5 5c 0c be 78 f9 68 3d 74 af 6b bd b4 66 2a be
       -0.13707311 0.056878537 -0.057540372 -0.1664074
0003e0 88 17 f7 be 24 00 16 bf 1c 25 a9 bc a6 6d 3d 3e
       -0.4826014 -0.58593965 -0.020647578 0.18498859
0003f0 45 45 23 3e 2d 92 8a 3d cb 18 05 3e 26 68 ab be
       0.15944393 0.06766162 0.12997739 -0.33477896

tcn.tcn.0.conv1.bias f4 [16]
000000 bb 38 ce be 81 c0 70 be de db b7 be 09 15 a3 be
       -0.40277657 -0.23510934 -0.35909933 -0.31851986
000010 8a 3a 90 be b9 a6 c2 be 84 c5 0d bf ed 8e 06 bf
       -0.28169662 -0.38017824 -0.5537951 -0.5256184
000020 a5 1b 02 bf 2d 55 2a bf 64 ff 1e bf 5c f3 b5 bd
       -0.5082343 -0.6653622 -0.62108445 -0.08884308
000030 df 89 9c be 75 97 a0 be 78 be 3e be 1d d8 8c bf
       -0.30573937 -0.31365553 -0.18627346 -1.1003453

tcn.tcn.0.conv2.weight f4 [16, 16, 1]
000000 ca c8 05 3e 3a 0b e7 3d 27 be 11 be a8 02 92 3e
       0.13064876 0.11281438 -0.14232694 0.28517652
000010 f3 d7 7b 3d b9 4e 7a 3d 92 e0 c2 3d 98 57 d0 bc
       0.061485242 0.061110232 0.0951549 -0.025432393
000020 f8 9d 2e 3e 1d 1a 39 3c 92 1b ec bd 6e d3 7a 3d
       0.17052448 0.01129773 -0.11528696 0.06123679
000030 a8 f8 43 3b bc 69 99 3c 09 75 ab 3e 7f fc fe bd
       0.002990285 0.018727176 0.33487728 -0.124505036
000040 36 37 2d 3e 21 c3 5c be 74 c6 9a 3d f7 b9 ab be
       0.16915593 -0.21558811 0.07557383 -0.33540317
000050 19 1c bd 3d 2e 3b 1b 3d 4e fc e1 bd 34 e6 38 3e
       0.09233875 0.037898235 -0.110344514 0.18056566
000060 fa 3d ca 3c 56 76 a8 bd 31 1c 01 3e 11 86 65 3d
       0.024687756 -0.08225696 0.1260841 0.05603606
000070 b3 43 fc 3d c3 d7 8e bc e0 99 58 3e cc df 38 3d
       0.123176 -0.017436868 0.21152449 0.045135304
000080 28 6e 7c be 2a d3 cd 3d fd 94 b2 3d 10 d7 8b bd
       -0.24651396 0.10050042 0.087198235 -0.06828129
000090 41 70 7b bd 78 11 4e 3e c8 83 a6 3d 1e 04 ae bd
       -0.06138635 0.20123851 0.08130604 -0.08496879
0000a0 16 d7 bc 3d 29 b8 05 be 0f 9e 73 bd af 76 03 be
       0.09220712 -0.13058533 -0.05947691 -0.12838243
0000b0 98 b4 79 3d 1f 4d a4 3d 1d bb db 3d ba 5f 51 be
       0.060963243 0.08022522 0.107290484 -0.20446673
0000c0 59 ed 40 be e3 8e 97 3e f2 9f 23 be a6 e4 1b 3d
       -0.18840541 0.296012 -0.15978983 0.038059853
0000d0 ba 53 44 be 63 05 b3 3d 55 a3 7f 3d e3 78 49 3d
       -0.19172564 0.08741262 0.062411625 0.049187552
0000e0 26 59 0d 3d da 6f a3 3d 8b bf 5b 3e 25 09 99 3e
       0.034508847 0.07980318 0.21459787 0.2988979
0000f0 41 07 d5 bd 34 cb 13 3e 15 cb f6 bd ad 42 37 3e
       -0.10401774 0.14432985 -0.120504536 0.17896529
000100 ed 1a 9d 3e ee d2 a1 bd 05 9a 9f bc 65 9b c8 bd
       0.30684605 -0.0790156 -0.019482622 -0.09795264
000110 66 06 9d bd 31 e9 66 3c be 41 95 be 5d 3c 22 be
       -0.07667236 0.014093683 -0.2915172 -0.1584334
000120 07 9c 83 bc 79 bc 28 3d 12 5e 00 3d f3 e0 1f 3e
       -0.01606561 0.041195367 0.031339712 0.15613155
000130 d4 27 40 3e 32 75 da 3d c7 90 4b bd 3b bd 73 3a
       0.18765193 0.106668845 -0.049698617 0.0009297912
000140 20 07 07 bd 5c cc af 3c 0a 9b e2 3d 09 56 3c be
       -0.03296578 0.02145975 0.110647276 -0.18392195
000150 6d b4 8a 3d 16 ca 48 3e 41 ab 16 be 79 48 03 3e
       0.06772695 0.1960834 -0.14713766 0.12820615
000160 40 77 cc bd 2b a5 37 bd 97 26 d9 bd b1 e0 63 3c
       -0.09983683 -0.04483525 -0.106030636 0.013908551
000170 71 7e 16 3d 1a 2f 0b bc b8 ac 82 bd ff 40 ce bd
       0.036741678 -0.008495117 -0.063806 -0.10070991
000180 d2 79 ae 3d 44 28 ae 3d 1a 64 69 3d ef b2 90 bd
       0.08519329 0.08503774 0.05698023 -0.07065379
000190 a8 09 84 3e a3 33 d3 3d 38 fc 88 3d 9a e8 02 be
       0.25788617 0.10312583 0.06688732 -0.12784043
0001a0 c1 88 b1 bd ed 80 84 3d d7 03 a2 3d ae b1 07 3e
       -0.08668662 0.06469903 0.07910889 0.13251373
0001b0 02 58 0d 3e de 0a 12 bd 0a ee 1b be b3 1f b1 ba
       0.13803104 -0.035654895 -0.15227523 -0.0013513475
0001c0 7a f9 65 3e d9 f7 70 be 49 3a a7 3c c0 9a 07 bd
       0.22458449 -0.23532046 0.020413535 -0.033106565
0001d0 cd 14 a7 be fd 16 e9 bd 24 79 7a bd 4b 4e 47 be
       -0.32633057 -0.11381338 -0.061150685 -0.1946346
0001e0 24 f1 30 3e 29 83 c0 bc 18 c4 f4 3d 89 f7 35 bd
       0.17279488 -0.023500042 0.119514644 -0.04442552
0001f0 10 72 58 bd 7d 5e 68 bc dc fe 40 be 2f e2 86 3d
       -0.052843153 -0.014182684 -0.18847221 0.0658611
000200 f1 f9 2a 3e 9a 28 a9 be d0 6a 1c 3e 07 f3 20 3e
       0.16696908 -0.3303879 0.1527512 0.15717708
000210 eb 7e 0b 3e b3 21 7e bc cb 10 6d 3e ee c8 de bd
       0.13622634 -0.015510964 0.23150937 -0.10878168
000220 14 da 17 be b0 9e d7 3d c2 1e 1e be 82 b9 9b 3d
       -0.14829284 0.10528314 -0.1544142 0.07603742
000230 94 51 90 be 7c cf 47 3e cd 82 19 be d1 0c b6 be
       -0.2818724 0.19512743 -0.14991303 -0.35556653
000240 cf 62 7f 3d 9e ed 8c bd 8a bb 31 3d a7 0d 95 bd
       0.06235009 -0.068812594 0.04339174 -0.072779946
000250 a3 29 ed 3d 73 f7 14 be c1 ab 49 3b f8 f2 ad bd
       0.11580207 -0.1454752 0.003077254 -0.08493608
000260 7d 37 0e 3d 1a f7 e9 3d f9 fd 67 3e 2b f4 bb bd
       0.034720886 0.11424084 0.22655477 -0.09177431
000270 d8 78 7c be cf 04 6f 3d 7f 71 f0 bd bf 6b c2 bc
       -0.24655473 0.058354195 -0.11740398 -0.023733018
000280 40 37 c6 be 9c f5 d1 3d 30 29 12 be f8 e8 a2 be
       -0.38714027 0.102519244 -0.14273524 -0.31818366
000290 5a a4 81 3d b8 71 29 3e aa a4 7a be b7 5b 35 3e
       0.06330176 0.16547287 -0.24476877 0.17710768
0002a0 57 66 4d bd 69 2f 35 3d ba bd 9f bd ba 4c 6f bd
       -0.050146427 0.044234667 -0.07799859 -0.05842278
0002b0 90 fc fd bd 6e 3a 77 3c 46 8c 13 be 36 de c1 bd
       -0.12401688 0.015089614 -0.14408979 -0.094662115
0002c0 01 c8 d8 3e fc a2 5a be 82 34 94 3e 85 e9 05 3d
       0.4234009 -0.21351236 0.2894631 0.032693405
0002d0 d0 cb 75 be 3d 31 2b 3d 90 7a 4b 3e a4 b4 fb bd
       -0.2400353 0.041795004 0.19870973 -0.12290314
0002e0 4e 9c a0 bc 24 41 19 bd dc 27 0a 3d 79 99 c0 3d
       -0.019605782 -0.03741564 0.03372942 0.094042726
0002f0 57 18 de 3d 33 8a 0d be 31 ba 14 3e 76 0c e6 bd
       0.10844486 -0.1382225 0.14524151 -0.112328455
000300 91 c2 e2 be 50 61 96 bd a9 fa 30 be ae be 8c 3e
       -0.44289067 -0.0734278 -0.1728312 0.27489227
000310 3a f1 af 3d 7a a6 4b be 16 ee 8c 3d 89 9a 8d be
       0.08590932 -0.19887725 0.06881349 -0.27656963
000320 a9 15 fe 3d a4 60 c6 3d 80 da ff 3d cc c5 59 3c
       0.12406475 0.096864015 0.124928474 0.013291787
000330 7a 90 60 3e 1a c4 20 bc 50 d7 83 be a7 5d 98 3d
       0.21930113 -0.009812379 -0.25750208 0.07439738
000340 e2 f7 e2 3d da 2f 18 be a8 3d 8c 3d 5c 95 ba 3e
       0.11082436 -0.14862004 0.068476975 0.36442077
000350 4a d2 10 3c f6 bd 87 bd db 69 5a 3e 7d 8e 49 3d
       0.008839199 -0.06628029 0.21329443 0.049208153
000360 b9 8a 29 bd f9 c9 bc 3d 49 49 c7 bc 84 22 2d bd
       -0.04139206 0.09218211 -0.024326937 -0.042269245
000370 2b 57 34 be 54 fd fc 3d 59 48 ca 3d 7f 61 94 bd
       -0.17611377 0.12353006 0.098770805 -0.072451584
000380 04 02 2b 3e 64 b0 ba bc 7f 43 9b 3d 6c 80 6e be
       0.16699988 -0.022789188 0.07581233 -0.23291177
000390 c0 81 17 be e9 a0 01 bd 4a a5 17 3e bf d0 a4 bd
       -0.1479559 -0.031647597 0.14809147 -0.08047628
0003a0 27 8c 8b 3e 2f b2 9e 3c 27 85 03 3d 53 f3 1e 3e
       0.27255365 0.019372074 0.032109406 0.15522508
0003b0 c0 dc 0a be 22 7c 2c be e6 82 12 3e 79 cb d6 bd
       -0.13560772 -0.16844228 0.14307746 -0.10488028
0003c0 6d 83 d0 3c 77 58 59 3c a7 cd 79 3c dd 0d e9 bd
       0.025453294 0.013265721 0.015246785 -0.11379597
0003d0 69 9d 38 bc 0d 77 c3 bd 43 ee ca bc 6d 9d 9f bd
       -0.011267998 -0.095441915 -0.024771815 -0.077936985
0003e0 03 5b 42 bd 15 e5 57 3d dc a7 55 bc 72 b5 b4 bc
       -0.047450077 0.052708704 -0.013040509 -0.022059176
0003f0 f4 03 9c bb a2 40 0c bc 17 db d7 3d fd 9c 22 3e
       -0.0047612134 -0.008560332 0.10539835 0.15880199

tcn.tcn.0.conv2.bias f4 [16]
000000 2d 4d 28 3d a5 3d cc 3e 69 0d 79 3e 1e af b4 bd
       0.041089226 0.3989078 0.24321522 -0.088224635
000010 59 e2 d5 bd be 30 6c 3d 65 e9 86 3c 73 4d b8 3d
       -0.10443563 0.05766367 0.016468713 0.08999147
000020 9f 8c 87 3e 33 43 95 3e 53 d4 2f be 35 e4 fa 3e
       0.26474473 0.2915283 -0.17170839 0.49002233
000030 fe 89 a4 be 9c 54 50 be 4e 81 81 3e 3e cc c6 3e
       -0.3213653 -0.20344776 0.25293964 0.388277

tcn.tcn.0.res_conv.weight f4 [16, 16, 1]
000000 a2 80 b1 3d 43 b5 c5 be cb 7b fe be c5 40 05 be
       0.08667113 -0.38614854 -0.49703822 -0.13012989
000010 91 1b 17 be ac 10 93 be 2a 34 8b be 94 01 95 be
       -0.1475661 -0.28723657 -0.27188236 -0.29102767
000020 3a 7e b7 3e e5 8d c0 3e 94 48 02 be a0 81 86 3e
       0.3583849 0.37608257 -0.12722999 0.2627077
000030 25 81 2b 3d 4e 7e 0b bd 8a 47 e4 be f0 30 a4 3d
       0.04187121 -0.034056 -0.4458583 0.080171466
000040 dd ae e8 bd fc 5e 88 3e 06 1b 9c be 74 17 14 be
       -0.113614775 0.26634967 -0.30489367 -0.14462072
000050 7e df 3d be be db da be a8 60 23 3e 0f 4e cc 3d
       -0.18542287 -0.42745775 0.1595484 0.09975826
000060 77 8b 4c be 40 91 ae bc 10 1b 07 3e b9 f4 30 be
       -0.19975077 -0.021309495 0.13193917 -0.17280854
000070 b5 2e 3a 3e 1e 61 a5 3d f1 f6 86 bd d2 0c 4d bd
       0.1818188 0.08075164 -0.06590069 -0.050061055
000080 0f c9 59 bc e9 b7 2f 3d 3a d9 d9 bd f6 fb f3 bd
       -0.013292565 0.0429 -0.10637136 -0.11913292
000090 e5 43 31 3d 8b d8 20 bc 14 a1 21 3b 37 58 e5 3c
       0.04327764 -0.009817253 0.002466266 0.027996166
0000a0 93 12 28 be 3c 69 8c bd 9c 83 48 3e 56 b5 96 be
       -0.16413336 -0.06856009 0.19581455 -0.29435223
0000b0 a8 51 8f bd b2 ec 14 be 4d 0e 0e bd 9a d4 91 3e
       -0.069979966 -0.14543417 -0.034681607 0.28482515
0000c0 a3 03 1e 3e 68 3d 76 be fd d5 0a bd 20 59 e3 bd
       0.15431075 -0.24046862 -0.03389548 -0.111009836
0000d0 6c 34 b2 3e 77 a4 5e bd ba f5 c8 3d 92 5d 75 3d
       0.3480562 -0.054356065 0.098124936 0.05990369
0000e0 02 64 aa 3e 40 65 f1 bb e5 e2 17 3e 66 00 6c be
       0.33279425 -0.0073668063 0.14832647 -0.23047027
0000f0 3c 90 9d bd af 15 18 3d 62 d3 b0 be e1 d5 1e bd
       -0.07693526 0.037130054 -0.34536272 -0.03877819
000100 00 49 60 3e ae 1a f2 bd bc 39 97 3d 7b df b5 3d
       0.21902847 -0.11821495 0.07384059 0.08880516
000110 5d af 72 be b0 7e 02 3e c9 5f 8b 3e 50 6f af 3e
       -0.23699708 0.1274364 0.27221516 0.34264612
000120 20 34 17 be 1f f9 8e be 05 2b 0a 3d 12 33 85 be
       -0.14765978 -0.2792444 0.033732433 -0.26015526
000130 07 7b 1d 3e fa 3e dd 3e fb c8 81 3e e8 24 74 be
       0.15378962 0.4321211 0.25348648 -0.23842204
000140 2f 32 24 3e 2b 8a 33 3c 4e 8d 3f be a2 e3 fa 3c
       0.16034769 0.010958235 -0.18706247 0.030626122
000150 b2 3d 85 3d f0 f5 8a be 65 40 8c bd 5c bc 8b be
       0.06505908 -0.2714076 -0.0684822 -0.27292144
000160 db 3c d4 bc b9 ed 10 bd 69 87 07 3e 60 d5 ba bc
       -0.025907924 -0.03538296 0.13235249 -0.022806823
000170 f0 a5 6a 3e 6b 86 77 bd 7c 5e 98 bc f7 53 28 3e
       0.22914863 -0.060430925 -0.018599741 0.1643828
000180 e4 4f 1f be 79 1e 95 3d 4c e2 59 3d 6c f7 20 bd
       -0.1555782 0.07281203 0.05319433 -0.03929846
000190 76 31 07 3d c7 f1 a9 3e 78 07 9a bc 23 82 7d bc
       0.033006154 0.33192274 -0.01880239 -0.015472922
0001a0 41 10 cd bd 8f 12 50 3d df 68 9f 3d fa 53 72 bb
       -0.10012866 0.05079895 0.077836744 -0.0036976323
0001b0 c2 93 04 be 39 21 9a 3c 02 41 13 3e 0e 97 28 be
       -0.1294699 0.01881467 0.14380267 -0.16463873
0001c0 40 b9 97 3c 4f ef 03 bd ce 64 75 3d db 8f f2 bd
       0.018520951 -0.032210644 0.059910588 -0.118438445
0001d0 77 d0 14 3e 53 9b 91 be 60 38 1e 3e 90 94 27 be
       0.14532648 -0.28438815 0.15451193 -0.16365266
0001e0 21 ac 19 be b6 78 09 3d b1 87 a4 3d 90 01 56 3e
       -0.15007068 0.033562385 0.080336936 0.20899034
0001f0 ee 4e 6f be b7 23 3d bd 1a 25 11 3e 4d f8 6c 3e
       -0.23369953 -0.04617664 0.1417431 0.23141594
000200 ea d4 11 3d 42 62 63 bd 09 02 08 3e ac f6 3d 3e
       0.03560344 -0.055513628 0.13282026 0.18551129
000210 63 a8 b1 bc 05 a6 86 3e d4 8c 91 be 3e 12 e6 be
       -0.021686738 0.26298538 -0.28427756 -0.44935793
000220 fb 00 d4 be 51 93 c2 bd cf ac a4 be 18 7a a6 3d
       -0.41406998 -0.095007546 -0.32163092 0.08128756
000230 fd cc ac be 5f 61 83 be 26 72 92 3e 30 70 04 bc
       -0.33750144 -0.25660226 0.28602713 -0.008083388
000240 ff 97 32 3e d3 92 af bb 59 63 42 3e b6 04 1b be
       0.17440794 -0.005358079 0.1898321 -0.15138516
000250 05 0f e3 bd c3 0c c8 3c 92 d8 68 be 46 e8 11 3e
       -0.11086849 0.024420148 -0.22738865 0.14248762
000260 77 59 98 3b 15 fd 69 3d dd 29 09 be 0b 13 0a 3e
       0.004649337 0.057126123 -0.13394876 0.13483827
000270 7b 8b 8c 3e 76 df 88 3d 3b d9 8e 3e 11 89 9b 3e
       0.27450165 0.06683247 0.2790011 0.3037801
000280 4f 86 46 3e 14 f1 20 be 72 00 8b 3e ec e9 0f 3e
       0.19387172 -0.15716964 0.27148777 0.14054078
000290 08 b7 c7 3d 28 62 97 be 70 2c 0d 3c 37 1e 91 3e
       0.09751707 -0.29567075 0.008616552 0.28343365
0002a0 21 3b 71 3e b0 2c 8d bd 70 10 1e 3e 92 93 b5 bd
       0.23557712 -0.06893289 0.15435958 -0.088660374
0002b0 3d 75 50 3d b6 0f a1 3d 4e 86 ef bd 3a b8 9c 3d
       0.050893057 0.07864325 -0.116955385 0.07652326
0002c0 b4 75 c9 3e cd b5 ac bd 09 85 87 be 1a 36 d9 bd
       0.39347613 -0.08433113 -0.26468685 -0.10606022
0002d0 ff 5b 88 3d 6b 69 6c be 36 dd 49 be 7e ca 08 bf
       0.06658172 -0.23087089 -0.19713292 -0.5343398
0002e0 67 eb de be 37 cf e1 3c f9 5c 8e bc 47 5a 0d 3e
       -0.43538973 0.027564628 -0.017378317 0.1380397
0002f0 bd c6 ba bc 18 02 2f 3c 6f bd 4f 3d 31 13 57 3e
       -0.022799844 0.0106816515 0.050717767 0.21003415
000300 1e 3a af be 6a 35 8b bd 95 72 9a bd 23 90 37 3e
       -0.34224027 -0.06797297 -0.07541386 0.17926078
000310 2d e8 ec bb da 1a 66 3e 06 3e 64 be 93 59 7c 3e
       -0.007229826 0.2247118 -0.22289285 0.24643545
000320 c1 33 36 3f 7c 11 92 3e 1e 35 c4 bd 3b 0c a0 3d
       0.7117272 0.28528965 -0.09580444 0.07814833
000330 59 68 16 be 2a 51 93 be 6d 8f 02 be bc 09 20 be
       -0.14688243 -0.2877286 -0.12750025 -0.15628713
000340 95 4a 14 3c 35 07 d1 3d 5e fe 80 be fb cb 00 3e
       0.009050985 0.10206453 -0.25194067 0.12577812
000350 ee ff 32 3e b3 b7 c3 bd a5 04 b4 bd c6 fd 05 be
       0.17480442 -0.09556522 -0.087899484 -0.13085088
000360 d4 48 af bc f1 1d bd 3d 9e 84 d9 bc 6c f0 59 be
       -0.021397032 0.092342265 -0.026552495 -0.2128312
000370 96 a5 3c 3e 25 4e 56 3e 9a 53 9e be f1 f4 76 be
       0.18422541 0.20928247 -0.30923158 -0.24116875
000380 44 a0 64 3e 5b a8 0f be e6 ce bc be c6 22 5e be
       0.22326761 -0.14029066 -0.368766 -0.21692953
000390 68 f8 05 bd da e4 05 3e 6d 23 34 be c0 07 13 be
       -0.0327076 0.13075581 -0.17591639 -0.14358425
0003a0 ed c0 23 be 12 fc a8 bd 55 69 11 3d 20 ce bb 3d
       -0.15991564 -0.082512036 0.035500843 0.091701746
0003b0 74 37 c6 bd 0f a2 37 be 0a a5 1f be 4d 62 80 bd
       -0.096785456 -0.17932914 -0.15590301 -0.062687494
0003c0 0e 05 6c bd 10 ed 17 bc 53 8f d2 3d a0 bf 0a be
       -0.057622008 -0.009272829 0.10281243 -0.13549662
0003d0 a0 1f c5 bd b7 6a 70 bd 08 61 bb 3c 68 1d d8 3d
       -0.096251726 -0.05869552 0.022873417 0.10552484
0003e0 6f 42 c8 bd ee 27 be 3c 96 86 00 bc f5 21 36 3d
       -0.09778296 0.0232124 -0.007844588 0.044465978
0003f0 04 ca 80 be aa 7d 39 be 45 76 9e 3d 2b 6a a5 3e
       -0.25154126 -0.18114343 0.07737402 0.32307562

tcn.tcn.0.res_conv.bias f4 [16]
000000 ab a9 85 3e 92 58 47 3e 47 84 04 3f dc 74 10 3c
       0.2610601 0.1946738 0.5176434 0.008816924
000010 97 a5 77 3e e7 b3 ac 3e ca a3 8d be 67 b6 7e 3e
       0.24184261 0.33731005 -0.27664024 0.24874268
000020 99 f9 1f 3e 7c 08 b0 3e 39 78 b5 be d1 08 05 3f
       0.15622558 0.34381473 -0.35443285 0.5196658
000030 85 e5 aa bc 8a 72 00 3e 9d a2 9e 3e 95 cd c2 3d
       -0.020861397 0.12543693 0.3098344 0.09511868

tcn.tcn.1.conv1.weight f4 [16, 16, 5]
000000 48 e1 17 bf 2e 1e 04 be 18 92 8b bd 2c d2 90 bc
       -0.59328127 -0.12902138 -0.068149745 -0.017678343
000010 43 66 ed bd 8a ff f1 be aa 83 56 be 43 5c a8 3d
       -0.115917705 -0.47265273 -0.20948663 0.082207225
000020 cd e0 62 bd 19 bc fc 3d a6 65 83 3e de 74 76 3e
       -0.055390168 0.12340564 0.2566349 0.24068019
000030 b7 1f 79 be 34 fd a4 be c3 df da be 7e b1 83 3d
       -0.24328505 -0.3222443 -0.42748842 0.06430338
000040 f8 05 8a be 85 65 e2 bc 88 b6 27 3e f2 a4 95 3e
       -0.2695768 -0.027636299 0.16378224 0.29227406
000050 6f b3 38 be 01 59 99 be 1b 4b 27 3e ff 0e bc 3d
       -0.18037198 -0.29950717 0.16337244 0.09182548
000060 a2 da a6 3e 56 d6 fc 3d d6 cf 8a 3b 81 08 85 be
       0.3258868 0.12345569 0.0042362018 -0.2598305
000070 65 03 d0 be 1d 85 d2 bd 1e 93 22 3e d6 b4 70 3e
       -0.4062759 -0.102792956 0.15876433 0.23506483
000080 be c3 4b 3c b7 7d a0 bd 35 e4 74 be 80 07 16 3e
       0.012436805 -0.07836478 -0.23915179 0.14651299
000090 a1 56 ca bd 97 1c 7e be 11 d0 85 be 25 30 19 be
       -0.098798044 -0.24815594 -0.26135305 -0.14959772
0000a0 94 7c c0 3e 8e 64 c9 3e 1f 73 8a bd 7e cc 6c bc
       0.37595046 0.3933453 -0.06760239 -0.014453052
0000b0 e3 74 1a 3e 32 e4 e8 bc ad 55 ba 3d fa 2e 01 be
       0.15083651 -0.028429125 0.090983726 -0.12615576
0000c0 10 88 da bd 7d f0 f2 3c 15 88 06 3e 85 4f f9 bc
       -0.10670483 0.02965569 0.13137849 -0.030433426
0000d0 c6 31 10 3e 04 d6 8c bc 51 75 03 be e6 ca b0 bc
       0.14081487 -0.017191894 -0.12837721 -0.021581125
0000e0 06 e3 93 be 53 1e 7e 3d 2d c0 d1 bd 15 1f 66 3e
       -0.28884143 0.06204064 -0.10241733 0.22472794
0000f0 80 f3 c0 bc 58 06 69 3d 29 50 29 be 1e be 5a 3e
       -0.02355361 0.056890815 -0.16534485 0.21361586
000100 57 ec 3a be a2 75 04 bf 1b 50 14 bf 1c 48 a1 bc
       -0.18254219 -0.51741993 -0.5793473 -0.019687705
000110 40 41 05 3d d9 ff 25 3e 6d d2 2d 3d c4 8e bd 3c
       0.03253293 0.1621088 0.042437006 0.023139365
000120 0a f0 a0 be ae 8f 46 be 89 aa 38 3e 13 ac 2d 3f
       -0.31433135 -0.19390747 0.18033804 0.6784069
000130 05 da d1 3e 5e 11 85 bd f3 5e 61 bd 8e e6 96 be
       0.40986648 -0.06497453 -0.05502219 -0.29472774
000140 c5 20 01 3e 82 da 92 3d 36 c9 0b be 38 d9 05 3e
       0.12610157 0.07170583 -0.13650975 0.13071144
000150 9b e1 1b be 4e 01 60 be e0 90 42 be dd e1 a6 3d
       -0.1522278 -0.21875498 -0.19000578 0.08148549
000160 d6 ba 9c be b1 be bd 3d 34 fb a2 3d cd 86 be 3d
       -0.30611295 0.09264887 0.079580694 0.09303055
000170 12 1c 1d be 92 00 6b 3e 13 91 73 3e 21 4c ba 3d
       -0.15342739 0.22949436 0.2378581 0.09096552
000180 3f 5a fc be 5a 72 8b 3e 60 33 bd be f4 9b 08 3e
       -0.49287602 0.2723568 -0.3695326 0.13340741
000190 81 68 bd be eb 94 8a be b1 d0 ad 3e 22 45 12 bf
       -0.36993793 -0.2706674 0.3394828 -0.5713674
0001a0 1d f6 44 3d db 42 21 3c da 1c 31 3e ec 94 67 be
       0.048086274 0.0098426 0.17296162 -0.22615403
0001b0 89 c3 f8 3d 3e 4e a6 be d8 c4 84 3e e3 5c fa 3c
       0.1214667 -0.3248157 0.2593143 0.03056187
0001c0 2b 9f a9 bc 44 2f d4 3c df 7c 8e 3e 0f 40 65 be
       -0.02070578 0.025901444 0.27829644 -0.22387718
0001d0 e6 d3 ce 3d 7a a0 a0 3e 36 6a ee 3e b4 d7 02 bf
       0.1009901 0.31372434 0.46565408 -0.51110387
0001e0 35 1c 1f 3e 6c d4 8a 3e d8 57 69 3d 90 3e 52 3f
       0.15538104 0.2711519 0.05696854 0.8212671
0001f0 a5 7b ea be 92 1d a8 be db d8 11 3e 13 6b 40 3e
       -0.45797458 -0.3283506 0.1424288 0.18790846
000200 34 51 d7 3e ef e4 60 be d1 28 16 bc 1d e4 3e be
       0.4205414 -0.21962331 -0.009165005 -0.18641706
000210 3c d1 1a 3e 24 2a 2b bf ff 94 0b 3f 24 26 80 be
       0.15118879 -0.66861176 0.54524225 -0.250291
000220 92 7b d8 3c 9e f3 01 3e 80 da 84 3e af 69 4a bf
       0.02642611 0.12690589 0.25947952 -0.7906751
000230 1b 20 41 3e eb e6 15 3e 0a c8 25 3c 3b f7 5b 3e
       0.18859904 0.1463887 0.010118494 0.2148103
000240 22 4a 15 be e2 bc 3e be bb 58 b2 be 30 f6 62 3b
       -0.1457906 -0.1862674 -0.3483332 0.0034631602
000250 b6 8c 9f 3d f6 0b e2 bd ed 51 a1 3e fb 1a 4b 3e
       0.0779051 -0.110374376 0.31507817 0.19834511
000260 aa ea d7 bd a1 3a 2e be 08 e9 85 be 1e 36 a6 3e
       -0.105428055 -0.17014553 -0.2615435 0.32463163
000270 d2 4c 6b 3e 5b 80 2f bd ff 7f 89 3e de 83 86 bc
       0.22978523 -0.04284702 0.26855466 -0.016420301
000280 95 a7 8b 3e 7a 59 e9 3d 48 3b 0c 3e d5 13 2d be
       0.27276292 0.113940194 0.13694489 -0.16902097
000290 15 eb c5 bb 94 7c 97 bd f9 62 24 3e 3a 35 33 be
       -0.006039987 -0.07396808 0.1605338 -0.17500773
0002a0 95 44 0b 3e bb f6 33 bf 49 1f 92 be 28 bf f9 be
       0.1360038 -0.70298356 -0.28539494 -0.48778653
0002b0 e0 aa de 3d e9 ad 09 bd 29 82 91 3e 25 30 09 be
       0.108724356 -0.03361312 0.28419617 -0.13397272
0002c0 91 4d b4 bb 98 c9 f8 be f3 aa b7 3e ce 6a 6d 3e
       -0.0055024107 -0.48591304 0.3587261 0.23185274
0002d0 39 45 21 be 16 86 99 3d a6 2b f8 bd b7 68 dd 3e
       -0.15749063 0.07496278 -0.121177 0.43243954
0002e0 ed 9d 54 be 80 4f e1 bb e5 08 53 bd 0a 45 2e be
       -0.20763369 -0.006875932 -0.051522154 -0.17018524
0002f0 d3 73 86 be 37 19 62 3e c8 a7 69 bd ef b9 e5 bd
       -0.26260242 0.22079931 -0.057044774 -0.11217105
000300 6b 8a 46 3e 48 01 5d bc b0 fe 07 be 86 f3 8d 3d
       0.1938874 -0.013489075 -0.1328075 0.06931214
000310 96 54 1b 3e ae 0d 8c 3d 36 93 10 3e fe 14 0d be
       0.15168986 0.06838547 0.14118657 -0.13777539
000320 a4 aa 7c 3d 31 c1 07 3d 58 e2 fa 3d 73 d1 bc be
       0.061686173 0.033143226 0.12250203 -0.36878547
000330 4f d4 20 3f aa 2d 14 3d 0e 9a 78 bd 99 1d 1c be
       0.6282396 0.03617636 -0.060693793 -0.15245666
000340 33 11 39 be 61 33 7d be fd 86 ed bd 08 3c 0c bd
       -0.18072967 -0.24726631 -0.115980126 -0.034236938
000350 02 21 05 be a1 0e 46 3f aa df 69 3e dc 0f 93 3b
       -0.13000873 0.7736607 0.22839227 0.0044879746
000360 fd d6 4f 3e 97 76 89 bd ad 51 64 be dd 16 ee be
       0.20296855 -0.06712072 -0.22296782 -0.46501818
000370 e6 7e 74 bd 78 29 82 bc 34 63 46 bc 43 70 d3 be
       -0.059691332 -0.015888914 -0.012108613 -0.41296586
000380 c3 a2 10 3f 6f 52 fc bd 8c 5c 83 bd 7b d0 e2 bd
       0.56498355 -0.123204105 -0.06414136 -0.11074921
000390 dc 70 56 be be cc cb be a2 cc ea bb 72 09 68 3e
       -0.2094149 -0.39804643 -0.0071655074 0.22659853
0003a0 c2 b2 5a be 89 a6 53 3d 17 2e db 3c ba 6e d0 bd
       -0.21357253 0.051672492 0.026755376 -0.101773694
0003b0 57 4f 75 3c 0c 3f 8f bb ff 61 30 be 1a 30 79 3e
       0.014972529 -0.0043715294 -0.17224883 0.24334756
0003c0 51 72 9d 3e 64 d2 41 3e ee ee 8a 3e 65 5e 7a be
       0.3075128 0.18927914 0.27135414 -0.24450071
0003d0 67 dd 95 be a4 09 f1 be 2c ba e5 be 44 ce b6 be
       -0.2927048 -0.47077668 -0.448686 -0.35704243
0003e0 2e e3 03 3d 76 71 07 be f5 fa dd 3d 61 66 e1 bd
       0.032199077 -0.13226876 0.10838882 -0.11005855
0003f0 3b fe fb be 82 b2 ab bd b8 0d 43 3e a5 4b 90 3e
       -0.492174 -0.08383657 0.19048202 0.28182712

tcn.tcn.1.conv1.bias f4 [16]
000000 52 00 a4 bd d6 f9 fa be e7 2a ac be 3f d3 b9 bc
       -0.080078736 -0.49018735 -0.33626482 -0.022683738
000010 1a 36 44 bf bb 6a ec be ab 07 ea bd 98 ca db be
       -0.7664505 -0.4617518 -0.11427244 -0.42928004
000020 e8 a5 1a be 0f 15 25 bf ca 9f 18 bf 8b 9e a7 be
       -0.1510235 -0.6448526 -0.5961882 -0.32738146
000030 d8 f3 a9 be ee c0 cd be ad f0 1b bf c5 e8 3f bf
       -0.3319385 -0.40186256 -0.6091412 -0.74964553
