checkpoints/fine_tune/var_rf/gtzan/0.1/model_faithful-hill-196_finetune_finetune_HAI_GIA/it_56_loss_5.3818_acc10.17_acc20.17.pt (torch, 436414 bytes, 211 tensors)

conv1.weight f4 [16, 1, 3, 3]
0.27595118 -0.041761104 -0.25569305 0.35777637 -0.10661333 -0.32358623 0.2314923 0.21453236
-0.26019147 0.33152118 -0.48285842 -0.3971978 0.26343912 -0.28171885 0.114621386 0.11347819
0.17818688 0.072873995 -0.2658625 0.3978622 0.18170413 -0.22628295 0.34312358 0.040152628
-0.5136635 0.16153742 -0.2099157 -0.28434396 -0.11803231 0.33842835 -0.35610086 0.08768723
0.1875603 0.36625564 0.057782363 -0.49328157 -0.2130387 -0.20230441 -0.14884053 -0.21142615
0.18560943 0.29357946 -0.01663731 -0.026053865 -0.19502312 -0.08370702 0.07899081 -0.08925887
-0.83682865 0.29357916 0.4534095 -0.2595126 0.29167372 -0.056556016 0.30872354 0.0067206565
-0.10042773 -0.087450705 0.21427044 -0.35618716 -0.10680447 0.1459147 -0.21458265 0.0100328615
0.01963525 0.25691766 -0.42574912 -0.15260264 -0.11322727 0.12558825 -0.054278772 0.5512009
-0.34280846 0.13234882 -0.29760024 -0.36454302 0.42741367 0.38517618 -0.14192767 0.4434218
0.14991267 -0.65660745 0.088766396 0.5153985 0.008035953 -0.23047313 0.19285433 -0.36400524
-0.018820526 0.29692122 -0.5058369 0.030157246 0.30171955 -0.24515511 -0.22703671 0.29708612
0.082819216 -0.13427942 -0.031032009 0.14776763 0.41379318 -0.1349982 0.23574916 0.38592964
-0.16745609 0.36185414 0.0972541 -0.07150369 0.14700101 0.15602374 0.049221147 -0.091318175
-0.14837399 -0.37619495 0.2911628 0.34611914 -0.1631448 0.24072516 -0.10780332 -0.2815304
0.34324145 0.30635357 0.12595138 -0.16585517 0.23690875 -0.44887772 0.36388576 0.20754138
-0.10733396 0.45012224 -0.24567237 0.04100447 0.27480838 -0.24335536 -0.3777627 -0.15278117
-0.04467446 0.28933358 -0.13699281 0.039863426 0.3505279 -0.53223866 -0.2653694 0.5192323
00000000: 7949 8d3e b10d 2bbd 33ea 82be 772e b73e
00000010: 1758 dabd 18ad a5be 510c 6d3e 5fae 5b3e
00000020: d137 85be 25bd a93e 3839 f7be 835d cbbe
00000030: 7ee1 863e 743d 90be 9ebe ea3d 4167 e83d
00000040: 9f76 363e f63e 953d 211f 88be 98b4 cb3e
00000050: a610 3a3e b8b6 67be e5ad af3e 1577 243d
00000060: 737f 03bf 116a 253e 24f4 56be 8895 91be
00000070: ecba f1bd 7b46 ad3e da52 b6be 5d95 b33d
00000080: cf0f 403e dc85 bb3e 33ad 6c3d 678f fcbe
00000090: d126 5abe e328 4fbe a769 18be 1980 58be
000000a0: 6610 3e3e 0c50 963e f84a 88bc ea6e d5bc
000000b0: 24b4 47be 966e abbd efc5 a13d 5bcd b6bd
000000c0: 673a 56bf 0250 963e 4a25 e83e d6de 84be
000000d0: 4256 953e 48a7 67bd 0311 9e3e f438 dc3b
000000e0: 0ead cdbd 5b19 b3bd b669 5b3e 2a5e b6be
000000f0: 4dbc dabd aa6a 153e 8ebb 5bbe df60 243c
00000100: 1bda a03c b68a 833e cafb d9be de43 1cbe
00000110: b3e3 e7bd 359a 003e 6b53 5ebd 811b 0d3f
00000120: 9784 afbe 7386 073e 0f5f 98be 62a5 babe
00000130: f7d5 da3e d035 c53e 7d55 11be 2f08 e33e
00000140: b582 193e 6d17 28bf 28cb b53d 28f1 033f
00000150: 3ba9 033c 2601 6cbe 9b7b 453e e55e babe
00000160: 812d 9abc 0f06 983e 877e 01bf 540c f73c
00000170: fc7a 9a3e f109 7bbe 507c 68be ac1b 983e
00000180: 1f9d a93d 8b80 09be d736 febc 6650 173e
00000190: b3dc d33e f83c 0abe 3a68 713e 9298 c53e
000001a0: 9c79 2bbe f244 b93e 282d c73d 8770 92bd
000001b0: 6f87 163e b0c4 1f3e 1d9c 493d 0605 bbbd
000001c0: 5aef 17be a09c c0be 4a13 953e 8736 b13e
000001d0: 6e0f 27be a880 763e fdc7 dcbd c124 90be
000001e0: 58bd af3e 60da 9c3e 66f9 003e f0d5 29be
000001f0: 3598 723e 4dd3 e5be 3c4f ba3e ba85 543e
00000200: e8d1 dbbd 6c76 e63e 8a91 7bbe 4ef4 273d
00000210: afb3 8c3e 2632 79be 1d6a c1be ab72 1cbe
00000220: 91fc 36bd 8823 943e d847 0cbe d547 233d
00000230: 6578 b33e cb40 08bf 7fde 87be 68ec 043f

conv1.bias f4 [16]
0.014140286 0.10004721 -0.06480108 -0.02150853 -0.20049146 -0.11299696 0.14880909 0.0010496537
0.009897625 0.050960504 -0.034584437 -0.21664104 0.09481807 -0.036835305 -0.012795038 -0.14569484
00000000: a8ac 673c 8de5 cc3d 6eb6 84bd a832 b0bc
00000010: a24d 4dbe f36a e7bd 6961 183e 8994 893a
00000020: a629 223c f6bb 503d 69a8 0dbd 26d7 5dbe
00000030: fa2f c23d 9ee0 16bd 47a2 51bc 0731 15be

conv2.weight f4 [16, 16, 3, 3]
-0.15353338 -0.03743098 -0.006827047 -0.12104333 -0.20822887 -0.23781174 -0.056283932 0.03625883
-0.11405943 0.035797954 -0.024986414 0.0350462 -0.048844665 0.047254667 -0.10036228 -0.07663647
-0.010131807 -0.2836435 0.026820488 -0.2708763 -0.058877196 0.24814849 -0.27739763 -0.04669526
0.30766484 -0.23662932 -0.13496144 -0.119495705 0.08991559 0.18518245 -0.025970109 0.16195408
0.36315778 0.4245991 0.5032298 0.57157373 -0.0049524773 -0.0039331773 -0.17320041 -0.053022157
-0.1413047 -0.24863397 0.010372769 -0.13532956 -0.101360716 0.32515588 -0.044060726 0.3786887
0.30542272 -0.09380252 0.33425012 0.5411877 0.10390382 0.47361395 0.10642364 -0.11182884
-0.12148232 0.03384206 -0.067313775 -0.17272148 0.006999179 -0.05383564 -0.018356984 0.21621913
0.13017482 -0.09982613 0.2046261 -0.011830067 -0.26818743 -0.046597924 -0.04008028 -0.27412844
0.12765159 -0.1592547 -0.0054015396 0.22192809 -0.19548447 -0.07434401 0.077405006 -0.17782183
-0.16239506 0.028338013 0.23397231 0.24326852 0.22101171 0.33971155 0.35598487 0.29314736
0.16770756 0.31233186 0.07675119 0.03431975 0.011938406 0.053259566 0.030102896 0.15814823
0.09641818 0.03224296 0.1366194 -0.13573077 -0.21888384 -0.21984757 -0.17738013 -0.27849177
-0.33864135 -0.13672817 -0.114129186 -0.26944757 -0.08534522 -0.08301415 -0.17227173 -0.0023213592
-0.096529216 -0.16960858 0.024051726 0.051870715 -0.06652322 0.09432932 -0.115956 -0.043487635
0.03036682 -0.15722285 -0.13123892 0.08440482 -0.025375994 -0.24177101 -0.20804007 -0.22137123
-0.16265829 -0.23148765 -0.082459226 0.017610246 -0.058743507 0.08472974 -0.0281508 -0.00013767867
-0.014247891 0.0503437 -0.06860299 0.022543028 0.10839557 0.0899749 -0.03705703 0.069688514
0.2482163 0.06492058 0.20037976 0.11213683 0.1677542 0.14271726 0.07077677 0.09247163
0.07526889 0.3046666 -0.13280205 0.29575938 0.0908967 -0.12198386 0.12048856 0.2742922
-0.14334713 0.03616285 -0.28797075 0.5872829 -0.05396982 -0.6038327 0.13938682 -0.091534436
-0.57118744 0.17971174 -0.19433403 -0.37332168 -0.22510624 -0.03875425 -0.051533278 0.1329583
0.28402308 -0.046926923 0.119633906 0.1659278 0.15326823 0.19292276 0.17472567 0.029087538
0.09721119 -0.024561457 0.04104104 0.10432334 0.013265279 -0.38461632 0.288004 -0.03262186
-0.45293307 0.09772266 -0.08625364 -0.5284757 0.2773188 0.0023190605 -0.043472864 0.13110241
-0.0863358 0.07687219 0.09094698 0.08263086 0.08353531 0.16799925 0.13128121 0.2468522
0.059919097 -0.10936362 -0.028786622 -0.048323087 -0.0337738 0.01778706 0.00568908 -0.22675914
-0.51668286 0.15417448 -0.19457701 -0.41207606 0.14370373 -0.063167 -0.52400386 0.34759122
0.17319831 -0.041716624 -0.079283096 -0.06438446 -0.17571971 -0.099187315 0.122152165 -0.17711377
0.10612697 0.10021828 0.20078494 -0.1329598 0.021142485 -0.069397934 -0.011789285 -0.05968587
-0.043807574 -0.13558121 0.04146139 -0.25619954 -0.051282495 0.22671777 -0.095179416 -0.063335724
0.14187631 -0.0655892 0.04150329 0.19344163 0.060216952 -0.07493385 -0.100203924 -0.051553167
00000000: db37 1dbe 3a51 19bd 6cb5 dfbb 91e5 f7bd
00000010: f339 55be ec84 73be fb89 66bd 2484 143d
00000020: fe97 e9bd e0a0 123d 4fb0 ccbc 9b8c 0f3d
00000030: 5811 48bd 1c8e 413d bd8a cdbd 95f3 9cbd
00000040: e1ff 25bc b939 91be a4b6 db3c 4cb0 8abe
00000050: 3729 71bd a31a 7e3e 1007 8ebe 8743 3fbd
00000060: 3f86 9d3e f54e 72be 5533 0abe 2aba f4bd
00000070: aa25 b83d 78a0 3d3e 44bf d4bc 4ad7 253e
00000080: d1ef b93e 0e65 d93e abd3 003f a852 123f
00000090: 6448 a2bb e2e1 80bb 735b 31be c32d 59bd
000000a0: 2eb2 10be e799 7ebe 8cf2 293c d593 0abe
000000b0: 3596 cfbd d57a a63e 0579 34bd 7ce3 c13e
000000c0: 5e60 9c3e 891b c0bd d522 ab3e 478b 0a3f
000000d0: 87cb d43d 877d f23e a3f4 d93d 8506 e5bd
000000e0: b9cb f8bd f99d 0a3d cedb 89bd e6dd 30be
000000f0: 5e59 e53b c382 5cbd 6361 96bc 8c68 5d3e
00000100: 8c4c 053e a471 ccbd 8189 513e e6d2 41bc
00000110: dd4f 89be 77dd 3ebd 382b 24bd 905a 8cbe
00000120: 19b7 023e aa13 23be 66ff b0bb 1e41 633e
00000130: 152d 48be ac41 98bd 8486 9e3d ed16 36be
00000140: e44a 26be 1f25 e83c 7096 6f3e 621b 793e
00000150: e550 623e acee ad3e a643 b63e 6917 963e
00000160: 88bb 2b3e f6e9 9f3e ba2f 9d3d de92 0c3d
00000170: 4e99 433c b426 5a3d 599a f63c 9cf1 213e
00000180: e576 c53d 3211 043d f5e5 0b3e 02fd 0abe
00000190: 1623 60be b91f 61be 23a3 35be 7996 8ebe
000001a0: 6662 adbe 7802 0cbe 90bc e9bd 08f5 89be
000001b0: 7ac9 aebd 5303 aabd 0068 30be f221 18bb
000001c0: 1cb1 c5bd dfad 2dbe 2008 c53c 6376 543d
000001d0: 533d 88bd bb2f c13d 577a edbd 1720 32bd
000001e0: d6c3 f83c 07ff 20be 7f63 06be 6fdc ac3d
000001f0: 51e1 cfbc d292 77be 7508 55be 24af 62be
00000200: e58f 26be 190b 6dbe 62e0 a8bd 5d43 903c
00000210: 089d 70bd c986 ad3d 829c e6bc d65d 10b9
00000220: fc6f 69bc 3235 4e3d b97f 8cbd 28ac b83c
00000230: 7ffe dd3d c344 b83d 1dc9 17bd dab8 8e3d
00000240: 6a2c 7e3e 15f5 843d 5a30 4d3e ffa7 e53d
00000250: c2c7 2b3e 7924 123e 69f3 903d c461 bd3d
00000260: 9326 9a3d 43fd 9b3e 43fd 07be c66d 973e
00000270: 0d28 ba3d add2 f9bd b5c2 f63d 0770 8c3e
00000280: 97c9 12be 7f1f 143d e770 93be 2c58 163f
00000290: 750f 5dbd c894 1abf 6bbb 0e3e 6876 bbbd
000002a0: 5739 12bf 5b06 383e 80ff 46be 0524 bfbe
000002b0: 4082 66be c7bc 1ebd 8f14 53bd 3826 083e
000002c0: 796b 913e 7236 40bd 9f02 f53d fae8 293e
000002d0: 59f2 1c3e 8b8d 453e 49eb 323e fd48 ee3c
000002e0: a916 c73d 1c35 c9bc a61a 283d 7aa7 d53d
000002f0: 9d56 593c 6eec c4be 4375 933e 809e 05bd
00000300: d8e6 e7be d122 c83d c0a5 b0bd 2f4a 07bf
00000310: bbfc 8d3e 61fb 173b 9a10 32bd b63f 063e
00000320: d3d0 b0bd 2b6f 9d3d 6942 ba3d 5e3a a93d
00000330: 9014 ab3d ff07 2c3e 956e 063e d3c6 7c3e
00000340: ba6d 753d 09fa dfbd ecd1 ebbc 6eee 45bd
00000350: 6556 0abd 2bb6 913c 766b ba3b 8c33 68be
00000360: 5445 04bf eadf 1d3e 323f 47be a2fb d2be
00000370: 1227 133e b35d 81bd 1e25 06bf 7af7 b13e
00000380: e65a 313e 0ddf 2abd 2d5f a2bd 00dc 83bd
00000390: deef 33be b822 cbbd ea2a fa3d 505d 35be
000003a0: 1959 d93d 3e3f cd3d 919a 4d3e 9d26 08be
000003b0: 0133 ad3c 8120 8ebd d827 41bc 2c79 74bd
000003c0: 926f 33bd cdd5 0abe 6bd3 293d 962c 83be
000003d0: 980d 52bd b428 683e 6ded c2bd 29b6 81bd
000003e0: 0648 113e a153 86bd 5bff 293d 9015 463e
000003f0: 0da6 763d eb76 99bd b737 cdbd 6a29 53bd

conv2.bias f4 [16]
-0.049369965 -0.17547001 0.035173684 -0.09122919 -0.16165106 -0.31837425 -0.209137 -0.039984092
-0.041785765 -0.09837172 -0.073629126 0.025089342 -0.02836217 -0.12975657 0.04832694 -0.14197062
00000000: 2938 4abd 69ae 33be 4812 103d 5fd6 babd
00000010: db87 25be f301 a3be 0228 56be 5cc6 23bd
00000020: 8d27 2bbd 1d77 c9bd deca 96bd 2a88 cd3c
00000030: c857 e8bc e8de 04be 78f2 453d bf60 11be

conv3.weight f4 [16, 16, 8, 1]
-0.121961035 -0.06037786 -0.03106357 -0.014082525 -0.1613221 -0.33966276 -0.19777374 0.18365353
0.1819665 0.13030466 0.21647836 0.09043339 0.21422526 0.32977703 -0.26046535 -0.34880906
0.15179954 0.2594245 0.31840223 0.27035466 0.110894345 0.07707091 -0.23804952 -0.14364795
-0.19275923 -0.054987255 -0.04399239 -0.04992949 -0.0022145575 -0.1534776 0.20224367 0.0038371582
0.06910137 0.06421587 0.08284251 0.10234205 0.13366094 0.2299837 0.100569405 0.10490287
-0.22396019 0.064547025 0.010961991 0.06680944 -0.069586165 -0.06702375 -0.49416667 0.026450302
0.0920022 0.10436947 -0.003422202 -0.09886684 0.024293976 0.08088646 -0.10068527 -0.08353705
0.10521816 -0.002194334 0.0881616 -0.039976686 -0.053902604 -0.23371096 0.10350402 0.03795475
0.08319799 0.015109593 0.13411549 0.09606113 -0.11403022 -0.074230514 0.66938525 -0.09590323
-0.120546356 -0.09050418 -0.076500915 -0.08350128 -0.0920162 -0.09646434 -0.32273588 0.35089937
0.21185254 0.0960907 0.07052299 -0.07499612 -0.028454397 -0.028126175 0.33545753 -0.10666235
-0.08652073 -0.015248493 0.0053292867 0.0017053316 0.15551059 -0.31959006 -0.63638544 0.23832305
-0.03190045 -0.16178821 -0.18183814 -0.075298846 -0.10358864 -0.30490544 -0.030012146 0.17257081
0.014962584 0.13939808 0.20245577 0.13329391 -0.036785763 0.187019 0.34149754 -0.24291615
0.23315138 0.18079288 0.15659076 0.1552876 -0.008011383 0.057995763 -0.068809494 0.032677844
-0.09744157 -0.022253003 0.0072447592 -0.14134666 -0.14040819 0.014635132 0.06974596 0.07989764
-0.0528814 -0.019524282 -0.037038937 0.07782822 0.02459399 -0.016641187 0.31990618 0.06595378
-0.003515383 0.060471673 0.06960017 0.0439138 0.10775057 0.27945542 -0.3069919 -0.14794326
-0.002203019 -0.028509043 0.08023762 0.082010865 -0.081468396 0.12649216 -0.18596454 -0.044673294
0.10785925 0.088738546 -0.03150438 -0.09638252 -0.19010474 -0.28847596 -0.12227918 -0.39338908
-0.04996211 0.03448662 -0.034099795 -0.0018984829 -0.10760568 0.115229115 -0.2926167 -0.05666807
0.019073486 -0.024880264 -0.083769046 -0.14190386 -0.05739648 -0.13113078 -0.5798363 -0.10225633
-0.11271993 -0.028788771 -0.09002795 -0.041925922 0.04869115 0.10827748 0.18460786 -0.018444192
0.026670113 0.049401347 -0.027025245 0.09469731 0.050066642 0.2169305 0.19129689 0.0727912
-0.053611346 0.081413776 0.15745455 0.10317737 0.102403335 0.11688708 0.64004314 -0.168362
-0.007382844 0.0068728607 0.0072593563 -0.043397643 0.016177775 0.15834115 -0.26566964 0.43940473
0.036171846 -0.043957748 -0.07115028 -0.065935805 -0.072396874 -0.22862253 0.47031412 -0.3718446
0.11553085 0.14773086 0.110121794 0.14472084 0.08416235 0.06988523 -0.11979016 0.110299475
0.0016385837 -0.0002177957 0.008197438 -0.0072653717 -0.07095237 -0.0039271615 -0.114384755 0.21306756
0.0036913268 0.04245359 0.03375891 0.0022496774 0.08130321 -0.12734792 0.08007912 -0.31108797
0.059194457 -0.03958715 -0.013971629 0.043763872 -0.041291628 0.0108331535 -0.26291317 0.17902528
-0.006144761 0.002464 0.07872662 0.07633743 -0.03870001 0.20559433 0.17229918 0.3775305
00000000: b5c6 f9bd c64e 77bd 0779 febc 64ba 66bc
00000010: 9f31 25be 47e8 adbe 3385 4abe ac0f 3c3e
00000020: 6d55 3a3e 966e 053e 81ac 5d3e 2435 b93d
00000030: de5d 5b3e 89d8 a83e b75b 85be 1a97 b2be
00000040: 5771 1b3e 4ad3 843e 9e05 a33e ed6b 8a3e
00000050: 931c e33d 5ad7 9d3d 41c3 73be 7318 13be
00000060: ad62 45be 513a 61bd 5d31 34bd dd82 4cbd
00000070: 1c22 11bb 3b29 1dbe f718 4f3e d578 7b3b
00000080: 0585 8d3d 9c83 833d 55a9 a93d b598 d13d
00000090: 6ade 083e d980 6b3e 55f7 cd3d 51d7 d63d
000000a0: d255 65be 3b31 843d ec99 333c 63d3 883d
000000b0: 3183 8ebd bf43 89bd 6a03 fdbe 4eae d83c
000000c0: a66b bc3d a9bf d53d 0647 60bb b37a cabd
000000d0: 2904 c73c cda7 a53d 1434 cebd 7915 abbd
000000e0: 9e7c d73d d1ce 0fbb 128e b43d 98be 23bd
000000f0: fac8 5cbd ed51 6fbe eaf9 d33d 7176 1b3d
00000100: b563 aa3d 3a8e 773c 9255 093e b3bb c43d
00000110: ad88 e9bd 2b06 98bd d55c 2b3f ea68 c4bd
00000120: 02e1 f6bd 415a b9bd 83ac 9cbd b802 abbd
00000130: fd72 bcbd 198f c5bd a33d a5be 15a9 b33e
00000140: dfef 583e 33cb c43d 5b6e 903d 9197 99bd
00000150: 3219 e9bc dd68 e6bc 17c1 ab3e ca71 dabd
00000160: c831 b1bd d1d4 79bc 4ca1 ae3b 6f85 df3a
00000170: 2b3e 1f3e 4fa1 a3be 28ea 22bf f50a 743e
00000180: 0caa 02bd cfab 25be c733 3abe 4836 9abd
00000190: 4826 d4bd 911c 9cbe 08dc f5bc 67b6 303e
000001a0: a025 753c 5fbe 0e3e 9150 4f3e 337e 083e
000001b0: abac 16bd e981 3f3e c4d8 ae3e 03bf 78be
000001c0: 3cbf 6e3e c521 393e 5459 203e b603 1f3e
000001d0: 2d42 03bc f78c 6d3d feeb 8cbd 34d9 053d
000001e0: 728f c7bd ee4b b6bc 7265 ed3b 2ebd 10be
000001f0: 2ac7 0fbe 31c8 6f3c f8d6 8e3d 60a1 a33d
00000200: 2b9a 58bd 63f1 9fbc 24b6 17bd 6764 9f3d
00000210: 5679 c93c 1953 88bc beca a33e c712 873d
00000220: 5762 66bb 25b1 773d 898a 8e3d f5de 333d
00000230: 55ac dc3d c814 8f3e 0b2e 9dbe 707e 17be
00000240: 8760 10bb cc8b e9bc 9f53 a43d 50f5 a73d
00000250: e7d8 a6bd 2987 013e 7d6d 3ebe 58fb 36bd
00000260: 4fe5 dc3d 8ebc b53d bd0a 01bd 3364 c5bd
00000270: d1aa 42be 1fb3 93be 826d fabd 4b6a c9be
00000280: 12a5 4cbd d841 0d3d 3aac 0bbd 84d6 f8ba
00000290: 5e60 dcbd 3efd eb3d dbd1 95be c71c 68bd
000002a0: 0040 9c3c b2d1 cbbc 1b8f abbd 3f4f 11be
000002b0: 9218 6bbd 2647 06be 2770 14bf c46b d1bd
000002c0: b5d9 e6bd 6ed6 ebbc 9360 b8bd 84ba 2bbd
000002d0: 5f70 473d 95c0 dd3d d809 3d3e 4618 97bc
000002e0: 487b da3c 1159 4a3d 0c64 ddbc aaf0 c13d
000002f0: ae12 4d3d 0723 5e3e 55e3 433e 8d13 953d
00000300: 9297 5bbd 44bc a63d c43b 213e a84e d33d
00000310: d7b8 d13d 7e62 ef3d ded9 233f 1767 2cbe
00000320: c9eb f1bb bc35 e13b e5df ed3b bac1 31bd
00000330: 4187 843c 2f24 223e da05 88be a8f9 e03e
00000340: ee28 143d 0a0d 34bd 3db7 91bd 5a09 87bd
00000350: d044 94bd 061c 6abe 03cd f03e 6a62 bebe
00000360: 709b ec3d c246 173e 8987 e13d b331 143e
00000370: 4f5d ac3d fd1f 8f3d 8b54 f5bd b1e4 e13d
00000380: bfc5 d63a 1760 64b9 8c4e 063c 5b12 eebb
00000390: 7a4f 91bd 6baf 80bb 8e42 eabd 622e 5a3e
000003a0: 30ea 713b d1e3 2d3d c846 0a3d 536f 133b
000003b0: 4c82 a63d 7e67 02be 8600 a43d ec46 9fbe
000003c0: e375 723d 2326 22bd 42e9 64bc bf41 333d
000003d0: 6921 29bd 8a7d 313c 8e9c 86be 6752 373e
000003e0: fe59 c9bb 0f7b 213b 6c3b a13d cc56 9c3d
000003f0: e783 1ebd 5287 523e 326f 303e ad4b c13e

conv3.bias f4 [16]
0.0021007468 0.12112761 0.114474975 0.0115000075 0.0053536203 0.25313118 0.15689793 0.12757711
-0.034553584 -0.3405765 0.2766282 0.3780699 -0.0090009365 0.040678415 0.22304171 0.0010225554
00000000: afac 093b c111 f83d db71 ea3d 876a 3c3c
00000010: 6c6d af3b 699a 813e daa9 203e 93a3 023e
00000020: 0f88 0dbd 0b60 aebe 36a2 8d3e 6192 c13e
00000030: aa78 13bc 699e 263d 0c65 643e 4407 863a

tcn.tcn.0.conv1.weight f4 [16, 16, 5]
0.11501012 0.14200394 0.083775885 -0.0032150403 -0.15711737 0.12144677 0.06116989 0.0667532
-0.022181554 -0.3688261 0.12689106 0.07159012 0.19987945 -0.060777366 -0.058704495 0.17403221
0.1489114 0.11799308 0.08771291 0.26674128 0.120363854 -0.020534605 0.2888222 0.1406149
-0.12729508 -0.15062582 0.14973378 0.18441597 -0.0073206513 0.1867851 -0.03201782 0.018446505
-0.13109535 -0.046917908 0.1023714 -0.11123495 -0.098350406 -0.05861985 -0.0028955843 -0.15102528
-0.13244784 0.02520573 -0.058099598 -0.17180479 -0.19753085 -0.23067309 -0.19823869 -0.23659723
-0.2554556 -0.0583266 -0.11924031 0.010545897 -0.080510266 -0.27054113 -0.109195285 -0.06120679
-0.030800428 -0.023614297 -0.08513727 -0.015005398 0.09945342 0.050591566 0.27034262 -0.04690152
-0.17774817 -0.11893559 -0.07994052 -0.08336534 -0.091725536 -0.12710148 -0.07727091 0.06944183
0.044362392 0.06101161 0.11425617 0.0032729004 -0.12839085 0.093148015 -0.049155604 -0.12589389
0.24908024 0.3687471 0.12512802 0.20269227 0.15425023 0.1729077 0.3557614 0.019845273
0.19617583 0.27839646 0.014914887 0.34105444 0.28088564 0.24248335 0.39618066 -0.06677589
-0.048166174 -0.28788462 0.06371851 -0.015914971 -0.37674895 -0.29237667 -0.0090885125 -0.000718775
0.10344976 0.16176769 0.13399978 0.11013726 0.059381466 0.04273894 -0.27898058 -0.21923563
0.0051766722 0.044372216 0.025219701 -0.010563913 -0.0033402024 0.09458078 0.24814597 0.22569881
0.049581725 0.20471942 0.018974796 0.20548199 0.065473 -0.037364 -0.22850381 -0.27243483
-0.2094236 -0.041756805 0.0740411 0.053598944 0.13015854 0.14893888 0.12804902 0.09391293
0.2882264 0.1583099 0.10228827 0.1598986 -0.14811376 -0.10617251 0.0061506294 -0.06146554
0.109205455 0.05512784 0.10614754 0.14888445 0.16592367 0.24434839 0.19648707 0.016943648
0.07170426 -0.03383773 -0.13632324 0.14192194 0.16633847 -0.10514157 -0.12407052 0.19740085
-0.015553067 0.089396745 -0.06229978 -0.06702369 -0.22289258 0.2076248 0.08610956 0.11762092
-0.080905646 -0.16116321 0.15251687 0.044969555 0.09747946 0.026021468 -0.20118414 -0.10232771
0.02208715 -0.10957812 -0.1261126 -0.028957259 -0.06062416 -0.17713468 -0.13943471 -0.014739083
-0.05049962 0.12249418 0.23582993 0.070288025 -0.08266379 -0.03482079 0.032293838 0.018185867
0.016157612 0.015344342 0.27335274 0.03237315 -0.202718 -0.05314816 -0.019271322 -0.034850545
0.046988122 -0.09455065 -0.095564164 -0.13904434 -0.08996833 -0.095039956 -0.0903755 0.15982133
0.2152978 -0.023012321 0.12510113 -0.031919193 -0.19233532 -0.14347751 -0.15604436 -0.090779684
-0.010736166 0.13772751 0.16042851 -0.077214785 -0.18856099 -0.2503057 -0.017078241 0.069726184
-0.19308558 0.00096911564 -0.12860465 -0.19264601 -0.219826 -0.33994633 -0.33138323 -0.093590416
0.07073372 0.053681016 -0.025823737 -0.09589417 -0.12006866 0.14259917 -0.09952409 -0.37006715
-0.4859213 -0.23783751 -0.1053778 0.1667971 0.18628804 -0.15558754 0.047781724 -0.051226635
-0.084517755 0.010958946 -0.23524982 -0.04438622 0.1546639 0.019703656 0.2572055 -0.0148096485
00000000: 6d8a eb3d 7b69 113e b192 ab3d 6db3 52bb
00000010: 60e3 20be 16b9 f83d 478d 7a3d e7b5 883d
00000020: 17b6 b5bc c6d6 bcbe bbef 013e d79d 923d
00000030: 33ad 4c3e b0f1 78bd 2074 70bd 8035 323e
00000040: 3b7c 183e 5ba6 f13d d3a2 b33d 5092 883e
00000050: 5381 f63d 3038 a8bc 81e0 933e 5afd 0f3e
00000060: a459 02be a83d 1abe d053 193e 8ad7 3c3e
00000070: 13e2 efbb 9844 3f3e 1e25 03bd 201d 973c
00000080: dc3d 06be fe2c 40bd 19a8 d13d 26cf e3bd
00000090: f06b c9bd 5e1b 70bd d8c3 3dbb 5fa6 1abe
000000a0: 68a0 07be 3f7c ce3c d8f9 6dbd 98ed 2fbe
000000b0: 8745 4abe 9135 6cbe 15ff 4abe 8b46 72be
000000c0: 14cb 82be dfe7 6ebd 4334 f4bd b3c8 2c3c
000000d0: 91e2 a4bd 5e84 8abe c7a1 dfbd f9b3 7abd
000000e0: 2e51 fcbc c572 c1bc 735c aebd 33d9 75bc
000000f0: 3cae cb3d 1a39 4f3d 596a 8a3e cf1b 40bd
00000100: 9e03 36be 8194 f3bd dbb7 a3bd 73bb aabd
00000110: 99da bbbd e426 02be 3640 9ebd 8537 8e3d
00000120: 57b5 353d 4fe7 793d 24ff e93d 287e 563b
00000130: e478 03be 63c4 be3d 6357 49bd 54ea 00be
00000140: e40e 7f3e 6bcc bc3e 8f21 003e 908e 4f3e
00000150: c6f3 1d3e b70e 313e 5c26 b63e 8e92 a23c
00000160: 51e2 483e fb89 8e3e 925d 743c b09e ae3e
00000170: 3ed0 8f3e 8e4d 783e 31d8 ca3e ccc1 88bd
00000180: e549 45bd 9d65 93be da7e 823d 1d60 82bc
00000190: 3de5 c0be 65b2 95be fce7 14bc 2c6c 3cba
000001a0: 78dd d33d 6ea6 253e 3d37 093e a58f e13d
000001b0: fb39 733d 070f 2f3d 8bd6 8ebe 4e7f 60be
000001c0: 13a1 a93b a4bf 353d 8c99 ce3c 4314 2dbc
000001d0: 4ce7 5abb 91b3 c13d fa19 7e3e 971d 673e
000001e0: 3516 4b3d f8a1 513e 0871 9b3c df69 523e
000001f0: b516 863d fe0a 19bd e7fc 69be 947c 8bbe
00000200: 2473 56be 2f09 2bbd dca2 973d 918a 5b3d
00000210: 4848 053e 6f83 183e 481f 033e 6c55 c03d
00000220: 6992 933e fe1b 223e 837c d13d 75bc 233e
00000230: 22ab 17be f970 d9bd 388b c93b 4ac3 7bbd
00000240: 1ca7 df3d bbcd 613d e263 d93d 2a75 183e
00000250: e5e7 293e 7736 7a3e e833 493e 68cd 8a3c
00000260: afd9 923d 6e99 0abd 5298 0bbe fc53 113e
00000270: a254 2a3e 7754 d7bd af18 febd 7323 4a3e
00000280: 4bd2 7ebc a415 b73d 0e2e 7fbd b743 89bd
00000290: f43d 64be 989b 543e 365a b03d 3de3 f03d
000002a0: dcb1 a5bd f807 25be 622d 1c3e ff31 383d
000002b0: 50a3 c73d f92a d53c 3703 4ebe 3191 d1bd
000002c0: 1cf0 b43c 7e6a e0bd a923 01be c637 edbc
000002d0: 0a51 78bd cb62 35be f9c7 0ebe 327c 71bc
000002e0: b1d8 4ebd 3bde fa3d 677d 713e 2bf3 8f3d
000002f0: a24b a9bd 3fa0 0ebd 8b46 043d 87fa 943c
00000300: f85c 843c d666 7b3c e4f4 8b3e b599 043d
00000310: 4f95 4fbe e3b1 59bd e4de 9dbc 72bf 0ebd
00000320: 9e76 403d c5a3 c1bd 25b7 c3bd a461 0ebe
00000330: 5141 b8bd 4fa4 c2bd ca16 b9bd 34a8 233e
00000340: 0777 5c3e 5684 bcbc 831a 003e b3bd 02bd
00000350: 8df3 44be c5eb 12be 18ca 1fbe b3ea b9bd
00000360: bee6 2fbc 7108 0d3e 5f47 243e c922 9ebd
00000370: 2216 41be 1228 80be abe7 8bbc 9acc 8e3d
00000380: 3ab8 45be 400c 7e3a f0b0 03be ff44 45be
00000390: 111a 61be 720d aebe 10ab a9be 55ac bfbd
000003a0: d7dc 903d a0e0 5b3d 4d8c d3bc 2a64 c4bd
000003b0: 8fe6 f5bd 8405 123e 49d3 cbbd 7179 bdbe
000003c0: adca f8be ad8b 73be 51d0 d7bd dccc 2a3e
000003d0: 4bc2 3e3e 5752 1fbe c5b6 433d 05d3 51bd
000003e0: a517 adbd 278d 333c 54e5 70be 53ce 35bd
000003f0: 3760 1e3e 9069 a13c 70b0 833e 2ba4 72bc

tcn.tcn.0.conv1.bias f4 [16]
0.019470647 -0.00210682 0.19012062 0.11996574 0.005363935 0.07638022 -0.018433573 -0.18565594
0.010398361 0.18331349 0.06627634 -0.0445922 0.21957423 0.058047708 -0.10679018 0.088677004
00000000: e880 9f3c 9312 0abb fbae 423e 99b0 f53d
00000010: f3c3 af3b 3c6d 9c3d 0102 97bc 971c 3ebe
00000020: e35d 2a3c 88b6 3b3e e4bb 873d 50a6 36bd
00000030: 11d8 603e 6fc3 6d3d cfb4 dabd 4a9c b53d

tcn.tcn.0.conv2.weight f4 [16, 16, 1]
0.06982015 -0.12518877 0.28377113 0.07367978 0.18387675 -0.1552327 0.07451846 0.21008062
0.22778164 -0.07296326 -0.14741327 -0.20341977 0.21633959 -0.10670142 -0.113086395 0.40246958
0.110301055 0.17973281 -0.0674101 0.1535176 0.07465212 0.12007029 0.2026379 -0.0747846
-0.020730363 0.0020103091 -0.1781215 -0.09630722 0.081479296 -0.3027135 -0.15504739 0.40405026
0.057651825 0.22257602 -0.15487988 0.232984 -0.0036793773 -0.071067266 -0.012862777 0.13151582
0.022732062 0.33726206 0.20070007 0.19153973 -0.14425303 0.29149508 -0.09718699 -0.10985595
0.14452516 0.35973173 -0.010209646 0.06639293 -0.060033716 0.23231633 0.18743736 0.07067952
-0.20319372 -0.26209363 -0.07581229 -0.26598784 0.27602187 0.10071862 0.0903294 0.21845548
0.13241865 0.29410735 -0.07749787 0.006010673 0.062020984 0.0318959 -0.09806336 -0.524475
-0.12617813 -0.44980228 -0.05565799 -0.2581727 -0.11041268 0.11713712 -0.0071166153 0.101950765
-0.024472792 0.073923 0.006629786 -0.07387812 -0.28816023 0.017219793 -0.07773368 -0.41650152
0.18058091 -0.513347 -0.12535878 -0.5769043 -0.0581117 0.02152753 0.24057026 0.042043615
-0.12600443 -0.25833273 -0.07347402 -0.17447826 0.030655967 0.02552716 -0.26235384 -0.14637746
-0.20053004 0.2528768 -0.2200505 -0.24856673 0.056856696 -0.33661395 -0.0055971798 -0.07245126
-0.22753026 0.021074578 -0.016401468 0.11698674 -0.08951829 0.21091262 0.12928693 0.131967
0.32100695 0.20551343 0.033656556 0.19520186 0.23173772 0.23206556 -0.32424685 -0.20755786
-0.18831822 0.075431354 0.27018684 0.0010120366 0.045215905 0.14081213 0.07556511 -0.010453441
-0.1923898 0.10632243 0.09944266 -0.13704287 -0.20587441 0.10284133 -0.35618895 0.2861899
-0.1407789 0.35165972 -0.10569709 0.14180303 0.1696133 0.28810105 0.23866983 -0.032951426
-0.08416266 -0.18478613 -0.12328652 0.018162057 -0.2477837 0.06580896 -0.32018304 0.0007134511
-0.14095375 -0.086058445 0.12610877 -0.108019136 -0.14229356 -0.14160825 0.017414557 0.21057004
-0.041933585 0.6179669 -0.18814795 0.5069941 0.1756034 0.050832946 0.05493174 -0.26217073
0.03099301 -0.18358518 -0.11112677 0.26365706 -0.16308488 -0.24004884 -0.1293955 0.18822376
-0.08272549 0.617573 -0.0048558665 0.14170974 -0.015381853 0.03801004 0.31467062 0.21922563
-0.10525347 -0.34200197 0.17680225 -0.04934671 -0.16522324 -0.03488785 -0.12981056 0.38388896
-0.05717006 0.29171535 -0.14492342 0.30539548 0.26127434 -0.18727233 0.096192226 -0.18742616
0.18484646 0.1363917 0.25571832 -0.093003415 -0.048018422 -0.23793139 0.015168965 0.4283607
-0.0045756795 0.3865101 -0.21573278 0.084345356 0.25923353 0.21709095 -0.20985906 0.3181409
0.05528806 -0.061530724 -0.02210961 -0.27797478 -0.11111637 0.01077275 -0.15091775 0.3997036
-0.01539095 0.55155134 -0.27283022 0.20518829 -0.0375809 -0.0034813255 -0.2366197 -0.09080859
0.04190205 -0.31502965 -0.057861924 -0.25316072 0.10798559 -0.066621676 -0.09533479 -0.13205428
0.24230959 0.7057005 -0.2698273 -0.046840556 0.028350627 0.21152346 -0.06978166 0.30833635
00000000: defd 8e3d 7c31 00be 734a 913e 6de5 963d
00000010: 304a 3c3e 52f5 1ebe 229d 983d 601f 573e
00000020: 973f 693e c36d 95bd 81f3 16be 464d 50be
00000030: 2088 5d3e 4686 dabd d799 e7bd 7e10 ce3e
00000040: 85e5 e13d e10b 383e 4e0e 8abd b833 1d3e
00000050: 36e3 983d 6ae7 f53d 4f80 4f3e ab28 99bd
00000060: b9d2 a9bc 64bf 033b 7c65 36be b83c c5bd
00000070: 9ede a63d 44fd 9abe bec4 1ebe addf ce3e
00000080: 5224 6c3d f8ea 633e d598 1ebe 5c93 6e3e
00000090: b521 71bb b78b 91bd 66be 52bc 15ac 063e
000000a0: 9738 ba3c 9dad ac3e 5284 4d3e fe22 443e
000000b0: 11b7 13be d83e 953e f909 c7bd 28fc e0bd
000000c0: 67fe 133e c22e b83e 5c46 27bc 04f9 873d
000000d0: eae5 75bd 55e4 6d3e 94ef 3f3e 6dc0 903d
000000e0: 0412 50be 2331 86be 7943 9bbd 8f2f 88be
000000f0: bd52 8d3e 9045 ce3d 9ffe b83d cbb2 5f3e
00000100: c198 073e 3d95 963e 34b7 9ebd 2ef5 c43b
00000110: b709 7e3d 46a5 023d 71d5 c8bd fe43 06bf
00000120: d734 01be 7c4c e6be a2f9 63bd 362f 84be
00000130: 0b20 e2bd 96e5 ef3d 7f32 e9bb 90cb d03d
00000140: 2a7b c8bc f164 973d ad3e d93b 694d 97bd
00000150: bd89 93be 8610 8d3c d632 9fbd b03f d5be
00000160: 34ea 383e b66a 03bf 0d5e 00be 00b0 13bf
00000170: 8906 6ebd 815a b03c 0d58 763e ed35 2c3d
00000180: 4e07 01be 3044 84be 8c79 96bd 6eaa 32be
00000190: 3922 fb3c 561e d13c 3e53 86be f9e3 15be
000001a0: bf57 4dbe 1179 813e eb54 61be 4788 7ebe
000001b0: 91e2 683d aa58 acbe 8c68 b7bb 5461 94bd
000001c0: b1fd 68be 98a4 ac3c 5f5c 86bc be96 ef3d
000001d0: 5d55 b7bd 7af9 573e cb63 043e 5b22 073e
000001e0: 065b a43e 1d72 523e 75db 093d ffe2 473e
000001f0: a74c 6d3e 98a2 6d3e af03 a6be 0c8a 54be
00000200: 7ed6 40be c17b 9a3d ee55 8a3e 50a6 843a
00000210: 5034 393d 0e31 103e e1c1 9a3d e944 2bbc
00000220: d501 45be 93bf d93d 98a8 cb3d f754 0cbe
00000230: bed0 52be 7a9e d23d 665e b6be 7c87 923e
00000240: 5828 10be be0c b43e b777 d8bd d034 113e
00000250: 1caf 2d3e fb81 933e dd65 743e 13f8 06bd
00000260: 795d acbd 9338 3dbe a57d fcbd 98c8 943c
00000270: 03bb 7dbe d9c6 863d 08ef a3be e506 3b3a
00000280: 2e56 10be 693f b0bd a822 013e 2339 ddbd
00000290: 67b5 11be c101 11be f9a8 8e3c ac9f 573e
000002a0: 8dc2 2bbd 1433 1e3f dba9 40be 5eca 013f
000002b0: 61d1 333e 3536 503d 1b00 613d 3e3b 86be
000002c0: 0ee5 fd3c c1fd 3bbe 6f96 e3bd 0ffe 863e
000002d0: b9ff 26be 5dcf 75be 4180 04be bbbd 403e
000002e0: fb6b a9bd 4419 1e3f f61d 9fbb 5c1c 113e
000002f0: 2b04 7cbc 6ab0 1b3d 821c a13e af7c 603e
00000300: 228f d7bd e21a afbe a60b 353e c71f 4abd
00000310: 4830 29be 90e6 0ebd 0fed 04be 188d c43e
00000320: 272b 6abd b75b 953e ce66 14be cc5c 9c3e
00000330: c0c5 853e 51c4 3fbe 6e00 c53d a5ec 3fbe
00000340: 6448 3d3e 44aa 0b3e 83ed 823e 9378 bebd
00000350: f7ae 44bd 49a4 73be 4087 783c 1852 db3e
00000360: 95ef 95bb a7e4 c53e 0ee9 5cbe 42bd ac3d
00000370: 42ba 843e 174d 5e3e 4be5 56be 5de3 a23e
00000380: bc75 623d a407 7cbd 361f b5bc b652 8ebe
00000390: fb90 e3bd 3080 303c 2f8a 1abe f3a5 cc3e
000003a0: 532a 7cbc 7832 0d3f 67b0 8bbe e11c 523e
000003b0: 6eee 19bd f326 64bb 6f4c 72be dbf9 b9bd
000003c0: 7ca1 2b3d 914b a1be a000 6dbd 489e 81be
000003d0: 8d27 dd3d f270 88bd e33e c3bd 3d39 07be
000003e0: 0120 783e caa8 343f ce26 8abe e2db 3fbd
000003f0: 933f e83c 9b99 583e b0e9 8ebd 43de 9d3e

tcn.tcn.0.conv2.bias f4 [16]
0.040849023 0.020179724 0.060574632 -0.08433108 0.11488779 0.033730503 -0.09902636 -0.047293205
-0.2274769 -0.15078853 0.018433569 0.060471676 0.17280672 -0.03321473 0.197789 0.043376468
00000000: 4e51 273d f34f a53c 1b1d 783d c6b5 acbd
00000010: 4a4a eb3d ff28 0a3d 55ce cabd 85b6 41bd
00000020: b4ef 68be 4f68 1abe ff01 973c 26b1 773d
00000030: 3ff4 303e 2b0c 08bd 3389 4a3e 86ab 313d

tcn.tcn.0.res_conv.weight f4 [16, 16, 1]
-0.006911655 -0.09720442 0.19408742 0.022171188 0.08036391 0.16739595 -0.05629426 -0.130213
-0.1630166 0.29981554 -0.26787114 0.09689514 -0.04833597 0.11436176 0.13350354 -0.022186525
0.081618465 0.3205258 -0.14098942 0.15159428 0.026544845 -0.11399734 0.10678207 -0.48181456
0.095447056 -0.022268172 -0.24299605 -0.009535122 0.27122992 -0.10449131 -0.197338 -0.22761402
0.1786258 -0.24812458 -0.025104167 0.25483346 0.06312486 -0.19630237 0.4092944 0.18407515
0.009413983 0.38297164 0.1476162 -0.296364 -0.35641658 0.2642772 0.1717114 -0.09187137
0.27827087 -0.2905132 0.17552635 -0.12844245 -0.036185056 -0.010160711 -0.031106764 0.3882276
-0.0730227 0.046364322 0.20407104 -0.20420547 0.043645613 0.31823263 0.18499221 -0.08046525
-0.24554895 0.28435177 -0.09490473 -0.2698167 -0.041625816 0.06741339 -0.2761271 -0.20257904
-0.03258644 -0.14161524 0.2434929 -0.030684557 0.19972077 0.11408382 -0.02411563 -0.013098188
0.05205803 0.2042342 -0.31794745 -0.081658006 -0.1729355 0.25393608 -0.32309392 0.006780122
0.039192837 0.014227555 -0.04700799 0.082216084 0.046655104 -0.032856457 0.036499895 0.21993878
-0.35608628 0.29788038 0.054092202 -0.18214719 0.2031033 0.10988922 -0.27836427 -0.07996266
-0.16528288 0.25185934 -0.3134247 0.05811971 0.076002516 -0.34881285 -0.13558334 0.1620963
-0.12997097 0.06327003 0.2830709 0.34810895 -0.0793543 0.27811402 0.43729594 -0.23368023
-0.01839692 -0.12993948 -0.26936132 -0.055912342 -0.0069631073 -0.26268613 -0.082462855 -0.16386002
-0.21508443 0.008875479 0.21550521 -0.3243903 -0.32172498 -0.04118873 -0.2167847 -0.11290234
-0.10316491 0.914349 0.23773177 0.1301983 -0.2023952 -0.19245657 -0.16428748 0.3858752
0.34186715 0.010195205 0.18814367 -0.12491867 -0.11260527 -0.07133168 0.2714281 0.1395267
-0.07813322 0.19581436 0.07400149 0.203873 -0.20477058 0.31038228 0.03183256 -0.26346678
0.056570202 -0.16494416 -0.12132902 -0.25657964 -0.10140716 -0.3645683 0.17612317 0.14419356
-0.2304969 0.39272207 -0.114031844 -0.48952076 -0.030335303 -0.29891613 0.30528864 -0.2010453
-0.4226192 -0.27628106 -0.16840252 -0.095408596 0.033579383 -0.31769717 -0.22135653 -0.1011195
0.050397974 -0.24536012 -0.19381972 -0.08632087 0.09502446 -0.066294976 -0.01826454 -0.17013688
0.044583157 0.36070514 0.059416205 -0.0059400904 -0.08944591 -0.08566643 -0.2822849 -0.14729817
0.22551091 0.16191544 -0.24317682 0.10557741 0.12682562 -0.13656723 -0.069628835 0.2551401
0.33023888 0.28914103 0.23751354 0.42900118 -0.16280776 0.26544088 0.1962512 0.03922993
0.14164302 0.05721026 -0.061113972 -0.28425914 0.09566658 -0.18034342 0.069156066 -0.19846913
-0.14608529 -0.20696954 0.047145918 0.07505105 -0.15238117 -0.07768362 0.22966357 -0.022453876
-0.14262037 0.17653225 -0.110864714 0.006870852 0.12306235 0.10584815 0.007144 0.028107552
-0.26985303 -0.047327444 -0.119055234 -0.1974316 0.19733758 0.11422657 -0.20085117 0.073384404
-0.08638673 0.03564144 -0.27623585 -0.061899006 0.1275582 0.08263073 -0.157212 0.13011678
00000000: 2a7b e2bb 1c13 c7bd dabe 463e 5aa0 b53c
00000010: d595 a43d d869 2b3e cf94 66bd 8f56 05be
00000020: d3ed 26be 6c81 993e 6826 89be f670 c63d
00000030: f0fb 45bd 8036 ea3d 27b5 083e 84c0 b5bc
00000040: 9527 a73d f51b a43e 885f 10be 883b 1b3e
00000050: 9374 d93c 7077 e9bd 8fb0 da3d 66b0 f6be
00000060: bf79 c33d be6b b6bc f5d3 78be 3339 1cbc
00000070: a6de 8a3e 8aff d5bd f912 4abe a613 69be
00000080: afe9 363e 5f14 7ebe 41a7 cdbc 8879 823e
00000090: 9b47 813d 7d03 49be 098f d13e 327e 3c3e
000000a0: 1b3d 1a3c dc14 c43e b328 173e 06bd 97be
000000b0: 3c7c b6be 574f 873e 1dd5 2f3e 0f27 bcbd
000000c0: 8579 8e3e 25be 94be 2ebd 333e 6b86 03be
000000d0: c836 14bd 1c79 26bc 9dd3 febc c5c5 c63e
000000e0: ed8c 95bd 84e8 3d3d 00f8 503e 3d1b 51be
000000f0: bec5 323d 63ef a23e 996e 3d3e f7ca a4bd
00000100: 2f71 7bbe 8e96 913e 695d c2bd 6a25 8abe
00000110: d57f 2abd 0810 8a3d 8860 8dbe e170 4fbe
00000120: 5c79 05bd 9603 11be 3456 793e 2e5e fbbc
00000130: 9a83 4c3e c7a4 e93d 248e c5bc c899 56bc
00000140: cd3a 553d c522 513e 02ca a2be 503c a7bd
00000150: 0116 31be e903 823e 916c a5be c92b de3b
00000160: ab88 203d b11a 693c 738b 40bd e860 a83d
00000170: 6c19 3f3d 7e94 06bd ea80 153d a237 613e
00000180: f150 b6be c783 983e c98f 5d3d cb84 3abe
00000190: 50fa 4f3e 990d e13d c385 8ebe 77c3 a3bd
000001a0: ea3f 29be b5f3 803e 3479 a0be ef0e 6e3d
000001b0: 35a7 9b3d 9997 b2be 5cd6 0abe 93fc 253e
000001c0: 1c17 05be b893 813d abee 903e 563b b23e
000001d0: 8284 a2bd f664 8e3e 41e5 df3e df49 6fbe
000001e0: 23b5 96bc db0e 05be bae9 89be 5704 65bd
000001f0: c72a e4bb cc7e 86be 49e2 a8bd ecca 27be
00000200: 183f 5cbe 756a 113c 66ad 5c3e 7c16 a6be
00000210: 23b9 a4be 84b5 28bd cffc 5dbe 5839 e7bd
00000220: 2048 d3bd c712 6a3f f56f 733e b452 053e
00000230: b040 4fbe 5613 45be fa3a 28be 6f91 c53e
00000240: 3609 af3e ca09 273c bca8 403e 5cd5 ffbd
00000250: 989d e6bd 5816 92bd a0f8 8a3e 16e0 0e3e
00000260: 4f04 a0bd 8f83 483e 188e 973d 15c4 503e
00000270: 61af 51be 6dea 9e3e dc62 023d 1ee5 86be
00000280: 28b6 673d 1fe7 28be 597b f8bd 685e 83be
00000290: 8fae cfbd b2a8 babe a259 343e 7aa7 133e
000002a0: 6107 6cbe de12 c93e 8789 e9bd 77a2 fabe
000002b0: be81 f8bc 890b 99be cb4e 9c3e d2de 4dbe
000002c0: 8b61 d8be b674 8dbe b671 2cbe 9565 c3bd
000002d0: 898a 093d 34a9 a2be 49ab 62be be17 cfbd
000002e0: 1b6e 4e3d af3f 7bbe ad78 46be ffc8 b0bd
000002f0: 2f9c c23d a9c5 87bd 849f 95bc 5d38 2ebe
00000300: d49c 363d 58ae b83e 685e 733d 17a5 c2bb
00000310: 6b2f b7bd e271 afbd a587 90be 55d5 16be
00000320: 55ec 663e 29cd 253e 5803 79be f838 d83d
00000330: 93de 013e 48d8 0bbe 9099 8ebd b9a1 823e
00000340: 1215 a93e 4b0a 943e c036 733e 0ba6 db3e
00000350: 14b7 26be dee7 873e 13f6 483e 90af 203d
00000360: de0a 113e 4e55 6a3d a552 7abd 6a8a 91be
00000370: d7ec c33d f2ab 38be b2a1 8d3d 7e3b 4bbe
00000380: 6297 15be d3ef 53be 141c 413d 5db4 993d
00000390: cf09 1cbe 9718 9fbd ed2c 6b3e 31f1 b7bc
000003a0: 130b 12be dfc4 343e 0a0d e3bd e224 e13b
000003b0: 1d08 fc3d eac6 d83d 3718 ea3b cf41 e63c
000003c0: 2d2a 8abe 6cda 41bd 3bd3 f3bd 822b 4abe
000003d0: dd12 4a3e 9fef e93d eeab 4dbe 904a 963d
000003e0: 87eb b0bd c2fc 113d c96e 8dbe d089 7dbd
000003f0: 9e9e 023e 4d3a a93d 2ffc 20be 553d 053e

tcn.tcn.0.res_conv.bias f4 [16]
0.23650515 -0.11843937 -0.22927399 0.022829268 -0.13792416 -0.15718386 -0.20583215 -0.16559233
-0.06607831 0.13742681 -0.09844537 0.13467744 -0.03939259 -0.2906976 0.002894913 0.05968031
00000000: 682e 723e 5790 f2bd cdc6 6abe 7204 bb3c
00000010: fe3b 0dbe cef4 20be aac5 52be 0991 29be
00000020: 1154 87bd 9db9 0c3e ba9d c9bd e2e8 093e
00000030: 205a 21bd 51d6 94be 95b8 3d3b 5773 743d

tcn.tcn.1.conv1.weight f4 [16, 16, 5]
-0.04068021 -0.2243304 -0.13457623 -0.21291749 -0.32067248 0.2004827 -0.40144932 -0.18417467
-0.10603703 0.19101346 0.118406855 0.44149664 -0.11174942 -0.28330442 -0.22540987 0.027807215
-0.109570466 -0.113122255 -0.1098371 -0.27696928 0.0020625077 -0.112549625 0.26667985 0.27854958
0.2984268 0.061891455 -0.017723141 0.29035076 0.053308923 0.2733572 0.08279766 -0.089058794
0.18641137 0.2999957 0.48408142 -0.101631805 -0.19687437 -0.44734675 -0.4159501 -0.17047176
-0.16074933 0.20086153 0.26652864 0.18414997 0.14188386 -0.13319416 -0.04817976 0.01938813
-0.10690164 -0.10614203 0.1252629 0.22243369 -0.12558185 -0.30031025 -0.2455833 0.22743693
-0.0132315345 -0.2973256 0.087425984 0.0007587078 0.004452098 0.1363876 0.008223992 0.041588347
0.17142862 0.4009823 0.013842764 -0.22707476 -0.18100645 -0.0033696683 0.20597646 0.13148366
0.11898432 0.038674477 -0.06755327 0.5161793 0.057915606 0.06869331 0.24765638 0.18532954
-0.18379648 -0.19126132 -0.05958937 -0.16901872 -0.20402463 -0.13299793 0.18324722 -0.12529072
0.058608953 -0.27538627 -0.33022228 -0.07326856 -0.29913494 -0.18137845 -0.24643496 0.12206741
-0.28960225 -0.35529467 -0.19179243 -0.12567087 0.3778748 0.00934764 -0.11792561 0.11149934
0.2102038 0.16643001 -0.22977656 -0.40801308 -0.06484856 0.5051339 0.072108425 0.08327044
0.27238753 0.36537877 0.36462772 -0.43558168 -0.059398662 -0.22845858 -0.12478226 0.022817517
-0.16284719 0.061283402 -0.36362037 -0.20657295 0.23705374 0.043954052 -0.05907967 -0.16130857
-0.046988484 -0.05488648 -0.20293252 -0.21110705 0.15413187 0.008047825 -0.035413865 0.18295453
0.27046907 0.37794995 0.11825572 -0.17895123 -0.08852027 -0.053083804 0.32078344 -0.08843902
0.021128496 -0.25285777 -0.16428123 -0.20222002 -0.17186819 -0.07156853 -0.02525541 0.05076601
0.24306016 -0.109940745 0.028917417 0.046678327 0.17551316 0.1000299 0.0703606 0.06744969
0.17285733 0.019345004 -0.002393871 0.16386528 -0.1381335 -0.015239045 -0.17802982 0.06830606
-0.05363395 0.24974719 -0.09467561 0.050793327 0.009866252 -0.14689294 -0.09592563 -0.18277448
-0.1055532 -0.16769686 0.15024039 0.04969702 0.0089936275 -0.09810984 -0.22984509 0.12680247
0.17124063 -0.13219789 -0.104968354 -0.034842826 0.022434678 0.21213925 0.37041712 -0.005550419
0.05057991 -0.09292904 0.0046310592 -0.12682162 0.11805268 0.10320236 0.07908072 -0.018361075
0.15162362 -0.09950229 -0.17910469 -0.011327756 0.19332702 -0.15156911 0.03288666 -0.23655301
-0.19409949 0.25419185 0.32343948 0.19476229 0.027446114 -0.06862572 -0.33520442 0.31629
0.13707358 -0.04708341 -0.07786399 -0.18177825 0.19263686 -0.118180156 0.12867735 0.07221823
-0.071481995 -0.0017438477 -0.13052645 0.08128168 0.0047112154 -0.078293234 0.20227367 -0.058185607
0.103832915 -0.08382134 -0.16112022 0.35122645 -0.097361274 0.08618853 0.05648987 -0.20207752
0.0064590154 -0.03885879 0.18043931 0.15696487 -0.18503997 0.026949875 0.03310793 -0.092062145
-0.110642105 0.1220261 -0.12585261 0.04919614 -0.0037626966 -0.23925325 -0.052321285 0.025551334
00000000: 4ba0 26bd deb6 65be 5ace 09be 0b07 5abe
00000010: 2f2f a4be 564b 4d3e c48a cdbe 4998 3cbe
00000020: f129 d9bd 0899 433e 4b7f f23d d90b e23e
00000030: e1dc e4bd 470d 91be d8d1 66be f5cb e33c
00000040: 7b66 e0bd a4ac e7bd 46f2 e0bd ebce 8dbe
00000050: 232b 073b 6b80 e6bd 438a 883e 0d9e 8e3e
00000060: 66cb 983e e581 7d3d 1f30 91bc dba8 943e
00000070: 755a 5a3d 7af5 8b3e d291 a93d 7564 b6bd
00000080: 9fe2 3e3e 0999 993e 85d9 f73e 5624 d0bd
00000090: 6f99 49be a20a e5be 69f7 d4be 2690 2ebe
000000a0: 799b 24be a5ae 4d3e 7176 883e cf91 3c3e
000000b0: 014a 113e 0d64 08be 2458 45bd dbd3 9e3c
000000c0: 3fef dabd fe60 d9bd eb44 003e a8c5 633e
000000d0: 8798 00be 44c2 99be 307a 7bbe 3ae5 683e
000000e0: 14c9 58bc 103b 98be 650c b33d 05e4 463a
000000f0: e8e2 913b 31a9 0b3e ecbd 063c 8b58 2a3d
00000100: fc8a 2f3e 8d4d cd3e c3cc 623c 4986 68be
00000110: c159 39be a7d5 5cbb 7eeb 523e a7a3 063e
00000120: 0dae f33d 2169 1e3d 5e59 8abd 5424 043f
00000130: ea38 6d3d 14af 8c3d a299 7d3e 07c7 3d3e
00000140: 2535 3cbe 02da 43be fc13 74bd 3e13 2dbe
00000150: d5eb 50be 9c30 08be 29a5 3b3e 364c 00be
00000160: f10f 703d 6eff 8cbe e512 a9be d40d 96bd
00000170: 3728 99be 46bb 39be 7259 7cbe 7afe f93d
00000180: bf46 94be 2fe9 b5be 3c65 44be ddaf 00be
00000190: ce78 c13e d826 193c fb82 f1bd c459 e43d
000001a0: aa3f 573e a16c 2a3e 8c4a 6bbe 17e7 d0be
000001b0: 52cf 84bd 7550 013f 95ad 933d b189 aa3d
000001c0: 6176 8b3e ed12 bb3e 7cb0 ba3e 9004 dfbe
000001d0: 034c 73bd 0cf1 69be d78d ffbd cdeb ba3c
000001e0: 6ac1 26be 4e04 7b3d 732c babe dc87 53be
000001f0: 37be 723e 2a09 343d 86fd 71bd 132e 25be
00000200: ff76 40bd a5d0 60bd 8bcd 4fbe 722c 58be
00000210: bfd4 1d3e 06db 033c 210e 11bd 6f58 3b3e
00000220: ec7a 8a3e a882 c13e 0e30 f23d fe3e 37be
00000230: 1e4a b5bd 676e 59bd ba3d a43e 841f b5bd
00000240: ab15 ad3c 9376 81be 5739 28be c412 4fbe
00000250: 37fe 2fbe 8592 92bd 6fe4 cebc 05f0 4f3d
00000260: c3e4 783e 9d28 e1bd 38e4 ec3c c631 3f3d
00000270: b9b9 333e 7adc cc3d 3819 903d 1023 8a3d
00000280: 8301 313e 6a79 9e3c 7ee2 1cbb 4dcc 273e
00000290: de72 0dbe 30ad 79bc 734d 36be 0ce4 8b3d
000002a0: 46af 5bbd babd 7f3e 49e5 c1bd aa0c 503d
000002b0: 0fa6 213c 1a6b 16be a874 c4bd 3c29 3bbe
000002c0: 472c d8bd bab8 2bbe 9ed8 193e 1a8f 4b3d
000002d0: 025a 133c d0ed c8bd 835c 6bbe 82d8 013e
000002e0: b459 2f3e e25e 07be a6f9 d6bd 5ab7 0ebd
000002f0: eec8 b73c 083b 593e 50a7 bd3e 4ae0 b5bb
00000300: e12c 4f3d 9551 bebd 24c0 973b 87dd 01be
00000310: 9ac5 f13d c25b d33d 13f5 a13d f769 96bc
00000320: 3943 1b3e dbc7 cbbd 3867 37be 0d98 39bc
00000330: 85f7 453e ef34 1bbe 2ab4 063d f43a 72be
00000340: 04c2 46be 6f25 823e dc99 a53e c46f 473e
00000350: acd6 e03c a48b 8cbd ea9f abbe c3f0 a13e
00000360: 045d 0c3e 89da 40bd 2877 9fbd 1424 3abe
00000370: 9942 453e 7008 f2bd ffc3 033e 27e7 933d
00000380: 2765 92bd d291 e4ba baa8 05be 0277 a63d
00000390: 8a60 9a3b 3458 a0bd d420 4f3e 0854 6ebd
000003a0: 5aa6 d43d 86aa abbd b3fc 24be f4d3 b33e
000003b0: 5965 c7bd 9d83 b03d ec61 673d 69ed 4ebe
000003c0: 26a6 d33b 652a 1fbd 15c5 383e 66bb 203e
000003d0: 1e7b 3dbe fcc5 dc3c 2e9c 073d 148b bcbd
000003e0: 5498 e2bd d2e8 f93d 82df 00be e481 493d
000003f0: 9397 76bb cefe 74be d84e 56bd 0851 d13c

tcn.tcn.1.conv1.bias f4 [16]
-0.20261133 -0.26879877 0.08701703 0.06634767 -0.30926043 -0.19731621 0.08236375 0.080761634
-0.04905762 -0.11547275 -0.21625891 0.095122956 -0.24186054 0.20728485 -0.066998705 0.13714448
00000000: 5879 4fbe fe9f 89be fc35 b23d 4ae1 873d
00000010: 6257 9ebe 430d 4abe 53ae a83d 5b66 a53d
00000020: a5f0 48bd fa7c ecbd fa72 5dbe d3cf c23d
00000030: 4aaa 77be 7b42 543e 9e36 89bd 9a6f 0c3e

tcn.tcn.1.conv2.weight f4 [16, 16, 1]
0.5349207 0.015139725 -0.05966877 0.08691302 -0.053217057 -0.13688844 0.2238655 0.33918625
-0.3413424 -0.28626522 -0.04829293 0.26538962 0.0058691255 0.30490172 0.38448662 -0.08593295
-0.12827824 0.3840414 -0.15297043 -0.19664022 0.056831166 0.15678772 0.212895 -0.16821572
0.29072177 -0.14271489 0.12774803 0.25092173 -0.05608566 -0.1206363 -0.34308875 0.22956377
0.045736093 0.16978127 0.23200169 0.07404848 0.123239 -0.033858925 0.23871107 -0.2646313
-0.07620094 -0.05101103 -0.3249802 0.09074727 -0.15543142 -0.1096411 -0.17693461 -0.23579553
-0.2649873 -0.038354088 -0.4830703 -0.1210044 0.18003584 -0.194619 -0.059483297 0.1415566
-0.021099737 0.15664637 0.20952673 -0.26803988 -0.10019684 -0.092786044 0.047340807 0.099253304
0.09025738 0.15533724 -0.029992256 -0.24656332 0.107981235 -0.08239242 0.076705314 -0.11970768
0.41117486 -0.19655442 -0.04192477 0.2150054 -0.17370947 -0.06303602 -0.013093176 0.13174888
-0.16055398 -0.06859739 -0.012759477 -0.19285794 0.15554795 0.26708567 0.49278846 0.16031675
0.11962402 0.008721775 -0.06414216 0.18318978 -0.08510749 -0.11685957 0.13577339 0.09575039
-0.18205139 0.21401513 -0.13656633 -0.005082855 0.2500654 -0.08321042 -0.12744316 0.2973316
0.10745422 -0.06742659 0.034572605 0.2427309 -0.25756165 -0.25770763 -0.28989676 0.31988603
0.27685037 -0.19789416 0.14010914 0.04883454 -0.16926163 0.43902123 0.09833114 0.04300401
-0.042203646 -0.107903935 -0.18736243 -0.1201985 -0.058833517 0.2837923 -0.017089633 -0.16704679
-0.24906963 0.2536246 -0.32426786 0.11619195 -0.25068998 0.24288946 0.33176494 -0.11940379
0.046047732 -0.060465317 -0.03840029 0.17433228 -0.24690534 -0.1214356 -0.05889543 -0.073878
-0.07076116 0.050681487 0.097899765 -0.20380881 -0.05558705 -0.19154628 0.21068084 0.013081827
0.09356041 -0.12945318 0.28683886 -0.1092384 -0.004063943 0.15882078 0.42165908 0.1141977
0.19452633 -0.14341691 -0.17834069 -0.26784953 -0.09323299 0.29053614 -0.16171251 -0.13807732
-0.034305967 -0.18054685 0.20791216 -0.051017974 0.07598973 0.0776957 -0.063641876 0.10076688
0.25959018 -0.019603113 -0.17675431 -0.06309172 -0.18291013 -0.37456733 -0.15655197 0.0019032563
-0.36803177 0.069190964 -0.045416843 -0.14015286 0.11542573 -0.17379363 -0.028822191 -0.0140498355
0.19249173 -0.198759 -0.06815279 -0.093684584 -0.15379876 -0.025045902 0.10493101 0.08700304
0.28094822 -0.028897667 -0.11753391 -0.049767975 0.034500945 -0.18338971 0.32584897 0.22268535
-0.062062804 -0.060756404 0.05455355 -0.20083798 -0.29605138 -0.019062135 0.30326518 0.04825287
-0.15147716 0.013155897 -0.11260249 -0.027470471 -0.32724568 -0.31755218 0.22102356 0.037976563
-0.12032913 0.42409202 0.19452468 0.11777283 0.16703439 -0.17878054 0.19634737 0.13102221
-0.013366518 -0.12081236 0.18618359 -0.091027714 -0.20184486 0.07007266 -0.2151914 0.07482135
-0.38438785 0.1426577 -0.11603296 0.120487556 0.1229341 -0.040527977 0.12811396 0.0077400417
-0.12451831 0.008650884 0.16969539 -0.089117624 -0.24595788 -0.012605694 -0.5572294 -0.13324602
00000000: 90f0 083f 9c0c 783c 3d67 74bd 74ff b13d
00000010: 21fa 59bd 7c2c 0cbe ff3c 653e d2a9 ad3e
00000020: 6ec4 aebe 5b91 92be cfce 45bd 26e1 873e
00000030: cb51 c03b 141c 9c3e 6edb c43e 9dfd afbd
00000040: 5f5b 03be 13a1 c43e 48a4 1cbe 0e5c 49be
00000050: ccc7 683d f68c 203e 2601 5a3e be40 2cbe
00000060: 7cd9 943e da23 12be 61d0 023e d078 803e
00000070: 14ba 65bd 2a10 f7bd 54a9 afbe c412 6b3e
00000080: c555 3b3d 24db 2d3e da91 6d3e bba6 973d
00000090: bb64 fc3d a8af 0abd ad70 743e c17d 87be
000000a0: 3d0f 9cbd f1f0 50bd ce63 a6be b4d9 b93d
000000b0: 6a29 1fbe 838b e0bd 592e 35be 6274 71be
000000c0: 6aac 87be 2d19 1dbd fe54 f7be 28d1 f7bd
000000d0: 515b 383e 344a 47be c2a4 73bd 37f4 103e
000000e0: 5bd9 acbc e867 203e 2d8e 563e 863c 89be
000000f0: 0034 cdbd 9c06 bebd 6fe8 413d 5145 cb3d
00000100: dcd8 b83d ba10 1f3e 52b2 f5bc 187b 7cbe
00000110: 4425 dd3d 5bbd a8bd ad17 9d3d 4d29 f5bd
00000120: 8385 d23e 9045 49be 4fb9 2bbd 602a 5c3e
00000130: e5e0 31be 0719 81bd c384 56bc 2ee9 063e
00000140: 4368 24be ca7c 8cbd 200d 51bc 8d7c 45be
00000150: f647 1f3e 74bf 883e c54e fc3e 132a 243e
00000160: 70fd f43d c7e5 0e3c f75c 83bd 1a96 3b3e
00000170: d64c aebd 1254 efbd 2e08 0b3e c818 c43d
00000180: ae6b 3abe c826 5b3e 0bd8 0bbe 148e a6bb
00000190: 9208 803e 3a6a aabd 7680 02be d93b 983e
000001a0: f510 dc3d f416 8abd 019c 0d3d 738e 783e
000001b0: 1fdf 83be 41f2 83be 596d 94be 1ac8 a33e
000001c0: 55bf 8d3e c4a4 4abe c578 0f3e ba06 483d
000001d0: ec52 2dbe 64c7 e03e d661 c93d f924 303d
000001e0: bbdd 2cbd bdfc dcbd f0db 3fbe a22a f6bd
000001f0: 6afb 70bd 394d 913e 8fff 8bbc 500e 2bbe
00000200: 1c0c 7fbe 15db 813e 7006 a6be 0cf6 ed3d
00000210: 705a 80be 04b8 783e 18dd a93e f989 f4bd
00000220: 8c9c 3c3d 7baa 77bd 9f49 1dbd 2984 323e
00000230: c1d4 7cbe 3ab3 f8bd 563c 71bd 594d 97bd
00000240: 3aeb 90bd 6497 4f3d ac7f c83d 42b3 50be
00000250: 3faf 63bd b524 44be b8bc 573e 2955 563c
00000260: 9a9c bf3d 608f 04be 8bdc 923e 62b8 dfbd
00000270: d32a 85bb eaa1 223e b3e3 d73e 7ce0 e93d
00000280: e931 473e e2db 12be f19e 36be 9323 89be
00000290: f0f0 bebd 27c1 943e f797 25be 2464 0dbe
000002a0: 6a84 0cbd 46e1 38be ede6 543e 39f8 50bd
000002b0: 81a0 9b3d ec1e 9f3d ac56 82bd de5e ce3d
000002c0: 01e9 843e b596 a0bc 15ff 34be 3b36 81bd
000002d0: cb4c 3bbe 4ac7 bfbe 294f 20be af76 f93a
000002e0: a96e bcbe feb3 8d3d 0307 3abd 3b84 0fbe
000002f0: 5364 ec3d f5f6 31be 841c ecbc 4831 66bc
00000300: 8d1c 453e 7b87 4bbe b193 8bbd b4dd bfbd
00000310: 6c7d 1dbe 102d cdbc 12e6 d63d a62e b23d
00000320: 72d8 8f3e cdba ecbc 9eb5 f0bd 81d9 4bbd
00000330: dd50 0d3d 83ca 3bbe add5 a63e a107 643e
00000340: 9135 7ebd b5db 78bd 8b73 5f3d 79a8 4dbe
00000350: 0c94 97be 3228 9cbc 9345 9b3e cda4 453d
00000360: d41c 1bbe d58b 573c 229c e6bd c109 e1bc
00000370: bf8c a7be 3396 a2be 0054 623e 508d 1b3d
00000380: 1e6f f6bd 9722 d93e 7a31 473e e232 f13d
00000390: 100b 2b3e 3f12 37be 490f 493e b02a 063e
000003a0: 3dff 5abc 786c f7bd e9a6 3e3e bd6c babd
000003b0: 6bb0 4ebe 4182 8f3d 225b 5cbe f03b 993d
000003c0: 7cce c4be dc14 123e b0a2 edbd 2ec2 f63d
000003d0: e0c4 fb3d aa00 26bd 4e30 033e 2da0 fd3b
000003e0: 7503 ffbd 70bc 0d3c a1c4 2d3e 4d83 b6bd
000003f0: 62dc 7bbe 1d88 4ebc 96a6 0ebf a571 08be

tcn.tcn.1.conv2.bias f4 [16]
-0.19510105 0.19334804 -0.044036202 0.0053415042 0.06725197 -0.12690338 -0.08482722 0.07201309
0.31213775 0.12017526 -0.08459657 0.14100853 0.21170399 -0.083403304 -0.13665259 0.21340115
00000000: 92c8 47be 07fd 453e 4e5f 34bd c907 af3b
00000010: 67bb 893d f6f2 01be e5b9 adbd 997b 933d
00000020: 85d0 9f3e 721e f63d f740 adbd 8a64 103e
00000030: eec8 583e 5acf aabd a8ee 0bbe d585 5a3e
