checkpoints/fine_tune/var_rf/hainsworth/0.4/model_valiant-frog-191_finetune_GTZ_GIA/it_1664_loss_4.2267_acc10.33_acc20.4.pt (torch, 436712 bytes, 211 tensors)

conv1.weight f4 [16, 1, 3, 3]
000000 f2 9b 6c 3e 1c d9 ad bd d0 59 97 be 99 27 9f 3e
       0.23106363 -0.08488676 -0.2956071 0.31084898
000010 bf d5 1b be bc 6e bb be bb 74 40 3e 23 35 32 3e
       -0.15218256 -0.3660792 0.18794529 0.17403083
000020 8d 79 96 be c5 cb a1 3e 52 f6 fa be 21 89 ce be
       -0.2938961 0.31600776 -0.49016052 -0.40338996
000030 fa 3e 82 3e 5d c9 91 be 7b 12 e6 3d 33 a8 da 3d
       0.25438672 -0.2847394 0.112339936 0.10676613
000040 97 c0 33 3e 80 68 91 3d a9 ac 62 be b7 64 dc 3e
       0.17553936 0.0710001 -0.22136177 0.4304559
000050 87 02 53 3e 79 6d 2f be f3 9c bd 3e b2 99 79 3d
       0.20606433 -0.17131604 0.37033805 0.06093759
000060 f5 84 df be f6 0a 3d 3e 41 c7 41 be 17 0e 90 be
       -0.43656126 0.18461213 -0.18923666 -0.2813575
000070 58 09 ef bd 1c 49 ad 3e d5 fa b4 be df 5b b5 3d
       -0.11671704 0.3384484 -0.3534762 0.08855414
000080 a2 c7 3f 3e be 43 bc 3e 4e 95 6e 3d 66 ab fc be
       0.18728498 0.36770433 0.058247857 -0.49349517
000090 f1 eb 85 be 4a 6b 7f be 52 f6 48 be 1a df 84 be
       -0.26156572 -0.24943271 -0.19625214 -0.25951463
0000a0 8f 79 0e 3e 2f a2 7c 3e 54 5b 84 bd 30 24 94 bd
       0.13913558 0.24671243 -0.06462732 -0.07233465
0000b0 10 28 77 be ce 9e a1 bd 31 74 a7 3d 7e c3 b2 bd
       -0.24136376 -0.07891618 0.081764586 -0.087286934
0000c0 cb 42 54 bf e8 9e 97 3e 72 c4 e8 3e 8f 34 81 be
       -0.8291442 0.29613423 0.45462376 -0.25235412
0000d0 4c 25 97 3e cb e6 5e bd 4f 35 8e 3e cc 9a d7 bc
       0.29520643 -0.05441932 0.27775046 -0.02631893
0000e0 8a 23 08 be dd bc 05 be 37 a0 2e 3e 49 95 cc be
       -0.13294807 -0.13060327 0.17053305 -0.39957646
0000f0 3f f7 19 be 23 a0 d0 3d 40 a1 84 be 10 a7 d7 3b
       -0.15035723 0.10186794 -0.25904274 0.0065811947
000100 72 a5 89 3c d0 fd 81 3e 72 9a db be d5 3d 1e be
       0.016802523 0.25388956 -0.4289127 -0.15453275
000110 1f 95 eb bd a2 cd fa 3d d4 b6 66 bd 3e 8c 0c 3f
       -0.11503052 0.122462526 -0.056326702 0.5490149
000120 a7 86 ae be ab 87 09 3e 3e 12 97 be ef fe ba be
       -0.34087107 0.1343066 -0.29506105 -0.36522624
000130 02 fc d9 3e d8 5e c4 3e 9d 52 12 be f1 e4 e1 3e
       0.4257508 0.3835361 -0.14289327 0.4411998
000140 8a d2 16 3e ae 66 27 bf cd f2 b1 3d b3 51 03 3f
       0.14728752 -0.6539105 0.08688889 0.5129654
000150 6a 55 28 3c 08 ec 6c be 1f a0 43 3e 5b 88 b8 be
       0.010274271 -0.23136914 0.1910405 -0.3604153
000160 a3 40 9f bc 72 29 97 3e 8a a8 ff be e7 a2 02 3d
       -0.01944 0.29523808 -0.49933273 0.031893637
000170 4d 69 9a 3e 13 2d 6f be 0d 49 62 be e2 68 99 3e
       0.30158463 -0.23357038 -0.22098179 0.29962832
000180 67 8e c6 3d d0 35 fe bd 9a 74 c8 bc cd 80 12 3e
       0.0969513 -0.12412608 -0.024469662 0.14306946
000190 73 3b d1 3e 4a 3b 0f be b5 be 6a 3e 7d 72 c2 3e
       0.4086567 -0.1398746 0.22924311 0.37977973
0001a0 ae dc 30 be 5b 42 b4 3e 9b e9 b5 3d 86 88 a0 bd
       -0.17271683 0.35206875 0.08882447 -0.0783854
0001b0 c3 91 e9 3d df 85 f4 3d 4e 45 4c 3c df 62 0a be
       0.11404755 0.119395964 0.012467695 -0.13514279
0001c0 0f 53 47 be 0d de d8 be a9 a2 7f 3e 81 da 9a 3e
       -0.19465278 -0.4235691 0.24964394 0.3024483
0001d0 12 d8 52 be 10 84 56 3e 67 05 03 be 00 1b 93 be
       -0.20590237 0.20948815 -0.1279503 -0.28731537
0001e0 fd 82 9e 3e 93 12 92 3e 98 ef f6 3d df 09 5b be
       0.3095931 0.28529796 0.12057418 -0.21390484
0001f0 69 b8 44 3e aa 48 f4 be 14 45 a4 3e 44 ca 28 3e
       0.19210972 -0.47711688 0.32083952 0.16483408
000200 65 ae 14 be 06 2e cf 3e 9d bf 95 be 92 36 9c bb
       -0.14519651 0.404648 -0.29247752 -0.0047672475
000210 56 67 69 3e 9e 68 96 be a3 99 dc be f1 34 ec bd
       0.22793326 -0.29376692 -0.43085966 -0.11533535
000220 be 69 22 bc 80 1b a1 3e a2 7e c8 bd 0c a9 9e 3d
       -0.009912906 0.31466293 -0.09789778 0.07747087
000230 ff e4 c1 3e 91 69 f9 be a2 01 5d be 5c 0d 11 3f
       0.37870023 -0.48713353 -0.21582654 0.5666101

conv1.bias f4 [16]
000000 8a a6 34 3c 1f ac c9 3d f2 19 5c bc c8 91 b7 bc
       0.011026034 0.098472826 -0.01343392 -0.022408381
000010 78 24 4e be 24 be e6 bd 0a 0d 17 3e c2 f5 45 3a
       -0.20131099 -0.11266735 0.14751068 0.00075515744
000020 e9 2d 98 3b 14 b0 52 3d 35 cd 0c bd 84 c8 64 be
       0.004644145 0.051437452 -0.03437539 -0.22342116
000030 de b8 ba 3d d7 78 1c bd 8b 54 a9 bc 0d 33 0e be
       0.09117292 -0.03820118 -0.020670196 -0.13886662

conv2.weight f4 [16, 16, 3, 3]
000000 94 36 25 be ad f5 2d bd 0c 15 d7 bc 65 40 fc bd
       -0.16134101 -0.042470623 -0.026255153 -0.1231697
000010 89 3e 55 be fa e3 7b be 42 0e 50 bd 0e 72 41 3d
       -0.20824637 -0.24598685 -0.050794847 0.04722791
000020 2b 0d b9 bd f6 7e c2 bb c9 b9 82 bd 4e b1 cd bb
       -0.09035715 -0.005935545 -0.06383092 -0.00627724
000030 08 08 b8 bd ba 96 37 3c 72 86 0f be 9e 42 e2 bd
       -0.08985907 0.01120537 -0.1401613 -0.110478625
000040 2c a9 bb bc 64 fd 9e be a6 10 16 3d cb 35 85 be
       -0.022907816 -0.31052697 0.03663697 -0.26017603
000050 c9 4c 34 bd 01 58 82 3e 24 ed 8a be c7 46 18 bd
       -0.04401854 0.25457767 -0.2713405 -0.037176874
000060 c6 3e 9f 3e ec 48 70 be 2c ff 06 be 6e 48 05 be
       0.3110258 -0.23465317 -0.13183278 -0.13015911
000070 a6 30 a1 3d 7c 89 30 3e 38 83 ff bc 09 81 20 3e
       0.07870607 0.17239946 -0.0311905 0.15674223
000080 5a 49 b6 3e cf 98 d6 3e a0 5c fe 3e f3 4f 11 3f
       0.35602838 0.4191346 0.49680042 0.5676262
000090 a8 9d 9c bc db bc 70 bc 3b 18 3a be 7c 20 8b bd
       -0.019118145 -0.014693464 -0.18173306 -0.06793305
0000a0 a5 37 1a be ec 78 82 be f9 4e ea bc f8 ed 25 be
       -0.15060289 -0.2548288 -0.02860211 -0.16204059
0000b0 45 28 e1 bd 9c 1c 89 3e a8 3d 81 bd 54 8b c7 3e
       -0.10994009 0.2677964 -0.06310588 0.38973486
0000c0 bc 59 90 3e e0 a1 e5 bd 39 d2 b2 3e 33 d2 06 3f
       0.28193462 -0.11212516 0.34926012 0.5266449
0000d0 43 f8 94 3d 4a 75 fb 3e b8 28 78 3d ed d0 21 be
       0.07273915 0.49112922 0.060585707 -0.15802355
0000e0 62 f6 2c be 75 c0 20 bc 8d 55 e2 bd ce 9f 5e be
       -0.16890863 -0.00981151 -0.11051474 -0.21740648
0000f0 de d8 13 bd 5d 73 c6 bd a6 f0 7e bd 06 03 6a 3e
       -0.036095493 -0.096899725 -0.06224122 0.22852716
000100 94 e8 11 3e 41 fe 9b bd f1 5f 5b 3e 8d 7c 20 bb
       0.14248878 -0.076168545 0.21423317 -0.00244883
000110 80 f9 75 be 2e 0b 22 bd 48 86 10 bd d0 89 70 be
       -0.24020958 -0.039561443 -0.03528431 -0.23490071
000120 51 82 0b 3e be 0d 1b be be 5a 9a 3b d7 b9 6b 3e
       0.1362393 -0.15141961 0.0047105243 0.23020111
000130 eb 89 40 be 88 93 83 bd 39 d0 b6 3d 57 f8 2f be
       -0.18802612 -0.06424624 0.08926434 -0.17184578
000140 1d bc 1a be 32 d8 ea 3c 02 e5 6e 3e 3d af 78 3e
       -0.15110822 0.028667543 0.23329547 0.24285598
000150 22 96 62 3e 73 7b ad 3e 17 2b b6 3e 62 41 95 3e
       0.22127584 0.33883247 0.3557975 0.29151446
000160 95 9a 28 3e a6 75 9f 3e 63 0a cd 3c be ce a8 bc
       0.16465218 0.31144446 0.025029367 -0.020606395
000170 9c a9 26 bd c6 52 95 3b a9 ca a4 bc f5 71 e2 3d
       -0.040689096 0.0045569865 -0.020116167 0.11056892
000180 92 f5 44 3d 74 0f 96 bc ee bb b1 3d 0f 85 d7 bd
       0.048085757 -0.018317915 0.08678423 -0.10523426
000190 ce 94 44 be 3b 53 4b be 77 ac 13 be f5 53 7f be
       -0.1919739 -0.19855969 -0.14421259 -0.24934371
0001a0 96 2f a2 be f7 76 bf bd b5 f9 93 bd 2f ea 6e be
       -0.3167693 -0.093488626 -0.07225362 -0.23331521
0001b0 84 71 aa bd 7c 24 a4 bd e3 ad 2e be 4e 56 1d 3b
       -0.08322433 -0.08014771 -0.1705852 0.002400774
0001c0 9f 3f bc bd 00 33 2c be e5 c5 14 3d 85 c1 86 3d
       -0.09191822 -0.1681633 0.03632154 0.0657988
0001d0 76 e2 75 bd 37 f5 ca 3d b5 63 e1 bd 8d dd 07 bd
       -0.060030423 0.09910052 -0.11005346 -0.03317027
0001e0 a3 82 00 3d 33 10 1e be 24 e3 01 be 82 7a b7 3d
       0.031374585 -0.15435867 -0.12684304 0.089589134
0001f0 81 7b 90 bc 99 a1 5e be bb 53 5a be 53 14 66 be
       -0.017637016 -0.21741332 -0.21321003 -0.2246869
000200 b8 e9 27 be a3 01 3f be e5 4a 0c bd 04 6b 57 3d
       -0.1639775 -0.18652968 -0.034251112 0.052592292
000210 42 fa 4e bc e5 12 11 3e 68 7b 50 bc 76 50 2d 3c
       -0.012632908 0.14167364 -0.012724735 0.010578265
000220 a2 aa a5 b8 7f 8d ca 3d c6 62 87 bd 3e a6 e6 3c
       -7.899596e-05 0.098902695 -0.066106364 0.028155442
000230 71 6a 19 3e 67 cb ac 3d d2 e7 32 bd 4e de db 3d
       0.1498201 0.084372334 -0.043678112 0.10735761
000240 23 3b 72 3e d6 61 64 3d 22 21 44 3e c2 1d d4 3d
       0.23655371 0.055757366 0.19153264 0.10357238
000250 d6 0b 23 3e a1 ad 06 3e dd 4e 84 3d 3c 4b ae 3d
       0.15922484 0.13152172 0.064603545 0.085104436
000260 30 03 84 3d 6c 6f 97 3e 0b 35 0b be 0d 32 96 3e
       0.064459205 0.29577196 -0.13594453 0.2933506
000270 a0 cf a1 3d 1f 72 01 be 93 fd ed 3d b8 25 88 3e
       0.079009295 -0.1264119 0.11620631 0.26591277
000280 16 5d 17 be 32 58 ff 3c 09 fe 93 be bb e8 13 3f
       -0.14781603 0.031169984 -0.2890475 0.57776994
000290 58 be 55 bd 50 6c 13 bf ad 71 1b 3e 43 18 a0 bd
       -0.05218348 -0.57587147 0.15180083 -0.078171276
0002a0 08 0a 0e bf 66 d2 3c 3e ab 2e 43 be 8e fc b6 be
       -0.55484056 0.18439636 -0.19060771 -0.3573956
0002b0 5a 36 5c be db 61 01 bd c9 b6 81 3c af 52 ef 3d
       -0.21505108 -0.031587463 0.015834229 0.116856925
0002c0 79 7f 88 3e 40 e1 0c 3d 7a 7d 10 3e 1b 86 5f 3e
       0.26659754 0.034394503 0.14110366 0.21828501
0002d0 ea 1d 24 3e fc ff 4a 3e c4 fb 36 3e 31 05 16 3d
       0.16027036 0.19824213 0.17869478 0.036626045
0002e0 c6 f2 d3 3d ba e8 9a bc 78 d5 53 3d 85 42 eb 3d
       0.1034904 -0.0189098 0.05171725 0.11487297
0002f0 ce ab e2 3c 12 98 bd be 76 6f 99 3e bf b3 bb bc
       0.027669813 -0.37030083 0.2996785 -0.022912858
000300 77 b6 e0 be 3e 94 de 3d d7 f7 96 bd 42 eb 02 bf
       -0.4388921 0.10868119 -0.073714904 -0.51140225
000310 63 75 94 3e 60 7c 89 3c ed 8a fa bc 96 c8 0a 3e
       0.2899581 0.01678294 -0.030583823 0.1355308
000320 14 a9 a6 bd 8a df b4 3d 23 29 c1 3d fe 97 b2 3d
       -0.08137718 0.08831699 0.09431674 0.087203965
000330 59 21 c1 3d 35 d1 25 3e f9 da 17 3e f0 4a 80 3e
       0.09430189 0.16193087 0.14829625 0.25057173
000340 d2 47 87 3d 45 17 10 be 8f ee cb bc a2 2a 25 bd
       0.066054955 -0.14071377 -0.024894027 -0.04032386
000350 a1 9c 88 bd 2a 23 ae 3c ac ae 5a 3c b3 5c 85 be
       -0.066704996 0.021257002 0.013347309 -0.26047286
000360 6a 26 07 bf 50 80 d7 3d b9 60 79 be fc 8f dd be
       -0.5279299 0.105225205 -0.24353303 -0.43273914
000370 0c fc c4 3d 31 d0 de bd 6b 48 13 bf 43 2b 9a 3e
       0.096183866 -0.10879553 -0.57532376 0.3011113
000380 b1 2d 01 3e b9 58 bd bc d8 6a 98 bd 0f 85 ad bd
       0.12615086 -0.023113595 -0.07442254 -0.084726445
000390 52 8f 15 be 0a 24 a8 bd 1b ca ca 3d 78 5a 17 be
       -0.14605454 -0.08209999 0.0990183 -0.14780605
0003a0 82 79 00 3e f5 3b a4 3d b5 72 5e 3e 6b 2f f5 bd
       0.12546352 0.080192484 0.21723445 -0.11971935
0003b0 db 62 0f 3d f9 d9 5a bd 7e 3d 3c 3b ff c2 27 bd
       0.035006385 -0.05343053 0.0028723176 -0.040957447
0003c0 62 2c d3 bc b1 27 f5 bd 39 36 84 3d 35 36 8a be
       -0.025778 -0.11970461 0.06455655 -0.26994482
0003d0 37 25 86 bd eb fc 55 3e 8a b6 dd bd 79 ed 9e bd
       -0.06550067 0.20897262 -0.10825832 -0.07760138
0003e0 d0 a5 fc 3d ea 82 ad bd f9 b1 a1 3c 82 bd 29 3e
       0.12336314 -0.084722355 0.019738184 0.16576198
0003f0 5e ee 60 3d 6c f8 a3 bd 09 a0 d6 bd 0c 66 65 bd
       0.054914825 -0.08006367 -0.10479743 -0.056005523

conv2.bias f4 [16]
000000 11 6a 3e bd 97 d1 30 be 90 b8 7c 3d f5 45 ba bd
       -0.04648787 -0.17267452 0.06169945 -0.090953745
000010 67 c5 22 be 99 36 89 be d8 b4 56 be 2a e4 2e bd
       -0.15895616 -0.26799467 -0.20967424 -0.042698063
000020 64 8e 50 bd 92 95 ca bd 85 01 96 bd 24 9e 55 bc
       -0.050917044 -0.098918095 -0.073245086 -0.013038192
000030 de 3d f0 bc 29 4d 06 be 0e 61 46 3d b0 7b 10 be
       -0.029326376 -0.13115372 0.048432402 -0.14109683

conv3.weight f4 [16, 16, 8, 1]
000000 da 02 2a be 87 02 a3 bd c1 9e 2e bd 3e 70 94 bc
       -0.1660265 -0.079594664 -0.04263187 -0.018119927
000010 1f 9e 28 be bb c2 b4 be f5 1d 6d be 2a 6d 25 3e
       -0.16466568 -0.35304818 -0.23155959 0.16154924
000020 90 13 52 3e d8 4d 16 3e 86 7b 6a 3e f8 cb c5 3d
       0.20515275 0.14678133 0.22898683 0.096580446
000030 ed 6e 5d 3e 77 29 a6 3e 93 a7 87 be 36 76 9c be
       0.21624346 0.3245351 -0.26495036 -0.30558938
000040 fa 12 35 3d 75 a6 45 3e d0 6d 8f 3e 9d 4c 80 3e
       0.04420755 0.1930178 0.28013468 0.2505845
000050 05 6b bb 3d bb a7 0e 3d 1b 0a 97 be 0b 4a 23 be
       0.09151272 0.03482793 -0.29499897 -0.15946214
000060 df f9 77 be 6b 3f 42 bd d4 8c 01 bd e9 05 f0 bc
       -0.24216412 -0.04742376 -0.031628445 -0.029299693
000070 2d 1d 1e bc e9 2c 2a be 46 a7 55 3e e5 c4 70 bd
       -0.009650511 -0.16618694 0.20864591 -0.058781523
000080 56 65 04 bd 14 ea ca 3c 4c 4b 88 3d df e4 d3 3d
       -0.032323204 0.02476982 0.06654987 0.10346388
000090 60 71 0f 3e 34 a3 61 3e bb 7c 90 3d 54 0a c1 3d
       0.14008093 0.22034913 0.070550404 0.09425798
0000a0 53 7d 87 be d2 17 47 3d 05 37 20 3c 97 cb de 3d
       -0.26462802 0.0486067 0.009778743 0.108786754
0000b0 95 e0 33 bd 59 94 82 bd 3b 7c 06 bf 0d 93 e5 3c
       -0.04391535 -0.06375951 -0.5253331 0.02802422
0000c0 af e0 a5 3d 7c a9 b6 3d 9e 8d a6 bc 3a 71 eb bd
       0.080994956 0.08919045 -0.0203312 -0.11496206
0000d0 fe c8 f0 3b bb 2a 94 3d 57 95 c1 bd b0 01 99 bd
       0.007348179 0.07234713 -0.094523124 -0.07471025
0000e0 b5 a1 02 3e 2c 75 fa 3b da b2 c9 3d 6d 5e f3 bc
       0.12756999 0.0076433625 0.09848566 -0.029708112
0000f0 9d 2d 5b bd 0e 82 80 be a8 cb 8f 3d 2b 04 d2 3c
       -0.053510297 -0.25099224 0.07021266 0.025636753
000100 6a 0d 8a 3d 45 74 96 3c f2 a8 14 3e 8a dd e6 3d
       0.0674084 0.018365989 0.14517573 0.11272724
000110 38 3e a9 bd ca d1 31 bd 7b 39 30 3f aa 70 97 bd
       -0.082638204 -0.04341296 0.6883771 -0.07394536
000120 ba 18 f5 bd 9f e0 d8 bd 64 fb 84 bd c7 a8 80 bd
       -0.11967607 -0.10589718 -0.064932615 -0.06282192
000130 8f 6a b3 bd 1a 03 bb bd 26 9d b2 be 18 de ae 3e
       -0.08760559 -0.09131451 -0.3488552 0.3415382
000140 36 f3 2b 3e 3f ec 2b 3d c9 bb 12 3c 98 82 0f be
       0.16791996 0.04197335 0.008955904 -0.14014661
000150 27 c0 ab bd 9a c7 8a bd 3c 32 a8 3e ae 7b d3 bd
       -0.083862595 -0.06776352 0.32850826 -0.103263244
000160 a4 56 03 be 9a 95 e0 3b af 76 33 3d 5b 08 27 3d
       -0.1282602 0.0068537714 0.043814357 0.040779453
000170 be e1 30 3e 14 d6 a1 be c1 8e 28 bf 26 5e 5e 3e
       0.17273614 -0.3160864 -0.65842825 0.21715602
000180 4b ca f6 bc cf 41 23 be 58 81 32 be 5e 7c 84 bd
       -0.030125758 -0.15943073 -0.17432153 -0.06469034
000190 6c 37 b8 bd 40 9c 97 be 95 83 e6 bc 5a 2b 22 3e
       -0.08994946 -0.29611397 -0.028138915 0.1583685
0001a0 b9 d4 0a 3d a2 49 2b 3e ce a6 68 3e c2 aa 29 3e
       0.033894274 0.16727307 0.22719881 0.16569045
0001b0 fd 2a 54 3a 9e a9 59 3e 0c 1f aa 3e aa f7 6a be
       0.0008093564 0.2125611 0.33226812 -0.22946039
0001c0 e8 5b 5d 3e cb fc 34 3e 87 ea 1b 3e 37 5c 1d 3e
       0.2161709 0.17674558 0.15226184 0.15367208
0001d0 3c ba 04 bc 6a 63 83 3d 90 e2 41 bd 5e ee 32 3d
       -0.008101042 0.06415446 -0.047335207 0.043684356
0001e0 ee 85 18 be d3 4a b0 bd c9 05 37 bd b6 14 23 be
       -0.1489484 -0.086080216 -0.04468325 -0.1592587
0001f0 5a 73 25 be f6 c1 89 bb d4 96 80 3d 47 2f 73 3d
       -0.16157284 -0.00420403 0.06278768 0.05937126
000200 d8 af 9b bd c4 eb 41 bd c8 b7 7e bd 37 e4 8f 3d
       -0.07601899 -0.047343984 -0.062186986 0.070259504
000210 e2 68 88 3c 0b 32 bc bc 0d 83 a1 3e aa 70 6c 3d
       0.016651575 -0.022973081 0.31545296 0.057724632
000220 fb 72 a4 3c f3 2e b5 3d 6e 7c c9 3d f4 44 91 3d
       0.020074358 0.088468455 0.09838186 0.0709323
000230 99 36 0d 3e 97 6c 9d 3e fb 04 85 be d5 8f 1f be
       0.13790359 0.3074691 -0.25980362 -0.15582211
000240 2c 54 2d bc 3e 89 17 bd 24 ed 8f 3d cb 13 a8 3d
       -0.01057915 -0.03699612 0.07027653 0.082069
000250 7b b2 ac bd 61 99 fe 3d 79 fa 41 be e2 49 4a bd
       -0.0843248 0.124315985 -0.18943204 -0.049386866
000260 e6 6c dc 3d f4 0c c9 3d 86 5d 4c bd 5d 0c c8 bd
       0.10762958 0.09816924 -0.04989388 -0.09767983
000270 c6 f4 49 be 65 cc 91 be 6c 02 f9 bd a9 4a c7 be
       -0.1972228 -0.28476253 -0.12158665 -0.3892415
000280 fd fe 35 bd ee 51 4f 3d 4e d4 b2 bc 7c 3e 3f 3c
       -0.04443263 0.050615244 -0.02182975 0.011672612
000290 dc cf d5 bd 67 24 f0 3d 23 db 94 be 2f 33 5b bd
       -0.10440037 0.11725693 -0.29073438 -0.05351561
0002a0 f6 40 59 3d e2 32 aa bc 5a d9 9c bd 4d a0 0b be
       0.053040467 -0.020776216 -0.07658644 -0.13635369
0002b0 a6 80 5c bd f2 26 03 be a7 23 13 bf 36 9d dd bd
       -0.053833626 -0.12807825 -0.57476276 -0.10821001
0002c0 ef a6 db bd 71 06 11 bc 77 97 a3 bd 5e e5 1f bd
       -0.107251994 -0.008851633 -0.07987874 -0.0390371
0002d0 51 56 4f 3d df bf d8 3d 0b 8d 3a 3e dd 44 54 bc
       0.050619427 0.105834715 0.18217866 -0.012955871
0002e0 bd 2a 10 3d 82 9f 59 3d 15 a9 3f bc 01 c4 c4 3d
       0.03519701 0.053130634 -0.011698027 0.09607697
0002f0 ca 5b 41 3d 90 9c 47 3e c0 37 2a 3e 97 cd 48 3d
       0.047206677 0.19493318 0.1662283 0.04902419
000300 2f 72 67 bd 35 99 a3 3d f2 1a 1e 3e e5 87 d5 3d
       -0.05650538 0.07988206 0.15439966 0.104263104
000310 bc ba cc 3d 9f 0a f3 3d 48 4b 23 3f 15 65 05 be
       0.09996554 0.1186726 0.63786745 -0.13026841
000320 af 43 56 bc 94 a8 2a 3b 71 80 6d 3c 31 68 06 bd
       -0.01307766 0.0026040422 0.014495955 -0.03281421
000330 e0 fd b7 3c e1 38 23 3e 4c 95 87 be b4 e8 db 3e
       0.022459924 0.15939666 -0.26481092 0.42950976
000340 eb 42 c5 3b 2d a7 84 bd 4a 16 ab bd 08 ee a1 bd
       0.00601994 -0.06477199 -0.08353861 -0.07906729
000350 bc 9e a5 bd 1a b2 72 be 5a c4 ed 3e ba 9e bc be
       -0.08086917 -0.23700753 0.46438867 -0.3683985
000360 aa 3e df 3d 27 fa 10 3e 5e 77 d3 3d be 11 10 3e
       0.10900624 0.14157926 0.10325502 0.14069268
000370 75 78 a3 3d 88 78 8c 3d d7 d3 f6 bd 1b 02 c5 3d
       0.0798196 0.06858927 -0.12052124 0.09619542
000380 3b 68 ba bc 49 f2 be bc 90 e9 bc bc d4 53 4f bd
       -0.02275478 -0.02330889 -0.02306059 -0.050617054
000390 88 5c d8 bd 5f e8 3f bc a9 02 df bd b4 87 53 3e
       -0.10564524 -0.011713116 -0.10889179 0.20657235
0003a0 0c 06 86 3c bd df 73 3d 21 4d 55 3d 49 bf c2 3c
       0.016360305 0.059539545 0.05207551 0.023772852
0003b0 08 63 e9 3d 81 cc c8 bd ea 8a e9 3d ef cf a0 be
       0.11395842 -0.09804631 0.11403449 -0.3140864
0003c0 7d df 70 3d 21 eb e5 bc e3 a6 06 bb ab 14 98 3d
       0.058806885 -0.02806622 -0.002054625 0.07425817
0003d0 61 4a 38 bc 9c c8 0f 3d f8 a0 70 be d7 19 36 3e
       -0.011248202 0.035103425 -0.23498905 0.17783295
0003e0 c3 cf 47 bc 19 6c 25 ba 25 aa a2 3d 39 d2 98 3d
       -0.01219553 -0.00063103583 0.07942609 0.07461972
0003f0 a9 69 21 bd 58 74 4e 3e f1 4a 2b 3e 0c 35 c2 3e
       -0.039407406 0.20161569 0.16727807 0.37931097

conv3.bias f4 [16]
000000 41 74 d1 bc e1 75 e3 3d f4 72 d4 3d 24 79 d8 3b
       -0.02556813 0.11106468 0.10373488 0.006606238
000010 7c 90 3e 3a 33 23 83 3e 48 cb 1d 3e dc 4f fc 3d
       0.00072694547 0.25612792 0.15409577 0.123199195
000020 19 ab 17 bd e8 8c b3 be 60 f7 8b 3e ab d0 c0 3e
       -0.037028406 -0.3506844 0.2733717 0.376592
000030 ce 86 64 bc 58 e9 00 3d bc 09 6b 3e 3f 19 03 bb
       -0.013948156 0.031472534 0.22952932 -0.0020004062

tcn.tcn.0.conv1.weight f4 [16, 16, 5]
000000 ab 94 1f 3e 3d 66 37 3e 02 e5 e6 3d 65 9d 2e 3d
       0.15584056 0.17910095 0.112741485 0.042630572
000010 9a c8 bd bd b8 b1 53 3e 5c bb b9 3d 5a 2a b2 3d
       -0.09266777 0.20673263 0.09068939 0.08699484
000020 de b4 5c 3b 4a 8c 40 be 1f 46 97 3d 73 50 34 3d
       0.0033677141 -0.18803516 0.073864214 0.044022035
000030 1b 03 39 3e 98 dd eb bd 23 14 cf bd 86 12 46 3e
       0.18067591 -0.11516875 -0.10111263 0.19343004
000040 2d 78 13 3e 8b 9f f1 3d 0f 60 ae 3d b8 ae 86 3e
       0.14401312 0.117980085 0.085144155 0.26305175
000050 f8 2e de 3d d6 ab 17 bd 72 9c 7e 3e fa 8a a5 3d
       0.10848802 -0.03702911 0.24864367 0.08083148
000060 8a f0 10 be b6 66 46 be 2f 5e 08 3e 1d a6 30 3e
       -0.14154258 -0.19375119 0.13317178 0.17250867
000070 f4 16 1d bd 88 d6 1f 3e 56 04 56 bd a5 33 e2 3b
       -0.038351968 0.15609181 -0.05225023 0.006903129
000080 f1 da 11 be 49 f6 83 bd 10 2d b0 3d 66 14 b2 bd
       -0.14243676 -0.064434595 0.08602345 -0.08695297
000090 5a 0f 66 bc 56 04 4c 3d df b6 41 3d 25 8e ec bd
       -0.014041746 0.049808823 0.04729354 -0.115505494
0000a0 4e 77 e7 bd e7 79 a5 3b f2 db 83 bd 05 48 31 be
       -0.113020524 0.0050499323 -0.064384356 -0.1731263
0000b0 64 05 38 be 7e d4 5d be 6c 81 55 be 2a 62 6f be
       -0.17970806 -0.2166309 -0.20850152 -0.2337729
0000c0 bc 19 87 be d8 9a b3 bd 27 7c 15 be c3 4d 7a bc
       -0.2638682 -0.087697685 -0.14598142 -0.015277329
0000d0 14 c2 ef bd 08 93 90 be 65 c4 03 be 9a 66 ad bd
       -0.11706939 -0.28237176 -0.12867887 -0.08466835
0000e0 98 f4 26 bd 4d 4e 83 3c 61 e1 aa bd 88 88 27 bd
       -0.040760607 0.016028548 -0.08343769 -0.04090169
0000f0 24 9e 23 3e 0b d5 ba 3d 93 3c 9f 3e dd af 9c bc
       0.15978295 0.09122666 0.31100902 -0.019126827
000100 0d 07 12 be 66 ec 06 be 84 0a 0a be 5a 18 11 be
       -0.14260502 -0.13176116 -0.13480574 -0.14169446
000110 d5 23 08 be 64 bc 14 be bc 91 38 bd 7b ae 93 3d
       -0.13294919 -0.1452499 -0.045060858 0.07211014
000120 23 3a 18 3d 04 9b a1 3d 1e 87 f6 3d bc 1f 87 3c
       0.03716482 0.07890895 0.1203749 0.016494624
000130 d0 d6 07 be 3e 19 77 3d b0 b4 8f bd c4 3a 00 be
       -0.13265538 0.060326807 -0.07016885 -0.12522417
000140 1e 5a 7b 3e 88 74 bc 3e 02 20 0b 3e e1 97 55 3e
       0.24546096 0.36807656 0.13586429 0.20858718
000150 cd 83 1b 3e 67 0a 2e 3e e5 82 b4 3e bc 28 39 3c
       0.15186997 0.16996156 0.35256115 0.011301216
000160 5f 55 40 3e 7b 8f 99 3e d6 91 1b 3d 64 ed b8 3e
       0.18782566 0.2999228 0.037980877 0.36118615
000170 30 32 88 3e b3 10 89 3e 83 16 d3 3e 29 d3 77 bd
       0.2660079 0.26770553 0.41228113 -0.060504112
000180 88 25 1e bd d7 f2 85 be 9e e0 ac 3d 45 b8 04 bb
       -0.03861001 -0.26161835 0.0844128 -0.0020251435
000190 15 60 c1 be 3b a0 9b be 3c 36 5e bc 2c a2 26 bb
       -0.37768617 -0.30395684 -0.013562735 -0.0025426252
0001a0 0a 9c d5 3d 8f fb 25 3e 26 3b 09 3e 49 7a b2 3d
       0.10430153 0.16209243 0.1340147 0.0871473
0001b0 c2 71 86 3d bb 41 18 3d 47 80 90 be 0b 61 64 be
       0.06564666 0.03717206 -0.28222868 -0.22302644
0001c0 a8 94 8a bd 20 07 f0 3c f5 30 7c 3c b8 e3 48 bd
       -0.06766635 0.029300272 0.015392532 -0.049045295
0001d0 b7 99 b9 bd c4 0f 43 3d 9a d8 54 3e dd 91 50 3e
       -0.09062522 0.047622457 0.20785752 0.20368142
0001e0 63 ac 61 3d 78 15 57 3e 05 40 d0 3c f8 9c 55 3e
       0.05509604 0.21004283 0.025421152 0.2086066
0001f0 7f 96 86 3d ac 0f 0b bd a1 0a 4d be a7 90 81 be
       0.065716736 -0.033950493 -0.20023586 -0.25305673
000200 fd fc 4b be 70 b4 03 bd b0 76 5c 3d 00 00 34 bc
       -0.19920726 -0.0321545 0.053824127 -0.010986328
000210 12 78 f9 3d b1 af 28 3e 10 04 ea 3d 63 5d 50 3d
       0.12181105 0.16473271 0.11426556 0.05087031
000220 54 0a 36 3e 5e 9d 0f 3e 11 b2 bf 3d 68 85 1b 3e
       0.17777377 0.14024875 0.09360135 0.15187609
000230 26 c9 0a be 19 a9 dc bd 90 9f e4 3a 91 18 8a bd
       -0.13553295 -0.1077444 0.0017442573 -0.06742967
000240 37 92 d7 3d 83 fc 1c 3d 50 77 c6 3d 9e ae 09 3e
       0.10525935 0.03832675 0.09690726 0.13445517
000250 c8 02 26 3e 03 64 6b 3e 95 68 41 3e 7e 66 2c bd
       0.16211998 0.2298737 0.18887551 -0.04208993
000260 d2 3e 64 3d 3a 50 3c bd 8e 19 14 be 53 b0 03 3e
       0.055723973 -0.045974948 -0.14462873 0.12860231
000270 61 de 22 3e 2a 66 e1 bd b7 3b 05 be a4 06 44 3e
       0.15905143 -0.110058144 -0.1301106 0.19143158
000280 b8 c5 1e bb 88 be 0a 3e 58 99 af bc 89 5b 0f bd
       -0.0024226736 0.13549244 -0.021435425 -0.034999404
000290 9d ce 45 be 6f bc 4d 3e 2e c2 a8 3d c9 81 e9 3d
       -0.19317098 0.20091413 0.08240162 0.11401708
0002a0 57 d1 b0 bd 70 ca 29 be e1 f0 29 3e 4e ae a1 3d
       -0.086336784 -0.1658113 0.16595794 0.07894574
0002b0 1f 73 34 3e d0 e2 76 3d c7 1e 21 be 8e 9a c7 bd
       0.1762204 0.0602749 -0.15734397 -0.09746276
0002c0 c2 ef c4 3c e0 7e e6 bd d2 66 b3 bd ad aa ee bc
       0.024040107 -0.11254668 -0.08759846 -0.029134119
0002d0 1a 52 02 bd be 56 32 bd bf 58 05 be a3 1c 94 bc
       -0.03181658 -0.043539755 -0.13022135 -0.018080061
0002e0 c7 34 86 bd 7d 49 f8 3d a8 61 70 3e 91 f1 ab 3d
       -0.06553035 0.12123392 0.23474753 0.083956845
0002f0 28 e6 51 bd 64 3e 4a bc 4d aa 0e 3d 42 f3 8b 3c
       -0.051244885 -0.012343977 0.03483038 0.017083768
000300 0c 11 9c 3c 11 3f 80 3d b9 fe bf 3e 25 89 f9 b9
       0.019051097 0.06262029 0.37499025 -0.00047595162
000310 6d 63 56 be f0 af 54 bd 07 db b6 bc c9 8d 31 bd
       -0.20936365 -0.0519256 -0.022321237 -0.043348107
000320 98 6b 34 3d 2f 0a c0 bd ef 6b c3 bd 21 8a 18 be
       0.044047922 -0.09376942 -0.09542071 -0.14896442
000330 60 72 46 be 5e 3a a0 bd 79 4e b7 bd 5c 91 c7 3d
       -0.19379568 -0.07823633 -0.08950514 0.09744522
000340 6f 2c 5c 3e 20 74 53 bc ed e2 fd 3d 76 43 44 bc
       0.21501325 -0.012906104 0.12396798 -0.011978975
000350 65 d5 07 be 18 62 a2 bd 7b e4 0a be 65 e9 6d bd
       -0.13264997 -0.07928866 -0.13563721 -0.05808391
000360 39 90 2b 3d ab 60 4c 3e 32 04 30 3e cb 0c 90 bd
       0.04188559 0.19958751 0.171891 -0.0703369
000370 55 ef 52 be 05 30 81 be 99 32 b8 bc f6 f9 7e 3d
       -0.2059911 -0.25231948 -0.022485064 0.0622501
000380 5e 06 4e be d1 65 fd bc 1a 32 ec bd d3 9d fd bd
       -0.20119616 -0.030932339 -0.115329936 -0.12383618
000390 0e 39 a2 bd 18 21 a1 be 1a 5d ac be 16 15 6f bd
       -0.079210386 -0.3147056 -0.3366478 -0.05836972
0003a0 d2 44 81 3d fb 73 51 3d 87 32 e2 bc c5 a2 b6 bd
       0.063119546 0.051136 -0.027611984 -0.089177646
0003b0 a2 fe fa bd d8 ab 0c 3e c9 eb d7 bd d2 4c c0 be
       -0.122555986 0.13737428 -0.10543019 -0.3755861
0003c0 31 0d e5 be da 7c 57 be 75 7e f2 bd 4e f1 4d 3e
       -0.44736627 -0.21043721 -0.11840526 0.20111582
0003d0 0e 4b 4b 3e 3b 6b 21 be 89 d3 38 3d b4 cf 81 bd
       0.1985285 -0.15763561 0.04512361 -0.06338444
0003e0 c6 36 61 bd c4 03 ac 3c 6b 08 33 be 40 7d ae 3c
       -0.054983877 0.02099789 -0.1748368 0.021299958
0003f0 4e 4e 45 3e b1 6c 05 3d 70 f2 84 3e a8 16 6c bc
       0.19268152 0.03257436 0.25966215 -0.014409699

tcn.tcn.0.conv1.bias f4 [16]
000000 04 5f db ba 7c 4b 60 bc 14 8d 43 3e 3f aa 19 3e
       -0.0016736691 -0.013689872 0.19096786 0.1500635
000010 35 1d 71 3c c3 51 60 3d db 67 90 bc 9e 71 40 be
       0.014716436 0.054765474 -0.017627647 -0.18793342
000020 4e ba 0f 3b 48 f9 39 3e 79 3c 41 3d 80 20 73 bd
       0.0021931115 0.181615 0.04717681 -0.059357166
000030 52 38 67 3e 83 85 4e 3d 2b 10 d3 bd 40 9b 9a 3d
       0.22580078 0.050420295 -0.10305818 0.07549143

tcn.tcn.0.conv2.weight f4 [16, 16, 1]
000000 e1 17 4a 3d a5 ed d8 bd 8f bc 8d 3e 3e 3e b0 3d
       0.04933918 -0.10592202 0.2768292 0.08605622
000010 2c ed 34 3e 0c 36 1d be d0 37 90 3d 51 72 8b 3e
       0.17668599 -0.15352648 0.070418954 0.27235654
000020 9e 69 8f 3e 55 7b 94 bd fe 93 0a be 14 97 3d be
       0.28010267 -0.07250086 -0.13533017 -0.18514663
000030 43 81 57 3e 6c 31 c4 bd 4d dd b0 bd 6b 27 d1 3e
       0.21045403 -0.09579739 -0.0863596 0.40850386
000040 91 32 3a 3d 6b 71 3e 3e cf fd d7 bc 3f 3e 42 3e
       0.04545838 0.18597953 -0.026366143 0.18969058
000050 ca 1a 97 3d 47 e3 f4 3d f8 71 49 3e 99 93 da bd
       0.073781565 0.11957412 0.19672382 -0.10672683
000060 76 0f 33 3b d2 52 a7 bb 44 38 2f be a9 dc c7 bd
       0.0027322448 -0.0051063085 -0.17111307 -0.097588845
000070 b0 4f c8 3d 52 03 6f be 58 b4 1f be fc a9 cb 3e
       0.09780824 -0.2334111 -0.1559614 0.39778125
000080 79 a2 81 3d e3 60 56 3e 82 1a 11 be 9a da 6b 3e
       0.06329817 0.20935397 -0.14170268 0.23032609
000090 bb 4b 26 3b 32 7c 93 bd c5 b5 34 3d 4b 14 ef 3d
       0.0025374729 -0.07201423 0.04411866 0.116737925
0000a0 e2 36 22 3d 1d 13 b1 3e 76 cc 47 3e 38 14 43 3e
       0.03960312 0.34584895 0.1951159 0.19050682
0000b0 2a 0e 0a be 4b 32 90 3e 47 4c c8 bd fd 82 d4 bd
       -0.13481966 0.2816337 -0.09780174 -0.103765465
0000c0 0c 75 15 3e fd ba 9f 3e 57 04 06 bc 12 1b 4f 3d
       0.14595431 0.31197348 -0.008179746 0.050562926
0000d0 6c 89 70 bd e9 09 68 3e 48 9d 4e 3e da 12 a2 3d
       -0.058724806 0.2266003 0.20177186 0.07913752
0000e0 33 a4 63 be fd 27 85 be bb 59 a8 bd 91 1d 87 be
       -0.22230606 -0.2600707 -0.0822024 -0.26389745
0000f0 4a dc 8c 3e 5e a6 ca 3d 9d 91 ba 3d da a2 45 3e
       0.27511817 0.09895013 0.09109805 0.19300404
000100 a7 42 05 3e 93 d4 98 3e 25 e6 ce bd ce b6 c5 bb
       0.13013707 0.2984968 -0.1010249 -0.006033755
000110 7f b4 74 3d 76 74 01 3d 47 0d c2 bd 21 93 03 bf
       0.059742447 0.031605206 -0.09475189 -0.51396376
000120 ce 2c 0d be 75 bf e5 be 7c c9 75 bd 7e d9 80 be
       -0.13786623 -0.44872633 -0.060006604 -0.25165933
000130 4d 8e 05 be e8 2a ff 3d e9 d8 1a bc db 8d d3 3d
       -0.13042565 0.124593556 -0.0094511295 0.10329791
000140 54 09 8e bc c4 28 a3 3d 6e dd e1 3c f2 32 91 bd
       -0.017338432 0.0796676 0.027571406 -0.07089795
000150 99 3b 95 be 63 5c 92 3c 9a f1 b1 bd 87 77 cf be
       -0.29147032 0.017866319 -0.0868866 -0.4052088
000160 ac 9f 3c 3e de 59 f8 be 7c 0d 01 be 00 d2 12 bf
       0.18420285 -0.48506063 -0.126028 -0.57351685
000170 95 6f 49 bd c2 66 ce 3c d4 7d 78 3e 48 f4 2b 3d
       -0.04917868 0.025195483 0.2426675 0.04198101
000180 83 c2 0a be fc 5b 41 be c3 ec a4 bd a5 6f 22 be
       -0.13550763 -0.18882746 -0.08052971 -0.15862902
000190 05 a9 e1 bb e4 e5 19 3d 67 cb 7c be 41 e6 bd bd
       -0.006886604 0.037572756 -0.24686967 -0.09272433
0001a0 a8 b9 3f be 67 ee 80 3e d3 af 83 be 7c 39 7f be
       -0.18723166 0.25181887 -0.2572008 -0.24924272
0001b0 85 0b 5a 3d 65 90 ac be 64 5b 69 3c 57 cf 9a bd
       0.053233642 -0.33703914 0.014242981 -0.07559078
0001c0 28 e0 5e be 2b e1 81 3c da 87 1e 3b 7f 5f 04 3e
       -0.21765196 0.015854439 0.002418986 0.12927054
0001d0 12 81 b4 bd 19 82 57 3e ac 6a 04 3e e2 48 fd 3d
       -0.08813681 0.21045722 0.12931317 0.12367417
0001e0 70 21 9a 3e bf 66 1e 3e 84 53 23 3d 10 4e 3d 3e
       0.30103636 0.15468882 0.03987457 0.1848681
0001f0 70 89 81 3e 57 6e 77 3e fb 42 a5 be 00 d7 54 be
       0.2530017 0.24163185 -0.32277665 -0.20785141
000200 a4 fe 34 be 38 fb 9a 3d 81 f9 8a 3e 88 0b 82 3c
       -0.17675263 0.075674474 0.2714348 0.01587464
000210 93 e1 42 3d 07 68 11 3e cc d3 a1 3d c7 11 0d 3b
       0.047578406 0.1419984 0.07901725 0.0021525489
000220 2b 2d 15 be 8e 1e a2 3d 46 74 e1 3d e3 8f 0a be
       -0.14568011 0.07915984 0.110085055 -0.13531451
000230 95 9c 63 be d6 e6 b4 3d 47 97 b5 be 5f bb 93 3e
       -0.222277 0.08833091 -0.35466978 0.2885389
000240 9f a6 0a be 9a ce 83 3e 52 a7 bf bd 45 f9 f6 3d
       -0.13540123 0.25743562 -0.09358086 0.12059263
000250 f9 2a 5c 3e aa d9 8b 3e 51 49 5a 3e 40 bf 72 bd
       0.21500768 0.27314502 0.2131703 -0.05926442
000260 97 c3 b6 bd 23 3c 3a be 15 cb b3 bd e2 33 90 3c
       -0.089240246 -0.18187003 -0.08778969 0.017602865
000270 10 7b 7e be a7 6b 7e 3d c9 bf d2 be 76 33 e1 3b
       -0.24851632 0.062114384 -0.41161945 0.0068725897
000280 fb 00 17 be 37 11 ad bd ea 1c e4 3d 4b 2c d9 bd
       -0.14746468 -0.08450549 0.111383274 -0.10604151
000290 6d ed 0f be cb ce 10 be 8d cd 71 3c 9c 43 5e 3e
       -0.14055414 -0.14141385 0.01475848 0.21705478
0002a0 25 83 c9 bc b1 25 1e 3f 42 f5 3c be b5 8b 01 3f
       -0.024598667 0.6177626 -0.18452933 0.506038
0002b0 62 07 31 3e d1 0b 4f 3d ba 85 6b 3d e1 01 84 be
       0.17287973 0.05054838 0.05750058 -0.25782683
0002c0 c5 89 e8 3c d0 7a da bd 02 30 3f be 88 a5 6a 3e
       0.028386006 -0.10667956 -0.18670657 0.22914708
0002d0 a2 9a 28 be 0c cd 4a be 20 ba fd bd 79 12 ad 3e
       -0.16465238 -0.19804782 -0.12389016 0.33803156
0002e0 e8 52 c1 bb 3f 25 1e 3f 24 d4 ba 3b c1 8d 13 3e
       -0.005899776 0.61775583 0.0057015587 0.14409544
0002f0 40 b2 f0 bc 8d ef e0 3b 34 2d f6 3e d4 5a 60 3e
       -0.029381871 0.006864494 0.48081362 0.21909648
000300 3d 1e e3 bd b3 61 a8 be 9d 48 2b 3e 07 41 25 bd
       -0.11089752 -0.3288704 0.16726919 -0.040345218
000310 c2 d9 27 be 6e b3 fa bc 9c f1 0f be 55 ef c9 3e
       -0.16391662 -0.030603137 -0.1405701 0.39440408
000320 15 87 05 bd e5 cd 93 3e 30 c2 08 be 88 5e 9c 3e
       -0.032599527 0.28868023 -0.13355327 0.30540872
000330 39 72 84 3e 66 c5 3c be 49 14 cb 3d 23 7c 24 be
       0.25868395 -0.18434677 0.099159785 -0.1606298
000340 24 f6 40 3e ef 15 07 3e 5c 94 83 3e ae e6 a8 bd
       0.18843895 0.13191961 0.25699127 -0.08247124
000350 d0 d2 34 bd 4e 68 73 be 24 75 81 3c cd 18 d2 3e
       -0.04414636 -0.23770258 0.015802927 0.41034546
000360 98 58 e9 3c 32 a0 c2 3e 7f 00 57 be 77 d5 a1 3d
       0.028484628 0.38012844 -0.20996283 0.07902043
000370 4f 27 86 3e b1 29 64 3e 6f 65 59 be fa 0e a1 3e
       0.26201865 0.22281529 -0.212301 0.3145674
000380 66 ca 5a 3d e6 ab 83 bd c5 bd d4 bc eb 67 8a be
       0.05341568 -0.064292714 -0.025969395 -0.27032408
000390 4d b6 d6 bd 5d 3f 45 3c 26 b1 17 be 69 b6 c2 3e
       -0.1048399 0.012039033 -0.1481367 0.38029793
0003a0 cd ef 0b 3c aa 64 0c 3f 95 b6 89 be c6 c9 4f 3e
       0.00854106 0.548411 -0.26897112 0.20291814
0003b0 de 40 15 bd 40 d0 01 3a a9 b3 75 be 15 fa c6 bd
       -0.036438815 0.0004951991 -0.23994316 -0.09715668
0003c0 da b4 19 3d ba a7 a0 be 6b 78 8b bd 60 ca 7b be
       0.03752599 -0.31377965 -0.06810077 -0.24588919
0003d0 fc cb de 3d 45 bf 78 bd 73 6e d1 bd 93 65 ab bd
       0.10878751 -0.060729284 -0.10226145 -0.08368983
0003e0 9b 00 7a 3e 36 e7 33 3f 9e 7d 84 be a6 0a 45 bd
       0.24414293 0.70274675 -0.25877088 -0.04810586
0003f0 48 a9 ca 3c cc 39 5a 3e 1d e4 87 bd a6 10 ad 3e
       0.024738923 0.2131111 -0.06635306 0.33801764

tcn.tcn.0.conv2.bias f4 [16]
000000 12 67 b7 3d 79 10 cc 3c c9 8b 62 3d 36 8a 9e bd
       0.08955206 0.024910199 0.05530909 -0.077412054
000010 28 df f0 3d 7a 90 16 3d 13 31 c5 bd d4 3f 45 bd
       0.11761314 0.036758877 -0.09628501 -0.048156574
000020 d0 f8 67 be cb 27 1b be 1e f0 c0 3c bc 59 82 3d
       -0.22653508 -0.15151899 0.023551997 0.06364772
000030 2e c2 31 3e 4b 17 1b bd 39 e4 2b 3e 17 75 2e 3d
       0.1735923 -0.03786401 0.16786279 0.042592134

tcn.tcn.0.res_conv.weight f4 [16, 16, 1]
000000 e8 43 52 3c 71 2e c6 bd b1 15 90 3e 1b 51 a8 37
       0.012833573 -0.09676827 0.2814155 2.0064928e-05
000010 9c a9 0d 3e 16 09 80 3e 0c 5b 47 bd cc b7 e5 bd
       0.13834232 0.25006932 -0.048670813 -0.11216697
000020 61 d7 13 be 1f 7f 92 3e bf 50 72 be 43 c9 d4 3d
       -0.1443763 0.2861261 -0.23663615 0.1038995
000030 85 3e bd bd 9f 7e 27 3e a6 cd 14 3e 3b da 09 3d
       -0.0924044 0.16356896 0.14531574 0.033655386
000040 13 d4 a2 3d 9f c6 9c 3e fe 64 0c be 0c 59 23 3e
       0.07950606 0.30620286 -0.137104 0.15951937
000050 1b 4c e5 3c 88 52 ed bd 81 0e 05 3e 99 e1 03 bf
       0.027990391 -0.11588007 0.12993814 -0.5151611
000060 29 3a d0 3d 6e c5 bd 3b 49 96 43 be c9 d8 5d bc
       0.10167343 0.0057913577 -0.19100298 -0.013540455
000070 bc 2f 88 3e 3f 4b f9 bd ed 94 4c be 0c 41 6e be
       0.26598918 -0.12172555 -0.19978686 -0.23267001
000080 9c f2 3c 3e fc a4 7f be fe db 6e bd 29 39 83 3e
       0.18451923 -0.2496528 -0.05831527 0.25629547
000090 b6 1a 82 3d 81 e6 66 be 56 d9 c8 3e fa dd 29 3e
       0.06352751 -0.22548868 0.39228314 0.16588584
0000a0 79 55 01 3c 4d 67 c2 3e 01 7a 0b 3e bb 51 99 be
       0.007893913 0.37969437 0.1362076 -0.29945168
0000b0 8c 87 b3 be 37 50 77 3e cc d2 26 3e 7d a1 b6 bd
       -0.35064352 0.24151693 0.1629135 -0.0891752
0000c0 a7 f0 83 3e 77 15 95 be 6c af ee 3d d6 17 05 be
       0.2576954 -0.2911794 0.11654553 -0.12997374
0000d0 50 ca 05 bd 67 ad 43 bd 66 77 d3 bc 48 fe d0 3e
       -0.032663643 -0.04777279 -0.02581377 0.40819
0000e0 84 6e 90 bd 34 87 df 3d d9 b5 82 3e a7 b5 5d be
       -0.07052329 0.1091446 0.25529364 -0.21651326
0000f0 c9 f4 42 3d 60 b4 a0 3e 12 12 3d 3e 68 ed 9d bd
       0.047596727 0.31387615 0.18463925 -0.07711297
000100 18 6a 84 be fd 73 96 3e 76 b0 b9 bd 6f 57 89 be
       -0.25862193 0.29385367 -0.090668604 -0.2682452
000110 5f ca 93 bc 2c c5 61 3d e0 54 88 be 06 98 3b be
       -0.018040834 0.05511968 -0.26627254 -0.18319711
000120 70 31 d1 bc 35 16 d9 bd eb 71 7b 3e 4f 2e fe bc
       -0.025536269 -0.10599939 0.24555175 -0.031027941
000130 04 f5 4c 3e c9 24 e5 3d 4e 8d 22 bd d6 73 57 bd
       0.20015341 0.11188657 -0.03968554 -0.052600704
000140 20 80 6b 3d 37 d5 4f 3e 0b 01 80 be 17 26 aa bd
       0.057495236 0.20296179 -0.25000796 -0.08308046
000150 08 7c 34 be 86 0f a2 3e 50 44 a2 be 67 63 98 3c
       -0.17625439 0.31652468 -0.31692743 0.018602086
000160 f4 36 0a 3d d9 9f 7a 3c a8 d4 2c bd 47 60 b2 3d
       0.033743814 0.0152969 -0.042194992 0.0870977
000170 4a 7e 1e 3d db c3 31 ba 1a cd 2b 3d aa e0 60 3e
       0.038694657 -0.0006781199 0.041943647 0.21960703
000180 c8 c3 b4 be 33 b3 98 3e ea 45 e3 3d 18 de 42 be
       -0.3530562 0.29824218 0.110973194 -0.19030035
000190 86 2c 4e 3e a1 4a 30 3e f9 4e 90 be 52 c6 83 bd
       0.20134172 0.17215969 -0.2818525 -0.06434311
0001a0 7b 3d 2c be 47 5d 4f 3e 16 d7 9d be 28 c3 87 3d
       -0.16820328 0.20250426 -0.3082816 0.0662902
0001b0 1e 4a 92 3d 19 85 98 be 0e 86 06 be b3 57 24 3e
       0.07143043 -0.29789045 -0.13137075 0.1604908
0001c0 2c de f7 bd bc a4 6a 3d b7 c6 82 3e 98 2c b7 3e
       -0.12102923 0.05728601 0.25542232 0.3577621
0001d0 b7 a4 8e bd c4 55 93 3e c6 3a e1 3e c9 7c 81 be
       -0.069650106 0.2877637 0.43990153 -0.25290516
0001e0 39 bc b0 bc 7e 8d db bd 4f 6f 89 be 6c 34 66 bd
       -0.021574127 -0.10720347 -0.26842734 -0.056202337
0001f0 04 f9 07 bc 6b 75 81 be c4 47 b9 bd 09 74 27 be
       -0.008299116 -0.25284895 -0.09046891 -0.16352858
000200 30 df 22 be 1e 53 02 bd 6a 8d c4 3e 0f 32 a6 be
       -0.15905452 -0.031817548 0.3838914 -0.32460067
000210 8e bb 9e be 65 2c e5 bc 97 0f 47 be a3 df 06 be
       -0.31002468 -0.02797527 -0.19439541 -0.13171248
000220 40 8a f7 bd dd 25 65 3f e1 89 73 3e f9 99 07 3e
       -0.12086916 0.895109 0.23783065 0.1324233
000230 ae 64 4d be d8 89 2e be 71 07 2c be c3 2c c8 3e
       -0.20057938 -0.1704477 -0.16799714 0.3909665
000240 44 4a af 3e ad 6a 02 3c 7f 00 1b 3e ba 05 f5 bd
       0.34236348 0.007960004 0.15136908 -0.11963983
000250 91 62 e4 bd 3d 29 0b be 1a 0d 94 3e 69 79 b7 3d
       -0.111516126 -0.1358995 0.28916246 0.08958704
000260 c4 1f a3 bd ad 7a 83 3e 7a c8 8f 3d c8 4d 48 3e
       -0.07965043 0.25679532 0.0702066 0.19560921
000270 dc a8 4e be 50 65 97 3e 3b 9b db 3c 2e 4c 87 be
       -0.20181602 0.29569483 0.026807418 -0.26425308
000280 a9 7d c6 3c e9 14 25 be 22 91 15 be 4a 6c 85 be
       0.024229841 -0.16121258 -0.14606145 -0.2605918
000290 ac 1a c2 bd 9b 7a ba be 48 8f 2f 3e 09 48 2e 3e
       -0.094777435 -0.36421666 0.17144501 0.17019667
0002a0 73 ca 64 be c1 b6 c1 3e fe 10 e1 bd fa 11 fa be
       -0.22342853 0.37834743 -0.10989569 -0.4884184
0002b0 ae 83 f7 bc a0 5f 81 be a9 a4 9d 3e 2a 3e 48 be
       -0.030214157 -0.2526827 0.30789688 -0.19554964
0002c0 74 ca e0 be 06 e3 8a be 58 7c 48 be b0 90 00 be
       -0.4390446 -0.2712633 -0.19578683 -0.12555194
0002d0 0d 8b 0a 3d 6b f3 92 be 99 e7 a0 be 8e 11 b2 bd
       0.033824015 -0.28701338 -0.31426695 -0.086947545
0002e0 e8 84 81 3d fd ba 83 be 05 14 79 be d7 6a a4 bd
       0.06324178 -0.25728598 -0.24324043 -0.080281906
0002f0 6c 67 bb 3d 6c e6 48 bd 55 6e 64 bc 02 3a 29 be
       0.091505855 -0.049047872 -0.013942321 -0.16526034
000300 bc 00 3b 3d 71 be b9 3e be 7e 25 3d b2 e7 62 bc
       0.045654997 0.36278108 0.040404074 -0.013849186
000310 03 fc b4 bd df ff 18 bd f8 34 a2 be e7 5f 0a be
       -0.0883713 -0.037353393 -0.31681037 -0.13513146
000320 98 92 6c 3e fe 92 05 3e 8e 0d 66 be 97 c1 e7 3d
       0.23102796 0.13044354 -0.22466108 0.11316221
000330 22 0d fe 3d ed 87 05 be 87 12 87 bd 31 dc 81 3e
       0.12404849 -0.13040133 -0.06595331 0.25363305
000340 97 50 ab 3e b0 bc b1 3e 5c 84 36 3e 8e d7 d6 3e
       0.33459923 0.3471427 0.17823929 0.4196133
000350 ea df 1f be 0f a8 81 3e 47 a2 4f 3e 14 a9 de 3c
       -0.1561276 0.2532353 0.20276748 0.027180232
000360 d4 5b 1a 3e cd 9e 9d 3c 03 55 7f bd 4a 78 92 be
       0.15074092 0.019240761 -0.062336933 -0.28607398
000370 d9 11 ec 3d 41 82 46 be 84 44 82 3d d6 d8 4d be
       0.11526842 -0.19385625 0.063607246 -0.20102248
000380 9a a3 fc bd 2e 09 47 be ac 61 dd 3b 4d c9 a4 3d
       -0.12335892 -0.19437096 0.006756028 0.080462076
000390 27 9c 21 be 85 31 e1 bd 4e 25 5b 3e e5 e4 94 bc
       -0.15782224 -0.10995773 0.2140095 -0.018175552
0003a0 85 31 0d be b8 e1 ce 3d 1b 2d e6 bd 67 bd e4 3b
       -0.13788421 0.10101646 -0.11239072 0.0069805863
0003b0 5e 8a 00 3e 4e be bf 3d cd 54 49 3c d4 38 ba 3c
       0.12552783 0.093624696 0.0122882845 0.022732176
0003c0 4c 14 8c be d3 52 36 bd 72 73 ae bd d4 e6 4a be
       -0.27359235 -0.04451258 -0.08518113 -0.19814616
0003d0 00 ef 46 3e 3c ec 24 3e ca 80 5b be 78 f0 d9 3d
       0.19427109 0.16105741 -0.21435848 0.10641569
0003e0 04 fc af bd 24 34 5b bc b9 c6 a3 be 8e 06 3f bd
       -0.0859299 -0.0133791305 -0.3198755 -0.04663711
0003f0 92 49 fe 3d fe 82 9e 3d 8e fe 1b be c4 d5 03 3e
       0.12416376 0.077398285 -0.15233824 0.12874514

tcn.tcn.0.res_conv.bias f4 [16]
000000 ce 06 92 3e 31 e0 e8 bd 32 2b 70 be 95 b2 f3 3c
       0.28520817 -0.11370886 -0.23453978 0.02974824
000010 88 71 0a be de da 1d be 0e f7 4f be 6c 73 2a be
       -0.13519871 -0.15415522 -0.20309088 -0.16645592
000020 4b 66 85 bd 21 fa 0b 3e 24 22 bf bd 6f 29 0d 3e
       -0.065136515 0.13669635 -0.09332684 0.13785337
000030 84 22 1e bd c1 37 97 be 14 71 dd bc e6 3c 71 3d
       -0.038607135 -0.29534724 -0.027031459 0.058895968

tcn.tcn.1.conv1.weight f4 [16, 16, 5]
000000 1b 82 76 bd a0 bd 4c be d3 77 00 be 5a 31 87 be
       -0.060182672 -0.19994211 -0.1254571 -0.2640484
000010 04 98 96 be 54 0d 51 3e 00 4b cd be 76 f4 45 be
       -0.29412854 0.2041524 -0.40096283 -0.19331536
000020 c6 a8 d0 bd 12 04 3f 3e a0 b4 e5 3d d8 95 d5 3e
       -0.10188441 0.18653896 0.11216092 0.41715884
000030 d3 16 d1 bd 1d ef 94 be 1a 56 65 be 5a 55 e4 3c
       -0.102094315 -0.2908868 -0.22396126 0.02787273
000040 8a dc ec bd ff 37 e9 bd ab 96 9f bd 38 ac 8b be
       -0.11565502 -0.113876335 -0.077924095 -0.2727983
000050 d1 94 1c 3c 64 4b d7 bd 4a 60 66 3e 15 aa 99 3e
       0.009556965 -0.105124265 0.22497669 0.30012575
000060 0d 19 9b 3e a5 f7 8c 3d b4 ff 6f bc e4 9e 7e 3e
       0.3029255 0.06883172 -0.014648367 0.248653
000070 0c f6 0e 3c 31 6a 8c 3e a2 66 ad 3d fa 41 a0 bd
       0.008725654 0.27424768 0.08466841 -0.07825084
000080 b8 bf 43 3e 7a f3 9a 3e 38 71 f3 3e 1b be df bd
       0.19116104 0.30263883 0.47547317 -0.109249316
000090 48 19 4c be 61 3f e5 be 5f 89 ca be eb 30 29 be
       -0.19931519 -0.44774917 -0.3955793 -0.16522567
0000a0 27 96 45 be 61 fd 4b 3e 62 45 87 3e 3a f5 07 3e
       -0.1929556 0.19920875 0.26420122 0.1327714
0000b0 bc 1f cd 3d 8d 12 05 be 60 65 40 bd 13 15 83 3c
       0.100158185 -0.12995358 -0.04697168 0.01600126
0000c0 cf 66 df bd 12 0d cd bd b8 32 f6 3d b8 54 61 3e
       -0.10908281 -0.100122586 0.120213926 0.22004974
0000d0 2a ff 00 be f0 48 99 be bf 2e 81 be 82 f5 62 3e
       -0.12597337 -0.2993846 -0.25230977 0.22163966
0000e0 19 11 7d bc 59 08 99 be c3 86 d7 3d d9 a2 ec bb
       -0.015445971 -0.2988918 0.10523751 -0.0072215614
0000f0 29 62 1e 3b 83 15 0c 3e 91 d3 35 3c ed e0 59 3d
       0.0024167395 0.13680081 0.011097805 0.05319302
000100 de 9e 2c 3e bf 04 cb 3e be 12 e1 3c 90 26 67 be
       0.16857478 0.39652058 0.027474757 -0.22573304
000110 1c 81 36 be 33 8e 4a ba 59 83 4f 3e 96 4a 05 3e
       -0.17822689 -0.0007726878 0.20264949 0.13016734
000120 6b 45 f4 3d d1 35 8c 3d ee 00 8c bd 13 3d 03 3f
       0.11927303 0.06846202 -0.06836115 0.51265067
000130 4e 9c 6f 3d 40 65 91 3d fc 8a 77 3e 4a 7f 39 3e
       0.058498673 0.0709939 0.24174112 0.18114963
000140 3f 6e 40 be 03 90 60 be cd fe 6f bd f2 aa 42 be
       -0.18792056 -0.21929936 -0.058592606 -0.19010523
000150 d5 59 59 be f5 33 04 be 04 66 3a 3e df 70 00 be
       -0.21225674 -0.12910445 0.18202978 -0.12543057
000160 07 2a 81 3d 51 24 97 be 96 0b a4 be 11 a3 ab bd
       0.06306844 -0.29519895 -0.3204009 -0.08380712
000170 cc 6f 9c be 59 5b 4e be 95 b0 62 be 43 15 ee 3d
       -0.30554044 -0.20152034 -0.22137673 0.11625149
000180 11 ec 8b be ba c1 b4 be f6 02 5e be 33 eb 02 be
       -0.27328542 -0.35304052 -0.21680817 -0.12785034
000190 28 42 c0 3e 99 24 e0 3b 3c 43 dd bd 82 81 02 3e
       0.37550473 0.0068403003 -0.108038396 0.12744716
0001a0 5a e3 36 3e 3c 43 0a 3e 6c 9b 80 be 33 31 cd be
       0.17860165 0.1350221 -0.25118577 -0.400766
0001b0 df 85 67 bd 70 24 ef 3e 46 b9 a3 3d 77 15 ce 3d
       -0.056524154 0.46707487 0.079943225 0.10062688
0001c0 2d 1c 8c 3e 40 2b bf 3e fb 4d c0 3e 9d 64 db be
       0.27365246 0.37337685 0.37559494 -0.428502
0001d0 15 7b 70 bd 9e 97 6c be bb 58 00 be f6 0c b9 3c
       -0.05871113 -0.23104712 -0.12533848 0.022589188
0001e0 90 fb 21 be 56 c5 b4 3c ea 01 bf be 54 7c 4a be
       -0.1581862 0.022066753 -0.37306148 -0.1977399
0001f0 52 fb 76 3e 29 28 25 3d 3f 93 65 bd 12 e7 1f be
       0.24119309 0.040321503 -0.056048628 -0.1561549
000200 89 ab 38 bd 43 23 34 bd ba 49 4c be 14 25 56 be
       -0.045085464 -0.04397894 -0.1995 -0.20912582
000210 3b 33 19 3e 5f e6 6c b8 0b 75 1a bd d7 4a 35 3e
       0.14960949 -5.6481334e-05 -0.037709277 0.1770433
000220 13 87 89 3e bd ed bb 3e d2 97 df 3d bd 92 3b be
       0.26860866 0.36704817 0.10917629 -0.18317695
000230 26 b0 aa bd 44 c0 03 bd 86 81 a1 3e 77 7e bc bd
       -0.08334379 -0.03216578 0.3154413 -0.09203809
000240 aa 98 b9 3c 16 ce 7b be 81 2d 31 be 76 aa 55 be
       0.022655804 -0.24590334 -0.17302515 -0.20865807
000250 29 bc 2e be 94 2e 85 bd 27 8c b0 bc 93 1f 72 3d
       -0.17063965 -0.06503025 -0.021551205 0.059112143
000260 0b 7d 72 3e fd 42 f6 bd 9a c5 e6 3c ec 35 50 3d
       0.23680513 -0.12024496 0.028170396 0.050832674
000270 00 3a 34 3e f9 9d c1 3d 27 04 78 3d 6a d1 99 3d
       0.1760025 0.09453959 0.060550835 0.07510646
000280 71 ad 2c 3e c0 2b 6c 3d b3 66 21 3c a2 71 1c 3e
       0.16863038 0.05765891 0.009851146 0.15277722
000290 19 6a d2 bd 36 a1 f1 bc 7a 6b 39 be 1f 48 6f 3d
       -0.10274143 -0.029495817 -0.18107405 0.05841839
0002a0 1f 2a 85 bd 83 7a 6c 3e b2 3c 89 bd a3 73 07 3d
       -0.065021746 0.2309361 -0.0670103 0.033069264
0002b0 46 eb 56 3d d7 92 ea bd 12 df 82 bd 95 a7 35 be
       0.052470468 -0.11453789 -0.063902035 -0.17739709
0002c0 1a f0 da bd 5e 0c 2c be 86 fe 52 3e 59 3d 81 3d
       -0.10690327 -0.16801593 0.20604905 0.06310529
0002d0 a6 b9 a5 3b 85 29 cd bd c8 f0 78 be c6 14 c4 3d
       0.0050575314 -0.10017685 -0.24310601 0.09574275
0002e0 ef 37 26 3e 76 6a 0c be d9 48 d4 bd 74 d9 5b bd
       0.16232274 -0.13712487 -0.10365457 -0.053674176
0002f0 33 84 1a 37 e7 67 4c 3e 77 45 af 3e 12 75 40 bc
       9.209895e-06 0.1996151 0.34232685 -0.011746662
000300 69 bb 47 3d 31 e4 00 be c1 e1 42 bd 59 de 01 be
       0.048762713 -0.12587048 -0.047578577 -0.12682475
000310 ab 0d ec 3d 40 5e dc 3d ad df b7 3d 86 58 c7 bb
       0.115260445 0.10760164 0.0897821 -0.006083551
000320 19 01 eb 3d 6b 1a df bd 6a 20 39 be da 99 7b bd
       0.11474819 -0.10893711 -0.18078771 -0.06142602
000330 38 82 f9 3d a2 d3 15 be 5b 38 03 3d be 18 75 be
       0.121830404 -0.14631513 0.032036167 -0.2393522
000340 f9 f4 21 be ef c7 8e 3e 15 79 a6 3e bf 4f 49 3e
       -0.15816106 0.27886912 0.32514253 0.19659327
000350 da eb 08 3d 3e 72 5f bd f4 3d a4 be cf 36 a4 3e
       0.03342805 -0.05455231 -0.32078516 0.32073066
000360 36 4c 10 3e 0b b9 a6 bb 78 20 9f bd 1b 1d 3f be
       0.14091572 -0.005087977 -0.07769865 -0.18663447
000370 0f 33 43 3e 9b a2 f0 bd d1 58 05 3e 44 a7 2f 3d
       0.19062446 -0.117497645 0.13022162 0.042884126
000380 88 d7 b0 bd f0 90 d7 ba fe 87 03 be 82 65 b2 3d
       -0.08634859 -0.0016446393 -0.12844846 0.08710767
000390 19 35 4d 3b 89 d5 9c bd 47 a4 50 3e 39 3e bf bc
       0.0031312166 -0.07657916 0.20375167 -0.0233451
0003a0 99 30 dd 3d e9 d6 85 bd 71 33 28 be 21 b4 b3 3e
       0.10800285 -0.065351315 -0.16425873 0.35098365
0003b0 e0 84 bb bd 97 8c b7 3d 64 6c 46 3d e7 62 5a be
       -0.09156203 0.08962362 0.048443213 -0.21326791
0003c0 f2 84 8a 3d 7c 5e 36 bd e5 52 64 3e 3f 1a a6 3e
       0.067636386 -0.0445237 0.22297247 0.324419
0003d0 62 24 27 be 31 bf 43 3d 32 c6 5b 3d f0 af a8 bd
       -0.16322473 0.047789756 0.05365581 -0.082366824
0003e0 63 b3 a4 bd e7 6f 50 3e 2e 56 61 be e2 19 a1 3d
       -0.08042028 0.20355187 -0.22005531 0.07866265
0003f0 9f 5b 55 bb 3e 9d 8d be 98 11 dd bd f9 8b 7c 3c
       -0.003255583 -0.2765903 -0.10794371 0.015414231

tcn.tcn.1.conv1.bias f4 [16]
000000 c7 38 54 be ce d4 8d be aa 94 c2 3d 1b 24 96 3d
       -0.20724784 -0.2770142 0.09501012 0.07331105
000010 3a 98 a5 be 69 06 2b be 26 cb 9a 3d a4 19 6f 3d
       -0.32342702 -0.16701664 0.07558279 0.058374062
000020 8f ae 53 bd 86 a3 ed bd 51 a4 63 be d1 4a bf 3d
       -0.051680144 -0.11603455 -0.2223065 0.09340442
000030 e7 1a 77 be 37 9b 64 3e 5c b6 8f bd 59 86 0c 3e
       -0.24131356 0.22324835 -0.07017204 0.13723125
