checkpoints/fine_tune/var_rf/hainsworth/0.4/model_valiant-frog-191_finetune_GTZ_GIA/it_8944_loss_3.9362_acc10.47_acc20.53.pt (torch, 437010 bytes, 211 tensors)

conv1.weight f4 [16, 1, 3, 3]
0.40149677 -0.03375208 -0.37881792 0.44539112 -0.095715314 -0.39400208 0.2059638 0.18577018
-0.3238762 0.15783726 -0.5613334 -0.47866663 0.29825297 -0.22578482 0.14014755 0.20014904
0.21575435 0.09422036 -0.0722352 0.5462561 0.32450804 -0.05110287 0.42863017 0.14183909
-0.708781 -0.083281845 -0.4406742 -0.31979826 -0.077503465 0.4126552 -0.3464002 0.13337533
0.23377138 0.4790279 0.08390587 -0.5499517 -0.2880885 -0.2695828 -0.253829 -0.1477321
0.20249163 0.2713025 -0.047087632 -0.06415915 -0.24036983 -0.10066144 0.10762988 -0.0022040156
-0.8575316 0.3134926 0.5393415 -0.27425706 0.31168267 -0.017586822 0.38016844 0.045037318
-0.09222776 -0.118264236 0.15335758 -0.41834137 -0.06676108 0.17562652 -0.1892413 0.052252933
0.06487355 0.31995806 -0.6271151 -0.32249397 -0.271693 0.18545409 0.017548967 0.6383845
-0.461735 0.004639094 -0.37234032 -0.31367967 0.47293347 0.47530773 -0.21068947 0.35818058
0.0970156 -0.69201785 0.08278396 0.5640714 -0.009310505 -0.18597668 0.2599199 -0.38005987
0.013465033 0.3509574 -0.5662811 -0.0032928425 0.34994704 -0.28773203 -0.1987239 0.3862344
0.12709141 -0.043367624 0.050164033 0.21337993 0.44902274 -0.19922791 0.18652663 0.31699067
-0.30876422 0.36391163 0.040543407 -0.20527779 0.2335931 0.19918324 0.06256749 -0.26284906
-0.29858214 -0.5342832 0.33010522 0.3731849 -0.09250431 0.0820234 -0.23942755 -0.38378605
0.5499072 0.48408026 0.347153 -0.315671 0.045721006 -0.6056713 0.40126076 0.20609468
-0.15694909 0.47620475 -0.25620463 -0.017500771 0.24605544 -0.3127537 -0.49637008 -0.2885242
-0.14708278 0.27015936 -0.08711605 0.13882451 0.5121418 -0.5955086 -0.29542646 0.5318353
00000000: fc90 cd3e 9f3f 0abd 6cf4 c1be 4e0a e43e
00000010: 6406 c4bd a4ba c9be 2de8 523e 8a3a 3e3e
00000020: 1ad3 a5be 17a0 213e 8cb3 0fbf cb13 f5be
00000030: 9db4 983e 2334 67be d782 0f3e dff3 4c3e
00000040: b5ee 5c3e 9bf6 c03d 0cf0 93bd 71d7 0b3f
00000050: eb25 a63e 3e51 51bd 6a75 db3e 443e 113e
00000060: ac72 35bf ac8f aabd 0ca0 e1be 99bc a3be
00000070: 23ba 9ebd 8b47 d33e 5e5b b1be 8b93 083e
00000080: c461 6f3e 2543 f53e d7d6 ab3d a2c9 0cbf
00000090: 5680 93be c206 8abe e0f5 81be 1547 17be
000000a0: f759 4f3e 29e8 8a3e f6de 40bd df65 83bd
000000b0: 8223 76be 9627 cebd 0e6d dc3d 3f71 10bb
000000c0: 3187 5bbf 1a82 a03e 4912 0a3f 6c6b 8cbe
000000d0: df94 9f3e 3d12 90bc 70a5 c23e 0d79 383d
000000e0: e8e1 bcbd 8534 f2bd c509 1d3e d730 d6be
000000f0: 08ba 88bd 70d7 333e 79c8 41be 2c07 563d
00000100: 6cdc 843d 8bd1 a33e 9d8a 20bf ee1d a5be
00000110: 581b 8bbe ade7 3d3e dac2 8f3c 2b6d 233f
00000120: 8868 ecbe 8b03 983b 64a3 bebe 9f9a a0be
00000130: 5624 f23e 895b f33e fbbe 57be 7263 b73e
00000140: 1db0 c63d 1528 31bf a38a a93d fc66 103f
00000150: 178b 18bc ac70 3ebe 3914 853e 3597 c2be
00000160: 719c 5c3c b0b0 b33e ccf7 10bf bbcc 57bb
00000170: 422c b33e 9d51 93be 477e 4bbe 84c0 c53e
00000180: 4024 023e 40a2 31bd cd78 4d3d 4580 5a3e
00000190: 4fe6 e53e 6702 4cbe d600 3f3e 9a4c a23e
000001a0: 5816 9ebe a052 ba3e d810 263d 5734 52be
000001b0: 0833 6f3e b1f6 4b3e 6223 803d 2794 86be
000001c0: c2df 98be c9c6 08bf 8d03 a93e 1712 bf3e
000001d0: e672 bdbd e2fb a73d 7f2c 75be 9b7f c4be
000001e0: b8c6 0c3f 5ed9 f73e 0abe b13e a19f a1be
000001f0: f345 3b3d 460d 1bbf 0d72 cd3e 7c0a 533e
00000200: 43b7 20be 1cd1 f33e 412d 83be c75d 8fbc
00000210: f5f5 7b3e 4121 a0be 3824 febe 72b9 93be
00000220: de9c 16be 5452 8a3e e669 b2bd 0328 0e3e
00000230: ba1b 033f 4073 18bf 2342 97be 5c26 083f

conv1.bias f4 [16]
-0.055610817 -0.081141 -0.18016139 -0.06277103 -0.20062697 -0.14339837 0.033031724 -0.09400554
-0.09915598 -0.010688339 -0.030589094 -0.16219868 -0.046564974 -0.13068993 -0.10715947 -0.08707752
00000000: 2bc8 63bd 412d a6bd 3a7c 38be 198e 80bd
00000010: 2871 4dbe 06d7 12be 464c 073d fa85 c0bd
00000020: 4a12 cbbd 251e 2fbc fb95 fabc 6917 26be
00000030: eaba 3ebd 95d3 05be 6d76 dbbd b355 b2bd

conv2.weight f4 [16, 16, 3, 3]
-0.45969236 -0.09353881 -0.16980079 -0.26531458 -0.074094035 -0.03501192 -0.1264346 0.17848383
0.2524853 -0.057624597 -0.26282406 -0.32380265 -0.13780119 0.024842532 -0.036351055 0.055917136
0.21091533 -0.062125396 0.21189086 -0.15015313 0.084450595 0.40207738 -0.14230862 0.055687994
0.43191662 -0.09270036 -0.024520054 -0.21502149 0.32516745 0.8184992 -0.108402856 0.1358395
0.42337298 0.123977944 0.3087472 0.4667471 -0.023511523 -0.10935482 -0.35370642 -0.017719597
-0.16323727 -0.28946832 0.031051645 -0.15718995 -0.14947665 0.5430285 0.31669495 1.0771911
0.34401897 -0.0558797 0.31492785 0.35052687 -0.06273011 0.37597433 0.073750615 -0.13212778
-0.19357876 -0.01977395 -0.08322698 -0.21200722 0.026096271 -0.026233708 -0.0067073475 0.32632557
0.09839687 -0.08088925 0.22692202 -0.08067092 -0.2365935 -0.009187576 -0.10955922 -0.46076682
0.43175018 0.061759867 0.19473585 0.18668132 -0.22858636 -0.1376426 0.24189046 -0.031430542
-0.157183 0.13597332 0.35503972 0.5342964 0.32900816 0.3242905 0.35340253 0.24110122
0.11586092 0.30452925 0.11215074 0.084167674 0.45228693 0.105392344 -0.13552065 0.041730005
-8.376144e-05 -0.1430159 -0.0786464 -0.12901571 -0.10537164 -0.036479566 -0.26100007 -0.24725026
-0.24176902 -0.093630165 -0.0069739684 -0.121848695 -0.1700978 -0.11595619 -0.24525131 -0.025223084
0.018973866 0.010035181 -0.04520327 -0.042665083 -0.1993254 0.11747649 -0.20942648 -0.38866678
0.088684954 -0.09875998 -0.14503513 0.058613837 -0.0051191086 -0.2903637 -0.34713817 -0.19227077
0.07190549 -0.41126883 -0.057475988 0.16168457 -0.004827248 0.2723537 0.15945914 0.38398895
0.3254606 0.63884777 0.22284934 0.19459087 0.37130982 0.010555665 -0.16156863 -0.019213287
0.14933719 0.014497134 0.3259264 -0.09046478 0.074445 0.16105172 -0.14877696 -0.014779036
0.090842426 0.18150738 -0.17514783 0.27820995 -0.0034944487 -0.09724498 0.15793192 0.08661505
-0.19166197 0.022120733 -0.2455341 0.6125755 -0.0069142855 -0.719635 0.030582275 -0.20068859
-0.5459045 0.1579756 -0.1904112 -0.3522386 -0.19232714 -0.028450973 -0.27260548 -0.07374751
0.15619145 -0.069621734 -0.03489792 0.101152316 0.23823252 0.28804487 0.31367952 0.051449366
0.12246345 0.03350768 0.0032376205 0.05956289 -0.007973202 -0.40395144 0.27185258 -0.06018339
-0.4558085 0.05045956 -0.12729406 -0.5054816 0.22409888 -0.04072305 -0.070504375 0.114144936
-0.006543228 -0.025275 0.008636154 0.066873476 -0.054055337 0.06680635 0.12849282 0.10478078
0.0041414723 -0.27327323 0.07870934 0.040804308 -0.06730824 0.010515658 -0.0067058746 -0.38167572
-0.57817036 -0.0034033179 -0.36179644 -0.19414759 0.19996785 -0.002367712 -0.36790383 0.35988185
0.16408324 -0.03219676 -0.06843781 -0.14219216 -0.19743112 -0.13853154 0.009140715 -0.23279281
0.0064082933 -0.06554104 0.19305575 -0.110123344 -0.019475946 -0.071968295 -0.010504476 -0.08758487
-0.069286466 -0.17987977 -0.034925092 -0.1961901 0.042213462 0.37740293 -0.05489403 0.00028371983
0.24228956 -0.008825573 0.12563547 0.30867097 -0.056658812 -0.15006189 -0.060066473 -0.1023283
00000000: cc5c ebbe 4791 bfbd 42e0 2dbe 50d7 87be
00000010: 9dbe 97bd a968 0fbd 1278 01be 77c4 363e
00000020: c145 813e c507 6cbd e090 86be 76c9 a5be
00000030: c11b 0dbe 9182 cb3c d8e4 14bd 5e09 653d
00000040: 30fa 573e 3377 7ebd ebf9 583e bec1 19be
00000050: 6ff4 ac3d 16dd cd3e 5ab9 11be 1819 643d
00000060: 2d24 dd3e b0d9 bdbd 48de c8bc 982e 5cbe
00000070: 597c a63e 2a89 513f 5102 debd 8319 0b3e
00000080: 58c4 d83e 26e8 fd3d 1d14 9e3e 7af9 ee3e
00000090: 3d9b c0bc 6bf5 dfbd 0219 b5be b028 91bc
000000a0: ac27 27be 3135 94be 0560 fe3c 67f6 20be
000000b0: 6810 19be ea03 0b3f d725 a23e 66e1 893f
000000c0: 4123 b03e 1de2 64bd 393e a13e 4278 b33e
000000d0: a578 80bd b57f c03e 900a 973d 814c 07be
000000e0: 8339 46be fbfc a1bc e872 aabd 6c18 59be
000000f0: d9c7 d53c 13e8 d6bc 4fc9 dbbb 2514 a73e
00000100: 4c84 c93d 43a9 a5bd 3f5e 683e cc36 a5bd
00000110: 9145 72be 7d87 16bc 9660 e0bd a1e9 ebbe
00000120: 5c0e dd3e eaf7 7c3d d668 473e 6329 3f3e
00000130: 8b12 6abe 2ff2 0cbe 22b2 773e 50bd 00bd
00000140: 95f4 20be 973c 0b3e c4c7 b53e a6c7 083f
00000150: c273 a83e 6809 a63e 2df1 b43e 3de3 763e
00000160: 7d48 ed3d 42eb 9b3e 4aaf e53d 1a60 ac3d
00000170: 2792 e73e f1d7 d73d edc5 0abe 15ed 2a3d
00000180: 15a9 afb8 c372 12be 5d11 a1bd b21c 04be
00000190: 16cd d7bd 996b 15bd cda1 85be 2c2f 7dbe
000001a0: 4c92 77be 2cc1 bfbd e385 e4bb cf8b f9bd
000001b0: 1e2e 2ebe 707a edbd 2923 7bbe a4a0 cebc
000001c0: 156f 9b3c 9a6a 243c 1027 39bd 95c1 2ebd
000001d0: f51b 4cbe 8497 f03d e573 56be 55ff c6be
000001e0: 75a0 b53d ac42 cabd 1784 14be 1015 703d
000001f0: 32be a7bb 8daa 94be 18bc b1be a1e2 44be
00000200: 2f43 933d d491 d2be f16b 6bbd a490 253e
00000210: e42d 9ebb f271 8b3e 4249 233e 339a c43e
00000220: c6a2 a63e 878b 233f 9e32 643e d442 473e
00000230: 521c be3e abf1 2c3c 3f72 25be 2f65 9dbc
00000240: d9eb 183e 6385 6d3c d3df a63e 9945 b9bd
00000250: 9f76 983d beea 243e fd58 18be c523 72bc
00000260: 980b ba3d 12dd 393e f459 33be 8971 8e3e
00000270: 1f03 65bb 6028 c7bd e8b8 213e 3b63 b13d
00000280: 0943 44be 8a36 b53c 4b6d 7bbe bfd1 1c3f
00000290: 3b91 e2bb 003a 38bf ae87 fa3c 4f81 4dbe
000002a0: 66c0 0bbf 5bc4 213e 27fb 42be 9e58 b4be
000002b0: 68f1 44be 0412 e9bc f292 8bbe ef08 97bd
000002c0: a7f0 1f3e d795 8ebd 1ff1 0ebd f228 cf3d
000002d0: 3af3 733e 9e7a 933e 9a9a a03e 92bc 523d
000002e0: 1ece fa3d 593f 093d 422e 543b 38f8 733d
000002f0: 08a2 02bc b9d2 cebe 4330 8b3e dc82 76bd
00000300: bb5f e9be afae 4e3d 6059 02be 3e67 01bf
00000310: 2d7a 653e 36cd 26bd 9964 90bd d2c4 e93d
00000320: 9368 d6bb 840d cfbc a87e 0d3c f6f4 883d
00000330: 2169 5dbd c5d1 883d 9f93 033e 4e97 d63d
00000340: 30b5 873b 78ea 8bbe 5d32 a13d 6b22 273d
00000350: e7d8 89bd de49 2c3c f4bc dbbb 006b c3be
00000360: f902 14bf 330a 5fbb 623d b9be a0ce 46be
00000370: 5fc4 4c3e 9e2b 1bbb e45d bcbe 6f42 b83e
00000380: 7005 283e c0e0 03bd 1f29 8cbd d29a 11be
00000390: 622b 4abe 36db 0dbe f0c2 153c 3d61 6ebe
000003a0: a9fc d13b 613a 86bd 68b0 453e 5988 e1bd
000003b0: 058c 9fbc 1d64 93bd f71a 2cbc b25f b3bd
000003c0: 10e6 8dbd 6732 38be 9d0d 0fbd 0fe6 48be
000003d0: 06e8 2c3d f53a c13e 90d8 60bd 3bc0 9439
000003e0: c11a 783e 2399 10bc 96a6 003e 1f0a 9e3e
000003f0: 1213 68bd d3a9 19be 4308 76bd 8091 d1bd

conv2.bias f4 [16]
-0.054453984 -0.22795041 -0.093746446 -0.111314304 -0.27496633 -0.13895574 -0.3336475 -0.10877321
-0.14930277 -0.29095867 -0.12858374 -0.24415536 -0.083076894 -0.22734098 -0.03385113 -0.22509405
00000000: 240b 5fbd d56b 69be 23fe bfbd c1f8 e3bd
00000010: 63c8 8cbe 6a4a 0ebe d8d3 aabe 7dc4 debd
00000020: d3e2 18be 89f8 94be 75ab 03be dd03 7abe
00000030: 3824 aabd 13cc 68be 7ca7 0abd 0e7f 66be

conv3.weight f4 [16, 16, 8, 1]
-0.46932223 -0.061569665 -0.044913188 -0.1518053 -0.2151806 -0.48175475 -0.43043992 0.13048445
0.282406 0.16468972 0.24616493 0.039087545 0.22783944 0.29541928 -0.25142184 -0.41140747
0.3242195 0.3205823 0.21798906 0.32032412 0.19855832 0.2036677 -0.05059702 -0.052283254
-0.61516297 -0.10587936 -0.11536944 -0.22668514 -0.106404655 -0.3180552 0.20255359 -0.16686441
-0.24948321 -0.0035447977 0.03492965 0.039151814 0.07946646 0.10168927 0.045370504 0.24676667
-0.5600359 -0.04365778 -0.053664885 0.14106876 0.08816002 -0.006672718 -0.5099453 0.039051782
-0.31679916 -0.02367594 0.038536973 -0.015590258 -0.039159622 -0.062616765 -0.22441493 -0.13702427
0.17463289 -0.19136827 -0.016103078 0.0004694483 0.005847147 -0.19869573 -0.010145484 0.014169615
0.02316139 -0.049747404 0.042918302 0.075541824 -0.08659219 -0.105291076 0.6231837 0.09405524
-0.26209998 -0.25524366 -0.036002234 -0.015318469 0.013096128 0.16884871 -0.32030857 0.111826465
0.09035079 -0.22773877 -0.072830655 -0.16024594 -0.20597023 -0.10515249 0.23023 -0.41071576
0.20141706 0.09854626 -0.12088442 0.14369358 0.44947344 0.046639726 -0.65115005 -0.023826992
-0.2570731 -0.14702876 -0.16245829 0.038711477 -0.18739088 -0.22357914 0.04251256 0.34393752
0.13941967 0.15283944 0.21053001 0.16287911 0.105139785 0.240404 0.3213282 -0.27311438
-0.04214816 0.1396999 0.13339551 0.08538226 -0.25469056 -0.0054364726 0.05581029 0.3574869
-0.65108025 -0.20013626 -0.1192137 -0.20034385 -0.51685166 -0.28691706 -0.15343876 0.13370581
-0.35089302 -0.16143726 -0.20815605 -0.028315183 0.07828414 0.08610196 0.4539857 0.022459948
0.069485694 0.27004224 0.22467963 0.14559157 0.30405068 0.41793188 -0.09441853 -0.18512987
-0.1794375 -0.09396418 -0.037215166 0.07699633 0.028621651 0.41462204 0.09732011 0.11672763
0.028688157 0.26793006 0.006608099 -0.029620629 -0.2590966 -0.4246579 -0.34764433 -0.32298976
-0.15001883 0.11205236 0.06749057 0.03316426 0.04319969 0.31156462 -0.018789135 -0.008415507
0.23158917 0.1829037 0.049656935 0.02068596 0.05154985 -0.07022256 -0.4584097 -0.16874325
0.027743964 0.4941265 0.34816942 0.13503513 0.22464827 0.16859029 0.21891615 0.0027633326
-0.17411892 -0.11492896 -0.28374514 0.10136104 0.15637377 0.22710295 0.2660728 -0.047041595
-0.061656397 0.008577743 -0.0250583 -0.047654647 -0.031606674 0.054729395 0.6373441 -0.10481223
0.15909505 0.14313246 0.23688255 -0.025587302 0.27843985 0.40583706 -0.18166706 0.13271008
-0.43084022 -0.21065286 -0.04145249 -0.0020952956 -0.12037366 -0.17277525 0.43165526 -0.4089902
0.029965948 -0.2588572 0.04282827 0.2488822 0.25585535 0.35753426 0.2876781 -0.06373153
-0.02930843 -0.17648171 -0.3509405 -0.16444373 -0.21024413 0.091035016 -0.07192785 0.25543907
-0.081082165 0.15498707 0.06546444 0.08501349 0.34964052 0.045570277 0.3087338 -0.35137337
0.14269683 0.2203443 0.044857357 0.0023084907 -0.24891084 -0.1675777 -0.45805746 0.4196511
0.15916662 0.057302263 0.12296216 0.06905771 -0.055490024 0.19740535 0.1339864 0.33580837
00000000: 014b f0be 7930 7cbd e4f6 37bd d972 1bbe
00000010: 4e58 5cbe 8fa8 f6be 9f62 dcbe b79d 053e
00000020: 8597 903e 6ca4 283e a912 7c3e 431a 203d
00000030: be4e 693e 3241 973e 5dba 80be 00a4 d2be
00000040: 1900 a63e 5d23 a43e 8638 5f3e 8601 a43e
00000050: df52 4b3e 448e 503e d23e 4fbd f726 56bd
00000060: 527b 1dbf 47d7 d8bd d046 ecbd 2620 68be
00000070: afea d9bd 22d8 a2be 356a 4f3e 81de 2abe
00000080: 8778 7fbe d64f 68bb 6512 0f3d a75d 203d
00000090: 50bf a23d 7742 d03d 6cd6 393d 67b0 7c3e
000000a0: 835e 0fbf 80d2 32bd b6cf 5bbd 5474 103e
000000b0: 3e8d b43d d1a6 dabb c68b 02bf c3f4 1f3d
000000c0: 8033 a2be 0cf4 c1bc f2d8 1d3d 486e 7fbc
000000d0: d765 20bd 383d 80bd 07cd 65be 1750 0cbe
000000e0: f7d2 323e 0bf6 43be 9aea 83bc 4920 f639
000000f0: 6d99 bf3b e576 4bbe 3e39 26bc ac27 683c
00000100: f5bc bd3c efc3 4bbd 1acb 2f3d acb5 9a3d
00000110: 3f57 b1bd d9a2 d7bd f888 1f3f 09a0 c03d
00000120: f831 86be 4caf 82be 1477 13bd 51fa 7abc
00000130: 2491 563c ade6 2c3e 7cff a3be 4605 e53d
00000140: d609 b93d 5a34 69be 3d28 95bd 8317 24be
00000150: dce9 52be 305a d7bd 6ac1 6b3e 5649 d2be
00000160: 4640 4e3e 9fd2 c93d 4092 f7bd 6924 133e
00000170: 6221 e63e 4c09 3f3d c5b1 26bf d330 c3bc
00000180: 169f 83be b58e 16be 775b 26be ed8f 1e3d
00000190: 65e3 3fbe eef1 64be a621 2e3d 9418 b03e
000001a0: 08c4 0e3e f181 1c3e 2e95 573e c8c9 263e
000001b0: 8753 d73d 772c 763e 2185 a43e a6d5 8bbe
000001c0: 8da3 2cbd 7e0d 0f3e d598 083e e5dc ae3d
000001d0: cd66 82be 7024 b2bb 5599 643d 8608 b73e
000001e0: 32ad 26bf 85f0 4cbe 5026 f4bd f026 4dbe
000001f0: 6450 04bf cbe6 92be 0d1f 1dbe 2dea 083e
00000200: 40a8 b3be cf4f 25be dc26 55be 3ef5 e7bc
00000210: 6f53 a03d 3956 b03d d070 e83e edfd b73c
00000220: 844e 8e3d fa42 8a3e 6b12 663e f515 153e
00000230: 88ac 9b3e 2bfb d53e 815e c1bd af92 3dbe
00000240: 77be 37be 4b70 c0bd ee6e 18bd 40b0 9d3d
00000250: f477 ea3c 5749 d43e c44f c73d e50e ef3d
00000260: 6d03 eb3c 212e 893e c188 d83b f6a6 f2bc
00000270: 4fa8 84be c36c d9be 70fe b1be ea5e a5be
00000280: 899e 19be b57b e53d 7f38 8a3d 3fd7 073d
00000290: 28f2 303d 6685 9f3e aceb 99bc 32e1 09bc
000002a0: b625 6d3e 1c4b 3b3e 1265 4b3d 9a75 a93c
000002b0: ef25 533d d8d0 8fbd adb4 eabe 08cb 2cbe
000002c0: 4f47 e33c 26fe fc3e 4343 b23e a646 0a3e
000002d0: 320a 663e efa2 2c3e 8e2b 603e 0719 353b
000002e0: 3b4c 32be e05f ebbd 0b47 91be 6096 cf3d
000002f0: 7220 203e ad8d 683e b23a 883e b0ae 40bd
00000300: 6b8b 7cbd a989 0c3c 1047 cdbc 8531 43bd
00000310: 0076 01bd ee2b 603d fc28 233f cba7 d6bd
00000320: d0e9 223e 5191 123e 5791 723e 769c d1bc
00000330: ab8f 8e3e e0c9 cf3e ee06 3abe 27e5 073e
00000340: 1797 dcbe 62b5 57be 16ca 29bd 3a51 09bb
00000350: 7786 f6bd ffeb 30be eb01 dd3e 2a67 d1be
00000360: 267b f53c ee88 84be b26c 2f3d fada 7e3e
00000370: 79ff 823e bb0e b73e 8b4a 933e ad85 82bd
00000380: 3c18 f0bc 9fb7 34be 79ae b3be f063 28be
00000390: 3d4a 57be 9170 ba3d e94e 93bd e9c8 823e
000003a0: 680e a6bd eeb4 1e3e 3812 863d 8d1b ae3d
000003b0: 1504 b33e e6a7 3a3d 5b12 9e3e 36e7 b3be
000003c0: 1e1f 123e f0a1 613e 59bc 373d 0c4a 173b
000003d0: 7ce2 7ebe 7d99 2bbe 8286 eabe 82dc d63e
000003e0: 93fc 223e c7b5 6a3d 96d3 fb3d 216e 8d3d
000003f0: 8249 63bd a124 4a3e bb33 093e 13ef ab3e

conv3.bias f4 [16]
-0.30174947 -0.0069776746 0.028891826 -0.1838421 -0.08704023 0.4506829 0.1641305 -0.07520816
-0.21110925 -0.40356785 0.06328798 0.2938608 -0.10194374 -0.23453881 0.39046937 -0.170756
00000000: e87e 9abe faa4 e4bb 8dae ec3c 1a41 3cbe
00000010: 2642 b2bd e9bf e63e d311 283e bc06 9abd
00000020: 062d 58be 72a0 cebe 219d 813d ec74 963e
00000030: e1c7 d0bd f12a 70be 9aeb c73e a9da 2ebe

tcn.tcn.0.conv1.weight f4 [16, 16, 5]
0.16429244 0.21005198 0.13690336 0.037996743 -0.043569602 0.09657086 -0.039699335 -0.04706704
-0.14507698 -0.30353203 -0.10265497 0.025128884 0.24445385 -0.15344532 -0.14876808 0.14288247
0.030955307 0.038097795 -0.035168324 -0.008917114 0.22759108 -0.056060888 0.1628826 0.14154226
-0.013629406 -0.31789494 0.10227481 0.10621763 -0.55405205 -0.47938684 0.030205617 0.07530965
-0.034220662 -0.48150137 -0.3336178 -0.031041475 0.07645743 0.14025038 0.15769912 -0.017646156
0.3677356 0.23910227 0.011171077 -0.13847917 0.04734544 0.11496398 0.16800556 0.14407724
-0.08943805 -0.019951498 -0.04928917 0.00057982525 -0.09091494 -0.5615919 -0.51488686 -0.34356266
-0.25045827 -0.10823183 -0.25325522 -0.2540262 0.1037302 -0.035166323 0.13802716 -0.07681348
0.020236276 0.10145674 -0.0055869347 0.0046826997 0.18515399 0.29845896 -0.18708213 -0.12964271
-0.25620905 -0.059704117 0.16508034 -0.33303848 -0.28205034 -0.009190888 -0.061150495 0.010921543
0.12619086 0.29178727 0.023379467 0.18115194 0.106264465 0.059714355 0.24658869 -0.07810249
0.16557692 0.3492987 0.2024176 0.5899429 0.34444565 0.26205826 0.2943993 -0.09357119
-0.17049465 -0.6544232 -0.09271793 -0.04857962 -0.32080582 -0.22342508 0.061246138 0.15353438
0.23026933 0.03975608 0.02593252 0.013289145 0.05673246 0.017460903 -0.40708232 -0.33392334
-0.2685042 -0.088539496 -0.26171264 -0.23676765 -0.21157855 -0.10645311 0.08622859 0.116401605
-0.048271112 0.05968472 -0.11111114 0.017860038 -0.0009152465 0.038523745 -0.0072773965 0.03507935
-0.08526965 -0.14996363 -0.21457715 -0.09332617 0.0859446 0.24898203 0.14331599 -0.0100926645
0.25119755 0.2646156 0.15836364 0.16959299 -0.09746347 -0.18609633 -0.07394331 -0.12414767
0.16450064 -0.042409696 0.049955532 0.14577995 0.46336612 0.37493804 0.09419494 -0.34337384
-0.0073603676 -0.04037428 -0.040839218 0.19758965 0.0045114877 -0.22406869 -0.22120827 0.21375749
0.12058557 0.23814788 0.039114855 0.0045795594 -0.1545167 0.37168846 0.20493472 0.222041
0.11296418 0.1769012 0.16783929 0.03991546 0.081534564 0.054353647 -0.10934296 -0.1285036
-0.007584692 -0.09504875 -0.063229345 0.035753712 0.2250078 0.2458868 0.050137877 0.06135402
0.0020348202 -0.1521787 0.07002875 -0.011460862 -0.030538684 -0.019386576 -0.16422786 -0.1292746
-0.20843065 -0.0030205946 0.22687499 0.20059684 -0.049751922 0.09395342 0.20454338 0.028570464
-0.08947571 -0.21171686 -0.17456724 -0.33039725 -0.25553662 -0.063534565 -0.05995524 -0.036473837
0.19302277 -0.0022966466 0.24470413 0.19735603 0.17655249 0.34945604 0.13489322 -0.30472994
-0.09963538 0.19873965 0.1481901 -0.13562484 -0.12787105 -0.27670193 -0.10034569 -0.014148607
-0.2101475 -0.012731347 0.08257077 0.12108029 0.15350798 0.007435449 -0.13583334 -0.052077353
-0.058035925 -0.08036005 -0.14587986 -0.11995437 -0.3741634 -0.13159575 -0.33327514 -0.5709352
-0.27860764 0.03458516 0.1621736 0.43809932 0.39912355 -0.22953002 -0.029616514 -0.15588102
-0.16545807 -0.12494879 -0.093024895 0.08247719 0.20737405 0.024138413 0.25006324 0.028299466
00000000: 473c 283e de17 573e 6530 0c3e 79a2 1b3d
00000010: 0a76 32bd f1c6 c53d c59b 22bd 5ec9 40bd
00000020: 0f8f 14be 8d68 9bbe c53c d2bd 17db cd3c
00000030: 1c52 7a3e c520 1dbe a956 18be c84f 123e
00000040: fc95 fd3c 6f0c 1c3d a90c 10bd 1619 12bc
00000050: a30d 693e 1aa0 65bd b2ca 263e 74f0 103e
00000060: df4d 5fbc 20c3 a2be 7575 d13d a188 d93d
00000070: 5bd6 0dbf 3172 f5be c571 f73c f23b 9a3d
00000080: f72a 0cbd 5987 f6be f4cf aabe b14a febc
00000090: b795 9c3d cc9d 0f3e e17b 213e ac8e 90bc
000000a0: d747 bc3e 3ad7 743e e506 373c 7ccd 0dbe
000000b0: 4bed 413d 3c72 eb3d a609 2c3e fc88 133e
000000c0: 4c2b b7bd 5371 a3bc 71e3 49bd 6aff 173a
000000d0: 9d31 babd 7dc4 0fbf a0cf 03bf 72e7 afbe
000000e0: 113c 80be a6a8 ddbd abaa 81be b90f 82be
000000f0: 8070 d43d 900a 10bd fe56 0d3e 6350 9dbd
00000100: 8cc6 a53c 8dc8 cf3d 9b12 b7bb 5571 993b
00000110: 0299 3d3e 9dcf 983e 7592 3fbe 0fc1 04be
00000120: d52d 83be 4e8c 74bd d20a 293e 0584 aabe
00000130: e768 90be 6195 16bc f178 7abd 46f0 323c
00000140: 2d38 013e 2465 953e 4c86 bf3c e57f 393e
00000150: 2fa1 d93d 0a97 743d bf81 7c3e 33f4 9fbd
00000160: ff8c 293e 47d7 b23e 8f46 4f3e 7f06 173f
00000170: 2e5b b03e 802c 863e 81bb 963e 41a2 bfbd
00000180: 2696 2ebe 4788 27bf e6e2 bdbd 6cfb 46bd
00000190: a940 a4be 8bc9 64be 3bdd 7a3d 1e38 1d3e
000001a0: b9cb 6b3e 45d7 223d 7070 d43c b7ba 593c
000001b0: 4c60 683d 2b0a 8f3c 186d d0be 00f8 aabe
000001c0: 6279 89be 3254 b5bd 33ff 85be 3873 72be
000001d0: 0ca8 58be 1704 dabd 9d98 b03d f763 ee3d
000001e0: eeb7 45bd f777 743d 3d8e e3bd 374f 923c
000001f0: 27ed 6fba 13cb 1d3d 3a77 eebb 5daf 0f3d
00000200: dba1 aebd 1190 19be 1dba 5bbe cb21 bfbd
00000210: b903 b03d 25f5 7e3e 6dc1 123e b45b 25bc
00000220: f79c 803e b27b 873e 142a 223e c9a9 2d3e
00000230: ee9a c7bd 0990 3ebe 976f 97bd 2241 febd
00000240: db72 283e cab5 2dbd 2c9e 4c3d 5747 153e
00000250: 533e ed3e e1f7 bf3e 47e9 c03d b2ce afbe
00000260: 3d2f f1bb 805f 25bd 0647 27bd f154 4a3e
00000270: 1ad5 933b 4372 65be 6c84 62be 3ee3 5a3e
00000280: 91f5 f63d 0add 733e e636 203d 2110 963b
00000290: a039 1ebe f34d be3e 68da 513e b75e 633e
000002a0: c459 e73d 9725 353e 10de 2b3e 657e 233d
000002b0: 98fb a63d eea1 5e3d 34ef dfbd 7396 03be
000002c0: 0289 f8bb eba8 c2bd 637e 81bd 7c72 123d
000002d0: 7268 663e c0c9 7b3e 605d 4d3d 5a4e 7b3d
000002e0: 9e5a 053b bcd4 1bbe 3c6b 8f3d 57c6 3bbc
000002f0: 432c fabc 99d0 9ebc 592b 28be 9060 04be
00000300: d86e 55be 2bf5 45bb eb51 683e 4269 4d3e
00000310: acc8 4bbd a76a c03d d273 513e 9b0c ea3c
00000320: 0b3f b7bd 4ecc 58be c1c1 32be d429 a9be
00000330: b2d5 82be 691e 82bd a093 75bd 9765 15bd
00000340: c3a7 453e 5683 16bb b893 7a3e b317 4a3e
00000350: 2dca 343e e7eb b23e 7321 0a3e 9005 9cbe
00000360: a20d ccbd 6882 4b3e 25bf 173e 3de1 0abe
00000370: a1f0 02be e0ab 8dbe 0b82 cdbd 8fcf 67bc
00000380: e830 57be 2497 50bc dd1a a93d f1f8 f73d
00000390: 3231 1d3e 11a5 f33b e517 0bbe 104f 55bd
000003a0: 14b7 6dbd cf93 a4bd 8861 15be a3aa f5bd
000003b0: 5892 bfbe 09c1 06be 0aa3 aabe cf28 12bf
000003c0: a9a5 8ebe 2ba9 0d3d d610 263e 8e4e e03e
000003d0: ec59 cc3e eb09 6bbe 559e f2bc 469f 1fbe
000003e0: d76d 29be 27e5 ffbd d683 bebd cde9 a83d
000003f0: dd59 543e ecbd c53c 4a08 803e 48d4 e73c

tcn.tcn.0.conv1.bias f4 [16]
-0.15491341 -0.17138503 0.06005553 -0.028411103 -0.25141105 -0.125748 -0.023499554 -0.21172626
-0.42121872 -0.0037048557 -0.17873345 -0.14988874 0.36371484 -0.13528119 -0.22781233 0.012898922
00000000: 9fa1 1ebe 8f7f 2fbe cafc 753d 67be e8bc
00000010: f3b8 80be 15c4 00be 2382 c0bc c5ce 58be
00000020: fba9 d7be 2acd 72bb e705 37be 6f7c 19be
00000030: d538 ba3e 2787 0abe a347 69be 0056 533c

tcn.tcn.0.conv2.weight f4 [16, 16, 1]
0.006047806 -0.028468683 0.15100235 -0.064943895 0.13615575 -0.1802302 0.14395063 0.29043728
0.121523455 -0.1372029 -0.19591126 -0.14639841 0.25995803 -0.06659388 -0.14446321 0.3517116
-0.09814242 0.21475363 -0.078147076 0.2059183 0.11559245 0.19875997 0.12634222 -0.13614988
0.10157836 -0.05410346 -0.11906997 -0.06979647 0.08553066 0.13929752 -0.06713304 0.30326453
0.093203895 0.1362608 -0.09950499 0.100988954 0.038053676 -0.016102592 0.11439264 0.063831106
0.11337625 0.29455638 0.09724352 0.18495883 -0.14713216 0.23665285 -0.026390193 0.048367962
0.15594251 0.33117086 -0.043871246 -0.038776938 -0.13063902 0.21666794 0.24257647 0.1675554
-0.19483188 -0.18219183 -0.1845115 -0.23025274 0.20335327 0.050332256 0.06756709 0.17067647
0.14770366 0.2571267 -0.09981044 0.1149477 -0.008785273 -0.062582135 -0.058647536 -0.3236586
-0.12945688 -0.33699235 -0.008980604 -0.11051875 0.024096804 0.019435698 -0.03798872 0.11135065
0.012621305 0.08742026 0.035962716 0.036497664 -0.2871322 0.006529655 -0.06295087 -0.29359388
0.17599231 -0.36226335 -0.13548204 -0.3871966 -0.047153328 -0.012426814 0.22821948 -0.0120081175
-0.002345742 0.010783376 -0.120892994 -0.15567082 -0.08618201 -0.10341273 -0.2089394 -0.034731038
-0.36042625 0.21582276 -0.1902098 -0.28674072 0.023177674 -0.34300157 -0.14369392 -0.17204599
-0.30437934 0.024989346 -0.03780977 0.13162173 -0.061064407 0.15083465 0.016485069 0.04949408
0.17783487 0.13345583 0.1116556 0.0016438552 0.3217882 0.24908893 -0.24406484 -0.24433006
-0.1869641 0.06439928 0.2987856 0.036823884 -0.05550136 0.0036844912 -0.01554261 0.017862123
-0.36600283 0.09523033 0.04499649 -0.19854748 -0.08147623 0.035897747 -0.21497527 0.2370124
-0.019860726 0.19978525 -0.040499218 -0.03600442 0.08638172 0.16343185 0.049883302 -0.091800705
-0.053206827 -0.17838815 -0.05508277 0.07708877 -0.30461589 -0.0015632589 -0.23445888 0.06629385
-0.18745048 -0.08672351 0.17134194 -0.08106439 -0.08656013 -0.003877094 0.36831963 0.20265342
-0.044420782 0.5546629 -0.14702633 0.5174627 0.08227861 -0.025312794 0.07367286 -0.2507249
0.032176986 -0.07733321 -0.1396329 0.0941901 -0.1881288 -0.11828078 -0.05741581 0.31994134
0.15283635 0.54358804 -0.095022425 0.1484059 0.08556219 0.075686544 0.44513565 0.21873373
-0.18184145 -0.29684293 0.04061723 0.020155415 -0.08013226 0.09224352 -0.082323834 0.19414987
-0.034601346 0.20568606 -0.14939483 0.23229113 0.2319389 -0.013103712 0.041818205 -0.16095921
0.09933627 0.14433978 0.16142134 -0.011677015 0.058127947 -0.19238707 -0.07861875 0.35845083
0.008062821 0.33524773 -0.16902061 -0.08160429 0.1600119 0.27078357 -0.10929891 0.25104225
-0.01626611 -0.06630027 -0.06520714 -0.21925294 -0.10888275 0.012363246 -0.21593197 0.28198382
0.040904094 0.4869788 -0.294338 0.10495263 -0.102278285 -0.056110557 -0.18522112 -0.16976216
0.039259683 -0.38781312 -0.029120585 -0.07496175 0.099904574 -0.078143276 -0.030011976 -0.07523413
0.15896122 0.6634009 -0.059603296 -0.021376036 0.13829967 0.28885964 -0.13231114 0.15824682
00000000: ac2c c63b 2837 e9bc 5ca0 1a3e 4e01 85bd
00000010: 6a6c 0b3e 448e 38be cb67 133e 32b4 943e
00000020: 4ae1 f83d eb7e 0cbe f69c 48be 77e9 15be
00000030: 3819 853e 5f62 88bd 2aee 13be 8b13 b43e
00000040: e5fe c8bd 60e8 5b3e 930b a0bd 3fdc 523e
00000050: bcbb ec3d bc87 4b3e db5f 013e e06a 0bbe
00000060: 5108 d03d 979b 5dbd f5da f3bd 74f1 8ebd
00000070: b32a af3d 02a4 0e3e 0c7d 89bd 7d45 9b3e
00000080: afe1 be3d f387 0b3e 46c9 cbbd 4cd3 ce3d
00000090: 2cde 1b3d 95e9 83bc b046 ea3d e2b9 823d
000000a0: cf31 e83d 18d0 963e 9c27 c73d d965 3d3e
000000b0: d0a9 16be 2055 723e 3f30 d8bc 7c1d 463d
000000c0: 65af 1f3e 3a8f a93e 56b2 33bd 91d4 1ebd
000000d0: 3cc6 05be 33de 5d3e f765 783e a593 2b3e
000000e0: 0282 47be 7f90 3abe 95f0 3cbe 60c7 6bbe
000000f0: d73b 503e 3229 4e3d 9d60 8a3d d0c5 2e3e
00000100: a13f 173e 1ca6 833e 6a69 ccbd b369 eb3d
00000110: 1bf0 0fbc 102b 80bd 6638 70bd 94b6 a5be
00000120: 5890 04be 438a acbe 6223 13bc a857 e2bd
00000130: a966 c53c 9d37 9f3c 0f9a 1bbd cf0b e43d
00000140: 97c9 4e3c 6509 b33d a44d 133d 937e 153d
00000150: fe02 93be b7f6 d53b 63ec 80bd f051 96be
00000160: 5437 343e 957a b9be cebb 0abe a23e c6be
00000170: d923 41bd d699 4bbc 5eb2 693e b2bd 44bc
00000180: 05bb 19bb c2ac 303c bf96 f7bd 2c68 1fbe
00000190: 3280 b0bd 0eca d3bd 36f4 55be 2242 0ebd
000001a0: ca89 b8be a400 5d3e 5cc6 42be aecf 92be
000001b0: 1bdf bd3c e79d afbe 8024 13be d32c 30be
000001c0: 9cd7 9bbe 75b6 cc3c 6bde 1abd d9c7 063e
000001d0: ac1e 7abd 6674 1a3e b20b 873c 4eba 4a3d
000001e0: 581a 363e a5a8 083e b1ab e43d a176 d73a
000001f0: 6cc1 a43e 2b11 7f3e 22ec 79be a931 7abe
00000200: 8473 3fbe c5e3 833d 6dfa 983e a4d4 163d
00000210: 6555 63bd 8177 713b 6ea6 7ebc 9653 923c
00000220: b964 bbbe 1f08 c33d 3d4e 383d 0850 4bbe
00000230: 02dd a6bd 8409 133d 7a22 5cbe 61b3 723e
00000240: f6b2 a2bc 8194 4c3e 82e2 25bd 5f79 13bd
00000250: e6e8 b03d ae5a 273e 6f52 4c3d 0202 bcbd
00000260: 67ef 59bd 62ab 36be 789e 61bd b8e0 9d3d
00000270: 9df6 9bbe 44e6 ccba fd15 70be 12c5 873d
00000280: 05f3 3fbe 189c b1bd 4374 2f3e 1605 a6bd
00000290: 7046 b1bd d816 7ebb 6494 bc3e 6184 4f3e
000002a0: 91f2 35bd 63fe 0d3f 128e 16be 6f78 043f
000002b0: b081 a83d c75c cfbc cce1 963d 045f 80be
000002c0: 04cc 033d e060 9ebd edfb 0ebe bde6 c03d
000002d0: d6a4 40be 323d f2bd d72c 6bbd 5acf a33e
000002e0: 2281 1c3e 9628 0b3f 1e9b c2bd b7f7 173e
000002f0: 3b3b af3d 8c01 9b3d d2e8 e33e bcfb 5f3e
00000300: a534 3abe ccfb 97be 415e 263d f81c a53c
00000310: 621c a4bd 2cea bc3d 6699 a8bd 39cf 463e
00000320: 24ba 0dbd 5e9f 523e f5fa 18be badd 6d3e
00000330: 6481 6d3e f4b0 56bc 9149 2b3d 7ed2 24be
00000340: d070 cb3d cfcd 133e a34b 253e f350 3fbc
00000350: 9217 6e3d 1e01 45be de02 a1bd de86 b73e
00000360: ec19 043c 97a5 ab3e bd13 2dbe 2620 a7bd
00000370: 29da 233e 25a4 8a3e 1bd8 dfbd 9c88 803e
00000380: 8140 85bc 70c8 87bd 528b 85bd d883 60be
00000390: ebfd debd 368f 4a3c 451d 5dbe 2f60 903e
000003a0: 0d8b 273d 4955 f93e 78b3 96be 68f1 d63d
000003b0: 4777 d1bd 2fd4 65bd 9baa 3dbe 22d6 2dbe
000003c0: c3ce 203d 718f c6be 4b8e eebc 8c85 99bd
000003d0: c59a cc3d 9509 a0bd addb f5bc 5a14 9abd
000003e0: bbc6 223e a4d4 293f 9622 74bd cc1c afbc
000003f0: 6e9e 0d3e 69e5 933e 927c 07be 740b 223e

tcn.tcn.0.conv2.bias f4 [16]
0.38266164 0.14754221 0.07104755 0.0815175 0.10031998 -0.020869993 -0.18863022 -0.04959746
-0.25477657 -0.1455794 0.23390219 0.11301856 0.23026213 0.080065526 0.1327954 -0.029065445
00000000: 3aec c33e 4e15 173e 6181 913d a6f2 a63d
00000010: 9074 cd3d 8cf7 aabc 4828 41be b526 4bbd
00000020: 1372 82be c412 15be 0e84 6f3e 4676 e73d
00000030: d6c9 6b3e 65f9 a33d 84fb 073e a81a eebc

tcn.tcn.0.res_conv.weight f4 [16, 16, 1]
-0.035377964 0.042068444 0.15815407 -0.058373645 0.10953321 0.62731725 -0.17298846 0.0731045
-0.3497559 0.17490523 -0.33892262 0.10859045 -0.07487002 -0.005196602 0.2346695 0.19437341
0.21238612 0.3159209 -0.13232012 0.14776844 -0.048447054 -0.38355827 0.15839829 -0.6851522
-0.054486804 0.18042855 -0.0078094187 0.028995905 0.24842829 0.013715886 -0.15767609 -0.07446916
-0.051126063 -0.3275134 -0.06539485 0.37352914 -0.014489001 -0.435812 0.43192658 0.14224264
0.14402409 0.46879458 0.071358904 -0.27959266 -0.31074566 0.32311586 0.20134199 0.15033057
0.1302777 -0.16909905 -0.016427027 -0.18137777 0.025378719 0.08530334 -0.1199519 0.40095386
-0.20595211 0.11315987 0.32791063 -0.13726287 0.17938451 -0.016461547 0.13583934 -0.03860734
-0.17130433 0.32920906 0.028575897 -0.14674033 0.059594087 0.22889455 -0.2415168 -0.13363354
-0.12102884 0.044632994 0.19308673 -0.10569749 0.29850912 0.13273448 -0.008456739 -0.02505241
0.2620041 0.28338555 -0.12246345 -0.18658942 0.102999 0.4381744 -0.31820703 -0.07444858
0.060273964 0.16989556 -0.011351183 0.0438307 0.066881046 0.10639693 -0.022471182 0.09836923
-0.31518823 0.24999376 0.27499068 -0.28408554 0.29488698 0.290687 -0.2603269 0.122601725
-0.16628297 0.12984772 -0.44897303 0.0047723195 -0.031013275 -0.061990585 -0.0640227 0.11338703
-0.011932987 0.03796756 0.15215065 -0.045940015 0.055443343 0.39798322 0.42186907 -0.2680647
-0.08379999 -0.27853832 -0.18751138 -0.050589055 -0.05274138 -0.21826881 -0.1393635 -0.21165732
-0.38438943 -0.11320207 0.6124909 -0.2806436 -0.17682938 -0.08401475 -0.1300595 -0.16592099
-0.4229876 0.7184899 0.33098543 -0.01345568 -0.35533428 -0.22918315 -0.193364 0.1256254
0.18772487 -0.04767724 0.27949768 -0.08821232 -0.05428067 -0.5048306 0.3638772 -0.09421104
-0.0852504 0.44357806 0.059088014 0.24223474 -0.24530084 0.38772145 0.0772794 -0.1891647
0.09438022 -0.011932847 -0.38771555 -0.36680472 -0.017727822 -0.2270612 0.20549689 0.25958914
-0.22340262 0.35780656 0.09696688 -0.25699487 0.11995403 -0.3893827 0.37886128 -0.20403583
-0.5004108 -0.35327017 -0.094080426 -0.0059580007 -0.13784082 -0.012150329 -0.3433996 -0.17059928
0.2629211 -0.30340657 -0.48364708 0.01073697 -0.040401254 -0.121834196 0.101128764 -0.1397228
0.09022202 0.33942753 -0.04976756 0.121031485 -0.16127402 -0.24624196 -0.38178062 -0.020395165
0.25364786 0.03387347 -0.09069117 0.1728644 -0.0056902408 0.022764716 -0.068593115 0.19607203
0.39041227 0.4435321 -0.03446099 0.06455509 -0.18311332 -0.06221915 0.24617067 -0.0939481
-0.022206413 0.15155901 0.21055488 -0.26976782 0.23752645 -0.09929926 0.06255562 -0.11152411
-0.23082028 -0.19544911 0.090895586 -0.0895872 -0.23458205 -0.39960337 0.22625162 0.028429769
-0.11932183 0.09992866 -0.11281151 -0.07820699 0.102279894 0.22100975 -0.0039626136 -0.04756386
-0.30003512 -0.088049866 -0.15727329 -0.2398591 0.15263772 0.5275044 -0.24710888 0.3018768
-0.09318203 -0.19606444 -0.13573378 -0.103251174 0.06558088 0.095926926 -0.123448566 -0.032080114
00000000: 7ce8 10bd f64f 2c3d 24f3 213e 3419 6fbd
00000010: f352 e03d dd97 203f e323 31be d0b7 953d
00000020: 3513 b3be 5b1a 333e 4487 adbe ab64 de3d
00000030: 7455 99bd 4248 aabb 344d 703e d309 473e
00000040: bf7b 593e 62c0 a13e ed7e 07be 9c50 173e
00000050: 6b70 46bd c061 c4be 2933 223e 2266 2fbf
00000060: 8e2d 5fbd 43c2 383e 27e6 ffbb d288 ed3c
00000070: fc63 7e3e 98b8 603c d775 21be 4983 98bd
00000080: 9069 51bd d6af a7be bced 85bd 363f bf3e
00000090: 4663 6dbc c022 dfbe 7b25 dd3e 0ea8 113e
000000a0: 0d7b 133e d805 f03e 9e24 923d c526 8fbe
000000b0: 0e1a 9fbe 716f a53e 982c 4e3e 42f0 193e
000000c0: 8467 053e 4d28 2dbe f991 86bc 18bb 39be
000000d0: 08e7 cf3c 84b3 ae3d 57a9 f5bd d349 cd3e
000000e0: 1ce5 52be 5dc0 e73d e7e3 a73e a38e 0cbe
000000f0: 93b0 373e 5eda 86bc 7819 0b3e bb22 1ebd
00000100: 676a 2fbe 178e a83e 0018 ea3c 1943 16be
00000110: ee18 743d 5563 6a3e 2e50 77be 3bd7 08be
00000120: f8dd f7bd 16d1 363d 87b8 453e ed77 d8bd
00000130: 30d6 983e 8ceb 073e 228e 0abc b63a cdbc
00000140: 6725 863e e917 913e 1ece fabd 4c11 3fbe
00000150: 24f1 d23d 6558 e03e 08ec a2be 7f78 98bd
00000160: d5e1 763d 1af9 2d3e 50fa 39bc d287 333d
00000170: eef8 883d a2e6 d93d 7c15 b8bc cf75 c93d
00000180: 5a60 a1be 5dfe 7f3e 94cb 8c3e a973 91be
00000190: 6dfb 963e edd4 943e 9149 85be 9d16 fb3d
000001a0: 1546 2abe cdf6 043e cbdf e5be 1e61 9c3b
000001b0: 8d0f febc d7e9 7dbd 551e 83bd 7637 e83d
000001c0: 9382 43bc df83 1b3d 61cd 1b3e 992b 3cbd
000001d0: 8f18 633d 75c4 cb3e 39ff d73e c73f 89be
000001e0: 549f abbd 939c 8ebe fc02 40be 7836 4fbd
000001f0: 5807 58bd dc81 5fbe 4eb5 0ebe b2bc 58be
00000200: b1ce c4be 7dd6 e7bd 34cc 1c3f 85b0 8fbe
00000210: c312 35be ed0f acbd 512e 05be 31e7 29be
00000220: d591 d8be f4ee 373f ec76 a93e 3675 5cbc
00000230: 60ee b5be fdae 6abe 3601 46be f2a3 003e
00000240: f33a 403e 3649 43bd 521a 8f3e a9a8 b4bd
00000250: 6855 5ebd 943c 01bf 1d4e ba3e b8f1 c0bd
00000260: c397 aebd aa1c e33e 4606 723d 620c 783e
00000270: 2530 7bbe 6d83 c63e a944 9e3d 64b4 41be
00000280: 6b4a c13d fd81 43bc a782 c6be d4cd bbbe
00000290: f039 91bc bb82 68be c76d 523e dee8 843e
000002a0: a8c3 64be 6c32 b73e 9296 c63d d594 83be
000002b0: 75aa f53d 2b5d c7be 1bfa c13e c5ee 50be
000002c0: ec1a 00bf d4df b4be 3dad c0bd 553b c3bb
000002d0: 2526 0dbe 2c12 47bc 13d2 afbe 94b1 2ebe
000002e0: 989d 863e 1b58 9bbe 97a0 f7be 1eea 2f3c
000002f0: c97b 25bd 3584 f9bd 991c cf3d 7e13 0fbe
00000300: 53c6 b83d 72c9 ad3e 12d9 4bbd 5bdf f73d
00000310: 0425 25be da26 7cbe c078 c3be c313 a7bc
00000320: 22de 813e e8be 0a3d 4bbc b9bd 5e03 313e
00000330: 3375 babb 127d ba3c 8c7a 8cbd 1bc7 483e
00000340: 1ee4 c73e a416 e33e f826 0dbd 7635 843d
00000350: 0f82 3bbe 82d9 7ebd 2a14 7c3e dd67 c0bd
00000360: 39ea b5bc 4932 1b3e b39b 573e 021f 8abe
00000370: 223a 733e 695d cbbd 291d 803d c166 e4bd
00000380: 275c 6cbe d023 48be 7727 ba3d 7e79 b7bd
00000390: 4736 70be d098 ccbe 81ae 673e 8ce5 e83c
000003a0: 015f f4bd 66a7 cc3d b909 e7bd fd2a a0bd
000003b0: 1f78 d13d 6150 623e d0d8 81bb 52d2 42bd
000003c0: 349e 99be 7d53 b4bd 400c 21be a09d 75be
000003d0: 104d 1c3e 870a 073f 1c0a 7dbe 998f 9a3e
000003e0: 38d6 bebd 1ec5 48be ccfd 0abe 5a75 d3bd
000003f0: 454f 863d 5675 c43d 9ad2 fcbd 7066 03bd

tcn.tcn.0.res_conv.bias f4 [16]
0.5783186 0.00892299 -0.2188011 0.18867768 -0.15249237 -0.21178345 -0.2954364 -0.16789638
-0.09337815 0.14263605 0.11702345 0.18722382 0.01806307 -0.17741701 -0.06209858 -0.012761552
00000000: b00c 143f bc31 123c 650d 60be b934 413e
00000010: f626 1cbe c3dd 58be 7143 97be 07ed 2bbe
00000020: 0b3d bfbd 2f0f 123e fea9 ef3d 9ab7 3f3e
00000030: 01f9 933c ceac 35be 155b 7ebd d415 51bc

tcn.tcn.1.conv1.weight f4 [16, 16, 5]
-0.15750176 -0.14548786 -0.3522621 -0.6200116 -0.4378547 0.34425548 -0.26376763 0.077726275
0.11744705 0.29022452 -0.061885964 0.24208903 -0.2059592 -0.20746513 -0.17759489 -0.07177537
-0.28382146 -0.20021226 -0.34195012 -0.3036726 0.026174275 -0.038130425 0.25810364 0.21226965
0.26593155 0.19230528 0.04395617 0.19578414 -0.12346361 0.2651575 0.3809216 0.20660679
0.30613667 0.39100093 0.7125718 -0.0013267992 -0.08970322 -0.4193898 -0.3333322 -0.12528381
-0.02995194 0.2905296 0.30862063 0.09543999 0.25320336 -0.08178106 0.018299384 -0.0019208723
-0.02751708 0.028397745 -0.027386054 0.089353144 -0.15097584 -0.32319584 -0.2463877 0.20890087
-0.014573854 -0.1270557 0.30531755 0.051498786 0.018889122 0.13543804 0.072419696 0.20752276
0.15432566 0.27423275 -0.09128026 -0.2368653 -0.18032601 0.02881625 0.10141836 0.03153116
0.11996312 0.024364445 -0.006548032 0.4429489 0.07378753 0.11060754 0.22710513 0.1879519
-0.32646453 -0.35548982 -0.2924843 -0.49374107 -0.34401107 0.18156001 0.2971383 0.05510908
0.0869717 -0.33642116 -0.52942735 -0.2601095 -0.3439707 -0.2550928 -0.3125565 0.02119734
-0.40564263 -0.3998078 -0.36565122 -0.22805522 0.27850732 0.09734035 -0.024499604 0.14255768
0.18669455 0.08034973 -0.09899164 -0.3659598 -0.07647518 0.5878371 0.22593653 0.4317265
0.3917625 0.5050852 0.52030706 -0.27792126 0.10974141 -0.1642899 -0.060409848 -0.047475647
-0.01028526 0.021774763 -0.37011755 -0.04743162 0.4076013 -0.00580344 -0.044130124 -0.15788203
0.19345182 0.3224025 -0.19971076 -0.27311876 0.082815126 0.09360425 -0.024192851 0.20390631
0.14081046 0.2501121 -0.014956464 -0.23472455 0.008959662 0.21955866 0.31109145 -0.105474964
-0.026928103 -0.1641887 -0.02866421 -0.16504928 -0.018113047 -0.09859952 -0.0057891016 -0.015139188
0.20782955 0.12893938 0.11202449 0.047129154 0.14471006 0.1098002 0.1252899 0.079324484
-0.09464511 -0.124434456 -0.29904038 -0.529578 -0.4517581 -0.13705559 -0.37354174 0.08959768
0.04794907 0.12024388 -0.24849238 -0.083099455 0.16047573 -0.013646673 0.036881402 -0.19348232
-0.2817637 -0.18024975 0.027127523 0.14180869 -0.13483587 0.10347955 -0.052970517 0.24735644
-0.09037663 -0.09019289 0.1316947 0.056134395 0.07868917 0.04228318 0.50689834 0.24865371
0.015733127 -0.1730449 -0.06563536 -0.37070087 -0.16875842 -0.021743417 -0.010461958 0.09429825
-0.09157551 -0.38271704 -0.31147826 -0.2177577 0.0052841688 0.011230713 0.07898237 -0.07537959
-0.032956872 0.21195121 0.29975888 0.041485194 0.04052007 -0.21279575 -0.14921403 0.32574624
0.18409178 -0.046260748 0.14709787 -0.15670976 0.15239958 0.047278695 0.121468246 -0.0786363
-0.067515776 0.003565653 -0.26944306 0.07581367 -0.049576666 0.114423074 0.22271137 0.18176632
0.09965623 -0.1984477 -0.16750202 0.24654813 0.0048608766 0.10986107 0.091533676 -0.2433326
0.1560183 0.1361493 0.16623577 0.08695976 -0.03388821 0.3327628 0.41327628 0.27294487
-0.17025948 0.11376055 -0.04643369 0.31593856 -0.07985153 -0.5211222 -0.34976047 -0.08338981
00000000: 2448 21be c5fa 14be b35b b4be 15b9 1ebf
00000010: 7e2e e0be 4142 b03e 8d0c 87be f42e 9f3d
00000020: 1488 f03d 4f98 943e 237c 7dbd 30e6 773e
00000030: f8e6 52be bd71 54be 6fdb 35be f7fe 92bd
00000040: 0c51 91be 7104 4dbe 1614 afbe fa7a 9bbe
00000050: 6f6b d63c a62e 1cbd 2926 843e 375d 593e
00000060: 2e28 883e adeb 443e 630b 343d a37b 483e
00000070: 7dda fcbd b9c2 873e 2808 c33e bb90 533e
00000080: f2bd 9c3e 4631 c83e 1b6b 363f fee7 adba
00000090: 52b6 b7bd 43ba d6be 85aa aabe 664a 00be
000000a0: c55d f5bc 4cc0 943e 8603 9e3e 0b76 c33d
000000b0: dfa3 813e d47c a7bd 97e8 953c c7c5 fbba
000000c0: 806b e1bc 63a2 e83c b858 e0bc c8fe b63d
000000d0: 6999 1abe ed79 a5be 0f4d 7cbe 1cea 553e
000000e0: 2dc7 6ebc e41a 02be 9552 9c3e 64f0 523d
000000f0: 5cbd 9a3c 45b0 0a3e c750 943d d980 543e
00000100: 8c07 1e3e 3c68 8c3e 25f1 babd d18c 72be
00000110: 62a7 38be 0e10 ec3c 6eb4 cf3d d126 013d
00000120: 39af f53d f297 c73c e090 d6bb 33ca e23e
00000130: eb1d 973d 3586 e23d 3f8e 683e 7676 403e
00000140: 5c26 a7be c302 b6be 81c0 95be a1cb fcbe
00000150: 3822 b0be deea 393e 8322 983e 0fba 613d
00000160: 381e b23d 653f acbe 8d88 07bf 132d 85be
00000170: ed1c b0be 869b 82be 6807 a0be 0ba6 ad3c
00000180: 64b0 cfbe 9cb3 ccbe a336 bbbe 4f87 69be
00000190: 8398 8e3e 615a c73d 65b3 c8bc a4fa 113e
000001a0: db2c 3f3e 668e a43d 21bc cabd 155f bbbe
000001b0: 059f 9cbd 7e7c 163f e85b 673e 410b dd3e
000001c0: 1895 c83e 434d 013f d832 053f b24b 8ebe
000001d0: 1bc0 e03d 9d3b 28be 5170 77bd d375 42bd
000001e0: 8283 28bc fd60 b23c 0c80 bdbe a947 42bd
000001f0: 1eb1 d03e c92a bebb cac1 34bd d4ab 21be
00000200: 3c18 463e f111 a53e fa80 4cbe 39d6 8bbe
00000210: fa9a a93d 96b3 bf3d 1630 c6bc d1cc 503e
00000220: 9e30 103e b10e 803e f50b 75bc a25b 70be
00000230: 8ccb 123c fcd3 603e 6147 9f3e 4203 d8bd
00000240: 5398 dcbc 1521 28be 35d1 eabc ae02 29be
00000250: d061 94bc 8cee c9bd 81b2 bdbb 5b0a 78bc
00000260: 45d1 543e af08 043e 196d e53d 800a 413d
00000270: e02e 143e edde e03d ff4b 003e e074 a23d
00000280: 4cd5 c1bd 7ed7 febd d21b 99be 6c92 07bf
00000290: d64c e7be 4d58 0cbe dd40 bfbe fd7e b73d
000002a0: 3e66 443d 6c42 f63d c974 7ebe 0c30 aabd
000002b0: c053 243e 4c96 5fbc f410 173d 3b20 46be
000002c0: 5543 90be 6493 38be 8a3a de3c 4c36 113e
000002d0: 6a12 0abe 16ed d33d 9df7 58bd 024b 7d3e
000002e0: 6217 b9bd 0db7 b8bd fada 063e 2eed 653d
000002f0: ca27 a13d 2131 2d3d 17c4 013f 149f 7e3e
00000300: c2e2 803c af32 31be d56b 86bd 81cc bdbe
00000310: 02cf 2cbe 401f b2bc a268 2bbc 711f c13d
00000320: f18b bbbd 7df3 c3be 147a 9fbe e0fb 5ebe
00000330: d226 ad3b 0601 383c 82c1 a13d 9d60 9abd
00000340: c9fd 06bd bd09 593e ff79 993e 61ec 293d
00000350: 5ff8 253d 21e7 59be 90cb 18be 36c8 a63e
00000360: 8e82 3c3e e97b 3dbd d3a0 163e 8678 20be
00000370: a30e 1c3e 4ea7 413d 58c4 f83d 120c a1bd
00000380: b645 8abd bbad 693b 71f4 89be 3344 9b3d
00000390: e710 4bbd a556 ea3d 730e 643e f320 3a3e
000003a0: 9118 cc3d e035 4bbe a685 2bbe 1d77 7c3e
000003b0: fd47 9f3b d7fe e03d 0276 bb3d 2e2c 79be
000003c0: 43c3 1f3e b96a 0b3e b639 2a3e f517 b23d
000003d0: 5dce 0abd e35f aa3e f398 d33e 6ebf 8b3e
000003e0: 8058 2ebe 4bfb e83d 4131 3ebd b3c2 a13e
000003f0: 3389 a3bd 4468 05bf ce13 b3be 47c8 aabd

tcn.tcn.1.conv1.bias f4 [16]
-0.5016179 -0.43658048 -0.36576885 -0.07709738 -0.4893956 -0.35253966 -0.10866763 -0.13689242
-0.3318756 -0.3200276 -0.24506105 -0.05517963 -0.6364117 0.07540574 -0.2656462 0.07096112
00000000: 086a 00bf 7a87 dfbe 0e46 bbbe 3be5 9dbd
00000010: 0f92 fabe 1480 b4be 228d debd 872d 0cbe
00000020: 99eb a9be a8da a3be 49f1 7abe 0904 62bd
00000030: e1eb 22bf 536e 9a3d c702 88be 1054 913d

tcn.tcn.1.conv2.weight f4 [16, 16, 1]
0.42793486 -0.11590327 -0.06396603 0.24153915 -0.1338507 -0.15931317 0.15621532 0.24040264
-0.2074031 -0.124887295 -0.1989333 0.39797026 0.011697522 0.33638388 0.31326684 0.050137952
-0.0885995 0.33805358 0.046382677 -0.1406325 -0.04290885 0.047128264 0.22827141 -0.23729472
-0.02643213 -0.027390061 0.11717585 0.2946303 -0.038397245 -0.08078536 -0.30069056 0.115276195
0.09214324 0.27054277 0.18330018 -0.033024516 0.08958615 -0.044553187 0.25283015 -0.13082118
-0.045413543 -0.033690963 -0.21486056 0.045902774 -0.14903244 -0.047570106 -0.1378013 -0.13590598
-0.2288838 -0.07001454 -0.37103888 -0.21811494 0.1876961 -0.3259567 -0.030106872 0.114223816
-0.11939881 0.08075282 0.10166619 -0.33823007 -0.12939028 -0.1030546 0.06091129 0.09556738
0.047020517 0.050236877 0.021745443 -0.3136426 0.11577656 -0.28080392 0.04621764 0.0059721633
-0.019032106 0.02060921 -0.018945336 0.17997539 -0.11621052 -0.03708816 -0.038991112 0.21298368
-0.30270818 -0.16314018 -0.008643646 -0.31967586 0.08556787 0.19608837 0.3811204 0.22175376
0.081080474 0.016617976 -0.06699517 0.30430937 -0.03235422 0.024716774 0.03586912 0.15221642
-0.18320727 0.118902594 -0.09265019 0.06470732 0.12574357 -0.029729387 -0.0889549 0.27747673
0.042964626 -0.020497456 -0.03424182 0.19797671 -0.263447 -0.25593656 -0.28703505 0.3305977
0.27111572 -0.119701505 0.07317567 0.008532071 -0.08403501 0.16952905 0.018604625 0.10139411
-0.14817561 -0.028210612 -0.24053615 -0.08910297 -0.10160833 0.25336564 -0.019924046 0.06407896
-0.28421667 0.23635387 -0.32936636 0.015034439 -0.3298874 0.089418784 0.20137358 -0.08355278
0.09308416 -0.033610787 -0.08329274 0.24430907 -0.1539328 -0.050068237 -0.042053923 -0.019523557
-0.13204966 0.019860068 -0.030164186 -0.15598692 -0.049802523 -0.083853655 -0.00013716304 -0.01901252
0.17440811 -0.07599706 0.17831424 -0.0811944 0.088992365 0.2544523 0.38575685 0.052137855
0.23616557 -0.030887105 0.024928177 -0.28892288 0.051351145 0.13589771 -0.110010415 -0.0201845
-0.29624945 -0.15596753 0.18383822 -0.02203866 0.0021857908 0.17164092 -0.031657085 0.22678524
0.32358152 -0.008248297 -0.12806828 -0.14224543 -0.10003301 -0.19847628 -0.1833968 0.010829678
-0.363041 -0.08332422 -0.12980907 -0.14816032 0.05302244 -0.19435462 0.0017233641 0.03884286
0.14046554 -0.23576017 -0.10436668 -0.100722544 -0.14969547 -0.15053713 0.04938048 0.14977145
0.4360443 -0.041630812 -0.14288057 0.1106649 0.1071757 -0.10656725 0.285998 0.09935577
-0.107898526 -0.028124629 0.05598821 -0.09083558 -0.65722126 -0.232992 0.21049352 0.022880191
-0.079743385 -0.022724641 -0.14076783 -0.05261957 -0.24367616 -0.11527135 0.22460781 -0.003954621
-0.15352246 0.29605073 0.06269057 0.33460996 0.061855547 -0.11695172 0.22901511 0.03663063
0.09491282 -0.061529502 0.028197367 -0.18666115 -0.22365937 0.06453471 -0.2501816 0.11665876
-0.30310193 0.17128317 -0.035261992 -0.066126175 0.054469034 -0.056565575 0.21419373 -0.03873573
-0.12438802 0.021061845 0.12794355 -0.11723261 -0.24326107 -0.044686183 -0.50671375 -0.10728521
00000000: 471a db3e b25e edbd 9f00 83bd 0a56 773e
00000010: 2810 09be fe22 23be e9f6 1f3e 1c2c 763e
00000020: 7a61 54be e9c4 ffbd 2cb5 4bbe c2c2 cb3e
00000030: f7a6 3f3c 823a ac3e 8364 a03e 745d 4d3d
00000040: a873 b5bd 5c15 ad3e c3fb 3d3d f701 10be
00000050: 31c1 2fbd 9109 413d fbbf 693e 63fd 72be
00000060: 3288 d8bc 1f61 e0bc e4f9 ef3d c8d9 963e
00000070: 6e46 1dbd cb72 a5bd 1df4 99be ed15 ec3d
00000080: 98b5 bc3d 9584 8a3e 0bb3 3b3e b744 07bd
00000090: f278 b73d 677d 36bd f472 813e fdf5 05be
000000a0: 8d03 3abd 89ff 09bd 6804 5cbe 8c04 3c3d
000000b0: f69b 18be dfd8 42bd c91b 0dbe f02a 0bbe
000000c0: 8460 6abe c863 8fbd cff8 bdbe 8659 5fbe
000000d0: 6833 403e cce3 a6be b0a2 f6bc 2dee e93d
000000e0: 5d87 f4bd bc61 a53d 5d36 d03d 7e2c adbe
000000f0: e37e 04be 4a0e d3bd 1e7e 793d d5b8 c33d
00000100: 9698 403d 2fc5 4d3d 8023 b23c c395 a0be
00000110: 431c ed3d 88c5 8fbe b54e 3d3d 23b2 c33b
00000120: 38e9 9bbc a5d4 a83c 4033 9bbc 784b 383e
00000130: c8ff edbd c1e9 17bd 25b5 1fbd 6518 5a3e
00000140: 91fc 9abe 380e 27be 149e 0dbc 8eac a3be
00000150: 353e af3d 64cb 483e 3722 c33e 6b13 633e
00000160: 850d a63d 6c22 883c c434 89bd 70ce 9b3e
00000170: dc85 04bd d57a ca3c 80eb 123d 9fde 1b3e
00000180: b09a 3bbe 3483 f33d 62bf bdbd 4585 843d
00000190: ecc2 003e 0b8b f3bc fd2d b6bd 6e11 8e3e
000001a0: adfb 2f3d 48ea a7bc 2741 0cbd 68ba 4a3e
000001b0: 86e2 86be 1e0a 83be 42f6 92be 1a44 a93e
000001c0: aecf 8a3e 1026 f5bd 20dd 953d 19ca 0b3c
000001d0: 8c1a acbd 0699 2d3e ba68 983c b7a7 cf3d
000001e0: 59bb 17be f119 e7bc 1c4f 76be 9e7b b6bd
000001f0: 0718 d0bd 24b9 813e c137 a3bc d43b 833d
00000200: d984 91be c006 723e b5a2 a8be 0253 763c
00000210: 00e7 a8be 3221 b73d e034 4e3e b81d abbd
00000220: e8a2 be3d 77ab 09bd 6295 aabd 282c 7a3e
00000230: 8fa0 1dbe 5a14 4dbd bc40 2cbd deef 9fbc
00000240: 0738 07be 95b1 a23c e21a f7bc 09bb 1fbe
00000250: bbfd 4bbd 77bb abbd 6cd3 0fb9 25c0 9bbc
00000260: 0a98 323e 59a4 9bbd 0298 363e 4049 a6bd
00000270: a141 b63d 9247 823e ec81 c53e 818e 553d
00000280: 63d5 713e f406 fdbc 2d36 cc3c b3ed 93be
00000290: 9455 523d c528 0b3e 244d e1bd f759 a5bc
000002a0: 02ae 97be f4b5 1fbe 1640 3c3e 6b8a b4bc
000002b0: 7c3f 0f3b a3c2 2f3e dcaa 01bd 643a 683e
000002c0: 7aac a53e dd23 07bc 5524 03be c9a8 11be
000002d0: 1bde ccbd 5e3d 4bbe 5fcc 3bbe f66e 313c
000002e0: 83e0 b9be e3a5 aabd abec 04be 57b7 17be
000002f0: 0f2e 593d e604 47be 81e2 e13a b119 1f3d
00000300: 33d6 0f3e 1d6b 71be 33be d5bd 9f47 cebd
00000310: c549 19be 6826 1abe 3043 4a3d b05d 193e
00000320: 3341 df3e 1285 2abd 494f 12be 47a4 e23d
00000330: ef7e db3d ee3f dabd 546e 923e 0a7b cb3d
00000340: e7f9 dcbd 9f65 e6bc e553 653d 0108 babd
00000350: a73f 28bf 7495 6ebe 9d8b 573e 3d6f bb3c
00000360: 8050 a3bd 0729 babc 7125 10be 9e87 57bd
00000370: 3e86 79be 6313 ecbd 97ff 653e c495 81bb
00000380: fe34 1dbe f693 973e ea63 803d ff51 ab3e
00000390: 3e5c 7d3d 6284 efbd f082 6a3e 000a 163d
000003a0: a761 c23d 5c06 7cbd 2afe e63c 1a24 3fbe
000003b0: f606 65be c62a 843d cd17 80be caea ee3d
000003c0: 2d30 9bbe db64 2f3e e16e 10bd 296d 87bd
000003d0: ec1a 5f3d 4eb1 67bd 9a55 5b3e 5ba9 1ebd
000003e0: 25bf febd e489 ac3c a203 033e a717 f0bd
000003f0: 6e19 79be dc08 37bd feb7 01bf 59b8 dbbd

tcn.tcn.1.conv2.bias f4 [16]
-0.058047056 0.21263221 -0.17451885 -0.01805919 0.19363958 0.060240954 -0.052318454 -0.0104694655
0.37106383 0.21007584 -0.14850825 0.06360138 0.13944551 -0.12541462 0.02572004 0.15039654
00000000: c0c2 6dbd 42bc 593e 12b5 32be def0 93bc
00000010: 7449 463e 38bf 763d e04b 56bd 1f88 2bbc
00000020: 14fc bd3e 1f1e 573e 8c12 18be 7141 823d
00000030: ceca 0e3e b16c 00be d5b2 d23c 8d01 1a3e
