checkpoints/fine_tune/var_rf/gtzan/0.0/model_faithful-hill-196_finetune_HAI_GIA/it_1736_loss_4.6987_acc10.0_acc20.0.pt (torch, 436414 bytes, 211 tensors)

conv1.weight f4 [16, 1, 3, 3]
0.2699123 -0.04811085 -0.26235974 0.35142797 -0.11338332 -0.33063504 0.22633597 0.2087757
-0.2663792 0.3267804 -0.48775285 -0.4023254 0.25949103 -0.2859065 0.11014175 0.10960948
0.17398718 0.06846416 -0.25851244 0.40618706 0.19215778 -0.21623111 0.35355976 0.05244724
-0.49999812 0.17571543 -0.1929647 -0.28284478 -0.11727823 0.33839622 -0.35435137 0.08869053
0.1878515 0.36754647 0.05879246 -0.492651 -0.21326296 -0.20233795 -0.14907801 -0.21162708
0.18544984 0.2931716 -0.018236345 -0.027366553 -0.19633168 -0.07965213 0.08300838 -0.085259505
-0.83180946 0.29792592 0.45740297 -0.2546749 0.2962884 -0.052057844 0.3045496 0.001564104
-0.106498435 -0.09380496 0.20672452 -0.36476412 -0.11352417 0.13780303 -0.2238072 0.01006446
0.020325331 0.25845218 -0.42499605 -0.15080087 -0.10986233 0.12545055 -0.05355919 0.55299956
-0.33797285 0.13866988 -0.2899416 -0.36472026 0.4290938 0.3887475 -0.14307411 0.44404933
0.1518293 -0.65310943 0.0918365 0.5182738 0.011682045 -0.22700785 0.19614051 -0.3598744
-0.015059417 0.3004617 -0.49928033 0.03559364 0.30637312 -0.23811562 -0.22086576 0.30233324
0.08924507 -0.12805156 -0.025293075 0.13949911 0.40700442 -0.14114828 0.22714278 0.37874088
-0.17394182 0.35240257 0.089311525 -0.078492634 0.13975686 0.14790338 0.040335808 -0.10028308
-0.15856549 -0.3870468 0.28345594 0.33742568 -0.17273925 0.23200941 -0.1151359 -0.2876712
0.3353913 0.2997214 0.12022148 -0.17532751 0.22956811 -0.45492184 0.33905953 0.18914606
-0.122310854 0.42160138 -0.2658502 0.025275854 0.2453674 -0.26461434 -0.39394802 -0.14473528
-0.03646177 0.29793122 -0.12863635 0.048284657 0.35933292 -0.51860577 -0.252684 0.5313727
00000000: f231 8a3e e20f 45bd 0454 86be 5eee b33e
00000010: 8435 e8bd ff48 a9be 9ec4 673e 4cc9 553e
00000020: db62 88be c34f a73e beba f9be 98fd cdbe
00000030: 02dc 843e 5662 92be ff91 e13d ef7a e03d
00000040: b229 323e f036 8c3d be5b 84be c0f7 cf3e
00000050: 02c5 443e b06b 5dbe c905 b53e ebd2 563d
00000060: c1ff ffbe bfee 333e 8a98 45be 08d1 90be
00000070: 922f f0bd 4542 ad3e 8b6d b5be 61a3 b53d
00000080: 255c 403e 0d2f bc3e 5dd0 703d c03c fcbe
00000090: 9b61 5abe ae31 4fbe e8a7 18be c5b4 58be
000000a0: 90e6 3d3e 971a 963e 6364 95bc d22f e0bc
000000b0: 2c0b 49be a820 a3bd 4c00 aa3d 899c aebd
000000c0: 77f1 54bf bf89 983e b930 ea3e c064 82be
000000d0: 1db3 973e 9b3a 55bd eded 9b3e 9f02 cd3a
000000e0: da1b dabd d11c c0bd 98af 533e 5dc2 babe
000000f0: 5c7f e8bd 3d1c 0d3e b72d 65be 68e5 243c
00000100: 4f81 a63c d853 843e 1599 d9be 8b6b 1abe
00000110: 80ff e0bd 1c76 003e e260 5bbd 6191 0d3f
00000120: c70a adbe 7aff 0d3e 3a73 94be 9dbc babe
00000130: 2fb2 db3e ea09 c73e 0582 12be 6f5a e33e
00000140: 2479 1b3e 2e32 27bf c614 bc3d 97ad 043f
00000150: 0c66 3f3c bf74 68be 0fd9 483e 7541 b8be
00000160: c6bb 76bc 1ed6 993e aca1 ffbe a3ca 113d
00000170: f0dc 9c3e 95d4 73be a22a 62be 6ccb 9a3e
00000180: 1fc6 b63d f31f 03be 6c33 cfbc dbd8 0e3e
00000190: e262 d03e 2d89 10be 1e98 683e 53ea c13e
000001a0: ce1d 32be 1c6e b43e f6e8 b63d bfc0 a0bd
000001b0: 6c1c 0f3e fc73 173e 2937 253d 3761 cdbd
000001c0: fe5e 22be 002b c6be 2321 913e 0fc3 ac3e
000001d0: 8fe2 30be e093 6d3e 5fcc ebbd a449 93be
000001e0: 69b8 ab3e 1575 993e ae36 f63d 0e89 33be
000001f0: e713 6b3e 84eb e8be 3699 ad3e 81af 413e
00000200: 1d7e fabd 23dc d73e 841d 88be 4f0f cf3c
00000210: 9741 7b3e 887b 87be 8eb3 c9be 7c35 14be
00000220: f058 15bd 718a 983e 3fb9 03be 22c6 453d
00000230: 7cfa b73e 59c3 04bf cc5f 81be 0b08 083f

conv1.bias f4 [16]
0.011085091 0.099106126 -0.053137008 -0.02379096 -0.19776036 -0.11298701 0.14850318 0.0036280956
0.011605433 0.05186591 -0.034467984 -0.21969143 0.093588606 -0.037086807 -0.017171344 -0.13887508
00000000: 3e9e 353c 27f8 ca3d 31a6 59bd 42e5 c2bc
00000010: b181 4abe bc65 e7bd 3811 183e 58c5 6d3b
00000020: b724 3e3c 5971 543d 4d2e 0dbd caf6 60be
00000030: 62ab bf3d 56e8 17bd ebaa 8cbc 4535 0ebe

conv2.weight f4 [16, 16, 3, 3]
-0.15682206 -0.04005401 -0.00987304 -0.12356963 -0.21011387 -0.24006133 -0.058053877 0.035051238
-0.11560916 0.026282033 -0.030461915 0.029812155 -0.055759065 0.042949684 -0.1043716 -0.08342502
-0.014270391 -0.2877392 0.023342963 -0.2719812 -0.060106184 0.24032827 -0.2821927 -0.051567066
0.30174723 -0.24160942 -0.14051957 -0.12370175 0.086492755 0.18108982 -0.033219002 0.15573515
0.35646117 0.41394112 0.49311817 0.5607565 -0.0052660145 -0.0043099555 -0.17369542 -0.054220602
-0.14250392 -0.24987188 0.007498848 -0.13809949 -0.10397623 0.28139496 -0.042381078 0.37990662
0.28365275 -0.09649485 0.32936662 0.5293324 0.09596684 0.46097437 0.09886303 -0.11780012
-0.12777522 0.023748726 -0.074935734 -0.18062809 -0.0089931805 -0.066468164 -0.03307125 0.22000287
0.13394336 -0.09464015 0.20954652 -0.0072765304 -0.26137212 -0.040239114 -0.033915315 -0.26341018
0.13077754 -0.1561448 -0.002061042 0.22621939 -0.19160202 -0.0703443 0.08376298 -0.17230114
-0.15654068 0.02850761 0.2343961 0.24345225 0.22033791 0.33923435 0.35527325 0.29142487
0.16608866 0.31042084 0.06988075 0.02583107 0.0075574587 0.028878903 0.00012526145 0.14796112
-0.011299286 -0.049989805 0.117220536 -0.13003895 -0.21346307 -0.21494511 -0.1708674 -0.27248612
-0.33339235 -0.12871827 -0.10701592 -0.2634149 -0.087015145 -0.08488454 -0.17344669 -0.0029963015
-0.0970827 -0.16979723 0.024418892 0.052606117 -0.06602812 0.091527835 -0.11804275 -0.045973852
0.027471466 -0.15913036 -0.13372278 0.08788689 -0.022119656 -0.2337623 -0.2111379 -0.22874014
-0.1656216 -0.23746952 -0.09447225 0.013752607 -0.05957279 0.08493663 -0.02801695 0.0018414082
-0.012093047 0.052773252 -0.06800901 0.023404619 0.10959511 0.09046554 -0.036508754 0.070756786
0.23558137 0.052495934 0.18648054 0.0999551 0.15447126 0.12358098 0.058159888 0.07840454
0.05321472 0.29184982 -0.14590919 0.2834083 0.07953802 -0.13302505 0.107648365 0.2630828
-0.15506704 0.022926465 -0.23810764 0.61664146 -0.011643641 -0.57941616 0.16431049 -0.05893134
-0.55734205 0.19239894 -0.17991665 -0.36946604 -0.22275777 -0.04005697 -0.038541272 0.14249648
0.28897053 0.00019278233 0.15844215 0.18608193 0.15217161 0.1908739 0.1711985 0.029522978
0.09693363 -0.026476711 0.043334834 0.1062947 0.014127901 -0.37804642 0.29748088 -0.02470788
-0.4454575 0.10771871 -0.074972846 -0.51781964 0.2906842 0.020512294 -0.05227626 0.12015959
-0.09964376 0.06807783 0.07961435 0.06789024 0.06984613 0.1464396 0.122381456 0.26875466
0.089300275 -0.007569907 -0.018032953 -0.030677157 0.0042609153 0.022325289 0.015736407 -0.20590487
-0.5108364 0.18382983 -0.15666178 -0.41931632 0.13934961 -0.03803894 -0.54415035 0.33210337
0.17066753 -0.024932764 -0.0655007 -0.04237923 -0.14910078 -0.074319266 0.14706548 -0.14548683
0.13850188 0.13096379 0.20650099 -0.12776287 0.02381477 -0.06169795 -0.0027638893 -0.048669893
-0.031427633 -0.121215545 0.063600436 -0.26062644 -0.053790186 0.22860554 -0.101410545 -0.06853216
0.14034721 -0.07463807 0.032378547 0.1856847 0.05786425 -0.0769632 -0.10043738 -0.056298304
00000000: f695 20be ac0f 24bd 88c2 21bc 1312 fdbd
00000010: 1728 57be a3d2 75be e7c9 6dbd e391 0f3d
00000020: 7fc4 ecbd 6b4d d73c 448b f9bc 9f38 f43c
00000030: 9e63 64bd 02ec 2f3d c7c0 d5bd bdda aabd
00000040: 5cce 69bc 8d52 93be be39 bf3c 1f41 8bbe
00000050: e731 76bd 9d18 763e 907b 90be fd37 53bd
00000060: 9d7e 9a3e 7668 77be 5de4 0fbe 5857 fdbd
00000070: 1d23 b13d 9c6f 393e a610 08bd 0979 1f3e
00000080: 1482 b63e 17f0 d33e fc79 fc3e bd8d 0f3f
00000090: 888e acbb 873a 8dbb 36dd 31be 6c16 5ebd
000000a0: 8cec 11be 6ade 7fbe e5b8 f53b f469 0dbe
000000b0: 7df1 d4bd 0013 903e c897 2dbd 1f83 c23e
000000c0: ef3a 913e 189f c5bd bea2 a83e 5482 073f
000000d0: 438a c43d d504 ec3e b378 ca3d 3041 f1bd
000000e0: 82d7 02be b08c c23c e877 99bd 92f6 38be
000000f0: 2258 13bc 7620 88bd b875 07bd 6f48 613e
00000100: 7328 093e b2d2 c1bd 5d93 563e f66f eebb
00000110: 91d2 85be c5d1 24bd c9ea 0abd b3dd 86be
00000120: 8cea 053e 6ce4 1fbe 8c12 07bb 0ea6 673e
00000130: 5233 44be ac10 90bd ed8b ab3d b66f 30be
00000140: 334c 20be cb88 e93c 8805 703e 8c4b 793e
00000150: 43a0 613e 20b0 ad3e 60e6 b53e a435 953e
00000160: 2513 2a3e 7bef 9e3e a31d 8f3d ae9b d33c
00000170: 8fa4 f73b 7393 ec3c 9d58 0339 1f83 173e
00000180: a420 39bc 1cc2 4cbd 5211 f03d ee28 05be
00000190: 1096 5abe 921a 5cbe ddf7 2ebe 4d83 8bbe
000001a0: 67b2 aabe b9ce 03be 2a2b dbbd 51de 86be
000001b0: ff34 b2bd f2d7 adbd 029c 31be 995d 44bb
000001c0: 4bd3 c6bd 53df 2dbe 210a c83c 8379 573d
000001d0: c039 87bd f272 bb3d 66c0 f1bd 144f 3cbd
000001e0: d70b e13c 12f3 22be a0ee 08be 0bfe b33d
000001f0: 4834 b5bc 625f 6fbe 8934 58be db3a 6abe
00000200: b598 29be 362b 73be ab7a c1bd 9d52 613c
00000210: 9902 74bd 42f3 ad3d cd83 e5bc 685b f13a
00000220: ea21 46bc c428 583d 4f48 8bbd 0bbb bf3c
00000230: 6773 e03d ff45 b93d 348a 15bd efe8 903d
00000240: 3e3c 713e fa05 573d c1f4 3e3e 42b5 cc3d
00000250: b72d 1e3e 0618 fd3d 1039 6e3d 8f92 a03d
00000260: aef7 593d 576d 953e 3869 15be e51a 913e
00000270: d4e4 a23d b837 08be bf76 dc3d cab2 863e
00000280: e5c9 1ebe 48d0 bb3c 7dd2 73be 37dc 1d3f
00000290: f8c4 3ebc 9e54 14bf 0241 283e fd61 71bd
000002a0: f8ad 0ebf 3a04 453e 123c 38be a72a bdbe
000002b0: 9d1a 64be c712 24bd 74dd 1dbd 99ea 113e
000002c0: f2f3 933e 9d25 4a39 a93e 223e 438c 3e3e
000002d0: e0d2 1b3e 7374 433e a94e 2f3e 2cda f13c
000002e0: 2485 c63d b0e5 d8bc de7f 313d 09b1 d93d
000002f0: b678 673c 4d8f c1be 6a4f 983e 2e68 cabc
00000300: 0113 e4be a19b dc3d 5d8b 99bd d48f 04bf
00000310: 8fd4 943e 6609 a83c a21f 56bd 3b16 f63d
00000320: 0712 ccbd 646c 8b3d d90c a33d 0a0a 8b3d
00000330: 7d0b 8f3d 43f4 153e 21a3 fa3d 369a 893e
00000340: 10e3 b63d fb0c f8bb d8b9 93bc a94e fbbc
00000350: 269f 8b3b 86e3 b63c a3e9 803c bad8 52be
00000360: 2dc6 02bf e33d 3c3e f26b 20be a1b0 d6be
00000370: aab1 0e3e b8ce 1bbd 704d 0bbf 7409 aa3e
00000380: 78c3 2e3e cc3f ccbc 3b25 86bd d895 2dbd
00000390: e0ad 18be b334 98bd 5598 163e 80fa 14be
000003a0: 70d3 0d3e 5f1b 063e ff74 533e 45d4 02be
000003b0: 3117 c33c fdb6 7cbd 5e22 35bb 155a 47bd
000003c0: 43ba 00bd db3f f8bd f240 823d d470 85be
000003d0: 1953 5cbd 9217 6a3e 55b0 cfbd 975a 8cbd
000003e0: 2eb7 0f3e d8db 98bd 5e9f 043d 2124 3e3e
000003f0: 1003 6d3d e29e 9dbd 1db2 cdbd 0d99 66bd

conv2.bias f4 [16]
-0.04973204 -0.17470324 0.0440669 -0.0922522 -0.16030249 -0.30972052 -0.2105738 -0.044052985
-0.048745673 -0.10073995 -0.07537657 0.03899705 -0.029155914 -0.1309197 0.040710546 -0.14159362
00000000: d3b3 4bbd 68e5 32be 7e7f 343d b9ee bcbd
00000010: 5626 24be b093 9ebe a9a0 57be e770 34bd
00000020: 8ba9 47bd bf50 cebd 085f 9abd 5fbb 1f3d
00000030: 62d8 eebc d00f 06be 1ac0 263d ebfd 10be

conv3.weight f4 [16, 16, 8, 1]
-0.109808095 -0.059367742 -0.021626545 -0.010108195 -0.15869145 -0.3365786 -0.20203385 0.1598897
0.18732913 0.135385 0.22045961 0.091447055 0.21200883 0.33305848 -0.25402492 -0.3391711
0.13531385 0.23546132 0.31277898 0.27795154 0.114538446 0.09756859 -0.23447862 -0.1643534
-0.21963722 -0.051245622 -0.060512986 -0.03390396 -0.02274765 -0.2326784 0.113895416 -0.07208063
0.05614053 0.048674367 0.072486304 0.092423506 0.12446692 0.22209711 0.089534745 0.08508247
-0.2605859 0.034951687 -0.010165382 0.041571897 -0.08960648 -0.08353733 -0.51723087 -0.019414036
0.07812353 0.09681521 -0.018246777 -0.106473684 0.019537566 0.07741246 -0.09638665 -0.07265664
0.13055533 0.02300896 0.12586337 -0.013604225 -0.01583619 -0.19113627 0.12929413 0.0051738205
0.08730409 0.023681592 0.14633253 0.11416002 -0.095193915 -0.04376848 0.6934458 -0.15358901
-0.11404703 -0.075680405 -0.035238218 -0.07325122 -0.04048991 -0.051935863 -0.304553 0.32022744
0.2146745 0.08960212 0.04731021 -0.08443118 -0.041423704 -0.03570826 0.33913308 -0.093221635
-0.12727097 -0.017939944 0.007257795 -0.01160778 0.16651735 -0.32693225 -0.6550167 0.1921714
-0.032535926 -0.16380592 -0.17979293 -0.076497614 -0.10261547 -0.30392587 -0.032079324 0.1506301
0.016882058 0.14597541 0.21167621 0.14405504 -0.031174812 0.20514241 0.36357194 -0.2482687
0.23164648 0.17829916 0.15318885 0.16008712 -0.012546663 0.05910649 -0.0671766 0.037533436
-0.12148528 -0.085816346 -0.03573754 -0.18117648 -0.1909199 -0.03362142 0.028103229 0.00010165909
-0.044592362 -0.019923456 -0.038673647 0.07431381 0.022316149 -0.016462527 0.31998095 0.061833333
0.001410035 0.0658819 0.07201398 0.045236077 0.106876515 0.290254 -0.30071935 -0.13646074
0.005991366 -0.030936785 0.07606386 0.07981088 -0.08542896 0.12846868 -0.18433371 -0.044383205
0.10098937 0.089078784 -0.037131194 -0.09319981 -0.18973559 -0.2940781 -0.12389818 -0.39294633
-0.038719513 0.031486403 -0.039476246 -0.0035755807 -0.10708039 0.11874918 -0.2890766 -0.056013215
0.02992048 -0.025751472 -0.07974656 -0.14116848 -0.05275911 -0.12740582 -0.5764714 -0.10032312
-0.11626652 -0.02481475 -0.08632595 -0.03651378 0.052829456 0.110310964 0.18593584 -0.017235044
0.11002444 0.07382596 0.007422669 0.123324 0.05780282 0.23082133 0.17747223 -0.001877223
-0.041786544 0.09292787 0.1679575 0.1147902 0.10959617 0.12942782 0.6500839 -0.16445683
0.001986878 0.0189334 0.02866277 -0.035515383 0.03724828 0.17359182 -0.25454244 0.4376046
0.018427994 -0.048479326 -0.07574957 -0.067466475 -0.074002914 -0.23022474 0.46912172 -0.37181833
0.11438616 0.14768589 0.10963085 0.14025229 0.08149971 0.06534341 -0.12382447 0.10386586
0.0029812714 0.005002328 0.0051152892 -0.016759243 -0.06623429 0.0011421983 -0.10671277 0.20186439
0.032347858 0.058799326 0.047696926 0.01530377 0.09143897 -0.11302348 0.09345845 -0.29827854
0.05712416 -0.03840055 -0.017193103 0.07034545 -0.050236788 0.0037763915 -0.26883572 0.18114273
-0.0034586808 0.00471219 0.08113667 0.07840788 -0.03512714 0.20876364 0.17483169 0.37919086
00000000: 11e3 e0bd 972b 73bd 272a b1bc d89c 25bc
00000010: 0380 22be 0854 acbe f6e1 4ebe 20ba 233e
00000020: 35d3 3f3e 5ea2 0a3e 2ac0 613e 9848 bb3d
00000030: d818 593e a486 aa3e 8e0f 82be d6a7 adbe
00000040: b78f 0a3e c61c 713e 9124 a03e aa4f 8e3e
00000050: 2293 ea3d 0ad2 c73d 2a1b 70be 424c 28be
00000060: 94e8 60be eee6 51bd 77dc 77bd e1de 0abd
00000070: 4859 babc 3f43 6ebe 0042 e93d 029f 93bd
00000080: 9df3 653d c65e 473d b373 943d 8948 bd3d
00000090: 83e8 fe3d 6d6d 633e fe5d b73d b83f ae3d
000000a0: 846b 85be 8029 0f3d b48c 26bc 4b47 2a3d
000000b0: 9a83 b7bd 9f15 abbd 3e69 04bf 2f0a 9fbc
000000c0: 3bff 9f3d 0e47 c63d 447a 95bc e00e dabd
000000d0: 3f0d a03c 6d8a 9e3d 5d66 c5bd 01cd 94bd
000000e0: 4cb0 053e 497d bc3c 54e2 003e 41e4 5ebc
000000f0: e6ba 81bc 3ab9 43be ae65 043e 2789 a93b
00000100: 7dcc b23d e6ff c13c 32d8 153e bbcc e93d
00000110: 07f5 c2bd 9446 33bd aa85 313f 7046 1dbe
00000120: 7d91 e9bd 54fe 9abd f355 10bd bc04 96bd
00000130: bfd8 25bd b3ba 54bd 5fee 9bbe daf4 a33e
00000140: a2d3 5b3e 5181 b73d 5ac8 413d 41ea acbd
00000150: e7ab 29bd d342 12bd daa2 ad3e fcea bebd
00000160: 5253 02be caf6 92bc ccd2 ed3b 8f2e 3ebc
00000170: 8683 2a3e aa63 a7be 2daf 27bf 94c8 443e
00000180: 6444 05bd bdbc 27be a31b 38be c8aa 9cbd
00000190: 0f28 d2bd 2c9c 9bbe 9c65 03bd c73e 1a3e
000001a0: 3e4c 8a3c 947a 153e a6c1 583e 2a83 133e
000001b0: 5262 ffbc da10 523e 1a26 ba3e 263a 7ebe
000001c0: bc34 6d3e 0e94 363e 8add 1c3e e1ed 233e
000001d0: 8590 4dbc a619 723d e393 89bd a9bc 193d
000001e0: 46cd f8bd 7bc0 afbd 8761 12bd 5486 39be
000001f0: 8280 43be 9db6 09bd be38 e63c cf31 d538
00000200: 7ba6 36bd 8436 a3bc 4268 1ebd d731 983d
00000210: 5bd0 b63c 6cdc 86bc 8bd4 a33e f344 7d3d
00000220: ecd0 b83a 17ed 863d 117c 933d 7749 393d
00000230: 13e2 da3d 2c9c 943e e3f7 99be 5dbc 0bbe
00000240: 3953 c43b 246f fdbc 5ec7 9b3d e373 a33d
00000250: 61f5 aebd 4b8d 033e fac1 3cbe 2acb 35bd
00000260: 84d3 ce3d f06e b63d e116 18bd 8bdf bebd
00000270: 0c4a 42be 6891 96be 54be fdbd 4330 c9be
00000280: 5a98 1ebd e3f7 003d d8b1 21bd 4a54 6abb
00000290: f74c dbbd c532 f33d d901 94be 1d6e 65bd
000002a0: cb1b f53c c0f4 d2bc 2a52 a3bd 788e 10be
000002b0: f019 58bd ac76 02be a193 13bf 3576 cdbd
000002c0: 241d eebd 4d48 cbbc a9cb b0bd 798f 15bd
000002d0: b363 583d b7ea e13d f765 3e3e 8230 8dbc
000002e0: 7e54 e13d 1132 973d dc39 f33b 4b91 fc3d
000002f0: a6c2 6c3d 6d5c 6c3e 48bb 353e 270d f6ba
00000300: 5e28 2bbd f850 be3d 0dfd 2b3e 2017 eb3d
00000310: f573 e03d ba88 043e e66b 263f 5f67 28be
00000320: 4836 023b 381a 9b3c 2fce ea3c 9478 11bd
00000330: a791 183d 0ec2 313e 6353 82be b60d e03e
00000340: 4ef6 963c 4292 46bd 9722 9bbd dd2b 8abd
00000350: d78e 97bd 09c0 6bbe b930 f03e f95e bebe
00000360: 4b43 ea3d f83a 173e 2486 e03d 4c9e 0f3e
00000370: 52e9 a63d c4d2 853d af97 fdbd a0b7 d43d
00000380: 6f61 433b 92ea a33b 289e a73b ae4a 89bc
00000390: d8a5 87bd d1b5 953a 3a8c dabd 8ab5 4e3e
000003a0: 307f 043d 90d7 703d da5d 433d aabc 7a3c
000003b0: 5b44 bb3d db78 e7bd 2567 bf3d f7b7 98be
000003c0: 06fb 693d e549 1dbd 8dd8 8cbc 4611 903d
000003d0: 17c5 4dbd 567d 773b d6a4 89be 7b7d 393e
000003e0: 09ab 62bb b768 9a3b fc2a a63d 5094 a03d
000003f0: 7ae1 0fbd 23c6 553e 1407 333e 4e25 c23e

conv3.bias f4 [16]
-0.0032889564 0.11349731 0.10696375 -0.023477389 0.0049075945 0.2571651 0.15161787 0.12251305
-0.03794613 -0.34845382 0.27945516 0.38093337 -0.015101521 0.04082976 0.23155922 -0.011243703
00000000: 888b 57bb 4771 e83d d00f db3d a753 c0bc
00000010: e3cf a03b 25ab 833e b741 1b3e 1fe8 fa3d
00000020: 676d 1bbd 8a68 b2be bf14 8f3e b309 c33e
00000030: 5f6c 77bc 1b3d 273d dc1d 6d3e 8237 38bc

tcn.tcn.0.conv1.weight f4 [16, 16, 5]
0.104309976 0.12757386 0.0670227 -0.022182552 -0.1691379 0.10545102 0.060394816 0.066664115
-0.021539697 -0.37173012 0.121282086 0.07063874 0.20242015 -0.0566322 -0.051833156 0.16089654
0.14503801 0.1157798 0.08150727 0.25695524 0.1310406 -0.019890904 0.2827095 0.13333394
-0.12783346 -0.15730332 0.15103237 0.18434994 -0.0064714453 0.1946584 -0.045810737 0.008739555
-0.13833402 -0.059345488 0.092083156 -0.11262161 -0.09310816 -0.06959475 -0.0020207486 -0.15282544
-0.1267926 0.028124375 -0.055623557 -0.16739853 -0.18342547 -0.24943362 -0.19149147 -0.22091159
-0.2420601 -0.059338894 -0.12433108 0.0077646715 -0.08237664 -0.2699476 -0.1114298 -0.05685278
-0.030152071 -0.017455738 -0.07877769 -0.0136453025 0.09692175 0.041511685 0.2554535 -0.06528953
-0.17957047 -0.118548945 -0.07090761 -0.097073644 -0.09997796 -0.13767894 -0.08130512 0.06550414
0.03751641 0.04479716 0.11290594 0.0015118109 -0.1357945 0.0742376 -0.057893034 -0.12707719
0.24621017 0.36238435 0.08545901 0.1867923 0.14575683 0.17246778 0.35509717 0.019010542
0.19789769 0.29673806 0.016784368 0.34435675 0.2919623 0.25575316 0.40725502 -0.0670263
-0.048328023 -0.2860859 0.07469886 -0.012337862 -0.39196402 -0.30314994 -0.015873296 -0.008289594
0.09524379 0.16127445 0.132832 0.10789993 0.06207987 0.046916664 -0.2816722 -0.22148572
0.012451604 0.045584455 0.030315768 0.01684465 0.007201178 0.1046877 0.26813486 0.23525217
0.048291795 0.2031871 0.016811352 0.20333442 0.06172641 -0.034003492 -0.19630684 -0.25151497
-0.20006986 -0.03392123 0.07113384 0.04900322 0.13004711 0.1780646 0.14469877 0.09471839
0.29006776 0.16234465 0.10858451 0.16719146 -0.13156557 -0.089224294 0.007875784 -0.06378449
0.10499901 -0.006523819 0.061715506 0.09171903 0.11172152 0.20438428 0.197097 0.010723147
0.067170255 -0.037960935 -0.14033003 0.14151093 0.16388717 -0.1085564 -0.12948576 0.19079268
-0.016462289 0.09927856 -0.0412009 -0.059200212 -0.2179428 0.21039598 0.08796564 0.118511125
-0.07959791 -0.1561213 0.15345533 0.040188655 0.07453863 -0.0010918294 -0.21758907 -0.09880058
0.024484724 -0.11008469 -0.109349266 -0.034251314 -0.07003804 -0.17415413 -0.13618761 -0.013077081
-0.049306124 0.122279786 0.23462173 0.0647356 -0.103637405 -0.043643516 0.03227626 0.01299087
-0.012777081 -0.012884633 0.25560716 0.027523056 -0.20504437 -0.05332049 -0.016451463 -0.032605935
0.048273947 -0.093485765 -0.09648973 -0.14150849 -0.08877706 -0.08770981 -0.11037448 0.13171583
0.2062556 -0.02935113 0.12018746 -0.04415799 -0.20895147 -0.16077457 -0.16181214 -0.10063969
-0.022367021 0.12958796 0.15622841 -0.07943021 -0.19155508 -0.24670532 -0.0153975375 0.070989646
-0.19006437 -0.024873326 -0.13690746 -0.17964719 -0.22256304 -0.33425057 -0.32855356 -0.0783075
0.07432299 0.056405626 -0.022930058 -0.09357563 -0.116685905 0.14467159 -0.09795314 -0.36697072
-0.4731705 -0.22852045 -0.0939454 0.20768699 0.18860456 -0.15119159 0.05215985 -0.042221468
-0.068387456 0.019495632 -0.2303681 -0.026060611 0.19779392 0.03273418 0.2624111 -0.015956558
00000000: 78a0 d53d b9a2 023e 3343 893d 2fb8 b5bc
00000010: 7c32 2dbe b4f6 d73d 8e60 773d 3287 883d
00000020: 0574 b0bc 6953 bebe be62 f83d 0bab 903d
00000030: 3a47 4f3e 2af7 67bd 014f 54bd 10c2 243e
00000040: d884 143e f61d ed3d 49ed a63d a38f 833e
00000050: 822f 063e 40f2 a2bc 4dbf 903e b188 083e
00000060: c6e6 02be 1f14 21be 3ba8 1a3e 3bc6 3c3e
00000070: 6b0e d4bb 8854 473e 0aa4 3bbd 5a30 0f3c
00000080: 6fa7 0dbe 4114 73bd 1896 bc3d 29a6 e6bd
00000090: 7eaf bebd b187 8ebd 896e 04bb 467e 1cbe
000000a0: ebd5 01be 1765 e63c 87d5 63bd 856a 2bbe
000000b0: e3d3 3bbe 876b 7fbe 5716 44be a636 62be
000000c0: 9ade 77be 570d 73bd 4ba1 febd c96e fe3b
000000d0: 15b5 a8bd 9236 8abe 4f35 e4bd 76de 68bd
000000e0: 7a01 f7bc 56ff 8ebc 3356 a1bd 8c90 5fbc
000000f0: e97e c63d 2808 2a3d cdca 823e 84b6 85bd
00000100: 52e1 37be cac9 f2bd 0238 91bd 8cce c6bd
00000110: 3fc1 ccbd b5fb 0cbe 4c83 a6bd 0927 863d
00000120: cfaa 193d 3a7d 373d 3b3b e73d f527 c63a
00000130: b70d 0bbe e209 983d 3f21 6dbd 8620 02be
00000140: 851e 7c3e 718a b93e 2205 af3d 7b46 3f3e
00000150: 4741 153e 659b 303e 4ccf b53e ffbb 9b3c
00000160: b1a5 4a3e 0dee 973e 5f7f 893c 874f b03e
00000170: 157c 953e 14f2 823e bb83 d03e 1645 89bd
00000180: 9bf3 45bd da79 92be b7fb 983d be24 4abc
00000190: 82af c8be 7836 9bbe b708 82bc 14d1 07bc
000001a0: 2d0f c33d 2125 253e 1d05 083e a3fa dc3d
000001b0: 7647 7e3d b02b 403d 5737 90be 27cd 62be
000001c0: d001 4c3c c4b6 3a3d c658 f83c cbfd 893c
000001d0: dcf7 eb3b 8166 d63d f948 893e f2e5 703e
000001e0: 9ecd 453d 4710 503e f6b7 893c e636 503e
000001f0: d5d4 7c3d 3f47 0bbd a904 49be 92c6 80be
00000200: 1ddf 4cbe fdf0 0abd 9eae 913d 9ab7 483d
00000210: 122b 053e 9156 363e ea2b 143e b7fb c13d
00000220: c383 943e ad3d 263e 8e61 de3d 3d34 2b3e
00000230: 20b9 06be 3abb b6bd 6f09 013c 71a1 82bd
00000240: b909 d73d c3c5 d5bb 66c9 7c3d 30d7 bb3d
00000250: 41ce e43d 1d4a 513e ccd3 493e 23b0 2f3c
00000260: 8f90 893d ed7c 1bbd adb2 0fbe 3ee8 103e
00000270: 0ad2 273e d152 debd ea97 04be 285f 433e
00000280: ecdb 86bc 8f52 cb3d 46c2 28bd ec7b 72bd
00000290: 662c 5fbe 0b72 573e 5427 b43d f6b5 f23d
000002a0: 3b04 a3bd 43de 1fbe 6523 1d3e dc9c 243d
000002b0: b6a7 983d b71b 8fba abcf 5ebe f557 cabd
000002c0: 3094 c83c 1574 e1bd 82f2 dfbd 1b4b 0cbd
000002d0: 1b70 8fbd 7655 32be c474 0bbe 4141 56bc
000002e0: 38f5 49bd d36d fa3d ae40 703e 1994 843d
000002f0: d93f d4bd 8bc3 32bd 1d34 043d a8d7 543c
00000300: f656 51bc 111a 53bc f1de 823e 0878 e13c
00000310: 27f7 51be 9666 5abd 38c5 86bc cd8d 05bd
00000320: e7ba 453d 7775 bfbd 689c c5bd 9ae7 10be
00000330: bfd0 b5bd 33a1 b3bd 040c e2bd 84e0 063e
00000340: ab34 533e c871 f0bc d824 f63d 02df 34bd
00000350: 60f7 55be 17a2 24be 15b2 25be 2f1c cebd
00000360: 0b3b b7bc b5b2 043e 57fa 1f3e 4eac a2bd
00000370: 0427 44be 52a0 7cbe f445 7cbc 0563 913d
00000380: 3ca0 42be 25c3 cbbc 7831 0cbe 6ff5 37be
00000390: 91e7 63be e422 abbe 2c38 a8be af5f a0bd
000003a0: a736 983d 9609 673d d1d7 bbbc 94a4 bfbd
000003b0: 05f9 eebd ca24 143e a89b c8bd 96e3 bbbe
000003c0: 6743 f2be 4401 6abe 7266 c0bd e6ab 543e
000003d0: 8e21 413e f8d1 1abe 91a5 553d 6bf0 2cbd
000003e0: b90e 8cbd 4eb5 9f3c 9de5 6bbe 107d d5bc
000003f0: 7d8a 4a3e 4714 063d bf5a 863e 54b7 82bc

tcn.tcn.0.conv1.bias f4 [16]
0.016281242 -0.0014397916 0.18460453 0.13542871 -0.0061079264 0.084288865 -0.019563872 -0.18739216
0.006306049 0.18201663 0.06883143 -0.04229905 0.21902199 0.05056476 -0.10380078 0.08905906
00000000: 3d60 853c 64b7 bcba f808 3d3e d3ad 0a3e
00000010: 0025 c8bb a49f ac3d 6a44 a0bc bbe3 3fbe
00000020: f9a2 ce3b 9162 3a3e 7ef7 8c3d c541 2dbd
00000030: 4d47 603e fe1c 4f3d 8195 d4bd 9964 b63d

tcn.tcn.0.conv2.weight f4 [16, 16, 1]
0.06810873 -0.10181416 0.2552464 0.059576202 0.17991687 -0.15865801 0.08107597 0.2272269
0.22539803 -0.064898655 -0.14652349 -0.19815531 0.1916302 -0.101433046 -0.10936143 0.4117109
0.104923055 0.15912785 -0.05111186 0.16560015 0.07261518 0.12108987 0.19871269 -0.08540855
-0.03275 -0.0016099467 -0.17884459 -0.09944341 0.09884564 -0.27917364 -0.15864757 0.40132713
0.061429985 0.21319436 -0.13356528 0.24828488 0.00021343042 -0.060737714 -0.037483685 0.12727967
0.024489222 0.33852214 0.20026009 0.18919973 -0.10614026 0.29236042 -0.093279034 -0.11233366
0.1427574 0.39598414 -0.008556118 0.06591722 -0.055848632 0.23275943 0.20615177 0.085381225
-0.20257495 -0.2620252 -0.07388576 -0.26487622 0.27600056 0.09775551 0.09869136 0.22645485
0.12287383 0.30036348 -0.07904044 0.0026243408 0.06330542 0.030664634 -0.082891256 -0.51860464
-0.12298346 -0.45273623 -0.054333482 -0.25360188 -0.11776087 0.10372478 -0.0061288457 0.10487736
-0.020381328 0.08017475 -0.00444393 -0.07473722 -0.28791362 0.016682554 -0.07491737 -0.41187933
0.1769392 -0.4668138 -0.12368884 -0.57472163 -0.0689033 0.02961274 0.2421777 0.04230864
-0.12577 -0.24861263 -0.097313106 -0.20257546 -0.017147914 0.0051437714 -0.25741106 -0.14462627
-0.20015228 0.25431973 -0.25132877 -0.24868466 0.038915012 -0.33747733 -0.044616 -0.07345059
-0.21543932 0.018737877 -0.015794033 0.12032105 -0.09186516 0.21099703 0.12103526 0.12686758
0.31164142 0.20400685 0.03198925 0.18672833 0.23900034 0.2652211 -0.32593286 -0.20992766
-0.18098281 0.07350642 0.25734574 -0.008633615 0.042320196 0.13599584 0.069933735 -0.016333172
-0.20023903 0.21798387 0.095615774 -0.14596674 -0.22528724 0.10407051 -0.35896757 0.282132
-0.14191155 0.35076985 -0.09362874 0.15203144 0.17945895 0.29150707 0.22659223 -0.0347188
-0.08492791 -0.18503803 -0.14080487 0.018003568 -0.24054277 0.067141704 -0.30739716 -0.0019279262
-0.1389221 -0.08372191 0.1206643 -0.108555906 -0.14029568 -0.1402116 0.109279424 0.21158405
-0.042126212 0.6187966 -0.1865105 0.5099867 0.17538032 0.043399192 0.056393255 -0.25481048
0.029998606 -0.18178487 -0.1708442 0.242779 -0.1863054 -0.24622312 -0.11981724 0.19948657
-0.08065395 0.6200515 0.033746745 0.1416237 -0.03455947 0.019436715 0.3635616 0.22283186
-0.1044163 -0.34941474 0.16599089 -0.059791297 -0.16757576 -0.03826989 -0.12256249 0.3634568
-0.056855984 0.2916709 -0.14562309 0.30559683 0.25234342 -0.19228171 0.08981093 -0.1710546
0.18747196 0.12801903 0.25971833 -0.09136282 -0.048490867 -0.23761629 0.0107145 0.41956103
-0.0060243537 0.3816808 -0.21692252 0.079201445 0.2642307 0.21674202 -0.21338414 0.31628633
0.057397652 -0.07000931 -0.021886159 -0.27934453 -0.11065328 0.010614143 -0.15175591 0.38860416
-0.014694104 0.55020326 -0.2741856 0.20628937 -0.036484536 -0.007008816 -0.2396794 -0.09167545
0.042405773 -0.32125464 -0.06720433 -0.2589609 0.10483375 -0.0682309 -0.09662024 -0.13543929
0.2428045 0.70592296 -0.26882198 -0.047215592 0.021604894 0.21007808 -0.07311608 0.30882564
00000000: 977c 8b3d f183 d0bd a8af 823e 2d06 743d
00000010: 213c 383e 3f77 22be 280b a63d 2bae 683e
00000020: bece 663e 96e9 84bd 410a 16be 3ae9 4abe
00000030: b53a 443e 21bc cfbd e3f8 dfbd c5cb d23e
00000040: e6e1 d63d 69f2 223e ab5a 51bd 1693 293e
00000050: 44b7 943d f7fd f73d 577b 4b3e aeea aebd
00000060: dd24 06bd d904 d3ba 0923 37be fda8 cbbd
00000070: 956f ca3d d9ef 8ebe 8274 22be c07a cd3e
00000080: 029e 7b3d 9f4f 5a3e 56c5 08be 643e 7e3e
00000090: 4bcc 5f39 1cc8 78bd 7e88 19bd 9a55 023e
000000a0: 9f9d c83c c652 ad3e fb10 4d3e 93bd 413e
000000b0: 1160 d9bd 44b0 953e 1409 bfbd 310f e6bd
000000c0: ff2e 123e 6fbe ca3e f62e 0cbc 9cff 863d
000000d0: 89c1 64bd 7d58 6e3e 7319 533e 5adc ae3d
000000e0: cf6f 4fbe 2b28 86be 6b51 97bd db9d 87be
000000f0: f24f 8d3e 0a34 c83d b21e ca3d c8e3 673e
00000100: 46a5 fb3d 3ec9 993e f4df a1bd 22fd 2b3b
00000110: 46a6 813d 6634 fb3c e4c2 a9bd 46c3 04bf
00000120: c1de fbbd 0bcd e7be c98c 5ebd 1bd8 81be
00000130: 9c2c f1bd a86d d43d 7cd4 c8bb f1c9 d63d
00000140: bef6 a6bc a932 a43d 639e 91bb d40f 99bd
00000150: 6a69 93be daa9 883c 476e 99bd d9e1 d2be
00000160: 8d2f 353e 3802 efbe 9350 fdbd f520 13bf
00000170: 2c1d 8dbd 6b96 f23c 6efd 773e d34b 2d3d
00000180: dac9 00be 4f94 7ebe 184c c7bd f16f 4fbe
00000190: c879 8cbc 158d a83b 62cb 83be e918 14be
000001a0: b8f4 4cbe 3236 823e 2aae 80be 31a7 7ebe
000001b0: 5965 1f3d d4c9 acbe 44bf 36bd 436d 96bd
000001c0: 209c 5cbe 2d80 993c 7d62 81bc e26a f63d
000001d0: cd23 bcbd 9b0f 583e 56e1 f73d 93e9 013e
000001e0: 778f 9f3e 2ce7 503e 2907 033d b635 3f3e
000001f0: 81bc 743e 0fcb 873e ace0 a6be 47f7 56be
00000200: 8f53 39be 898a 963d d2c2 833e 0274 0dbc
00000210: f157 2d3d 7e42 0b3e 6b39 8f3d 25cd 85bc
00000220: 760b 4dbe 2a37 5f3e 34d2 c33d 4e78 15be
00000230: b3b1 66be eb22 d53d 99ca b7be 9b73 903e
00000240: 4351 11be 1b98 b33e 6dc0 bfbd 21ae 1b3e
00000250: 16c4 373e 6a40 953e cb07 683e 4d35 0ebd
00000260: afee adbd 9c7a 3dbe 272f 10be 387c 933c
00000270: d850 76be 9781 893d 2963 9dbe 78b2 fcba
00000280: 9841 0ebe 6576 abbd d81e f73d 8f52 debd
00000290: aca9 0fbe a193 0fbe e4cd df3d 7da9 583e
000002a0: 898c 2cbd 7469 1e3f 9cfc 3ebe 7d8e 023f
000002b0: e696 333e 5ac3 313d 9dfc 663d 8576 82be
000002c0: a3bf f53c d025 3abe c8f1 2ebe 0f9b 783e
000002d0: d8c6 3ebe ea21 7cbe be62 f5bd 3546 4c3e
000002e0: e62d a5bd b2bb 1e3f 073a 0a3d ce05 113e
000002f0: 3b8e 0dbd bf39 9f3c bf24 ba3e 092e 643e
00000300: 37d8 d5bd 7de6 b2be 84f9 293e b8e7 74bd
00000310: fb98 2bbe e3c0 1cbd 0b02 fbbd 0217 ba3e
00000320: d2e1 68bd e355 953e 381e 15be 3077 9c3e
00000330: 2833 813e 7fe5 44be cbee b73d f028 2fbe
00000340: a6f8 3f3e 6c17 033e cdf9 843e 6e1c bbbd
00000350: 5c9e 46bd af51 73be df8b 2f3c b4d0 d63e
00000360: f167 c5bb aa6b c33e f020 5ebe 5e34 a23d
00000370: 3f49 873e 9ff1 5d3e 5f81 5abe 48f0 a13e
00000380: cd19 6b3d 0b61 8fbd 9a4a b3bc 3f06 8fbe
00000390: 309e e2bd f1e6 2d3c e765 1bbe 20f7 c63e
000003a0: 8abf 70bc 1fda 0c3f 0e62 8cbe 853d 533e
000003b0: cf70 15bd 36aa e5bb 846e 75be 57c0 bbbd
000003c0: adb1 2d3d 7d7b a4be 6ca2 89bd 8696 84be
000003d0: 14b3 d63d a4bc 8bbd d5e0 c5bd 99b0 0abe
000003e0: bea1 783e 5eb7 343f 09a3 89be 2365 41bd
000003f0: bffc b03c b51e 573e e2bd 95bd 651e 9e3e

tcn.tcn.0.conv2.bias f4 [16]
0.062363576 0.020612495 0.056576964 -0.08157957 0.12059831 0.0357557 -0.09812862 -0.04856159
-0.2372862 -0.151051 0.018684534 0.061949562 0.16987927 -0.037559535 0.16016275 0.042323835
00000000: f370 7f3d 89db a83c 3fbd 673d 3113 a7bd
00000010: 3ffc f63d 9274 123d a8f7 c8bd 85e8 46bd
00000020: 27fb 72be 1dad 1abe 4f10 993c d3be 7d3d
00000030: d5f4 2d3e 07d8 19bd b401 243e c25b 2d3d

tcn.tcn.0.res_conv.weight f4 [16, 16, 1]
0.016888147 -0.09166242 0.18010065 0.009260419 0.13106985 0.15415515 -0.050023463 -0.12016972
-0.1589203 0.22258714 -0.24923919 0.10050875 -0.040615935 0.18588093 0.16051695 0.012245792
0.08183755 0.3183207 -0.14329919 0.15567325 0.024317686 -0.10982664 0.12245372 -0.4993471
0.093438484 -0.012087181 -0.20547712 -0.0112482365 0.26723063 -0.107311845 -0.19919825 -0.23040113
0.1815852 -0.24885508 -0.026812652 0.25553417 0.05848862 -0.19299081 0.4062937 0.17142594
0.007444728 0.33987728 0.14086512 -0.29516947 -0.3568914 0.20572093 0.16316372 -0.09410174
0.26470274 -0.29093698 0.19795749 -0.13335294 -0.03752394 -0.01465373 -0.049366675 0.40241998
-0.07386023 0.06088364 0.23277046 -0.1956883 0.045932703 0.29481468 0.18423416 -0.08094917
-0.26395714 0.28470236 -0.0826069 -0.27357653 -0.043582037 0.061070982 -0.28280994 -0.18812495
-0.02927947 -0.105847634 0.24665979 -0.030057847 0.25252488 0.11556942 -0.023464385 -0.017825093
0.05730876 0.20451267 -0.31745166 -0.082215905 -0.16868225 0.24865828 -0.31577793 0.012917165
0.040125832 0.021676881 -0.04073554 0.08320159 0.04440042 -0.0056349286 0.042754445 0.2211857
-0.35277477 0.2983067 0.048735656 -0.18099762 0.20569375 0.10817962 -0.27697664 -0.087208286
-0.16208474 0.25115302 -0.30700934 0.056023598 0.07347716 -0.30378342 -0.13469516 0.16221085
-0.119888075 0.069045775 0.25142348 0.3564924 -0.07733794 0.29821572 0.4815395 -0.24440181
-0.02340874 -0.21496393 -0.26612562 -0.053365078 -0.0131878005 -0.2552678 -0.08110931 -0.1613766
-0.20237505 0.018091593 0.15704776 -0.31993753 -0.32173952 -0.036360454 -0.2195523 -0.11387606
-0.08634345 0.87854975 0.24435446 0.13319845 -0.21001004 -0.19047081 -0.16645595 0.3830566
0.3346298 0.011156278 0.20170444 -0.12725015 -0.11646973 -0.066602945 0.26941305 0.15926969
-0.079514325 0.19502287 0.08288092 0.21294852 -0.20394306 0.15831684 0.029285416 -0.2651661
0.067123435 -0.16387728 -0.121347696 -0.26153156 -0.097128056 -0.36879662 0.16670829 0.15468773
-0.23232308 0.38097122 -0.117017284 -0.488387 -0.023965547 -0.3137119 0.30913427 -0.19627881
-0.42429924 -0.28063253 -0.1579971 -0.076756 0.03527963 -0.33879182 -0.21480942 -0.113290206
0.05615817 -0.2350078 -0.19427499 -0.10000399 0.09315719 -0.02692695 -0.018629782 -0.16992576
0.050217785 0.360024 0.00881011 -0.004570737 -0.08616427 -0.0931515 -0.3114946 -0.15348478
0.2287624 0.16467565 -0.2578125 0.08278653 0.12754948 -0.085702114 -0.06670654 0.2573002
0.3322095 0.2779746 0.21346551 0.43633533 -0.16298883 0.2702898 0.19617413 0.029362127
0.13465247 0.05738752 -0.0680324 -0.28824708 0.09827334 -0.18929279 0.0713697 -0.17799106
-0.1476185 -0.20528257 0.031076064 0.061630424 -0.15251477 -0.080171674 0.19013911 -0.024979131
-0.1459047 0.17276032 -0.12220338 -0.0030657772 0.12840009 0.08406631 0.010159703 0.030369148
-0.26522952 -0.04789806 -0.129183 -0.1941838 0.19923675 0.11149176 -0.195276 0.06268688
-0.085176446 0.04975887 -0.2947208 -0.07265217 0.1259345 0.16303816 -0.15565282 0.13097975
00000000: 0359 8a3c 82b9 bbbd 4e6c 383e 03b9 173c
00000010: 2d37 063e d9da 1d3e 67e5 4cbd 8b1b f6bd
00000020: 01bc 22be e2ed 633e 8f38 7fbe 88d7 cd3d
00000030: e55c 26bd 9257 3e3e 8e5e 243e 93a2 483c
00000040: 729a a73d eefa a23e 06bd 12be cf68 1f3e
00000050: e235 c73c caec e0bd 04c9 fa3d 6caa ffbe
00000060: ad5c bf3d 5009 46bc 9868 52be 864a 38bc
00000070: 74d2 883e 50c6 dbbd a0fa 4bbe 46ee 6bbe
00000080: 78f1 393e ded3 7ebe 35a6 dbbc 60d5 823e
00000090: c391 6f3d 629f 45be ba05 d03e 488a 2f3e
000000a0: e8f2 f33b 6504 ae3e f23e 103e 7420 97be
000000b0: 78ba b6be 82a8 523e 6414 273e 6ab8 c0bd
000000c0: 1e87 873e b1f5 94be 5eb5 4a3e ac8d 08be
000000d0: b4b2 19bd 3316 70bc b634 4abd fe09 ce3e
000000e0: 0844 97bd 2061 793d 615b 6e3e 8462 48be
000000f0: ee23 3c3d f3f1 963e e1a7 3c3e aec8 a5bd
00000100: 6425 87be 82c4 913e ce2d a9bd 3912 8cbe
00000110: 1483 32bd 9125 7a3d 77cc 90be d4a3 40be
00000120: 80db efbc a5c6 d8bd 6294 7c3e e03b f6bc
00000130: f14a 813e a9af ec3d 6238 c0bc ee05 92bc
00000140: 97bc 6a3d c56b 513e 0689 a2be d060 a8bd
00000150: 0abb 2cbe 47a0 7e3e a5ad a1be 84a2 533c
00000160: fc5a 243d b793 b13c 4fda 26bd 9865 aa3d
00000170: 37dd 353d 35a5 b8bb 491f 2f3d 817e 623e
00000180: e59e b4be a8bb 983e 0a9f 473d 7157 39be
00000190: 62a1 523e 478d dd3d e2cf 8dbe 429a b2bd
000001a0: 8bf9 25be 2197 803e 5430 9dbe 0079 653d
000001b0: 317b 963d 8089 9bbe 87ed 09be 9a1a 263e
000001c0: e187 f5bd df67 8d3d 94ba 803e 2c86 b63e
000001d0: 5b63 9ebd bbaf 983e 588c f63e 7844 7abe
000001e0: b0c3 bfbc 811f 5cbe 9e41 88be 5795 5abd
000001f0: a511 58bc 76b2 82be a31c a6bd e83f 25be
00000200: 683b 4fbe d234 943c 21d1 203e dace a3be
00000210: 0bbb a4be b3ee 14bd 51d2 60be da37 e9bd
00000220: d6d4 b0bd a3e8 603f 0e38 7a3e 2d65 083e
00000230: df0c 57be c80a 43be 6e73 2abe ff1f c43e
00000240: 9954 ab3e d2c8 363c 9c8b 4e3e dd4d 02be
00000250: af87 eebd 2067 88bd 82f0 893e 9817 233e
00000260: 68d8 a2bd 13b4 473e 79bd a93d 2d0f 5a3e
00000270: 73d6 50be cf1d 223e f8e7 ef3c dac3 87be
00000280: 0378 893d 72cf 27be 2485 f8bd 77e7 85be
00000290: 13eb c6bd e9d2 bcbe 94b5 2a3e 7666 1e3e
000002a0: 1ae6 6dbe a90e c33e c2a6 efbd dc0d fabe
000002b0: 6553 c4bc d99e a0be d946 9e3e 50fd 48be
000002c0: c03d d9be 11af 8fbe fec9 21be 4032 9dbd
000002d0: 6081 103d 1f76 adbe 00f7 5bbe b204 e8bd
000002e0: 1c06 663d e2a5 70be 06f0 46be e4ce ccbd
000002f0: 32c9 be3d e895 dcbc 7c9d 98bc 0501 2ebe
00000300: 2ab1 4d3d 1155 b83e 4858 103c 1fc6 95bb
00000310: e576 b0bd 37c6 bebd 387c 9fbe 1d2b 1dbe
00000320: b140 6a3e bca0 283e 0000 84be fc8b a93d
00000330: 559c 023e 9784 afbd 709d 88bd dabc 833e
00000340: 5d17 aa3e b052 8e3e b496 5a3e 5867 df3e
00000350: 8be6 26be 6d63 8a3e dfe1 483e d888 f03c
00000360: 56e2 093e 2d0f 6b3d 9254 8bbd 1f95 93be
00000370: 8843 c93d f8d5 41be 472a 923d 4a43 36be
00000380: 4e29 17be 9835 52be 3b93 fe3c 2f70 7c3d
00000390: d52c 1cbe 0c31 a4bd d4b3 423e 09a1 ccbc
000003a0: 0b68 15be 15e8 303e c445 fabd 35eb 48bb
000003b0: 507b 033e f52a ac3d e274 263c b8c8 f83c
000003c0: 2acc 87be c230 44bd 8c48 04be 1ed8 46be
000003d0: b804 4c3e cb55 e43d 6ff6 47be fb61 803d
000003e0: fd70 aebd f5cf 4b3d a5e5 96be a9ca 94bd
000003f0: f9f4 003e 7af3 263e 7463 1fbe 8e1f 063e

tcn.tcn.0.res_conv.bias f4 [16]
0.25801978 -0.11800645 -0.2332718 0.025580823 -0.13221401 -0.15515861 -0.20493445 -0.16686037
-0.07588752 0.13716434 -0.09819449 0.13615532 -0.042319912 -0.295042 -0.03473133 0.058627672
00000000: 2b1b 843e 5ead f1bd cede 6ebe e08e d13c
00000010: 1c63 07be e6e1 1ebe 56da 51be 72dd 2abe
00000020: eb6a 9bbd cf74 0c3e 311a c9bd 4d6c 0b3e
00000030: a557 2dbd bf0f 97be 7042 0ebd 9223 703d

tcn.tcn.1.conv1.weight f4 [16, 16, 5]
-0.041258562 -0.22449522 -0.13962694 -0.2140456 -0.3219298 0.19462304 -0.4031572 -0.1735863
-0.10617664 0.18637541 0.12112965 0.42987978 -0.12842964 -0.27996698 -0.22220948 0.027209455
-0.11133037 -0.1124485 -0.109426506 -0.27750307 0.0019280288 -0.11320478 0.25924435 0.2774225
0.29881838 0.061659034 -0.018483927 0.2860976 0.05022905 0.27365103 0.09943071 -0.08917062
0.18538965 0.29892483 0.48351222 -0.101617426 -0.19897403 -0.44772673 -0.41061765 -0.16868511
-0.16151819 0.19979616 0.26551378 0.18371168 0.14255603 -0.13325371 -0.049244612 0.020552557
-0.10782683 -0.10544573 0.12583925 0.22377656 -0.12596104 -0.30011442 -0.24749884 0.2269877
-0.012564802 -0.29612088 0.09317547 -0.0011035521 0.0046617957 0.1373842 0.007907113 0.041350737
0.170771 0.40149164 -0.01563265 -0.22756627 -0.17961906 -0.0023439613 0.2065625 0.132502
0.11846962 0.04024645 -0.06712519 0.5164839 0.058647864 0.06731179 0.24499537 0.1851927
-0.1941276 -0.19345689 -0.060154177 -0.20145753 -0.20234576 -0.14037485 0.18286137 -0.12293889
0.058674667 -0.25270948 -0.3283481 -0.07062509 -0.30003843 -0.18445036 -0.2485703 0.12101235
-0.2985722 -0.35646424 -0.18636617 -0.12556969 0.3782247 0.006770634 -0.116837405 0.11109897
0.20624629 0.17473796 -0.20317324 -0.4077184 -0.06530782 0.50288314 0.071832 0.086127795
0.29006705 0.36700708 0.36368185 -0.43231985 -0.055430587 -0.22822188 -0.12866518 0.022767423
-0.16348945 0.06432734 -0.3665539 -0.20823354 0.2352335 0.042151887 -0.04034606 -0.16205269
-0.04734782 -0.062368814 -0.2028463 -0.21068946 0.15426522 0.0071279863 -0.036148187 0.18066971
0.26947296 0.37785983 0.11960351 -0.17799628 -0.08669545 -0.05001723 0.32088926 -0.0886216
0.02834457 -0.25671816 -0.1627783 -0.20231044 -0.1956043 -0.068823196 -0.024909832 0.054858852
0.24295333 -0.116411336 0.027987383 0.046402235 0.17779765 0.10096511 0.06612026 0.067008786
0.17063573 0.0016741746 0.003339122 0.17058218 -0.1354404 -0.012541366 -0.17637289 0.077044345
-0.05130282 0.24883457 -0.08712232 -0.016506065 -0.012453419 -0.15363435 -0.09862742 -0.1840015
-0.13181846 -0.16624291 0.15733075 0.04695529 0.007881634 -0.08921058 -0.23533142 0.11364153
0.17106779 -0.13327664 -0.10428863 -0.03868518 0.02179597 0.21265727 0.3695971 -0.0023973943
0.050947856 -0.08749674 0.004725513 -0.11151458 0.117429525 0.09924147 0.080931626 -0.014757943
0.16555704 -0.10087936 -0.18126023 -0.0019828842 0.20407596 -0.1489002 0.03182922 -0.23831946
-0.20484443 0.25097275 0.32389244 0.19403195 0.026291324 -0.068121694 -0.3351016 0.314421
0.13498452 -0.021885414 -0.07898527 -0.18517663 0.1915691 -0.11928931 0.1300669 0.08275869
-0.07039206 0.0011730052 -0.134168 0.0797025 0.007155826 -0.07681351 0.20314606 -0.07861793
0.102388516 -0.07320654 -0.16015938 0.3506713 -0.094380364 0.08537488 0.05533826 -0.20111147
0.046336506 -0.04708205 0.18933304 0.1673223 -0.08415125 0.023534387 0.027763369 -0.13881421
-0.1387937 0.047033094 -0.06295824 0.104393885 0.045340344 -0.18951765 -0.093385674 0.06485033
00000000: bdfe 28bd 13e2 65be 5dfa 0ebe c52e 5bbe
00000010: fcd3 a4be 434b 473e 9f6a cebe 9bc0 31be
00000020: 2373 d9bd 32d9 3e3e d212 f83d 3419 dc3e
00000030: 0f83 03be d557 8fbe e28a 63be 5de6 de3c
00000040: 2d01 e4bd 664b e6bd 011b e0bd e214 8ebe
00000050: e9b5 fc3a e8d7 e7bd adbb 843e 520a 8e3e
00000060: b9fe 983e 2f8e 7c3d 9b6b 97bc 627b 923e
00000070: fabc 4d3d fd1b 8c3e 54a2 cb3d 169f b6bd
00000080: c9d6 3d3e ad0c 993e ea8e f73e cc1c d0bd
00000090: d9bf 4bbe 703c e5be 7a3c d2be cabb 2cbe
000000a0: 0665 25be 5d97 4c3e 6cf1 873e ea1e 3c3e
000000b0: 35fa 113e a973 08be b8b4 49bd d65d a83c
000000c0: 50d4 dcbd eef3 d7bd 01dc 003e af25 653e
000000d0: eefb 00be 99a8 99be 5670 7dbe 776f 683e
000000e0: 99dc 4dbc 289d 97be c8d2 be3d 10a5 90ba
000000f0: fac1 983b 72ae 0c3e d68c 013c 645f 293d
00000100: 98de 2e3e 5090 cd3e 0b10 80bc 2207 69be
00000110: 0fee 37be 259d 19bb 1f85 533e 9bae 073e
00000120: 33a0 f23d 76d9 243d ee78 89bd 4a38 043f
00000130: be38 703d c4da 893d 11e0 7a3e 28a3 3d3e
00000140: 63c9 46be 9019 46be 3a64 76bd e24a 4ebe
00000150: ba33 4fbe 6dbe 0fbe 0340 3b3e 62c7 fbbd
00000160: d954 703d 2363 81be 3e1d a8be e3a3 90bd
00000170: a39e 99be 8ee0 3cbe 3689 7ebe 53d5 f73d
00000180: 75de 98be 7b82 b6be c6d6 3ebe 5795 00be
00000190: aba6 c13e 32dc dd3b 7348 efbd db87 e33d
000001a0: 3a32 533e 82ee 323e a50c 50be 77c0 d0be
000001b0: 1bc0 85bd f3bc 003f a81c 933d c563 b03d
000001c0: ab83 943e 5ae8 bb3e 8234 ba3e 0759 ddbe
000001d0: 2f0b 63bd ffb2 69be cec0 03be bf82 ba3c
000001e0: c769 27be 0dbe 833d f4ac bbbe 2c3b 55be
000001f0: 0de1 703e 75a7 2c3d e941 25bd 24f1 25be
00000200: caef 41bd 7176 7fbd f1b6 4fbe fabe 57be
00000210: b4f7 1d3e e291 e93b 1f10 14bd 7b01 393e
00000220: 5cf8 893e d876 c13e aff2 f43d a844 36be
00000230: 628d b1bd dede 4cbd 994b a43e 3e7f b5bd
00000240: df32 e83c 9070 83be 5baf 26be 782a 4fbe
00000250: 7e4c 48be 2df3 8cbd b40f ccbc adb3 603d
00000260: c2c8 783e 1169 eebd cc45 e53c 4510 3e3d
00000270: 9610 363e ccc6 ce3d 0f6a 873d e73b 893d
00000280: 22bb 2e3e fa6f db3a 2cd5 5a3b 18ad 2e3e
00000290: e3b0 0abe 4d7a 4dbc 189b 34be 6dc9 9d3d
000002a0: e822 52bd 7dce 7e3e 306d b2bd ba37 87bc
000002b0: 6d09 4cbc 5352 1dbe 2cfd c9bd e46a 3cbe
000002c0: 6bfb 06be 953b 2abe 501b 213e 3154 403d
000002d0: f821 013c 09b4 b6bd b8fa 70be e4bc e83d
000002e0: 652c 2f3e ac79 08be 4795 d5bd 5a74 1ebd
000002f0: 768d b23c d4c2 593e d53b bd3e 9a1d 1dbb
00000300: b3ae 503d 7e31 b3bd 7ad8 9a3b c261 e4bd
00000310: e47e f03d 1d3f cb3d 7bbf a53d 4dcb 71bc
00000320: c987 293e d799 cebd 489c 39be 47f3 01bb
00000330: 4af9 503e 4b79 18be 5b5f 023d 040a 74be
00000340: bdc2 51be 807f 803e 3bd5 a53e 50b0 463e
00000350: e760 d73c 6383 8bbd 7092 abbe cafb a03e
00000360: 6239 0a3e 0a49 b3bc 07c3 a1bd f19e 3dbe
00000370: b12a 443e f44d f4bd 4230 053e 637d a93d
00000380: b629 90bd 86bf 993a 5663 09be 103b a33d
00000390: 6b7b ea3b 6750 9dbd 8505 503e 7002 a1bd
000003a0: 12b1 d13d 4fed 95bd d200 24be 308b b33e
000003b0: 7e4a c1bd 06d9 ae3d 5faa 623d 2af0 4dbe
000003c0: 59cb 3d3d 1cd9 40bd 85e0 413e 8956 2b3e
000003d0: 7e57 acbd 30cb c03c 0170 e33c 5025 0ebe
000003e0: f01f 0ebe c6a5 403d 40f0 80bd 76cc d53d
000003f0: ccb6 393d ea10 42be fd40 bfbd 40d0 843d

tcn.tcn.1.conv1.bias f4 [16]
-0.20259872 -0.2688322 0.084200405 0.20280191 -0.31499904 -0.19231956 0.07861833 0.07276836
-0.04834306 -0.114610165 -0.21571645 0.119458705 -0.2406899 0.20807889 -0.068902396 0.13826847
00000000: 0a76 4fbe 60a4 89be 4371 ac3d 4eab 4f3e
00000010: 8e47 a1be 6bef 44be a602 a13d 9407 953d
00000020: 5f03 46bd bcb8 eabd c6e4 5cbe c4a6 f43d
00000030: 6a77 76be a212 553e b31c 8dbd 4096 0d3e

tcn.tcn.1.conv2.weight f4 [16, 16, 1]
0.5375881 0.024113385 -0.060477808 0.09182544 -0.051494353 -0.11677987 0.22428265 0.320348
-0.3375815 -0.27476248 -0.03893639 0.23666222 0.0065086773 0.3047236 0.3842755 -0.12322146
-0.1288125 0.38314676 -0.15420215 -0.18923959 0.060841676 0.11942228 0.21177955 -0.16531433
0.23135224 -0.15046522 0.12794697 0.2597889 -0.057240125 -0.12092329 -0.34436822 0.23166133
0.04558903 0.16987096 0.2295818 0.058022436 0.11895804 -0.03662752 0.23960961 -0.25996205
-0.06401818 -0.050208464 -0.32533276 0.093788914 -0.15466893 -0.1113649 -0.17584045 -0.23561464
-0.2637658 -0.03449667 -0.48278484 -0.11209221 0.17869008 -0.1723154 -0.05870518 0.1286248
-0.015639927 0.16736995 0.21180256 -0.279863 -0.10009137 -0.09242729 0.047228064 0.09138162
0.08969236 0.15518561 -0.027175426 -0.2931124 0.08228787 -0.0756668 0.075172335 -0.12493648
0.3564641 -0.1925752 -0.0435453 0.21576798 -0.17485528 -0.06318217 -0.014601971 0.13614604
-0.17940485 -0.07289888 -0.01934266 -0.26165086 0.13885474 0.2300514 0.48260096 0.18616681
0.11178042 -0.014214748 -0.06668022 0.24051316 -0.097963214 -0.1472237 0.12323397 0.120780066
-0.18149713 0.2147403 -0.13637611 0.01491715 0.2505032 -0.07096812 -0.12712936 0.29140124
0.11056668 -0.06362218 0.03548024 0.2389695 -0.25778523 -0.25666586 -0.29030487 0.31674105
0.2762461 -0.19918016 0.14056273 0.031478893 -0.16816609 0.42456102 0.09818409 0.04936241
-0.0455007 -0.11438994 -0.18813832 -0.115943186 -0.05854784 0.28304738 -0.016549278 -0.16285747
-0.26172853 0.25183725 -0.32733282 0.08586257 -0.25426263 0.22185196 0.32518288 -0.11258691
0.043128762 -0.063877575 -0.038862932 0.18814631 -0.2528325 -0.13719563 -0.0664204 -0.0658802
-0.07603911 0.049621247 0.07771655 -0.23958357 -0.07270531 -0.20504014 0.20120972 0.024658304
0.09025466 -0.20174038 0.28665468 -0.08012409 -0.0078033605 0.15257338 0.41672176 0.123049706
0.196968 -0.14174163 -0.15492572 -0.17194147 -0.08279361 0.31693053 -0.16071364 -0.17706867
-0.024309171 -0.16675672 0.20863415 -0.09841051 0.07616843 0.08820035 -0.063981794 0.075776
0.26187482 -0.01140684 -0.17170213 -0.06736898 -0.1806291 -0.35220793 -0.15472521 -0.070901394
-0.3643217 0.09778556 -0.03558886 -0.33997223 0.11629941 -0.1691737 -0.028356152 -0.09337816
0.19172814 -0.19910063 -0.06994414 -0.11764655 -0.15429224 -0.029543513 0.104225434 0.09648733
0.27803317 -0.031786263 -0.1189605 -0.04276176 0.034527864 -0.18453471 0.32612753 0.22777365
-0.05449321 -0.06137982 0.052935805 -0.22168621 -0.31074318 -0.03458079 0.3022293 0.04865244
-0.1525763 0.031734336 -0.11287302 -0.019260379 -0.31706423 -0.31234187 0.21954726 0.040512104
-0.12002717 0.42444345 0.19066219 0.1210509 0.15916583 -0.1662237 0.19696194 0.13152668
-0.011727009 -0.119746715 0.18747413 -0.08288343 -0.20203455 0.068469666 -0.21560498 0.074988395
-0.3843345 0.14196539 -0.11546203 0.118521884 0.123110704 -0.05002421 0.12885317 0.0027097869
-0.13696101 0.008715245 0.17089666 -0.09225628 -0.24646278 -0.0120211635 -0.5575802 -0.13408647
00000000: 609f 093f 6f89 c53c 94b7 77bd fa0e bc3d
00000010: beeb 52bd 492a efbd 5aaa 653e a704 a43e
00000020: 7bd7 acbe abad 8cbe c47b 1fbd 9557 723e
00000030: be46 d53b bb04 9c3e c2bf c43e 885b fcbd
00000040: 6de7 03be d02b c43e 2be7 1dbe 06c8 41be
00000050: 1f35 793d ab93 f43d bddc 583e 2948 29be
00000060: 9ae7 6c3e 8e13 1abe 8804 033e 0d03 853e
00000070: 9f74 6abd a1a6 f7bd 0851 b0be a138 6d3e
00000080: 90bb 3a3d a7f2 2d3e 7e17 6b3e efa8 6d3d
00000090: 46a0 f33d bd06 16bd 395c 753e bf19 85be
000000a0: f71b 83bd 64a7 4dbd 0492 a6be 6714 c03d
000000b0: 8861 1ebe 4813 e4bd 850f 34be f744 71be
000000c0: 500c 87be 614c 0dbd 932f f7be 9a90 e5bd
000000d0: 88fa 363e 7373 30be d874 70bd 38b6 033e
000000e0: 4e1f 80bc 0763 2b3e c5e2 583e 344a 8fbe
000000f0: b4fc ccbd 854a bdbd 3772 413d 4926 bb3d
00000100: a1b0 b73d fae8 1e3e 009f debc d412 96be
00000110: 8b86 a83d 32f7 9abd f4f3 993d b2de ffbd
00000120: 7682 b63e 6f32 45be 8e5c 32bd 48f2 5c3e
00000130: 430d 33be a765 81bd 1b3d 6fbc de69 0b3e
00000140: e8b5 37be 024c 95bd 8074 9ebc 1af7 85be
00000150: f02f 0e3e 9892 6b3e 7917 f73e 83a2 3e3e
00000160: 22ed e43d f9e4 68bc a48f 88bd 1549 763e
00000170: f0a0 c8bd cfc1 16be 1762 fc3d 8a5b f73d
00000180: 62da 39be e2e4 5b3e 2ea6 0bbe 1067 743c
00000190: f541 803e bc57 91bd 332e 02be 8b32 953e
000001a0: c970 e23d 584c 82bd ba53 113d 6cb4 743e
000001b0: 6dfc 83be b569 83be d7a2 94be e22b a23e
000001c0: 2170 8d3e e2f5 4bbe adef 0f3e 03f0 003d
000001d0: bb33 2cbe 1060 d93e bd14 c93d 3d30 4a3d
000001e0: f15e 3abd 4645 eabd 55a7 40be 9f73 edbd
000001f0: dccf 6fbd 96eb 903e 5a92 87bc 1cc4 26be
00000200: 4801 86be d0f0 803e 2b98 a7be b7d8 af3d
00000210: b62e 82be 292d 633e 5f7e a63e f793 e6bd
00000220: c9a7 303d 3fd2 82bd bd2e 1fbd 6da9 403e
00000230: 4373 81be 037d 0cbe 6b07 88bd 33ec 86bd
00000240: 65ba 9bbd a63f 4b3d db29 9f3d 6555 75be
00000250: 86e6 94bd 0bf6 51be ec09 4e3e 3600 ca3c
00000260: 6fd7 b83d 0895 4ebe 67c4 923e 1918 a4bd
00000270: 55b3 ffbb 323c 1c3e 8e5c d53e 7c01 fc3d
00000280: fbb1 493e b824 11be d9a4 1ebe 6d11 30be
00000290: b28f a9bd b844 a23e 1e92 24be 7d51 35be
000002a0: 0724 c7bc 46c2 2abe 31a4 553e 738b c9bd
000002b0: 32fe 9b3d 63a2 b43d e308 83bd 7330 9b3d
000002c0: 7514 863e c1e3 3abc afd2 2fbe bff8 89bd
000002d0: d6f6 38be 9954 b4be 4970 1ebe c034 91bd
000002e0: 6088 babe cc43 c83d a0c5 11bd d710 aebe
000002f0: 632e ee3d df3b 2dbe 294b e8bc 0c3d bfbd
00000300: 6254 443e 09e1 4bbe e03e 8fbd adf0 f0bd
00000310: c9fe 1dbe 3d05 f2bc 2574 d53d 269b c53d
00000320: 5d5a 8e3e 5032 02bd 90a1 f3bd f526 2fbd
00000330: 176d 0d3d abf6 3cbe 30fa a63e 7f3d 693e
00000340: 4634 5fbd 6869 7bbd 37d3 583d b601 63be
00000350: bb19 9fbe 96a4 0dbd ccbd 9a3e c847 473d
00000360: f63c 1cbe ddfb 013d f829 e7bd f1c7 9dbc
00000370: 3e56 a2be 46eb 9fbe ffd0 603e 05f0 253d
00000380: ced0 f5bd a750 d93e f33c 433e 89e9 f73d
00000390: 5efc 223e 8c36 2abe 64b0 493e eeae 063e
000003a0: a422 40bc c43d f5bd 38f9 3f3e cabe a9bd
000003b0: 25e2 4ebe d339 8c3d 8dc7 5cbe 8493 993d
000003c0: 7ec7 c4be 605f 113e 5b77 ecbd 9abb f23d
000003d0: 7721 fc3d 30e6 4cbd 16f2 033e ae96 313b
000003e0: 823f 0cbe 63ca 0e3c 89ff 2e3e dcf0 bcbd
000003f0: bd60 7cbe 6af4 44bc 93bd 0ebf f74d 09be

tcn.tcn.1.conv2.bias f4 [16]
-0.20394452 0.21212903 -0.044634607 -0.005934623 0.069663666 -0.10785939 -0.090798005 0.082323276
0.31898418 0.1265781 -0.099552296 0.123159915 0.21627018 -0.08285869 -0.13927521 0.2133479
00000000: d5d6 50be 5a38 593e c7d2 36bd 3a77 c2bb
00000010: d3ab 8e3d 62e5 dcbd 4ef4 b9bd 1b99 a83d
00000020: e551 a33e b09d 013e 13e2 cbbd 443b fc3d
00000030: ee75 5d3e d1b1 a9bd 299e 0ebe df77 5a3e
