checkpoints/fine_tune/var_rf/gtzan/0.0/model_faithful-hill-196_finetune_HAI_GIA/it_2856_loss_3.9156_acc10.83_acc20.83.pt (torch, 437010 bytes, 211 tensors)

conv1.weight f4 [16, 1, 3, 3]
000000 b0 ef 88 3e b7 4b 57 bd fe a8 89 be 20 4b b2 3e
       0.26745367 -0.05256244 -0.26886743 0.3482294
000010 9c 71 f2 bd d4 ac ac be ff 40 67 3e ab 39 53 3e
       -0.118380755 -0.33725607 0.22583388 0.20627467
000020 51 84 8a be 57 cb a4 3e 16 c1 fb be 62 58 d0 be
       -0.27054074 0.32186386 -0.4917075 -0.4069243
000030 9d 7a 83 3e c9 92 93 be ad 76 da 3d f0 0d dd 3d
       0.25679484 -0.28822926 0.10667167 0.10793674
000040 d2 33 30 3e ee 74 86 3d 42 74 89 be d2 7a cb 3e
       0.17207268 0.06565271 -0.2684651 0.39742142
000050 a1 b8 40 3e 2c 27 63 be 18 95 b2 3e d4 3b 54 3d
       0.1882043 -0.22182912 0.34879375 0.05181487
000060 11 79 01 bf 63 64 2e 3e ec 1d 47 be 2f 2d 8d be
       -0.5057536 0.17030482 -0.19445008 -0.27573535
000070 3d d6 e4 bd 85 1f af 3e d5 a4 b1 be 20 60 c1 3d
       -0.11173675 0.34203735 -0.3469607 0.094421625
000080 d8 4d 44 3e 43 c0 be 3e f8 81 81 3d 22 73 fa be
       0.1917032 0.3725606 0.06323618 -0.48915964
000090 61 26 68 be 57 4c 5c be c3 7f 24 be 9f 36 60 be
       -0.2267089 -0.21513496 -0.16064362 -0.21895836
0000a0 7a 28 36 3e b2 2f 92 3e aa 2f b4 bc 12 ac fa bc
       0.17788878 0.28552014 -0.021995384 -0.030599628
0000b0 6b 41 4c be 15 27 9b bd 6f 71 b1 3d 12 25 a7 bd
       -0.1994683 -0.07575814 0.08664214 -0.081613675
0000c0 17 bb 53 bf d2 79 9a 3e bf f2 eb 3e cf 0a 80 be
       -0.8270735 0.30171067 0.46083638 -0.25008246
0000d0 6a c5 99 3e 43 7f 46 bd 76 ef 9a 3e 83 87 a7 ba
       0.30033427 -0.04846121 0.3026082 -0.0012781475
0000e0 57 e4 e1 bd 04 45 c9 bd cd 84 4d 3e 87 43 be be
       -0.110298805 -0.09827617 0.2007019 -0.37160894
0000f0 7e ba ec bd 1f 86 09 3e eb 2f 6a be 39 80 5e 3b
       -0.11559008 0.1343007 -0.22869842 0.0033950938
000100 a3 d3 75 3c 23 12 82 3e 9d 65 dd be b9 43 1f be
       0.015004071 0.25404462 -0.43241587 -0.15553178
000110 71 3f e6 bd 07 99 f2 3d 68 e0 72 bd af 42 0c 3f
       -0.11242569 0.11845594 -0.05929604 0.5478925
000120 89 5d ab be ac 9f 0d 3e 66 63 92 be 0f 1e c0 be
       -0.334698 0.13830441 -0.2859146 -0.37522933
000130 59 90 d5 3e 7f f2 c3 3e 61 6b 1f be 58 47 dc 3e
       0.4171169 0.38270947 -0.15568306 0.4302318
000140 ec 89 11 3e c0 60 26 bf 67 e5 c1 3d 71 66 05 3f
       0.1421277 -0.6499138 0.09467583 0.5210944
000150 9c 6d 7c 3c b4 9a 64 be d4 93 4c 3e cf 4f b6 be
       0.015406992 -0.2232464 0.19978267 -0.35607764
000160 d4 3f 3b bc 36 96 9b 3e 92 64 fc be 16 31 26 3d
       -0.011428792 0.3038804 -0.4929548 0.040574156
000170 9f 0b 9f 3e ac 2e 6c be 11 4e 5b be 00 94 9d 3e
       0.31063554 -0.23064679 -0.21416499 0.30776978
000180 0f ac ca 3d 04 cf f1 bd 53 e0 84 bc 69 f5 03 3e
       0.09896099 -0.11807063 -0.016220247 0.12886585
000190 35 cb cb 3e 08 74 18 be 81 f2 5b 3e 1e 78 bc 3e
       0.39803472 -0.14888012 0.21479227 0.36810392
0001a0 84 65 3b be 75 be ad 3e d6 a0 9e 3d c8 dd b4 bd
       -0.18300444 0.3393437 0.07745521 -0.08831364
0001b0 24 60 08 3e 51 0f 0f 3e bd cd fd 3c 5c 94 df bd
       0.13317925 0.13970686 0.030981893 -0.10916969
0001c0 d7 27 2d be 13 f0 cb be b5 62 8d 3e a4 67 a8 3e
       -0.16909729 -0.398316 0.2761437 0.32891572
0001d0 19 44 3a be 65 bc 60 3e 0b 92 01 be 42 4f 98 be
       -0.1819004 0.21946867 -0.12653367 -0.2974797
0001e0 e5 34 a6 3e 22 50 94 3e 06 02 e4 3d f5 7d 41 be
       0.3246223 0.28967386 0.111331984 -0.18895705
0001f0 67 de 5f 3e 65 57 ed be 92 68 a5 3e fd ee 33 3e
       0.21862184 -0.4635574 0.32306343 0.17571636
000200 b8 95 09 be 6c 94 cc 3e 61 03 91 be 09 c8 2d 3c
       -0.1343602 0.39956987 -0.2832289 0.010606774
000210 00 ff 5f 3e 65 d9 91 be 78 b7 d1 be ff 7f 15 be
       0.21874619 -0.2848617 -0.40960288 -0.14599608
000220 0b ef 0e bd b2 07 9b 3e 5b 3b 04 be 6b e9 4f 3d
       -0.034895938 0.3027931 -0.12913267 0.050759714
000230 ad f3 ba 3e a2 27 04 bf 50 fe 7a be c1 e6 0a 3f
       0.36514035 -0.51622975 -0.24511075 0.5425835

conv1.bias f4 [16]
000000 24 50 45 3b ad 47 bd 3d 91 88 42 bd 0c 68 de bc
       0.0030107582 0.09242187 -0.04749352 -0.027149223
000010 38 83 4a be e5 5e e6 bd 4e 10 11 3e 98 12 06 3c
       -0.19776618 -0.112485684 0.14166376 0.008183144
000020 ba 79 01 3c 50 2a 54 3d 49 b8 0d bd 8b d5 66 be
       0.007902557 0.051798165 -0.034599576 -0.22542398
000030 7b 6c b0 3d 9a c5 2d bd f8 1f e8 bc 66 c7 00 be
       0.08614441 -0.042424776 -0.028335556 -0.12576064

conv2.weight f4 [16, 16, 3, 3]
000000 83 78 24 be 58 8b 2e bd a6 44 3e bc c7 c1 01 be
       -0.16061597 -0.042613357 -0.011613047 -0.12671576
000010 8a 14 59 be 88 bf 77 be e3 8a 7f bd bf 63 0c 3d
       -0.21199241 -0.24194157 -0.062388312 0.034274813
000020 6c 21 ec bd fa 66 8b 3a ee 12 38 bd 2c 08 94 3c
       -0.11529812 0.0010635548 -0.044939928 0.018070303
000030 39 de 98 bd 92 4a 00 3d 6c 90 eb bd 29 c7 cc bd
       -0.074642606 0.031321116 -0.11502156 -0.09998924
000040 64 07 be bc 25 9e 96 be 67 ca 98 3c 38 7c 8c be
       -0.023196883 -0.2941753 0.0186512 -0.2743852
000050 a0 d7 80 bd 22 1a 6d 3e 02 02 93 be 49 ff 62 bd
       -0.06291127 0.231545 -0.2871247 -0.05541924
000060 9d 73 99 3e ea 63 7a be ce ef 14 be 08 8f 09 be
       0.29971018 -0.24452177 -0.14544603 -0.13433468
000070 b2 e9 9d 3d fb af 2e 3e d8 72 37 bd ce bf 16 3e
       0.077105895 0.17059319 -0.044787258 0.14721605
000080 95 ee b1 3e cf 2b cc 3e d1 c8 f4 3e b0 f6 0a 3f
       0.34752336 0.39877173 0.4780946 0.54282665
000090 24 99 12 bc 72 14 03 bc d4 8c 35 be 81 f1 6f bd
       -0.008947644 -0.00800048 -0.17729503 -0.058579925
0000a0 3c 5e 16 be d7 17 82 be fb 51 0c 3b 67 04 13 be
       -0.14684385 -0.25408813 0.002141117 -0.14357148
0000b0 37 21 e0 bd 86 b5 84 3e 80 e4 33 bd 7d ce c1 3e
       -0.10943835 0.2591974 -0.043919086 0.3785285
0000c0 a6 19 8a 3e f3 41 cd bd 85 89 a5 3e ef 63 04 3f
       0.26972693 -0.100223444 0.32331482 0.51714987
0000d0 7d 54 ad 3d b0 48 dc 3e 50 6b a6 3d b2 08 07 be
       0.084633805 0.43024206 0.08125937 -0.13186911
0000e0 40 16 11 be 61 ee d0 3b e3 a3 b5 bd e0 d6 46 be
       -0.14168644 0.006376073 -0.088691495 -0.19417906
0000f0 5a c8 1f bd 23 c7 b6 bd 84 95 6d bd 64 dc 67 3e
       -0.03900943 -0.08924701 -0.058003917 0.22642666
000100 92 a1 0f 3e 42 df b0 bd 97 b1 5c 3e c1 29 90 ba
       0.14026478 -0.08636333 0.2155212 -0.0010998772
000110 dc d8 80 be 91 7e e8 bc 62 08 c6 bc 59 51 7f be
       -0.2516545 -0.028380664 -0.02417392 -0.24933375
000120 35 67 0b 3e f1 54 1a be e1 fb 92 3b eb 3e 6e 3e
       0.13613589 -0.15071465 0.0044855927 0.23266189
000130 bd 05 3e be 69 5f 82 bd 34 8b c1 3d 4c 2e 27 be
       -0.18556876 -0.06365854 0.09450379 -0.16326255
000140 9f 4c 17 be ae 8b e4 3c 1c f4 6f 3e ae 92 78 3e
       -0.14775322 0.027898636 0.23432964 0.24274704
000150 c0 c8 60 3e 6b 86 ad 3e 6d 6d b5 3e 5a 98 94 3e
       0.2195158 0.33891615 0.35435048 0.29022485
000160 4b e6 27 3e 81 30 9d 3e 1e 94 32 3d 59 81 0d bc
       0.16396444 0.30701068 0.043598287 -0.008636796
000170 89 7e 34 bc 76 e2 e4 bb bf 6d 26 bd 78 02 05 3e
       -0.011016496 -0.006985004 -0.040632006 0.12989223
000180 11 fb c8 bd 71 18 13 be 37 33 aa 3d 4e ee f3 bd
       -0.09813512 -0.14364792 0.0831055 -0.119106874
000190 cf 3d 50 be c6 d0 52 be 35 e9 24 be 4f c1 86 be
       -0.20336078 -0.20587453 -0.16104586 -0.26319358
0001a0 6d 60 a6 be 53 f4 f0 bd dd 26 c6 bd 70 5f 82 be
       -0.32495442 -0.11765351 -0.09675381 -0.25463438
0001b0 78 0c b8 bd d5 7d b6 bd 7b 8f 34 be 5a f1 bd bb
       -0.08986753 -0.08910719 -0.17632858 -0.0057965936
0001c0 ea 1f ce bd 1f 82 30 be 7e e0 9c 3c 1a c9 4a 3d
       -0.10064681 -0.17237137 0.019150015 0.04950819
0001d0 c3 98 8b bd dc 1c b6 3d 3a 4f f6 bd aa ba 3d bd
       -0.06816246 0.08892223 -0.1202683 -0.046320595
0001e0 5a c7 ba 3c 16 1e 27 be 17 c5 0c be 13 96 c6 3d
       0.022800136 -0.1632007 -0.13747059 0.09696593
0001f0 85 9a 1b bc f4 80 45 be 97 6f 60 be b3 87 7f be
       -0.00949729 -0.19287473 -0.21917568 -0.24954109
000200 9d d9 30 be 5a d2 82 be ff 02 09 be 01 dd 75 3b
       -0.17270513 -0.2555111 -0.13380049 0.0037515762
000210 74 70 92 bd 4b 65 9c 3d af 06 f5 bc d1 95 0b 3c
       -0.07150355 0.076365076 -0.029910414 0.008519606
000220 04 03 c0 bb fa 9f 73 3d 02 91 81 bd 59 ea e7 3c
       -0.0058597345 0.059478737 -0.06326486 0.028309988
000230 cd e2 eb 3d 89 4d c6 3d 40 b3 05 bd cf 98 97 3d
       0.11517868 0.096827574 -0.03264165 0.07402193
000240 68 a3 6a 3e 5b ea 63 3d 99 6f 43 3e d7 c7 bf 3d
       0.22913897 0.05564342 0.1908554 0.09364288
000250 c1 57 1f 3e 4f d0 04 3e 81 a2 55 3d 46 83 a3 3d
       0.15560819 0.12970088 0.05215693 0.07984023
000260 c4 ff 6d 3d 34 86 90 3e c4 c5 15 be cc ac 91 3e
       0.058105245 0.2822739 -0.14626223 0.28452146
000270 4b e8 9b 3d 49 c5 04 be 98 0b e9 3d 03 e7 80 3e
       0.07612666 -0.12965883 0.113791645 0.25176248
000280 5c 0a 22 be db e6 b6 3c 2c 7b 19 be ab 53 23 3f
       -0.15824264 0.022326877 -0.14988393 0.6379954
000290 8d 43 84 3b 55 98 0f bf ed bd 27 3e f1 bf 8b bd
       0.004036373 -0.56091815 0.16381045 -0.06823719
0002a0 30 5d 07 bf 28 68 4c 3e a1 44 32 be c8 ae bf be
       -0.5287657 0.19961607 -0.17408992 -0.37438035
0002b0 9b 14 66 be eb c6 13 bd 1c 95 40 bd 0e e1 06 3e
       -0.22468798 -0.036078375 -0.0470172 0.13171789
0002c0 4a 72 93 3e 7f 35 a6 3c 73 33 1b 3e bc 81 3d 3e
       0.28798133 0.02028918 0.15156345 0.18506521
0002d0 d8 51 1d 3e 57 cd 43 3e 11 fa 2f 3e 7a fe 07 3d
       0.15363252 0.191213 0.17185237 0.033201672
0002e0 ad 18 cd 3d 41 98 b6 bc cc 3d 47 3d 58 b3 e2 3d
       0.10014472 -0.022289397 0.04864292 0.11069363
0002f0 0a 9f 9f 3c e8 7b bf be ad c0 95 3e 70 e3 f3 bc
       0.019485015 -0.3739922 0.29248562 -0.029771537
000300 92 c7 e1 be 05 81 d8 3d fa 92 a6 bd a9 47 03 bf
       -0.44097573 0.105714835 -0.08133502 -0.5128122
000310 08 96 93 3e ad 38 90 3c 44 57 1b bd cb 1f 09 3e
       0.28825402 0.01760515 -0.03792502 0.13391034
000320 68 c8 b0 bd ab cb 91 3d 2e bb b1 3d 4c cf 9e 3d
       -0.086319745 0.07118925 0.0867828 0.077543825
000330 fb 1f b9 3d 5c 3a 2a 3e 79 60 13 3e f5 35 95 3e
       0.09039303 0.16623825 0.1439227 0.29142728
000340 fe 2e c8 3d 40 d7 28 3d df 2d d2 3a a4 cf bd bc
       0.09774588 0.041220903 0.0016035399 -0.0231703
000350 f0 cd 51 3c 9d 70 04 3d 07 a0 60 3c bd 9d 4f be
       0.012805447 0.03233396 0.0137100285 -0.20275016
000360 be 90 fe be fb 56 32 3e 81 8d 2b be d5 6f c7 be
       -0.49719805 0.17415993 -0.16753198 -0.3895251
000370 81 39 25 3e 61 85 c5 bc 63 ad 0b bf c6 34 9c 3e
       0.16135217 -0.024111452 -0.5456144 0.30509013
000380 bb a6 18 3e f4 74 f8 bb f5 44 8b bd be 3a 18 bd
       0.14907353 -0.0075823013 -0.06800262 -0.037165396
000390 81 1a 0a be 24 83 9f bd f1 31 17 3e 77 cd 04 be
       -0.13486673 -0.07788685 0.14765145 -0.12969004
0003a0 b1 74 11 3e c5 da 0c 3e 60 c1 56 3e 2d 28 03 be
       0.1420467 0.13755329 0.20972204 -0.12808295
0003b0 aa 52 db 3c 10 96 6b bd cc 51 85 bb 0a c6 42 bd
       0.026772816 -0.057516158 -0.004068589 -0.047552146
0003c0 a1 91 d1 bc f7 47 f4 bd 8e f9 8b 3d 15 18 85 be
       -0.025582137 -0.11927789 0.06834708 -0.25994936
0003d0 d2 04 52 bd 9a 91 6b 3e 72 71 c8 bd 97 35 7b bd
       -0.05127413 0.23004761 -0.09787263 -0.061330404
0003e0 e2 33 1a 3e 58 fb 8f bd 49 80 1e 3d 39 f1 44 3e
       0.15058854 -0.07030362 0.03869656 0.19232644
0003f0 61 51 7a 3d c8 df 90 bd 06 78 be bd 2e a7 62 bd
       0.061112765 -0.07073933 -0.093002364 -0.055335216

conv2.bias f4 [16]
000000 37 20 4f bd d5 28 2f be d2 a0 2b 3d 2d fa b4 bd
       -0.05056783 -0.1710542 0.041901417 -0.0883678
000010 42 73 1f be ce 8b 95 be 2b 25 54 be ae 63 55 bd
       -0.15571311 -0.29208225 -0.20717303 -0.052097015
000020 73 01 69 bd a3 03 c9 bd f2 71 a2 bd 49 82 c5 b9
       -0.056886148 -0.09815147 -0.079318896 -0.00037671838
000030 f0 97 e1 bc 23 20 0b be d3 65 24 3d ba 85 0f be
       -0.02753827 -0.13586478 0.04013617 -0.14015856

conv3.weight f4 [16, 16, 8, 1]
000000 16 50 12 be e6 30 df bd e6 96 07 bd b5 72 c2 bc
       -0.14288363 -0.108979985 -0.033102892 -0.023736337
000010 90 8e 2a be 05 d3 ac be 21 b5 51 be 9d 1f 17 3e
       -0.16655946 -0.33754745 -0.20479251 0.14758153
000020 f8 4e 46 3e 84 23 0c 3e 3c 70 6d 3e cd d5 d8 3d
       0.19366062 0.13685423 0.23187345 0.10587654
000030 16 c4 66 3e a2 75 b3 3e 1f df 73 be cf f5 ab be
       0.22535738 0.35050684 -0.23815583 -0.33585975
000040 bd ad d6 3d b9 3d 40 3e 82 ae 92 3e f4 00 8a 3e
       0.10482357 0.18773545 0.28648764 0.26953852
000050 66 37 d0 3d 40 5e e1 3d d8 3a 70 be 3c c7 3b be
       0.101668164 0.11004305 -0.23459947 -0.1833772
000060 70 0d 3c be 15 56 57 3d 19 4e 03 be 94 33 5a bd
       -0.18364501 0.05257233 -0.1282276 -0.053271845
000070 02 b4 22 bd f2 dc 95 be 39 24 83 3c 81 83 2c be
       -0.03972245 -0.2927013 0.016008483 -0.1684704
000080 b1 a5 5a bc 89 93 8b bc b3 60 14 3d 71 39 84 3d
       -0.013345168 -0.017038124 0.036225032 0.064562686
000090 91 a5 ce 3d fc 3a 52 3e bb 4e a5 3d 9e 6f 96 3d
       0.10090173 0.20530313 0.08071657 0.07345508
0000a0 f0 58 ab be dd 8c b5 bb 74 bc 65 3b b3 ed 31 3c
       -0.3346629 -0.005540474 0.0035054954 0.010859895
0000b0 96 c6 9e bd ac 92 ac bd 1e 9f 02 bf c3 ff 1d bd
       -0.07752721 -0.08426413 -0.51024044 -0.03857399
0000c0 10 7f 8c 3d af 6f a4 3d d5 8c e6 bc 91 9f ec bd
       0.06860173 0.080291145 -0.028143326 -0.115538724
0000d0 26 0e f3 3b e3 7e 75 3d 98 ec d9 bd bf 9b a7 bd
       0.007417458 0.05993546 -0.1064083 -0.08184003
0000e0 1d 9b ee 3d 38 16 9f bc ad fa 0d 3e 7e 1d 12 bc
       0.11650679 -0.019419774 0.13865156 -0.008918164
0000f0 0a b4 3a 3a 25 64 33 be 24 85 0c 3e bf a2 b0 bc
       0.0007122165 -0.17518671 0.13722664 -0.021561978
000100 dd 87 9e 3d 10 bd b8 ba db 76 06 3e 91 0b f0 3d
       0.077407576 -0.0014094431 0.13131277 0.11720956
000110 8f 6f c1 bd e1 b6 db bc ba 71 32 3f d4 54 3a be
       -0.09445106 -0.026820602 0.6970478 -0.18196422
000120 d5 3c 07 be dd 07 c0 bd 80 5d f7 3b 99 10 a1 bd
       -0.132068 -0.093765 0.007548988 -0.07864494
000130 d8 8a 8b 3c 05 9c 0b bd 3b ef 9a be ae 6d 97 3e
       0.01703398 -0.03408434 -0.30260643 0.29575866
000140 bd e3 53 3e 1d 20 7a 3d e8 3a a4 bb a8 c1 dc bd
       0.20692344 0.06106578 -0.005011905 -0.107791245
000150 6a 49 91 bd e3 73 8b bd da 79 a3 3e d8 4f f9 bd
       -0.07094081 -0.06809213 0.31928903 -0.12173432
000160 b1 f3 42 be 9e 85 22 bc 5a 84 ac bb 6d 2c cd bd
       -0.19038273 -0.009919552 -0.005264801 -0.10018239
000170 3c e8 0e 3e 9e ca c5 be 59 75 38 bf 3d 23 21 3e
       0.13955778 -0.38631147 -0.7205406 0.15736099
000180 5c 6d 4c bd 12 a1 3e be 83 ee 3e be e4 9f aa bd
       -0.04990898 -0.18616131 -0.18645673 -0.08331278
000190 d8 2b d7 bd bf 56 9b be e7 9d 0b bd 89 18 10 3e
       -0.105064094 -0.3033962 -0.034086134 0.1407186
0001a0 40 5c 50 3b 85 3a f9 3d 3a d2 59 3e d1 1b 1c 3e
       0.0031793267 0.12169365 0.21271601 0.15244986
0001b0 d2 e9 83 bc a9 46 68 3e ad ac c4 3e 18 3f 91 be
       -0.016102705 0.22683205 0.3841299 -0.2836845
0001c0 7b 86 7a 3e 9e 8f 38 3e 0d 58 18 3e ce f6 30 3e
       0.24465363 0.18023536 0.14877339 0.17281649
0001d0 c1 81 91 bc 07 e0 80 3d dc 49 82 bd 98 a6 31 3d
       -0.017762067 0.0629273 -0.06361744 0.043371767
0001e0 24 dc 25 be 65 12 33 be 04 5a 57 bd 97 c3 46 be
       -0.16197258 -0.17487486 -0.05257608 -0.19410549
0001f0 02 85 5c be 97 4a 91 bd de b2 8b 3c 52 0f a7 bd
       -0.21535113 -0.07094305 0.017053064 -0.08157219
000200 73 57 4b bd 16 77 11 bd e1 e3 28 bd 96 e9 96 3d
       -0.049643945 -0.03551396 -0.041232947 0.07368772
000210 c1 bc c5 3c 18 06 5c bc ca 28 a6 3e 42 cd 7d 3d
       0.024137856 -0.013429187 0.32452995 0.061963327
000220 f3 0a 6a 3b b3 66 93 3d 13 40 ca 3d 02 e5 9a 3d
       0.0035712093 0.07197323 0.098755024 0.07563211
000230 ff 9f 11 3e 27 a6 af 3e 32 b0 80 be 91 bf fe bd
       0.1422119 0.34306452 -0.25134426 -0.12438882
000240 c0 4d 8d 3b 9b 3e 28 bd 7e d6 9c 3d 83 65 ad 3d
       0.004312247 -0.04107533 0.07658099 0.084666274
000250 73 c5 ab bd 6b ba 0b 3e 4b b0 35 be c7 10 3e bd
       -0.0838727 0.13645332 -0.17743032 -0.04640272
000260 d0 bb f1 3d 33 8f ec 3d ea e5 5e bd e6 6e d4 bd
       0.118034005 0.115507506 -0.054418482 -0.10372715
000270 4a f9 4f be 91 7e 9f be 4f d9 0f be 9b 3b d3 be
       -0.2030994 -0.3115125 -0.1404774 -0.41256413
000280 22 6a 4c bd d1 1f 26 3c c5 00 57 bd 16 da 7a bc
       -0.049905904 0.010139422 -0.05249097 -0.015310785
000290 89 24 ef bd e4 39 e8 3d a6 c5 92 be 03 b9 72 bd
       -0.116768904 0.11339167 -0.2866642 -0.059258472
0002a0 47 ec 80 bc 89 a3 ae bc 25 e3 7d bd 8c 8c 11 be
       -0.015737666 -0.021318214 -0.0619842 -0.1421377
0002b0 10 b3 48 bd 80 a8 06 be 41 dd 12 bf 4d 4e e0 bd
       -0.048998892 -0.13150215 -0.57368857 -0.10952435
0002c0 84 62 ef bd ed d4 00 bd 5a 04 bf bd 70 21 26 bd
       -0.11688712 -0.03145306 -0.09327002 -0.040559232
0002d0 bc f3 44 3d eb 5d d1 3d 1a ed 31 3e 01 fc fc bc
       0.048084006 0.102229916 0.17375603 -0.030881884
0002e0 39 45 ba 3d 9a cf 5f 3d 69 16 2b 3d 2b 9b 23 3e
       0.090952344 0.054641344 0.04176942 0.1597716
0002f0 28 4b cd 3d 91 93 91 3e a8 2a 66 3e bf 93 f6 bc
       0.100241005 0.28432897 0.2247721 -0.030099748
000300 5f 4b 3f bd 6e 96 a8 3d 74 d8 29 3e 19 62 f5 3d
       -0.04670274 0.08231817 0.16586477 0.11981601
000310 a4 6b df 3d 7f ee 0a 3e ce c6 27 3f 85 1e 2f be
       0.10909203 0.13567542 0.65537727 -0.17101486
000320 f4 31 98 bc 03 fd 6f 3c 1a 6a 89 3d b1 8d fa bc
       -0.018578507 0.014647725 0.067096904 -0.030585142
000330 a4 29 8f 3d 81 af 3a 3e 37 84 77 be 91 80 d8 3e
       0.06990364 0.18231012 -0.2417153 0.42285588
000340 97 26 ef 3b ff 8e 82 bd 35 8b b7 bd cd e0 98 bd
       0.0072983014 -0.063749306 -0.089620985 -0.07464752
000350 51 9a a8 bd a4 4c 73 be b6 f8 ea 3e a2 b2 c5 be
       -0.082325585 -0.23759705 0.45892876 -0.3861285
000360 b0 3e d0 3d e6 07 0f 3e 70 8d c7 3d 9d 04 fc 3d
       0.10168207 0.13967857 0.09743774 0.123055674
000370 21 d9 8e 3d da 7f 4c 3d 0c 9a 0d be d7 06 b1 3d
       0.06975008 0.049926616 -0.13828295 0.08643883
000380 44 dd b4 bc 8d d8 13 bd e2 8e 28 bc 77 14 0c bd
       -0.022078164 -0.03609519 -0.010287972 -0.034199204
000390 a2 18 a4 bd 74 02 00 3b 68 fd b6 bd d4 b2 42 3e
       -0.08012511 0.0019532712 -0.08935052 0.1901353
0003a0 8f 60 94 3c 1e ce 59 3d 40 63 75 3d 92 23 0b 3d
       0.018112449 0.053175084 0.059909105 0.03396947
0003b0 d8 ee d0 3d 02 91 cd bd 88 83 cd 3d ed 35 9f be
       0.10201806 -0.10037424 0.10034853 -0.3109583
0003c0 98 9f 87 3d 5c dd 31 bd 74 88 0d bd 6f bf d5 3d
       0.06622237 -0.043423995 -0.03455396 0.10436904
0003d0 7b c3 ad bd 52 c8 80 3c 0a 5e 8f be ce 64 4c 3e
       -0.084845506 0.01572052 -0.28001434 0.19960329
0003e0 75 cc 41 bc b7 08 e5 ba aa b2 a6 3d b9 4d 9f 3d
       -0.0118285315 -0.0017473911 0.08139546 0.07778496
0003f0 45 41 0c bd 84 1f 55 3e dc 31 33 3e fd f1 c0 3e
       -0.034241933 0.20812804 0.17499489 0.37684622

conv3.bias f4 [16]
000000 cc 87 ab bc ee 2f c5 3d 0c 6b b3 3d ea 20 33 bd
       -0.020938776 0.096282825 0.08760652 -0.04373256
000010 bf 94 1e 3b 1e 6f 80 3e f0 b8 16 3e 35 a0 e6 3d
       0.0024197546 0.25084776 0.14718986 0.11261026
000020 22 02 27 bd 46 a5 ae be 70 83 88 3e f9 ef c2 3e
       -0.04077352 -0.3411047 0.2666278 0.3807371
000030 42 e4 b2 bc 48 c8 19 3d 97 bf 77 3e 39 8a f1 bc
       -0.021837357 0.03754452 0.2419418 -0.029484855

tcn.tcn.0.conv1.weight f4 [16, 16, 5]
000000 48 db b2 3d 6c e8 d6 3d d6 08 3f 3d bd 1e 49 bd
       0.08733231 0.1049355 0.046639286 -0.04910158
000010 03 02 3e be e4 6f 89 3d 0a f0 38 3d 17 c3 77 3d
       -0.18555455 0.067107946 0.045150794 0.060488787
000020 f9 8f d6 bc 1f 66 cc be 84 43 c1 3d ed 22 62 3d
       -0.026191698 -0.39921662 0.09436706 0.05520909
000030 9a 92 41 3e 71 ec aa bd 4b e4 ac bd 45 2f 1e 3e
       0.1890358 -0.08345879 -0.08441981 0.1544772
000040 d9 2f 10 3e 61 b1 e7 3d a5 9b a0 3d 99 a4 7c 3e
       0.14080752 0.11313129 0.07842187 0.24672164
000050 3d 89 1f 3e 8b f5 2d bc 89 2b 90 3e 17 87 0b 3e
       0.15579696 -0.010617624 0.28158215 0.13625751
000060 e2 57 f9 bd 7c 1d 33 be db 0c 0d 3e d5 e9 38 3e
       -0.121749654 -0.17491716 0.13774435 0.1805795
000070 d4 8a 46 bb df 4b 4b 3e 89 15 a6 bd 61 f2 69 bc
       -0.003029515 0.19853161 -0.08109576 -0.014278979
000080 aa f8 1b be 8d a3 96 bd 3d 36 94 3d f0 02 0c be
       -0.15231577 -0.073554136 0.07236908 -0.13672996
000090 47 45 07 be e9 71 11 be 7a 80 c8 bc 43 ff 2d be
       -0.13210021 -0.1420361 -0.024475325 -0.16991906
0000a0 69 26 e2 bd cb 4e ed 3c f2 da 68 bd 1a 53 28 be
       -0.110424824 0.028968235 -0.056849428 -0.1643795
0000b0 68 8d 2a be 7e 38 4a be 39 e9 31 be 1b 46 54 be
       -0.16655505 -0.19748113 -0.17374124 -0.20729868
0000c0 19 7a 7a be 04 73 ac bd f1 40 0a be e9 a3 d0 ba
       -0.24460639 -0.08420375 -0.13501336 -0.001591799
0000d0 f1 1c cc bd 12 08 96 be d6 84 07 be ee ed 7e bd
       -0.09966458 -0.29303032 -0.13234267 -0.062238626
0000e0 d4 3e 2b bd 7d b0 27 bd d8 b5 c6 bd 27 28 1c bd
       -0.041807964 -0.040939797 -0.09702653 -0.03812423
0000f0 8e e4 a9 3d 5d 63 f7 3c 3c c6 6d 3e 61 d3 bc bd
       0.082955465 0.030198747 0.23220152 -0.09220005
000100 c8 1a 38 be f5 5f 1e be 6c cf c5 bd 87 68 ff bd
       -0.17978966 -0.15466292 -0.09658703 -0.12471109
000110 69 2d bf bd f8 6e 17 be 43 3b d3 bd c1 a7 6f 3d
       -0.09334833 -0.14788425 -0.10314038 0.058509592
000120 2a 58 ea 3c 52 da 0d 3d ee 1d e5 3d 29 da d3 bb
       0.028606493 0.034632035 0.11187349 -0.0064652157
000130 25 6d 12 be 0b d7 5c 3d b4 8a 82 bd 0d 64 00 be
       -0.14299448 0.05391602 -0.06374112 -0.12538166
000140 6c 58 84 3e c0 9d bc 3e 34 3a ab 3d 04 b8 3a 3e
       0.2584871 0.36839104 0.08360711 0.18234259
000150 a1 53 13 3e bb 1b 2f 3e 17 5c b4 3e 70 11 52 3c
       0.1438737 0.17100422 0.3522651 0.01282154
000160 16 8c 3f 3e ae 04 8c 3e 51 d5 aa 3c 79 1d b0 3e
       0.18705782 0.2734732 0.02085367 0.34397486
000170 91 36 91 3e 03 45 81 3e 35 9b d2 3e 3e 90 86 bd
       0.28361943 0.25247964 0.4113404 -0.06570481
000180 d8 7a 48 bd 08 cf 94 be 03 2f 6f 3d 6d 43 98 bc
       -0.048945278 -0.29064202 0.058394443 -0.018586839
000190 f9 f3 d4 be 39 64 9e be 1e 74 82 bc 1a a4 0d bc
       -0.41592386 -0.3093584 -0.01592451 -0.008645082
0001a0 a1 33 bd 3d e0 4e 2e 3e 8d 7c 0d 3e 47 1e e1 3d
       0.09238363 0.17022276 0.13817044 0.10992103
0001b0 b3 5f 8f 3d 98 d7 6d 3d b9 60 8c be 7e bd 61 be
       0.07000675 0.058066934 -0.27417544 -0.22044942
0001c0 47 fe 6c bb bb 50 26 3d 92 7e 18 3d 4e 33 b2 bc
       -0.0036162303 0.040604334 0.03723008 -0.02175298
0001d0 b5 67 56 bc 1d 85 ab 3d 68 34 6f 3e e3 33 58 3e
       -0.013086249 0.08374999 0.23359835 0.21113543
0001e0 f6 cf 52 3d cb 33 51 3e 1d 77 83 3c d4 2b 4d 3e
       0.05146786 0.20429914 0.016048009 0.2003625
0001f0 66 9f 6e 3d 6e c8 dd bc fd a1 2c be ea d8 5b be
       0.058257483 -0.027073111 -0.16858669 -0.21469465
000200 d2 c2 3b be fb 07 cf bc ed 90 82 3d 28 28 b4 3c
       -0.18336037 -0.02527236 0.06375299 0.021991804
000210 6c 86 95 3d 4f fa 0d 3e eb d8 03 3e 63 a7 b1 3d
       0.073010296 0.13865016 0.12875716 0.086745046
000220 95 43 8c 3e e6 a4 18 3e e7 76 d4 3d d7 6f 2b 3e
       0.2739531 0.14906654 0.10374241 0.16741882
000230 3c 43 10 be cc 4a c1 bd 13 f3 00 3c 03 7d 84 bd
       -0.14088148 -0.094380945 0.007870453 -0.064691566
000240 64 66 cf 3d ea a9 b7 bd c2 37 83 3c 37 a1 64 3d
       0.10126951 -0.089679554 0.016017798 0.05581781
000250 b2 30 c1 3d e4 bd 3e 3e 59 70 3e 3e c8 02 61 bc
       0.09433116 0.18627125 0.18597545 -0.013733573
000260 ad 2b 67 3d e2 ac 3a bd 32 90 17 be 2e b9 e8 3d
       0.056438137 -0.04557503 -0.148011 0.11363445
000270 fb eb 21 3e e9 d6 e2 bd fe 86 07 be f5 b7 3d 3e
       0.15812676 -0.11076147 -0.13235089 0.18527205
000280 27 ff ec bc 39 c0 c0 3d 38 a2 47 bd 87 72 88 bd
       -0.02893026 0.094116636 -0.04873869 -0.06662469
000290 ec 34 62 be 47 fe 56 3e 70 0c b0 3d 11 2a eb 3d
       -0.220905 0.20995437 0.08596122 0.11482633
0002a0 4a 50 b7 bd 73 35 45 be 92 b0 18 3e 40 07 cd 3c
       -0.08950861 -0.1925867 0.14911106 0.025027871
0002b0 db b5 07 3d 5b ad d3 bb 0c 0b 64 be 70 fd cc bd
       0.033132415 -0.0064598746 -0.22269839 -0.10009277
0002c0 a2 f6 b0 3c 5a 7e fc bd 24 09 76 be 94 6d b2 bd
       0.021601979 -0.12328787 -0.24026924 -0.087123066
0002d0 00 93 74 bd d2 fc 25 be ee 63 09 be 9f 0f 54 bc
       -0.059710503 -0.16209725 -0.13417026 -0.0129431775
0002e0 d0 9b 3b bd 74 72 fe 3d d1 12 6f 3e b3 31 51 3d
       -0.04580289 0.12424174 0.23347022 0.051072787
0002f0 b5 17 1d be 2f 79 8c bd 6c 9e 1a 3d 3c e0 fd 3b
       -0.15341075 -0.068590514 0.03774874 0.007747678
000300 f5 67 41 bd ea 1a 10 bd 0c 3e 5c 3e ac 6f eb 3c
       -0.04721828 -0.035181917 0.21508044 0.028739773
000310 8c 9e 4f be 19 9f 40 bd 98 f7 1d bc 59 df a8 bc
       -0.20275325 -0.047026727 -0.0096415505 -0.020614313
000320 0f 4b 43 3d ff 40 bc bd 5b bb c0 bd a4 0e 11 be
       0.047679003 -0.091920845 -0.09410735 -0.14165741
000330 da 15 c1 bd f9 06 1b bd bb 79 6c bd 29 33 34 3e
       -0.09427996 -0.037848447 -0.05773328 0.17597641
000340 c5 26 7b 3e 97 ae 5b 3c d5 cc fd 3d 62 c2 e8 bc
       0.24526508 0.013408325 0.12392584 -0.028413001
000350 a4 bb 15 be 6b a7 be bd a7 39 24 be 20 66 c1 bd
       -0.1462236 -0.09309276 -0.16037618 -0.09443307
000360 7a 74 b7 bb 61 96 1b 3e 3e 22 2e 3e 8d 6b a1 bd
       -0.005598602 0.15194084 0.1700525 -0.07881842
000370 30 62 50 be db 4f 7d be 26 bb 93 bc bf ef 8e 3d
       -0.20349956 -0.24737494 -0.018033575 0.06979322
000380 8a 92 43 be 64 a3 cd bc fa 3f fa bd ff be aa bd
       -0.19098869 -0.025102325 -0.12219234 -0.08337211
000390 32 be 3b 3d d1 a9 87 be 91 24 a7 be c4 ba b4 bd
       0.04583568 -0.26496747 -0.32645085 -0.08824685
0003a0 a2 d4 8f 3d ef 8f 5e 3d 8f d8 d5 bc 13 06 c0 bd
       0.07022978 0.054336485 -0.02610424 -0.093761586
0003b0 f6 62 f1 bd 7c c0 11 3e 29 cd ca bd af b6 bc be
       -0.117864534 0.14233583 -0.099024124 -0.36858127
0003c0 83 db ee be 33 be 6a be b0 9d d0 bd 7c ce 37 3e
       -0.4665185 -0.22924118 -0.101863265 0.17949861
0003d0 34 b7 28 3e db 4a 28 be 2a 2e 15 3d 24 69 ac bd
       0.16476136 -0.16434805 0.03642098 -0.084184915
0003e0 8f 9e d0 bd 38 21 82 3a 73 7f 77 be 00 9b 05 bd
       -0.10186493 0.0009928113 -0.24169712 -0.032618523
0003f0 71 37 5f 3e 93 9f 13 3d a0 88 83 3e 1d 27 ea 3a
       0.21798493 0.036040854 0.25690174 0.001786444

tcn.tcn.0.conv1.bias f4 [16]
000000 9c 48 ad bc bf a1 25 bc 4f 06 3d 3e 48 b0 fd 3d
       -0.021152787 -0.010109364 0.18459438 0.123871386
000010 5b 65 fc bc 30 c8 94 3d 40 b3 9f bc 6c c2 40 be
       -0.030810049 0.07264745 -0.019494653 -0.18824166
000020 94 95 b4 3b 84 99 34 3e 2b 6b 99 3d 74 27 e1 bc
       0.005510995 0.17636687 0.07491144 -0.027484633
000030 af 53 67 3e ed 25 01 3d 81 7c d5 bd ff 6f 99 3d
       0.22590517 0.03153031 -0.10424138 0.07492065

tcn.tcn.0.conv2.weight f4 [16, 16, 1]
000000 93 fd 94 3d dd 3d af bd 8f 90 75 3e d6 c4 6a 3d
       0.07274928 -0.08556721 0.23980926 0.057316624
000010 8a 37 40 3e d1 b3 24 be 1e f6 bf 3d 25 d1 7f 3e
       0.18771186 -0.1608422 0.09373115 0.24982126
000020 7f 18 68 3e e5 fc 4d bd 57 2a 1a be f5 9b 36 be
       0.22665595 -0.050290007 -0.15055214 -0.1783293
000030 7a 42 51 3e 2b a9 98 bd 5e 8f d0 bd f7 06 dc 3e
       0.20435515 -0.07454141 -0.10183595 0.42974064
000040 4d af 7d 3d d1 a0 2b 3e 25 19 ee bc a0 e6 36 3e
       0.061934758 0.16760565 -0.029064724 0.17861414
000050 4f 09 8c 3d fa a2 fd 3d 77 0b 45 3e c3 f6 bd bd
       0.06837713 0.12384601 0.19242655 -0.09275582
000060 51 ac a4 bd 87 fe df bb 91 0c 32 be fa 22 d1 bd
       -0.08040679 -0.006835762 -0.17387606 -0.102117494
000070 73 f9 84 3d b9 82 8b be e1 0d 25 be cf e2 c9 3e
       0.06492891 -0.2724817 -0.16118576 0.39430854
000080 7a 04 82 3d 2f db 3a 3e 5f 5f fa bd c4 84 81 3e
       0.0634851 0.18247674 -0.12225222 0.25296605
000090 0b 35 85 bb 34 fc 88 bd 3d 89 47 bd 89 8a ea 3d
       -0.004065161 -0.06688729 -0.048714865 0.11452205
0000a0 d7 ac ff 3c a8 4c ae 3e e2 ca 55 3e a4 f2 40 3e
       0.031210346 0.3404286 0.20878175 0.1884256
0000b0 9f b6 d5 bd d1 38 8e 3e d3 90 b3 bd 1a 6d e6 bd
       -0.10435223 0.27777722 -0.087678574 -0.11251278
0000c0 d6 7f 13 3e cf 91 c1 3e ae e6 48 bc 7f 33 85 3d
       0.14404234 0.37806556 -0.01226203 0.06503963
0000d0 51 80 64 bd 39 c0 6a 3e c4 02 5c 3e b9 15 ce 3d
       -0.055786435 0.2292489 0.2148543 0.10062737
0000e0 8e e3 4a be c8 55 84 be 96 f7 92 bd b7 11 87 be
       -0.19813368 -0.25846696 -0.071761295 -0.26380703
0000f0 65 18 8c 3e c8 15 c7 3d 7a c1 d7 3d 75 ae 76 3e
       0.27362362 0.09720951 0.105349496 0.24089988
000100 5f 7c 05 3e d4 01 a2 3e 3a ce b4 bd 18 aa 47 bb
       0.13035725 0.3164202 -0.08828397 -0.0030466374
000110 9e 1f 82 3d 44 1f 03 3d b5 ee 9d bd 61 38 01 bf
       0.06353687 0.03201224 -0.077115454 -0.5047665
000120 5e eb eb bd ff 2e e3 be 71 14 5a bd a9 0f 80 be
       -0.11519502 -0.44371793 -0.05324215 -0.25011948
000130 de 74 04 be f6 17 e2 3d d2 67 d8 bb 52 15 dc 3d
       -0.12935206 0.110397264 -0.006604173 0.10746254
000140 22 a9 ad bc 2d 26 b2 3d 17 6e 93 bc a6 4b a0 bd
       -0.021198813 0.08698688 -0.01799683 -0.07826929
000150 51 de 91 be 11 e1 89 3c 09 c9 8f bd 24 fd cf be
       -0.28489926 0.016830953 -0.07020766 -0.40622818
000160 1b da 33 3e 80 b2 d3 be 3b 3a fe bd 75 dd 0f bf
       0.1756367 -0.41347122 -0.1241345 -0.5619729
000170 85 b9 9c bd cb e1 c9 3c 36 d6 7a 3e 69 95 35 3d
       -0.076525725 0.0246438 0.24495777 0.04433194
000180 11 e7 ff bd bf 4a 63 be 7e da db bd 91 38 5c be
       -0.12495244 -0.22196482 -0.107350335 -0.21505953
000190 26 eb 13 3d 8f a3 ce 3c 74 cf 68 be 55 de 07 be
       0.036112927 0.025224475 -0.22735387 -0.13268407
0001a0 8d 08 50 be dc 89 82 3e 2a 50 8a be 8f 33 7e be
       -0.20315762 0.25495803 -0.27014285 -0.24824356
0001b0 60 f0 45 3d d6 89 aa be 9d 10 05 bd 3d bd 84 bd
       0.048324943 -0.33308285 -0.032486547 -0.06481407
0001c0 58 dc 70 be 94 b4 77 3c 33 2c 9a bc 4e 0e f1 3d
       -0.23521554 0.015118737 -0.018819904 0.117703065
0001d0 18 3e bc bd 7f f9 54 3e 3f 93 f3 3d 59 7e ee 3d
       -0.09191531 0.207983 0.11893319 0.11645193
0001e0 12 63 97 3e ee 93 3d 3e 3a e2 00 3d 1d 42 3d 3e
       0.29567772 0.18513462 0.031465746 0.18482251
0001f0 8f 0a 54 3e 9c 7b 7a 3e 2d 71 a7 be 69 d2 59 be
       0.20707153 0.24461216 -0.32703534 -0.21271671
000200 85 d1 38 be 64 5c 38 3d 81 66 87 3e 84 ab ff bb
       -0.18048675 0.045009986 0.26445392 -0.0078024287
000210 81 96 26 3d de 5d 0d 3e 5e 56 89 3d b4 b9 e5 bc
       0.040670875 0.13805339 0.06705926 -0.028042652
000220 30 5e 70 be 15 bc 8a 3e e0 93 c1 3d fa f9 20 be
       -0.2347343 0.2709662 0.09452033 -0.15720358
000230 02 4c 69 be 52 11 a0 3d 12 a6 bb be 04 36 8f 3e
       -0.22782901 0.078158036 -0.3665014 0.27970898
000240 2d 82 0f be 72 bd a9 3e ab 7b c1 bd d0 51 11 3e
       -0.14014502 0.33152348 -0.09447416 0.14191365
000250 0a a4 1e 3e e5 98 8e 3e 3e 9b 53 3e 47 56 27 bd
       0.15492263 0.27851024 0.20664689 -0.040853765
000260 d6 80 a7 bd 06 a6 3b be 07 f8 09 be aa e2 8c 3c
       -0.081788704 -0.18325052 -0.13473521 0.017197926
000270 d0 50 82 be 91 79 74 3d 74 13 bb be c6 53 d4 bb
       -0.2545228 0.059686247 -0.3653828 -0.006479713
000280 57 b3 10 be 0c 1c a3 bd 17 a6 dd 3d 43 3b e0 bd
       -0.14130913 -0.07964334 0.10822695 -0.10948803
000290 07 a2 10 be 12 d9 0f be f4 31 e9 3d 97 02 57 3e
       -0.14124309 -0.1404765 0.11386481 0.20997082
0002a0 86 35 02 bd 3b c6 1d 3f 91 b5 40 be 4d 48 02 3f
       -0.031789325 0.616306 -0.18819262 0.5089157
0002b0 4d e1 39 3e 20 cb 8e 3d a9 fd 70 3d a0 58 7d be
       0.18152352 0.06972337 0.05883566 -0.24740839
0002c0 4c 83 e6 3c 37 b0 23 be 0a be 2e be 88 bf 82 3e
       0.02813878 -0.1598519 -0.17064682 0.25536752
0002d0 77 57 53 be ab e5 6c be 02 cd f8 bd 5a c5 65 3e
       -0.20638834 -0.23134486 -0.12148477 0.22438565
0002e0 15 ea a6 bd 6e 0a 1f 3f 43 36 c5 3c c4 1b 12 3e
       -0.08150116 0.6212529 0.024073726 0.14268404
0002f0 08 7b 18 3c 6f fd 1d 3d 37 8c e6 3e 1a 50 66 3e
       0.009306677 0.03857177 0.4502885 0.22491494
000300 f6 00 d9 bd 23 23 a6 be 98 a1 27 3e 4c 2a 5e bd
       -0.105958864 -0.32448682 0.16370237 -0.054239556
000310 60 11 2b be ec e1 07 bd 7e 10 04 be 1f 5f b6 3e
       -0.16705847 -0.03317444 -0.12896916 0.35619447
000320 61 da 7f bd 6d aa 93 3e a6 a9 14 be 25 d5 9b 3e
       -0.06246412 0.28840962 -0.1451784 0.30436054
000330 a2 22 84 3e e6 4b 43 be d1 6d b2 3d 7e 55 42 be
       0.25807673 -0.19071922 0.08712352 -0.18977925
000340 08 8a 33 3e 4c c7 03 3e e6 71 82 3e 28 2b b8 bd
       0.17533123 0.12868994 0.25477523 -0.089926064
000350 c9 f7 54 bd 5d e9 73 be 5b 66 06 3b 9f 08 d1 3e
       -0.05199412 -0.2381949 0.0020507786 0.4082689
000360 f6 3e c6 bc 4b 89 ba 3e 28 1b 5c be 99 5f 54 3d
       -0.024199944 0.3643287 -0.21494734 0.05184898
000370 97 db 78 3e ca 73 4d 3e a9 ab 5c be 76 aa 9d 3e
       0.24302517 0.20063701 -0.21549858 0.30794114
000380 e9 14 60 3d 3f d0 84 bd 36 5c fc bc e2 65 8e be
       0.05470744 -0.06485032 -0.030805688 -0.27812105
000390 a4 7f e6 bd 0e 0b 46 3c 82 df 20 be ee 10 c2 3e
       -0.11254814 0.012087597 -0.15710261 0.3790354
0003a0 35 d9 97 bc b4 47 0b 3f 1c cb 8b be 37 c9 4f 3e
       -0.01853619 0.54406285 -0.27303398 0.20291601
0003b0 ae 96 2d bd 1f ad 4f bc 40 a6 76 be 44 55 c8 bd
       -0.042380027 -0.012675553 -0.24086857 -0.09781888
0003c0 e1 14 24 3d 29 20 8a be 9d 07 8d bd 63 06 81 be
       0.040058974 -0.2697766 -0.06886218 -0.25200185
0003d0 47 fa da 3d c9 99 7c bd 2d d3 c3 bd 34 fa 09 be
       0.10692268 -0.0616701 -0.09561763 -0.13474351
0003e0 6e 92 72 3e 6d fd 33 3f 4f 56 89 be da 91 46 bd
       0.23688671 0.7030857 -0.2682366 -0.04847894
0003f0 dd 7d c0 3c 07 03 5b 3e 80 25 9f bd ef 2f 9c 3e
       0.023497516 0.21387874 -0.077708244 0.3050532

tcn.tcn.0.conv2.bias f4 [16]
000000 cc 55 ad 3d 5d be 0a 3d c3 ba 6b 3d 75 ab a5 bd
       0.0846363 0.03387295 0.057551157 -0.080893435
000010 a8 be e5 3d d9 28 10 3d 29 9b c9 bd b7 83 2f bd
       0.112180054 0.035195205 -0.098440476 -0.042850222
000020 a2 31 76 be 96 12 1f be fd 46 b0 3c fb a9 90 3d
       -0.24042371 -0.15534434 0.021518225 0.07063671
000030 41 72 2e 3e ac ab 12 bd ee ad 00 3e ce 2f 31 3d
       0.17035772 -0.03580825 0.12566349 0.04325848

tcn.tcn.0.res_conv.weight f4 [16, 16, 1]
000000 74 c8 6b 3b 2b af a9 bd 1f b9 5e 3e 4f 73 6b 3d
       0.0035977634 -0.08285364 0.21750306 0.057483014
000010 c1 3d 06 3e 80 d5 2c 3e b8 83 8e bc 00 49 ff bd
       0.13109495 0.16878319 -0.017396793 -0.124650955
000020 9f 6c fb bd 51 1b b7 3d 6a bd 6f be c4 6b c6 3d
       -0.12276577 0.08940757 -0.234121 0.096885234
000030 36 fa 2a bd 72 af 29 3e 09 3a 33 3e c0 8e 1d 3d
       -0.041742526 0.16570833 0.17502607 0.038466215
000040 6e 4b 93 3d cb b9 a0 3e 71 09 1c be 74 29 18 3e
       0.071921214 0.3139175 -0.15237977 0.14859563
000050 f1 53 d2 3c 03 70 e0 bd 75 dc 09 3e c5 03 01 bf
       0.025674792 -0.109588645 0.13463004 -0.50396377
000060 7f 88 a3 3d ed b8 8f 3d 37 7e 10 bc 36 28 a8 bb
       0.07985019 0.07017694 -0.008819154 -0.0051317466
000070 c5 7a 86 3e 82 12 b0 bd 5f c9 4d be 47 5e 6f be
       0.2626554 -0.0859728 -0.20096348 -0.23375808
000080 05 f7 26 3e 8a 27 88 be ca 24 51 bd 89 01 7d 3e
       0.16305168 -0.26592666 -0.051060475 0.24707617
000090 c6 16 7a 3d a6 5e 60 be 44 f2 c1 3e ab f6 ef 3d
       0.061056875 -0.21911106 0.37880147 0.1171697
0000a0 0a 6a 40 3b 0e 3b a5 3e 57 5c e7 3d e7 a3 a0 be
       0.002936008 0.32271618 0.11296909 -0.31375048
0000b0 4a e2 b7 be 7f 5c 88 3e ff 03 23 3e e6 b8 c5 bd
       -0.35914832 0.2663307 0.15919493 -0.09654407
0000c0 c4 f7 81 3e 44 9f 94 be 8b 57 67 3e a3 ed 04 be
       0.25384343 -0.2902776 0.22591989 -0.12981276
0000d0 58 f7 0b bd 79 da 9d bc 8d 5a 83 bd 6c a8 c9 3e
       -0.034171432 -0.019269215 -0.064137556 0.39386308
0000e0 cd f9 99 bd 98 f0 b5 3d dd 55 4f 3e 49 da 50 be
       -0.07518349 0.0888378 0.20247598 -0.20395769
0000f0 8d 71 44 3d d3 1c 93 3e 6b 7b 3d 3e 94 01 a3 bd
       0.047959853 0.2873293 0.18504111 -0.079592854
000100 66 86 77 be 77 06 a3 3e 79 d6 6e bd ce a8 86 be
       -0.24172363 0.3184087 -0.058310006 -0.26300663
000110 9d ec 98 bc f7 b6 c1 3d b2 eb 8c be d6 b3 34 be
       -0.018667514 0.09458726 -0.2752357 -0.17646727
000120 92 9c d1 bc 52 50 82 bd 25 4c 83 3e 32 97 89 bc
       -0.025587354 -0.06362976 0.2564403 -0.016795728
000130 60 b7 8e 3e a4 a1 a4 3d 31 2e cb bc df 38 da bb
       0.2787428 0.08038643 -0.0248023 -0.0066596116
000140 05 44 80 3d bd 16 53 3e 85 7c 9e be 01 24 ab bd
       0.06262974 0.20614143 -0.30954376 -0.083564766
000150 85 50 2b be 3e c4 69 3e c5 81 a9 be 7b 67 c3 3c
       -0.16729935 0.22828767 -0.3310682 0.023853054
000160 10 7a 27 3d 31 18 4f bc 1d 7d 11 bd 39 4d b2 3d
       0.040887892 -0.012640045 -0.035519708 0.08706135
000170 6d 31 34 3d 58 da 08 3b 35 2e 35 3d 2a 5f 67 3e
       0.04399245 0.0020882096 0.04423352 0.22594896
000180 14 a3 b3 be 3c 0e 9b 3e b0 bd 89 3d 25 cd 30 be
       -0.35085356 0.30284297 0.06725633 -0.17265756
000190 f5 ef 52 3e 84 93 ff 3d d1 b9 85 be 35 c4 8f bd
       0.20599349 0.12479308 -0.2611833 -0.070198454
0001a0 a9 29 22 be 35 39 3a 3e 17 fd 8f be 1f 36 8c 3d
       -0.15836205 0.18185885 -0.2812278 0.0684626
0001b0 7c d9 96 3d 04 23 9b be 95 4b 07 be c2 0d 28 3e
       0.073657006 -0.30300152 -0.13212426 0.16411498
0001c0 68 ba ff bd a0 87 f7 3c d4 1c 47 3e 94 18 9b 3e
       -0.12486726 0.030216038 0.19444591 0.3029219
0001d0 91 80 9d bd e7 6f 53 3e 70 ba e4 3e d4 6a 78 be
       -0.07690538 0.20648156 0.4467349 -0.24259502
0001e0 84 59 03 bd 44 28 14 be 88 4b 86 be 53 ae 64 bd
       -0.03206779 -0.14468485 -0.262295 -0.05583031
0001f0 53 71 8a bc 2c d8 66 be 63 26 a7 bd 49 f8 28 be
       -0.01689974 -0.225434 -0.081616186 -0.16500963
000200 af a3 5d be c1 63 ea bc 0f 2e c7 3d c7 9d a3 be
       -0.21644472 -0.02861202 0.09725582 -0.31956312
000210 70 ad a2 be b0 44 4f bd c2 0d 5d be 6c df f8 bd
       -0.31772947 -0.050602615 -0.2158728 -0.12151989
000220 b8 02 c2 bd 29 81 6f 3f 66 74 87 3e bd 31 04 3e
       -0.09473175 0.9355646 0.26455992 0.12909599
000230 9a 2a 5f be e2 22 25 be 43 05 32 be 96 92 bd 3e
       -0.21793595 -0.16126588 -0.1738482 0.370259
000240 38 78 ac 3e a6 89 01 3c 2b e9 50 3e fe 3e 07 be
       0.3368547 0.007906353 0.20401447 -0.13207623
000250 a0 57 e9 bd 35 97 a3 bd 59 22 75 3e 0f 0c 19 3e
       -0.11393666 -0.07987825 0.23938884 0.14946006
000260 44 b1 aa bd b5 c1 96 3e f4 e4 93 3d f8 bc 57 3e
       -0.08334592 0.29444662 0.07221404 0.2106818
000270 1b 1e 4f be 85 12 2f 3e 56 c3 e1 3c 1e d3 87 be
       -0.20226328 0.17096908 0.027558964 -0.26528257
000280 9a 7c 36 3d bc 44 24 be 7b 32 fb bd f6 ca 86 be
       0.044552423 -0.16041845 -0.12265488 -0.26326722
000290 69 57 ce bd 99 10 ba be ff c6 26 3e 0c 39 19 3e
       -0.10075266 -0.36340788 0.16286848 0.14963168
0002a0 fd df 67 be 97 42 ae 3e a6 85 fd bd de 07 f7 be
       -0.22644038 0.3403518 -0.12379007 -0.4824819
0002b0 9d 3a f2 bc 83 82 9f be 35 0a 9f 3e 3d 34 4a be
       -0.029568965 -0.3115426 0.31062475 -0.1974649
0002c0 93 3a de be 21 27 87 be c3 2c ff bd 3d c7 86 bc
       -0.43404064 -0.2639704 -0.124597095 -0.016452426
0002d0 a0 3e 00 3d a5 de 8c be 57 30 17 be e6 dd 14 be
       0.031309724 -0.27513614 -0.14764534 -0.14537773
0002e0 b6 8e 95 3d 14 5d 96 be ca da 67 be 36 6d e1 bd
       0.073026106 -0.29367888 -0.22642055 -0.110071585
0002f0 20 44 b4 3d ca c7 72 bd 30 b9 97 bc 8f 5e 2f be
       0.08802056 -0.059272565 -0.018520921 -0.17125915
000300 41 4d 53 3d 38 98 ba 3e 3b 3a a5 bc d6 78 e4 3b
       0.051587347 0.3644426 -0.020169368 0.0069724126
000310 e0 89 b3 bd c2 a2 80 bd df db 75 be 06 e5 1d be
       -0.08766532 -0.062810436 -0.24009655 -0.15419397
000320 79 80 6f 3e e9 71 18 3e 32 5c 72 be dd 2a c6 3d
       0.23388852 0.14887203 -0.23667982 0.09676144
000330 68 bd 01 3e 16 3d 97 bd 87 9a 87 bd e9 ee 83 3e
       0.12669909 -0.07384698 -0.066212706 0.2576821
000340 64 80 aa 3e e4 62 8c 3e 96 f7 13 3e 45 ea b4 3e
       0.3330108 0.27419198 0.14449915 0.35334983
000350 d9 9f 28 be c2 29 72 3e 12 95 1e 3e 13 fd 0e 3d
       -0.16467227 0.23648742 0.15486553 0.03490932
000360 ac 84 f8 3d 27 e0 4f 3e 0f 66 86 bd 8c 6a 92 be
       0.1213468 0.20300351 -0.06562435 -0.28596914
000370 a8 3f ac 3d b6 11 2a be 56 11 83 3d 70 65 64 be
       0.08410579 -0.16608319 0.06399791 -0.2230432
000380 07 95 07 be d2 0a 4c be 07 a1 78 bc cd e3 4f bc
       -0.13240443 -0.19926003 -0.015175111 -0.012688589
000390 3a 0f 25 be f4 83 93 bd e6 48 22 3e d5 01 42 bc
       -0.1611909 -0.072029024 0.15848121 -0.011841257
0003a0 60 79 1d be 51 a4 1d 3e d9 6a 00 be c0 9a 60 3c
       -0.15378332 0.15394713 -0.12540759 0.01370877
0003b0 11 cc 00 3e 12 c3 b6 3d 22 12 2c 3c a2 ed d8 3c
       0.12577845 0.089239255 0.01050237 0.0264805
0003c0 f8 b8 88 be 68 18 3b bd 38 fa 15 be ca 65 41 be
       -0.2670362 -0.045677572 -0.14646232 -0.18886486
0003d0 5b 02 48 3e 01 b6 02 3e 58 f9 13 be 48 ee 91 3d
       0.19532149 0.12764741 -0.14450586 0.07125527
0003e0 16 3e ab bd ff d9 02 3d 47 8e 4c be 34 56 6f bd
       -0.08361451 0.03194618 -0.1997615 -0.05843182
0003f0 0e 7e fb 3d 3d 85 0d 3e 84 9e 1e be 8e b6 04 3e
       0.122799024 0.13820358 -0.15490156 0.12960264

tcn.tcn.0.res_conv.bias f4 [16]
000000 7a 82 8f 3e 07 85 d6 bd 70 df 6d be 19 2e d7 3c
       0.28029233 -0.10474592 -0.23229766 0.026267098
000010 e2 01 10 be d5 74 1f be 21 2c 52 be 45 04 25 be
       -0.14063218 -0.15571912 -0.20524646 -0.1611491
000020 f0 d7 a1 bd 56 0f 08 3e 80 4c c3 bd 9f 51 14 3e
       -0.07902515 0.132871 -0.095360756 0.14484261
000030 d9 61 2b bd 1f 2a 96 be b7 c8 8d bd 9e f7 73 3d
       -0.04184136 -0.2932901 -0.06923049 0.059562318

tcn.tcn.1.conv1.weight f4 [16, 16, 5]
000000 c8 40 48 bd 2a 8d 73 be 6d 52 3a be b7 d7 65 be
       -0.048889905 -0.23784319 -0.18195505 -0.2244557
000010 88 0f a9 be f4 b7 44 3e 70 57 cd be a5 80 2a be
       -0.33019662 0.19210798 -0.40105772 -0.16650636
000020 46 5b da bd 0c bc 49 3e 26 48 f1 3d 17 43 cb 3e
       -0.1066194 0.1970064 0.11781339 0.39699623
000030 fe 17 1a be 3f 1d 90 be db 3b 68 be e1 3b da 3c
       -0.15048215 -0.28147313 -0.22679083 0.02663988
000040 2f 42 e5 bd 41 a9 e7 bd 66 18 e7 bd ca 39 8e be
       -0.11194264 -0.113115795 -0.112839505 -0.27778465
000050 80 a3 76 3b 30 20 db bd 5e 72 8a 3e 4c aa 8d 3e
       0.0037634075 -0.10699499 0.2704038 0.2766899
000060 72 e8 99 3e 6c 82 82 3d 68 fe 75 bc af e7 94 3e
       0.30060154 0.06372532 -0.015014268 0.2908301
000070 2d a2 46 3d 4b cc 8c 3e 8a df ea 3d df 1b b1 bd
       0.048494507 0.27499613 0.11468418 -0.08647894
000080 78 aa 3e 3e f8 e7 98 3e 01 df f7 3e ad 63 c9 bd
       0.18619716 0.29864478 0.48412326 -0.09833465
000090 84 b7 4b be ed 48 e5 be 7e dd cf be bd ee 29 be
       -0.19894224 -0.447822 -0.40598673 -0.16594978
0000a0 38 ba 25 be bd 02 4a 3e 74 fd 85 3e 4c 14 37 3e
       -0.16184318 0.19727607 0.26169932 0.17878836
0000b0 b4 52 0c 3e 5c e6 06 be e4 db 45 bd 7c 02 8d 3c
       0.13703424 -0.13173813 -0.048305407 0.017213099
0000c0 0f 8b df bd 5b 8e d4 bd 9a 51 00 3e a7 ca 61 3e
       -0.10915195 -0.10378715 0.12531129 0.22049962
0000d0 4f 0e 01 be b9 59 99 be 61 77 80 be 17 9d 66 3e
       -0.12603115 -0.29951265 -0.2509108 0.22520863
0000e0 2a 6c 7e bc 06 54 97 be 1a e8 d2 3d 72 27 b2 bb
       -0.015528718 -0.29556292 0.10298176 -0.005436831
0000f0 96 f0 57 3b bf 08 0a 3e ad f0 15 3c 6b 96 2a 3d
       0.0032949797 0.13479899 0.00915162 0.041647356
000100 b4 8a 2d 3e 4b 84 cd 3e 4b e9 f3 bc 72 76 67 be
       0.16947442 0.40139994 -0.029774329 -0.22603777
000110 5b d2 36 be 27 59 82 ba 09 1e 52 3e 9d 15 01 3e
       -0.17853682 -0.0009944782 0.2051927 0.12605901
000120 c7 3e f0 3d 04 3d 18 3d 46 12 8b bd 1c ed 03 3f
       0.11730724 0.037167564 -0.06790595 0.51533675
000130 2f 1c 6a 3d e9 11 8a 3d 42 ba 76 3e 53 c6 3c 3e
       0.057155784 0.06741697 0.24094489 0.1843503
000140 f9 ea 54 be e1 d4 4c be ae ae 81 bd 03 a5 4c be
       -0.2079276 -0.20003082 -0.06332146 -0.19984822
000150 b1 bc 51 be 79 43 09 be 5b af 3a 3e 40 74 f2 bd
       -0.20482136 -0.13404645 0.18230955 -0.11838579
000160 13 e7 77 3d ea 3e 7e be 58 bd a8 be cb c5 88 bd
       0.060523104 -0.24828687 -0.32956958 -0.06678351
000170 23 70 9b be 08 b2 44 be e0 35 82 be f2 4a f4 3d
       -0.3035899 -0.19208539 -0.25431728 0.11928357
000180 ff c4 ab be d8 82 b6 be 44 aa 3c be 50 80 02 be
       -0.33548734 -0.356467 -0.18424326 -0.1274426
000190 3d 89 bb 3e fd 00 e0 3b 54 b9 e6 bd 17 e0 e9 3d
       0.36628142 0.0068360553 -0.11265817 0.11419695
0001a0 07 13 54 3e b3 3f 35 3e 8e 31 4a be 27 47 cf be
       0.20710383 0.1770008 -0.19745466 -0.40483972
0001b0 19 e7 82 bd e6 0e 01 3f 87 c5 96 3d b0 a7 b7 3d
       -0.06391735 0.5041336 0.07361894 0.08967531
0001c0 32 f1 94 3e b6 0d bd 3e dc d6 bb 3e 4a 7c dd be
       0.29090267 0.36924523 0.36687362 -0.43258888
0001d0 d9 8f 57 bd 40 5d 6a be 05 da 08 be 48 f2 a6 3c
       -0.05262742 -0.22887135 -0.13364418 0.0203792
0001e0 7e c8 25 be 8b 99 96 3d 0b 4e ba be 7c a4 50 be
       -0.16189763 0.07353505 -0.36387667 -0.20375246
0001f0 54 2c 73 3e 18 29 1f 3d f3 c2 f8 bc 1a 37 24 be
       0.23747379 0.03885755 -0.030366397 -0.16036645
000200 57 49 37 bd 1c 37 84 bd c1 7b 4f be ff 59 54 be
       -0.044747677 -0.06455824 -0.20262052 -0.20737456
000210 74 cd 1b 3e 64 8e ab 3b 3f 0d 0d bd 58 99 3b 3e
       0.15215093 0.00523548 -0.03443646 0.18320215
000220 8c 30 89 3e 72 e7 be 3e 53 c2 ef 3d 7b 85 37 be
       0.2679485 0.37285954 0.11706986 -0.17922013
000230 5f 55 ab bd 3a 9d 4c bd a9 39 a3 3e 7b 49 b8 bd
       -0.083658926 -0.04995463 0.3187993 -0.0899839
000240 66 97 03 3d d2 82 83 be 83 40 26 be a4 6f 50 be
       0.032126807 -0.25685745 -0.16235547 -0.20355088
000250 23 20 4f be 26 45 90 bd c1 16 c7 bc 34 0f 6c 3d
       -0.20227103 -0.07044439 -0.024302842 0.057631686
000260 1e f1 76 3e c8 54 f1 bd f7 71 00 3d ab 48 41 3d
       0.24115416 -0.11783749 0.031358685 0.047188442
000270 f4 70 38 3e e0 cb cc 3d 0d 38 85 3d 4c 01 8f 3d
       0.18011838 0.099998236 0.065048315 0.06982669
000280 7a 75 27 3e 6b fb 26 bd be bd 61 bc fe fd 1a 3e
       0.16353408 -0.040767115 -0.013778148 0.15135953
000290 d2 f6 26 be a2 54 05 3a 99 08 2e be 5b 2a e2 3d
       -0.16305092 0.00050861586 -0.16995467 0.11043235
0002a0 d4 78 36 bd 09 f7 80 3e 07 b4 c6 bd bd 8c 01 be
       -0.044548824 0.25188473 -0.09702306 -0.12651344
0002b0 86 a7 54 bd 63 4d 27 be a1 3b d9 bd c9 6c 3b be
       -0.051917575 -0.16338114 -0.106070764 -0.18303217
0002c0 5a ee 24 be b8 5f 2c be a1 78 0c 3e 2c 26 26 3d
       -0.16106549 -0.16833389 0.13717891 0.040563747
0002d0 92 a4 52 3c 68 2b 91 bd e3 9a 5d be c6 a1 05 3e
       0.012856619 -0.07088357 -0.21641116 0.13049993
0002e0 c1 72 36 3e 3f c0 04 be ff 6a c1 bd 4c 1e 09 bc
       0.17817213 -0.12963961 -0.09444236 -0.00836904
0002f0 e2 d7 0a 3d a4 81 62 3e ae 8f c4 3e 98 92 8e 3c
       0.03389729 0.22119766 0.3839087 0.017403886
000300 7a 94 65 3d d2 69 99 bd 1e 97 f4 3c 23 e8 ca bd
       0.0560498 -0.07490887 0.029857215 -0.09907558
000310 51 84 ed 3d a2 4c ca 3d c0 93 9b 3d e6 bb 9f bc
       0.11597503 0.09877898 0.075965405 -0.019498777
000320 5d 8a 40 3e c8 2e cc bd 13 21 3c be 03 38 bb 3b
       0.18802781 -0.0996986 -0.18371992 0.005713464
000330 21 20 6f 3e 7e 4e 10 be 7a fc 06 3d 9d 84 76 be
       0.233521 -0.14092442 0.032955624 -0.24074025
000340 3f a9 58 be 7c 53 7c 3e 71 0f a4 3e be 89 41 3e
       -0.21158312 0.24641222 0.3204303 0.189002
000350 39 31 db 3c b4 43 8b bd b8 ff aa be 06 e9 9b 3e
       0.02675687 -0.06800023 -0.33398223 0.3045122
000360 11 82 04 3e 0d 00 2e bd fd ff 9c bd fd b1 41 be
       0.12940241 -0.042480517 -0.076660134 -0.18915553
000370 2f 10 40 3e a5 08 fb bd 31 e1 06 3e 4b 3e a9 3d
       0.18756174 -0.12257508 0.13171841 0.082638346
000380 22 f6 8c bd 81 86 42 3b 42 0b 0c be a4 01 a5 3d
       -0.068828836 0.0029682221 -0.1367617 0.080569535
000390 a4 6a ff 3b 29 f6 9c bd e6 ff 4e 3e 11 30 f4 bd
       0.007794695 -0.07664139 0.20214805 -0.119232304
0003a0 57 a4 ce 3d 03 66 a8 bd d0 13 25 be 41 03 b2 3e
       0.10089939 -0.08222582 -0.16120839 0.34768108
0003b0 45 ad bd bd 25 59 b0 3d 88 6e 6e 3d c6 f3 47 be
       -0.09261564 0.08610753 0.05821088 -0.19526586
0003c0 38 0f 58 3d d0 ae be bd 25 74 4b 3e d8 90 6b 3e
       0.05274889 -0.093106866 0.19868524 0.23004472
0003d0 f9 1c cb bb f3 53 3b 3d 1c 5a 99 3c 2f 5f 0d be
       -0.006198522 0.045734357 0.018719725 -0.13805841
0003e0 f2 56 0a be fe 5c bc 3d b8 81 b3 bd 1f bd da 3d
       -0.1350973 0.09197424 -0.08764976 0.10680603
0003f0 98 3c 74 bc fc 02 53 be 35 35 b7 bd a9 26 76 3d
       -0.014907025 -0.20606607 -0.08945695 0.060095463

tcn.tcn.1.conv1.bias f4 [16]
000000 a8 94 55 be c2 74 8a be ef 49 8f 3d fc 35 41 3e
       -0.20857489 -0.27042204 0.069965236 0.1886825
000010 91 ac a8 be f7 da 62 be b7 d7 71 3d 51 ea a1 3d
       -0.32944158 -0.22153841 0.059043612 0.079060204
000020 c0 88 2a bd ad 1c 00 be e1 a6 61 be ed 9e f0 3d
       -0.04163432 -0.12510939 -0.22036316 0.11749063
000030 f5 0c 74 be 3c 41 66 3e 18 c2 9a bd e4 69 06 3e
       -0.23833068 0.22485822 -0.07556552 0.13126332
