checkpoints/fine_tune/var_rf/giantsteps/0.2/model_rural-sponge-197_finetune_finetune_finetune_HAI_GTZ/it_6622_loss_3.0280_acc10.8_acc21.0.pt (torch, 436414 bytes, 211 tensors)

conv1.weight f4 [16, 1, 3, 3]
0.26877898 -0.10558536 -0.39584514 0.34572157 -0.14754236 -0.4093209 0.2800106 0.26339513
-0.25182977 0.10490854 -0.59781736 -0.5110552 0.3345816 -0.19730361 0.1860586 0.17421645
0.22259326 0.11511153 -0.183013 0.45581377 0.2662112 -0.17254344 0.36426842 0.0760288
-0.57135147 0.08062772 -0.28368327 -0.303615 -0.086841375 0.38181457 -0.35801795 0.1008668
0.21214831 0.42653006 0.082143016 -0.5216071 -0.30192223 -0.26603115 -0.23324624 -0.09860308
0.26295048 0.35057265 -0.12266438 -0.11712958 -0.27498698 -0.0874929 0.107139714 -0.033606127
-0.85945576 0.314635 0.5210511 -0.26391318 0.29848528 -0.0361986 0.39275187 0.09387918
0.003911657 -0.21319012 0.07116409 -0.49147475 -0.06504975 0.16698886 -0.20718215 0.019207112
0.059946015 0.31365493 -0.5967854 -0.2998753 -0.29129097 0.18831418 0.009742138 0.60533166
-0.46403217 0.024409346 -0.3841232 -0.357575 0.43607607 0.43214092 -0.18663986 0.4057718
0.15958785 -0.6917647 0.094226085 0.5678838 -0.022315372 -0.22413185 0.22191398 -0.33455032
0.020550216 0.3505975 -0.5210769 0.093226686 0.4568711 -0.28370133 -0.17476274 0.40994844
0.114610955 -0.07847283 0.0076421434 0.20902951 0.44743642 -0.13619405 0.2757838 0.41111037
-0.16409788 0.38724348 0.10746747 -0.087810785 0.21637687 0.20236671 0.08041545 -0.32030287
-0.32944942 -0.5747277 0.3001516 0.35401833 -0.09128615 0.10515743 -0.20544124 -0.38738808
0.52956665 0.45741856 0.2889987 -0.26757598 0.10510546 -0.6035534 0.42186064 0.226019
-0.11354992 0.4473562 -0.2861335 -0.07565688 0.21676093 -0.31670317 -0.49720672 -0.28029683
-0.12295615 0.29282922 -0.07215139 0.15304296 0.5048145 -0.55089575 -0.26736915 0.49193814
00000000: 669d 893e 233d d8bd 37ac cabe 6b02 b13e
00000010: 5815 17be 8292 d1be 8d5d 8f3e badb 863e
00000020: d5ef 80be 4ada d63d 8f0a 19bf 83d4 02bf
00000030: 484e ab3e f509 4abe 2586 3e3e cc65 323e
00000040: 7def 633e 98bf eb3d c367 3bbe 6c60 e93e
00000050: d64c 883e 3aaf 30be 6481 ba3e fdb4 9b3d
00000060: 1744 12bf 2520 a53d ef3e 91be 6d73 9bbe
00000070: e4d9 b1bd 337d c33e 214e b7be 4193 ce3d
00000080: 683d 593e 2662 da3e 993a a83d 0b88 05bf
00000090: 8d95 9abe 3c35 88be 1ad8 6ebe 69f0 c9bd
000000a0: 72a1 863e 427e b33e 7637 fbbd a2e1 efbd
000000b0: 18cb 8cbe 7a2f b3bd 116c db3d 94a6 09bd
000000c0: 4b05 5cbf d717 a13e 9b63 053f a11f 87be
000000d0: 10d3 983e fc44 14bd c616 c93e ba43 c03d
000000e0: 5b2d 803b 834e 5abe 7abe 913d 94a2 fbbe
000000f0: ce38 85bd 21ff 2a3e 8f27 54be 3c58 9d3c
00000100: f489 753d 6197 a03e eec6 18bf 4189 99be
00000110: 1724 95be 6fd5 403e 7d9d 1f3c 04f7 1a3f
00000120: a095 edbe 1cf6 c73c ccab c4be 1214 b7be
00000130: 5d45 df3e 9341 dd3e 851e 3fbe 52c1 cf3e
00000140: ff6a 233e 7e17 31bf 9bf9 c03d d560 113f
00000150: bace b6bc d282 65be 6b3d 633e 2e4a abbe
00000160: ed58 a83c 8481 b33e 4c65 05bf a2ed be3d
00000170: 02eb e93e 4d41 91be 01f5 32be c3e4 d13e
00000180: 26b9 ea3d 5db6 a0bd f26a fa3b d50b 563e
00000190: 6316 e53e 7476 0bbe 8933 8d3e 0f7d d23e
000001a0: 4609 28be c744 c63e e817 dc3d 24d6 b3bd
000001b0: e691 5d3e 3839 4f3e dbb0 a43d bdfe a3be
000001c0: 98ad a8be 5b21 13bf 78ad 993e e441 b53e
000001d0: 3cf4 babd c75c d73d 305f 52be bb57 c6be
000001e0: ae91 073f c432 ea3e a3f7 933e b8ff 88be
000001f0: 8841 d73d 7a82 1abf 1efe d73e 8671 673e
00000200: dc8c e8bd df0b e53e 1780 92be fff1 9abd
00000210: 94f6 5d3e eb26 a2be e191 febe 1183 8fbe
00000220: 6fd0 fbbd b6ed 953e 1cc4 93bd 4bb7 1c3e
00000230: 863b 013f 8107 0dbf 9ce4 88be 51df fb3e

conv1.bias f4 [16]
-0.04920184 -0.021689452 -0.10433834 -0.05196846 -0.1828352 -0.11124394 0.054324064 -0.06547113
-0.070866786 0.010543821 -0.04585244 -0.2399157 0.0014728891 -0.10704146 -0.0857008 -0.08446936
00000000: de87 49bd 14ae b1bc 57af d5bd e1dc 54bd
00000010: 2739 3bbe ddd3 e3bd e982 5e3d ba15 86bd
00000020: 9b22 91bd febf 2c3c c5cf 3bbd 76ac 75be
00000030: f50d c13a 8e38 dbbd e783 afbd 46fe acbd

conv2.weight f4 [16, 16, 3, 3]
-0.18573958 0.013958495 -0.05465145 -0.12980106 -0.060318794 0.007047388 -0.047100656 0.17178652
0.119810045 -0.06973901 -0.23228894 -0.21339668 -0.083303586 0.038967773 -0.061765138 -0.093407415
0.088659294 -0.21457121 0.114249125 -0.22854285 0.025717074 0.3144534 -0.2922755 -0.12570056
0.39681304 -0.18161924 -0.12336436 0.0049547604 0.35239485 0.50298846 -0.1359345 0.123499274
0.4254325 0.36549968 0.4241218 0.5051301 -0.029617624 -0.041978464 -0.21023695 -0.08051665
-0.17016132 -0.27444166 -0.11788405 -0.22538877 -0.15375012 0.43204296 0.14927092 0.79813933
0.3273612 -0.11787472 0.2115664 0.65280885 0.027676642 0.32690334 0.07247276 -0.122991875
-0.15281838 -0.04838466 -0.1586619 -0.2952369 -0.067133464 -0.11767288 -0.09039108 0.20160736
0.071865425 -0.11616047 0.18899636 -0.13335492 -0.48068386 -0.04669895 -0.08028856 -0.31475124
0.11716272 -0.2500115 -0.11250464 0.21989915 -0.22131042 -0.17004313 0.19672108 -0.19214967
-0.32643503 0.040861826 0.25729644 0.32948336 0.24877715 0.32353806 0.3312611 0.3070643
0.14129512 0.28669044 0.07246143 0.0717934 0.35433185 -0.0009360495 -0.093770064 0.06538632
0.07074118 -0.051370647 0.054260395 -0.15429796 -0.20428887 -0.17651016 -0.22102286 -0.23408557
-0.34015387 -0.08984673 0.014432833 -0.10778278 -0.08463694 -0.069385685 -0.1669987 -0.11154723
-0.12337466 -0.18487321 -0.055544578 0.011084444 -0.1243843 0.07380974 -0.094484754 -0.35649008
0.14940886 -0.06998117 -0.19637015 -0.14165856 -0.08110348 -0.255967 -0.24664275 -0.12322072
-0.006820669 -0.24623424 0.060945444 0.16072568 -0.068963975 0.3831876 0.080947325 0.11513228
0.106897146 0.4726985 0.04251576 0.020524666 0.17498505 0.18423735 -0.06736291 0.058608193
0.22977628 0.07883739 0.16279434 0.055020396 0.16646327 0.11203388 0.010172129 0.11176459
0.054301377 0.38450006 0.024212081 0.38899592 -0.04459217 -0.13170086 0.08447124 0.20650133
-0.06408305 0.08933529 -0.16144751 0.62701505 0.058392584 -0.48299313 -0.018579954 -0.21796614
-0.17803761 0.21797533 -0.12678987 -0.34876454 -0.22506483 0.101925544 -0.12365062 -0.073340945
0.10554293 0.0046785856 -0.009927868 0.09793067 0.20016469 0.24568623 0.2546421 0.064251065
0.13434854 0.036929756 0.07093189 0.13767377 0.07484353 -0.2685973 0.31203508 0.0443949
-0.36448082 0.08649293 -0.07945858 -0.42300123 0.23493613 -0.021367325 0.019758455 0.1969853
0.002940799 0.03753963 0.059107743 0.06910136 0.059536736 0.1712087 0.1910162 0.33384785
0.10265596 -0.02417148 0.09395021 0.03754821 0.102078296 0.16463248 0.08725512 -0.09256527
-0.3353222 0.31785116 0.01847997 -0.38789684 0.03410944 -0.17829339 -0.3906206 0.37227896
0.19968991 -0.05169832 -0.10896541 -0.02201957 -0.14211917 -0.15575671 0.067513324 -0.13470103
0.023707341 0.022116039 0.22176413 -0.11354098 0.10942563 -0.078295596 -0.05062731 -0.0713108
-0.041225046 -0.19145249 0.0177724 -0.15408742 0.038605858 0.31351748 0.024738353 0.059711777
0.27564672 0.087509535 0.18874009 0.3372681 0.16850471 0.014227785 -0.004511244 0.01230095
00000000: 8432 3ebe 2cb2 643c 33da 5fbd 92ea 04be
00000010: d710 77bd c6ed e63b 9eec 40bd cee8 2f3e
00000020: f85e f53d 53d3 8ebd 27dd 6dbe a984 5abe
00000030: 129b aabd ac9c 1f3d 71fd 7cbd 634c bfbd
00000040: 0193 b53d 8eb8 5bbe 72fb e93d 2307 6abe
00000050: 9dac d23c 0900 a13e 22a5 95be a6b7 00be
00000060: 142b cb3e 65fa 39be 74a6 fcbd 8b5b a23b
00000070: 196d b43e dac3 003f 6a32 0bbe 30ed fc3d
00000080: 4ad2 d93e c622 bb3e 7e26 d93e 3550 013f
00000090: a9a0 f2bc 9cf1 2bbd 5b48 57be eae5 a4bd
000000a0: c53e 2ebe 9e83 8cbe 316d f1bd 50cc 66be
000000b0: ac70 1dbe bc34 dd3e 7ada 183e dc52 4c3f
000000c0: e39b a73e 4d68 f1bd dda4 583e 7b1e 273f
000000d0: 20ba e23c e05f a73e 996c 943d 2ae3 fbbd
000000e0: 6c7c 1cbe fe2e 46bd 4478 22be 4a29 97be
000000f0: 457d 89bd 7bfe f0bd f51e b9bd 2972 4e3e
00000100: 2e2e 933d 8ae5 edbd 4388 413e 318e 08be
00000110: 321c f6be 6647 3fbd 546e a4bd 1327 a1be
00000120: 02f3 ef3d 8201 80be d568 e6bd 3e2d 613e
00000130: 339f 62be c91f 2ebe 4071 493e e2c2 44be
00000140: 7e22 a7be bb5e 273d 5cbc 833e 0bb2 a83e
00000150: 70bf 7e3e c8a6 a53e 0e9b a93e 8837 9d3e
00000160: abaf 103e 17c9 923e a966 943d 6b08 933d
00000170: fc6a b53e 3861 75ba 850a c0bd 43e9 853d
00000180: c0e0 903d 076a 52bd 2640 5e3d 4900 1ebe
00000190: 1a31 51be 14bf 34be d153 62be 21b4 6fbe
000001a0: a628 aebe 9001 b8bd b077 6c3c 38bd dcbd
000001b0: 2256 adbd 151a 8ebd b501 2bbe e072 e4bd
000001c0: dbab fcbd 674f 3dbe b682 63bd 879b 353c
000001d0: 32bd febd 9029 973d 3981 c1bd de85 b6be
000001e0: a3fe 183e 4a52 8fbd 4215 49be f10e 11be
000001f0: 9519 a6bd 1b0e 83be eb8f 7cbe 255b fcbd
00000200: eb7f dfbb d424 7cbe eea1 793d 4695 243e
00000210: fc3c 8dbd 2a31 c43e b6c7 a53d 79ca eb3d
00000220: e4ec da3d 8a05 f23e 0125 2e3d 5823 a83c
00000230: 482f 333e b7a8 3c3e 91f5 89bd 250f 703d
00000240: 794a 6b3e 7f75 a13d 8fb3 263e 115d 613d
00000250: 5975 2a3e 0572 e53d 00a9 263c d5e4 e43d
00000260: 1f6b 5e3d 31dd c43e 6a58 c63c 792a c73e
00000270: 47a6 36bd 97dc 06be 42ff ac3d 1675 533e
00000280: f93d 83bd 6cf5 b63d 7f52 25be 0f84 203f
00000290: 102d 6f3d e04a f7be fd34 98bc 8432 5fbe
000002a0: 7e4f 36be ed34 5f3e 34d5 01be 4491 b2be
000002b0: 6577 66be 57be d03d 893c fdbd c733 96bd
000002c0: e426 d83d d24e 993b 7fa8 22bc e08f c83d
000002d0: f9f7 4c3e 2c95 7b3e 7360 823e 1096 833d
000002e0: aa92 093e a843 173d bd44 913d 5afa 0c3e
000002f0: 9147 993d 9685 89be 10c3 9f3e 6dd7 353d
00000300: 3b9d babe 3523 b13d 2ebb a2bd 9e93 d8be
00000310: 1993 703e 870a afbc 7cdc a13c 84b6 493e
00000320: 6cba 403b 28c3 193d f61a 723d 0485 8d3d
00000330: cbdc 733d 5551 2f3e c099 433e 1bee aa3e
00000340: 4a3d d23d 4503 c6bc f868 c03d 27cc 193d
00000350: 6d0e d13d 6b95 283e d0b2 b23d dc92 bdbd
00000360: 5aaf abbe 63bd a23e 4e63 973c 6a9a c6be
00000370: 57b6 0b3d 8b92 36be 6cff c7be 599b be3e
00000380: 837b 4c3e 9ec1 53bd 4229 dfbd 6362 b4bc
00000390: b087 11be b07e 1fbe 6d44 8a3d 11ef 09be
000003a0: e635 c23c b22c b53c 2316 633e 2c88 e8bd
000003b0: 8b1a e03d 7159 a0bd 955e 4fbd 660b 92bd
000003c0: 98db 28bd 1f0c 44be 6d97 913c 18c9 1dbe
000003d0: 2d21 1e3d 5d85 a03e 16a8 ca3c 5694 743d
000003e0: 9121 8d3e 3338 b33d 1545 413e 68ae ac3e
000003f0: 808c 2c3e a81b 693c 0fd3 93bb ec89 493c

conv2.bias f4 [16]
-0.035986684 -0.32787576 0.012228137 -0.06608413 -0.209379 -0.2261396 -0.30450448 -0.12589686
-0.10787617 -0.18930803 -0.10718889 -0.12800084 -0.020613197 -0.1511726 0.030509358 -0.13934621
00000000: c666 13bd 55df a7be 8658 483c 1e57 87bd
00000010: 7367 56be 2491 67be 03e8 9bbe 1beb 00be
00000020: 2eee dcbd f7d9 41be d985 dbbd a712 03be
00000030: 02dd a8bc fdcc 1abe c3ee f93c c6b0 0ebe

conv3.weight f4 [16, 16, 8, 1]
-0.36202514 -0.04445105 -0.13686936 -0.10989699 -0.248292 -0.5125746 -0.304878 0.22515145
0.28490096 0.16258542 0.2547645 0.09335163 0.18042065 0.38636678 -0.20955878 -0.5671316
0.29199782 0.18445233 0.08117025 0.2432688 -0.071094126 0.0640629 -0.23248987 -0.11747154
-0.46046385 -0.029473014 -0.11556908 0.018942712 0.03273772 -0.23065482 -0.07771164 -0.14472216
-0.03846367 0.03312452 0.017887762 0.0589055 -0.0048437044 0.01219229 0.056706615 0.1633014
-0.32570368 0.03246162 0.056098327 0.02166407 -0.036806617 0.0458068 -0.43490613 -0.18432356
0.15752913 0.20511161 0.27130222 0.06960725 0.17675401 0.16037619 -0.044741366 -0.067245565
0.12619837 0.031451788 0.01494834 -0.14719544 -0.19833586 -0.281057 -0.014965096 -0.09123847
-0.09697294 -0.0020534873 0.11457252 0.022399735 -0.2807397 -0.21838127 0.39484906 -0.20882624
-0.083682045 -0.0574592 -0.118413515 -0.16527128 -0.038026612 0.11913698 -0.28749368 0.12511726
0.19345774 -0.013975453 0.1279637 -0.076401755 -0.029879617 -0.08420964 0.09054946 -0.038810346
-0.2519258 -0.011624141 0.1621652 0.08911366 0.28156185 -0.24603693 -0.55944836 0.16317667
-0.19044755 -0.0620978 -0.27050343 -0.113871366 -0.2214382 -0.5119362 0.03706822 0.3754232
0.11172737 0.20116721 0.24286403 0.1421495 -0.055335104 0.23614678 0.41214538 -0.56252754
-0.028962009 0.13006297 0.08949109 0.110569455 0.0049095117 -0.10415406 -0.18145192 0.053607147
-0.6224186 -0.20188427 -0.008177867 -0.009039392 -0.030574406 -0.0782404 0.0077234376 0.055817835
-0.44693154 -0.3454578 -0.24449867 -0.041558366 -0.004239209 0.08108711 0.45818618 0.09038431
0.107907526 0.2503347 0.22027075 0.37258494 0.30487537 0.2945566 -0.21940845 -0.120415844
-0.037303843 -0.20547162 -0.3481321 0.25024012 0.031668667 0.3996534 -0.1144707 -0.0126671735
0.19423045 0.41613638 -0.39222065 -0.040214654 -0.13000764 -0.31379965 -0.42736855 -0.43605354
-0.44857204 -0.16415277 0.05523867 0.1106966 -0.15941787 0.19054127 -0.07751956 0.046347063
0.16966377 -0.041763004 -0.28303915 -0.20441641 -0.040019955 0.10437521 -0.32147154 -0.19706699
-0.042329393 0.29047796 -0.05462741 -0.15487108 0.03916679 0.088682584 0.105159745 0.031052154
-0.12844744 0.0077293054 -0.23881266 0.22545895 0.19198255 0.026736084 0.28647417 0.017150732
-0.4323661 -0.06039386 -0.3051643 -0.036487494 -0.038924042 0.15800832 0.6089136 -0.0736308
-0.020017564 0.014936102 0.32319635 0.25031644 -0.056540053 0.17970712 -0.04175594 0.2354547
0.19287707 0.15185136 0.2091785 -0.009336605 -0.30876037 -0.11427041 0.3011204 -0.41298696
0.12976302 0.30777076 0.3883952 0.18181035 0.070745416 -0.03189449 -0.17838833 -0.034305852
-0.14721265 -0.3333647 -0.23227364 -0.266252 -0.39690828 0.051363345 0.17325093 0.2172421
-0.004165166 0.075332694 -0.03663151 0.14755651 0.110177994 -0.15365453 0.34116185 -0.28906637
0.15693274 0.08314133 -0.017977312 0.03326771 0.30971307 -0.041560072 -0.59675413 0.1279602
-0.007573194 -0.052733354 0.07268661 0.07577959 -0.21360557 0.031370558 0.07195219 0.26651552
00000000: 5c5b b9be 4e12 36bd 7b27 0cbe ac11 e1bd
00000010: 4240 7ebe 1738 03bf f818 9cbe 1a8e 663e
00000020: 8ade 913e cb7c 263e 7e70 823e 242f bf3d
00000030: 31c0 383e ded1 c53e 9496 56be 892f 11bf
00000040: bd80 953e 12e1 3c3e 973c a63d 751b 793e
00000050: cc99 91bd 6933 833d d311 6ebe eb94 f0bd
00000060: ebc1 ebbe 6471 f1bc 7baf ecbd bf2d 9b3c
00000070: fd17 063d c730 6cbe 4827 9fbd 0c32 14be
00000080: 158c 1dbd 94ad 073d 5b89 923c e546 713d
00000090: f0b7 9ebb 2cc2 473c 3245 683d 7b38 273e
000000a0: a2c2 a6be 7af6 043d 5cc7 653d d978 b13c
000000b0: 89c2 16bd e99f 3b3d 04ac debe 51bf 3cbe
000000c0: 514f 213e c708 523e 20e8 8a3e 3f8e 8e3d
000000d0: 01ff 343e a839 243e b942 37bd 0bb8 89bd
000000e0: 253a 013e 97d3 003d e2e9 743c 67ba 16be
000000f0: 8e18 4bbe b4e6 8fbe 2930 75bc 3cdb babd
00000100: c099 c6bd cd93 06bb ffa4 ea3d a67f b73c
00000110: 1dbd 8fbe 579f 5fbe a829 ca3e 8cd6 55be
00000120: 7e61 abbd 575a 6bbd c982 f2bd e03c 29be
00000130: cbc1 1bbd 17fe f33d 5f32 93be bd1e 003e
00000140: c919 463e 4cf9 64bc eb08 033e 8678 9cbd
00000150: 19c6 f4bc 1b76 acbd ff71 b93d 99f7 1ebd
00000160: 6bfc 80be 2e73 3ebc a20e 263e 3981 b63d
00000170: e028 903e 1bf1 7bbe 0238 0fbf c917 273e
00000180: af04 43be 435a 7ebd 6d7f 8abe 6435 e9bd
00000190: b2c0 62be 400e 03bf d9d4 173d 7837 c03e
000001a0: 52d1 e43d c7fe 4d3e 59b1 783e a38f 113e
000001b0: 10a7 62bd 76d0 713e b804 d33e ce01 10bf
000001c0: bc41 edbc 3a2f 053e 1b47 b73d 3d72 e23d
000001d0: f8df a03b b94e d5bd 88ce 39be 2b93 5b3d
000001e0: d356 1fbf c0ba 4ebe 76fc 05bc f519 14bc
000001f0: 2d77 fabc 813c a0bd e414 fd3b 3ea1 643d
00000200: 36d4 e4be d8df b0be dc5d 7abe 1b39 2abd
00000210: 10e9 8abb 0011 a63d 6197 ea3e 691b b93d
00000220: 9ffe dc3d df2b 803e a88e 613e 74c3 be3e
00000230: a018 9c3e 1fd0 963e 9cac 60be 959c f6bd
00000240: eacb 18bd 2767 52be 5f3e b2be 791f 803e
00000250: 01b7 013d 5f9f cc3e 9d6f eabd fa89 4fbc
00000260: 59e4 463e d40f d53e 25d1 c8be 1fb8 24bd
00000270: b920 05be 59aa a0be 0dd0 dabe 6942 dfbe
00000280: 3cab e5be aa17 28be f241 623d e6b4 e23d
00000290: 703e 23be 401d 433e 93c2 9ebd 6bd6 3d3d
000002a0: 57bc 2d3e af0f 2bbd 82ea 90be 8952 51be
000002b0: f7eb 23bd acc2 d53d eb97 a4be eecb 49be
000002c0: 9661 2dbd 87b9 943e fec0 5fbd 8696 1ebe
000002d0: 5b6d 203d 379f b53d fe5d d73d 1661 fe3c
000002e0: ba87 03be 1d46 fd3b 4e8b 74be b6de 663e
000002f0: 1397 443e a205 db3c beac 923e b17f 8c3c
00000300: 175f ddbe 8d5f 77bd 7f3e 9cbe e973 15bd
00000310: d16e 1fbd efcc 213e c3e1 1b3f bfcb 96bd
00000320: e0fb a3bc 8db6 743c fe79 a53e 7a29 803e
00000330: 8b96 67bd 2505 383e 4708 2bbd 091b 713e
00000340: 9181 453e ec7e 1b3e e432 563e 8ff8 18bc
00000350: d715 9ebe 9b06 eabd 742c 9a3e 0773 d3be
00000360: 99e0 043e 2194 9d3e bcdb c63e 7e2c 3a3e
00000370: f9e2 903d cca3 02bd 6eab 36be 4b84 0cbd
00000380: eabe 16be c7ae aabe 24d9 6dbe 2f52 88be
00000390: 9037 cbbe 5f62 523d b168 313e b774 5e3e
000003a0: f27b 88bb 0748 9a3d ec0a 16bd 0e19 173e
000003b0: 00a5 e13d 9d57 1dbe c4ac ae3e 8200 94be
000003c0: fab2 203e 0046 aa3d 2845 93bc b943 083d
000003d0: b692 9e3e e53a 2abd e1c4 18bf 0008 033e
000003e0: 8e28 f8bb eefe 57bd b8dc 943d 5432 9b3d
000003f0: 6bbb 5abe 6a7e 003d ab5b 933d b974 883e

conv3.bias f4 [16]
-0.15915686 -0.11715854 -0.043063093 -0.052962415 -0.068346776 0.3524128 0.16829331 -0.003984681
-0.14388347 -0.6230666 0.28028625 0.3786322 -0.06267906 -0.05380894 0.300345 -0.13160603
00000000: 04fa 22be d1f0 efbd ed62 30bd 1eef 58bd
00000010: 65f9 8bbd 736f b43e 1555 2c3e ed91 82bb
00000020: 3056 13be 4b81 1fbf ae81 8f3e 14dc c13e
00000030: e15d 80bd c366 5cbd d2c6 993e bbc3 06be

tcn.tcn.0.conv1.weight f4 [16, 16, 5]
0.27946216 0.25994942 0.20352252 0.15575439 -0.019980442 -0.045425937 -0.08145282 -0.03934197
-0.18243228 -0.6279722 0.43886688 0.3421522 0.43054786 0.14505038 0.18221489 0.21458416
0.1848096 0.1766073 0.1883755 0.3758327 0.30292767 0.11491826 0.3282453 0.21192227
-0.04775332 -0.19606763 0.18685484 0.23661168 0.0070325704 0.23990773 -0.17700484 -0.07480435
-0.17075717 -0.109307475 0.08288698 -0.1196686 -0.15383947 -0.024507917 0.08010345 -0.05027976
0.08419708 0.11588862 -0.027682068 -0.15286303 -0.016531512 -0.017582778 -0.027970122 -0.14960381
-0.22177503 0.046890978 -0.3842449 -0.20452969 -0.24169585 -0.38725033 -0.18524034 -0.44327945
-0.42943078 -0.27734175 -0.30585745 -0.35537153 0.18423882 0.038738564 0.19747144 -0.15176533
-0.25158805 -0.01421317 -0.047236115 -0.06626672 0.015167823 -0.03485422 -0.24665809 -0.11536431
-0.19099157 -0.23785767 -0.056756005 -0.04036293 -0.18683694 0.042714912 -0.0037994545 -0.0043934137
0.25580436 0.32912162 0.062245406 0.19688575 0.099979624 0.09829882 0.2897504 -0.086129725
0.1004819 0.23661755 0.046055194 0.4294161 0.28725892 0.30625308 0.4925853 -0.046514828
-0.02322634 -0.29967007 0.010826634 -0.0899025 -0.4178568 -0.30365553 -0.049196217 -0.0438435
0.053012874 0.024224514 0.041885134 0.01945526 -0.021380661 -0.0005992187 -0.3361836 -0.2830705
-0.17468378 -0.08163858 -0.059566617 -0.030378632 -0.07665608 -0.073332876 0.13270853 0.19901738
0.037252862 0.13781312 -0.093257114 -0.0068849963 -0.03286326 -0.11547842 -0.25810203 -0.2483674
-0.15292223 0.041612882 -0.06649685 -0.15197326 -0.0518003 0.06385005 0.073810995 -0.06559971
0.10180498 0.08360478 0.06705555 0.13972245 -0.15327393 -0.071237415 0.07399484 -0.001561707
0.11665356 -0.18285361 -0.0579615 -0.02248003 0.033850037 0.19125663 0.11834091 -0.16768345
0.025218712 -0.08771733 -0.20179561 0.04487012 0.07396437 -0.10468185 -0.12520987 0.19156346
-0.012127432 0.23707154 0.03934676 0.07991532 -0.121315755 0.11723336 0.07130787 0.06010594
0.08693969 0.11351144 -0.12647367 -0.3840903 -0.18062727 -0.14362316 -0.3364814 -0.08358864
0.0126106655 -0.16817977 0.057669304 0.13734975 0.08059536 0.06533634 0.026971394 0.06916773
0.08332491 0.12384858 0.22224851 -0.055636197 -0.03308373 0.025575796 -0.047016274 0.038032368
0.06308334 0.11769402 0.1455196 -0.25837094 -0.2726784 -0.03185619 0.2073135 -0.017837957
-0.30036587 -0.4164076 -0.37669027 -0.56064916 -0.5557154 -0.12426262 -0.17986153 0.02618559
0.15457715 -0.0362709 0.099118926 -0.008869894 -0.1184296 -0.20628496 -0.39794472 -0.28522614
-0.124089256 -0.036932766 -0.01364905 -0.19727695 -0.4675483 -0.47445965 -0.15258385 0.006608542
-0.1820843 -0.1427488 -0.020000657 0.062238015 0.30197403 0.025547294 -0.45632476 -0.27268437
-0.008330969 0.03313372 0.0145144425 -0.150638 -0.24534765 0.081281796 -0.13174672 -0.29604405
-0.13218759 -0.079237774 -0.06987704 0.2063375 0.17937835 -0.25198862 -0.08146048 -0.091882184
-0.061998546 0.030904274 -0.13187993 0.1348656 0.28369957 0.09254177 0.2730665 -0.07548766
00000000: aa15 8f3e 1718 853e 3568 503e 147e 1f3e
00000010: 06ae a3bc 8c10 3abd bcd0 a6bd 0c25 21bd
00000020: 87cf 3abe c9c2 20bf 29b3 e03e 932e af3e
00000030: c570 dc3e 1688 143e 8a96 3a3e f3bb 5b3e
00000040: ba3e 3d3e 8bd8 343e 82e5 403e 256d c03e
00000050: 5619 9b3e 445a eb3d c50f a83e 2702 593e
00000060: fc98 43bd f4c5 48be e056 3f3e 554a 723e
00000070: 7a71 e63b 5faa 753e c240 35be 0633 99bd
00000080: f8da 2ebe 99dc dfbd a6c0 a93d d014 f5bd
00000090: 1888 1dbe d4c4 c8bc 470d a43d 26f2 4dbd
000000a0: 856f ac3d 0357 ed3d 81c5 e2bc 2088 1cbe
000000b0: 186d 87bc c209 90bc 9921 e5bc be31 19be
000000c0: fe18 63be c110 403d bfbb c4be 3b70 51be
000000d0: 1e7f 77be ad45 c6be a5af 3dbe 86f5 e2be
000000e0: 5ade dbbe bdff 8dbe 5999 9cbe 42f3 b5be
000000f0: 1aa9 3c3e 54ac 1e3d f435 4a3e 5f68 1bbe
00000100: 26d0 80be 5bde 68bc a87a 41bd d9b6 87bd
00000110: 7682 783c 4cc3 0ebd f093 7cbe 2044 ecbd
00000120: 4b93 43be f690 73be fc78 68bd 9a53 25bd
00000130: 2f52 3fbe d5f5 2e3d 4500 79bb a0f6 8fbb
00000140: caf8 823e a182 a83e 0af5 7e3d 6b9c 493e
00000150: 1ec2 cc3d e450 c93d 2a5a 943e c864 b0bd
00000160: 74c9 cd3d df4b 723e 5fa4 3c3d 6ddc db3e
00000170: 9a13 933e 34cd 9c3e 2434 fc3e 5586 3ebd
00000180: 2a45 bebc 5b6e 99be 3262 313c cd1e b8bd
00000190: 54f1 d5be bd78 9bbe f981 49bd 3e95 33bd
000001a0: 0724 593d 7d72 c63c bf8f 2b3d a360 9f3c
000001b0: 7f26 afbc e314 1dba 4220 acbe 9eee 90be
000001c0: 4ee0 32be 2132 a7bd 20fc 73bd 9cdc f8bc
000001d0: ddfd 9cbd 8c2f 96bd bfe4 073e 36cb 4b3e
000001e0: 7596 183d e21e 0d3e 96fd bebd 899b e1bb
000001f0: a09b 06bd f37f ecbd f325 84be 0654 7ebe
00000200: a597 1cbe 4572 2a3d 802f 88bd e19e 1bbe
00000210: 8d2c 54bd d1c3 823d 382a 973d 2459 86bd
00000220: 217f d03d fc38 ab3d 6c54 893d 6713 0f3e
00000230: d7f3 1cbe ece4 91bd 9b8a 973d 31b2 ccba
00000240: 10e8 ee3d fa3d 3bbe 0a69 6dbd 0a28 b8bc
00000250: 56a6 0a3d c7d8 433e b85c f23d 36b5 2bbe
00000260: 7997 ce3c 25a5 b3bd 82a3 4ebe bbc9 373d
00000270: a27a 973d 7063 d6bd 0437 00be 3629 443e
00000280: 23b2 46bc e2c2 723e 112a 213d a5aa a33d
00000290: 6574 f8bd 0b18 f03d dc09 923d a531 763d
000002a0: 700d b23d b078 e83d 5082 01be 7ca7 c4be
000002b0: 5bf6 38be f311 13be 4a47 acbe 8530 abbd
000002c0: f79c 4e3c 5137 2cbe a636 6c3d 6aa5 0c3e
000002d0: 2e0f a53d 0fcf 853d 1df3 dc3c d0a7 8d3d
000002e0: 40a6 aa3d 53a4 fd3d 1d95 633e c8e2 63bd
000002f0: ce82 07bd 5584 d13c 2394 40bd d4c7 1b3d
00000300: d731 813d 9009 f13d 1703 153e 3249 84be
00000310: 819c 8bbe a37b 02bd fd49 543e e820 92bc
00000320: 8ec9 99be 6033 d5be 8cdd c0be b486 0fbf
00000330: 5d43 0ebf 677d febd 9f2d 38be 2a83 d63c
00000340: 7949 1e3e cc90 14bd ddfe ca3d 0853 11bc
00000350: 388b f2bd 5d3c 53be 69bf cbbe 2909 92be
00000360: 8222 febd d046 17bd 44a0 5fbc f802 4abe
00000370: 7e62 efbe 60ec f2be f13e 1cbe 788c d83b
00000380: 4f74 3abe be2c 12be 6bd8 a3bc 4aed 7e3d
00000390: 579c 9a3e 8f48 d13c 66a3 e9be 499d 8bbe
000003a0: 9e7e 08bc 39b7 073d fccd 6d3c d940 1abe
000003b0: 6a3c 7bbe 1277 a63d 9de8 06be 1693 97be
000003c0: 2f5c 07be 6a47 a2bd b21b 8fbd 234a 533e
000003d0: f5ae 373e a704 81be c1d4 a6bd ba2c bcbd
000003e0: 30f2 7dbd f62a fd3c 880b 07be 351a 0a3e
000003f0: 1241 913e 8a86 bd3d 5fcf 8b3e 4699 9abd

tcn.tcn.0.conv1.bias f4 [16]
0.010963788 -0.15088317 0.0332999 0.19048057 -0.26171058 -0.03416405 -0.11322227 -0.18846416
-0.043055486 0.06521513 -0.33059943 -0.083275534 0.09178448 -0.025336128 -0.13642842 -0.17740916
00000000: 76a1 333c 1e81 1abe 7a65 083d 570d 433e
00000010: eefe 85be 9aef 0bbd 14e1 e7bd c0fc 40be
00000020: f35a 30bd 838f 853d 5444 a9be 5d8c aabd
00000030: 80f9 bb3d b68d cfbc e4b3 0bbe bfaa 35be

tcn.tcn.0.conv2.weight f4 [16, 16, 1]
0.12597862 -0.06616883 0.2865007 0.07933412 0.13181871 -0.12386803 0.047355864 0.2985264
0.11740795 -0.05323559 -0.16298057 -0.1341158 0.13397476 -0.025651347 -0.060289882 0.4219318
0.18229556 0.16561833 0.06914005 0.3462058 0.016280757 0.09924314 0.21921527 -0.09441089
-0.2021732 0.03010197 -0.14032671 -0.030829152 0.042793866 -0.19632757 -0.051413678 0.32282597
0.022367189 0.11528059 -0.28464592 0.2530817 0.052976284 -0.06950278 -0.069318734 0.06480204
0.07717564 0.33852994 0.13396241 0.15709028 -0.09664977 0.22331482 -0.1080463 -0.09016108
0.2426008 0.1569353 -0.07256967 -0.016348919 -0.11239708 0.102002114 0.17093673 -0.083241105
-0.27084655 -0.17749505 -0.10548427 -0.2170822 0.2876633 0.06903113 0.032592546 0.2005551
0.22698429 0.31355172 -0.0756816 0.040365938 0.026370704 -0.035462912 -0.034703486 -0.4078172
-0.042709295 -0.36496675 -0.013190992 -0.116499916 -0.16411617 0.14316937 0.011613455 0.09483133
0.10082298 0.07110342 -0.12101406 -0.124115415 -0.26531127 -0.0616925 -0.117024735 -0.32947913
0.15348518 -0.38829517 -0.14546628 -0.4391727 -0.1252566 0.050968554 0.2541987 0.005803528
-0.11522836 -0.22458513 -0.18333851 -0.11159841 0.02448779 -0.0068874266 -0.05879143 -0.02899115
-0.4923465 0.18440366 -0.20403385 -0.25571346 0.04541076 -0.28058314 0.00856372 -0.107575685
-0.2039212 0.01007841 0.01583165 0.12949626 -0.08470285 0.21600309 0.04670076 0.17459604
0.22458245 0.07128146 0.062257476 0.22059493 0.19114515 0.22456774 -0.23610985 -0.17392653
-0.20336096 0.024032176 0.2898068 0.100174025 -0.0033939853 0.07920465 0.043635294 0.068041876
-0.12515941 0.008568763 0.048270803 -0.11304434 0.034340795 0.20657119 -0.31952834 0.30155298
-0.17538571 0.15368898 -0.056527734 0.121303 0.21843292 0.17934299 0.19879319 -0.14282802
-0.093186155 -0.13059805 -0.028639527 0.04806058 -0.098850965 0.011874832 -0.28175917 -0.03569193
-0.2816774 -0.05382908 -0.015610322 -0.050799746 -0.13536903 0.00039073225 0.15768518 0.117535986
-0.113554366 0.5934343 -0.13583034 0.48191935 0.13134806 -0.029717859 0.10546589 -0.2114352
-0.0015064668 0.0069624768 -0.28313553 0.2657373 -0.09711705 -0.053649805 -0.12726067 0.38838923
0.002929074 0.599324 -0.0038951985 0.116388544 0.0066980077 0.04511074 0.4314495 0.2979009
-0.21555352 -0.17092392 0.09925998 -0.039341275 -0.11817584 -0.04729081 -0.31485933 0.30153686
-0.114254564 0.225382 -0.1934516 0.21123447 0.21983846 -0.11727552 0.03151421 -0.29740664
0.13194112 0.14198186 0.31157774 -0.0485492 -0.038474895 -0.20268913 -0.025751682 0.3082644
-0.09862839 0.29882655 -0.21423084 -0.0181827 0.122387215 0.09151402 -0.1576528 0.25161275
-0.09572104 -0.025723135 -0.019827357 -0.2644851 -0.07109753 0.10501472 0.005120851 0.31432804
-0.05431638 0.4816204 -0.1806954 0.153083 -0.15466668 -0.08388333 -0.19164467 -0.11866141
2.0431247e-05 -0.13096182 0.024232732 -0.16333632 0.08071521 -0.021343628 -0.016293632 -0.08812592
0.25097686 0.5902672 -0.1931468 -0.07016816 0.024291085 0.266443 0.0053167334 0.3200399
00000000: 8a00 013e 8683 87bd 38b0 923e ed79 a23d
00000010: 7cfb 063e 86ae fdbd 39f8 413d 74d8 983e
00000020: 9473 f03d 900d 5abd 61e4 26be a755 09be
00000030: ae30 093e c622 d2bc 86f2 76bd 7207 d83e
00000040: b0ab 3a3e da97 293e 4c99 8d3d e341 b13e
00000050: 395f 853c fd3f cb3d f879 603e 7f5a c1bd
00000060: 7e06 4fbe 6898 f63c ceb1 0fbe 6b8d fcbc
00000070: 9f48 2f3d 180a 49be 2697 52bd 7249 a53e
00000080: 653b b73c 3b18 ec3d 1cbd 91be ed93 813e
00000090: a9fd 583d 7957 8ebd fbf6 8dbd efb6 843d
000000a0: 430e 9e3d cc53 ad3e 712d 093e 46dc 203e
000000b0: 51f0 c5bd a4ac 643e 6147 ddbd 5fa6 b8bd
000000c0: 586c 783e a6b3 203e 689f 94bd 2bee 85bc
000000d0: 7130 e6bd 7ce6 d03d 0a0a 2f3e 507a aabd
000000e0: 66ac 8abe 43c1 35be 2308 d8bd cc4a 5ebe
000000f0: 9b48 933e 3160 8d3d c37f 053d 515e 4d3e
00000100: 926e 683e da89 a03e f4fe 9abd c156 253d
00000110: 6007 d83c 8f41 11bd 3e25 0ebd 6bcd d0be
00000120: f1ef 2ebd ecdc babe 081f 58bc 8297 eebd
00000130: 120e 28be fe9a 123e 5c46 3e3c ee36 c23d
00000140: 477c ce3d ab9e 913d 38d6 f7bd 3930 febd
00000150: e1d6 87be 46b1 7cbd aaaa efbd 7db1 a8be
00000160: 382b 1d3e a0ce c6be 1df5 14be 3edb e0be
00000170: 4443 00be 67c4 503d 5526 823e 852b be3b
00000180: d9fc ebbd a5f9 65be 17bd 3bbe b58d e4bd
00000190: 9e9a c83c ecaf e1bb 48cf 70bd d97e edbc
000001a0: d714 fcbe 50d4 3c3e 40ee 50be e0ec 82be
000001b0: a200 3a3d 98a8 8fbe d84e 0c3c a450 dcbd
000001c0: b8d0 50be ea1f 253c 60b1 813c ab9a 043e
000001d0: b078 adbd ea2f 5d3e 4c49 3f3d 4ec9 323e
000001e0: f1f8 653e 04fc 913d b201 7f3d a3e3 613e
000001f0: 8ebb 433e 16f5 653e c8c6 71be cc19 32be
00000200: db3d 50be 20df c43c 8f61 943e 0a28 cd3d
00000210: a06d 5ebb 0c36 a23d ecba 323d 8a59 8b3d
00000220: ca29 00be ff63 0c3c 9bb7 453d ca83 e7bd
00000230: efa8 0c3d 6687 533e 3899 a3be 2765 9a3e
00000240: 5098 33be a560 1d3e a089 67bd b56d f83d
00000250: e1ac 5f3e b0a5 373e 7190 4b3e 8241 12be
00000260: 62d8 bebd 7fbb 05be 719d eabc 2cdb 443d
00000270: 6072 cabd a88e 423c bd42 90be b431 12bd
00000280: 0538 90be e27b 5cbd 70c2 7fbc 6513 50bd
00000290: 2e9e 0abe 32db cc39 3978 213e b5b6 f03d
000002a0: 318f e8bd 4feb 173f 1c17 0bbe 22be f63e
000002b0: 1b80 063e de72 f3bc 80fe d73d 7882 58be
000002c0: a374 c5ba 7d25 e43b 24f7 90be b80e 883e
000002d0: 4ee5 c6bd e6bf 5bbd 9f50 02be f4da c63e
000002e0: b5f5 3f3b 4c6d 193f 9646 7fbb 1e5d ee3d
000002f0: f67a db3b 0ac6 383d f3e6 dc3e 7786 983e
00000300: 10ba 5cbe ae06 2fbe d148 cb3d 5124 21bd
00000310: 2d06 f2bd 02b4 41bd 3e35 a1be 0a63 9a3e
00000320: 4cfe e9bd 8aca 663e 2d18 46be d94d 583e
00000330: 551d 613e 262e f0bd 0b15 013d af45 98be
00000340: 931b 073e b163 113e 1e87 9f3e 87db 46bd
00000350: da97 1dbd bd8d 4fbe 31f5 d2bc d5d4 9d3e
00000360: aefd c9bd cbff 983e 545f 5bbe e3f3 94bc
00000370: 26a6 fa3d b46b bb3d bc6f 21be 63d3 803e
00000380: 6509 c4bd 53b9 d2bc fb6c a2bc 976a 87be
00000390: 959b 91bd f511 d73d d0cc a73b 9bef a03e
000003a0: da7a 5ebd f396 f63e 3708 39be cac1 1c3e
000003b0: f160 1ebe 06cb abbd 803e 44be c104 f3bd
000003c0: c563 ab37 db1a 06be b983 c63c a341 27be
000003d0: 044e a53d d5d8 aebc 397a 85bc 5d7b b4bd
000003e0: 0a80 803e c01b 173f 46c8 45be 53b4 8fbd
000003f0: 19fe c63c 386b 883e fe37 ae3b 45dc a33e

tcn.tcn.0.conv2.bias f4 [16]
0.15962352 -0.04828542 0.07942977 -0.0219116 0.09967441 -0.057852376 -0.18625723 -0.008684949
-0.2622423 -0.13785502 0.14696422 0.09044137 0.12324343 -0.023639718 0.23523782 0.044236545
00000000: 5974 233e efc6 45bd 13ac a23d f57f b3bc
00000010: 1922 cc3d 9df6 6cbd 37ba 3ebe 514b 0ebc
00000020: 9f44 86be de29 0dbe ca7d 163e 5339 b93d
00000030: 0d67 fc3d 15a8 c1bc 2fe2 703e 6131 353d

tcn.tcn.0.res_conv.weight f4 [16, 16, 1]
-0.020657388 -0.0065074908 -0.25583234 -0.037023064 0.00836658 0.6873893 -0.03712609 -0.1404507
0.028438222 0.23947948 -0.16977346 0.40369147 -0.042739995 0.012036035 0.28239852 0.16276187
0.17496678 -0.004756958 -0.26273 0.02189338 0.0061924905 -0.12180493 0.079830326 -0.386052
0.003776929 -0.015239391 0.02693599 0.09712318 0.2296647 -0.11202598 -0.25084123 -0.22231284
0.10334451 -0.27252516 0.2129831 0.26389912 0.015680825 -0.37720668 0.43100554 0.14797395
0.1721459 0.40577143 0.18129921 -0.37054434 -0.26493564 0.18635231 0.13046871 -0.081580326
0.2535141 -0.28694075 -0.003814148 -0.06837195 -0.043544002 0.024578925 -0.033934478 0.20326224
-0.025064839 0.19558468 0.18277918 -0.20881183 0.137588 0.17865731 0.2081084 -0.13826478
-0.19777411 0.25971738 -0.25112456 -0.22394748 0.14931451 0.08537596 -0.26990235 -0.0030671866
-0.11344587 -0.017982889 0.15635245 -0.07838902 0.22838598 0.0759931 0.027623624 -0.06341487
0.15103564 0.267836 -0.27098438 -0.064488225 -0.18180493 0.61123586 -0.35361528 0.013935504
-0.12656362 -0.009364882 -0.049904805 0.12646948 0.060128532 0.13302891 0.05970001 0.12241593
-0.27760968 0.26538837 0.039659504 -0.0846367 0.23466393 0.4140657 -0.27168092 0.0057560983
-0.19645695 0.23743524 -0.31735137 0.12123561 0.08463447 -0.19616021 -0.035572026 0.066109136
-0.1814064 0.17079344 0.05532478 0.11871983 -0.0135611035 0.48137078 0.41173553 -0.2860271
-0.2362584 -0.2125478 -0.13786258 0.012045765 -0.001979687 -0.21156573 -0.14897707 -0.10966886
-0.36574748 -0.008385545 0.074913695 -0.3659349 -0.30771187 0.22905381 -0.0440073 -0.12853132
-0.2841973 0.7133375 0.47231805 0.16774905 -0.22740325 -0.24831453 -0.23374757 0.19046958
0.29732314 -0.056807406 0.20487538 -0.17775671 -0.08460147 -0.46970278 0.31403926 0.060911432
-0.15450451 0.33515748 0.11004827 0.10981117 -0.14622886 0.32557365 -0.05110936 -0.3433645
-0.00077559584 -0.10195874 -0.29091334 -0.29563832 -0.07890015 -0.32700902 0.25546867 0.09804369
-0.14841616 0.43806854 -0.117566824 -0.4704881 -0.07844506 -0.25130975 0.35885373 -0.16887043
-0.414344 -0.19645111 -0.2442039 -0.12729488 -0.014434653 0.006960219 -0.31954688 0.051429477
0.39170727 -0.1892836 -0.22287604 0.17762066 0.17413212 -0.17588027 0.057049204 -0.15289004
0.2021603 0.34914547 0.08699105 0.20065968 -0.14945282 -0.14531177 -0.27206257 0.13501091
0.38527197 0.16593201 -0.29122594 0.20407365 0.031325135 -0.075299986 -0.0078004 0.21261397
0.4248984 0.40984467 0.1580304 0.51746047 -0.11034912 0.0066076894 0.19774584 0.08046938
-0.08700643 -0.14993212 -0.05453516 -0.26672837 0.009214538 -0.08760969 0.15195985 -0.13040018
-0.12582438 -0.351378 0.111816846 0.07461067 -0.088862084 -0.73863024 0.27788773 -0.011375938
-0.25855175 0.12785165 -0.1485403 -0.10175033 0.043302193 0.23925532 0.07511841 0.09014796
-0.38067204 -0.039852448 -0.2181452 -0.08612021 0.11865826 0.29467922 -0.17642313 0.16122586
-0.06672957 -0.067337304 -0.32055342 0.035385918 0.022014152 0.052609954 -0.14186455 0.16543013
00000000: af39 a9bc ca3c d5bb 75fc 82be 7fa5 17bd
00000010: fb13 093c bff8 2f3f 8711 18bd 4fd2 0fbe
00000020: 46f7 e83c 1c3a 753e 18d9 2dbe a6b0 ce3e
00000030: 2210 2fbd ca32 453c 8a96 903e 0cab 263e
00000040: 7e2a 333e 42e0 9bbb 8c84 86be bf59 b33c
00000050: 60ea ca3b dd74 f9bd 157e a33d 9ca8 c5be
00000060: 5b86 773b a3ae 79bc dea8 dc3c 85e8 c63d
00000070: 392d 6b3e e16d e5bd 436e 80be faa5 63be
00000080: 49a6 d33d 6b88 8bbe 3e18 5a3e c91d 873e
00000090: 1375 803c 3c21 c1be c2ac dc3e 7c86 173e
000000a0: 0447 303e 46c1 cf3e 80a6 393e fdb7 bdbe
000000b0: a5a5 87be 24d3 3e3e 9799 053e 9613 a7bd
000000c0: 9acc 813e e6e9 92be c9f6 79bb 9806 8cbd
000000d0: 325b 32bd be59 c93c e1fe 0abd fa23 503e
000000e0: c754 cdbc 5a47 483e 772a 3b3e c5d2 55be
000000f0: dee3 0c3e f1f1 363e 5e1a 553e 4895 0dbe
00000100: 4c85 4abe adf9 843e 6693 80be 7d52 65be
00000110: e7e5 183e 97d9 ae3d a430 8abe da02 49bb
00000120: 4f56 e8bd da50 93bc db1a 203e 6c8a a0bd
00000130: 04de 693e 45a2 9b3d f04a e23c a8df 81bd
00000140: 16a9 1a3e cd21 893e 77be 8abe 6712 84bd
00000150: 122b 3abe f479 1c3f 100d b5be bd51 643c
00000160: e599 01be 296f 19bc fb68 4cbd 3781 013e
00000170: 5649 763d bb38 083e ff87 743d 34b5 fa3d
00000180: db22 8ebe fce0 873e 0172 223d 0256 adbd
00000190: be4b 703e 6b00 d43e c319 8bbe a79d bc3b
000001a0: 032c 49be 3922 733e e17b a2be 604a f83d
000001b0: d654 ad3d 39de 48be f9b3 11bd 3a64 873d
000001c0: 99c2 39be 7ae4 2e3e 3d9c 623d 6223 f33d
000001d0: 642f 5ebc 3b76 f63e 00cf d23e 2572 92be
000001e0: b9ed 71be 21a6 59be d92b 0dbe 9a5b 453c
000001f0: a3bd 01bb b0a4 58be 728d 18be 119a e0bd
00000200: 4143 bbbe 8663 09bc 5a6c 993d d25b bbbe
00000210: 698c 9dbe 158d 6a3e 0041 34bd b79d 03be
00000220: 4f82 91be 499d 363f acd3 f13e 68c6 2b3e
00000230: 66dc 68be 2a46 7ebe 865b 6fbe 750a 433e
00000240: bd3a 983e e2ae 68bd daca 513e db05 36be
00000250: 8943 adbd e27c f0be c1c9 a03e 447e 793d
00000260: 6e36 1ebe c399 ab3e fd60 e13d aee4 e03d
00000270: 05bd 15be 97b1 a63e 0c58 51bd 79cd afbe
00000280: 5b51 4bba becf d0bd 98f2 94be e85d 97be
00000290: 6796 a1bd ba6d a7be cacc 823e 21cb c83d
000002a0: 68fa 17be 854a e03e e0c6 f0bd d1e3 f0be
000002b0: cea7 a0bd acab 80be adbb b73e 5fec 2cbe
000002c0: e624 d4be 7b2a 49be 9610 7abe 9759 02be
000002d0: 537f 6cbc 8c12 e43b a69b a3be b7a7 523d
000002e0: db8d c83e 8fd3 41be 9e39 64be 31e2 353e
000002f0: b14f 323e f519 34be 6dac 693d 358f 1cbe
00000300: 1c03 4f3e 32c3 b23e 5d28 b23d bb79 4d3e
00000310: 290a 19be 9ccc 14be c94b 8bbe 4d40 0a3e
00000320: 5e42 c53e 15ea 293e 911b 95be aff8 503e
00000330: c94e 003d e136 9abd 7f9a ffbb 7ab7 593e
00000340: 488c d93e 29d7 d13e b9d2 213e 4a78 043f
00000350: b8fe e1bd 5185 d83b e37d 4a3e 21cd a43d
00000360: 6d30 b2bd ce87 19be 4360 5fbd 9f90 88be
00000370: 93f8 163c b66c b3bd 5d9b 1b3e a087 05be
00000380: 1bd8 00be d1e7 b3be 3b00 e53d 7bcd 983d
00000390: 53fd b5bd df16 3dbf 4d47 8e3e 2462 3abc
000003a0: e560 84be 8beb 023e f31a 18be 7a62 d0bd
000003b0: a45d 313d 59ff 743e aed7 993d 7e9f b83d
000003c0: 72e7 c2be 523c 23bd 7561 5fbe cb5f b0bd
000003d0: 1a03 f33d 32e0 963e 44a8 34be 6418 253e
000003e0: 83a9 88bd 24e8 89bd 941f a4be d3f0 103d
000003f0: 0657 b43c 897d 573d f144 11be 8466 293e

tcn.tcn.0.res_conv.bias f4 [16]
0.3552789 -0.18690461 -0.21041973 0.08524886 -0.15313818 -0.24876681 -0.2930625 -0.12698399
-0.10084171 0.1503603 0.030085733 0.16464718 -0.088955395 -0.2811232 0.040344305 0.060540352
00000000: 1ee7 b53e ec63 3fbe 4578 57be f496 ae3d
00000010: 41d0 1cbe babc 7ebe 4a0c 96be 1708 02be
00000020: 1986 cebd 0df8 193e 5b76 f63c 4599 283e
00000030: 3f2e b6bd 61ef 8fbe 1240 253d 29f9 773d

tcn.tcn.1.conv1.weight f4 [16, 16, 5]
-0.30581185 -0.23326425 -0.2569254 -0.46240887 -0.43030658 0.25004998 -0.34389636 0.026852578
0.14169158 0.26435196 0.036908202 0.2980574 -0.14964902 -0.20952772 -0.1565151 -0.04139606
-0.17176 -0.13665104 -0.19640929 -0.26183504 0.079654425 -0.06358262 0.2325971 0.20492905
0.29585636 0.14240266 0.044146344 0.2571566 -0.024268903 0.28007573 0.36974803 0.026570644
0.2013751 0.30001187 0.55857396 -0.072695464 -0.18553641 -0.42765957 -0.29860255 -0.15956965
-0.19454828 0.24525988 0.3029932 0.26953635 0.3242115 -0.093150936 -0.015262759 -0.010888206
-0.01571266 0.03419381 0.061631598 0.11912976 -0.15646441 -0.35093486 -0.31493142 0.061536036
-0.05364279 -0.38725102 0.12963995 -0.097311325 0.017328247 0.11729307 0.028075542 0.12438372
0.18065421 0.33740443 -0.051725443 -0.19046557 -0.025937878 0.06925076 0.16854624 -0.02861834
0.107884474 0.030074423 -0.072847396 0.47516894 0.054122515 0.099522956 0.25932708 0.17838125
-0.31067967 -0.19081882 0.030397259 -0.21657096 -0.37493345 -0.0868994 0.04664331 -0.06402272
0.030811962 -0.38227922 -0.5643049 -0.019107485 -0.3839015 -0.41222644 -0.4089108 0.10260707
-0.20399198 -0.29977575 -0.11224224 -0.06982298 0.49334663 0.13141099 -0.043824226 0.11384074
0.15794955 0.26755354 -0.22466105 -0.42389622 -0.17615944 0.3534054 0.10269713 0.001812841
0.28172344 0.36162707 0.35507452 -0.34552163 0.033576936 -0.23821147 -0.16778764 -0.0600607
-0.12502144 0.039466824 -0.05612105 -0.15401782 0.040463563 0.08132735 -0.060760487 -0.11825269
-0.078434765 -0.013625064 -0.28509352 -0.22442383 0.11192739 0.013271227 -0.04620623 -0.364474
0.18787926 0.3349376 0.0399955 -0.37411547 -0.056885395 0.023465544 0.25223273 -0.16293567
-0.14684796 -0.10005798 -0.083801605 -0.23395656 -0.023168726 0.06996461 -0.04469199 -0.035364013
0.2516064 0.27637687 0.29492015 -0.0101161795 0.16777326 0.14636299 0.24191676 0.23835562
0.20521861 -0.0040530623 -0.03816743 -0.014552452 -0.16911331 -0.057919815 -0.10109687 0.19589669
0.07205335 0.31121382 -0.20350893 -0.08382009 0.04057145 0.02908184 0.094540626 -0.18334644
0.015286069 -0.19837312 0.2060551 0.19059764 -0.015533117 -0.045608696 -0.20151184 -0.02738007
0.04647357 -0.13105921 -0.03221647 -0.0157943 -0.07906229 0.072168365 0.3512273 0.13888371
0.04870808 -0.1841018 -0.16766699 -0.27586403 -0.042824693 0.15938053 0.015456394 0.06527822
0.010775349 -0.040208496 0.15727507 0.18968454 0.11269932 -0.22681929 0.023854785 -0.10077423
0.06615367 0.3618224 0.3199128 0.23068199 -0.018442828 -0.04191196 -0.18929102 0.28991297
0.26318064 -0.18555999 -0.07145753 -0.05334526 0.19329195 -0.07801824 0.11021074 0.10205002
-0.026977085 -0.06140113 -0.25640213 0.0993739 0.0167438 0.1672516 0.26493308 0.08562436
0.110150196 0.010970699 -0.117478676 0.3987964 0.028239712 0.08545459 0.02729772 -0.30191478
-0.08077665 -0.38237768 0.21092841 0.04944041 -0.28523389 0.008274104 0.029387718 -0.034466065
-0.20160012 -0.27614212 -0.36309543 -0.027281517 -0.008600177 -0.05275414 0.13323735 0.032528535
00000000: 5f93 9cbe d3dc 6ebe ba8b 83be dbc0 ecbe
00000010: 2551 dcbe 8d06 803e 2f13 b0be f0f9 db3c
00000020: 9917 113e 2459 873e 0e2d 173d fb9a 983e
00000030: 983d 19be 6f8e 56be 7f45 20be ea8e 29bd
00000040: dae1 2fbe 40ee 0bbe 841f 49be 3e0f 86be
00000050: dc21 a33d 9b37 82bd ef2d 6e3e ecd8 513e
00000060: 7c7a 973e 01d2 113e ccd2 343d 08aa 833e
00000070: 94cf c6bc 1666 8f3e 9d4f bd3e aeaa d93c
00000080: 4635 4e3e 289b 993e b4fe 0e3f 5ce1 94bd
00000090: 42fd 3dbe 32f6 dabe 6fe2 98be 3a66 23be
000000a0: aa37 47be 6825 7b3e ed21 9b3e ab00 8a3e
000000b0: 0dff a53e ebc5 bebd a710 7abc 7264 32bc
000000c0: d6b7 80bc cf0e 0c3d 6a71 7c3d 4efa f33d
000000d0: 3538 20be bcad b3be b13e a1be 360d 7c3d
000000e0: 8bb8 5bbd c445 c6be 56c0 043e 294b c7bd
000000f0: f8f3 8d3c 5937 f03d aefe e53c e4bc fe3d
00000100: 6bfd 383e 46c0 ac3e 0fde 53bd 6809 43be
00000110: ac7b d4bc 58d3 8d3d 6397 2c3e 0271 eabc
00000120: 89f2 dc3d a35e f63c 0431 95bd 5849 f33e
00000130: 92af 5d3d b1d2 cb3d 85c6 843e 93a9 363e
00000140: 6811 9fbe 0266 43be ac03 f93c c7c4 5dbe
00000150: 47f7 bfbe 50f8 b1bd 0e0d 3f3d 581e 83bd
00000160: 5e69 fc3c 1aba c3be 4976 10bf 4d87 9cbc
00000170: bd8e c4be 580f d3be c25c d1be a823 d23d
00000180: 46e3 50be 357c 99be 42df e5bd 5aff 8ebd
00000190: ee97 fc3e 9a90 063e 0881 33bd 5525 e93d
000001a0: 87bd 213e c7fc 883e 8c0d 66be ed08 d9be
000001b0: 2463 34be 8df1 b43e df52 d23d da9c ed3a
000001c0: 0e3e 903e 2f27 b93e 54cc b53e 36e8 b0be
000001d0: f887 093d b5ed 73be 86d0 2bbe 3502 76bd
000001e0: 9f05 00be f7a7 213d 30df 65bd d9b6 1dbe
000001f0: 1fbd 253d f48e a63d fddf 78bd 772e f2bd
00000200: 68a2 a0bd a93b 5fbc c7f7 91be 5ccf 65be
00000210: 303a e53d 8f6f 593c be42 3dbd 569c babe
00000220: 6c63 403e f17c ab3e 52d2 233d 108c bfbe
00000230: a900 69bd d03a c03c a624 813e 9cd8 26be
00000240: 505f 16be 33eb ccbd 2da0 abbd 4f92 6fbe
00000250: 57cc bdbc 9b49 8f3d f30e 37bd dbd9 10bd
00000260: 8ed2 803e 4581 8d3e c6ff 963e 55be 25bc
00000270: c1cc 2b3e 2ee0 153e 07b9 773e 7f13 743e
00000280: d424 523e 8dcf 84bb 7355 1cbd 686d 6ebc
00000290: 0a2c 2dbe 543d 6dbd e00b cfbd 2499 483e
000002a0: b590 933d 6b57 9f3e a564 50be dea9 abbd
000002b0: 402e 263d 0a3d ee3c 849e c13d 2bbf 3bbe
000002c0: 6c72 7a3c 5322 4bbe 1c00 533e 072c 433e
000002d0: 9d7e 7ebc 2fd0 3abd 1f59 4ebe 2b4c e0bc
000002e0: 125b 3e3d 6334 06be 6bf5 03bd 0c63 81bc
000002f0: 69eb a1bd 02cd 933d 11d4 b33e 8837 0e3e
00000300: 2082 473d 2f85 3cbe e5b0 2bbe 0d3e 8dbe
00000310: f268 2fbd a634 233e d13c 7d3c 96b0 853d
00000320: 178b 303c aab1 24bd b70c 213e aa3c 423e
00000330: e7ce e63d 5143 68be 1c6b c33c b862 cebd
00000340: 937b 873d c940 b93e 9ccb a33e e637 6c3e
00000350: 6a15 97bc e0ab 2bbd 81d5 41be 796f 943e
00000360: 9dbf 863e 7003 3ebe 5358 92bd 8f80 5abd
00000370: 53ee 453e 07c8 9fbd 2bb6 e13d 9aff d03d
00000380: 0cff dcbc c07f 7bbd 2447 83be 8b84 cb3d
00000390: 4b2a 893c 0144 2b3e 4fa5 873e d35b af3d
000003a0: 6d96 e13d 72be 333c a998 f0bd 0b2f cc3e
000003b0: f856 e73c d102 af3d 789f df3c 9394 9abe
000003c0: 3a6e a5bd 02c7 c3be 9efd 573e 0782 4a3d
000003d0: 2d0a 92be 1c90 073c 83be f03c 4a2c 0dbd
000003e0: 4370 4ebe 8062 8dbe a5e7 b9be 7d7d dfbc
000003f0: c2e7 0cbc ba14 58bd 5f6f 083e a43c 053d

tcn.tcn.1.conv1.bias f4 [16]
-0.40886456 -0.30561268 -0.04348231 -0.037561566 -0.3245363 -0.41695914 0.0136490455 -0.034413338
-0.28354567 -0.33842057 -0.26246154 0.193183 -0.5128687 0.12471281 -0.23977064 0.09635803
00000000: b256 d1be 4479 9cbe 821a 32bd 28da 19bd
00000010: 9f29 a6be ab7b d5be 3fa0 5f3c 00f5 0cbd
00000020: e62c 91be 7645 adbe 5c61 86be c4d1 453e
00000030: 5d4b 03bf 6e69 ff3d 6f86 75be 5c57 c53d

tcn.tcn.1.conv2.weight f4 [16, 16, 1]
0.45134258 0.10186076 -0.087350674 0.04165626 -0.03736658 -0.1364134 0.21380286 0.331738
-0.3218284 0.060724355 -0.08652352 0.25243893 0.018459436 0.21037799 0.27798378 0.10238197
-0.09377806 0.32161513 -0.0885335 -0.10400071 -0.009109865 0.10849406 0.23213544 -0.1576545
0.13107951 -0.11507538 0.107403904 0.19727784 -0.08119424 -0.07639293 -0.30041158 0.13368286
0.034044407 0.22426932 0.21247642 0.18193845 0.20042369 0.10300092 0.28002858 -0.2650446
0.22568533 0.0143833915 -0.2997034 0.13655971 -0.1089215 -0.16676652 -0.17634745 -0.2060377
-0.23262216 -0.07861055 -0.3702525 -0.055457704 0.14612804 -0.117672004 0.07715844 0.06742699
-0.11550384 0.062145468 0.17694432 -0.30506533 -0.13857865 -0.037257586 0.09794752 0.024404759
0.1345759 0.12700757 0.048769042 -0.08503517 0.08698413 -0.1303724 0.06772975 -0.17986315
0.16903368 -0.087643914 -0.100851186 0.10652229 -0.054300565 -0.11632022 0.141309 0.07783829
-0.21195844 -0.19622666 0.05087131 -0.17951456 0.114263564 0.111671254 0.19986397 0.11497706
-0.023921032 -0.07512598 -0.0714783 0.37355068 -0.05391825 -0.08767233 0.07221792 0.13913666
-0.1478167 0.11262099 -0.13011298 -0.0095574455 0.20719215 -0.033021517 -0.093918376 0.24280307
0.08015936 -0.10117365 0.0026780728 0.22859071 -0.24405554 -0.22273318 -0.23673227 0.22775012
0.24312852 -0.09272295 0.15541674 0.040723834 -0.19468103 0.42744192 0.072468065 0.11022218
0.01749515 -0.056108333 -0.1477341 -0.12636805 -0.07835285 0.2526681 -0.050910987 -0.054917183
-0.27209347 0.26083654 -0.17648189 0.0975789 -0.28183514 0.10980198 0.15646943 -0.060768604
0.014395913 -0.16697489 -0.007645185 0.21511021 -0.311933 -0.0899118 -0.03508979 -0.051033538
-0.06628681 0.020805484 0.15274408 -0.22464938 -0.18070929 -0.16409607 -0.10155114 -0.015933713
0.08773271 -0.17301726 0.3055773 0.010895216 0.037061352 0.24370663 0.3540167 0.065309405
0.23418671 -0.12423036 -0.083062135 -0.1866609 -0.030836811 0.106428325 -0.2629831 -0.017189823
-0.08658818 -0.15832819 0.12562492 -0.078346305 0.05923037 0.016340226 -0.055565514 0.124544375
0.29557967 0.10895823 -0.05974323 -0.08254802 -0.07592545 -0.110124424 -0.101387285 0.014681261
-0.43735728 -0.075753205 -0.05649674 -0.3139225 0.09282946 -0.09746234 -0.03507179 -0.059009302
0.20810848 -0.18891823 -0.086992845 0.045578048 -0.18883312 -0.015873788 0.12722294 0.035205755
0.19606918 0.012500692 -0.079194605 -0.020349765 0.039443586 -0.111209884 0.32574096 0.1783213
-0.04182957 -0.04232977 0.11422906 -0.2560281 -0.3638556 -0.04911335 0.14800353 0.10894153
-0.12141843 -0.18734199 -0.050056417 -0.022663437 -0.2325149 -0.2803173 0.16696638 0.055215992
-0.10648733 0.3742047 0.21872172 0.10667436 0.1275344 -0.0008304785 0.29454735 0.04933183
-0.031106696 -0.12065838 0.1628297 0.033687845 -0.18824987 0.09498511 -0.18864426 0.0489648
-0.31206933 0.10402029 -0.069516025 0.11528543 0.15434857 -0.026591094 0.15383735 0.022558626
-0.122655176 -0.06393405 0.14353679 -0.029634269 -0.20212515 -0.052033998 -0.4436254 -0.1597087
00000000: 6016 e73e 609c d03d e9e4 b2bd c19f 2a3d
00000010: b30d 19bd f4af 0bbe 23ef 5a3e 90d9 a93e
00000020: b1c6 a4be 1aba 783d 3e33 b1bd ad3f 813e
00000030: 3e38 973c 546d 573e e453 8e3e a3ad d13d
00000040: b60e c0bd bdaa a43e 0d51 b5bd 53fe d4bd
00000050: 8b41 15bc 2232 de3d eab4 6d3e 2e70 21be
00000060: b539 063e a4ac ebbd 94f6 db3d 3403 4a3e
00000070: 2a49 a6bd e573 9cbd 8ccf 99be 29e4 083e
00000080: 2672 0b3d dba6 653e 6b93 593e 134e 3a3e
00000090: de3b 4d3e 25f2 d23d e85f 8f3e edb3 87be
000000a0: 0e1a 673e 51a8 6b3c b972 99be 4fd6 0b3e
000000b0: 3c12 dfbd d8c4 2abe 6d94 34be 8cfb 52be
000000c0: 8134 6ebe 91fe a0bd bc91 bdbe 9e27 63bd
000000d0: 97a2 153e 05fe f0bd 3f05 9e3d 2917 8a3d
000000e0: 478d ecbd 3f8c 7e3d e430 353e 8631 9cbe
000000f0: 90e7 0dbe 699b 18bd b698 c83d 7dec c73c
00000100: 44ce 093e 460e 023e 0cc2 473d eb26 aebd
00000110: bc24 b23d 5880 05be e5b5 8a3d 0c2e 38be
00000120: 2a17 2d3e a77e b3bd 118b cebd 5c28 da3d
00000130: 456a 5ebd 4c39 eebd 4eb3 103e ae69 9f3d
00000140: a20b 59be a4ef 48be 6f5e 503d aad2 37be
00000150: 0403 ea3d e6b3 e43d 24a9 4c3e 1879 eb3d
00000160: 0af6 c3bc a6db 99bd 3763 92bd 0942 bf3e
00000170: 62d9 5cbd 8d8d b3bd fde6 933d d779 0e3e
00000180: 435d 17be d5a5 e63d 563c 05be d596 1cbc
00000190: 2e2a 543e 9241 07bd 4758 c0bd 5ea1 783e
000001a0: 972a a43d 2134 cfbd 9b82 2f3b af13 6a3e
000001b0: b2e9 79be 2b14 64be f269 72be 5437 693e
000001c0: aff6 783e 88e5 bdbd 9125 1f3e 09ce 263d
000001d0: 775a 47be abd9 da3e 236a 943d 2bbc e13d
000001e0: fd51 8f3c dad1 65bd 9c47 17be a066 01be
000001f0: 7677 a0bd b75d 813e 0a88 50bd d7f0 60bd
00000200: d64f 8bbe 5e8c 853e abb7 34be 72d7 c73d
00000210: b24c 90be dcdf e03d 8639 203e 80e8 78bd
00000220: d6dc 6b3c 77fb 2abe 7684 fabb da45 5c3e
00000230: afb5 9fbe ae23 b8bd 50ba 0fbd 8b08 51bd
00000240: 61c1 87bd 4370 aa3c f268 1c3e 7d0a 66be
00000250: db0b 39be cd08 28be 0bfa cfbd 6b87 82bc
00000260: 35ad b33d 702b 31be a174 9c3e d981 323c
00000270: a5cd 173d 3b8e 793e ad41 b53e f0c0 853d
00000280: a4ce 6f3e 7d6c febd 7b1c aabd 0924 3fbe
00000290: 7b9d fcbc 18f7 d93d b9a5 86be acd1 8cbc
000002a0: 2555 b1bd c920 22be d2a3 003e 0774 a0bd
000002b0: 8b9b 723d f0db 853c aa98 63bd 1f11 ff3d
000002c0: 3856 973e 7e25 df3d 51b5 74bd f00e a9bd
000002d0: cd7e 9bbd ea88 e1bd 23a4 cfbd ac89 703c
000002e0: 4bed dfbe 7f24 9bbd 2069 67bd 73ba a0be
000002f0: 5f1d be3d 569a c7bd 70a7 0fbd bdb3 71bd
00000300: 641a 553e c873 41be 4e29 b2bd 0cb0 3a3d
00000310: 785d 41be bf09 82bc bb46 023e e933 103d
00000320: 5cc6 483e b4cf 4c3c c830 a2bd 8db4 a6bc
00000330: 998f 213d 02c2 e3bd 85c7 a63e dc99 363e
00000340: 7c55 2bbd fb61 2dbd edf0 e93d 1d16 83be
00000350: 484b babe 152b 49bd 3d8e 173e bd1c df3d
00000360: 3aaa f8bd 94d6 3fbe f507 4dbd aca8 b9bc
00000370: 6318 6ebe c085 8fbe 3cf9 2a3e 2a2a 623d
00000380: 0716 dabd c297 bf3e 96f8 5f3e 1678 da3d
00000390: 6198 023e 78b4 59ba e9ce 963e 2c10 4a3d
000003a0: 78d3 febc be1b f7bd d4bc 263e 44fc 093d
000003b0: 93c4 40be 8e87 c23d f62b 41be 508f 483d
000003c0: 8dc7 9fbe 9708 d53d 6b5e 8ebd c41a ec3d
000003d0: 8d0d 1e3e 91d5 d9bc 8a87 1d3e decc b83c
000003e0: a332 fbbd dbef 82bd 4ffb 123e 91c3 f2bc
000003f0: e5f9 4ebe 9a21 55bd de22 e3be ad8a 23be

tcn.tcn.1.conv2.bias f4 [16]
-0.1069791 0.13081047 -0.077139616 0.01471469 0.04947013 0.04065287 -0.10147364 0.091024615
0.35043985 0.22050998 -0.23006098 0.11794053 0.1559454 -0.11683445 -0.04953461 0.13286997
00000000: dc17 dbbd 2ef3 053e 60fb 9dbd e215 713c
00000010: 31a1 4a3d a083 263d 69d1 cfbd 1d6b ba3d
00000020: da6c b33e 5ecd 613e 1b95 6bbe ce8a f13d
00000030: 27b0 1f3e e646 efbd cee4 4abd 110f 083e
