checkpoints/fine_tune/var_rf/giantsteps/0.2/model_rural-sponge-197_finetune_finetune_finetune_HAI_GTZ/it_77_loss_5.5888_acc10.0_acc20.0.pt (torch, 435818 bytes, 211 tensors)

conv1.weight f4 [16, 1, 3, 3]
000000 07 9e 5b 3e 0d cd db bd d5 5e a5 be f4 dd 97 3e
       0.21447001 -0.1073247 -0.32298914 0.29661524
000010 b3 55 2f be fc c6 c7 be cf f4 2a 3e f2 22 18 3e
       -0.17122535 -0.39019 0.1669495 0.1485708
000020 7e a2 a0 be ec ba a6 3e 47 49 f8 be 42 cc cb be
       -0.31373972 0.32564485 -0.48493406 -0.39804274
000030 cc 8b 85 3e 49 8a 90 be 54 bf ea 3d 36 5b e5 3d
       0.2608322 -0.28230503 0.11462274 0.11199038
000040 b1 65 36 3e 1d e1 95 3d 7a 68 76 be dc b5 d2 3e
       0.1781223 0.073183276 -0.24063292 0.41154373
000050 11 35 45 3e 0d 9e 4f be e6 dc b5 3e df 8b 4b 3d
       0.19258524 -0.20275135 0.35520095 0.04969394
000060 fc dc fc be 00 b1 2a 3e eb a2 53 be 86 c1 92 be
       -0.49387348 0.16669083 -0.20667617 -0.28663272
000070 91 88 f6 bd b5 1d ac 3e dc 5a b7 be cd 26 af 3d
       -0.12037767 0.33616415 -0.35811508 0.085523225
000080 68 de 3d 3e d0 95 ba 3e 05 7e 64 3d 54 94 fd be
       0.18541873 0.36442423 0.055784244 -0.49527228
000090 71 ec 86 be 77 a0 81 be 9f 16 4d be ea 5f 6e be
       -0.26352265 -0.25317737 -0.2002816 -0.23278776
0000a0 bc 07 2d 3e 00 f4 8d 3e 33 6d 53 bd 74 d2 88 bd
       0.16897482 0.2772522 -0.051617812 -0.06680766
0000b0 68 3e 79 be 8a c7 a9 bd 70 4c a1 3d d1 55 b8 bd
       -0.24340212 -0.08290012 0.078759074 -0.09000743
0000c0 08 9d 55 bf 61 49 96 3e d8 bd e7 3e e5 17 84 be
       -0.83442736 0.2935286 0.45262027 -0.2579948
0000d0 b9 5c 95 3e 40 b2 69 bd 16 e6 98 3e bf 57 bf bb
       0.29172304 -0.057054758 0.29863042 -0.0058393176
0000e0 cb 6c e7 bd 1b 9b 13 be 61 c5 21 3e af ca d2 be
       -0.113000475 -0.14414637 0.1579795 -0.4117026
0000f0 ca b9 27 be 40 f1 b6 3d 97 96 8a be be 14 54 3c
       -0.16379467 0.089327335 -0.27068016 0.012944398
000100 51 fd b9 3c 8c 51 85 3e 5c 5c d8 be 41 b3 18 be
       0.022703798 0.26038778 -0.42257965 -0.1491213
000110 4f 59 df bd 70 b7 03 3e d8 e5 50 bd ee 0e 0e 3f
       -0.10905706 0.12862945 -0.051000446 0.5549153
000120 6e ed ad be 7c 9e 0a 3e 34 f9 96 be 2b 15 b9 be
       -0.33970207 0.1353702 -0.29487002 -0.36148962
000130 d0 61 dc 3e 6d a5 c6 3e cb 0c 0e be eb a5 e4 3e
       0.43043375 0.38798085 -0.13872068 0.44657835
000140 c1 99 1c 3e 42 73 26 bf 15 06 b9 3d f3 03 04 3f
       0.15293027 -0.6501962 0.09034363 0.51568526
000150 4b d6 5c 3c fd cd 69 be 3e 52 46 3e f4 4f b6 be
       0.013478826 -0.22832485 0.1936731 -0.35607874
000160 56 0a 84 bc ca 8f 98 3e b0 6c 00 bf 16 24 03 3d
       -0.01611821 0.29797202 -0.50165844 0.032016836
000170 cd f2 9a 3e 40 5b 75 be ff bb 65 be ac bb 98 3e
       0.30263367 -0.2396059 -0.22434996 0.29830682
000180 e2 02 b3 3d 89 5d 06 be a8 93 ef bc c8 56 18 3e
       0.08740784 -0.13121618 -0.029245213 0.14876854
000190 cd 7e d4 3e 71 e8 08 be cd 8d 71 3e 17 ec c5 3e
       0.4150299 -0.1336992 0.23589249 0.38656685
0001a0 2f 94 2a be f6 fe b7 3e a3 f0 c4 3d 52 f7 92 bd
       -0.1665809 0.35936707 0.0961621 -0.07176079
0001b0 e0 be 09 3e 11 9f 0f 3e be 4e 11 3d 42 53 13 be
       0.1345172 0.14025523 0.035475485 -0.14387229
0001c0 ea c1 51 be 40 2f dd be 32 89 83 3e fb 3c 98 3e
       -0.20484129 -0.4320011 0.2569061 0.29734024
0001d0 d4 e7 52 be 7b 7d 67 3e 06 9e e5 bd 30 93 90 be
       -0.20596248 0.22606461 -0.11211781 -0.28237295
0001e0 80 32 a6 3e 43 21 9a 3e fb b5 fe 3d 0d 8a 62 be
       0.32460403 0.30103502 0.12437054 -0.22122975
0001f0 78 2d 35 3e ae f3 f7 be 3e c4 9d 3e d9 46 18 3e
       0.17693126 -0.484281 0.30813783 0.14870776
000200 1f 7a 1e be de bb ca 3e e2 b7 9b be 2d 39 b4 bc
       -0.15476273 0.39596456 -0.3041373 -0.02199992
000210 96 fb 64 3e 6b 8d 98 be b1 3b df be 68 2e d2 bd
       0.22361597 -0.29795393 -0.43600228 -0.102627575
000220 0f f1 21 bc 6e be 9a 3e 02 3c ad bd b5 f4 9b 3d
       -0.009884133 0.3022341 -0.08458711 0.076150335
000230 36 32 ba 3e 87 76 f6 be 1e e3 5a be 3c 18 0d 3f
       0.36366433 -0.48137304 -0.21375701 0.55115104

conv1.bias f4 [16]
000000 61 7e 83 3c 2f bf d1 3d 96 90 58 bd e3 a9 bf bc
       0.016051473 0.102415435 -0.052872263 -0.023396438
000010 ba 39 4b be e8 5e eb bd 16 dd 1a 3e f0 12 54 3b
       -0.1984624 -0.11492711 0.151234 0.003235992
000020 8f 33 2f 3c ff ad 49 3d 4e d7 12 bd 88 90 5c be
       0.010693445 0.0492382 -0.03584986 -0.2153951
000030 82 d0 c5 3d d9 5f 0f bd fb 41 34 bc ab de 15 be
       0.0965891 -0.035003517 -0.011002059 -0.14635722

conv2.weight f4 [16, 16, 3, 3]
000000 aa 8c 1b be 05 80 12 bd 4b a6 f3 bb 92 27 f5 bd
       -0.15190378 -0.03576662 -0.007435595 -0.11970438
000010 db fa 53 be a7 d6 74 be ba 61 68 bd b9 a6 12 3d
       -0.20701163 -0.23910008 -0.056733824 0.03580353
000020 86 91 fa bd 9b 83 52 bc 31 ed 99 bd ca 12 84 bc
       -0.12234788 -0.01284876 -0.07515944 -0.01612224
000030 d5 d6 c8 bd 50 1c 5b bb 35 bc 1b be 86 27 02 be
       -0.09806601 -0.0033433624 -0.15208514 -0.1271039
000040 4e e7 7f bd 8e 78 ac be ed ef b4 3c e8 db 8c be
       -0.06247645 -0.33685726 0.022087062 -0.27511525
000050 8d 23 81 bd 89 88 79 3e 0f 23 90 be e8 cc 4f bd
       -0.06305609 0.2436849 -0.28151748 -0.050732523
000060 dc 11 9c 3e fe 9b 75 be 1e 52 0d be 98 8f ff bd
       0.30482376 -0.23985288 -0.13800856 -0.1247856
000070 50 7a ae 3d 29 fd 38 3e df 3f ff bc eb e1 20 3e
       0.08519423 0.18065323 -0.031158386 0.15711181
000080 7f 6e b7 3e a9 8e d6 3e 6d f1 fe 3e 95 df 10 3f
       0.3582649 0.41905716 0.49793568 0.5659116
000090 8d 2e e7 bb c9 c9 a0 bb 6c a6 31 be d2 17 6d bd
       -0.00705511 -0.004906867 -0.17348641 -0.057884045
0000a0 da 76 13 be e7 16 80 be df 21 bc bc a9 e1 1a be
       -0.14400807 -0.25017473 -0.02296537 -0.15125145
0000b0 e6 ec e1 bd 6b ed 88 3e 34 73 54 bd 8a b6 d6 3e
       -0.11031513 0.26743636 -0.05186768 0.4193614
0000c0 33 8b 90 3e 4b 00 d0 bd 86 ae bf 3e bf a3 07 3f
       0.282312 -0.10156306 0.37437838 0.5298423
0000d0 fb 18 bf 3d e8 71 04 3f f2 27 5b 3d 14 f3 29 be
       0.093309365 0.5173631 0.05350489 -0.16596633
0000e0 71 cf 33 be d3 f6 a0 bc 2e ee f9 bd 08 cb 68 be
       -0.17559601 -0.019648945 -0.12203632 -0.227337
0000f0 31 c8 36 bd e1 03 db bd 62 52 92 bd 65 a9 5f 3e
       -0.04462451 -0.10694099 -0.071446195 0.21841963
000100 99 39 07 3e 32 c8 c4 bd e8 84 54 3e f1 0b 14 bc
       0.13205566 -0.09608497 0.20753825 -0.00903605
000110 a9 e8 85 be 2e df 31 bd 8c 10 16 bd d0 6b 87 be
       -0.26154068 -0.04342573 -0.036636874 -0.26449442
000120 65 83 04 3e 28 fe 21 be 8f 06 70 bb 27 b2 65 3e
       0.12940748 -0.15819609 -0.0036625003 0.22431241
000130 b1 71 46 be 4f c4 92 bd 48 d3 ae 3d a2 62 30 be
       -0.19379307 -0.07166349 0.085363925 -0.17225125
000140 2b 7d 1c be 2e 21 d4 3c 01 3f 6d 3e 77 0c 77 3e
       -0.15282123 0.025894728 0.23168565 0.24125849
000150 26 d3 5f 3e 20 c1 ac 3e 3b 45 b5 3e f1 b6 94 3e
       0.2185789 0.33741093 0.3540438 0.29045823
000160 0c 34 29 3e 30 e2 9e 3e ba 16 a9 3c 49 07 b4 bc
       0.1652376 0.31031942 0.02064072 -0.02197613
000170 48 f4 56 bd d9 d0 c8 ba fc 92 cd bc fa 0b bc 3d
       -0.05247906 -0.001532103 -0.025094502 0.09181972
000180 71 2f 35 3d 0c b3 aa bc 4c ea 99 3d fb 1d c1 bd
       0.044234697 -0.02083733 0.07515392 -0.094295464
000190 4d 06 4f be e5 63 5b be b9 d1 d7 bd 91 7a 55 be
       -0.20217247 -0.21424825 -0.10538048 -0.20847537
0001a0 c4 ce a4 be f7 df 96 bd 16 11 43 bd dd 58 4a be
       -0.32189 -0.07366937 -0.047623716 -0.19760461
0001b0 f8 dc af bd 56 e8 aa bd 55 07 31 be 6a 32 aa ba
       -0.08587068 -0.08345096 -0.17287953 -0.0012984995
0001c0 ac 3e c4 bd 1a c1 2d be 4c e0 c6 3c 54 2c 54 3d
       -0.09582266 -0.16968194 0.024276875 0.051800087
0001d0 82 0d 8a bd 08 0b cc 3d c7 e5 e4 bd 1c 9b 3d bd
       -0.06740858 0.099630415 -0.11176639 -0.046290502
0001e0 61 a7 12 3d cf d0 1b be d0 3e fd bd 37 ca bc 3d
       0.035804156 -0.15216373 -0.12365496 0.09218257
0001f0 f6 ea 94 bc 16 5f 73 be 53 b7 58 be 46 a6 67 be
       -0.018178444 -0.23766741 -0.21163683 -0.22622022
000200 d3 11 2a be b0 b4 32 be 54 2a ee bc ce 30 c5 3c
       -0.16608362 -0.1745174 -0.029072918 0.024071123
000210 28 e2 d4 bc 38 33 fc 3d 45 67 f0 bc 80 26 46 bb
       -0.025986746 0.12314457 -0.029346118 -0.003023535
000220 c4 c1 83 bc b4 2f 6f 3d c9 bd 8d bd 21 8e bc 3c
       -0.016083606 0.058395103 -0.06920964 0.023016991
000230 4d c6 1f 3e cd 08 bb 3d 78 39 0b bd 26 0b 03 3e
       0.1560299 0.09132538 -0.033990353 0.12797222
000240 e9 e7 7c 3e a4 5b 82 3d ba 99 4c 3e 68 c2 e5 3d
       0.24697842 0.06365135 0.19980517 0.11218721
000250 eb c0 2a 3e d3 48 0f 3e 80 b8 93 3d 8b 06 be 3d
       0.16675155 0.13992624 0.07212925 0.09278592
000260 96 35 96 3d 7c ba 92 3e c1 28 05 be 56 65 99 3e
       0.073344395 0.286579 -0.13003828 0.29960126
000270 be fb 87 3d 91 88 f3 bd c8 b9 fd 3d 78 e1 7e 3e
       0.06639813 -0.11891282 0.123889506 0.24890697
000280 f9 e0 0f be bd 32 21 3d 7a 31 91 be 98 4a 16 3f
       -0.14050664 0.03935503 -0.2835806 0.5870757
000290 92 6f 14 bd a5 94 13 bf 56 f7 12 3e ab e1 ae bd
       -0.036239214 -0.5764869 0.14352164 -0.085391365
0002a0 56 a6 10 bf 7e 4b 33 3e e3 66 4c be 18 23 b9 be
       -0.5650381 0.17509267 -0.19961123 -0.36159587
0002b0 32 47 54 be bc cc ac bc 03 77 15 bd a4 66 d6 3d
       -0.20730284 -0.021093719 -0.03649045 0.10468796
0002c0 b1 93 82 3e 09 a8 09 bd 72 b6 cb 3d 94 52 11 3e
       0.25503305 -0.033607516 0.09946908 0.14191657
0002d0 cf 02 22 3e fe f7 4a 3e bc 85 39 3e 51 9b 0b 3d
       0.15821384 0.19821164 0.18117422 0.03408367
0002e0 6c 45 d2 3d 0e fb 90 bc b7 51 37 3d 04 ff dd 3d
       0.102671474 -0.017697837 0.044755664 0.10839656
0002f0 2f 1d 99 3c cc c4 c1 be 9c dd 96 3e 14 29 d9 bc
       0.018690674 -0.37845457 0.2946595 -0.026508845
000300 ff ee e4 be 94 c1 d1 3d 94 2c a3 bd 79 d8 05 bf
       -0.4471359 0.10242 -0.07967487 -0.52283436
000310 68 da 8f 3e e0 2f 02 3c 4c 4c 83 bd ae c2 00 3e
       0.28096318 0.007945985 -0.06411037 0.12574264
000320 26 70 a5 bd 60 9c 84 3d 10 dd c3 3d 5c 8f bd 3d
       -0.08078031 0.06475139 0.09563649 0.09255859
000330 bf 2d 7a 3d fa 6f 1d 3e da 2b 14 3e 27 06 77 3e
       0.061078783 0.15374747 0.14469853 0.2412344
000340 85 23 73 3d 6c 1a 17 be 1b 45 0e bd d6 aa 47 bd
       0.059360046 -0.14756173 -0.034733873 -0.048746906
000350 f4 2b a1 bd 76 87 60 3c c2 69 bc 3b 1e 08 8b be
       -0.078697115 0.013704171 0.005749912 -0.2715463
000360 30 64 08 bf e8 a9 d5 3d 40 ba 86 be 17 c4 d9 be
       -0.53277874 0.10432798 -0.26313972 -0.42532417
000370 f2 7b b3 3d d3 27 02 be 75 57 08 bf b6 06 a0 3e
       0.08763875 -0.12710504 -0.5325845 0.3125512
000380 d0 b6 f1 3d 3a f3 27 bd 41 1f a8 bd 96 f0 bd bd
       0.11802447 -0.041003443 -0.08209086 -0.09274404
000390 58 42 26 be b6 64 bb bd 0f 1f b2 3d e2 30 2a be
       -0.16236246 -0.091500685 0.0869733 -0.1662021
0003a0 f5 f2 e7 3d 6a 95 80 3d d8 5f 58 3e ec 11 fb bd
       0.11325637 0.062784985 0.21130311 -0.12259278
0003b0 96 4b 0c 3d 89 cd 77 bd e6 5d 00 bb ee a7 3b bd
       0.034251772 -0.060498748 -0.0019587218 -0.045814447
0003c0 26 39 16 bd 26 95 03 be 3d 42 55 3d 2f 75 87 be
       -0.036675595 -0.12849864 0.052065123 -0.2645659
0003d0 ec 2b 78 bd 3e 40 5d 3e 96 ad d5 bd 8d 33 97 bd
       -0.060588762 0.21606538 -0.104334995 -0.073828794
0003e0 17 20 05 3e b4 bd 96 bd d3 42 06 3d fd fc 3c 3e
       0.13000523 -0.07360402 0.032778572 0.18455882
0003f0 45 a0 70 3d d4 a9 9a bd ef 05 cc bd 17 9b 5b bd
       0.058746595 -0.075519234 -0.09962069 -0.053614702

conv2.bias f4 [16]
000000 bf d5 50 bd e0 a3 31 be 36 e8 03 3d 3e 37 b7 bd
       -0.050985094 -0.1734767 0.032203875 -0.089460835
000010 c1 7e 27 be 72 08 a0 be 87 3e 54 be c5 f8 2c bd
       -0.16356947 -0.31256443 -0.20726977 -0.042229433
000020 a3 94 40 bd 71 0a cc bd 22 e3 92 bd 4f 7b f3 bc
       -0.04701675 -0.09962929 -0.071722284 -0.029721884
000030 8a 61 f9 bc c4 9f 06 be d4 08 4d 3d cb 04 13 be
       -0.030442018 -0.13146883 0.050057247 -0.14357297

conv3.weight f4 [16, 16, 8, 1]
000000 c2 1f fb bd ce 60 69 bd de fd f0 bc 89 2c 69 bc
       -0.12261917 -0.056977086 -0.029417928 -0.014231809
000010 50 0c 25 be c8 da ad be 40 0f 4d be af 21 34 3e
       -0.16117978 -0.3395598 -0.20025349 0.17590974
000020 06 df 39 3e 75 df 03 3e fa 25 59 3e 4b eb a9 3d
       0.18151483 0.12878211 0.21205893 0.08296832
000030 93 39 51 3e 92 23 a3 3e 90 bf 8a be 0d b7 a4 be
       0.20432119 0.31863075 -0.27099276 -0.32170907
000040 5c 34 0c 3e 5c b9 66 3e af 4c 9b 3e 55 3e 84 3e
       0.13691849 0.22531646 0.30331942 0.25828806
000050 5f 8d cb 3d f5 47 91 3d de 5c 7a be b9 97 1d be
       0.09939074 0.07093803 -0.24449489 -0.15389909
000060 c5 d2 53 be be b0 96 bd 01 40 60 bd 8e e1 32 bd
       -0.20685871 -0.0735793 -0.05474854 -0.043672137
000070 9c 8c 34 bd 7a 95 45 be a4 da 20 3e 7d 37 18 bd
       -0.044079408 -0.19295302 0.15708405 -0.037162293
000080 2c 3d 51 3d f5 4f 67 3d a0 88 bb 3d 47 9d ec 3d
       0.05108373 0.056472737 0.091569185 0.11553436
000090 fd b7 17 3e b4 c9 79 3e 66 f2 eb 3d 2a 28 d2 3d
       0.1481628 0.2439335 0.11520843 0.10261567
0000a0 1d b6 85 be e6 3c b3 3c 31 b0 0d bd 6a 22 8f 3c
       -0.26115504 0.021879625 -0.034591857 0.017472465
0000b0 04 4f f6 bd a4 80 f2 bd 2b 9d 0c bf 02 64 2a 3c
       -0.1202679 -0.118409425 -0.5492732 0.01039982
0000c0 85 2f c3 3d 92 06 d7 3d a6 ed 66 bb c3 59 c9 bd
       0.09530548 0.104993 -0.0035236864 -0.09831574
0000d0 7d c5 b9 3c fc 91 a0 3d 89 5b ce bd 86 a8 9e bd
       0.022677178 0.07840344 -0.10076053 -0.07746987
0000e0 fc e2 da 3d 80 2b 9a bb 04 d4 a2 3d a3 f9 54 bd
       0.10687825 -0.0047048926 0.07950595 -0.051995885
0000f0 86 6a 87 bd 00 43 80 be 4f 22 ad 3d 9d 32 bb 3c
       -0.066121146 -0.25051117 0.084538095 0.022851283
000100 59 ba ac 3d 6c 16 99 3c ad fc 0e 3e dc 25 d7 3d
       0.084339805 0.01868745 0.13963576 0.10505268
000110 23 3a d4 bd 8e 0b 7c bd e4 15 29 3f 79 9a a2 bd
       -0.10362651 -0.061534457 0.6604903 -0.079396196
000120 33 1e e1 bd 0b 43 bf bd d7 76 b5 bd d2 bd c5 bd
       -0.10992088 -0.09338959 -0.088605575 -0.09655346
000130 e5 a3 da bd b6 59 cd bd 88 ba b0 be 90 b0 ae 3e
       -0.10675792 -0.10026877 -0.34517312 0.34119081
000140 e5 b5 82 3e a0 9f 03 3e 76 de c6 3d d4 55 4b bd
       0.255294 0.12853861 0.097104 -0.0496424
000150 c6 b0 24 bc bb 98 9d bb 7c d0 b7 3e 7b 70 c2 bd
       -0.010051912 -0.0048094667 0.35901248 -0.0949411
000160 fd 25 6e bd d8 08 4a 3c 5d c9 f1 3c fb e2 0a 3b
       -0.058141697 0.01233121 0.029514963 0.002119242
000170 09 b1 1b 3e f3 1c a6 be 7a 0b 23 bf df 62 64 3e
       0.15204252 -0.32443962 -0.63689387 0.22303341
000180 92 a6 e9 bc c7 34 22 be 1d 53 35 be b6 e4 91 bd
       -0.02852181 -0.15840445 -0.17707486 -0.07123701
000190 57 7f c8 bd 36 3c 98 be e2 fe a5 bc 56 f8 32 3e
       -0.09789913 -0.29733437 -0.02026314 0.17477545
0001a0 73 b6 7d 3c 72 49 0d 3e b0 3c 4b 3e e4 b5 04 3e
       0.015485394 0.13797548 0.19847369 0.12960011
0001b0 3c ac 36 bd 72 53 36 3e 61 7a 99 3e c1 1d 89 be
       -0.04459785 0.1780527 0.2997618 -0.26780513
0001c0 18 ac 6c 3e e7 73 38 3e 48 93 1e 3e f8 c9 1a 3e
       0.23112524 0.18012963 0.15485871 0.15116107
0001d0 3f 2e 52 bc 35 36 4f 3d a3 f1 98 bd b6 d4 13 3d
       -0.012828409 0.050588805 -0.074679635 0.03609153
0001e0 bc df d7 bd 2b a1 37 bd c2 11 3d bb 03 3d 0f be
       -0.10540721 -0.044831436 -0.0028849696 -0.13988118
0001f0 96 8b dd bd 44 30 2a 3d cd 36 98 3d 19 ff 19 3d
       -0.108176395 0.041549936 0.074323274 0.037596796
000200 fb 2d 44 bd 1e 30 82 bc da 7c 03 bd f4 e6 a9 3d
       -0.047895413 -0.015892085 -0.03210149 0.08296004
000210 be 98 e3 3c 14 ce 73 bc c4 35 a4 3e 2c a5 86 3d
       0.027782794 -0.014880676 0.3207227 0.06574473
000220 8c 83 e6 3b 11 b9 91 3d 71 57 98 3d 8b 46 3a 3d
       0.0070347246 0.07115377 0.07438553 0.04547743
000230 a2 0f dc 3d b3 67 8b 3e b2 e4 a9 be 1e f2 25 be
       0.10745169 0.27227554 -0.33182293 -0.16205642
000240 f3 c4 f8 bb 15 2e 0a bd e3 04 9f 3d 1c b7 a4 3d
       -0.0075918376 -0.033735353 0.07764604 0.08042738
000250 1d 79 a8 bd 2f 4e 00 3e cd 5a 40 be 46 ba 3b bd
       -0.082262255 0.12529825 -0.18784638 -0.04583194
000260 83 2c b6 3d 61 e2 9a 3d 94 e6 24 bd 8e 02 d2 bd
       0.08895209 0.075627096 -0.04025896 -0.102543935
000270 d7 3b 46 be c6 74 93 be b7 88 fa bd 5f d5 c7 be
       -0.19358765 -0.2880003 -0.122331075 -0.39029977
000280 ec d0 40 bd f1 1a f2 3c df 91 e8 bc 8f c1 92 3b
       -0.047074243 0.029553862 -0.02838987 0.0044786404
000290 04 57 d2 bd 9a 0a f4 3d 5c 71 94 be b2 d5 66 bd
       -0.10270503 0.119160846 -0.28992736 -0.05635614
0002a0 5e c6 bf 3c a3 e4 ed bc 20 b9 ac bd e4 38 0b be
       0.023410019 -0.029039687 -0.08433747 -0.13595921
0002b0 7b fb 57 bd 8e d5 02 be ba 6e 13 bf 06 a1 d3 bd
       -0.052730065 -0.12776777 -0.5759083 -0.10333447
0002c0 d1 9b ee bd c0 74 fa bc cd e1 c5 bd 5e e4 3e bd
       -0.11650813 -0.030573249 -0.09662209 -0.046604507
0002d0 dc 38 41 3d c3 71 db 3d c1 be 3c 3e 04 f4 94 bc
       0.047173366 0.10715058 0.18432142 -0.018182762
0002e0 e6 5e be 3c 57 ef 3f 3d 11 b3 d0 bc 93 9c 98 3d
       0.02323861 0.04685911 -0.02547601 0.07451739
0002f0 50 95 81 3d 3d a2 44 3e 63 7b 0a 3e 03 50 83 3d
       0.06327307 0.19202514 0.13523631 0.064117454
000300 d8 d5 65 bd ef 65 a4 3d 68 e6 20 3e b8 6a cd 3d
       -0.05611214 0.08027255 0.15712893 0.100301206
000310 63 be d1 3d c1 28 f3 3d 43 a7 24 3f 01 ab eb bd
       0.102413915 0.118730076 0.6431772 -0.11507226
000320 18 cc cb bb df 7d bd 3b 12 ab fb 3b d3 23 32 bd
       -0.006219398 0.0057828273 0.0076803053 -0.043491196
000330 33 cc 7b 3c 29 0a 1c 3e d2 37 8c be db 74 dd 3e
       0.015368509 0.15238251 -0.27386338 0.43253216
000340 73 25 dc 3c f6 a2 39 bd 7e f1 9a bd 7b f3 91 bd
       0.026873326 -0.045321427 -0.07565592 -0.07126518
000350 8a d6 99 bd 4b f8 6b be 94 ee ef 3e 05 27 be be
       -0.07511623 -0.23043935 0.46861708 -0.37139145
000360 13 e7 f1 3d 5c 63 1a 3e da 41 e5 3d 3d 79 16 3e
       0.11811652 0.15076965 0.11194201 0.14694686
000370 b9 dc ad 3d 79 ac 8f 3d e1 56 f5 bd b6 2f e0 3d
       0.08489365 0.070153184 -0.119794615 0.109466
000380 51 2b 93 bc a8 21 1f bc 35 28 2c bc 6a 75 0e bd
       -0.01796499 -0.009712614 -0.010507633 -0.034779944
000390 9c ab 8a bd 44 3a f1 b9 40 29 e4 bd 39 cf 5a 3e
       -0.06771013 -0.00046010513 -0.1114068 0.21368112
0003a0 64 c4 1f b9 ae f2 2d 3d 0c df fd 3c 22 0f fb b8
       -0.00015236583 0.042467766 0.030990146 -0.000119714314
0003b0 d6 c8 a3 3d 1c d5 03 be 1a fd 9f 3d a4 83 a3 be
       0.07997291 -0.12874264 0.07811947 -0.3193637
0003c0 81 58 74 3d b4 ba de bc 0b a3 f9 ba 8f d4 8b 3d
       0.059654716 -0.027188636 -0.0019045783 0.06827652
0003d0 1c ce d2 bc a5 e6 14 3c 02 78 86 be 67 58 2f 3e
       -0.025733046 0.009088193 -0.26263434 0.17123567
0003e0 b3 cf 80 bb 07 aa 68 3b 48 8b a0 3d 6d dc 9a 3d
       -0.0039310097 0.0035501735 0.07839066 0.07561574
0003f0 1e 5b 22 bd 21 60 51 3e bc c9 2e 3e 83 15 c0 3e
       -0.039637677 0.20446827 0.17069143 0.37516412

conv3.bias f4 [16]
000000 04 d0 fc 3a 16 37 ed 3d d3 4d ea 3d 77 78 8c 3c
       0.0019288068 0.115827724 0.11440625 0.017147286
000010 7e de 48 3b da 85 82 3e 90 af 22 3e b3 4b 02 3e
       0.0030650194 0.25492746 0.15887284 0.1272419
000020 a5 c1 19 bd 5c 98 b0 be d0 f4 8e 3e 09 9d c0 3e
       -0.03753819 -0.3449124 0.27921152 0.37619808
000030 1e ed 47 bc f3 b7 24 3d 29 d4 62 3e 48 d7 91 bb
       -0.012202529 0.04021449 0.22151245 -0.0044507124

tcn.tcn.0.conv1.weight f4 [16, 16, 5]
000000 d3 84 e7 3d 88 06 11 3e 03 6b ac 3d cf 39 03 bb
       0.11304631 0.14162648 0.08418848 -0.002002347
000010 f1 d1 1e be 18 f5 b7 3d 57 2b 71 3d d4 a2 84 3d
       -0.15509774 0.08982295 0.058879223 0.064763695
000020 9e 08 c5 bc 28 00 bb be 5c 63 07 3e 34 e7 95 3d
       -0.02405196 -0.36523557 0.13221496 0.07319489
000030 d6 e8 4e 3e 4d 77 63 bd 87 0c 42 bd 34 76 66 3e
       0.20206007 -0.055533696 -0.04737523 0.22506028
000040 59 cf 1d 3e 8b e8 f7 3d 68 79 b6 3d 4e 5e 89 3e
       0.15411128 0.12104901 0.08909875 0.2682976
000050 d8 73 f3 3d ad 76 a8 bc 2b 61 93 3e 46 29 15 3e
       0.1188733 -0.020564402 0.2878507 0.14566526
000060 2f 6d 04 be f6 0b 2d be c7 be 1a 3e ef a3 3c 3e
       -0.12932275 -0.16899094 0.15111838 0.1842191
000070 2d d8 0a bc 25 eb 41 3e d8 84 0e bd 77 db 8a 3c
       -0.008474392 0.18937357 -0.03479466 0.016950352
000080 b6 58 07 be 74 7d 53 bd 4f e6 de 3d 08 05 f4 bd
       -0.13217434 -0.051633313 0.10883772 -0.11915022
000090 51 49 d8 bd c2 12 51 bd 28 5d 19 bc cb 40 21 be
       -0.10560859 -0.05104328 -0.009360589 -0.15747373
0000a0 dd a8 ee bd e8 8e d8 3c 39 f7 6c bd d8 47 30 be
       -0.11653302 0.02643533 -0.057852957 -0.17214906
0000b0 df 9c 2d be 6f 17 2b be 15 d4 3e be 2c 2c 6d be
       -0.16954373 -0.16708158 -0.1863559 -0.23161381
0000c0 7b 0f 88 be 6a c0 79 bd a9 70 fa bd 2d 28 f4 3b
       -0.2657431 -0.060974516 -0.122285195 0.0074510784
0000d0 5f c4 a9 bd 03 59 85 be 46 a5 d9 bd 03 c2 85 bd
       -0.08289408 -0.26044473 -0.106272265 -0.065311454
0000e0 06 3f 13 bd 1c c4 c3 3c 3c 4e 90 bd 86 57 b7 bb
       -0.035948776 0.023897223 -0.07046172 -0.0055951504
0000f0 95 03 c9 3d 7c cf 4b 3d ee 07 88 3e b1 b3 64 bd
       0.09815136 0.04975842 0.2656855 -0.05583543
000100 42 e8 38 be 2c e5 f6 bd b6 b9 c2 bd 88 a0 9c bd
       -0.1805735 -0.1205543 -0.09508078 -0.076478064
000110 a1 ab a4 bd ce df ea bd 5f bd b1 bd 7c 0e 88 3d
       -0.08040548 -0.114684686 -0.08678698 0.06643388
000120 8f aa 26 3d 86 70 95 3d 90 86 e2 3d 62 83 39 3b
       0.04069 0.07296853 0.11060822 0.002830707
000130 cb 82 04 be 4f 98 b3 3d 06 c1 58 bd c5 00 03 be
       -0.12940519 0.08769285 -0.052918456 -0.12793262
000140 00 5a 5a 3e 9d ab ab 3e 77 a0 fd 3d f5 99 4d 3e
       0.21323395 0.33529368 0.12384122 0.20078261
000150 cd 8c 1a 3e b0 71 30 3e ed ea b5 3e 5a f7 8f 3c
       0.15092774 0.17230868 0.35530797 0.017574001
000160 c2 22 4c 3e 15 36 a2 3e 75 99 9a 3c 0a 79 b0 3e
       0.19935134 0.31681886 0.018872002 0.34467345
000170 a1 4e 7a 3e aa a0 83 3e 0c 8c d0 3e ef 10 83 bd
       0.24444057 0.25708514 0.40731847 -0.06399714
000180 5d 11 33 bd 34 b1 90 be 5b 4b 92 3d 48 71 15 bc
       -0.04371773 -0.28260195 0.07143279 -0.009121247
000190 a4 83 c1 be 92 78 9a be f1 9e f1 bb 70 37 11 3b
       -0.37795746 -0.30170113 -0.0073736836 0.0022158287
0001a0 27 38 d9 3d 41 94 27 3e ab d8 0a 3e ec ec bb 3d
       0.10606413 0.16365148 0.13559215 0.09176049
0001b0 d4 22 8d 3d 18 e6 2d 3d 8b c9 8e be 69 17 60 be
       0.068914086 0.042455763 -0.2788814 -0.2188393
0001c0 0b 44 4d 3b 5e bc 27 3d 23 75 d8 3c 43 a1 e9 3c
       0.0031321074 0.040951125 0.026423043 0.028519278
0001d0 13 9b cc 3b fd 9f 91 3d 46 08 79 3e 08 4b 61 3e
       0.006244072 0.071105935 0.24319562 0.22001278
0001e0 be d1 4f 3d e1 8b 53 3e da 83 a2 3c b9 17 50 3e
       0.050737135 0.20658828 0.019838262 0.2032155
0001f0 38 cd 85 3d b2 ad 08 bd 64 d1 4e be 1b 90 8a be
       0.06533283 -0.033368774 -0.20197064 -0.2706307
000200 04 a1 56 be 18 b3 2f bd 7d ae 90 3d 50 09 48 3d
       -0.2095986 -0.042895406 0.07064531 0.048837006
000210 4e 97 30 3e 44 71 4b 3e 85 74 11 3e 3f 51 bc 3d
       0.17245218 0.19867426 0.14204605 0.09195184
000220 9c 96 8f 3e 7a 68 21 3e cb 28 d5 3d 64 db 25 3e
       0.28044593 0.15762511 0.10408171 0.16196972
000230 68 2c 11 be 64 62 c5 bd 44 ab 1c 3c 28 91 68 bd
       -0.14177096 -0.09637907 0.009562317 -0.056779057
000240 4f 71 e7 3d 0a 34 53 3d 0b 63 cf 3d ce c0 13 3e
       0.11300909 0.0515633 0.10126313 0.14429018
000250 98 06 34 3e ba a9 76 3e 96 42 47 3e af 76 c2 3b
       0.1758064 0.24088183 0.19458994 0.0059345583
000260 a9 2f 8d 3d 8a f6 0f bd 1f d2 0b be 69 3b 0f 3e
       0.06893856 -0.035147227 -0.13654374 0.13987507
000270 e4 ba 2e 3e 8c bf d1 bd 0f d5 f8 bd 48 57 4c 3e
       0.1706348 -0.10241613 -0.12150013 0.1995517
000280 23 86 11 bc 2a 64 13 3e f3 45 33 bd 1f 5e 79 bd
       -0.008882078 0.14393678 -0.04376788 -0.060880776
000290 26 52 61 be 96 11 54 3e 7d 0c af 3d 89 ed ee 3d
       -0.22003993 0.20709834 0.08547304 0.116664
0002a0 cb 12 a8 bd 0b dc 2b be b5 20 1b 3e 0c c2 49 3d
       -0.082067095 -0.16783158 0.15149195 0.049257323
0002b0 3d a7 1d 3e 3b 62 c5 3c 30 05 54 be c3 51 d3 bd
       0.15395828 0.024094692 -0.20705104 -0.10318329
0002c0 07 d9 a7 3c 2f 35 e4 bd fe 18 af bd 36 b1 16 bd
       0.020489229 -0.111429565 -0.08549689 -0.036790095
0002d0 7e ff d1 bc 44 0e 01 be 65 7a 10 be 68 37 8c bc
       -0.025634523 -0.12603098 -0.1410919 -0.017116264
0002e0 ce ef 56 bd aa ab f7 3d 4c 8d 6f 3e d1 39 90 3d
       -0.05247479 0.12093289 0.23393744 0.070422776
0002f0 3d 8c 7e bd ff d1 0d bd 23 11 03 3d 41 5f 97 3c
       -0.06214546 -0.034624096 0.031998765 0.018478038
000300 f0 c5 93 3c ac 2a a7 3c 28 df 8c 3e a3 9d 0f 3d
       0.01803872 0.02040609 0.27514005 0.035062443
000310 b0 b4 48 be 16 1a 3e bd 58 71 b0 bc 83 c9 09 bd
       -0.19600177 -0.046411596 -0.021538422 -0.033639442
000320 3c b1 3b 3d 55 d4 c4 bd f2 d4 c7 bd 1c 53 0f be
       0.04582332 -0.096108116 -0.09757413 -0.13996547
000330 f0 4b c8 bc ff 79 c7 bd 69 52 c6 bd fa c0 d5 3d
       -0.024450272 -0.09740066 -0.09683687 0.10437198
000340 a5 d7 5e 3e 28 fd b2 bc fb 08 00 3e 4b d6 df bc
       0.2176195 -0.02184923 0.12503426 -0.027323863
000350 35 46 38 be d9 97 20 be 71 1a 20 be ec e9 aa bd
       -0.17995532 -0.15682925 -0.15635087 -0.08345398
000360 99 fc 35 3d 27 d4 17 3e fc 18 23 3e 56 4d a2 bd
       0.04443035 0.14827023 0.159275 -0.07924907
000370 b9 1e 43 be a1 a2 81 be b3 3e 9e bc c8 91 8a 3d
       -0.19054689 -0.25319389 -0.019317007 0.06766087
000380 4e 20 47 be f1 fd 1b 3b 97 6b fa bd 62 cb 3a be
       -0.19445917 0.0023802484 -0.122275524 -0.18241647
000390 3f e4 4f be 4a 2f ab be b8 ea a8 be 8b 61 41 bd
       -0.20301913 -0.33434516 -0.32991576 -0.047212165
0003a0 74 14 8d 3d 0b cf 55 3d 96 7d dc bc e5 31 3f bd
       0.06888667 0.052199405 -0.026915353 -0.046678443
0003b0 95 72 f9 bd d2 3c 0f 3e d6 9c d0 bd ce 38 be be
       -0.12180058 0.13988045 -0.10186164 -0.37152714
0003c0 36 76 02 bf be 7e 96 be 54 9a 22 be 97 93 31 3e
       -0.50961626 -0.29393572 -0.15879184 0.17341457
0003d0 95 63 41 3e ea 6b 21 be 53 ec 3c 3d af 85 58 bd
       0.18885644 -0.15763822 0.046123814 -0.052861866
0003e0 1a d5 f1 bc b1 18 87 3d d9 ed 72 be 4e 31 68 bd
       -0.02952056 0.065965064 -0.23723544 -0.056687646
0003f0 ee 4c 27 3e 4c 4d ae 3c 64 28 84 3e 1d c1 6f bc
       0.1633794 0.021277092 0.25812066 -0.014633444

tcn.tcn.0.conv1.bias f4 [16]
000000 1c f5 a5 3c 15 68 c0 ba 5c 4e 41 3e cf 14 35 3e
       0.020258479 -0.0014679456 0.18877548 0.17683719
000010 5f 62 36 3d 84 33 96 3d 18 25 78 bc 26 8e 3c be
       0.044527408 0.073340446 -0.015145563 -0.184136
000020 2c 4d 2d 3c 09 30 3a 3e 6a 58 81 3d dd dc 4c bd
       0.010577481 0.18182386 0.06315692 -0.05001532
000030 95 1f 5f 3e 25 58 71 3d 87 69 de bd 48 0d ad 3d
       0.21789391 0.05892195 -0.108599715 0.08449799

tcn.tcn.0.conv2.weight f4 [16, 16, 1]
000000 a0 30 6a 3d ad 22 fc bd 1a e1 8d 3e 14 81 9d 3d
       0.05717528 -0.123113014 0.277108 0.07690635
000010 57 1f 3b 3e 66 b6 1e be 50 53 95 3d 6c 26 5d 3e
       0.18273674 -0.15499267 0.07291281 0.21596688
000020 10 27 61 3e 4c 6a 95 bd 04 9d 16 be 2c 91 50 be
       0.21987557 -0.07295665 -0.14708334 -0.20367879
000030 53 4e 59 3e ba 3f db bd ab ee e0 bd 67 83 d0 3e
       0.21221285 -0.10705514 -0.10983022 0.40725252
000040 a3 14 a5 3d b6 09 50 3e e5 3c 8d bd fd e4 1e 3e
       0.08060577 0.20316204 -0.0689638 0.1551704
000050 19 66 9b 3d 36 65 f7 3d e5 dd 51 3e a9 f1 8c bd
       0.07587833 0.12079851 0.20494802 -0.068820305
000060 09 29 ab bc 13 fc 93 3b a8 c3 34 be ba 16 c3 bd
       -0.02089359 0.0045161336 -0.17652762 -0.09525819
000070 43 5f 9f 3d 86 1e 9b be 25 54 1d be 7a f0 cf 3e
       0.077818416 -0.30296725 -0.1536413 0.40613157
000080 b5 38 b4 3c b7 24 62 3e 44 c8 17 be 4b 8d 72 3e
       0.021999696 0.22084318 -0.14822489 0.23686711
000090 16 46 12 ba 60 c4 8d bd 77 9b e6 bc f1 44 03 3e
       -0.00055799016 -0.06922221 -0.028150303 0.12819268
0000a0 d6 96 b2 3c 58 ec ad 3e 7c ac 50 3e 7b a2 46 3e
       0.02180044 0.33969378 0.20378298 0.19397919
0000b0 17 13 10 be 5b 9e 95 3e f2 3f c3 bd 42 a2 d8 bd
       -0.14069782 0.29222378 -0.09533681 -0.10577823
0000c0 62 f5 14 3e b7 4f 9d 3e ab 46 1c bc d0 0a 84 3d
       0.14546731 0.3072488 -0.009538333 0.06447375
0000d0 4c e2 83 bd 98 22 6c 3e 6d cb 41 3e e0 52 f6 3c
       -0.06439647 0.23060071 0.18925257 0.030068815
0000e0 da a4 60 be d6 8a 84 be a1 73 a0 bd 0d e1 86 be
       -0.21937886 -0.25887173 -0.078345545 -0.26343575
0000f0 41 d6 8d 3e de 27 ce 3d 99 fa b6 3d 67 9c 34 3e
       0.27702525 0.10066198 0.089345165 0.17637788
000100 18 e8 09 3e 9a 98 96 3e 55 15 9c bd 2a c2 9d 3b
       0.13467443 0.294133 -0.07621256 0.004814406
000110 94 01 79 3d 12 8a fe 3c 88 e9 ce bd 0a 9a 06 bf
       0.06079252 0.031071696 -0.10103136 -0.52578795
000120 b6 93 09 be 48 a7 e5 be 16 fe 69 bd 2d d9 82 be
       -0.13435254 -0.44854188 -0.05712708 -0.25556317
000130 93 9a e2 bd 2f bf f2 3d 1c 3f 0b bc bd 26 cb 3d
       -0.11064639 0.118528716 -0.008498933 0.09919498
000140 e7 9d 20 bc 8e f7 99 3d a5 a5 38 3b 47 d9 99 bd
       -0.009803272 0.075179204 0.0028174904 -0.075121455
000150 b1 23 94 be f3 21 86 3c 78 ba a1 bd 80 4c d5 be
       -0.2893348 0.01637361 -0.07896894 -0.41659927
000160 db 97 40 3e cf 84 f9 be 12 5f 02 be 9c 9d 11 bf
       0.18807928 -0.48734137 -0.12731579 -0.5688112
000170 5f cc 92 bd 74 ef 7c 3a 90 15 75 3e f2 f3 21 3d
       -0.07167887 0.00096487184 0.23934007 0.039539285
000180 4e ce 00 be 4c 62 81 be 84 50 9c bd ae 85 3f be
       -0.12578699 -0.25270307 -0.07632545 -0.18703339
000190 2e 95 8e bb 36 42 d3 3c 3d d5 68 be 2a f5 09 be
       -0.0043512797 0.025788408 -0.22737594 -0.13472429
0001a0 cf 7f 3f be b3 48 80 3e dc 3b 8c be af 37 80 be
       -0.18701099 0.25055465 -0.2738942 -0.25042483
0001b0 34 03 61 3d e8 ac ac be db 3c 15 bd 96 24 9c bd
       0.054934695 -0.33725667 -0.03643499 -0.07624166
0001c0 7d 6a 63 be e3 40 ad 3c 27 09 9a bc ee a4 f2 3d
       -0.22208591 0.021149104 -0.018803192 0.11847864
0001d0 49 0b b5 bd 29 a2 58 3e cf 9f 06 3e 74 8d 09 3e
       -0.08840043 0.21155609 0.131469 0.13432866
0001e0 2f ff 8e 3e 76 71 25 3e 8e be 10 3d 76 ae 47 3e
       0.27929065 0.16156563 0.035337977 0.19500145
0001f0 fd 10 6a 3e cf 14 88 3e 12 3d a5 be 86 b7 51 be
       0.22858043 0.26578376 -0.32273155 -0.20480165
000200 06 9c 45 be 21 e7 99 3d 12 a2 89 3e f5 8f 29 3b
       -0.192978 0.075147875 0.26881462 0.0025873159
000210 64 0f 41 3d f5 3c 11 3e 23 9e a1 3d f4 c3 09 bc
       0.04713382 0.1418341 0.0789149 -0.008408535
000220 1c 63 19 be b7 9d 60 3d 7a ae cf 3d d4 7f 09 be
       -0.14979213 0.05483791 0.10140701 -0.13427669
000230 16 98 52 be f8 45 d4 3d 21 ac b5 be 3f f7 93 3e
       -0.20565829 0.10364908 -0.35482886 0.2889957
000240 8d f8 0d be b7 62 b0 3e 96 7e d3 bd bc b3 0b 3e
       -0.13864346 0.34450313 -0.10326879 0.13642782
000250 94 91 62 3e 1d cb 92 3e 2f 7c 53 3e 91 d0 40 bd
       0.22125846 0.28670588 0.20652841 -0.047073904
000260 3c c6 b6 bd 3a 66 3a be fe 28 91 bd 4d 9b a6 3c
       -0.08924529 -0.18203059 -0.07087897 0.020337725
000270 3b f7 7b be f9 1d 88 3d 4c 08 a6 be 06 43 96 3a
       -0.2460603 0.06646342 -0.32428205 0.0011464066
000280 a9 e7 13 be 01 e4 ae bd 8c 28 fd 3d 41 d3 db bd
       -0.1444384 -0.08539582 0.12361249 -0.10733653
000290 b9 05 11 be cf 9d 0f be f0 a2 7b bc 96 33 5a 3e
       -0.1416234 -0.14025043 -0.015358672 0.21308741
0002a0 37 56 ed bc 38 fb 1d 3f c7 13 3f be 61 7d 01 3f
       -0.028971775 0.61711454 -0.18659888 0.5058194
0002b0 48 76 32 3e 7b 4c 3a 3d 0f 8d 69 3d 34 84 83 be
       0.17427933 0.045483094 0.05701929 -0.256868
0002c0 84 29 c3 3c 02 88 43 be ff a0 fb bd 94 9b 89 3e
       0.023823507 -0.19094852 -0.12286567 0.2687651
0002d0 07 ee 25 be c2 57 73 be 8d 7c 0e be fc ee 54 3e
       -0.16204081 -0.23763946 -0.139147 0.2079429
0002e0 93 f5 b4 bd 84 7f 1d 3f 3b 51 c1 bb 94 f3 0e 3e
       -0.08835902 0.615227 -0.005899576 0.13960105
0002f0 51 d6 84 bc db 06 ff 3c 1f ef a0 3e 7b 05 59 3e
       -0.016215475 0.031131199 0.31432435 0.21193497
000300 b7 82 dc bd db a9 ad be 03 13 33 3e 4d b8 42 bd
       -0.107671194 -0.33918652 0.17487721 -0.047539044
000310 94 b6 25 be ca 83 08 bd a5 99 08 be 09 db cb 3e
       -0.1618293 -0.03332881 -0.1333986 0.39815548
000320 cc 25 cd bc fc 09 94 3e d0 8a 10 be e5 4f 9b 3e
       -0.025042437 0.28913867 -0.14115453 0.30334392
000330 41 f2 84 3e 2d 34 40 be b6 0c c8 3d 3f b3 16 be
       0.25966075 -0.18769903 0.097680494 -0.14716814
000340 5d 83 40 3e 83 5c 0c 3e 4b 6f 82 3e c0 3c bd bd
       0.18800111 0.13707165 0.25475535 -0.09240103
000350 67 41 40 bd b4 06 73 be a5 9e 90 3c 55 13 dc 3e
       -0.046937373 -0.23733026 0.017653773 0.429835
000360 2c 73 99 ba 8c 50 c6 3e 6d 34 5b be ce 56 a6 3d
       -0.0011707298 0.38733327 -0.21406718 0.081220254
000370 bf 95 83 3e d6 a3 59 3e 1e ed 55 be df f8 a3 3e
       0.25700185 0.21253905 -0.20891234 0.3202581
000380 4d 34 65 3d d2 fa 75 bd 6b ba b5 bc cb 09 8e be
       0.05595808 -0.060053654 -0.022183618 -0.27741846
000390 c5 2e e0 bd b1 6a 40 3c d7 4b 18 be 0d eb cc 3e
       -0.109464206 0.011744187 -0.1487268 0.4002308
0003a0 da bd e8 bb 5e c7 0c 3f 4e b8 8a be eb 43 50 3e
       -0.00710271 0.5499171 -0.27093738 0.20338409
0003b0 fb 6b 1d bd 1a 5c 81 bb 9b 6e 71 be d9 57 bb bd
       -0.038433056 -0.003947747 -0.23577349 -0.09147615
0003c0 1f 65 24 3d 33 6f a3 be 31 e4 74 bd 78 a1 80 be
       0.0401355 -0.31920776 -0.059787933 -0.2512319
0003d0 06 4f e4 3d 6f f3 84 bd 15 05 c6 bd 9f a2 b3 bd
       0.11147885 -0.06491744 -0.09668938 -0.08771252
0003e0 3f b7 78 3e de 1b 34 3f eb f3 88 be 09 60 47 bd
       0.24288653 0.7035502 -0.26748595 -0.04867557
0003f0 28 4b dd 3c 06 22 58 3e 8f 69 8b bd 32 42 b6 3e
       0.027013376 0.21106729 -0.06807243 0.35597378

tcn.tcn.0.conv2.bias f4 [16]
000000 59 08 04 3d 53 36 ba 3c da 13 7f 3d b3 1a a6 bd
       0.032234523 0.022730982 0.06227479 -0.08110561
000010 9b dc e8 3d 23 6f 04 3d 80 8a cf bd 78 d3 36 bd
       0.11370202 0.03233255 -0.10133839 -0.044635266
000020 8e c3 65 be ec b9 17 be cf bc aa 3c 24 96 6a 3d
       -0.2243788 -0.14817017 0.020841984 0.05727209
000030 65 a9 2d 3e 9a 47 00 bd 22 92 5d 3e 5a cc 24 3d
       0.1695915 -0.031318285 0.21637776 0.040233947

tcn.tcn.0.res_conv.weight f4 [16, 16, 1]
000000 e0 1e ce 3c ff d5 aa bd 0b 05 3d 3e 45 72 f4 3b
       0.025161207 -0.08341598 0.18458955 0.007459911
000010 21 8f bd 3d f2 4f 2f 3e 88 aa 52 bd f7 51 ee bd
       0.09255815 0.1712034 -0.051432163 -0.11636727
000020 bd d4 24 be 8e 53 89 3e a7 b2 86 be 43 18 ca 3d
       -0.16096778 0.2682156 -0.26308176 0.09867909
000030 6a ce 92 bd 6b f7 f7 3d 31 06 15 3e b6 70 c9 bc
       -0.071682766 0.12107738 0.14553143 -0.024589878
000040 69 52 a7 3d 0b c7 a1 3e 9f 0f 0f be a7 2b 1b 3e
       0.08170015 0.3159717 -0.13970803 0.15153371
000050 52 dc ed 3c 38 19 ea bd 7a f7 d7 3d 28 3f f7 be
       0.029035721 -0.11430591 0.10545249 -0.48290372
000060 16 6f c7 3d 45 2d d1 bc 1c 0f 3f be 76 90 cf bb
       0.09737985 -0.025534282 -0.18658108 -0.0063343598
000070 0c 26 8b 3e eb b7 d4 bd 02 8c 48 be b6 a6 67 be
       0.27177465 -0.10386642 -0.19584659 -0.22622189
000080 19 3d 31 3e db 5e 7d be 7c 31 a1 bd 04 e8 83 3e
       0.17308463 -0.24743216 -0.078707665 0.2576295
000090 e5 ed 89 3d 0d 5a 52 be 32 3f d3 3e a3 24 45 3e
       0.06734828 -0.20542164 0.41259152 0.19252257
0000a0 18 03 45 3c b8 e2 d7 3e fc 4e 18 3e fa 46 97 be
       0.012024663 0.4216516 0.1487388 -0.29546338
0000b0 5f 52 b5 be 90 8e 84 3e e8 c5 2e 3e 2f 40 b5 bd
       -0.35414407 0.25890017 0.17067683 -0.08850133
0000c0 fb e5 86 3e e6 05 94 be ad 34 fc 3d a0 04 ff bd
       0.26347336 -0.2891075 0.123147346 -0.12452054
0000d0 83 30 03 bd ee 31 34 bc 3d 3c 00 bd ed ab c0 3e
       -0.032028686 -0.010998232 -0.031307448 0.3763117
0000e0 e0 46 8d bd 48 99 d1 3d fe 61 86 3e 1e ba 50 be
       -0.06898284 0.10234314 0.26246637 -0.20383498
0000f0 50 c9 39 3d cc 13 a1 3e f1 58 3f 3e ca d6 9e bd
       0.045358002 0.31460416 0.18686272 -0.077558115
000100 bc 4e 78 be 33 5a 91 3e 58 38 1e bd 7b db 89 be
       -0.24248785 0.2838913 -0.038627952 -0.26925263
000110 f0 4d 20 bd 35 d6 9e 3d be 4b 8e be 3e ff 4c be
       -0.039136827 0.077557005 -0.27792162 -0.20019242
000120 e9 ec 0c bd dd 00 12 be 56 8d 78 3e 96 1d 00 bd
       -0.034405623 -0.14258142 0.24272665 -0.031278215
000130 09 52 3e 3e d0 91 ed 3d c2 4f 99 bd ac 47 88 bd
       0.18585981 0.11600077 -0.07485916 -0.06654295
000140 8a c7 66 3d 9a bc 50 3e 37 f2 86 be 08 17 ab bd
       0.05634264 0.20384446 -0.2635667 -0.08354002
000150 8f 18 35 be 98 a5 9b 3e a2 24 a6 be 4c e1 35 3c
       -0.1768515 0.30399776 -0.32449824 0.011101078
000160 10 fa 15 3d 72 6e 13 3c ec 54 41 bd 94 4f a7 3d
       0.03661543 0.0089985 -0.04720013 0.08169475
000170 de cc 40 3d 19 05 ea bc f6 41 20 3d a8 40 5d 3e
       0.047070377 -0.028566884 0.039125405 0.21606696
000180 8c 73 b4 be 02 f4 97 3e 4e dd cd 3d fd 2a 41 be
       -0.35244405 0.2967835 0.10051976 -0.18864055
000190 dc 68 4c 3e 39 58 2a 3e 68 ea 94 be 25 42 e7 bd
       0.19961876 0.16635217 -0.29085088 -0.11291913
0001a0 3e f0 2c be 48 fc 43 3e f8 63 a4 be 75 64 6a 3d
       -0.1688852 0.19139206 -0.3210752 0.05722471
0001b0 08 0d 98 3d 2f 21 aa be 9d 77 0b be 5e f4 22 3e
       0.074243605 -0.33228442 -0.13619848 0.15913531
0001c0 90 54 07 be 9c aa 90 3d c9 a0 6e 3e 41 99 b2 3e
       -0.13215852 0.07063791 0.23303522 0.34882548
0001d0 87 1b 99 bd f1 6f 8f 3e 8d 15 e4 3e d7 89 72 be
       -0.074759535 0.28015092 0.44547692 -0.23685394
0001e0 0e 97 55 bc 75 35 a3 bd 18 56 89 be 0c db 5f bd
       -0.0130365025 -0.079691805 -0.26823497 -0.05465226
0001f0 5d 93 c4 bb 25 f7 86 be 83 b4 a7 bd 35 c3 23 be
       -0.0059990124 -0.2636043 -0.08188727 -0.15992434
000200 2f 16 5e be 48 03 90 3d 91 aa 3d 3e 87 78 a9 be
       -0.2168815 0.07031876 0.18522097 -0.33099768
000210 e3 2d a3 be 6b c4 36 bd 21 92 49 be f1 4e e1 bd
       -0.31870946 -0.044620913 -0.1968465 -0.11001385
000220 6e 25 e2 bd 34 c4 67 3f 7f 66 75 3e ae de 07 3e
       -0.110422954 0.9053376 0.2396488 0.1326854
000230 01 02 4d be 13 34 45 be d2 a1 24 be a3 14 c7 3e
       -0.20020296 -0.19258146 -0.16077355 0.38882932
000240 f2 4f ac 3e 95 b1 3b 3c e2 ef 0f 3e b0 f7 f4 bd
       0.33654743 0.011455913 0.14056352 -0.11961305
000250 0f 27 df bd a7 5e f8 bd ec 0d 8f 3e 83 9e 33 3e
       -0.10896122 -0.121274285 0.2794031 0.17540936
000260 c4 59 99 bd fc 58 81 3e 60 d0 a8 3d a0 6e 52 3e
       -0.074878246 0.25263202 0.082428694 0.20550013
000270 8c 8b 4f be 9c 74 98 3e 92 5e 08 3d 74 4d 85 be
       -0.20268077 0.29776466 0.033293314 -0.26035655
000280 ee 4e 0c 3d 08 e5 27 be 4f 47 fb bd 9a 34 83 be
       0.03425496 -0.16395962 -0.122694604 -0.2562607
000290 1b 9c cb bd cc fb b9 be 89 15 35 3e 19 6e 15 3e
       -0.09941884 -0.36324918 0.17683996 0.1459278
0002a0 76 03 6a be 6a d8 c9 3e 27 b4 e6 bd d4 e3 f9 be
       -0.22852883 0.39422923 -0.1126483 -0.48806632
0002b0 92 ea 03 bd de fa 98 be 0a 7a 9b 3e 15 84 4f be
       -0.032206126 -0.29878896 0.30366546 -0.20265229
0002c0 84 01 d8 be 28 58 8f be 8f 66 3c be 72 4c f2 bd
       -0.42188656 -0.27996945 -0.18398498 -0.11830987
0002d0 34 5a f3 3c f8 fe a3 be 5f 21 78 be e8 48 fb bd
       0.029706098 -0.32030463 -0.2423148 -0.12269765
0002e0 0a 66 48 3d be 41 95 be 0f 72 64 be e5 cf b6 bd
       0.048925437 -0.2915172 -0.22309135 -0.089263715
0002f0 5b 28 bc 3d 70 11 82 bc 2d 7f a2 bc 43 4a 31 be
       0.09187385 -0.015877455 -0.019836033 -0.17313485
000300 c8 41 52 3d 7e 2e b8 3e a8 4c 68 3d 6a 92 69 bc
       0.051332265 0.3597297 0.05671373 -0.014256099
000310 ee c8 bd bd c7 78 0b bd 2b 01 ab be bc 5b 06 be
       -0.0926684 -0.03405073 -0.3339933 -0.13120931
000320 ba 9d 62 3e 0d 62 da 3d 7c 29 8e be f2 f4 d6 3d
       0.2213048 0.10663233 -0.27766025 0.10495938
000330 7d 7e ff 3d f1 a3 06 be 79 13 91 bd 9f 39 81 3e
       0.124752976 -0.13148476 -0.07083792 0.25239274
000340 5c c3 a8 3e 27 bc b3 3e 3c b4 44 3e ad 2d cd 3e
       0.32961547 0.35104486 0.19209379 0.4007391
000350 ee 80 21 be 79 dd 89 3e 97 db 54 3e b6 5b 13 3d
       -0.15771839 0.26926783 0.20786892 0.035976134
000360 7e df 14 3e a5 2a 4e 3c 70 7b 78 bd 01 d8 90 be
       0.1453838 0.012583409 -0.060664594 -0.28289798
000370 7c f0 c0 3d ff b3 3a be 87 5e 8a 3d 8f 41 3e be
       0.09420869 -0.18232726 0.06756311 -0.18579696
000380 98 68 05 be 95 b9 5e be 0b c2 69 3d 54 ec a0 3d
       -0.1302818 -0.21750481 0.05706982 0.07857576
000390 2c f9 1b be 21 b3 ad bd ad 1b 6c 3e e8 59 c5 bc
       -0.1523177 -0.08481432 0.23057432 -0.024090722
0003a0 95 9f 19 be 6c ff f3 3d e1 21 e5 bd 18 89 00 3c
       -0.15002282 0.11913952 -0.111881025 0.007845186
0003b0 7d eb f9 3d 29 bb d8 3d ca c2 bc 3b 5d cc d7 3c
       0.12203119 0.10582573 0.0057605254 0.026342565
0003c0 aa 91 86 be 0a 6d 45 bd 3e a5 95 bd 1e bf 50 be
       -0.26283008 -0.04819969 -0.07306908 -0.20385405
0003d0 18 35 47 3e 13 54 08 3e 7c d6 57 be dc 4f ba 3d
       0.19453847 0.13313322 -0.21077913 0.09097263
0003e0 f0 25 b8 bd d1 fa b9 bc 33 4f ad be 6f e8 78 bd
       -0.08991611 -0.022702606 -0.33849487 -0.06076854
0003f0 b4 c3 00 3e fe 5e b1 3d dc d9 21 be 09 8e 02 3e
       0.12574655 0.086606964 -0.15805763 0.12749495

tcn.tcn.0.res_conv.bias f4 [16]
000000 2d 5c 69 3e b9 56 ed bd 1e 09 69 be c9 70 d5 3c
       0.22789069 -0.11588807 -0.22757384 0.026054757
000010 d7 72 0e be 43 63 22 be c1 23 55 be 47 d8 26 be
       -0.13910995 -0.15858178 -0.2081442 -0.16293441
000020 c6 fb 80 bd 00 68 0f 3e 07 af c4 bd 20 a2 06 3e
       -0.06298022 0.14004517 -0.09603696 0.13147783
000030 88 85 2e bd c0 dd 93 be 66 fe af 3c 27 94 67 3d
       -0.042607814 -0.2888012 0.021483611 0.056537773

tcn.tcn.1.conv1.weight f4 [16, 16, 5]
000000 a1 09 27 bd 6b 09 38 be 52 40 f3 bd 10 fa 27 be
       -0.040780667 -0.17972343 -0.118775025 -0.16403985
000010 fb 1c 8b be de cc 4a 3e 61 fc cc be 01 7f 4f be
       -0.27170548 0.19804713 -0.400363 -0.20263292
000020 6e 74 cf bd a5 4e 42 3e e2 0c f3 3d c2 fb dc 3e
       -0.10129629 0.18975313 0.118676916 0.43160826
000030 ae a8 b0 bd 8c 5f 91 be 34 48 66 be 87 35 01 3d
       -0.08625923 -0.2839321 -0.22488481 0.03154519
000040 20 25 d9 bd 4b 3f eb bd f3 09 df bd 70 a9 89 be
       -0.10602784 -0.114866816 -0.108905695 -0.26887083
000050 97 8f 8f 3b 10 39 df bd 56 45 5e 3e 10 02 7d 3e
       0.004381131 -0.10899556 0.21706137 0.24707818
000060 6a 64 9b 3e eb 35 82 3d 67 7a 76 bc bd f0 73 3e
       0.30350047 0.0635794 -0.015043831 0.23822303
000070 d4 80 a4 3b a9 72 8e 3e 7f 64 8e 3d 76 8c b2 bd
       0.0050202403 0.27821854 0.06952762 -0.08718197
000080 fb d3 40 3e 5a 21 9a 3e 3f bd f7 3e a8 9c d2 bd
       0.18830864 0.3010357 0.4838657 -0.10283786
000090 77 1e 47 be 91 b4 e3 be 00 53 d1 be 04 0f 31 be
       -0.19445215 -0.444737 -0.40883636 -0.17290884
0000a0 63 57 57 be d6 ba 4f 3e aa ec 89 3e ef c1 1c 3e
       -0.21029429 0.20286116 0.26938373 0.15308355
0000b0 5f 05 de 3d 21 be 05 be b6 dd 3c bd c1 8d 9a 3c
       0.10840868 -0.1306081 -0.046109878 0.018866422
0000c0 54 c7 06 be ee 24 d3 bd 9f 98 fb 3d d6 9e 61 3e
       -0.13161975 -0.10309778 0.122849695 0.22033247
0000d0 4b fc fb bd dc 62 99 be 12 92 83 be b3 70 67 3e
       -0.123039804 -0.29958236 -0.2569738 0.22601585
0000e0 1a f2 84 bc 81 5f 99 be 0d 64 e5 3d f9 9c e7 bb
       -0.016228724 -0.29955676 0.11200724 -0.007068273
0000f0 d7 07 22 3b a3 7d 09 3e 13 a4 25 3c b0 d5 99 3d
       0.0024723911 0.13426833 0.010109919 0.07511461
000100 e4 aa 2b 3e da 9d cc 3e fd a3 04 3d cc fc 65 be
       0.16764408 0.3996418 0.032382954 -0.22459716
000110 a3 50 3d be be 8b bb bb 32 c6 50 3e 1f 13 04 3e
       -0.18487792 -0.0057234457 0.20388106 0.12897919
000120 68 3e f8 3d 20 47 a7 3d 20 55 93 bd 04 76 03 3f
       0.12121278 0.08167863 -0.07193971 0.5135195
000130 f4 6a 60 3d 40 e0 8f 3d dc bb 7b 3e a9 df 34 3e
       0.0547895 0.07025194 0.24583381 0.17663445
000140 3f e1 39 be e0 58 1c be d4 16 ef bc 93 45 29 be
       -0.18152331 -0.15268278 -0.02918569 -0.16530447
000150 60 42 52 be 72 a8 08 be 37 c2 39 3e ec d7 00 be
       -0.20533133 -0.13345507 0.18140493 -0.12582368
000160 1b 61 7e 3d 49 bc 90 be c9 66 aa be 6c 9f 9b bd
       0.062104326 -0.2826865 -0.33281544 -0.07598767
000170 fc 6a 9a be 78 35 3d be 43 de 55 be 40 b6 f0 3d
       -0.30159748 -0.18477428 -0.20885567 0.117535114
000180 c1 4c 8e be 4f c8 b3 be 2a 61 58 be 17 60 02 be
       -0.27792934 -0.3511376 -0.21130815 -0.12731968
000190 86 26 bd 3e 5e 97 ef bc 8e 0f ea bd cd fd e5 3d
       0.36943454 -0.029246982 -0.11428748 0.11230049
0001a0 f8 48 27 3e 8b 5a 01 3e a5 2a 87 be cd 1d cf be
       0.16336429 0.12632196 -0.26399723 -0.40452424
0001b0 78 bc 7c bd d9 00 e9 3e 49 43 9c 3d c8 bb b1 3d
       -0.061703175 0.4550846 0.07630021 0.086783946
0001c0 ef 23 8a 3e 8f 1d bc 3e a4 43 bc 3e 88 29 da be
       0.2698054 0.367413 0.36770356 -0.4260981
0001d0 17 8a 81 bd c4 f5 6d be 0d 91 f8 bd ba 66 e8 3c
       -0.06325167 -0.23238283 -0.12137041 0.028369296
0001e0 f0 13 21 be 5a 47 e4 3b 4c 6a d3 be 50 43 4e be
       -0.15730262 0.0069665136 -0.41292036 -0.20142865
0001f0 43 1c 75 3e fd 9f 2a 3d 99 e1 6e bd d1 28 22 be
       0.23936562 0.041656483 -0.058320615 -0.15835883
000200 c5 af a9 bd 5c 53 5c bd d0 01 4b be 0e a6 54 be
       -0.082854785 -0.053790435 -0.1982491 -0.2076647
000210 59 da 1a 3e 0d cc 07 3c b5 36 0a bd 73 dd 4d 3e
       0.15122356 0.008288396 -0.03374358 0.20104007
000220 2a 2b 8d 3e 82 90 bf 3e 24 96 e8 3d 20 b4 3b be
       0.27571994 0.37414938 0.11356762 -0.18330431
000230 62 ca aa bd 07 d8 05 3b 2b c7 a2 3e e0 ac ad bd
       -0.08339383 0.0020422952 0.31792578 -0.08480239
000240 4c b6 b0 3c d6 7a 75 be 4e f8 2a be f0 45 52 be
       0.0215713 -0.2397264 -0.16696283 -0.20534492
000250 d6 ef 23 be ef ef 67 bd 86 c0 9b bc e5 e8 8b 3d
       -0.16009459 -0.056625303 -0.0190127 0.068315305
000260 a0 86 75 3e 2f c8 ce bd 63 8f 02 3d f7 27 4f 3d
       0.23977137 -0.10096776 0.031875025 0.050575223
000270 2c 4c 39 3e 7a 97 c5 3d 1f 58 9d 3d 8d 87 8e 3d
       0.18095464 0.096480325 0.076828234 0.06959448
000280 6d ac 2d 3e 23 a2 81 3d e6 55 03 bb 7f e1 61 3e
       0.16960306 0.06329753 -0.0020040213 0.22058676
000290 97 47 ab bd 3f 04 99 bc d2 9c 36 be 88 ac 90 3d
       -0.08363264 -0.018678783 -0.1783326 0.07064158
0002a0 49 f7 42 bd 46 c5 82 3e c5 f4 bb bd 0a 17 74 3c
       -0.04759911 0.25541133 -0.091775455 0.014898071
0002b0 34 f4 0e 3d 4a 0e 1a be 7f 44 c4 bd f6 99 39 be
       0.03490086 -0.15044513 -0.09583377 -0.18125138
0002c0 c8 1d 0b be 85 00 2c be 2f 16 1a 3e 8e 53 58 3d
       -0.1358558 -0.16797073 0.15047525 0.05281406
0002d0 1d cd 24 3c df f9 c0 bd 21 90 76 be 54 a6 a1 3d
       0.010058668 -0.09422659 -0.24078418 0.07893053
0002e0 81 36 31 3e 22 07 07 be 41 14 d3 bd e5 db 62 bd
       0.17305948 -0.13186315 -0.103065975 -0.05538549
0002f0 1b 02 90 3c d1 39 5c 3e 0d a4 ba 3e 29 ab b1 bb
       0.017579129 0.2150643 0.36453286 -0.005422015
000300 0b ff 50 3d 6f 66 ba bd 5f 9a 10 3c 35 49 00 be
       0.051024478 -0.09101569 0.008825867 -0.12527926
000310 64 06 f3 3d ee c2 d7 3d 5d 1f 9c 3d ec 85 9e bc
       0.11866453 0.10535227 0.076231696 -0.019350968
000320 1b c4 e7 3d 5a d4 ca bd 23 d4 35 be c8 bd 82 bd
       0.11316701 -0.09903784 -0.17756705 -0.06383854
000330 65 d7 14 3e 13 7b 19 be 4e 99 05 3d 82 31 72 be
       0.14535291 -0.14988355 0.032616906 -0.23651698
000340 11 d4 56 be 2e 4e 6c 3e 38 32 a5 3e 18 39 46 3e
       -0.20979334 0.23076698 0.32264876 0.19357717
000350 e1 da e3 3c ad 6b 8c bd 15 ea ac be 39 90 a1 3e
       0.02781433 -0.06856475 -0.3377234 0.31555346
000360 ed ac 0a 3e 70 7c 2a bd da f3 a0 bd 3b 54 23 be
       0.13542528 -0.04162258 -0.07859011 -0.159501
000370 18 20 44 3e 14 d0 f1 bd 5e 38 04 3e f3 52 dd 3d
       0.19152868 -0.11807266 0.12912127 0.10806837
000380 f3 ae 8d bd 14 94 0e bb d8 f6 05 be 6f 67 aa 3d
       -0.069181345 -0.0021755742 -0.13082445 0.0832051
000390 75 f9 19 3b b7 bc a1 bd aa 42 4e 3e 3a 9d 4f bc
       0.0023494635 -0.078973226 0.20142618 -0.012671763
0003a0 bd ba d5 3d ce f3 ec bc 7d bb 25 be 80 2e b3 3e
       0.10436008 -0.028924849 -0.16184802 0.34996414
0003b0 1f b1 ca bd bc f6 af 3d 3d 08 5f 3d de 7c 3c be
       -0.098970644 0.08591983 0.054451216 -0.18407008
0003c0 d3 4e 91 3b 74 0c 38 bd 92 83 3e 3e d5 c7 46 3e
       0.0044344454 -0.04493375 0.18604878 0.19412167
0003d0 ac 0c 32 be 2d a3 ba 3c f7 25 0a 3d 88 a9 b7 bd
       -0.17387646 0.022782886 0.033727612 -0.089678824
0003e0 8c f1 e0 bd c8 38 b2 3d a3 f3 ce bd 42 12 4d 3d
       -0.109835714 0.087022364 -0.10105064 0.05006624
0003f0 55 2c a6 3c ce 69 80 be 37 92 4f bd 36 ec ca 3c
       0.020284811 -0.25080723 -0.05067655 0.024770837

tcn.tcn.1.conv1.bias f4 [16]
000000 17 0b 52 be 7a 76 8b be d0 27 b0 3d 3d a6 ee 3d
       -0.20512043 -0.27238828 0.08601344 0.11652801
000010 f8 23 9d be be 17 40 be dc dc a0 3d 77 1d c2 3d
       -0.30691504 -0.18759057 0.078546256 0.09478276
000020 3b 47 59 bd 3e 29 e9 bd d2 d3 5e be d0 be c0 3d
       -0.053046446 -0.113848194 -0.2176049 0.094113946
000030 32 40 79 be 6c 8c 53 3e f4 9c 8f bd 6d 9c 0b 3e
       -0.24340895 0.20659035 -0.07012358 0.1363389
