checkpoints/fine_tune/var_rf/gtzan/0.4/model_faithful-hill-196_finetune_finetune_finetune_finetune_finetune_HAI_GIA/it_3416_loss_3.1980_acc10.5_acc20.67.pt (torch, 436712 bytes, 211 tensors)

conv1.weight f4 [16, 1, 3, 3]
00000000: 1021 8b3e 664c 53bd 5799 8abe ce41 b23e
00000010: 5256 f5bd 079a adbe 64ad 663e 8c6c 513e
00000020: d2a7 8bbe ad5f a93e 1c76 f7be 0a27 cdbe
00000030: bb89 873e e846 8fbe 7172 ea3d 9acb ec3d
00000040: 69d6 363e 439f 923d 422a 8abe 7cc3 c83e
00000050: c729 3a3e ccf8 5cbe 1dca b23e 5918 4e3d
00000060: 2abf 08bf 6023 0e3e ddb8 6abe 9f3f 8cbe
00000070: b738 e7bd 43c9 ac3e 0202 b0be 9880 c03d
00000080: 56ab 403e ca71 bc3e 1ded 643d da0e ffbe
00000090: 6446 4fbe 353c 43be 9c6a 11be f6a7 57be
000000a0: f25f 3a3e f27e 923e 5e5a 7abd 156f 98bd
000000b0: bba5 7bbe 30e2 9ebd 5378 ad3d 0e39 aabd
000000c0: 9a14 54bf da9b 993e 0609 eb3e 9aa8 82be
000000d0: 5964 973e 8b68 59bd 3000 a03e 4b0e 243c
000000e0: 4784 c8bd 11b7 b7bd 4d9a 563e c4da b8be
000000f0: 2fc8 eebd de96 073e 9372 6bbe ec4c 5bbc
00000100: 621e 153b f385 7e3e b2a7 e5be c99e 26be
00000110: 90b0 ddbd 8a22 e13d de2d 88bd 9af3 0a3f
00000120: 89c0 afbe 7e87 043e c29e 8ebe 9e33 d2be
00000130: a559 c33e 8547 b93e 1419 3dbe ac6e cc3e
00000140: fc8a f73d ec44 25bf d5b9 c83d 5b4e 063f
00000150: 1126 9d3c 30ee 5fbe 9bbd 513e 801c b4be
00000160: 9c5d ddbb 6eec 9d3e ee8a f9be a5b2 323d
00000170: a3ff 9f3e 1e64 66be 3506 57be 4bba 9e3e
00000180: 5208 bb3d 21b8 00be dfb5 bebc d5ae 023e
00000190: b628 cb3e ecab 1abe bbaf 593e f47f bb3e
000001a0: ce10 3ebe 6aa7 ab3e d087 963d b869 bdbd
000001b0: a3c7 053e c3fb 0b3e a752 e93c eb4c efbd
000001c0: 1be4 34be 8472 cebe 5e27 8c3e 609b a73e
000001d0: 82fa 39be 616a 553e f1b6 09be 28a3 9abe
000001e0: e66c a23e 1626 913e 57bb dc3d ef52 65be
000001f0: eabb 463e 925e f6be 9b38 9e3e 8396 273e
00000200: cb18 13be e6be c43e d7f8 97be dd76 7bba
00000210: f5c7 493e 144b 9cbe 4ba4 dabe 625c 1abe
00000220: 92fa 1abd 456f 9a3e 96d2 0abe b13c 3f3d
00000230: a150 ba3e 4d5a 07bf ab76 81be d1dc 093f
0.27173662 -0.05158653 -0.27070114 0.3481583 -0.11979355 -0.33906576 0.22527081 0.20451564
-0.27276474 0.33080807 -0.48332298 -0.40068847 0.26472268 -0.27983785 0.11447609 0.115622714
0.17855228 0.07159283 -0.26985365 0.39211643 0.1818 -0.21579283 0.34919825 0.05031619
-0.53416693 0.13880682 -0.22922082 -0.2739229 -0.112901144 0.337473 -0.34376532 0.09399527
0.1881536 0.36805564 0.05589019 -0.49816018 -0.20241696 -0.19065936 -0.14200824 -0.21060166
0.18200663 0.28612477 -0.061121337 -0.07443062 -0.2457494 -0.077579856 0.08470216 -0.083116636
-0.82843935 0.30001718 0.45905322 -0.25519258 0.29568747 -0.053078216 0.31250143 0.010013173
-0.09790855 -0.08970464 0.20957299 -0.36104405 -0.11659276 0.13241145 -0.22992925 -0.013385039
0.0022753705 0.24855785 -0.44854504 -0.16271509 -0.10824692 0.10992916 -0.066493735 0.54277956
-0.3432658 0.12942311 -0.27855498 -0.41055006 0.3815433 0.36187378 -0.18466598 0.39928186
0.12087056 -0.6455829 0.0980107 0.5246331 0.01918319 -0.21868205 0.20482485 -0.35177994
-0.006755544 0.30844444 -0.48738807 0.0436274 0.31249723 -0.22499129 -0.20998462 0.31001505
0.09132446 -0.1257024 -0.023280082 0.12762006 0.39679497 -0.15104645 0.21258442 0.36621058
-0.18561098 0.33526164 0.07350123 -0.0924868 0.13064437 0.13670258 0.028481795 -0.11684593
-0.1766514 -0.40321743 0.27373785 0.3273573 -0.18161967 0.20841362 -0.13448693 -0.30202603
0.31723708 0.2834937 0.1077792 -0.22394918 0.19407621 -0.48119026 0.30902562 0.1636601
-0.14364927 0.38426894 -0.29682037 -0.0009592602 0.19705184 -0.3052603 -0.4270347 -0.15074304
-0.03783662 0.30163017 -0.13556895 0.04668874 0.3638964 -0.52872163 -0.2528585 0.53852564

conv1.bias f4 [16]
00000000: 375b 96bb 4cfb ac3d e840 5bbd f130 15bd
00000010: b529 47be bfba e7bd c6a4 0f3e fbad 673c
00000020: 84a4 4fbc 7a58 5e3d 7ef7 13bd fcfc 6abe
00000030: f088 ac3d 2954 4dbd 5efd 0cbd 4bc1 e6bd
-0.0045885104 0.084463686 -0.053528696 -0.036423627 -0.19449504 -0.11314916 0.140277 0.014140601
-0.012673501 0.054283597 -0.0361247 -0.22948068 0.08424556 -0.05012909 -0.034421317 -0.112673365

conv2.weight f4 [16, 16, 3, 3]
00000000: 4cba 1ebe 631b 27bd 718b a0bc 2a54 f0bd
00000010: e7ec 55be 60ac 7cbe b373 3fbd d785 2e3d
00000020: 40d4 efbd 622f 12bd 48c1 73bd 0ed7 2fbb
00000030: 71b6 8cbd 485c ec3c e593 febd 78dd e0bd
00000040: 2a2f d2bc 0b96 9bbe dca8 f63c 612d 88be
00000050: 2cdb 5ebd ebc9 5d3e 9b44 96be 4f30 6abd
00000060: 3702 9c3e 3773 74be 5887 0bbe dd35 0fbe
00000070: 2035 983d 8207 2f3e ea8f 52bd ea36 113e
00000080: 8d6e ad3e 05aa c53e ebf3 ec3e c12d 073f
00000090: eca2 95bb 23dd 88bb f178 32be 5c60 5ebd
000000a0: 1e31 12be 794f 80be 33cf be3b c40e 0fbe
000000b0: 132e d8bd 7ab3 883e 2b5d 00bd b0a2 d23e
000000c0: 28f7 823e 69d2 cbbd 2b66 ae3e f35e fb3e
000000d0: c398 913d 373e df3e 3a9e 793d c46f 16be
000000e0: 86ae 2dbe 7184 e2bc f81d ebbd 072f 6dbe
000000f0: 61a6 57bd 908f d3bd 2fa2 b7bd 638d 743e
00000100: 3032 1a3e c8aa 85bd 93cb 653e e7a7 173c
00000110: 8057 66be a4be fdbc f915 96bc ac1e 5fbe
00000120: 2416 083e c3ff 1abe 7d7d c13b 3c6f 713e
00000130: 28b5 39be d621 69bd dcd0 be3d 08e2 24be
00000140: b09f 0ebe 1772 d33c 26a9 6f3e 025b 7d3e
00000150: 72fe 5b3e f3ec ac3e bc16 b73e c930 913e
00000160: 1019 253e bb2e 9e3e a580 a13c 983b 9ebc
00000170: a949 293a 8755 47bd c0ce 63bd 3d61 073e
00000180: fd49 1ebd 1f0f ccbd 9960 ac3d 3eb7 f5bd
00000190: 0248 52be 2620 55be a4d2 1dbe af5d 85be
000001a0: afce a5be c4da d3bd c5b1 b5bd e149 7fbe
000001b0: ce2d adbd 2202 b7bd 6695 3bbe 2824 373a
000001c0: afe8 cfbd 87e5 36be 9758 ed3c 8a23 5c3d
000001d0: 643e 8ebd 0544 ef3d 30f6 d7bd eb93 43bd
000001e0: dce5 463d bb86 1bbe ca8e 0abe 9c8b fe3d
000001f0: b969 2f3c 2856 37be f167 3ebe f897 39be
00000200: 6a0a 28be df25 71be c30c a0bd 6fb1 14bc
00000210: 5bbf 6abc 4303 013e d69f a8bc b41f 7a3c
00000220: 8a29 053b 1e1c a33d 2f94 84bd bb84 083d
00000230: 4ab3 063e 9ceb ce3d e9fa c7bc 7bfd c03d
00000240: 4954 733e e682 693d 25b4 493e b4ee ce3d
00000250: 44fe 233e 65be 083e e91b 413d 945e a33d
00000260: 8f4a 743d c6c9 8a3e 75a3 1bbe 2432 913e
00000270: 850e 9a3d b1ee 03be fbe2 ef3d ab88 803e
00000280: e31b 1fbe 027e ee3c ced8 d3be 3dbb ff3e
00000290: 7383 08be d0e8 1cbf 31c5 063e 6be0 ddbd
000002a0: 9e76 1ebf d969 163e a524 79be c103 03bf
000002b0: bbe1 bcbe 2204 47be abc8 15be 6d1a db3c
000002c0: 467b 4c3e 49f6 20be 9a39 713c e95e ae3d
000002d0: bdd6 d43d a265 0a3e f90f d43d ac2a 95bc
000002e0: f600 233d 0c54 cabd 24c2 b33a e30a 593d
000002f0: b318 77bd fb6e d7be ca95 823e 74a8 9cbd
00000300: 75c6 f3be 29da a03d dd4c f1bd 8e8e 09bf
00000310: bc68 863e 9445 e9bc dbba 5fbd 605d fe3d
00000320: 5da8 b8bd f4ae b23d 44cb c83d 0646 c23d
00000330: 73b3 9b3d 4e5c 1d3e 9081 0c3e 9aee 493e
00000340: 0742 ea3c ccc8 49be d8e1 54bd 540f 95bd
00000350: 9acc 11be dd02 dbbb f487 b3bc a629 bbbe
00000360: 80ab febe 6d5c 1c3e 26cf 4bbe cf72 e5be
00000370: fcb1 d33d 03eb b5bd 2fad 1dbf 2e80 7b3e
00000380: 8711 6d3d 7360 5dbd 1f39 c7bd ce64 0cbe
00000390: 7799 20be f96b babd b341 db3d 243b 16be
000003a0: 7e62 f23d a34f 043e d9c5 223e 2c8a 37be
000003b0: dee8 85bd 92dc bbbd 1c8a 24bd c731 f3bd
000003c0: 7ffd 4bbd 8788 18be e1a5 ad3b f274 83be
000003d0: 6701 4ebd e196 6d3e 564a efbd 1dd2 babd
000003e0: b4b9 c33d aa92 d9bd fe55 29bc f3f0 df3d
000003f0: 7e94 383d 731d aebd 4401 d9bd 5d73 75bd
-0.15500754 -0.040797602 -0.01959774 -0.11734803 -0.20891152 -0.24675131 -0.0467412 0.04260811
-0.11710405 -0.03568972 -0.0595105 -0.0026831063 -0.068707354 0.028852597 -0.124305524 -0.10979742
-0.025657255 -0.3038791 0.030109815 -0.2659712 -0.054408237 0.21659057 -0.29349217 -0.057174977
0.3047044 -0.23872076 -0.13625848 -0.13985391 0.07432008 0.17092708 -0.05140678 0.14181104
0.33873406 0.38606277 0.46279845 0.5280419 -0.004566541 -0.004176752 -0.17428948 -0.054291114
-0.14276549 -0.25060633 0.00582304 -0.13970476 -0.10555663 0.2669943 -0.031338852 0.41139746
0.2557919 -0.09952242 0.34062323 0.49095878 0.07109215 0.43602154 0.060941912 -0.14691073
-0.16961107 -0.027651044 -0.114803255 -0.23162471 -0.052648906 -0.10330117 -0.08966481 0.2388206
0.15058208 -0.065267146 0.22440939 0.00925634 -0.22494316 -0.030974694 -0.018321024 -0.21789044
0.13289696 -0.15136628 0.005904852 0.23577589 -0.18135512 -0.056917034 0.093171805 -0.16101849
-0.13928103 0.025811238 0.23404369 0.24741748 0.21483782 0.33774528 0.35759532 0.28357533
0.16122842 0.30895028 0.019714663 -0.019315526 0.00064578146 -0.04866555 -0.055617094 0.13220687
-0.03864478 -0.099638216 0.08416862 -0.11997841 -0.20535281 -0.20813045 -0.15412384 -0.26048037
-0.3238425 -0.103444606 -0.088717975 -0.24930526 -0.08456002 -0.08935954 -0.1831871 0.00069862837
-0.10151803 -0.17860995 0.028972907 0.05374483 -0.06945494 0.116828956 -0.105450034 -0.047748487
0.048559055 -0.15188114 -0.13531032 0.12428972 0.010706359 -0.1790396 -0.18594338 -0.18124378
-0.16410223 -0.23549603 -0.07814934 -0.009075507 -0.014327849 0.125989 -0.020584028 0.015266348
0.0020318949 0.07964347 -0.06473576 0.033329707 0.13154331 0.10103533 -0.024411635 0.094233476
0.23762621 0.0570096 0.19697626 0.10104123 0.16014963 0.1335388 0.047145758 0.07977024
0.059641417 0.27107066 -0.15199073 0.28358567 0.07522301 -0.12884022 0.11713215 0.2510427
-0.15537982 0.02911282 -0.41376346 0.4994754 -0.13331394 -0.61292744 0.1316116 -0.1083382
-0.61899745 0.14688815 -0.24330385 -0.51177603 -0.3689097 -0.1943517 -0.1462733 0.026746
0.199689 -0.1571895 0.014723206 0.085141964 0.103925206 0.13515332 0.10354609 -0.018208824
0.03979584 -0.09879312 0.0013714475 0.052988898 -0.06032629 -0.4207686 0.25504905 -0.076493174
-0.47612348 0.07854111 -0.11782239 -0.53733146 0.2625178 -0.02847556 -0.05462156 0.124201536
-0.09016488 0.08724776 0.09804395 0.09486012 0.076025866 0.15367243 0.13721299 0.19719926
0.028595937 -0.19705504 -0.051973194 -0.07278314 -0.14238206 -0.006683691 -0.021915413 -0.36555213
-0.4974022 0.15269633 -0.1990324 -0.44814155 0.10336682 -0.088827156 -0.6159238 0.24560615
0.057878044 -0.05404706 -0.09727692 -0.13710329 -0.15683542 -0.091026254 0.107058905 -0.14670998
0.11835192 0.12921004 0.15895785 -0.17923802 -0.065385565 -0.0917293 -0.040170774 -0.11874729
-0.0498023 -0.14895831 0.0052993153 -0.2567516 -0.050294306 0.23202087 -0.116841 -0.09122107
0.095569044 -0.10623677 -0.010335444 0.10934629 0.04506349 -0.08501711 -0.105959445 -0.059924472

conv2.bias f4 [16]
00000000: 3c38 64bd c863 12be c763 a93d 620b b7bd
00000010: b256 1cbe f1ce 8fbe b295 57be 43d0 67bd
00000020: 3b00 b8bd 4ab6 d2bd cc6f a8bd 4252 f9bb
00000030: cc0a efbc a6df 04be 9d0e ea3c 5528 15be
-0.05571769 -0.14295876 0.08270984 -0.08937718 -0.15267447 -0.2808757 -0.21053198 -0.0565951
-0.08984419 -0.10288675 -0.082244486 -0.007608683 -0.029179953 -0.1297594 0.028571421 -0.14566167

conv3.weight f4 [16, 16, 8, 1]
00000000: 467d 98bd 0a5c 65bd 022d a6bd 0f07 56bd
00000010: cdcb 5ebe 784d cdbe 5db6 7fbe 1765 c53d
00000020: 418e 813e 893c 1e3e 9e2c 633e be22 ca3d
00000030: d01d 573e 3f76 a63e 9287 74be 187c a0be
00000040: 80bb 3b3e daae 743e 22fe 7e3e 56fc 5d3e
00000050: 4f9e e63d af62 083c fe54 92be 9892 46be
00000060: 6c06 66be df1f b73d 98b8 d63d e41f 503d
00000070: 366e 383e d67b 61bd 84fa 913e 2563 373e
00000080: a916 d73c d4a8 1b3d 7eb1 0a3d 1725 8c3d
00000090: b5b3 bd3d d2ec 343e 86e3 3b3d 6c8f 453d
000000a0: 8ac2 aabe 4739 adbc 40a4 6abc e1d6 f43d
000000b0: 3d58 81bd f07e bcbc 539e 01bf 9635 b1bd
000000c0: 1b91 d03d 0695 cd3d 4991 4dbc 5a1d 22be
000000d0: c80b e9bc 6644 603d 8da5 c3bd 4471 5abd
000000e0: 3f07 963e 2a7f ae3d 23ad a33d fef4 343c
000000f0: 2011 84bd 5f1a 5fbe 44ca 1b3e c170 0bbd
00000100: f3f0 573e 0b2d eb3d c008 573e 0cbf 543e
00000110: 4a89 163d 990a a13d d947 5d3f a9e9 55bc
00000120: d8b5 043d 26a4 9cbd 97f2 03be 71ef 4f3b
00000130: 6d9f cdbd 4060 d0bc e2cf 6bbe 5512 aa3e
00000140: 694d 293e 7cad b03d 43be 043d 38f7 1fbe
00000150: 8278 a8bd 11f3 a8bd 6f4d 9d3e d84e 88bd
00000160: 2147 c9bc 3874 663d d07a 433b 0672 3e3d
00000170: abd4 0f3e 7a0c 9abe e319 1cbf 35ed 493e
00000180: e614 b83b db18 24be 0759 49be f35c 94bd
00000190: c93f 01be e731 a0be 3be8 04bd 206c ec3d
000001a0: 3698 a03d 0c8a 4e3e 65f8 573e 2606 2a3e
000001b0: cef5 f63c a133 8c3e 3065 013f 1b4b 39be
000001c0: a12d 7c3e 8a43 463e 14c2 143e 9fa8 cb3d
000001d0: d50f d7bc 087c 5e3c befd a9bd 167a d13c
000001e0: bb07 78bd b5cd 393d f446 083d 0883 a7bd
000001f0: 056d efbd 6b71 2b3d cc3b 5c3d 33c7 3f3c
00000200: 7adb 9bbc 361d 10bc 2134 64bd 3a78 8b3d
00000210: 932a 8b3c 0cd4 67bc 02ec aa3e b894 923d
00000220: 8df0 0f3e d54d 2a3e 8589 bc3d 7787 09bc
00000230: 4431 5f3d cde2 723e 6918 a7be c072 0cbe
00000240: cb88 373d b3fb 86bc 8656 933d 3bd4 aa3d
00000250: ee28 8bbd 5538 0f3e cd02 29be 6199 c0bc
00000260: 3da3 943d 374d de3d 307a d2bb aa5d 8ebd
00000270: 61f7 18be 3e3c 8ebe a952 debd 8d97 c2be
00000280: 5cc6 e43c b886 943d 8661 b9bc 6a1c a13c
00000290: df30 acbd a528 143e e37b 87be 4e5c 07bd
000002a0: 8664 983d 6ba9 9abc 363e 5abd 8beb c1bd
000002b0: 7572 76bc 5949 c7bd 2213 0cbf a66c adbd
000002c0: 08ee bfbd 4d9a 9cbc 0aa1 c4bd 6529 60bd
000002d0: b538 253d 914d c83d 4a96 313e b6bd c0bc
000002e0: b3f9 6f3e 156b 373e 86ef acbc 447b bd3d
000002f0: a5c6 dfbc a131 4e3e da1f a83e f281 9f3d
00000300: 2d1a 6c3d 6fd5 493e 2bb6 733e 6786 5d3e
00000310: e897 373e d90a 513e 7c6b 3b3f bf08 9cbd
00000320: a4ad 3a3d 526a 883b d15d 00bd b11c afbd
00000330: 887d 33bd 8efb 103e 25ba 63be 2486 ce3e
00000340: 55a1 a13b 19bd 5dbd fac1 adbd 68df aebd
00000350: e729 adbd 262f 76be d63a ea3e c736 c1be
00000360: 3267 0b3e c9ab 253e c306 ef3d 53d8 1f3e
00000370: 5796 c03d e626 9c3d 6c0d dabd d0d9 e23d
00000380: 3b75 163e c72c 043e c14d 213d e933 243c
00000390: 738c abbd 3d58 593c 7be7 afbd f724 533e
000003a0: 4a80 393e 5c3f de3d 8d40 793d 48d8 393d
000003b0: 8122 c33d 17a7 c7bd 56c6 fb3d 7e13 55be
000003c0: baba a83d e60f 473c 7c54 833c 1243 eabc
000003d0: ff89 8bbd ba1c b9bc 1626 92be 63a9 393e
000003e0: 9222 573c c7cc 5d3c d247 a43d d363 923d
000003f0: fbf1 28bd 0a4e 4d3e f5b8 2e3e 07ff bd3e
-0.07445769 -0.05599598 -0.08114053 -0.052252825 -0.21757431 -0.40098166 -0.2497191 0.09638422
0.25303844 0.1545278 0.22184989 0.09869908 0.21007466 0.3251209 -0.23879841 -0.31344676
0.18333244 0.23894826 0.24901631 0.2167829 0.11260664 0.008324309 -0.2858047 -0.19391859
-0.22463387 0.08941626 0.10484427 0.050811663 0.18010792 -0.05504974 0.2851144 0.17908914
0.026255922 0.038002804 0.033860676 0.06843012 0.09262792 0.17668465 0.04587128 0.04823248
-0.33351547 -0.021145476 -0.014321387 0.119550474 -0.06315658 -0.023009747 -0.5063221 -0.08652799
0.10183927 0.100381896 -0.012546846 -0.15831509 -0.028448 0.05475273 -0.09553061 -0.053330675
0.29302403 0.08520348 0.079920076 0.011044739 -0.06448579 -0.21787404 0.15213877 -0.034043077
0.21088009 0.11483201 0.20999432 0.20776004 0.036752023 0.078633495 0.86437756 -0.013056197
0.032399982 -0.07648496 -0.1288551 0.0031728412 -0.10040174 -0.02543652 -0.2302852 0.3321711
0.16533436 0.086268395 0.03240801 -0.1562165 -0.0822611 -0.08249486 0.3072314 -0.06655663
-0.02457005 0.05626318 0.002982784 0.04649546 0.1404597 -0.30087644 -0.60977 0.19719394
0.0056177257 -0.16025107 -0.19662867 -0.07244291 -0.12621988 -0.31288072 -0.032448035 0.11544061
0.07841532 0.20169848 0.21090849 0.16603908 0.030146506 0.2738314 0.50545025 -0.18095057
0.24626781 0.19361702 0.1452716 0.09944271 -0.026252666 0.013579376 -0.083003506 0.02557091
-0.060554247 0.045362193 0.03327079 -0.08179289 -0.11690716 0.04185621 0.053767964 0.011705208
-0.019025553 -0.008796027 -0.055713776 0.06810041 0.016988074 -0.014149677 0.33383185 0.07157272
0.14056607 0.16631253 0.09205917 -0.008394114 0.054490343 0.2371933 -0.3263581 -0.13715649
0.04480819 -0.016477441 0.071942374 0.08341261 -0.06794916 0.13986333 -0.16504975 -0.023510637
0.07257698 0.10854571 -0.0064232573 -0.06951459 -0.14938118 -0.27780336 -0.1085561 -0.3800625
0.027926616 0.07252258 -0.02262951 0.01966687 -0.08407759 0.1446863 -0.26461706 -0.033047013
0.07441048 -0.018879613 -0.053281985 -0.094687544 -0.015041937 -0.09730787 -0.54716694 -0.08467989
-0.09371573 -0.019116545 -0.09601028 -0.054726977 0.040337283 0.097804196 0.17342487 -0.023527961
0.23435096 0.17911942 -0.021110307 0.09252027 -0.0273164 0.2013612 0.328368 0.07788457
0.05764215 0.19710325 0.2379996 0.21633302 0.17929041 0.20414294 0.73210883 -0.07618856
0.045575753 0.004163065 -0.03133947 -0.08550394 -0.043820888 0.1415846 -0.22238977 0.40336716
0.0049325624 -0.054135416 -0.08484264 -0.08538705 -0.08455258 -0.24041423 0.45748013 -0.37737104
0.13613585 0.16178812 0.116712116 0.15609865 0.09403675 0.07624607 -0.10647091 0.11076701
0.14693157 0.12907706 0.039380793 0.010022142 -0.08376398 0.013265667 -0.08589073 0.2061957
0.18115345 0.108519286 0.060852576 0.045372277 0.095280655 -0.09748667 0.12293689 -0.20808217
0.0823874 0.012149787 0.016031496 -0.028596435 -0.0681343 -0.022596706 -0.28544682 0.18131022
0.013130801 0.013537592 0.08021511 0.07147946 -0.041246396 0.20049301 0.17062743 0.37108633

conv3.bias f4 [16]
00000000: 137d 1ebd f630 153d a1e7 4e3d 214a 20bd
00000010: 0679 4ebb 0924 773e 86e0 183e 97fe d83d
00000020: dcf2 24bd 23d4 a2be d400 873e 6b50 bc3e
00000030: 4e22 a1bc 6cd2 293d 5d8e 623e 287c 9e3c
-0.0386935 0.036423646 0.050513867 -0.039133195 -0.003150524 0.2413484 0.14929399 0.10595434
-0.04027067 -0.31802472 0.2636782 0.36780104 -0.019669678 0.04146044 0.2212462 0.019346312

tcn.tcn.0.conv1.weight f4 [16, 16, 5]
00000000: 0a55 cf3d 9a90 be3d ac84 283d e5fd d6bc
00000010: 4100 40be 9378 9cbb fbe8 9c3c ef56 1c3d
00000020: 7b75 83bd 8283 f5be fab2 733d d96a e83c
00000030: 39d4 293e 09d4 a2bd 0593 66bd 374a 2d3e
00000040: 2b5b f93d e0d4 ae3d f07a 153d c7d1 813e
00000050: d4fb 653e 6d90 6d3c e348 9c3e 8669 093e
00000060: 01a6 03be d672 36be fdc7 ef3d 0c38 1d3e
00000070: 6717 46bd 26be 2f3e f555 0ebd 4756 b3bc
00000080: b7a1 43be 9e0d c2bd 2f9e ac3d 1191 8bbe
00000090: 966e 91be aa90 a0be eea1 c6bd 77e0 6cbe
000000a0: bfa1 d6bd 0739 f83c 5c83 6dbd 712b 3bbe
000000b0: 24ce 37be bd99 67be 0a2c 46be fdc3 70be
000000c0: f81d 54be 83fe a3bd c39a 13be 67bc 26bd
000000d0: aeed 13be cd29 9bbe c2e7 0cbe 9f68 ebbd
000000e0: 2aca eebd 213b fcbd 4d4f 2dbe 6117 09be
000000f0: dd6c f03d 4d41 823c 524a 403e 929c 02be
00000100: 6a38 4abe e94b b13d 09ee d53d 9b2d ef3a
00000110: e8d1 30bc 9e6e cbbd b546 9bbd 31e1 343d
00000120: 8bae c43b f189 d43b c496 d83d 5aeb 833d
00000130: c8bd ffbd e974 8d3d 160d 67bd f5bc febd
00000140: b25b 913e 88a8 be3e 5754 c83d efe4 393e
00000150: 95b4 0e3e 7843 313e 697c b53e 2462 8e3c
00000160: 44f1 3e3e 1810 8a3e 5744 473c b507 ab3e
00000170: c4a4 833e f333 643e 321a c63e 1e40 85bd
00000180: 7d9c 54bd ea4d 99be 7bb7 f03c 02c6 99bc
00000190: b626 bbbe cdfc 8bbe 30ae 563b f943 fa3b
000001a0: 805f df3d f5c8 113e 9629 da3d 8f89 713d
000001b0: e67a 83bd 68c6 1c3b 0da1 9dbe 31eb 87be
000001c0: 7bb3 d7bd 1ff0 94bc 8427 9fbc 0f51 76bd
000001d0: a2c8 df3a e5a3 b63d 1b01 5e3e dadc 593e
000001e0: 62c1 5a3d d8b3 4e3e 31ae 353c adcb 413e
000001f0: c7c3 543d 1dc7 a3bc df87 4bbb 38dc 50be
00000200: 8742 20be 67c5 8f3c a612 263d bd5b 45bc
00000210: cbbd b03c 1e09 af3d 9b3e ba3d 8328 4c3d
00000220: 744e 713e a4fb ed3d d606 993d 2e08 0a3e
00000230: c4cf 18be fe46 e3bd 068f 163c 1fd2 72bd
00000240: 4b57 db3d c01b e83c d6fe 033e cc60 2e3e
00000250: c334 623e db7f 843e e14e 363e a1f8 99bd
00000260: efed 673d 6f5b 28bd a039 10be 3c44 163e
00000270: a3ff 223e 7df4 dfbd e926 04be 9d01 433e
00000280: 54a8 f3bc 90af cb3d 2432 3ebd 50d4 9bbd
00000290: d4c5 5cbe 6707 4f3e 8db1 993d 0f67 c83d
000002a0: fec1 e2bd e4cf 53be 88e4 203e 1de0 183d
000002b0: 9e5f 993d cc87 5cbc 1136 8dbe 87fc cabd
000002c0: b4f2 c23c 6b7f f2bd 51c3 6cbe f128 00be
000002d0: 80e0 e2bd d335 42be 8335 19be b4f1 9ebc
000002e0: 313b 4cbd a49c f83d 8bf0 713e a093 973d
000002f0: c386 10bd 431b 9bbc f563 b33c bf37 95b9
00000300: 34ac c9bc 7992 3bbc 8d80 393e 7e6b 42bc
00000310: d3d1 71be d32f 9bbd 83b5 1cbc 4643 86bd
00000320: cf01 583d 5046 bcbd b671 d1bd 4442 1abe
00000330: 7a51 e0bd 365b 44bd 5211 a2bd fb34 233e
00000340: 8724 683e 9277 e4bc e586 c03d 166c 91bd
00000350: 064a 55be bda5 2cbe 7940 5cbe 4aee e4bd
00000360: cd9f 3dbc 31d1 323e f01f 533e 498c 66bd
00000370: 07dd 4dbe 87c4 74be ce49 a1bc ea1b 8e3d
00000380: cc29 41be 183c 9abe b63f b1be 5999 d3be
00000390: 0e8e c9be 5392 f1be ccfd acbe 5ffa f33c
000003a0: aeaf 743d 3919 463d 47de efbc 3e8b c7bd
000003b0: e51b fabd 97fe 043e 5943 e4bd 9874 c3be
000003c0: f7bc bcbe f7f6 21be 1f58 16bd e593 8b3e
000003d0: 831c 593e 0519 1abe 2ee5 6a3d b814 e1bc
000003e0: 90f2 97bd 7aca 1dba dc59 55be 36bb 153d
000003f0: 8349 c13e b4fd 853d faed 903e 9763 2b3c
0.10123642 0.09304924 0.04114215 -0.026244113 -0.18750097 -0.0047751158 0.019154062 0.038168844
-0.06418892 -0.47951895 0.059496857 0.028371261 0.16584863 -0.07950599 -0.056292553 0.16922842
0.12175592 0.085366964 0.036494195 0.2535536 0.22459346 0.014499766 0.30524358 0.1341916
-0.12856294 -0.17817244 0.117080666 0.15353411 -0.048362162 0.1716238 -0.034749944 -0.021891726
-0.19104658 -0.094752535 0.084286086 -0.27259114 -0.28404683 -0.3136037 -0.096988544 -0.23132502
-0.10480069 0.03030063 -0.057986602 -0.1827829 -0.1794973 -0.2261724 -0.19352737 -0.23512264
-0.20714557 -0.08007529 -0.14414506 -0.04070702 -0.14446136 -0.3030533 -0.13760284 -0.11494564
-0.116596535 -0.123159654 -0.16924782 -0.13387825 0.11739514 0.015900278 0.18778351 -0.1275504
-0.19748083 0.08657057 0.10445792 0.0018247844 -0.010792233 -0.09933208 -0.07581846 0.04416007
0.0060022525 0.0064861705 0.10575631 0.06441374 -0.1248737 0.069070645 -0.056408964 -0.124383844
0.2839027 0.37237954 0.097817115 0.18153737 0.13936074 0.17310894 0.3544648 0.017380781
0.18646723 0.26965404 0.01216229 0.33404317 0.25711644 0.22285442 0.3869186 -0.0650637
-0.05190705 -0.29942256 0.029384365 -0.018771175 -0.36552972 -0.2734131 0.0032757632 0.0076374975
0.10906887 0.14236815 0.10652463 0.058969077 -0.064199254 0.002392197 -0.30786934 -0.26546624
-0.1053228 -0.018180905 -0.019428022 -0.060135897 0.0017073343 0.08917979 0.21680109 0.21275654
0.05340708 0.20185792 0.011088894 0.18925352 0.05194452 -0.019992406 -0.0031056327 -0.20396507
-0.15650378 0.017550183 0.04054513 -0.012045798 0.021574875 0.08546661 0.09093972 0.049843322
0.23565084 0.11620262 0.07472007 0.13479683 -0.14923006 -0.11097525 0.009189373 -0.05928242
0.10710009 0.028333545 0.12890181 0.17029113 0.2209044 0.25878796 0.17803527 -0.07518125
0.056623396 -0.041102823 -0.14084482 0.14674467 0.1591783 -0.10935304 -0.12905468 0.19043584
-0.029743351 0.09945595 -0.046434537 -0.07608855 -0.2155984 0.20217668 0.07504568 0.09785282
-0.11072157 -0.20684773 0.15712178 0.037323106 0.07488941 -0.013460111 -0.27580312 -0.09911447
0.02379737 -0.11840709 -0.23121382 -0.12515618 -0.11077976 -0.18965845 -0.1496182 -0.019402362
-0.049861137 0.12139252 0.23626916 0.07401204 -0.03528477 -0.018933898 0.02189825 -0.0002846103
-0.024618246 -0.011448496 0.18115444 -0.011866448 -0.23615198 -0.07577481 -0.00956476 -0.065558
0.0527361 -0.091930985 -0.10226767 -0.15064341 -0.109530404 -0.047938548 -0.0791346 0.15938179
0.22670184 -0.027889047 0.09400729 -0.07100694 -0.20829019 -0.16860099 -0.2150897 -0.111782625
-0.011573744 0.17462613 0.20617652 -0.05628613 -0.20103846 -0.23903094 -0.019688513 0.06938918
-0.188636 -0.30123973 -0.3461892 -0.41327932 -0.39366192 -0.4718195 -0.33787382 0.029782472
0.059737854 0.048363898 -0.029280795 -0.09743355 -0.12212352 0.12987743 -0.11145658 -0.3817489
-0.3686292 -0.15816866 -0.036705133 0.27261272 0.21202283 -0.15048607 0.05734747 -0.0274757
-0.07419312 -0.0006019246 -0.2083506 0.03655549 0.37751397 0.06542531 0.28306562 0.010460756

tcn.tcn.0.conv1.bias f4 [16]
00000000: fbb0 1bbb 069d a3bc f787 253e 1360 873d
00000010: 2d94 42bd f14c 873d 26d4 6bbc e30c 34be
00000020: 06dd febb 0981 2b3e 34c4 653d 615c 2abd
00000030: 0de5 533e 5c10 ce3c 5929 dbbd 8c6a e23d
-0.0023756612 -0.019972336 0.16165148 0.066101216 -0.047504593 0.06606472 -0.014393842 -0.17583041
-0.007777813 0.16748442 0.056095317 -0.041592006 0.20692845 0.025154285 -0.10701246 0.110554785

tcn.tcn.0.conv2.weight f4 [16, 16, 1]
00000000: 910c ad3d 7947 82bd 33ff 5d3e 14bc cd3d
00000010: b545 5d3e fdad 10be 528b 133e 34ae 7b3e
00000020: 1802 5b3e 91b0 5cbd 555e 0cbe 284e 4ebe
00000030: 4108 503e cc17 76bd 5b14 e5bd 521e dc3e
00000040: 3cd6 233d 2db6 443e cc60 dbbd 9d06 063e
00000050: 2a28 9d3d d171 f23d a0dd 5c3e 2c10 72bd
00000060: 1588 9abd 02fe 00ba addb 2abe 6550 babd
00000070: b645 6b3c a9cb 7cbe daf5 22be d136 cd3e
00000080: 92a6 913d 6a19 553e d06a 4dbd fd08 753e
00000090: bc89 83bc 8302 68bd f9da d1bd 3902 ef3d
000000a0: 5d88 233d fccc ad3e f104 3b3e 3987 4a3e
000000b0: 1231 f0bd 71cd 853e 6add 7fbd 423a debd
000000c0: 3bdd 1a3e 1a8a b73e c127 2bbc c293 583d
000000d0: 4cab 24bd 34f1 713e bc72 583e 2c6e bc3d
000000e0: 55cf 49be 264c 80be 270f 9ebd 5e32 86be
000000f0: d527 8e3e 338f c63d 574d a63d 9cf0 873e
00000100: 1bbe 273e 2cd4 913e 6567 e3bd ce2f 4dbc
00000110: 9337 883d f980 053d 3a31 84bd 4e6e 02bf
00000120: 5780 a2bd db60 d8be 1b5d 40bd e105 74be
00000130: 14c7 10be 3514 c33d 5634 d7bc 37c6 c93d
00000140: d61e 81bc 5625 b43d 38ab 14bc b0ae 8ebd
00000150: 2505 90be 076b 8c3c b227 77bd 7442 d2be
00000160: 88cf 373e 38cf cdbe 8036 fdbd 861e 01bf
00000170: c188 8ebd 7572 6f3b 5712 713e b6e4 003d
00000180: 9a95 04be 76ad 7abe 2024 02be a5aa 33be
00000190: eacc b33d 1504 a5bc e1ab ccbd 4565 06be
000001a0: 6bbc 5abe 2a8f 7f3e e89d 27be 02b5 81be
000001b0: fe9f 6b3d 2745 a4be 92e2 a2bd 8456 91bd
000001c0: b50d 8bbe 4736 b33c 991c 1b3d e38a 123e
000001d0: 7de8 c0bd 2922 543e aec8 e63d 6a04 e13d
000001e0: 6546 833e 4e15 163d b04b 003d 19d0 283e
000001f0: 5635 8c3e d5d8 8d3e 2175 a3be d22b 57be
00000200: 9e8d 3dbe d221 b73d 38d3 953e 483c 583c
00000210: f49c 243d ee77 043e 82e7 893d 7cb4 b5bb
00000220: 290c 3ebe d4aa 023e f1a2 c13d 9b01 21be
00000230: fef6 1dbe 97be a13d 353f b8be 7b01 8c3e
00000240: 833f 07be 56a4 a23e ce1c a1bd b460 b73d
00000250: 88e2 263e a354 843e 00f8 093e 949c 32bd
00000260: 2c30 91bd a180 34be 2ce9 0cbe c78c ae3c
00000270: 14bb 7cbe d6a9 3d3d 9d95 ccbe e0ef 87bb
00000280: d488 17be 00f2 a3bd 88b5 003e d30d bebd
00000290: c721 10be 0aa2 10be afea e53c cb1f 4f3e
000002a0: abf4 43bd bc41 1c3f 79bc 44be 0d7f 013f
000002b0: 1c6d 593e a214 a53d dba7 783d 0f4a 7ebe
000002c0: 11a2 453c 1416 e2bd 599a 9ebe 9446 893e
000002d0: 31a2 73be f400 86be 60b8 d7bd ae1e 913e
000002e0: fc9b efbd adb8 1c3f 0f39 d6bc 0884 043e
000002f0: 9408 273b a1b8 ab3d c3a0 0a3f 93be 723e
00000300: 2ab8 eabd be55 9bbe 498e 143e 8dc9 2ebd
00000310: d297 1cbe 594c e8bc 4522 bbbd c374 b43e
00000320: 676d 8fbd 5e2d 913e ff4a ffbd 1831 9a3e
00000330: 9a46 7c3e 30a4 3ebe 8e83 cc3d 7009 3cbe
00000340: 50ae 213e c67a 023e c6b0 863e eaaa a7bd
00000350: a852 5dbd 294f 75be e1da 0bbc 6f97 ce3e
00000360: 227a 8ebb ec64 b53e 1283 5abe 3343 743d
00000370: 6f79 7c3e 57e4 433e ac71 54be 0e17 9d3e
00000380: 4cdb 353d 23ce 98bd 70fd c4bc c44c 8cbe
00000390: 2696 ebbd 3f65 1a3c 19a4 34be 8c11 bc3e
000003a0: 3cd6 33bc caec 093f 0d04 8bbe 9c9e 4b3e
000003b0: 7384 36bd 5b95 edbc 0fe8 73be f981 dcbd
000003c0: 6996 123d 82d6 8dbe f9d2 99bd 4260 72be
000003d0: 893e ee3d fe6a 81bd 959b 7cbd 6bf7 0ebe
000003e0: 8345 723e ac6e 323f 645c 84be 139e 4bbd
000003f0: 0ec5 023d bd9f 603e ce77 a7bd c04b 9e3e
0.084496625 -0.063612886 0.21679382 0.10045639 0.21608622 -0.14128871 0.14408615 0.24578172
0.21387517 -0.053879324 -0.1370786 -0.20147002 0.20315649 -0.06008129 -0.11185523 0.42991883
0.03999923 0.1921012 -0.10711822 0.1308846 0.07673676 0.11838115 0.21568918 -0.059097454
-0.07545487 -0.00049206626 -0.16685362 -0.09097365 0.014359882 -0.24687065 -0.15914097 0.40080884
0.07111849 0.20810476 -0.050150692 0.2392921 -0.016056888 -0.05664302 -0.10246844 0.11670346
0.039924968 0.33945453 0.18263604 0.19778146 -0.117281094 0.26133302 -0.062467016 -0.108509555
0.15123455 0.3584755 -0.01044649 0.052875288 -0.040202424 0.23627168 0.21137518 0.09200701
-0.19707997 -0.25058097 -0.07717734 -0.26210302 0.27764764 0.09695282 0.0812022 0.26550758
0.16381113 0.28482187 -0.11103705 -0.012523605 0.06651225 0.0325937 -0.06454702 -0.5094956
-0.07934635 -0.42261395 -0.046963792 -0.23830368 -0.14138442 0.095253386 -0.026270073 0.098522596
-0.015761774 0.08796184 -0.009074025 -0.06966913 -0.28128925 0.017140878 -0.06034059 -0.41066325
0.1795026 -0.40197158 -0.12363911 -0.504372 -0.069596775 0.0036536728 0.23542152 0.031468116
-0.12947693 -0.24480233 -0.12709093 -0.17545564 0.08779319 -0.020143548 -0.09993721 -0.13124569
-0.21360938 0.24956957 -0.1636883 -0.2533341 0.057525627 -0.3208401 -0.07953371 -0.0709658
-0.27158895 0.021876467 0.03786907 0.14310794 -0.094193436 0.20716156 0.11268745 0.1098717
0.25639644 0.03664141 0.03132218 0.16485633 0.27384442 0.27704492 -0.319253 -0.2101281
-0.18511054 0.089419976 0.2926271 0.013197966 0.040188745 0.12936375 0.0673361 -0.005545197
-0.18559326 0.12760478 0.09454907 -0.15723269 -0.15426251 0.0789768 -0.35985723 0.2734488
-0.13207822 0.31766003 -0.07866822 0.089539915 0.16297352 0.25845823 0.1347351 -0.043606356
-0.07089266 -0.17627193 -0.13760823 0.021307362 -0.2468074 0.046304546 -0.39957896 -0.0041484684
-0.1479829 -0.08005142 0.12569249 -0.092799805 -0.14075385 -0.14124313 0.028066007 0.20226972
-0.047840755 0.610378 -0.19212522 0.5058449 0.21233028 0.08060576 0.060706954 -0.24832939
0.012062565 -0.11039367 -0.30977133 0.2681166 -0.2379234 -0.26172602 -0.105332136 0.2834372
-0.116996735 0.6121929 -0.026150255 0.12940991 0.002548729 0.083848245 0.5415155 0.23705511
-0.11460908 -0.30338854 0.14507402 -0.042672683 -0.1529229 -0.028356718 -0.09137396 0.35245332
-0.07003289 0.28354925 -0.12465476 0.3011558 0.24636307 -0.1861732 0.099860296 -0.18362975
0.15789151 0.12742147 0.26306742 -0.08186896 -0.054033905 -0.23955978 -0.0085360715 0.4034991
-0.0043480555 0.3542856 -0.21339062 0.0596344 0.24655698 0.19130073 -0.20746487 0.30681652
0.04439859 -0.074611925 -0.02404663 -0.27402318 -0.11503248 0.009423553 -0.17640723 0.36732137
-0.01097637 0.53876936 -0.27151528 0.19884723 -0.044559907 -0.029001882 -0.23818992 -0.10766978
0.035787974 -0.2770272 -0.07510943 -0.23669532 0.116330214 -0.06319235 -0.061671812 -0.1396157
0.23659329 0.6970012 -0.25851738 -0.0497113 0.031926207 0.21935935 -0.08177148 0.30917168

tcn.tcn.0.conv2.bias f4 [16]
00000000: 816d ba3d c845 7a3d 4f5d 5a3d 73d0 a8bd
00000010: 7f6f d93d 9c94 ba3c fee7 bfbd 39c4 30bd
00000020: ddcf 76be cd04 22be dbb8 de3c 9fc5 c33d
00000030: ba41 393e 3eb0 1abd 1fb6 ab3d 01d4 303d
0.091029175 0.061101705 0.053311642 -0.082428835 0.10616969 0.02277594 -0.09370421 -0.043155883
-0.24102731 -0.15822144 0.027187755 0.095591776 0.18091479 -0.037765734 0.08384346 0.043170933

tcn.tcn.0.res_conv.weight f4 [16, 16, 1]
00000000: 39a3 b53c b952 0abe 5435 833e 1999 61bc
00000010: 3c35 cb3d 9651 833e c434 27bd 0740 19be
00000020: b189 abbd 9b0a 163c 7ea6 4fbe 48e0 6d3e
00000030: 6ac1 9dbd b4fe d03d 4dfd f83d c34c 7abb
00000040: db1c a23d 4108 9f3e 9d70 1dbe b89c 1e3e
00000050: a69b ee3c 7478 fcbd 72d9 f73d 595b fabe
00000060: ec9b c63d c5cf 4abb 7256 97bd f4b1 79bc
00000070: 8958 913e 1b5c aabd 4f75 45be 3d18 65be
00000080: 1e5e 343e dfa8 7cbe 0987 f1bc 04b5 7b3e
00000090: 032d 763d 5ad8 7fbe 86a5 a93e 928e 303e
000000a0: ac2c f4ba 5679 a43e 7346 c33d 6ec3 a0be
000000b0: a27a bbbe 8407 633e 09f1 1f3e c676 adbd
000000c0: 1a0a 853e 1869 94be 2d77 483e 5d1a 0dbe
000000d0: df88 01bd de1b aebb 5180 64bd 2b44 b73e
000000e0: c6af 8abd 8db9 203d c504 103e 7208 40be
000000f0: 50e1 543d 9549 713e 258d 343e b7c7 a2bd
00000100: 043f 73be a683 913e 3e84 a6bd d12f 7dbe
00000110: 659d ef3c 41c4 d53d 4dc2 81be 27f9 72be
00000120: f1f5 7dbc 3771 80bd 0977 763e 68bd 59bd
00000130: e550 903e c031 033e 9381 ebbc e038 82bd
00000140: 2c74 ac3d c361 533e b03b 90be 6b0a bfbd
00000150: 9357 36be d54f 563e 3d9f b7be 7c93 be3c
00000160: 7f43 2c3d eb8e bbbc e22c 47bd a630 a33d
00000170: f31c a23d d14d 48bd dec8 a33c 69ad 3b3e
00000180: 569f b9be a59b 953e ecf4 b33d 6a2e 29be
00000190: e022 4b3e f1c6 143e 4ab1 55be d95e 9fbd
000001a0: 0af6 16be 4bbe 5a3e d00d 7ebe bb28 893d
000001b0: 3414 843d 9a8d b9be d6a5 10be 9051 233e
000001c0: 47c7 1abe 4f66 00bc 9462 1c3e 3890 ba3d
000001d0: 4182 95bd 33d9 6b3e 61ca df3e 2609 4bbe
000001e0: 1a65 babd bd95 7ebd 4bbf 74be 9cc3 b9bc
000001f0: 705d b839 5b8c 7fbe 35d6 8fbd 0fb5 20be
00000200: 8246 77be f6e3 94bc c1f3 593e aaad d0be
00000210: aecf 98be 2bef 98bd d5a0 9bbe 5f04 2fbd
00000220: d6b2 90be 74e9 623f 0c29 7e3e e26c 313e
00000230: dd7c 52be 847f 31be 0721 2ebe 5ed1 b13e
00000240: b963 9f3e b283 173c 17a3 253e d078 18be
00000250: 89da c9bd 7f18 d1bd 0fd5 453e d8be 073e
00000260: c64a c5bd 14a2 883e 989e 2b3c d529 4c3e
00000270: d9ea 40be e5b4 9a3e 04df 013d 2536 88be
00000280: d4e2 0f3e 000f 22be 742d febd 2f7f 74be
00000290: d441 fcbd b3c5 b1be 18ac 3a3e 5cae ea3d
000002a0: 6630 4fbe a15c 9c3e 8569 e3bd b7ae efbe
000002b0: 0747 d5bc a562 1bbf da26 9c3e ece1 46be
000002c0: c366 dcbe d327 89be 9b38 a6bd 72b3 923d
000002d0: 1b6c 2e3c eabb 40be f63f a5bd ea87 52be
000002e0: 2d2d 423e 098c 9fbe a476 ecbd d389 a9bd
000002f0: 746e 2e3d 2aa6 17be b89d eabc 3d49 22be
00000300: 0376 813d 10e7 b53e 747b 813c 60e4 933c
00000310: d5cd c6bd 6f17 71bd 534a 67be 62f1 26be
00000320: 81e3 783e e3c7 1f3e 874f 29be 89a0 d53d
00000330: 7dc2 fb3d c98a 0dbe cdf2 8ebd 07c0 803e
00000340: f3fe b13e 071c 913e 63f3 913d 7647 c73e
00000350: 8c0b 24be fcb0 253e 7170 1d3e 2fd4 6b3d
00000360: bedf 743d 93a4 133e 8388 5fbd f033 94be
00000370: d5a7 fb3d 3b70 1bbe a43b b73d 2a75 48be
00000380: 81a3 c6bd 9ec0 43be d91e 4cbd 19b2 fb3d
00000390: 6db9 21be 9794 10be 5c74 313e a2ba 2abc
000003a0: faa0 38be a873 3a3e d48a 03be 949e 0fbd
000003b0: 04a5 0b3e 4c8b 173e c037 773c cb89 bb3c
000003c0: ebed 7dbe faf8 49bd 6529 1cbe 2e4a 50be
000003d0: 90a3 463e 89d6 143e 244f 1fbe 39ab c33d
000003e0: af4c abbd a25b 60bd 2280 6dbe 68e1 3cbd
000003f0: 757d 063e 38bb a43d 872e 15be 02d2 043e
0.022172557 -0.13508119 0.25626624 -0.0137694115 0.09922263 0.25648183 -0.040821806 -0.1496583
-0.08375872 0.009157802 -0.20278355 0.23230088 -0.077029064 0.10204831 0.12157688 -0.0038192726
0.0791566 0.31060985 -0.1537499 0.15489471 0.029126953 -0.12327662 0.12102021 -0.48897818
0.096977085 -0.0030946594 -0.07389535 -0.015240181 0.2838786 -0.08318349 -0.19283031 -0.22372527
0.17614028 -0.24673794 -0.029483335 0.2458077 0.06010152 -0.24984875 0.33134097 0.17241886
-0.0018629036 0.32123822 0.095349215 -0.313991 -0.36617 0.22170836 0.15619291 -0.0846992
0.2598427 -0.2898643 0.19576712 -0.13779588 -0.03162467 -0.0053133806 -0.055786435 0.35794196
-0.067718074 0.039239455 0.1406432 -0.18753222 0.051972687 0.23563226 0.17631967 -0.07948249
-0.23754507 0.28420752 -0.08130692 -0.24725272 0.029249856 0.10437823 -0.25343552 -0.23727857
-0.0155005315 -0.06271594 0.24068846 -0.053159148 0.28186718 0.12811947 -0.02874831 -0.06358504
0.084205955 0.20642762 -0.28170538 -0.09328159 -0.17806844 0.20928891 -0.35863677 0.023263685
0.042056557 -0.022895297 -0.048626788 0.07968263 0.07915678 -0.048902337 0.019993242 0.1832787
-0.36254376 0.2922031 0.087869495 -0.16521612 0.19837523 0.14529015 -0.20868412 -0.07781763
-0.14742294 0.21361654 -0.24809957 0.06697222 0.06449166 -0.36240846 -0.14125761 0.15949082
-0.15115081 -0.007836892 0.1527198 0.09109539 -0.073002346 0.23032074 0.4370909 -0.19827709
-0.09101315 -0.06215452 -0.23901097 -0.022676282 0.0003516483 -0.24955885 -0.070232786 -0.15694068
-0.2414799 -0.018175106 0.21284391 -0.40757495 -0.29845947 -0.07467493 -0.30396143 -0.042728778
-0.2826144 0.8863747 0.24820346 0.17326692 -0.20555444 -0.173338 -0.17004786 0.34730047
0.3113077 0.009247707 0.16175495 -0.14889836 -0.098561354 -0.102097504 0.19319557 0.13256395
-0.096334025 0.26686156 0.010474823 0.19937833 -0.18839587 0.30216137 0.031706825 -0.2660381
0.14051372 -0.15826035 -0.12411013 -0.23876642 -0.12317243 -0.34721145 0.18229711 0.11459038
-0.20233306 0.3053942 -0.11104111 -0.46812984 -0.026034845 -0.60697395 0.3049839 -0.1942212
-0.4304715 -0.26788196 -0.081162654 0.07163133 0.010645892 -0.18821684 -0.0806884 -0.2055966
0.18962546 -0.31161526 -0.115460664 -0.08278241 0.042585805 -0.1480948 -0.02863966 -0.1584825
0.06321337 0.3552785 0.015805937 0.018053234 -0.09707228 -0.05886024 -0.22586946 -0.16303018
0.24305536 0.15603594 -0.16534244 0.1043101 0.12292955 -0.13822474 -0.06979904 0.25146505
0.34764823 0.28341696 0.071265005 0.38921708 -0.1602003 0.16180795 0.15374924 0.0575754
0.05978369 0.14418249 -0.054573547 -0.28945875 0.12287871 -0.15179531 0.089469224 -0.19575945
-0.09699155 -0.19116446 -0.049834106 0.12289829 -0.1579339 -0.14119183 0.17329544 -0.010420473
-0.18030158 0.18208182 -0.12845927 -0.03506334 0.13637167 0.14799231 0.015088975 0.022892853
-0.2479779 -0.04930971 -0.15250166 -0.20340797 0.19398332 0.14534964 -0.15557534 0.095541425
-0.083642356 -0.054774888 -0.2319341 -0.0461134 0.13133796 0.08043522 -0.1456853 0.12970737

tcn.tcn.0.res_conv.bias f4 [16]
00000000: 68c8 923e 86c1 9ebd ca36 72be 4e9a ca3c
00000010: 4d29 16be 732c 2cbe 8252 4dbe 9154 25be
00000020: 2514 a3bd 1f1d 053e 1bb0 b7bd 8edf 2d3e
00000030: 3724 00bd ed2a 97be 876e e3bd d69b 733d
0.28668523 -0.077517554 -0.23653713 0.024731781 -0.14664192 -0.16813831 -0.20051005 -0.16145541
-0.07962827 0.1299939 -0.08969136 0.1697981 -0.031284537 -0.29524937 -0.11105066 0.05947479

tcn.tcn.1.conv1.weight f4 [16, 16, 5]
00000000: 4d54 7cbd d7a0 75be 3c3d 6ebe c346 74be
00000010: a20a b1be d091 5d3e 21c6 c7be fd9e 2dbe
00000020: 7b53 cebd 20f0 903e a3ff cf3d 3d11 d63e
00000030: 17bc e8bd b1b0 8cbe 0204 64be 224d 843c
00000040: 1eb5 15be 3039 fabd 685b 09be 78ed 9dbe
00000050: 630b 4d3c 616b e9bd 10cc 343e 6c5c 853e
00000060: 3a8b 963e b543 8f3d 4828 7dbc 5eaa 8d3e
00000070: bf8b 313c c4d1 8a3e 2b3a 193e 0091 8ebd
00000080: c317 453e 70ee 9c3e 4317 fd3e 247a d3bd
00000090: 5716 44be f6f0 e0be e3be c4be aba8 1ebe
000000a0: 2f55 27be 6323 4c3e 13ac 823e b4ea 2e3e
000000b0: 416e 123e 7860 09be d566 52bd f4b3 a53b
000000c0: 44eb 29be 6eca e4bd acf1 fe3d a515 653e
000000d0: a4c0 edbd 1914 93be 8746 36be 342a 5d3e
000000e0: 1f43 83bc 5ecb 98be a830 d83d 559d 1fbc
000000f0: df3a b83a 7355 0e3e de33 ac3c f811 a03d
00000100: 58ac 313e 125b c93e 3e56 78bc 6e94 63be
00000110: 67dc 35be d9a5 9bba bcd4 4b3e d3bd ff3d
00000120: 6d1f f83d cd7c b93c 51a7 91bd f85a 033f
00000130: bdc3 5d3d b51b 8f3d f3a0 7b3e 46c1 423e
00000140: c014 3cbe f9e4 31be e828 2fbd 16ed dbbd
00000150: 0273 19be dc6a 9ebe 4cb9 133e 2b0a 0dbe
00000160: 73bf 513d f098 91be f05f acbe 7835 c0bd
00000170: c1ac a3be 04c0 45be 1f89 89be 0fea f73d
00000180: 469a 98be 80d4 aebe 8116 39be 8b20 fcbd
00000190: fe65 d53e 1685 3d3d 28a1 dabd 6b12 ee3d
000001a0: 78f0 833e 90c9 803e 4c03 18be ddac cbbe
000001b0: 3c49 7cbd d114 043f 1c88 a23d ea0b ce3d
000001c0: 2bfe 763e 5691 b93e 84c3 ba3e dbd0 debe
000001d0: 5464 86bd 4a39 76be 9a04 efbd 99fe b33c
000001e0: 8773 1cbe ebd7 683d 4e29 d0be 7bdd 5dbe
000001f0: 5bf2 5d3e 85a3 653d 8014 56bd ae7e 1fbe
00000200: a898 fbbc fa68 d4bc 7ddf 54be b3bb 59be
00000210: 47b0 0e3e e45e a7bb 79f0 48bd 96b5 eb3d
00000220: 27bd 863e c7e8 be3e 0fb1 df3d 0dc5 4dbe
00000230: 8b65 ccbd c071 b5bd 09d2 9f3e 17f0 c7bd
00000240: 2095 fcbb 72b6 8fbe 4843 2dbe 43e5 56be
00000250: 1e8b 26be e517 70bd cd0e b6bc 883d 683d
00000260: 7a9b 703e e701 c6bd 8ef4 203d 5189 453d
00000270: 3188 433e 40c7 bc3d e91e 8d3d fcda a33d
00000280: 9b7e 233e be9c eb3b 8065 46bc 9175 313e
00000290: 572b e6bd 216e ff3b eec4 21be ced4 803e
000002a0: 8510 e9bb c14b 503f 1473 f6bd def0 2abe
000002b0: 6634 b3bd 0b40 4fbe 4ef7 1bbe 8e05 3dbe
000002c0: 3e64 26be ec1c 2ebe 08a9 153e 17c5 243d
000002d0: 35f6 c03c 8a31 89bd 424a 4bbe fdb8 593e
000002e0: d443 3d3e e0c2 f6bd bc25 bcbd 3acc 8e3b
000002f0: dc22 543d 1423 693e 828e db3e 4fb9 933c
00000300: 22e8 853d cbe0 61bd 781e 993d d4a9 09be
00000310: 4084 da3d 2e50 a83d 18c5 673c b2af 55bd
00000320: cb0a 313e 10a5 c4bd eedc 37be a716 89bc
00000330: d65e 3d3e d99b 11be d7aa 223d 96e7 75be
00000340: 43a3 68be f890 673e a08d a23e 922b 3c3e
00000350: 4157 d33c 19b3 90bd 13a6 b2be c329 9b3e
00000360: cdd8 fe3d 3234 1bbd a789 80bd 7d79 0abe
00000370: 012d 3d3e d35b 02be cd39 073e 3f9a 193e
00000380: a117 60bd b2e7 9fbb 5f97 0ebe 1d09 933d
00000390: cd8a 2abc 52a6 a8bd 1fa4 4a3e 3588 a8bd
000003a0: 5c41 d33d 6202 80bd 4a0b 27be a30e b33e
000003b0: 95c1 b3bd 5a67 bc3d ae9f 913d 005b 34be
000003c0: 7ace c13c 60a4 26be 3714 403e 9095 823e
000003d0: 5765 7abd bd37 b63d d794 03bd 5317 0fbe
000003e0: e3f3 0ebe b5c1 dabd acca 8cbc 0634 a53e
000003f0: cd9e dd3d 2dbb 1cbe 07bc 273d 5698 663d
-0.061603833 -0.23987137 -0.23265547 -0.23855118 -0.34578425 0.21637654 -0.39018348 -0.1695518
-0.100745164 0.283082 0.10156181 0.41810027 -0.11364 -0.27478555 -0.22267154 0.016150061
-0.14619872 -0.12217939 -0.13413775 -0.30845237 0.012514922 -0.11397434 0.17655969 0.26047075
0.29403096 0.06995336 -0.015451498 0.27669042 0.010836541 0.27113163 0.14963596 -0.0696125
0.19247346 0.30650663 0.4943181 -0.10326031 -0.19149147 -0.4393384 -0.38426885 -0.15494029
-0.16341089 0.19935374 0.25521907 0.1708172 0.14299871 -0.13415706 -0.0513676 0.0050568525
-0.16593653 -0.11171423 0.12448439 0.22371538 -0.11609009 -0.2872627 -0.17800342 0.2159813
-0.016023217 -0.29842657 0.105561554 -0.009742101 0.0014055631 0.13899784 0.021020826 0.07815927
0.173509 0.39327294 -0.0151572805 -0.2222459 -0.17759858 -0.0011874988 0.1990537 0.12487378
0.12115369 0.022642517 -0.07111991 0.5131068 0.05414175 0.069877066 0.24573116 0.1901904
-0.1836729 -0.17372502 -0.04276362 -0.1073858 -0.14985278 -0.30940902 0.14426154 -0.1377341
0.05120797 -0.28436995 -0.33666945 -0.09385198 -0.31967738 -0.1931153 -0.26862428 0.1210519
-0.298052 -0.341465 -0.18074991 -0.123108946 0.41679376 0.0462695 -0.10675269 0.11624607
0.257694 0.2515378 -0.14845008 -0.39780322 -0.06159328 0.51594263 0.07936117 0.10060866
0.24120395 0.36243695 0.36477292 -0.4351872 -0.06562105 -0.24045292 -0.116707996 0.021971988
-0.15278445 0.05684654 -0.40656513 -0.2166652 0.21674483 0.056064148 -0.052265644 -0.15575668
-0.03071244 -0.025928963 -0.20788379 -0.21263008 0.13934432 -0.0051077474 -0.049057458 0.11509244
0.26316187 0.3728697 0.10922443 -0.200947 -0.09980305 -0.08859587 0.31214932 -0.097625904
-0.007708207 -0.28068882 -0.16920197 -0.20985894 -0.16264006 -0.058616538 -0.022223854 0.056699306
0.2349681 -0.096683316 0.039295726 0.04822666 0.19094922 0.092176914 0.06890661 0.08000752
0.15966265 0.007190316 -0.01210916 0.17330004 -0.11238735 0.007795111 -0.15797779 0.25162357
-0.007112565 0.8136559 -0.12033668 -0.16693446 -0.087502286 -0.20239274 -0.15231058 -0.1845915
-0.16249177 -0.1700322 0.14615262 0.040227022 0.0235549 -0.06698902 -0.19852546 0.21261974
0.18482906 -0.12048888 -0.09186885 0.004357842 0.051791057 0.22767287 0.42882162 0.018032698
0.065384164 -0.05514602 0.074765146 -0.1344369 0.10669756 0.08218418 0.014146112 -0.05216951
0.17289273 -0.09601796 -0.17955372 -0.016734434 0.18493208 -0.14219607 0.039713707 -0.24014124
-0.2271853 0.22613895 0.31748676 0.18375996 0.025798442 -0.0706541 -0.3489233 0.303053
0.12443695 -0.037891574 -0.06276255 -0.13522907 0.18474199 -0.1273034 0.13205643 0.15000246
-0.054710034 -0.004879915 -0.13924931 0.071794726 -0.010409069 -0.08234848 0.1978917 -0.082291044
0.10315201 -0.062504545 -0.163129 0.34972104 -0.08777157 0.091994 0.071105346 -0.17612839
0.023658026 -0.16273642 0.18757711 0.25504732 -0.0611318 0.0889735 -0.032124367 -0.13973741
-0.13960223 -0.10681478 -0.017186485 0.32266253 0.108213045 -0.15305777 0.0409508 0.056297623

tcn.tcn.1.conv1.bias f4 [16]
00000000: 64b2 6abe 2ce0 80be 6fbb 8c3d 3a81 543e
00000010: 9e0e adbe 608e 53be 0fb5 2f3d 5fde e13c
00000020: e8db b1bd 21aa 38be c24a 5ebe 2ab9 d43d
00000030: eefb 7bbe 95ba 3d3e 8f41 b6bd f7d6 ea3d
-0.22919613 -0.2517103 0.068716876 0.20752421 -0.33800215 -0.2065978 0.04289728 0.027571855
-0.08684522 -0.18033649 -0.21708205 0.1038688 -0.24607822 0.18528207 -0.08899223 0.114667825

tcn.tcn.1.conv2.weight f4 [16, 16, 1]
00000000: eb2d 053f f48b febc 85fd 89bd 729b 173e
00000010: b842 40bd 5fc7 16be 0bd5 623e 91c1 953e
00000020: c272 b5be 0e6f aabe 0416 c5bd 16d4 5d3e
00000030: 56a4 903b 33ab 953e 99c7 c13e 6633 54be
00000040: ea17 f9bd 2690 c33e d639 15be 7591 c1bd
00000050: 4a39 bb3d 4424 30bd 8947 583e 6535 26be
00000060: c85d cc3e aff9 a3bd a5e9 ff3d 932b 6c3e
00000070: 202f 51bd 53fb ebbd a4ec adbe 8691 6b3e
00000080: f228 523d e882 3d3e c3c7 6f3e aaa0 053d
00000090: 2cd0 df3d d265 683e 4014 783e 0b1d 78be
000000a0: 1b00 b73d 2e6d 783c b01f a3be 1fe3 fe3d
000000b0: 6a05 1abe 498c ebbd 62e6 31be 500f 7abe
000000c0: 40f8 84be c3f0 1ebd 471d f7be 7cc1 fdbd
000000d0: 9191 2b3e 4bc5 2cbe 8e2a 62bd 49ef e73d
000000e0: 8f25 983a 45ce 303e f84d 543e 0d22 9bbe
000000f0: cc7a c3bd b2e1 cfbd 3579 533d 4b29 8f3d
00000100: 11ef b93d 0121 353e 3aea 38bc 48de bebe
00000110: 659c 953d 83dc 03be 45fa a13d 9eca 38be
00000120: 3426 6e3e c5c6 58be 9b9a 10bd 0905 4d3e
00000130: d922 3ebe ad72 37bd 0df1 23bc 330a 193d
00000140: 2dda 32be 273a 8abd 20b8 6d3b a965 63be
00000150: 2872 253e dbc7 ae3e b9d0 ee3e 1447 4a3e
00000160: 3b69 e83d beb2 6a3c 8b9f 82bd 7e7f 873e
00000170: 3762 e0bd 1725 9b3c a4e5 fa3d 3b44 d13d
00000180: ed32 34be a8eb 593e da00 0abe af87 2d3d
00000190: 1b05 823e 2027 f1bd 090c 00be 60ca 933e
000001a0: 5559 fb3d e282 b6bd 8ddb 123d 1f5f 463e
000001b0: 47a8 81be fb9d 7cbe 202a 92be 6f7b a23e
000001c0: 4249 8c3e 81ff 42be 8ac1 133e da51 96bb
000001d0: 00a1 23be ead4 073f 84a2 c73d 5e1d 8a3d
000001e0: 9334 2bbd e0e8 4fbd 69f7 3bbe 1359 afbd
000001f0: 1f2c 76bd 0453 8e3e f1b3 9dbc 1b45 26be
00000200: 798a 76be 9311 843e 8aed 9dbe 48f8 b13d
00000210: fcc8 60be 394c 7f3e 15dc a83e ca66 ddbd
00000220: f52c 213d a96c 11bd 91c3 1ebd 5358 323e
00000230: 234e 78be f0fe 713c dcaf 6ebd 824b 97bd
00000240: fc7b c4bd fe98 1d3d 9a15 9f3d 7da3 c3bd
00000250: 491d 843c 6752 f0bd e62c 1d3e 4c33 963c
00000260: 0591 8b3d 0d69 49be d8fa 8c3e 0090 12bd
00000270: 279f 59bc fc1c 343e 4d53 d13e 7863 073e
00000280: b27e 2f3e e3ec 1cbe 092f 4cbe 0411 8fbe
00000290: 15c4 79bd 5ff2 063e a222 12be 7e9e 9dbe
000002a0: 214a 05be bdbc 73be a678 403e 1200 40be
000002b0: df55 533d 2f62 153d eee2 96bd c553 3fbb
000002c0: 291b 823e ddc7 bdbc b005 2ebe 05c8 1dbe
000002d0: 92f6 2ebe f0f3 9dbe daef 19be ca42 e7bc
000002e0: e11b c8be 466c 07bd 5c11 39bd 6387 a6be
000002f0: acc5 e83d 5585 24be f919 f9bc 78ab a6bd
00000300: 15d9 3f3e 5faa 50be 39d4 90bd 6809 2fbe
00000310: c4c0 33be 5159 0abd d60c cc3d e227 c33d
00000320: 3fd4 803e 549e 913b 0dff f9bd 8c98 203d
00000330: 8304 e93c 2bf7 45be cd51 a53e 20df 703e
00000340: 0a98 cebd 911e 8bbd e104 313d bfe0 3ebe
00000350: 4783 71be e094 93bd 74f8 8c3e 88db 4f3d
00000360: a927 3dbe 9e57 a0bd a068 f5bd af80 773b
00000370: 6a74 babe 5d61 91be f709 4a3e b37f 073d
00000380: 5ad1 eabd 1378 d43e f9d8 453e 11c3 513e
00000390: 1abb 1d3e 7ae9 05be 3b85 483e 2f53 083e
000003a0: 7bd1 7dbb ffd5 08be da17 3f3e 56a2 c6bd
000003b0: 14f7 48be c75c 9e3d 100c 58be a3e3 923d
000003c0: 669e bdbe a9d3 223e ac03 cebd e3a5 283d
000003d0: 1118 043e 8b4f 17bd bb13 0f3e e14c 9c3b
000003e0: c3a4 b7bd d5a7 113d a601 363e db2f f4bd
000003f0: 076e 71be d7c6 4cbb dc65 0cbf f839 15be
0.5202319 -0.031072594 -0.06737808 0.14805391 -0.046938628 -0.14724492 0.22151582 0.29249242
-0.35439116 -0.33287853 -0.0962334 0.21662936 0.0044141216 0.29232177 0.37847593 -0.20722732
-0.12162764 0.38195914 -0.14572844 -0.09451572 0.091417864 -0.043003336 0.21121038 -0.16231306
0.399153 -0.08006608 0.12495736 0.23063497 -0.051070333 -0.11522546 -0.33969605 0.23004732
0.05130858 0.18506968 0.23416047 0.032623924 0.109283775 0.22695091 0.24226475 -0.24229829
0.08935567 0.015162749 -0.31860113 0.12445664 -0.15041128 -0.11501367 -0.1737304 -0.24419904
-0.2597065 -0.038803827 -0.48264524 -0.1239042 0.16754748 -0.16872136 -0.055216365 0.11324937
0.0011607873 0.17266186 0.20732868 -0.30299416 -0.09544906 -0.1015047 0.051629264 0.06990298
0.090788014 0.17688371 -0.011286313 -0.37278962 0.073052205 -0.12877087 0.07909063 -0.18046042
0.23256761 -0.21169575 -0.035303693 0.20021452 -0.18567981 -0.044787098 -0.010006201 0.037363242
-0.1746604 -0.06749373 0.0036273077 -0.22206749 0.16156828 0.34136853 0.46643618 0.19753677
0.11348196 0.014324842 -0.06378087 0.26464456 -0.10956233 0.018938584 0.12250832 0.10218092
-0.17597552 0.21281302 -0.13476887 0.042365726 0.2539452 -0.117750406 -0.12504591 0.28865337
0.12272898 -0.08911683 0.03585391 0.19372223 -0.25323698 -0.2466964 -0.28547764 0.31734797
0.2739964 -0.1904278 0.14429298 -0.004587394 -0.15979385 0.53059256 0.09747794 0.067438826
-0.041798186 -0.050759196 -0.18356098 -0.085619114 -0.06010067 0.2779771 -0.019250842 -0.16237299
-0.2407626 0.25794658 -0.3084529 0.08689934 -0.2195167 0.2493142 0.3298041 -0.10810621
0.039349515 -0.035504017 -0.038760725 0.17416506 -0.24248557 0.0147702545 -0.05827318 -0.07387449
-0.09593961 0.038475983 0.07767792 -0.09552667 0.016127246 -0.11734467 0.15349159 0.018335007
0.0681477 -0.1966898 0.2753513 -0.03578186 -0.013282574 0.17589182 0.40883866 0.13221538
0.17138174 -0.1532474 -0.19939817 -0.2794267 -0.060978014 0.13178395 -0.14271024 -0.30784982
-0.13016559 -0.23802467 0.18796024 -0.18750027 0.051595565 0.03647059 -0.07367502 -0.0029194218
0.25411347 -0.023166591 -0.16994357 -0.15408333 -0.17086247 -0.30850172 -0.15032902 -0.02823009
-0.3908377 -0.033062242 -0.04518257 -0.32525167 0.11365828 -0.16066487 -0.030407893 -0.08138174
0.18735154 -0.20377491 -0.07071728 -0.17093432 -0.17554003 -0.033776585 0.09963386 0.095290914
0.2516193 0.004443923 -0.1220685 0.03920798 0.028444534 -0.19332568 0.32288972 0.23522615
-0.10087593 -0.067929395 0.043217544 -0.18640421 -0.23585235 -0.0720613 0.27533305 0.05074647
-0.1847216 -0.07829212 -0.11982846 0.003776591 -0.36416942 -0.28394595 0.19730364 0.033080768
-0.11465712 0.4149786 0.1932105 0.20484568 0.15403405 -0.13077345 0.19582073 0.13312982
-0.0038729596 -0.13362883 0.18661442 -0.09698932 -0.19625503 0.077325396 -0.21098351 0.071723245
-0.3703491 0.15901054 -0.10059294 0.041173827 0.12899806 -0.036941092 0.1397237 0.004769907
-0.08966973 0.035560448 0.17774066 -0.1192319 -0.23577128 -0.0031246447 -0.54842925 -0.14572895

tcn.tcn.1.conv2.bias f4 [16]
00000000: c3b9 27be 453d 0a3e d5df 45be d6df d7bc
00000010: 6aaf 6f3d 99ba d0bd cf92 dbbd 55bc 6d3d
00000020: 58af 9b3e dfaa 453e b27b 62bd 7079 263e
00000030: aecc 423e d93c 6abd 96d4 0bbe b626 273e
-0.16379456 0.13499935 -0.19323666 -0.02635185 0.058516897 -0.10191841 -0.10721361 0.058040936
0.30407214 0.19303463 -0.055293746 0.16257262 0.19023392 -0.057186935 -0.13655314 0.16323361
