checkpoints/fine_tune/var_rf/gtzan/0.4/model_faithful-hill-196_finetune_finetune_finetune_finetune_finetune_HAI_GIA/it_4816_loss_4.8717_acc10.33_acc20.33.pt (torch, 437010 bytes, 211 tensors)

conv1.weight f4 [16, 1, 3, 3]
0	0x3e8eb6e0	0.27873898
1	0xbd527a33	-0.05138607
2	0xbe8d0836	-0.27545327
3	0x3eb40ca7	0.35165903
4	0xbdfa9599	-0.12235565
5	0xbeb104d2	-0.3457399
6	0x3e6015e1	0.21883346
7	0x3e469f44	0.19396693
8	0xbe942664	-0.2893554
9	0x3ea30282	0.3183785
10	0xbefaeecf	-0.49010321
11	0xbed21fb5	-0.41039816
12	0x3e86101b	0.26184162
13	0xbe8e41a1	-0.27784446
14	0x3dea3676	0.11436169
15	0x3ded645c	0.11591408
16	0x3e34596c	0.17612237
17	0x3d8866e9	0.066602536
18	0xbe844b23	-0.25838575
19	0x3ec9f627	0.39445612
20	0x3e3ee5cb	0.18642347
21	0xbe3b98ff	-0.18320082
22	0x3ebc983d	0.368349
23	0x3d8cca71	0.0687455
24	0xbf0bf207	-0.5466618
25	0x3df28b53	0.1184298
26	0xbe802678	-0.2502935
27	0xbe85b963	-0.26118
28	0xbdd14206	-0.10217671
29	0x3eb0601b	0.34448323
30	0xbea9e116	-0.3317954
31	0x3dcf54b5	0.101235785
32	0x3e45cef2	0.19317225
33	0x3ebf0e5d	0.37315646
34	0x3d6b4765	0.057441134
35	0xbeff9299	-0.49916533
36	0xbe6b56f9	-0.22982396
37	0xbe5fd289	-0.21857657
38	0xbe33f8f6	-0.1757544
39	0xbe69f99e	-0.22849128
40	0x3e252d71	0.16130616
41	0x3e84ad58	0.259135
42	0xbdce509d	-0.100739695
43	0xbde6af8c	-0.11263952
44	0xbe9252ef	-0.28578898
45	0xbd9d9532	-0.076944724
46	0x3dafc361	0.085821874
47	0xbda545d1	-0.08069957
48	0xbf534905	-0.82533294
49	0x3e9a9c65	0.30197445
50	0x3eec5f59	0.46166494
51	0xbe8279e9	-0.25483635
52	0x3e978949	0.29596928
53	0xbd57b26b	-0.052660387
54	0x3ea2d64a	0.31804115
55	0x3c7601ec	0.015015107
56	0xbdc091bb	-0.09402796
57	0xbdafee63	-0.085903905
58	0x3e5bc05f	0.21460102
59	0xbeb5775f	-0.35442635
60	0xbddc9c93	-0.10772052
61	0x3e0fe3f8	0.14051807
62	0xbe67449f	-0.2258477
63	0xbd0d6818	-0.0345231
64	0xbc3f1eb0	-0.011665031
65	0x3e74ae73	0.23894672
66	0xbef2c599	-0.4741638
67	0xbe35a83e	-0.1773996
68	0xbde70bfe	-0.11281584
69	0x3dcfb305	0.10141567
70	0xbd947a07	-0.07249837
71	0x3f0917a0	0.53551674
72	0xbeb3bb58	-0.3510387
73	0x3dcdbc21	0.10045648
74	0xbe9802fc	-0.29689777
75	0xbed3d99c	-0.4137696
76	0x3ebc0414	0.3672186
77	0x3eb543f4	0.35403407
78	0xbe3b5804	-0.18295294
79	0x3ec86ed4	0.39147055
80	0x3df4a886	0.11946206
81	0xbf24378a	-0.64147246
82	0x3dcd874d	0.10035572
83	0x3f072b2e	0.5280026
84	0x3cbc6715	0.022998372
85	0xbe5b4a9d	-0.21415181
86	0x3e57abc1	0.21061613
87	0xbeb183b4	-0.34670794
88	0xbb14ffda	-0.0022735507
89	0x3e9fdd83	0.31223688
90	0xbef245df	-0.47318932
91	0x3d686906	0.056740783
92	0x3ea72e39	0.32652453
93	0xbe59a95d	-0.21256013
94	0xbe4a285e	-0.19741961
95	0x3ea3fb79	0.32027796
96	0x3dd8f44c	0.10593471
97	0xbde4bdc6	-0.11169009
98	0xbc42a4d1	-0.011880116
99	0x3e0d3644	0.13790232
100	0x3ecdd7f6	0.40203828
101	0xbe1acbb5	-0.1511677
102	0x3e61fbe9	0.22068752
103	0x3ebd723a	0.3700121
104	0xbe3f8969	-0.18704762
105	0x3eafd1f0	0.34339857
106	0x3d985319	0.074377246
107	0xbdc611fc	-0.09671399
108	0x3e0334c0	0.12813091
109	0x3e067cd6	0.13133559
110	0x3cb72080	0.022354364
111	0xbe045210	-0.1292193
112	0xbe416d01	-0.18889238
113	0xbed405f1	-0.41410783
114	0x3e8aa6d9	0.2708042
115	0x3ea61a93	0.3244215
116	0xbe3ad8cb	-0.18246762
117	0x3e532a0a	0.20621505
118	0xbe0ce623	-0.13759665
119	0xbe9c08c0	-0.30475426
120	0x3eaac86a	0.3335603
121	0x3e97dedb	0.29662213
122	0x3df5c2d4	0.12000051
123	0xbe79f993	-0.24411611
124	0x3e3505a5	0.17677934
125	0xbeff8621	-0.4990702
126	0x3ea272a3	0.31728086
127	0x3e27feed	0.1640584
128	0xbe175113	-0.14777021
129	0x3ecf9241	0.4054127
130	0xbe91dd0d	-0.2848896
131	0x3b56fe6c	0.0032805456
132	0x3e420b67	0.18949662
133	0xbea10050	-0.3144555
134	0xbee25a4e	-0.44209522
135	0xbe284071	-0.16430832
136	0xbd42476b	-0.04743139
137	0x3e98041c	0.29690635
138	0xbe17ab6b	-0.14811485
139	0x3d1311f9	0.035905812
140	0x3eb7f38e	0.35928005
141	0xbf0b1a82	-0.5433732
142	0xbe86b5cf	-0.26310584
143	0x3f088806	0.53332555

conv1.bias f4 [16]
0	0xbba22bd3	-0.004949072
1	0x3d6225d9	0.055211876
2	0xbdc78b8c	-0.09743413
3	0xbd1fcc6f	-0.039013322
4	0xbe54c47e	-0.20778081
5	0xbdeab9f7	-0.11461251
6	0x3e0077d3	0.1254571
7	0xbca60785	-0.020267257
8	0xbd3ecf24	-0.046584263
9	0x3d4d20ff	0.050080296
10	0xbd092556	-0.033482872
11	0xbe76eed7	-0.24114548
12	0x3d8acbd6	0.0677716
13	0xbd891728	-0.0669387
14	0xbd3b4756	-0.045722328
15	0xbde2c928	-0.11073524

conv2.weight f4 [16, 16, 3, 3]
0	0xbe2484ca	-0.1606628
1	0xbd23c9ff	-0.03998756
2	0xbcdddc7c	-0.027082674
3	0xbdef0560	-0.11670947
4	0xbe514504	-0.20436484
5	0xbe7d05be	-0.24709222
6	0xbd0e8311	-0.034792963
7	0x3d551068	0.0520176
8	0xbdff1439	-0.12455029
9	0xbde06c9b	-0.10958215
10	0xbdbf851e	-0.09351562
11	0xbd113704	-0.035452858
12	0xbdd5dd73	-0.10442629
13	0x3c4a6dce	0.012355281
14	0xbe1855b9	-0.1487645
15	0xbde3c7bb	-0.1112208
16	0xbca4d76c	-0.020122252
17	0xbe9d3d49	-0.3071082
18	0x3d2dc6b7	0.042425837
19	0xbe884fe9	-0.26623467
20	0xbd59fd7a	-0.05322025
21	0x3e67940e	0.22615072
22	0xbe96f4b2	-0.29483563
23	0xbd539b0a	-0.05166153
24	0x3ea46ccd	0.32114258
25	0xbe6ae58c	-0.22939128
26	0xbdfa33d7	-0.12216919
27	0xbe14ed8e	-0.14543745
28	0x3d981999	0.07426757
29	0x3e37485c	0.17898697
30	0xbd2bf9f5	-0.041986424
31	0x3e0f31ca	0.13983837
32	0x3ead3663	0.33830556
33	0x3eb7bef9	0.35887888
34	0x3ee31874	0.44354594
35	0x3f055458	0.52081823
36	0xbc2d944a	-0.010594437
37	0xbc468b18	-0.0121181235
38	0xbe3b3d4f	-0.18285106
39	0xbd68b80f	-0.056816157
40	0xbe164747	-0.14675628
41	0xbe827f86	-0.25487918
42	0x3bc84062	0.0061111907
43	0xbe0e1e6a	-0.1387879
44	0xbdd5a07b	-0.10431
45	0x3e8cbd80	0.27488327
46	0xbd206bf3	-0.03916545
47	0x3ede11c4	0.4337293
48	0x3e8012d7	0.25014374
49	0xbdf8c314	-0.12146583
50	0x3eaed3bb	0.34145913
51	0x3ed91b7e	0.42403787
52	0x3cf8dacd	0.03037777
53	0x3edcadff	0.43101498
54	0x3d3bee67	0.045881655
55	0xbe24522b	-0.1604697
56	0xbe47b5b0	-0.19502902
57	0xbd1393f2	-0.036029764
58	0xbdff7629	-0.12473709
59	0xbe7ec9d0	-0.24881673
60	0xbd4a7255	-0.04942544
61	0xbdce70a7	-0.100800805
62	0xbdd85d72	-0.10564698
63	0x3e6b3830	0.22970653
64	0x3e087b2f	0.13328241
65	0xbda0f160	-0.07858539
66	0x3e609806	0.21932992
67	0xbae98670	-0.0017816555
68	0xbe644926	-0.22293529
69	0xbd67e0fe	-0.056611054
70	0xbd0c05d9	-0.034185264
71	0xbe4f8c7f	-0.20268439
72	0x3e094bdc	0.13407844
73	0xbe1caffe	-0.1530151
74	0x3c220bed	0.009890539
75	0x3e765fa5	0.24059923
76	0xbe3a662c	-0.18203038
77	0xbd5bf9ed	-0.053705145
78	0x3dbeb271	0.09311379
79	0xbe23ee60	-0.16008902
80	0xbe03d6da	-0.12874928
81	0x3cc26448	0.023729458
82	0x3e6d0ea7	0.2315012
83	0x3e812af4	0.25228083
84	0x3e577884	0.21042067
85	0x3eab8d56	0.33506268
86	0x3eba47c8	0.3638289
87	0x3e8be826	0.27325553
88	0x3e1d3f2b	0.15356128
89	0x3ea003b1	0.31252816
90	0x3c9acbbd	0.018895978
91	0xbce2a890	-0.027668267
92	0x3bbebae5	0.0058206194
93	0xbd4dd83d	-0.05025505
94	0xbd8c0aaa	-0.068379715
95	0x3e0a9a3c	0.13535398
96	0xbdb62a2e	-0.08894764
97	0xbe13a6ee	-0.14419147
98	0x3da8aee2	0.08236481
99	0xbe0285b5	-0.12746318
100	0xbe55673e	-0.20840165
101	0xbe55d8d6	-0.20883498
102	0xbe25220f	-0.16126274
103	0xbe872010	-0.2639165
104	0xbea65dab	-0.32493338
105	0xbde53194	-0.11191097
106	0xbdc268a9	-0.094926186
107	0xbe82545a	-0.2545498
108	0xbdb18ed3	-0.0866982
109	0xbdc3e061	-0.09564281
110	0xbe4a5b24	-0.1976133
111	0x3c6986a1	0.014253289
112	0xbdb7e946	-0.0898004
113	0xbe3420d6	-0.17590651
114	0x3d06ba83	0.032892715
115	0x3d5f02f8	0.05444619
116	0xbd9d968e	-0.07694732
117	0x3e012eaa	0.12615457
118	0xbdda1fbc	-0.10650584
119	0xbdab8df9	-0.083766885
120	0x3d9f80b8	0.07788223
121	0xbe09aff7	-0.13446032
122	0xbdf34b2f	-0.118795745
123	0x3e332645	0.17495067
124	0x3d81271e	0.06306289
125	0xbdf5b6b4	-0.119977385
126	0xbe30e796	-0.17275843
127	0xbe1acb4c	-0.15116614
128	0xbe117d46	-0.14207944
129	0xbe42d654	-0.19027072
130	0xbbc4ad86	-0.006002131
131	0x3c8f4a9c	0.017491631
132	0x3dba16b2	0.0908636
133	0x3e7204a7	0.23634587
134	0x3cdd4078	0.02700828
135	0x3cb6be21	0.022307457
136	0x3c027f40	0.007964909
137	0x3dd026b6	0.101636335
138	0xbd87b167	-0.06625634
139	0x3d121014	0.035659865
140	0x3e1addab	0.15123622
141	0x3dbf1374	0.09329882
142	0xbd00dcb3	-0.031460475
143	0x3de02653	0.1094481
144	0x3e7fa3e0	0.24964857
145	0x3d9337e4	0.07188395
146	0x3e519f61	0.20470954
147	0x3de111a8	0.10989696
148	0x3e38fe69	0.180658
149	0x3e1b1493	0.15144567
150	0x3d3575cc	0.044301793
151	0x3dbe0267	0.09277802
152	0x3d998a3c	0.07497069
153	0x3e8cb223	0.27479658
154	0xbe0f5654	-0.13997775
155	0x3e951a65	0.291217
156	0x3da6d2a1	0.08145643
157	0xbdd49612	-0.10380186
158	0x3e13bf53	0.14428453
159	0x3e70e78f	0.23525833
160	0xbe190472	-0.14943102
161	0x3d3fdea7	0.046843197
162	0xbed35a5b	-0.41279873
163	0x3ef8280c	0.48468053
164	0xbe068b00	-0.13138962
165	0xbf15509b	-0.5832612
166	0x3e0e0afc	0.13871378
167	0xbdb1aa70	-0.086750865
168	0xbf08ea6f	-0.5348272
169	0x3e30b1d0	0.1725533
170	0xbe5db922	-0.21652654
171	0xbf054db1	-0.5207167
172	0xbeb93659	-0.36174276
173	0xbe27a09f	-0.16369866
174	0xbdf67994	-0.12034908
175	0x3d5d73cc	0.05406551
176	0x3e664b03	0.22489552
177	0xbe1ac74d	-0.1511509
178	0x3c93a058	0.018020794
179	0x3dc8f149	0.098116465
180	0x3dbce11b	0.09222623
181	0x3e032238	0.12806022
182	0x3dd2a525	0.10285405
183	0xbd0e6bb6	-0.03477069
184	0x3cc13c54	0.023588337
185	0xbde4990f	-0.11162006
186	0xbc66d45b	-0.014088715
187	0x3d190b5b	0.037364345
188	0xbd9a8bb0	-0.075461745
189	0xbedb92a8	-0.42885327
190	0x3e79bbd2	0.24388054
191	0xbd935f24	-0.07195881
192	0xbeed4fbc	-0.46349895
193	0x3d9c68a0	0.07637143
194	0xbded44b4	-0.1158537
195	0xbf05816c	-0.5215061
196	0x3e8560c1	0.2605038
197	0xbcf40676	-0.029788237
198	0xbd115e23	-0.035490166
199	0x3e17e46c	0.1483323
200	0xbd9710ec	-0.073762745
201	0x3ddc3d75	0.107539095
202	0x3df95b16	0.121755764
203	0x3dea903c	0.11453292
204	0x3dc22fa3	0.09481742
205	0x3e36b9c3	0.178443
206	0x3e233df0	0.15941596
207	0x3e05edc0	0.13078976
208	0xbcec5b14	-0.028852023
209	0xbe875baa	-0.26437122
210	0xbdb032e8	-0.086034596
211	0xbdf796d3	-0.12089314
212	0xbe44e598	-0.19228208
213	0xbcecc9c3	-0.028904801
214	0xbd77d061	-0.06050146
215	0xbed82e87	-0.42222998
216	0xbf064162	-0.52443516
217	0x3de5621c	0.112003535
218	0xbe5bc4ee	-0.21461841
219	0xbedafd02	-0.42771155
220	0x3dd3cbbf	0.10341596
221	0xbdb3673c	-0.08759925
222	0xbf1dd34c	-0.6165054
223	0x3e66f5c3	0.22554688
224	0x3d0bdd36	0.03414651
225	0xbdb3e6b7	-0.0878424
226	0xbdfac2ad	-0.12244163
227	0xbe165b86	-0.14683351
228	0xbe1e5798	-0.15463102
229	0xbddca68c	-0.10773954
230	0x3dfb557e	0.12272166
231	0xbe0c4cf1	-0.13701226
232	0x3dd66bfa	0.10469814
233	0x3e03e326	0.12879619
234	0x3e1706da	0.14748707
235	0xbe3f4f7a	-0.18682662
236	0xbd564724	-0.05231394
237	0xbdb8a2cd	-0.09015427
238	0xbd2eb892	-0.04265649
239	0xbdd2d9e8	-0.102954686
240	0xbd2e1082	-0.04249621
241	0xbe1a10fe	-0.15045545
242	0x3ca7077c	0.020389311
243	0xbe889b7a	-0.2668112
244	0xbd87286e	-0.06599508
245	0x3e4d301c	0.20037884
246	0xbe0a187b	-0.13485901
247	0xbdf06d73	-0.11739626
248	0x3d2a1053	0.041519474
249	0xbe087ade	-0.1332812
250	0xbd419404	-0.0472603
251	0x3d4213d0	0.047382176
252	0x3ce4354f	0.02785745
253	0xbdc8399e	-0.097766146
254	0xbe01c4e1	-0.1267276
255	0xbd895500	-0.067056656

conv2.bias f4 [16]
0	0xbd73db3f	-0.05953526
1	0xbe0c01f9	-0.13672628
2	0x3d434b49	0.04767922
3	0xbdcfa093	-0.10138049
4	0xbe1e095d	-0.1543326
5	0xbe885e54	-0.26634467
6	0xbe4f69f4	-0.20255262
7	0xbd833b6b	-0.064078175
8	0xbdf809cd	-0.12111244
9	0xbe15cded	-0.14629336
10	0xbdabdef3	-0.083921336
11	0xbcc8b592	-0.024500642
12	0xbcd63ce4	-0.026152082
13	0xbe077b1c	-0.13230556
14	0x3d0aaf4d	0.033858586
15	0xbe16600f	-0.14685081

conv3.weight f4 [16, 16, 8, 1]
0	0xbd9c9164	-0.076449186
1	0xbdc8625b	-0.09784385
2	0xbdcc3fe9	-0.099731274
3	0xbdaa30d3	-0.08310094
4	0xbe858ad0	-0.26082468
5	0xbee4b89e	-0.44672102
6	0xbe99ba2d	-0.30024853
7	0x3d5b5db2	0.05355615
8	0x3e863e10	0.26219225
9	0x3ddefcea	0.10888083
10	0x3e2f66f8	0.17129123
11	0x3daf016a	0.085451916
12	0x3e424854	0.18972903
13	0x3e956f35	0.29186407
14	0xbe815c20	-0.25265598
15	0xbec23b36	-0.379358
16	0x3e56706e	0.20941326
17	0x3e8ba13b	0.27271447
18	0x3e86893e	0.26276582
19	0x3e343aee	0.17600605
20	0x3df4a8af	0.11946236
21	0xbb40bfe9	-0.0029411262
22	0xbea02e3f	-0.31285283
23	0xbe3766b3	-0.1791027
24	0xbe6fa9c8	-0.2340461
25	0x3e2ac4a5	0.16676576
26	0x3e2a02c9	0.16602625
27	0x3d194b2e	0.037425213
28	0x3e54e028	0.20788634
29	0xbcc85772	-0.02445576
30	0x3eace912	0.3377157
31	0x3e9e6210	0.3093419
32	0x3b99d078	0.004694041
33	0x3d1aa525	0.03775515
34	0x3cfe0c55	0.03101174
35	0x3cf1b472	0.029504988
36	0x3d516abb	0.051127177
37	0x3e1ba1f8	0.15198505
38	0x3be59735	0.0070065507
39	0x3d0b0850	0.033943474
40	0xbe84e926	-0.25959128
41	0x3c624fdf	0.013812988
42	0x3da9512d	0.08267436
43	0x3e03c075	0.12866385
44	0xbdd316a6	-0.10307054
45	0xbb014a4f	-0.001972813
46	0xbf005f4e	-0.50145423
47	0xbdbd4707	-0.09242063
48	0xbce4886b	-0.02789708
49	0x3c5732ca	0.013134668
50	0xbdb46a32	-0.08809318
51	0xbe32cd37	-0.17461096
52	0xbd78ab50	-0.06071025
53	0x3ce7264b	0.028216502
54	0xbdcf6c04	-0.10128024
55	0xbdd5bad1	-0.10436023
56	0x3eb7a26d	0.3586611
57	0x3d976971	0.07393158
58	0x3d287eb8	0.041136473
59	0x3be05a16	0.0068466766
60	0xbd8aa238	-0.06769222
61	0xbe71c2e1	-0.23609497
62	0x3e041b02	0.12900928
63	0xbd929844	-0.071579486
64	0x3e945d8c	0.2897762
65	0x3e10af1f	0.14129303
66	0x3e527d18	0.20555532
67	0x3e53dc79	0.20689572
68	0x3d81a122	0.06329562
69	0x3dae106b	0.08499225
70	0x3f60a4f5	0.87751704
71	0x3d03a949	0.032143865
72	0x3e190e36	0.14946827
73	0xbda4cb8e	-0.080466375
74	0xbe426351	-0.18983199
75	0x3c7d8565	0.015473698
76	0xbdb6f50d	-0.089334585
77	0xbbb9d453	-0.005671063
78	0xbe61324e	-0.21991846
79	0x3eb1d04a	0.34729224
80	0x3d9ec597	0.07752531
81	0x3cdb738f	0.026788501
82	0xbc976458	-0.018480465
83	0xbe544378	-0.20728862
84	0xbdd76b61	-0.10518528
85	0xbdf6f0a1	-0.12057615
86	0x3e8f9063	0.28039846
87	0xbdbd8868	-0.09254533
88	0xbe034ff2	-0.12823465
89	0x3bebc8c5	0.0071955645
90	0xbd2edc6e	-0.042690687
91	0x3c9f7c1e	0.019468363
92	0x3d98a849	0.07453973
93	0xbeae8653	-0.34086856
94	0xbf2c4448	-0.6729169
95	0x3e779d37	0.24181066
96	0x3ab63b8b	0.0013903243
97	0xbe3df1f7	-0.18549334
98	0xbe74468c	-0.23855036
99	0xbdb38e53	-0.087673806
100	0xbe15b2dd	-0.14619012
101	0xbeaddbf8	-0.33956885
102	0xbd787cbe	-0.06066584
103	0x3dbcaa02	0.09212114
104	0x3dbbac76	0.09163754
105	0x3e42bfb7	0.19018446
106	0x3e4ad440	0.1980753
107	0x3e0bc060	0.13647604
108	0x3bf48194	0.007461736
109	0x3e81193c	0.25214565
110	0x3ef2325d	0.4730405
111	0xbe37e3d5	-0.17958005
112	0x3e3baa58	0.183267
113	0x3e1d8cc2	0.15385726
114	0x3def913d	0.11697624
115	0x3d450318	0.048098654
116	0xbd30f3f2	-0.043201394
117	0x3c17ee9c	0.0092731975
118	0xbd8b0086	-0.06787209
119	0x3d23d139	0.039994452
120	0x3c26d84b	0.010183404
121	0x3d0f96c4	0.03505589
122	0x3aaa84a3	0.00130095
123	0xbd948f3f	-0.072538845
124	0xbe261bbb	-0.16221516
125	0x3c45ab41	0.012064756
126	0xbc2066ff	-0.009790181
127	0x3d82ce01	0.063869484
128	0x3b98394e	0.004645503
129	0xbcf04b51	-0.029332789
130	0xbd956062	-0.07293774
131	0x3d962a69	0.07332308
132	0x3ce8c6ba	0.028415073
133	0xbc262f1d	-0.010143069
134	0x3eadb947	0.33930418
135	0x3d9b9449	0.075966425
136	0x3e7fa617	0.24965702
137	0x3e69143c	0.22761625
138	0x3e291d2d	0.16515036
139	0x3cd8eae4	0.026479192
140	0x3d6b5625	0.0574552
141	0x3e69960b	0.22811143
142	0xbeabdc7c	-0.33566654
143	0xbe071d62	-0.13194802
144	0x3d93aaaa	0.07210286
145	0xbcb8caf4	-0.022557713
146	0x3d399993	0.045312475
147	0x3d9fb611	0.07798398
148	0xbd44190b	-0.047875445
149	0x3e18635f	0.14881657
150	0xbe1f05ae	-0.1552951
151	0xbad18f29	-0.00159881
152	0xbc97888e	-0.018497732
153	0x3ddb9679	0.1072206
154	0xbbacc95b	-0.005273027
155	0xbdad179b	-0.08451768
156	0xbe10cc84	-0.14140517
157	0xbe8a79c4	-0.27046025
158	0xbddb2760	-0.107008696
159	0xbebec416	-0.37258977
160	0x3d1c9565	0.03822841
161	0x3d4110ba	0.047135092
162	0xbd395522	-0.045247205
163	0x3c49cbab	0.012316625
164	0xbd868846	-0.06568961
165	0x3e2574c7	0.16157828
166	0xbe7f2aae	-0.24918625
167	0xbc0b8cc7	-0.008517451
168	0x3d60262b	0.0547239
169	0xbc93aeb4	-0.01802764
170	0xbd1f4a56	-0.03888925
171	0xbd88696b	-0.06660732
172	0x3cb5fd9a	0.022215653
173	0xbd89dd4a	-0.06731661
174	0xbf012b91	-0.504571
175	0xbc7a76f4	-0.01528715
176	0xbd995508	-0.074869215
177	0xbbbaf0df	-0.0057049836
178	0xbdc9a6c6	-0.09846263
179	0xbd525283	-0.05134822
180	0x3d321bd9	0.04348359
181	0x3dd5b312	0.104345456
182	0x3e38ce77	0.1804751
183	0xbcca8cdd	-0.024725372
184	0x3ea02dbd	0.31284896
185	0x3e2820c0	0.16418743
186	0xbc5cc5e2	-0.013474913
187	0x3dc48ce5	0.09597186
188	0xbd1ce6c1	-0.038306
189	0x3e2cf7ba	0.16891375
190	0x3e97714e	0.29578632
191	0x3dd55168	0.10415918
192	0x3e0323cb	0.12806623
193	0x3e6c98f6	0.23105225
194	0x3e879a6b	0.26485
195	0x3e7f13bb	0.2490987
196	0x3e5eed18	0.21770132
197	0x3e768c14	0.24076873
198	0x3f4499da	0.7679726
199	0x3c117f30	0.0088804215
200	0x3dc753d4	0.09732786
201	0x3c4dd728	0.012563504
202	0xbd0c24e7	-0.03421488
203	0xbdf77ecc	-0.120847315
204	0xbd6cc885	-0.057808418
205	0x3ddf62b9	0.10907502
206	0xbe5c9ed4	-0.21544963
207	0x3ec8393b	0.39106163
208	0xbb527f74	-0.0032119425
209	0xbd8fde9c	-0.07024881
210	0xbdc7b349	-0.09750993
211	0xbdcb4d29	-0.099268265
212	0xbdb2ac2e	-0.08724247
213	0xbe73b36b	-0.23798911
214	0x3eea1189	0.45716503
215	0xbec39e76	-0.38206834
216	0x3e21fc83	0.15818982
217	0x3e24033a	0.16016856
218	0x3dfc557d	0.12320993
219	0x3e2ab850	0.16671872
220	0x3dd8a331	0.10578001
221	0x3db4bff7	0.08825677
222	0xbdbb952e	-0.09159313
223	0x3def9e93	0.117001675
224	0x3e73ae39	0.2379693
225	0x3dc971d8	0.09836167
226	0x3d509026	0.05091872
227	0x3d3a3016	0.045456015
228	0xbd9c5e14	-0.076351315
229	0xbb687d23	-0.0035474978
230	0xbdca0584	-0.09864333
231	0x3e50d5bc	0.20394033
232	0x3e6c8f56	0.23101553
233	0x3dba9c43	0.09111836
234	0x3d5b7d8a	0.05358652
235	0x3d0b542d	0.034015823
236	0x3dc63734	0.09678498
237	0xbdc29020	-0.09500146
238	0x3de4aa0e	0.11165248
239	0xbe1a9776	-0.1509684
240	0x3d5b2a24	0.053506985
241	0xbc8b2b28	-0.016988352
242	0xbce7748e	-0.02825382
243	0xbd287b8a	-0.04113344
244	0xbd3c6c48	-0.046001703
245	0xbbd8e129	-0.006618638
246	0xbe9a3405	-0.30117813
247	0x3e2425b1	0.16030003
248	0x3cde99a4	0.027172871
249	0x3a8aab8e	0.0010579692
250	0x3da3065b	0.079601966
251	0x3d6aeebb	0.057356577
252	0xbd5197f4	-0.051170304
253	0x3e39a76c	0.18130273
254	0x3e1f5d5d	0.15562959
255	0x3eb5f26a	0.3553651

conv3.bias f4 [16]
0	0xbd4ebf0a	-0.050475158
1	0xbd490394	-0.049075678
2	0x3cab0968	0.020878509
3	0x39c2087d	0.00037008888
4	0xbc2cb2df	-0.010540693
5	0x3e63fb66	0.2226387
6	0x3e1c0667	0.15236817
7	0x3dd02ac2	0.101644054
8	0xbd02f9d9	-0.031976555
9	0xbeaab154	-0.33338416
10	0x3e87f438	0.26553512
11	0x3eb43837	0.3519914
12	0xbd1af700	-0.037833214
13	0x3d292b26	0.041300915
14	0x3e605a0a	0.21909347
15	0x3c8462ec	0.01616045

tcn.tcn.0.conv1.weight f4 [16, 16, 5]
0	0x3e40d7d2	0.18832329
1	0x3db55985	0.08854965
2	0xbcad7037	-0.021171672
3	0xbe124ab3	-0.14286308
4	0xbe90ba4c	-0.28267133
5	0x3d9f5f4a	0.07781847
6	0x3d0b43ea	0.034000315
7	0x3d15f291	0.036608282
8	0xbd894a18	-0.067035854
9	0xbef236ce	-0.47307438
10	0xbbd59564	-0.006518053
11	0xbd8a88af	-0.067643516
12	0x3d706883	0.05869342
13	0xbe396aad	-0.181071
14	0xbd6e56d8	-0.05818829
15	0x3e15444a	0.14576831
16	0x3cfdfd91	0.031004699
17	0xbcbaf02a	-0.022819597
18	0xbdb67cb0	-0.08910501
19	0x3e4fed5f	0.20305394
20	0x3e7bb863	0.24582057
21	0x3d8ba9ef	0.06819522
22	0x3eb2d499	0.34927824
23	0x3e259ee0	0.16173887
24	0xbdffe1d2	-0.12494244
25	0xbe063628	-0.13106596
26	0x3dc8e105	0.09808544
27	0x3df590be	0.11990498
28	0xbdc693d3	-0.09696164
29	0x3e1b61e2	0.15174058
30	0x3c529d2b	0.012854855
31	0xbd8eac43	-0.0696645
32	0xbe8fec84	-0.28110135
33	0xbe447231	-0.19184186
34	0x3d62135d	0.055194248
35	0xbe59a049	-0.2125255
36	0xbe785b2c	-0.2425353
37	0xbe9c530f	-0.3053212
38	0xbdeb1cd3	-0.11480107
39	0xbe8c1ff3	-0.27368125
40	0x3c62c7a0	0.01384154
41	0x3d397974	0.045281842
42	0xbdce5a48	-0.100758135
43	0xbe87ad83	-0.26499566
44	0xbe943aca	-0.28951102
45	0xbe38eca4	-0.18059021
46	0xbe8b790f	-0.27240798
47	0xbec74084	-0.3891641
48	0xbec2c35f	-0.3803968
49	0xbe2347b0	-0.15945315
50	0xbe10f58a	-0.14156166
51	0xbdb1a4b2	-0.08673991
52	0xbe521bf1	-0.20518471
53	0xbeb71153	-0.35755405
54	0xbe27aeca	-0.1637527
55	0xbd6ba45a	-0.057529785
56	0xbe094f97	-0.13409267
57	0xbe3dd5d1	-0.18538596
58	0xbe5ff231	-0.21869732
59	0xbe1525b9	-0.14565171
60	0x3e02c2b0	0.1276958
61	0xbb9aaa21	-0.004719988
62	0x3df0976a	0.1174763
63	0xbe597723	-0.21236853
64	0xbe516731	-0.2044952
65	0x3e248a9d	0.16068502
66	0x3e48589f	0.19565056
67	0x3dba2570	0.09089172
68	0x3dd1a9d3	0.102374695
69	0xbd2b8037	-0.041870322
70	0xbd8e9360	-0.06961703
71	0x3d35c714	0.04437931
72	0xbbdbc239	-0.0067065028
73	0x3bb639ad	0.0055610747
74	0x3dde5061	0.10855175
75	0x3d86e2bb	0.06586214
76	0xbddefcb1	-0.10888041
77	0x3d9a72bc	0.07541415
78	0xbd381bed	-0.044948507
79	0xbddf2bac	-0.108970016
80	0x3e8446e5	0.25835338
81	0x3ea49d42	0.32151228
82	0x3c14c980	0.0090812445
83	0x3e0868c6	0.13321218
84	0x3df68546	0.12037139
85	0x3e3b0684	0.18264204
86	0x3eba021b	0.3632973
87	0x3ceef7d0	0.0291709
88	0x3e3f75b5	0.18697245
89	0x3e804306	0.25051135
90	0x3bc01572	0.0058619315
91	0x3ea55cfd	0.32297507
92	0x3e5f05ed	0.21779604
93	0x3e3802dc	0.17969841
94	0x3eb3959f	0.3507509
95	0xbd972d97	-0.073817424
96	0xbd839226	-0.0642436
97	0xbea5ee10	-0.3240819
98	0xbd160de2	-0.036634333
99	0xbd687571	-0.056752626
100	0xbeb7f7e1	-0.35931304
101	0xbe8b3310	-0.27187395
102	0x3b124720	0.0022320226
103	0x3bd7b513	0.006582865
104	0x3de5cfe8	0.112212956
105	0x3df9cfe8	0.12197858
106	0x3dc3ddc7	0.09563785
107	0x3d6b8d63	0.057507884
108	0xbd63cebe	-0.055617087
109	0xbb699a55	-0.0035644968
110	0xbeaa469b	-0.33256993
111	0xbe8fc4b8	-0.28079772
112	0xbde87f7b	-0.1135244
113	0xbc5df17a	-0.013546342
114	0xbd215bc5	-0.03939416
115	0xbc3509c0	-0.011049688
116	0x3d0a1577	0.033711877
117	0x3db49bb6	0.08818762
118	0x3e48d821	0.19613697
119	0x3e3ae4ce	0.18251345
120	0x3d4b6e44	0.049665704
121	0x3e4c6074	0.19958669
122	0x3c5b29bc	0.0133766495
123	0x3e3a4739	0.18191232
124	0x3c4c3abe	0.012465177
125	0x3cedc3ae	0.029023971
126	0x3da21817	0.07914751
127	0xbe189b29	-0.14902939
128	0xbe00a827	-0.12564145
129	0x3d1afe1e	0.03784
130	0x3d14881b	0.036262613
131	0xbca985d7	-0.020693703
132	0xbbdc4709	-0.0067223352
133	0x3d8a447c	0.067513436
134	0x3dc48e8c	0.09597501
135	0x3d02c19f	0.031922933
136	0x3e710540	0.23537159
137	0x3dffa08f	0.12481796
138	0x3da8a041	0.08233691
139	0x3e0ae6b4	0.13564569
140	0xbe11d35c	-0.14240783
141	0xbdebd672	-0.115155116
142	0x3c06e251	0.008232669
143	0xbd7656f9	-0.060141537
144	0x3de41438	0.11136669
145	0x3cb28275	0.021790722
146	0x3e00a9db	0.12564795
147	0x3e1dbcce	0.15404055
148	0x3e6d94f0	0.23201346
149	0x3e819c92	0.25314766
150	0x3e19289a	0.14956895
151	0xbe22cfac	-0.15899533
152	0x3d253b8f	0.040340003
153	0xbd4103c9	-0.04712275
154	0xbe0e4509	-0.13893522
155	0x3e007e30	0.12548137
156	0x3e17b5c7	0.14815436
157	0xbdee1494	-0.11625019
158	0xbe078bbc	-0.13236898
159	0x3e42addc	0.19011635
160	0xbce519e0	-0.02796644
161	0x3ddc170b	0.107465826
162	0xbda0c09f	-0.078492396
163	0xbddd5f98	-0.10809249
164	0xbe544e78	-0.20733058
165	0x3e43ece8	0.19133341
166	0x3d6a8b5f	0.05726182
167	0x3d96f353	0.07370629
168	0xbe0508f2	-0.12991694
169	0xbe78e1d2	-0.24304894
170	0x3e337e1c	0.17528576
171	0x3d5bea87	0.05369046
172	0x3df096f6	0.117475435
173	0x3d805b02	0.06267358
174	0xbe70c3e8	-0.23512232
175	0xbdc1fb93	-0.09471812
176	0x3ce48339	0.027894603
177	0xbdc90022	-0.098144785
178	0xbe43ac1c	-0.19108623
179	0xbe114852	-0.14187744
180	0xbe1bb60e	-0.15206167
181	0xbe4eefa9	-0.2020861
182	0xbe1abeef	-0.15111898
183	0xbca55fcd	-0.020187283
184	0xbd3cf7eb	-0.04613487
185	0x3df86e46	0.12130408
186	0x3e69cf06	0.2283288
187	0x3d5da27a	0.054110028
188	0xbbb34710	-0.005471118
189	0x3ac17591	0.0014759769
190	0x3c0b83ce	0.008515311
191	0xbd08902e	-0.033340625
192	0xbd6777a4	-0.056510583
193	0xbc9ab2d1	-0.018884094
194	0x3e064a6f	0.13114332
195	0xbdcd2322	-0.10016467
196	0xbea631eb	-0.3245996
197	0xbe325e1f	-0.17418717
198	0xbdbfbc8d	-0.09362135
199	0xbe1fcb9d	-0.15605016
200	0x3d880caa	0.066430405
201	0xbdaba1c0	-0.08380461
202	0xbdb707e3	-0.08937051
203	0xbdfc21ac	-0.1231111
204	0xbdcaeb34	-0.09908143
205	0xbd2bfb15	-0.041987497
206	0xbdd13022	-0.10214259
207	0x3e1f63ed	0.15565462
208	0x3e844efd	0.25841513
209	0xbcc00c10	-0.023443252
210	0x3da833d8	0.082130134
211	0xbda4c78d	-0.08045874
212	0xbe5246dd	-0.20534845
213	0xbe29acd7	-0.1656984
214	0xbe6755bb	-0.22591297
215	0xbe1a4366	-0.15064773
216	0xbd6cd26a	-0.057817854
217	0x3e1f5f72	0.15563753
218	0x3e574eb8	0.21026123
219	0xbd7687e1	-0.060188178
220	0xbe33e91b	-0.17569391
221	0xbe627722	-0.22115758
222	0xbcf64450	-0.03006187
223	0x3d804129	0.06262428
224	0xbe30906a	-0.1724259
225	0xbe8821e8	-0.26588368
226	0xbeb919b2	-0.36152416
227	0xbeefea64	-0.46858513
228	0xbed87f19	-0.42284468
229	0xbf04853c	-0.517658
230	0xbe9f3d93	-0.31101665
231	0x3d675b84	0.05648376
232	0x3d3ca70c	0.046057746
233	0x3d249c9a	0.04018841
234	0xbcbccec2	-0.023047809
235	0xbdb183a0	-0.086676836
236	0xbdf791a1	-0.120883234
237	0x3df7b84b	0.12095698
238	0xbdfaed3c	-0.1225228
239	0xbec6a43f	-0.38797185
240	0xbec96645	-0.39335838
241	0xbe62dc68	-0.22154391
242	0xbdb81da9	-0.08990032
243	0x3e780395	0.24220116
244	0x3e600bd5	0.21879514
245	0xbe269b27	-0.16270123
246	0x3d7cd6e6	0.06172838
247	0xbcc1715a	-0.02361362
248	0xbd8c00dd	-0.06836102
249	0xbbbc3956	-0.0057441397
250	0xbe6727f1	-0.2257383
251	0x3d2e0c62	0.042492278
252	0x3ecaf5fe	0.39640802
253	0x3d8b578c	0.068038076
254	0x3e8fb76c	0.28069627
255	0xbd188151	-0.0372327

tcn.tcn.0.conv1.bias f4 [16]
0	0x3bd0da4f	0.0063736807
1	0xbcf16c7f	-0.02947068
2	0x3e11d47f	0.14241217
3	0xbb3418e5	-0.0027480659
4	0xbca8dd33	-0.020613289
5	0x3d89f187	0.06735521
6	0xbcc4b7fa	-0.024013508
7	0xbe247856	-0.1606153
8	0xbd9978ec	-0.07493767
9	0x3e265ce9	0.1624638
10	0x3d83c6bf	0.06434392
11	0xbd0c7901	-0.034295086
12	0x3e197708	0.14986813
13	0x3d2ec06a	0.04266397
14	0xbde57989	-0.112048216
15	0x3dd61800	0.104537964

tcn.tcn.0.conv2.weight f4 [16, 16, 1]
0	0x3e02ad98	0.12761533
1	0xbd308724	-0.04309763
2	0x3e22c08c	0.15893763
3	0x3dcbe842	0.09956409
4	0x3e79dbd2	0.24400261
5	0xbe1631d6	-0.14667448
6	0x3e274c50	0.16337705
7	0x3e841e0e	0.2580418
8	0x3e328a56	0.17435583
9	0xbd2343f2	-0.03985972
10	0xbe0c9af4	-0.13730985
11	0xbe36fb40	-0.17869282
12	0x3e46a32e	0.19398186
13	0xbcd51246	-0.02600969
14	0xbe10cf04	-0.1414147
15	0x3edda206	0.43287677
16	0x3d7c8852	0.061653443
17	0x3e2480eb	0.16064803
18	0xbd815dc6	-0.06316714
19	0x3da895c9	0.08231694
20	0x3d918219	0.07104892
21	0x3df7bf8d	0.12097082
22	0x3e558da0	0.20854807
23	0xbd84135a	-0.064490035
24	0xbd9caf68	-0.076506436
25	0x3a96f33b	0.001151658
26	0xbe2b6a81	-0.16739847
27	0xbda7e606	-0.0819817
28	0x3b895541	0.0041910713
29	0xbe560d8b	-0.20903604
30	0xbe2264be	-0.15858743
31	0x3ebfc59c	0.3745545
32	0x3d6660d3	0.056244683
33	0x3e47ee87	0.19524585
34	0xbcf47bc8	-0.02984418
35	0x3e6b492b	0.2297713
36	0xbc72e978	-0.014826171
37	0xbd5d5c4d	-0.054043103
38	0xbd85a566	-0.06525688
39	0x3de69f31	0.11260832
40	0x3d02d0cc	0.031937405
41	0x3ea78d9a	0.3272522
42	0x3e29dc35	0.16587909
43	0x3e377644	0.17916209
44	0xbde19ed3	-0.110166214
45	0x3e814f8c	0.25256002
46	0xbd2c03da	-0.04199586
47	0xbdcce739	-0.1000504
48	0x3e2c1ccb	0.16807859
49	0x3ebd0a71	0.3692203
50	0xbbcba0ef	-0.006214253
51	0x3bfad55d	0.0076548294
52	0xbc9d4abb	-0.019200673
53	0x3e6a4a21	0.2287984
54	0x3e6addd6	0.22936186
55	0x3dfbc7a0	0.12293935
56	0xbe4afca6	-0.1982294
57	0xbe763f9a	-0.240477
58	0xbdb5f599	-0.08884735
59	0xbe823a08	-0.254349
60	0x3e89dd0d	0.2692646
61	0x3db835e6	0.08994655
62	0x3daf8499	0.08570213
63	0x3e8bcddf	0.27305505
64	0x3e4c68b5	0.19961818
65	0x3e9279b6	0.28608483
66	0xbdcaf6b0	-0.09910333
67	0xbc935571	-0.017985078
68	0x3d7c9501	0.06166554
69	0x3cef5b99	0.029218482
70	0xbd81c916	-0.06337182
71	0xbefcfb63	-0.49410543
72	0xbd9390c8	-0.07205349
73	0xbec5536d	-0.3854021
74	0xbd2c8bd3	-0.042125534
75	0xbe5c4bdd	-0.21513315
76	0xbe1ff879	-0.15622129
77	0x3dd84969	0.10560877
78	0xbcc7f6a0	-0.024409592
79	0x3db88bba	0.09011026
80	0xbd110801	-0.035408024
81	0x3db6cd12	0.08925833
82	0xbb1f296c	-0.0024286164
83	0xbd485e17	-0.048917856
84	0xbe939ef3	-0.28832206
85	0x3c80d856	0.015728157
86	0xbdbe164c	-0.092815965
87	0xbecf7ea7	-0.40526316
88	0x3e46eec5	0.19427021
89	0xbec9a378	-0.3938253
90	0xbe013125	-0.12616403
91	0xbf12f970	-0.5741186
92	0xbd83f8f4	-0.064439684
93	0xbb8b0cea	-0.004243483
94	0x3e6a29f6	0.2286757
95	0x3c56d3d4	0.013112027
96	0xbdfc62cb	-0.12323531
97	0xbe60d803	-0.21957402
98	0xbe09521e	-0.13410231
99	0xbe38cc25	-0.18046625
100	0x3d9ecde4	0.07754114
101	0xbc2f4e77	-0.01069986
102	0xbd456066	-0.048187636
103	0xbde587d1	-0.112075455
104	0xbe472015	-0.19445832
105	0x3e7ca438	0.2467202
106	0xbe0b75eb	-0.13619201
107	0xbe8470ba	-0.25867254
108	0x3d44c21a	0.048036672
109	0xbea57d88	-0.32322335
110	0xbe1be8fc	-0.15225595
111	0xbd748b5b	-0.059703212
112	0xbe9d6e89	-0.30748394
113	0x3c1087aa	0.008821407
114	0x3d764aa3	0.060129773
115	0x3e310317	0.17286335
116	0xbd9b31b1	-0.07577837
117	0x3e5393ac	0.20661801
118	0x3dd097c6	0.101851985
119	0x3dc55618	0.09635562
120	0x3e8264cf	0.25467536
121	0xbd87550c	-0.06608018
122	0x3d0b6d89	0.034040008
123	0x3e0b8263	0.13623957
124	0x3eb4629b	0.3523148
125	0x3e8d69c2	0.2761975
126	0xbea5f6ea	-0.32414943
127	0xbe52da83	-0.20591168
128	0xbe63601d	-0.22204633
129	0x3df7f858	0.12107915
130	0x3e77f6b5	0.24215205
131	0x3cf98ee1	0.030463638
132	0x3d2583b3	0.0404088
133	0x3dc92953	0.09822335
134	0x3cc64f38	0.024207696
135	0x3d058717	0.032599535
136	0xbe5789f9	-0.21048726
137	0x3cca4f82	0.024696115
138	0x3daf0d9b	0.08547517
139	0xbe4e21af	-0.20130037
140	0xbdbfeb4d	-0.09371052
141	0x3d7b8049	0.06140164
142	0xbebd311e	-0.36951536
143	0x3e824ac5	0.2544767
144	0xbe05e611	-0.13076045
145	0x3e88020c	0.26564062
146	0xbd02ad2a	-0.031903423
147	0x3d7beeea	0.061507143
148	0x3e7cfaa2	0.24704984
149	0x3e8069ad	0.25080624
150	0x3dda00bf	0.106446736
151	0xbd1debcd	-0.038554955
152	0xbd6611b1	-0.056169216
153	0xbe2b9f18	-0.16759908
154	0xbdb7383f	-0.08946275
155	0x3cad0cfe	0.02112436
156	0xbe54ce59	-0.2078184
157	0x3d0ae50a	0.033909835
158	0xbeb18ed0	-0.3467927
159	0xbc5b094d	-0.013368917
160	0xbe1a9f05	-0.15099724
161	0xbd96be7c	-0.07360551
162	0x3ddb3286	0.10702996
163	0xbdb726eb	-0.0894297
164	0xbe0c9026	-0.13726863
165	0xbe01dbcb	-0.126815
166	0x3e0fe21e	0.140511
167	0x3e53ad47	0.20671569
168	0xbddd2d65	-0.10799674
169	0x3f1b44c7	0.6065182
170	0xbe41ef5c	-0.18938965
171	0x3f006161	0.5014859
172	0x3e3666d4	0.17812663
173	0x3d0caef7	0.034346547
174	0x3d880cc6	0.06643061
175	0xbe674499	-0.22584762
176	0x3d424341	0.04742742
177	0xbda40c0b	-0.080101095
178	0xbea84c87	-0.32870886
179	0x3e615e0f	0.22008537
180	0xbea12486	-0.31473178
181	0xbe66bff9	-0.2253417
182	0xbd603588	-0.05473855
183	0x3e924b36	0.28573006
184	0xbdef0a89	-0.11671931
185	0x3f1ab58c	0.6043327
186	0xbd872793	-0.06599345
187	0x3e11fd7e	0.14256856
188	0xbc911cde	-0.01771396
189	0x3db3eca2	0.087853685
190	0x3efe134c	0.49624097
191	0x3e84f85f	0.25970742
192	0xbdf6f79f	-0.12058949
193	0xbea930f6	-0.33045167
194	0x3df86c56	0.121300384
195	0xbd1e8691	-0.03870255
196	0xbe1746b2	-0.14773062
197	0xbc543858	-0.0129528865
198	0xbd9e0018	-0.07714862
199	0x3e902839	0.28155687
200	0xbd974f6b	-0.07388195
201	0x3e8ddcb4	0.27707446
202	0xbdd946a3	-0.10609176
203	0x3e972ac3	0.29524812
204	0x3e560ffc	0.20904535
205	0xbe3dea32	-0.1854637
206	0x3dca2d5f	0.09871935
207	0xbe495b7a	-0.19663802
208	0x3da52140	0.080629826
209	0x3dd2ebe0	0.10298896
210	0x3e7c4e91	0.24639346
211	0xbd96ba08	-0.073597014
212	0xbd6619ac	-0.056176826
213	0xbe7226a4	-0.23647553
214	0xbce264d3	-0.027635967
215	0x3ec4f22a	0.38466007
216	0xbd3270d8	-0.043564647
217	0x3ea89a23	0.32930097
218	0xbe57a7ff	-0.21060179
219	0x3c100b37	0.008791736
220	0x3e6f3120	0.23358583
221	0x3e34e0f4	0.17663938
222	0xbe4e802c	-0.20166081
223	0x3e942a95	0.28938738
224	0x3afc418a	0.0019245606
225	0xbdb978ea	-0.09056266
226	0xbd3391b8	-0.04384014
227	0xbe89d90b	-0.26923403
228	0xbdf5ecb4	-0.12008038
229	0x3c9816d4	0.018565573
230	0xbe36d918	-0.17856252
231	0x3eac54cc	0.33658445
232	0xbc88dd6c	-0.016707145
233	0x3f08f25d	0.53494817
234	0xbe8a3b89	-0.26998547
235	0x3e3ae330	0.18250728
236	0xbd759b68	-0.05996266
237	0xbd1a384b	-0.03765134
238	0xbe704354	-0.23463184
239	0xbde63aac	-0.112416595
240	0x3ccc1e00	0.024916649
241	0xbe8b48e5	-0.27204052
242	0xbde6196c	-0.112353176
243	0xbe5dcb76	-0.21659645
244	0x3defcffb	0.11709591
245	0xbd907918	-0.07054347
246	0xbd4eaf58	-0.05046019
247	0xbe153c19	-0.14573707
248	0x3e6903b2	0.22755316
249	0x3f31d385	0.6946338
250	0xbe8026d4	-0.25029624
251	0xbd2d07ff	-0.042243954
252	0x3d1ed046	0.038772844
253	0x3e79f3aa	0.24409357
254	0xbdba42d0	-0.09094775
255	0x3e956b0c	0.29183233

tcn.tcn.0.conv2.bias f4 [16]
0	0x3dfa5c4d	0.12224636
1	0x3d839188	0.06424242
2	0x3d98e85e	0.074661955
3	0xbd854d9d	-0.06508944
4	0x3dc6e204	0.09711078
5	0x39fc2b97	0.00048097663
6	0xbde1fc79	-0.110344835
7	0xbd5534b6	-0.052052222
8	0xbe682751	-0.22671248
9	0xbe2ba236	-0.16761097
10	0x3d889b31	0.066702254
11	0x3e037a8a	0.12839714
12	0x3e3b3118	0.18280447
13	0xbd165132	-0.036698528
14	0x3d3cbff8	0.046081513
15	0x3d3fb14d	0.046799947

tcn.tcn.0.res_conv.weight f4 [16, 16, 1]
0	0xbb420165	-0.0029602882
1	0xbe372e62	-0.17888787
2	0x3e61b803	0.22042851
3	0xbd7201ce	-0.059083752
4	0x3e3edeca	0.18639675
5	0x3ea23a0c	0.3168491
6	0xbb1b9fa7	-0.0023746283
7	0xbe1c8cb8	-0.15288055
8	0xb91adfe9	-0.00014769998
9	0x3d33c3b0	0.043887794
10	0xbe2e4fcd	-0.17022629
11	0x3e964914	0.2935263
12	0xbdc198e3	-0.09452989
13	0x3df70e1f	0.1206324
14	0x3dca05fc	0.09864423
15	0x3dba534b	0.09097918
16	0x3d9783cd	0.07398186
17	0x3e98ab00	0.29817963
18	0xbe34b059	-0.17645396
19	0x3e18487b	0.14871399
20	0x3ceefcdf	0.029173313
21	0xbe27b61c	-0.16378063
22	0x3dea4e24	0.114406854
23	0xbf017504	-0.50569177
24	0x3d88c496	0.06678121
25	0x3c826baa	0.015920479
26	0xbb9aa796	-0.004719685
27	0xbd233651	-0.039846722
28	0x3e895ccb	0.26828608
29	0xbd70401a	-0.058654882
30	0xbe430d53	-0.19048052
31	0xbe6faa5f	-0.23404835
32	0x3de3a6a5	0.11115769
33	0xbe6a2989	-0.22867407
34	0xbd9867e2	-0.07441689
35	0x3e6128ae	0.21988174
36	0x3d8829d7	0.06648605
37	0xbe86d92c	-0.26337564
38	0x3ea28c4f	0.31747672
39	0x3e515fe4	0.20446736
40	0x3b105cfa	0.0022028075
41	0x3e8fe3b8	0.28103423
42	0x3dad29a4	0.08455208
43	0xbe9f7a2d	-0.311479
44	0xbebd0b4a	-0.36922675
45	0x3e5f6f63	0.21819834
46	0x3e178658	0.14797342
47	0xbd83298c	-0.06404409
48	0x3e48326c	0.19550484
49	0xbe8e03d7	-0.27737305
50	0x3df2d5cc	0.11857185
51	0xbe4eda3b	-0.20200436
52	0xbc387306	-0.0112578925
53	0x3cdc937f	0.0269258
54	0xbd540a3a	-0.051767565
55	0x3ec396ad	0.38200894
56	0xbd9b7f68	-0.0759266
57	0x3e01489b	0.12625353
58	0x3e030321	0.12794162
59	0xbe150f36	-0.14556584
60	0x3d63f625	0.055654664
61	0x3e763805	0.24044807
62	0x3e2943c7	0.16529761
63	0xbd8abf3a	-0.06774755
64	0xbe5dc48d	-0.2165701
65	0x3e925976	0.28583878
66	0xbdbcbfa8	-0.09216243
67	0xbe860176	-0.2617299
68	0x3b59f6cd	0.0033258677
69	0x3e069a2c	0.1314475
70	0xbe773fcd	-0.24145432
71	0xbe8c7301	-0.2743149
72	0xbce6a17d	-0.028153175
73	0xbc9b5107	-0.018959535
74	0x3e7c9b7e	0.2466869
75	0xbd680664	-0.05664672
76	0x3e8d717a	0.27625638
77	0x3e1c06be	0.15236947
78	0xbd05022f	-0.032472786
79	0xbe1ceba0	-0.15324259
80	0x3e030b4e	0.12797281
81	0x3e5e2dff	0.21697234
82	0xbe60ec7f	-0.21965216
83	0xbb4edaa2	-0.003156342
84	0xbe4b21d3	-0.19837122
85	0x3e0cc3e3	0.137466
86	0xbeb0cf8a	-0.3453334
87	0xbb680e19	-0.0035408793
88	0x3dbb1e4b	0.09136637
89	0xbd2f3f4e	-0.04278498
90	0xbcdeb078	-0.027183756
91	0x3d804f25	0.062650956
92	0x3d0ebf24	0.034850255
93	0xbd614821	-0.055000428
94	0xbc19d5e5	-0.009389375
95	0x3dcbc708	0.099500716
96	0xbea6b329	-0.32558563
97	0x3e8cdc7e	0.27511972
98	0x3e2819f8	0.16416156
99	0xbe0a33c9	-0.13496317
100	0x3e425ef0	0.18981528
101	0x3e0c19b3	0.13681678
102	0xbe5122e3	-0.20423464
103	0xbe219797	-0.15780483
104	0xbdf8f4ff	-0.12156104
105	0x3e51aded	0.20476504
106	0xbe61c6b8	-0.22048461
107	0x3d19bb3f	0.037532087
108	0x3d558425	0.052127976
109	0xbeb7e0cb	-0.3591369
110	0xbe14c9ff	-0.1453018
111	0x3e186dff	0.1488571
112	0xbe558583	-0.20851712
113	0xbda77213	-0.08176055
114	0x3e416c74	0.18889028
115	0x3dcfdb84	0.10149291
116	0xbd9519a1	-0.07280279
117	0x3e63f948	0.22263062
118	0x3edfba21	0.43696693
119	0xbe58b58e	-0.21163008
120	0xbdaceade	-0.08443235
121	0xbca7db96	-0.020490449
122	0xbe7500ed	-0.23926134
123	0x3c0ec9c5	0.008715098
124	0x3d224b4e	0.039622597
125	0xbe8b1191	-0.2716184
126	0xbd2ee628	-0.042699963
127	0xbe11de11	-0.14244868
128	0xbe8966e4	-0.26836312
129	0x3a452a95	0.0007521299
130	0x3e74f3b5	0.23921092
131	0xbed99860	-0.42499065
132	0xbe9dad59	-0.30796316
133	0xbccfd3a9	-0.025369482
134	0xbe806c62	-0.2508269
135	0x3cb9f002	0.022697452
136	0xbe8cb910	-0.2748494
137	0x3f6a61ab	0.9155528
138	0x3e781c17	0.24229465
139	0x3e5f9dbd	0.21837516
140	0xbe2aa88b	-0.16665857
141	0xbe1d4ccb	-0.15361325
142	0xbe1e1a8a	-0.15439811
143	0x3e9bce88	0.30431008
144	0x3e7c5b31	0.24644162
145	0x3c96b617	0.018397374
146	0x3e05e354	0.13075
147	0xbe696fd3	-0.22796564
148	0xbdb70cec	-0.089380115
149	0xbd7ed325	-0.062213082
150	0x3e0fd189	0.14044775
151	0x3d55e8e9	0.052224074
152	0xbe09c818	-0.13455236
153	0x3eb365bd	0.35038558
154	0xbd841893	-0.0645
155	0x3e5f440e	0.21803305
156	0xbe2400a8	-0.16015875
157	0x3e82aa94	0.25520766
158	0x3d1d3053	0.038376164
159	0xbe898aa2	-0.2686358
160	0x3ddce70d	0.10786257
161	0xbe19742a	-0.1498572
162	0xbe0b0a67	-0.13578187
163	0xbe716348	-0.23573029
164	0xbdeb7190	-0.1149627
165	0xbeb95e76	-0.3620488
166	0x3e30c8d4	0.1726411
167	0x3e20e0e2	0.15710786
168	0xbe39d9de	-0.18149516
169	0x3e88b687	0.26701757
170	0xbda3376f	-0.079695575
171	0xbef12d0f	-0.4710469
172	0xbce02c2e	-0.027364817
173	0xbeeeb9fc	-0.4662627
174	0x3e9d13bd	0.30679122
175	0xbe40e688	-0.1883794
176	0xbed8e77b	-0.42364106
177	0xbe8853f7	-0.2662656
178	0xbda2635b	-0.07929107
179	0x3e0af29d	0.13569112
180	0x3c63f565	0.013913487
181	0xbe670a07	-0.22562419
182	0xbd5df6cc	-0.054190442
183	0xbe13ca02	-0.14432529
184	0x3e85b556	0.2611491
185	0xbebcc9eb	-0.368728
186	0xbdef21e9	-0.1167639
187	0xbe13646b	-0.14393775
188	0x3cddd3f3	0.027078604
189	0xbe31c86b	-0.1736161
190	0xbd020c5e	-0.031750076
191	0xbdfb63a3	-0.122748636
192	0x3e0040f2	0.12524775
193	0x3ea8801e	0.32910246
194	0x3cde5ef6	0.02714489
195	0x3d30f6a9	0.043203983
196	0xbdceb255	-0.10092608
197	0xbe096456	-0.13417181
198	0xbe84717f	-0.2586784
199	0xbe28eb9f	-0.16496132
200	0x3e736f5f	0.23772953
201	0x3dca7b83	0.09886839
202	0xbe003861	-0.12521507
203	0x3d6f8d11	0.05848414
204	0x3dde451f	0.108530276
205	0xbdcefbb7	-0.101066045
206	0xbd9bb811	-0.07603467
207	0x3e800149	0.2500098
208	0x3ec36b86	0.3816797
209	0x3e94d64e	0.29069752
210	0x3d9ef164	0.07760885
211	0x3edb5130	0.4283538
212	0xbe2bb878	-0.16769588
213	0x3df566cb	0.11982497
214	0x3e1c90df	0.15289639
215	0x3d826348	0.06366593
216	0x3c281c99	0.010260724
217	0x3e3bb35e	0.18330142
218	0xbd0ad478	-0.033894032
219	0xbe8fa667	-0.28056642
220	0x3e0bd91b	0.13657038
221	0xbdd88c5c	-0.105736464
222	0x3ddcb3ce	0.107764825
223	0xbe66aa7d	-0.22525974
224	0xbd429aa7	-0.04751077
225	0xbe2d56bc	-0.16927618
226	0xbd38fe94	-0.04516466
227	0x3e1e2d79	0.15447034
228	0xbe33a077	-0.17541681
229	0xbe08c68b	-0.13356988
230	0x3e120806	0.14260873
231	0xbc81cb7e	-0.015844103
232	0xbdf5056d	-0.119639255
233	0x3e066c85	0.13127334
234	0xbe070cd7	-0.13188492
235	0xbd25887b	-0.04041336
236	0x3df27060	0.1183784
237	0x3e238070	0.15966964
238	0x3c161d53	0.009162265
239	0x3c632226	0.013863122
240	0xbe06e2c6	-0.13172445
241	0xbd94083e	-0.072281346
242	0xbde17b12	-0.11009802
243	0xbe08a64e	-0.1334469
244	0x3e39f127	0.18158399
245	0x3e1dc7dd	0.15408273
246	0xbd78bf55	-0.060729343
247	0x3d71af94	0.059005335
248	0xbd436565	-0.04770412
249	0xbe01a1fc	-0.12659448
250	0xbe36da2d	-0.17856665
251	0xbd536ca7	-0.05161729
252	0x3df9b3fe	0.12192534
253	0x3d6c09d5	0.057626564
254	0xbe128b2e	-0.14310905
255	0x3e070534	0.13185579

tcn.tcn.0.res_conv.bias f4 [16]
0	0x3ea2c413	0.31790218
1	0xbd9852e9	-0.07437689
2	0xbe5c59f9	-0.21518697
3	0x3d2c52d5	0.042071182
4	0xbe1f7008	-0.1557008
5	0xbe4300ee	-0.19043323
6	0xbe5e5cb7	-0.21715055
7	0xbe2e70a7	-0.17035161
8	0xbd85c2f2	-0.065313235
9	0x3df6ff66	0.12060432
10	0xbd4d8619	-0.050176714
11	0x3e4f774c	0.20260352
12	0xbcf0ccf9	-0.029394614
13	0xbe969f0f	-0.29418227
14	0xbe186253	-0.14881258
15	0x3d813c9b	0.06310388

tcn.tcn.1.conv1.weight f4 [16, 16, 5]
0	0xbd5e2a30	-0.054239452
1	0xbe57cd32	-0.2107437
2	0xbe6c9b16	-0.23106036
3	0xbe67ed44	-0.22649103
4	0xbea73c9e	-0.32663435
5	0x3e83efc6	0.2576887
6	0xbec04385	-0.37551513
7	0xbde6bb70	-0.112662196
8	0xbd83574b	-0.06413134
9	0x3ed330fa	0.41248304
10	0x3d943195	0.072360195
11	0x3ecaea50	0.3963189
12	0xbdf297ac	-0.11845335
13	0xbe9110f1	-0.28333238
14	0xbe746e21	-0.23870136
15	0x3c2c73a3	0.010525617
16	0xbe03eb35	-0.12882693
17	0xbe000dee	-0.12505314
18	0xbe0a8d53	-0.13530473
19	0xbea0a50e	-0.31375927
20	0x3cb18607	0.021670355
21	0xbdeb18d1	-0.11479343
22	0x3e29409c	0.16528553
23	0x3e859fb2	0.260984
24	0x3e9b7f77	0.30370685
25	0x3d9dd382	0.077063575
26	0xbc50a71a	-0.012735153
27	0x3e8f9ce6	0.28049392
28	0x3d02536d	0.031817842
29	0x3e8d19cc	0.27558744
30	0x3e4319f7	0.19052874
31	0xbd85f3ce	-0.06540643
32	0x3e45ed88	0.19328892
33	0x3e9bff41	0.3046818
34	0x3efede0f	0.49778792
35	0xbdc6481a	-0.09681721
36	0xbe43afa2	-0.19109967
37	0xbedf7455	-0.43643442
38	0xbeb8f67c	-0.36125553
39	0xbe13acb0	-0.14421344
40	0xbe3e4381	-0.18580438
41	0x3e45e776	0.19326577
42	0x3e6e7737	0.23287664
43	0x3e0d01c5	0.13770206
44	0x3de98684	0.1140261
45	0xbe153885	-0.14572342
46	0xbd80b168	-0.062838376
47	0xbc85c7c8	-0.016330615
48	0xbe5f1888	-0.21786702
49	0xbdf7f9b5	-0.12108175
50	0x3dfd5617	0.12369936
51	0x3e64e761	0.22353889
52	0xbde0b82d	-0.10972629
53	0xbe8e733d	-0.27822295
54	0xbe29fd44	-0.1660052
55	0x3e5ffb41	0.2187319
56	0xbbfb3f5b	-0.0076674647
57	0xbe8c207b	-0.2736853
58	0x3e1b2703	0.151516
59	0xbcc735a7	-0.024317576
60	0x39189c14	0.00014553993
61	0x3e107240	0.14106083
62	0x3cf161ce	0.029465582
63	0x3dc17422	0.09445979
64	0x3e32c3e6	0.17457542
65	0x3ec89181	0.3917351
66	0x3def902c	0.116974205
67	0xbe55e86a	-0.2088944
68	0xbe28ad1a	-0.16472283
69	0x3ba76bd8	0.0051092915
70	0x3e410870	0.18850875
71	0x3ddbc2fb	0.10730549
72	0x3df232ac	0.11826071
73	0xbdcc030d	-0.099615194
74	0xbda662d6	-0.0812432
75	0x3f048835	0.51770335
76	0x3d6a0322	0.057131894
77	0x3d94d66e	0.07267462
78	0x3e7bd6d3	0.24593668
79	0x3e3e912d	0.18610068
80	0xbe804b64	-0.25057518
81	0xbe5e99aa	-0.21738306
82	0xbd22c0dd	-0.03973471
83	0xbdbd1bbf	-0.09233808
84	0xbcf2bb5d	-0.029630357
85	0xbf0e0e1d	-0.55490285
86	0x3d5cf5c5	0.05394532
87	0xbe178850	-0.14798093
88	0x3d667293	0.05626161
89	0xbe1aa59a	-0.15102234
90	0xbe9456a9	-0.28972366
91	0xbdb6be95	-0.089230694
92	0xbea68b83	-0.32528314
93	0xbe78f0b0	-0.24310565
94	0xbeafc272	-0.34328038
95	0x3ddfc1b5	0.109256186
96	0xbec7ad05	-0.3899919
97	0xbeafa6b0	-0.3430686
98	0xbe6bdb6b	-0.2303292
99	0xbdf236c9	-0.11826856
100	0x3eb1ac2a	0.34701663
101	0x3ce22bc1	0.027608754
102	0xbdd639b5	-0.104602255
103	0x3e0dc8b9	0.13846101
104	0x3ea6aee7	0.32555315
105	0x3e991b68	0.29903722
106	0xbe02d99e	-0.12778327
107	0xbec61941	-0.38691142
108	0xbd490749	-0.049079213
109	0x3f077acf	0.52921766
110	0x3da13bc0	0.078727245
111	0x3dca35a5	0.09873513
112	0x3e76a7c1	0.2408743
113	0x3ec2156e	0.37906975
114	0x3ec01e60	0.37523174
115	0xbeafe478	-0.34353995
116	0xbb2e2dd1	-0.0026577602
117	0xbe6983ba	-0.22804156
118	0xbdbb977e	-0.09159754
119	0xbbd04534	-0.006355906
120	0xbe2f326d	-0.1710908
121	0xbbaa8eb3	-0.0052049994
122	0xbedcf0c5	-0.43152443
123	0xbe6fe682	-0.23427776
124	0x3e52b1ae	0.20575592
125	0x3d333286	0.043749355
126	0xbdcb7e1a	-0.09936161
127	0xbe1cb55d	-0.1530356
128	0xbd0294f1	-0.031880323
129	0xbd6f979e	-0.058494203
130	0xbe50a7d7	-0.20376526
131	0xbe413e4f	-0.18871425
132	0x3dfc5e7a	0.123227075
133	0xbc97b536	-0.018519025
134	0xbd972ad0	-0.07381213
135	0x3d054553	0.032536816
136	0x3e79a62d	0.24379797
137	0x3eba0ad4	0.36336386
138	0x3dbf519c	0.09341738
139	0xbe4cb751	-0.19991805
140	0xbdda20e9	-0.10650808
141	0xbd6995e3	-0.05702771
142	0x3e9c33ac	0.30508173
143	0xbdcef2b3	-0.10104885
144	0xbd5407e3	-0.051765334
145	0xbe8ccac8	-0.2749846
146	0xbe2baa78	-0.16764247
147	0xbe567a41	-0.20945074
148	0xbe1c3e2a	-0.15258089
149	0xbdb16ddc	-0.08663532
150	0xbc69e1f1	-0.01427506
151	0x3d8a7fd3	0.06762662
152	0x3e6ba3d6	0.23011717
153	0xbda26b93	-0.079306744
154	0x3cf65ebd	0.030074472
155	0x3d40844e	0.047001176
156	0x3e39104d	0.18072625
157	0x3db5c100	0.088747025
158	0x3de2d2d7	0.11075371
159	0x3e00e7c0	0.12588406
160	0x3e17351b	0.14766352
161	0xbd40d201	-0.047075275
162	0xbd90fb11	-0.07079137
163	0x3db6e9d3	0.08931317
164	0xbe22dab7	-0.15903746
165	0x3d38b5d9	0.0450953
166	0xbe08ad89	-0.13347448
167	0x3eb23c1a	0.3481148
168	0x3bbea6cc	0.0058182236
169	0x3f66ae7b	0.90109986
170	0xbdb1d030	-0.08682287
171	0xbe173fb1	-0.1477039
172	0xbd9a915d	-0.07547257
173	0xbe41ccc4	-0.18925768
174	0xbe1e12d3	-0.15436868
175	0xbe408db3	-0.18804054
176	0xbe5cb819	-0.21554603
177	0xbe331543	-0.1748858
178	0x3dcc3f24	0.099729806
179	0x3c9c30c8	0.01906623
180	0x3c903a4b	0.017605921
181	0xbd47843a	-0.048710085
182	0xbe34c14a	-0.17651859
183	0x3e70471b	0.23464625
184	0x3e464d90	0.19365525
185	0xbdf0f912	-0.117662564
186	0xbdb35e3f	-0.087582104
187	0x3d39a53c	0.045323595
188	0x3da199ca	0.07890661
189	0x3e7bab70	0.24577117
190	0x3edc5a24	0.43037522
191	0x3d12ee18	0.035871595
192	0x3d8d2e2e	0.06893574
193	0xbd37fccb	-0.044918817
194	0x3dd73def	0.1050986
195	0xbe2e0506	-0.16994104
196	0x3dbe95cc	0.09305915
197	0x3d83e227	0.064396195
198	0xbcd5e3d5	-0.026109615
199	0xbd93119a	-0.071810916
200	0x3e655bd2	0.22398308
201	0xbda4e337	-0.0805115
202	0xbe357960	-0.17722082
203	0xbd36d91a	-0.044640638
204	0x3e4e4101	0.20141985
205	0xbe100695	-0.14065011
206	0x3d340519	0.043950174
207	0xbe7e049b	-0.24806444
208	0xbe822b62	-0.25423723
209	0x3e542c88	0.20720112
210	0x3ea1603d	0.31518736
211	0x3e39625f	0.18103932
212	0x3cd0de7c	0.025496714
213	0xbd85ec07	-0.06539159
214	0xbea3049e	-0.3183946
215	0x3ea141eb	0.31495604
216	0x3dfdff1f	0.12402176
217	0x3d11de5f	0.03561246
218	0xbd2fd55a	-0.042928077
219	0xbdd0d982	-0.10197736
220	0x3e3bf87d	0.1835651
221	0xbe076215	-0.13221009
222	0x3e0ba25f	0.13636158
223	0x3e5feab7	0.2186688
224	0xbd2d2c9a	-0.042278863
225	0xbbcdb5be	-0.006277769
226	0xbe110804	-0.14163214
227	0x3d954cfd	0.07290075
228	0xbc29c66d	-0.01036225
229	0xbda43ec6	-0.080197856
230	0x3e462ed0	0.19353795
231	0xbdcca4f4	-0.099924
232	0x3dcd3d1a	0.1002142
233	0xbd675fd2	-0.056487866
234	0xbe2b4540	-0.16725636
235	0x3eb1d51b	0.347329
236	0xbd987a13	-0.07445159
237	0x3dbe55d2	0.09293713
238	0x3d8e44fb	0.06946751
239	0xbe26a3bd	-0.16273399
240	0xbd25de0f	-0.040494975
241	0xbe87d405	-0.26528946
242	0x3e4b997f	0.19882773
243	0x3e294ff3	0.16534404
244	0xbe074234	-0.13208848
245	0x3ddc149f	0.10746121
246	0xbda27ae1	-0.079335935
247	0xbdf7f412	-0.121070996
248	0xbe3d974f	-0.18514751
249	0xbe0b15d6	-0.13582548
250	0x3c398a43	0.011324468
251	0x3eafa6bb	0.34306893
252	0x3d86b46a	0.0657738
253	0xbe3b7174	-0.18304998
254	0x3d96f1ef	0.07370364
255	0x3d8c4164	0.0684841

tcn.tcn.1.conv1.bias f4 [16]
0	0xbe7efc50	-0.24900937
1	0xbe8afd02	-0.27146155
2	0x3c27e667	0.010247803
3	0x3e511733	0.20419006
4	0xbeb175cc	-0.34660184
5	0xbe92b90a	-0.286568
6	0x3c87f5b4	0.016596653
7	0xbc44ccfb	-0.012011762
8	0xbe3052da	-0.17219105
9	0xbec7ffd2	-0.39062363
10	0xbe7fe955	-0.24991353
11	0x3dcc3af4	0.09972182
12	0xbe8f3823	-0.27972516
13	0x3e2fa4d9	0.17152728
14	0xbdb7dd79	-0.089777894
15	0x3d5f16ec	0.05446522
