checkpoints/fine_tune/var_rf/giantsteps/0.1/model_rural-sponge-197_finetune_finetune_HAI_GTZ/it_6622_loss_2.7755_acc10.8_acc20.8.pt (torch, 436414 bytes, 211 tensors)

conv1.weight f4 [16, 1, 3, 3]
0.2613898 -0.09250058 -0.3600278 0.3192265 -0.15423942 -0.3969495 0.28582647 0.27052894
-0.21035922 0.11583723 -0.57506335 -0.5095376 0.36061054 -0.17501786 0.19938648 0.20197135
0.23731816 0.13261594 -0.16602536 0.50972337 0.32590562 -0.14038302 0.41420785 0.13663729
-0.57313174 0.009106172 -0.35435173 -0.30313608 -0.10966725 0.37201193 -0.36396107 0.10126695
0.21383515 0.43048036 0.09773332 -0.49277118 -0.2915467 -0.2706767 -0.24450716 -0.084778115
0.26819408 0.34946725 -0.05398453 -0.06633718 -0.2334811 -0.083379604 0.09294123 -0.040359575
-0.85912347 0.30648726 0.505066 -0.26948938 0.30345368 -0.036452092 0.36381406 0.078906804
-0.0076946607 -0.22571753 0.081248514 -0.46731082 -0.11452794 0.1349367 -0.23228924 0.03169214
0.061501592 0.31353104 -0.5799016 -0.28403464 -0.25791603 0.16700517 -0.008804041 0.5865394
-0.42955616 0.046304863 -0.34555167 -0.37790355 0.4129698 0.39748302 -0.17873585 0.40693283
0.13789026 -0.7263707 0.075925924 0.55464095 -0.029530596 -0.22216707 0.23032604 -0.34053004
0.018696003 0.3385063 -0.5726885 0.0748167 0.46291316 -0.28787038 -0.17033298 0.42090428
0.14183167 -0.06101528 0.031163322 0.23308949 0.48351324 -0.09375503 0.28818327 0.42377314
-0.14566532 0.3409133 0.06784474 -0.11384773 0.22437875 0.1997434 0.070959106 -0.29454684
-0.30065963 -0.54526544 0.25669685 0.32169843 -0.13707383 0.04721152 -0.20824406 -0.37324253
0.5422407 0.50057244 0.32448298 -0.26440224 0.09238784 -0.5910518 0.42214134 0.23921786
-0.10402871 0.46057564 -0.24539225 -0.0011757992 0.20135796 -0.3205372 -0.49020943 -0.21566878
-0.07932262 0.3332519 -0.113448784 0.115269214 0.48162153 -0.5563076 -0.28115565 0.4778579
00000000: e2d4 853e f270 bdbd 9055 b8be a871 a33e
00000010: f0f0 1dbe f73c cbbe d957 923e c582 8a3e
00000020: 6868 57be 123c ed3d 5a37 13bf 0e71 02bf
00000030: f2a1 b83e e237 33be f82b 4c3e 94d1 4e3e
00000040: 8803 733e 79cc 073e 8d02 2abe 3b7d 023f
00000050: 1add a63e 91c0 0fbe 0d13 d43e a5ea 0b3e
00000060: c3b8 12bf 0e32 153c 976d b5be a734 9bbe
00000070: 3999 e0bd 5978 be3e 1b59 babe 0c65 cf3d
00000080: 9af7 5a3e ec67 dc3e 6828 c83d 814c fcbe
00000090: 9c45 95be 2396 8abe 1660 7abe 26a0 adbd
000000a0: bc50 893e 5fed b23e e21e 5dbd cadb 87bd
000000b0: ab15 6fbe edc2 aabd f957 be3d 1550 25bd
000000c0: 84ef 5bbf e6eb 9c3e 014c 013f 83fa 89be
000000d0: 485e 9b3e ca4e 15bd d645 ba3e e499 a13d
000000e0: 7e23 fcbb 7f22 67be 9f65 a63d 5d43 efbe
000000f0: a08d eabd d92c 0a3e 3bdd 6dbe 9ecf 013d
00000100: 18e9 7b3d 2487 a03e 6e74 14bf fd6c 91be
00000110: 920d 84be 6703 2b3e d33e 10bc 7227 163f
00000120: c9ee dbbe 2baa 3d3d 26ec b0be 937c c1be
00000130: c770 d33e e582 cb3e 8806 37be 8059 d03e
00000140: 1b33 0d3e 6ef3 39bf 0d7f 9b3d f3fc 0d3f
00000150: 26ea f1bc c47f 63be 97da 6b3e f459 aebe
00000160: 5c28 993c b350 ad3e b79b 12bf 7f39 993d
00000170: f402 ed3e bf63 93be c56b 2ebe c480 d73e
00000180: 523c 113e 29eb 79bd 394a ff3c 03af 6e3e
00000190: 0c8f f73e a302 c0bd c28c 933e cbf8 d83e
000001a0: 4a29 15be 308c ae3e 2ff2 8a3d 0029 e9bd
000001b0: 8bc3 653e 8989 4c3e 0253 913d d8ce 96be
000001c0: 0ff0 99be 8496 0bbf c56d 833e a8b5 a43e
000001d0: 155d 0cbe de60 413d ee3d 55be a519 bfbe
000001e0: 49d0 0a3f 8425 003f a222 a63e bb5f 87be
000001f0: d635 bd3d 2c4f 17bf e922 d83e 87f5 743e
00000200: 010d d5bd 92d0 eb3e 1b48 7bbe 461d 9aba
00000210: c830 4e3e 741d a4be bbfc fabe 47d8 5cbe
00000220: e673 a2bd fe9f aa3e d657 e8bd 4412 ec3d
00000230: 1997 f63e 2d6a 0ebf a2f3 8fbe caa9 f43e

conv1.bias f4 [16]
-0.057213664 -0.031709474 -0.097331524 -0.045863412 -0.17051527 -0.102875695 0.057071596 -0.06926964
-0.055359233 0.025330758 -0.03130941 -0.22232667 0.004721252 -0.10999816 -0.07750276 -0.058595285
00000000: e058 6abd cbe1 01bd c055 c7bd 46db 3bbd
00000010: 8e9b 2ebe 7eb0 d2bd e8c3 693d 3edd 8dbd
00000020: 5dc0 62bd 7382 cf3c 4c3e 00bd 9aa9 63be
00000030: bbb4 9a3b b746 e1bd c4b9 9ebd 9c01 70bd

conv2.weight f4 [16, 16, 3, 3]
-0.15254325 -0.0013246462 -0.12719047 -0.15052107 -0.08587161 -0.106851354 -0.067400016 0.12764877
0.1276742 0.046025142 -0.029495202 -0.0024621827 -0.13141583 0.00023811581 -0.13345951 -0.11402444
0.0019268484 -0.24589689 0.0072152596 -0.29203627 0.0033489182 0.2708842 -0.27887705 -0.08985285
0.35266677 -0.19764203 -0.15121672 -0.0451047 0.26126286 0.43420666 -0.13129686 0.051336695
0.31302866 0.3858685 0.44769073 0.4721286 0.011294051 0.0021555908 -0.17352706 -0.1716828
-0.24029312 -0.32763487 -0.10109291 -0.30489653 -0.24424139 0.44539526 0.13152394 0.66936207
0.26790622 -0.23062314 0.122343265 0.5253978 0.04556598 0.35165918 0.09958903 -0.13499153
-0.18157347 -0.050017074 -0.14329173 -0.26368177 -0.046797477 -0.09478458 -0.060091406 0.31363842
0.20475459 0.0504969 0.19692126 -0.15181337 -0.3960887 -0.07341773 -0.105952345 -0.4108488
0.29133192 -0.03982252 0.1479257 0.26847383 -0.22620326 -0.23525664 0.21959536 -0.12095684
-0.34751317 0.07576664 0.28492478 0.36369252 0.24580891 0.31372708 0.32820034 0.3037923
0.13521352 0.22116911 0.1039798 0.07468359 0.24024197 0.0042981305 -0.11257792 0.01329729
0.098978296 -0.011738808 0.008783611 -0.19799553 -0.21680935 -0.16576447 -0.17716636 -0.20243679
-0.18436638 -0.08709663 -0.0070459913 -0.13183977 -0.055827353 -0.06751916 -0.19178826 -0.15447791
-0.16415048 -0.22344099 -0.060555592 0.0053478614 -0.10167329 -0.04100908 -0.18706094 -0.18323365
0.03310715 -0.18112579 -0.27199107 -0.21686415 -0.19595379 -0.36820987 -0.44685072 -0.44765005
-0.25868824 -0.26344982 -0.0063443854 0.19340554 -0.0177784 0.24686514 0.14385164 0.13144569
0.123835295 0.38528013 0.015546872 -0.031250212 0.08698539 0.1264608 -0.13606095 -0.022949222
0.20884518 0.07463757 0.19882819 0.0662639 0.182872 0.14801478 -0.014908075 0.087405935
0.05113157 0.2937671 -0.09823389 0.3052343 -0.0072387196 -0.16048269 0.0817783 0.2037141
-0.13655435 0.044105235 0.0711746 0.8425195 0.28660163 -0.697871 0.037377037 -0.21273327
-0.7677083 0.039128862 -0.3443203 -0.42801946 -0.28877863 -0.03923267 -0.011814843 0.11007784
0.22195412 -0.0462175 -0.006629179 0.06814157 0.1747251 0.20697826 0.20184515 0.041561823
0.10219797 -0.016026255 0.02516271 0.07895187 -0.010845755 -0.46486473 0.1967045 -0.08083591
-0.4431086 0.062357478 -0.11846357 -0.51507795 0.24615957 -0.01317572 0.068727516 0.23235984
0.01805207 0.11439701 0.12994291 0.12342054 0.04043909 0.13881288 0.12042957 0.3247432
0.08919768 -0.08556518 0.0049436954 -0.069220684 -0.09251334 -0.054352764 -0.08273863 -0.35680935
-0.4734985 0.064783275 -0.27989128 -0.4169044 0.008960667 -0.22435802 -0.47181007 0.2940353
0.112544954 -0.08510242 -0.15330805 -0.10369879 -0.16141808 -0.13654655 0.07277786 -0.17564286
0.058370426 0.05768267 0.14515598 -0.19513223 -0.01886178 -0.09542581 -0.047330875 -0.07994734
-0.054591663 -0.18690102 0.026823891 -0.0660329 0.12166554 0.37622046 0.01229873 0.040873185
0.22631705 0.09150383 0.19625778 0.33160356 0.15418936 0.011701903 -0.010705079 -0.007365466
00000000: 4c34 1cbe c09f adba 383e 02be 3222 1abe
00000010: 74dd afbd e2d4 dabd 0509 8abd 5cb6 023e
00000020: 07bd 023e dc84 3c3d ec9f f1bc 925c 21bb
00000030: df91 06be baae 7939 9ca9 08be a585 e9bd
00000040: 4e8e fc3a 65cc 7bbe fc6d ec3b c785 95be
00000050: 8679 5b3b 55b1 8a3e f9c8 8ebe c504 b8bd
00000060: bd90 b43e ac62 4abe 8ed8 1abe b5bf 38bd
00000070: 3fc4 853e 5650 de3e af72 06be 6d46 523d
00000080: 4b45 a03e 8e90 c53e b837 e53e d7ba f13e
00000090: af0a 393c d044 0d3b 14b1 31be 9ecd 2fbe
000000a0: 660f 76be c2bf a7be cd09 cfbd 661b 9cbe
000000b0: 6a1a 7abe d90a e43e 36ae 063e 505b 2b3f
000000c0: 012b 893e 7928 6cbe 1b8f fa3d 7880 063f
000000d0: 65a3 3a3d ac0c b43e 55f5 cb3d 383b 0abe
000000e0: 65ee 39be b4de 4cbd 11bb 12be 4c01 87be
000000f0: b6ae 3fbd 6b1e c2bd 6822 76bd 3795 a03e
00000100: 30ab 513e d6d5 4e3d baa5 493e f774 1bbe
00000110: 23cc cabe 095c 96bd 8bfd d8bd c65a d2be
00000120: 7529 953e f01c 23bd d679 173e 6775 893e
00000130: d4a1 67be 1ee7 70be 9bdd 603e 38b8 f7bd
00000140: 3fed b1be 8a2b 9b3d a9e1 913e e835 ba3e
00000150: 55b5 7b3e d6a0 a03e e009 a83e aa8a 9b3e
00000160: 6a75 0a3e 287a 623e 5df3 d43d b6f3 983d
00000170: fe01 763e 55d7 8c3b 418f e6bd e0dc 593c
00000180: 22b5 ca3d 2154 40bc 22e9 0f3c 57bf 4abe
00000190: 4503 5ebe 29be 29be 196b 35be 974b 4fbe
000001a0: 8aca 3cbe b85f b2bd 0fe2 e6bb 0101 07be
000001b0: 39ab 64bd 7c47 8abd 2464 44be 752f 1ebe
000001c0: 1017 28be b7cd 64be 2409 78bd 1d3d af3b
000001d0: 163a d0bd 23f9 27bd e78c 3fbe 9aa1 3bbe
000001e0: 5d9b 073d 0a79 39be 6a42 8bbe a311 5ebe
000001f0: 1ca8 48be 0186 bcbe 9ec9 e4be 6332 e5be
00000200: c972 84be e5e2 86be 90e4 cfbb 1a0c 463e
00000210: 02a4 91bc 37ca 7c3e d84d 133e b399 063e
00000220: 5c9d fd3d 7043 c53e 4fb8 7e3c 3900 00bd
00000230: 6525 b23d f17e 013e 9053 0bbe 0200 bcbc
00000240: 83db 553e 95db 983d 9e99 4b3e 5eb5 873d
00000250: cc42 3b3e 3091 173e 0041 74bc e201 b33d
00000260: 566f 513d a468 963e da2e c9bd ac47 9c3e
00000270: c832 edbb 9355 24be 627b a73d 6e9a 503e
00000280: e7d4 0bbe b1a7 343d fdc3 913d 5caf 573f
00000290: 73bd 923e ada7 32bf aa18 193d c0d6 59be
000002a0: 8888 44bf 9645 203d c04a b0be 5e25 dbbe
000002b0: cbda 93be 70b2 20bd 0b93 41bc 7e70 e13d
000002c0: f147 633e 904e 3dbd 9639 d9bb cf8d 8b3d
000002d0: 23eb 323e 1cf2 533e 7fb0 4e3e bb3c 2a3d
000002e0: 2b4d d13d 7e49 83bc 0722 ce3c 85b1 a13d
000002f0: 65b2 31bc c002 eebe e86c 493e 4c8d a5bd
00000300: 21df e2be 8e6a 7f3d 079d f2bd 26dc 03bf
00000310: 4111 7c3e fade 57bc 03c1 8c3d bdef 6d3e
00000320: efe1 933c fb48 ea3d c10f 053e e8c3 fc3d
00000330: 76a3 253d f724 0e3e c7a3 f63d be44 a63e
00000340: 46ad b63d cc3c afbd b9fe a13b 93c3 8dbd
00000350: a277 bdbd 01a1 5ebd df72 a9bd b7af b6be
00000360: 656e f2be 18ad 843d e94d 8fbe 7e74 d5be
00000370: c3cf 123c 1cbe 65be 1791 f1be cb8b 963e
00000380: f87d e63d 2d4a aebd c9fc 1cbe 0860 d4bd
00000390: c84a 25be dcd2 0bbe 8f0c 953d b9db 33be
000003a0: d415 6f3d aa44 6c3d c5a3 143e bed0 47be
000003b0: 0584 9abc 9b6e c3bd 05de 41bd 6ebb a3bd
000003c0: 829b 5fbd fb62 3fbe c7bd db3c 423c 87bd
000003d0: c82b f93d f89f c03e 9d80 493c a46a 273d
000003e0: a8bf 673e 5c66 bb3d cdf7 483e f1c7 a93e
000003f0: d1e3 1d3e 57b9 3f3c 5b64 2fbc 025a f1bb

conv2.bias f4 [16]
-0.017674973 -0.1554074 0.051614713 -0.0681621 -0.17526713 -0.15348925 -0.28460974 -0.15636331
-0.096785925 -0.22827 -0.10484255 0.02777992 -0.041330878 -0.13018052 -0.019414132 -0.1760945
00000000: 1bcb 90bc 1e23 1fbe f369 533d 9298 8bbd
00000010: 3a79 33be 492c 1dbe 5eb8 91be b41d 20be
00000020: b337 c6bd 9cbf 69be b1b7 d6bd b792 e33c
00000030: 914a 29bd 0b4e 05be 630a 9fbc 1e52 34be

conv3.weight f4 [16, 16, 8, 1]
-0.3789577 -0.22640438 -0.2545478 -0.03649149 -0.1403096 -0.47352344 -0.28593734 0.20316532
0.28866258 0.16387343 0.28239447 0.080496 0.2069677 0.40421045 -0.08660413 -0.5884144
0.39943206 0.18547173 -0.055021524 0.4156825 -0.05925958 0.14616753 -0.3002655 -0.08891113
-0.56422305 -0.22115609 0.033944868 0.048911106 0.21718758 -0.16185611 0.035092425 0.027430842
0.20455885 0.11674895 0.0895225 0.23370257 0.053634457 0.059812006 0.024257345 0.124076344
-0.34057516 -0.020001177 0.17072245 0.26843998 -0.008686736 0.14749666 -0.4593451 -0.096329905
-0.005071609 0.26981962 0.23542744 0.13216278 0.223896 0.11266703 -0.15545115 -0.03793517
0.2546059 0.066799805 0.027898893 -0.041232936 -0.07116523 -0.1946591 0.105445445 -0.121528514
-0.21623085 -0.07523854 0.15104099 0.117644355 -0.17973277 -0.14203696 0.6777916 -0.017577447
0.23701048 -0.0618742 0.12483831 -0.041422915 0.026899444 0.29062116 -0.35200298 0.07679808
-0.06808685 0.031253107 -0.1516621 -0.19515806 -0.24255328 -0.25644526 0.14999183 0.018051818
-0.47274393 -0.29023165 -0.043152764 0.018503448 0.30629012 -0.26504663 -0.47638515 0.21129477
-0.4791695 -0.22624518 -0.32276988 -0.19548453 -0.20264693 -0.6145868 -0.10472824 0.32396126
0.25010014 0.29166964 0.27100724 0.17681657 -0.016199568 0.2842333 0.51209456 -0.5051948
-0.19330533 0.16805425 0.1082866 0.22910525 0.13215463 -0.083436035 -0.19319674 0.16362345
-0.544216 -0.32105342 -0.12070705 -0.07889489 -0.016826782 -0.07059765 -0.003582816 0.12852679
-0.65436685 -0.41414887 -0.37014645 -0.1118731 0.10303598 0.04548418 0.5659805 0.05509017
0.042366836 0.15277237 0.18704914 0.16204436 0.14638011 0.353221 -0.22365782 -0.16399825
-0.12650847 -0.11246684 -0.26304403 0.3407087 0.020763932 0.29326695 -0.109208785 -0.069611825
0.4113293 0.26260835 -0.3762818 -0.14337528 0.012687058 -0.30057895 -0.15183355 -0.36702684
-0.48270062 -0.13061629 -0.08036221 -0.0049871327 -0.12742855 0.2726598 -0.048813015 -0.057493772
0.17869991 -0.021796033 -0.20252757 -0.4599555 -0.09281023 0.07428705 -0.30791086 -0.19049487
0.10506916 0.19356592 -0.018381082 -0.21000266 0.00029373963 -0.23083338 -0.053116683 0.01003457
-0.2296173 -0.0748833 -0.3160657 0.19250113 0.1131862 0.22587752 0.36349595 -0.0861
-0.21823435 0.070913866 -0.053469025 0.032866567 0.08131359 0.12214563 0.7299261 -0.22912268
-0.07473287 -0.0664396 0.14642486 -0.011834309 0.06497188 0.40724465 -0.25397855 0.25388244
0.18966405 -0.029992815 -0.03479499 0.09574308 -0.11829745 -0.14155182 0.45301956 -0.32507557
0.09646761 0.095106 0.16334979 0.07386082 0.077669136 -0.003386789 -0.08449296 0.12774836
-0.17257726 -0.17837735 -0.19337845 -0.08391117 -0.110213265 0.033490058 0.29987884 0.16024104
-0.056530748 0.10761609 0.053772192 0.1802543 0.08907893 -0.11547382 0.28326857 -0.275921
0.21050091 0.10872094 -0.11611259 0.13420597 0.15750702 -0.26465863 -0.5168128 0.18166608
0.10372356 -0.028924208 0.08547439 -0.04816456 -0.2175104 -0.021472761 0.12584744 0.28045908
00000000: be06 c2be 8dd6 67be 1754 82be 1a78 15bd
00000010: 52ad 0fbe aa71 f2be 6166 92be 920a 503e
00000020: 95cb 933e 70ce 273e 0296 903e 16db a43d
00000030: 57ef 533e acf4 ce3e 825d b1bd 53a2 16bf
00000040: 5c82 cc3e 4dec 3d3e 405e 61bd 56d4 d43e
00000050: 2cba 72bd f1ac 153e 66bc 99be 0a17 b6bd
00000060: ec70 10bf be76 62be c609 0b3d 0357 483d
00000070: 6c66 5e3e 9cbd 25be 13bd 0f3d a5b6 e03c
00000080: e077 513e 131a ef3d 9357 b73d ba4f 6f3e
00000090: ceaf 5b3d 6ffd 743d 57b7 c63c bd1b fe3d
000000a0: de5f aebe 82d9 a3bc ded1 2e3e f770 893e
000000b0: d052 0ebc 5d09 173e 482f ebbe 9d48 c5bd
000000c0: bd2f a6bb cc25 8a3e e413 713e ae55 073e
000000d0: fe44 653e f9bd e63d 962e 1fbe e961 1bbd
000000e0: b45b 823e 56ce 883d 388c e43c dee3 28bd
000000f0: 13bf 91bd b754 47be c8f3 d73d f1e3 f8bd
00000100: 9f6b 5dbe aa16 9abd 7daa 1a3e 86ef f03d
00000110: de0b 38be 2372 11be c083 2d3f 94fe 8fbc
00000120: e0b2 723e cd6f 7dbd 3aab ff3d 13ab 29bd
00000130: 395c dc3c 4ccc 943e bc39 b4be 5048 9d3d
00000140: 1e71 8bbd 4203 003d 4f4d 1bbe 84d7 47be
00000150: e35f 78be cb4c 83be 7597 193e 68e1 933c
00000160: 7e0b f2be 3e99 94be f4c0 30bd 8b94 973c
00000170: 0fd2 9c3e 31b4 87be c1e8 f3be a85d 583e
00000180: b455 f5be d1ac 67be 1842 a5be 192d 48be
00000190: ad82 4fbe 8f55 1dbf c27b d6bd 40de a53e
000001a0: 200d 803e b955 953e 76c1 8a3e 670f 353e
000001b0: f5b4 84bc 0787 913e a118 033f 7254 01bf
000001c0: d5f1 45be 6a16 2c3e 5dc5 dd3d 919a 6a3e
000001d0: 8b53 073e 83e0 aabd 5ed5 45be e88c 273e
000001e0: bd51 0bbf 1d61 a4be 4235 f7bd a593 a1bd
000001f0: 52d8 89bc 8095 90bd aecd 6abb 879c 033e
00000200: 9684 27bf 520b d4be d683 bdbe b91d e5bd
00000210: 8704 d33d 9f4d 3a3d 19e4 103f 3ba6 613d
00000220: d988 2d3d 5c70 1c3e cf89 3f3e f5ee 253e
00000230: abe4 153e 62d9 b43e 8e06 65be 28ef 27be
00000240: 708b 01be 0455 e6bd b5ad 86be 5f71 ae3e
00000250: 1f19 aa3c 1627 963e dba8 dfbd a590 8ebd
00000260: c199 d23e 9a74 863e 02a8 c0be f8d0 12be
00000270: 61dd 4f3c 7ce5 99be 417a 1bbe f1ea bbbe
00000280: 8924 f7be 47c0 05be f194 a4bd 1a6b a3bb
00000290: a17c 02be 119a 8b3e 28f0 47bd 977e 6bbd
000002a0: 1cfd 363e 988d b2bc 6363 4fbe 4a7f ebbe
000002b0: 4a13 bebd cf23 983d 7ea6 9dbe 1611 43be
000002c0: 802e d73d 2536 463e ec93 96bc f00a 57be
000002d0: 1101 9a39 965f 6cbe e190 59bd 0968 243c
000002e0: cc20 6bbe 6a5c 99bd 5dd3 a1be 041f 453e
000002f0: 2bce e73d 704c 673e 241c ba3e 3255 b0bd
00000300: d378 5fbe 4a3b 913d 5602 5bbd 189f 063d
00000310: bd87 a63d 7d27 fa3d 70dc 3a3f 239f 6abe
00000320: 8c0d 99bd 7c11 88bd 66f0 153e b1e4 41bc
00000330: fa0f 853d 5f82 d03e 7a09 82be e1fc 813e
00000340: 4b37 423e 7eb3 f5bc 3185 0ebd f314 c43d
00000350: ef45 f2bd f6f2 10be 2ef2 e73e 4e70 a6be
00000360: cf90 c53d efc6 c23d 2b45 273e 5744 973d
00000370: ff10 9f3d e4f4 5dbb a50a adbd 77d0 023e
00000380: 18b8 30be 8da8 36be 0005 46be 9fd9 abbd
00000390: 7eb7 e1bd df2c 093d b889 993e 3a16 243e
000003a0: c98c 67bd d365 dc3d 3b40 5c3d 9594 383e
000003b0: 046f b63d 8a7d ecbd 9408 913e 8445 8dbe
000003c0: 8d8d 573e 16a9 de3d 70cc edbd 4a6d 093e
000003d0: 8549 213e 5681 87be d84d 04bf ac06 3a3e
000003e0: 056d d43d 76f2 ecbc 320d af3d 3448 45bd
000003f0: 0cbb 5ebe a5e7 afbc 27de 003e 5598 8f3e

conv3.bias f4 [16]
-0.20501657 -0.016749345 -0.09332711 -0.021297893 -0.083354905 0.15229367 0.15731491 -0.034425214
-0.18876003 -0.57900584 0.24782933 0.36012042 -0.11900091 -0.028672524 0.325041 -0.11732554
00000000: ddef 51be ec35 89bc 4922 bfbd eb78 aebc
00000010: fab5 aabd dff2 1b3e 2917 213e 7401 0dbd
00000020: 4f4a 41be ba39 14bf f9c6 7d3e b461 b83e
00000030: c0b6 f3bd a4e2 eabc c66b a63e 5f48 f0bd

tcn.tcn.0.conv1.weight f4 [16, 16, 5]
0.17492266 0.20220007 0.19108053 0.10883536 -0.015102085 0.22617076 0.045577064 0.04879556
-0.041691266 -0.35780188 0.29925385 0.163078 0.22945985 -0.16992585 -0.21985653 0.29899582
0.2191093 0.16055742 0.014640469 0.07925054 0.35309368 0.072180994 0.2729641 0.13305697
0.035070598 -0.058581166 0.25867733 0.3327457 0.09284291 0.2276038 0.008263317 0.03466378
-0.14902134 -0.30546618 -0.25339177 -0.08358251 -0.19666107 -0.20534505 -0.1218757 -0.29281226
-0.11709495 -0.05131087 -0.09139021 0.07378445 0.39904153 0.05005423 0.0053633023 -0.0918241
-0.25132698 -0.080506995 -0.45858002 -0.2828531 -0.44068292 -0.624083 -0.48928484 -0.09627949
-0.07564428 0.035407443 -0.106400035 -0.17577024 0.13856174 0.0026046622 0.124446236 -0.078020506
0.032340463 0.36462933 0.0062405956 -0.09833343 -0.14892852 -0.21196279 -0.16169058 -0.058660135
-0.09186031 0.07313539 0.23215346 -0.12140296 -0.30011517 -0.17956991 -0.111479074 0.09847506
0.253957 0.37098888 0.14867721 0.24216034 0.17132542 0.089553304 0.3049885 -0.02912246
0.15577632 0.2761973 0.13701725 0.66204154 0.4725289 0.44928858 0.64631593 -0.09555984
-0.08061999 -0.41435456 -0.057248313 -0.12346437 -0.34488073 -0.26606005 -0.034627445 -0.07566004
0.030977879 0.06397379 0.06596368 0.050266884 0.032118812 0.045381032 -0.33929968 -0.2558291
-0.13082139 -0.0885902 -0.13452487 -0.13978477 -0.2039894 -0.029562427 0.019264547 0.072632335
0.03398551 0.18782958 0.0041397004 0.1660116 0.055045184 -0.06925561 -0.19777805 -0.22518787
-0.22976582 -0.07331988 -0.0008818297 -0.059305128 0.06132951 0.15710491 0.18364039 -0.055055138
0.10392673 0.13320714 0.10950674 0.18722722 -0.019264102 -0.071262784 0.06652507 -0.02611603
0.09165651 -0.0737452 0.022974072 0.055820923 -0.015734527 0.14579488 0.12199898 -0.12981826
0.042779677 -0.05756009 -0.18579933 0.17909653 0.14301585 -0.08550819 -0.101705536 0.18667665
0.17116605 0.32774755 0.07917576 0.15472597 0.091908075 0.009446645 -0.056695487 -0.0687141
-0.020732984 0.13275456 -0.05589835 -0.15863355 0.039629314 0.035524815 -0.13758527 -0.119185574
-0.0063073407 -0.2828634 -0.06910777 -0.03098163 0.043956254 0.03550184 0.0326832 0.08708308
0.07294174 0.074483134 0.15136862 -0.11233752 -0.10235562 -0.035666212 0.01583153 -0.0026990122
-0.034896236 0.14690688 0.2445098 0.06522843 -0.007032664 0.15086403 0.47303337 0.19089565
-0.0636033 -0.2644052 -0.23489961 -0.5213881 -0.42733297 -0.12356267 -0.14365755 -0.018321477
0.07492741 -0.17234224 0.31343713 0.16190045 -0.016255302 -0.082081266 -0.19388218 -0.104383454
-0.06414579 0.1210765 0.17317241 -0.07089566 -0.20060962 -0.2307352 0.0012611764 0.09756745
-0.16732395 -0.09032402 -0.08649916 -0.040269483 -0.06428205 -0.18355739 -0.38044482 -0.10083925
0.032295257 0.029963287 -0.003677386 -0.15831034 -0.3286553 0.017979963 -0.18235186 -0.4245891
-0.41277426 -0.21864033 -0.087088585 0.15171881 0.10050062 -0.11904498 0.059736528 0.037747927
0.00284149 0.093121104 -0.04845094 0.00033442824 0.124537684 -0.029047275 0.18710127 -0.07198722
00000000: ed1e 333e 890d 4f3e 9daa 433e 13e5 de3d
00000010: bc6e 77bc 4f99 673e 04af 3a3d dadd 473d
00000020: 76c4 2abd cf31 b7be cd37 993e ebfd 263e
00000030: 86f7 6a3e 0b01 2ebe 1222 61be fb15 993e
00000040: 305e 603e 2a69 243e 94de 6f3c 1b4e a23d
00000050: b2c8 b43e a1d3 933d f3c1 8b3e 1640 083e
00000060: 30a6 0f3d cef2 6fbd 5b71 843e a55d aa3e
00000070: 6c24 be3d f810 693e dd62 073c 9cfb 0d3d
00000080: 0d99 18be 1066 9cbe 91bc 81be 4f2d abbd
00000090: 8561 49be f945 52be f899 f9bd 7deb 95be
000000a0: 7acf efbd 592b 52bd ca2a bbbd 4d1c 973d
000000b0: 2c4f cc3e aa05 4d3d a4be af3b 460e bcbd
000000c0: eead 80be dae0 a4bd 00cb eabe 1fd2 90be
000000d0: 31a1 e1be e7c3 1fbf 8b83 fabe 2e2e c5bd
000000e0: 63eb 9abd 6507 113d 43e8 d9bd 1dfd 33be
000000f0: 21e3 0d3e fbb2 2a3b abdd fe3d 37c9 9fbd
00000100: 6f77 043d b2b0 ba3e e97d cc3b 0a63 c9bd
00000110: b880 18be c60c 59be 3792 25be 9c45 70bd
00000120: 4221 bcbd 02c8 953d a3b9 6d3e 1da2 f8bd
00000130: b2a8 99be 2de1 37be 244f e4bd 4bad c93d
00000140: a706 823e 41f2 bd3e d73e 183e e1f8 773e
00000150: ee6f 2f3e b967 b73d 7427 9c3e 3a92 eebc
00000160: d483 1f3e bc69 8d3e 404e 0c3e 8e7b 293f
00000170: 4fef f13e 2709 e63e f674 253f e1b4 c3bd
00000180: 181c a5bd 4826 d4be 357d 6abd e3da fcbd
00000190: 3594 b0be 0639 88be 82d5 0dbd a7f3 9abd
000001a0: 52c5 fd3c b104 833d f717 873d a6e4 4d3d
000001b0: 048f 033d 76e1 393d b0b8 adbe 08fc 82be
000001c0: 0bf6 05be c76e b5bd e3c0 09be bd23 0fbe
000001d0: 99e2 50be e72c f2bc afd0 9d3c 43c0 943d
000001e0: 6434 0b3d 6656 403e 53a6 873b f2fe 293e
000001f0: 0f77 613d e3d5 8dbd 5486 4abe a697 66be
00000200: bb47 6bbe bc28 96bd 972a 67ba efe9 72bd
00000210: a734 7b3d 1ce0 203e 3a0c 3c3e 7f81 61bd
00000220: 8ad7 d43d 7467 083e 1245 e03d 7eb8 3f3e
00000230: c0cf 9dbc 39f2 91bd 4c3e 883d 49f1 d5bc
00000240: 69b6 bb3d b907 97bd 1f34 bc3c 7ba4 643d
00000250: b2e5 80bc 414b 153e 9ada f93d 14ef 04be
00000260: be39 2f3d 21c4 6bbd 2e42 3ebe 1565 373e
00000270: bf72 123e eb1e afbd fe4a d0bd 2a28 3f3e
00000280: 2746 2f3e 87ce a73e e726 a23d 7c70 1e3e
00000290: 4d3a bc3d 1ac6 1a3c 8739 68bd fab9 8cbd
000002a0: 38d8 a9bc d0f0 073e abf5 64bd d570 22be
000002b0: 5952 223d 7882 113d 27e3 0cbe 9117 f4bd
000002c0: cfad cebb 79d3 90be 6088 8dbd 30cd fdbc
000002d0: 790b 343d 616a 113d d2de 053d 9d58 b23d
000002e0: 7b62 953d 9d8a 983d 6000 1b3e 3711 e6bd
000002f0: d39f d1bd bc16 12bd 20b1 813c e9e1 30bb
00000300: 5bef 0ebd c26e 163e c760 7a3e 7c96 853d
00000310: 4372 e6bb 1a7c 1a3e 6e31 f23e 267a 433e
00000320: 7242 82bd 1e60 87be 8689 70be b179 05bf
00000330: 63cb dabe 6d0e fdbd f71a 13be ec16 96bc
00000340: 8b73 993d 7c7a 30be d57a a03e 3bc9 253e
00000350: d729 85bc 391a a8bd 0d89 46be fec6 d5bd
00000360: de5e 83bd f5f6 f73d 1c54 313e be31 91bd
00000370: 9c6c 4dbe d945 6cbe 0f4e a53a 71d1 c73d
00000380: f856 2bbe cdfb b8bd 7926 b1bd 9df1 24bd
00000390: 4fa6 83bd 78f6 3bbe aac9 c2be cf84 cebd
000003a0: 0848 043d 9175 f53c 4d00 71bb 1b1c 22be
000003b0: 8245 a8be b74a 933c 72ba 3abe be63 d9be
000003c0: 2657 d3be 40e3 5fbe 805b b2bd 2d5c 1b3e
000003d0: 45d3 cd3d dbcd f3bd 4aae 743d 929d 1a3d
000003e0: 4b38 3a3b 47b6 be3d 7e74 46bd 3356 af39
000003f0: 9d0d ff3d 8df4 edbc 7a97 3f3e 096e 93bd

tcn.tcn.0.conv1.bias f4 [16]
-0.1146124 -0.03624714 0.091524966 0.17807959 -0.081437424 -0.0094014425 -0.09010124 -0.23784372
-0.06759632 0.08542816 -0.09861575 -0.17799225 0.35685995 -0.012761012 -0.20136532 -0.2162762
00000000: e8b9 eabd e277 14bd 7171 bb3d 7f5a 363e
00000010: aac8 a6bd 8208 1abc 0087 b8bd 4e8d 73be
00000020: f06f 8abd f6f4 ae3d 0ef7 c9bd 9a43 36be
00000030: 59b6 b63e 9013 51bc b632 4ebe 8277 5dbe

tcn.tcn.0.conv2.weight f4 [16, 16, 1]
0.08381182 -0.06904764 0.10975413 0.10068697 0.16187598 -0.036821045 -0.14357407 0.17330036
0.1554293 -0.06232034 -0.1225459 -0.19666596 0.38061407 -0.10932363 -0.07862407 0.4430219
0.1063469 0.21359268 0.023421453 0.2736528 0.036618363 0.12047589 0.23950614 -0.22120252
-0.062150735 -0.004481937 -0.11087786 0.023351504 0.052696504 -0.13763934 -0.14918312 0.36703524
0.10127103 0.11972221 -0.18284386 0.19030428 0.046887644 -0.15274154 -0.15988788 -0.058637515
0.12832251 0.35220394 0.1567313 0.086752996 -0.2020009 0.22335176 0.009238796 -0.18285707
0.13127255 0.37757033 -0.097060904 -0.007796314 -0.04656157 0.2542507 0.2356125 0.10402135
-0.29117543 -0.21436991 -0.21924768 -0.2766744 0.42049605 0.03275164 0.0157611 0.15975729
0.16283542 0.33441705 -0.1355684 0.0538012 0.06793781 0.03328264 -0.02452156 -0.3160375
-0.12715371 -0.4279716 -0.009332687 -0.15971991 -0.10581042 0.10834479 -0.01343137 0.08995453
-0.038099658 0.06863795 -0.11691443 -0.050802827 -0.28652424 0.08752125 -0.1415311 -0.3810122
0.1767565 -0.29581726 -0.08070072 -0.4895653 -0.018916428 0.010126027 0.23337641 0.0589827
-0.12236713 -0.16392331 -0.11527931 -0.06262008 -0.033127323 0.1854377 -0.069179505 -0.050072186
-0.18228756 0.26126677 -0.12002693 -0.21820366 0.12194337 -0.29033843 -0.08476047 0.12795949
-0.27058893 -0.022871604 0.0064289495 0.06648229 -0.07180935 0.1849943 -0.030400384 0.09993375
0.24633664 0.05503298 0.06286964 0.114308536 0.3665937 0.30119848 -0.28614548 -0.18398118
-0.12440965 0.028001659 0.2465426 0.07161988 -0.006510691 0.062643364 -0.049256068 -0.07267322
0.025535002 0.1415555 0.113911696 -0.17125483 0.062384747 0.25837392 -0.2829943 0.26804328
-0.16474994 0.14961247 -0.115206935 0.033697173 0.0686715 0.07999199 0.26886377 -0.044751417
-0.07671548 -0.18208922 -0.15284076 -0.05419882 -0.24632743 0.040247533 -0.3642477 -0.13311419
-0.11879159 -0.023907011 -0.038417548 -0.069548175 -0.11463038 -0.093632214 0.056561455 0.109450854
-0.016402926 0.6414566 -0.18546812 0.48059192 0.17188333 -0.011717456 0.092749655 -0.21446647
0.063420825 -0.07262537 -0.14101343 0.34353238 -0.07289561 -0.06468949 -0.16378553 0.3294267
0.0706637 0.56995434 -0.104024895 0.18508373 0.16015133 0.038653553 0.36380452 0.32351115
-0.22202477 -0.26149654 0.03673349 -0.018104302 -0.11927158 0.049569327 -0.22979958 0.24574083
-0.13940284 0.26652923 -0.14827712 0.31578377 0.20305684 -0.1473379 0.051522262 -0.15819186
0.14617209 0.10794954 0.26194873 -0.036093406 -0.0047757775 -0.24778639 -0.07147225 0.35637712
-0.19243698 0.26835355 -0.20063433 0.038953777 0.11342712 0.11262399 -0.18326916 0.25938126
0.00024977175 -0.07421869 0.10395045 -0.17731392 -0.15093519 -0.0038005617 -0.07002786 0.36736482
-0.10263952 0.49523258 -0.22924365 0.16050787 -0.23225749 -0.023243535 -0.19895428 -0.119365185
-0.011235129 -0.21214406 0.025468815 -0.0085695535 0.04813729 0.009820716 -0.06434826 -0.050929617
0.20188694 0.64389056 -0.19885114 -0.034782633 0.024426645 0.24455088 -0.0016522154 0.33784062
00000000: 88a5 ab3d d968 8dbd c6c6 e03d f834 ce3d
00000010: d1c2 253e aad1 16bd 1505 13be a675 313e
00000020: dc28 1f3e 9d43 7fbd 58f9 fabd cd62 49be
00000030: d9df c23e 11e5 dfbd a805 a1bd c4d3 e23e
00000040: 67cc d93d 0ab8 5a3e 59de bf3c 381c 8c3e
00000050: 23fd 153d 10bc f63d 1941 753e ea82 62be
00000060: c591 7ebd 36dd 92bb ee13 e3bd a74b bf3c
00000070: 4ad8 573d 54f1 0cbe 76c3 18be 0bec bb3e
00000080: 3067 cf3d eb30 f53d 6c3b 3bbe 20df 423e
00000090: 420d 403d 4768 1cbe a6b9 23be e42d 70bd
000000a0: fa66 033e 1354 b43e 2b7e 203e 8eab b13d
000000b0: 53d9 4ebe 53b6 643e 525e 173c e23e 3bbe
000000c0: 506c 063e e650 c13e dec7 c6bd 3978 ffbb
000000d0: 58b7 3ebd 262d 823e 6744 713e 2509 d53d
000000e0: f214 95be c983 5bbe 7782 60be 44a8 8dbe
000000f0: 424b d73e 9526 063d 6c1d 813c 6a97 233e
00000100: 54be 263e b638 ab3e 71d2 0abe a65e 5c3d
00000110: fb22 8b3d 6153 083d 70e1 c8bc abcf a1be
00000120: 9534 02be 181f dbbe 20e8 18bc 9e8d 23be
00000130: 22b3 d8bd e0e3 dd3d 400f 5cbc 153a b83d
00000140: 630e 1cbd 0e92 8c3d d570 efbd a016 50bd
00000150: 4eb3 92be 573e b33d 87ed 10be 0814 c3be
00000160: a8ff 343e 5c75 97be 6b46 a5bd 4ea8 fabe
00000170: a0f6 9abc a3e7 253c 3afa 6e3e d897 713d
00000180: 9e9b fabd 83db 27be 8f17 ecbd f53e 80bd
00000190: 84b0 07bd 61e3 3d3e fcad 8dbd 7e18 4dbd
000001a0: 97a9 3abe c2c4 853e aed0 f5bd c870 5fbe
000001b0: 72bd f93d 3da7 94be e696 adbd d007 033e
000001c0: a28a 8abe 3b5d bbbc f0a9 d23b de27 883d
000001d0: c810 93bd 256f 3d3e 3a0a f9bc 11aa cc3d
000001e0: ac3f 7c3e 436a 613d ccc1 803d 981a ea3d
000001f0: 2bb2 bb3e b036 9a3e a981 92be 9065 3cbe
00000200: 7dca febd bc63 e53c aa75 7c3e 72ad 923d
00000210: a257 d5bb 2a4b 803d bbc0 49bd b2d5 94bd
00000220: c82e d13c edf3 103e 894a e93d 6d5d 2fbe
00000230: 2687 7f3d 9649 843e a1e4 90be f83c 893e
00000240: 35b4 28be 0334 193e 9df1 ebbd 0c06 0a3d
00000250: a5a3 8c3d d7d2 a33d 83a8 893e 434d 37bd
00000260: 011d 9dbd 9975 3abe 4a82 1cbe 95ff 5dbd
00000270: 423d 7cbe 99da 243d ad7e babe 164f 08be
00000280: 0149 f3bd a3d8 c3bc b85b 1dbd 466f 8ebd
00000290: 55c3 eabd 3fc2 bfbd fcac 673d c527 e03d
000002a0: 6e5f 86bc 8036 243f 5beb 3dbe 2510 f63e
000002b0: 2f02 303e 93fa 3fbc 88f3 bd3d 199d 5bbe
000002c0: c7e2 813d 9cbc 94bd d365 10be 7ae3 af3e
000002d0: 4b4a 95bd ec7b 84bd 65b7 27be 9eaa a83e
000002e0: 21b8 903d 87e8 113f 010b d5bd 9786 3d3e
000002f0: b6fe 233e 3053 1e3d 9644 ba3e 41a3 a53e
00000300: 765a 63be e0e2 85be db75 163d 794f 94bc
00000310: a844 f4bd 3509 4b3d 9550 6bbe 7ca3 7b3e
00000320: 9ebf 0ebe 8576 883e f5d5 17be 69ae a13e
00000330: 22ee 4f3e bfdf 16be 0209 533d 0cfd 21be
00000340: 23ae 153e a614 dd3d 251e 863e aed6 13bd
00000350: 207e 9cbb b7bb 7dbe 0b60 92bd 1077 b63e
00000360: 330e 45be a365 893e 1673 4dbe ff8d 1f3d
00000370: 7a4c e83d 68a7 e63d e9aa 3bbe 9fcd 843e
00000380: ccf3 8239 f8ff 97bd f9e3 d43d c891 35be
00000390: c18e 1abe d812 79bb c46a 8fbd 3e17 bc3e
000003a0: ab34 d2bd 208f fd3e d9be 6abe 2d5c 243e
000003b0: e8d4 6dbe 3a69 bebc acba 4bbe bc75 f4bd
000003c0: 8c13 38bc 4b3c 59be faa3 d03c 5067 0cbc
000003d0: 9b2b 453d 12e7 203c 05c9 83bd 939b 50bd
000003e0: 73bb 4e3e 03d6 243f a29f 4bbe 3c78 0ebd
000003f0: 631a c83c 8c6b 7a3e 268f d8ba 72f9 ac3e

tcn.tcn.0.conv2.bias f4 [16]
0.06780997 0.01818324 0.14252356 -0.003867479 0.124680206 -0.05195027 -0.20197462 -0.08058126
-0.28053626 -0.07713314 0.14078926 0.12799415 0.097432636 -0.027276954 0.184445 -0.022269981
00000000: f4df 8a3d 05f5 943c b2f1 113e 8875 7dbb
00000010: 5658 ff3d cec9 54bd 6fd2 4ebe ca07 a5bd
00000020: 73a2 8fbe fbf7 9dbd 0f2b 103e e610 033e
00000030: c38a c73d eb73 dfbc 26df 3c3e 896f b6bc

tcn.tcn.0.res_conv.weight f4 [16, 16, 1]
-0.042790078 -0.029679442 0.008389283 -0.12735067 0.12884678 0.25958186 -0.07113583 0.04262946
-0.16081928 0.27516013 -0.15473591 0.3562464 -0.05291551 0.09103198 0.22126918 -0.014339136
0.28897274 0.1898423 -0.18781067 0.14972474 0.015096251 -0.2192178 0.16414131 -0.40415725
-0.09356197 -0.0025823594 -0.104220666 0.023142826 0.36473325 -0.15174095 -0.1315846 -0.22561155
0.22496128 -0.2994087 0.06732654 0.32293248 0.054434936 -0.2265214 0.4196859 0.025617432
0.18837845 0.48758206 0.0899358 -0.31660157 -0.37006786 0.27991173 0.0578239 -0.17417115
0.19664788 -0.27758124 -0.053156186 -0.01471374 -0.03266204 -0.19833794 -0.20450038 0.33337685
-0.1207962 0.13440415 0.26093593 -0.17931254 -0.04817068 0.16998498 0.18581785 -0.09731285
-0.21361263 0.2818484 -0.08460777 -0.123099454 0.14933904 -0.013895449 -0.2668589 -0.13094155
-0.1233826 -0.07273677 0.25011918 -0.102740385 0.102287464 0.0990807 0.0025405197 -0.0093131475
0.13300014 0.18750536 -0.13718566 -0.015779832 0.0036966496 0.3404274 -0.32716885 0.045169506
-0.04785449 -0.016179292 -0.046619665 0.09318422 0.09795599 0.028117646 -0.033690754 0.059929855
-0.31519726 0.3376289 0.09236279 -0.12233917 0.28166538 0.13259351 -0.2231637 0.14937504
-0.26510206 0.18554932 -0.35461736 0.09510138 0.1554489 -0.31558225 -0.09180463 0.158432
-0.2146214 0.10161115 0.14224087 0.04738829 0.0006574272 0.4009466 0.42718196 -0.1776953
-0.28601035 -0.15467069 -0.21889232 0.012160759 -0.01403617 -0.27258635 -0.05282224 -0.19065414
-0.31669933 -0.022572054 0.33430004 -0.36965278 -0.192301 -0.002400235 0.15792577 -0.15580812
-0.2890969 0.8027197 0.38883647 0.3185004 0.031061795 -0.18519239 -0.18746519 0.19917886
0.33199674 -0.037749577 0.13090757 -0.08272554 -0.03569207 -0.20157675 0.3473435 0.02080935
-0.13349764 0.21331935 0.0849775 0.16734411 -0.25725514 0.2571604 0.021839086 -0.3104071
0.19154577 -0.1864628 -0.32860017 -0.2510525 -0.13613874 -0.39914942 0.17215057 0.31225187
-0.17919195 0.40030617 -0.1683828 -0.3943594 -0.060369205 -0.34994227 0.30556104 -0.2399224
-0.49477202 -0.1916638 -0.28732422 -0.13482729 -0.06835477 -0.29358262 -0.24498372 -0.035672046
0.4423991 -0.23935552 -0.22781116 0.13091403 0.13359967 -0.07204376 0.038799107 -0.027255572
0.06118418 0.40612665 0.097582966 0.15384543 -0.1055768 -0.0044557736 -0.4002153 0.032994192
0.3447462 0.090863 -0.1949088 0.16886206 0.13129808 -0.05475702 -0.01974661 0.2974456
0.3409629 0.39577916 0.15731598 0.4877383 -0.09572563 0.2886087 0.12843353 0.037997372
-0.045821525 -0.053944137 -0.027910143 -0.34064308 -0.089025326 -0.17599095 0.07418731 -0.24716897
-0.06965136 -0.24113585 0.0779387 0.13961443 -0.068349 -0.13483521 0.2791146 0.019687388
-0.15332048 0.10119062 -0.17063786 -0.14088343 0.11536137 0.15167709 0.009935406 0.073014416
-0.29616705 -0.028422773 -0.0065044546 -0.17492577 0.17993818 0.0680262 -0.18178141 0.16727702
-0.004171596 -0.014819244 -0.33784565 -0.083644584 0.14185211 0.15431535 -0.15590031 0.14256828
00000000: a644 2fbd 4d22 f3bc 3473 093c 3768 02be
00000010: 69f0 033e eae7 843e a9af 91bd 3b9c 2e3d
00000020: cfad 24be cae1 8c3e 1773 1ebe ee65 b63e
00000030: efbd 58bd fa6e ba3d 6394 623e b2ee 6abc
00000040: 3cf4 933e 0566 423e 7151 40be 7151 193e
00000050: 4456 773c a27a 60be a914 283e b3ed cebe
00000060: 6b9d bfbd cd3c 29bb a571 d5bd 0696 bd3c
00000070: 51be ba3e fb61 1bbe 1dbe 06be b706 67be
00000080: 405c 663e 194c 99be 7fe2 893d 6857 a53e
00000090: 2bf7 5e3d 3af5 67be 12e1 d63e a6db d13c
000000a0: 48e6 403e 5ba4 f93e 4330 b83d 9a19 a2be
000000b0: 8979 bdbe 9750 8f3e c1d8 6c3d ec59 32be
000000c0: 105e 493e 211f 8ebe 4dba 59bd e611 71bc
000000d0: a2c8 05bd 1a19 4bbe 8c68 51be 5fb0 aa3e
000000e0: 0064 f7bd 3ea1 093e 6599 853e b59d 37be
000000f0: 9e4e 45bd 8b10 2e3e 0947 3e3e f64b c7bd
00000100: 45bd 5abe 6f4e 903e d746 adbd 911b fcbd
00000110: 55ec 183e bda9 63bc bba1 88be 8b15 06be
00000120: 04b0 fcbd 04f7 94bd 9f0f 803e 8d69 d2bd
00000130: 177c d13d d2ea ca3d d97e 263b 2c96 18bc
00000140: 3031 083e 6801 403e 667a 0cbe b544 81bc
00000150: 7d43 723b 804c ae3e ad82 a7be a903 393d
00000160: 1203 44bd 6f8a 84bc 43f4 3ebd 5ed7 be3d
00000170: 269d c83d fa56 e63c 51ff 09bd 0279 753d
00000180: 8961 a1be b2dd ac3e b428 bd3d f58c fabd
00000190: 7236 903e 98c6 073e 0685 64be c5f5 183e
000001a0: 75bb 87be a400 3e3e 6890 b5be 83c4 c23d
000001b0: ff2d 1f3e ff93 a1be 1104 bcbd 003c 223e
000001c0: b6c5 5bbe 8219 d03d 97a7 113e 391a 423d
000001d0: 3157 2c3a df48 cd3e 98b7 da3e c2f5 35be
000001e0: f36f 92be fe61 1ebe 4f25 60be ec3d 473c
000001f0: f7f7 65bc 7090 8bbe 225c 58bd d73a 43be
00000200: 6a26 a2be 07e9 b8bc 6029 ab3e 2143 bdbe
00000210: 8eea 44be 434d 1dbb 4bb7 213e 2a8c 1fbe
00000220: 8204 94be 0a7f 4d3f 9315 c73e 7c12 a33e
00000230: 4e75 fe3c 13a3 3dbe e0f6 3fbe 8bf5 4b3e
00000240: 7afb a93e 4d9f 1abd a20c 063e 026c a9bd
00000250: d931 12bd 236a 4ebe 02d7 b13e 5f78 aa3c
00000260: 9bb3 08be 6370 5a3e af08 ae3d 415c 2b3e
00000270: f2b6 83be 87aa 833e e2e7 b23c aeed 9ebe
00000280: 9324 443e 1bf0 3ebe 483e a8be f489 80be
00000290: f467 0bbe 505d ccbe 3d48 303e 7adf 9f3e
000002a0: 187e 37be eef4 cc3e 8a6c 2cbe 7ae9 c9be
000002b0: b345 77bd a22b b3be 7f72 9c3e 38ae 75be
000002c0: c252 fdbe 8443 44be 291c 93be 2a10 0abe
000002d0: 96fd 8bbd 7650 96be 03dd 7abe da1c 12bd
000002e0: 2382 e23e 9d19 75be 5447 69be 540e 063e
000002f0: 5ace 083e ae8b 93bd d0eb 1e3d 1447 dfbc
00000300: 439c 7a3d d5ef cf3e 94d9 c73d a889 1d3e
00000310: a638 d8bd bd01 92bb 05e9 ccbe eb24 073d
00000320: 9382 b03e 6116 ba3d 2c96 47be 2dea 2c3e
00000330: 0173 063e e648 60bd a5c3 a1bc ca4a 983e
00000340: b092 ae3e 91a3 ca3e 7117 213e d6b8 f93e
00000350: cd0b c4bd 85c4 933e 1484 033e 22a3 1b3d
00000360: 5aaf 3bbd 87f4 5cbd d0a3 e4bc c568 aebe
00000370: e952 b6bd f936 34be 84ef 973d dd19 7dbe
00000380: 5fa5 8ebd 51ec 76be 539e 9f3d 16f7 0e3e
00000390: 8ffa 8bbd 3e12 0abe 1ce8 8e3e 7247 a13c
000003a0: 0b00 1dbe 073d cf3d b1bb 2ebe bf43 10be
000003b0: 9542 ec3d 3d51 1b3e 1dc8 223c 9588 953d
000003c0: 35a3 97be e0d6 e8bc 5223 d5bb be1f 33be
000003d0: b741 383e 5251 8b3d e824 3abe ab4a 2b3e
000003e0: e2b1 88bb 6acc 72bc 1bfa acbe da4d abbd
000003f0: ae41 113e d804 1e3e 55a4 1fbe 6bfd 113e

tcn.tcn.0.res_conv.bias f4 [16]
0.26346523 -0.120435916 -0.14732532 0.1032932 -0.1281327 -0.24286468 -0.30878028 -0.19888102
-0.1191365 0.21108238 0.023910366 0.20220007 -0.114766404 -0.28476116 -0.01044897 -0.005966138
00000000: eae4 863e 1ba7 f6bd 73dc 16be 638b d33d
00000010: 3835 03be 85b1 78be 7318 9ebe 77a7 4bbe
00000020: d6fd f3bd fb25 583e acdf c33c 890d 4f3e
00000030: a60a ebbd 37cc 91be 2832 2bbc 987f c3bb

tcn.tcn.1.conv1.weight f4 [16, 16, 5]
-0.11918308 -0.07003813 -0.16728444 -0.16347548 -0.32527307 0.33039054 -0.38515562 0.20010789
0.29825264 0.32763386 -0.07670253 0.416596 -0.054931432 -0.1638657 -0.08103279 -0.062170997
-0.14710206 -0.1566688 -0.252426 -0.28751662 -0.009110542 -0.12832667 0.17491174 0.120605655
0.28262576 0.04657809 0.094886735 0.16433048 -0.14432211 0.19477433 0.26825768 0.09233023
0.20642397 0.37054077 0.4518145 -0.10478937 -0.23754606 -0.37696704 -0.10288722 -0.040977366
-0.28435957 0.32757688 0.37473285 0.3391527 0.3855403 -0.26140484 -0.15857002 0.034456436
0.11050035 0.12781462 0.04061163 0.2667205 -0.112171724 -0.27619225 -0.2343106 0.328724
0.027754273 -0.49979198 -0.04438725 -0.2555028 0.070879 0.16492553 0.03233056 -0.08421464
0.078846164 0.36999875 -0.0286469 -0.17337812 -0.018637927 0.09836805 0.15560617 0.010524231
0.1341526 0.1959912 0.010972547 0.5719896 0.1306838 0.057607777 0.23164247 0.14262241
-0.10593726 -0.23488447 -0.23880163 -0.29560778 -0.4237924 0.09506945 0.16709685 -0.15770227
0.0008134857 -0.46800956 -0.5095288 -0.039834607 -0.29177365 -0.41135755 -0.5615773 -0.019573512
-0.31074357 -0.36386955 -0.274572 -0.13994278 0.3908285 0.023481881 -0.07510736 0.15227965
0.32173756 0.25018153 -0.19158164 -0.40960097 -0.121617 0.48368034 0.12453231 -0.029409578
0.1799768 0.39761743 0.37093234 -0.26495925 0.0028064435 -0.21847172 0.023581594 0.08414874
0.0377671 0.1052288 -0.2493994 -0.06473794 0.32052547 -0.008937945 -0.122532986 -0.13373019
0.124880806 -0.07391681 -0.27658334 -0.21667051 0.09679914 -0.04903529 -0.09840493 -0.029508775
0.24878262 0.3299359 1.5528016e-05 -0.35496342 -0.10317829 0.049548008 0.3076811 -0.12122724
-0.038620938 -0.0800857 -0.07048162 -0.21772337 0.015674444 -0.0034134358 -0.0073464406 0.01803637
0.21019384 0.0141451955 0.054252386 0.10268398 0.11781202 0.042444535 0.09857296 0.2588119
0.07746141 0.042593416 -0.015036613 -0.010423293 -0.20036286 -0.06304629 -0.15178607 0.14038381
-0.12610942 0.10444036 0.04387735 0.06434811 0.10655195 0.019411672 0.024030961 -0.26280037
-0.18225095 -0.3357018 0.002092221 -0.042006817 -0.038738087 -0.10077156 -0.2393741 -0.07187361
0.04897289 -0.088667676 0.0015312743 -0.005679749 0.02748726 0.092607714 0.3704736 0.048107613
0.09817099 -0.06885611 -0.031109637 -0.2041167 0.019398334 0.16251378 -0.062005088 0.04068338
-0.0039221556 -0.037535604 0.0791736 -0.00150545 0.12877549 -0.14849833 0.022629712 -0.16250491
-0.15908144 0.36309704 0.28812084 0.0796781 -0.02717326 -0.074579366 -0.23193593 0.39903635
0.20719214 -0.15309545 -0.07743485 -0.3571701 0.22890995 -0.12301749 0.11310036 0.08823524
-0.049764182 -0.12043928 -0.24513552 0.16324316 0.03877374 0.0987068 0.18166536 -0.043221455
0.20245308 0.1435806 0.016772714 0.41551587 0.14720613 0.2105459 0.21131471 -0.16352466
-0.107020885 -0.15853992 0.13090509 0.07009344 -0.32115096 0.07180854 0.026882356 -0.12948933
-0.2917537 -0.07381452 -0.37306467 -0.1885627 -0.09900665 -0.14613347 0.09519946 -0.1732185
00000000: 4216 f4bd 2770 8fbd 9d4c 2bbe 1e66 27be
00000010: 318a a6be f328 a93e 1e33 c5be 15e9 4c3e
00000020: 92b4 983e a0bf a73e 3716 9dbd 124c d53e
00000030: c8ff 60bd 69cc 27be 85f4 a5bd 04a7 7ebd
00000040: eca1 16be c96d 20be fb3d 81be 6135 93be
00000050: 6244 15bc 1168 03be 101c 333e 1900 f73d
00000060: 53b4 903e abc8 3e3d fa53 c23d 4046 283e
00000070: 2dc9 13be ec72 473e 1259 893e a217 bd3d
00000080: ce60 533e 85b7 bd3e 3b54 e73e cf9b d6bd
00000090: 463f 73be d301 c1be 89b6 d2bd e2d7 27bd
000000a0: 9497 91be 28b8 a73e fcdc bf3e 6ca5 ad3e
000000b0: 8a65 c53e dbd6 85be 2e60 22be 3122 0d3d
000000c0: 024e e23d d6e1 023e 6158 263d 978f 883e
000000d0: 4aba e5bd 1269 8dbe 1eef 6fbe 834e a83e
000000e0: ee5c e33c bce4 ffbe 68cf 35bd 43d1 82be
000000f0: 0229 913d 3de2 283e 0d6d 043d ba78 acbd
00000100: 197a a13d 7a70 bd3e e7ac eabc 098a 31be
00000110: 91ae 98bc 3075 c93d 3957 1f3e d36d 2c3c
00000120: 4d5f 093e ebb1 483e 33c6 333c e96d 123f
00000130: f9d1 053e 22f6 6b3d af33 6d3e 9c0b 123e
00000140: a2f5 d8bd 8e85 70be 6a88 74be e759 97be
00000150: 51fb d8be c6b3 c23d 701b 2b3e b47c 21be
00000160: 1a40 553a f39e efbe 7b70 02bf 9d29 23bd
00000170: 5b63 95be 759d d2be 88c3 0fbf a158 a0bc
00000180: c819 9fbe 1c4d babe b494 8cbe 294d 0fbe
00000190: ac1a c83e 135d c03c e3d1 99bd 32ef 1b3e
000001a0: c9ba a43e cb17 803e fa2d 44be 38b7 d1be
000001b0: 5512 f9bd f3a4 f73e cc0a ff3d 5bec f0bc
000001c0: d74b 383e 8394 cb3e d8ea bd3e bda8 87be
000001d0: 4fec 373b 0db7 5fbe 302e c13c 2d56 ac3d
000001e0: adb1 1a3d 3282 d73d 8e62 7fbe 5395 84bd
000001f0: ea1b a43e 7570 12bc 93f2 fabd 91f0 08be
00000200: 82c1 ff3d b261 97bd 559c 8dbe e0de 5dbe
00000210: a13e c63d 3ad9 48bd 8688 c9bd 63bc f1bc
00000220: dfc0 7e3e 5ced a83e 2942 8237 c4bd b5be
00000230: 244f d3bd daf2 4a3d 6188 9d3e fd45 f8bd
00000240: fd30 1ebd f903 a4bd ab58 90bd e0f2 5ebe
00000250: b167 803c f3b3 5fbb 69ba f0bb 02c1 933c
00000260: 0e3d 573e 40c1 673c c037 5e3d fa4b d23d
00000270: 6e47 f13d 52da 2d3d 9fe0 c93d fe82 843e
00000280: 16a4 9e3d 6f76 2e3d 205c 76bc 76c6 2abc
00000290: ec2b 4dbe 6a1e 81bd cf6d 1bbe c6c0 0f3e
000002a0: d422 01be d4e4 d53d bcb8 333d f1c8 833d
000002b0: e937 da3d 3a05 9f3c 94dc c43c c58d 86be
000002c0: fe9f 3abe 1be1 abbe a51d 093b 570f 2cbd
000002d0: d4ab 1ebd 5261 cebd 7c1e 75be 7932 93bd
000002e0: cc97 483d 6697 b5bd 0ab5 c83a 301d babb
000002f0: f62c e13c 1da9 bd3d b7ae bd3e 7d0c 453d
00000300: df0d c93d 6f04 8dbd a3d9 febc f803 51be
00000310: 41e9 9e3c 036a 263e 0cf9 7dbd 9ea3 263d
00000320: 6d85 80bb efbe 19bd c525 a23d 8552 c5ba
00000330: b9dd 033e f20f 18be f261 b93c b067 26be
00000340: 3fe6 22be dbe7 b93e 9384 933e 462e a33d
00000350: 759a debc 11bd 98bd 9d80 6dbe 7e4e cc3e
00000360: 2d2a 543e 0ec5 1cbe 2a96 9ebd 00df b6be
00000370: 5f67 6a3e 98f0 fbbd 29a1 e73d adb4 b43d
00000380: 87d5 4bbd dfa8 f6bd ce04 7bbe 3729 273e
00000390: 37d1 1e3d ca26 ca3d 7c06 3a3e fb08 31bd
000003a0: dc4f 4f3e cb06 133e ee66 893c 7fbe d43e
000003b0: 34bd 163e 5899 573e e262 583e 0273 27be
000003c0: c42d dbbd 4a58 22be fc0b 063e 268d 8f3d
000003d0: e66d a4be 5b10 933d 6338 dc3c da98 04be
000003e0: be60 95be 112c 97bd 5502 bfbe 9516 41be
000003f0: 00c4 cabd 03a4 15be eff7 c23d 3160 31be

tcn.tcn.1.conv1.bias f4 [16]
-0.42763895 -0.37248474 -0.19943781 -0.022284454 -0.32934716 -0.17267919 -0.041326817 -0.19688591
-0.24451116 -0.48882377 -0.4107444 0.21222365 -0.38090065 0.092385 -0.21522975 -0.06738386
00000000: 7ef3 dabe 52b6 bebe 6d39 4cbe e38d b6bc
00000010: 31a0 a8be d0d2 30be 4f46 29bd 769c 49be
00000020: 2261 7abe 1c47 fabe 174d d2be 2851 593e
00000030: 6905 c3be 5934 bd3d 3065 5cbe 8d00 8abd

tcn.tcn.1.conv2.weight f4 [16, 16, 1]
0.40825206 0.030116465 -0.08478436 0.072556734 -0.0070026154 -0.21389711 0.29219055 0.18841699
-0.20196383 -0.07568955 0.10767129 0.23881242 0.018526722 0.26456207 0.31091988 0.012774457
-0.07796556 0.34138596 -0.13135181 -0.099353015 -0.10639118 0.101425454 0.19387954 -0.21091297
0.174553 -0.17784862 0.08402111 0.21664976 -0.054163687 -0.086481996 -0.32704893 0.16878264
0.0364572 0.20905541 0.19936696 0.058278643 0.20653918 0.11375604 0.26293993 -0.21722345
0.07012104 -0.008171595 -0.24081399 0.07895773 -0.08288552 -0.11030834 -0.17665999 -0.2400305
-0.2078014 -0.11538208 -0.41111192 -0.14950469 0.10179514 0.007546667 -0.026176346 0.13071291
-0.018584702 0.07104449 0.15256597 -0.28107437 -0.14701991 -0.030633587 0.09290961 0.13835771
0.08125081 0.10154116 0.023019087 -0.14376299 0.08318794 -0.216612 0.059448384 -0.10492393
0.4173209 -0.14310996 -0.08954178 0.0788528 -0.15152764 -0.020891761 -0.018034136 0.15301263
-0.16934073 -0.080997795 -0.08355009 -0.083403625 0.1059777 0.34580687 0.37927872 0.17910129
-0.03135581 0.05865171 -0.09729354 0.20282291 -0.08740573 0.010502156 0.03205012 0.14742036
-0.16395123 0.13094419 -0.14885476 0.068722785 0.22982673 -0.054663405 -0.09615333 0.25311092
0.016907027 -0.017839693 -0.020125182 0.20190293 -0.3003892 -0.23492171 -0.23833291 0.30376655
0.28926677 -0.14298756 0.20138401 -0.05687719 -0.09999695 0.32985786 0.06359544 0.119121775
0.03259074 -0.08685729 -0.130336 -0.05099513 -0.06769632 0.25420988 -0.03145662 -0.053022783
-0.24690773 0.25711405 -0.2276538 0.18434533 -0.37038776 0.23368305 0.1846069 -0.030267438
0.031457216 -0.11452452 -0.044318404 0.19563818 -0.26915118 -0.08344778 -0.121760644 -0.0066809105
-0.10353041 0.029381685 0.07942001 -0.19370535 -0.226683 -0.14165157 0.17621318 -0.022884546
0.10984261 -0.06642842 0.24833748 -0.08708512 -0.01659908 0.14565034 0.3487388 0.1663166
0.23493136 -0.060886282 0.021304812 -0.15004762 -0.005045427 0.16664475 -0.06248972 -0.088532604
0.1870767 -0.13576575 0.21022749 -0.14373071 0.14827923 0.05718407 -0.061951563 0.12937692
0.26561818 -0.07812477 -0.043227755 -0.12114554 -0.022493022 -0.2896494 -0.15524016 0.10568206
-0.36691302 0.18647744 -0.190746 -0.34048608 0.06926529 -0.16998072 -0.010673218 -0.06507264
0.18939796 -0.21064451 -0.019792195 -0.026559222 -0.24049607 -0.026719086 0.058651656 0.024797386
0.058966115 0.11384012 -0.13434735 -0.102380276 -0.01820948 -0.0924358 0.29916343 0.12895378
-0.0019721542 -0.025751919 0.09661207 -0.20968571 -0.35850465 0.015229717 0.16413282 0.14892879
-0.22670726 -0.04136973 -0.116881505 -0.07281096 -0.1894029 -0.38306743 0.17323843 0.10960954
-0.06854329 0.32716584 0.16869707 0.15550038 0.020184344 0.14362124 0.20592743 0.03149452
-0.030053291 -0.1189522 0.12415957 -0.00930583 -0.22038771 0.105114855 -0.18101293 0.107010856
-0.33490118 0.10023143 -0.08262725 0.11366964 0.10932805 -0.15478477 0.11748588 0.059517223
-0.036029827 -0.03363526 0.18571727 -0.008913692 -0.20086943 -0.035956062 -0.48147923 -0.08653806
00000000: 6a06 d13e ceb6 f63c 6ca3 adbd a098 943d
00000010: 3276 e5bb d807 5bbe 009a 953e 62f0 403e
00000020: 9bcf 4ebe 1f03 9bbd c482 dc3d 3e8b 743e
00000030: 5ac5 973c ae74 873e e430 9f3e f54b 513c
00000040: 68ac 9fbd 24ca ae3e 1781 06be 9879 cbbd
00000050: 9ee3 d9bd 26b8 cf3d 5c88 463e 92f9 57be
00000060: 06be 323e f31d 36be 4213 ac3d 6fd9 5d3e
00000070: beda 5dbd 791d b1bd f572 a7be 5bd5 2c3e
00000080: 2554 153d 9f12 563e da26 4c3e 96b5 6e3d
00000090: 027f 533e edf8 e83d 10a0 863e d36f 5ebe
000000a0: 9f9b 8f3d 27e2 05bc f197 76be 97b4 a13d
000000b0: e2bf a9bd 57e9 e1bd 5be6 34be 8eca 75be
000000c0: e4c9 54be 714d ecbd 437d d2be c217 19be
000000d0: f879 d03d 084a f73b c76f d6bc 9bd9 053e
000000e0: f23e 98bc c67f 913d 413a 1c3e fbe8 8fbe
000000f0: 638c 16be 4af3 fabc 6547 be3d a5ad 0d3e
00000100: d366 a63d d0f4 cf3d 8692 bc3c 9b36 13be
00000110: 705e aa3d 89cf 5dbe 2680 733d 5be2 d6bd
00000120: 16ab d53e 6b8b 12be ae61 b7bd 947d a13d
00000130: 102a 1bbe 3325 abbc 53bc 93bc 58af 1c3e
00000140: a867 2dbe 2ce2 a5bd 4f1c abbd 85cf aabd
00000150: d60a d93d 990d b13e d230 c23e 5466 373e
00000160: f36e 00bd c73c 703d d641 c7bd cfb0 4f3e
00000170: c601 b3bd 3c11 2c3c fd46 033d 5df5 163e
00000180: d5e2 27be 3c16 063e 626d 18be 88be 8c3d
00000190: b357 6b3e bce6 5fbd 09ec c4bd c197 813e
000001a0: 9b80 8a3c 8c24 92bc 91dd a4bc a4bf 4e3e
000001b0: 9dcc 99be 518f 70be 8b0d 74be 4a87 9b3e
000001c0: c61a 943e 556b 12be 9c37 4e3e 0ef8 68bd
000001d0: 33cb ccbd 21e3 a83e 533e 823d 1ef6 f33d
000001e0: de7d 053d 3ce2 b1bd cd76 05be 45e0 50bd
000001f0: 5ea4 8abd cc27 823e a8d8 00bd 6b2e 59bd
00000200: 61d5 7cbe 74a4 833e 141e 69be 06c5 3c3e
00000210: 77a3 bdbe 9c4a 6f3e 9709 3d3e 6bf3 f7bc
00000220: 48d9 003d d58b eabd 3787 35bd 6055 483e
00000230: 2fce 89be abe6 aabd a55d f9bd 8aeb dabb
00000240: c007 d4bd dcb1 f03c f5a6 a23d b25a 46be
00000250: 971f 68be 1c0d 11be 3a71 343e 5f78 bbbc
00000260: 2af5 e03d a00b 88bd 2e4c 7e3e af59 b2bd
00000270: cbfa 87bc 5d25 153e e48d b23e e64e 2a3e
00000280: d991 703e e563 79bd 6e87 ae3c 15a6 19be
00000290: 1c54 a5bb eca4 2a3e 38f5 7fbd 9550 b5bd
000002a0: 0991 3f3e 2d06 0bbe e045 573e 252e 13be
000002b0: 83d6 173e d839 6a3d ecc0 7dbd 627b 043e
000002c0: 1bff 873e e1ff 9fbd 960f 31bd 271b f8bd
000002d0: 4943 b8bc ed4c 94be 47f7 1ebe d66f d83d
000002e0: 06dc bbbe f1f3 3e3e eb52 43be 3154 aebe
000002f0: f6da 8d3d 6d0f 2ebe b9de 2ebc ce44 85bd
00000300: 8af1 413e 32b3 57be 3e23 a2bc ba92 d9bc
00000310: 9a44 76be fce1 dabc b83c 703d e323 cb3c
00000320: 7486 713d 0225 e93d 5a92 09be c0ac d1bd
00000330: 0c2c 95bc fb4e bdbd f32b 993e 760c 043e
00000340: 423f 01bb b0f5 d2bc 8ddc c53d dab7 56be
00000350: ec8d b7be 1086 793c 6f12 283e ca80 183e
00000360: f325 68be 4e73 29bd 925f efbd ea1d 95bd
00000370: d5f2 41be 6a21 c4be 6a65 313e f77a e03d
00000380: 6d60 8cbd 4882 a73e edbe 2c3e 7e3b 1f3e
00000390: a359 a53c 7211 133e a4de 523e 6600 013d
000003a0: 5232 f6bc 369d f3bd 5f47 fe3d 7b77 18bc
000003b0: 51ad 61be 7546 d73d 745b 39be 8228 db3d
000003c0: 2b78 abbe 2346 cd3d 7a38 a9bd a1cb e83d
000003d0: 62e7 df3d e67f 1ebe 709c f03d 55c8 733d
000003e0: 0394 13bd 20c5 09bd ab2c 3e3e bc0a 12bc
000003f0: b7b0 4dbe aa46 13bd 7284 f6be de3a b1bd

tcn.tcn.1.conv2.bias f4 [16]
-0.12570457 0.18600318 -0.05147512 -0.08438405 0.11969715 -0.038595036 -0.0356966 0.016849013
0.36167255 0.1694228 -0.17372404 0.102237776 0.09641177 -0.08968993 -0.13885227 0.24609523
00000000: b3b8 00be 9e77 3e3e 93d7 52bd 8bd1 acbd
00000010: c823 f53d d415 1ebd 9936 12bd f106 8a3c
00000020: 252d b93e 2c7d 2d3e b7e4 31be 0a62 d13d
00000030: 8973 c53d 5baf b7bd 4a2f 0ebe 6300 7c3e
