checkpoints/fine_tune/var_rf/hainsworth/0.2/model_fallen-blaze-195_finetune_finetune_finetune_GTZ_GIA/it_104_loss_5.2159_acc10.13_acc20.2.pt (torch, 436414 bytes, 211 tensors)

conv1.weight f4 [16, 1, 3, 3]
000000 0a 29 56 3e e8 3b a3 bd 07 49 8e be a2 27 95 3e
       0.20914093 -0.079704106 -0.2779009 0.291318
000010 7f ca 14 be dd 58 b1 be 67 76 32 3e 62 04 3f 3e
       -0.14530371 -0.3463811 0.1742798 0.18654016
000020 bb 12 8e be 79 96 a8 3e cd 36 f7 be a8 f6 ca be
       -0.27748665 0.32927302 -0.48283997 -0.3964131
000030 1f 9a 86 3e 2e bd 8f be d9 8d ed 3d 38 02 e9 3d
       0.2628946 -0.2807402 0.11599321 0.11377376
000040 6a ed 37 3e 3f a6 98 3d d0 7b 75 be dc f2 d1 3e
       0.1796166 0.07453584 -0.23973012 0.410056
000050 f6 de 43 3e 5b c0 4e be e3 d6 b4 3e 0b 85 43 3d
       0.19128022 -0.20190565 0.35320196 0.0477343
000060 46 bd fb be 58 47 29 3e 3a 7e 55 be 0c 65 93 be
       -0.49167842 0.16531122 -0.20848933 -0.2878803
000070 8f 88 f8 bd fb bc ab 3e 64 19 b8 be 56 cd ac 3d
       -0.121354215 0.33542618 -0.35956872 0.08437602
000080 62 f9 3c 3e d4 ff b9 3e 7c 21 60 3d 03 13 fe be
       0.18454507 0.36327994 0.054719433 -0.4962388
000090 1b e4 80 be bb a1 78 be 90 35 42 be b7 c0 74 be
       -0.2517403 -0.24280445 -0.18965745 -0.2390164
0000a0 8f 65 26 3e ad 22 8c 3e 5f e0 35 bd e6 9f 6b bd
       0.16249679 0.27370206 -0.04440343 -0.057525538
0000b0 03 38 6c be cf 31 ad bd 5b ea 9e 3d 5d 16 ba bd
       -0.23068242 -0.08456766 0.077595435 -0.09086297
0000c0 ec 4e 56 bf e5 99 95 3e c4 4b e7 3e 5e 25 85 be
       -0.83714175 0.29218975 0.45174992 -0.2600507
0000d0 4b a8 94 3e 86 ef 6d bd 83 37 9b 3e 6c d4 a7 ba
       0.29034647 -0.058089755 0.3031579 -0.0012804396
0000e0 91 ab df bd 60 b6 e8 bd 56 cc 34 3e 13 d9 ca be
       -0.109213956 -0.1136291 0.17656073 -0.3961874
0000f0 66 83 1a be fc 8b c8 3d 5d 84 86 be 63 58 5c 3c
       -0.15089187 0.09792325 -0.2627286 0.013448807
000100 f0 34 c0 3c 30 c1 85 3e 76 bf d7 be 01 2e 17 be
       0.023462743 0.26123953 -0.4213826 -0.14763643
000110 31 bf db bd a9 ce 04 3e d1 53 4c bd 4d 5e 0e 3f
       -0.10729826 0.1296946 -0.04988462 0.5561264
000120 e1 7f ac be 90 98 0d 3e be 7e 95 be 4c ba b7 be
       -0.33691314 0.13827729 -0.2919826 -0.3588432
000130 ec bd dd 3e 54 fa c7 3e dc 67 0b be 6d f9 e5 3e
       0.4330896 0.39058173 -0.13613838 0.4491686
000140 a5 39 1f 3e 52 a0 27 bf 53 37 b6 3d dd d9 03 3f
       0.15549333 -0.65479004 0.08897271 0.5150431
000150 80 28 20 3c be 68 6b be 5c 81 45 3e 7c fd b8 be
       0.009775281 -0.22989175 0.19287628 -0.36130893
000160 80 80 92 bc 06 23 98 3e c2 b6 01 bf 28 69 ee 3c
       -0.01788354 0.2971422 -0.5066949 0.029102877
000170 09 0b 9a 3e 0a 1c 7b be e3 db 68 be fc ee 97 3e
       0.30086544 -0.24522415 -0.2274013 0.29674518
000180 f0 8d ab 3d 4d bd 08 be 12 80 f9 bc 3f d9 19 3e
       0.08376682 -0.13353463 -0.030456576 0.15024279
000190 cd fc d4 3e a7 63 08 be 85 48 73 3e 64 78 c6 3e
       0.41599122 -0.13319264 0.23758133 0.38763726
0001a0 3a 02 2a be ce 63 b9 3e 26 27 c8 3d 86 70 91 bd
       -0.16602412 0.36208957 0.09773092 -0.0710154
0001b0 2e 9d 11 3e bb c6 18 3e 69 37 2f 3d f2 31 dc bd
       0.14220116 0.1491956 0.042777453 -0.10751714
0001c0 bd b0 37 be 40 54 cd be 51 7b 90 3e 6f 1c a9 3e
       -0.17938514 -0.4010334 0.28219083 0.33029506
0001d0 93 26 36 be bf a1 70 3e 0b 10 e2 bd bd b4 90 be
       -0.17788152 0.23499201 -0.11038216 -0.28262892
0001e0 18 01 ab 3e a4 c2 9a 3e 55 b3 fd 3d 52 6d 6e be
       0.33399272 0.30226624 0.123877205 -0.2328389
0001f0 68 4f 4c 3e 34 76 ea be 84 0a 9e 3e b3 8c 27 3e
       0.19952166 -0.45793307 0.30867398 0.16362266
000200 be 32 fb bd 34 ae c8 3e f7 bf 9f be 28 e6 a7 3b
       -0.12265538 0.39195406 -0.31201145 0.0051238723
000210 7c 12 5f 3e 0f 88 9d be 19 f9 e6 be ec 76 e5 bd
       0.21784395 -0.30767867 -0.4511192 -0.11204323
000220 9c c6 b7 bc 69 b3 99 3e 7a 43 bf bd 3b 8c 82 3d
       -0.022433572 0.30019692 -0.09339042 0.06374403
000230 ec 59 b9 3e 6e 77 f5 be 7a 48 66 be 8f cc 08 3f
       0.36201417 -0.4794268 -0.22488585 0.5343713

conv1.bias f4 [16]
000000 a7 40 8a 3c 7d e4 d3 3d ec e8 0d bd 34 ae c0 bc
       0.016876532 0.10346315 -0.03464596 -0.023520567
000010 e0 ab 4b be 25 d0 ec bd 76 fd 1b 3e de 84 c9 3a
       -0.19889784 -0.11563138 0.15233406 0.001537468
000020 e8 0f 42 3c 38 b1 45 3d 2a a3 16 bd 43 eb 5a be
       0.011844613 0.048264712 -0.0367767 -0.21378808
000030 02 14 c8 3d 06 47 0a bd ff 7f 21 bc 13 57 15 be
       0.09769441 -0.03375914 -0.009857177 -0.14583997

conv2.weight f4 [16, 16, 3, 3]
000000 f8 8c 1b be 36 81 15 bd 4c f1 fb bb 35 44 f3 bd
       -0.15190494 -0.03650018 -0.007688677 -0.11878244
000010 fb fd 53 be 56 1e 74 be 3f e0 5b bd ab 91 19 3d
       -0.20702355 -0.23839697 -0.053680655 0.037492435
000020 c8 07 ee bd fd d7 89 bc a0 13 a3 bd d1 5a ab bc
       -0.11622578 -0.016826624 -0.079627275 -0.020917328
000030 fd f0 d1 bd b8 fd 20 3c 0b 30 16 be fe 90 04 be
       -0.10251043 0.009826116 -0.14666764 -0.12945935
000040 55 2e 35 bd 3c 52 a8 be 45 fa a7 3c e4 4b 8d be
       -0.04423364 -0.3287524 0.02050508 -0.27596962
000050 45 45 83 bd 6a fa 78 3e 82 16 90 be a6 35 4e bd
       -0.064096965 0.24314275 -0.28142172 -0.050344132
000060 24 85 9b 3e b4 1a 76 be 4f a4 0d be d5 a2 ff bd
       0.30375016 -0.24033624 -0.1383221 -0.124822296
000070 a9 9e ae 3d f6 c9 38 3e a1 49 01 bd b8 b7 20 3e
       0.08526356 0.18045792 -0.03156436 0.15695083
000080 80 63 b7 3e 68 bc d6 3e 8e 18 ff 3e 58 ed 10 3f
       0.358181 0.41940618 0.4982342 0.5661216
000090 c4 28 a0 bb 93 0f 52 bb f7 3f 30 be 0a 71 5e bd
       -0.004887672 -0.003205274 -0.172119 -0.05430702
0000a0 67 d8 10 be 30 2a 7e be 65 d4 44 3a 22 99 0f be
       -0.14145051 -0.24820781 0.0007508456 -0.1402326
0000b0 3f 51 d5 bd 7d 82 8c 3e 5a f0 38 bd 63 f5 c8 3e
       -0.10415887 0.27443305 -0.045151092 0.39249715
0000c0 a3 f9 93 3e 9c 07 c2 bd fb 75 b3 3e 97 2d 0a 3f
       0.28901395 -0.094741076 0.3505095 0.53975815
0000d0 e9 87 d3 3d 7d 95 ff 3e 55 1f 4d 3d 77 f7 2e be
       0.10328657 0.49918738 0.05007871 -0.17086588
0000e0 f6 95 38 be 43 bf ba bc c0 b5 01 be 89 f3 6c be
       -0.18025956 -0.022796279 -0.12666988 -0.23139776
0000f0 ac 61 42 bd 23 43 e2 bd 07 bb 98 bd 6a e1 5d 3e
       -0.04745643 -0.110479616 -0.07457548 0.2166802
000100 d8 83 05 3e ee 8c ca bd 7c dc 52 3e 02 7e 2a bc
       0.13038576 -0.098901615 0.2059192 -0.010406019
000110 f8 60 87 be 7e 6c 36 bd 49 00 19 bd 6c 20 88 be
       -0.2644117 -0.04453706 -0.037353788 -0.26587236
000120 a5 82 02 3e d3 6f 23 be ec 9b aa bb 0e 09 63 3e
       0.1274515 -0.15960626 -0.0052065756 0.22171423
000130 c1 6a 48 be 99 26 97 bd e4 84 a3 3d 92 0c 34 be
       -0.19571973 -0.07380409 0.07984331 -0.1758292
000140 5e 12 22 be 35 c4 d1 3c 23 4a 6d 3e 7c f6 76 3e
       -0.15827319 0.025606254 0.23172812 0.24117464
000150 b5 76 5f 3e 17 c3 ac 3e b2 3f b5 3e 0a a4 94 3e
       0.21822627 0.33742592 0.35400158 0.29031402
000160 ca 75 29 3e 10 11 9f 3e 5c f0 ae 3c 33 3c a0 bc
       0.16548839 0.31067705 0.021354847 -0.019559955
000170 50 f4 0b bd 9b 22 92 ba 73 37 bf bc 42 02 cf 3d
       -0.03416854 -0.0011149229 -0.02334187 0.101078525
000180 8a 00 36 3d 18 93 a4 bc a9 76 98 3d 52 b6 04 be
       0.044434108 -0.020089671 0.07444508 -0.12960175
000190 37 80 5d be bf 73 60 be 70 40 1f be 64 5b 8a be
       -0.21630941 -0.21919154 -0.15551925 -0.2702285
0001a0 00 d8 ab be e6 3c 8e bd be 70 a9 bd a0 97 84 be
       -0.33563232 -0.06945209 -0.08273457 -0.2589693
0001b0 34 4e b4 bd a9 ff af bd 44 51 33 be 1e 43 4c bb
       -0.088039786 -0.08593685 -0.17511469 -0.0031167935
0001c0 b9 68 c8 bd 1b a4 2f be df 98 c5 3c c9 8c 51 3d
       -0.09785599 -0.17152445 0.024120746 0.051159654
0001d0 c9 0b 8c bd 04 4b ba 3d e7 c9 f2 bd 14 23 51 bd
       -0.06838185 0.09096339 -0.11854916 -0.051058844
0001e0 01 a2 08 3d a5 12 1f be 32 82 05 be ad a1 b5 3d
       0.033357624 -0.15534456 -0.13037947 0.08868728
0001f0 93 cd bd bc 4d ed 7a be 65 c7 5b be 0f 24 59 be
       -0.023169314 -0.24504586 -0.21462782 -0.21205162
000200 dc 30 2d be d2 11 38 be 4e 83 12 bd 98 b8 22 3d
       -0.1691317 -0.17975548 -0.035769753 0.039726824
000210 19 11 55 bc a2 2f 00 3e 60 0b 02 bd ba 99 fa ba
       -0.013004565 0.1251817 -0.03174913 -0.00191193
000220 33 cd 70 bc 9b fd 56 3d d8 7b 8d bd 33 02 c2 3c
       -0.014697361 0.05248795 -0.06908387 0.02368269
000230 42 3b ef 3d 1e 54 b8 3d 06 85 0e bd 24 10 af 3d
       0.116812244 0.09000419 -0.03479483 0.085480005
000240 02 c5 78 3e 77 4e 81 3d 18 df 4b 3e 78 b7 df 3d
       0.24293903 0.06313794 0.19909322 0.10923666
000250 75 ab 2a 3e e3 27 0f 3e 2e f5 8b 3d 31 b5 bc 3d
       0.16666968 0.1398006 0.06833874 0.09214247
000260 b6 3d 95 3d b8 7c 96 3e ba 3c 07 be a0 bf 98 3e
       0.07287161 0.29392028 -0.13206759 0.29833698
000270 b0 9e 9b 3d a4 77 f8 bd 20 5d fb 3d b3 64 85 3e
       0.075986266 -0.12132195 0.122736216 0.2605339
000280 cb ae 12 be 1d 46 1b 3d 5d 9a 93 be 2f 2b 15 3f
       -0.1432449 0.037908662 -0.28828707 0.5826902
000290 3f 82 29 bd 27 ee 16 bf 8e 89 11 3e 25 94 b3 bd
       -0.041383978 -0.5895714 0.14212629 -0.08768491
0002a0 70 7b 11 bf d1 5d 32 3e 84 09 4e be 79 5d bd be
       -0.56828976 0.174186 -0.20120817 -0.36985376
0002b0 82 ca 58 be 8d 50 d3 bc 3b 03 33 bd 90 0f ec 3d
       -0.21171 -0.025795246 -0.043704253 0.11526406
0002c0 dc f5 86 3e ed 32 2f bd 6a be d9 3d ed b6 1c 3e
       0.2635945 -0.042773176 0.10632022 0.15304156
0002d0 15 2c 1e 3e a1 ff 46 3e 23 29 35 3e 8b a7 f7 3c
       0.15446503 0.19433452 0.17691474 0.030231258
0002e0 40 24 ca 3d 75 06 b4 bc 53 15 29 3d 61 11 d7 3d
       0.098701954 -0.021975735 0.041280102 0.10501362
0002f0 6d db 7e 3c 8d 0c c3 be e8 79 95 3e 81 f8 f0 bc
       0.015555245 -0.38095513 0.2919457 -0.02941537
000300 dc e4 e5 be e6 9b cc 3d b7 3e a9 bd e5 4c 06 bf
       -0.44901168 0.09990673 -0.08263915 -0.5246108
000310 72 ab 8e 3e 6b 95 a6 3b 35 c6 57 bd dc b7 00 3e
       0.27865177 0.00508373 -0.05267926 0.12570137
000320 49 f9 b0 bd a6 99 8c 3d 60 c8 b5 3d a5 4c ac 3d
       -0.08641297 0.068652436 0.08876109 0.08413056
000330 f0 32 8a 3d 91 ac 19 3e d7 d7 0d 3e 1b ea 76 3e
       0.06747997 0.15007235 0.13851868 0.24112742
000340 a7 5e 6b 3d 51 ad 19 be 6f 40 06 bd e5 52 4c bd
       0.057463314 -0.15007521 -0.032776292 -0.049883742
000350 de 24 a5 bd 59 3f 88 3c 5b 16 a7 3b 6a f9 8b be
       -0.080636725 0.016631769 0.0050991005 -0.27338725
000360 09 b6 07 bf 68 e3 da 3d 8d b3 82 be 74 38 d9 be
       -0.5301214 0.106879056 -0.2552761 -0.42425883
000370 0d dd c4 3d 0d 08 f2 bd 00 66 0a bf 66 2b 9f 3e
       0.096124746 -0.11817942 -0.5406189 0.31087798
000380 94 8a 00 3e df d0 30 bd 10 2f af bd e4 3c c4 bd
       0.12552863 -0.043167945 -0.08553898 -0.095819265
000390 48 aa 29 be b9 54 c2 bd 17 2b ab 3d 2b 6a 2d be
       -0.16568863 -0.09488816 0.08357828 -0.16935031
0003a0 db e5 e1 3d ec b5 76 3d 77 29 54 3e be a4 01 be
       0.110301696 0.060232088 0.20718943 -0.126605
0003b0 7a f7 f3 3c f2 c4 83 bd 1e b1 bc bb bc 35 4c bd
       0.029781092 -0.06434049 -0.0057584187 -0.049855933
0003c0 14 a2 24 bd 4e 0d 07 be b6 02 49 3d a5 78 85 be
       -0.040193632 -0.13188669 0.04907485 -0.26068607
0003d0 b2 c3 68 bd a5 28 60 3e 5b 18 ce bd f1 4b 91 bd
       -0.056827255 0.21890505 -0.10063239 -0.07094563
0003e0 f8 bf 05 3e df 94 90 bd 05 1f 0d 3d ed 3e 3c 3e
       0.13061512 -0.07059645 0.03445341 0.1838338
0003f0 d7 98 6f 3d 52 87 9a bd 02 66 cd bd a2 2c 58 bd
       0.05849537 -0.075453416 -0.10029222 -0.05277694

conv2.bias f4 [16]
000000 f0 14 56 bd 27 27 34 be e8 5c 06 3d 0a a1 b8 bd
       -0.05226606 -0.1759306 0.032803446 -0.09015091
000010 31 53 28 be cd 84 98 be 8a 7e 53 be c2 85 2b bd
       -0.16437985 -0.2978882 -0.2065374 -0.04187561
000020 ec 6d 32 bd bc 4d cd bd 7a ec 8f bd 64 1a e8 bc
       -0.04356186 -0.10024592 -0.07027526 -0.028332897
000030 2b cd 00 bd ec af 07 be 28 9b 4b 3d 98 c4 12 be
       -0.031445663 -0.13250703 0.049708515 -0.14332807

conv3.weight f4 [16, 16, 8, 1]
000000 dc 33 f3 bd 6f 89 66 bd 09 bb e0 bc 4e f9 22 bc
       -0.11875126 -0.05628341 -0.027432935 -0.009947134
000010 82 80 21 be 80 46 ac be ad f5 48 be cd a5 37 3e
       -0.15771678 -0.33647537 -0.19624968 0.17934342
000020 ed 7e 3b 3e 2d 78 05 3e ae c5 5a 3e 0c c7 ad 3d
       0.18310137 0.13034125 0.21364471 0.08485231
000030 17 2a 53 3e 66 96 a4 3e 69 3c 89 be 36 d6 a1 be
       0.20621525 0.32145995 -0.26803902 -0.31608742
000040 08 15 13 3e 26 5b 82 3e 13 a4 a1 3e 90 1b 88 3e
       0.14363492 0.25460166 0.3157049 0.2658353
000050 9b 66 c7 3d 5b 19 8a 3d f0 e9 74 be 57 69 1a be
       0.09736367 0.067431174 -0.23917365 -0.15079246
000060 1c 7f 76 be 22 0b 7e bd 0b 69 62 bd 7b 42 70 bd
       -0.24071926 -0.062022336 -0.055275958 -0.05865715
000070 e0 55 1c bd a2 f2 44 be 76 44 24 3e 09 e9 2c bd
       -0.038167834 -0.19233182 0.16041741 -0.042214427
000080 12 cb 9b 3d ec 32 93 3d 68 e2 b6 3d 36 aa e0 3d
       0.07607092 0.07187447 0.08929902 0.10969965
000090 9f d1 0f 3e 44 17 72 3e 45 a8 db 3d f4 ce d4 3d
       0.14044808 0.23641688 0.10725454 0.10391036
0000a0 bb 98 62 be 48 b6 fb 3c 9f af e6 bc ca b8 dc 3c
       -0.22128575 0.030726567 -0.028159915 0.026943583
0000b0 52 80 e9 bd 8f 41 d5 bd 93 5e 08 bf f5 88 61 3c
       -0.11401428 -0.10412895 -0.5326931 0.013765563
0000c0 09 fd bf 3d 9c 31 cd 3d 21 74 e8 bb c6 83 d4 bd
       0.093744345 0.10019228 -0.007093922 -0.10376696
0000d0 27 81 a1 3c 6a b6 9e 3d 3f 92 d2 bd 7e 79 a4 bd
       0.019714905 0.077496365 -0.102818005 -0.08030985
0000e0 c2 ba eb 3d da fc 83 3b 16 17 bb 3d 48 ef 24 bd
       0.115102306 0.004027945 0.09135263 -0.04026726
0000f0 5e b0 6c bd 0b 5b 73 be 6f c5 c1 3d 41 3c f2 3c
       -0.057785384 -0.23765199 0.094614856 0.029569747
000100 10 92 aa 3d 9b b7 8d 3c 24 7a 0d 3e 64 b0 d0 3d
       0.083286405 0.017299464 0.13816124 0.10189894
000110 19 ac d7 bd ce 05 88 bd 98 5f 2b 3f a7 97 a7 bd
       -0.10530872 -0.06641732 0.6694274 -0.08183222
000120 73 35 e5 bd 85 23 b1 bd bf a5 99 bd 0f a8 c3 bd
       -0.11191835 -0.08649353 -0.07502317 -0.09553539
000130 7f ff dc bd 11 df ce bd 36 9e ac be fd f3 b1 3e
       -0.107909195 -0.1010114 -0.33714455 0.3475646
000140 2e 4f 67 3e 37 e8 eb 3d ed 68 a8 3d 77 6a 80 bd
       0.22588798 0.11518901 0.08223138 -0.062703066
000150 49 ba f2 bc 78 cb 0a bd 11 6f a9 3e 7e 74 c8 bd
       -0.029629843 -0.03388545 0.3309255 -0.09787844
000160 ef 7f 85 bd 2b bd 0a 3b 4d b9 41 3c 19 e8 f4 3a
       -0.06518542 0.0021169882 0.011823964 0.0018684893
000170 2c 44 1c 3e 44 c3 a3 be c4 df 1f bf 82 ec 69 3e
       0.1526038 -0.31984913 -0.62450814 0.22844127
000180 a1 cc d9 bc 72 d1 1f be 7d 54 34 be 24 6f 8d bd
       -0.026586832 -0.15607241 -0.17610355 -0.06905964
000190 21 0a c8 bd fa 0b 99 be 2c 85 c6 bc b7 1d 34 3e
       -0.09767557 -0.2989195 -0.024233423 0.1758946
0001a0 00 90 97 3c 69 ca 12 3e 30 96 52 3e 1c 41 0b 3e
       0.018501282 0.14335026 0.20565104 0.13599056
0001b0 30 17 0c bd c8 9e 41 3e 3f 3e a8 3e 2c 03 83 be
       -0.0342018 0.18908226 0.3285999 -0.25588357
0001c0 c8 4b 6d 3e 67 79 39 3e 9b 01 1f 3e 95 01 1d 3e
       0.2317344 0.18112718 0.15527956 0.15332635
0001d0 35 17 3b bc 90 9d 5e 3d bf e4 93 bd ae c9 d8 3c
       -0.011419107 0.054349482 -0.07221364 0.026463356
0001e0 af 5c ae bd 4b 26 f9 bc cf 4f 9c 3c dc 8f 00 be
       -0.08513772 -0.030413767 0.019081024 -0.12554878
0001f0 a6 23 e4 bd 56 cb 37 3d 7c 1d aa 3d fd 2e 81 3d
       -0.11139612 0.04487165 0.08306405 0.063077904
000200 4d 77 3a bd 78 85 5c bc 7d de fc bc 37 b6 a8 3d
       -0.04552393 -0.013459556 -0.03086781 0.0823788
000210 b4 fb d9 3c 6d dd 85 bc 55 b8 a3 3e cb 05 8a 3d
       0.02660928 -0.016340936 0.31976572 0.06739386
000220 b1 6e 24 3b 9f 65 89 3d a1 74 8f 3d 69 3f 2a 3d
       0.0025090391 0.06708836 0.07004667 0.04156438
000230 c0 eb d4 3d 7e 2b 8a 3e 63 b6 af be 4f f2 24 be
       0.10396528 0.26986307 -0.34318838 -0.16108058
000240 b0 45 94 bb f6 3c 03 bd 2b 47 9e 3d 6f 21 a1 3d
       -0.004524909 -0.03204056 0.07728418 0.07867705
000250 2b f7 ae bd 57 df fb 3d c8 9a 40 be 1c be 30 bd
       -0.08543237 0.12298458 -0.18809044 -0.043150052
000260 8e 64 c4 3d bb 64 a5 3d 1a f4 18 bd 6d a9 cd bd
       0.09589492 0.080758534 -0.03734217 -0.10042081
000270 3c 0c 47 be 51 37 95 be ee 25 00 be 2a 5d ca be
       -0.19438261 -0.29143766 -0.12514469 -0.39524204
000280 06 11 3d bd fa ad 06 3d 62 7f 0b bd 4f 2a 3d bb
       -0.046158813 0.03288076 -0.03405703 -0.002886433
000290 f0 96 de bd 55 2a e8 3d c9 2c 96 be 49 94 5e bd
       -0.10868633 0.11336199 -0.29331043 -0.054340634
0002a0 fb af 5e 3c a2 2e 09 bd 92 11 ba bd de f6 15 be
       0.013591762 -0.03349174 -0.090853825 -0.14644954
0002b0 43 17 79 bd 6b 70 09 be 90 26 15 bf 2a 0d d0 bd
       -0.0608132 -0.1342179 -0.58261967 -0.10158761
0002c0 04 99 f2 bd 2c e6 0d bd 30 d0 bf bd 2a 3c 32 bd
       -0.11845592 -0.034643337 -0.093658805 -0.04351441
0002d0 e5 f9 45 3d 9a 9b e0 3d 15 1f 3f 3e 42 46 98 bc
       0.04833402 0.10967179 0.186642 -0.018588189
0002e0 ab da b2 3c 55 46 4e 3d d7 a6 0a bd fb 7b 89 3d
       0.021832785 0.050360043 -0.033850517 0.067131005
0002f0 0f cb a4 3c 31 e4 24 3e d5 d0 13 3e b9 91 8c 3d
       0.020116357 0.16102673 0.14435132 0.06863732
000300 e9 dd 52 bd 0c 7e ac 3d 97 c9 22 3e b5 39 d7 3d
       -0.05148116 0.08422479 0.15897213 0.105090536
000310 d8 a5 d7 3d 8b 40 f4 3d 5b 7a 24 3f b7 d8 ef bd
       0.10529679 0.11926373 0.642492 -0.11711257
000320 23 fe 91 bb ed f1 09 3c 36 d9 d6 3b cf 09 37 bd
       -0.0044553443 0.008419496 0.0065566553 -0.04468709
000330 a6 a2 8a 3c fc cc 22 3e 07 e4 88 be 8e 86 e2 3e
       0.01692326 0.15898508 -0.2673647 0.44243282
000340 12 24 02 3d b3 7c 2f bd c7 70 8e bd 1f 58 83 bd
       0.03177268 -0.04284353 -0.06955104 -0.06413292
000350 2a 0c 91 bd b7 c6 67 be 46 15 f2 3e f3 ef bd be
       -0.07082398 -0.22634397 0.47281855 -0.3709713
000360 e4 61 ee 3d f0 54 17 3e 82 d6 dd 3d a9 c7 11 3e
       0.11639765 0.14778495 0.1083193 0.1423632
000370 f3 f3 a6 3d 0c e7 8a 3d bb 53 f9 bd b5 4c e4 3d
       0.08151998 0.0678235 -0.121741734 0.11147443
000380 20 4c 93 bc ee a5 44 bc 74 1e 43 bc 50 f9 35 bd
       -0.017980635 -0.012002451 -0.011909116 -0.044427216
000390 f1 8b b2 bd e8 74 98 ba a4 79 e6 bd 1d de 5c 3e
       -0.08718098 -0.001163152 -0.1125367 0.21569104
0003a0 42 62 54 3b 7a 3e 41 3d 36 ef 14 3d 4e 46 85 3b
       0.00324072 0.047178723 0.03636094 0.004067219
0003b0 0a 22 ad 3d 2b 4f 01 be 9c 2a a5 3d 48 53 a0 be
       0.08453758 -0.12627856 0.08064768 -0.3131354
0003c0 4f ae 66 3d 6f 08 06 bd 69 ab e9 bb 28 44 86 3d
       0.056318577 -0.032722887 -0.0071310294 0.065559685
0003d0 48 7a 83 bc ea 3b 13 3c b3 95 88 be 5d c1 2d 3e
       -0.01604952 0.008986453 -0.2667671 0.16968293
0003e0 0f e8 8e bb 5e 2b a6 3b 5f d0 a4 3d 2f 25 9f 3d
       -0.0043611596 0.0050710877 0.08047556 0.07770764
0003f0 22 cb 13 bd d6 bc 53 3e 1a c0 31 3e 2c ba c0 3e
       -0.036082394 0.20677504 0.17358437 0.37642038

conv3.bias f4 [16]
000000 4c d1 53 3b cd a3 fd 3d 19 a4 e5 3d 35 ce 8a 3c
       0.0032320796 0.12384758 0.1121294 0.01694403
000010 37 4a 7b 3b 04 7c 83 3e 2e e4 23 3e 69 54 04 3e
       0.0038343796 0.25680554 0.16005012 0.12922825
000020 df ba 16 bd ec 74 b1 be ea 6e 8f 3e 0b 76 c0 3e
       -0.036799308 -0.34659517 0.28014308 0.3759006
000030 75 58 50 bc 04 16 2c 3d 92 4a 61 3e f6 f8 50 bb
       -0.012716402 0.042013183 0.22001103 -0.0031886674

tcn.tcn.0.conv1.weight f4 [16, 16, 5]
000000 a7 6a de 3d 1a fb 0d 3e 04 8c a7 3d 05 1f b6 bb
       0.10860186 0.13865319 0.08181003 -0.005557897
000010 5e 30 23 be 14 e1 c1 3d ce 42 84 3d 94 d9 8c 3d
       -0.1593642 0.09466758 0.064580545 0.06877437
000020 bf fe a5 bc 4f bc b4 be 3f d7 06 3e 7b 6b 96 3d
       -0.020263074 -0.35299918 0.13168047 0.07344719
000030 08 ae 4d 3e 84 9a 7b bd 1e 65 52 bd 2e 2e 43 3e
       0.20085919 -0.061426654 -0.051365964 0.19060585
000040 2b 94 1a 3e e5 a8 f0 3d b1 cf ac 3d 6d 39 89 3e
       0.15095584 0.11750964 0.084380515 0.26801625
000050 aa 8b ec 3d eb 67 be bc 9e 41 92 3e 2a af 10 3e
       0.11550076 -0.023242911 0.28565687 0.1412932
000060 cc 88 01 be d9 71 2c be 03 9b 1b 3e 17 d2 3c 3e
       -0.1264984 -0.16840304 0.15195851 0.18439518
000070 b5 f7 1d bc fd e9 47 3e 7c 60 03 bd 45 d3 91 3c
       -0.0096415775 0.19522853 -0.032074437 0.017800936
000080 e1 15 08 be 82 dc 4e bd e8 5d dd 3d 10 5c ea bd
       -0.13289596 -0.05050326 0.10808927 -0.11443341
000090 3f 67 d2 bd 58 74 47 bd 10 38 25 bb 3c 3a 1b be
       -0.10273599 -0.04869494 -0.0025210418 -0.15158933
0000a0 14 7b f8 bd fe 32 ee 3c 19 53 66 bd 61 a9 2f be
       -0.1213285 0.02907705 -0.05623159 -0.17154457
0000b0 a6 15 36 be cc 4a 38 be ce 88 49 be b1 d6 73 be
       -0.17781696 -0.17997283 -0.19681093 -0.23812367
0000c0 de 3c 8b be 58 76 86 bd 88 8c f4 bd 8e d5 32 3c
       -0.27194875 -0.06565541 -0.11940867 0.010915173
0000d0 5f d4 a3 bd 5a 5a 84 be 11 d5 d5 bd de d6 7e bd
       -0.07999491 -0.25850183 -0.1044103 -0.062216632
0000e0 d0 ec 00 bd 44 17 fc 3c 9d 03 86 bd 52 84 49 3b
       -0.031475842 0.030772813 -0.06543658 0.0030749035
0000f0 c9 12 c6 3d 11 da 44 3d d0 af 87 3e fc 3a 59 bd
       0.09671552 0.048059527 0.26501322 -0.053034768
000100 63 6d 36 be 13 02 ff bd f3 7d bc bd f8 66 a5 bd
       -0.17815165 -0.124515675 -0.092037104 -0.0807628
000110 e9 35 ad bd 6c 0b f3 bd 9b 20 ad bd 66 44 87 3d
       -0.08457548 -0.11867413 -0.084534846 0.06604843
000120 0a 1d 27 3d 43 79 76 3d 65 ba ea 3d b3 ed 6d 3a
       0.04079918 0.060174238 0.11461333 0.00090762525
000130 3e c9 05 be d8 1d b5 3d 85 16 4b bd 1c 36 00 be
       -0.13065049 0.08843583 -0.049582023 -0.12520641
000140 18 94 81 3e 3b 33 af 3e ee 0d e9 3d 0e df 4b 3e
       0.253083 0.34218773 0.1137961 0.19909307
000150 50 db 1d 3e 63 5b 31 3e d9 77 b6 3e 29 26 97 3c
       0.15415692 0.17320018 0.35638312 0.018450813
000160 b1 0e 4d 3e 85 7a a2 3e 68 dc 71 3c 11 da ac 3e
       0.20025136 0.317341 0.014762022 0.3376012
000170 ab 48 84 3e 4c 22 81 3e 4a 53 cf 3e c6 fa 82 bd
       0.2583669 0.2522148 0.40493232 -0.063954875
000180 7a 0b 34 bd 46 98 91 be f1 d0 87 3d e3 d9 34 bc
       -0.043956257 -0.28436488 0.06631649 -0.011038276
000190 23 73 c1 be ca 62 96 be 36 33 c8 bb f1 36 e2 3a
       -0.37783155 -0.29372245 -0.0061096204 0.0017258805
0001a0 1e 3a d6 3d ab 7e 25 3e a0 47 08 3e bb c6 d2 3d
       0.10460304 0.16161601 0.13308573 0.10291811
0001b0 20 7a 81 3d 85 0d 32 3d e7 59 8e be 83 d7 5f be
       0.063221216 0.043469924 -0.27802965 -0.21859555
0001c0 77 51 0e 3b 08 9b 1b 3d b4 8b 96 3c f7 93 70 3c
       0.0021716037 0.037989646 0.018377163 0.014683715
0001d0 e8 a8 52 bb 46 5a b5 3d bc 37 7c 3e a1 48 65 3e
       -0.0032144133 0.08855109 0.24630636 0.22390987
0001e0 4b a9 4d 3d 2b 98 53 3e bd aa a8 3c 57 8c 54 3e
       0.05021028 0.20663516 0.020589227 0.2075666
0001f0 09 1f 7c 3d 4f 7c 01 bd 79 27 4d be 8f 9f 8a be
       0.061553035 -0.03161269 -0.20034589 -0.2707486
000200 74 c2 58 be ee d7 38 bd 65 36 92 3d 88 0f 3b 3d
       -0.21167928 -0.0451278 0.07139281 0.04566911
000210 e4 0e 26 3e 24 03 43 3e 96 6a 0d 3e 51 aa ba 3d
       0.16216618 0.19044167 0.1381019 0.091145165
000220 3a 61 89 3e 80 27 20 3e 92 76 d8 3d 76 ec 27 3e
       0.2683199 0.15640068 0.105694905 0.16398796
000230 10 6f 13 be 64 bc bd bd 61 28 1a 3c d1 fc 75 bd
       -0.14397836 -0.09264448 0.009409041 -0.060055558
000240 f2 bd dd 3d f2 ad 67 3d 35 e6 d2 3d 33 2c 13 3e
       0.10827245 0.05656237 0.10297815 0.1437233
000250 b7 34 3c 3e 99 06 79 3e 32 37 48 3e ce 97 09 3c
       0.18379484 0.24318923 0.19552305 0.008398009
000260 7f d2 90 3d 65 c5 0b bd ef 63 0c be 1d 3b 0e 3e
       0.07071399 -0.034123797 -0.13709997 0.13889737
000270 97 10 2d 3e 1f 62 d3 bd e4 34 fb bd 9b 86 4a 3e
       0.1690086 -0.103214495 -0.122659475 0.1977791
000280 c4 96 63 bc 69 5e c8 3d d4 0e 3a bd 40 e1 80 bd
       -0.013890926 0.09783632 -0.045424297 -0.06292963
000290 c2 3c 64 be 08 a0 55 3e 08 3e b2 3d ae 86 f1 3d
       -0.22288802 0.20861828 0.08703238 0.11793266
0002a0 7b 2a a3 bd 46 0a 2a be 32 6e 1f 3e 5d 01 56 3d
       -0.07967087 -0.16605482 0.1556938 0.052247394
0002b0 0f be f8 3d a5 73 f5 3c 91 30 4f be aa fa d0 bd
       0.12145626 0.02996237 -0.2023337 -0.102040604
0002c0 17 20 b1 3c 28 21 df bd 34 0d a4 bd b2 a4 0b bd
       0.021621747 -0.10894996 -0.08010331 -0.034092613
0002d0 81 6d c5 bc 2e b1 1c be 8f 7d 0f be a2 01 80 bc
       -0.024100067 -0.15301964 -0.1401274 -0.015625779
0002e0 ee af 4d bd 34 92 fd 3d ba e2 72 3e 00 bb 98 3d
       -0.050216608 0.12381402 0.23719302 0.074575424
0002f0 29 cf 55 bd 95 29 f7 bc ab 34 03 3d 86 15 96 3c
       -0.052199516 -0.030171195 0.03203265 0.01832081
000300 f1 8c 7f 3c e7 36 d1 3c fc 1f 8f 3e b2 43 ef 3c
       0.015597568 0.025538875 0.2795409 0.029207084
000310 e4 44 4d be 97 b2 5f bd 09 c5 b7 bc 3b 99 16 bd
       -0.20045811 -0.054613676 -0.02243282 -0.036767226
000320 ae dd 43 3d 0f ed c0 bd ec c3 c4 bd 6d dd 0d be
       0.047818832 -0.09420215 -0.09607682 -0.13853998
000330 41 e0 98 bd f6 68 c8 bd 9b 34 c8 bd a9 0d d4 3d
       -0.07464648 -0.09785645 -0.09775659 0.10354168
000340 fb 1d 5f 3e 8b d1 b2 bc 48 47 00 3e d5 8b f4 bc
       0.2178878 -0.021828433 0.12527192 -0.029851833
000350 87 98 3f be df 88 30 be 73 42 22 be de 87 ac bd
       -0.18710528 -0.17239712 -0.15845661 -0.08424352
000360 43 bb 2e 3d 07 8b 14 3e 42 1b 23 3e ec f1 a1 bd
       0.042659055 0.1450616 0.15928367 -0.07907471
000370 74 5e 4c be be 2e 81 be 3a 8c 94 bc 12 49 8e 3d
       -0.19957906 -0.25230974 -0.018133271 0.06947531
000380 92 0d 44 be 9c c9 28 3a 77 23 fa bd 4f a2 3e be
       -0.19145802 0.00064387335 -0.12213796 -0.18616603
000390 30 cb 5f be 5e 0b ad be 45 e9 a8 be dd 77 3f bd
       -0.21854854 -0.33797735 -0.3299047 -0.04674517
0003a0 53 5c 8f 3d 15 5b 59 3d 74 c3 d3 bc 28 87 ad bd
       0.07000031 0.05306538 -0.025850035 -0.08473045
0003b0 0d 3f f4 bd 8e 0a 11 3e 97 7e cd bd 4f 37 bd be
       -0.119260885 0.14164183 -0.10033911 -0.3695626
0003c0 71 da fe be 0e 17 8f be 80 4a 27 be b1 a5 2c 3e
       -0.49776033 -0.27947277 -0.16337013 0.16860081
0003d0 18 10 40 3e 2b 62 21 be 3c a9 3e 3d 5e 4f 5d bd
       0.1875614 -0.15760104 0.046548113 -0.05403077
0003e0 98 a2 fa bc 56 79 4c 3d a7 d0 73 be e4 c1 a0 bd
       -0.030595109 0.049920402 -0.23810063 -0.07849482
0003f0 84 e1 23 3e 74 cf a8 3c 65 84 84 3e a3 f9 5f bc
       0.16003996 0.020606734 0.2588226 -0.013670358

tcn.tcn.0.conv1.bias f4 [16]
000000 9b 67 a8 3c c1 d5 86 ba f7 fa 42 3e 6f 56 32 3e
       0.020557215 -0.0010287092 0.19041048 0.17415784
000010 58 f4 db 3c 09 d5 97 3d 26 c9 87 bc 2c 46 3b be
       0.02684991 0.0741368 -0.016575407 -0.18288487
000020 cc 84 6f 3c 1e 49 3a 3e e0 36 89 3d a3 d5 38 bd
       0.014619064 0.18191954 0.0669992 -0.045125615
000030 c8 13 62 3e 21 48 77 3d 07 02 df bd f8 94 b5 3d
       0.22077858 0.06037152 -0.108890586 0.08866304

tcn.tcn.0.conv2.weight f4 [16, 16, 1]
000000 be 42 8a 3d fa 7f f9 bd f4 bc 8e 3e 3a 82 97 3d
       0.06751011 -0.12182613 0.27878535 0.073978856
000010 85 b3 3a 3e 9f de 1e be 0b b5 94 3d af 84 5d 3e
       0.18232544 -0.1551461 0.07261094 0.21632646
000020 9a 41 6c 3e 2c 96 93 bd bc bc 17 be 03 51 51 be
       0.230719 -0.072063774 -0.1481809 -0.2044106
000030 ef 16 59 3e ac a3 dc bd 8a bd e1 bd a4 ba d0 3e
       0.21200155 -0.107734054 -0.1102248 0.40767395
000040 ab 94 9d 3d 82 9d 52 3e ff f2 87 bd fa 1c 1f 3e
       0.07694372 0.20567897 -0.06638145 0.15538397
000050 2b 86 98 3d 1a aa f3 3d 1c 7d 4f 3e 18 54 8e bd
       0.074474655 0.11897679 0.20262569 -0.06949633
000060 2e f9 9f bc e3 f7 64 3b ad f7 36 be dd 1e c6 bd
       -0.019527998 0.003493779 -0.17867918 -0.096738555
000070 02 02 a4 3d dd 1d 9b be 74 21 1e be 06 f9 ce 3e
       0.080081955 -0.3029622 -0.15442449 0.40424365
000080 44 f6 4c 3d 6e de 63 3e d7 04 1e be 3a 13 71 3e
       0.050039545 0.22252819 -0.15431534 0.2354249
000090 03 41 f0 ba ee a2 92 bd 00 ef 5e bc 3a 38 05 3e
       -0.0018329922 -0.071599826 -0.013606787 0.1300973
0000a0 74 d7 a9 3c e1 71 ae 3e 49 43 4f 3e 2f 52 46 3e
       0.020732619 0.34071258 0.20240511 0.19367288
0000b0 7d 11 14 be fc 15 96 3e 72 50 c1 bd e5 ab db bd
       -0.14459796 0.29313648 -0.09439172 -0.10726146
0000c0 b6 93 11 3e 5e e3 9c 3e 66 47 47 bc 09 d7 86 3d
       0.14216504 0.30642217 -0.012163019 0.065839835
0000d0 08 d4 78 bd b8 42 6d 3e 43 b1 41 3e 78 94 7d 3d
       -0.060749084 0.23169982 0.18915276 0.06190917
0000e0 f2 9f 54 be c4 b1 84 be a2 35 99 bd 4c 54 87 be
       -0.2076414 -0.25916874 -0.07480933 -0.264315
0000f0 59 7e 8c 3e e0 42 cf 3d 8c 2b b8 3d 8f 6d 33 3e
       0.27440146 0.10120177 0.08992681 0.17522262
000100 a2 1d 0a 3e 7b 36 96 3e 37 c1 98 bd 78 df cd 3b
       0.13487867 0.2933844 -0.07458728 0.006282743
000110 29 7f 7f 3d 59 0e 05 3d ba 86 c8 bd 2d 68 06 bf
       0.06237713 0.032484386 -0.09791322 -0.5250271
000120 3b 95 0c be 54 c5 e5 be 6c ed 60 bd 8e 25 83 be
       -0.13728802 -0.44877112 -0.054913923 -0.2561459
000130 ed 70 df bd a4 b4 f6 3d 36 53 0f bc d4 82 cb 3d
       -0.10910211 0.12046173 -0.008747866 0.09937063
000140 9c 93 c6 bb f5 23 97 3d f2 e9 3f 3c 13 cb 96 bd
       -0.006060077 0.07379905 0.011713492 -0.07362952
000150 cf 58 93 be 7d f9 94 3c 3e b5 9d bd 2c 1f d5 be
       -0.28778693 0.018185372 -0.07700585 -0.41625345
000160 2e 31 38 3e ca 8d f9 be 48 98 ff bd ff d3 11 bf
       0.1798751 -0.4874099 -0.12480217 -0.56964105
000170 97 49 6a bd b5 ca 42 3b 30 00 75 3e 5e 72 24 3d
       -0.057199087 0.0029722874 0.23925853 0.04014813
000180 00 33 fa bd a3 4d 83 be 09 8f 94 bd af c3 32 be
       -0.12216759 -0.2564517 -0.07253844 -0.1745746
000190 ec 14 5f bb cf 34 ed 3c 52 9b 80 be 14 05 13 be
       -0.003403957 0.028955845 -0.251185 -0.14357406
0001a0 84 e9 48 be 1c 75 80 3e f4 cf 8b be 1a 65 7f be
       -0.19620329 0.25089347 -0.27307093 -0.24940911
0001b0 af 9f 6e 3d 01 29 ad be d3 1f ea bc e3 45 95 bd
       0.058257755 -0.33820346 -0.028579628 -0.072887205
0001c0 1c 4b 64 be d4 0b ba 3c a9 b8 9c bc ee be ef 3d
       -0.22294277 0.022710718 -0.019131022 0.11706339
0001d0 dd 28 b8 bd b5 f4 56 3e f3 e9 03 3e 46 e6 08 3e
       -0.08992169 0.20991786 0.12882213 0.13369092
0001e0 46 6f 91 3e 5e 8f 25 3e 18 cd 07 3d 27 e9 45 3e
       0.28405207 0.16167971 0.033154577 0.19327222
0001f0 a0 1b 67 3e 83 66 7d 3e a9 46 a5 be 61 dd 52 be
       0.22569132 0.24746136 -0.32280472 -0.20592262
000200 09 2e 42 be 82 0e 9e 3d 9b ea 89 3e 1b 4d 74 39
       -0.18962874 0.07717611 0.26936802 0.00023298377
000210 4b d1 36 3d f2 52 0f 3e e6 1c 9b 3d 76 94 0b bc
       0.04463319 0.13996485 0.07573871 -0.008519283
000220 df bc 35 be 36 3b 57 3d 27 d5 c8 3d d0 69 0f be
       -0.1774783 0.052546702 0.098062806 -0.14005208
000230 7a fb 54 be c8 c2 cf 3d ca de b5 be 11 46 93 3e
       -0.20799056 0.101445735 -0.35521537 0.28764394
000240 b5 d8 12 be e0 4c b1 3e 1d 2d da bd 0a 6f 0a 3e
       -0.1434048 0.34628963 -0.10653136 0.1351892
000250 f9 d4 5b 3e 0a 22 92 3e e1 3a 56 3e c0 13 17 bd
       0.21467961 0.28541595 0.20920898 -0.03688407
000260 f6 1f b2 bd f7 d2 3a be e7 72 a6 bd eb e2 9e 3c
       -0.08697502 -0.18244539 -0.08127385 0.019395312
000270 55 f8 7e be 55 67 89 3d 82 2e ad be 41 11 a3 ba
       -0.24899419 0.06709162 -0.33824545 -0.0012441055
000280 81 74 12 be d2 0f b0 bd ec d4 fc 3d 8d 1e df bd
       -0.14302255 -0.085967675 0.12345299 -0.10894499
000290 92 35 13 be 4c 63 11 be 9d 6f 82 bc 5d 2b 58 3e
       -0.14375904 -0.14198035 -0.015922362 0.21110292
0002a0 58 75 ee bc 2c 2c 1e 3f 66 7c 42 be 62 ca 01 3f
       -0.029108688 0.6178615 -0.18992767 0.50699437
0002b0 6c 83 33 3e 95 2a 38 3d 06 aa 68 3d 0e 65 83 be
       0.17530602 0.044962484 0.056802772 -0.25663036
0002c0 8e d1 f4 3c ad b1 3c be 1f da f3 bd 5c 45 86 3e
       0.02988508 -0.18427153 -0.11906838 0.26224792
0002d0 88 1c 2b be f3 1a 75 be bf d3 09 be 23 45 4a 3e
       -0.16710103 -0.23936062 -0.13459681 0.19752936
0002e0 d8 2b a6 bd af e5 1d 3f 15 30 01 bc 35 f9 10 3e
       -0.08113831 0.61678594 -0.007884999 0.14157565
0002f0 bc 69 66 bc 42 04 f5 3c ac 66 9d 3e 15 7f 5f 3e
       -0.014063295 0.029909257 0.30742395 0.21825822
000300 53 43 d4 bd b5 38 ae be 21 df 35 3e 47 44 48 bd
       -0.103644036 -0.3402764 0.17760898 -0.04889324
000310 a7 b2 29 be 84 55 0c bd 54 15 09 be e1 40 cc 3e
       -0.16572057 -0.03426124 -0.13387042 0.3989325
000320 94 b8 54 bd c5 06 94 3e 6d df 15 be 52 a8 9b 3e
       -0.05193384 0.28911415 -0.14636011 0.30401856
000330 76 3a 86 3e f0 d6 40 be 93 f1 c6 3d ba 01 14 be
       0.26216477 -0.18831992 0.097140454 -0.14453784
000340 3d e7 3f 3e b9 08 0e 3e 43 bb 82 3e 81 73 be bd
       0.18740554 0.13870515 0.25533494 -0.09299374
000350 be 32 47 bd b6 b1 74 be af bd 6e 3c ae cc db 3e
       -0.048632376 -0.23895916 0.014571591 0.42929596
000360 5d a7 63 38 9d 70 c6 3e 74 f2 5d be 13 a7 a3 3d
       5.4276887e-05 0.38757792 -0.2167452 0.07990851
000370 b8 2d 84 3e 59 e8 5d 3e 06 fd 55 be 84 85 a3 3e
       0.2581613 0.21670665 -0.20897302 0.31937802
000380 6c 12 6a 3d 2f 4e 72 bd 1f dc ac bc e7 67 8e be
       0.057146475 -0.059156593 -0.021101056 -0.27813646
000390 97 9f e4 bd 89 ce 27 3c 19 12 1b be 63 c0 cc 3e
       -0.11163252 0.010242113 -0.15143622 0.3999053
0003a0 3d 49 31 bc 02 ed 0c 3f 71 45 8c be e3 51 51 3e
       -0.010820684 0.55049145 -0.2739673 0.20441394
0003b0 24 17 15 bd 37 69 52 bb 84 a4 71 be e6 0b ba bd
       -0.03639902 -0.003210617 -0.23597914 -0.09084301
0003c0 cf 78 33 3d ad ba a3 be 48 f9 69 bd fe 78 81 be
       0.043816384 -0.3197836 -0.0571225 -0.25287622
0003d0 96 3e dd 3d 86 56 87 bd 20 8e c8 bd f7 36 f3 bd
       0.10802953 -0.066083 -0.09792733 -0.11875718
0003e0 9a c8 7a 3e 6c 59 34 3f 4f bb 8a be 9c 93 42 bd
       0.24490586 0.70448947 -0.2709603 -0.047504053
0003f0 64 2b f5 3c aa d0 57 3e 81 b0 8d bd 2c d7 aa 3e
       0.029927917 0.21075693 -0.06918431 0.33367288

tcn.tcn.0.conv2.bias f4 [16]
000000 85 37 55 3d 2c ca b9 3c f7 8e 80 3d c5 17 a7 bd
       0.0520549 0.02267941 0.062772684 -0.081588306
000010 99 00 e8 3d c9 ab 03 3d 22 27 d0 bd 41 fb 35 bd
       0.11328239 0.03214625 -0.10163714 -0.044429068
000020 45 4b 66 be 58 1a 18 be c1 6a a8 3c 7f 7f 6b 3d
       -0.2248965 -0.148538 0.020558717 0.057494637
000030 76 2b 2e 3e f0 0f fc bc 7c 26 54 3e 8e ee 26 3d
       0.17008767 -0.030769318 0.20717806 0.040754847

tcn.tcn.0.res_conv.weight f4 [16, 16, 1]
000000 d0 36 44 3b 8e fa b3 bd 70 15 3d 3e 40 3c 3c 3c
       0.0029939897 -0.08788024 0.18465209 0.011488974
000010 c5 a4 c3 3d 89 db 2e 3e 5d 75 41 bd 74 2f fd bd
       0.09552912 0.17075934 -0.047231067 -0.123625666
000020 6f 98 24 be a3 1b 8a 3e 48 62 86 be 33 f4 cb 3d
       -0.16073774 0.2697421 -0.26246858 0.09958687
000030 28 d0 64 bd 15 65 f6 3d a6 f2 15 3e e1 1d 66 bc
       -0.055862576 0.120309986 0.14643344 -0.01404521
000040 90 d9 aa 3d 1c 4d a6 3e a1 45 0d be 33 04 1c 3e
       0.08342278 0.32480705 -0.13796093 0.15235977
000050 c4 e0 d9 3c 2e 28 e5 bd cd e6 dc 3d 6d 2a f7 be
       0.026596434 -0.11189304 0.10786209 -0.48274556
000060 01 88 d1 3d 4b a2 d4 bc 0b e3 3b be a2 0d c5 bb
       0.10231019 -0.025956294 -0.18348329 -0.006013588
000070 d9 20 8a 3e 28 9f d7 bd d0 49 4a be e9 2b 69 be
       0.26978186 -0.105284035 -0.1975472 -0.22770657
000080 3e 38 31 3e 3e 5b 7c be 67 48 8a bd b4 bd 83 3e
       0.17306611 -0.24644181 -0.06752091 0.2573067
000090 69 2e 89 3d de 9a 4f be b6 b0 d3 3e dd 4a 49 3e
       0.06698305 -0.20273921 0.41345757 0.19657464
0000a0 42 74 4b 3c 60 b3 d8 3e 81 bb 19 3e 71 d3 96 be
       0.012417855 0.42324352 0.15012933 -0.29458192
0000b0 4a 77 b5 be 12 b2 8f 3e fc 4e 2f 3e 7e 2f b6 bd
       -0.35442573 0.28065544 0.17119974 -0.08895777
0000c0 18 13 87 3e 31 21 94 be 38 39 f7 3d 58 97 ff bd
       0.26381755 -0.28931573 0.120714605 -0.124800384
0000d0 62 84 08 bd ee cb 69 bc fd 1d f8 bc 31 a4 c7 3e
       -0.033329375 -0.014269812 -0.030287737 0.38992456
0000e0 df 4d 8d bd 15 6e d7 3d 2b 2a 86 3e e9 de 51 be
       -0.06899618 0.10519043 0.26204047 -0.2049519
0000f0 bf 35 37 3d 38 f5 a1 3e e1 13 3e 3e f3 d2 a1 bd
       0.04472899 0.316324 0.1856227 -0.079015635
000100 bc e9 7a be 7d 5c 90 3e 81 4c 89 bd 52 7a 8a be
       -0.24503225 0.28195563 -0.06704045 -0.27046448
000110 a0 59 64 bd c7 fc 92 3d cc 9d 8e be 94 82 4e be
       -0.055749536 0.0717712 -0.27854764 -0.20166999
000120 63 48 10 bd 51 13 13 be b9 49 78 3e 21 1d 03 bd
       -0.035225283 -0.14362837 0.24246873 -0.0320102
000130 ca 45 5d 3e cb a8 ea 3d b8 ea a0 bd 0b 4e 3e bd
       0.21608654 0.11457976 -0.07857269 -0.046461146
000140 06 70 5e 3d 46 00 4f 3e 4d c4 84 be 96 33 a9 bd
       0.054306053 0.20214948 -0.25931016 -0.08261792
000150 18 32 33 be ff 9a 86 3e 04 98 a6 be 39 34 08 3c
       -0.17499578 0.26290128 -0.32537854 0.008313232
000160 81 27 15 3d 10 7f 17 3c 60 e6 44 bd 65 f4 a5 3d
       0.036414627 0.009246603 -0.048071265 0.08103255
000170 7e 07 42 3d 2e 63 01 bd 55 76 1f 3d bc c5 5c 3e
       0.047370426 -0.031588726 0.03893121 0.21559805
000180 f8 1c b4 be 73 93 97 3e db 58 d7 3d e1 0c 41 be
       -0.3517835 0.29604682 0.10514995 -0.18852569
000190 01 d7 4d 3e 41 2e fc 3d cb 65 95 be 57 ac e9 bd
       0.20101549 0.1231351 -0.29179224 -0.11409824
0001a0 47 63 2d be 4d d4 41 3e 35 04 a5 be b3 7a 68 3d
       -0.16932403 0.18928643 -0.32229772 0.05675764
0001b0 f6 a2 99 3d c9 5d b3 be 0c 69 0a be 15 54 24 3e
       0.075017855 -0.3503249 -0.13516635 0.160477
0001c0 70 0d 05 be f3 5a 97 3d 14 e1 6d 3e 5d ee a3 3e
       -0.12993407 0.07390394 0.23230392 0.32017794
0001d0 a8 f9 9c bd d7 38 90 3e 84 0a e5 3e 27 6d 71 be
       -0.07664806 0.28168365 0.44734585 -0.23576795
0001e0 7d d9 1c bc ac f5 9f bd 7e cf 88 be 82 6a 5e bd
       -0.009573338 -0.0781053 -0.26720804 -0.054300793
0001f0 8d d1 ed bb e5 80 86 be 55 82 aa bd 5f 31 24 be
       -0.0072576464 -0.26270214 -0.0832564 -0.16034459
000200 ad 38 58 be ec 2e cb 3c e7 e8 46 3e 5d 4f a8 be
       -0.2111537 0.024802648 0.19424783 -0.3287305
000210 82 e5 a4 be f6 f1 26 bd 29 3e 59 be 0b 29 e2 bd
       -0.3220635 -0.040758096 -0.21215118 -0.110429846
000220 93 35 dc bd 5c d1 67 3f 1d d5 75 3e 12 43 08 3e
       -0.10752406 0.9055383 0.24007078 0.13306835
000230 96 93 51 be 4b d4 44 be 5a 18 27 be c4 d8 c5 3e
       -0.20466456 -0.19221608 -0.16317883 0.38641942
000240 18 50 ac 3e c7 4a 3e 3c 1e 6f 0b 3e 7e 75 f6 bd
       0.33654857 0.011614508 0.13616607 -0.120341286
000250 70 72 e2 bd 74 aa a8 bd 82 d3 8e 3e f5 d1 20 3e
       -0.110569835 -0.08235636 0.27895743 0.15705092
000260 1b 73 99 bd 5e 36 82 3e 6c 23 a9 3d 78 d9 51 3e
       -0.07492658 0.25432104 0.08258709 0.20493114
000270 f4 49 50 be 33 9f 9b 3e 85 ae 03 3d 9c 07 86 be
       -0.20340711 0.30394897 0.032148857 -0.2617768
000280 9e 8b 67 3d 81 73 27 be b6 b2 fe bd 16 7c 83 be
       0.056529634 -0.16352655 -0.1243643 -0.25680608
000290 e6 9b c7 bd c1 70 bb be 08 0f 35 3e 4d 97 16 3e
       -0.09746532 -0.36609462 0.17681515 0.14706154
0002a0 96 1c 6b be 19 9e c9 3e 21 0f e8 bd 1f 89 f9 be
       -0.22960123 0.3937843 -0.113310106 -0.48737428
0002b0 f9 b6 f1 bc a0 f5 97 be 95 9f 9c 3e ea af 4c be
       -0.029506193 -0.29679585 0.305905 -0.19988981
0002c0 8f dd d7 be 79 1f 8f be d5 e3 38 be 65 b3 d0 bd
       -0.42161223 -0.279537 -0.18055661 -0.10190467
0002d0 0b bb 06 3d c0 8b a3 be 5c a3 63 be 0d 73 d6 bd
       0.03289322 -0.31942558 -0.22230285 -0.10471163
0002e0 07 52 47 3d d2 14 84 be 75 0e 4f be c4 fd b4 bd
       0.04866221 -0.25797135 -0.20220359 -0.088374645
0002f0 e8 b3 c0 3d 48 e7 24 bd 21 53 91 bc d5 06 2f be
       0.094093144 -0.04025963 -0.017739834 -0.1709245
000300 9c 41 57 3d 8b 55 b8 3e 47 61 79 3d 0a 8f 5e bc
       0.052552804 0.36002764 0.060883787 -0.013583908
000310 6f d4 bb bd 70 fe 86 bd ae fa a7 be 05 ae 14 be
       -0.09171378 -0.06591499 -0.3280844 -0.14519508
000320 15 43 62 3e bb 57 d7 3d ba 2c 80 be 02 80 dd 3d
       0.22095902 0.1051478 -0.25034124 0.10815431
000330 d7 89 00 3e b5 4e 07 be 51 0b 8f bd c5 eb 81 3e
       0.12552582 -0.13213618 -0.0698458 0.2537519
000340 e5 ec a9 3e b9 34 b5 3e 36 8d 41 3e 75 f0 cc 3e
       0.3318855 0.35391787 0.18901524 0.40027204
000350 e0 e1 24 be de 38 8a 3e 6f 16 56 3e 67 8a 1b 3d
       -0.1610179 0.2699651 0.20906995 0.037973788
000360 36 8b 13 3e 01 ae c9 ba 11 2e 73 bd 37 53 90 be
       0.14408574 -0.001538694 -0.059370104 -0.28188488
000370 40 a4 b9 3d a5 92 39 be 6f 30 89 3d 8b ce 3d be
       0.09064531 -0.18122347 0.06698691 -0.18535821
000380 ac e2 0d be 9c 6f 53 be 94 7f 60 3d 41 d3 99 3d
       -0.13856 -0.20648044 0.054809168 0.075109966
000390 86 90 1c be a3 4d a6 bd b8 2a 6f 3e 58 6a b8 bc
       -0.15289506 -0.08120277 0.2335614 -0.022511646
0003a0 92 c5 17 be 5a cb e8 3d c1 eb e3 bd c9 62 1a 3c
       -0.14821461 0.11366911 -0.11128951 0.009422966
0003b0 4f fa fa 3d 4c 4f db 3d a9 2f 03 3c 82 fe e6 3c
       0.12254774 0.10708484 0.008006969 0.02819753
0003c0 b4 61 86 be 1a b4 44 bd 28 94 8c bd 79 05 51 be
       -0.26246417 -0.04802332 -0.06864196 -0.20412244
0003d0 ab c7 48 3e 58 12 f6 3d a7 a7 57 be bd d8 9c 3d
       0.19607417 0.120152175 -0.21060048 0.07658527
0003e0 31 f3 b7 bd 26 e3 d0 bc f7 fe a9 be 52 d1 6f bd
       -0.08981932 -0.025498938 -0.33202335 -0.058549233
0003f0 ce 2b 01 3e 2f e6 b1 3d 50 53 20 be 0e 2f 04 3e
       0.12614366 0.08686482 -0.15656781 0.12908575

tcn.tcn.0.res_conv.bias f4 [16]
000000 f2 a7 7d 3e c3 71 ed bd 98 86 68 be 95 7c d1 3c
       0.24771097 -0.11593964 -0.22707593 0.0255721
000010 d8 e0 0e be 20 94 22 be 0f 72 55 be 32 a2 26 be
       -0.13952959 -0.15876818 -0.20844291 -0.1627281
000020 2d 0b 82 bd 94 07 0f 3e 8c 43 c5 bd 7f dc 06 3e
       -0.06349788 0.13967735 -0.09632024 0.1317005
000030 5b 7d 2c bd c7 95 93 be 8f 42 49 3c 5c b6 69 3d
       -0.042111736 -0.2882521 0.012283935 0.057058677

tcn.tcn.1.conv1.weight f4 [16, 16, 5]
000000 7e 76 20 bd 6b 2a 48 be 74 2e ee bd c1 6d 4e be
       -0.039175503 -0.19547431 -0.11629954 -0.20159055
000010 a6 99 98 be 9b 2c 49 3e 44 58 cd be aa b2 2f be
       -0.29804724 0.19645922 -0.40106404 -0.17157999
000020 6a d1 d0 bd 01 29 45 3e bc 2b f3 3d 10 64 dc 3e
       -0.101961926 0.19253923 0.11873576 0.43045092
000030 44 2c cb bd 31 86 91 be 42 2c 67 be 3c 6f f2 3c
       -0.099205524 -0.28422692 -0.22575477 0.029594056
000040 d4 9b dd bd 65 39 e9 bd a0 a2 d5 bd 8c 45 8a be
       -0.108207375 -0.113879 -0.10431409 -0.27006185
000050 b8 85 2a 3b f1 34 e4 bd 33 33 5d 3e cb 60 91 3e
       0.0026019644 -0.1114291 0.21601562 0.2839416
000060 8a 75 9a 3e e0 44 7e 3d f3 35 85 bc ac cb 6e 3e
       0.301678 0.062077403 -0.016261077 0.23319882
000070 5a 61 a1 3b ee 4a 8e 3e 63 fa 97 3d c6 f2 b2 bd
       0.0049249353 0.27791542 0.07420804 -0.087377116
000080 6e a4 3f 3e 64 1e 99 3e 15 06 f7 3e a2 1b d0 bd
       0.18715069 0.29906 0.48246828 -0.101615205
000090 32 68 48 be bc 19 e4 be a7 57 d7 be c1 4e 2e be
       -0.19570997 -0.44550884 -0.4205906 -0.1702223
0000a0 52 60 36 be 2c 7b 4e 3e d0 e5 89 3e ef 4b 36 3e
       -0.17810181 0.20164174 0.26933146 0.17802404
0000b0 b2 b4 0c 3e 9f 34 08 be c0 5b 46 bd a3 03 a2 3c
       0.13740805 -0.13301323 -0.048427343 0.019777125
0000c0 77 3a 08 be 7f f6 d6 bd fa c9 ff 3d 86 11 63 3e
       -0.13303553 -0.10496234 0.12489696 0.22174653
0000d0 cd 68 fd bd 42 92 9a be cb 2e 84 be 8f 37 69 3e
       -0.12373505 -0.3018971 -0.2581695 0.227751
0000e0 e1 4d 72 bc 53 fa 97 be 8a 1d e8 3d 05 8d 05 bc
       -0.014789076 -0.2968317 0.11333759 -0.008151297
0000f0 21 af 86 3b e7 3a 0b 3e df 04 15 3c 9f 56 79 3d
       0.0041102325 0.13596688 0.0090954 0.060873624
000100 00 01 2d 3e fc 52 cd 3e 28 82 00 3d 94 e9 67 be
       0.16894913 0.40102375 0.031374127 -0.22647697
000110 fd 4b 3b be cb 52 63 bb 67 64 52 3e fe a4 05 3e
       -0.18290706 -0.00346868 0.20546113 0.13051221
000120 97 d2 f5 3d 21 80 93 3d 42 45 91 bd c3 0b 04 3f
       0.120030575 0.07202173 -0.07093288 0.51580447
000130 3a 67 69 3d 4d c1 8d 3d 6c 45 7a 3e 6a dc 34 3e
       0.05698321 0.06921635 0.24440545 0.17662206
000140 aa be 34 be 65 37 39 be 98 0e 36 bd 8b 83 27 be
       -0.17650858 -0.18087538 -0.04444751 -0.16358773
000150 15 23 4b be 7b 93 0a be 78 c3 3c 3e 62 c1 fe bd
       -0.19837601 -0.13532822 0.1843394 -0.124392286
000160 6e 23 80 3d 9b a0 8a be 1f 35 a8 be d3 f6 9b bd
       0.06256758 -0.27075657 -0.32853028 -0.07615437
000170 49 90 9b be 75 b4 3d be 1f 36 6c be 1e f8 ed 3d
       -0.30383518 -0.1852587 -0.2306752 0.1161959
000180 db 05 8b be 43 c2 b3 be be b6 55 be fe d3 01 be
       -0.27152905 -0.35109147 -0.20870492 -0.12678525
000190 82 5e bc 3e 06 ba 64 3c c8 06 eb bd e1 7c e6 3d
       0.36790854 0.013960367 -0.11475903 0.112542875
0001a0 4a bb 25 3e a2 31 fd 3d 8f 24 87 be 51 29 cf be
       0.16184726 0.12362982 -0.2639508 -0.4046121
0001b0 eb f0 7f bd 04 da e7 3e 14 69 9e 3d 81 d4 b3 3d
       -0.062485617 0.4528352 0.07734886 0.08780766
0001c0 f6 5a 8d 3e 29 64 bc 3e 47 ed bb 3e e5 f7 d8 be
       0.2760846 0.36795166 0.36704466 -0.4237663
0001d0 85 0e 80 bd 26 fc 6d be 73 6d f8 bd e1 f8 e5 3c
       -0.062527694 -0.23240718 -0.12130251 0.028072776
0001e0 57 d0 1e be 71 05 d8 3b f9 0e be be 57 59 4e be
       -0.15509163 0.0065924455 -0.37120798 -0.20151268
0001f0 8a 6d 75 3e 29 0d 23 3d 54 74 7a bd 71 d0 23 be
       0.23967567 0.039807472 -0.061146095 -0.15997483
000200 b2 e9 6b bd 57 32 4e bd 09 de 49 be 16 ab 55 be
       -0.057595916 -0.050340977 -0.19713606 -0.20866045
000210 1e ef 1a 3e 41 d5 dd 3b 55 3c 0b bd 25 3e 54 3e
       0.15130278 0.0067698066 -0.033993084 0.20726831
000220 13 70 8d 3e 42 31 c0 3e a4 73 eb 3d 1f 4c 3a be
       0.27624568 0.3753758 0.11496666 -0.181931
000230 ed 2a a8 bd b5 9d c5 3b 9d 1b a3 3e a8 4e b3 bd
       -0.082113124 0.006030763 0.31857005 -0.08755237
000240 cf fe a6 3c 10 8a 75 be 96 ba 2a be 8d 2f 52 be
       0.020385174 -0.23978448 -0.1667274 -0.20525952
000250 d0 c6 1f be 41 89 75 bd c0 58 97 bc 0d 2b 41 3d
       -0.15603185 -0.05994535 -0.018474936 0.047160197
000260 04 4f 75 3e 2b f1 dc bd 91 0a f8 3c 36 10 53 3d
       0.23955923 -0.10788187 0.030278476 0.05152913
000270 e6 2e 3a 3e c7 6a c6 3d 63 65 92 3d 90 fe 89 3d
       0.18181953 0.09688335 0.07148244 0.06738007
000280 73 f1 31 3e 4d 3a 09 3d 3a bf 30 bb c9 19 3b 3e
       0.17377262 0.033502866 -0.0026969449 0.18271555
000290 95 73 f2 bd 3b f2 a6 bc 31 b5 37 be e4 33 88 3d
       -0.11838452 -0.020379176 -0.17940213 0.06650522
0002a0 7e 11 49 bd 11 bc 7b 3e 40 14 b9 bd 92 96 9a 3c
       -0.049088947 0.2458346 -0.090370655 0.018870626
0002b0 50 be a7 3c 26 32 18 be f2 49 c3 bd b0 57 3b be
       0.02047649 -0.1486288 -0.09535588 -0.18295169
0002c0 fa 2d 0a be 96 26 2a be 21 d3 23 3e d9 37 56 3d
       -0.13494101 -0.16616282 0.15998508 0.052299354
0002d0 65 7d f7 3b 34 46 c8 bd bb 2a 76 be 6e 7d f9 3d
       0.00755279 -0.09779015 -0.24039738 0.12182127
0002e0 53 c2 2f 3e 1d 1d 09 be d7 0e d7 bd a3 7b 67 bd
       0.17163973 -0.13390012 -0.10500877 -0.056514394
0002f0 d8 7b 9d 3c 96 6d 5c 3e 39 1e bc 3e e1 c5 e7 bb
       0.019224092 0.21526179 0.36741808 -0.0070731496
000300 69 96 47 3d de b5 c1 bd 01 b5 21 3c 06 42 00 be
       0.048727427 -0.094585165 0.009869815 -0.12525186
000310 57 33 ef 3d e3 f3 d4 3d 15 12 a4 3d 33 28 71 bc
       0.11679714 0.1039808 0.080112614 -0.014719057
000320 81 2d 14 3e b6 cc ce bd ec 7d 36 be 9a fa 23 bd
       0.14470483 -0.10097639 -0.17821473 -0.040033914
000330 4e d7 18 3e 39 25 1c be a4 6b f9 3c 85 ec 6f be
       0.14925882 -0.15248574 0.030446835 -0.23430069
000340 40 b2 56 be 8c 8a 80 3e 54 5e a6 3e 30 4a 48 3e
       -0.20966434 0.25105703 0.32493842 0.1955955
000350 82 4c d9 3c 22 4f 92 bd 07 19 af be ee e7 a2 3e
       0.02652574 -0.07144 -0.34198782 0.31817573
000360 c8 bb 0c 3e c7 3c 38 bd 78 be a5 bd c4 2d 27 be
       0.13743508 -0.044979837 -0.0809297 -0.16326052
000370 68 27 46 3e c1 18 ef bd 8a 63 02 3e af a9 e1 3d
       0.1935097 -0.11674643 0.12733284 0.11018693
000380 88 87 91 bd 71 97 b4 b9 7c fb 07 be 12 dc a5 3d
       -0.07105929 -0.00034445108 -0.13279527 0.08098616
000390 26 51 d3 3b 95 3a 99 bd b3 57 50 3e 9a 07 3e bd
       0.0064488826 -0.07481877 0.20345955 -0.04639397
0003a0 91 46 d2 3d fa 09 61 bd bb 05 24 be 89 72 b4 3e
       0.10267366 -0.054941155 -0.16017811 0.35243633
0003b0 0b ed c6 bd c9 1f ac 3d 4e 25 51 3d 17 fd 51 be
       -0.09713181 0.084045 0.051060967 -0.20506702
0003c0 16 26 d9 3b c9 d6 0a bd 07 c1 36 3e 56 a0 37 3e
       0.0066268547 -0.03389624 0.17847072 0.17932257
0003d0 9c 46 32 be 8a 29 9a 3c 73 e8 fc 3c a8 50 bb bd
       -0.17409748 0.018818635 0.03087256 -0.09146243
0003e0 99 4b dc bd 9f aa b2 3d d9 f5 00 be 3d b0 47 3d
       -0.107566066 0.0872395 -0.12593783 0.04875206
0003f0 2e 2e b4 3c 58 ca 7a be 19 f8 49 bd 60 fa bd 3c
       0.021994676 -0.2449125 -0.04930887 0.023190677

tcn.tcn.1.conv1.bias f4 [16]
000000 a2 32 51 be 7c 22 8c be a3 e3 b1 3d d6 5d ed 3d
       -0.20429471 -0.2737006 0.086859964 0.115901634
000010 87 02 9d be 3b e1 41 be f1 d0 a0 3d 35 0a af 3d
       -0.3066599 -0.18933575 0.078523524 0.08546869
000020 0a c0 55 bd dd 4a e8 bd 88 ae 5e be b4 8e c0 3d
       -0.052185096 -0.11342404 -0.21746266 0.094022185
000030 03 7d 79 be 22 36 53 3e bf bc 8d bd 88 ea 0b 3e
       -0.24364094 0.20626119 -0.06920766 0.13663685
