checkpoints/fine_tune/var_rf/hainsworth/0.2/model_fallen-blaze-195_finetune_finetune_finetune_GTZ_GIA/it_8424_loss_3.9253_acc10.47_acc20.73.pt (torch, 437010 bytes, 211 tensors)

conv1.weight f4 [16, 1, 3, 3]
0	0x3e99a24a	0.3000663
1	0xbd9f91b7	-0.07791465
2	0xbec5b882	-0.3861733
3	0x3ebf7419	0.37393263
4	0xbdf84588	-0.12122637
5	0xbec9d9d1	-0.39423993
6	0x3e89b1f1	0.2689357
7	0x3e79268a	0.24331108
8	0xbe918a22	-0.284257
9	0x3e438a9b	0.19095843
10	0xbf0e9e5d	-0.55710393
11	0xbef8a01c	-0.48559654
12	0x3e983346	0.2972662
13	0xbe6e73fd	-0.23286434
14	0x3e0f7fff	0.1401367
15	0x3e69785a	0.22799817
16	0x3e797e6c	0.24364632
17	0x3de52827	0.11189299
18	0xbe56acdb	-0.20964377
19	0x3eedb5f3	0.4642788
20	0x3e9c02cf	0.30470893
21	0xbdc58107	-0.09643751
22	0x3edf85c4	0.43656743
23	0x3e3ac854	0.18240482
24	0xbf263994	-0.6493161
25	0x3bf1675b	0.0073670573
26	0xbeb638ce	-0.35590214
27	0xbea00b1a	-0.3125847
28	0xbdc00188	-0.09375292
29	0x3ec82db3	0.39097366
30	0xbeac19fe	-0.3361358
31	0x3dfff0e4	0.12497118
32	0x3e6044f9	0.21901311
33	0x3ee2679a	0.44219667
34	0x3da543e6	0.08069591
35	0xbf093e78	-0.53610945
36	0xbeb84315	-0.3598868
37	0xbeab1f20	-0.33422184
38	0xbea506ec	-0.32231843
39	0xbe169960	-0.14706945
40	0x3e565e0e	0.20934317
41	0x3e86b0bf	0.26306722
42	0x3c848a84	0.01617933
43	0x3bd57d34	0.0065151695
44	0xbe391d61	-0.18077613
45	0xbda41785	-0.080122985
46	0x3dfea65d	0.12434075
47	0xbc23dc2c	-0.010001224
48	0xbf59a371	-0.85015017
49	0x3ead4c7a	0.3384741
50	0x3f0bdb9f	0.5463199
51	0xbe8b1306	-0.2716295
52	0x3ea2654e	0.31717914
53	0xbc22db48	-0.009939976
54	0x3ed08cdb	0.40732464
55	0x3dc31615	0.09525696
56	0xbcaab29f	-0.020837126
57	0xbe2180c3	-0.15771775
58	0x3ddf571e	0.10905288
59	0xbee4a418	-0.44656444
60	0xbdaab933	-0.08336105
61	0x3e262dc0	0.1622839
62	0xbe543163	-0.20721965
63	0x3d6f6ef0	0.058455408
64	0x3dd647dd	0.104629256
65	0x3ec046c0	0.37553978
66	0xbf1cd026	-0.6125511
67	0xbe9bcde7	-0.3043053
68	0xbe8ae451	-0.27127317
69	0x3e46f082	0.19427684
70	0x3bc33425	0.005957144
71	0x3f1be6cd	0.6089905
72	0xbeef97ef	-0.46795604
73	0xbafb8de9	-0.0019192073
74	0xbec703cb	-0.3887008
75	0xbe9082bb	-0.2822474
76	0x3f02ab50	0.5104265
77	0x3f0583c4	0.52154183
78	0xbe546333	-0.20740966
79	0x3ebc7d57	0.36814377
80	0x3df31a77	0.11870282
81	0xbf345ee8	-0.70457315
82	0x3d90d149	0.07071168
83	0x3f095588	0.53646135
84	0xbca0c99f	-0.01962739
85	0xbe52f607	-0.20601664
86	0x3e8382e4	0.256858
87	0xbeba9786	-0.36443728
88	0x3c338c5f	0.01095876
89	0x3eb652a9	0.3560994
90	0xbf135f62	-0.5756742
91	0x3ce8df83	0.028426891
92	0x3ec8decb	0.39232478
93	0xbe834eec	-0.2564615
94	0xbe360e30	-0.1777885
95	0x3ed3af9f	0.41344926
96	0x3de4c678	0.111706674
97	0xbd461fef	-0.048370298
98	0x3db23fd7	0.08703583
99	0x3e5653a0	0.20930338
100	0x3eddf972	0.43354374
101	0xbe216fee	-0.15765354
102	0x3e8bcefb	0.2730635
103	0x3ecde535	0.40213934
104	0xbe408cdd	-0.18803735
105	0x3e8760b0	0.26440954
106	0xbce49d6f	-0.027907101
107	0xbe5d16f4	-0.21590787
108	0x3e6fa954	0.23404437
109	0x3e5b12f9	0.21393956
110	0x3da0b7c5	0.07847551
111	0xbe93277c	-0.28741062
112	0xbeab73e5	-0.33486858
113	0xbf0f803d	-0.5605505
114	0x3eb9d21e	0.3629312
115	0x3ecc6b46	0.39925593
116	0xbd74c1d4	-0.05975516
117	0x3e3da486	0.18519792
118	0xbe182749	-0.14858736
119	0xbe9f1789	-0.31072643
120	0x3f122023	0.57080287
121	0x3ef20088	0.4726603
122	0x3e9f4eaf	0.31114718
123	0xbecd9abe	-0.4015712
124	0xbd143393	-0.036181998
125	0xbf1a9211	-0.6037913
126	0x3ee5d895	0.448918
127	0x3e74cdaf	0.23906587
128	0xbdd84a02	-0.10560991
129	0x3ef076e7	0.46965715
130	0xbe99166c	-0.2989992
131	0xbd86e7ed	-0.06587205
132	0x3e6fe1f2	0.23426035
133	0xbea5f889	-0.3241618
134	0xbf0a1522	-0.53938496
135	0xbe8a69cc	-0.27033842
136	0xbde12bd9	-0.109946914
137	0x3e96ef2f	0.29479358
138	0xbd9217ca	-0.07133444
139	0x3e1282b6	0.14307675
140	0x3f04d783	0.51891345
141	0xbf19dcbf	-0.60102457
142	0xbe94d506	-0.29068774
143	0x3f08132f	0.5315427

conv1.bias f4 [16]
0	0xbd5a3db0	-0.053281486
1	0xbd8c1b14	-0.06841102
2	0xbdfffa9b	-0.12498971
3	0xbd2e50a4	-0.042557374
4	0xbe30b79f	-0.17257546
5	0xbe05d415	-0.13069184
6	0xbc25fbb5	-0.010130812
7	0xbdb0078b	-0.08595189
8	0xbd9c53b5	-0.07633153
9	0x3c7abe4e	0.015304161
10	0xbcad6fe2	-0.021171514
11	0xbe3a52a9	-0.18195595
12	0xbd71c783	-0.05902816
13	0xbe1642c6	-0.1467391
14	0xbe05c1cd	-0.1306221
15	0xbdab243b	-0.0835652

conv2.weight f4 [16, 16, 3, 3]
0	0xbeb7e6eb	-0.35918364
1	0xbd6291f3	-0.05531497
2	0xbe38dd05	-0.18053062
3	0xbdbddd22	-0.09270693
4	0x3d5540ac	0.05206363
5	0x3e3a14ce	0.18171999
6	0xbd50be3a	-0.050962664
7	0x3e854bde	0.26034445
8	0x3ea4942e	0.32144302
9	0xbda6d986	-0.08146958
10	0xbe866f83	-0.26256952
11	0xbebab5ec	-0.3646692
12	0xbdc05f33	-0.09393158
13	0x3dbf7a45	0.09349493
14	0x3d631601	0.055440906
15	0xbe1870c8	-0.14886773
16	0x3e269c1e	0.16270491
17	0xbddf5e03	-0.10906603
18	0x3e9284af	0.28616855
19	0xbdc9691e	-0.09834503
20	0x3e0a778e	0.13522169
21	0x3e856fc3	0.2606183
22	0xbe95632b	-0.29177222
23	0xbe016346	-0.12635526
24	0x3e6bd1c3	0.23029236
25	0xbed3fac6	-0.41402262
26	0xbeee9483	-0.4659768
27	0xbe1e1a5b	-0.15439741
28	0x3e620820	0.22073412
29	0x3f184bd6	0.59490716
30	0xbd91aab9	-0.07112641
31	0x3e248bba	0.16068926
32	0x3ee3e6fe	0.4451217
33	0x3e7a0412	0.24415615
34	0x3e4dbc7b	0.20091431
35	0x3e7ba7da	0.24575749
36	0x3c43f822	0.011961015
37	0xbd6e7d6c	-0.05822508
38	0xbe9380cf	-0.2880921
39	0xbdb8cbd1	-0.0902325
40	0xbe57f410	-0.21089196
41	0xbea00c2f	-0.31259295
42	0xbd333e2f	-0.043760475
43	0xbe4eaa0c	-0.20182055
44	0xbe298eea	-0.16558424
45	0x3f0fcdd9	0.56173474
46	0x3e307021	0.17230274
47	0x3f71f94f	0.9452104
48	0x3ebcec6b	0.36899123
49	0xbe54d750	-0.2078526
50	0x3d7dbfc1	0.06195045
51	0x3f114e45	0.56760055
52	0x3c65ac66	0.014018154
53	0x3e859e75	0.26097456
54	0x3e012a61	0.12613823
55	0xbdbef4ea	-0.093240574
56	0xbe4c5fdb	-0.19958441
57	0xbd2cca8a	-0.042185344
58	0xbd905691	-0.07047761
59	0xbe351463	-0.17683558
60	0x3c9264a8	0.017870262
61	0x3c727aa8	0.014799751
62	0x3d2f8e71	0.042860452
63	0x3e62ed16	0.22160754
64	0x3bb3f424	0.0054917503
65	0xbe357495	-0.17720254
66	0x3e2991a1	0.1655946
67	0xbe688251	-0.22705962
68	0xbf229c0b	-0.6351935
69	0xbdcee56f	-0.10102355
70	0xbe2bd54a	-0.16780582
71	0xbee28087	-0.44238684
72	0x3e81a58c	0.25321615
73	0xbe027058	-0.12738168
74	0xbab5de92	-0.0013875535
75	0x3e7bd8b5	0.24594386
76	0xbe8ea2ee	-0.2785868
77	0xbe7fd387	-0.24983035
78	0x3d4707e8	0.048591524
79	0xbe828f47	-0.25499937
80	0xbea1c304	-0.31594098
81	0x3e446984	0.19180876
82	0x3eaff3d6	0.3436572
83	0x3ef23709	0.47307613
84	0x3e940b98	0.28915095
85	0x3e947c82	0.29001242
86	0x3e84468d	0.25835076
87	0x3ea78d94	0.32725203
88	0x3dabffd9	0.083984084
89	0x3e4e0471	0.20118882
90	0x3e66cf6a	0.2254006
91	0x3dfffa8a	0.124989584
92	0x3f027fa6	0.50976026
93	0x3d46081c	0.048347577
94	0xbe4696f8	-0.19393528
95	0xbe47386f	-0.19455121
96	0x39f72fd4	0.00047147146
97	0xbe876ac5	-0.26448646
98	0xbe84a66b	-0.25908217
99	0xbe387357	-0.18012749
100	0xbe1ed605	-0.1551133
101	0xbddd8629	-0.10816605
102	0xbe47cda4	-0.1951204
103	0xbe3ef1e9	-0.18646969
104	0xbe5fa990	-0.21842027
105	0x3d8191ad	0.063266136
106	0x3e235cb9	0.1595334
107	0xbcb0d364	-0.021585174
108	0xbe18c667	-0.14919434
109	0xbe022a75	-0.12711509
110	0xbe7e19b3	-0.24814491
111	0xbc8e17bc	-0.017345302
112	0xbd12afce	-0.03581219
113	0xbe04634a	-0.12928501
114	0xbd4f8bce	-0.050670438
115	0x3d879911	0.06620992
116	0xbcdead2d	-0.027182186
117	0x3d45d1b7	0.048295703
118	0xbe49a2b8	-0.19690979
119	0xbeb447f0	-0.35211134
120	0xbd48f8c3	-0.049065363
121	0xbe37b7c1	-0.1794119
122	0xbe38b8ea	-0.18039289
123	0xbe9445d2	-0.2895952
124	0xbe81958b	-0.25309405
125	0xbef084ed	-0.46976414
126	0xbec2c054	-0.3803736
127	0xbe727a35	-0.23679431
128	0xbcc51b53	-0.02406088
129	0xbf030924	-0.5118582
130	0xbd00711c	-0.03135787
131	0x3eb2fb78	0.3495748
132	0xbe304280	-0.17212868
133	0x3e2432cc	0.16035002
134	0x3d6584d7	0.05603489
135	0x3ea6663e	0.3249988
136	0x3e336558	0.17519128
137	0x3f0e4630	0.5557585
138	0x3d2695c2	0.040670164
139	0xbe1141d8	-0.14185274
140	0xbdd2c499	-0.10291404
141	0x3d91e1ef	0.071231715
142	0xbe793278	-0.24335659
143	0xbe995bb9	-0.2995279
144	0x3d291ba2	0.04128612
145	0x3d82a923	0.063799165
146	0x3e6332e7	0.22187386
147	0xbd98ba77	-0.0745744
148	0x3e109641	0.14119817
149	0x3e356a9c	0.1771645
150	0xbe5ea9a0	-0.21744394
151	0xbafffda7	-0.001953055
152	0x3989a6d7	0.00026254982
153	0x3dd57f33	0.10424652
154	0xbe49e4b2	-0.19716147
155	0x3e821703	0.25408182
156	0x3c0b26b2	0.008493112
157	0xbdee5f70	-0.11639297
158	0x3e11bf53	0.1423314
159	0xbd9e91bf	-0.077426426
160	0xbeae76ae	-0.3407492
161	0xbdeb0b26	-0.11476736
162	0xbd39c743	-0.045356046
163	0x3f37718f	0.7165765
164	0x3ddd345f	0.108010046
165	0xbf31ab18	-0.69401693
166	0x3d879d54	0.06621805
167	0xbe384c5f	-0.17997883
168	0xbf15bc09	-0.58490044
169	0x3def83db	0.11695071
170	0xbe8df533	-0.27726135
171	0xbe9046df	-0.2817907
172	0xbe46792f	-0.19382165
173	0xbbecb711	-0.0072239717
174	0xbd60b839	-0.05486319
175	0x3d3f7eef	0.046751913
176	0x3e239a74	0.15976888
177	0xbd04b889	-0.03240255
178	0x3b74bc45	0.0037343663
179	0x3d5d7bf6	0.054073296
180	0x3e81af65	0.25329128
181	0x3e987b21	0.2978144
182	0x3ea12621	0.31474403
183	0x3dd780e9	0.105226345
184	0x3e3436d3	0.17599039
185	0x3d9c178c	0.07621679
186	0x3c39aa5b	0.01133212
187	0x3da631ff	0.08115005
188	0x3c13a4ca	0.009011457
189	0xbea072ce	-0.3133759
190	0x3e879ef9	0.26488474
191	0xbcb90633	-0.022585964
192	0xbec01662	-0.37517077
193	0x3dd91f27	0.10601645
194	0xbda3e259	-0.08002157
195	0xbef1b411	-0.47207692
196	0x3e7d4ff0	0.24737525
197	0xb8f5f7d7	-0.00011728674
198	0xbced1933	-0.02894268
199	0x3e27bcd1	0.16380621
200	0xbd1a8daf	-0.037732776
201	0xbd8fda0a	-0.070240095
202	0xbc6edb6a	-0.01457868
203	0xbb86ade4	-0.004110085
204	0xbdba332f	-0.09091794
205	0x3ced680d	0.02898028
206	0x3cca10e0	0.02466625
207	0x3dd1c620	0.102428675
208	0xbdf4a5e9	-0.11945707
209	0xbebdeb33	-0.37093505
210	0xbccdb336	-0.025109868
211	0xbdebc68d	-0.1151248
212	0xbe49bc83	-0.19700818
213	0xbe91d8a3	-0.28485593
214	0xbe8d0f83	-0.27550897
215	0xbf214b9d	-0.63006
216	0xbf033cfd	-0.51264936
217	0xbd919194	-0.07107845
218	0xbed5d423	-0.4176341
219	0xbe6fbb5b	-0.23411314
220	0x3e3fe65a	0.18740216
221	0xbd7747c4	-0.060371175
222	0xbf09ee45	-0.53879195
223	0x3e5ebe80	0.21752357
224	0x3d003a64	0.031305686
225	0xbcc70354	-0.02429358
226	0xbde7f280	-0.1132555
227	0xbd20ab50	-0.039225876
228	0xbdd28675	-0.10279552
229	0xbdeab1bb	-0.11459681
230	0x3da2e6c6	0.07954173
231	0xbe3a3dbf	-0.18187617
232	0x3cf9823c	0.030457608
233	0x3d1d013e	0.038331263
234	0x3e484aa0	0.19559717
235	0xbe240faf	-0.16021608
236	0x3d101309	0.035174403
237	0x3bbf93bf	0.00584647
238	0x3bea60c6	0.0071526496
239	0xbd1c3ce6	-0.038144015
240	0xbd2c885b	-0.042122226
241	0xbe38138b	-0.17976205
242	0x3d20705f	0.039169665
243	0xbe2d86ce	-0.16945955
244	0x3d187ddc	0.037229404
245	0x3e9beb37	0.30452892
246	0xbc3f7e63	-0.011687848
247	0x3cb8dbe3	0.022565788
248	0x3e695568	0.22786486
249	0x3d3f8a86	0.046762966
250	0x3e2907df	0.16506909
251	0x3ea4e8b5	0.3220879
252	0xba84a48f	-0.0010119843
253	0xbdc614ea	-0.09671958
254	0xbe0108aa	-0.12600961
255	0xbe041614	-0.12899047

conv2.bias f4 [16]
0	0xbccfab4f	-0.025350241
1	0xbe4a8569	-0.19777454
2	0xbd9bf400	-0.07614899
3	0xbdb2e525	-0.08735112
4	0xbe625408	-0.22102368
5	0xbea7e1f3	-0.32789573
6	0xbec611a5	-0.38685337
7	0xbe1e9cfb	-0.15489571
8	0xbe1ce19d	-0.1532044
9	0xbeb79dbe	-0.35862535
10	0xbe47fc9f	-0.19529961
11	0xbe3d717f	-0.18500327
12	0xbddab181	-0.106783874
13	0xbe4f9900	-0.20273209
14	0x3d567abf	0.052363154
15	0xbe4203d6	-0.18946776

conv3.weight f4 [16, 16, 8, 1]
0	0xbe40a268	-0.18811953
1	0xbd14ecde	-0.036358707
2	0x3cd8c501	0.026461126
3	0xbe87a2ec	-0.26491487
4	0xbe9ae327	-0.30251428
5	0xbed789fd	-0.42097464
6	0xbeb51488	-0.35367227
7	0x3d8071a2	0.06271674
8	0x3ed03fe1	0.40673736
9	0x3e779e85	0.24181564
10	0x3e8a5b71	0.2702289
11	0x3e1a6026	0.1507574
12	0x3e9bb397	0.30410454
13	0x3ecea73d	0.40361968
14	0xbe4ed503	-0.20198445
15	0xbecdb503	-0.40177163
16	0x3e7ad6f5	0.24496062
17	0x3ecf320f	0.4046788
18	0x3e903a95	0.28169695
19	0x3e8a73fe	0.2704162
20	0x3e0875dd	0.13326211
21	0x3e2a0647	0.16603957
22	0xbe911f62	-0.28344256
23	0xbe2236c9	-0.15841211
24	0xbe726a86	-0.23673448
25	0x3d3b8782	0.045783527
26	0xbea1f4eb	-0.3163217
27	0xbeca5d6d	-0.39524403
28	0xbe71c573	-0.23610477
29	0xbea72bd9	-0.3265064
30	0x3e151cf2	0.14561823
31	0xbd9472de	-0.07248472
32	0x3e384d0f	0.17998146
33	0x3e853675	0.2601811
34	0x3e9245d1	0.2856889
35	0x3dc001a9	0.09375317
36	0x3e0cb661	0.13741447
37	0x3e2c20f7	0.1680945
38	0x3c150b50	0.009096935
39	0x3d446551	0.047948185
40	0xbe1ddd91	-0.15416552
41	0x3e8a68dc	0.27033126
42	0x3e14fc4e	0.14549372
43	0x3e656377	0.22401224
44	0x3ceceeab	0.0289224
45	0x3e4d90df	0.20074795
46	0xbee5862e	-0.44828933
47	0xbd68c3b5	-0.056827266
48	0xbbc6ef28	-0.00607099
49	0x3e670735	0.22561343
50	0x3e8b7196	0.27235097
51	0x3e2fdfc6	0.17175207
52	0x3e76d90f	0.24106239
53	0x3e644998	0.22293699
54	0x3dc074f5	0.09397308
55	0xbbd98b23	-0.006638901
56	0x3e98a149	0.2981055
57	0xbd92771c	-0.071516246
58	0xbc63b995	-0.013899227
59	0xbd80758d	-0.06272421
60	0xbc1f509e	-0.0097238105
61	0xbe74a24f	-0.23890041
62	0x3df7462a	0.120739296
63	0xbd397b0d	-0.045283366
64	0xbd87ff47	-0.06640487
65	0x3d47a36d	0.04873984
66	0xbe679748	-0.22616303
67	0xbba9840a	-0.005173211
68	0xbea2f6a1	-0.31828788
69	0xbd365140	-0.04451108
70	0x3f4228df	0.75843614
71	0x3e317547	0.17329894
72	0x3d78dc6b	0.060757082
73	0xbe579f9d	-0.21056981
74	0xbd07d58f	-0.03316265
75	0xbd5b5067	-0.053543475
76	0x3c5bf823	0.01342586
77	0x3c97e3b2	0.01854119
78	0xbe8e5c16	-0.2780463
79	0x3dcffdc3	0.10155823
80	0x3e22d8d5	0.15903027
81	0xbe7cc8c6	-0.24685964
82	0xbe799d0a	-0.24376312
83	0xbe84b8fe	-0.25922388
84	0xbea16a05	-0.315262
85	0xbe220c54	-0.15825015
86	0x3eb8aab0	0.36067724
87	0xbe9d1f8e	-0.30688137
88	0xbd2e9f89	-0.042632613
89	0xbc520118	-0.012817644
90	0x3e5e57cf	0.21713184
91	0x3e93b5d4	0.2884966
92	0x3f0b03c7	0.5430264
93	0x3d5381e1	0.051637534
94	0xbef64e9f	-0.48106858
95	0xbc9e56b6	-0.019328456
96	0xbd81bbb6	-0.06334631
97	0xbe4c24f2	-0.19935969
98	0xbeec3710	-0.4613576
99	0xbe6e9242	-0.2329798
100	0xbe417319	-0.18891563
101	0xbec9ad84	-0.39390194
102	0x3cbe2120	0.023209155
103	0x3db56f61	0.088591345
104	0x3e0f5e7a	0.14000884
105	0x3e74c150	0.23901868
106	0x3e683f29	0.22680344
107	0x3e5bb90d	0.2145731
108	0x3dae5685	0.08512596
109	0x3e9f74a7	0.31143686
110	0x3edae252	0.42750794
111	0xbeae126e	-0.33998436
112	0x3eca014d	0.39454117
113	0x3ea7af5c	0.32750976
114	0x3cb88057	0.022522135
115	0xbcfc6089	-0.03080775
116	0xbe065454	-0.13118106
117	0x3df84190	0.1212188
118	0x3d190475	0.037357766
119	0x3e71e7d8	0.23623598
120	0xbe8e0233	-0.27736053
121	0xbec9539b	-0.39321598
122	0x3a2437c3	0.00062644127
123	0xbe4746ac	-0.19460553
124	0xbe997f71	-0.29980043
125	0xbe0a7db0	-0.13524508
126	0xbd9ba473	-0.075997256
127	0x3d81d3f3	0.06339254
128	0xbf17c67b	-0.5928723
129	0xbeb94d28	-0.36191678
130	0xbdf8486b	-0.12123188
131	0xbc1acab4	-0.009447742
132	0xbceeaea7	-0.029136015
133	0xbd67adfd	-0.056562413
134	0x3eae81c1	0.3408337
135	0x3cb00739	0.021487819
136	0x3ce83b13	0.028348481
137	0x3e1095c3	0.1411963
138	0x3e104ee5	0.14092596
139	0x3e1d0df9	0.15337361
140	0x3d834f22	0.06411578
141	0x3db41b38	0.08794254
142	0xbf0f1cf5	-0.5590356
143	0xbdc8282d	-0.09773288
144	0xbf12dd2c	-0.5736873
145	0x3cb33f78	0.02188085
146	0xbdf4e405	-0.11957554
147	0xbce2be3c	-0.027678601
148	0xbe37e8a1	-0.17959835
149	0x3d57be44	0.052671686
150	0xbe435742	-0.19076255
151	0xbce80169	-0.028320985
152	0x3d3e1385	0.046405334
153	0x3db7f315	0.08981911
154	0xbe8bd198	-0.27308345
155	0xbe7b1668	-0.24520266
156	0xbe639adb	-0.22227041
157	0xbe87cd14	-0.2652365
158	0xbe050130	-0.12988734
159	0xbed3a701	-0.4133835
160	0xbe044ac2	-0.12919143
161	0xbdc08019	-0.09399433
162	0xbc3b3e21	-0.011428387
163	0x3cb4f7e8	0.022090867
164	0x3c1d739d	0.009610084
165	0x3e48ec56	0.19621405
166	0xbe47aaf8	-0.19498813
167	0xbdacfb1a	-0.08446331
168	0xbe561fd9	-0.20910586
169	0x3e300239	0.17188348
170	0xbdb94854	-0.090469986
171	0xbdb3fb7f	-0.087882034
172	0xbe1fe810	-0.15615869
173	0xbe083205	-0.13300331
174	0xbf146f65	-0.57982475
175	0x3da992df	0.082799666
176	0x3e19472f	0.1496856
177	0x3cd4051a	0.025881339
178	0x3ad737b5	0.00164198
179	0x3de3d915	0.111253895
180	0x3e3c6441	0.18397619
181	0x3dff975f	0.124800436
182	0x3e5022e1	0.20325805
183	0xbcb45c3a	-0.022016633
184	0xbbb940b2	-0.0056534642
185	0xbdc0e30e	-0.09418307
186	0xbe6adace	-0.2293503
187	0x3cc70ab4	0.024297096
188	0xbda331c8	-0.079684794
189	0xbe2a1b87	-0.16612063
190	0xbe47b7f7	-0.19503771
191	0x3dfa90e7	0.12234669
192	0xbe7e8a6c	-0.24857491
193	0xbdecc4dc	-0.115609854
194	0xbcdba892	-0.026813779
195	0x3d4232c4	0.047411695
196	0xbda96a1f	-0.08272194
197	0xbd395b94	-0.04525335
198	0x3f26b6a8	0.6512246
199	0xbe71856c	-0.23586053
200	0x3dbe4087	0.09289651
201	0x3e14a8e0	0.14517546
202	0x3dba80bc	0.091065854
203	0xbda7aae2	-0.0818689
204	0x3dcd5ef4	0.100278765
205	0x3e99e14d	0.30054703
206	0xbdf60335	-0.120123304
207	0x3ec530bd	0.38513747
208	0xbbade682	-0.0053070197
209	0x3d9f1e92	0.07769503
210	0xbe2fd0e8	-0.17169535
211	0xbd73a565	-0.059483904
212	0x3d6bfeb9	0.05761597
213	0xbd62a033	-0.05532856
214	0x3f09633a	0.5366703
215	0xbe94b5ae	-0.2904486
216	0x3d12d31f	0.035845872
217	0x3e71b047	0.236024
218	0x3dd4baf7	0.10387223
219	0x3da21ab5	0.0791525
220	0x3c63221b	0.013863112
221	0x3cadc98c	0.02121427
222	0xbd9e192a	-0.077196434
223	0x3d82e64f	0.06391584
224	0x3bfd66c6	0.007733199
225	0xbe4993a3	-0.19685225
226	0xbe1da0ff	-0.15393446
227	0x3e246f4d	0.16058083
228	0x3e4a3c62	0.19749597
229	0x3d688e16	0.05677613
230	0xbbc44b19	-0.0059903977
231	0x3d1f0c4d	0.03883009
232	0xbe8ad31b	-0.27114186
233	0x3dec2b6b	0.11531719
234	0x3d26f951	0.04076511
235	0xbcf2c88b	-0.029636642
236	0x3d9d506e	0.07681356
237	0xbe846330	-0.25856924
238	0xbdebc22e	-0.11511646
239	0xbe46fc24	-0.19432122
240	0xbe48eb72	-0.19621065
241	0xbec791c4	-0.38978398
242	0xbe575fd9	-0.21032657
243	0x3b26a9cb	0.0025430794
244	0xbe386de9	-0.18010677
245	0xbe3432bc	-0.17597479
246	0xbe8a6aa0	-0.27034473
247	0x3da92cef	0.082605235
248	0xbd4ab243	-0.04948641
249	0xbeb9cf15	-0.36290804
250	0xbd100c65	-0.03516807
251	0x3d8cd267	0.068760686
252	0xbd8c05da	-0.068370536
253	0x3e023c0d	0.1271822
254	0x3df1e755	0.11811701
255	0x3e8071de	0.25086874

conv3.bias f4 [16]
0	0xbe77f487	-0.24214374
1	0xbcb2dfb7	-0.021835191
2	0xbce699d6	-0.028149527
3	0xbe1b4937	-0.15164648
4	0xbda0c23c	-0.07849547
5	0x3ec08325	0.37600055
6	0x3e20cdb4	0.1570347
7	0xbd9cd3c6	-0.0765758
8	0xbe87a12c	-0.26490152
9	0xbe995f00	-0.29955292
10	0x3d926f6d	0.07150159
11	0x3ecc282e	0.39874405
12	0xbe165484	-0.14680678
13	0xbe892811	-0.2678838
14	0x3eb55134	0.35413516
15	0xbe4e5231	-0.20148541

tcn.tcn.0.conv1.weight f4 [16, 16, 5]
0	0x3e43fb2c	0.19138783
1	0x3e4274db	0.1898989
2	0x3dd4612b	0.10370096
3	0x3d2e92b2	0.04262037
4	0xbdf43ac3	-0.119252704
5	0x3f0ae360	0.54253197
6	0x3e6f3bd9	0.23362674
7	0x3e3fda70	0.18735671
8	0x3dc57b0c	0.0964261
9	0xbee0a772	-0.4387775
10	0x3e1b1751	0.15145613
11	0x3d80aaed	0.062826015
12	0x3e6f8650	0.2339108
13	0xbd8ad471	-0.06778801
14	0xbd00b098	-0.031418413
15	0x3ed84ca4	0.42245972
16	0x3e22decc	0.15905303
17	0x3c83b42a	0.01607712
18	0xbe49ecb7	-0.19719206
19	0xbddd7e69	-0.108151264
20	0x3e827e98	0.25487208
21	0x3e1b5678	0.15169704
22	0x3ee9b49c	0.45645607
23	0x3ed18b3c	0.4092654
24	0x3e712cea	0.2355229
25	0x3eaae9a5	0.33381382
26	0x3e9706c9	0.29497364
27	0x3e2a0210	0.1660235
28	0xbd94ae1a	-0.0725977
29	0x3d6923c4	0.056918874
30	0x3e1e7b6c	0.15476769
31	0x3c5157b2	0.012777256
32	0xbdc5b0d1	-0.09652866
33	0xbd3a3bcd	-0.045467187
34	0xbcec63de	-0.028856214
35	0xbe7c26df	-0.24624203
36	0xbed635d9	-0.41837958
37	0xbe984c38	-0.2974565
38	0xbdb5825b	-0.08862754
39	0xbe9cc90d	-0.3062214
40	0x3e2c24c0	0.16810894
41	0x3d488f98	0.048965067
42	0xbe7a31da	-0.2443308
43	0xbeb1f4b3	-0.34757003
44	0xbe54b0c7	-0.2077056
45	0xbea7efd8	-0.32800174
46	0xbeda6a48	-0.4265921
47	0xbe1774b5	-0.14790614
48	0x3db0af7b	0.0862722
49	0x3ea692af	0.32533786
50	0xbda4dca0	-0.080498934
51	0xbdcfb6bf	-0.10142278
52	0xbe6f949b	-0.23396532
53	0xbef9c69b	-0.48784336
54	0xbee4ff8d	-0.4472622
55	0xbe075852	-0.13217285
56	0xbe993f67	-0.29931185
57	0xbea7c4f3	-0.32767448
58	0xbe8c0fe2	-0.27355868
59	0xbe907c1b	-0.28219685
60	0x3d8be19f	0.06830143
61	0x3d8421eb	0.06451782
62	0x3e0d8c23	0.13822989
63	0xbdbb1415	-0.0913469
64	0x3c8af3a7	0.016961886
65	0xbeb6b4b6	-0.35684747
66	0xbdf7729a	-0.120824054
67	0xbe4c56f5	-0.19955046
68	0xbcbc6de4	-0.023001619
69	0x3ea6c2ae	0.32570404
70	0xbe3b844e	-0.18312189
71	0xbb6e0e6c	-0.0036324514
72	0xbe173270	-0.14765334
73	0xbc130add	-0.008974758
74	0x3e95ec03	0.29281625
75	0xbe92e988	-0.28693795
76	0xbe379046	-0.1792613
77	0xbd541c69	-0.051784907
78	0xbe35b5f6	-0.17745194
79	0xbd6f2a4b	-0.058389943
80	0x3ea2ac14	0.3177191
81	0x3ee50385	0.44729248
82	0x3e4338c2	0.1906462
83	0x3e9c39a8	0.30512738
84	0x3e8b4adb	0.27205548
85	0x3e695df1	0.22789742
86	0x3eccf552	0.40030915
87	0x3dafeee6	0.08590488
88	0x3e967087	0.29382727
89	0x3ed8f8d8	0.42377353
90	0x3e1b204a	0.15149036
91	0x3eec19c8	0.4611342
92	0x3ebc5272	0.3678165
93	0x3e949495	0.2901961
94	0x3eba81d9	0.3642719
95	0x3beeb560	0.007284805
96	0x3c58bbb1	0.013228343
97	0xbe813ddc	-0.25242507
98	0x3ba005db	0.0048835105
99	0xbc9cbbba	-0.019132484
100	0xbe6edb1e	-0.23325774
101	0xbcf9b027	-0.030479504
102	0x3dbb44e1	0.09143997
103	0x3dd51b45	0.10405592
104	0x3e2da0f3	0.16955929
105	0x3da1f330	0.079077125
106	0x3bfcc995	0.00771446
107	0xbe02ee51	-0.12786223
108	0xbe7714d1	-0.24129035
109	0xbe731064	-0.23736721
110	0xbeb2555d	-0.34830752
111	0xbe8f62e3	-0.28005132
112	0xbe621e8d	-0.22081967
113	0xbe822587	-0.25419256
114	0xbedaf937	-0.4276826
115	0xbd080e12	-0.033216543
116	0x3c60afad	0.013713759
117	0x3dba9103	0.0910969
118	0x3e61406b	0.2199723
119	0x3e042221	0.12903644
120	0xbc28839c	-0.010285284
121	0x3e293264	0.16523129
122	0x3d0ba8cf	0.034096535
123	0x3e5bdb61	0.21470405
124	0x3c98a495	0.018633166
125	0x3dbd0b76	0.092307016
126	0xbb8e08d6	-0.0043345494
127	0xbdcbd25e	-0.09952234
128	0xbe672417	-0.22572361
129	0xbddaeea5	-0.10690049
130	0xbdd01d39	-0.10161824
131	0xbdca6ff4	-0.098846346
132	0xbd4d0710	-0.050055563
133	0xbd8265f3	-0.063671015
134	0xbe1f8a91	-0.15580203
135	0xbc6b0f12	-0.014346855
136	0x3dd8a470	0.10578239
137	0x3db1ba8d	0.0867816
138	0x3c4edfd9	0.012626612
139	0x3d44a97d	0.0480132
140	0xbd66b2e5	-0.05632295
141	0xbe185e13	-0.14879636
142	0x3ab05eb8	0.0013455963
143	0x3d8da97a	0.06917091
144	0x3e96fce6	0.2948982
145	0x3ddc8450	0.10767424
146	0x3d090f3f	0.033461805
147	0x3d9323b1	0.07184542
148	0x3eb05bbc	0.34444988
149	0x3eab4806	0.33453387
150	0x3e57439d	0.21021886
151	0xbd347203	-0.044054043
152	0x3db4272a	0.087965325
153	0x3d2a8705	0.04163267
154	0xbc02d67c	-0.007985707
155	0xbd2cd326	-0.042193554
156	0xbd9949e7	-0.07484799
157	0xbe716cd1	-0.23576666
158	0xbdf6fb04	-0.12059596
159	0x3e9de913	0.30841884
160	0x3e12cd82	0.14336208
161	0x3e5d77d3	0.2162774
162	0x3d826e99	0.06368751
163	0x3d2b5767	0.0418314
164	0xbd46184c	-0.048363015
165	0x3e93f047	0.28894255
166	0x3de0bbf5	0.1097335
167	0x3dcb3c7b	0.09923645
168	0xbd3fb218	-0.046800703
169	0x3cfa799f	0.030575572
170	0x3d66e6bd	0.056372393
171	0xbc288736	-0.010286143
172	0x3dab1390	0.083533406
173	0x3d3d5bea	0.046230234
174	0xbdfd8bf0	-0.123802066
175	0xbd82b096	-0.06381337
176	0x3c4b7b1f	0.012419491
177	0xbe2dfc34	-0.16990739
178	0xbe3910ef	-0.18072866
179	0xbd273539	-0.04082224
180	0x3dedb239	0.11606259
181	0x3e0de799	0.13857879
182	0xbd083db4	-0.03326197
183	0x3d09e951	0.033669773
184	0x3d00b529	0.031422768
185	0x3dd3d5d5	0.103435196
186	0x3e34ff0f	0.17675422
187	0x3b975c67	0.0046191695
188	0x3d5305f8	0.051519364
189	0x3e2e17db	0.17001288
190	0xbd3c5f6e	-0.045989446
191	0xbe2b3de7	-0.16722833
192	0xbe6ed307	-0.23322688
193	0xbd81dd43	-0.063410304
194	0x3e89731a	0.26845628
195	0xbce6996e	-0.028149333
196	0xbe3f39bc	-0.18674368
197	0x3c002375	0.007820954
198	0x3e028d57	0.1274923
199	0x3e1b9eb8	0.15197265
200	0xbd478e1d	-0.048719514
201	0xbe525fcc	-0.20544356
202	0xbe167656	-0.14693579
203	0xbe0b5bec	-0.13609284
204	0x3d003b9f	0.03130686
205	0xbe2f8edf	-0.17144345
206	0xbe16dab9	-0.14731874
207	0x3dae054c	0.08497104
208	0x3e83bf7e	0.25732034
209	0x3d4ed4ea	0.05049602
210	0x3e1328cb	0.1437103
211	0xbe2b17e5	-0.16708334
212	0xbe89c1f8	-0.269058
213	0xbe572f01	-0.21014024
214	0xbe8adbcb	-0.27120814
215	0xbe493f5a	-0.19653073
216	0xbce8777b	-0.028377285
217	0x3e81ae60	0.2532835
218	0x3e9785e3	0.29594335
219	0x3d10f19f	0.035386678
220	0xbd47cb6d	-0.048777986
221	0xbd562643	-0.052282583
222	0x3df4c270	0.119511485
223	0x3e06a1f3	0.13147716
224	0xbe206627	-0.15663968
225	0x3d57b834	0.052665904
226	0x3d51a864	0.05118598
227	0x3daa6e5d	0.083218314
228	0x3a895c4a	0.0010479775
229	0xbe41016d	-0.188482
230	0xbeebd99b	-0.46064457
231	0xbd61dc29	-0.0551416
232	0x3d5e43d6	0.054263912
233	0x3cd71feb	0.026260337
234	0xbd62623d	-0.05526947
235	0xbdd1b171	-0.102389224
236	0x3b632ff0	0.0034666024
237	0x3e441db1	0.19151951
238	0xbdc3c1ea	-0.095584705
239	0xbebd14b2	-0.36929852
240	0xbe33e0da	-0.17566243
241	0x3caaa031	0.020828338
242	0xbc9627f6	-0.018329602
243	0x3e885012	0.2662359
244	0x3e1fa5c0	0.15590572
245	0x3decf8b4	0.11570874
246	0x3ea1e440	0.31619453
247	0x3e843bd7	0.25826904
248	0x3e44ea4d	0.19230004
249	0xbcd4cfc9	-0.025977986
250	0xbd63f8c1	-0.055657152
251	0x3ed140e8	0.40869832
252	0x3e8af853	0.2714258
253	0x3d926b5c	0.071493834
254	0x3e4fbb02	0.20286182
255	0x3d59e3ce	0.053195767

tcn.tcn.0.conv1.bias f4 [16]
0	0x3cdabb3c	0.026700608
1	0xbddb4a70	-0.10707557
2	0x3e11bf6f	0.14233182
3	0x3d5b7872	0.053581662
4	0xbf08e144	-0.5346873
5	0x3ca5ef8c	0.020255826
6	0xbdccb493	-0.09995379
7	0xbe91855d	-0.2842206
8	0xbd009dbb	-0.031400423
9	0x3c7b997e	0.01535642
10	0xbcc521cd	-0.024063969
11	0xbe141511	-0.14461161
12	0x3ed953aa	0.42446643
13	0xbd97aeed	-0.07406411
14	0xbe3fa06b	-0.18713538
15	0xbd11bd59	-0.035580967

tcn.tcn.0.conv2.weight f4 [16, 16, 1]
0	0x3e0a1f34	0.13488466
1	0xbd04018e	-0.032228045
2	0x3e29225a	0.1651701
3	0x3e17958b	0.1480314
4	0x3e2830bc	0.1642484
5	0xbcc35eb2	-0.023848865
6	0x3d7193f7	0.058979
7	0x3e83fa20	0.25776768
8	0x3d098814	0.03357704
9	0xbe7402b9	-0.23829164
10	0xbea4d950	-0.32197046
11	0xbe28dad9	-0.16489734
12	0x3e892e6f	0.2679324
13	0xbd7c23a3	-0.061557423
14	0x3ca701a0	0.020386517
15	0x3ef4bad9	0.47798803
16	0xbdefcbb6	-0.11708777
17	0x3ee81244	0.45326436
18	0x3d123d53	0.035703015
19	0x3dad74af	0.08469521
20	0x3d3ee350	0.0466035
21	0xbc2cb8d4	-0.010542113
22	0x3e209a0d	0.15683766
23	0x3ced5f4c	0.028976105
24	0xbdd030cd	-0.10165558
25	0xbcc33a30	-0.023831457
26	0xbe113752	-0.1418126
27	0xbd569ed8	-0.05239758
28	0x3c22d96b	0.009939532
29	0xbc99c410	-0.018770248
30	0xbe16819f	-0.14697884
31	0x3e93b7ba	0.2885111
32	0x3d899511	0.06717885
33	0x3e3ec147	0.18628417
34	0xbe0899e2	-0.13339952
35	0x3d8813f0	0.06644428
36	0xbd9ef9ae	-0.07762466
37	0x3d72c8aa	0.0592734
38	0xbc87c7c8	-0.016574755
39	0x3d738168	0.059449583
40	0x3d88ad1f	0.06673645
41	0x3ec7775d	0.38958254
42	0x3e6e1f9e	0.23254248
43	0x3df7a770	0.12092483
44	0xbe3db3f9	-0.18525685
45	0x3e5787ba	0.2104787
46	0x3c369242	0.011143269
47	0xbdd67f17	-0.10473459
48	0x3df5ef1e	0.120084986
49	0x3e3de268	0.18543398
50	0xbd6e4f27	-0.058180954
51	0x3dc8272c	0.097730964
52	0x3d9e6b6b	0.07735332
53	0x3e83517b	0.25648102
54	0x3e0277d5	0.12741025
55	0x3e3af06a	0.18255773
56	0xbe2d0497	-0.16896282
57	0xbe8b4f67	-0.27209017
58	0xbe3e214a	-0.18567386
59	0xbe661fbe	-0.22473046
60	0x3ec440e9	0.38330773
61	0x3d9bce99	0.07607765
62	0x3dfc0257	0.12305134
63	0x3e880e11	0.26573232
64	0x3cc7f417	0.024408383
65	0x3ec55fed	0.38549748
66	0xbc0238f6	-0.007948151
67	0x3c4d9aeb	0.012549142
68	0x3e365ea2	0.17809537
69	0xbdcaa9f1	-0.09895695
70	0x3c14f09e	0.009090571
71	0xbebb8e50	-0.36632013
72	0xbdb87ed2	-0.09008564
73	0xbeebad72	-0.46030766
74	0x3c4fd43c	0.012684878
75	0xbd51e0b0	-0.05123967
76	0xbd4fd535	-0.05074044
77	0x3e2b7c9f	0.16746758
78	0xbb787feb	-0.0037918042
79	0x3e2794be	0.16365334
80	0x3e21c04e	0.15796015
81	0x3dcd6bd3	0.100303315
82	0xbd284357	-0.041079845
83	0xbd64b7de	-0.055839412
84	0xbe77aa21	-0.24185993
85	0xbd8113a7	-0.063025765
86	0xbdc2e02b	-0.09515413
87	0xbeddfa6a	-0.43355113
88	0x3e4382b3	0.19092827
89	0xbedd7a21	-0.4325724
90	0xbddcbf4e	-0.10778676
91	0xbede8f8e	-0.434689
92	0xbdaa9c17	-0.08330553
93	0x3cb19c20	0.021680892
94	0x3e2a8e7d	0.16655917
95	0xbc6e47c8	-0.014543481
96	0xbdd30a1a	-0.10304661
97	0xbe236816	-0.15957674
98	0xbe0023fa	-0.12513724
99	0xbde9072e	-0.113783225
100	0x3daf36da	0.08555384
101	0x3bc89e3b	0.006122378
102	0xbd9243f1	-0.07141865
103	0xbdb062ab	-0.086125694
104	0xbe845ef5	-0.25853696
105	0x3e634555	0.22194417
106	0xbe8c046a	-0.27347118
107	0xbe6d5dc7	-0.23180304
108	0x3da90c26	0.0825427
109	0xbea81288	-0.32826638
110	0x3d146390	0.036227763
111	0xbd1b2bd6	-0.037883602
112	0xbe1161b3	-0.14197426
113	0xbda4dc86	-0.08049874
114	0xbdc51491	-0.09623063
115	0x3d92b705	0.071638145
116	0xbde7d860	-0.11320567
117	0x3e175f98	0.1478256
118	0x3d5a0a16	0.053232275
119	0x3dca87b9	0.09889168
120	0x3d74ddf9	0.059782002
121	0x3d481a38	0.04885313
122	0x3cd00396	0.025392335
123	0xbe09c380	-0.13453484
124	0x3e9296c7	0.2863066
125	0x3e585326	0.21125469
126	0xbeb10584	-0.3457452
127	0xbe603ccf	-0.21898197
128	0xbe394052	-0.18090943
129	0xbd762ef6	-0.06010338
130	0x3e81e009	0.25366238
131	0x3d705db1	0.0586831
132	0x3dac49e1	0.08412529
133	0x3e019e19	0.12657966
134	0xbbe107cb	-0.006867384
135	0x3db01efd	0.085996605
136	0xbe9b16a0	-0.302907
137	0x3de7666c	0.11298832
138	0xbd9d1b1b	-0.076711856
139	0xbe9083d3	-0.28225574
140	0xbe3a378a	-0.18185249
141	0x3b83a8b7	0.004017915
142	0xbe37b3fc	-0.17939752
143	0x3e4c93f1	0.1997831
144	0xbe13455e	-0.1438193
145	0x3ea3cd13	0.31992397
146	0x3b29123c	0.0025798222
147	0x3d5c9079	0.053848717
148	0x3de68f61	0.11257816
149	0x3e011b5c	0.12608093
150	0x3be6842c	0.007034799
151	0x3d6f071e	0.058356397
152	0xbd954095	-0.07287709
153	0xbdeec457	-0.116585426
154	0xbe08cc57	-0.133592
155	0x3c18374f	0.00929053
156	0xbe09ca40	-0.13456059
157	0xbcda2231	-0.026627632
158	0xbf03e839	-0.5152622
159	0x3cf1f75c	0.029536895
160	0xbde7c517	-0.11316889
161	0xbda1e8c3	-0.07905724
162	0x3d5c62cb	0.053805154
163	0xbd821fb8	-0.06353706
164	0xbd88c1d1	-0.066775925
165	0xbde584ff	-0.112070076
166	0xbb27b23d	-0.0025588416
167	0x3e01eb86	0.12687501
168	0x3afb426b	0.0019169574
169	0x3f0c4d63	0.5480558
170	0xbe20dc26	-0.1570898
171	0x3f011e04	0.50436425
172	0x3e33deae	0.17565414
173	0xbc0a39f9	-0.008436673
174	0x3da6d9c6	0.08147006
175	0xbd9ded26	-0.07711248
176	0x3ba45069	0.0050144685
177	0xbd4eff68	-0.050536543
178	0xbe1dfea0	-0.15429163
179	0x3e63d5c4	0.22249514
180	0xbe38fff8	-0.18066394
181	0xbdc1a5d3	-0.094554566
182	0xbb54e4fd	-0.003248512
183	0x3e4be6c4	0.19912249
184	0xbd9e3d61	-0.07726551
185	0x3f122e7b	0.57102174
186	0xbddeba53	-0.10875382
187	0x3e416597	0.1888641
188	0xbbac9b69	-0.00526755
189	0x3dbe4610	0.09290707
190	0x3f06a950	0.526021
191	0x3ea5374b	0.32268748
192	0xbe1a2768	-0.15054095
193	0xbe63bb97	-0.22239529
194	0xbd19194f	-0.03737765
195	0xbd6948f6	-0.056954347
196	0xbdcad40f	-0.09903728
197	0x3d600ddf	0.05470073
198	0x3db4d839	0.08830304
199	0x3e8fc4ce	0.28079838
200	0xbe3ff961	-0.18747474
201	0x3e7d2394	0.24720603
202	0xbce46721	-0.027881207
203	0x3ea8d103	0.32971963
204	0x3e2293fb	0.15876763
205	0xbe28f7a1	-0.16500713
206	0xbbfa8d02	-0.007646204
207	0xbdee6c07	-0.11641698
208	0x3ddbc26a	0.10730441
209	0x3e0c140d	0.13679524
210	0x3e36aa4c	0.178384
211	0xbe262f88	-0.16229069
212	0xbc935d07	-0.017988695
213	0xbe7cad11	-0.24675395
214	0xbda5e4f8	-0.08100313
215	0x3e9c4f79	0.30529383
216	0xbd90d5fe	-0.07072066
217	0x3eb3abf4	0.35092127
218	0xbe1709ca	-0.14749828
219	0xbd4c2c25	-0.049846787
220	0x3e297df4	0.16551954
221	0x3dbf8a91	0.09352601
222	0xbddbe42e	-0.10736881
223	0x3e69ab7c	0.22819322
224	0xbd5a0862	-0.05323065
225	0xbda12d5a	-0.07869978
226	0xbc98dd46	-0.018660199
227	0xbe8c1bf7	-0.27365085
228	0xbdae0c65	-0.08498458
229	0x3ddcd787	0.10783296
230	0xbdef16bf	-0.1167426
231	0x3e961d53	0.29319248
232	0x3d5617f1	0.052268926
233	0x3f0a92de	0.5413035
234	0xbe66518a	-0.22492042
235	0x3e30e5e0	0.1727519
236	0xbe703530	-0.2345779
237	0xbd8cd891	-0.06877244
238	0xbdd0e9a8	-0.102008164
239	0xbda1eca0	-0.07906461
240	0xbd66009e	-0.056152932
241	0xbe9ff7b0	-0.31243658
242	0x3cdf80b0	0.027283043
243	0xbe089761	-0.13338996
244	0x3e90dc6a	0.28293163
245	0xbd54fd61	-0.051999453
246	0xbd6fb5cd	-0.058522988
247	0xbddade8b	-0.10686978
248	0x3e5cb152	0.21552017
249	0x3f1eb25f	0.6199092
250	0xbe13d96c	-0.14438409
251	0x3c8c1acd	0.017102623
252	0x3d04c21d	0.032411683
253	0x3e801bed	0.25021306
254	0xbc833e73	-0.016020989
255	0x3e4d2035	0.20031817

tcn.tcn.0.conv2.bias f4 [16]
0	0x3ea4828d	0.32130852
1	0x3d4d7069	0.05015603
2	0x3de9f50d	0.11423693
3	0x3e177e29	0.1479422
4	0x3e190f82	0.14947322
5	0x3d21a17d	0.039460648
6	0xbe7fab92	-0.24967793
7	0xbd5cd9c3	-0.05391861
8	0xbea4b98a	-0.32172805
9	0xbe053d37	-0.13011633
10	0x3e401420	0.18757677
11	0x3cdb5a44	0.02677644
12	0x3e12f4a5	0.14351137
13	0xbb9d4f55	-0.004800717
14	0xba7ddfe1	-0.00096845446
15	0x3d87cfd4	0.06631437

tcn.tcn.0.res_conv.weight f4 [16, 16, 1]
0	0xbc0a2daa	-0.008433739
1	0xbe838be7	-0.25692675
2	0x3eaac46c	0.33352983
3	0xbe28369d	-0.16427083
4	0x3d0dea20	0.034647107
5	0x3e809c81	0.25119403
6	0xbdf35c63	-0.11882856
7	0xbe183ba0	-0.14866495
8	0xbeb78edd	-0.35851184
9	0x3ed972fd	0.42470542
10	0xbeaaf273	-0.333881
11	0x3ecb8018	0.39746165
12	0xbe2580ec	-0.16162461
13	0x3e330141	0.17480947
14	0x3e5a7e34	0.21337205
15	0x3db3e668	0.08784181
16	0x3d9c120e	0.07620631
17	0x3e28b518	0.16475332
18	0xbdf04c5f	-0.11733317
19	0x3e66ae26	0.2252737
20	0x3c901196	0.01758651
21	0xbdb58c90	-0.08864701
22	0x3e50855b	0.20363371
23	0xbf2b9a36	-0.6703218
24	0x3c121c9b	0.008917953
25	0x3daffc05	0.08592991
26	0xbe4d6c58	-0.20060861
27	0xbdf94174	-0.12170687
28	0x3e650254	0.2236417
29	0x3dacbfaf	0.08434998
30	0xbd92b42e	-0.07163273
31	0xbdfa5b70	-0.122244716
32	0x3e14274f	0.1446812
33	0xbe59e103	-0.21277241
34	0xba7cbeb2	-0.0009641453
35	0x3e69ff15	0.22851212
36	0x3cbc5279	0.022988545
37	0xbee19836	-0.4406144
38	0x3ed07ef9	0.40721872
39	0xbc5b85e2	-0.013398619
40	0x3da7cfc0	0.08193922
41	0x3edc208e	0.42993587
42	0x3e249783	0.16073422
43	0xbea60249	-0.32423618
44	0xbe938495	-0.2881209
45	0x3ea965ae	0.33085388
46	0x3e38ff1f	0.18066071
47	0x3c8fc500	0.017549992
48	0x3e2e3f18	0.17016256
49	0xbeb25987	-0.3483393
50	0x3d8b4150	0.06799567
51	0xbe8574dd	-0.26065722
52	0xbd5084f7	-0.050908055
53	0xbd52b4cf	-0.051441964
54	0xbe379c65	-0.17930754
55	0x3f0e2ad3	0.55534095
56	0xbe507b9b	-0.20359652
57	0x3dff400f	0.1246339
58	0x3eb341bc	0.3501109
59	0xbdc67f2b	-0.09692224
60	0x3d8c90d8	0.06863564
61	0x3cabf893	0.020992553
62	0x3d93ef93	0.072234295
63	0xbdfcdef3	-0.12347212
64	0xbe54cd4b	-0.20781438
65	0x3ece918e	0.40345424
66	0xbeb65ee2	-0.35619265
67	0xbe371a6e	-0.17881176
68	0x3e4d4a3a	0.20047846
69	0x3eaef76f	0.34173152
70	0xbe716758	-0.23574579
71	0xbd17650d	-0.036961604
72	0xbe6f2a63	-0.23356013
73	0xbe59077b	-0.2119426
74	0x3e8d0166	0.2754013
75	0xbe16f4f0	-0.14741874
76	0x3ea7f923	0.32807264
77	0xbc01f0d6	-0.007930955
78	0xbe1d11bc	-0.15338796
79	0xbe5892eb	-0.21149795
80	0x3e2c2355	0.16810353
81	0x3de99e52	0.1140715
82	0xbdeec1c2	-0.1165805
83	0xbdc5c4ce	-0.09656678
84	0xbe3a0fed	-0.18170138
85	0x3eb2c0b4	0.34912646
86	0xbec95bb6	-0.39327782
87	0x3d244ee0	0.040114284
88	0xbbbee2e8	-0.005825389
89	0x3d5ae5f1	0.053441945
90	0xbe34d7ae	-0.176604
91	0x3d1553ec	0.036456987
92	0xbd263ae1	-0.040583495
93	0xbd2a4d7e	-0.04157781
94	0xbc27df1a	-0.010246063
95	0x3d202eaa	0.039107002
96	0xbeccf1eb	-0.4002832
97	0x3e75ee03	0.24016576
98	0x3e261622	0.1621938
99	0xbd5d5ce7	-0.054043677
100	0x3e8285ba	0.2549265
101	0x3e85ad90	0.2610898
102	0xbe98d6bd	-0.29851332
103	0xbda70a0d	-0.08156214
104	0xbe2b0daa	-0.16704431
105	0x3e6427d3	0.22280817
106	0xbee782b4	-0.45216906
107	0x3bc74466	0.006081152
108	0x3da30602	0.0796013
109	0xbdf6715d	-0.12033341
110	0xbe069f98	-0.13146818
111	0x3daa3e2d	0.0831264
112	0xbe53d9a6	-0.20688495
113	0xbe1c3017	-0.1525272
114	0x3de7b5ab	0.11313947
115	0xbe466699	-0.19375075
116	0xbdace689	-0.084424086
117	0x3eb56db8	0.3543527
118	0x3ed3b56e	0.41349357
119	0xbe774a98	-0.24149549
120	0xbdfcb112	-0.12338461
121	0xbe520478	-0.20509517
122	0xbe7d44c8	-0.24733269
123	0x3d366f59	0.044539783
124	0x3c83c93a	0.016087163
125	0xbea88a53	-0.32918033
126	0xbe45f5af	-0.19332002
127	0xbe525e8f	-0.20543884
128	0xbea6abf8	-0.32553077
129	0xbc32b69b	-0.010907794
130	0x3ebc5985	0.36787048
131	0xbecabd49	-0.39597538
132	0xbe5fbcaf	-0.21849321
133	0xbe564ccb	-0.20927732
134	0xbe2e5bf5	-0.17027266
135	0x3d605c11	0.0547753
136	0xbe719929	-0.23593582
137	0x3f7353c0	0.9504967
138	0x3edce0f2	0.4314037
139	0x3e778b42	0.24174216
140	0xbe5df1b3	-0.21674232
141	0xbdb3aedb	-0.087735854
142	0xbe72545d	-0.23664995
143	0x3e6162e0	0.22010374
144	0x3ea5f6ca	0.32414848
145	0xbcb6ea2c	-0.022328459
146	0x3eaa1ada	0.3322361
147	0xbd842dd5	-0.06454054
148	0xbe0793dc	-0.13239998
149	0xbec01717	-0.37517616
150	0x3e2c6bc8	0.1683799
151	0x3e157039	0.14593591
152	0xbd9c801b	-0.07641622
153	0x3eb9200b	0.3615726
154	0x3e666b62	0.22501901
155	0x3e22b371	0.15888764
156	0xbe29f134	-0.16595918
157	0x3eb322e7	0.34987566
158	0xbbd90849	-0.006623302
159	0xbebb7ef6	-0.366203
160	0xbbd6ce88	-0.006555382
161	0xbe0cc537	-0.13747106
162	0xbe6f1ed6	-0.23351607
163	0xbe55f0b2	-0.20892599
164	0xbd456be6	-0.048198603
165	0xbe5bb39d	-0.21455236
166	0x3e1f3384	0.15546995
167	0x3e894998	0.2681396
168	0xbe7e6161	-0.24841835
169	0x3ec83541	0.3910313
170	0xbe3ce6b9	-0.18447389
171	0xbedcbee5	-0.4311439
172	0x3cfaddbc	0.03062331
173	0xbe2c795d	-0.16843171
174	0x3e6873d5	0.22700436
175	0xbe980ea4	-0.2969867
176	0xbeed35fb	-0.46330246
177	0xbdcaff84	-0.09912017
178	0xbe78d6b6	-0.24300656
179	0x3eba0437	0.3633134
180	0x3d0bdac0	0.034144163
181	0xbdc4194a	-0.09575136
182	0xbdd9bc2c	-0.10631594
183	0xbe409ddc	-0.18810219
184	0x3e84ab9c	0.25912178
185	0xbe19ece8	-0.15031779
186	0xbeb1fb8f	-0.34762236
187	0xbd160d6c	-0.036633894
188	0x3da8c40d	0.08240519
189	0xbd9038e9	-0.07042105
190	0x3d860c25	0.06545285
191	0xbd6060b9	-0.054779742
192	0xbd29d974	-0.041467145
193	0x3e783c42	0.24241737
194	0xbd9ea570	-0.077463984
195	0x3d178a97	0.036997404
196	0xbe00480f	-0.12527488
197	0xbd90e3ea	-0.07074721
198	0xbe2dd38a	-0.16975227
199	0xbea64906	-0.32477587
200	0x3eba788c	0.36420095
201	0xbe077040	-0.13226414
202	0xbe386fa9	-0.18011345
203	0x3d626e36	0.055280887
204	0x3d945178	0.072421014
205	0x3d3de441	0.046360258
206	0x3cd91cb8	0.026502952
207	0x3ea65366	0.32485503
208	0x3e5115cd	0.20418473
209	0x3df13a3d	0.11778686
210	0x3e000317	0.12501179
211	0x3e14502c	0.14483708
212	0xbe430714	-0.19045669
213	0x3def771d	0.11692641
214	0x3e887488	0.26651406
215	0xbd2ba89f	-0.041908856
216	0x3d1b1b03	0.037867557
217	0x3d6e7aba	0.05822251
218	0xbd822c82	-0.063561454
219	0xbe902246	-0.2815115
220	0x3e46afb8	0.19402969
221	0xbe2e0ad6	-0.16996321
222	0x3d21ec1d	0.039531816
223	0xbe39c2fa	-0.18140784
224	0xbe193a63	-0.14963679
225	0xbda5dee2	-0.08099152
226	0x3d22aae9	0.039713774
227	0xbc5777ec	-0.01315115
228	0xbe02fbcf	-0.1279137
229	0xbeb3bb61	-0.35103896
230	0x3e6b46ea	0.2297627
231	0xbcaa50e2	-0.020790521
232	0x3d30271a	0.04300604
233	0x3e22e3f9	0.15907277
234	0xbd9cd712	-0.07658209
235	0x3ce51d54	0.027968086
236	0x3e214852	0.15750244
237	0x3e86f635	0.26359716
238	0x3dfae093	0.122498654
239	0x3d5dce64	0.054151908
240	0xbebd43c7	-0.36965773
241	0xbd707324	-0.058703557
242	0xbe7fee61	-0.24993278
243	0xbe984f18	-0.29747844
244	0x3e32db54	0.1746648
245	0x3ef4bb07	0.4779894
246	0xbd64c155	-0.05584844
247	0x3ebb1110	0.36536455
248	0xbdc5c18d	-0.096560575
249	0xbdf98177	-0.121828966
250	0xbe9f404d	-0.31103745
251	0xbbcedad9	-0.00631271
252	0x3e105b70	0.1409738
253	0x3c87e043	0.016586429
254	0xbd8b26f3	-0.06794538
255	0x3e08e0bb	0.13366978

tcn.tcn.0.res_conv.bias f4 [16]
0	0x3f0457dc	0.5169656
1	0xbdb52c05	-0.08846287
2	0xbe33d3bf	-0.17561243
3	0x3e829cdf	0.25510308
4	0xbdd3a311	-0.10333837
5	0xbe1b1687	-0.15145312
6	0xbeb684da	-0.35648233
7	0xbe3059c1	-0.17221738
8	0xbe242d85	-0.1603299
9	0x3e21e4b1	0.15809895
10	0x3d90ca4e	0.070698366
11	0x3dcecfb5	0.10098211
12	0xbd8cac8c	-0.06868848
13	0xbe8649fe	-0.26228327
14	0xbe48904d	-0.19586296
15	0x3da933c2	0.08261825

tcn.tcn.1.conv1.weight f4 [16, 16, 5]
0	0xbe32cd3c	-0.17461103
1	0xbe9c4d76	-0.30527848
2	0xbeb62823	-0.35577497
3	0xbef012f9	-0.46889475
4	0xbf152e11	-0.58273417
5	0x3e2132aa	0.15741983
6	0xbec3e96b	-0.3826402
7	0xbe95cb23	-0.29256544
8	0xbe5f7ea9	-0.21825661
9	0x3d0df75d	0.034659732
10	0x3c70781b	0.014677073
11	0x3e92e0c0	0.28687096
12	0xbe8ef3ae	-0.27920288
13	0xbe86a84c	-0.26300275
14	0xbe2320b4	-0.15930444
15	0xbd6a3b20	-0.057185292
16	0xbe6c8c3d	-0.23100372
17	0xbe0e0ef0	-0.13872886
18	0xbea317b7	-0.3185403
19	0xbeb3fa9a	-0.3515213
20	0x3d13d60c	0.036092803
21	0xbd202d69	-0.039105806
22	0x3e6247cc	0.22097701
23	0x3da6650c	0.08124742
24	0x3e74a18a	0.23889747
25	0x3db2e72b	0.08735498
26	0xb988f178	-0.0002611985
27	0x3e96bda4	0.2944156
28	0x3da55d31	0.080744155
29	0x3e9a1c11	0.30099538
30	0x3ecf95ad	0.4054388
31	0x3d1167eb	0.035499495
32	0x3e6e394f	0.23264049
33	0x3ec4d090	0.3844037
34	0x3f155ed5	0.5834783
35	0xbc010aa3	-0.007876071
36	0xbe10d585	-0.14143951
37	0xbee2e9d8	-0.44319034
38	0xbe71f1db	-0.23627417
39	0xbdc4ca27	-0.0960887
40	0xbd0c4a88	-0.034250766
41	0x3e6a9b78	0.22910869
42	0x3e4f2d1c	0.20232052
43	0xbdfbb89b	-0.1229107
44	0x3dfdc0af	0.12390267
45	0xbd4d0271	-0.050051156
46	0x3d27248d	0.040806342
47	0x3cf668f6	0.030079346
48	0xbcf56dec	-0.029959641
49	0x3d0f8fdb	0.0350493
50	0x3dd06ff0	0.101776004
51	0x3e481063	0.19537501
52	0xbde11fd4	-0.10992399
53	0xbe82e5a6	-0.25565833
54	0xbe4ef8b9	-0.20212068
55	0x3dd085a5	0.10181741
56	0xbdad4a52	-0.08461441
57	0xbeacecf9	-0.33774546
58	0x3d6af483	0.05736209
59	0xbe8ebaea	-0.2787698
60	0xbc63d2ac	-0.013905209
61	0x3deb8ff5	0.11502067
62	0x3d32cd58	0.043652862
63	0x3e88156a	0.26578838
64	0x3e0c5c19	0.13707007
65	0x3ebcca3c	0.36873043
66	0xbdb7094e	-0.089373216
67	0xbe6925b0	-0.22768283
68	0xbe2957ce	-0.16537401
69	0x3c23f8cd	0.010008049
70	0x3e35a916	0.17740282
71	0x3dad0098	0.08447379
72	0x3dfc01b1	0.1230501
73	0x3e2561c1	0.16150571
74	0xbd287b4c	-0.04113321
75	0x3ef92515	0.48661104
76	0x3d9375e2	0.07200219
77	0x3d912ceb	0.070886455
78	0x3e39afec	0.18133515
79	0x3da3ae81	0.07992268
80	0xbee4f108	-0.44715142
81	0xbe7d0d75	-0.24712165
82	0xbe38eaa4	-0.18058258
83	0xbe4acfcf	-0.19805835
84	0xbe6a28a4	-0.22867066
85	0xbddc6a04	-0.107624084
86	0x3dac8f2c	0.08425745
87	0xbe80ff8c	-0.25194967
88	0x3d94b74e	0.07261525
89	0xbe2fa3b2	-0.17152289
90	0xbf12c18a	-0.5732657
91	0xbe03a7a3	-0.12856917
92	0xbe86f2da	-0.26357156
93	0xbdcb4934	-0.09926072
94	0x3df7923f	0.12088441
95	0x3def7d82	0.116938606
96	0xbe5d02be	-0.21583077
97	0xbeb70c28	-0.35751462
98	0xbd4550c9	-0.048172746
99	0xbdd8d4a8	-0.10587436
100	0x3eb2ab9b	0.3489655
101	0x3dc00a61	0.093769796
102	0xbde7bf45	-0.11315779
103	0x3e4f8fd6	0.20269713
104	0x3eda80fa	0.42676526
105	0x3bdcaaa3	0.0067342087
106	0xbe07233b	-0.13197033
107	0xbed2d2e2	-0.41176516
108	0xbe2a2130	-0.16614223
109	0x3e8a91e2	0.27064425
110	0x3e59e8f4	0.21280271
111	0x3e5c9da7	0.21544515
112	0x3ec4ab86	0.38412112
113	0x3ea5c619	0.323777
114	0x3e98b052	0.29822022
115	0xbeb82e7f	-0.35972974
116	0x3a8e4234	0.001085347
117	0xbe4e40fc	-0.20141977
118	0xbdd10539	-0.10206074
119	0xbd4a704d	-0.049423505
120	0xbe27f2c0	-0.16401196
121	0xbdfa7ecd	-0.122312166
122	0xbf17d011	-0.5930186
123	0xbe0c5728	-0.13705122
124	0x3f0068e5	0.50160056
125	0x3d8aa2c1	0.06769324
126	0xbdd74a29	-0.10512192
127	0xbe2766c0	-0.1634779
128	0x3c81f28f	0.015862731
129	0x3eb66545	0.35624138
130	0xbe3eae77	-0.1862124
131	0xbe83e8b4	-0.25763476
132	0x3d845b02	0.06462671
133	0xbd719c9f	-0.058987256
134	0xbd6cebb6	-0.05784198
135	0x3e089d70	0.13341308
136	0x3e7b8aed	0.24564715
137	0x3eb2065a	0.3477047
138	0x3db6e0e4	0.08929613
139	0xbee23d5f	-0.44187447
140	0xba1a86b7	-0.0005894708
141	0xbdd028c2	-0.10164024
142	0x3eb1b620	0.34709263
143	0xbd0680b4	-0.032837585
144	0xbdc21d48	-0.09478241
145	0xbdc42c2d	-0.09578738
146	0xbd9dfbb6	-0.07714026
147	0xbe659ec0	-0.2242384
148	0x3e5223a7	0.20521413
149	0x3df07969	0.11741907
150	0x3c58963c	0.013219412
151	0xbd6a94b5	-0.057270724
152	0x3e6ad45d	0.22932573
153	0x3b2e8a95	0.0026632894
154	0x3e0865bf	0.13320063
155	0x3da3c239	0.079960294
156	0x3e2f1fb2	0.17101935
157	0x3c310550	0.010804489
158	0x3ce418db	0.027843883
159	0x3d4d17bd	0.050071467
160	0x3e2eb96e	0.17062923
161	0x3e85e447	0.26150724
162	0xbd80f52c	-0.06296763
163	0xbec0b464	-0.37637627
164	0xbf442365	-0.7661651
165	0x3cf9e812	0.030506168
166	0xbc6d6a2d	-0.014490646
167	0x3dee76bb	0.1164374
168	0x3c453849	0.012037345
169	0xbd4c1720	-0.04982674
170	0xbe555eab	-0.20836894
171	0xbe317ea3	-0.17333464
172	0xbc8a8f93	-0.016914165
173	0xbde6ada1	-0.11263586
174	0x3dfbe2d1	0.12299121
175	0xbdd567af	-0.10420167
176	0xbe3810ae	-0.17975113
177	0xbe524e36	-0.20537648
178	0xbe2e9665	-0.17049558
179	0x3aab9342	0.0013090151
180	0x3e00c22f	0.12574075
181	0xbd6981f4	-0.0570087
182	0xbe89577e	-0.26824564
183	0xbc7c9885	-0.015417223
184	0x3d11b97c	0.035577282
185	0xbd8aedf7	-0.067836694
186	0x3d6b70dc	0.057480678
187	0xbd48f7a5	-0.049064297
188	0xbe0cc63f	-0.137475
189	0xbc3d80b0	-0.011566326
190	0x3eb59b76	0.3547017
191	0x3e67c228	0.22632658
192	0x3d1c0e6c	0.03809969
193	0xbdaa1dc2	-0.08306457
194	0xbd66fca3	-0.056393277
195	0xbe68f75a	-0.22750607
196	0x3c9f5021	0.019447388
197	0x3d070004	0.032959
198	0x3e0fadc1	0.14031126
199	0x3e3e2e66	0.18572387
200	0x3d78b9b0	0.06072396
201	0xbdc7416c	-0.09729275
202	0xbe050d89	-0.12993445
203	0xbe9ce12b	-0.3064054
204	0xbb1f66a8	-0.0024322663
205	0xbe0b202a	-0.13586488
206	0x3d36f0c2	0.0446632
207	0xbe30ff33	-0.17284851
208	0xbe3e4b20	-0.18583345
209	0x3e9f08ee	0.310615
210	0x3ebfa492	0.37430245
211	0x3d4b956a	0.04970304
212	0x3d4981d0	0.049196064
213	0xbe1d516b	-0.1536309
214	0xbe314a12	-0.17313412
215	0x3e94742d	0.28994885
216	0x3e2e4c62	0.17021325
217	0x3d4d8f3a	0.05018542
218	0x3d123670	0.035696447
219	0xbe352ba3	-0.17692427
220	0x3e223c55	0.15843327
221	0xbd58fc06	-0.052974723
222	0x3e51cfdf	0.20489453
223	0x3ed6cd0a	0.41953307
224	0xbdabe072	-0.08392419
225	0x3dcad26c	0.09903416
226	0xbd03da6d	-0.03219073
227	0x3e24e416	0.16102633
228	0x3dcc82f7	0.09985917
229	0x3d9d507f	0.07681369
230	0x3e522506	0.20521936
231	0x3e609358	0.21931207
232	0x3e6f5c06	0.23374948
233	0x3e28ac56	0.16471991
234	0xbd8d7a8d	-0.0690814
235	0x3ebea17d	0.3723258
236	0x3dbd876a	0.09254344
237	0x3de95e23	0.11394908
238	0x3c043d1e	0.008071212
239	0xbe907a01	-0.28218082
240	0xbde91b6a	-0.11382182
241	0xbf16ecac	-0.5895488
242	0x3c5dc241	0.013535083
243	0xbebcd5d6	-0.36881894
244	0xbea19dff	-0.31565854
245	0x3ecdbe5c	0.40184295
246	0x3e0d8cae	0.13823196
247	0xbe155232	-0.14582136
248	0xbe050298	-0.1298927
249	0x3e87c7bb	0.2651957
250	0xbe46e542	-0.19423392
251	0x3e776610	0.24160028
252	0x3dcc07ca	0.09962423
253	0xbcab6a73	-0.020924782
254	0x3e759ed7	0.23986374
255	0xbe9bc85d	-0.30426303

tcn.tcn.1.conv1.bias f4 [16]
0	0xbec00302	-0.37502295
1	0xbec28b04	-0.37996686
2	0xbe5ccf6a	-0.21563497
3	0xbe0c3cfb	-0.13695137
4	0xbf0453c9	-0.51690346
5	0xbeabd16a	-0.33558208
6	0xbca46ff8	-0.020072922
7	0xbd10247b	-0.03519104
8	0xbe9da3e2	-0.30789095
9	0xbea81573	-0.32828864
10	0xbeb223d4	-0.3479296
11	0xbd278e3c	-0.04090713
12	0xbeddbf07	-0.43309805
13	0x3d68f6ee	0.056876116
14	0xbe4bcb03	-0.19901662
15	0x3d0eb898	0.03484401
