checkpoints/fine_tune/var_rf/giantsteps/0.4/model_rural-sponge-197_finetune_finetune_finetune_finetune_finetune_HAI_GTZ/it_6237_loss_2.4560_acc11.0_acc21.0.pt (torch, 436414 bytes, 211 tensors)

conv1.weight f4 [16, 1, 3, 3]
000000 d1 5f 82 3e 7b a5 a1 bd 98 cb a6 be 19 f5 a1 3e
       0.25463727 -0.07892891 -0.32577205 0.31632307
000010 b4 bd 16 be 1a 86 c2 be 56 5e 89 3e 0e 2b 88 3e
       -0.14720803 -0.37992936 0.26829785 0.26595348
000020 5c ec 49 be 36 0d 1c 3e 37 80 13 bf 26 46 01 bf
       -0.1971907 0.15239415 -0.57617515 -0.50497663
000030 27 e1 a8 3e 63 ff 4b be 57 09 2f 3e d4 91 2f 3e
       0.32984278 -0.19921641 0.17093407 0.17145473
000040 9b 10 66 3e 67 28 f5 3d 8b ad 59 be 4c 07 ee 3e
       0.22467272 0.11970597 -0.21257608 0.46489942
000050 38 cc 8f 3e ae 46 42 be 12 23 c5 3e c4 07 d3 3d
       0.28085494 -0.18972275 0.3850332 0.103042156
000060 83 46 0a bf f9 ef 9f 3d 74 f0 90 be 3b 82 96 be
       -0.5401384 0.07809443 -0.2830845 -0.29396233
000070 9d bc d7 bd c4 7d c0 3e 3c a9 b5 be df 62 d5 3d
       -0.10534022 0.37595952 -0.35480678 0.10419249
000080 a8 ea 60 3e 25 3e cf 3e d8 fd a7 3d a0 44 f7 be
       0.21964514 0.404771 0.08202714 -0.48294544
000090 b3 00 95 be fb 2c 8a be cc f4 66 be a2 96 13 be
       -0.29102096 -0.26987442 -0.2255432 -0.1441293
0000a0 92 be 64 3e 47 a6 a2 3e 70 09 84 bd be 5f 93 bd
       0.22338322 0.31767485 -0.064471126 -0.07195996
0000b0 3d 59 6e be ed e0 a7 bd 97 9d e0 3d 49 44 df bc
       -0.23276229 -0.08197198 0.10967558 -0.02725424
0000c0 e3 10 5b bf a5 d7 9f 3e 8c ca 01 3f 1e 7d 8a be
       -0.8557264 0.3121921 0.50699687 -0.27048582
0000d0 47 8f 98 3e a7 87 18 bd 53 0c b6 3e a6 9d 89 3d
       0.29796812 -0.037238743 0.35556278 0.06719522
0000e0 e0 38 d4 bc cd 75 31 be 2b bd 03 3e 16 6e da be
       -0.025906026 -0.17330094 0.1286513 -0.42662114
0000f0 8f 62 da bd 36 ac 0c 3e 31 da 64 be 8e 1c 59 3d
       -0.1066333 0.13737568 -0.22348858 0.053005747
000100 de b0 ab 3d cd 0c af 3e 53 a6 11 bf e2 e8 8f be
       0.08383344 0.34189454 -0.56894416 -0.28107363
000110 53 f7 86 be 36 07 17 3e 80 10 f0 bc 50 de 10 3f
       -0.26360568 0.14748845 -0.029304743 0.5658922
000120 b2 6c e7 be 7e 61 a7 3c 6b 4a c0 be fe c9 b1 be
       -0.45200115 0.02043223 -0.37556776 -0.3472442
000130 0f 9b de 3e 4f 15 d2 3e d6 e4 35 be cb 5b d0 3e
       0.43477675 0.41031882 -0.17763075 0.40695032
000140 0e a5 11 3e 5b 1a 30 bf ce e8 ad 3d 61 86 0b 3f
       0.1422312 -0.68790215 0.084916696 0.5450192
000150 db 9c 02 bd 13 8a 70 be 0b dd 58 3e c6 aa b0 be
       -0.03188787 -0.23490171 0.21178071 -0.3450529
000160 d5 32 a1 3b 09 e4 aa 3e 98 f8 08 bf 9b 01 69 3d
       0.0049193897 0.33377102 -0.53504324 0.056886297
000170 2e 52 d7 3e 61 78 95 be 49 f1 47 be 9a da ca 3e
       0.42054886 -0.29193404 -0.19525637 0.39619905
000180 24 61 02 3e 70 18 b3 bd 74 36 bc 3b 61 60 62 3e
       0.12732369 -0.087448955 0.005743796 0.22107078
000190 66 e2 eb 3e 25 7f d0 bd 30 f5 93 3e 28 ed da 3e
       0.46071166 -0.10180501 0.28898 0.4275906
0001a0 ad 6c 02 be ff d0 b0 3e 04 cc 9c 3d df 52 c1 bd
       -0.12736769 0.3453445 0.076561004 -0.094396345
0001b0 9e 11 4c 3e 3d 94 47 3e e8 60 a1 3d c3 a1 89 be
       0.19928595 0.19490142 0.078798115 -0.26881227
0001c0 e3 f1 92 be dc 79 05 bf 76 0e 92 3e c7 5f b1 3e
       -0.2870017 -0.5213907 0.28526658 0.34643385
0001d0 27 3a ec bd 6d 6e a0 3d ba 30 56 be 5c b5 bc be
       -0.11534529 0.07833562 -0.20917025 -0.36857116
0001e0 fd 3d f6 3e b3 c6 e5 3e 66 77 95 3e e1 65 95 be
       0.48094168 0.44878158 0.29192656 -0.2917929
0001f0 04 7d c2 3d 48 14 10 bf a8 3b c1 3e 90 3f 4f 3e
       0.09496501 -0.56280947 0.37740827 0.20239091
000200 54 e9 01 be b1 9f df 3e 09 9c 83 be 38 eb 2d 3c
       -0.12686664 0.43676522 -0.25704983 0.010615163
000210 72 05 53 3e d8 9c a2 be 17 ae f2 be ac 78 74 be
       0.20607546 -0.31760287 -0.47398445 -0.23874158
000220 83 f3 e7 bd 30 a6 8c 3e 00 2f 0f be 70 bb 94 3d
       -0.11325743 0.2747054 -0.13982773 0.07262313
000230 2c 06 de 3e 95 7b 09 bf 0f ad 83 be bd 3e 07 3f
       0.43364084 -0.53704196 -0.2571797 0.52830106

conv1.bias f4 [16]
000000 37 ae 25 bd 38 41 c6 bc d0 41 f2 bd e4 d3 42 bd
       -0.040449347 -0.02420102 -0.11828959 -0.047565356
000010 ed e0 42 be ce 82 de bd d4 f0 7b 3d ce 5f ae bd
       -0.19031115 -0.10864793 0.06150897 -0.08514367
000020 c3 2b aa bd 73 bc 9c 3c 51 e0 2f bd a8 38 6f be
       -0.08309128 0.019132828 -0.042938534 -0.23361456
000030 e9 39 e9 bb 5f 3f f4 bd 6a ab a5 bd b9 36 aa bd
       -0.007117499 -0.119261496 -0.08089335 -0.08311219

conv2.weight f4 [16, 16, 3, 3]
000000 8f 37 39 be fa 33 27 bd 57 e6 e5 bd 2e 0b 11 be
       -0.180876 -0.040821053 -0.112255745 -0.14164421
000010 43 43 db bd ae 19 0d bd b3 aa 85 bd 16 c4 04 3e
       -0.107061885 -0.03444832 -0.06526699 0.12965426
000020 f8 2f b8 3d 4b 60 94 ba ff 0d eb bd e0 a8 f3 bd
       0.08993524 -0.0011320201 -0.11477279 -0.11897445
000030 58 d5 eb bd 6c ae bc 3c cb e9 6f bd b7 eb d4 39
       -0.115153015 0.02303239 -0.05857257 0.00040611412
000040 1f f6 bb 3d e2 b9 54 be 3c d2 83 3d 0f fe 8b be
       0.09177803 -0.20774034 0.064365834 -0.2734227
000050 f3 0f b4 bc 32 d6 a2 3e c4 6d 7e be 30 0a 4c bd
       -0.021980261 0.31804043 -0.2484656 -0.049814403
000060 91 22 c2 3e a9 85 48 be b5 3c 0f be 8c b1 f8 bc
       0.37916997 -0.19582237 -0.13988002 -0.030358098
000070 05 c3 86 3e 99 5b ea 3e ef c8 4c bc 7f 24 0a 3e
       0.26320663 0.45773008 -0.012499078 0.13490485
000080 f9 a3 b5 3e 36 a2 d4 3e c7 0e 08 3f 7c 6c 10 3f
       0.35476664 0.41530007 0.5314755 0.56415534
000090 3d d1 58 bc 63 1d fb bc 45 37 58 be d3 61 b6 bd
       -0.01323348 -0.030653661 -0.21114834 -0.08905377
0000a0 f0 72 43 be bd b1 93 be b5 b0 8e bc 15 68 42 be
       -0.19086814 -0.2884654 -0.017418245 -0.18985017
0000b0 1c 26 27 be d4 f8 f8 3e 33 98 53 3e 61 35 49 3f
       -0.16323131 0.4862734 0.20663528 0.78597075
0000c0 54 ad c2 3e 96 17 ed bd db 8b 85 3e af b4 20 3f
       0.38022864 -0.11576764 0.26083264 0.627757
0000d0 64 28 22 3d ec 9b be 3e 08 25 bf 3d 7a 85 09 be
       0.0395893 0.37228334 0.09333235 -0.13429824
0000e0 07 00 27 be 89 8b 98 3b 91 89 b8 bd 53 86 4e be
       -0.16308604 0.0046553058 -0.09010614 -0.20168428
0000f0 bd d2 ce bc 9d a7 a0 bd 6e ba 32 bd 81 fc 5f 3e
       -0.025246972 -0.0784447 -0.043634824 0.21873666
000100 e1 c2 d9 3d 53 08 fe bd 0a 72 54 3e 5e f8 fb bd
       0.10632873 -0.124039315 0.20746627 -0.12303232
000110 a6 1f e1 be 1a da 0f 3d 53 b4 c1 bb 07 cb a8 be
       -0.43969458 0.035120107 -0.005911389 -0.32967398
000120 b1 d4 49 3e 60 b9 11 be c5 bf 00 3c 67 15 6c 3e
       0.19710042 -0.14230871 0.007858221 0.2305504
000130 db 9b 6e be 19 10 00 be 4f 14 dc 3e cd 21 c4 3c
       -0.23301642 -0.12506141 0.42984244 0.023941899
000140 c8 5c 00 be 15 06 d7 3d 00 a7 9a 3e 06 4c ba 3e
       -0.12535393 0.10499207 0.30205536 0.36386126
000150 03 1b 95 3e 27 eb b7 3e c9 74 b8 3e e8 cf b0 3e
       0.2912217 0.35921595 0.360266 0.3453362
000160 29 bd 3b 3e 5a 63 94 3e 50 7b 05 3e d9 6b d5 3d
       0.18333878 0.2898205 0.13035321 0.10420961
000170 6f f0 86 3e 86 ed 88 3d 90 1a f6 bc 82 43 80 3d
       0.2635531 0.06685929 -0.030041963 0.06262876
000180 4e 7e bc 3d 88 80 74 bb c2 2c 50 3d 7e c8 62 be
       0.09203778 -0.0037308056 0.050823934 -0.22146794
000190 04 36 7d be c9 c0 56 be d3 2e 7a be 5d 3e 91 be
       -0.24727637 -0.20971979 -0.24431925 -0.28367892
0001a0 b8 ce 97 be d6 d5 c1 bd 4d c0 f9 bc 31 38 27 be
       -0.296499 -0.09464614 -0.030487204 -0.16330029
0001b0 1b 2b bc bd c3 05 d9 bd f7 cf 56 be 88 0a b2 bd
       -0.09187909 -0.10596802 -0.2097777 -0.08693415
0001c0 43 f5 fb bd e6 12 26 be bc 75 2d 3c 81 98 81 3d
       -0.12302639 -0.16218147 0.010587152 0.06327916
0001d0 cf 71 8a bd 37 c3 68 bd 47 af 63 be fa 0d 9d be
       -0.067599885 -0.056826796 -0.22234832 -0.30674726
0001e0 4d 1c 09 bd d0 af 83 be 5f 36 b9 be f4 a9 7d 3b
       -0.033474255 -0.25720072 -0.36174294 0.0038706036
0001f0 ad 9a 41 bc 93 a6 6d be 58 cd be be 52 ad a0 be
       -0.011816663 -0.23208074 -0.3726604 -0.31382233
000200 ed 03 f6 bd 52 f1 8f be 64 4f 4a bc e2 cf 48 3e
       -0.120124675 -0.281138 -0.01234803 0.19610551
000210 1d cc f1 bd 42 17 55 3e 42 53 9b 3d 03 e9 47 3e
       -0.1180651 0.20809653 0.075842395 0.1952248
000220 bd 24 27 3e ec a5 eb 3e d6 f6 3a 3d 92 68 6e 3d
       0.16322608 0.46025026 0.045645557 0.058205195
000230 18 bb 02 3e 36 46 52 3e 31 e7 c4 bd b1 0c 7d bb
       0.12766683 0.20534596 -0.09614409 -0.00386123
000240 fb 06 66 3e e4 18 8a 3d 61 10 17 3e 17 e6 bf 3d
       0.224636 0.06743029 0.14752342 0.09370058
000250 70 16 32 3e 11 3a d7 3d ee 16 17 3c df 1f b4 3d
       0.17391372 0.10509122 0.009221775 0.087951414
000260 e3 de a2 3c b8 2b a5 3e a7 85 aa bd 3f f7 93 3e
       0.019881671 0.32259917 -0.083262734 0.2889957
000270 34 17 ed 3d 29 5c 8c bd d2 65 08 3e ff fa 46 3e
       0.11576691 -0.06853516 0.13320091 0.19431685
000280 4a ce fa bd a9 65 2d 3d 17 63 c8 bd 5b 00 35 3f
       -0.12246378 0.04233328 -0.09784525 0.7070367
000290 d0 22 3f 3e bd 79 50 bf 81 9d 42 bd b8 62 6f be
       0.18665624 -0.8143576 -0.04751349 -0.23377502
0002a0 6a aa d4 be 74 1f 34 3e 9f 4e 26 be bb ea a3 be
       -0.41536266 0.17590123 -0.16240929 -0.32015023
0002b0 a4 e4 5b be df 60 3c 3c 6b 91 8f bd 70 e8 97 3d
       -0.21473938 0.011497705 -0.07010158 0.07417381
0002c0 a1 cc 85 3e 54 49 22 3c 1c 69 31 3d 8f 2d e3 3d
       0.26132682 0.009905178 0.04331313 0.11092674
0002d0 78 80 68 3e ee 6a 89 3e 9f 6d 8b 3e c3 57 a8 3d
       0.22705257 0.26839393 0.27232072 0.08219864
0002e0 3b a5 1c 3e a7 6b 47 3d ea ce 41 3d 40 35 dc 3d
       0.15297405 0.04868665 0.04731647 0.10752344
0002f0 a2 05 fc 3c 1f 83 bb be 4a 9e 7b 3e a0 ab 3c bc
       0.030764405 -0.36623475 0.24572101 -0.011515528
000300 75 cc cd be 2a b8 b2 3d 64 50 7f bd e6 61 e6 be
       -0.4019505 0.08726533 -0.062332526 -0.44996566
000310 7f 82 85 3e 5e d7 b0 3c ba 28 95 3d b8 ff 68 3e
       0.26076123 0.02158707 0.072831586 0.22753799
000320 57 4c 64 3c 6b c3 81 3d fc 55 83 3d 83 2a 3a 3d
       0.013934216 0.06336101 0.064128846 0.0454507
000330 36 f2 8b 3d ef d7 17 3e de bc 06 3e be 59 cd 3e
       0.068333074 0.14828466 0.13157985 0.4010753
000340 36 fb 4e 3e 29 68 0e 3e 8b 61 72 3d eb 32 a0 3b
       0.20213017 0.13906921 0.059175055 0.0048888824
000350 a5 1d 56 3d e8 b4 9c bd 12 c9 af bd 18 ab a1 be
       0.052274365 -0.07651693 -0.08583273 -0.31575847
000360 25 4b ce be 5d 73 74 3d 40 3c 82 be 42 69 69 be
       -0.40291706 0.05968033 -0.25436592 -0.22794059
000370 dc 80 29 3e cd 4b 8e 3b 88 9a d1 be 27 3a b5 3e
       0.16553062 0.0043425323 -0.4093821 0.3539593
000380 1b 80 71 3e 35 97 45 3c 57 78 98 bd 3d 8b 53 3d
       0.23584025 0.012059976 -0.07444828 0.05164646
000390 52 c7 12 be df b9 da bd ea 69 1b 3e 28 a2 1d be
       -0.14333847 -0.10679983 0.15177122 -0.15393889
0003a0 6f e3 a8 3d 24 11 e8 3d 63 a2 62 3e 3c b8 07 be
       0.082465045 0.11331394 0.22132258 -0.13253874
0003b0 7d 6b b2 3d 01 f2 93 bd 9d 8a ac bc d3 6e 52 bc
       0.08711908 -0.07223893 -0.02106219 -0.012843805
0003c0 32 83 35 bd 57 e9 2e be a8 37 40 3d bd f8 3c be
       -0.04431457 -0.170812 0.046928078 -0.18454261
0003d0 9e 95 be 3c 24 b4 95 3e bd b4 24 bd 5f 46 4e bb
       0.023264702 0.29239 -0.040211428 -0.003147505
0003e0 69 e3 4f 3e 1f eb f4 3c ed 3e 17 3e bf 24 99 3e
       0.20301594 0.02989727 0.14770098 0.29910848
0003f0 83 bd 54 3e d4 6d 7b 3d ab fe 13 3d b3 3f 1f bc
       0.20775418 0.061384037 0.036131542 -0.009719777

conv2.bias f4 [16]
000000 b3 a5 a2 bc dc 81 3b be 64 d5 1b 3d e1 d9 64 bd
       -0.019854402 -0.18311256 0.038045302 -0.055871848
000010 72 b5 42 be a8 f4 3e be b4 f3 8f be 38 36 ca bd
       -0.19014528 -0.18648016 -0.28115618 -0.09873623
000020 34 bb bb bd ff c2 3f be 93 bf b4 bd 46 c5 12 3c
       -0.091665655 -0.18726729 -0.088256024 0.008958166
000030 57 8b 1e bd dc ac 0d be 8c 0f ea 3b 8b e4 f1 bd
       -0.038707104 -0.13835472 0.0071429666 -0.11811169

conv3.weight f4 [16, 16, 8, 1]
000000 18 a8 15 bf 27 9e c7 bd c7 25 13 be 94 69 85 bd
       -0.58459616 -0.09746962 -0.1436988 -0.06514278
000010 a2 c0 69 be 9d 16 fb be 4f 26 ab be 57 ab 44 3e
       -0.2282739 -0.4904069 -0.33427665 0.19205986
000020 21 7c 88 3e c9 04 2f 3e 74 dd 94 3e e4 48 a1 3d
       0.26657203 0.17091669 0.29075205 0.07875231
000030 ad 8f 4a 3e 1a 9d b5 3e e5 73 25 be 7c 8a 1d bf
       0.1978137 0.3547142 -0.16157492 -0.61539435
000040 cf 99 9e 3e d1 ef 7c 3d c6 f5 a3 3b 40 73 e4 3d
       0.30976722 0.061752144 0.0050036637 0.11154795
000050 15 35 74 3d 52 a5 27 3e f6 74 99 be 08 ad 28 be
       0.059620935 0.16371658 -0.29972047 -0.16472256
000060 d8 4e 0d bf 0a b2 90 be a9 c4 ed bd 27 63 e1 bc
       -0.5519843 -0.28260833 -0.116097756 -0.0275131
000070 15 56 37 3e 73 ba 49 be ba 77 0a 3e d4 b7 40 3d
       0.17903931 -0.19700031 0.13522235 0.047050312
000080 d6 d3 ac be d7 03 20 3d bf ea 98 3d 6e 91 27 3e
       -0.33755368 0.039066162 0.07466649 0.16364071
000090 78 45 19 3e e8 e1 03 3e 97 dd 0d 3d 24 79 cf 3d
       0.14967906 0.12879145 0.034635153 0.101305276
0000a0 0a f5 8d be e0 9b 20 bd 5e 22 57 bd 58 95 02 3e
       -0.27726012 -0.039211154 -0.05252301 0.12752283
0000b0 d2 ef f6 3c d5 d5 47 3e ef d4 af be f8 56 65 bd
       0.030143652 0.19515164 -0.34342143 -0.055991143
0000c0 65 ae 21 3e b4 9a 32 3e 4f f2 fe 3d 87 bd 3b 3c
       0.15789182 0.17441827 0.124485604 0.011458761
0000d0 94 5e 8c 3d a3 ec 18 3e 2b 45 ec bc fc b6 31 be
       0.06853977 0.1493402 -0.028841576 -0.17354959
0000e0 9d c5 4b 3e 09 c6 89 3d 1f 2b 38 bb 32 ac 0c be
       0.19899602 0.06727225 -0.0028101874 -0.13737562
0000f0 db 3d ac bd 25 e0 5f be 25 db cd bd 3f bd 70 be
       -0.084102355 -0.21862848 -0.10051564 -0.23509692
000100 07 78 fe 3c 37 e9 a9 3d b4 16 76 3d 7c aa fd 3d
       0.031063093 0.08296435 0.060080245 0.12386033
000110 9b 7b 86 be 1a 30 41 be 6a 7e 06 3f ac 80 6c be
       -0.26266178 -0.18866006 0.5253664 -0.2309596
000120 59 23 50 3e b5 0d 33 bc 36 d2 75 bd 3c 1d e6 bd
       0.20325984 -0.010928561 -0.060014926 -0.11236045
000130 67 70 a6 bd 3a 04 f8 3d 0d 1d 01 bf da e5 47 3d
       -0.08126908 0.12110181 -0.5043495 0.048803188
000140 c4 76 8e 3e 69 54 a1 bd ce 82 2b 3c a6 a0 e1 bd
       0.27824986 -0.07877428 0.010468198 -0.110169694
000150 2f c5 6f be 52 df 4d be a6 75 f6 3d 15 91 ee 3a
       -0.23415063 -0.20104721 0.120341584 0.0018201197
000160 7d 8d a8 be a3 64 2d bd c6 70 56 3d a5 d6 1e 3d
       -0.32920447 -0.042332303 0.052353643 0.03877892
000170 a1 9b 86 3e 59 0d e3 bd 55 d6 eb be 24 b2 33 3e
       0.2629061 -0.1108653 -0.4606196 0.17548424
000180 53 c1 d0 be b6 e3 3b be a4 51 a0 be 1e e0 20 be
       -0.40772495 -0.18348584 -0.31312287 -0.15710494
000190 83 cc cb be 7b 5d 0c bf 5b 5f 96 bd 70 f8 9b 3e
       -0.39804468 -0.5483014 -0.07342406 0.3046298
0001a0 2f 91 e8 3d a3 9c 6d 3e 2a f9 96 3e 6f 86 4b 3e
       0.113558166 0.23204283 0.29486972 0.19875501
0001b0 63 8a 98 bc 45 5c 8b 3e 1b 32 ec 3e c5 1a 19 bf
       -0.018620675 0.27218834 0.46131977 -0.5980647
0001c0 d9 03 08 be 69 ee 6e bc e0 5f 92 bb f7 ec 57 3d
       -0.13282718 -0.014583209 -0.0044669956 0.05271622
0001d0 d5 5e 9f bd 15 c2 cc bd b2 c2 3d be 26 a9 69 3e
       -0.0778176 -0.09997956 -0.18531302 0.22818431
0001e0 03 92 5f bf d6 70 da be b1 91 f5 bd 38 56 8a bd
       -0.8733217 -0.42664212 -0.11990679 -0.06754726
0001f0 74 3e 1b be d8 cb 56 be b8 11 e2 3c ad f4 3d 3e
       -0.15160543 -0.20976198 0.02759634 0.18550368
000200 bd 72 3e bf bb d7 0a bf 75 de 26 be 97 06 86 3c
       -0.74393827 -0.5423543 -0.16295798 0.016360564
000210 01 10 29 3d cf b4 24 3e 7e cc fc 3e 57 ba a8 3d
       0.04127503 0.16084598 0.49374765 0.082386665
000220 88 25 03 be 31 cb 3c 3e d6 1c 15 3e 3d 79 1a 3e
       -0.12807286 0.18436886 0.14561781 0.15085311
000230 26 e4 88 3e 14 4c 91 3e a4 95 87 be da 11 2f be
       0.26736563 0.28378356 -0.26481354 -0.17096654
000240 b5 5b 23 be cd a2 86 be 51 90 70 be 89 41 26 3e
       -0.15952952 -0.26296082 -0.23492552 0.16235937
000250 e1 37 75 3d 3c b2 bd 3e b7 cf ca bc 58 cf f0 bd
       0.059867743 0.37050045 -0.02475725 -0.11758298
000260 de cf 04 3f a4 c1 bb bd ec a3 a4 be 49 a4 e1 bd
       0.5187968 -0.091677934 -0.32156312 -0.11017663
000270 28 ca 8e bd 17 af a2 be f8 8f 5f be 26 b1 bb be
       -0.06972152 -0.31774208 -0.21832263 -0.3665859
000280 d2 2f 29 bf f1 a5 36 be 5f eb ae bc 39 f3 5c 39
       -0.66088593 -0.17836739 -0.021352468 0.00021071442
000290 a3 5a b8 bd 2a 47 90 3e 0b 9f d0 bd 34 a6 2e bb
       -0.090016626 0.28179294 -0.10186585 -0.0026649358
0002a0 b5 0b 28 3f b1 98 53 3d e7 04 86 be 3c 29 a1 be
       0.65642864 0.05165929 -0.26175615 -0.31476772
0002b0 43 d3 d5 bd e7 75 2c 3e 96 62 a5 be 1a 74 e6 3c
       -0.104406856 0.16841851 -0.32301778 0.028131533
0002c0 b7 f6 09 be f0 40 ba 3d c3 38 8f be 9c 33 71 be
       -0.1347302 0.09094417 -0.27972993 -0.23554844
0002d0 4a 61 48 bd 75 b7 9a bd a0 d3 00 3e 73 8e b7 bb
       -0.048920907 -0.07554523 0.12580729 -0.005601698
0002e0 fb 75 99 be 5e 05 4d bd 34 f5 48 be 75 d1 3c 3e
       -0.29972824 -0.050053947 -0.19624788 0.18439277
0002f0 aa f8 68 3e ec 50 9f 3e fc d7 7b 3e c7 de 9f bd
       0.22751108 0.31116426 0.2459411 -0.07806163
000300 6f 86 a3 be 39 b6 3d be 9a 44 2c be e4 0f d5 3d
       -0.31938502 -0.18526544 -0.16823044 0.104034215
000310 d5 7c 82 3e 24 62 98 3e 45 58 34 3f e7 14 59 be
       0.25485864 0.29762375 0.7044719 -0.2119938
000320 b1 e7 24 3d a2 71 d6 3d 7e e7 c6 3e 95 b8 2b bd
       0.04026002 0.104708925 0.3884849 -0.041924078
000330 43 4d 00 3e d1 42 31 3e b5 57 ab be 4a 75 af 3e
       0.12529473 0.17310645 -0.33465353 0.34269172
000340 0a 1f a2 3d 42 b7 1d be 06 60 6f bd 1c cb ff 3d
       0.079160765 -0.15401939 -0.058441184 0.12489912
000350 5e e5 5d be 5a 05 7b be 3f 80 dd 3e 6f 89 bd be
       -0.21669528 -0.2451376 0.43261907 -0.37018916
000360 a5 29 49 bd 4d d7 79 bc 8d cc cd 3d 74 e8 c7 3c
       -0.04911198 -0.015249086 0.100487806 0.024402834
000370 1b ea 9f 3d 57 a3 78 3d 2e cb 17 bd 39 1d c5 3d
       0.07808324 0.060702648 -0.037059 0.096247144
000380 6e 9b 10 be 52 b7 bc be 26 7b 92 3c 56 72 f9 3c
       -0.14121792 -0.36858612 0.017880987 0.030450027
000390 ee 03 d7 bd 7f 92 4d 3e 47 d7 12 3e 64 aa 56 3e
       -0.104987964 0.20075415 0.14339934 0.20963436
0003a0 91 5a 66 be 6c 9c 41 3c 59 0a 7b 3d 6d 01 67 3e
       -0.22495486 0.011817079 0.061289165 0.22559138
0003b0 73 b6 41 3e 77 29 da bd be cd 31 3e de 23 80 be
       0.18917255 -0.1065244 0.1736364 -0.25027364
0003c0 bd 88 42 3e 09 75 88 bd ed c4 6b be b4 e7 1a 3e
       0.18997474 -0.06662948 -0.2302434 0.1512745
0003d0 e4 97 39 39 58 1e 88 bd 44 7b 01 bf 62 22 27 3e
       0.00017699559 -0.066464126 -0.50578713 0.1632171
0003e0 78 02 cd 3d 89 06 c1 bd 69 4d 0c 3e 4d 31 6e 3d
       0.100102365 -0.094250746 0.13701405 0.058152486
0003f0 0a a5 64 be fa 41 2c be 7f 4a 2a bc e4 41 b1 3e
       -0.22328582 -0.16822043 -0.010393738 0.34620583

conv3.bias f4 [16]
000000 fd 23 1c be ae 99 2f 3d 72 af 2c be 85 3a 12 bd
       -0.15248103 0.04287117 -0.16863802 -0.03570034
000010 c9 13 e6 bd 32 5a aa 3e 7b ee 28 3e 75 42 00 bd
       -0.112342425 0.3327194 0.16497223 -0.03131338
000020 31 aa 1d be 6c ae e4 be 33 cb 3b 3e 69 d9 bd 3e
       -0.15396954 -0.44664323 0.18339233 0.37079933
000030 af eb c6 bd 8b b9 76 bd 2c 5e 84 3e c1 5a 05 be
       -0.09712922 -0.06023554 0.25853097 -0.13022901

tcn.tcn.0.conv1.weight f4 [16, 16, 5]
000000 e1 b2 8c 3e 50 75 8c 3e 96 21 86 3e b9 dc 25 3e
       0.27480224 0.27433252 0.261975 0.1619748
000010 96 24 45 3d e7 72 cc 3e 6b 4d 50 3e ab a4 b2 3d
       0.048130594 0.39931414 0.20342033 0.08722814
000020 22 ad 22 bd 77 fe 96 be 44 57 98 3e f5 0e 53 3e
       -0.039715894 -0.29491016 0.29754078 0.20611174
000030 df 63 ae 3e e3 6f 78 bd d1 28 97 3c 09 a5 c0 3e
       0.3406057 -0.06065358 0.01845208 0.37625912
000040 53 6c af 3e fb 1a b0 3e 57 30 a1 3e a4 b0 ea 3e
       0.34262332 0.34395584 0.31482193 0.4583789
000050 07 25 60 3e 2c 3a 24 3e ec 46 dc 3e ce 63 94 3e
       0.21889125 0.16037816 0.4302286 0.28982395
000060 a9 bb 26 3d ae 2c b1 bc 96 55 81 3e 43 36 70 3e
       0.04070631 -0.02162775 0.2526061 0.23458199
000070 73 f5 a5 3c 03 3d 53 3e f5 2a 9b bd 5f 04 82 bd
       0.02025864 0.20628743 -0.07576553 -0.0634849
000080 de 7a 2c be e8 49 84 be 11 7b 53 be 59 db a4 bc
       -0.16843745 -0.25837636 -0.20652415 -0.020124124
000090 67 85 6e be d0 4e 88 be dd 59 43 be a7 48 46 be
       -0.23293076 -0.2662263 -0.19077249 -0.19363652
0000a0 d2 45 fc bc 0d 7f fe 3d d7 53 7e bd b6 9b 18 be
       -0.030795012 0.12426577 -0.062091675 -0.14903149
0000b0 9a 40 96 bc 60 43 0d 3d a9 50 9e be ea 53 fe be
       -0.018341351 0.034488082 -0.30920914 -0.49673396
0000c0 b9 8e f0 be d5 48 8d bd 07 20 75 be ef 23 4f bd
       -0.4698389 -0.06898657 -0.23937999 -0.05057138
0000d0 b4 7a f1 bd f0 2a c1 be fc 06 a1 be de bf 91 be
       -0.11790982 -0.3772807 -0.3145064 -0.28466696
0000e0 c1 07 a7 be 8b ed 2a be 79 92 71 be a9 6c bd be
       -0.32623103 -0.16692178 -0.23591031 -0.36996964
0000f0 ce 3e 2a 3d 9b 5a 35 3d 0d 73 34 3e f0 57 50 be
       0.0415638 0.04427586 0.17622013 -0.20346045
000100 b8 cc 39 be 5f 25 63 3e 49 76 96 bc c4 51 d2 bd
       -0.181445 0.22182225 -0.01836695 -0.10269502
000110 e9 54 44 bd 00 86 cd 3d 5d d6 16 be 86 8b 6d bc
       -0.04793254 0.10035324 -0.1473021 -0.014498597
000120 7c 92 e9 bd 7c ff 4d be a0 b5 7f bd 6c 89 0e be
       -0.11404893 -0.20116991 -0.06242907 -0.1391961
000130 b6 d5 c1 bd 30 09 e9 3d bd 8d 30 bd a2 55 93 bd
       -0.0946459 0.113787055 -0.043103922 -0.071940675
000140 da e7 55 3e 59 0c c3 3e 4f a8 e5 3d db 29 7c 3e
       0.20889226 0.38095358 0.11213743 0.24625342
000150 86 ee 19 3e eb 4f b8 3d e2 f7 95 3e 9c 45 a4 bd
       0.15032396 0.08999618 0.29290682 -0.080210894
000160 75 c1 03 3e 7c e2 79 3e 9c 9a 5c 3d 6a 89 d0 3e
       0.12866767 0.24402803 0.053858384 0.4072984
000170 7c de 9c 3e 67 22 c1 3e b7 18 0c 3f 92 ab f2 bc
       0.30638492 0.3772156 0.5472521 -0.029622827
000180 3e 9d 40 bc af b9 89 be ae f1 34 3d 1e 42 4a bd
       -0.011756239 -0.26899478 0.044175796 -0.04937946
000190 5d de b0 be 91 04 5a be 56 99 0e 3d 25 07 2f 3d
       -0.3454465 -0.21290804 0.0348142 0.042731423
0001a0 30 b9 e8 3d 42 09 1f 3e 71 15 11 3e d6 23 21 3e
       0.11363447 0.15530875 0.14168335 0.15736327
0001b0 14 12 14 3e b2 93 f0 3d 42 61 9c be 0d ac 7b be
       0.14460021 0.11746921 -0.30542952 -0.24577351
0001c0 8d 28 f6 bd 72 82 1b bd 67 7e 96 bd a4 11 1f be
       -0.12019453 -0.0379662 -0.07348328 -0.15534073
0001d0 b6 4e 2b be 64 39 25 bc 67 68 44 3e af e2 23 3e
       -0.16729245 -0.010084484 0.19180451 0.16004442
0001e0 b8 97 73 3d 0d 53 32 3e d5 a2 99 bc 51 97 11 3e
       0.059470862 0.17414494 -0.018754402 0.14217879
0001f0 ef 4b d7 3d 43 f3 84 bd d0 fd 5a be ce f8 83 be
       0.1051253 -0.06491711 -0.21385884 -0.2577576
000200 7f 0b 21 be b5 06 f3 ba 0d 10 6f 3d 1e 4d 25 bb
       -0.15727042 -0.0018541428 0.058364917 -0.0025222967
000210 2f 09 94 3d 68 3b f2 3d e4 85 7d 3d 6e ee 2a bd
       0.07228314 0.11827737 0.061895266 -0.04173129
000220 77 8a 9e 3d 60 b2 5b 3d e2 3b 7d 3d 58 48 0e 3e
       0.07741254 0.05363691 0.061824687 0.13894784
000230 33 34 fb bd 2a 1a 90 bd f3 d7 4b 3d d1 73 92 bd
       -0.122658156 -0.070362404 0.049766492 -0.071509965
000240 42 b6 35 3d a9 bc bd bd 99 1f f5 3c 0c 0a 26 3d
       0.044363268 -0.092645 0.029922293 0.040536925
000250 6d 33 40 3e fb f6 62 3e 14 07 c7 3d 53 10 37 be
       0.18769617 0.22164528 0.09718147 -0.17877321
000260 3a d9 33 3d d2 12 90 bd 68 cc 3e be 34 0c 30 3e
       0.043908335 -0.0703484 -0.18632662 0.17192155
000270 a9 f6 5f 3e 4a 8a 98 bd 7f 26 fc bd 06 0b 31 3e
       0.21871437 -0.074482515 -0.1231203 0.17289361
000280 b2 dd cc bd 41 f2 f4 3d 50 fe a7 bd f8 18 e3 bb
       -0.100032225 0.11960269 -0.08202803 -0.0069304667
000290 2f 17 47 be a4 b8 c8 3e 52 07 6f 3e 36 3b 25 3e
       -0.19442438 0.3920337 0.23342636 0.16135868
0002a0 ff 19 7d 3e dc aa c3 3e 9b cd 07 3e 74 0d 12 bb
       0.24716948 0.38216293 0.13262026 -0.002228585
0002b0 c1 c7 13 3e fc d4 19 3e b5 1e 1b bd b2 43 ac bd
       0.14431669 0.15022653 -0.03787108 -0.08411349
0002c0 df d5 34 3d b0 b6 87 bd 2a ca 68 3e 7a 66 1f 3e
       0.044149276 -0.06626642 0.2273337 0.15566435
0002d0 3b e5 0f 3e 3e fd 03 3e 53 15 2d 3b aa be 5f 3b
       0.14052288 0.12889573 0.0026410415 0.0034140744
0002e0 41 15 35 bd 13 2d 6d 3d 5e e3 43 3e fb 87 b6 3c
       -0.044209722 0.057904314 0.19129702 0.022281637
0002f0 68 9d cd bd 86 87 a0 bd 46 66 75 bd a3 99 47 bd
       -0.100397885 -0.07838349 -0.05991199 -0.048730504
000300 25 de 22 be 11 70 d8 3b d1 9d 0c 3e 79 20 44 3e
       -0.15905054 0.006605156 0.13732077 0.19153012
000310 92 93 91 3c d4 e7 47 3e 81 6a fc 3e e6 5c 17 3e
       0.017770562 0.19522029 0.49300006 0.14781532
000320 7a 3a b4 bc 14 ad 47 be be 2e 5d be 46 03 e2 be
       -0.02200054 -0.19499618 -0.21599862 -0.44143122
000330 f5 bc ef be c0 d8 94 bc 01 89 b5 bd cb 0c e9 3d
       -0.4682385 -0.01816976 -0.08864022 0.11379393
000340 4c 7f a9 3e bf 26 0c 3d 50 b5 5a 3e ba ca a7 3d
       0.33104932 0.03421664 0.21358228 0.08192964
000350 82 37 a0 bd ac 13 9a ba 54 8d 55 be 85 20 9b be
       -0.07823087 -0.001175513 -0.20854694 -0.30298248
000360 ec e2 2a be 16 27 c4 bd 87 24 b5 bb da 94 27 be
       -0.16688126 -0.095777676 -0.005528036 -0.16365376
000370 3e 64 a2 be 9d 25 90 be 30 22 57 bc 87 c0 be 3d
       -0.31717104 -0.28153697 -0.0131307095 0.093140654
000380 d0 6d 29 be 36 8f 95 bd a2 28 79 bd 04 4d 9a bc
       -0.16545796 -0.07302706 -0.060829766 -0.018835552
000390 02 6d 29 3d 17 24 5c be 9f 9c 9e be fb 29 8b bd
       0.041363724 -0.21498142 -0.30978867 -0.067951165
0003a0 80 43 4d 3b b3 26 07 bc 13 20 3c bd 6c e5 f6 bd
       0.003132075 -0.008248973 -0.045929026 -0.120554775
0003b0 68 6c 7b be f0 7c 1c 3d 19 c1 62 be 6b e6 ed be
       -0.24553072 0.038205087 -0.22143973 -0.46464857
0003c0 a3 93 3b be 20 51 4d be 98 8f 5f bd 99 15 0c 3e
       -0.18318038 -0.20050478 -0.0545803 0.13680114
0003d0 ac 99 64 3d c6 52 2c be 9f a4 3b 3c 0f 7f 9b 3d
       0.055810615 -0.1682845 0.011452823 0.07592594
0003e0 8a 79 ee 3c d8 2e 1c 3d 29 a8 ae bd 9f 98 2e 3e
       0.029110689 0.03813061 -0.08528168 0.17050408
0003f0 88 f9 71 3e 04 be 51 3d bb 59 8a 3e 19 0a 05 bd
       0.23630345 0.051206604 0.27021584 -0.032480333

tcn.tcn.0.conv1.bias f4 [16]
000000 e1 0c 28 be 85 ea 50 bd 32 fd ad 3d 61 88 ba 3d
       -0.16411163 -0.051004905 0.08495559 0.091080435
000010 c5 78 0f be c6 53 92 bd 00 e9 db bc 08 fc 68 be
       -0.14010914 -0.07144885 -0.026844501 -0.22752392
000020 3e 7e f9 bd cf 19 d7 3d b9 ea 67 bd 55 30 29 be
       -0.12182282 0.105029695 -0.056620333 -0.16522343
000030 3a ca 6d 3e 42 fb a9 3c 0c bc 2c be 1b 65 25 be
       0.23221675 0.020749692 -0.16868609 -0.1615185

tcn.tcn.0.conv2.weight f4 [16, 16, 1]
000000 a9 82 ba 3d 65 73 f3 bc d1 e0 5b 3e ec 49 26 3d
       0.09106953 -0.02971811 0.2147248 0.04059784
000010 ff 96 25 3e 4a 73 28 be 85 07 a7 bc d9 d0 9c 3e
       0.16170882 -0.1645023 -0.020389328 0.30628088
000020 70 ac 82 3e ec 7d 2c be 9b f2 80 bd 6c b9 1c be
       0.25522184 -0.1684491 -0.06296273 -0.15305108
000030 1e 5f c3 3e 89 6f 62 bd 77 45 a2 bd 06 df d2 3e
       0.38158506 -0.05528215 -0.079234056 0.41185778
000040 b7 da f0 3d 71 bc f8 3c 21 c1 7f bd 7c e6 f5 3d
       0.117604665 0.030363293 -0.06244004 0.12006852
000050 24 91 bd 3d a4 ef dc 3d af 12 62 3e da 64 0d be
       0.09256199 0.10787895 0.2207744 -0.13808003
000060 18 09 0d be 1f 2e 07 bd 08 5b 18 be ba e5 62 bd
       -0.13773 -0.03300297 -0.14878476 -0.055394866
000070 75 ab 5b 3d 10 59 82 bd ad e2 4e be 98 b6 b7 3e
       0.05363031 -0.063646436 -0.20203657 0.35881495
000080 05 18 7d 3d e5 44 0e 3e a7 94 15 be 84 72 65 3e
       0.061790485 0.13893469 -0.14607488 0.22406965
000090 ce d9 2a 3d 19 e2 b4 bd cc 60 f6 3d ce ab ed bc
       0.04171162 -0.08832187 0.12030181 -0.029012587
0000a0 07 e3 65 3e c9 99 cd 3e 46 6c 58 3e 4e 9f 2e 3e
       0.22449885 0.4015639 0.21135053 0.17052957
0000b0 d2 55 4c be dc 63 60 3e 4a a7 82 bd e7 09 92 bd
       -0.19954613 0.21913093 -0.06379564 -0.07130795
0000c0 f4 ab 93 3d a3 15 82 3e 92 c8 25 3d ae 2c d4 bc
       0.07210532 0.25407133 0.040474482 -0.025900211
0000d0 31 45 ba bd 67 46 55 3e 4c 3b 61 3e 50 45 29 3d
       -0.090952285 0.20827638 0.21995276 0.041325867
0000e0 e0 cf f1 bd 9e 30 85 be a3 71 28 be 06 17 76 be
       -0.11807227 -0.26013654 -0.16449599 -0.2403222
0000f0 e2 9b a1 3e 91 ec d1 3d 1a 4b cb 3d 6c e0 27 3e
       0.31564242 0.102501996 0.09926434 0.16394204
000100 a2 fc 34 3e 8f 9d 9e 3e 27 73 23 be 34 01 1e bc
       0.17674497 0.30979583 -0.15961896 -0.009643842
000110 b0 7c 60 3d dd 3b c7 3c 8a 78 9d bd b3 7e c5 be
       0.05480641 0.024320537 -0.076890066 -0.38573226
000120 18 19 92 3c ab e2 cf be 5a 90 2a bd 14 19 16 be
       0.017834231 -0.4060262 -0.04164157 -0.14658004
000130 a4 07 0e be 9b 98 36 3e e0 67 64 3b 99 e1 a8 3d
       -0.13870102 0.17831652 0.0034851953 0.08246154
000140 89 98 dd 3c 72 75 27 3e 12 6d 13 be 59 34 92 bd
       0.027050273 0.16353396 -0.14397076 -0.07138891
000150 52 1c 8f be 27 42 ed 3c ca 77 d5 bd 74 0f a1 be
       -0.27951294 0.028962208 -0.104232386 -0.31457102
000160 27 f9 be 3e a7 1c c3 be e0 51 06 be 42 33 e3 be
       0.37299463 -0.38107798 -0.1311717 -0.44375044
000170 b8 98 96 3c 19 d7 c5 3c 0c 07 64 3e 3f ed 04 bc
       0.018383369 0.024150418 0.22268313 -0.0081132045
000180 68 c7 30 be 20 54 3a bd 45 ae e8 bd b5 8b d8 bd
       -0.17263567 -0.045490384 -0.11361364 -0.10573522
000190 75 e3 68 3b df fd 5a 3e 81 40 b7 bd ff 9b d6 3d
       0.0035535966 0.21385907 -0.0894785 0.10478973
0001a0 80 e5 0c be d6 47 57 3e 30 1d 88 be f5 43 64 be
       -0.13759422 0.21023497 -0.26584768 -0.22291549
0001b0 b0 43 34 3e 96 12 88 be ce b4 06 be dc 20 2f bd
       0.17603946 -0.2657668 -0.13154909 -0.042755947
0001c0 56 80 44 be 43 da d2 bc 50 d9 ab bb 4a c2 11 3d
       -0.19189581 -0.02573884 -0.0052444115 0.03558568
0001d0 79 c6 a8 bd 8d a9 46 3e 01 47 99 3d 97 80 8d 3d
       -0.08240981 0.19400616 0.07484246 0.06909292
0001e0 aa ee 06 3e fe 60 d7 3d 27 60 62 3d b2 2d a8 bc
       0.1317698 0.10516547 0.05526748 -0.020529602
0001f0 fc de aa 3e ae f6 97 3e 0a 64 a3 be ac d5 3e be
       0.3337325 0.2968039 -0.3191226 -0.18636197
000200 ac 70 19 be 58 45 1a 3d 26 53 95 3e 76 7e f5 3b
       -0.14984387 0.037663788 0.29165 0.007491882
000210 1c d4 89 bc e6 f3 9c 3d bc 2f 8d 3d 73 70 99 bc
       -0.016824774 0.076637074 0.0689387 -0.018730378
000220 88 14 f9 bd 9e 3c ad 3d b7 d0 c5 3d 04 82 07 be
       -0.12162119 0.084588274 0.0965895 -0.13233191
000230 b6 96 5c bc 58 27 2d 3e 55 61 a5 be 7b a1 9e 3e
       -0.013463667 0.1690954 -0.3230082 0.30982575
000240 27 c2 4e be 2e 6e 48 3e 13 6a eb bc e2 a5 91 3c
       -0.2019125 0.1957328 -0.028737104 0.017779294
000250 b2 32 17 3e 43 9a 73 3e 6f 31 5c 3e b9 28 e3 bd
       0.14765432 0.23789315 0.21503232 -0.110917516
000260 de 6c a1 bd 75 bf 17 be 96 63 3d be 64 56 55 bb
       -0.07882093 -0.14819129 -0.1849502 -0.0032552714
000270 78 3c ac be 32 0a 67 3d be 41 8a be 7c 0a fb bd
       -0.33639884 0.056406207 -0.27003282 -0.12257859
000280 bb 00 93 be b3 f0 3d bd 1c 62 38 3d 86 1a 57 bd
       -0.28711495 -0.046372127 0.04501544 -0.05251553
000290 89 bc 10 be 8c ca 04 be e0 b6 1d 3e 70 44 49 3e
       -0.1413442 -0.1296789 0.15401793 0.19655013
0002a0 23 52 99 ba a3 77 10 3f 8a d4 f2 bd fe 1c ff 3e
       -0.0011697452 0.5643255 -0.11856945 0.49826807
0002b0 7e 7e 00 3e 3f 9d ac bd f0 d3 ed 3d 17 a9 55 be
       0.12548253 -0.0842843 0.116126895 -0.20865284
0002c0 e7 32 1f 3e 01 14 f4 bd bf f1 49 be 68 d1 94 3e
       0.15546761 -0.11917878 -0.19721125 0.29066014
0002d0 22 ee 12 be 9c 7c cd bd a4 5d d8 bd 39 ab 96 3e
       -0.14348653 -0.10033533 -0.105647355 0.29427508
0002e0 16 06 af 3d 1a b5 16 3f 7e 44 b6 3c 22 6f 3f 3e
       0.08546083 0.5887009 0.022249456 0.18694738
0002f0 47 f3 15 3e ab 98 d4 3c 7a aa 43 3e 7a 44 9a 3e
       0.14643584 0.025951704 0.19108 0.30130368
000300 d2 1a 87 be f1 3a 2c be bf 32 65 3d 42 c4 bd 3b
       -0.2638765 -0.1681936 0.0559566 0.005791218
000310 3a 7c 0d be db 5b d0 3c db b3 2e be 3a f9 94 3e
       -0.1381692 0.025434425 -0.17060797 0.29096395
000320 a9 ee e1 bd b0 94 89 3e 0e 68 db bd c9 c0 93 3e
       -0.11031849 0.26871252 -0.10713206 0.2885802
000330 ae 6d 51 3e d8 79 24 be 90 f8 35 3d a9 7a 48 be
       0.20451996 -0.16062105 0.0444265 -0.19578041
000340 c5 0f b0 3d cd 4a 15 3e 68 46 97 3e 6a 1d 74 bd
       0.08596758 0.14579315 0.29545903 -0.059598364
000350 e8 b7 4b bd 93 56 6d be db 0f d8 bd 03 51 c8 3e
       -0.049735934 -0.23177557 -0.10549899 0.39124307
000360 48 c9 23 be 23 cb 93 3e be e0 52 be 82 d9 1a bd
       -0.15994751 0.2886592 -0.20593545 -0.037805088
000370 24 b2 6b 3d cf 8a 09 3e f1 8f 33 be 3f 21 8e 3e
       0.057542935 0.13431858 -0.17535378 0.2775974
000380 01 23 a9 bd 5c 01 31 bd 76 6c 1c 3d ea f8 4e be
       -0.082586296 -0.043214187 0.038189374 -0.2021214
000390 80 a5 0a be e6 de 95 3c 58 31 4a be 22 73 c5 3e
       -0.13539696 0.018294763 -0.19745386 0.38564402
0003a0 a8 32 0c bd 40 57 03 3f 95 02 86 be ae 18 22 3e
       -0.034227997 0.5130501 -0.26173845 0.15829727
0003b0 72 7a 6c be c5 f0 98 bd 9d 4d 33 be 4d 9b 04 be
       -0.23093584 -0.07467798 -0.17510076 -0.12949868
0003c0 b4 bd 86 bd c0 96 2b be 60 53 02 bd fb 2e d7 bd
       -0.06579152 -0.16756725 -0.031817794 -0.10507008
0003d0 b3 c0 0f 3e ef 84 48 bc 46 62 d5 bd 79 c1 8b bd
       0.14038353 -0.012238725 -0.10419135 -0.06824011
0003e0 f1 7a 13 3d 44 61 2a 3f 16 a3 91 be 7e c0 8b bd
       0.036005918 0.66554666 -0.28444737 -0.06823824
0003f0 6a 1d d8 3d 92 77 4e 3e 99 8d 95 bd 64 f1 43 3e
       0.10552485 0.201628 -0.07302398 0.19135052

tcn.tcn.0.conv2.bias f4 [16]
000000 14 6d c3 3d a7 18 a4 3d d7 11 f1 3d 36 e9 08 bd
       0.095422894 0.080125146 0.11770981 -0.033425532
000010 f4 f3 0a 3e 64 d6 05 bd 8d 84 24 be 51 7e 43 bd
       0.13569623 -0.032675162 -0.16066189 -0.047727887
000020 c3 55 a1 be 72 74 bd bd e7 cc 15 3e 15 19 95 3d
       -0.31510743 -0.09250726 0.14628945 0.07280175
000030 72 27 00 3e da 8a 8a 3c a6 cb 5b 3e 80 e5 0b bd
       0.12515047 0.016911913 0.21464404 -0.034154415

tcn.tcn.0.res_conv.weight f4 [16, 16, 1]
000000 cb e4 bd bd a4 da 4a 3d d8 f6 00 3d 17 92 0e 3c
       -0.092721544 0.04952492 0.03148541 0.008701823
000010 54 5f 90 3e ea c9 52 3e b9 c3 3b be ab eb bf 3d
       0.2819773 0.20584837 -0.18336381 0.09371122
000020 75 09 41 be 60 25 ae 3e 93 1d 1c be e6 31 b5 3e
       -0.18851264 0.3401289 -0.15245657 0.35389632
000030 f8 7b 39 bd b3 c2 10 3e 5f 54 83 3e be 01 bb 3d
       -0.04528424 0.14136772 0.25650308 0.09131192
000040 58 f5 15 3e 29 a9 5f 3e 67 fd 70 be a9 c6 20 3e
       0.14644372 0.21841873 -0.23534165 0.15700783
000050 c3 3b 90 3c b6 1e 16 be 80 d5 57 3e cd 4b e5 be
       0.017606622 -0.14660153 0.21077538 -0.44784394
000060 c3 e8 57 bd d6 f8 d2 3c 9a c6 50 bd 75 41 ff bd
       -0.052712213 0.02575342 -0.05097065 -0.12463657
000070 71 90 95 3e 73 d7 40 be aa a1 33 be f9 28 14 be
       0.29211763 -0.18832187 -0.17542139 -0.14468755
000080 e7 66 7c 3e 54 d9 87 be fd c3 f2 bd 50 68 66 3e
       0.24648629 -0.26532996 -0.11853788 0.2250073
000090 d5 29 10 bd 75 58 c8 be 29 43 ce 3e 72 ca c0 3d
       -0.035196144 -0.39129987 0.40285614 0.094136134
0000a0 50 c4 f9 3d df f3 b6 3e db 46 23 3d 48 fb 8f be
       0.12195647 0.35732934 0.039862495 -0.281214
0000b0 4b d7 9e be d5 5b 59 3e 22 a8 2c 3e 72 e5 a7 bd
       -0.3102363 0.21226437 0.16861013 -0.0819806
0000c0 df 4f 40 3e ac e9 a2 be 24 9a d1 3d 4c 81 80 bc
       0.18780468 -0.31818902 0.10234478 -0.015686654
0000d0 56 0f 2f bc 93 fb 26 be 8c 68 5c be 4e 7b 7c 3e
       -0.010684809 -0.16306905 -0.21524256 0.24656412
0000e0 d9 0c c6 bd 24 03 78 3e 63 e9 35 3e d9 0c 65 be
       -0.09670419 0.24219948 0.17764811 -0.22368182
0000f0 bd 6f 75 3d 85 11 7b 3e e3 7f 46 3e 95 12 b3 bd
       0.059921015 0.24518402 0.19384722 -0.087437786
000100 53 00 6c be 7e dc a8 3e 78 38 9c bd 2f 5c 47 be
       -0.23046999 0.32980722 -0.07627958 -0.19468759
000110 b0 f4 dc 3d 63 b2 b4 3d 4f 83 81 be f3 d6 af be
       0.10788858 0.08823087 -0.25295493 -0.3434368
000120 45 fc 70 bd f1 2f d7 bc cd 9d 91 3e 7a 03 6f bd
       -0.058834333 -0.026267977 0.28440705 -0.058352925
000130 cf 67 0e 3e 17 87 cf bc fc 70 cb 3c 56 98 95 3d
       0.13906787 -0.02533297 0.024834149 0.073044464
000140 29 55 ec 3d d3 35 47 3e 92 13 d8 bd 8d 9b 24 bd
       0.115396805 0.19454126 -0.10550608 -0.040187407
000150 6b 7a 04 bd d8 5f 81 3e c1 dc a6 be 15 ae 39 3d
       -0.03234331 0.25268435 -0.32590297 0.045332033
000160 6d f2 9f bb f5 b3 3d bc 94 63 ad 3d fc 34 02 3e
       -0.0048811943 -0.01157855 0.08466259 0.12715524
000170 67 03 d8 3d 50 4d 3e bc 6c 43 47 3d ac ad 17 3e
       0.10547524 -0.011615112 0.048648283 0.14812344
000180 a9 20 cc be 46 38 91 3e a2 fc 41 3e eb a9 22 be
       -0.39868668 0.28363246 0.18944028 -0.15885131
000190 74 e8 a0 3e 5d 06 6b 3e b4 8e 60 be e1 ab 60 bd
       0.31427348 0.22951646 -0.21929437 -0.054851416
0001a0 14 22 04 be 63 97 49 3e 3e cb 62 be 4d 86 b4 3d
       -0.12903625 0.19686656 -0.22147843 0.08814678
0001b0 6e bc af 3d f3 56 9a be 7e 58 93 bd 65 8c 36 3e
       0.08580862 -0.30144462 -0.07194613 0.17826994
0001c0 b3 67 40 be dc 12 56 3d 2f 61 83 3e de 2f 9a bd
       -0.18789558 0.05226408 0.25660083 -0.07528661
0001d0 a3 70 a5 bb 3a 03 aa 3e 1a bd d5 3e 43 ae 6d be
       -0.0050488277 0.33205587 0.41745836 -0.23211007
0001e0 d2 66 84 be fb 6d 9a bd cc a4 06 be dd b9 d8 3a
       -0.25859696 -0.07540508 -0.13148803 0.0016534884
0001f0 d3 67 ec 3c 13 12 5f be 61 5c 7f bd 3d 1a 3a be
       0.028858101 -0.21784239 -0.06234396 -0.18174072
000200 50 80 d7 be 99 73 cd 3c 67 02 cd 3e e6 d8 ad be
       -0.42090082 0.025079535 0.40040895 -0.33954543
000210 fb bd 5f be c9 d8 43 bd f6 f0 0f bc f1 c0 f9 bc
       -0.21849816 -0.047814164 -0.008785477 -0.03048751
000220 d1 10 e5 be 7f 09 3f 3f 8a 41 94 3e 51 b6 1a 3e
       -0.44739392 0.74623865 0.28956252 0.1510861
000230 68 32 98 be c8 15 10 be b8 cc 45 be 85 db 78 3e
       -0.29725957 -0.14070809 -0.19316375 0.2430249
000240 0e 70 b8 3e c1 c0 64 3b 72 2e 28 3e 6a c9 22 be
       0.3602299 0.003490493 0.16423967 -0.15897146
000250 76 83 37 be f1 8b 30 be ad 16 a0 3e c9 78 16 3d
       -0.17921242 -0.17240883 0.312673 0.036736283
000260 c1 c5 1e be 1e b6 64 3e dd 8c 80 3d a6 06 2c 3e
       -0.15505125 0.22335097 0.062768675 0.16799411
000270 2e 49 68 be b5 ac 9d 3e 49 94 37 3d 25 6d 92 be
       -0.22684166 0.30795828 0.04481915 -0.28598896
000280 36 7c c5 3c 2a 80 aa bd 46 af c8 be 93 7e 9f be
       0.02410708 -0.083252266 -0.39196223 -0.31151256
000290 ba 01 e0 bd bf 3f 97 be 13 dd de 3d da 16 19 3e
       -0.10937829 -0.29540822 0.1088201 0.14950123
0002a0 c4 c1 53 be 84 a1 ca 3e 90 09 47 be 00 74 da be
       -0.20679384 0.39576352 -0.19437242 -0.42666626
0002b0 44 c2 b0 ba 21 ad d6 bd c9 1c c9 3e d9 5f 74 be
       -0.001348563 -0.104822405 0.39279774 -0.23864688
0002c0 e9 7e dd be 96 51 b4 be b3 05 96 be 91 c1 0e be
       -0.43260887 -0.35218495 -0.29301223 -0.13941027
0002d0 fa 62 8f 3d c8 cc 9d be 3c 4d 67 be fd 0e 83 be
       0.070013 -0.30820298 -0.22588056 -0.25597373
0002e0 15 13 af 3e 82 9b 36 be dd 63 6a be 9e d1 32 bc
       0.34194246 -0.17832759 -0.22889657 -0.010914234
0002f0 cc a4 12 3e 23 89 8d bd fb c2 1d 3d 55 08 27 bd
       0.14320678 -0.069109224 0.038516026 -0.04077943
000300 4f 3b d8 3d b1 96 b4 3e f6 f7 a9 3d 27 ee 43 3d
       0.10558187 0.35271218 0.08299248 0.04783454
000310 13 b6 5e bd 51 fa ab bd ae bd a0 be 76 63 2a 3d
       -0.05437286 -0.083973534 -0.31394714 0.04159876
000320 18 f4 92 3e 44 dd e0 3d 26 28 fd 3d 8d 46 38 3e
       0.28701854 0.10979703 0.12361173 0.17995663
000330 e6 ec dd 3d b2 a9 41 bc e9 a2 05 bd d3 72 8c 3e
       0.108362004 -0.011820244 -0.032626066 0.27431354
000340 d4 8e cc 3e d1 01 eb 3e 24 56 0c 3e f8 1b 01 3e
       0.3995272 0.45899823 0.13704735 0.12608325
000350 76 ef 72 be e1 5b 86 3e 4b e3 62 3e 53 03 eb 3d
       -0.2372416 0.26241973 0.22157018 0.114752434
000360 df 0f 98 bd 7e 86 a6 38 67 35 e9 3c f4 93 95 be
       -0.07424902 7.940548e-05 0.028467847 -0.29214442
000370 93 13 b5 3c 9c 5f 25 be 3c c3 e7 3d a7 98 95 be
       0.02210406 -0.16149753 0.11316535 -0.29218027
000380 11 9e 53 bd 6a 14 30 bd a4 ff a4 3c 91 e8 88 3d
       -0.051664416 -0.04298822 0.02014143 0.066849835
000390 e3 a6 6a be a7 0f 80 be bc 42 92 3e 1f 05 8b 3d
       -0.22915225 -0.25011942 0.2856654 0.06788086
0003a0 43 89 44 be 85 7a a2 3d 02 ab 1d be 6c d4 b6 bd
       -0.19192986 0.07933525 -0.15397266 -0.08927235
0003b0 20 fe 3f 3d 1b a7 de 3d 8a fd 57 3d ad 18 e5 bb
       0.04687321 0.108717166 0.052732028 -0.006991467
0003c0 2d 2b aa be 71 43 97 bd cc ea 4d bd 28 01 1e be
       -0.33236066 -0.0738591 -0.050272748 -0.15430129
0003d0 57 ae 3a 3e 83 0b 4c 3e a1 52 21 be d1 d1 a6 3e
       0.18230568 0.19926266 -0.15754177 0.32581952
0003e0 9a 3c 65 bc 2f 11 db bc 09 70 9b be 86 fa 2d be
       -0.013991499 -0.026741592 -0.30358914 -0.16990098
0003f0 b6 7a 79 3d 56 76 db 3d 89 73 24 be ee 7f 04 3e
       0.060908042 0.1071593 -0.16059698 0.12939426

tcn.tcn.0.res_conv.bias f4 [16]
000000 3f 08 95 3e fc 96 6f bd f5 44 30 be 59 02 97 3d
       0.29107854 -0.0584936 -0.17213805 0.07373495
000010 a5 da ef bd ae f4 64 be 93 f1 88 be 1c 03 2a be
       -0.11711625 -0.22358963 -0.26746807 -0.16602749
000020 15 66 1d be b6 67 48 3e b1 ee f0 3c 1f 89 16 3e
       -0.15370972 0.19570813 0.029410692 0.14700745
000030 a8 46 b2 bd 3a 58 76 be 82 cb a1 3c 6c 3b 92 bc
       -0.08704883 -0.24057093 0.01975036 -0.0178506

tcn.tcn.1.conv1.weight f4 [16, 16, 5]
000000 61 4b a1 be 69 40 b4 be 4f 27 14 bf eb 2f 10 bf
       -0.31502822 -0.3520539 -0.5787248 -0.56323117
000010 50 c6 d2 be be c1 af 3e d5 02 a9 be d1 37 40 3d
       -0.41166925 0.343275 -0.33009973 0.04692823
000020 66 cc e7 3d 7c 28 2b 3e ca 5e 5e bd 05 5f 23 3e
       0.11318283 0.16714662 -0.054289617 0.15954216
000030 eb bf 32 be 90 ae 94 be 52 0c 60 be 7a 5c 3c ba
       -0.17456023 -0.2903943 -0.218797 -0.0007185411
000040 31 0c 5c be 27 70 13 be 1e bb 01 be f7 4c 8d be
       -0.21489026 -0.14398251 -0.12669036 -0.27597782
000050 2d 94 8a 3d dc 5b 4f 3c 4b 53 6f 3e ce ec ba 3e
       0.067665435 0.012656178 0.23371617 0.36508793
000060 7b c7 b6 3e 2c 27 0b 3e c9 8c 2b 3d 8c 4a 74 3e
       0.35699067 0.13589162 0.04188231 0.23856562
000070 41 6a 6d bc 7a 83 92 3e d1 55 a4 3e 62 f5 99 3d
       -0.014490665 0.28615934 0.32096723 0.07517506
000080 c8 54 6f 3e b5 59 c4 3e d0 30 1f 3f 94 01 1a bd
       0.23372185 0.3834969 0.62183857 -0.03759916
000090 cc fb e7 bd 28 fa c5 be 21 bb 0e 3d 95 eb 0e bd
       -0.11327323 -0.38667417 0.03484643 -0.034892637
0000a0 ac f7 96 be fc 0a 1f 3e 7c fc 69 3e 03 24 b6 3d
       -0.29485834 0.15531534 0.22850221 0.088935874
0000b0 e1 69 3f 3d a6 da b8 bd dc 94 4c 3c da 12 3e 3d
       0.046731833 -0.09026079 0.012486663 0.046404697
0000c0 c7 10 c8 3d f7 a9 5b 3d 12 7f 74 3d 7d 87 0f 3e
       0.09768825 0.053628888 0.059691496 0.14016528
0000d0 f4 c5 07 be f4 26 bf be 8d 55 8d be 1a 7d 22 3e
       -0.13259107 -0.37334406 -0.27604333 0.15868035
0000e0 38 f6 63 bd be 15 cd be e4 8a c8 3c d8 cf e3 bd
       -0.055654734 -0.4005565 0.02448029 -0.111236274
0000f0 41 b6 4e bc 8c e1 c9 3d f4 86 e4 3c 5a ce 5d 3c
       -0.012616695 0.09857473 0.027896382 0.013537968
000100 fc fa 22 3e 1d cb ae 3e 73 6f 6c bd 4b 69 47 be
       0.15916055 0.34139338 -0.057723474 -0.1947376
000110 57 f8 d1 bc 5a d8 a2 3c 8a 80 30 3e a3 fb b8 3c
       -0.025631113 0.019878555 0.17236534 0.022580927
000120 98 4f 01 3e 6c 06 18 3d ee 9d 24 bd 8c d4 f1 3e
       0.12628019 0.0371155 -0.040189676 0.47232473
000130 8d 08 20 3d 5f ba 61 3d cb e4 4b 3e 04 66 1a 3e
       0.039070655 0.055109378 0.19911496 0.15077978
000140 be df 5c be f5 de 40 be b2 16 9c bd 63 3e 5d be
       -0.21569726 -0.18835051 -0.07621516 -0.2160583
000150 78 c0 ae be de 96 c4 bc 63 7a 28 3e 48 df f2 bd
       -0.34131217 -0.02399772 0.16452937 -0.11858994
000160 1b 9c 3c bc e7 0f 87 be 78 e8 d3 be 35 c7 61 bd
       -0.011511828 -0.2637932 -0.41388297 -0.05512162
000170 b4 54 c7 be be 4e bd be f0 56 95 be b4 d7 4d 3d
       -0.3893181 -0.36974138 -0.2916789 0.05025454
000180 2b d6 2a be 78 87 a3 be c7 f7 d9 bd 45 5e 28 be
       -0.16683261 -0.31939292 -0.10642963 -0.16442211
000190 15 49 bf 3e fb 5c e8 bc 3a 27 10 bd e5 e9 bc 3d
       0.37360445 -0.028364649 -0.03519366 0.09224299
0001a0 97 24 2b 3e 20 e4 33 3e f2 ab 91 be 6f db ad be
       0.16713177 0.17567492 -0.28451496 -0.33956477
0001b0 93 bc 07 bd 9f f9 e4 3e 9e 48 01 3e 73 ad 71 3e
       -0.033138823 0.44721696 0.12625358 0.23601322
0001c0 30 6d b0 3e 5a f0 d3 3e e3 84 bf 3e ab d0 fb be
       0.34458303 0.4139431 0.37406072 -0.4918264
0001d0 ab 35 f3 bd 20 ee 77 be 8f 6d 95 bd 98 a2 44 3d
       -0.11875471 -0.24211931 -0.07296287 0.048006624
0001e0 7b be f0 bc d6 13 3c 3e 20 71 85 be 57 c7 ce bd
       -0.029387703 0.18366942 -0.2606287 -0.10096615
0001f0 95 cb c1 3e e3 81 ff bc 7a 8a 59 bd 2d 47 17 be
       0.37850633 -0.031189865 -0.053110577 -0.14773245
000200 43 24 98 3d f1 10 a3 3e f6 cf 83 be 10 75 7b be
       0.074287914 0.31848863 -0.257446 -0.24556375
000210 4c 06 15 3d 9b 20 0b be 68 75 1c be a3 a4 3d 3e
       0.03638296 -0.13586657 -0.15279162 0.18519835
000220 d0 2f 8b 3e 3c 74 b2 3e f5 48 6d 3d 41 39 fc be
       0.27184916 0.34854305 0.057930905 -0.4926243
000230 e1 59 9e bd 8e 61 0c 3e 8a d1 9e 3e 47 80 d7 bd
       -0.07731987 0.13709089 0.3101924 -0.10522514
000240 fb 8e 20 be 9a 45 2c be 82 a1 ee bc da 47 53 be
       -0.15679543 -0.16823426 -0.029129747 -0.20632878
000250 c5 11 49 3d ac e6 d8 3d 9c 19 bd 3c 94 3f 91 3e
       0.049089212 0.10590872 0.0230835 0.2836882
000260 e7 df 43 3e 0e e7 af bb 89 70 ca 3d 29 88 ca 3d
       0.1912838 -0.00536812 0.09884746 0.09889252
000270 9c fa 19 3e b7 c7 9b 3d fa 72 a6 3d e9 9c 43 3e
       0.15037006 0.07606452 0.08127399 0.19102825
000280 e9 64 ba 3d 38 eb 45 bd 93 e5 eb bc e6 4d dd 3d
       0.09101278 -0.048320025 -0.028795993 0.108058736
000290 b4 73 a3 3a dd a1 3b be ea d5 21 be 57 72 68 3e
       0.0012470395 -0.18323465 -0.15804258 0.22699867
0002a0 71 9a 1d be b5 68 d2 3d 61 e5 0d 3d 31 a0 f3 3d
       -0.15390946 0.102738775 0.03464258 0.118957885
0002b0 4e 9c 23 3e 60 83 5b 3d 5a a2 1a 3c 4d 4a 1e be
       0.15977594 0.053592086 0.009438122 -0.15458031
0002c0 15 ab 09 be e7 e4 6c be d6 55 53 3e 48 c5 9c 3d
       -0.13444169 -0.23134194 0.20638213 0.07654816
0002d0 58 ba 3c 3c f9 e6 ba 3d 08 91 4d be 97 e4 99 3d
       0.011519037 0.09126086 -0.20074856 0.07514303
0002e0 ad d9 25 3d bc 89 a4 bd 3e b8 e4 3c c6 6a 53 bd
       0.040490795 -0.08034083 0.027919885 -0.0516155
0002f0 cf 5e e8 3c 35 28 9e 3e 82 f3 9b 3e 5c e0 12 bd
       0.02836552 0.3089005 0.3045922 -0.035858497
000300 a1 a7 5b 3d 14 96 61 be 56 31 d1 bd 40 9b 9c be
       0.05362666 -0.22029907 -0.10214488 -0.30587196
000310 99 02 9a bc 7d e1 0b 3e 2d d2 07 be 27 cb ae bd
       -0.018800067 0.13660236 -0.1326377 -0.08534842
000320 55 2d 97 bd c8 c3 7f be 2f 04 20 be ce 58 0b be
       -0.07381693 -0.24977028 -0.15626596 -0.13608095
000330 35 5f 38 3d df fa 90 bd 70 49 f3 3c 8e 59 52 be
       0.04501267 -0.070791 0.029698104 -0.20541975
000340 3f 1c 74 be 3d ee 37 3e f6 67 a9 3e 66 92 de 3d
       -0.238389 0.17961974 0.33087128 0.10867767
000350 16 97 7e bc 8e 68 32 be 19 58 ad be cd 51 97 3e
       -0.015538951 -0.17422697 -0.33856276 0.29554597
000360 1c b6 3a 3e dc 55 b3 bc 51 21 62 3c c7 87 ab bd
       0.18233532 -0.021891527 0.013801889 -0.08375507
000370 f1 28 4b 3e e2 c6 e4 bd 9c 76 bc 3d e1 33 2b 3d
       0.19839837 -0.111707464 0.092023104 0.041797522
000380 9c 61 67 bd 05 ab 0b 3c 02 ba fc bd 4a 3d 47 3e
       -0.056489572 0.008524661 -0.12340166 0.19456974
000390 d1 49 83 3d d9 e6 65 3d 57 95 59 3e d2 a9 9c 3c
       0.06410564 0.056128357 0.21248375 0.019123945
0003a0 99 4a e9 3d 9c d3 ff bd a9 5e 40 be ed 7f a2 3e
       0.113911815 -0.12491533 -0.1878611 0.31738225
0003b0 94 0a db bd ca a7 02 3e e2 82 99 3d 32 22 64 be
       -0.10695377 0.12759319 0.07495667 -0.2227867
0003c0 20 83 67 bc 25 ef 61 be 9b ea 2c 3e 23 da bf 3e
       -0.014130384 -0.22063883 0.1688637 0.37471113
0003d0 5e 6f 9c be e9 e9 ee bd 61 ff 78 3d 75 3c 08 be
       -0.30553716 -0.116657086 0.060790423 -0.13304313
0003e0 bb b2 12 be ed 20 41 3d 17 de 19 be 2f 39 93 3d
       -0.14325993 0.04715054 -0.15026127 0.07188641
0003f0 35 ed a9 bb e0 c7 41 bc 61 af 77 3e a2 2b eb bc
       -0.005185748 -0.011827439 0.24187995 -0.02870733

tcn.tcn.1.conv1.bias f4 [16]
000000 17 75 ce be 65 bb d6 be 4b 5d 10 be b6 c8 2c bd
       -0.40323707 -0.41939846 -0.14098088 -0.0421836
000010 fc 01 a0 be 41 6b 3b be 28 fc 74 bb eb 4b ac 3c
       -0.31251514 -0.18302633 -0.0037381742 0.021032294
000020 f0 b9 b9 bd 7a c2 cc be a6 d2 ca be a5 27 24 3e
       -0.09068668 -0.39992124 -0.39613837 0.16030748
000030 1b 0c 90 be 70 4e be bc 78 53 8c be cd 47 0a 3d
       -0.28134236 -0.023230761 -0.27407432 0.03375988
