checkpoints/fine_tune/var_rf/giantsteps/0.4/model_rural-sponge-197_finetune_finetune_finetune_finetune_finetune_HAI_GTZ/it_847_loss_4.5289_acc10.0_acc20.0.pt (torch, 436116 bytes, 211 tensors)

conv1.weight f4 [16, 1, 3, 3]
0.2254402 -0.0931401 -0.30709517 0.3073632 -0.15796593 -0.3752153 0.18111978 0.16330102
-0.31148338 0.32109815 -0.4862119 -0.39866483 0.25854173 -0.28257602 0.11466222 0.11066423
0.17808042 0.0733028 -0.22244127 0.43600866 0.21676803 -0.18209414 0.37958688 0.07280907
-0.4663846 0.17798775 -0.19713369 -0.28503686 -0.1191118 0.33722362 -0.3569797 0.08642425
0.18620017 0.36518678 0.05644549 -0.49467587 -0.25773433 -0.24627912 -0.19247457 -0.2540934
0.14441301 0.25269875 -0.060230784 -0.06936736 -0.23890388 -0.08186542 0.07941913 -0.08941744
-0.8324305 0.29414082 0.45302558 -0.25669828 0.29229125 -0.056601036 0.27514622 -0.028804226
-0.13513541 -0.13333529 0.16868885 -0.40162796 -0.15327463 0.0998264 -0.2605909 0.010999723
0.020952165 0.25822443 -0.42373362 -0.14998354 -0.11023193 0.12762612 -0.051780555 0.55395174
-0.33907196 0.13648707 -0.29372904 -0.3612025 0.43105265 0.38850522 -0.138439 0.44712794
0.15334365 -0.64948684 0.08960883 0.5148423 0.014031415 -0.2288576 0.19289728 -0.3541806
-0.01635726 0.29735503 -0.5017934 0.03068721 0.30121 -0.23916687 -0.22548461 0.2969147
0.087811045 -0.13193731 -0.030310314 0.14920639 0.41506907 -0.13395754 0.23654065 0.38676605
-0.16675694 0.36031574 0.09639315 -0.07214783 0.11753355 0.12380322 0.01934805 -0.13587084
-0.19510114 -0.42318252 0.2513588 0.30294958 -0.20578259 0.21808703 -0.1140305 -0.2828434
0.31495598 0.2978893 0.12376582 -0.2152652 0.18686219 -0.48050022 0.317812 0.161542
-0.14962444 0.4021007 -0.29578534 -0.009455276 0.22618634 -0.29525316 -0.43256995 -0.109530844
-0.0022110555 0.3260297 -0.09290072 0.0836673 0.3890952 -0.48721027 -0.21788508 0.56606466
00000000: ccd9 663e 3dc0 bebd 943b 9dbe b65e 9d3e
00000010: d2c1 21be 381c c0be 7777 393e 6238 273e
00000020: c07a 9fbe fa66 a43e c4f0 f8be cc1d ccbe
00000030: 955f 843e cead 90be 07d4 ea3d eea3 e23d
00000040: b75a 363e c71f 963d a5c7 63be 873c df3e
00000050: 70f8 5d3e e376 3abe 3659 c23e ec1c 953d
00000060: f6c9 eebe 6c42 363e 6add 49be 5af0 91be
00000070: e3f0 f3bd 93a8 ac3e 0bc6 b6be 32ff b03d
00000080: 42ab 3e3e c3f9 ba3e 6333 673d 2846 fdbe
00000090: c1f5 83be 9830 7cbe 0e18 45be 8818 82be
000000a0: 01e1 133e bb61 813e 8eb4 76bd 7910 8ebd
000000b0: 38a3 74be 0fa9 a7bd 7fa6 a23d 7e20 b7bd
000000c0: 2a1a 55bf a099 963e f8f2 e73e f56d 83be
000000d0: 33a7 953e 7dd6 67bd f7df 8c3e d7f6 ebbc
000000e0: f060 0abe 0c89 08be c5bc 2c3e 2ea2 cdbe
000000f0: 06f4 1cbe c971 cc3d 2c6c 85be 2f38 343c
00000100: e0a3 ab3c fe35 843e 9df3 d8be 4995 19be
00000110: 47c1 e1bd 6cb0 023e d917 54bd c8cf 0d3f
00000120: d79a adbe 44c3 0b3e a763 96be 89ef b8be
00000130: efb2 dc3e 28ea c63e f4c2 0dbe f4ed e43e
00000140: 1e06 1d3e c544 26bf d684 b73d b4cc 033f
00000150: 05e4 653c a659 6abe dd86 453e 2957 b5be
00000160: a9ff 85bc eb3e 983e 8875 00bf be63 fb3c
00000170: 3238 9a3e 29e8 74be 70e5 66be 3405 983e
00000180: 47d6 b33d 931a 07be 564d f8bc 8fc9 183e
00000190: ef83 d43e 2a2c 09be b637 723e 3306 c63e
000001a0: 55c2 2abe 4e7b b83e c669 c53d 3ec2 93bd
000001b0: 6eb5 f03d 8b8c fd3d cd7f 9e3c ba21 0bbe
000001c0: 98c8 47be 61ab d8be 1ab2 803e 351c 9b3e
000001d0: acb8 52be 3552 5f3e d388 e9bd dad0 90be
000001e0: e941 a13e f284 983e ef78 fd3d 7b6e 5cbe
000001f0: cd58 3f3e 2004 f6be 41b8 a23e 446b 253e
00000200: 2637 19be 25e0 cd3e 2d71 97be 4dea 1abc
00000210: 649d 673e 6c2b 97be cf79 ddbe b551 e0bd
00000220: 5be7 10bb 5ded a63e bc42 bebd c359 ab3d
00000230: 7c37 c73e a073 f9be 441d 5fbe 9de9 103f

conv1.bias f4 [16]
0.016999025 0.102979444 -0.017196942 -0.022916337 -0.19906898 -0.115049385 0.15217353 0.0018062482
0.010893895 0.048937134 -0.035974275 -0.21448387 0.09724321 -0.034479316 -0.008688567 -0.14622736
00000000: 8a41 8b3c e3e6 d23d 9ae0 8cbc 0bbb bbbc
00000010: bdd8 4bbe 039f ebbd 61d3 1b3e a2bf ec3a
00000020: 4f7c 323c 4e72 483d c359 13bd a9a1 5bbe
00000030: 7327 c73d 2f3a 0dbd 7e5a 0ebc a0bc 15be

conv2.weight f4 [16, 16, 3, 3]
-0.1559977 -0.037481844 -0.012018936 -0.12168066 -0.2068818 -0.2390834 -0.057265464 0.03871133
-0.113171324 -0.014381773 -0.075706676 -0.015821248 -0.099713214 -0.003789356 -0.15124899 -0.12611029
-0.05909579 -0.33246103 0.023230512 -0.2745217 -0.06311536 0.24794494 -0.27891764 -0.049094614
0.3079607 -0.23761283 -0.13614266 -0.12846689 0.08155836 0.17664884 -0.033121735 0.15469371
0.3553358 0.4177318 0.49630922 0.5648086 -0.012330005 -0.008212352 -0.17550005 -0.06766299
-0.14859739 -0.25218967 -0.039958667 -0.17996877 -0.13512029 0.26797736 -0.06097615 0.4143737
0.28347346 -0.10994527 0.37148085 0.53292596 0.08464136 0.5150701 0.053216696 -0.16568683
-0.17514354 -0.017957872 -0.11932502 -0.22465195 -0.04219427 -0.10383766 -0.06812833 0.21885826
0.13130431 -0.09734545 0.20752116 -0.010499634 -0.26327533 -0.0434819 -0.03851572 -0.2699994
0.13047661 -0.1581485 -0.004308027 0.2244882 -0.19485262 -0.07289086 0.09458104 -0.16966696
-0.12972565 0.025335373 0.23025082 0.23913306 0.21811141 0.33597913 0.35184547 0.28999287
0.16367407 0.30746126 0.021049254 -0.023399984 -0.04944076 0.00040122677 -0.024248749 0.099157035
0.046895023 -0.018785696 0.08002319 -0.08783161 -0.17952983 -0.20110846 -0.12444928 -0.22764714
-0.29683208 -0.08490431 -0.06225708 -0.21841745 -0.088181265 -0.08481501 -0.17392492 -0.004328176
-0.097410254 -0.17093346 0.021973185 0.05117931 -0.06737902 0.09650443 -0.11217802 -0.03799754
0.034767814 -0.15096807 -0.11898147 0.08932618 -0.01757249 -0.2172706 -0.2160227 -0.22785583
-0.16633356 -0.17985903 -0.029493269 0.035791628 -0.016915526 0.12627499 -0.024750622 0.0010211024
-0.013538749 0.09050092 -0.06477435 0.026565198 0.15790944 0.09640383 -0.018956017 0.11875653
0.23888175 0.059778493 0.19801909 0.10449542 0.16273433 0.13817357 0.06397787 0.088366434
0.071346305 0.29387432 -0.13558549 0.2953111 0.07515172 -0.12538211 0.119258806 0.25923538
-0.14743446 0.0339663 -0.2874146 0.5817238 -0.042475145 -0.57857084 0.14652863 -0.085353516
-0.5613057 0.17631923 -0.20131156 -0.36147982 -0.21050793 -0.02429947 -0.020542355 0.10212449
0.25120133 -0.015024544 0.101624265 0.14396386 0.15710227 0.19651769 0.17929167 0.032690424
0.10075197 -0.019391583 0.04355317 0.10690023 0.018595204 -0.37505338 0.2962953 -0.026808256
-0.44356298 0.10444983 -0.07940288 -0.51879126 0.2831865 0.008316408 -0.048071735 0.12831156
-0.0842892 0.072928414 0.08867758 0.08496685 0.07209584 0.1515877 0.141468 0.24665593
0.06109374 -0.14997281 -0.02743285 -0.045291666 -0.07886466 0.021566976 0.009675652 -0.2711683
-0.53042763 0.10829623 -0.24679525 -0.42524073 0.1004227 -0.110167734 -0.5423094 0.31108907
0.129387 -0.03757171 -0.081807174 -0.095329516 -0.15759161 -0.090173274 0.08486441 -0.16104177
0.11491091 0.060830876 0.21122395 -0.123876974 0.031360827 -0.06042136 -0.0028625696 -0.048758928
-0.036616698 -0.12951139 0.04939709 -0.26222193 -0.05821203 0.21748836 -0.102044836 -0.071915194
0.13071607 -0.07287384 0.032918334 0.18365881 0.055196993 -0.078118615 -0.101124205 -0.055658646
00000000: dcbd 1fbe 9086 19bd 12eb 44bc b633 f9bd
00000010: d3d8 53be 47d2 74be 318f 6abd c68f 1e3d
00000020: 5ec6 e7bd 87a1 6bbc 1a0c 9bbd 909b 81bc
00000030: 7136 ccbd d856 78bb 04e1 1abe 0e23 01be
00000040: 6d0e 72bd 5538 aabe ea4d be3c 1c8e 8cbe
00000050: a042 81bd 47e5 7d3e 4bce 8ebe 6f17 49bd
00000060: 06ad 9d3e c750 73be fb68 0bbe d38c 03be
00000070: 1208 a73d 6fe3 343e a8aa 07bd 0768 1e3e
00000080: 93ee b53e f1e0 d53e 3e1c fe3e 4c97 103f
00000090: ca03 4abc 1a8d 06bc 49b6 33be e592 8abd
000000a0: ea29 18be 011f 81be b3ab 23bd bc49 38be
000000b0: f95c 0abe 5434 893e 21c2 79bd ca28 d43e
000000c0: 6f23 913e fc2a e1bd bd32 be3e d66d 083f
000000d0: 7358 ad3d a2db 033f c0f9 593d cfa9 29be
000000e0: d458 33be 631c 93bc ad60 f4bd 290b 66be
000000f0: e6d3 2cbd d7a8 d4bd de86 8bbd 611c 603e
00000100: a374 063e 0d5d c7bd 6d80 543e a806 2cbc
00000110: 06cc 86be 141a 32bd a9c2 1dbd 5d3d 8abe
00000120: a99b 053e aef1 21be 5a2a 8dbb 3ce0 653e
00000130: 7287 47be ce47 95bd b4b3 c13d 2dbd 2dbe
00000140: cdd6 04be 218c cf3c dfc6 6b3e 4cdf 743e
00000150: 9958 5f3e 7505 ac3e 1725 b43e f279 943e
00000160: 2d9a 273e 906b 9d3e 7c6f ac3c 53b1 bfbc
00000170: 6582 4abd bf5b d239 50a5 c6bc d812 cb3d
00000180: ff14 403d 76e4 99bc 33e3 a33d 0fe1 b3bd
00000190: abd6 37be 60ef 4dbe 44df febd 551c 69be
000001a0: 60fa 97be 50e2 adbd 4801 7fbd d3a8 5fbe
000001b0: 6198 b4bd 7eb3 adbd 6019 32be 5fd3 8dbb
000001c0: 077f c7bd 2e09 2fbe 1c01 b43c 65a1 513d
000001d0: 03fe 89bd 1da4 c53d 97bd e5bd 4fa3 1bbd
000001e0: b268 0e3d 6097 1abe 8fac f3bd a5f0 b63d
000001f0: 2ff4 8fbc 2f7c 5ebe 0e35 5dbe 0a53 69be
00000200: 5853 2abe f72c 38be de9b f1bc 3e9a 123d
00000210: 6e92 8abc 3b4e 013e d1c1 cabc 83d6 853a
00000220: a1d1 5dbc 8c58 b93d 6aa8 84bd 429f d93c
00000230: 03b3 213e 5f6f c53d a649 9bbc a036 f33d
00000240: 6b9d 743e 4bda 743d 84c5 4a3e b201 d63d
00000250: d4a3 263e 5f7d 0d3e d406 833d 76f9 b43d
00000260: 031e 923d b276 963e ecd6 0abe 0433 973e
00000270: 25e9 993d 2b64 00be f63d f43d 80ba 843e
00000280: 0ff9 16be 3f20 0b3d 0228 93be daeb 143f
00000290: 6bfa 2dbd 381d 14bf 9a0b 163e d3cd aebd
000002a0: bbb1 0fbf 078d 343e 9e24 4ebe e213 b9be
000002b0: 648f 57be af0f c7bc 7148 a8bc a526 d13d
000002c0: 769d 803e 8129 76bc 6220 d03d 436b 133e
000002d0: 6bdf 203e ef3b 493e 3c98 373e 65e6 053d
000002e0: 0d57 ce3d 19db 9ebc cf64 323d 82ee da3d
000002f0: f854 983c ff06 c0be 04b4 973e fd9c dbbc
00000300: b01a e3be cbe9 d53d fa9d a2bd 81cf 04bf
00000310: d2fd 903e 8b41 083c dee6 44bd 1b64 033e
00000320: d19f acbd 7e5b 953d 979c b53d 1a03 ae3d
00000330: fca6 933d ce39 1b3e fddc 103e 5f93 7c3e
00000340: 6e3d 7a3d 7992 19be dbba e0bc c183 39bd
00000350: cb83 a1bd 3aad b03c a086 1e3c 92d6 8abe
00000360: 1bca 07bf 6aca dd3d e5b7 7cbe 27b9 d9be
00000370: 6baa cd3d 9f9f e1bd cad4 0abf 1147 9f3e
00000380: 077e 043e cbe4 19bd 858a a7bd 1f3c c3bd
00000390: b25f 21be c4ac b8bd 64cd ad3d 22e8 24be
000003a0: 6956 eb3d cc29 793d 174b 583e 36b3 fdbd
000003b0: 3674 003d 637c 77bd f399 3bbb 71b7 47bd
000003c0: 64fb 15bd a29e 04be 9a54 4a3d f441 86be
000003d0: bd6f 6ebd 45b5 5e3e e2fc d0bd 4648 93bd
000003e0: 6fda 053e e13e 95bd 60d5 063d 0e11 3c3e
000003f0: 3e16 623d a7fc 9fbd 351a cfbd 52fa 63bd

conv2.bias f4 [16]
-0.051320408 -0.1756422 0.041874085 -0.0904135 -0.16361944 -0.28362983 -0.20760703 -0.041488953
-0.04355701 -0.09880847 -0.07046785 -0.02368578 -0.031373948 -0.1313847 0.050781373 -0.14315067
00000000: 5935 52bd 8ddb 33be 2984 2b3d b72a b9bd
00000010: db8b 27be ee37 91be f096 54be 52f0 29bd
00000020: d668 32bd 185c cabd 7351 90bd ae08 c2bc
00000030: f881 00bd b689 06be 2100 503d 1796 12be

conv3.weight f4 [16, 16, 8, 1]
-0.12612058 -0.06274219 -0.03348032 -0.013852762 -0.16066095 -0.3408205 -0.20012914 0.174697
0.18773799 0.13389745 0.21675286 0.08747782 0.2095881 0.32704073 -0.25632632 -0.32077485
0.11333872 0.22005129 0.2996761 0.24717996 0.09498802 0.074700154 -0.24357207 -0.15338665
-0.25138634 -0.06037688 -0.04072538 -0.058252566 -0.04622315 -0.209791 0.13108085 -0.04277285
0.070388906 0.074599214 0.0985465 0.1207789 0.14826787 0.23840371 0.10583168 0.102825284
-0.2828144 0.023319434 -0.036124464 0.02459301 -0.120241575 -0.12160946 -0.5594528 0.0071907993
0.099141195 0.110118434 -0.0002263594 -0.09775638 0.025001379 0.07990208 -0.10114587 -0.07882784
0.12256624 0.0050796443 0.086220264 -0.042424727 -0.056070287 -0.23984297 0.10090701 0.02170673
0.08311669 0.023694154 0.14271173 0.10929249 -0.0976638 -0.058967937 0.666796 -0.08459034
-0.114744544 -0.099478826 -0.0835498 -0.08453057 -0.08761348 -0.090757824 -0.33278263 0.3407989
0.22195405 0.10210289 0.07778206 -0.071660824 -0.032103255 -0.025772123 0.35663447 -0.09534268
-0.07176509 0.013625815 0.013585077 -0.002423786 0.15155801 -0.3218155 -0.6088634 0.22023489
-0.028447198 -0.15756677 -0.17751873 -0.06854273 -0.09524415 -0.29479623 -0.009734804 0.17381696
0.029591512 0.15497762 0.21389435 0.15178551 -0.012360909 0.21412489 0.34490734 -0.26987758
0.23155753 0.18166652 0.15558612 0.15115441 -0.01490668 0.049148463 -0.079348184 0.04904412
-0.09555186 -0.021768613 0.018149441 -0.11200913 -0.103934765 0.029985875 0.07149753 0.010671973
-0.07547538 -0.048623674 -0.046646938 0.0771798 0.02459557 -0.015615428 0.32054257 0.06521205
0.0035652048 0.07009101 0.07654982 0.04960231 0.11305575 0.28284222 -0.29888877 -0.15407555
-0.013393954 -0.03996197 0.071922496 0.07814126 -0.08466289 0.12408487 -0.18889484 -0.042835444
0.15542236 0.124677345 -0.014755976 -0.082960136 -0.17753842 -0.28433654 -0.1237002 -0.3981572
-0.06212407 0.018837243 -0.04300693 -0.0018461104 -0.10596325 0.116310224 -0.29464996 -0.05513077
0.1906733 0.0037971353 -0.07442953 -0.13524236 -0.051859286 -0.1291383 -0.5826959 -0.09814993
-0.07937279 0.00049427775 -0.0761094 -0.041854635 0.048067883 0.10714672 0.18546051 -0.016801475
0.0019146323 0.039014965 -0.039046243 0.07922412 0.039224852 0.199479 0.1946568 0.07096769
-0.053157896 0.0837384 0.1567082 0.106520586 0.1051032 0.11786664 0.62964165 -0.11639767
-0.013819977 0.003195724 0.010691942 -0.033048026 0.025123468 0.16270089 -0.2616474 0.44958517
0.035755455 -0.042592023 -0.070803 -0.06834962 -0.07346118 -0.22829117 0.47219485 -0.36989334
0.10744962 0.14242642 0.10576041 0.14115517 0.08195162 0.06915689 -0.118393704 0.10862979
-0.028257154 -0.022126906 -0.02538004 -0.058949243 -0.11486343 -0.028933581 -0.11493233 0.21245201
-0.00065092184 0.046986118 0.037634704 0.009548391 0.0913923 -0.11835521 0.101268776 -0.30305856
0.05920633 -0.031029083 -0.0070776534 0.069097556 -0.008591554 0.043517042 -0.23572464 0.17220098
-0.012272898 -0.0021295613 0.07659265 0.074562594 -0.040195204 0.20310985 0.17074127 0.37807003
00000000: c125 01be fa7e 80bd a922 09bd b2f6 62bc
00000010: 4e84 24be 0680 aebe a7ee 4cbe c5e3 323e
00000020: 633e 403e 6a1c 093e 76f4 5d3e 9227 b33d
00000030: 439e 563e e271 a73e 343d 83be 9a3c a4be
00000040: 211e e83d 2055 613e 256f 993e be1c 7d3e
00000050: 1489 c23d 65fc 983d f56a 79be 6411 1dbe
00000060: b6b5 80be bf4d 77bd a8cf 26bd 3e9a 6ebd
00000070: 7c54 3dbd 74d3 56be 0f3a 063e 9532 2fbd
00000080: 0f28 903d 79c7 983d bfd2 c93d ee5a f73d
00000090: 88d3 173e 1a20 743e 48be d83d 1096 d23d
000000a0: 0dcd 90be 6608 bf3c 3ff7 13bd 4877 c93c
000000b0: 3741 f6bd 610e f9bd 4c38 0fbf cca0 eb3b
000000c0: 8a0a cb3d c685 e13d e45a 6db9 7f34 c8bd
000000d0: b1cf cc3c b4a3 a33d 9125 cfbd 7e70 a1bd
000000e0: 0204 fb3d 2573 a63b 4094 b03d 8dc5 2dbd
000000f0: f5a9 65bd 6599 75be 56a8 ce3d 50d2 b13c
00000100: 1539 aa3d 3e1a c23c 0623 123e bed4 df3d
00000110: f503 c8bd 5d88 71bd 25b3 2a3f b33d adbd
00000120: 30ff eabd 8ebb cbbd 281c abbd 5d1e adbd
00000130: b26e b3bd 3ddf b9bd 7c62 aabe 327d ae3e
00000140: ec47 633e 521b d13d 334c 9f3d e9c2 92bd
00000150: b47e 03bd 0f20 d3bc cb98 b63e 0643 c3bd
00000160: 93f9 92bd cf3e 5f3c f193 5e3c 62d8 1ebb
00000170: 0632 1b3e 00c5 a4be 79de 1bbf 4185 613e
00000180: 190a e9bc 2f59 21be 78c7 35be 2160 8cbd
00000190: 5d0f c3bd 88ef 96be ba7e 1fbc 13fd 313e
000001a0: e669 f23c 74b2 1e3e 1f07 5b3e a96d 1b3e
000001b0: 6985 4abc 8e43 5b3e b297 b03e 652d 8abe
000001c0: 6b1d 6d3e ca06 3a3e f851 1f3e 39c8 1a3e
000001d0: 263b 74bc e64f 493d 4d81 a2bd 7de2 483d
000001e0: b2b0 c3bd 1754 b2bc 23ae 943c 0b65 e5bd
000001f0: c0db d4bd f0a4 f53c 4c6d 923d 80d9 2e3c
00000200: d692 9abd 9e29 47bd dc10 3fbd 7110 9e3d
00000210: a67c c93c dad7 7fbc 281e a43e e58d 853d
00000220: 36a6 693b e08b 8f3d 27c6 9c3d cb2b 4b3d
00000230: c689 e73d b2d0 903e f307 99be fbc5 1dbe
00000240: 5172 5bbc 2aaf 23bd 1a4c 933d 8608 a03d
00000250: bd63 adbd 3520 fe3d a66d 41be 3874 2fbd
00000260: 0a27 1f3e d656 ff3d 0dc3 71bc 01e7 a9bd
00000270: a2cc 35be 8f94 91be 8856 fdbd 43db cbbe
00000280: cf75 7ebd 9050 9a3c 0928 30bd 30f9 f1ba
00000290: 4303 d9bd 0e34 ee3d 5cdc 96be cdd0 61bd
000002a0: dd3f 433e 5cd9 783b 826e 98bd f97c 0abe
000002b0: 676a 54bd d53c 04be 8f2b 15bf d502 c9bd
000002c0: 348e a2bd 6b92 013a 3fdf 9bbd c46f 2bbd
000002d0: d4e2 443d bd6f db3d 5ce9 3d3e 3fa3 89bc
000002e0: 66f4 fa3a 28ce 1f3d f4ee 1fbd 4140 a23d
000002f0: 3daa 203d 3944 4c3e 1d54 473e 8257 913d
00000300: 18bc 59bd 0a7f ab3d 1d78 203e 7727 da3d
00000310: 5940 d73d 1164 f13d 3230 213f e761 eebd
00000320: 2f6d 62bc 5a6f 513b 412d 2f3c 5e5d 07bd
00000330: bbcf cd3c 109b 263e a6f6 85be 0730 e63e
00000340: 5074 123d f974 2ebd 2a01 91bd e3fa 8bbd
00000350: d172 96bd 29c5 69be 86c3 f13e a962 bdbe
00000360: 8c0e dc3d 3bd8 113e ea98 d83d fb8a 103e
00000370: 40d6 a73d 21a2 8d3d 6678 f2bd 4c79 de3d
00000380: 8c7b e7bc 7c43 b5bc cde9 cfbc c374 71bd
00000390: 853d ebbd 1e06 edbc a461 ebbd 058d 593e
000003a0: a0a2 2aba 8474 403d d926 1a3d db70 1c3c
000003b0: e32b bb3d 3764 f2bd 0166 cf3d 7e2a 9bbe
000003c0: 5682 723d b430 febc a9eb e7bb 0583 8d3d
000003d0: 97c3 0cbc ed3e 323d cd61 71be 7455 303e
000003e0: 4414 49bc 1c90 0bbb 9bdc 9c3d 46b4 983d
000003f0: baa3 24bd 07fc 4f3e cdd6 2e3e 6592 c13e

conv3.bias f4 [16]
-0.00084456214 0.12530811 0.110906176 0.01467605 0.004078274 0.2577551 0.15931435 0.12791362
-0.03483097 -0.3509735 0.27888298 0.3757958 -0.0113927135 0.041164104 0.22732718 -0.0030574207
00000000: 9b65 5dba c550 003e c722 e33d d173 703c
00000010: 0ba3 853b 7af8 833e 4d23 233e cafb 023e
00000020: ebaa 0ebd ccb2 b3be c0c9 8e3e 4f68 c03e
00000030: 81a8 3abc b19b 283d 75c8 683e 025f 48bb

tcn.tcn.0.conv1.weight f4 [16, 16, 5]
0.119713314 0.14503625 0.09294896 0.009229134 -0.13839383 0.11236983 0.06290242 0.06790243
-0.019678999 -0.34490752 0.11770767 0.061873034 0.18849544 -0.06814122 -0.05547013 0.21514001
0.15217942 0.11982618 0.08199202 0.25905454 0.11190728 -0.021872846 0.29430604 0.16783683
-0.12186212 -0.16096175 0.1534978 0.1827626 -0.016229369 0.18064414 -0.03825254 0.011915477
-0.1396204 -0.07401927 0.09593811 -0.114197314 -0.1074579 -0.04373485 -0.0010444279 -0.15060443
-0.09984715 0.025504444 -0.05574123 -0.16965131 -0.17685099 -0.18187542 -0.19669235 -0.23452318
-0.27011198 -0.06132792 -0.12315836 0.0022235594 -0.098908514 -0.2633377 -0.10802203 -0.06362764
-0.03342779 0.023835057 -0.07122784 -0.0030707847 0.10225767 0.059072036 0.29191858 -0.047661778
-0.17830291 -0.12766315 -0.097684674 -0.068699956 -0.06442587 -0.10005731 -0.08166374 0.06794967
0.041102394 0.09375942 0.11541718 0.0042274334 -0.12552911 0.09654417 -0.047529716 -0.12579176
0.22467512 0.34520096 0.12814586 0.20391846 0.15381475 0.17267172 0.35548225 0.017540634
0.19820677 0.31626844 0.028864168 0.32261327 0.25122964 0.26142335 0.4105698 -0.06444551
-0.042464763 -0.27690324 0.07838199 -0.006834143 -0.37781504 -0.3071298 -0.012712329 -0.0007949005
0.10420193 0.16642113 0.13979033 0.09387509 0.07345838 0.04411548 -0.27912557 -0.21864253
-0.010355418 0.029461665 0.025943741 0.020911444 -0.023974061 0.07171523 0.23797281 0.21803577
0.05066397 0.20636724 0.019595223 0.2000444 0.059205078 -0.0357465 -0.20189992 -0.26338518
-0.20688671 -0.041409504 0.068313286 0.033808533 0.15682414 0.19380672 0.13996373 0.09423543
0.27480048 0.15541689 0.10250817 0.16107236 -0.14571436 -0.09855634 0.011116014 -0.053352684
0.113321334 0.052381255 0.1002344 0.1418738 0.17064285 0.23760282 0.19491132 -0.0021713467
0.0640443 -0.038343217 -0.13833034 0.14003772 0.16603728 -0.10525511 -0.12422452 0.19661741
0.0022830002 0.13960321 -0.04555648 -0.061377287 -0.22031222 0.20752703 0.08743333 0.11886021
-0.081075884 -0.16049731 0.14736444 0.080064 0.1515034 0.024792962 -0.20588449 -0.103453875
0.019349884 -0.114132166 -0.089473754 -0.03656882 -0.03310047 -0.13570924 -0.14362523 -0.019504927
-0.058249217 0.12142882 0.23466429 0.08940081 -0.061310694 -0.031676505 0.0342514 0.020881986
0.03413182 0.02659812 0.28779218 0.029303025 -0.19571106 -0.041939802 -0.013706239 -0.03420348
0.04542289 -0.096078165 -0.09719668 -0.14149661 -0.038700882 -0.09852477 -0.100254044 0.09418627
0.20755321 -0.02562339 0.129083 0.00022570931 -0.17300387 -0.12258958 -0.15044768 -0.076658875
0.055568278 0.16997956 0.1628772 -0.07753963 -0.19061112 -0.25203082 -0.019077105 0.06723758
-0.1962167 -0.008695956 -0.12247461 -0.18379135 -0.21598248 -0.34653077 -0.32882673 -0.042024642
0.07302662 0.054070625 -0.026014939 -0.047586095 -0.11852107 0.14127971 -0.101212546 -0.371307
-0.48701972 -0.28514108 -0.15690292 0.1762544 0.19166069 -0.15549588 0.04851022 -0.049784835
-0.026028922 0.06759641 -0.22538307 -0.04854869 0.16693571 0.02376539 0.2608437 -0.011006317
00000000: 412c f53d 6284 143e 065c be3d cb35 173c
00000010: 1db7 0dbe 2722 e63d fcd2 803d 6e10 8b3d
00000020: da35 a1bc b897 b0be b810 f13d 946e 7d3d
00000030: f304 413e a08d 8bbd a634 63bd aa4d 5c3e
00000040: ecd4 1b3e 6e67 f53d 6feb a73d cca2 843e
00000050: a52f e53d af2e b3bc 48af 963e 6bdd 2b3e
00000060: d992 f9bd 28d3 24be 872e 1d3e 1e26 3b3e
00000070: 74f3 84bc c7fa 383e b2ae 1cbd 2239 433c
00000080: a6f8 0ebe 6a97 97bd 337b c43d 48e0 e9bd
00000090: e312 dcbd 5023 33bd 2fe5 88ba 0c38 1abe
000000a0: aa7c ccbd b2ee d03c ea50 64bd 13b9 2dbe
000000b0: 6d18 35be 8d3d 3abe b869 49be d826 70be
000000c0: 1e4c 8abe fc32 7bbd 733a fcbd 23b9 113b
000000d0: 8c90 cabd 33d4 86be a73a ddbd 354f 82bd
000000e0: 94eb 08bd bd41 c33c e7df 91bd 383f 49bb
000000f0: 786c d13d 85f5 713d 5a76 953e ff38 43bd
00000100: 0a95 36be 21ba 02be e70e c8bd 90b2 8cbd
00000110: b6f1 83bd d9ea ccbd 523f a7bd 3229 8b3d
00000120: fc5a 283d f004 c03d d85f ec3d 4886 8a3b
00000130: b48a 00be f3b8 c53d 85ae 42bd 8ecf 00be
00000140: 3c11 663e 2ebe b03e ab38 033e 00d0 503e
00000150: 9d81 1d3e dbd0 303e c501 b63e 60b1 8f3c
00000160: b7f6 4a3e f0ed a13e 8c74 ec3c 912d a53e
00000170: 2ca1 803e 48d9 853e 3436 d23e 02fc 83bd
00000180: 88ef 2dbd 43c6 8dbe bd86 a03d f2f0 dfbb
00000190: f970 c1be 1e40 9dbe 5f47 50bc df60 50ba
000001a0: d267 d53d 4d6a 2a3e 3225 0f3e 9541 c03d
000001b0: 5971 963d 6fb2 343d 8ce9 8ebe d4e3 5fbe
000001c0: c5a9 29bc 9759 f13c f887 d43c 7a4e ab3c
000001d0: 4065 c4bc 6fdf 923d 25af 733e c544 5f3e
000001e0: 0685 4f3d ef51 533e 2986 a03c 70d8 4c3e
000001f0: 0681 723d ec6a 12bd dabe 4ebe 6cda 86be
00000200: 1cda 53be 039d 29bd d6e7 8b3d d17a 0a3d
00000210: 8296 203e 4575 463e a752 0f3e 81fe c03d
00000220: a6b2 8c3e 9b25 1f3e ceef d13d 27f0 243e
00000230: 2536 15be e8d7 c9bd f11f 363c 5888 5abd
00000240: 0415 e83d ba8d 563d b147 cd3d 5e47 113e
00000250: 00bd 2e3e 274e 733e d596 473e 274d 0ebb
00000260: a829 833d c70d 1dbd 78a6 0dbe 0c66 0f3e
00000270: ad05 2a3e fe8f d7bd 6d69 febd 1356 493e
00000280: 639e 153b 25f4 0e3e 6e99 3abd c066 7bbd
00000290: 8799 61be f781 543e 3f10 b33d fb6c f33d
000002a0: 1d0b a6bd 6859 24be b4e6 163e 98f8 a33d
000002b0: b523 1b3e 9c1a cb3c 62d3 52be a0df d3bd
000002c0: a683 9e3c 20be e9bd 043e b7bd 30c9 15bd
000002d0: 5c94 07bd 5df7 0abe 7e12 13be ccc8 9fbc
000002e0: bb96 6ebd acaf f83d d64b 703e c617 b73d
000002f0: ec20 7bbd 39bf 01bd 324b 0c3d b310 ab3c
00000300: cfcd 0b3d 4de4 d93c 7f59 933e e60c f03c
00000310: 7b68 48be 12c9 2bbd 2290 60bc f318 0cbd
00000320: 5a0d 3a3d a1c4 c4bd 0e0f c7bd 7de4 10be
00000330: d184 1ebd 5bc7 c9bd fe51 cdbd bbe4 c03d
00000340: d488 543e 25e8 d1bc 552e 043e 62ac 6c39
00000350: ed27 31be 3f10 fbbd f50e 1abe 54ff 9cbd
00000360: 909b 633d 1f0f 2e3e 48c9 263e 19cd 9ebd
00000370: 902f 43be 2f0a 81be 9747 9cbc dbb3 893d
00000380: 08ed 48be 7c79 0ebc f8d3 fabd cd33 3cbe
00000390: 832a 5dbe 7b6c b1be fa5b a8be 0822 2cbd
000003a0: fb8e 953d 2979 5d3d 481d d5bc a3e9 42bd
000003b0: 2dbb f2bd a1ab 103e 8648 cfbd f31b bebe
000003c0: a65a f9be 03fe 91be 29ab 20be 097c 343e
000003d0: b342 443e 503a 1fbe a7b2 463d 2feb 4bbd
000003e0: 9b3a d5bc fd6f 8a3d d2ca 66be feda 46bd
000003f0: 32f1 2a3e a3af c23c 4e8d 853e d753 34bc

tcn.tcn.0.conv1.bias f4 [16]
0.01330577 -0.002412231 0.18966877 0.17684245 0.041288078 0.07214525 -0.015850155 -0.18317765
0.012668358 0.18296592 0.050804727 -0.04695117 0.21860237 0.060491584 -0.108535275 0.08745322
00000000: 7200 5a3c 8516 1ebb 8838 423e 3016 353e
00000010: b01d 293d e4c0 933d 2fd8 81bc ec92 3bbe
00000020: f28e 4f3c 6b5b 3b3e 9e18 503d df4f 40bd
00000030: 4dd9 5f3e 06c6 773d be47 debd ac1a b33d

tcn.tcn.0.conv2.weight f4 [16, 16, 1]
0.056257535 -0.12554768 0.26611438 0.06473573 0.1813968 -0.15639661 0.07536062 0.22288409
0.20107931 -0.07248216 -0.14164624 -0.20115833 0.20131624 -0.111275904 -0.111084096 0.40794435
0.07661358 0.20115994 -0.05651813 0.16655411 0.07607051 0.120254256 0.2052652 -0.085025005
-0.025366994 0.0011150051 -0.17675593 -0.09635225 0.0902054 -0.285943 -0.15598696 0.40411264
0.024001664 0.22242005 -0.1452899 0.2382354 -0.0012973582 -0.07104317 -0.04722465 0.12679265
0.030009735 0.34126112 0.19884177 0.1941464 -0.13958722 0.29172954 -0.09546249 -0.105279356
0.14860219 0.31223843 -0.010076394 0.062196147 -0.063810475 0.23141536 0.19127879 0.014789903
-0.26532856 -0.26121992 -0.08552682 -0.2649936 0.2751765 0.099035114 0.088598475 0.17663813
0.13300644 0.29315647 -0.08176506 0.0032421711 0.061659165 0.0323678 -0.10573935 -0.5267248
-0.13425338 -0.45074713 -0.054948546 -0.2566651 -0.11980518 0.11662255 -0.007776361 0.100292176
-0.01139186 0.074509665 -0.024628468 -0.07790667 -0.28837714 0.017553369 -0.07889316 -0.4131783
0.19341269 -0.48660648 -0.12361831 -0.56650436 -0.14216441 -0.0011460984 0.2408783 0.042128917
-0.13903734 -0.24429296 -0.07758074 -0.20092818 -0.003818615 0.007966196 -0.2201271 -0.0760316
-0.14456202 0.252039 -0.26876697 -0.24916588 0.056564715 -0.3365742 -0.022973975 -0.07609243
-0.22005597 0.021799227 -0.01417035 0.1212057 -0.08903523 0.21025714 0.13414487 0.13502958
0.29875967 0.16430065 0.033054553 0.19530568 0.28522703 0.27697256 -0.32389924 -0.20614007
-0.19501331 0.074020915 0.27413335 0.0063072005 0.04645915 0.14066021 0.07752276 -0.005677926
-0.13487162 0.06419038 0.10674873 -0.13334443 -0.19660121 0.10491361 -0.35471693 0.28809202
-0.13140567 0.32619143 -0.09794388 0.15201922 0.21838763 0.2880176 0.20293064 -0.11606054
-0.11900082 -0.18391018 -0.09092894 0.01853938 -0.24358276 0.066677056 -0.3475023 -0.010595318
-0.1425643 -0.08413132 0.12074012 -0.108100854 -0.14243858 -0.14090814 -0.0052467464 0.21712844
-0.02867611 0.6189094 -0.19048941 0.5071573 0.17588691 0.043857455 0.056936245 -0.2567537
0.02224291 -0.17682144 -0.14092603 0.24792203 -0.1713021 -0.24157932 -0.14888781 0.28765336
-0.06462597 0.61631364 0.014597572 0.1412562 -0.023992758 0.029636478 0.31528375 0.21224838
-0.112168945 -0.3462792 0.17486031 -0.0474165 -0.16379905 -0.034126535 -0.13683718 0.39379007
-0.011999314 0.29055962 -0.13282385 0.30466652 0.26019353 -0.18679115 0.097295836 -0.14925463
0.18850781 0.13745052 0.2626198 -0.08730205 -0.047090355 -0.23836815 0.018783731 0.42817083
0.015221421 0.3881613 -0.2158434 0.08380133 0.27139395 0.22157176 -0.20971279 0.31888202
0.055405725 -0.059714794 -0.018531103 -0.27400082 -0.109354846 0.010780708 -0.14864942 0.40092194
0.028828291 0.55165076 -0.2715648 0.20468791 -0.03389804 -0.0012756895 -0.23591225 -0.09248925
0.038709585 -0.3289955 -0.06327788 -0.25399905 0.11152744 -0.06631676 -0.09757547 -0.070873454
0.24591485 0.70484394 -0.26034394 -0.046590276 0.02479566 0.21176471 -0.06740976 0.36048904
00000000: 4d6e 663d 928f 00be 2540 883e 2b94 843d
00000010: 15c0 393e 6f26 20be ab56 9a3d ba3b 643e
00000020: bce7 4d3e 8771 94bd b60b 11be 73fc 4dbe
00000030: d825 4e3e 9fe4 e3bd 0f80 e3bd 15de d03e
00000040: 95e7 9c3d dffc 4d3e 8e7f 67bd 298d 2a3e
00000050: dbca 9b3d dd47 f63d 0a31 523e 9721 aebd
00000060: 71ce cfbc 5d25 923a 82ff 34be 5454 c5bd
00000070: 9cbd b83d 1f67 92be 0cbb 1fbe dae7 ce3e
00000080: 239f c43c 15c2 633e e0c6 14be fbf3 733e
00000090: 1e0c aaba 157f 91bd a26e 41bd efd5 013e
000000a0: fad6 f53c c7b9 ae3e 2d9d 4b3e 50ce 463e
000000b0: f4ef 0ebe 935d 953e d781 c3bd b49c d7bd
000000c0: 2c2b 183e b7dd 9f3e 7617 25bc 63c1 7e3d
000000d0: 11af 82bd 26f8 6c3e 96de 433e 5951 723c
000000e0: 25d9 87be 9ebe 85be af28 afbd 3ead 87be
000000f0: efe3 8c3e ecd2 ca3d 1e73 b53d a0e0 343e
00000100: d732 083e 9b18 963e 7174 a7bd 9b7a 543b
00000110: 528e 7c3d 1994 043d df8d d8bd 70d7 06bf
00000120: b879 09be 54c8 e6be ba11 61bd 9c69 83be
00000130: 6b5c f5bd ced7 ee3d d8d0 febb fc65 cd3d
00000140: eda4 3abc 8698 983d a4c1 c9bc 888d 9fbd
00000150: 2ba6 93be 15cc 8f3c bd92 a1bd 1b8c d3be
00000160: fa0d 463e 7c24 f9be 992b fdbd 6e06 11bf
00000170: 8c93 11be ae38 96ba cda8 763e 5f8f 2c3d
00000180: ce5f 0ebe ef27 7abe a7e2 9ebd 1ec0 4dbe
00000190: bb41 7abb a684 023c 0069 61be 75b6 9bbd
000001a0: 1108 14be 410b 813e d39b 89be 5725 7fbe
000001b0: 67b0 673d 7453 acbe eb33 bcbc 59d6 9bbd
000001c0: 5a56 61be 4b94 b23c c12a 68bc b23a f83d
000001d0: 1a58 b6bd a64d 573e 465d 093e 3245 0a3e
000001e0: 07f7 983e 6e3e 283e 3664 073d 36fe 473e
000001f0: 4709 923e 59cf 8d3e 1fd6 a5be 6216 53be
00000200: 92b1 47be 4798 973d 355b 8c3e a2ac ce3b
00000210: f34b 3e3d 3b09 103e 41c4 9e3d e50d babb
00000220: c91b 0abe 3f76 833d 149f da3d 718b 08be
00000230: d451 49be f2dc d63d 759d b5be cc80 933e
00000240: 358f 06be 9002 a73e cd96 c8bd edaa 1b3e
00000250: 02a1 5f3e 0b77 933e 0dcd 4f3e 26b1 edbd
00000260: b4b6 f3bd f352 3cbe f438 babd e6df 973c
00000270: c26d 79be fb8d 883d d2eb b1be fc97 2dbc
00000280: 60fc 11be 0b4d acbd 9946 f73d fb63 ddbd
00000290: 6bdb 11be 394a 10be e6ec abbb eb56 5e3e
000002a0: 29ea eabc d970 1e3f a80f 43be 10d5 013f
000002b0: b31b 343e e0a3 333d fb35 693d 3975 83be
000002c0: c336 b63c ae10 35be ea4e 10be 46df 7d3e
000002d0: d169 2fbe 9260 77be 0c76 18be 4d47 933e
000002e0: 9f5a 84bd bbc6 1d3f a82a 6f3c 77a5 103e
000002f0: 768c c4bc 33c8 f23c df6c a13e a457 593e
00000300: d5b8 e5bd 824b b1be 950e 333e ce37 42bd
00000310: f0ba 27be 44c8 0bbd 0c1f 0cbe da9e c93e
00000320: c598 44bc 3bc4 943e fa02 08be 40fd 9b3e
00000330: 1638 853e 2e46 3fbe 0a43 c73d 35d6 18be
00000340: 3108 413e d4bf 0c3e 1a76 863e 6bcb b2bd
00000350: d1e1 40bd c816 74be 57e0 993c 3539 db3e
00000360: 4463 793c 14bd c63e 0d06 5dbe 08a0 ab3d
00000370: 26f4 8a3e b5e3 623e f3be 56be 8144 a33e
00000380: 1df1 623d 8097 74bd 8ace 97bc d649 8cbe
00000390: 6ff5 dfbd 91a1 303c 8e37 18be a445 cd3e
000003a0: 4f29 ec3c fc38 0d3f 8b0a 8bbe b599 513e
000003b0: acd8 0abd 0935 a7ba fb92 71be 016b bdbd
000003c0: f18d 1e3d 1972 a8be d597 81bd 2a0c 82be
000003d0: 8068 e43d 15d1 87bd a6d5 c7bd 1a26 91bd
000003e0: 1ad1 7b3e a770 343f cd4b 85be 72d5 3ebd
000003f0: 4520 cb3c d9d8 583e 210e 8abd 0592 b83e

tcn.tcn.0.conv2.bias f4 [16]
0.036435366 0.022368202 0.061727777 -0.083183445 0.11431161 0.03347043 -0.100643024 -0.04589798
-0.21906789 -0.14919491 0.01938961 0.058165967 0.17148796 -0.030856108 0.22689486 0.042421326
00000000: 403d 153d 853d b73c 44d6 7c3d 155c aabd
00000010: 351c ea3d 4a18 093d ee1d cebd 85ff 3bbd
00000020: 5553 60be 8dc6 18be f6d6 9e3c 703f 6e3d
00000030: 8a9a 2f3e f3c5 fcbc 2057 683e fcc1 2d3d

tcn.tcn.0.res_conv.weight f4 [16, 16, 1]
0.027737636 -0.090402424 0.20244505 0.014934324 0.10561146 0.15346089 -0.05533471 -0.09925747
-0.16463 0.27640942 -0.26780102 0.09100931 -0.065580346 0.12921944 0.14656553 2.6964473e-05
0.081881925 0.3226612 -0.14118822 0.15120691 0.026927475 -0.113077536 0.111903235 -0.4835973
0.0978212 -0.026660621 -0.18195371 -0.007297385 0.2714652 -0.10614444 -0.19672441 -0.2280371
0.17848058 -0.24695663 -0.07078025 0.25721648 0.064190544 -0.2008456 0.41098523 0.1918311
0.012520488 0.40974143 0.14867978 -0.29570585 -0.3542447 0.24095914 0.16965227 -0.089802116
0.26455998 -0.2904477 0.1259121 -0.12656039 -0.035058893 -0.052302312 -0.03926967 0.38601333
-0.07096426 0.09743573 0.25869566 -0.20590988 0.044798184 0.3108903 0.184025 -0.07952555
-0.24816522 0.28354555 -0.051698532 -0.2687636 0.015395624 0.055742636 -0.2779377 -0.20130773
-0.03405641 -0.12947376 0.24233533 -0.030744651 0.1966281 0.11822922 -0.07983578 -0.055284396
0.054418642 0.20296663 -0.26543102 -0.07852919 -0.16412315 0.29507923 -0.32505992 0.012156972
0.03733619 0.016746936 -0.04871396 0.082286656 0.052551366 -0.004775704 0.040530216 0.22202647
-0.35564592 0.29758397 0.09651553 -0.18891191 0.20300828 0.16071825 -0.28992012 -0.10788745
-0.16806394 0.19420661 -0.32065946 0.05860354 0.07529622 -0.32439107 -0.13438396 0.16134326
-0.12827523 0.07141328 0.23840202 0.3505376 -0.08147826 0.28702232 0.44663888 -0.23523389
-0.013554885 -0.10329153 -0.26664048 -0.055731513 -0.008076815 -0.2667158 -0.082135335 -0.16309178
-0.22007965 0.06812265 0.20607364 -0.32175803 -0.31231913 -0.047673523 -0.17051351 -0.10871185
-0.10110587 0.90913874 0.23995131 0.13299938 -0.20322953 -0.18405397 -0.16058785 0.38719863
0.3394519 0.011351387 0.14388008 -0.12135013 -0.113313526 -0.11576454 0.28042105 0.16221766
-0.07581504 0.24572283 0.08291282 0.20522957 -0.20429038 0.29165465 0.030969232 -0.2629642
0.024664385 -0.16326344 -0.1473519 -0.26177776 -0.09923224 -0.36142036 0.1741149 0.15028296
-0.22981629 0.38514563 -0.11145384 -0.48747295 -0.032425806 -0.30378738 0.3058807 -0.20188402
-0.4271795 -0.28207862 -0.19092545 -0.12211557 0.035406094 -0.32897162 -0.25540245 -0.09649522
0.044930115 -0.26622307 -0.22332387 -0.089729175 0.094622165 -0.006192405 -0.02020582 -0.16992573
0.04655337 0.35951343 0.051422507 -0.013347042 -0.08975801 -0.041963976 -0.3183011 -0.13651015
0.22201099 0.12428379 -0.25608668 0.105762206 0.12467563 -0.1307239 -0.06854853 0.2536806
0.33196074 0.35614568 0.18868622 0.38146904 -0.16197166 0.27803755 0.2158032 0.035656683
0.15046172 0.012256239 -0.05732021 -0.28294393 0.08916655 -0.18615478 0.06903203 -0.18921697
-0.13016511 -0.20882747 0.04582555 0.07505772 -0.15001534 -0.05189439 0.24422534 -0.025015393
-0.13925982 0.11700899 -0.10849569 0.009117161 0.12179818 0.10422883 0.010781864 0.026957856
-0.26491043 -0.048300155 -0.077592075 -0.20099568 0.20082307 0.14997505 -0.20979616 0.09995889
-0.087952636 -0.01724193 -0.33328468 -0.060555197 0.12900747 0.0913335 -0.15605909 0.13140854
00000000: 0a3a e33c e824 b9bd c14d 4f3e 18af 743c
00000010: d24a d83d da24 1d3e a6a6 62bd 8047 cbbd
00000020: c494 28be 8985 8d3e 371d 89be 1763 ba3d
00000030: fd4e 86bd 1a52 043e 4615 163e c431 e237
00000040: b6b1 a73d d933 a53e a593 10be fcd5 1a3e
00000050: 0297 dc3c 3295 e7bd 862d e53d 119a f7be
00000060: 7b56 c83d 6067 dabc 1352 3abe e71e efbb
00000070: 7dfd 8a3e 4262 d9bd 2072 49be 8f82 69be
00000080: 9dc3 363e 33e2 7cbe 3cf5 90bd e1b1 833e
00000090: 5576 833d 78aa 4dbe a86c d23e 5f6f 443e
000000a0: bc22 4d3c a1c9 d13e 833f 183e c266 97be
000000b0: 905f b5be febd 763e 53b9 2d3e 2cea b7bd
000000c0: 6874 873e 90b5 94be 1aef 003e 0c99 01be
000000d0: ea99 0fbd f33a 56bd 3cd9 20bd 8aa3 c53e
000000e0: b655 91bd 628c c73d c273 843e 0ada 52be
000000f0: 4d7e 373d 032d 9f3e 0d71 3c3e 4bde a2bd
00000100: 061f 7ebe e22c 913e d7c1 53bd 629b 89be
00000110: ed3d 7c3c 6452 643d da4d 8ebe 9d23 4ebe
00000120: bc7e 0bbd c594 04be c126 783e 35dc fbbc
00000130: e058 493e 2922 f23d f180 a3bd e471 62bd
00000140: 15e6 5e3d 7cd6 4f3e 93e6 87be e9d3 a0bd
00000150: e60f 28be a014 973e 416e a6be 092e 473c
00000160: d5ed 183d df30 893c 4a88 47bd e885 a83d
00000170: 1a40 573d 827d 9cbb 0303 263d e85a 633e
00000180: 3917 b6be ed5c 983e efa9 c53d 2072 41be
00000190: 67e1 4f3e 5393 243e 6970 94be 18f4 dcbd
000001a0: f418 2cbe 19de 463e 7a2d a4be 440a 703d
000001b0: e834 9a3d 9616 a6be f39b 09be 2b37 253e
000001c0: 955a 03be 2041 923d a91f 743e aa79 b33e
000001d0: 13de a6bd 97f4 923e daad e43e 27e1 70be
000001e0: 4f15 5ebc 828a d3bd 1a85 88be ba46 64bd
000001f0: 9e54 04bc f98e 88be 9236 a8bd 8801 27be
00000200: 8f5c 61be e383 8b3d f804 533e 78bd a4be
00000210: 4be8 9fbe 5045 43bd 189b 2ebe 52a4 debd
00000220: 9810 cfbd 51bd 683f ccb5 753e fd30 083e
00000230: 671b 50be a578 3cbe 2471 24be e63e c63e
00000240: a4cc ad3e 2bfb 393c 4d55 133e 6b86 f8bd
00000250: ec10 e8bd f615 edbd 5993 8f3e 631c 263e
00000260: ea44 9bbd c49e 7b3e 32ce a93d b327 523e
00000270: 7f31 51be c253 953e 30b3 fd3c 3ea3 86be
00000280: f70c ca3c 882e 27be 6be3 16be bc07 86be
00000290: 463a cbbd 170c b9be 2d4b 323e c7e3 193e
000002a0: f654 6bbe cf31 c53e e941 e4bd 0e96 f9be
000002b0: ecd0 04bd 058a 9bbe 659c 9c3e afba 4ebe
000002c0: 45b7 dabe 9c6c 90be f681 43be ba17 fabd
000002d0: fb05 113d f86e a8be 1cc4 82be 499f c5bd
000002e0: a408 383d 644e 88be 03af 64be eec3 b7bd
000002f0: 44c9 c13d a8e9 cabb ad86 a5bc 0301 2ebe
00000300: bfae 3e3d 2512 b83e 68a0 523d 8dad 5abc
00000310: 0cd3 b7bd 6be2 2bbd 5df8 a2be 51c9 0bbe
00000320: d956 633e 8088 fe3d cb1d 83be db99 d83d
00000330: f055 ff3d 7cdc 05be 2c63 8cbd 6ce2 813e
00000340: c2f6 a93e ba58 b63e f636 413e e94f c33e
00000350: e6db 25be f05a 8e3e 84fb 5c3e be0c 123d
00000360: a312 1a3e 64ce 483c 99c8 6abd 07de 90be
00000370: f49c b63d 5c9f 3ebe aa60 8d3d 18c2 41be
00000380: 014a 05be ded6 55be 92b3 3b3d ddb7 993d
00000390: 9f9d 19be 368f 54bd 3516 7a3e 15ed ccbc
000003a0: 209a 0ebe 69a2 ef3d fd32 debd 2560 153c
000003b0: 5371 f93d ed75 d53d 6aa6 303c b9d6 dc3c
000003c0: 57a2 87be 62d6 45bd 98e8 9ebd d0d1 4dbe
000003d0: 90a4 4d3e 0f93 193e ced4 56be 3fb7 cc3d
000003e0: 8320 b4bd f33e 8dbc 4aa4 aabe ba08 78bd
000003f0: 891a 043e 0f0d bb3d f4cd 1fbe f68f 063e

tcn.tcn.0.res_conv.bias f4 [16]
0.23209167 -0.1162508 -0.2281206 0.02397693 -0.1385005 -0.15744425 -0.20744893 -0.1641972
-0.057669323 0.13902043 -0.09748931 0.1323716 -0.04071131 -0.288339 0.03200074 0.05872516
00000000: 70a9 6d3e e614 eebd 7298 69be 446b c43c
00000010: 13d3 0dbe 1139 21be 7e6d 54be 5023 28be
00000020: ab36 6cbd 5f5b 0e3e 7aa8 c7bd 6c8c 073e
00000030: e7c0 26bd 2ba1 93be 3513 033d cb89 703d

tcn.tcn.1.conv1.weight f4 [16, 16, 5]
-0.03226841 -0.17546263 -0.11493677 -0.17599852 -0.27577448 0.20016707 -0.4035996 -0.21110031
-0.111101896 0.1836222 0.12007859 0.44709954 -0.079880826 -0.2723263 -0.2180187 0.029969448
-0.11235194 -0.11381516 -0.06943626 -0.2724833 0.001082468 -0.11884379 0.21871774 0.17576127
0.29784405 0.061615754 -0.018403118 0.24107075 0.001658024 0.2742744 0.041343857 -0.08988139
0.18704174 0.29824793 0.47066963 -0.10389361 -0.19488308 -0.4465193 -0.4186121 -0.16924624
-0.21324277 0.20221944 0.26864022 0.13369277 0.076962195 -0.13448524 -0.049825806 0.020025326
-0.10930925 -0.10347739 0.1224743 0.22419843 -0.12501831 -0.29710445 -0.25253636 0.22776136
-0.012511867 -0.3064687 0.11574052 -0.004584197 0.0048005385 0.13823374 0.008394279 0.05161172
0.16875967 0.40252155 0.038045567 -0.22647767 -0.18356876 -0.004520238 0.205798 0.13893496
0.12001208 0.102322824 -0.06856085 0.51610893 0.059304196 0.069552675 0.24806471 0.18041162
-0.18343739 -0.19171144 -0.04286824 -0.17315349 -0.21236576 -0.12701756 0.18445021 -0.124580875
0.0635009 -0.28607288 -0.31270468 -0.0856506 -0.30392885 -0.20152147 -0.21543899 0.1172464
-0.23904833 -0.35214517 -0.2117531 -0.12627363 0.3716432 -0.022707656 -0.11268988 0.1267554
0.16989267 0.12865214 -0.2602563 -0.40426615 -0.058860812 0.45962322 0.07776572 0.09226139
0.2663106 0.36971793 0.37133995 -0.42615217 -0.060903467 -0.23128942 -0.123999864 0.025917651
-0.15751113 0.010657559 -0.40908068 -0.20290127 0.23579307 0.041004572 -0.055253968 -0.15787423
-0.07496208 -0.059742603 -0.19877324 -0.20906724 0.15233348 0.00060300896 -0.0355194 0.17255768
0.27253366 0.37288228 0.11176382 -0.18296456 -0.083258465 -0.0032373252 0.31811437 -0.08999586
0.022352347 -0.2397521 -0.16817491 -0.20535016 -0.16030158 -0.05768732 -0.019987574 0.079882815
0.23964977 -0.112318456 0.030475102 0.050926585 0.17876169 0.0964495 0.06291566 0.07285777
0.17371535 0.08269104 0.017515037 0.24101435 -0.08071361 -0.022236178 -0.1801918 0.06515716
-0.04864535 0.24996221 -0.08724836 0.03683989 0.047238022 -0.14144087 -0.089695185 -0.18320914
-0.14410937 -0.16842975 0.19488172 0.05173054 0.0065504783 -0.106841385 -0.24312338 0.054012008
0.16013148 -0.13370323 -0.10490544 -0.05454545 0.013952391 0.20956805 0.36613527 -0.0032013454
0.052653275 -0.097042814 0.005010721 -0.12961356 0.117704585 0.10513508 0.07840709 -0.017637828
0.09903487 -0.097789414 -0.16877852 -0.048309445 0.16529791 -0.1527095 0.028647956 -0.2361983
-0.17224944 0.2417853 0.32338786 0.19591895 0.027393732 -0.06508695 -0.33528656 0.31788382
0.1371267 -0.012160787 -0.08053976 -0.1655765 0.19429901 -0.11153957 0.1288787 0.074465364
-0.07049066 -0.0032580427 -0.13040002 0.08270437 1.9953022e-06 -0.081146486 0.20329893 0.0191615
0.10470054 -0.016445449 -0.16097128 0.35189 -0.09381126 0.085701436 0.054277804 -0.20229289
0.016747795 -0.01794365 0.18754768 0.34819818 -0.07194587 0.02053284 0.034436584 -0.0855936
-0.10514288 0.12458776 -0.10448942 0.08036953 0.03579486 -0.23098052 -0.01508272 0.020456122
00000000: e12b 04bd 7aac 33be f863 ebbd f538 34be
00000010: 5032 8dbe 99f8 4c3e 9ba4 cebe ae2a 58be
00000020: 6489 e3bd 7507 3c3e c4eb f53d 3bea e43e
00000030: 8f98 a3bd 5a6e 8bbe 4b40 5fbe 7d82 f53c
00000040: c618 e6bd ec17 e9bd 9934 8ebd ee82 8bbe
00000050: 99e1 8d3a 5f64 f3bd 8bf7 5f3e c3fa 333e
00000060: 047f 983e cd60 7c3d 23c2 96bc 40db 763e
00000070: 0e52 d93a b26d 8c3e 2d58 293d bc13 b8bd
00000080: df87 3f3e f4b3 983e 9cfb f03e 2cc6 d4bd
00000090: 6e8f 47be 2d9e e4be 5354 d6be e34e 2dbe
000000a0: 505c 5abe 9d12 4f3e 368b 893e c2e6 083e
000000b0: 5b9e 9d3d 80b6 09be 2516 4cbd 270c a43c
000000c0: 87dd dfbd f4eb d3bd ced3 fa3d 4694 653e
000000d0: cd04 00be 131e 98be 724c 81be 463a 693e
000000e0: 93fe 4cbc 77e9 9cbe 5e09 ed3d 0837 96bb
000000f0: d64d 9d3b 258d 0d3e 2888 093c d066 533d
00000100: 56cf 2c3e 4e17 ce3e abd5 1b3d c3e9 67be
00000110: 73f9 3bbe 811e 94bb b6bc 523e f744 0e3e
00000120: e5c8 f53d a18e d13d a269 8cbd b71f 043f
00000130: f5e8 723d a271 8e3d ad04 7e3e d3bd 383e
00000140: 03d7 3bbe 0150 44be 9c96 2fbd 264f 31be
00000150: 6976 59be e410 02be 84e0 3c3e 4224 ffbd
00000160: c30c 823d 2578 92be d41a a0be 9569 afbd
00000170: 909c 9bbe a55b 4ebe 0a9c 5cbe e11e f03d
00000180: 16c9 74be 5f4c b4be ced5 58be e04d 01be
00000190: 0448 be3e 6805 babc f4c9 e6bd 2bcc 013e
000001a0: 58f8 2d3e 63bd 033e 5040 85be f9fb cebe
000001b0: 0918 71bd bc53 eb3e a243 9f3d 8af3 bc3d
000001c0: dd59 883e ab4b bd3e 4520 be3e 9e30 dabe
000001d0: ea75 79bd 22d7 6cbe a4f3 fdbd 4151 d43c
000001e0: 994a 21be 0b9d 2e3c 0673 d1be 5ac5 4fbe
000001f0: bd73 713e 69f4 273d fc51 62bd c8a9 21be
00000200: b885 99bd a9b4 74bd 368b 4bbe b915 56be
00000210: 4ffd 1b3e 3f13 1e3a ca7c 11bd f6b2 303e
00000220: 8889 8b3e 6dea be3e 6ee4 e43d 105b 3bbe
00000230: 6a83 aabd 4e29 54bb e3df a23e c04f b8bd
00000240: 451c b73c 9381 75be 0b36 2cbe 5047 52be
00000250: 1926 24be 8a49 6cbd fbbc a3bc 9a99 a33d
00000260: c066 753e 3807 e6bd eca6 f93c 6598 503d
00000270: 4e0d 373e 5187 c53d edd9 803d 7436 953d
00000280: 70e2 313e ec59 a93d b27b 8f3c 77cc 763e
00000290: 2d4d a5bd a528 b6bc 3384 38be 1e71 853d
000002a0: 5940 47bd 18f6 7f3e 45af b2bd 6de5 163d
000002b0: a87c 413d e0d5 10be 1cb2 b7bd 2d9b 3bbe
000002c0: 6891 13be d978 2cbe 138f 473e 67e3 533d
000002d0: 65a5 d63b a8cf dabd 56f5 78be b23b 5d3d
000002e0: 82f9 233e 80e9 08be aad8 d6bd 0d6b 5fbd
000002f0: 9298 643c 0299 563e 1576 bb3e aacd 51bb
00000300: f6aa 573d 62be c6bd f930 a43b 6bb9 04be
00000310: 1a0f f13d 1051 d73d e593 a03d 357d 90bc
00000320: cbd2 ca3d d145 c8bd 47d4 2cbe 20e0 45bd
00000330: db43 293e e15f 1cbe 1eaf ea3c f8dd 71be
00000340: 2862 30be 9196 773e 1893 a53e fa9e 483e
00000350: d268 e03c 4f4c 85bd aeaa abbe abc1 a23e
00000360: f16a 0c3e 0a3e 47bc 08f2 a4bd e38c 29be
00000370: 52f6 463e dc6e e4bd c7f8 033e 4c81 983d
00000380: 685d 90bd e384 55bb 9587 05be e960 a93d
00000390: 08e7 0536 2130 a6bd 982d 503e 94f8 9c3c
000003a0: 3d6d d63d 9bb8 86bc a8d5 24be ed2a b43e
000003b0: 1e20 c0bd 3c84 af3d 6752 5e3d de25 4fbe
000003c0: ac32 893c 90fe 92bc 800c 403e 0847 b23e
000003d0: 5b58 93bd 7d34 a83c 600d 0d3d b34b afbd
000003e0: 2655 d7bd de27 ff3d 8dfe d5bd c898 a43d
000003f0: a29d 123d 2886 6cbe 831d 77bc 9993 a73c

tcn.tcn.1.conv1.bias f4 [16]
-0.20249088 -0.27591828 0.08677927 0.12124455 -0.30570737 -0.18632023 0.079206035 0.109844424
-0.053105015 -0.11456789 -0.2190899 0.09399243 -0.24266939 0.20990503 -0.06610387 0.13688913
00000000: c559 4fbe 2945 8dbe 54b9 b13d 104f f83d
00000010: ad85 9cbe bbca 3ebe c636 a23d 1df6 e03d
00000020: a584 59bd 92a2 eabd 1a59 60be 1a7f c03d
00000030: 537e 78be 58f1 563e 7761 87bd aa2c 0c3e

tcn.tcn.1.conv2.weight f4 [16, 16, 1]
0.5406774 0.03501263 -0.05858978 0.08799057 -0.04920808 -0.08913277 0.22741897 0.3402618
-0.3426484 -0.27090767 0.038068295 0.30320588 0.009972521 0.30551258 0.38994855 -0.09083679
-0.12625542 0.38058087 -0.15504609 -0.21552314 0.05907177 0.1522875 0.2136766 -0.16517001
0.25148475 -0.1458034 0.12594691 0.25032824 -0.05439241 -0.1210901 -0.3420577 0.23015021
0.043277178 0.17204958 0.23288257 0.08000009 0.11121258 -0.038264014 0.23710382 -0.26446953
-0.051938325 -0.050852228 -0.323615 0.093091145 -0.15739967 -0.109950855 -0.17861772 -0.23308004
-0.26285213 -0.0400912 -0.48303175 -0.12496789 0.18338497 -0.19175628 -0.058325257 0.14565417
-0.020994255 0.15499955 0.2073503 -0.27069253 -0.09833423 -0.0936622 0.04879431 0.10022596
0.09159957 0.15169972 -0.034949172 -0.25484425 0.112569466 -0.08095326 0.0774212 -0.11323391
0.36874354 -0.19791579 -0.045061674 0.21393704 -0.17294806 -0.06426823 -0.012911002 0.12861624
-0.16741776 -0.07358006 -0.01808169 -0.19834283 0.14945176 0.21894205 0.48917243 0.16208448
0.11682418 -0.02151654 -0.06659459 0.18520746 -0.0924507 -0.10701268 0.1283349 0.09749375
-0.18010257 0.2101771 -0.13735656 -0.008740236 0.2531047 -0.09061698 -0.12638125 0.300371
0.106745735 -0.071024336 0.03162647 0.23991886 -0.255798 -0.2584352 -0.2887385 0.3195172
0.27461 -0.19513415 0.14071237 0.052946944 -0.17124936 0.44138452 0.09712142 0.03975694
-0.042851742 -0.106498085 -0.1848374 -0.118937634 -0.06072473 0.2841615 -0.018447913 -0.16769992
-0.25831476 0.24991131 -0.33041042 0.110422194 -0.25249627 0.19587365 0.3280339 -0.1186271
0.04423132 -0.0905494 -0.039469164 0.17527615 -0.25373697 -0.10867228 -0.06951838 -0.074341446
-0.06658859 0.048593383 0.08847625 -0.21240817 -0.056219146 -0.23067966 0.19194576 0.0090289535
0.09255247 -0.1267082 0.28700823 -0.10960998 -0.0016619978 0.16349441 0.42427522 0.11325631
0.19741525 -0.14335644 -0.1844633 -0.32340136 -0.08005021 0.30448243 -0.15863886 -0.13963184
-0.023449838 -0.17097788 0.20881167 -0.048633795 0.07866768 0.07372636 -0.06151331 0.09756067
0.2626122 -0.024719173 -0.17838737 -0.08378022 -0.17077391 -0.3349849 -0.1536294 3.6099103e-05
-0.36652243 0.060206145 -0.040874746 -0.15377548 0.118331306 -0.17387146 -0.026148388 -0.035990465
0.19107279 -0.19501145 -0.06648584 -0.087184094 -0.1536115 -0.016492708 0.10382837 0.08337904
0.28697646 -0.026389606 -0.114539474 -0.047744114 0.03311482 -0.18163262 0.32524407 0.22270983
-0.07727589 -0.06342268 0.047450963 -0.2056925 -0.2992533 -0.060587075 0.2969947 0.049380776
-0.15294547 0.00067983737 -0.11375604 -0.026299544 -0.30750296 -0.31584004 0.22153756 0.038390566
-0.118242756 0.42003426 0.1935683 0.11474482 0.16746879 -0.14652064 0.19745673 0.1367934
-0.014480707 -0.124660246 0.18327662 -0.09318087 -0.19987912 0.06950421 -0.2138641 0.07797357
-0.38389447 0.13732253 -0.11901999 0.107518904 0.12224781 -0.07430472 0.1282136 0.0127827255
-0.14008269 -0.0039988514 0.16675115 -0.08908703 -0.24483126 -0.015036668 -0.55742013 -0.13140859
00000000: d669 0a3f 6769 0f3d d6fb 6fbd 6634 b43d
00000010: 698e 49bd 3e8b b6bd 85e0 683e cb36 ae3e
00000020: 9c6f afbe 69b4 8abe 80ed 1b3d cd3d 9b3e
00000030: c963 233c 256c 9c3e 56a7 c73e a408 babd
00000040: 1a49 01be 7fdb c23e 67c4 1ebe 19b2 5cbe
00000050: 3ef5 713d 41f1 1b3e 0ace 5a3e 5422 29be
00000060: 9cc2 803e 7d4d 15be 3af8 003e 062b 803e
00000070: 93ca 5ebd 16fe f7bd 3022 afbe 7fac 6b3e
00000080: 6943 313d c42d 303e c578 6e3e 16d7 a33d
00000090: 6cc3 e33d baba 1cbd 58cb 723e 8d68 87be
000000a0: 48bd 54bd 6d4a 50bd deb0 a5be 92a6 be3d
000000b0: 612d 21be ea2d e1bd 90e7 36be 89ac 6ebe
000000c0: 8e94 86be ac36 24bd f04f f7be 2aef ffbd
000000d0: 45c9 3b3e c25b 44be 77e6 6ebd 5e26 153e
000000e0: 25fc abbc 34b8 1e3e a353 543e 3698 8abe
000000f0: 7563 c9bd f8d1 bfbd 8bdc 473d 4543 cd3d
00000100: 8e98 bb3d 2c57 1b3e dd26 0fbd f27a 82be
00000110: d28a e63d d3ca a5bd 028f 9e3d 2ee7 e7bd
00000120: f4cb bc3e 70aa 4abe 9792 38bd 5012 5b3e
00000130: 4c19 31be 109f 83bd ab88 53bc fab3 033e
00000140: 906f 2bbe 24b1 96bd 0d20 94bc 621a 4bbe
00000150: e209 193e 5832 603e cf74 fa3e 79f9 253e
00000160: 8441 ef3d 7443 b0bc bf62 88bd 06a7 3d3e
00000170: cb56 bdbd 7729 dbbd 396a 033e ceaa c73d
00000180: cf6c 38be aa38 573e 33a7 0cbe 3533 0fbc
00000190: f096 813e 6595 b9bd 166a 01be 3aca 993e
000001a0: 829d da3d 3575 91bd c28a 013d 4aad 753e
000001b0: f5f7 82be 9e51 84be 88d5 93be c297 a33e
000001c0: af99 8c3e 3fd1 47be e716 103e e5de 583d
000001d0: fe5b 2fbe 27fd e13e 98e7 c63d 2cd8 223d
000001e0: 4f85 2fbd ab1b dabd 0446 3dbe 9395 f3bd
000001f0: 7fba 78bd 9e7d 913e 1420 97bc 87b9 2bbe
00000200: d541 84be c0e8 7f3e 8e2b a9be 0825 e23d
00000210: 3147 81be 1a93 483e 0ff4 a73e c4f2 f2bd
00000220: e72b 353d f771 b9bd 6baa 21bd 977b 333e
00000230: d0e9 81be 938f debd a75f 8ebd 5440 98bd
00000240: 995f 88bd db09 473d 0933 b53d 8781 59be
00000250: 0c46 66bd 4a37 6cbe 6e8d 443e 2dee 133c
00000260: 268c bd3d cbbf 01be bef2 923e 327b e0bd
00000270: 64d7 d9ba 146b 273e 9a3a d93e edf2 e73d
00000280: 3927 4a3e 08cc 12be f3e3 3cbe dd94 a5be
00000290: 5df1 a3bd 1fe5 9b3e 3a72 22be a6fb 0ebe
000002a0: e019 c0bc d314 2fbe bad2 553e 3b34 47bd
000002b0: 851c a13d d9fd 963d 61f5 7bbd e3cd c73d
000002c0: 1b75 863e dd7f cabc 2eab 36be f794 abbd
000002d0: 5bdf 2ebe 2483 abbe 0751 1dbe 1e69 1738
000002e0: d4a8 bbbe b89a 763d 476c 27bd 5277 1dbe
000002f0: af57 f23d 5c0b 32be 2535 d6bc bd6a 13bd
00000300: 96a8 433e 15b1 47be ba29 88bd 938d b2bd
00000310: 554c 1dbe b71b 87bc f8a3 d43d a1c2 aa3d
00000320: 94ee 923e 042f d8bc ac93 eabd 558f 43bd
00000330: 68a3 073d e7fd 39be 6486 a63e 0c0e 643e
00000340: d242 9ebd c0e3 81bd f15b 423d 0ea1 52be
00000350: bb37 99be 272a 78bd b00f 983e 7f43 4a3d
00000360: bd9d 1cbe 1d37 323a edf8 e8bd 2472 d7bc
00000370: 0771 9dbe c9b5 a1be beda 623e 6d3f 1d3d
00000380: 4229 f2bd bb0e d73e c536 463e 55ff ea3d
00000390: f07c 2b3e 8209 16be 1932 4a3e 9213 0c3e
000003a0: 7d40 6dbc df4d ffbd deac 3b3e 9dd5 bebd
000003b0: 1dad 4cbe 3958 8e3d 31ff 5abe 9bb0 9f3d
000003c0: d18d c4be 479e 0c3e c1c0 f3bd df32 dc3d
000003d0: 0f5d fa3d 132d 98bd 6d4a 033e a36e 513c
000003e0: d671 0fbe cc08 83bb d0c0 2a3e 4373 b6bd
000003f0: 0cb5 7abe 5b5c 76bc 16b3 0ebf f98f 06be

tcn.tcn.1.conv2.bias f4 [16]
-0.1954757 0.1953933 -0.05041008 0.0067578116 0.0733304 -0.12735131 -0.08163051 0.07054157
0.3110162 0.1204231 -0.111279935 0.14408529 0.20845328 -0.08530064 -0.13326204 0.21930644
00000000: c82a 48be 2e15 483e cd7a 4ebd a270 dd3b
00000010: 402e 963d 6268 02be e62d a7bd 1978 903d
00000020: 843d 9f3e 63a0 f63d bce6 e3bd 188b 133e
00000030: c774 553e 1ab2 aebd d875 08be de91 603e
