checkpoints/filters_16_do_0.1_od_300/model_loss_5.2199_it_582.pt (torch, 142269 bytes, 71 tensors)

conv1.weight f4 [16, 1, 3, 3]
000000 a8 24 3b be 94 7d 96 3e b6 80 21 bd 6e ed 3d 3e
       -0.18275702 0.29392684 -0.03942939 0.18547603
000010 56 47 3f 3b 96 a8 bc bd fb fd f9 bd ec bb 95 3e
       0.0029186807 -0.09211843 -0.12206646 0.29244936
000020 96 0c da bd d6 64 95 bc 2b 6a 52 3d a6 88 98 3e
       -0.10646932 -0.018236559 0.05137078 0.29791754
000030 6b 65 10 3d ab 22 e4 bc ab b2 2b 3d d0 76 5f be
       0.03525297 -0.027848562 0.041918438 -0.21822667
000040 74 65 a2 3e f6 3b 49 be 14 0a 82 3e 98 58 7f be
       0.31718028 -0.1965178 0.25398314 -0.2493614
000050 c6 e5 9e bd 2e 4e 8d 3e ab 66 7a 3e 03 c8 50 be
       -0.077586696 0.2759871 0.24453227 -0.20388798
000060 9f f7 a3 3e 98 e7 9f 3e 00 71 80 3c 40 b4 fc bc
       0.32024857 0.3123138 0.015678883 -0.030847669
000070 38 c7 1a 3e fb 56 87 bd 96 34 5d 3d ba 3d a3 3e
       0.15115058 -0.06608387 0.054005228 0.3188303
000080 6c fe 90 be 56 00 df bb 86 1f e3 bd 06 0b 41 3e
       -0.28319108 -0.00680546 -0.11089997 0.18851861
000090 2b 61 90 3d 2b 36 51 be 26 5f 8f bd 5e d1 8c be
       0.07049783 -0.2043082 -0.0700057 -0.27503484
0000a0 db 16 4d be db 53 c4 3d 56 26 a6 3e 60 69 d5 bd
       -0.2002825 0.09586307 0.32451123 -0.10420489
0000b0 98 11 a0 be d8 76 5a 3e 66 3e 91 bd 9b 45 92 bd
       -0.31263423 0.21334398 -0.0709198 -0.071421824
0000c0 6b 4f 29 bd a7 8d 97 3e 6c e0 a6 be 76 b6 9b bd
       -0.041335505 0.2960026 -0.32593095 -0.07603161
0000d0 e6 2f a0 bd 4c 76 94 be cb 7e 9a 3e de 56 69 3e
       -0.07821636 -0.28996503 0.3017486 0.22787043
0000e0 ae e1 75 be cb 21 1c bd b0 f8 93 3e dc ba 93 3e
       -0.24011871 -0.038118165 0.2890067 0.288535
0000f0 40 4f 81 bc c0 fc 1c bd 16 ab 2c 3e 5b ce 8c bd
       -0.01578486 -0.03832698 0.16862139 -0.06875297
000100 b7 98 9d 3e 8e 99 8b 3e 50 50 9c be ba 0a 95 3e
       0.30780575 0.2726559 -0.30530024 0.29109746
000110 f6 24 89 be ab dc 4c 3c 88 e7 9e be 0e 4d 40 be
       -0.2678601 0.012503783 -0.3103602 -0.18779394
000120 63 d6 a1 3e fb e0 81 bd 58 35 20 be fb f9 54 3e
       0.31608877 -0.0634174 -0.15645349 0.20798485
000130 76 95 52 3d a6 c9 b3 bd db b0 e7 3d a8 6b 2d 3e
       0.05141207 -0.08778696 0.113130294 0.16935599
000140 a0 9d d9 3d 32 8e 84 be 36 90 84 3d 10 0f 3c be
       0.10625768 -0.25889736 0.064728186 -0.18365121
000150 ab 74 12 be eb 39 e4 3c 2b bb 11 3c 60 2a e0 3d
       -0.14302318 0.027859649 0.008894722 0.109455824
000160 e6 7a 98 bd 3e 04 51 3e 00 73 c9 3d e0 93 78 be
       -0.07445316 0.20411775 0.09836388 -0.2427516
000170 a8 00 09 3e f6 ba 71 be 28 ce 8a be fe a8 12 3e
       0.13379157 -0.23606476 -0.2711041 0.14322278
000180 38 7d 66 be 80 f0 83 3c a6 fd 09 be 1b f5 85 3e
       -0.22508705 0.01610589 -0.13475665 0.26163563
000190 33 76 2f be e0 46 a1 bd e4 17 9e be 4b 88 89 3d
       -0.17134933 -0.078748465 -0.30877602 0.06715449
0001a0 de 8a 0e be db 16 3b be fb af 9d 3d 80 f5 f8 bd
       -0.13920161 -0.18270437 0.07699581 -0.121562004
0001b0 ca 54 9d 3e d3 88 75 be 36 3a 5e be 00 64 e9 ba
       0.3072875 -0.23977976 -0.21701893 -0.0017806292
0001c0 8f aa 9a be 14 36 aa be d8 53 8a 3e d7 46 90 3e
       -0.3020825 -0.33244383 0.27017093 0.28179047
0001d0 e6 14 cc bd 36 89 82 be 1e cf 08 3e bb 76 df 3d
       -0.099649236 -0.2549531 0.13360259 0.10911318
0001e0 f3 35 30 be c3 c0 92 be d6 1f 62 bd e8 f2 a4 be
       -0.1720808 -0.2866269 -0.055206142 -0.32216573
0001f0 20 cc bc bd 83 14 5f be 86 e6 8b be 2b f3 06 bc
       -0.09218621 -0.21785168 -0.27324313 -0.008236687
000200 73 33 6e 3e 27 f7 98 3e 4b 4d 23 3e 60 85 64 be
       0.23261814 0.29876062 0.15947454 -0.22316504
000210 b0 69 51 be 3b dd a1 bd 20 0d 91 be c4 ee a7 3e
       -0.20450473 -0.079035245 -0.28330326 0.3279935
000220 40 7b 21 3d 36 ef 66 3d 5e 5d 18 be c3 33 19 be
       0.03942418 0.056380473 -0.14879367 -0.14961152
000230 20 6d 5a 3e 90 02 8c 3e 03 8f 65 3e 4b 3c 10 bd
       0.2133069 0.27345705 0.22417836 -0.03521375

conv1.bias f4 [16]
000000 8b 85 ab bd 32 3a 9b be b0 a3 e4 3d e8 a6 63 be
       -0.08375081 -0.30317837 0.111640334 -0.22231638
000010 76 75 72 be bb af 88 3d 46 f1 a7 bd 9b 07 42 be
       -0.2367762 0.06674143 -0.08200316 -0.18948214
000020 20 80 6a be 16 11 94 bd 2a 3f 86 3e 80 7b 41 bc
       -0.22900438 -0.072298214 0.26220065 -0.01180923
000030 64 c7 8e 3e 40 ae 4d bd 83 ce 92 be f6 71 36 bd
       0.27886498 -0.050215006 -0.2867318 -0.044542275

conv2.weight f4 [16, 16, 3, 3]
000000 56 8d 6d 3c 7b ea 8e bd 6b 28 8f bb 5a e4 8b bd
       0.014499029 -0.06978317 -0.004368832 -0.06830664
000010 bb 6b e9 bc a6 60 9f 3c 56 ba 2b 3b be 2d 6a bd
       -0.028493753 0.019455265 0.0026203594 -0.05717253
000020 ae 36 5a 3d 58 24 95 bd 3c 87 a4 bd ab 5a 5f 3a
       0.053274803 -0.07282323 -0.080336064 0.00085202855
000030 1b e9 a4 bd 40 c5 90 3d 90 d9 a2 3d 2b 8c 03 3c
       -0.08052274 0.070688725 0.07951653 0.008029024
000040 d6 41 43 bd 2e 85 1b 3d ee af 6f 3d eb 84 4c bc
       -0.047670208 0.037968807 0.05851739 -0.012482862
000050 c6 dd c9 bc 73 12 14 3d 76 b2 8d 3d c0 ce af bc
       -0.024641883 0.036150407 0.06918804 -0.02146089
000060 40 ec 3a 3c 33 1d 53 bd b3 39 4f 3d 1c ff 88 3d
       0.011408865 -0.05154152 0.050592136 0.06689283
000070 df 43 83 bd db 60 89 3d e0 e7 18 bd 66 45 d5 3c
       -0.0640943 0.06707927 -0.03733051 0.026034068
000080 cf 40 83 3d e3 11 00 bd 0b 54 a2 3d 36 e6 b4 bc
       0.06408846 -0.031267058 0.07926186 -0.02208243
000090 ab 39 a0 ba 6b 85 1a 3d 98 79 28 bd f0 c2 4b 3d
       -0.0012224218 0.037724894 -0.041131586 0.049746454
0000a0 fb 61 cb bc 76 3c f1 bc cb 80 29 bd 2e 33 1b bd
       -0.024826994 -0.029447775 -0.041382592 -0.037890606
0000b0 47 ac 9a 3d c8 21 6f 3d 4b 8c 70 3c 2c 23 82 3d
       0.075523905 0.058381826 0.014681886 0.06354365
0000c0 ab d8 a1 bb eb 5d 6f 3c 86 8c b6 bc 80 b0 cf bc
       -0.004939159 0.014609794 -0.022283804 -0.025352716
0000d0 eb a9 83 3c 63 78 9f 3d 2b a5 5c bd c3 3f 24 3d
       0.016072234 0.07786634 -0.053868454 0.04009987
0000e0 96 62 f9 3c 16 8f 58 3d 13 1e 7e bd d0 14 fd bc
       0.030442517 0.052870832 -0.0620404 -0.030893713
0000f0 cc 64 90 bd ae 79 2e bd e6 7c 71 bd eb 27 3f bd
       -0.070504755 -0.04259651 -0.058957003 -0.046668928
000100 86 8e fc bc 24 99 a7 3d 40 f7 bd 3c de 6e 4e bd
       -0.03082968 0.08183506 0.023189187 -0.0503987
000110 8b 23 01 3c f6 52 90 3c 68 11 3b 3d a0 63 03 3c
       0.007882009 0.017617684 0.045670897 0.008019358
000120 20 f4 8a 3c 4b 71 af bc 0b 84 09 3d 56 13 4b 3b
       0.016962111 -0.021416327 0.03357319 0.0030986867
000130 96 8c 67 bd 60 a2 4c bc 8e 2f 7e bd 96 b7 0c bc
       -0.056530558 -0.012489885 -0.06205707 -0.008588692
000140 d0 85 e4 3c a0 c9 4e 3d 00 1e 43 bd b6 76 16 3c
       0.027895838 0.050485253 -0.047636032 0.009183576
000150 ee 1d 5f 3d 30 07 43 bd e0 0a a7 bd 36 da 39 bc
       0.054471903 -0.047614276 -0.08156371 -0.011343529
000160 ab 94 05 3d 4b e0 41 3c e0 7d a6 3d 48 3e 0d bd
       0.032612484 0.011833261 0.081294775 -0.034483224
000170 84 90 84 bd 98 7f 2c 3d 80 14 cc 3b 00 04 38 bd
       -0.06472877 0.04211387 0.0062280297 -0.04492569
000180 56 9e 8d 3b 20 f3 88 3c f6 a4 a2 3c d0 c5 c4 bc
       0.0043218536 0.016717494 0.01985405 -0.024020106
000190 4b 61 31 3c 80 a6 32 bb de 7b 23 bd b8 91 72 3d
       0.010826419 -0.0027259886 -0.03991305 0.059221
0001a0 6b 93 9b bd 76 57 52 3c e8 6e 9f bd ff 78 99 3d
       -0.07596477 0.012838235 -0.077848256 0.07493781
0001b0 80 f9 26 bd 80 c2 cd 3c a8 4f 36 bd b6 76 9b bc
       -0.040765285 0.025117159 -0.04450956 -0.018977504
0001c0 d6 4f 8c bd d6 72 aa 3c fe 13 83 3d bc 46 80 bd
       -0.06851165 0.020806711 0.064002976 -0.062634915
0001d0 f6 2f df 3c 0b 20 5a 3d 57 bf 95 bd 50 35 94 bc
       0.02724455 0.053253215 -0.07311886 -0.018091828
0001e0 c0 16 50 bc 2b ab 84 3b 8e 63 25 3d b6 4f 06 3c
       -0.0127007365 0.004048725 0.040378146 0.0081977155
0001f0 04 9c 94 3d 28 0f 03 bd bc e1 89 3d 56 b0 cd 3b
       0.0725632 -0.031996876 0.067325085 0.0062771244
000200 c6 db cb bc 8b 54 79 bd 1b 5c 99 bc 96 3c a5 3d
       -0.02488507 -0.060871642 -0.018720677 0.080681965
000210 00 4e 43 bb 26 a0 d0 bc d6 a7 34 bb 1b e0 89 3c
       -0.002980113 -0.02546699 -0.0027565858 0.016830495
000220 fe 5f 3b 3d eb ec 7e 3d ab 63 90 3c 28 bd 3c 3d
       0.045745842 0.06223766 0.01762565 0.04607883
000230 00 c6 81 bc 20 7b a7 3d 16 12 d3 3c c8 b2 07 bd
       -0.015841484 0.08177781 0.02576546 -0.033129483
000240 46 d2 84 3c 88 57 a8 3d ea 35 94 bd 80 42 20 bd
       0.016213547 0.0821982 -0.07236846 -0.03912592
000250 ae 77 94 3d 48 74 6a bd 0b a2 72 3d e8 db 40 bd
       0.072493896 -0.0572398 0.059236567 -0.04708472
000260 8b 58 81 bc 63 21 83 bd be c9 41 3d 80 a6 a6 bb
       -0.01578929 -0.064028524 0.047311537 -0.0050857663
000270 2b e9 9a bb 66 e1 9a 3c 0e 36 a5 3d cb 60 24 3d
       -0.004727503 0.018906306 0.08066951 0.04013137
000280 eb ae 55 bc 88 c2 0d bd a4 38 9f 3d c8 35 62 bd
       -0.013042192 -0.034609348 0.07774475 -0.05522707
000290 f0 a5 e6 bc d6 da 45 bb 40 08 4c 3c c0 1c 6d bc
       -0.028155297 -0.003019025 0.012453139 -0.014472187
0002a0 2b d0 65 bd 6b c7 5b 3c 44 5e a6 bd 56 51 42 bd
       -0.056106728 0.013414244 -0.081234485 -0.04744085
0002b0 3b bd 25 3d 23 fa 08 bd 0b e2 3c bc c0 3a 7b 3d
       0.040463667 -0.033441674 -0.011528502 0.061335325
0002c0 8e 3e 19 bd 88 50 1d 3d c6 90 70 bd 1b 0c 98 bd
       -0.037413172 0.03840688 -0.058731817 -0.07424184
0002d0 e6 fa 08 3d 8e 4f 2c bd 56 4c 78 bc 26 c6 a9 3c
       0.0334424 -0.042068057 -0.015154919 0.020724367
0002e0 d8 52 2e bd 2b c7 51 3d c0 02 2a 3c 9b 62 79 bd
       -0.042559475 0.051215332 0.010376632 -0.060885053
0002f0 eb d3 48 bc 0e 6b 0b bd 43 e1 2e bd 76 2e 66 bc
       -0.012257556 -0.034037642 -0.042695295 -0.014049163
000300 f6 b7 a6 3c e6 2d 91 3c 38 ab 06 bd 8b f0 60 bd
       0.020351391 0.017722081 -0.03287813 -0.0549169
000310 b6 e2 51 bd 4b b8 16 bc f0 fa 71 bd c3 06 45 bd
       -0.0512416 -0.009199212 -0.059077203 -0.04810215
000320 b8 66 5f bd 9e 4d 7c 3d 7b f2 c3 bc 10 ed 59 3d
       -0.05454132 0.06159746 -0.023919335 0.053204596
000330 2f 32 96 bd be 89 79 3d 10 ff 80 3d 60 34 c0 bc
       -0.073337905 0.060922377 0.06298649 -0.023462474
000340 e6 8f 59 bd c6 1a 47 3d a6 26 e1 bc b3 06 a1 3d
       -0.053115748 0.048609518 -0.02748425 0.07862606
000350 10 52 df 3c df f5 a0 bd e0 95 eb bc 3b bd 82 3c
       0.02726081 -0.07859396 -0.02875799 0.015959373
000360 c6 51 8b 3c 0c 96 82 3d ab 4a 1a ba 6b 0b e4 3c
       0.017006766 0.063762754 -0.000588576 0.027837476
000370 16 75 a2 bd 60 3c 30 bc 0b 28 29 bd 0b 35 68 bd
       -0.079324886 -0.010756582 -0.041297954 -0.05669121
000380 a6 b8 1e 3d cb 3e 0b bd ab 2b a7 3c 86 19 e3 3c
       0.038750313 -0.03399543 0.020406565 0.027722131
000390 e6 17 5d bd ae 3b 85 bd 60 b5 e6 3c d3 e7 24 3d
       -0.05397787 -0.065055236 0.028162658 0.040260147
0003a0 56 f4 cd bc cb fe 69 bd f3 dd 9e 3d 40 d2 5f 3d
       -0.025140923 -0.057127755 0.07757177 0.05464387
0003b0 ab f5 90 3a 76 ad 9e 3d e6 ff 7d 3d 22 d4 9f 3d
       0.0011059543 0.07747929 0.062011622 0.07804133
0003c0 77 60 87 bd ee 50 0d bd 06 f1 a4 3d 8b fe c4 bc
       -0.06610196 -0.03450101 0.08053784 -0.024047157
0003d0 a8 73 2b bd cb 2b a9 3c d3 b0 80 3d 28 77 5d bd
       -0.041858345 0.020650765 0.062837265 -0.054068714
0003e0 70 34 5b 3d 50 48 54 3d 0f ef 96 bd 93 15 54 3d
       0.053516805 0.051826775 -0.073698156 0.051778387
0003f0 80 41 fd bc 80 ec ae bc fb c4 26 bd a0 5d b7 bc
       -0.030915022 -0.021353006 -0.0407152 -0.022383511

conv2.bias f4 [16]
000000 de 22 a7 3d d6 f2 cc 3c bb 12 a7 3d eb 88 ce 3b
       0.08160947 0.025018137 0.081578694 0.006302943
000010 8f 41 82 bd b0 94 bc 3c 06 2c 72 bd a6 fb 95 3d
       -0.063601606 0.023020118 -0.059124015 0.07323389
000020 36 ed 33 bc 6e f1 3c 3d ee c4 19 3d 56 70 82 bd
       -0.010981848 0.046128683 0.037541322 -0.06369083
000030 d6 8d 3b bc 96 01 9a bb 33 c9 74 bd cb fa 09 bd
       -0.011447391 -0.004699896 -0.05976219 -0.03368644

conv3.weight f4 [16, 16, 8, 1]
000000 87 2c 90 3d ff 0e ed bc 8d 03 34 3d e0 8e ba bb
       0.07039743 -0.028937815 0.0439487 -0.0056933016
000010 4a 8d 0f bd b1 63 13 bd 7f b7 15 bd f2 13 89 3d
       -0.035046853 -0.035983745 -0.03655195 0.066932574
000020 8a 9e af 3d 46 3d 88 bd 2f a5 4d 3d 87 92 11 3d
       0.08575161 -0.06652312 0.05020636 0.03554013
000030 ae 60 4b 3d a8 b2 7a 3d b0 17 a1 3d 86 04 10 3d
       0.049652748 0.061205536 0.07865846 0.035160564
000040 db c2 d6 bc 47 58 e3 bb 83 24 95 3d f5 33 05 3d
       -0.026215961 -0.0069380137 0.07282355 0.032520253
000050 e7 4f 42 bb dc 18 0d 3d 1d 79 4e 3b 33 53 eb 3c
       -0.0029649676 0.034447536 0.0031505295 0.028726196
000060 9e 4f 9a 3d bb 79 b1 bd 34 d0 25 bd d9 55 fc bc
       0.07534717 -0.08665796 -0.04048176 -0.030802654
000070 83 e9 39 3d 75 82 7b bd b4 ff 95 bd 44 73 81 bb
       0.04538871 -0.06140371 -0.07324162 -0.0039505083
000080 19 56 29 3d 68 d8 8d bd 51 03 86 bd 1a ba 8e 3d
       0.041341875 -0.06926042 -0.06543601 0.0696909
000090 04 bd b1 3d d0 d9 69 bd f1 51 58 3d 0e 0c 22 3d
       0.0867863 -0.057092488 0.05281252 0.039562277
0000a0 d6 bd a8 bc 24 f2 a8 bc c8 05 88 bd e5 42 64 bd
       -0.020598333 -0.020623274 -0.06641728 -0.055727858
0000b0 68 57 50 3d fc e1 ab 3d 53 f9 9f 3c e9 97 5c 3d
       0.050864607 0.083927125 0.019528067 0.05385581
0000c0 9b 8f d7 3c cb c9 d2 bc eb 3b 11 3d d2 b6 95 bd
       0.026313594 -0.025730988 0.035457533 -0.07310261
0000d0 1a 6e 58 bd eb 0d d7 ba 1a b1 36 bb 8d df 3e bb
       -0.052839376 -0.0016407346 -0.0027876557 -0.0029124946
0000e0 2d 7c b7 bc 6c 1b 5d 3d 63 00 4c 3c 41 9d 5b 3d
       -0.022398079 0.05398123 0.012451264 0.053616766
0000f0 c0 a3 8d bc 5e 5a 24 3d 03 02 82 bd 57 e6 5d bd
       -0.017289996 0.040125243 -0.0634804 -0.054174747
000100 71 6f 5c 3d 07 c1 5d bd 56 5a 9f bd 87 70 9f bd
       0.053817216 -0.054139163 -0.07780902 -0.07785135
000110 6b 42 9d bc ae 6c 16 bc 85 97 5f bd 5a 88 0d 3d
       -0.01919671 -0.009181185 -0.05458786 0.034553863
000120 6e 40 90 3d 93 5d f1 bc 0d 7b 43 3d 75 27 00 3d
       0.07043539 -0.029463565 0.047724772 0.03128763
000130 37 80 aa bd a8 b5 05 bd d9 7f 12 3d 25 9f e7 b8
       -0.08325236 -0.032643944 0.035766456 -0.00011044581
000140 5d 7d e2 3c b5 3c 92 ba a4 58 53 3d 3e 81 af bd
       0.027647668 -0.0011157008 0.051598206 -0.08569573
000150 0f 89 2e bc e4 3c 6b 3d 43 44 88 3d 98 d5 30 bc
       -0.0106527945 0.057431117 0.06653645 -0.010793112
000160 4c 78 4c bd bc 9a 11 3c ad 68 39 bd b7 ee 9c bb
       -0.04991941 0.008886989 -0.045265842 -0.004789199
000170 34 c1 85 3c 9e 14 ce 3b 82 b5 76 3d ea 2e 3f bd
       0.016327478 0.006289079 0.060231693 -0.0466756
000180 31 2d 80 3d e4 bf 6c bc d9 98 a8 bc 53 c7 9d 3d
       0.062586196 -0.014450047 -0.020580696 0.07704034
000190 cb 25 12 3d 9d 3b b3 bd 50 68 1b bd 10 98 0d 3d
       0.035680573 -0.08751605 -0.037941277 0.034568846
0001a0 92 24 c6 3b 75 4e bb 3c 08 b7 97 3c c7 1c 10 bd
       0.00604684 0.02286456 0.018519893 -0.035183694
0001b0 09 1b 1e 3d e8 34 4f bd 43 da c8 3c d9 ef a7 3c
       0.0386 -0.050587565 0.024518138 0.02050011
0001c0 69 78 8c bd 6b fe bf 3c 66 8e 9f bd 32 6b 86 bd
       -0.06858904 0.023436746 -0.07790832 -0.06563415
0001d0 77 e0 47 bd d2 6f 83 bd 7b aa 26 3d e2 24 17 bc
       -0.04879805 -0.064178124 0.040689927 -0.009225102
0001e0 e0 a6 89 bd af 0b a1 3b 27 d6 a3 bd 74 5e 35 bd
       -0.06721282 0.004914723 -0.07999831 -0.04427953
0001f0 96 da 5f 3b e3 d3 14 3c 0d 47 44 bc b7 11 3f 3c
       0.0034157387 0.009083721 -0.01197983 0.011661938
000200 f1 76 8c 3b 79 6a 33 bd 4a 1c 08 bd 16 c4 2d bb
       0.00428664 -0.043802712 -0.033230104 -0.0026514581
000210 c6 47 50 3d a6 f4 37 bc 22 43 65 3d 51 90 3b 3d
       0.0508497 -0.011227762 0.055972226 0.045791928
000220 28 4e 9f 3d c1 66 97 bc 60 fa 47 3d 7f 2c 81 3d
       0.07778579 -0.018481614 0.04882276 0.06307315
000230 39 09 9e 3d b5 de 19 bd 10 33 b6 3c e5 4c a5 bb
       0.07716603 -0.037565906 0.022241145 -0.005044567
000240 0c d2 58 3d fa 65 6e 3d b4 66 42 3b 77 0e 99 3b
       0.05293469 0.05820272 0.0029663267 0.004670914
000250 41 d7 9e bd 70 69 8d 3c 02 1e 8b 3d 13 6c 84 bd
       -0.077559 0.01726219 0.06792833 -0.06465926
000260 29 61 31 3c 13 ae 9f 3d 2f 5f 15 3d 76 d0 96 bd
       0.010826387 0.07796874 0.036467727 -0.073639795
000270 1c eb 42 3a 09 fe ae 3d 94 fa 57 bd d2 33 a6 3d
       0.0007435547 0.08544547 -0.052729204 0.08115353
000280 34 98 96 bd ce c7 da 3c c5 4d a2 bb 47 e9 40 bd
       -0.07353249 0.026706602 -0.0049531185 -0.04709747
000290 26 0d 3f 3d d5 a2 9a bd 01 89 a4 3c 87 bc 4f bd
       0.0466434 -0.07550589 0.02008486 -0.050716903
0002a0 09 65 96 bc e7 7b f3 bb 38 15 81 bc 65 d5 99 bd
       -0.018358724 -0.007430542 -0.015757188 -0.07511405
0002b0 a3 22 37 3d fc 49 8c 3d 78 24 6a 3d fd 7f 96 bd
       0.044710767 0.06850049 0.057163686 -0.073486306
0002c0 18 bb b0 bd bb 24 5a 3c 88 20 32 bd e6 c4 b1 bd
       -0.08629435 0.013314421 -0.043488055 -0.086801335
0002d0 04 ac 81 bd 32 cc 55 bd d4 f8 f5 bc d3 e4 9e 3c
       -0.063316375 -0.05219669 -0.030025877 0.019396221
0002e0 8b 21 57 3c f5 3a 26 3d 61 92 16 3c 52 1a 1d bd
       0.013130556 0.04058357 0.009190173 -0.03835518
0002f0 a0 b9 ab bc b8 4b 45 bd 6e 25 aa bd f1 2d 4c bd
       -0.020962536 -0.048167914 -0.083079204 -0.0498485
000300 68 dd a3 3d 82 01 f3 3c bc 27 b4 bc 69 e3 ff bc
       0.08001214 0.029663805 -0.021991603 -0.031236367
000310 aa 70 e5 bc f3 fa d8 bb 1d 43 4b bd e3 ba 76 bd
       -0.028007824 -0.0066217124 -0.04962455 -0.060236823
000320 7e 15 56 bd f2 f8 48 3d c5 53 b4 bd 4e 6f ac 3d
       -0.05226659 0.049065538 -0.0880504 0.08419667
000330 ad 47 ae 3d 24 99 1c bd 43 21 bc bc 22 3e 03 3c
       0.08509765 -0.038231984 -0.02296508 0.008010419
000340 4c 5f d8 bb 46 49 13 3d eb 90 4f 3d 9c b6 98 bd
       -0.006603157 0.03595855 0.050675314 -0.07456705
000350 f0 ee f4 bc 07 96 6e bd 0f 36 1e bd 00 02 d0 3c
       -0.02989909 -0.058248546 -0.038625773 0.025391579
000360 32 5d a4 3d 2e 34 ae bd b2 62 59 3d cd 16 9c bd
       0.08025588 -0.08506046 0.05307264 -0.076215364
000370 0f 4f 10 bc 8f 6a 16 bd 37 d5 31 3d ea bf 35 bd
       -0.008807912 -0.036722716 0.04341623 -0.044372477
000380 db dd fc 3c f8 b8 b1 3d 27 b7 b7 3c 1d 37 49 3d
       0.030867508 0.08677858 0.022426201 0.049124826
000390 9a 21 96 bd 14 89 76 3c 72 69 d3 3c a2 fb 3f 3b
       -0.07330628 0.01504733 0.025807116 0.0029294272
0003a0 40 93 a0 3d 87 23 dc bb 4e 36 e1 ba c0 ef 7d bd
       0.07840586 -0.0067181024 -0.0017182322 -0.06199622
0003b0 9d b2 b2 bd 19 a3 6a bd 23 b6 04 bd 2a 73 1d bd
       -0.08725474 -0.05728445 -0.03240026 -0.038439907
0003c0 a1 83 3c 3d 07 cc 90 bd 12 f7 b0 bd 57 f2 24 3c
       0.04602397 -0.07070165 -0.08640875 0.010067544
0003d0 c2 0d bf bc 4e 44 d6 bc 41 cb 8a 3c af 92 b1 3d
       -0.02332199 -0.026155617 0.016942622 0.08670556
0003e0 55 3b 24 3c a7 a1 4c bb 44 a9 24 3d 76 8d 29 3d
       0.0100239115 -0.0031224282 0.040200487 0.041394673
0003f0 83 c5 12 3d 14 50 31 bd de 4b 4f bd f9 0b 79 3c
       0.035832893 -0.04328926 -0.050609462 0.015200608

conv3.bias f4 [16]
000000 16 f1 40 3c 40 eb 23 3a 72 3b 2c 3d f6 4a 81 bd
       0.011776229 0.00062530115 0.04204888 -0.06313126
000010 09 59 8f 3d a0 23 a1 3d 3d c5 a4 3c 4b 56 97 3d
       0.06999404 0.07868123 0.020113582 0.07389506
000020 65 a0 50 3d a0 70 7f bd 91 00 81 3d 5f 55 af bb
       0.050934214 -0.062363267 0.06298936 -0.005350753
000030 d1 1a 3b 3d 92 8d 87 bd 2f 77 32 3d 29 b1 7f 3d
       0.04567987 -0.06618799 0.043570694 0.062424812

tcn.tcn.0.conv1.weight f4 [16, 16, 5]
000000 93 97 9f bd 6a f3 8b bd 5e 21 a1 bd aa 8c 4f bc
       -0.07792582 -0.06833537 -0.078676924 -0.012667814
000010 4a c5 c6 3d a8 6f 8a 3d 9e d7 bd 3d 00 f6 8f bd
       0.09705599 0.06759578 0.09269641 -0.07029343
000020 a0 e8 ab bd 8f 2c d9 bc 93 83 07 3d a5 4e 32 bc
       -0.08393979 -0.026510505 0.033084463 -0.010883008
000030 5e b1 23 bd c4 55 ed 3c 65 68 b3 3d f9 ef a5 3d
       -0.039964072 0.02897156 0.08760146 0.08102412
000040 89 e2 53 ba d8 a7 ca 3d b6 c2 0d 3d 27 41 19 bd
       -0.00080827676 0.09895295 0.03460952 -0.03741565
000050 df 1f b0 3d 0e 7d 6f bd 2e c6 db bc 32 98 77 3c
       0.08599829 -0.05846887 -0.026827898 0.01511197
000060 5c dc 63 3c 8f 99 c0 bd 61 95 bc 3d 9f 3d 22 3b
       0.013907518 -0.09404289 0.09208179 0.0024755967
000070 e2 fb bd bd 33 c7 62 3c aa 41 5a 3d c4 e4 02 bd
       -0.092765585 0.013841438 0.05328528 -0.03195645
000080 89 d5 dd bd 97 4d b2 3d 36 b1 b8 3c 80 2a 9d 3d
       -0.10831744 0.08706205 0.022545438 0.07674122
000090 ee 6b be bd 48 de 7d 3d 7c 5b 22 bd 96 c1 c6 bd
       -0.0929793 0.061979562 -0.039638028 -0.09704892
0000a0 9e 49 d3 bd 24 71 00 3d 62 a8 4b 3d d5 f1 c8 3c
       -0.10316776 0.0313579 0.04972113 0.024529377
0000b0 a4 e4 0c 3d c5 eb dd bd a3 c7 ca bd 20 72 47 bd
       0.034397736 -0.10835985 -0.09901359 -0.048692822
0000c0 b5 6f 75 3d 21 f6 0d bd 38 64 0b 3d 1e d4 64 3d
       0.059920985 -0.034658555 0.034031123 0.055866353
0000d0 c7 57 ab bd 36 33 52 3d c5 4a a9 3c b0 41 d0 bd
       -0.083663516 0.05131837 0.020665536 -0.10168779
0000e0 6f 93 06 bd 1f ac 94 3d ef 24 01 3c f2 8e 1b 3d
       -0.032855447 0.07259392 0.007882341 0.03797812
0000f0 d0 4c 80 3d eb a5 30 3d d4 ac 5b 3c e1 7a 9c 3d
       0.06264651 0.04312698 0.013407905 0.07640625
000100 14 e7 25 3d 0f 03 fa 3c e0 b0 d7 3c 06 38 6a bd
       0.040503576 0.030519037 0.026329458 -0.057182334
000110 f9 a7 db bd a5 95 cf bd 0d 25 df bb 57 1b 97 3d
       -0.107253976 -0.10135964 -0.0068098367 0.073782615
000120 c2 f1 2e 39 ff ee d8 bd 0f 7c dc 3c 00 45 92 3c
       0.00016683995 -0.1059246 0.026914624 0.017855167
000130 4c 32 6c bc b3 54 15 bd aa a9 b1 bd 54 46 6f 3d
       -0.014416289 -0.03645773 -0.08674939 0.05841668
000140 0a 68 b4 3d 1e 62 63 3d 04 f4 c6 3d 78 c5 1e 3d
       0.088089064 0.055513494 0.09714511 0.03876254
000150 f2 5e d4 3d 34 2d 0d 3d e9 75 a1 bc d2 2c ac 3d
       0.10369672 0.034466937 -0.019709544 0.08406986
000160 65 2b 21 3d f0 26 db 3d f8 1e 18 3c 94 90 22 3c
       0.039348025 0.10700786 0.009284727 0.009922165
000170 3d 64 4a bd 6c 4a 0a bd 8a 0c d1 bd f5 98 1f bd
       -0.049412 -0.03376238 -0.1020747 -0.03896423
000180 fa f8 5f bd 0f 1e c2 bd e3 9b d8 bd 3b fd 6a bd
       -0.054680802 -0.094783895 -0.10576608 -0.057370406
000190 cb 6a b4 bd 43 da e2 bb a5 a5 a4 3d 05 f5 a1 bd
       -0.08809432 -0.0069229915 0.08039407 -0.07908062
0001a0 59 cf 8e bd 1d ea 94 bd d4 0f c3 3d b8 10 81 3d
       -0.06973142 -0.07271216 0.09524503 0.06302017
0001b0 25 c7 c3 bd 16 74 af bd 5b 89 9b 3d e6 ea 47 bd
       -0.09559468 -0.085670635 0.07594558 -0.048808
0001c0 1a e7 6f bd 08 ec 02 3d de 69 32 3d d5 0b ea 3c
       -0.058570005 0.03196338 0.043557994 0.028570095
0001d0 69 b6 0b 3d 74 22 93 3c 78 a9 1b 3d da 48 ca 3d
       0.034109507 0.017960764 0.038003415 0.098771766
0001e0 0f 1b 1a 3d ca 0c 57 3d e9 5c 57 3d 6d 38 33 3c
       0.03762346 0.05250243 0.05257884 0.010938746
0001f0 00 f3 4c 3d a2 83 ce 3d 3b 3e 5c 3c 54 38 bb ba
       0.05003643 0.10083701 0.013442571 -0.0014283755
000200 03 97 53 3d 0f 1d cc 3d 79 c0 8b 3d 23 2a 19 3d
       0.051657688 0.0996648 0.068238206 0.0373937
000210 57 cf 4f 3d c3 13 ad bd b8 0b a1 3d 65 a6 39 3c
       0.050734844 -0.08451035 0.07863563 0.011331175
000220 42 47 9c 3d ee cd b4 3d a0 e8 22 3c 43 05 82 bd
       0.07630779 0.088283405 0.009943157 -0.0634866
000230 60 6b 7d bd c6 e9 05 bc ac 57 80 3d 2a 63 3b 3d
       -0.06186998 -0.008173412 0.06266722 0.045748867
000240 59 52 c9 3b c3 45 96 bd 1f 58 70 bd ab 05 99 3d
       0.00614385 -0.07337525 -0.05867779 0.07471784
000250 c5 07 c6 bd e9 60 e4 bd 3b 05 ab bc 82 94 94 3d
       -0.09669451 -0.11151297 -0.020876518 0.07254888
000260 c3 ac a6 bb 13 8f a0 bd 2c e7 94 3c e0 0a 1a bd
       -0.005086513 -0.07839789 0.018176638 -0.037608027
000270 74 66 82 bd 1c 01 15 3d a5 67 c9 3c 0c 06 3c bb
       -0.06367198 0.03637801 0.024585554 -0.0028690128
000280 82 c4 ab bd bd b8 c8 bd 59 28 9a 3d 59 9b d1 bd
       -0.0838709 -0.09800861 0.07527227 -0.10234708
000290 7c f0 5a 3d 8b 82 45 bd 0c f3 3f bd e6 bb a3 3d
       0.053452 -0.0482202 -0.046862647 0.07994823
0002a0 80 20 c3 3d 2d 8a ed 3c bd 4b d9 3d 7a 5d 8f bc
       0.09527683 0.028996551 0.10610149 -0.017500628
0002b0 ef eb 8a bd 07 f5 c0 3d 78 7e 3b 3d 89 e4 6a bd
       -0.06783282 0.09421735 0.045774907 -0.057346854
0002c0 44 7a 34 3d 6e df 8b bd 64 b9 ba 3d 2e af 6c 3a
       0.044061914 -0.06829725 0.09117392 0.00090287894
0002d0 53 5c 9d bd 70 ab 83 3d a4 5d bf 3d 15 ab 26 bc
       -0.07683625 0.064291835 0.093440324 -0.010172625
0002e0 c7 13 ed bc 0b a1 a6 bd 73 79 9b bc 5e c7 25 bd
       -0.028940095 -0.08136185 -0.01897881 -0.040473334
0002f0 98 2b fe 3c 55 06 02 bb 35 45 95 bd 34 e8 b0 3b
       0.031026646 -0.00198402 -0.07288591 0.0053987745
000300 1f 1f 64 3d 40 97 ac 3c e7 91 7b bd 21 d9 1d bd
       0.055693742 0.021068215 -0.06141844 -0.03853715
000310 ae e5 ad 3c 29 55 df bd b2 c5 d5 bd d6 8f 9d 3d
       0.021227684 -0.10904915 -0.10438098 0.0769345
000320 a4 fd 20 3d 42 d4 95 3d 31 5c 73 3d 34 05 c9 bb
       0.03930439 0.073158756 0.059414092 -0.0061346535
000330 5e 8e 3f 3d 86 61 58 bd dc dc b3 bd 9a 1e b8 3d
       0.04676663 -0.05282738 -0.0878236 0.08990212
000340 6b ae 6f 3d c1 9c c2 3d de 8a 69 3d 96 3a d6 bd
       0.058515947 0.09502555 0.0570172 -0.10460393
000350 72 5d 0c 3c 55 c1 44 bc 35 6a f0 bc a1 ac c9 bd
       0.008567201 -0.012008985 -0.029347518 -0.098473795
000360 57 cc 24 37 14 f6 09 bd f2 ca df bd ab c9 32 3d
       9.822738e-06 -0.033681944 -0.109273806 0.043649357
000370 8b c3 9c bd d9 33 4d 3d 0e ec 8f 3c a6 3c 0f bd
       -0.07654484 0.050098274 0.017568614 -0.03496995
000380 56 8c bd bd c4 2b 83 3d 09 36 88 3d f0 fa 16 3c
       -0.092552826 0.06404832 0.066509314 0.009215102
000390 5d fc 5a 3d 3c 40 88 3d f2 45 65 3d 24 85 7a 3d
       0.05346333 0.06652877 0.05597491 0.06116213
0003a0 08 ba 67 3d 57 bf 58 bd 9e 08 4b bc fb ab f3 bc
       0.056573898 -0.05291685 -0.012392191 -0.029745093
0003b0 a6 22 40 bd 3c c4 3a 3d d3 ea b8 bd 72 e5 d5 bc
       -0.046908043 0.0455973 -0.09029164 -0.026110385
0003c0 ad 06 8b bd 9c 5c ce bd 63 f9 da bd f3 53 9f bc
       -0.06788383 -0.100762576 -0.10692098 -0.01944921
0003d0 e5 67 65 bd 90 b2 4d bc b1 23 af 3d a9 30 dd 3d
       -0.056007285 -0.01255478 0.085517295 0.10800297
0003e0 24 f7 81 3d 65 28 8d 3d d5 5d cb bd d0 5b ac 3d
       0.063459665 0.0689247 -0.099300064 0.08415949
0003f0 4a 5b e2 bd f0 81 53 3d 83 6e d2 bd 6e e1 1c 3d
       -0.11052568 0.05163759 -0.10274985 0.038300924

tcn.tcn.0.conv1.bias f4 [16]
000000 6d ec ff 3c 78 78 0a 3d 07 5f 43 3d 6d dc 0d bc
       0.031240666 0.033806294 0.047698047 -0.008658511
000010 c3 30 22 3c 24 02 d7 3d 24 44 e3 bc 05 77 cc bd
       0.009899321 0.10498455 -0.027742453 -0.09983639
000020 a4 2a 30 3c f3 5b a6 3d 2a aa c2 bd ed 82 6e bd
       0.010752354 0.08123007 -0.095051125 -0.05823033
000030 0c ce a4 bd 65 6e 4f bd 47 be 4f 3d 3b f2 2d bc
       -0.08047113 -0.05064239 0.050718572 -0.010616834

tcn.tcn.0.conv2.weight f4 [16, 16, 1]
000000 e0 93 00 be e0 74 a0 bc a0 a3 66 bc 1a f8 0d be
       -0.1255641 -0.01958698 -0.014077097 -0.13864174
000010 80 4c 51 3d ae 53 50 3e fc df db 3d ec 71 4f be
       0.051098347 0.20344421 0.10736081 -0.20258301
000020 bc 81 b7 3d 36 23 54 3e 3c 80 9e bd b0 c6 d3 bc
       0.08960292 0.20716557 -0.077393025 -0.025851578
000030 a2 48 0b be 4c 8d 3d be 30 01 97 3c 58 5e 67 3e
       -0.13601926 -0.18510932 0.018433183 0.22594583
000040 90 38 bb bd 32 c4 68 be f2 09 72 3e a0 38 be 3c
       -0.09141648 -0.22731093 0.23636606 0.02322036
000050 18 67 bc bd cc 2b ad bd a8 91 4c 3d 02 f1 67 3e
       -0.09199351 -0.08455619 0.049943596 0.22650531
000060 f2 d7 68 3e b0 cd c9 3d 86 6b 5a be e8 15 7c 3e
       0.22738627 0.09853685 -0.2133008 0.24617732
000070 08 9b ab bd 18 83 63 3e 10 70 1b 3d 0a 98 46 be
       -0.08379179 0.22217977 0.037948668 -0.19393936
000080 90 bd 09 3e 32 00 59 be 00 c0 a2 b7 96 4c 78 3e
       0.13451219 -0.21191481 -1.9401312e-05 0.24247965
000090 00 2d c4 3c ec be 2d 3e cc 6a 5a be ac 2e dd bd
       0.023947239 0.16967362 -0.21329802 -0.107999176
0000a0 44 ff da 3d d0 db 5b 3e c0 c7 68 3c a0 5a b9 bc
       0.10693219 0.2147057 0.01420778 -0.022626221
0000b0 40 90 96 bb b0 08 85 bd d0 7b 20 3e 70 79 03 3e
       -0.0045948327 -0.06495798 0.1567223 0.12839293
0000c0 60 5b 07 be 38 db 3b be 2e 49 2c 3e d0 77 ec 3d
       -0.1321845 -0.18345344 0.16824791 0.1154629
0000d0 b8 62 cc bd e0 78 4b bd 92 00 12 be 6a 08 5e 3e
       -0.099797666 -0.049675822 -0.1425803 0.21682897
0000e0 e0 d7 66 3e 38 76 19 3d e4 ef a6 3d 1e f3 28 be
       0.22543287 0.037466258 0.08151224 -0.16498992
0000f0 6e f0 15 be 50 53 c3 3d f0 68 f1 bd 88 9c 41 3e
       -0.14642498 0.09537375 -0.11787593 0.18907368
000100 ea 1a 7c 3e 6c 0f 2a be 90 1d 01 be a0 b8 1f 3e
       0.24619642 -0.16607445 -0.12608933 0.15597773
000110 ae 36 70 be 1a 5d 57 be 32 aa 05 3e 00 60 4e ba
       -0.23458359 -0.21031609 0.13053206 -0.00078725815
000120 e8 c1 70 be a0 9a bf 3c 4c 1f 57 be ec 36 bf bd
       -0.2351147 0.02338916 -0.21008033 -0.093366474
000130 f0 e5 e7 bc 08 92 fe 3d e8 49 97 3d 0c fc 12 3e
       -0.028307885 0.12430197 0.073871434 0.14353961
000140 c0 78 62 3c 84 1a d2 bd 04 d5 fe bd f0 e8 52 be
       0.013822734 -0.10258964 -0.12442973 -0.20596671
000150 00 56 74 3b 30 3c be bc 18 3b d9 3d 82 d5 5b be
       0.0037282705 -0.023222059 0.10606974 -0.21468166
000160 78 b6 8d 3d ce 46 08 be 88 5e 7b be 20 1f d5 bc
       0.06919569 -0.1330826 -0.2454778 -0.026015818
000170 d2 fc 6f 3e 48 b7 89 bd 2c 7e ac bd 84 54 e6 bd
       0.23436287 -0.06724411 -0.08422503 -0.11246589
000180 b8 bc 2d be 78 4f 7e be 74 71 52 3e 6e f8 6d 3e
       -0.16966522 -0.24835002 0.20551091 0.232393
000190 c6 0c 5a 3e e4 7b f8 3d aa 34 12 be 42 f8 6f be
       0.21293935 0.12133005 -0.14277902 -0.23434547
0001a0 50 dc 7b 3e 20 09 41 3e d8 b9 c1 3d 00 74 5a 3b
       0.24595761 0.18851137 0.09459275 0.0033333302
0001b0 f8 60 e1 3d b8 e6 cd bd da 2a 2c be 70 3b 30 be
       0.110048234 -0.10053772 -0.16813222 -0.17210174
0001c0 7a 3c 50 3e b2 a8 55 3e 18 e5 0e 3e 60 7e 66 3e
       0.2033557 0.20865133 0.1395458 0.22509146
0001d0 a0 f8 87 3d ce 04 22 3e 70 b8 68 3d 50 15 8f 3d
       0.06639218 0.15822145 0.05681652 0.06986487
0001e0 d8 17 f3 bd 1e 2a 79 3e 98 5e 2e 3e 46 ae 7c 3e
       -0.11869782 0.24332473 0.17028272 0.24675855
0001f0 8e 78 5e be 54 09 5a 3e 12 61 54 3e f0 a9 6e 3d
       -0.21725675 0.21292621 0.20740154 0.058267534
000200 f0 9e f8 bc 88 85 4d bd 68 ca c0 bd 00 52 d6 bc
       -0.030349225 -0.050176173 -0.09413606 -0.026162148
000210 f8 71 b8 bd b4 4b db bd 78 9b d7 bd 14 e0 90 3d
       -0.09006113 -0.107077986 -0.105277 0.070739895
000220 48 27 db bd 68 1d 40 3d 92 4f 0c 3e fc 96 a2 3d
       -0.10700852 0.046903044 0.13702229 0.07938954
000230 80 e3 2c be 30 23 37 3e 7c 6f a1 bd b8 dc 63 be
       -0.1688366 0.17884517 -0.07882592 -0.22252166
000240 00 50 9e 3d 00 94 b9 3b d8 db 0b bd c8 8c 0e 3d
       0.077301025 0.005663395 -0.034145206 0.03480223
000250 40 78 05 3d c8 61 5c 3d 10 f9 e2 bd 04 0a 5a 3e
       0.032585382 0.05380419 -0.11082661 0.21292883
000260 e0 c1 05 bd d8 ad 82 3d 34 8a 01 3e 60 d5 d3 bc
       -0.032655597 0.06380814 0.12650377 -0.025858581
000270 54 c7 cf bd dc 3c 81 3d 8a 3a 5c 3e 30 f9 69 3e
       -0.10145441 0.06310436 0.21506706 0.22848964
000280 38 32 48 3d 84 0f e7 3d cc 34 27 be 82 27 46 3e
       0.048876017 0.11282256 -0.16328734 0.19351009
000290 92 7e 0b be cc c9 86 bd 00 ad 57 3e 10 10 d2 bd
       -0.13622501 -0.065814584 0.21062088 -0.1025697
0002a0 08 cb 78 be 64 0e 2b 3e f4 ef d7 bd 0c 4b 4c 3e
       -0.242962 0.16704708 -0.10543814 0.19950503
0002b0 be 2b 01 3e f4 a2 48 3e 5c 3a 5b 3e d0 f2 2e 3e
       0.12614343 0.19593412 0.21408981 0.17084813
0002c0 da 9d 3b 3e 28 45 1d bd a4 eb 99 bd c8 89 d7 bd
       0.18321934 -0.03839603 -0.07515648 -0.105243266
0002d0 a4 74 c9 3d 5a f7 14 be c0 1d 5d 3e 3e a4 01 be
       0.098367006 -0.14547482 0.2159338 -0.1266031
0002e0 ca f5 24 be c0 3e 4d 3c 4c 20 e4 3d 68 6e 40 bd
       -0.16109386 0.012527168 0.11138973 -0.04698029
0002f0 88 35 d9 3d d8 a2 f1 bd f0 31 d3 bc c0 00 e3 3c
       0.106059134 -0.11798638 -0.025780648 0.027710319
000300 88 96 7b 3e 82 8a 00 3e 2c 62 86 3d 60 3f 5b 3c
       0.24569142 0.12552837 0.065616935 0.013381809
000310 e0 9e e1 bc 40 aa 47 3c 2c 65 fe 3d 94 37 aa bd
       -0.027541578 0.012186587 0.12421641 -0.08311382
000320 c0 93 9e 3b 0e a5 33 3e 00 f8 c9 39 80 12 68 bc
       0.0048393905 0.17543432 0.00038522482 -0.014164567
000330 14 c9 78 3e dc e7 4c be 10 a3 82 bc e4 0e 91 3d
       0.24295455 -0.20010322 -0.015946895 0.07082918
000340 c0 36 63 3d 80 fd 47 3c 30 51 c1 3c 0e db 5d 3e
       0.055472136 0.012206435 0.023598284 0.21665594
000350 18 4f c7 3d 00 37 db 3b 04 2e 71 be 78 aa 08 be
       0.09731883 0.006689906 -0.2355271 -0.13346279
000360 d0 9c 59 bd 38 6a 4b 3e 98 c5 0b be 80 99 98 bb
       -0.053128064 0.19864738 -0.13649595 -0.0046569705
000370 60 10 73 3d 3e 2f 11 3e 90 7d 2c bd 00 b1 d0 ba
       0.05934179 0.14178178 -0.042111933 -0.0015921891
000380 b0 3e 9b 3c a2 46 5c be d2 b7 48 be e6 54 05 3e
       0.01895079 -0.2151132 -0.19601372 0.13020667
000390 32 fc 45 be c2 0b 59 3e 3e 4d 1f be e6 df 74 3e
       -0.19334486 0.21195891 -0.1555681 0.23913535
0003a0 b4 58 3c be 80 87 7d bc f4 1b 45 3e d4 cd 9d bd
       -0.18393213 -0.0154742 0.19248945 -0.07705274
0003b0 f0 b1 1f bd a8 f8 79 be 58 b7 2f be 70 40 99 bc
       -0.038988054 -0.24411261 -0.17159784 -0.018707484
0003c0 78 8a 8b 3d 98 ff 2d 3d aa 30 67 be 10 d6 26 be
       0.0681352 0.04248008 -0.22577158 -0.16292596
0003d0 d4 ef b4 3d 70 77 18 3e 98 73 07 bd 8a 27 25 3e
       0.08834806 0.14889312 -0.033069223 0.16128364
0003e0 de 89 6b 3e 14 6b 87 bd 64 76 87 3d 80 3c bc 3b
       0.23001811 -0.066122204 0.06614378 0.005744517
0003f0 78 80 46 3e bc 0f 51 be 18 f0 35 bd 56 39 51 3e
       0.19384944 -0.20416158 -0.044418424 0.20432028

tcn.tcn.0.conv2.bias f4 [16]
000000 f0 57 1e 3e bc 6f b8 3d 50 a5 25 be 90 80 37 bd
       0.15463233 0.09005687 -0.16176343 -0.04480034
000010 98 7f 65 3e e0 b7 b5 bd 20 f3 3d bd f0 5e 14 be
       0.22411954 -0.08872962 -0.04637444 -0.14489341
000020 90 5a 5b be d8 b8 26 3e e4 43 55 3e 10 12 04 bd
       -0.21421266 0.1628145 0.2082668 -0.03224379
000030 7c 93 43 3e 74 e6 b4 3d 40 b6 55 bc 2c 91 a2 bd
       0.1909923 0.08833018 -0.01304394 -0.079378456

tcn.tcn.0.res_conv.weight f4 [16, 16, 1]
000000 5e 9e 5d be 1a c6 62 3e e0 dd 9d 3c d4 ae da bd
       -0.21642444 0.22145882 0.019270837 -0.10677877
000010 e0 f5 8a 3c 14 53 55 3e 98 13 09 3e 18 c7 46 3e
       0.016962945 0.20832473 0.1338638 0.19411886
000020 50 f8 5f 3d 10 fe 58 3e ac a3 c7 3d 54 43 e1 bd
       0.05468017 0.21190667 0.09748015 -0.1099917
000030 48 8c 60 3d 98 d7 01 3e 5c 93 6d be 10 fd e5 bc
       0.054821283 0.12679899 -0.23200744 -0.028074771
000040 60 61 8c bd 2c 0c 23 3e d8 b4 e7 bd 48 33 e0 bd
       -0.0685451 0.15922612 -0.1131379 -0.10947281
000050 96 80 59 be 70 c2 42 bd 58 e9 a7 3d 96 d6 17 be
       -0.21240458 -0.04754871 0.08198804 -0.14827952
000060 f0 9d 31 3e ae 8f 3d be 88 fe 40 3d 8c c5 cd bd
       0.17345405 -0.1851184 0.04711774 -0.10047445
000070 44 7e 04 be f0 39 d4 bc 76 c9 32 3e 62 b4 17 be
       -0.12938792 -0.025906533 0.17459664 -0.14814904
000080 e4 ff 84 3d 1a cb 44 be 80 dd 54 be 38 01 3f bd
       0.0649412 -0.19218102 -0.2078762 -0.04663202
000090 f6 66 02 be 28 19 67 bd f8 c7 85 bd 7c 6e 18 be
       -0.12734589 -0.056420475 -0.06532282 -0.14885896
0000a0 70 80 e4 3d 94 a9 9b bd 84 b1 67 3e c2 89 24 3e
       0.1115731 -0.07600704 0.2262631 0.16068175
0000b0 44 cd 7e 3e 94 8b 09 3e c0 14 58 3d 24 f3 d3 bd
       0.2488299 0.13432151 0.052754164 -0.1034911
0000c0 82 b6 08 3e b0 ca 7b 3d 50 02 00 3e 78 de 3e be
       0.13350871 0.061472595 0.12500882 -0.18639553
0000d0 e4 27 6f be 90 3c 00 3e c8 eb d9 bd 6c 17 21 3e
       -0.23355061 0.12523103 -0.10640675 0.15731591
0000e0 d4 03 7e be 98 c0 fe 3d 78 78 66 be ac f5 2b 3e
       -0.24806148 0.12439078 -0.22506893 0.16792935
0000f0 50 43 bb 3c 5c 2d 8d 3d 68 8e e6 bd a4 90 84 bd
       0.022859246 0.06893417 -0.112576306 -0.064729005
000100 90 a1 82 bc 20 91 b8 3c 00 56 14 bc 10 54 44 3e
       -0.01594618 0.022530138 -0.009053707 0.19172692
000110 80 43 00 3b d6 fa 50 3e f4 2c 8c bd 30 14 10 3d
       0.0019571483 0.20408186 -0.06844512 0.035175502
000120 28 2a 38 3d a6 2e 0d be b4 01 94 3d e0 b8 35 be
       0.04496208 -0.13787326 0.07226887 -0.17746305
000130 3c 7b 45 3e 9c 79 c9 3d 00 80 08 3b ba 75 71 3e
       0.19285291 0.09837648 0.0020828247 0.23580065
000140 dc eb 0a 3e 66 c2 53 be 4a b7 72 be c2 90 16 be
       0.13566536 -0.20679626 -0.23702732 -0.14703658
000150 d6 a5 41 be 40 9b a1 bc 00 0c 5c ba d8 22 10 be
       -0.18910918 -0.01972735 -0.0008394122 -0.14075792
000160 e0 6f 25 be d4 1c c1 3d c4 a9 0e be f6 d9 30 be
       -0.16155958 0.09429327 -0.13931948 -0.17270645
000170 d0 30 ac bd 84 08 89 bd e0 4b 18 bc 3c 86 19 3e
       -0.08407748 -0.06691077 -0.009295434 0.14992613
000180 48 22 68 3d 2c 9f a7 3d 78 49 a4 3d 3a d6 45 be
       0.05667332 0.081846565 0.080218256 -0.19320002
000190 f8 2a 4d be cc 05 a1 bd ee 69 76 be e0 ee 36 be
       -0.20035923 -0.07862434 -0.24063846 -0.17864561
0001a0 56 6b 25 be e0 55 7d bd a0 bd 5c bd 92 35 49 be
       -0.16154227 -0.061849475 -0.053891778 -0.19649342
0001b0 e8 f9 7c be fe 5d 62 be 2e ba 69 3e 42 27 46 be
       -0.24704707 -0.22106168 0.22824928 -0.19350913
0001c0 80 e4 5c 3b 40 ae 16 bd e8 ca 6e 3e f8 53 01 3e
       0.0033705533 -0.03678727 0.2331959 0.12629688
0001d0 5a 83 62 3e b0 51 7c 3e 60 f0 d9 3d b2 19 71 be
       0.22120419 0.24640536 0.10641551 -0.23544958
0001e0 80 5d bd 3d 50 ba 7d 3d d8 b2 78 be 00 68 57 bc
       0.09246349 0.06194526 -0.24286973 -0.013147354
0001f0 06 b6 20 be ba 43 7a 3e 50 41 91 3c 7e b6 66 be
       -0.15694436 0.24439898 0.017731339 -0.22530553
000200 76 03 35 be 2c 24 e1 3d ba 69 07 be 00 d7 3a 3e
       -0.17677101 0.10993227 -0.13223925 0.18246078
000210 48 d3 1d 3d 46 c6 29 3e ea 1f 61 3e f0 1c 07 bd
       0.03853157 0.16579542 0.2198483 -0.03298658
000220 50 9d d4 bd 98 db 75 3d d2 8e 46 3e 5c 06 8b 3d
       -0.103815675 0.060023874 0.19390419 0.06788322
000230 30 ca 0f 3e 20 db 8a bd a0 48 14 bc 56 27 59 be
       0.14041972 -0.06780076 -0.009050518 -0.21206412
000240 a2 f6 24 3e 14 db cd bd 06 18 58 3e 7e d7 2d be
       0.16109708 -0.100515515 0.21102914 -0.16976735
000250 76 73 04 3e 7e d3 07 3e ec f1 df bd 46 48 01 3e
       0.1293467 0.13264272 -0.10934815 0.12625226
000260 d4 15 dd 3d 28 df 3f be 8c f4 11 be 18 23 24 bd
       0.10795179 -0.18737471 -0.14253443 -0.04007253
000270 80 20 b2 3b c0 ea 2f 3c a0 d3 62 be 30 11 1e bd
       0.005436003 0.010737121 -0.22151041 -0.03859061
000280 7c 27 04 be 70 5f d2 3c a0 ac 13 bd 00 ad 3f bb
       -0.12905687 0.025680274 -0.0360533 -0.0029247403
000290 b6 b5 71 3e 2c 7a 60 be 40 89 8d 3c 3c 9c 66 be
       0.23604473 -0.21921605 0.01727736 -0.22520536
0002a0 aa 08 28 3e 20 88 36 3d 14 b7 c2 3d d6 41 1c 3e
       0.16409555 0.044563413 0.09507576 0.1525949
0002b0 4e d0 4c be 68 e9 16 bd a0 2e 03 3c 68 21 df 3d
       -0.20001337 -0.036843687 0.008006722 0.108950436
0002c0 e0 c2 6d bc 4c 88 f7 3d d8 ba 55 3e 42 7b 29 3e
       -0.014511794 0.120865434 0.20872056 0.16550925
0002d0 ac 81 e5 bd 80 c1 e6 bc ec 0f 2a 3e 78 7b 0f bd
       -0.112063736 -0.02816844 0.16607636 -0.03502986
0002e0 e0 65 5b bd 46 21 1b be 24 54 fb 3d e0 a6 ef bd
       -0.053563952 -0.15149412 0.12271908 -0.11701751
0002f0 1a 85 1f be 58 0d e8 bd 90 c0 d6 bd e2 c2 75 3e
       -0.15578118 -0.1133067 -0.10485947 0.24000123
000300 be 27 7c be 18 89 e4 3d 74 cc b6 3d 30 d3 23 be
       -0.24624535 0.11158961 0.08925715 -0.1599853
000310 3c cc e9 bd 40 25 9f bd aa 4c 08 be c0 7f ee bb
       -0.11415908 -0.07770777 -0.13310495 -0.0072784126
000320 c8 b4 4a be 78 d0 13 bd 80 4a 5a 3d 10 84 69 be
       -0.19795525 -0.036087483 0.053293705 -0.22804284
000330 a0 f8 f5 3d b0 24 f0 bc 42 57 19 be e0 bf 46 bc
       0.12010312 -0.029314369 -0.14974692 -0.0121307075
000340 a0 5a a5 bd 20 e3 5b 3e 98 e1 17 3e 80 32 87 bc
       -0.08073926 0.2147336 0.14832151 -0.016503572
000350 c0 79 e1 bb 02 bc 63 be 78 e4 42 3e a8 3b 74 3d
       -0.006880969 -0.22239688 0.19032466 0.059627205
000360 d6 cf 04 be 34 fb e8 bd e4 df 16 be 7c 16 e2 bd
       -0.12969908 -0.11376038 -0.14733845 -0.11039445
000370 68 ed 39 bd b0 87 ea bc a8 a3 49 be fc 17 e9 3d
       -0.045392424 -0.028629154 -0.19691336 0.11381528
000380 2c 9e e1 3d f6 b0 0f be 98 59 49 3e 28 97 4a 3e
       0.11016497 -0.14032349 0.19663084 0.19784224
000390 80 1d 83 3d d0 12 92 bd 32 b2 47 3e e8 5b 03 3e
       0.06402111 -0.071324944 0.1950157 0.12828028
0003a0 c8 5c ba 3d 30 29 df bd 20 26 45 3d 24 dd 82 bd
       0.09099728 -0.10896528 0.048132062 -0.063898355
0003b0 0c 60 64 3e 38 07 97 bd e4 ab 1c 3e c8 fa 08 bd
       0.22302264 -0.07374424 0.15299946 -0.03344229
0003c0 52 a7 3c 3e 1c e9 e4 bd f2 11 7f be 68 b5 80 3d
       0.18423203 -0.111772746 -0.2490919 0.062846005
0003d0 f0 80 e8 3c 60 ee b0 3c 24 d4 52 be c6 6d 64 3e
       0.028381795 0.021598041 -0.20588738 0.223075
0003e0 cc 9e b7 3d 00 d8 1c 3d b4 46 2f 3e 98 ee 5a bd
       0.08965835 0.03829193 0.17116815 -0.053450197
0003f0 e0 c5 41 bc f0 3d e0 3d 2c 4d d7 bd 30 b4 dc 3d
       -0.011826962 0.10949314 -0.10512766 0.107765555

tcn.tcn.0.res_conv.bias f4 [16]
000000 70 82 49 be 22 39 40 3e 48 cd 9e bd 18 43 dd 3d
       -0.19678664 0.18771794 -0.07753998 0.10803813
000010 e0 63 75 3c aa 2c 3b be d0 47 ee 3d 1e 4f 08 3e
       0.014977425 -0.18278757 0.11634791 0.13311431
000020 18 42 69 be 04 14 93 3d b2 d1 50 3e b6 7d 29 be
       -0.22779119 0.07181552 0.20392492 -0.16551861
000030 e8 ba 1b 3e 40 06 fe 3d 3c fa 42 be cc 1f 02 3e
       0.15208018 0.12403536 -0.1904077 0.12707442

tcn.tcn.1.conv1.weight f4 [16, 16, 5]
000000 9f cc f1 3a 95 91 a9 bd ae f9 aa bd 02 9a 6b bd
       0.0018447823 -0.08279721 -0.08348404 -0.05751992
000010 f6 39 a7 bd 67 aa 6c 3d 04 ee 85 3d f7 ce 96 3d
       -0.08165352 0.057779696 0.065395385 0.07363694
000020 cb 34 c3 bc b0 95 7a 3d 97 b8 47 3b e2 ee 30 bd
       -0.023828885 0.06117791 0.0030475014 -0.043196566
000030 e3 73 80 bd 94 28 b7 3d a9 39 63 bd 66 e0 a1 3d
       -0.06272104 0.089432865 -0.05547491 0.07904129
000040 1b d9 87 3d 29 6c 5f 3d aa f7 c2 3c 53 98 7f bc
       0.066332065 0.05454651 0.023799736 -0.015600282
000050 28 d5 c1 bd 45 c0 e2 bd 00 58 b6 3d e4 4c d8 bd
       -0.094644845 -0.11071829 0.089035034 -0.10561541
000060 3c c9 87 bd 5a ea be 3c 65 73 ed bb 1b 8f d4 3d
       -0.06630179 0.023305107 -0.007246422 0.10378858
000070 bb 69 62 bd 19 c6 64 3d 5f 68 7d 3d e6 31 5a bd
       -0.055276614 0.055852983 0.061867114 -0.053270243
000080 83 bf 25 bd c0 e0 c1 bd c7 de e3 bd 4d 8c a1 3d
       -0.040465843 -0.09466696 -0.11126476 0.078880884
000090 af 40 0d bc dc c3 3b 3d 48 8e 3e 3d c5 bd a7 3d
       -0.008621379 0.045841083 0.04652241 0.081904925
0000a0 53 3c f8 3c 41 a0 10 3d 9b 93 e3 bc 22 70 43 3c
       0.030302202 0.03530908 -0.027780345 0.01192859
0000b0 25 21 35 bd 64 11 81 3d 72 42 d6 3d 84 d9 47 3c
       -0.044221062 0.06302145 0.10461892 0.012197856
0000c0 db a6 b9 3d dd a4 a6 bd 77 b1 d0 3d 31 97 8c 3c
       0.09065028 -0.08136914 0.10190099 0.017161937
0000d0 26 ea 58 bd 5f cd a6 bd 2a c1 8e bd 39 b4 de bd
       -0.052957676 -0.0814464 -0.06970437 -0.108742185
0000e0 3e c3 c9 3d c6 33 db bd 12 4a b3 3d 68 90 e1 3d
       0.098516926 -0.107032344 0.08754362 0.110138714
0000f0 c6 a6 81 3d ef 19 8a bd 05 1b 04 bc 0d 89 1c 3d
       0.06330638 -0.06743228 -0.008063083 0.03821664
000100 41 83 26 3d fe a2 54 3d ea b8 b3 3c 43 76 50 bd
       0.040652517 0.051913254 0.02193876 -0.050894033
000110 11 79 d8 bd 0b d4 cb bc 51 0c 1a 3d 78 7b ea bb
       -0.105699666 -0.024881383 0.037609402 -0.007155832
000120 2d ce be bd ca ab d1 3d e7 26 16 3a 9a 2a ab bd
       -0.09316669 0.10237844 0.0005727843 -0.08357735
000130 18 01 d0 3d b9 c1 3c bd da a5 a8 bd ab 34 4b bd
       0.101564586 -0.046083186 -0.08234759 -0.049610775
000140 bf b2 91 bd c7 2b 81 bd c9 0d 6f bd 8b e8 d1 bd
       -0.07114171 -0.06307178 -0.058362756 -0.10249432
000150 f3 bf 81 3d 3c 79 9b bd 4f f1 16 bd 8d 61 d0 3d
       0.063354395 -0.07591483 -0.036851224 0.10174856
000160 ad 62 1e 3d f6 7d 9d bd 37 02 3a bd 50 b7 63 bd
       0.038668323 -0.07690041 -0.04541227 -0.055594742
000170 3c 89 d7 3d 75 ce c1 bd 8c 33 4a bd 68 aa 6f 3d
       0.10524222 -0.09463207 -0.049365565 0.05851212
000180 b2 1d 74 3d c4 96 9b 3d 1c 82 73 bc 97 d8 9f bd
       0.059598632 0.07597116 -0.014862563 -0.07804983
000190 79 26 cd 3d 75 54 a9 3d dc 36 24 bd e4 83 1b 3d
       0.10017104 0.08268062 -0.04009138 0.037967578
0001a0 be 38 7e bd a8 b3 92 bb a9 ae b9 3d b1 39 d6 3d
       -0.062065832 -0.004476983 0.09066517 0.104602225
0001b0 bc 4d dc 3d b0 26 51 3d 84 e8 c7 3d fb 81 54 bd
       0.10757014 0.051062286 0.09761146 -0.05188177
0001c0 5b 07 ae 3d 8a 6a c2 3d f0 c6 90 bd e9 5d d7 bd
       0.08497497 0.09492977 -0.07069194 -0.10515959
0001d0 78 31 87 bd 68 a3 1b 3d 41 bb 6c 3b e5 f4 c1 3c
       -0.06601232 0.037997633 0.0036122354 0.023676345
0001e0 22 7a fd 3b 74 bd 1b 3d d6 f8 88 3d 55 03 68 3d
       0.0077355066 0.038022473 0.06688087 0.056643803
0001f0 ff 39 b7 bc ab ef 40 bd 8e ff 8a 3b 53 b5 3b bc
       -0.022366522 -0.047103565 0.0042418903 -0.011456805
000200 47 62 04 bd 9a 6d 4b 3d 36 88 0e 3c 3b 8e 93 bc
       -0.032320287 0.04966507 0.008699467 -0.018012157
000210 91 16 0e 3c e4 af f3 3c e2 8a f1 ba 15 18 96 bd
       0.008672372 0.029746957 -0.0018428231 -0.07328812
000220 1b ea e4 3d 2c 6e fd b8 f8 26 67 3c f1 6a 28 bd
       0.111774646 -0.00012084501 0.014108412 -0.041117612
000230 ef 73 b3 3d eb 20 14 3c 65 78 dc 3c f1 99 67 bd
       0.08762347 0.009041051 0.026912877 -0.056543294
000240 85 21 05 bd 94 09 85 3c 80 8a 22 bd 5c b8 d3 3c
       -0.03250267 0.016239919 -0.039682865 0.025844745
000250 21 ac 6a 3d 4d 9d 3c bd 3e 8b 8d 3d 7e cb 1e bb
       0.05729306 -0.04604845 0.06911324 -0.0024230178
000260 85 e0 49 3d 6d 77 06 bc 26 42 b9 3d d6 29 4a 3d
       0.049286384 -0.008207184 0.0904582 0.049356304
000270 41 1e d4 bd 85 69 2a 3d a7 ce 3e bd c9 19 ac bd
       -0.10357333 0.041604538 -0.046583798 -0.08403356
000280 f5 45 c5 3d 8f 5b d2 3d b2 7c dd 3d ec 8f 0b 3d
       0.09632484 0.1027137 0.10814799 0.0340728
000290 5e bf 99 3d 6d 11 d2 3d 67 01 d8 bd 94 17 c3 3d
       0.075072035 0.1025723 -0.105471425 0.095259815
0002a0 d7 aa d0 3d 8f 99 a2 3d 34 72 00 bd 51 7e c2 3d
       0.10188835 0.07939445 -0.031358913 0.09496749
0002b0 6b bf ea bc 3f a9 a3 bd 94 3b b0 3c 7c 41 c9 bd
       -0.028655728 -0.079912655 0.021512784 -0.09826943
0002c0 78 bb cc 3d a7 0a c4 3d 41 51 99 3a 19 5d c7 3d
       0.09996694 0.09572344 0.0011697189 0.09734554
0002d0 25 ea 65 bd 32 89 d8 bd 9c a6 d3 ba c6 77 9b 3a
       -0.0561315 -0.10573043 -0.0016147676 0.0011861257
0002e0 9f d1 03 3c a9 3b 65 3d 8b f5 c4 3b 21 c7 69 3d
       0.008045583 0.0559651 0.0060107163 0.05707467
0002f0 bf 58 87 3d f1 46 99 bd 12 0f 61 bd 4d d1 9b 3d
       0.06608724 -0.07484234 -0.054946013 0.0760828
000300 bc 0e a2 3d fa 50 6e bd da 24 b2 bd 4f 5d 44 3d
       0.079129666 -0.058182694 -0.08698435 0.04794055
000310 13 a3 99 3d 17 53 b3 bc a1 a3 9f 3d 3b 49 d1 3d
       0.07501807 -0.021890206 0.077948816 0.10219046
000320 c4 a0 94 3d d2 03 24 bc fc a2 40 3d a7 a0 8d bd
       0.07257226 -0.010010676 0.047030434 -0.06915408
000330 be 2a 9b 3d 71 f8 37 bd 1e ea 5e 3d 8a 34 a7 3d
       0.07576512 -0.044914667 0.05442249 0.08164318
000340 a1 4e 84 3d e2 59 c7 3d c4 81 58 3d ed 3b 37 bd
       0.0646031 0.09733941 0.05285813 -0.044734884
000350 fe a4 b7 3d 2c 3e a6 3d 9a e4 15 bd ba 67 02 3d
       0.08967017 0.08117327 -0.036594965 0.031837203
000360 e3 38 ac 3b 49 91 c2 3d 23 e6 d1 3c 2a 44 33 bd
       0.005255805 0.09500367 0.025622433 -0.04376618
000370 78 a4 a7 bd 2f 90 ed bc b5 b9 1a ba 1a ed bc bd
       -0.08185667 -0.028999416 -0.00059023063 -0.09224911
000380 4b 51 d8 3d 93 c5 a3 bc f6 de b1 bd bd cc 9f 3d
       0.105623804 -0.019991672 -0.086851045 0.078027226
000390 c4 8a 87 bd 00 7f 4a 3d ee 36 77 bc 99 2b 87 b9
       -0.06618264 0.049437523 -0.01508878 -0.0002578169
0003a0 76 33 77 3d ca 8a b0 3d 77 db 0f 3d 6d f2 79 ba
       0.06035181 0.08620222 0.035121407 -0.00095347204
0003b0 c4 69 37 bd df da 76 bd 55 34 e9 3b aa 4d 83 3d
       -0.0447786 -0.060267325 0.007116834 0.064112976
0003c0 fe f3 ae ba 13 57 9d bc 12 80 64 3d f0 b6 99 bc
       -0.0013347862 -0.01920656 0.0557862 -0.01876399
0003d0 35 ca d1 3d 43 20 62 3d 23 7e b8 bd 93 a3 98 bd
       0.10243646 0.05520655 -0.09008434 -0.07453074
0003e0 56 0b b5 bd 37 04 b5 bc d0 1b 8b 3c 84 f5 16 3c
       -0.08840053 -0.022096736 0.016981035 0.009213809
0003f0 85 83 be 3c 41 da d9 bd 25 1f a8 bd 3c 22 8b 3d
       0.023256073 -0.10637332 -0.08209065 0.06793639

tcn.tcn.1.conv1.bias f4 [16]
000000 76 68 4c bd fa 24 89 3c 53 79 68 bd c8 41 ed 3c
       -0.04990431 0.016741265 -0.05675633 0.028962031
000010 e5 50 d1 3d ce 9e aa 3d 39 1d 82 3c f6 fd da 3d
       0.102205075 0.08331071 0.015883075 0.106929705
000020 9e aa 70 bd 3e df a8 bc 73 40 c4 3d 69 1b 93 bd
       -0.058756463 -0.020614263 0.09582605 -0.071829624
000030 cc 37 da bc 0f e6 8a bd 37 ff b4 bc 53 8c 0f bc
       -0.026637934 -0.067821614 -0.022094352 -0.008761483
