pretrained_backbones/augmentations OFF/rp0.3/loss_0.0198_it_33454.pt (torch, 391869 bytes, 209 tensors)

conv1.weight f4 [16, 1, 3, 3]
-0.374738 -0.15957552 0.0021491766 0.028594036 -0.21981119 0.19662264 -0.28171328 0.23722337
0.38400567 0.4244471 -0.30206704 -0.23543493 0.15641518 0.04736181 -0.24554852 -0.4130143
0.21667597 0.282294 -0.08082297 -0.14959852 -0.066233516 0.38258854 -0.06623143 -0.13711663
0.19065422 -0.15912467 0.09101662 -0.07578133 -0.3835402 -0.23989668 0.117498584 -0.21308762
-0.21600406 0.40788412 0.15443817 0.009899629 0.43233684 -0.42916802 0.35665515 0.25886825
-0.28679335 0.23198742 0.27359277 -0.1845794 -0.29789224 -0.18042198 0.29060626 -0.38935825
0.27342084 -0.10738066 0.012062678 0.15753521 0.1416197 0.06324369 -0.19467552 0.21175548
0.3596098 -0.40434977 -0.29306194 -0.124511 0.27424622 -0.11164574 0.19968742 -0.20897341
0.39074945 0.3934863 -0.5067153 0.07040505 0.12189202 -0.17390695 -0.014923865 -0.06532391
0.066120744 0.0014162534 0.41048604 0.02048407 -0.1972288 0.17422485 -0.12388937 -0.3013302
-0.0754829 0.19468604 -0.28396356 -0.0621021 0.5349968 -0.11957435 -0.07565811 0.19826125
-0.20998599 -0.17867206 -0.034208387 -0.2555164 -0.076310836 0.26036894 -0.24388954 0.26509666
0.3049045 -0.14322467 0.20423119 -0.02946153 0.056802705 -0.11694695 0.4906248 -0.16695648
-0.3433676 0.35435033 0.17994976 -0.5084788 -0.24880153 -0.30030045 0.21308796 0.019025428
-0.007126788 0.04963548 0.14167662 -0.13226676 -0.23566884 0.50888985 -0.00023044774 0.15552054
0.26848292 -0.22969444 -0.51798165 0.26517525 0.01680502 -0.376332 0.16052556 -0.45612225
-0.043234427 0.41741428 -0.26891193 0.38524607 0.21772213 -0.33829382 0.053071246 -0.22438022
0.341402 -0.12290692 -0.8247849 0.19870354 0.58804154 -0.3004858 0.297204 0.05196189
00000000: a9dd bfbe c467 23be 33d9 0c3b 0a3e ea3c
00000010: 2f16 61be 7257 493e b93c 90be afea 723e
00000020: 649c c43e 2151 d93e 88a8 9abe db15 71be
00000030: 4d2b 203e 75fe 413d 1271 7bbe 9c76 d3be
00000040: 4ee0 5d3e d788 903e 8386 a5bd 5b30 19be
00000050: 70a5 87bd a5e2 c33e 58a4 87bd 4d68 0cbe
00000060: dc3a 433e 94f1 22be ec66 ba3d 3e33 9bbd
00000070: 625f c4be 7aa7 75be 19a3 f03d a433 5abe
00000080: 2b30 5dbe 30d6 d03e 0a25 1e3e 0e32 223c
00000090: 415b dd3e e9bb dbbe 819b b63e 618a 843e
000000a0: 94d6 92be 1c8e 6d3e 5a14 8c3e 6202 3dbe
000000b0: 5585 98be 8ac0 38be 58ca 943e f759 c7be
000000c0: d1fd 8b3e 64ea dbbd 8aa2 453c e950 213e
000000d0: c104 113e e885 813d 0559 47be 6ed6 583e
000000e0: c71e b83e ef06 cfbe 370c 96be a0ff febd
000000f0: 006a 8c3e 86a6 e4bd dc7a 4c3e 20fd 55be
00000100: 5010 c83e 0977 c93e 18b8 01bf 8630 903d
00000110: 86a2 f93d aa14 32be 3a83 74bc 8bc8 85bd
00000120: 506a 873d 94a1 b93a 3a2b d23e 35ce a73c
00000130: 59f6 49be 0068 323e b6b9 fdbd f447 9abe
00000140: c796 9abd c75b 473e ac63 91be c65e 7ebd
00000150: 8df5 083f 66e3 f4bd a4f2 9abd ff04 4b3e
00000160: 9106 57be cff5 36be 181e 0cbd 0cd3 82be
00000170: db48 9cbd 144f 853e 2ebe 79be c0ba 873e
00000180: 711c 9c3e 7da9 12be fb21 513e 4e59 f1bc
00000190: f4a9 683d e281 efbd 2c33 fb3e a4f6 2abe
000001a0: e1cd afbe 686d b53e c044 383e ab2b 02bf
000001b0: d4c5 7ebe fbc0 99be bb33 5a3e 37db 9b3c
000001c0: d587 e9bb 934e 4b3d ad13 113e f070 07be
000001d0: 2c53 71be 9b46 023f 58a4 71b9 c740 1f3e
000001e0: 9876 893e 0535 6bbe 729a 04bf 0dc5 873e
000001f0: aeaa 893c 97ae c0be d060 243e db88 e9be
00000200: 9516 31bd 53b7 d53e d3ae 89be f93e c53e
00000210: 8df2 5e3e d934 adbe 3c61 593d eec3 65be
00000220: 3ecc ae3e a0b6 fbbd 1a25 53bf f178 4b3e
00000230: e489 163f 46d9 99be 1f2b 983e fed5 543d

conv1.bias f4 [16]
-0.019891318 -0.022974687 -0.024896782 -0.35575533 -0.123285994 -0.031198094 -0.06824028 -0.1053017
-0.12577981 -0.016018014 -0.046078704 0.104578234 -0.31468344 -0.000548293 -0.045922495 -0.10908187
00000000: 1ef3 a2bc 6935 bcbc 56f4 cbbc 9025 b6be
00000010: 5e7d fcbd 2593 ffbc 8fc1 8bbd 6ba8 d7bd
00000020: 6ccc 00be 3638 83bc 06bd 3cbd 1d2d d63d
00000030: 301e a1be 52bb 0fba 3a19 3cbd 5166 dfbd

conv2.weight f4 [16, 16, 3, 3]
0.029809956 0.36914033 0.06791277 -0.017584966 0.054989614 -0.018366013 -0.08229015 0.08754277
0.14954355 -0.012815797 0.17493698 -0.04831077 -0.0840051 -0.13605134 -0.080464154 -0.2818373
0.18788321 0.32734877 -0.009086157 -0.080000155 -0.11865531 0.09015688 0.011525412 -0.025707025
0.16430898 0.0208033 -0.15662816 0.07816542 -0.1141723 -0.046535987 0.03223751 -0.12205627
-0.094245724 0.09632461 -0.04717011 0.021848615 0.12334772 -0.24944456 -0.45278764 0.2611984
-0.214019 -0.40639272 0.65107894 0.053766936 -0.102328114 0.05912444 -0.09074614 0.13775527
-0.04444518 0.060502972 0.1195157 0.23488177 -0.24535798 -0.09459685 0.0938873 0.06780316
-0.1886018 0.08561791 0.27097383 -0.059163023 -0.037457936 0.013818304 -0.15632904 0.060212426
0.15801597 -0.12482401 -0.3618794 0.0884114 0.11442134 -0.41875324 -0.0008326106 0.06723924
0.004557599 -0.096071154 -0.1747374 0.10231584 -0.038413554 -0.09361932 0.2484245 -0.017703675
-0.05735697 0.17312405 -0.24624753 -0.18458554 0.12335572 -0.19049051 -0.15957008 0.6652192
0.020321988 -0.18439405 0.15358235 -0.01919963 -0.13097428 0.16565341 0.009144812 -0.12328416
0.24622793 -0.086165905 -0.40850687 -0.051527783 -0.23227769 -0.04659519 0.07917748 -0.16578573
0.039751984 0.21671546 -0.07174648 -0.09470461 -0.0010224661 -0.05620629 -0.058143567 -0.11076432
-0.012279264 -0.20905171 -0.1112759 0.06392734 -0.11075291 0.24591626 -0.18941619 -0.14589773
0.058449373 -0.19684494 -0.040836275 0.4327206 -0.15581088 -0.15839593 0.43290976 -0.06368112
-0.18927175 0.3912705 -0.08367642 -0.24449146 0.48031276 0.067638546 -0.47095266 -0.2529605
0.44504437 0.04417407 -0.41763365 0.17669807 0.049577046 -0.66966873 0.55633926 0.38745052
-0.044313613 -0.08454661 0.013907231 -0.08586928 0.026519457 -0.026788753 -0.2275004 -0.104231335
-0.032190785 -0.03954079 -0.07326223 -0.14586182 -0.07562077 -0.124659106 -0.24373336 0.08484072
0.05758752 0.25261608 0.119112924 0.04566717 -0.05989302 -0.009986977 0.09068739 -0.04968055
0.0071665067 -0.048668582 0.0060176356 -0.06048313 0.07599496 -0.049255036 -0.11980463 -0.016451776
-0.21019056 0.2347859 0.08688536 -0.0019262768 -0.001925488 0.007962911 0.07129447 0.03049831
0.15077725 0.03029057 0.05975166 -0.11957914 0.0053425655 -0.021793766 0.075276494 -0.08062966
-0.019100152 0.01665954 0.04332537 -0.41747585 -0.10024921 -0.13897742 0.024959836 0.21907622
0.16656001 -0.04236924 -0.090023816 -0.109251805 0.04053227 0.050340805 -0.022510856 -0.005196079
0.2539236 0.2077101 0.033727635 0.0239211 0.12836903 0.30382538 0.3779568 0.1983927
-0.1567666 0.048589587 0.19699168 0.07037418 0.2483759 0.3103426 0.23235767 0.1378424
0.08536929 -0.013428403 0.021112412 -0.25547495 0.076367594 0.24022603 0.013055703 0.073406965
-0.13487835 -0.09144322 -0.04269935 0.019652909 -0.09140854 -0.026128449 0.12423808 0.12013487
-0.34323445 -0.4142407 -0.103427276 -0.031791944 -0.03159268 -0.1052326 -0.09597494 -0.059639126
-0.5179973 0.035496797 -0.036883444 -0.15749696 -0.05659173 -0.09377988 0.022676935 -0.032989934
00000000: 0234 f43c f6ff bc3e da15 8b3d 590e 90bc
00000010: ca3c 613d 5274 96bc bd87 a8bd a049 b33d
00000020: f221 193e 59f9 51bc ae22 333e 84e1 45bd
00000030: de0a acbd 0b51 0bbe 64ca a4bd fb4c 90be
00000040: 7564 403e 429a a73e 1bde 14bc 1fd7 a3bd
00000050: 8e01 f3bd 2ca4 b83d 15d5 3c3c 8a97 d2bc
00000060: 9d40 283e af6b aa3c 2263 20be 3115 a03d
00000070: 2bd3 e9bd 859c 3ebd 7b0b 043d a3f8 f9bd
00000080: e703 c1bd d645 c53d 7235 41bd defb b23c
00000090: bb9d fc3d 656e 7fbe c8d3 e7be ccbb 853e
000000a0: cc27 5bbe b512 d0be 1cad 263f b83a 5c3d
000000b0: 6791 d1bd 782c 723d 1dd9 b9bd b80f 0d3e
000000c0: 260c 36bd f7d1 773d a6c4 f43d d984 703e
000000d0: 1f3f 7bbe febb c1bd fc47 c03d 62dc 8a3d
000000e0: d520 41be 7158 af3d 15bd 8a3e ed54 72bd
000000f0: 7e6d 19bd 2b66 623c b814 20be 4ea1 763d
00000100: f0ce 213e bba3 ffbd 4248 b9be 0911 b53d
00000110: bc55 ea3d d366 d6be 8d43 5aba bab4 893d
00000120: e957 953b f4c0 c4bd 5cee 32be f88a d13d
00000130: 8857 1dbd 7cbb bfbd fe62 7e3e 4c07 91bc
00000140: 24ef 6abd 6e47 313e 5028 7cbe fe03 3dbe
00000150: eca1 fc3d f20f 43be 5766 23be ce4b 2a3f
00000160: 4c7a a63c cbd1 3cbe b144 1d3e 8b48 9dbc
00000170: 1f1e 06be 0ca1 293e 1fd4 153c 687c fcbd
00000180: 2d23 7c3e c077 b0bd d027 d1be cc0e 53bd
00000190: 34da 6dbe 99da 3ebd cd27 a23d bcc3 29be
000001a0: fad2 223d a8ea 5d3e d2ef 92bd 7ef4 c1bd
000001b0: 4504 86ba 9138 66bd f327 6ebd 67d8 e2bd
000001c0: f72e 49bc a711 56be 9ee4 e3bd 56ec 823d
000001d0: 6cd2 e2bd 79d1 7b3e 51f6 41be 3766 15be
000001e0: 9c68 6f3d b891 49be f043 27bd 8e8d dd3e
000001f0: e38c 1fbe 8b32 22be 59a6 dd3e 3f6b 82bd
00000200: 74d0 41be 9b54 c83e 8b5e abbd f85b 7abe
00000210: 8eeb f53e 1486 8a3d b520 f1be 0a84 81be
00000220: dbdc e33e dfef 343d 14d4 d5be 57f0 343e
00000230: 4d11 4b3d 696f 2bbf 406c 0e3f ea5f c63e
00000240: 3182 35bd c626 adbd 28db 633c 3cdc afbd
00000250: 553f d93c 1674 dbbc ddf5 68be 3d77 d5bd
00000260: 7cda 03bd 86f5 21bd 820a 96bd cd5c 15be
00000270: 10df 9abd 464d ffbd 3d95 79be f9c0 ad3d
00000280: e4e0 6b3d e556 813e 7af1 f33d 800d 3b3d
00000290: 6252 75bd 6ba0 23bc 4fba b93d d57d 4bbd
000002a0: 04d5 ea3b b558 47bd 962f c53b 29bd 77bd
000002b0: 3fa3 9b3d a6bf 49bd 215c f5bd e0c5 86bc
000002c0: 323c 57be b76b 703e f4f0 b13d 207b fcba
000002d0: a860 fcba df76 023c d602 923d 98d7 f93c
000002e0: 5a65 1a3e ee23 f83c 28be 743d e8e5 f4bd
000002f0: b010 af3b d788 b2bc 902a 9a3d 2a21 a5bd
00000300: ec77 9cbc 9679 883c f175 313d 65bf d5be
00000310: 754f cdbd 1950 0ebe 9278 cc3c 8455 603e
00000320: b58e 2a3e 5e8b 2dbd 685e b8bd 69bf dfbd
00000330: 2a05 263d 2932 4e3d b068 b8bc df43 aabb
00000340: 4602 823e f5b1 543e fd25 0a3d 2ff6 c33c
00000350: 2c73 033e 008f 9b3e 8e83 c13e 7527 4b3e
00000360: 6c87 20be e005 473d 30b8 493e 5720 903d
00000370: 4056 7e3e 3ae5 9e3e 2bef 6d3e 8f26 0d3e
00000380: 18d6 ae3d ce02 5cbc f0f3 ac3c 9dcd 82be
00000390: 9d66 9c3d d0fd 753e 96e7 553c 6456 963d
000003a0: 8d1d 0abe 9546 bbbd 83e5 2ebd 23ff a03c
000003b0: 6734 bbbd 540b d6bc 8970 fe3d 4509 f63d
000003c0: 6dbc afbe 5b17 d4be aed1 d3bd 4538 02bd
000003d0: 5367 01bd 3084 d7bd 828e c4bd 2848 74bd
000003e0: 799b 04bf 1765 113d 1813 17bd e246 21be
000003f0: bbcc 67bd aa0f c0bd fbc4 b93c 7420 07bd

conv2.bias f4 [16]
0.02863054 -0.0678592 -0.10486765 -0.23493724 -0.011987836 -0.12362498 -0.21724856 -0.045063913
-0.03680456 -0.056502476 -0.0057335435 -0.08916954 -0.29397824 -0.088734046 -0.18474635 -0.044449337
00000000: 988a ea3c c4f9 8abd dac4 d6bd 6393 70be
00000010: a168 44bc 182f fdbd 6876 5ebe f094 38bd
00000020: 61c0 16bd 246f 67bd 73e0 bbbb 859e b6bd
00000030: 5184 96be 32ba b5bd 262e 3dbe 8210 36bd

conv3.weight f4 [16, 16, 8, 1]
-0.008661543 0.093403846 0.033595275 0.015783884 -0.086569816 -0.005213656 -0.63398635 -0.43829542
0.024838697 0.12512276 0.031524494 -0.005897508 0.041169345 -0.12146696 -0.18134508 0.11002739
-0.006987292 -0.022063937 -0.008816648 -0.11529428 -0.0944439 -0.17584442 -0.35405007 -0.050700355
-0.051008653 -0.058755413 -0.018897114 -0.026409004 -0.01956537 0.04951347 -0.30213243 0.048230104
-0.033723228 -0.037747458 0.013287004 -0.0115125105 -0.030986996 -0.17667535 0.4545552 0.09529688
-0.018357115 0.0289083 -0.011880274 -0.036192097 0.09068041 0.06583299 -0.27192992 0.28488627
-0.022422837 0.08514248 -0.041045144 0.024890007 -0.027401026 -0.12307179 0.34339774 -0.11616917
-0.03285979 0.012524947 -0.005883057 -0.03821442 0.05178981 0.04145536 0.25159177 0.025892692
-0.09156996 -0.07448461 -0.027117629 -0.058552884 -0.049255274 -0.18183668 0.30223557 -0.14318626
0.049458407 0.04588125 0.079923734 0.06718635 0.054696213 -0.14869575 0.19798227 0.057759743
-0.037544154 -0.17164284 -0.119076766 -0.17892642 -0.13935852 -0.22287889 -0.041898943 -0.002406812
-0.017763026 -0.07368451 -0.07607855 -0.06010746 -0.036058124 -0.0042301775 0.09085184 -0.25481334
-0.013731567 -0.036355246 -0.016227374 0.08886997 -0.11025578 0.03589167 -0.30069533 0.026252167
0.05502274 -0.0013707834 0.02451961 -0.057947677 0.03960851 -0.1472859 0.47036645 -0.013689986
-0.06436771 -0.1873693 -0.13510601 -0.11309229 -0.1466522 -0.12954803 -0.19867878 -0.0024786247
0.10073785 0.07705083 0.085322194 0.10603667 0.11918929 0.09012492 0.22827867 0.23243503
0.14711842 0.17144819 0.24482298 0.11436423 0.24352653 0.074604616 0.09817668 0.30888006
-0.14429462 0.011745755 0.012723843 -0.061653253 0.12644905 -0.223648 -0.10012714 0.14247899
0.117311835 0.0141298715 0.10997574 0.1270956 0.12323151 0.45622823 0.13610348 0.096220486
-0.112189725 0.026973575 -0.05444065 -0.09851467 -0.0054076337 -0.33895066 0.09655998 0.01468315
-0.0026684073 0.017042574 -0.046061963 -0.03534915 -0.022600414 0.26099306 0.029650016 -0.117564015
-0.24922968 -0.035542596 -0.05200272 -0.17438288 -0.06491729 -0.19229202 -0.13954322 -0.09343113
-0.045755375 -0.015483098 0.025205 0.017133066 -0.06708481 -0.17786935 -0.16373236 -0.094394416
0.121932924 -0.100589484 -0.15610045 -0.20198774 -0.18993707 -0.20218888 -0.2883801 -0.161319
-0.03409274 0.17218968 0.092301466 0.08758997 0.19207779 0.2279188 0.18817891 0.04010957
-0.029795447 -0.02496418 -0.058246326 -0.012379036 0.060572874 0.23435377 0.020363037 -0.061974898
0.008490361 0.0043335864 -0.049852714 0.07163395 0.052741412 0.3561834 0.008121266 0.1315612
-0.003411971 0.10176263 0.07760439 0.048077255 0.23824508 0.074993715 -0.06765472 0.36131826
-0.102566 -0.027909301 -0.1297973 0.002993181 -0.019868203 -0.3128981 0.40667772 -0.03277061
0.020335658 0.014669964 0.013773185 0.011225957 -0.0031115727 0.3089993 -0.040701635 0.07616888
-0.059094004 -0.14854999 -0.17817883 -0.0811362 -0.18354316 -0.20328064 -0.08537706 -0.13072768
0.06627421 -0.14302522 -0.1119488 -0.15527284 -0.2511029 -0.38354152 -0.2082135 -0.29512453
00000000: 25e9 0dbc 844a bf3d 339b 093d 344d 813c
00000010: 844b b1bd 51d7 aabb ee4c 22bf 4268 e0be
00000020: 867a cb3c 2e20 003e d41f 013d e23f c1bb
00000030: 30a1 283d abc3 f8bd 86b2 39be 0a56 e13d
00000040: a7f5 e4bb 6ebf b4bc b473 10bc 681f ecbd
00000050: ce6b c1bd 8f10 34be 0d46 b5be 2dab 4fbd
00000060: 73ee 50bd 84a9 70bd 1fce 9abc b257 d8bc
00000070: 8e47 a0bc a3ce 4a3d 1ab1 9abe ee8c 453d
00000080: 5e21 0abd 149d 1abd bcb1 593c f89e 3cbc
00000090: 71d8 fdbc 62ea 34be 76bb e83e 032b c33d
000000a0: a961 96bc 19d1 ec3c 7ba5 42bc 2a3e 14bd
000000b0: a7b6 b93d 72d3 863d 663a 8bbe 9ddc 913e
000000c0: 19b0 b7bc 2e5f ae3d f41e 28bd 21e6 cb3c
000000d0: 1e78 e0bc 100d fcbd d4d1 af3e 1aea edbd
000000e0: fd97 06bd 6f35 4d3c a9c6 c0bb b986 1cbd
000000f0: 8d21 543d 18cd 293d a3d0 803e e91c d43c
00000100: 0889 bbbd 638b 98bd ca25 debc 26d5 6fbd
00000110: e6bf 49bd 6533 3abe 9fbe 9a3e 6b9f 12be
00000120: e694 4a3d faed 3b3d 0eaf a33d ff98 893d
00000130: 2309 603d b343 18be ddbb 4a3e 7b95 6c3d
00000140: e6c7 19bd 24c3 2fbe 85de f3bd 7d38 37be
00000150: 00b4 0ebe 5d3a 64be 3a9e 2bbd 9bbb 1dbb
00000160: c483 91bc e8e7 96bd 12cf 9bbd 3d33 76bd
00000170: afb1 13bd 4d9d 8abb 8810 ba3d e576 82be
00000180: 5efa 60bc 3de9 14bd 45ef 84bc 7501 b63d
00000190: c8cd e1bd 2503 133d bdf4 99be c90e d73c
000001a0: 865f 613d dcab b3ba 59dd c83c 8b5a 6dbd
000001b0: 883c 223d 1dd2 16be dfd3 f03e f74b 60bc
000001c0: 38d3 83bd bddd 3fbe 3b59 0abe ee9c e7bd
000001d0: ff2b 16be 3da8 04be 7372 4bbe 6c70 22bb
000001e0: a54f ce3d d3cc 9d3d 67bd ae3d c129 d93d
000001f0: 8419 f43d 6a93 b83d e2c1 693e 7303 6e3e
00000200: 36a6 163e 1d90 2f3e e0b2 7a3e cb37 ea3d
00000210: 055f 793e 4eca 983d db10 c93d 8725 9e3e
00000220: f8c1 13be 4471 403c aa77 503c 1f88 7cbd
00000230: dc7b 013e fb03 65be 750f cdbd 03e6 113e
00000240: 3041 f03d fa80 673c f63a e13d 5925 023e
00000250: cd60 fc3d bf96 e93e b65e 0b3e 3f0f c53d
00000260: bac3 e5bd b0f7 dc3c 29fd 5ebd 0fc2 c9bd
00000270: 8532 b1bb f18a adbe 3dc1 c53d 9891 703c
00000280: 72e0 2ebb de9c 8b3c 78ab 3cbd 45ca 10bd
00000290: 8124 b9bc e2a0 853e 97e4 f23c 67c5 f0bd
000002a0: 1136 7fbe 1d95 11bd ce00 55bd 6d91 32be
000002b0: 5bf3 84bd 33e8 44be 6be4 0ebe d258 bfbd
000002c0: fd69 3bbd d2ac 7dbc b77a ce3c a55a 8c3c
000002d0: c363 89bd 6223 36be 75a9 27be dc51 c1bd
000002e0: f8b7 f93d dc01 cebd ccd8 1fbe e0d5 4ebe
000002f0: dd7e 42be 9a0a 4fbe 8ea6 93be cf30 25be
00000300: d4a4 0bbd 7e52 303e 8d08 bd3d 5f62 b33d
00000310: 0ab0 443e 8c63 693e f9b1 403e ef49 243d
00000320: 9515 f4bc ae81 ccbc b393 6ebd 71d1 4abc
00000330: 431b 783d 6ffa 6f3e 62d0 a63c 64d9 7dbd
00000340: 281b 0b3c c200 8e3b 5c32 4cbd d2b4 923d
00000350: 6107 583d ac5d b63e 0f0f 053c fbb7 063e
00000360: 609b 5fbb ed68 d03d 0def 9e3d a8ec 443d
00000370: 85f6 733e 4e96 993d 8f8e 8abd b5fe b83e
00000380: 1f0e d2bd 0ca2 e4bc 95e9 04be 3f29 443b
00000390: a4c2 a2bc 2e34 a0be 1038 d03e 7a3a 06bd
000003a0: f796 a63c 4a5a 703c eda8 613c 14ed 373c
000003b0: 87eb 4bbb 2835 9e3e c2b6 26bd 6efe 9b3d
000003c0: 8e0c 72bd 7d1d 18be 8374 36be bc2a a6bd
000003d0: bdf2 3bbe cd28 50be 2bda aebd 7add 05be
000003e0: c6ba 873d 3475 12be 6a45 e5bd d8ff 1ebe
000003f0: 8f90 80be 8e5f c4be eb35 55be 901a 97be

conv3.bias f4 [16]
0.28671232 -0.037473563 -0.012551313 -0.047118284 -0.0108072255 -0.14539659 0.2399684 0.01967292
0.02842138 0.13964102 -0.01288991 0.094974115 0.09831941 0.00067482586 0.06361297 -0.17381921
00000000: f5cb 923e e17d 19bd 06a4 4dbc 1aff 40bd
00000010: ca10 31bc d8e2 14be 47ba 753e 1b29 a13c
00000020: f4d3 e83c 0efe 0e3e 3330 53bc ca81 c23d
00000030: b05b c93d cce6 303a 8447 823d aafd 31be

tcn.tcn.0.conv1.weight f4 [16, 16, 5]
0.122192614 -0.17091423 -0.13016044 0.053774294 0.35998288 0.12211727 0.24393287 0.16678846
0.06413268 -0.00463315 0.03597671 0.22741207 0.3911201 0.6516713 0.6117968 0.78813523
0.19762623 -0.49761164 -0.39752233 -0.0404481 0.18985315 -0.28144744 -0.11523661 -0.1200959
0.38182798 0.05126329 0.08889838 -0.14675024 0.0061531523 0.14598666 -0.19724911 0.023616279
0.16717447 -0.13685118 -0.029828953 -0.18035822 -0.071999855 0.023597741 -0.07984879 0.010322661
-0.13637477 0.029109733 0.123760566 0.027346268 0.08092375 0.12264226 -0.08567925 -0.22573711
-0.08073881 0.17372212 -0.1037149 -0.056338895 0.12798515 0.0844052 0.030597478 0.20503303
0.017262613 -0.119884536 -0.02077579 -0.06490964 0.42407966 -0.07844436 -0.5026832 -0.49071655
-0.14152159 0.45492366 0.18369538 -0.15684722 -0.18888474 -0.18812853 0.33168557 0.030675208
-0.41249493 -0.43157202 -0.24850827 -0.31746012 -0.16649336 0.04406519 0.3447035 0.25182337
-0.15624915 -0.24842405 -0.04966533 -0.10182939 0.0018656059 -0.111106955 -0.0079272995 0.11070658
0.16351463 -0.07446743 -0.14131097 -0.092678435 -0.08993785 -0.29198268 -0.12110782 -0.23049144
-0.18545157 -0.013653683 -0.17478673 0.1167111 -0.10924643 0.1467922 0.20893161 0.2497027
-0.20663483 -0.40599027 -0.010241579 -0.03547934 0.13863178 0.124998234 -0.22216094 -0.29297957
-0.0814438 0.02645342 -0.0989199 -0.27202693 -0.13055426 -0.14151019 -0.18391132 -0.33352414
-0.12160034 -0.11163602 -0.06225576 -0.06755352 -0.04183938 -0.10618301 0.1612959 0.2238679
0.2760932 -0.37450817 -0.0514036 -0.098296724 -0.04905006 0.09509451 0.35337573 -0.1545117
-0.43535078 0.22121124 0.00088134117 -0.025876045 0.0020587877 0.1822871 -0.05147861 -0.039470438
-0.016120493 -0.32877734 0.33408642 0.063686 0.089916244 -0.21897376 -0.2369308 0.039766967
-0.09199965 0.037895318 -0.08539095 -0.1369774 -0.18582484 -0.079664856 -0.20852146 -0.18269537
-0.07484162 0.18793595 0.12068477 0.16624157 0.26583597 -0.12313637 -0.15955357 -0.11537914
-0.0636235 0.09643861 0.10843218 0.08401566 -0.049817815 -0.009001408 0.05723425 -0.079068765
0.06832818 -0.10158742 -0.17716168 -0.24981473 -0.071369566 -0.2858521 0.09453392 0.22400962
0.11564547 0.19164462 -0.1942619 -0.063375995 -0.26121333 -0.29346463 0.01750997 -0.0044985623
-0.05453448 -0.028019212 -0.13449006 0.0044320673 0.09508931 0.06978489 0.10233949 0.16067453
0.023303963 -0.01914329 -0.12945385 -0.08327503 -0.05003263 -0.054848675 -0.21967824 -0.052859433
-0.27491498 -0.07255034 -0.056428637 0.055985052 -0.22728314 -0.21971336 -0.2647029 -0.2471296
0.084309354 0.15375683 0.04217331 0.090413235 0.012969156 -0.06968338 0.065160304 -0.043080475
-0.06240644 -0.21144298 -0.31425205 -0.036150903 0.12637147 0.16517639 0.18334728 -0.035326637
0.13261965 0.1070367 0.09073657 0.14520127 0.19397116 0.003483276 0.0025376782 -0.090345554
0.24847686 0.26306 -0.08517762 -0.086155035 -0.05094122 0.13118409 -0.040780295 0.044990696
0.14448409 0.13070486 -0.029244635 0.15509139 0.2432465 0.40436223 0.33505708 0.5868115
00000000: 1f40 fa3d 2404 2fbe c748 05be 6f42 5c3d
00000010: ad4f b83e 9f18 fa3d 8ac9 793e 98ca 2a3e
00000020: ff57 833d aed1 97bb 515c 133d b6de 683e
00000030: e540 c83e eed3 263f b79e 1c3f 3bc3 493f
00000040: 885e 4a3e f4c6 febe 0c88 cbbe e8ac 25bd
00000050: dd68 423e e119 90be 2c01 ecbd d7f4 f5bd
00000060: f57e c33e 75f9 513d 5b10 b63d b245 16be
00000070: 62a0 c93b 877d 153e acfb 49be ed76 c13c
00000080: c92f 2b3e b722 0cbe d95b f4bc d3af 38be
00000090: a974 93bd 0d50 c13c c387 a3bd 6120 293c
000000a0: d4a5 0bbe 8977 ee3c 2e76 fd3d 4805 e03c
000000b0: 5abb a53d dd2b fb3d 9a78 afbd a127 67be
000000c0: 645a a5bd 36e4 313e 7a68 d4bd 9dc3 66bd
000000d0: 8a0e 033e a2dc ac3d 90a7 fa3c 2ef4 513e
000000e0: 536a 8d3c 0686 f5bd fd31 aabc 58ef 84bd
000000f0: f820 d93e 70a7 a0bd d9af 00bf 333f fbbe
00000100: 09eb 10be c1eb e83e a41a 3c3e 8f9c 20be
00000110: 006b 41be c4a4 40be b1d2 a93e 934a fb3c
00000120: 8932 d3be 02f7 dcbe f478 7ebe 228a a2be
00000130: 3c7d 2abe b37d 343d fa7c b03e feee 803e
00000140: c7ff 1fbe e062 7ebe e06d 4bbd ed8b d0bd
00000150: 5987 f43a 0b8c e3bd 81e1 01bc 22ba e23d
00000160: 6170 273e 6182 98bd d3b3 10be 31ce bdbd
00000170: 5631 b8bd c17e 95be 6007 f8bd f305 6cbe
00000180: 04e7 3dbe b2b3 5fbc 4bfb 32be 3b06 ef3d
00000190: 98bc dfbd b250 163e 2bf2 553e 11b2 7f3e
000001a0: 1598 53be f5dd cfbe 4ccc 27bc c952 11bd
000001b0: 7df5 0d3e 13ff ff3d 287e 63be 6b01 96be
000001c0: 02cc a6bd d8b4 d83c 8496 cabd 1d47 8bbe
000001d0: 04b0 05be 0ce8 10be 4053 3cbe adc3 aabe
000001e0: 9909 f9bd 6da1 e4bd e5ff 7ebd 8059 8abd
000001f0: c55f 2bbd 7a76 d9bd c12a 253e a03d 653e
00000200: 175c 8d3e 89bf bfbe 958c 52bd cb4f c9bd
00000210: b7e8 48bd e9c0 c23d aaed b43e 5138 1ebe
00000220: 4ce6 debe 3385 623e ce09 673a 00fa d3bc
00000230: baec 063b 78a9 3a3e 3cdb 52bd c1ab 21bd
00000240: 200f 84bc 8155 a8be 600d ab3e ce6d 823d
00000250: 0226 b83d a83a 60be fd9d 72be b0e2 223d
00000260: 506a bcbd 1f38 1b3d 73e1 aebd ce43 0cbe
00000270: de48 3ebe 5427 a3bd a686 55be 7f14 3bbe
00000280: 9046 99bd 4872 403e 9429 f73d 3b3b 2a3e
00000290: a71b 883e ec2e fcbd 0362 23be e64b ecbd
000002a0: 0a4d 82bd 9b81 c53d b111 de3d 6710 ac3d
000002b0: c40d 4cbd a47a 13bc 766e 6a3d ceee a1bd
000002c0: a5ef 8b3d 110d d0bd df69 35be 6fcf 7fbe
000002d0: 352a 92bd 355b 92be 009b c13d c762 653e
000002e0: 88d7 ec3d 7d3e 443e 97ec 46be 46cb 81bd
000002f0: c1bd 85be ff40 96be 1271 8f3c ad68 93bb
00000300: 8c5f 5fbd 8c88 e5bc c3b7 09be e03a 913b
00000310: 2fbe c23d 61eb 8e3d 5e97 d13d dd87 243e
00000320: f4e7 be3c 64d2 9cbc 8d8f 04be 198c aabd
00000330: 04ef 4cbd 01a9 60bd 55f3 60be 2283 58bd
00000340: a8c1 8cbe 4695 94bd b721 67bd 9550 653d
00000350: e9bc 68be 8afc 60be 2387 87be 8b0f 7dbe
00000360: 62aa ac3d 6e72 1d3e ecbd 2c3d 932a b93d
00000370: 957c 543c 29b6 8ebd c472 853d 2775 30bd
00000380: e59d 7fbd 8284 58be a5e5 a0be f812 14bd
00000390: 8667 013e 0024 293e 64bf 3b3e aab2 10bd
000003a0: 72cd 073e 0f36 db3d 18d4 b93d a4af 143e
000003b0: 60a0 463e ad47 643b 2d4f 263b 1707 b9bd
000003c0: b870 7e3e cdaf 863e 9b71 aebd 0d72 b0bd
000003d0: bea7 50bd 1f55 063e 3d09 27bd 2a48 383d
000003e0: a3f3 133e 7fd7 053e 7292 efbc 47d0 1e3e
000003f0: 9c15 793e 9108 cf3e 9a8c ab3e 4739 163f

tcn.tcn.0.conv1.bias f4 [16]
-0.0023858428 0.11936767 -0.036930393 -0.021464217 0.18742558 -0.053906944 -0.20242357 -0.27197698
0.001271106 0.12655427 -0.19098559 -0.19690265 -0.08112004 -0.09069389 -0.039491538 -0.17190845
00000000: cd5b 1cbb 0977 f43d 5344 17bd bad5 afbc
00000010: 7eec 3f3e 87cd 5cbd 2048 4fbe 9140 8bbe
00000020: 3d9b a63a 7197 013e ba91 43be d9a0 49be
00000030: 4322 a6bd b8bd b9bd e1c1 21bd c508 30be

tcn.tcn.0.conv2.weight f4 [16, 16, 1]
-0.19957611 -0.17919555 -0.07768602 0.048747987 -0.28799778 -0.26926038 -0.23355593 0.24422982
-0.30018917 0.22054037 -0.12056067 -0.03440045 0.082964666 0.11866637 -0.29606035 -0.407988
-0.29063347 -0.3014659 0.12318425 -0.0077908146 -0.20761816 -0.21701035 -0.09836599 0.027706662
-0.10541926 -0.1602658 -0.24380971 -0.014262657 0.07670175 -0.1795188 -0.36760423 -0.22142887
-0.49764308 0.048770286 0.084069476 -0.2851104 0.356934 0.09344269 -0.11975356 0.2772633
0.10258403 0.03658404 0.29354832 -0.24935943 0.089055344 0.30845264 -0.01156744 0.25817245
0.0067147315 -0.018365938 0.05730397 -0.022952687 -0.21215048 0.1365117 -0.07284425 0.064190336
0.26076087 0.25523323 0.12091075 0.53278995 0.40069118 0.018855523 0.21548888 0.07128299
-0.1548747 -0.2712876 0.13021159 -0.16851957 0.0091799805 -0.06932458 0.11062391 -0.044556152
-0.17233804 -0.15220279 -0.058479775 -0.10792473 0.036295794 -0.070173465 0.29745877 0.036461864
0.20478666 -0.11205636 0.20271043 -0.1347494 0.25558123 0.12285086 -0.28854254 0.036906924
-0.05609748 0.2951541 -0.4455671 0.048628073 0.27009472 0.25123876 -0.4300453 -0.124749735
-0.16327475 -0.22753271 0.16629761 0.04432711 -0.19741489 0.084669545 -0.3136012 0.24413146
-0.18996447 0.33725983 -0.40042135 0.033217054 -0.16341755 0.371349 -0.28615442 0.0046066567
0.46720093 -0.30663887 -0.091255456 0.12370943 -0.041070055 -0.08383017 -0.067125954 -0.0324543
-0.20274097 -0.12690473 -0.3298543 -0.19351077 -0.38229927 -0.12043994 -0.25478786 -0.47568372
-0.022302156 -0.08270413 0.115838766 -0.11674574 -0.2516662 0.11709401 -0.28060105 -0.01716107
0.049612585 0.27706975 -0.22052716 0.03729852 -0.04878251 -0.011926304 0.19618955 0.06428777
0.17715003 -0.04657193 0.06637993 -0.14070617 -0.14584804 0.015121094 -0.11399923 -0.017797727
0.120366186 0.18975864 0.14899033 -0.1983202 0.22666334 0.042929366 -0.07173251 0.2460607
0.076361686 0.15346414 -0.11848379 0.2687655 -0.0411977 -0.15480547 -0.13285361 -0.24380194
-0.3143551 0.033457853 -0.40128735 0.57133055 0.3164731 -0.24313691 -0.24566415 -0.09461509
-0.11118489 0.15507014 0.15551142 -0.13978602 -0.27946788 -0.12990695 0.5251844 0.25249112
0.0031472608 -0.14906175 0.6632345 0.008779461 -0.109671146 0.09491588 0.22905661 0.09843905
-0.16682597 -0.2951573 0.23399495 0.044308096 -0.21130002 0.042764273 0.11324748 -0.014209478
-0.054575786 -0.4143365 0.11775879 0.0007263672 -0.2675197 -0.07703347 -0.20085922 -0.122297004
0.1617624 -0.16098343 -0.119103886 -0.117163725 0.021471327 0.21509738 -0.30043802 -0.35863262
0.11419703 0.0640825 -0.47203445 0.3229301 -0.18078554 -0.34124315 -0.4328925 -0.2695251
0.48682365 -0.22017299 -0.20482019 0.1871633 0.14887777 -0.050876364 -0.06047789 -0.2320381
0.04612662 -0.14480625 -0.18257256 0.41329226 0.16156973 0.087285124 -0.31814486 0.06438457
-0.00066599494 0.14418912 -0.22959319 0.036507964 0.2530222 0.038146533 0.08452622 -0.20954949
0.033555046 0.006897959 0.24224973 0.016619952 -0.010220549 0.15482402 0.11687965 0.21476462
00000000: ae5d 4cbe 0a7f 37be d919 9fbd f8ab 473d
00000010: 7274 93be 7fdc 89be 4929 6fbe 6217 7a3e
00000020: 65b2 99be 56d5 613e 83e8 f6bd 7ce7 0cbd
00000030: 61e9 a93d 5b07 f33d 3995 97be cee3 d0be
00000040: e9cd 94be bd59 9abe 0648 fc3d 174a ffbb
00000050: db99 54be f637 5ebe 1c74 c9bd 15f9 e23c
00000060: 0ee6 d7bd b81c 24be 41a9 79be ebad 69bc
00000070: cf15 9d3d c7d3 37be 9f36 bcbe 40be 62be
00000080: 13cb febe 5ac3 473d 9e2c ac3d fef9 91be
00000090: 0ec0 b63e e25e bf3d 5b41 f5bd 75f5 8d3e
000000a0: 9317 d23d 25d9 153d f74b 963e 1458 7fbe
000000b0: a662 b63d 81ed 9d3e 5c85 3dbc 2e2f 843e
000000c0: 4007 dc3b 2a74 96bc 91b7 6a3d 4607 bcbc
000000d0: fa3d 59be b9c9 0b3e 5e2f 95bd 3976 833d
000000e0: 7382 853e eead 823e 0ea0 f73d ec64 083f
000000f0: 6527 cd3e e676 9a3c 1ea9 5c3e d1fc 913d
00000100: 7997 1ebe 35e6 8abe 3056 053e 6590 2cbe
00000110: a167 163c 0cfa 8dbd ca8e e23d 8380 36bd
00000120: 6279 30be 0cdb 1bbe 7d88 6fbd a407 ddbd
00000130: e6aa 143d 1bb7 8fbd 844c 983e 0959 153d
00000140: 98b3 513e ce7d e5bd 5393 4f3e bffb 09be
00000150: 8bdb 823e 3b99 fb3d d9bb 93be b72b 173d
00000160: 79c6 65bd 701e 973e 5f21 e4be 3b2e 473d
00000170: db49 8a3e 5ea2 803e e62e dcbe ca7c ffbd
00000180: 7f31 27be 56fe 68be ec49 2a3e 5890 353d
00000190: 2127 4abe 3a67 ad3d 5690 a0be 99fd 793e
000001a0: 0c86 42be 52ad ac3e 0704 cdbe 9b0e 083d
000001b0: ee56 27be 7521 be3e d582 92be 70f3 963b
000001c0: f634 ef3e c5ff 9cbe 24e4 babd 5f5b fd3d
000001d0: 1339 28bd 27af abbd 5579 89bd cdee 04bd
000001e0: 549b 4fbe 50f3 01be aae2 a8be b027 46be
000001f0: bbbc c3be 37a9 f6bd 8e73 82be d18c f3be
00000200: 03b3 b6bc c860 a9bd e03c ed3d 6418 efbd
00000210: 64da 80be fcce ef3d f1aa 8fbe 5f95 8cbc
00000220: 9136 4b3d 16dc 8d3e dfd1 61be 55c6 183d
00000230: 2bd0 47bd 8b66 43bc eae5 483e 4ea9 833d
00000240: d166 353e 35c2 3ebd 33f2 873d 4715 10be
00000250: 3059 15be 77be 773c 6e78 e9bd 8acc 91bc
00000260: 8c82 f63d 1750 423e ec90 183e 7314 4bbe
00000270: 6f1a 683e b4d6 2f3d 7fe8 92bd 56f7 7b3e
00000280: 8463 9c3d b425 1d3e a1a7 f2bd a29b 893e
00000290: ebbe 28bd 5385 1ebe c70a 08be 37a7 79be
000002a0: 27f3 a0be 1a0b 093d 8975 cdbe b842 123f
000002b0: c308 a23e e2f8 78be 628f 7bbe 8ec5 c1bd
000002c0: e7b4 e3bd b5ca 1e3e 633e 1f3e 1124 0fbe
000002d0: 6a16 8fbe 5406 05be 7c72 063f 8446 813e
000002e0: 4642 4e3b a5a3 18be bcc9 293f bad7 0f3c
000002f0: 449b e0bd 4263 c23d d18d 6a3e 6a9a c93d
00000300: 6dd4 2abe dc1e 97be 5f9c 6f3e 687c 353d
00000310: 085f 58be 9729 2f3d 4bee e73d dfce 68bc
00000320: dc8a 5fbd ea23 d4be 852b f13d ad69 3e3a
00000330: 58f8 88be b9c3 9dbd 0aae 4dbe da76 fabd
00000340: 0ba5 253e d7d8 24be bdec f3bd 89f3 efbd
00000350: a3e4 af3c 7d42 5c3e 03d3 99be b29e b7be
00000360: 22e0 e93d b03d 833d 80ae f1be 1857 a53e
00000370: d81f 39be 6cb7 aebe 16a4 ddbe 32ff 89be
00000380: f340 f93e 0775 61be 62bc 51be bca7 3f3e
00000390: 6a73 183e bc63 50bd aab7 77bd 659b 6dbe
000003a0: 44ef 3c3d 1748 14be 4df4 3abe 0b9b d33e
000003b0: 8972 253e 8bc2 b23d e2e3 a2be 0fdc 833d
000003c0: 2a96 2eba 50a6 133e 7a1a 6bbe 6089 153d
000003d0: 208c 813e 8a3f 1c3d 151c ad3d 2494 56be
000003e0: 0471 093d 4608 e23b 5010 783e 9126 883c
000003f0: 1774 27bc 308a 1e3e 995e ef3d 42eb 5b3e

tcn.tcn.0.conv2.bias f4 [16]
0.039720673 -0.09158811 -0.110922664 -0.2487505 0.048708618 0.29359344 0.030666789 0.2636774
0.21090293 -0.12543795 0.16913068 0.005470416 0.077934176 0.34728083 -0.030009883 -0.208752
00000000: 25b2 223d 8c92 bbbd 6c2b e3bd 73b8 7ebe
00000010: b082 473d e151 963e eb38 fb3c b900 873e
00000020: f0f6 573e ce72 00be 9830 2d3e 2d41 b33b
00000030: f49b 9f3d cbce b13e 49d7 f5bc 16c3 55be

tcn.tcn.0.res_conv.weight f4 [16, 16, 1]
0.14770705 -0.036650687 -0.23156463 0.032605052 0.0570454 -0.24234174 -0.090918995 -0.086269826
0.039734684 -0.4041033 0.028911449 0.15187712 -0.23408665 -0.15950726 0.12277851 -0.17274317
0.2526798 -0.024177393 -0.025907053 0.08162515 -0.3326095 -0.023836471 -0.16740835 -0.12965487
-0.009555564 -0.35339615 0.06379491 0.08441304 -0.14837126 -0.062729694 0.14364438 0.11053326
-0.18406813 -0.13635962 -0.17553364 0.037878655 0.029383935 -0.21383467 0.24514201 0.10128427
-0.08070713 -0.015608782 -0.0567838 -0.3674887 -0.218057 0.013104426 0.45271772 0.16597296
-0.39382324 0.0080933375 -0.16891938 -0.004220293 0.010878459 0.3480032 -0.08745556 0.09987074
-0.46562508 -0.31188217 0.38566574 0.0964932 -0.20300725 0.07851464 0.29550934 0.18029639
0.21560568 -0.14536427 -0.14472847 0.03892233 -0.025255246 -0.10981209 -0.120961726 0.11443623
0.18195488 0.017750135 0.07961199 0.04583839 0.29200915 0.09154847 0.0575565 -0.019807369
-0.09688868 0.15346435 0.08534149 -0.051505767 -0.2491299 -0.1217048 0.2895194 0.23136127
0.18412444 -0.247405 -0.087767735 0.16034357 -0.30990312 -0.22834453 -0.14301148 -0.19078964
-0.039421692 -0.29452667 0.10685088 0.11983043 -0.18162565 -0.20877704 -0.072204694 -0.28880936
-0.062490046 -0.21898283 -0.112745486 0.040863995 0.042517036 0.103344135 0.31719318 0.27585793
-0.03386013 -0.26938564 -0.17402528 0.09937991 -0.18481186 0.06320927 -0.15794592 0.14705193
-0.15495862 -0.20953704 -0.30374333 0.17468953 -0.15932457 -0.027567321 -0.28441134 0.13029149
0.25849295 -0.28814757 -0.15942508 0.24452962 0.10787057 -0.027941804 -0.33930197 -0.3405711
-0.0039200303 0.19989121 -0.13566932 0.008713572 0.27583268 -0.18979159 0.22205403 0.0074044787
0.2797261 -0.10703092 -0.0799723 0.1623287 0.14821663 -0.23558734 0.38401392 0.023283325
0.17500722 -0.027756356 -0.06534158 0.50938004 0.06868426 -0.029226646 0.19838497 -0.1450541
-0.081443556 0.20714605 0.29759097 0.1411752 -0.05932734 -0.22329263 0.19193085 0.08626166
0.049099628 -0.359379 0.25103825 0.1310851 -0.028094247 0.11760561 -0.07020665 0.06551903
0.4222214 0.1357253 -0.09053379 -0.123099305 -0.04670651 -0.040307455 0.06508066 -0.14421366
-0.07966102 -0.012921689 0.032919332 0.26304004 0.07897163 0.12468085 0.059646696 -0.008781004
0.0038821204 0.2949938 0.047678333 -0.19170809 -0.003948558 -0.22637181 -0.13742355 0.15886559
0.23348004 0.018098257 0.08065013 0.13487536 -0.38641655 -0.10128067 -0.00993859 -0.005373132
0.43401983 0.09501354 0.03171852 -0.15086399 -0.23400629 -0.18853702 0.2208048 0.03731604
0.0007461538 0.00131089 0.009236906 0.3303364 -0.17080112 -0.25423905 -0.26519072 -0.13174526
-0.056309223 -0.055328265 0.031682074 0.32379583 0.012933902 -0.1593336 0.264539 -0.4462641
0.07950808 -0.34695518 0.07410074 -0.10374842 -0.054574568 0.18583557 -0.13725773 0.011109859
-0.44300038 0.11390015 -0.24129413 -0.19234917 0.26976517 0.10917411 0.054937307 -0.27638325
0.2718398 0.18126303 0.28929576 -0.22819118 0.09121754 0.25297293 -0.20685881 0.05794316
00000000: 8440 173e 081f 16bd 471f 6dbe e08c 053d
00000010: 70a8 693d 6f28 78be bd33 babd 3cae b0bd
00000020: d6c0 223d a1e6 cebe b4d7 ec3c ad85 1b3e
00000030: 69b4 6fbe df55 23be 4d73 fb3d 96e3 30be
00000040: 3f5f 813e ab0f c6bc 073b d4bc 162b a73d
00000050: cb4b aabe b444 c3bc 186d 2bbe 3fc4 04be
00000060: f18e 1cbc 57f0 b4be e8a6 823d bee0 ac3d
00000070: a3ee 17be 6d78 80bd 8317 133e 435f e23d
00000080: 5b7c 3cbe dba1 0bbe 17bf 33be a626 1b3d
00000090: 94b6 f03c 7af7 5abe 8206 7b3e 216e cf3d
000000a0: c849 a5bd fabb 7fbc 2196 68bd 7b27 bcbe
000000b0: 564a 5fbe f2b3 563c 9eca e73e d1f4 293e
000000c0: 33a3 c9be eb99 043c 34f9 2cbe 624a 8abb
000000d0: 903b 323c 7a2d b23e e71b b3bd 0889 cc3d
000000e0: 6966 eebe 05af 9fbe fb75 c53e 3a9e c53d
000000f0: 22e1 4fbe 49cc a03d 004d 973e 9e9f 383e
00000100: bcc7 5c3e 5fda 14be b333 14be 056d 1f3d
00000110: 17e4 cebc 29e5 e0bd c8ba f7bd 8b5d ea3d
00000120: 6152 3a3e bb68 913c 9c0b a33d 09c1 3b3d
00000130: 3982 953e c47d bb3d 5dc0 6b3d 1043 a2bc
00000140: 926d c6bd c225 1d3e 85c7 ae3d b6f7 52bd
00000150: e91b 7fbe 5e40 f9bd e33b 943e f8e9 6c3e
00000160: 1e8b 3c3e bc57 7dbe 92bf b3bd 1b31 243e
00000170: 9fab 9ebe 26d3 69be 9a71 12be 5c5e 43be
00000180: a478 21bd 33cc 96be a2d4 da3d a869 f53d
00000190: 13fc 39be a6c9 55be 0ee0 93bd d2de 93be
000001a0: 90f5 7fbd 093d 60be 1be7 e6bd 0161 273d
000001b0: 5826 2e3d 17a6 d33d 2567 a23e 403d 8d3e
000001c0: ebb0 0abd eaec 89be af33 32be b287 cb3d
000001d0: 523f 3dbe dd73 813d 93bc 21be c894 163e
000001e0: 79ad 1ebe e190 56be 3f84 9bbe d0e1 323e
000001f0: fb25 23be ddd4 e1bc 5d9e 91be 226b 053e
00000200: 3059 843e 1488 93be 5440 23be f965 7a3e
00000210: 3feb dc3d 36e6 e4bc fdb8 adbe 565f aebe
00000220: 9973 80bb 48b0 4c3e e6ec 0abe 5fc3 0e3c
00000230: f139 8d3e ba58 42be 2262 633e 45a1 f23b
00000240: 4238 8f3e 0733 dbbd 84c8 a3bd 7f39 263e
00000250: 1ac6 173e cf3d 71be 799d c43e acbc be3c
00000260: 1835 333e 4c61 e3bc ced1 85bd bb66 023f
00000270: 55aa 8c3d b86c efbc 6e25 4b3e 1089 14be
00000280: e1cb a6bd 181e 543e d85d 983e 3b90 103e
00000290: 3a01 73bd d3a6 64be 8589 443e f4a9 b03d
000002a0: b11c 493d 8600 b8be 1688 803e 2c3b 063e
000002b0: e825 e6bc 36db f03d 81c8 8fbd d72e 863d
000002c0: 672d d83e 93fb 0a3e c869 b9bd 7d1b fcbd
000002d0: 534f 3fbd 6e19 25bd 0249 853d bfac 13be
000002e0: 5125 a3bd 7eb5 53bc 6cd6 063d 2fad 863e
000002f0: e1bb a13d ac58 ff3d 1850 743d 33de 0fbc
00000300: 2c6b 7e3b 6d09 973e 5b4a 433d 204f 44be
00000310: e862 81bb 03ce 67be c2b8 0cbe a9ad 223e
00000320: 6415 6f3e cc42 943c e52b a53d c41c 0a3e
00000330: 64d8 c5be 3d6c cfbd 78d5 22bc 1911 b0bb
00000340: d937 de3e 7596 c23d 47eb 013d 177c 1abe
00000350: 589f 6fbe d90f 41be a71a 623e b4d8 183d
00000360: 8999 433a 2bd2 ab3a 6456 173c da21 a93e
00000370: 7de6 2ebe 9f2b 82be 14c7 87be 3be8 06be
00000380: 80a4 66bd e49f 62bd 10c5 013d 91c8 a53e
00000390: b8e8 533c 5928 23be a871 873e ba7c e4be
000003a0: 22d5 a23d 1ca4 b1be 21c2 973d 0d7a d4bd
000003b0: 9589 5fbd ae4b 3e3e 4a8d 0cbe 2006 363c
000003c0: f2d0 e2be 7b44 e93d cf15 77be 2ef7 44be
000003d0: a91e 8a3e ad96 df3d f105 613d 1b82 8dbe
000003e0: 962e 8b3e 049d 393e 931e 943e f3aa 69be
000003f0: 43d0 ba3d ab85 813e ccd2 53be cf55 6d3d

tcn.tcn.0.res_conv.bias f4 [16]
0.056090362 0.03371146 0.12529407 -0.27710196 -0.05522188 -0.005722174 -0.35981297 0.29280683
-0.008690711 -0.22380441 -0.030889532 -0.194145 0.109915525 0.40377852 -0.0076902485 -0.09134645
00000000: 02bf 653d 0715 0a3d 174d 003e 4fe0 8dbe
00000010: 5730 62bd 1381 bbbb 6839 b8be c7ea 953e
00000020: 7c63 0ebc fc2c 65be 0b0c fdbc f2cd 46be
00000030: 641b e13d 0fbc ce3e 7bfe fbbb d913 bbbd

tcn.tcn.1.conv1.weight f4 [16, 16, 5]
0.09311063 0.20769113 -0.13057637 0.19758324 -0.042502202 0.103583865 0.17930205 -0.1813753
0.13968164 -0.10109624 -0.33914796 0.0015910364 0.17583543 0.046106353 -0.007059918 -0.23494154
-0.044186313 -0.14035758 0.02192769 0.121342726 -0.11096822 0.023457339 0.06621149 -0.010846198
-0.07040213 -0.07206198 -0.06526786 -0.15819174 0.08081801 -0.20509952 -0.3099948 -0.02490473
-0.024015889 -0.020821834 -0.13913272 0.19816387 0.08749394 -0.18524627 0.0019444592 -0.13169186
0.01690649 0.010428216 0.13361609 0.12324167 0.07397052 -0.068020254 -0.24343835 -0.31623498
0.081218906 -0.05904878 0.17484234 -0.08413044 -0.15835688 0.052896857 0.15330549 -0.049599625
-0.07176812 -0.014166284 -0.029673679 -0.029988186 0.099333435 0.06580158 0.037841078 0.01799616
-0.21603434 0.30323672 0.20366235 -0.031967115 0.12301789 -0.0105696 0.06385618 -0.19796544
-0.2844424 -0.059360854 -0.08591934 0.05666483 -0.026873033 0.18425785 0.04226499 0.1802107
-0.02537876 -0.09127299 0.19034053 0.0023489029 -0.19173467 -0.14713848 0.031173928 -0.06716886
0.082534276 -0.2098508 -0.1584013 0.29303932 -0.24403645 -0.060780402 -0.017821465 0.23452841
0.19209105 -0.05604407 -0.15004127 -0.06569559 -0.034745384 0.18609309 -0.019836552 0.05764903
-0.01962018 -0.02344359 0.110808246 0.21549726 0.0084015 -0.029753705 -0.34534797 0.195018
0.118702695 -0.08314018 -0.23850414 0.23395163 -0.061719175 0.29857218 0.10820475 -0.06253609
-0.44599038 0.17285377 0.09380037 -0.23937453 -0.07801802 -0.49131504 0.44190097 0.03285499
-0.11864087 0.3580275 -0.08270639 -0.30004096 -0.039733324 -0.13229796 -0.053869035 0.24618931
0.24555518 -0.046570655 0.13994154 0.38140187 0.23612824 -0.21182454 0.022169424 0.50433
-0.13570738 -0.08776425 -0.27390108 0.19727667 0.0505696 -0.08184511 0.1983674 0.1605932
0.14180203 -0.26145744 -0.19513024 0.30470794 -0.28442457 -0.076099776 -0.0615042 0.026373021
0.22955991 0.16757609 0.2182088 0.1563138 -0.11212173 0.20734233 0.0959937 0.03381171
0.24421933 -0.047262453 0.34162256 -0.14021133 -0.116088934 -0.045776933 0.1729152 0.25456864
0.19821706 -0.071916185 -0.17904429 -0.2523447 -0.12528974 -0.0119475685 -0.03920894 0.06514688
-0.08174633 0.08207666 0.06721767 0.09665524 0.097978294 0.078958206 0.40043324 -0.057700995
-0.008744916 -0.12824324 -0.1474285 0.056747288 0.11070775 0.06752974 0.23284698 -0.003952496
0.10409114 -0.17097816 -0.1673905 -0.030827357 -0.04093775 0.19679658 0.029995814 0.13381906
-0.116205804 -0.23350692 -0.090726435 0.15175469 0.19028187 0.07817603 -0.17498298 0.0025852437
-0.021595607 0.039558757 -0.068410516 0.13881752 0.06253201 0.20572764 -0.06936364 0.3027998
0.098269224 -0.135499 0.33054072 0.10849791 0.081711896 0.028668242 -0.08891638 0.28758764
0.09097784 -0.15549359 -0.25040904 -0.09480054 0.089251906 -0.21479747 -0.17346819 -0.044739075
0.09897704 0.21234325 0.14355008 -0.1336535 0.03719558 0.24539626 0.3347857 0.16120738
-0.19239414 -0.049645 0.11358412 0.053193167 -0.116263166 -0.1696705 -0.035008974 -0.18739831
00000000: c9b0 be3d fcac 543e d0b5 05be 4353 4a3e
00000010: ca16 2ebd c723 d43d f59a 373e 72ba 39be
00000020: b408 0f3e 8c0b cfbd cda4 adbe 538a d03a
00000030: 340e 343e 04da 3c3d e256 e7bb 8494 70be
00000040: b5fc 34bd e6b9 0fbe b3a1 b33c 8982 f83d
00000050: 4e43 e3bd 9b29 c03c e499 873d 40b4 31bc
00000060: fe2e 90bd 3b95 93bd 28ab 85bd 04fd 21be
00000070: ea83 a53d 9c05 52be a3b7 9ebe 0105 ccbc
00000080: f8bc c4bc 8d92 aabc cf78 0ebe 78eb 4a3e
00000090: 0630 b33d 33b1 3dbe 39dd fe3a 3bda 06be
000000a0: 7b7f 8a3c 1cdb 2a3c a8d2 083e 2166 fc3d
000000b0: db7d 973d 344e 8bbd e747 79be 8de9 a1be
000000c0: 1956 a63d 22dd 71bd df09 333e 954c acbd
000000d0: 4e28 22be 60aa 583d 1dfc 1c3e fa28 4bbd
000000e0: 2afb 92bd b419 68bc 3716 f3bc c9a9 f5bc
000000f0: 546f cb3d fbc2 863d 3fff 1a3d af6c 933c
00000100: 1b38 5dbe d841 9b3e dd8c 503e f3ef 02bd
00000110: cef0 fb3d 1e2c 2dbc 07c7 823d 74b7 4abe
00000120: 6fa2 91be 5e24 73bd 7bf6 afbd 6119 683d
00000130: d624 dcbc 17ae 3c3e 0e1e 2d3d 2789 383e
00000140: 1ee7 cfbc 55ed babd a1e8 423e 0df0 193b
00000150: 1856 44be 78ab 16be 7760 ff3c d48f 89bd
00000160: bb07 a93d 21e3 56be f333 22be 4009 963e
00000170: b1e4 79be dff4 78bd 52fe 91bc 3728 703e
00000180: 84b3 443e 778e 65bd 6ba4 19be 698b 86bd
00000190: 2d51 0ebd 308f 3e3e 4480 a2bc 6421 6c3d
000001a0: 80ba a0bc c60c c0bc 6fef e23d 50ab 5c3e
000001b0: 72a6 093c 0bbe f3bc 73d1 b0be ccb2 473e
000001c0: 661a f33d 6645 aabd 6e3a 74be 0491 6f3e
000001d0: 3fcd 7cbd 74de 983e 749a dd3d ec12 80bd
000001e0: da58 e4be 9400 313e 691a c03d 991e 75be
000001f0: e9c7 9fbd a58d fbbe d840 e23e f492 063d
00000200: fcf9 f2bd 614f b73e f861 a9bd f89e 99be
00000210: 69bf 22bd 1e79 07be c7a5 5cbd 0d19 7c3e
00000220: d172 7b3e dfc0 3ebd d64c 0f3e 1b47 c33e
00000230: 9acb 713e 88e8 58be a79c b53c c51b 013f
00000240: e0f6 0abe bebd b3bd c33c 8cbe e502 4a3e
00000250: 1222 4f3d 699e a7bd d320 4b3e 8b72 243e
00000260: 8d34 113e c0dd 85be 39d0 47be ae02 9c3e
00000270: 19a0 91be 33da 9bbd d4eb 7bbd 3c0c d83c
00000280: c111 6b3e 1199 2b3e 2172 5f3e ba10 203e
00000290: 14a0 e5bd 8c51 543e 5898 c43d 267e 0a3d
000002a0: a214 7a3e 4696 41bd 27e9 ae3e 8f93 0fbe
000002b0: 09c0 edbd 9880 3bbd af10 313e d256 823e
000002c0: 6af9 4a3e cb48 93bd 6357 37be 5333 81be
000002d0: f44b 00be bcbf 43bc 8e99 20bd ba6b 853d
000002e0: 9f6a a7bd cf17 a83d 6ba9 893d 2ff3 c53d
000002f0: d8a8 c83d d7b4 a13d 9605 cd3e e157 6cbd
00000300: d646 0fbc 3252 03be 7ff7 16be d86f 683d
00000310: bfba e23d 084d 8a3d 706f 6e3e f183 81bb
00000320: bc2d d53d e614 2fbe 6a68 2bbe a789 fcbc
00000330: 58ae 27bd 0b85 493e c8b9 f53c dd07 093e
00000340: 4ffd edbd 701c 6fbe c8ce b9bd 9565 1b3e
00000350: 40d9 423e c11a a03d bd2e 33be 316d 293b
00000360: 45e9 b0bc 5d08 223d d01a 8cbd 2e26 0e3e
00000370: c810 803d 44aa 523e 860e 8ebd 9308 9b3e
00000380: 6041 c93d 40c0 0abe a23c a93e 2734 de3d
00000390: 9158 a73d a9d9 ea3c cb19 b6bd b03e 933e
000003a0: 9752 ba3d b639 1fbe 9d35 80be c926 c2bd
000003b0: b4c9 b63d def3 5bbe a5a1 31be 5240 37bd
000003c0: 79b4 ca3d 8270 593e cbfe 123e 77dc 08be
000003d0: 645a 183d 2849 7b3e 0869 ab3e 8c13 253e
000003e0: f802 45be 8e58 4bbd cb9e e83d 14e1 593d
000003f0: 621b eebd 1bbe 2dbe 9265 0fbd 58e5 3fbe

tcn.tcn.1.conv1.bias f4 [16]
0.1544951 -0.26799744 0.1981823 -0.11203479 -0.031052671 0.15888298 0.22690205 0.0013848946
0.020898981 -0.37505934 0.13764164 -0.11727707 0.008663492 -0.10149936 -0.22594798 -0.010331546
00000000: f733 1e3e f636 89be 4df0 4a3e 7f72 e5bd
00000010: 2c62 febc 38b2 223e 0359 683e 5a85 b53a
00000020: 5734 ab3c c707 c0be eef1 0c3e f62e f0bd
00000030: 52f1 0d3c e5de cfbd e85e 67be a545 29bc

tcn.tcn.1.conv2.weight f4 [16, 16, 1]
-0.026567062 0.25312227 -0.16095763 -0.5574476 0.13948104 -0.191524 0.15938473 0.47150478
-0.118445605 0.011734807 0.17019457 0.089105695 -0.022137305 0.09577328 -0.24984539 0.38304648
0.02318063 0.1879319 0.25340125 0.054899044 -0.10415655 0.04366496 -0.08953123 0.17127867
0.18802549 -0.25009903 -0.13710752 0.0041244864 -0.09294899 0.25025368 -0.23107527 0.25506428
0.24384268 -0.1800173 -0.16729976 0.067305475 -0.033043712 -0.08197513 0.24606495 0.18650441
0.13176812 0.15278484 -0.11723984 -0.10900149 -0.09497191 -0.20070036 0.1314207 0.033593252
-0.0375645 -0.19429095 0.021049192 -0.24961966 0.13796373 -0.09369325 0.0071147755 -0.10537525
-0.10425955 0.40937927 0.2418477 0.04029659 0.18719018 0.2742696 0.05642481 0.14574808
0.04695754 -0.112935305 0.06889418 0.564419 0.3955277 0.041056238 -0.34810022 -0.48749048
-0.27832422 -0.034154855 0.1503209 -0.32310182 -0.168834 0.03626447 -0.035798248 -0.25875407
0.13510202 -0.21828847 0.06002354 -0.0721142 0.31082702 0.46938774 0.042298008 -0.0824037
0.20145756 0.3598442 0.22843549 -0.049646836 0.092959404 0.041496623 0.29154903 0.17906226
-0.053772062 -0.07466326 -0.13881354 0.21934104 0.1920564 0.2726103 -0.09642401 0.2624197
-0.09038068 0.25463715 -0.0518229 0.12407381 -0.025563521 -0.18887526 0.07317278 0.1812116
-0.08540743 0.1965481 -0.0242248 0.25536504 0.2585598 0.089773424 0.024589129 -0.21112694
-0.043709572 0.013290365 -0.079469085 -0.16918607 -0.11153542 0.11346788 0.09744996 -0.41380587
0.106750816 -0.090603605 0.107725784 -0.23919278 0.016738271 0.14563322 -0.12613142 -0.2801697
-0.15662754 0.06356589 0.14918579 0.15874279 -0.19305888 -0.30556014 0.27068013 -0.13705386
0.040817607 -0.41489974 -0.37054792 0.21277823 0.059947252 0.24190049 -0.31962886 0.030014498
0.13420485 0.06953706 0.0337672 -0.07208542 0.144851 0.047275998 0.28744996 0.05935142
-0.113073766 -0.07296707 -0.015955176 -0.018396782 0.25901392 -0.15683706 -0.124655046 -0.24109125
0.003460091 0.2598745 0.34521118 -0.01917415 0.0067798775 0.1368271 -0.045928575 -0.16697803
0.009766381 0.119738735 0.036032982 0.058102246 0.03188554 -0.16282676 -0.17464194 0.012043923
-0.316511 -0.016563581 0.2521005 -0.1661465 0.0064451303 -0.119951434 0.1396971 -0.16880499
0.09010608 0.10846627 0.13605148 0.07478655 -0.11902038 -0.0028550103 -0.12533346 0.22688252
-0.24291854 0.2113993 0.05320254 -0.0102587 0.20129865 -0.13347916 0.1329208 -0.24146207
-0.052182205 0.1548695 0.2970193 0.014948042 0.22806527 -0.16162147 0.04477014 -0.1871646
0.26274106 -0.16857217 0.31996983 -0.03220672 0.21775605 0.31970736 0.38660374 -0.17260459
-0.35076645 0.05360917 0.13742208 0.21471423 -0.13974391 -0.41787162 0.05577272 -0.015003036
-0.23436873 0.018386254 -0.19513367 -0.21392609 -0.2287174 0.14576024 -0.39825413 0.3381899
-0.2639755 0.20896761 -0.014128602 0.030946016 0.2319328 0.12158723 0.18829907 -0.22819017
-0.022575593 -0.18219236 -0.11582441 -0.2727312 -0.020464499 0.27217862 -0.24540366 -0.15096633
00000000: 2ba3 d9bc 3e99 813e 14d2 24be e3b4 0ebf
00000010: 1ed4 0e3e de1e 44be c035 233e 1369 f13e
00000020: 9c93 f2bd 5943 403c 7c47 2e3e 0c7d b63d
00000030: 4b59 b5bc c824 c43d 78d7 7fbe ab1e c43e
00000040: 4ee5 bd3c 3871 403e cfbd 813e d2dd 603d
00000050: 0750 d5bd 07da 323d 265c b7bd ad63 2f3e
00000060: c189 403e fb0c 80be ea65 0cbe b326 873b
00000070: 0a5c bebd 4021 803e ff9e 6cbe c997 823e
00000080: e5b1 793e 7556 38be a150 2bbe 74d7 893d
00000090: d858 07bd 94e2 a7bd 73f8 7b3e 03fb 3e3e
000000a0: 39ee 063e a173 1c3e 711b f0bd 2c3c dfbd
000000b0: a280 c2bd 6584 4dbe 2693 063e 1499 093d
000000c0: 3cdd 19bd 35f4 46be 5b6f ac3c 4c9c 7fbe
000000d0: 5d46 0d3e 3fe2 bfbd 1023 e93b fbce d7bd
000000e0: 0886 d5bd 299a d13e eca6 773e 0a0e 253d
000000f0: c8ae 3f3e 116d 8c3e b41d 673d fc3e 153e
00000100: 8d56 403d a04a e7bd 6418 8d3d c37d 103f
00000110: 9b82 ca3e 962a 283d 313a b2be 5a98 f9be
00000120: 8380 8ebe f6e5 0bbd b9ed 193e 9a6d a5be
00000130: d2e2 2cbe 0e8a 143d 2fa1 12bd 6a7b 84be
00000140: 2f58 0a3e 0387 5fbe 3edb 753d 9cb0 93bd
00000150: b824 9f3e 9753 f03e ad40 2d3d 45c3 a8bd
00000160: e44a 4e3e 803d b83e feea 693e 7b5a 4bbd
00000170: 8061 be3d 5df8 293d ea45 953e 195c 373e
00000180: 1840 5cbd 0de9 98bd 2325 0ebe f09a 603e
00000190: 6faa 443e 9493 8b3e f479 c5bd e05b 863e
000001a0: 8219 b9bd cd5f 823e 4044 54bd 691a fe3d
000001b0: 976a d1bc 8468 41be 9cdb 953d 898f 393e
000001c0: 17ea aebd e843 493e 1673 c6bc 35bf 823e
000001d0: f361 843e 21db b73d 246f c93c a931 58be
000001e0: cf08 33bd d5bf 593c b0c0 a2bd 1d3f 2dbe
000001f0: af6c e4bd d961 e83d d893 c73d 5dde d3be
00000200: 2ca0 da3d 628e b9bd 569f dc3d f4ee 74be
00000210: b31e 893c e020 153e 9828 01be 6772 8fbe
00000220: f862 20be d52e 823d 29c4 183e 788d 223e
00000230: 3ab1 45be 6172 9cbe 9696 8a3e d957 0cbe
00000240: 5d30 273d bd6d d4be 75b8 bdbe 89e2 593e
00000250: 408b 753d c3b4 773e 65a6 a3be f7e0 f53c
00000260: ff6c 093e 7269 8e3d 7a4f 0a3d 85a1 93bd
00000270: d253 143e 7aa4 413d a42c 933e 791a 733d
00000280: 3893 e7bd c26f 95bd 6eb4 82bc d9b4 96bc
00000290: 799d 843e e599 20be 254b ffbd a0e0 76be
000002a0: b2c2 623b 450e 853e 85bf b03e 1b13 9dbc
000002b0: bc29 de3b 671c 0c3e 9a1f 3cbd 4afc 2abe
000002c0: 2c03 203c 9539 f53d 5297 133d 9ffc 6d3d
000002d0: 699a 023d 0fbc 26be 56d5 32be e053 453c
000002e0: bb0d a2be 59b0 87bc 5113 813e 4f22 2abe
000002f0: ac31 d33b 19a9 f5bd c20c 0f3e 37db 2cbe
00000300: 8989 b83d 9023 de3d 1451 0b3e b129 993d
00000310: f5c0 f3bd 201b 3bbb 6a57 00be e453 683e
00000320: a3bf 78be 0f79 583e e8ea 593d 1b14 28bc
00000330: 3c21 4e3e c3ae 08be 641c 083e d541 77be
00000340: 02bd 55bd 1c96 1e3e ea12 983e a2e8 743c
00000350: f189 693e 1980 25be e560 373d 14a8 3fbe
00000360: ff85 863e 2f9e 2cbe 16d3 a33e 32eb 03bd
00000370: 71fb 5e3e afb0 a33e edf0 c53e 42bf 30be
00000380: a997 b3be 4a95 5b3d 60b8 0c3e 0cde 5b3e
00000390: 0719 0fbe 45f3 d5be f071 643d 4bcf 75bc
000003a0: 5bfe 6fbe c59e 963c 1fd1 47be 710f 5bbe
000003b0: e534 6abe 2c42 153e f7e7 cbbe 3a27 ad3e
000003c0: cc27 87be 9bfb 553e a77b 67bc 8082 fd3c
000003d0: cb7f 6d3e ba02 f93d 79d1 403e afaa 69be
000003e0: 73f0 b8bc a290 3abe 5935 edbd 6da3 8bbe
000003f0: 2aa5 a7bc ff5a 8b3e 194b 7bbe eb96 1abe

tcn.tcn.1.conv2.bias f4 [16]
-0.051630005 0.43614888 -0.09008699 0.13602753 -0.22577317 -0.3088604 -0.39043656 -0.056156415
0.09448634 -0.116976954 -0.12598418 -0.2791313 -0.2901323 0.0522562 0.05137092 -0.27722925
00000000: fc79 53bd e84e df3e 877f b8bd cd4a 0b3e
00000010: 1531 67be f322 9ebe 4de7 c7be 4504 66bd
00000020: 0e82 c13d 9d91 efbd ff01 01be 4cea 8ebe
00000030: 398c 94be 990a 563d 506a 523d fef0 8dbe
