checkpoints/fine_tune/var_rf/hainsworth/0.3/model_fallen-blaze-195_finetune_finetune_finetune_finetune_GTZ_GIA/it_1664_loss_5.0106_acc10.13_acc20.13.pt (torch, 437010 bytes, 211 tensors)

conv1.weight f4 [16, 1, 3, 3]
0	0x3e7faa2e	0.24967262
1	0xbd66ed3e	-0.056378596
2	0xbe884431	-0.26614526
3	0x3ea88f66	0.32921904
4	0xbdfbeb26	-0.123007104
5	0xbeab5ac5	-0.3346769
6	0x3e60c0f5	0.21948607
7	0x3e55ecfc	0.20891184
8	0xbe871fef	-0.2639155
9	0x3ea5416b	0.32276472
10	0xbefa65b6	-0.48905724
11	0xbece886f	-0.40338466
12	0x3e844e5b	0.2584103
13	0xbe920f02	-0.28527075
14	0x3de2fafc	0.11083028
15	0x3de062db	0.10956355
16	0x3e33531b	0.17512171
17	0x3d8e6158	0.069521606
18	0xbe88d517	-0.26725075
19	0x3eca13e3	0.39468297
20	0x3e38d05a	0.1804823
21	0xbe627b0e	-0.22117254
22	0x3eb0c998	0.34528804
23	0x3d328637	0.04358503
24	0xbeff433a	-0.49855977
25	0x3e2be7ff	0.16787718
26	0xbe50a069	-0.20373692
27	0xbe915f14	-0.2839285
28	0xbdf3e0c6	-0.119081065
29	0x3eac304a	0.33630592
30	0xbeb60f3c	-0.35558498
31	0x3db1a634	0.08674279
32	0x3e3e1a3a	0.18564692
33	0x3ebb63ae	0.36599487
34	0x3d68ceeb	0.056837957
35	0xbefd3e96	-0.49461812
36	0xbe808076	-0.25098008
37	0xbe75c64c	-0.24001426
38	0xbe3f5b03	-0.18687062
39	0xbe7a2ce2	-0.24431184
40	0x3e1fa89b	0.15591662
41	0x3e86ef66	0.26354522
42	0xbd49b7b1	-0.049247447
43	0xbd72e3a5	-0.05929913
44	0xbe6c6502	-0.23085406
45	0xbda4bed7	-0.08044212
46	0x3da706de	0.08155607
47	0xbdb23182	-0.08700849
48	0xbf551b21	-0.8324452
49	0x3e978ab8	0.29598022
50	0x3ee906e8	0.45513082
51	0xbe82dc7a	-0.25558835
52	0x3e96b0e8	0.29431844
53	0xbd5e821a	-0.054323293
54	0x3e98b333	0.29824218
55	0xbbd00f5b	-0.0063494868
56	0xbdebd4a8	-0.1151517
57	0xbdf059e6	-0.11735897
58	0x3e3866cf	0.18007968
59	0xbec9734d	-0.3934578
60	0xbe18907a	-0.14898863
61	0x3dcae2ec	0.09906563
62	0xbe870e0e	-0.2637791
63	0x3c032084	0.008003358
64	0x3c96a62f	0.01838979
65	0x3e8310db	0.25598797
66	0xbedafe80	-0.42772293
67	0xbe1cf97a	-0.15329543
68	0xbde7a055	-0.11309878
69	0x3dfbd7e8	0.1229704
70	0xbd6571aa	-0.0560166
71	0x3f0cb489	0.54962975
72	0xbead964a	-0.33903724
73	0x3e0bad61	0.13640358
74	0xbe9640d5	-0.29346338
75	0xbeba06af	-0.36333224
76	0x3edb72da	0.42861062
77	0x3ec5c302	0.38625342
78	0xbe10ca04	-0.14139563
79	0x3ee32dfb	0.44371018
80	0x3e19ab6c	0.15006799
81	0xbf27f4ad	-0.6560772
82	0x3db4fed8	0.0883767
83	0x3f03c1c0	0.51467514
84	0x3c0fe8fd	0.008783576
85	0xbe6c0658	-0.23049295
86	0x3e450a63	0.19242243
87	0xbeb94a48	-0.36189485
88	0xbc93c5a6	-0.018038582
89	0x3e9816ce	0.297049
90	0xbeffd447	-0.49966642
91	0x3d099edb	0.033598762
92	0x3e9b7380	0.30361557
93	0xbe725053	-0.23663454
94	0xbe6240f2	-0.22095087
95	0x3e9a0e6a	0.30089122
96	0x3dbeea7e	0.093220696
97	0xbe001fbc	-0.12512106
98	0xbcc0b6a2	-0.023524586
99	0x3e12a4fb	0.14320748
100	0x3ed19810	0.40936327
101	0xbe0e65f6	-0.13906083
102	0x3e6cd30b	0.23127382
103	0x3ec37590	0.3817563
104	0xbe2f3a27	-0.17112027
105	0x3eb6d2a8	0.35707593
106	0x3dbe1da7	0.092829995
107	0xbd9a5495	-0.07535664
108	0x3e065f92	0.13122395
109	0x3e0bb194	0.1364196
110	0x3ce76c76	0.02824996
111	0xbdfa5761	-0.122236975
112	0xbe43b4a8	-0.19111884
113	0xbed62810	-0.4182744
114	0x3e8a00ae	0.26953644
115	0x3ea26266	0.31715697
116	0xbe45714f	-0.19281505
117	0x3e67d4ca	0.22639766
118	0xbdf05c89	-0.117364
119	0xbe935a8a	-0.28780013
120	0x3ea83bc4	0.32858098
121	0x3e97d8ca	0.29657584
122	0x3df4a6a9	0.119458504
123	0xbe8edfc9	-0.2790511
124	0x3e453daf	0.19261812
125	0xbeef9b6b	-0.46798262
126	0x3e9f9a47	0.31172392
127	0x3e35d01f	0.17755173
128	0xbe010748	-0.12600434
129	0x3ec605e5	0.38676372
130	0xbe9d11e4	-0.30677712
131	0x3c09412d	0.0083773555
132	0x3e54c97e	0.20779988
133	0xbea7f05f	-0.32800576
134	0xbee781f9	-0.4521635
135	0xbe136243	-0.14392953
136	0xbd19530a	-0.037432708
137	0x3e975e05	0.2956392
138	0xbe018030	-0.12646556
139	0x3d4719a5	0.04860844
140	0x3eb7772e	0.35833114
141	0xbefcf3b9	-0.49404696
142	0xbe77e342	-0.24207786
143	0x3f095124	0.53639436

conv1.bias f4 [16]
0	0x3c19bb7b	0.009383078
1	0x3dc801b4	0.0976595
2	0xbd16f84e	-0.036857896
3	0xbcc017b2	-0.023448799
4	0xbe4ce1d0	-0.20008016
5	0xbde6948a	-0.112588
6	0x3e16fb42	0.14744285
7	0x3b38cf77	0.002819983
8	0x3bff48e9	0.007790674
9	0x3d5328f7	0.05155274
10	0xbd0b3a13	-0.03399093
11	0xbe62a41d	-0.22132917
12	0x3db9bb31	0.09068907
13	0xbd1ee082	-0.038788326
14	0xbca95a98	-0.020673081
15	0xbe0d2406	-0.13783273

conv2.weight f4 [16, 16, 3, 3]
0	0xbe192322	-0.14954808
1	0xbd0d04aa	-0.034428276
2	0xbba60275	-0.005066211
3	0xbdef1092	-0.116730824
4	0xbe51386d	-0.20431681
5	0xbe6f90c7	-0.23395072
6	0xbd4898dc	-0.048973903
7	0x3d3a381b	0.045463663
8	0xbdc51fb2	-0.09625186
9	0xbc0cd6b0	-0.008596107
10	0xbd89c931	-0.06727827
11	0xbc2ff1d1	-0.010738806
12	0xbdbb4451	-0.0914389
13	0x3c35656b	0.011071543
14	0xbe123cf6	-0.14281067
15	0xbded9504	-0.11600688
16	0xbd01f37e	-0.031726353
17	0xbea01491	-0.3126569
18	0x3cfb7c04	0.030698784
19	0xbe88b570	-0.26700926
20	0xbd5c279c	-0.053748712
21	0x3e777b63	0.24168162
22	0xbe909f4f	-0.28246543
23	0xbd540144	-0.05175902
24	0x3e9832e3	0.29726323
25	0xbe7cad49	-0.24675478
26	0xbe164066	-0.14673004
27	0xbdf7472e	-0.12074123
28	0x3db65bc7	0.08904224
29	0x3e3cd92e	0.18442222
30	0xbcd843cb	-0.026399514
31	0x3e2673ca	0.16255108
32	0x3eba83bc	0.3642863
33	0x3ed650cf	0.41858527
34	0x3eff6ae9	0.49886253
35	0x3f1176de	0.56822
36	0xbb93b3c5	-0.004507514
37	0xbb45e76b	-0.003019775
38	0xbe301870	-0.17196822
39	0xbd521e39	-0.051298354
40	0xbe0e40c8	-0.138919
41	0xbe7bc527	-0.24586926
42	0x3ace5b07	0.0015743681
43	0xbe0e6882	-0.13907054
44	0xbdd06bfa	-0.10176845
45	0x3e8a0f1c	0.26964653
46	0xbd53b22f	-0.0516836
47	0x3ed6ddb7	0.4196603
48	0x3e8faf3c	0.2806338
49	0xbdd4da74	-0.10393229
50	0x3ebcebda	0.3689869
51	0x3f053ddd	0.5204752
52	0x3d9fa35b	0.077948295
53	0x3f00821e	0.50198543
54	0x3d828cce	0.063745126
55	0xbe1df7a6	-0.15426502
56	0xbe287be0	-0.16453505
57	0xbc02bb44	-0.007979218
58	0xbdde9274	-0.108677775
59	0xbe5cad3e	-0.21550462
60	0xbd22cf8f	-0.039748725
61	0xbdcf38fc	-0.10118291
62	0xbd8768a8	-0.066117585
63	0x3e5ebcc7	0.217517
64	0x3e0625b9	0.13100328
65	0xbdc8a34a	-0.0979677
66	0x3e4f3d80	0.20238304
67	0xbc77e64f	-0.015130593
68	0xbe8c7c13	-0.2743841
69	0xbd4558c5	-0.04818036
70	0xbd346c06	-0.04404833
71	0xbe924968	-0.2857163
72	0x3e00a009	0.12561049
73	0xbe248c01	-0.16069032
74	0xbbd431a2	-0.0064756433
75	0x3e61e494	0.22059852
76	0xbe497699	-0.19674148
77	0xbd9adea1	-0.07561994
78	0x3da2bc41	0.07946063
79	0xbe364b9c	-0.1780228
80	0xbe26ebd5	-0.163009
81	0x3ce5383f	0.027980922
82	0x3e6f48f7	0.23367678
83	0x3e796ac9	0.24357142
84	0x3e6181b2	0.22022131
85	0x3ead86d7	0.33891937
86	0x3eb649df	0.35603234
87	0x3e94d014	0.29065
88	0x3e28c722	0.16482213
89	0x3e9ece8e	0.31016964
90	0x3cec8639	0.028872596
91	0xbc30b0b5	-0.010784318
92	0xbbb60354	-0.005554596
93	0x3bc1cdbd	0.0059144185
94	0xbc6e3e74	-0.014541257
95	0x3e0bca68	0.1365143
96	0x3d3a051e	0.045415036
97	0xbc9f0fb5	-0.01941667
98	0x3dae41ae	0.08508621
99	0xbdf7c4b8	-0.12098068
100	0xbe53a696	-0.20669016
101	0xbe5820bf	-0.21106242
102	0xbe257c18	-0.1616062
103	0xbe8b9fb5	-0.27270284
104	0xbeac16d5	-0.3361117
105	0xbdce064b	-0.10059794
106	0xbdb29754	-0.0872027
107	0xbe84842e	-0.25882095
108	0xbdac7d53	-0.08422341
109	0xbda86dce	-0.082240686
110	0xbe303a4c	-0.17209738
111	0xbb00028a	-0.0019532763
112	0xbdc58dde	-0.096462
113	0xbe2e6b50	-0.17033124
114	0x3cd73309	0.026269453
115	0x3d6153ee	0.055011682
116	0xbd854c59	-0.06508703
117	0x3dd255eb	0.10270294
118	0xbde0bc45	-0.109734096
119	0xbd14bcc2	-0.036312826
120	0x3ce537d4	0.027980722
121	0xbe24236e	-0.1602914
122	0xbe1067e8	-0.14102137
123	0x3da0f03b	0.0785832
124	0xbd097e94	-0.03356798
125	0xbea0252b	-0.31278357
126	0xbe4a0274	-0.19727498
127	0xbe4d0986	-0.20023164
128	0xbe1bf3d1	-0.15229727
129	0xbe3e04a8	-0.18556464
130	0xbd0fe9b2	-0.03513498
131	0x3ccacf06	0.02475692
132	0xbd8cbdff	-0.068721764
133	0x3dc15ec0	0.094419
134	0xbd12690f	-0.035744723
135	0x3aebd7dd	0.001799341
136	0xbc46db40	-0.012137234
137	0x3d845f4d	0.0646349
138	0xbd9f1fbe	-0.07769726
139	0x3c60b1f7	0.013714305
140	0x3de3c023	0.111206315
141	0x3d97a65a	0.07404776
142	0xbd6642cf	-0.056216057
143	0x3d7ff269	0.06248704
144	0x3e6e742a	0.232865
145	0x3d6927e2	0.0569228
146	0x3e4526c1	0.19253065
147	0x3dd42127	0.10357886
148	0x3e259c8b	0.16172998
149	0x3e08abf7	0.1334685
150	0x3d84d62b	0.06486162
151	0x3db19ecd	0.08672867
152	0x3d844d44	0.0646005
153	0x3e93539b	0.28774723
154	0xbe08758a	-0.13326088
155	0x3e97b86c	0.2963289
156	0x3d90abc4	0.07064012
157	0xbdfbba16	-0.122913525
158	0x3df68459	0.12036962
159	0x3e86263f	0.26201054
160	0xbe13a4a2	-0.14418271
161	0x3d0e1190	0.034684718
162	0xbe9b1575	-0.30289808
163	0x3f116d6d	0.56807595
164	0xbd6ba535	-0.0575306
165	0xbef7ebf0	-0.48422194
166	0x3e1f5362	0.15559152
167	0xbd97e8f2	-0.07417478
168	0xbefeabe9	-0.49740532
169	0x3e4868ba	0.195712
170	0xbe369f67	-0.17834245
171	0xbebde01a	-0.37085038
172	0xbe5ce383	-0.21571164
173	0xbd00073f	-0.03125691
174	0xbcf7f098	-0.030266091
175	0x3de6bb29	0.11266167
176	0x3e82fbb3	0.25582656
177	0xbbdf3e83	-0.006812872
178	0x3e1349c5	0.1438361
179	0x3e422b20	0.18961763
180	0x3e1d2bb9	0.1534871
181	0x3e449b68	0.19199908
182	0x3e30b839	0.17257775
183	0x3cf312d6	0.029672068
184	0x3dc73417	0.09726732
185	0xbccb7133	-0.024834251
186	0x3d380814	0.04492958
187	0x3ddef355	0.10886256
188	0x3ca1b3ff	0.01973915
189	0xbec0e9a5	-0.37678257
190	0x3e966c11	0.29379323
191	0xbcdfd9f8	-0.027325615
192	0xbee3e5da	-0.445113
193	0x3dd2d70c	0.10294923
194	0xbd9fe41c	-0.0780718
195	0xbf04ddb3	-0.51900786
196	0x3e921097	0.28528282
197	0x3c57f711	0.013181464
198	0xbd7b65b0	-0.061376274
199	0x3df05029	0.11734039
200	0xbdc40833	-0.095718764
201	0x3d925cd8	0.07146615
202	0x3db590b4	0.088654906
203	0x3da7f78b	0.08201512
204	0x3da4019f	0.08008122
205	0x3e21fa02	0.15818027
206	0x3e1462bd	0.1449079
207	0x3e82d6c3	0.25554475
208	0x3d8a60cf	0.06756746
209	0xbe083679	-0.1330203
210	0xbca2a665	-0.019854734
211	0xbd1f1141	-0.038834814
212	0xbd72b9d0	-0.059259236
213	0x3cb21127	0.021736694
214	0x3c5e572a	0.013570586
215	0xbe82d779	-0.25555018
216	0xbf02b003	-0.5104982
217	0x3e0afacb	0.13572232
218	0xbe6875e5	-0.22701223
219	0xbed36d3f	-0.41294286
220	0x3dd88e38	0.10574001
221	0xbdca475d	-0.09876893
222	0xbf08abdd	-0.5338724
223	0x3e9f0861	0.3106108
224	0x3e0c5195	0.13702996
225	0xbd04bbc1	-0.03240562
226	0xbda62e7b	-0.08114334
227	0xbdbb842f	-0.091560714
228	0xbe1ebde5	-0.15502127
229	0xbdb62eaa	-0.08895619
230	0x3dbaf203	0.09128191
231	0xbe1fda90	-0.15610719
232	0x3df6709c	0.12033197
233	0x3d96ecdf	0.07369398
234	0x3e551f83	0.20812802
235	0xbe01dea0	-0.12682581
236	0x3ce1a0e3	0.027542537
237	0xbd7f5b0e	-0.062342696
238	0xbb8c602e	-0.0042839264
239	0xbd48965a	-0.04897151
240	0xbd0bfbe9	-0.034175787
241	0xbe00712c	-0.12543172
242	0x3d68e20a	0.056856193
243	0xbe8aff30	-0.27147818
244	0xbd8abbcd	-0.067741014
245	0x3e549169	0.20758595
246	0xbdc94f4b	-0.09829577
247	0xbd8a83e9	-0.06763441
248	0x3e0b90c5	0.13629444
249	0xbd96cbd8	-0.07363099
250	0x3d00440e	0.031314902
251	0x3e39f948	0.181615
252	0x3d678d7a	0.056531407
253	0xbd9f383b	-0.07774397
254	0xbdd26f75	-0.10275165
255	0xbd5084bb	-0.05090783

conv2.bias f4 [16]
0	0xbd46da87	-0.048548248
1	0xbe320b16	-0.17387041
2	0x3d32c847	0.04364803
3	0xbdba5a8a	-0.090993
4	0xbe227221	-0.15863849
5	0xbe9ac312	-0.30226952
6	0xbe5656fb	-0.20931618
7	0xbd300c63	-0.042980563
8	0xbd592361	-0.053012256
9	0xbdc6aa2c	-0.097004265
10	0xbd987a09	-0.07445151
11	0xbbf7a83f	-0.0075578983
12	0xbcf0bcca	-0.029386897
13	0xbe085ba1	-0.13316204
14	0x3d3648bf	0.04450297
15	0xbe10d49a	-0.14143601

conv3.weight f4 [16, 16, 8, 1]
0	0xbe1e3828	-0.1545111
1	0xbd9da14b	-0.0769678
2	0xbce57378	-0.028009161
3	0xbc34ae8e	-0.011027945
4	0xbe267f81	-0.16259576
5	0xbeb05d80	-0.34446335
6	0xbe69b4cf	-0.22822879
7	0x3e2c1e5e	0.16808459
8	0x3e4069a9	0.18790306
9	0x3e0feaab	0.14054362
10	0x3e69abf7	0.22819506
11	0x3dc9c96b	0.098528706
12	0x3e5d983e	0.21640107
13	0x3ea82de2	0.32847506
14	0xbe86a67c	-0.26298892
15	0xbe94dcdb	-0.2907475
16	0x3d80aaf1	0.062826045
17	0x3e3dd6c6	0.18538961
18	0x3e8ed14d	0.2789406
19	0x3e80a284	0.2512399
20	0x3db030fd	0.08603094
21	0x3d11add1	0.035566155
22	0xbe9fe3f1	-0.31228593
23	0xbe233b53	-0.15940599
24	0xbe147246	-0.14496717
25	0xbd5aaf46	-0.05338981
26	0xbd8b0076	-0.06787197
27	0xbdaac0d6	-0.08337562
28	0xbd0dc97f	-0.03461599
29	0xbe30f968	-0.17282641
30	0x3e92562f	0.28581378
31	0xbd966318	-0.073431194
32	0x3c57910f	0.013157143
33	0x3cf83c23	0.030302113
34	0x3d9913ab	0.074744545
35	0x3dc873f3	0.097877406
36	0x3e089f1a	0.13341942
37	0x3e6647e4	0.22488362
38	0x3d9c3449	0.0762716
39	0x3dc48d6e	0.09597288
40	0xbe53d84b	-0.20687978
41	0x3d688abc	0.056772932
42	0xbc00bb21	-0.007857115
43	0x3d5c3927	0.053765442
44	0xbdbf090a	-0.09327896
45	0xbda69395	-0.08133618
46	0xbf0afaa1	-0.5428868
47	0x3ce8bc9b	0.028410247
48	0x3de4ab33	0.11165466
49	0x3ddc6a18	0.10762423
50	0xbc727ced	-0.014800292
51	0xbde116b7	-0.10990661
52	0x3c4f1ed0	0.012641624
53	0x3da5aa7c	0.08089158
54	0xbd9f2026	-0.07769804
55	0xbd995c29	-0.07488281
56	0x3dc27358	0.09494656
57	0x3b8ba928	0.0042621084
58	0x3de6cc78	0.11269468
59	0xbbc96139	-0.006145623
60	0xbd1f9734	-0.038962558
61	0xbe694798	-0.22781217
62	0x3d8987a8	0.067153275
63	0x3d1256d0	0.035727322
64	0x3d88486d	0.06654439
65	0x3b7a210e	0.0038166675
66	0x3e09fb3b	0.13474743
67	0x3dd1e311	0.102483876
68	0xbdcfebc0	-0.101523876
69	0xbd5dc380	-0.05414152
70	0x3f2ead49	0.6823316
71	0xbd8ca584	-0.06867507
72	0xbdec57f6	-0.11540215
73	0xbd8fc29c	-0.07019541
74	0xbc9e71dc	-0.019341402
75	0xbd3906dd	-0.04517256
76	0xbd936225	-0.07196454
77	0xbd9a7bc4	-0.07543138
78	0xbeb6f33e	-0.35732454
79	0x3eb26f1e	0.348504
80	0x3e8036bc	0.2504176
81	0x3df6ec60	0.12056804
82	0x3da708b0	0.08155954
83	0xbd9a731b	-0.07541486
84	0xbd1258e9	-0.035729323
85	0xbce6ee21	-0.02818972
86	0x3ebf8330	0.37404776
87	0xbdd0b88e	-0.10191451
88	0xbde2ef98	-0.11080855
89	0xbc6f68c3	-0.0146123795
90	0x3d17c3c5	0.037051935
91	0x3c5ae9f5	0.013361444
92	0x3e241a14	0.16025573
93	0xbea2bf67	-0.31786653
94	0xbf334dd7	-0.7004065
95	0x3e5e076d	0.2168252
96	0xbd4189bd	-0.047250498
97	0xbe2f7814	-0.1713565
98	0xbe3904ea	-0.18068281
99	0xbd958a10	-0.07301724
100	0xbdce78fa	-0.10081668
101	0xbe9aabcc	-0.30209196
102	0xbd4492be	-0.047991507
103	0x3e2044c0	0.15651226
104	0xb954b60f	-0.00020285718
105	0x3e163a97	0.14670788
106	0x3e683616	0.22676882
107	0x3e2f9239	0.17145623
108	0xbb5f3e95	-0.0034064401
109	0x3e61f456	0.22065863
110	0x3eb8a318	0.3606193
111	0xbe6001dd	-0.21875711
112	0x3e641eab	0.22277324
113	0x3e3199c8	0.17343819
114	0x3e17d31a	0.14826623
115	0x3e18f7cd	0.14938278
116	0xbbd5cbf3	-0.006524557
117	0x3d8741ed	0.06604371
118	0xbd3dd070	-0.04634136
119	0x3c1ccc0d	0.009570134
120	0xbdffcb90	-0.12489998
121	0xbd275377	-0.040851083
122	0x3c505fd1	0.012718157
123	0xbe00cb3e	-0.1257753
124	0xbe03eb10	-0.12882638
125	0x3c87a592	0.016558442
126	0x3d843d0b	0.064569555
127	0x3dd07c99	0.10180015
128	0xbd675892	-0.05648095
129	0xbca0b9f2	-0.019619916
130	0xbccc102d	-0.024910057
131	0x3db1ccfb	0.08681675
132	0x3cdc91d3	0.026925003
133	0xbc9137fc	-0.01772689
134	0x3ea23164	0.31678307
135	0x3d810752	0.06300224
136	0x3c7b5df0	0.015342221
137	0x3db6eff8	0.08932489
138	0x3dda432b	0.106573425
139	0x3da6374e	0.08116017
140	0x3e125300	0.14289474
141	0x3ea4bddf	0.3217611
142	0xbea614b4	-0.3243767
143	0xbe200211	-0.15625788
144	0xbbd775f8	-0.0065753423
145	0xbcf6347c	-0.030054323
146	0x3db68d69	0.089136906
147	0x3db8b5c6	0.090190455
148	0xbd9b5ff8	-0.07586664
149	0x3e017685	0.12642868
150	0xbe42ef95	-0.19036706
151	0xbd3597e8	-0.044334322
152	0x3e0df18e	0.13861677
153	0x3dbe0214	0.0927774
154	0xbd522056	-0.05130037
155	0xbdfd892c	-0.12379679
156	0xbe4dea5f	-0.20108937
157	0xbe97d575	-0.29655042
158	0xbdf5636e	-0.11981855
159	0xbec8fe3c	-0.39256465
160	0xbd877ae3	-0.06615236
161	0x3c871236	0.016488176
162	0xbd21f1d7	-0.039537277
163	0xbb98eaed	-0.004666677
164	0xbddea52d	-0.108713485
165	0x3de494c0	0.11161184
166	0xbe991ca3	-0.2990466
167	0xbd59d994	-0.053186014
168	0x3ccf1382	0.025277857
169	0xbc9e49fd	-0.01932239
170	0xbda31974	-0.07963839
171	0xbe0e02f2	-0.13868311
172	0xbd5f6a3f	-0.054544684
173	0xbe0355ca	-0.12825695
174	0xbf14ed02	-0.58174145
175	0xbdd6cadd	-0.10487912
176	0xbddee623	-0.10883739
177	0xbce5da00	-0.028058052
178	0xbdb6c1c1	-0.089236744
179	0xbd278065	-0.04089393
180	0x3d487fe7	0.048950102
181	0x3ddb46c7	0.10706859
182	0x3e3f2c85	0.18669327
183	0xbc8cacef	-0.017172305
184	0x3d5216ac	0.051291153
185	0x3d990160	0.074709654
186	0x3e12ace8	0.14323771
187	0x3e279edc	0.16369194
188	0x3dde234c	0.10846576
189	0x3e9502fd	0.29103842
190	0x3e3bc04f	0.18335079
191	0x3d86ca0a	0.06581505
192	0xbd79696e	-0.06089156
193	0x3da10866	0.0786293
194	0x3e1df218	0.15424383
195	0x3ddaafb5	0.10678045
196	0x3de08890	0.10963547
197	0x3e01d19c	0.12677616
198	0x3f23c5f3	0.6397392
199	0xbde2b7f7	-0.11070245
200	0xbb584939	-0.0033002628
201	0x3cca7da5	0.024718115
202	0x3d8429af	0.06453263
203	0xbb41850f	-0.0029528772
204	0x3d335f47	0.043792035
205	0x3e349e37	0.17638479
206	0xbe8556d6	-0.26042813
207	0x3edf4130	0.43604422
208	0x3ce87c77	0.028379662
209	0xbd6495b1	-0.05580682
210	0xbda8f947	-0.08250671
211	0xbd9728ea	-0.073808506
212	0xbda0bc9b	-0.07848474
213	0xbe6d941b	-0.23201029
214	0x3ef0a723	0.47002515
215	0xbebe9f9f	-0.37231156
216	0x3df7fd97	0.12108915
217	0x3e1f35dc	0.1554789
218	0x3df1e96d	0.118121006
219	0x3e19a0b7	0.15002714
220	0x3db127a7	0.08650141
221	0x3d8ea9b3	0.06965961
222	0xbdf1af1e	-0.11800979
223	0x3dd32d64	0.10311392
224	0xbd106d36	-0.0352604
225	0xbccf1b1d	-0.025281483
226	0xbbfa7c62	-0.007644222
227	0xbd20a134	-0.039216235
228	0xbda9f5a5	-0.08298806
229	0xbb742099	-0.0037250875
230	0xbdfae332	-0.12250365
231	0x3e57f02f	0.21087717
232	0x3ae6d234	0.0017610253
233	0x3d60908b	0.054825347
234	0x3d6e266d	0.058142114
235	0x3cf5afb7	0.029991014
236	0x3dfbee1d	0.12301276
237	0xbdbeed22	-0.09322573
238	0x3dc79f53	0.097471856
239	0xbe9a5de3	-0.30149755
240	0x3d765f50	0.06014949
241	0xbd1ccc3c	-0.03828071
242	0xbc052bb3	-0.0081280945
243	0x3d8512ee	0.06497751
244	0xbb82c9b1	-0.0039913286
245	0x3ca5327b	0.020165673
246	0xbe722dd5	-0.23650296
247	0x3e2f6a13	0.17130308
248	0xbd04476e	-0.032294683
249	0xbc332daf	-0.010936185
250	0x3da0368e	0.078229055
251	0x3da18539	0.07886738
252	0xbd142fd4	-0.036178425
253	0x3e530331	0.20606686
254	0x3e2fa063	0.17151026
255	0x3ec129ec	0.37727296

conv3.bias f4 [16]
0	0xbbf706f1	-0.0075386693
1	0x3de37b86	0.111075446
2	0x3dd9d066	0.10635452
3	0x3c242263	0.010017964
4	0x3b32ee1c	0.0027302569
5	0x3e83e603	0.25761423
6	0x3e1eb2dd	0.15497918
7	0x3df8f8e8	0.1215685
8	0xbd20b821	-0.0392381
9	0xbeb2051c	-0.34769523
10	0x3e8e5598	0.27799678
11	0x3ec1b813	0.3783575
12	0xbc74fd09	-0.014952906
13	0x3d1b5099	0.03791866
14	0x3e6bc170	0.2302301
15	0xbb33d829	-0.0027442074

tcn.tcn.0.conv1.weight f4 [16, 16, 5]
0	0x3e055e41	0.13024236
1	0x3e168ef6	0.14702973
2	0x3da55c8a	0.08074291
3	0xbb89e1ad	-0.004207811
4	0xbe29e383	-0.16590695
5	0x3dd4a56b	0.103831135
6	0x3d5f83d0	0.054569066
7	0x3d865b2d	0.06560359
8	0xbcb975b4	-0.022639133
9	0xbebc711c	-0.36805046
10	0x3da78d15	0.08181206
11	0x3d61abaf	0.05509537
12	0x3e42dd10	0.19029641
13	0xbda8dfb2	-0.082457915
14	0xbdcaf2e9	-0.09909613
15	0x3e41e5b8	0.18935287
16	0x3e10c204	0.14136511
17	0x3deaa93f	0.114580624
18	0x3da53e40	0.08068514
19	0x3e7b7355	0.24555714
20	0x3e01ec2b	0.12687747
21	0xbca3fd70	-0.02001831
22	0x3e8e378b	0.2777675
23	0x3dffead7	0.12495964
24	0xbe00fde1	-0.12596847
25	0xbe1ec8f1	-0.1550634
26	0x3e17b0b3	0.14813499
27	0x3e393e2e	0.18090126
28	0xbc8bcd51	-0.017065676
29	0x3e387956	0.18015036
30	0xbd3880d3	-0.04504473
31	0x3be3a8fc	0.0069476347
32	0xbe0d9c7e	-0.13829228
33	0xbd6a1784	-0.057151332
34	0x3dc80ed0	0.0976845
35	0xbdfeb8ac	-0.12437567
36	0xbdf0df5f	-0.11761355
37	0xbd79b226	-0.06096091
38	0xbc00b11b	-0.007854725
39	0xbe1c70bd	-0.15277381
40	0xbd9fc0c4	-0.07800439
41	0x3d0ad553	0.033894848
42	0xbd590ee4	-0.052992716
43	0xbe2793e9	-0.16365017
44	0xbe261675	-0.16219504
45	0xbe802253	-0.25026187
46	0xbe6ce4e9	-0.23134197
47	0xbe7d3150	-0.24725842
48	0xbe9599b0	-0.29218817
49	0xbdbc30af	-0.09188973
50	0xbdf5f465	-0.12009505
51	0x3bc32b45	0.005956086
52	0xbdaaa0ae	-0.083314285
53	0xbe86938b	-0.2628444
54	0xbdde8814	-0.108657986
55	0xbd8b24b3	-0.06794109
56	0xbd5c80fe	-0.053833954
57	0x3c46a42f	0.012124105
58	0xbd9f4168	-0.07776147
59	0xbc8f8b98	-0.017522618
60	0x3da5b28a	0.08090694
61	0x3d002545	0.031285543
62	0x3e646c4d	0.22306938
63	0xbd9d3165	-0.07675437
64	0xbe3bd6c3	-0.18343644
65	0xbde3b13e	-0.11117791
66	0xbdafa508	-0.08576399
67	0xbdbdf4e0	-0.09275222
68	0xbdb84921	-0.08998323
69	0xbde89975	-0.113573946
70	0xbdd5a47b	-0.10431763
71	0x3d70d9de	0.058801524
72	0x3d022d15	0.031781275
73	0xbc0de079	-0.0086594755
74	0x3de01059	0.10940618
75	0xbbf6dd6b	-0.0075337193
76	0xbe0f6ffd	-0.14007564
77	0x3d82cd49	0.06386811
78	0xbd912b62	-0.07088353
79	0xbe05569c	-0.1302132
80	0x3e68ecd7	0.22746597
81	0x3eb0ea11	0.34553578
82	0x3df84121	0.12121797
83	0x3e4ad01e	0.19805953
84	0x3e154cbc	0.14580053
85	0x3e2fb0d7	0.17157303
86	0x3eb51b3c	0.3537234
87	0x3c71047d	0.014710543
88	0x3e476710	0.19472909
89	0x3ea064a2	0.31326777
90	0x3c142a38	0.009043269
91	0x3ea8be16	0.32957524
92	0x3e715423	0.23567252
93	0x3e765250	0.24054837
94	0x3ec6b60f	0.38810775
95	0xbd80c042	-0.0628667
96	0xbd30e9c0	-0.04319167
97	0xbe9000f8	-0.2812574
98	0x3d964e05	0.073391
99	0xbbf36d52	-0.0074288035
100	0xbec357ad	-0.3815283
101	0xbe986795	-0.29766527
102	0xbc5f7ecd	-0.0136410715
103	0xbbc496b0	-0.0059994087
104	0x3dcc8a8b	0.099873625
105	0x3e23bd34	0.15990144
106	0x3e049103	0.12945943
107	0x3db623e7	0.088935666
108	0x3d7ab890	0.06121117
109	0x3d22248f	0.039585646
110	0xbe8caf33	-0.27477416
111	0xbe57d37b	-0.21076767
112	0x3ce0b026	0.027427744
113	0x3d8dac49	0.069176264
114	0x3d46c9f8	0.048532456
115	0x3c88fc73	0.01672194
116	0xbcb82be1	-0.02248186
117	0x3d96b380	0.07358456
118	0x3e6fba57	0.23410927
119	0x3e5f359c	0.21797794
120	0x3d541842	0.051780947
121	0x3e536820	0.2064519
122	0x3c9dcec2	0.019263629
123	0x3e5389ee	0.20658085
124	0x3d9de411	0.07709516
125	0xbd05a077	-0.032623734
126	0xbe4c9848	-0.19979966
127	0xbe80e4f2	-0.2517467
128	0xbe4d1580	-0.20027733
129	0xbd170555	-0.03687032
130	0x3d94a706	0.0725842
131	0x3d3c220e	0.045930915
132	0x3e2659a6	0.16245136
133	0x3e4b0ee0	0.19829893
134	0x3e16a338	0.147107
135	0x3db21406	0.086952254
136	0x3e8cd431	0.2750564
137	0x3e1e9128	0.1548506
138	0x3dd1aa10	0.10237515
139	0x3e243040	0.16034031
140	0xbe11796a	-0.14206472
141	0xbdd73117	-0.1050741
142	0xb9355561	-0.00017293311
143	0xbd913859	-0.070908256
144	0x3dce8d52	0.100855485
145	0x3d36d096	0.044632517
146	0x3dc0dcb0	0.09417093
147	0x3e029b05	0.12754448
148	0x3e1ce1d7	0.15320526
149	0x3e67cd07	0.22636805
150	0x3e458d0a	0.19292083
151	0xbc62a491	-0.013833181
152	0x3d82789a	0.06370659
153	0xbd214872	-0.03937573
154	0xbe0d7c3f	-0.13816927
155	0x3df4d88f	0.11955368
156	0x3e22c77b	0.15896408
157	0xbde295ac	-0.11063704
158	0xbe067cca	-0.13133541
159	0x3e439243	0.19098763
160	0xbcc9783d	-0.024593467
161	0x3dda038e	0.10645209
162	0xbd292c82	-0.04130221
163	0xbd644b37	-0.055735793
164	0xbe5ca826	-0.21548519
165	0x3e542071	0.207155
166	0x3db30989	0.08742053
167	0x3df354c7	0.11881404
168	0xbd9d6d43	-0.07686856
169	0xbe25d417	-0.16194187
170	0x3e1e2dec	0.15447205
171	0x3d554635	0.052068908
172	0x3e215831	0.15756299
173	0x3d23e725	0.04001536
174	0xbe3dd9ca	-0.18540111
175	0xbdcfb616	-0.10142152
176	0x3cb98d6e	0.022650447
177	0xbde221a8	-0.11041576
178	0xbdb324a7	-0.08747225
179	0xbd16c342	-0.036807306
180	0xbd093232	-0.033495136
181	0xbe232106	-0.15930566
182	0xbe0db3c2	-0.13838103
183	0xbc836b55	-0.01604239
184	0xbd6096fb	-0.054831486
185	0x3df4bb34	0.11949769
186	0x3e6ed91b	0.23325007
187	0x3d70b5d6	0.058767162
188	0xbd826548	-0.06366974
189	0xbcead0ed	-0.028664077
190	0x3cefa6a8	0.029254273
191	0x3c59a6a5	0.01328436
192	0x3b29d295	0.002591287
193	0x3c47d513	0.012196797
194	0x3e8e0127	0.27735254
195	0x3c420b12	0.01184346
196	0xbe539a68	-0.2066437
197	0xbd5abf60	-0.053405166
198	0xbc78b858	-0.01518067
199	0xbd129397	-0.035785284
200	0x3d31097d	0.04322194
201	0xbdc639ae	-0.0967897
202	0xbdcdeb30	-0.10054624
203	0xbe1cc05f	-0.15307759
204	0xbdf0f2c8	-0.11765057
205	0xbdb5a4f0	-0.0886935
206	0xbdba9572	-0.09110536
207	0x3dd6d4a4	0.10489777
208	0x3e590402	0.21192935
209	0xbcca00e2	-0.024658624
210	0x3df19e55	0.117977776
211	0xbd0df6c3	-0.03465916
212	0xbe4cecd7	-0.20012222
213	0xbe35eb96	-0.1776565
214	0xbe2402dd	-0.16016717
215	0xbda27e6f	-0.079342715
216	0x3d397dd8	0.04528603
217	0x3e1eac3e	0.15495393
218	0x3e28db05	0.164898
219	0xbd9889c1	-0.074481495
220	0xbe4ee06d	-0.20202799
221	0xbe809aef	-0.25118205
222	0xbc8fd8dd	-0.017559463
223	0x3d8e2d68	0.06942254
224	0xbe4597f2	-0.19296244
225	0xbcffd962	-0.031231586
226	0xbe081549	-0.1328937
227	0xbe3d9464	-0.18513638
228	0xbe5645db	-0.20925085
229	0xbeb03fb9	-0.34423617
230	0xbea9d012	-0.33166558
231	0xbd460e1c	-0.0483533
232	0x3d924393	0.07141795
233	0x3d5abb67	0.053401377
234	0xbcdb8faf	-0.026801912
235	0xbd879c49	-0.06621606
236	0xbdf1d44b	-0.1180807
237	0x3e1239d7	0.14279877
238	0xbdcc9437	-0.09989207
239	0xbebdbf8f	-0.3706021
240	0xbeed8386	-0.46389407
241	0xbe7b4599	-0.24538268
242	0xbe10ca5d	-0.14139695
243	0x3e3f9f0a	0.18713012
244	0x3e462533	0.19350128
245	0xbe218d5f	-0.15776585
246	0x3d35fa6b	0.04442827
247	0xbd75873f	-0.059943434
248	0xbd1d397f	-0.03838491
249	0x3d5621a3	0.052278172
250	0xbe5bc435	-0.21461566
251	0xbd22ee7b	-0.039778214
252	0x3e2d00fc	0.16894907
253	0x3cc9c614	0.024630584
254	0x3e84ece9	0.25961998
255	0xbc6ba44a	-0.014382431

tcn.tcn.0.conv1.bias f4 [16]
0	0xbb50ecd6	-0.0031879446
1	0xbb28a161	-0.0025730955
2	0x3e405cf5	0.1878546
3	0x3e354341	0.17701437
4	0x3ce83a41	0.02834809
5	0x3d94db2d	0.07268367
6	0xbc93b25d	-0.018029386
7	0xbe3eaefc	-0.18621439
8	0x3b02811b	0.0019913379
9	0x3e38f705	0.1806298
10	0x3d773918	0.060357183
11	0xbd6454d7	-0.055744972
12	0x3e634db3	0.22197609
13	0x3d52bc59	0.051449154
14	0xbdd77b74	-0.10521594
15	0x3db174b3	0.08664837

tcn.tcn.0.conv2.weight f4 [16, 16, 1]
0	0x3d6632f9	0.056200955
1	0xbdc1919b	-0.094516
2	0x3e89a240	0.268816
3	0x3da2ad8c	0.07943258
4	0x3e38d7ce	0.18051073
5	0xbe1cd5bd	-0.1531591
6	0x3da1ef43	0.07906964
7	0x3e88f46c	0.2674898
8	0x3e4fa125	0.20276316
9	0xbd8bbd5a	-0.06823225
10	0xbe079f57	-0.13244377
11	0xbe3e5050	-0.18585324
12	0x3e42c87e	0.19021794
13	0xbdd485be	-0.10377072
14	0xbdbc607e	-0.09198092
15	0x3ed538e2	0.4164496
16	0x3da4ebf3	0.08052816
17	0x3e57f28e	0.21088621
18	0xbd5e3390	-0.054248393
19	0x3e2a4911	0.16629435
20	0x3d9b74bf	0.07590627
21	0x3df9db2f	0.12200009
22	0x3e4fa2f5	0.20277007
23	0xbd9dd8ab	-0.07707342
24	0xbc76a224	-0.015053306
25	0xbafd6c75	-0.0019334691
26	0xbe3429d9	-0.17594089
27	0xbdc1639d	-0.09442828
28	0x3dbffd8a	0.093745306
29	0xbe841265	-0.25795284
30	0xbe1e6d6d	-0.1547143
31	0x3ecf3edb	0.40477642
32	0x3d975aa2	0.07390334
33	0x3e58bc37	0.21165548
34	0xbe02a9a9	-0.12760033
35	0x3e71f063	0.23626857
36	0x3b050a8e	0.002030048
37	0xbd867bf9	-0.06566615
38	0xbcd837d4	-0.026393808
39	0x3df11939	0.11772389
40	0x3cf81798	0.030284688
41	0x3eae2d20	0.34018803
42	0x3e46792c	0.19382161
43	0x3e40ac2f	0.18815683
44	0xbdf4f28e	-0.11960326
45	0x3e932cae	0.28745025
46	0xbdc43d43	-0.09581997
47	0xbde4945a	-0.11161108
48	0x3e1271fa	0.14301291
49	0x3e899c5e	0.2687711
50	0xbc23f855	-0.010007937
51	0x3d7995d4	0.060933903
52	0xbd8450bc	-0.06460711
53	0x3e6b0362	0.22950509
54	0x3e3c7d8b	0.18407266
55	0x3d9a62ba	0.07538362
56	0xbe4cb545	-0.19991024
57	0xbe842bdc	-0.25814712
58	0xbda5b5f3	-0.08091345
59	0xbe87c661	-0.2651854
60	0x3e8cdb33	0.27510986
61	0x3dce2b48	0.10066849
62	0x3dc1805b	0.0944831
63	0x3e31161c	0.1729359
64	0x3e0419eb	0.12900512
65	0x3e9552f0	0.2916484
66	0xbdbe5044	-0.09292653
67	0xb9f7c753	-0.0004726002
68	0x3d77bac2	0.06048084
69	0x3cf70688	0.030154482
70	0xbdc47afc	-0.0959377
71	0xbf05b9be	-0.52236545
72	0xbe079844	-0.13241678
73	0xbee52e9c	-0.44762123
74	0xbd671f71	-0.05642647
75	0xbe825360	-0.25454235
76	0xbe07b2b0	-0.13251758
77	0x3dea0a1d	0.1142771
78	0xbc1f0403	-0.009705546
79	0x3dce0c43	0.100609325
80	0xbbfc4fb3	-0.0076999306
81	0x3da188a6	0.07887392
82	0x3c2be7f6	0.0104923155
83	0xbd964cdf	-0.07338881
84	0xbe939b9f	-0.28829667
85	0x3c8f6634	0.017504789
86	0xbd91c92b	-0.07118448
87	0xbed11924	-0.40839493
88	0x3e331d8c	0.1749174
89	0xbeff84d4	-0.49906027
90	0xbdfb4866	-0.12269668
91	0xbf0db95e	-0.5536097
92	0xbd916300	-0.07098961
93	0x3bc36eb1	0.005964123
94	0x3e7744de	0.24147364
95	0x3d2d6992	0.042337008
96	0xbe01c40f	-0.12672447
97	0xbe732ec1	-0.23748304
98	0xbdae6d06	-0.08516888
99	0xbe4f50c3	-0.20245652
100	0xbb2da145	-0.002649383
101	0x3d1057f5	0.035240132
102	0xbe502f0d	-0.20330448
103	0xbdf56dfd	-0.11983869
104	0xbe49f3a0	-0.19721842
105	0x3e80793e	0.250925
106	0xbe6dbee0	-0.23217344
107	0xbe7d5a72	-0.24741533
108	0x3d456b2e	0.048197918
109	0xbeaeea2e	-0.3416304
110	0x3c393d5e	0.011306135
111	0xbd7977d3	-0.06090529
112	0xbe620d0b	-0.22075288
113	0x3cd1a1ad	0.025589788
114	0x39ed4e7e	0.00045262644
115	0x3e006bd1	0.12541129
116	0xbdb57a77	-0.08861249
117	0x3e58f0c5	0.21185596
118	0x3e0364fd	0.12831493
119	0x3e063c5d	0.13108964
120	0x3e99d500	0.3004532
121	0x3e163181	0.14667322
122	0x3d12aacc	0.035807416
123	0x3e45e168	0.19324267
124	0x3e8c33dc	0.27383316
125	0x3e8c8049	0.27441624
126	0xbea524de	-0.3225469
127	0xbe5341d6	-0.20630583
128	0xbe381eab	-0.17980449
129	0x3da63974	0.08116427
130	0x3e88a7b6	0.26690453
131	0x3b3e2e63	0.0029019348
132	0x3d48b549	0.049001012
133	0x3e139780	0.14413261
134	0x3daa84d0	0.08326113
135	0xbb6c75a8	-0.003608087
136	0xbe408b88	-0.18803227
137	0x3d80ab12	0.06282629
138	0x3dd52c59	0.10408849
139	0xbdf77440	-0.1208272
140	0xbe4fb599	-0.20284118
141	0x3db5256d	0.08845029
142	0xbeb591f1	-0.35462907
143	0x3e952350	0.29128504
144	0xbe0dcab2	-0.13846853
145	0x3ea21c10	0.31662035
146	0xbdcd5d62	-0.10027577
147	0x3e0affd2	0.1357415
148	0x3e600c4b	0.2187969
149	0x3e92dfa6	0.28686255
150	0x3e46db7d	0.19419666
151	0xbd5d060d	-0.05396085
152	0xbda3e8d5	-0.080033936
153	0xbe3a95a1	-0.18221141
154	0xbe06bde8	-0.13158381
155	0x3c9386cd	0.018008614
156	0xbe77639a	-0.24159089
157	0x3d88fe0d	0.06689081
158	0xbebf3dec	-0.3735193
159	0xbc07bad8	-0.008284293
160	0xbe133f41	-0.14379598
161	0xbdabb576	-0.0838422
162	0x3df1ddd7	0.11809891
163	0xbddb5d2e	-0.10711132
164	0xbe121038	-0.14264
165	0xbe0fde11	-0.14049555
166	0xbbb1628f	-0.0054133604
167	0x3e5c3d3d	0.21507736
168	0xbcc8ca2e	-0.02451047
169	0x3f1e4594	0.6182492
170	0xbe3b7934	-0.18307954
171	0x3f011ea2	0.50437367
172	0x3e301c38	0.17198265
173	0x3d257f38	0.04040453
174	0x3d756011	0.05990607
175	0xbe838dbb	-0.2569407
176	0x3cc1fcc9	0.023680108
177	0xbe376d17	-0.17912708
178	0xbe1ead87	-0.15495883
179	0x3e79778d	0.24362011
180	0xbe241af5	-0.16025908
181	0xbe7061a0	-0.23474741
182	0xbdf82caa	-0.12117894
183	0x3e6f4f62	0.23370126
184	0xbda452ef	-0.08023631
185	0x3f1e4530	0.6182432
186	0x3d369dd0	0.044584095
187	0x3e10bb96	0.14134058
188	0xbd2a55aa	-0.041585602
189	0x3c002048	0.007820196
190	0x3ec92a29	0.39289978
191	0x3e656a09	0.2240373
192	0xbdd91194	-0.10599056
193	0xbeab2aa1	-0.3343096
194	0x3e2c830c	0.16846865
195	0xbd60628d	-0.054781485
196	0xbe27b3df	-0.16377209
197	0xbd0a2475	-0.033726174
198	0xbdf66552	-0.12031044
199	0x3ecae3b8	0.3962686
200	0xbd6d6497	-0.057957258
201	0x3e939ea6	0.28831977
202	0xbe0833b6	-0.13300976
203	0x3e9c949e	0.30582136
204	0x3e81a236	0.2531907
205	0xbe44c773	-0.19216709
206	0x3dc37960	0.09544635
207	0xbe0a7dbe	-0.1352453
208	0x3e41ff68	0.18945086
209	0x3e09510e	0.13409826
210	0x3e838607	0.25688192
211	0xbdb961b1	-0.09051836
212	0xbd3fda16	-0.046838842
213	0xbe732246	-0.23743543
214	0x3c5ae6cf	0.013360693
215	0x3ed3916a	0.4132188
216	0x3c2d42c3	0.010574999
217	0x3ec2f9ad	0.38081113
218	0xbe5c9cc5	-0.21544178
219	0x3dab4498	0.083626926
220	0x3e86a479	0.26297358
221	0x3e5d0405	0.21583565
222	0xbe5984f5	-0.21242125
223	0x3ea2ec22	0.3182078
224	0x3d662fc3	0.056197893
225	0xbd8541e4	-0.06506708
226	0xbcd28e2d	-0.02570256
227	0xbe8e8f36	-0.27843636
228	0xbde0880e	-0.1096345
229	0x3c3d0014	0.011535663
230	0xbe1c4d3a	-0.15263835
231	0x3ec1a38f	0.37820098
232	0xbba2ed66	-0.0049721478
233	0x3f0c5fd1	0.54833704
234	0xbe8c38eb	-0.27387175
235	0x3e4fcc10	0.20292687
236	0xbd1c8b17	-0.038218584
237	0xbbb0d713	-0.0053967326
238	0xbe751d80	-0.23937035
239	0xbdbd4836	-0.09242289
240	0x3d271e79	0.040800545
241	0xbe9f17dc	-0.3107289
242	0xbd837fc7	-0.06420856
243	0xbe83a808	-0.25714135
244	0x3de1fca1	0.11034513
245	0xbd83936e	-0.06424604
246	0xbdb8a028	-0.090149224
247	0xbdf82399	-0.12116165
248	0x3e76f12e	0.2411544
249	0x3f33bfa0	0.7021427
250	0xbe8643cc	-0.262236
251	0xbd40a172	-0.047028966
252	0x3cadaf60	0.02120179
253	0x3e532269	0.20618595
254	0xbd8da738	-0.0691666
255	0x3eb03021	0.3441172

tcn.tcn.0.conv2.bias f4 [16]
0	0x3db5b6fa	0.08872791
1	0x3cb52b27	0.022115303
2	0x3d663686	0.05620434
3	0xbda27c71	-0.079338916
4	0x3def4fee	0.11685167
5	0x3d0cd0eb	0.034378927
6	0xbdca675e	-0.09882997
7	0xbd3c1edb	-0.045927864
8	0xbe6dd38a	-0.23225227
9	0xbe1aab88	-0.15104496
10	0x3cadadfd	0.021201128
11	0x3d79d344	0.060992494
12	0x3e2e7653	0.17037325
13	0xbd173bee	-0.036922388
14	0x3e1c6906	0.15274438
15	0x3d1f98c9	0.038964067

tcn.tcn.0.res_conv.weight f4 [16, 16, 1]
0	0x3cdca888	0.02693583
1	0xbdd26d94	-0.102748066
2	0x3e83850f	0.25687453
3	0x3b7f0a0a	0.0038915896
4	0x3e21da51	0.15805937
5	0x3e2284b9	0.15870942
6	0xbc86fee0	-0.016478956
7	0xbddebaad	-0.10875449
8	0xbe2d9a5e	-0.16953418
9	0x3ea2634d	0.31716385
10	0xbe81b58b	-0.2533382
11	0x3de39702	0.11112787
12	0xbd87f45a	-0.06638403
13	0x3e3da67b	0.18520539
14	0x3e1c35e1	0.15254928
15	0x3d3bd82e	0.045860462
16	0x3dab3bfb	0.0836105
17	0x3ea35351	0.31899503
18	0xbe0b36eb	-0.13595168
19	0x3e1ae176	0.15125069
20	0x3cd52646	0.026019227
21	0xbde2509f	-0.110505335
22	0x3dea7c0d	0.11449442
23	0xbefbca52	-0.49177796
24	0x3db3f956	0.087877914
25	0xbcbd8740	-0.023135781
26	0xbe432adf	-0.19059323
27	0xbbbac15c	-0.0056993198
28	0x3e8b4f0d	0.27208748
29	0xbde8b8fd	-0.11363409
30	0xbe490591	-0.1963103
31	0xbe67db87	-0.22642337
32	0x3e3abd0c	0.18236178
33	0xbe7bc75a	-0.24587765
34	0xbd8de906	-0.06929211
35	0x3e846562	0.258586
36	0x3d56927e	0.0523858
37	0xbe391a94	-0.18076545
38	0x3ecea543	0.4036046
39	0x3e3cd52b	0.18440692
40	0x3c2a6c8e	0.010401858
41	0x3ec5aa26	0.38606375
42	0x3e13596d	0.14389582
43	0xbe969a6b	-0.29414687
44	0xbeb654c7	-0.35611555
45	0x3e59fdcb	0.2128822
46	0x3e2673b4	0.16255075
47	0xbdc10eed	-0.09426675
48	0x3e84a95d	0.25910464
49	0xbe963816	-0.29339665
50	0x3dea206d	0.11431966
51	0xbe0078ae	-0.12546036
52	0xbd062e12	-0.03275878
53	0xbccadaba	-0.0247625
54	0xbcb4ca35	-0.022069076
55	0x3ec37c4f	0.38180777
56	0xbd8d69a7	-0.06904917
57	0x3df061a5	0.11737374
58	0x3e8879c5	0.26655403
59	0xbe54999a	-0.2076172
60	0x3d30cb6b	0.043162744
61	0x3ea15d63	0.3151656
62	0x3e3bda0b	0.18344896
63	0xbda2a994	-0.07942501
64	0xbe87993c	-0.26484096
65	0x3e8f7da1	0.28025535
66	0xbdec18e3	-0.11528184
67	0xbe89d8fd	-0.2692336
68	0x3c75fc8d	0.015013826
69	0x3d267dd4	0.040647343
70	0xbe8d5776	-0.2760579
71	0xbe4b7333	-0.19868164
72	0xbd0175d7	-0.03160652
73	0xbde4b611	-0.11167539
74	0x3e78d522	0.24300054
75	0xbd0dfd86	-0.034665607
76	0x3e3d1089	0.18463339
77	0x3dfa68eb	0.12227043
78	0xbd4a97b8	-0.049461097
79	0xbd6dc54b	-0.05804948
80	0x3d57ffc6	0.05273416
81	0x3e4d0908	0.20022976
82	0xbe71d853	-0.23617677
83	0xbdab5bfd	-0.08367155
84	0xbe316d2b	-0.173268
85	0x3e782293	0.24231939
86	0xbea47569	-0.32120827
87	0x3c3fdbe7	0.011710144
88	0x3d05daa9	0.032679234
89	0x3cacd8b1	0.02109942
90	0xbd3e6626	-0.046484135
91	0x3daa38fd	0.08311651
92	0x3d58ed98	0.052960962
93	0xbc3e36a5	-0.011609708
94	0x3d25ccdd	0.040478576
95	0x3e6389a9	0.22220482
96	0xbeb6e959	-0.35724905
97	0x3e9716e3	0.2950965
98	0x3deff330	0.11716306
99	0xbe412d3c	-0.18864912
100	0x3e542553	0.20717363
101	0x3dc247e9	0.09486372
102	0xbe963024	-0.29333603
103	0xbde87881	-0.11351109
104	0xbe2d5c8c	-0.16929835
105	0x3e5293da	0.20564213
106	0xbea55d35	-0.32297674
107	0x3d707dd3	0.058713745
108	0x3d9f7d17	0.07787531
109	0xbe9c1926	-0.30487937
110	0xbe07b9ce	-0.13254473
111	0x3e27bf21	0.16381504
112	0xbdf4f77f	-0.11961269
113	0x3d91edfe	0.071254715
114	0x3e78efdf	0.24310254
115	0x3eb396a1	0.35075858
116	0xbda18c00	-0.07888031
117	0x3e9763e0	0.29568386
118	0x3ee8c17c	0.45460117
119	0xbe72b7a8	-0.23702872
120	0xbc8ab15b	-0.016930273
121	0xbdd7621d	-0.105167605
122	0xbe886e05	-0.26646438
123	0xbd55d89a	-0.05220852
124	0xbbfecca9	-0.0077758622
125	0xbe8476fd	-0.2587203
126	0xbdab77d2	-0.08372463
127	0xbe241ecd	-0.16027375
128	0xbe3800c2	-0.17969039
129	0x3d499ef6	0.049223863
130	0x3e858f8d	0.26086083
131	0xbea83605	-0.32853714
132	0xbea1c99b	-0.31599125
133	0xbd0f2aee	-0.03495305
134	0xbe4e94c7	-0.20173942
135	0xbdf41b4b	-0.11919268
136	0xbd9e4606	-0.077282
137	0x3f621a27	0.88321155
138	0x3e70495c	0.23465484
139	0x3e0ce406	0.13758859
140	0xbe3ccc3e	-0.18437287
141	0xbe3e3d99	-0.18578185
142	0xbe2685a6	-0.1626192
143	0x3ecb6b2b	0.397302
144	0x3eacf7f7	0.33782932
145	0x3c2c0a34	0.0105004795
146	0x3e0827aa	0.1329638
147	0xbdf47401	-0.119361885
148	0xbdea0ed4	-0.114286095
149	0xbd892e73	-0.066983126
150	0x3e8fe487	0.2810404
151	0x3e192b69	0.14957966
152	0xbd98b8f0	-0.07457149
153	0x3e7a6f64	0.24456555
154	0x3da45a8d	0.08025084
155	0x3e51ba2e	0.20481178
156	0xbe51b893	-0.20480566
157	0x3e8956e1	0.26824096
158	0x3ceeee30	0.029166311
159	0xbe8730a2	-0.2640429
160	0x3d1498e6	0.036278628
161	0xbe269d35	-0.16270907
162	0xbdf31a49	-0.11870248
163	0xbe83b871	-0.25726655
164	0xbdc3f2ce	-0.09567796
165	0xbebba2c7	-0.36647627
166	0x3e307f4b	0.17236058
167	0x3e1a1492	0.1504691
168	0xbe6966ab	-0.22793071
169	0x3ec78646	0.3896963
170	0xbde8b466	-0.11362533
171	0xbef9ac50	-0.48764277
172	0xbd1329d3	-0.03592856
173	0xbe935778	-0.2877767
174	0x3e9ae30e	0.30251354
175	0xbe4ddaf5	-0.20103057
176	0xbedbdd41	-0.4294224
177	0xbe904856	-0.28180188
178	0xbe2c7fca	-0.16845623
179	0xbde4792f	-0.111559264
180	0x3d0fb7f2	0.035087533
181	0xbeac8eec	-0.3370279
182	0xbe882144	-0.2658788
183	0xbdee74e2	-0.116433874
184	0x3d4579cd	0.04821186
185	0xbe410d06	-0.18852624
186	0xbe7a4605	-0.24440773
187	0xbdc63b41	-0.096792705
188	0x3dbf3a25	0.09337262
189	0xb88ec0da	-6.807009e-05
190	0xbc9861e6	-0.01860137
191	0xbe2de252	-0.16980866
192	0x3d38ad67	0.045087244
193	0x3eb8e8ce	0.36115116
194	0x3d6664b0	0.056248367
195	0xbc35df5b	-0.011100615
196	0xbdafea37	-0.08589595
197	0xbda6811c	-0.081300944
198	0xbebb33fa	-0.36563092
199	0xbe12a553	-0.14320879
200	0x3e6563a0	0.22401285
201	0x3e0994d1	0.13435675
202	0xbe8f56c7	-0.27995893
203	0x3dc92bc7	0.09822803
204	0x3e038866	0.12845
205	0xbdf0a42b	-0.117500626
206	0xbd878c6c	-0.0661858
207	0x3e8351ef	0.25648448
208	0x3ea9a550	0.33133936
209	0x3ebb1b3a	0.3654421
210	0x3e327545	0.17427547
211	0x3ece7d44	0.40329945
212	0xbe265888	-0.1624471
213	0x3e8b42b5	0.2719933
214	0x3e45e6c6	0.19326314
215	0x3d0e4f4f	0.034743603
216	0x3e18f170	0.14935851
217	0xbcffa180	-0.031204939
218	0xbd848497	-0.06470602
219	0xbe918987	-0.28425238
220	0x3dc3ccc1	0.09560538
221	0xbe4cb52a	-0.19990984
222	0x3d92c5b9	0.07166619
223	0xbe404f5c	-0.18780273
224	0xbe2eb7a0	-0.17062235
225	0xbe3c4e40	-0.18389225
226	0x3ce34008	0.027740493
227	0x3d9da9f7	0.07698434
228	0xbe201eee	-0.15636799
229	0xbdb1d034	-0.0868229
230	0x3e4400dd	0.19140954
231	0xbcb1134c	-0.021615647
232	0xbe0eba59	-0.13938273
233	0x3da97f62	0.082762495
234	0xbdf0cf04	-0.11758235
235	0x3bb3277c	0.0054673534
236	0x3dfabec7	0.12243419
237	0x3db1ee36	0.08688013
238	0x3c6a0d92	0.014285462
239	0x3cd34aa9	0.025792437
240	0xbe898e37	-0.26866314
241	0xbd401dd1	-0.046903435
242	0xbd7fab6e	-0.062419347
243	0xbe4eb57d	-0.2018642
244	0x3e48a0ba	0.19592562
245	0x3dce3c0f	0.10070049
246	0xbe65c5dc	-0.22438759
247	0x3daef5c0	0.08542967
248	0xbdba01d1	-0.09082378
249	0xbca4f1bb	-0.020134797
250	0xbeb5d09e	-0.35510725
251	0xbd8272d2	-0.063695565
252	0x3e02e81f	0.1278386
253	0x3dab32ed	0.08359323
254	0xbe1e56e2	-0.1546283
255	0x3e057d7b	0.13036148

tcn.tcn.0.res_conv.bias f4 [16]
0	0x3e919ace	0.2843842
1	0xbdee9996	-0.11650388
2	0xbe6f4068	-0.23364413
3	0x3ce3ea0a	0.02782156
4	0xbe0b3931	-0.13596036
5	0xbe204aca	-0.1565353
6	0xbe529233	-0.20563583
7	0xbe282b23	-0.16422705
8	0xbd911bc2	-0.070853725
9	0x3e0c7664	0.13717037
10	0xbdc3f2a8	-0.095677674
11	0x3e0a7175	0.13519843
12	0xbd2b51ae	-0.041825943
13	0xbe96bc40	-0.29440498
14	0xbd2ca580	-0.04215002
15	0x3d626098	0.0552679

tcn.tcn.1.conv1.weight f4 [16, 16, 5]
0	0xbd369c77	-0.04458281
1	0xbe439ec7	-0.19103537
2	0xbe0873f9	-0.1332549
3	0xbe591253	-0.21198396
4	0xbe963bfa	-0.29342633
5	0x3e4c9c49	0.19981493
6	0xbecbd072	-0.3980747
7	0xbe4e65ac	-0.20155972
8	0xbdcef539	-0.10105366
9	0x3e462c02	0.19352725
10	0x3de391ab	0.11111768
11	0x3ed702de	0.41994375
12	0xbdc7a1e0	-0.09747672
13	0xbe9224e9	-0.28543785
14	0xbe6b1542	-0.22957328
15	0x3cf88201	0.030335428
16	0xbddaab30	-0.10677183
17	0xbdec6762	-0.11543156
18	0xbdbb3105	-0.09140209
19	0xbe8acd8b	-0.27109942
20	0x3c087067	0.00832758
21	0xbdd4175b	-0.10356017
22	0x3e61d3a0	0.22053385
23	0x3e92d59f	0.28678605
24	0x3e9b1ef3	0.3029705
25	0x3d8a52dd	0.06754086
26	0xbc524fff	-0.012836455
27	0x3e75f6f1	0.24019982
28	0x3bbd4e54	0.0057771597
29	0x3e8de189	0.27711132
30	0x3da906f0	0.08253276
31	0xbdabf1fc	-0.08395764
32	0x3e424754	0.18972522
33	0x3e9aedbb	0.302595
34	0x3ef93872	0.48675877
35	0xbdd06cc8	-0.101769984
36	0xbe488768	-0.19582903
37	0xbee3ed7f	-0.44517133
38	0xbed3e6fc	-0.41387165
39	0xbe30fa13	-0.17282896
40	0xbe35b329	-0.17744125
41	0x3e51c4f1	0.20485283
42	0x3e8a0889	0.26959637
43	0x3e37b7af	0.17941163
44	0x3e0b9549	0.13631167
45	0xbe05eac0	-0.13077831
46	0xbd3877a3	-0.04503597
47	0x3c8c3c2c	0.017118536
48	0xbdde1525	-0.10843877
49	0xbdd6b1a2	-0.104830995
50	0x3df7d9bd	0.12102077
51	0x3e5eb960	0.21750402
52	0xbdfd2021	-0.12359644
53	0xbe997eb7	-0.29979488
54	0xbe826a23	-0.254716
55	0x3e6347e6	0.22195396
56	0xbc981ae1	-0.018567504
57	0xbe99086e	-0.29889244
58	0x3dc6d9af	0.097094886
59	0xbbc5fc6a	-0.006042053
60	0x3a5749d6	0.00082126015
61	0x3e071044	0.13189799
62	0x3c2ea2b0	0.010658905
63	0x3d394760	0.045234084
64	0x3e2d6a88	0.1693517
65	0x3ecb9784	0.39764035
66	0x3c479ffa	0.0121841375
67	0xbe6668b3	-0.22500877
68	0xbe3a19f2	-0.1817396
69	0xbb8b143b	-0.004244355
70	0x3e4e743d	0.20161529
71	0x3dfc3501	0.12314797
72	0x3df755a2	0.1207688
73	0x3d1e3181	0.03862143
74	0xbd901870	-0.07035911
75	0x3f031020	0.5119648
76	0x3d5b3714	0.053519323
77	0x3d922072	0.07135095
78	0x3e7b0d57	0.24516807
79	0x3e390d94	0.18071586
80	0xbe3ad519	-0.18245353
81	0xbe3c7d83	-0.18407254
82	0xbd21a155	-0.0394605
83	0xbe20336a	-0.15644613
84	0xbe4aa838	-0.19790733
85	0xbe0ebba0	-0.13938761
86	0x3e3d06c9	0.1845962
87	0xbe00cb80	-0.12577629
88	0x3d7fea6f	0.062479433
89	0xbe99ac08	-0.30014062
90	0xbe9eeae9	-0.31038597
91	0xbd9605b4	-0.073253065
92	0xbe9a8d73	-0.30186042
93	0xbe38ffce	-0.18066332
94	0xbe5c8862	-0.21536401
95	0x3df00512	0.11719717
96	0xbe902049	-0.28149632
97	0xbeb43cb1	-0.35202554
98	0xbe536e8c	-0.20647639
99	0xbe049191	-0.12946154
100	0x3ebcfd17	0.36911842
101	0xbbd8a448	-0.0066113807
102	0xbdecda15	-0.11565033
103	0x3ddc917f	0.10769939
104	0x3e23c9ca	0.15994945
105	0x3dff41f9	0.12463755
106	0xbe8544a5	-0.26028934
107	0xbecfb88b	-0.40570483
108	0xbd8228f3	-0.06355467
109	0x3ee6c6ca	0.4507354
110	0x3d9b480d	0.07582102
111	0x3db42798	0.087966144
112	0x3e8c8fab	0.2745336
113	0x3ebbbf6c	0.3666948
114	0x3ebc0e54	0.36729681
115	0xbed9eaed	-0.42562047
116	0xbd7deddf	-0.06199443
117	0xbe6df080	-0.23236275
118	0xbdfcce6b	-0.123440586
119	0x3cf4d721	0.029887738
120	0xbe21306a	-0.15741125
121	0x3bc5d21f	0.0060370113
122	0xbec9b560	-0.3939619
123	0xbe4f6af0	-0.20255637
124	0x3e772e6d	0.24138804
125	0x3d2c0362	0.041995414
126	0xbd72f3b1	-0.059314433
127	0xbe246b63	-0.1605659
128	0xbd875550	-0.06608069
129	0xbd67e1a5	-0.056611676
130	0xbe4b4549	-0.19850649
131	0xbe555a71	-0.20835282
132	0x3e1ba7a2	0.15200666
133	0x3c3516cd	0.011052799
134	0xbd061176	-0.032731496
135	0x3e380955	0.1797231
136	0x3e8d2465	0.2756683
137	0x3ec0e83e	0.37677187
138	0x3deee220	0.11664224
139	0xbe3a50b0	-0.18194842
140	0xbdacd2d5	-0.084386505
141	0xbbaf4a48	-0.005349431
142	0x3ea36544	0.31913197
143	0xbdac1a1c	-0.084034175
144	0x3cbf1f3b	0.023330322
145	0xbe78dcbd	-0.24302955
146	0xbe2a3cd0	-0.1662476
147	0xbe51d2f1	-0.20490624
148	0xbe247e0a	-0.16063705
149	0xbd6dbb6c	-0.058040068
150	0xbca3c843	-0.019992953
151	0x3d89357a	0.06699653
152	0x3e7628c9	0.24038996
153	0xbdcc9a87	-0.09990411
154	0x3d053c0e	0.032527976
155	0x3d4ebbd5	0.0504721
156	0x3e3b244a	0.18275562
157	0x3dc86b56	0.09786098
158	0x3d9f4583	0.0777693
159	0x3d8cbfe9	0.068725415
160	0x3e2d8060	0.16943502
161	0x3d2f877a	0.04285381
162	0xbbec7b34	-0.0072168354
163	0x3e26df73	0.16296177
164	0xbe04c2c7	-0.12964927
165	0xbcecb7c5	-0.028896222
166	0xbe38bb5c	-0.18040222
167	0x3d3b015d	0.045655597
168	0xbd7de994	-0.061990336
169	0x3e76a9d9	0.24088229
170	0xbd8181cd	-0.06323586
171	0x3d975d74	0.07390872
172	0x3d43bebc	0.04778932
173	0xbe013e46	-0.12621412
174	0xbd9db141	-0.07699824
175	0xbe37d81c	-0.17953533
176	0xbde824ef	-0.113351695
177	0xbe2ba746	-0.16763029
178	0x3e46af99	0.19402923
179	0x3d646f61	0.05577028
180	0x3b6fe6aa	0.0036605992
181	0xbdc20959	-0.09474439
182	0xbe79b709	-0.24386229
183	0x3db056b6	0.08610289
184	0x3e2d024b	0.16895406
185	0xbe094df5	-0.13408644
186	0xbdd6b6b5	-0.10484067
187	0xbd6dd124	-0.05806078
188	0x3c140d3b	0.0090363575
189	0x3e56c882	0.20974925
190	0x3eb72606	0.35771197
191	0xbc23bdb6	-0.009993961
192	0x3d4f4e98	0.050612062
193	0xbdd0f0aa	-0.10202153
194	0xbc92bed4	-0.01791326
195	0xbdfafc44	-0.12255147
196	0x3df65150	0.12027228
197	0x3dd30ae1	0.10304809
198	0x3da5c238	0.08093685
199	0xbc643a26	-0.013929879
200	0x3e0e074a	0.13869968
201	0xbdd2f2af	-0.103001945
202	0xbe3fc665	-0.18728025
203	0xbdc17d16	-0.094476864
204	0x3e2190e7	0.15777932
205	0xbe16ca1e	-0.14725539
206	0x3d2ff78e	0.042960696
207	0xbe7326ab	-0.2374522
208	0xbe2fc967	-0.17166673
209	0x3e8690f9	0.2628248
210	0x3ea6b10b	0.32556948
211	0x3e46bef8	0.19408786
212	0x3cf9719e	0.030449685
213	0xbd783b89	-0.060603652
214	0xbeae216a	-0.34009868
215	0x3ea3d34d	0.31997147
216	0x3e098574	0.13429815
217	0x3d7ae870	0.061256826
218	0xbd9855a6	-0.07438211
219	0xbe49c285	-0.1970311
220	0x3e43fcae	0.19139358
221	0xbe015b9e	-0.12632605
222	0x3e051152	0.12994888
223	0x3d6834d2	0.056691
224	0xbda14e06	-0.0787621
225	0x39cfe074	0.00039649347
226	0xbdfcceed	-0.123441555
227	0x3dadf1a7	0.08493357
228	0x3b68b7de	0.0035509984
229	0xbd9f051c	-0.077646464
230	0x3e51da63	0.20493464
231	0xbcb10a30	-0.021611303
232	0x3ddd8406	0.10816197
233	0xbd67e6f1	-0.056616727
234	0xbe24fab4	-0.1611126
235	0x3eb3669c	0.35039222
236	0xbdbaffbf	-0.09130811
237	0x3db999c5	0.09062532
238	0x3d63030e	0.055422835
239	0xbe55db43	-0.20884423
240	0x3c335007	0.010944373
241	0xbdd9c85a	-0.10633917
242	0x3e48235c	0.19544739
243	0x3e4b3477	0.19844232
244	0xbe63254c	-0.22182196
245	0x3c83ea52	0.016102944
246	0x3cb04daa	0.021521408
247	0xbde90702	-0.1137829
248	0xbe048bc0	-0.12943935
249	0x3db4fd1d	0.0883734
250	0xbdd68b03	-0.10475733
251	0x3e131cbd	0.14366432
252	0x3d4e6e63	0.05039824
253	0xbe4ab6f6	-0.19796357
254	0xbd0dadd1	-0.034589592
255	0x3cae54dc	0.021280698

tcn.tcn.1.conv1.bias f4 [16]
0	0xbe53d929	-0.20688309
1	0xbe8b0ec5	-0.27159706
2	0x3db160fb	0.08661076
3	0x3e0331b8	0.12811935
4	0xbea0e7ed	-0.31426945
5	0xbe418a21	-0.18900348
6	0x3da514a8	0.080605805
7	0x3d94425a	0.07239218
8	0xbd4958bf	-0.0491569
9	0xbdede737	-0.11616366
10	0xbe5ded88	-0.21672642
11	0x3ddda442	0.10822345
12	0xbe7adf55	-0.24499257
13	0x3e5ca14d	0.21545906
14	0xbd91fe50	-0.071285844
15	0x3e13442e	0.14381477
